STPINN-RANS/sub_data/sub_write/00NS_model_train.pt (torch, 100283 bytes, 22 tensors)

base.0linear.weight f4 [50, 3]
-0.27589008 -0.03778255 0.110232204 -0.17811446 0.1852583 0.13189667 -0.36484575 -0.31278744
0.015573637 0.22460362 0.03837593 0.024548912 -0.026904365 0.18532416 -0.023717728 0.1645085
-0.13840537 -0.14973418 -0.0025429649 0.0013894562 -0.0007436064 0.23229696 0.019312827 -0.032868396
0.036837965 -0.0747087 -0.063128494 0.13068989 0.104776524 -0.3734517 -0.2413858 0.030444039
-0.09273621 -0.23288786 0.07018249 0.10546481 -0.22503096 0.07168049 -0.113602504 0.046869162
0.10700477 0.22071494 0.031829294 0.27453685 -0.3282449 -0.17274964 -0.3275001 0.16541918
0.0012916765 -0.0001329274 0.0021038488 0.2707205 -0.32779104 -0.16404703 0.053151026 -0.059575807
-0.23973066 0.12668967 0.0053684395 -0.31939957 0.17244524 0.1948931 -0.37852317 -0.043150034
-0.04218755 -0.05233546 0.03087272 -0.016930252 -0.17202784 -0.05978496 0.17482574 -0.33412343
0.005649041 0.0056395708 -0.019034624 -0.08356831 -0.101592205 0.14745171 -0.3016111 0.04235029
0.13548778 -0.21332978 -0.02859693 0.14845726 0.08372175 -0.121714756 -0.2845747 0.2715036
-0.15128732 -0.32977962 0.17032552 0.0152777815 0.18994997 -0.22355008 0.033088006 0.31716424
-0.22120054 -0.10175209 0.28522456 -0.15503415 0.41278794 -0.1847677 0.15217228 -0.005370599
-0.08761398 0.0058981464 0.27202156 -0.028235076 0.042562135 0.22068454 -0.33085006 0.20954655
0.60899097 -0.28913647 0.04618026 -0.2968667 0.030029211 -0.0008734908 -0.0048915255 -0.0034796717
0.037935875 0.25349176 -0.12934878 -0.14880048 0.17216663 0.06319442 0.12109356 -0.09938755
-0.28187677 -0.45867863 0.035121918 0.24803573 0.1082134 -0.14563237 0.04605911 0.21829678
-0.18813765 -0.17111142 -0.00014792192 -0.0010840283 0.00040025968 0.09082447 -0.045851067 0.054505043
-0.171161 0.22734223 -0.16611382 -0.048023354 0.1527082 -0.17837512
00000000: 7741 8dbe e0c1 1abd 6cc1 e13d a363 36be
00000010: 5ab4 3d3e ec0f 073e 10cd babe ad25 a0be
00000020: 9128 7f3c 7efe 653e 1430 1d3d cd1a c93c
00000030: 8b66 dcbc 9ec5 3d3e ae4b c2bc eb74 283e
00000040: 23ba 0dbe eb53 19be dfa7 26bb 6a1e b63a
00000050: 95ee 42ba 41df 6d3e ef35 9e3c 03a1 06bd
00000060: 68e3 163d e000 99bd 8349 81bd 92d3 053e
00000070: 1395 d63d 1035 bfbe d72d 77be c765 f93c
00000080: 7bec bdbd 287a 6ebe d6bb 8f3d effd d73d
00000090: 846e 66be 39cd 923d 6ea8 e8bd e1f9 3f3d
000000a0: 5125 db3d 1903 623e 6f5f 023d 1890 8c3e
000000b0: b70f a8be 48e5 30be 18ae a7be a563 293e
000000c0: 794d a93a 6d62 0bb9 bae0 093b e19b 8a3e
000000d0: 3ad4 a7be f2fb 27be e4b4 593d c305 74bd
000000e0: f47b 75be f0ba 013e bce9 af3b 5788 a3be
000000f0: 7c95 303e 0f92 473e cacd c1be 17be 30bd
00000100: dacc 2cbd b55d 56bd c9e8 fc3c 50b1 8abc
00000110: 1128 30be 13e1 74bd 8505 333e 3a12 abbe
00000120: 971b b93b 26cc b83b 80ee 9bbc dd25 abbd
00000130: 930f d0bd 95fd 163e c56c 9abe 7f77 2d3d
00000140: 4fbd 0a3e 1f73 5abe 1c44 eabc 2e05 183e
00000150: 4f76 ab3d 9645 f9bd c6b3 91be 8502 8b3e
00000160: 10eb 1abe e0d8 a8be d069 2e3e a94f 7a3c
00000170: 3f82 423e 50ea 64be 4a87 073d 5a63 a23e
00000180: 6582 62be 6663 d0bd f408 923e 46c1 1ebe
00000190: f158 d33e be33 3dbe 0dd3 1b3e dafb afbb
000001a0: f56e b3bd 3d45 c13b 6946 8b3e 3f4d e7bc
000001b0: a255 2e3d 21fb 613e 2e65 a9be 5f93 563e
000001c0: d5e6 1b3f b209 94be 8327 3d3d e9fe 97be
000001d0: d2ff f53c fafa 64ba 1749 a0bb 340b 64bb
000001e0: a662 1b3d acc9 813e 0274 04be 275f 18be
000001f0: 734c 303e 136c 813d e6ff f73d b38b cbbd
00000200: 2752 90be edd7 eabe 00dc 0f3d 14fd 7d3e
00000210: fd9e dd3d a720 15be 7aa8 3c3d 3189 5f3e
00000220: 28a7 40be d537 2fbe 7d1b 1bb9 f415 8eba
00000230: f2d9 d139 2e02 ba3d 54ce 3bbd ae40 5f3d
00000240: d444 2fbe 67cc 683e be19 2abe 23b4 44bd
00000250: 8a5f 1c3e f8a7 36be

base.0linear.bias f4 [50]
0.120452836 -0.112208955 0.27524295 -0.16339576 -0.09987259 0.07390767 -0.0010566342 -0.13768531
0.0815435 0.04451606 0.16092053 0.022765957 0.12898515 -0.19029164 -0.016300043 0.15844342
-0.0007471267 0.19696417 0.12873839 -0.009677376 0.04687027 0.10568817 0.11209081 0.10450371
-0.0037146716 0.11608809 -0.06390777 0.0028843754 0.1884542 -0.013945429 -0.16451922 -0.061736792
-0.026004149 -0.17821701 -0.033796232 -0.21102475 0.010423755 -0.15996046 0.20837146 0.006270223
-0.13710523 -0.13630448 0.10508397 0.09124629 0.06249476 0.14178105 0.0010553504 -0.041499518
-0.0045216144 0.04067207
00000000: faaf f63d cfcd e5bd a5ec 8c3e 3851 27be
00000010: 008a ccbd e85c 973d c37e 8aba 61fd 0cbe
00000020: 4700 a73d 7956 363d 5ac8 243e ac7f ba3c
00000030: af14 043e d0db 42be ab87 85bc fe3e 223e
00000040: d3da 43ba fab0 493e ffd3 033e db8d 1ebc
00000050: 0afb 3f3d 0a73 d83d de8f e53d 0b06 d63d
00000060: d971 73bb 98bf ed3d 14e2 82bd ca07 3d3b
00000070: 23fa 403e 5e7b 64bc ba77 28be b8df 7cbd
00000080: a706 d5bc 857e 36be eb6d 0abd df16 58be
00000090: 66c8 2a3c adcc 23be 545f 553e 7176 cd3b
000000a0: 5065 0cbe 6793 0bbe 4436 d73d 56df ba3d
000000b0: 81fa 7f3d 0d2f 113e af53 8a3a 66fb 29bd
000000c0: 0d2a 94bb c297 263d

base.1linear.weight f4 [50, 50]
-0.15915596 -0.010702127 0.13236032 -0.08181209 0.12652645 0.025674269 -0.005314539 0.093747206
0.1572245 -0.10504094 0.039212096 -0.16462974 -0.26561743 0.049736306 0.08727204 0.042635657
0.10785014 0.023864444 -0.059859686 0.20731984 0.023260785 0.21656626 0.24299975 -0.12856483
0.011044405 0.028140938 -0.18681203 0.10340708 -0.15468164 -0.11350088 -0.08888444 -0.12527855
0.18784387 -0.27548176 -0.16993889 0.018692126 0.087717175 0.23456596 -0.18441479 0.016230369
0.08410099 -0.13449717 -0.119268626 0.1974584 0.033326603 -0.026852084 0.25642335 -0.21348546
0.080616474 -0.07670562 -0.049340308 0.32994318 -0.44067857 0.17968242 -0.16572578 -0.10706222
0.0014999739 0.004997896 -0.16929239 -0.023150662 -0.029025488 -0.005295793 -0.20670152 0.03451151
0.010617926 -0.11493697 0.04088129 -0.088396154 0.24252054 -0.15411839 -0.12103467 -0.053958762
-0.16348815 -0.0673887 -7.1141614e-05 -0.19440694 0.07552395 -0.1941966 0.018907603 -0.025372596
0.13767716 0.080202125 -0.28123343 0.18793704 0.123520724 0.40171883 0.07181358 0.22951417
-0.26469785 0.2427036 0.19517186 0.14358234 0.10783017 -0.2901035 -0.1936944 0.009291528
0.079090975 -0.21452898 0.09205225 -0.06576961 -0.23906754 0.04765476 -0.11354899 0.23151396
0.090735324 -0.12288249 0.09748161 0.12385244 0.063292734 -0.053290743 -0.29402372 0.20900868
-0.14348598 0.20672221 0.076623514 -0.008826847 0.058910787 0.22291532 -0.35378534 0.07559232
-0.13648579 0.14026216 -0.02402397 -0.13323005 -0.07836177 0.004979332 -0.1241248 -0.32932046
-0.15862858 0.09049448 0.09388794 -0.37144235 -0.2309047 -0.2014908 0.13533796 0.07530514
-0.12132382 0.001695363 -0.06642206 -0.00075990503 -0.096328735 -0.21564518 -0.18936989 -0.38470522
0.1470346 0.13251728 -0.17157705 0.2289497 -0.18701576 -0.114432916 -0.0423796 -0.18698993
0.016611146 -0.0056592748 -0.08565368 -0.117720984 0.023303261 -0.033504046 0.05971665 0.10386504
0.029189453 0.13143392 -0.043926768 -0.115063444 0.118400365 -0.27633 -0.1787506 -0.050558828
0.10456883 -0.085874125 -0.3289629 -0.012497549 0.14110892 -0.05227245 0.16132233 -0.25937185
0.0093209315 0.05958152 -0.25813165 -0.21079789 -0.047622144 -0.020405047 -0.038968343 0.096865416
-0.10813232 0.03629535 0.003302936 0.09984984 0.037242126 0.067210965 0.08583475 -0.19007674
0.060885884 -0.006418008 -0.081977576 -0.029199861 -0.05314496 -0.11711102 -0.121285565 -0.17818676
0.32207265 -0.0453344 -0.15616754 0.15749583 0.45693985 -0.12793623 -0.14008369 -0.07150575
0.16454332 -0.022236202 -0.0362932 -0.044731874 0.055581048 -0.0960294 0.08755445 -0.080295816
0.26269695 0.08635101 0.04175455 -0.060751356 -0.017336741 0.0429308 0.09544084 -0.14708003
0.34709775 -0.26685566 0.21245736 0.069699116 0.039651513 0.17437746 0.16042283 -0.006524908
0.10305485 -0.109357655 0.21384439 0.17667197 0.039209913 0.061647035 0.2975472 -0.05038982
-0.23640877 0.07180358 0.029139156 0.18439554 -0.3593082 0.21674113 -0.10628119 0.14913028
-0.11858872 0.058385096 -0.013742722 -0.22952318 0.08821909 0.09682346 0.07285803 -0.2731343
00000000: c8f9 22be f957 2fbc 7789 073e 198d a7bd
00000010: 2690 013e d852 d23c 9625 aebb 89fe bf3d
00000020: 76ff 203e b41f d7bd dd9c 203d b394 28be
00000030: 02ff 87be 4cb8 4b3d afbb b23d baa2 2e3d
00000040: 89e0 dc3d 5e7f c33c 6e2f 75bd a74b 543e
00000050: 678d be3c 8cc3 5d3e edd4 783e 80a6 03be
00000060: 98f3 343c d387 e63c a74b 3fbe 17c7 d33d
00000070: dd64 1ebe 2673 e8bd 0c09 b6bd 0549 00be
00000080: 255a 403e f20b 8dbe 7604 2ebe 3b20 993c
00000090: 10a5 b33d 0f32 703e 3bd7 3cbe 8df5 843c
000000a0: 243d ac3d a0b9 09be 1c43 f4bd 8932 4a3e
000000b0: 7a81 083d e7f8 dbbc ec49 833e ef9b 5abe
000000c0: 401a a53d d617 9dbd 1019 4abd 50ee a83e
000000d0: 9fa0 e1be abfe 373e 05b4 29be 7043 dbbd
000000e0: c69a c43a 64c5 a33b fc5a 2dbe 75a6 bdbc
000000f0: dcc6 edbc 5588 adbb 90a9 53be f15b 0d3d
00000100: cff6 2d3c 1364 ebbd 2473 273d 0b09 b5bd
00000110: 4e57 783e 36d1 1dbe 06e1 f7bd dd03 5dbd
00000120: 7069 27be 1603 8abd dd31 95b8 9d12 47be
00000130: 4dac 9a3d 79db 46be 1ee4 9a3c 31da cfbc
00000140: 3efb 0c3e 0341 a43d d4fd 8fbe 9172 403e
00000150: 6ff8 fc3d 17ae cd3e 0013 933d c305 6b3e
00000160: 7a86 87be 4b87 783e 22db 473e 4007 133e
00000170: 10d6 dc3d 7288 94be d357 46be 7e3b 183c
00000180: 73fa a13d 7cad 5bbe e485 bc3d 38b2 86bd
00000190: 1fce 74be a331 433d 5f8c e8bd ff11 6d3e
000001a0: 71d3 b93d d1a9 fbbd 70a4 c73d 59a6 fd3d
000001b0: 9f9f 813d 6547 5abd 478a 96be 5f06 563e
000001c0: fded 12be fdae 533e caec 9c3d 7b9e 10bc
000001d0: 704c 713d ea43 643e 5a23 b5be 25d0 9a3d
000001e0: eec2 0bbe e2a0 0f3e ebcd c4bc 756d 08be
000001f0: 237c a0bd aa29 a33b 2535 febd b19c a8be
00000200: 886f 22be 2c55 b93d 5248 c03d b12d bebe
00000210: 4872 6cbe 9b53 4ebe 0996 0a3e 9539 9a3d
00000220: 9f78 f8bd f136 de3a 4a08 88bd 5d34 47ba
00000230: 0048 c5bd 17d2 5cbe 2eea 41be 15f8 c4be
00000240: 3d90 163e 9cb2 073e e5b1 2fbe ca71 6a3e
00000250: 0f81 3fbe ce5b eabd 3b96 2dbd 4a7a 3fbe
00000260: 1914 883c 7071 b9bb 326b afbd b317 f1bd
00000270: 7be6 be3c 8a3b 09bd 7299 743d 32b7 d43d
00000280: b81e ef3c 9d96 063e 8eec 33bd 62a6 ebbd
00000290: e47b f23d 207b 8dbe 660a 37be c616 4fbd
000002a0: 2f28 d63d c6de afbd d36d a8be 85c2 4cbc
000002b0: db7e 103e a31b 56bd ae31 253e 63cc 84be
000002c0: d2b6 183c c00b 743d d529 84be 67db 57be
000002d0: 700f 43bd 7c28 a7bc 459d 1fbd 6061 c63d
000002e0: 7a74 ddbd 6faa 143d 1276 583b 137e cc3d
000002f0: 338b 183d e7a5 893d 21ca af3d 7aa3 42be
00000300: 7a63 793d 274e d2bb dce3 a7bd 8c34 efbc
00000310: 88ae 59bd e7d7 efbd 9164 f8bd 9776 36be
00000320: b5e6 a43e 90b0 39bd 62ea 1fbe 9646 213e
00000330: 05f4 e93e b701 03be 1972 0fbe 9b71 92bd
00000340: 0b7e 283e b228 b6bc 2ea8 14bd c538 37bd
00000350: f4a8 633d 10ab c4bd bf4f b33d 2272 a4bd
00000360: 3780 863e ccd8 b03d d206 2b3d 6ad6 78bd
00000370: c805 8ebc 35d8 2f3d 7d76 c33d 269c 16be
00000380: ccb6 b13e 4ea1 88be 6c8e 593e 69be 8e3d
00000390: a069 223d 0190 323e e245 243e e5ce d5bb
000003a0: 6c0e d33d e8f6 dfbd 06fa 5a3e 7fe9 343e
000003b0: 939a 203d 9a81 7c3d 1b58 983e 8e65 4ebd
000003c0: 2415 72be c10d 933d 3db5 ee3c 2fd2 3c3e
000003d0: 3ff7 b7be 63f1 5d3e f4a9 d9bd 9cb5 183e
000003e0: a5de f2bd 3625 6f3d 2729 61bc 2008 6bbe
000003f0: 36ac b43d 614b c63d 9736 953d 42d8 8bbe

base.1linear.bias f4 [50]
-0.07610356 -0.07280122 0.03261508 -0.033460747 0.013642267 -0.0038662085 0.124272764 -0.07221678
0.06016683 0.026582308 0.09514084 -0.10363743 -0.014666535 -0.114871286 0.14030512 0.052595474
0.035172004 0.11740259 0.1419419 0.19036041 -0.14435942 -0.060795635 0.052565206 -0.012727084
0.03313846 0.16519755 -0.0005658212 -0.036508474 0.012634257 0.1250543 0.11542307 0.05422949
0.14303169 -0.023411617 0.109133214 0.14123228 -0.0012969752 -0.07861848 -0.005969668 0.0399905
0.0011732238 0.10674364 0.116750196 -0.09975056 -0.14678037 0.083801985 0.08936898 0.029957077
0.11972133 0.13966623
00000000: 2fdc 9bbd ce18 95bd 6497 053d 230e 09bd
00000010: d183 5f3c 3760 7dbb b882 fe3d 64e6 93bd
00000020: 7e71 763d 24c3 d93c 33d9 c23d dc3f d4bd
00000030: e84b 70bc a341 ebbd 25ac 0f3e 5a6e 573d
00000040: 8510 103d c570 f03d 3859 113e d7ed 423e
00000050: f5d2 13be d804 79bd 9d4e 573d 4285 50bc
00000060: 32bc 073d 8c29 293e 9e53 14ba e989 15bd
00000070: eaff 4e3c 3c0e 003e ee62 ec3d be1f 5e3d
00000080: e676 123e b8c9 bfbc 3c81 df3d 329f 103e
00000090: 44ff a9ba ba02 a1bd 349d c3bb 14cd 233d
000000a0: dcc6 993a 699c da3d ba1a ef3d 064a ccbd
000000b0: 984d 16be 60a0 ab3d 1507 b73d 8b68 f53c
000000c0: 7530 f53d aa04 0f3e

base.2linear.weight f4 [50, 50]
-0.06931248 -0.09834456 -0.07236912 0.03389719 0.1924756 0.21494026 0.095277786 0.05503396
-0.24365628 -0.06695702 -0.17753933 0.065534525 -0.052695613 0.31879127 0.22229251 -0.12335999
0.08178802 -0.07220599 0.15622753 0.123559296 0.05209122 0.113450296 -0.088895135 0.018938007
0.019485364 -0.1414136 -0.04220874 0.00060227787 0.02473335 -0.1918754 0.21856506 0.07299507
0.001095768 -0.064648114 -0.026713206 0.027395818 0.004161745 -0.11887541 0.19806929 0.103445254
-0.031518996 0.16233116 -0.18456392 -0.04633882 -0.13257228 0.25198156 0.13645792 -0.05626369
0.17827845 0.020456973 -0.096611604 0.16495526 -0.123429105 0.11169579 0.07012467 0.091908075
0.375399 -0.03335577 0.07016675 0.04808527 0.06294361 -0.03918461 0.059412178 0.025622327
-0.1806909 0.005718963 0.03190313 -0.33897507 0.20069797 -0.19440186 -0.17070682 -0.1474706
0.008452412 -0.044460088 -0.034600694 -0.14726672 -0.03412259 -0.038018487 -0.028185608 0.015646199
-0.30780366 -0.04140116 -0.26702103 0.004205557 0.20520213 -0.20723292 -0.011667271 -0.037882786
-0.00025293272 0.067085385 0.0042102416 -0.27118176 -0.08190678 0.15874708 0.16888382 -0.0018048143
-0.03842255 0.012035963 0.14769524 -0.16998479 -0.03058075 -0.022753796 0.060321063 -0.03862863
-0.049763307 -0.1483247 -0.06097561 0.029656041 -0.122379385 0.014465599 0.27925608 0.094848916
-0.121745944 -0.011368348 0.009157859 -0.17680456 0.0014117203 -0.07628181 0.12300378 -0.13969232
0.032191318 0.0059007923 -0.0006780523 0.031663284 -0.033158723 -0.032905813 0.0006844289 -0.029588308
0.071533255 0.14311624 0.054200113 -0.059133254 0.15979175 -0.01079364 0.21429247 -0.1459631
0.01939783 -0.065299 -0.18719083 -0.01936401 -0.041063074 -0.036587037 0.12839246 0.21102227
0.07880723 0.044074092 0.14793538 0.019044954 -0.3721858 0.024651982 -0.055818796 0.10831757
0.055451825 -0.26293957 0.074627124 0.12567744 -0.23138209 0.09507552 0.080367565 -0.0077030472
-0.08340441 -0.13157415 0.037776478 0.30554742 -0.07922504 0.15658657 -0.050442763 -0.25592378
-0.13230804 -0.055443265 -0.06043043 -0.2367278 -0.006750027 0.09218608 0.037694953 0.08733692
0.018903485 0.02409909 -0.0051783076 0.111264944 0.03874872 -0.12432139 -0.17660938 0.06967706
-0.21051991 -0.20983255 0.11155818 -0.037886783 -0.19296786 -0.14308015 0.056703072 -0.10176868
-0.023498053 0.20025034 -0.008262413 0.06802013 -0.07238267 -0.040073894 -0.06976631 -0.32894146
-0.12780471 0.06681731 0.25165245 0.0187814 0.045908626 -0.03139599 -0.09666055 0.06453531
-0.09601035 -0.021301879 0.20651841 -0.025620988 0.015307009 0.0011352162 -0.19960594 0.12058399
0.032741994 -0.30852285 -0.045289937 -0.18619114 -0.009559335 -0.030269988 -0.18787104 -0.016076675
-0.005746189 0.20064557 -0.046258938 -0.024134379 -0.008845337 -0.38944522 -0.029082086 0.15511191
-0.16047996 -0.070248894 -0.06618015 0.024031838 -0.08197243 -0.085844815 0.0026809294 0.07985885
0.035702586 -0.085951544 -0.18707557 0.12374133 0.21366626 -0.044888206 0.088984065 -0.046821654
0.10159284 -0.38902035 0.020399788 0.26155835 0.18123595 -0.13464096 0.07756315 -0.118516706
00000000: b4f3 8dbd df68 c9bd 4336 94bd c8d7 0a3d
00000010: 5318 453e 4d19 5c3e 0021 c33d 4a6b 613d
00000020: 0881 79be c320 89bd dfcc 35be f736 863d
00000030: 5bd7 57bd 9c38 a33e a6a0 633e 2aa4 fcbd
00000040: 7a80 a73d bce0 93bd 1cfa 1f3e a80c fd3d
00000050: 9a5d 553d a158 e83d a70e b6bd e123 9b3c
00000060: c59f 9f3c bace 10be 12e3 2cbd 2fe2 1d3a
00000070: 989d ca3c fc7a 44be 85cf 5f3e 707e 953d
00000080: df9f 8f3a 3b66 84bd a7d5 dabc 326d e03c
00000090: 3f5f 883b f374 f3bd add2 4a3e 1bdb d33d
000000a0: 101a 01bd 243a 263e 53fe 3cbe c6cd 3dbd
000000b0: 07c1 07be ba03 813e a0bb 0b3e c174 66bd
000000c0: a08e 363e 6295 a73c 4edc c5bd 08ea 283e
000000d0: 66c8 fcbd c3c0 e43d 869d 8f3d 4d3a bc3d
000000e0: 4c34 c03e 0fa0 08bd 96b3 8f3d 0ff5 443d
000000f0: 94e8 803d 0b80 20bd 2f5a 733d eae5 d13c
00000100: 0907 39be 2466 bb3b dbac 023d 248e adbe
00000110: c583 4d3e 4811 47be c5cd 2ebe 8802 17be
00000120: fc7b 0a3c c81b 36bd 75b9 0dbd 16cd 16be
00000130: 21c4 0bbd 46b9 1bbd 81e5 e6bc 752c 803c
00000140: 7198 9dbe 4394 29bd fbb6 88be c5ce 893b
00000150: 8220 523e de34 54be 1528 3fbc fb2a 1bbd
00000160: 0e9c 84b9 1064 893d 11f6 893b 56d8 8abe
00000170: bebe a7bd 988e 223e e1ef 2c3e 858f ecba
00000180: f760 1dbd 7d32 453c 6c3d 173e 7e10 2ebe
00000190: 7b84 fabc 2b66 babc 3813 773d 0e39 1ebd
000001a0: 9cd4 4bbd 6ee2 17be 90c1 79bd 3af1 f23c
000001b0: 0ba2 fabd 1f01 6d3c a7fa 8e3e 2640 c23d
000001c0: f055 f9bd 4f42 3abc d80a 163c 410c 35be
000001d0: 7909 b93a a339 9cbd 68e9 fb3d 810b 0fbe
000001e0: 0bdb 033d 6f5b c13b 52bf 31ba 5cb1 013d
000001f0: 71d1 07bd 3fc8 06bd 3f6b 333a 2e63 f2bc
00000200: 0780 923d 108d 123e f000 5e3d b635 72bd
00000210: 73a0 233e cfd7 30bc 7c6f 5b3e 5a77 15be
00000220: 33e8 9e3c 7bbb 85bd f4ae 3fbe 46a1 9ebc
00000230: c131 28bd 4adc 15bd 5079 033e 3916 583e
00000240: af65 a13d 0987 343d 5f7c 173e 2a04 9c3c
00000250: 238f bebe f4f2 c93c 40a2 64bd 9ad5 dd3d
00000260: 7421 633d 04a0 86be 1bd6 983d 96b1 003e
00000270: 6def 6cbe f4b6 c23d c097 a43d d869 fcbb
00000280: eecf aabd 60bb 06be 82bb 1a3d b670 9c3e
00000290: bd40 a2bd 3b58 203e 129d 4ebd 7108 83be
000002a0: c27b 07be 7a18 63bd e685 77bd c668 72be
000002b0: 552f ddbb 0ecc bc3d 0666 1a3d b3dd b23d
000002c0: 7bdb 9a3c 746b c53c cbae a9bb e0de e33d
000002d0: fab6 1e3d 379c febd 17d9 34be d9b2 8e3d
000002e0: 8892 57be 58de 56be 9d78 e43d 2c2f 1bbd
000002f0: 5e99 45be 9a83 12be 7b41 683d 196c d0bd
00000300: fd7e c0bc 6d0e 4d3e 125f 07bc 234e 8b3d
00000310: 5e3d 94bd 8624 24bd a4e1 8ebd 046b a8be
00000320: 3ddf 02be 84d7 883d 97d8 803e 73db 993c
00000330: af0a 3c3d 1599 00bd f7f5 c5bd 172b 843d
00000340: 13a1 c4bd 4781 aebc 9079 533e 1be3 d1bc
00000350: 40ca 7a3c 89cb 943a 8065 4cbe bdf4 f63d
00000360: 781c 063d b5f6 9dbe f181 39bd e4a8 3ebe
00000370: c29e 1cbc c4f8 f7bc 4461 40be 3bb3 83bc
00000380: 874a bcbb 0876 4d3e 037a 3dbd 76b5 c5bc
00000390: 08ec 10bc 5d65 c7be 8e3d eebc a8d5 1e3e
000003a0: dc54 24be a7de 8fbd 7589 87bd 6bde c43c
000003b0: 29e1 a7bd 68cf afbd 88b2 2f3b 098d a33d
000003c0: e03c 123d 5d07 b0bd bd90 3fbe 186c fd3d
000003d0: 54cb 5a3e b2dc 37bd 473d b63d 10c8 3fbd
000003e0: e80f d03d ad2d c7be 751d a73c faea 853e
000003f0: eb95 393e 52df 09be 6ed9 9e3d e3b8 f2bd

base.2linear.bias f4 [50]
0.11067506 -0.07099085 -0.0021569394 -0.09088222 -0.018875808 -0.12954888 0.04316444 -0.046073034
-0.326076 0.055149402 -0.087701775 -0.029030187 0.055686586 -0.08621478 0.011943909 -0.12291216
-0.11672971 0.107050605 0.064044654 -0.054567475 0.06312333 0.093195796 0.06386938 -0.014265079
0.042945765 -0.04950023 -0.09760419 -0.04139275 0.09238582 0.037225086 0.16795059 0.04085214
0.08078203 -0.053358614 -0.13686503 -0.06524631 0.07772861 -0.023370694 0.14303719 0.11106989
0.11429487 -0.030995633 0.0027095964 -0.033524156 -0.0616106 -0.12147883 -0.09559184 0.21085335
0.09117349 -0.07479433
00000000: 9ba9 e23d a763 91bd 705b 0dbb 7520 babd
00000010: 70a1 9abc 76a8 04be 32cd 303d 14b7 3cbd
00000020: 6ff3 a6be 57e4 613d fd9c b3bd b7d0 edbc
00000030: 9e17 643d 6091 b0bd 63b0 433c 5fb9 fbbd
00000040: fc0f efbd 593d db3d d829 833d 2582 5fbd
00000050: ce46 813d 70dd be3d f3cd 823d 14b8 69bc
00000060: e6e7 2f3d c1c0 4abd b5e4 c7bd 728b 29bd
00000070: c734 bd3d 5579 183d 3dfb 2b3e 9354 273d
00000080: 0d71 a53d 908e 5abd 5926 0cbe db9f 85bd
00000090: 2d30 9f3d e673 bfbc 5778 123e 9c78 e33d
000000a0: 6e13 ea3d 8eea fdbc 7c93 313b a050 09bd
000000b0: 665b 7cbd e5c9 f8bd a8c5 c3bd f1e9 573e
000000c0: 2bb9 ba3d c52d 99bd

base.3linear.weight f4 [50, 50]
0.1916504 -0.33327803 0.17914592 -0.15373321 -0.20773338 -0.2985948 -0.11926792 -0.21997362
0.04526123 0.009174906 -0.11805263 -0.013841629 0.013827067 -0.01831169 -0.36173677 -0.08007066
0.064984106 0.18547425 -0.025507478 -0.01635485 0.3013771 0.097741924 -0.087135576 -0.1639666
0.13012426 0.03865786 0.050344806 0.02796936 0.06969826 -0.037743818 0.12337794 -0.09700844
0.10197033 -0.12719683 -0.09478599 -0.21673593 0.34314373 0.03885937 -0.24613614 0.11487305
0.17421214 0.09806563 -0.17875776 -0.14140911 -0.14383863 -0.08722741 -0.005841154 0.0705634
0.11446581 0.012421761 0.08773604 -0.1989816 -0.105183326 -0.048857845 0.009503119 -0.07054347
0.13244149 0.30632535 -0.18654265 0.122330576 -0.0030842142 -0.021964218 -0.09405496 0.032749727
0.0807405 -0.16999374 -0.18350407 -0.005603954 0.13801871 -0.012850796 0.3405391 0.23873632
0.019975085 -0.13214357 -0.077680774 0.11555434 0.09471339 -0.01162492 0.075075515 0.092264526
0.08629382 -0.09781972 0.27701217 -0.09957414 -0.17819135 0.028497355 0.07185857 0.08535216
0.1921362 -0.15774173 0.34071648 0.08883778 0.27064058 0.5250723 -0.08778617 -0.14264113
-0.1070014 0.42451447 -0.13223802 0.24226911 0.008585057 -0.17502846 0.1317404 0.1979688
-0.15694149 0.5232529 -0.10806134 0.091443114 0.18736812 -0.19084342 0.09306257 -0.018105224
-0.061639268 0.0012320882 -0.24436204 0.079727106 -0.02549665 0.06699427 0.06520172 0.02425039
0.22171198 0.10664704 0.124016024 0.069723435 0.12150631 -0.17345206 0.051469114 0.17926893
-0.37226588 -0.012706235 -0.34702045 -0.005012897 -0.41852874 -0.12712301 0.20001113 0.015624479
0.08982045 0.008741772 -0.38386557 -0.19885539 -0.22892867 -0.12842081 -0.28549904 -0.15936013
-0.005392825 0.2780366 0.066082455 -0.21546273 0.17811447 -0.029304845 -0.12591761 -0.084768586
-0.14126743 -0.25498503 0.17495885 -0.19355156 -0.26168805 -0.27456972 -0.16393548 0.01876214
-0.30722314 -0.055470802 -0.3050521 -0.009798312 -0.010599111 -0.24361847 -0.10146793 0.13286927
0.23662774 0.025751362 0.13125111 -0.13428329 0.17222807 0.13615566 0.21256816 -0.27789322
-0.06545664 0.16370173 0.17737842 0.0751076 0.048357002 0.34552687 -0.08267211 -0.04725323
-0.28918958 0.048575245 0.07389323 -0.019842608 0.0035597892 0.23792973 -0.22271565 -0.10146541
-0.2720201 -0.13299404 0.15900403 -0.41833526 0.18562098 -0.0030744513 0.043322343 -0.0018599998
0.18451294 0.07571086 -0.15083885 -0.20418508 0.04018422 0.054287434 0.03158728 -0.21753366
-0.09419739 0.04945683 -0.2080572 -0.046416227 -0.19498661 -0.01598478 0.14028096 -0.21311991
0.11106444 0.11735818 -0.2093943 -0.07284595 -0.2785837 0.010842448 -0.037816286 -0.02112049
0.033152603 0.0740513 -0.068251334 -0.050945096 -0.062509105 0.010307086 0.27044183 0.22716744
-0.22979209 -0.18139504 0.037303 0.07876915 -0.026364464 -0.0014966659 0.13532957 0.2616567
-0.10901736 -0.021895923 -0.016976057 0.09385758 0.034084518 0.015217484 0.071530096 -0.19324148
-0.05226875 -0.015906509 0.016144905 -0.067105204 0.20773558 -0.021731142 0.41491386 0.27125326
00000000: 0140 443e 6ba3 aabe 0772 373e 3d6c 1dbe
00000010: 0fb8 54be 6be1 98be bd42 f4bd c440 61be
00000020: d763 393d 5852 163c 94c5 f1bd 00c8 62bc
00000030: ec8a 623c 6602 96bc 9035 b9be 16fc a3bd
00000040: 6316 853d f6ec 3d3e 0ff5 d0bc 9bfa 85bc
00000050: 194e 9a3e eb2c c83d 2374 b2bd dce6 27be
00000060: 4b3f 053e b457 1e3d 5b36 4e3d 0020 e53c
00000070: f6bd 8e3d 4399 1abd 93ad fc3d 5cac c6bd
00000080: d2d5 d03d e33f 02be 281f c2bd 06f0 5dbe
00000090: 89b0 af3e 012b 1f3d 1d0b 7cbe 9042 eb3d
000000a0: ab64 323e a2d6 c83d 460c 37be 8dcd 10be
000000b0: 6f4a 13be 49a4 b2bd 2767 bfbb 8b83 903d
000000c0: 0d6d ea3d a484 4b3c f4ae b33d d5c1 4bbe
000000d0: 5b6a d7bd 2a1f 48bd f8b2 1b3c 1879 90bd
000000e0: be9e 073e add6 9c3e 0905 3fbe 7488 fa3d
000000f0: 8720 4abb 4eee b3bc e39f c0bd 9424 063d
00000100: 465b a53d d712 2ebe 7ee8 3bbe 60a1 b7bb
00000110: c754 0d3e 258c 52bc 245b ae3e 4b77 743e
00000120: caa2 a33c a550 07be 1917 9fbd c1a7 ec3d
00000130: 18f9 c13d 7376 3ebc 31c1 993d 2ff5 bc3d
00000140: d0ba b03d b555 c8bd 8ad4 8d3e 87ed cbbd
00000150: cb77 36be 4973 e93c 962a 933d 1dcd ae3d
00000160: 5abf 443e 0c87 21be 6472 ae3e 95f0 b53d
00000170: 6791 8a3e 236b 063f 3cc9 b3bd 8410 12be
00000180: 8d23 dbbd f659 d93e 6769 07be 6515 783e
00000190: 57a8 0c3c a93a 33be f5e6 063e 55b8 4a3e
000001a0: 45b5 20be e7f3 053f 444f ddbd 8746 bb3d
000001b0: 6edd 3f3e 756c 43be 9797 be3d 6851 94bc
000001c0: 7579 7cbd 057e a13a 0b3a 7abe f747 a33d
000001d0: 5ade d0bc 4b34 893d 7b88 853d c1a8 c63c
000001e0: 7708 633e c369 da3d 1dfc fd3d 29cb 8e3d
000001f0: 4dd8 f83d 6b9d 31be 47d1 523d 4692 373e
00000200: a299 bebe d02d 50bc aaac b1be 3a43 a4bb
00000210: 6649 d6be 892c 02be b8cf 4c3e d1fd 7f3c
00000220: c9f3 b73d a639 0f3c 078a c4be bfa0 4bbe
00000230: 476c 6abe bf80 03be ee2c 92be 4d2f 23be
00000240: 4cb6 b0bb d05a 8e3e 3d56 873d 43a2 5cbe
00000250: a463 363e b710 f0bc 8cf0 00be 279b adbd
00000260: 69a8 10be 668d 82be 6a28 333e 6132 46be
00000270: fafb 85be 6794 8cbe b4de 27be 0fb3 993c
00000280: 5a4c 9dbe 5a35 63bd ca2f 9cbe 1989 20bc
00000290: e5a7 2dbc 1f77 79be 6bce cfbd e20e 083e
000002a0: 8b4e 723e 85f4 d23c b166 063e 8f81 09be
000002b0: 8e5c 303e 646c 0b3e 78ab 593e 0548 8ebe
000002c0: 220e 86bd 6da1 273e b0a2 353e 03d2 993d
000002d0: fe11 463d e6e8 b03e ff4f a9bd 9a8c 41bd
000002e0: a810 94be d6f6 463d 5555 973d f78c a2bc
000002f0: 5a4b 693b daa3 733e 920f 64be 19cd cfbd
00000300: 3846 8bbe 972f 08be f4d1 223e 0a30 d6be
00000310: 6d13 3e3e bc7c 49bb c572 313d 3dcb f3ba
00000320: f6f0 3c3e 4c0e 9b3d 8075 1abe e515 51be
00000330: 3598 243d 805c 5e3d aa61 013d 25c1 5ebe
00000340: 90ea c0bd 3f93 4a3d f20c 55be f11e 3ebd
00000350: 92aa 47be 83f2 82bc d0a5 0f3e 1b3c 5abe
00000360: c175 e33d 7c59 f03d 766b 56be 4230 95bd
00000370: 86a2 8ebe 86a4 313c 40e5 1abd e104 adbc
00000380: 06cb 073d 35a8 973d 5bc7 8bbd ceab 50bd
00000390: c604 80bd 0ddf 283c 5a77 8a3e 959e 683e
000003a0: 9e4e 6bbe 9fbf 39be 08cb 183d b851 a13d
000003b0: 4afa d7bc c62b c4ba d693 0a3e def7 853e
000003c0: 7e44 dfbd 145f b3bc 5f11 8bbc 6738 c03d
000003d0: 359c 0b3d c152 793c 5f7e 923d 18e1 45be
000003e0: c217 56bd 5e4e 82bc 5242 843c 746e 89bd
000003f0: a3b8 543e 8205 b2bc 976f d43e b5e1 8a3e

base.3linear.bias f4 [50]
0.10823882 0.16488124 -0.15396227 0.09711445 0.023453668 0.049731083 -0.07529002 0.0915872
-0.014664123 -0.03354983 -0.0017375817 -0.010388382 0.07042082 -0.031654816 0.116790086 -0.027228525
-0.03393158 -0.11254653 -0.12839143 -0.057345178 -0.103257105 0.03304121 -0.12196613 0.0908656
0.06451992 0.029233638 0.0028800983 0.08341723 -0.02079484 0.1082192 -0.07546364 -0.019087648
0.021565473 0.04498224 -0.04684688 0.16311722 0.011556513 -0.03573099 -0.12132894 -0.04163707
-0.114154525 -0.061946385 -0.06121332 -0.15362036 0.037180346 0.04089402 -0.13521962 -0.00015054931
-0.23423497 0.008565792
00000000: 51ac dd3d a1d6 283e 49a8 1dbe f1e3 c63d
00000010: e821 c03c d2b2 4b3d a731 9abd 1292 bb3d
00000020: ca41 70bc 8c6b 09bd 91bf e3ba 0834 2abc
00000030: ca38 903d 7ba8 01bd a42f ef3d 5b0e dfbc
00000040: d7fb 0abd cc7e e6bd 0b79 03be c7e2 6abd
00000050: 7678 d3bd 3856 073d 61c9 f9bd be17 ba3d
00000060: 0523 843d 627b ef3c 08c0 3c3b a7d6 aa3d
00000070: f159 aabc 07a2 dd3d ae8c 9abd b35d 9cbc
00000080: 13aa b03c 4c3f 383d 84e2 3fbd 3308 273e
00000090: 8757 3d3c a95a 12bd 4f7b f8bd a28b 2abd
000000a0: d9c9 e9bd 7ebb 7dbd d1ba 7abd a84e 1dbe
000000b0: 6b4a 183d 7d80 273d 0377 0abe c6dc 1db9
000000c0: 4bdb 6fbe 8957 0c3c

base.4linear.weight f4 [50, 50]
0.022525422 -0.0861695 0.21681473 0.17016627 -0.4178239 0.09761976 -0.22615308 0.021068249
-0.17542818 0.41019487 0.18692361 0.007661722 -0.27462482 -9.070966e-05 -0.27801374 0.026709517
0.039305143 -0.08796212 -0.25395572 -0.007781852 0.28773978 0.101778194 0.01931649 -0.19639683
-0.23898098 -0.037519842 -0.26838598 0.030758342 -0.13529362 0.0758226 0.15608315 -0.21839021
0.1566681 0.20491998 -0.10604607 -0.23326091 -0.12418872 -0.029732171 -0.025268713 0.08623667
0.18548986 0.12631577 0.32540545 0.0030094997 -0.19795875 0.03782831 0.14368802 -0.2849842
-0.25650138 -0.021610318 0.071246594 0.088502236 0.1845836 0.37911642 0.20400855 -0.14394474
0.030758498 -0.15129003 -0.05503894 0.10823288 0.07301666 0.033626016 0.1506579 0.03362072
0.45925 0.15097015 0.08487214 0.010233467 0.24830423 0.02055399 -0.047466513 -0.005978899
0.036308464 -0.10605961 -0.06630995 0.20166643 0.06502447 -0.07466879 0.16919528 0.02751882
-0.14200649 0.06705071 -0.019977907 -0.031382743 -0.026239406 -0.0077611827 0.12296367 0.14907528
0.01671321 0.09650156 0.08491116 0.12813574 -0.20652741 0.034532174 0.17490976 0.04971504
-0.37724057 0.103368856 -0.08411522 -0.12545027 -0.30070084 -0.056148786 0.02608243 -0.17458332
0.014805895 -0.009344814 0.08870234 -0.034093954 -0.014822441 -0.13070937 -0.19001953 0.068795085
0.22904122 0.042804085 -0.087917835 0.006533478 0.23697306 -0.31647763 0.27179855 0.07283539
0.14894487 0.4780403 0.3052082 -0.0906248 0.30967203 -0.17894614 0.07087279 -0.10291913
-0.11809699 0.09284903 -0.08889565 -0.11303785 0.046747655 -0.05033122 0.11320974 -0.058886264
-0.14731821 0.15205611 0.16857104 0.14317565 -0.07629798 -0.006929206 -0.05493518 -0.14714852
0.18514119 -0.014210756 -0.12661874 0.08343113 0.1405321 0.22668731 0.011461314 0.038715873
-0.033928424 -0.11747362 -0.12981123 0.19267148 0.013179613 -0.20612463 0.31347442 0.12257411
-0.18746632 0.024193535 -0.17305702 -0.033035498 -0.10727129 0.10991096 -0.10686057 0.08856225
0.07097992 -0.03194371 -0.053641554 0.057563543 -0.07701709 -0.20185332 0.03711723 0.09769635
0.3072416 -0.18864135 0.20294008 0.13908738 -0.09571239 -0.035377406 -0.072789654 -0.06205273
-0.14183661 -0.15529329 0.0789198 0.11371296 -0.14616396 0.024137858 -0.023208417 -0.13389255
-0.041055176 -0.09169364 0.06454141 -0.055332057 -0.1253193 0.29440352 -0.008029129 -0.11450723
0.059599724 0.16398525 0.26768196 -0.08151659 -0.11249775 -0.23800753 0.052545026 0.09887957
-0.19077255 0.20613705 -0.1801888 0.092119984 -0.08737641 0.042056795 -0.29338938 -0.039793618
0.15699379 0.04858635 0.13481016 0.07651946 0.021089165 -0.04483938 -0.0799055 0.12482784
0.1814421 -0.20057702 -0.22972886 -0.029839804 -0.21179698 -0.025689138 0.22859688 -0.13541222
-0.22739941 0.057291266 0.21984363 -0.10587225 -0.07872821 0.095795184 -0.14224605 0.13168223
0.27339453 -0.16649657 -0.006747353 -0.103383236 -0.10762131 0.060745236 0.24850944 0.14148296
-0.042343996 0.18538837 -0.0387132 -0.5813685 0.38110223 -0.0640073 -0.05302963 0.023344735
00000000: 3c87 b83c a379 b0bd ae04 5e3e 1140 2e3e
00000010: 04ed d5be deec c73d ac94 67be 5297 ac3c
00000020: 72a3 33be 1005 d23e e768 3f3e 2f0f fb3b
00000030: a09b 8cbe 613b beb8 d157 8ebe ebcd da3c
00000040: 6efe 203d 7c25 b4bd 7c06 82be e8fe febb
00000050: a152 933e 1671 d03d 9e3d 9e3c 401c 49be
00000060: 6eb7 74be 68ae 19bd e369 89be ebf8 fb3c
00000070: 698a 0abe e148 9b3d 43d4 1f3e afa1 5fbe
00000080: 9a6d 203e 8bd6 513e af2e d9bd f3db 6ebe
00000090: a856 febd e290 f3bc 5500 cfbc da9c b03d
000000a0: 0ef1 3d3e ec58 013e 8b9b a63e 073b 453b
000000b0: b3b5 4abe dcf1 1a3d f422 133e 73e9 91be
000000c0: 2654 83be 1f08 b1bc bce9 913d a940 b53d
000000d0: 7c03 3d3e 8c1b c23e 9ee7 503e 4066 13be
000000e0: 3ff9 fb3c c6eb 1abe 8370 61bd 33a9 dd3d
000000f0: c289 953d 6fbb 093d 1146 1a3e e1b5 093d
00000100: d122 eb3e eb97 1a3e 72d1 ad3d 46aa 273c
00000110: 7743 7e3e d760 a83c 3f6c 42bd a4ea c3bb
00000120: 2fb8 143d c835 d9bd 83cd 87bd a581 4e3e
00000130: 8d2b 853d f3eb 98bd 8741 2d3e 266f e13c
00000140: 266a 11be e251 893d b5a8 a3bc 318b 00bd
00000150: 06f4 d6bc 8551 febb 60d4 fb3d 31a7 183e
00000160: 24ea 883c 9ca2 c53d e7e5 ad3d 0436 033e
00000170: ec7b 53be 9c71 0d3d 8b1b 333e ffa1 4b3d
00000180: ad25 c1be 0db3 d33d 9a44 acbd 0976 00be
00000190: 76f5 99be 45fc 65bd d2aa d53c f8c5 32be
000001a0: 6d94 723c fe1a 19bc 93a9 b53d 1aa6 0bbd
000001b0: d3d9 72bc add8 05be 7b94 42be 70e4 8c3d
000001c0: c889 6a3e 5653 2f3d 440e b4bd c916 d63b
000001d0: 11a9 723e 5b09 a2be 2e29 8b3e b92a 953d
000001e0: 0185 183e b3c1 f43e 4044 9c3e 7f99 b9bd
000001f0: 558d 9e3e a83d 37be c125 913d 44c7 d2bd
00000200: d6dc f1bd a227 be3d ec0e b6bd 6380 e7bd
00000210: 787a 3f3d 1c28 4ebd 82da e73d b932 71bd
00000220: 96da 16be 99b4 1b3e e39d 2c3e a39c 123e
00000230: 1e42 9cbd 650e e3bb b603 61bd 1aae 16be
00000240: a795 3d3e 3bd4 68bc 58a8 01be f1dd aa3d
00000250: a6e7 0f3e b820 683e 3cc8 3b3c 8994 1e3d
00000260: 88f8 0abd 0296 f0bd 3ced 04be ac4b 453e
00000270: 4eef 573c 5612 53be b87f a03e 2308 fb3d
00000280: 2cf7 3fbe 8531 c63c dc35 31be 3b50 07bd
00000290: 0db1 dbbd ff18 e13d b7d9 dabd 2060 b53d
000002a0: ec5d 913d 68d7 02bd 3fb7 5bbd c0c7 6b3d
000002b0: 23bb 9dbd a3b2 4ebe 3d08 183d 0615 c83d
000002c0: c54e 9d3e 332b 41be 86cf 4f3e ec6c 0e3e
000002d0: dc04 c4bd e6e7 10bd be12 95bd 012b 7ebd
000002e0: 9e3d 11be 3405 1fbe b4a0 a13d 57e2 e83d
000002f0: 01ac 15be c2bc c53c 941f bebc 211b 09be
00000300: 7929 28bd e0c9 bbbd 492e 843d dea3 62bd
00000310: b453 00be 0fbc 963e 9c8c 03bc c482 eabd
00000320: d71e 743d c0eb 273e 9c0d 893e 2cf2 a6bd
00000330: 3865 e6bd 3fb8 73be 7439 573d 5f81 ca3d
00000340: e159 43be 9715 533e 6a83 38be 67a9 bc3d
00000350: 67f2 b2bd bf43 2c3d 2237 96be a2fe 22bd
00000360: fbc2 203e 7b02 473d ad0b 0a3e 3cb6 9c3d
00000370: 2fc3 ac3c 7fa9 37bd 7fa5 a3bd bda5 ff3d
00000380: f5cb 393e 1064 4dbe 0b3e 6bbe 9b72 f4bc
00000390: 4fe1 58be 0772 d2bc 4d15 6a3e 80a9 0abe
000003a0: 64db 68be 3faa 6a3d b01e 613e 8dd3 d8bd
000003b0: 413c a1bd 4430 c43d f3a8 11be b5d7 063e
000003c0: 5efa 8b3e 147e 2abe e618 ddbb 97ba d3bd
000003d0: 9068 dcbd ffcf 783d 4279 7e3e e9e0 103e
000003e0: e670 2dbd 73d6 3d3e bb91 1ebd 91d4 14bf
000003f0: d51f c33e 4216 83bd 9935 59bd 753d bf3c

base.4linear.bias f4 [50]
-0.06197449 0.03115174 -0.034373976 0.017680578 -0.07699815 -0.05679977 -0.086807966 0.015477104
-0.07102599 0.095949635 -0.016302112 -0.043643508 0.0038295323 -0.037917703 -0.05678048 -0.053191952
-0.011914375 -0.014939275 -0.070781 -0.18761551 -0.037009124 0.027604412 -0.07400372 -0.038536377
-0.047911555 -0.036756694 0.0004801584 0.03861448 0.19195874 -0.06387455 0.040761862 -0.01073744
0.08312214 0.083772354 0.05832418 0.050197672 -0.033872843 -0.06779857 -0.044178784 0.013933622
0.07847063 0.0019632617 0.0017454372 0.046380654 0.03409414 0.010182749 -0.043749273 0.10755019
-0.03314361 -0.051900096
00000000: f6d8 7dbd ef31 ff3c bacb 0cbd dcd6 903c
00000010: 35b1 9dbd e0a6 68bd 60c8 b1bd ae93 7d3c
00000020: 1376 91bd 3e81 c43d 028c 85bc 89c3 32bd
00000030: e4f8 7a3b 984f 1bbd a692 68bd cedf 59bd
00000040: 8334 43bc dcc3 74bc a1f5 90bd 481e 40be
00000050: e196 17bd a622 e23c 438f 97bd 52d8 1dbd
00000060: e83e 44bd 308e 16bd c5bd fb39 382a 1e3d
00000070: d590 443e a9d0 82bd e9f5 263d 16ec 2fbc
00000080: f13b aa3d d790 ab3d 56e5 6e3d 139c 4d3d
00000090: 40be 0abd fad9 8abd d0f4 34bd d949 643c
000000a0: 36b5 a03d 11aa 003b 27c7 e43a a4f9 3d3d
000000b0: 4ca6 0b3d 8bd5 263c 7032 33bd 4643 dc3d
000000c0: 98c1 07bd 3295 54bd

base.5linear.weight f4 [50, 50]
0.13566735 -0.17804447 -0.24420442 -0.0059795426 0.024377085 0.0602245 -0.19616367 -0.3122966
0.43637583 -0.10728409 -0.24042714 0.014343382 0.017750615 0.22204266 -0.113853484 0.15708424
0.11307433 0.012283231 -0.15097834 -0.24434648 -0.19933054 -0.052082278 -0.05463827 -0.28796607
0.07404671 0.2055352 -0.05387567 -0.042177606 -0.2406172 0.02929052 0.1680206 0.008512064
0.02590255 -0.20285423 -0.17291856 0.19654839 0.23342472 -0.026209176 -0.1757978 -0.019255066
0.07056717 0.10186987 -0.16596076 -0.18215436 -0.034183536 -0.048092384 0.055759765 0.15316841
-0.2397469 0.051308963 -0.122410595 0.0058957166 0.21955836 -0.052773193 0.07512905 -0.12740345
0.014348023 -0.12790626 -0.2126897 -0.15978315 0.10172066 0.09544836 -0.2593209 0.23916301
0.31982803 0.015136271 -0.11924098 0.082857445 -0.038879786 0.28166425 -0.012665319 0.45704174
0.04682001 0.053574067 0.20863086 0.03759828 0.11537083 0.18520871 0.15695632 0.21151975
0.11823925 0.0084893145 0.28142875 0.015651688 -0.050047453 -0.094334684 0.28092462 -0.17277294
0.0037847953 0.06785699 -0.022607287 -0.10747022 -0.13885504 0.13798083 0.029657694 0.13183784
-0.058802906 -0.020241123 -0.040300127 0.12612098 0.003913097 0.10943241 -0.083003946 -0.018030116
-0.070305236 -0.1952013 0.3477642 -0.25379363 0.08805664 -0.106995314 0.23930116 -0.0076615587
0.07156065 0.18131964 -0.10730896 0.067659765 -0.0631045 0.117050245 -0.018610604 0.23930152
-0.12158941 0.010538353 -0.3089898 0.15138263 0.0478994 -0.06128912 -0.092356384 0.102753505
0.0716862 -0.28825003 0.10854941 0.14369106 0.003744806 0.054501176 -0.15813288 -0.18429177
0.015566082 0.2701098 0.118232645 0.19963647 0.13915093 -0.12962571 0.08306421 -0.034477882
-0.10264706 -0.2265558 -0.09663488 -0.32190827 -0.026143705 0.1540417 -0.21760729 0.34568173
-0.093238056 0.015796326 -0.13228126 -0.20203407 -0.08661699 -0.0026127957 -0.1379502 -0.0029899213
-0.034319784 0.052361373 -0.22820923 -0.055449348 0.27517655 -0.33465862 -0.09750797 -0.16484867
-0.09100677 -0.024766168 -0.19250284 0.0025389176 -0.20838346 -0.031998713 0.075511 0.054850135
0.26773703 0.023701647 0.03702228 0.08531433 -0.15626276 -0.11948556 0.31290248 0.078833506
-0.09269779 0.21137789 0.28534126 0.119198 -0.09232113 -0.05730507 0.044980943 0.016142305
0.1562261 -0.015942069 0.0555273 0.0963258 0.16037087 0.22087863 -0.15418412 0.09878601
-0.15964228 -0.10052688 -0.01752353 0.08056612 0.18195765 0.058713213 0.30059725 -0.3684497
0.13158515 0.09791389 0.077773 -0.12821159 0.017190319 0.07262021 -0.2845075 0.19290465
-0.19500487 0.23224574 0.14623976 -0.05923281 0.04908808 -0.030486302 0.030437633 -0.011567702
-0.08489939 0.13562348 0.18004607 0.023654161 0.0006039091 0.22072619 -0.017492354 0.09466867
-0.06577091 -0.121366255 0.047016095 0.11658216 -0.16365568 0.097159185 0.15482242 0.12996268
0.26941004 -0.12801096 0.09663023 0.12169165 -0.2051348 0.08257147 0.10726051 -0.062618084
0.03574295 -0.13269484 0.14961557 -0.24062501 0.052549 -0.09525886 0.13114133 0.010425322
00000000: 62ec 0a3e 4a51 36be b910 7abe 0af0 c3bb
00000010: 74b2 c73c f7ad 763d 21df 48be 57e5 9fbe
00000020: a76c df3e c3b7 dbbd 8832 76be 8100 6b3c
00000030: bd69 913c 275f 633e 042c e9bd b1da 203e
00000040: 8493 e73d 9b3f 493c 119a 1abe f735 7abe
00000050: 4e1d 4cbe 3a54 55bd 61cc 5fbd 4a70 93be
00000060: cda5 973d d277 523e bcac 5cbd 6dc2 2cbd
00000070: 5b64 76be acf2 ef3c 980d 2c3e 2f76 0b3c
00000080: 9631 d43c 05b9 4fbe 9011 31be fb43 493e
00000090: e406 6f3e a0b4 d6bc 5704 34be cdbc 9dbc
000000a0: 8585 903d 27a1 d03d 9ef1 29be ac86 3abe
000000b0: 0904 0cbd 85fc 44bd 5a64 643d 2ed8 1c3e
000000c0: 3680 75be 5929 523d 68b2 fabd db30 c13b
000000d0: e8d3 603e b428 58bd 42dd 993d 0d76 02be
000000e0: f813 6b3c dcf9 02be 54cb 59be 329e 23be
000000f0: ec52 d03d 6e7a c33d b6c5 84be 26e7 743e
00000100: 80c0 a33e 1ffe 773c 9d34 f4bd 2ab1 a93d
00000110: 6940 1fbd 4c36 903e 3382 4fbc 6001 ea3e
00000120: 57c6 3f3d 7b70 5b3d 54a3 553e a700 1a3d
00000130: 8b47 ec3d 5aa7 3d3e 28b9 203e a298 583e
00000140: 6b27 f23d c416 0b3c 6e17 903e f837 803c
00000150: 8ffe 4cbd 8b32 c1bd 5ad5 8f3e 64eb 30be
00000160: 540a 783b 9bf8 8a3d eb32 b9bc 5919 dcbd
00000170: 0430 0ebe d94a 0d3e b1f4 f23c 8000 073e
00000180: 51db 70bd b6d0 a5bc bf11 25bd dc25 013e
00000190: 7039 803b 191e e03d f9fd a9bd e5b3 93bc
000001a0: 31fc 8fbd d9e2 47be 260e b23e 3df1 81be
000001b0: 0a57 b43d 5c20 dbbd 5d0b 753e d00d fbbb
000001c0: 648e 923d dbab 393e cdc4 dbbd 3491 8a3d
000001d0: ef3c 81bd 0ab8 ef3d 4475 98bc 750b 753e
000001e0: de03 f9bd 0ea9 2c3c e933 9ebe 0c04 1b3e
000001f0: 2932 443d 4d0a 7bbd 5825 bdbd 6e70 d23d
00000200: 37d0 923d 8295 93be 274f de3d c023 133e
00000210: 6b6b 753b a03c 5f3d 96ed 21be fbb6 3cbe
00000220: e108 7f3c d54b 8a3e f523 f23d 816d 4c3e
00000230: 957d 0e3e 9abc 04be 921d aa3d ae38 0dbd
00000240: 9f38 d2bd 3efe 67be 82e8 c5bd 29d1 a4be
00000250: 532b d6bc 1bbd 1d3e 72d4 5ebe 32fd b03e
00000260: 98f3 bebd 4c67 813c bd74 07be 05e2 4ebe
00000270: 4064 b1bd 703b 2bbb d142 0dbe 8ef2 43bb
00000280: e792 0cbd e178 563d aeaf 69be db1e 63bd
00000290: f1e3 8c3e 6058 abbe 42b2 c7bd 17ce 28be
000002a0: c261 babd 6be2 cabc 771f 45be f863 263b
000002b0: 7962 55be 1511 03bd 83a5 9a3d 89aa 603d
000002c0: d414 893e f529 c23c ada4 173d 48b9 ae3d
000002d0: 5803 20be d8b4 f4bd c134 a03e 7673 a13d
000002e0: 57d8 bdbd 7273 583e 4018 923e 151e f43d
000002f0: dc12 bdbd b9b8 6abd f03d 383d de3c 843c
00000300: bcf9 1f3e f198 82bc 9870 633d 7646 c53d
00000310: 4338 243e 022e 623e 71e2 1dbe 5250 ca3d
00000320: 4479 23be 09e1 cdbd 828d 8fbc daff a43d
00000330: 1b53 3a3e 447d 703d e2e7 993e 70a5 bcbe
00000340: 42be 063e 1487 c83d 7347 9f3d e649 03be
00000350: b6d2 8c3c e8b9 943d f8aa 91be cc88 453e
00000360: 5baf 47be d4d1 6d3e e0bf 153e 1a9e 72bd
00000370: 9510 493d 69be f9bc 5858 f93c 7586 3dbc
00000380: bbdf adbd e2e0 0a3e ff5d 383e 5fc6 c13c
00000390: a74f 1e3a 0c06 623e 204c 8fbc a6e1 c13d
000003a0: e6b2 86bd df8e f8bd f393 403d a1c2 ee3d
000003b0: 5b95 27be 65fb c63d c589 1e3e f014 053e
000003c0: 1df0 893e 4e15 03be 12e6 c53d 7939 f93d
000003d0: db0e 52be 3b1b a93d 66ab db3d e93d 80bd
000003e0: 3367 123d 28e1 07be d334 193e 6766 76be
000003f0: 9f3d 573d 1417 c3bd ea49 063e f8ce 2a3c

base.5linear.bias f4 [50]
0.027038384 -0.0024650022 -0.08377847 0.028143153 -0.047878914 0.04578738 0.051816773 -0.018727057
0.036396667 0.031093782 0.0064583663 -0.17468931 0.044689424 -0.04319857 0.0070845 0.02420077
-0.016095279 -0.008832258 -0.041962128 0.0063880314 0.016687173 0.04863114 -0.009193454 -0.14345804
0.03415692 0.047801793 -0.019072857 0.027448157 -0.023264017 0.059023295 0.021350486 0.012935494
0.05192398 -0.016734486 -0.05247407 0.041056383 -0.046838537 0.25288573 0.00520805 0.079723984
-0.014482776 -0.026794905 -0.08224127 -0.06042247 0.016294282 0.024546554 -0.03177622 -0.045423012
0.04413182 -0.06822719
00000000: 9a7f dd3c e08b 21bb 0c94 abbd 788c e63c
00000010: ae1c 44bd 8c8b 3b3d d33d 543d 7c69 99bc
00000020: ac14 153d 63b8 fe3c b4a0 d33b c1e1 32be
00000030: 420c 373d fcf0 30bd 1825 e83b b140 c63c
00000040: 3fda 83bc 2db5 10bc 7be0 2bbd b152 d13b
00000050: 8ab3 883c 7231 473d 24a0 16bc aae6 12be
00000060: 20e8 0b3d d0cb 433d ae3e 9cbc f5da e03c
00000070: 2e94 bebc 69c2 713d 37e7 ae3c 65ef 533c
00000080: 3dae 543d c316 89bc 0def 56bd bd2a 283d
00000090: c4d9 3fbd 3d7a 813e 4aa8 aa3b 5446 a33d
000000a0: 2a49 6dbc fd80 dbbc 1c6e a8bd 8d7d 77bd
000000b0: 967b 853c db15 c93c c827 02bd 7b0d 3abd
000000c0: 91c3 343d b2ba 8bbd

base.6linear.weight f4 [50, 50]
0.12426492 0.060913518 -0.048584018 0.23425166 -0.30041656 -0.19425349 0.016603818 -0.23255318
-0.088916905 -0.2143915 0.05989419 0.003975156 0.24973863 -0.035256762 -0.08469109 -0.080401614
-0.087426715 -0.23582134 -0.03845059 -0.00912334 0.05103522 0.26959574 -0.1455315 0.006593744
0.16522226 0.17613703 0.22516099 0.14572926 0.06850231 -0.058384247 -0.16269165 -0.018909834
-0.19757557 -0.15629053 -0.1806397 0.50109184 -0.09266011 -0.04848781 -0.06875041 -0.13227968
-0.3431278 0.14316973 -0.077218026 0.07161934 0.010553533 -0.07867459 0.041649703 -0.2470318
0.11953317 0.143523 0.06041664 -0.063897915 -0.025889535 0.27197915 -0.019636154 -0.023855634
0.060149822 -0.03972316 -0.29031116 0.069365114 -0.036947735 -0.091831565 0.13648425 -0.1314804
-0.043530792 -0.05930503 -0.06410767 0.06057481 0.092620805 0.070412636 -0.028961226 -0.2518027
-0.11502319 -0.25865993 -0.04014902 0.052732486 -0.15689474 0.094147585 -0.05849272 0.38880908
-0.29966393 0.21405688 0.29822525 -0.093164794 -0.124824785 0.33222625 -0.10871396 0.09973113
-0.032252535 0.06600497 0.0068129664 -0.10131679 0.3198484 0.05908169 -0.006198628 0.0031918157
0.098664485 0.087736465 -0.1485456 -0.15622877 -0.28423983 -0.047247093 0.11774524 -0.10392641
-0.074841194 0.040782563 -0.115896225 0.21078707 -0.07522369 -0.30781093 0.17939766 0.14245546
-0.16046432 0.0949821 0.0066516534 -0.14172933 0.005853209 -0.17212638 -0.19714595 -0.25682905
0.0846334 -0.06813297 0.357456 0.19032384 -0.27146015 0.031421278 -0.039520826 -0.23550104
-0.30812564 -0.2542474 0.058580812 -0.05093774 -0.0027090013 0.05942848 0.23366491 0.027299058
-0.11839479 -0.28684953 -0.36464497 -0.043046642 0.13150115 0.07984338 -0.053488772 0.010411547
0.19068727 0.0519298 -0.012018175 0.1870443 0.1423042 0.027631791 -0.048932873 -0.17908536
-0.28635114 0.17048973 0.024907427 0.049190484 -0.37445924 0.04410888 -0.032684248 0.2777891
-0.009998674 0.06868056 0.03314682 -0.017792627 0.017091855 0.14827698 -0.25514463 -0.07490447
0.062456433 0.26776806 0.19023082 0.10524954 -0.02898071 -0.02231354 -0.20025483 0.26104552
-0.09596772 -0.09273387 -0.2556609 -0.014989018 0.046789777 -0.23769614 0.20637237 0.16320767
0.12381486 0.010236371 0.23129907 -0.023866678 0.23225978 0.058476634 -0.045798976 -0.47789684
0.07811242 -0.16971333 -0.2859607 0.24462026 -0.27622202 -0.17841776 -0.13780048 -0.11242099
-0.35188073 0.26378775 0.21056229 -0.12285995 0.11478745 -0.0065414016 -0.36949253 -0.23061901
-0.11092104 -0.028153136 0.02505483 0.05984575 -0.24354447 0.02029915 -0.0039419625 -0.09440167
-0.09546779 -0.063170746 -0.31334186 0.06867617 -0.2220801 -0.3445105 -0.02480846 0.17351414
-0.022538885 0.19636793 -0.16739532 0.29258963 -0.26643384 0.22632737 -0.16530398 -0.016874013
-0.06858425 -0.2220969 -0.2104845 -0.27065012 -0.01662591 -0.2951394 0.2788069 0.12098493
-0.14875104 -0.014086592 0.08009671 0.26282716 0.15569502 -0.045108784 0.3283456 -0.17889005
-0.16731918 0.07977629 0.17142446 0.26301795 0.10163206 -0.067673594 -0.0063225906 0.17972706
00000000: 9b7e fe3d 7480 793d 0900 47bd abdf 6f3e
00000010: 33d0 99be 63ea 46be bb04 883c 6c22 6ebe
00000020: 111a b6bd 7289 5bbe 9c53 753d 0742 823b
00000030: 7cbb 7f3e 6569 10bd 8672 adbd 9aa9 a4bd
00000040: c70c b3bd 267b 71be 5e7e 1dbd 107a 15bc
00000050: 4f0a 513d 7408 8a3e 3606 15be 5510 d83b
00000060: 0630 293e 445d 343e 9a90 663e 0d3a 153e
00000070: f04a 8c3d 5224 6fbd a498 26be cce8 9abc
00000080: 4051 4abe a00a 20be 9df9 38be 8e47 003f
00000090: 95c4 bdbd 279b 46bd 04cd 8cbd 5374 07be
000000a0: 72ae afbe 169b 123e 7c24 9ebd 29ad 923d
000000b0: bae8 2c3c 2520 a1bd e198 2a3d e7f5 7cbe
000000c0: cecd f43d b1f7 123e 7077 773d e9dc 82bd
000000d0: 4a16 d4bc da40 8b3e 00dc a0bc e46c c3bc
000000e0: a95f 763d c1b4 22bd aaa3 94be 4c0f 8e3d
000000f0: 8256 17bd 3012 bcbd 87c2 0b3e cca2 06be
00000100: 584d 32bd d5e9 72bd e24a 83bd 4b1d 783d
00000110: faaf bd3d 8034 903d 1840 edbc 49ec 80be
00000120: 4791 ebbd 136f 84be 4c73 24bd 05fe 573d
00000130: 04a9 20be 73d0 c03d 1096 6fbd fc11 c73e
00000140: 8d6d 99be ba31 5b3e fbb0 983e 2fcd bebd
00000150: 23a4 ffbd 8f19 aa3e 6da5 debd d63f cc3d
00000160: 3c1b 04bd 9d2d 873d 4e3f df3b 2d7f cfbd
00000170: 2bc3 a33e a4ff 713d dc1d cbbb c82d 513b
00000180: 9b10 ca3d 2daf b33d 561c 18be 6ffa 1fbe
00000190: e287 91be 2b86 41bd 6b24 f13d 5fd7 d4bd
000001a0: 5746 99bd 9e0b 273d 005b edbd 91d8 573e
000001b0: e10e 9abd 6599 9dbe 05b4 373e d8df 113e
000001c0: c250 24be fa85 c23d 1df6 d93b 7e21 11be
000001d0: 47cc bf3b e641 30be a1e0 49be 197f 83be
000001e0: 4754 ad3d 4c89 8bbd 7904 b73e 41e4 423e
000001f0: d3fc 8abe 99b3 003d 97e0 21bd 2f27 71be
00000200: a5c2 9dbe b72c 82be 6ff2 6f3d 17a4 50bd
00000210: 8089 31bb 476b 733d db45 6f3e 46a2 df3c
00000220: f878 f2bd f1dd 92be bfb2 babe ad51 30bd
00000230: 3da8 063e ed84 a33d 0b17 5bbd 3195 2a3c
00000240: 8643 433e 58b4 543d e1e7 44bc 8a88 3f3e
00000250: 31b8 113e 115c e23c d66d 48bd 2762 37be
00000260: 9e9c 92be dc94 2e3e a90a cc3c f67b 493d
00000270: 1fb9 bfbe 83ab 343d ebdf 05bd 5f3a 8e3e
00000280: 7ad1 23bc 65a8 8c3d f6c4 073d d8c1 91bc
00000290: 3804 8c3c ecd5 173e 51a2 82be 8467 99bd
000002a0: 51d2 7f3d e518 893e decb 423e 128d d73d
000002b0: f468 edbc e3ca b6bc 9a0f 4dbe c2a7 853e
000002c0: b98a c4bd 41eb bdbd fce5 82be 8094 75bc
000002d0: a3a6 3f3d 9e66 73be 4753 533e e91f 273e
000002e0: a592 fd3d 74b6 273c aad9 6c3e 0d84 c3bc
000002f0: 82d5 6d3e 3285 6f3d b597 3bbd e5ae f4be
00000300: 68f9 9f3d 55c9 2dbe 7169 92be bc7d 7a3e
00000310: f96c 8dbe 25b3 36be 921b 0dbe fa3c e6bd
00000320: b629 b4be 300f 873e a49d 573e ff9d fbbd
00000330: af15 eb3d 4159 d6bb 202e bdbe 6427 6cbe
00000340: 922a e3bd 68a1 e6bc c93f cd3c d120 753d
00000350: b963 79be 674a a63c 942b 81bb aa55 c1bd
00000360: 9e84 c3bd aa5f 81bd 586e a0be 18a6 8c3d
00000370: f768 63be ae63 b0be 1d3b cbbc b1ad 313e
00000380: 78a3 b8bc ad14 493e ae69 2bbe 4fce 953e
00000390: 046a 88be 5dc2 673e 7245 29be 5f3b 8abc
000003a0: e675 8cbd 5f6d 63be 4089 57be a792 8abe
000003b0: 0f33 88bc 831c 97be c7bf 8e3e f2c6 f73d
000003c0: 3152 18be 73cb 66bc be09 a43d 4891 863e
000003d0: 846e 1f3e fdc3 38bd ea1c a83e f42e 37be
000003e0: b855 2bbe c061 a33d e589 2f3e 4aaa 863e
000003f0: 7824 d03d 7498 8abd bc2d cfbb 5f0a 383e

base.6linear.bias f4 [50]
0.1156192 0.03781964 -0.044669554 -0.02443723 -0.08648985 0.006256996 0.021469558 0.04718688
0.08398971 -0.028423496 0.078006946 -0.0070526763 -0.033769965 0.052146163 0.024664486 -0.06706521
0.014706633 0.09071103 0.016991217 0.12343577 0.012772904 -0.01478768 -0.019899355 0.049776137
0.04432751 0.0014152362 -0.017308567 0.021160342 -0.097592644 -0.015903225 -0.010035178 -0.17259197
0.043071795 -0.014457645 -0.0010081475 -0.030153628 -0.032535464 0.07406474 0.020061199 -0.05922512
-0.052089337 -0.04702109 -0.0029068163 -0.06820153 -0.15609106 -0.0058890535 -0.091685265 0.038599752
-0.033201717 0.082048915
00000000: c2c9 ec3d c4e8 1a3d 6cf7 36bd 9630 c8bc
00000010: 9721 b1bd 7d07 cd3b ede0 af3c 0847 413d
00000020: cc02 ac3d 64d8 e8bc 1bc2 9f3d 231a e7bb
00000030: 6052 0abd 3797 553d 2d0d ca3c 7c59 89bd
00000040: 17f4 703c b4c6 b93d 2a31 8b3c e5cb fc3d
00000050: 7145 513c 0648 72bc f903 a3bc 10e2 4b3d
00000060: c390 353d 727f b93a b2ca 8dbc 7458 ad3c
00000070: a7de c7bd 7b47 82bc 966a 24bc f3bb 30be
00000080: 0d6c 303d c2df 6cbc d123 84ba be04 f7bc
00000090: e843 05bd 41af 973d 6257 a43c 0a96 72bd
000000a0: a15b 55bd 3099 40bd 4980 3ebb 3ead 8bbd
000000b0: 56d6 1fbe f6f8 c0bb 7cc5 bbbd c61a 1e3d
000000c0: 86fe 07bd 4309 a83d
