STPINN-RANS/sub_data/sub_write/03NS_model_train.pt (torch, 100283 bytes, 22 tensors)

base.0linear.weight f4 [50, 3]
-0.26305223 -0.024055565 0.17939457 -0.19487448 0.22572239 0.14943466 -0.24647348 -0.2999541
-0.06832465 0.18176973 0.0748234 0.01887922 -0.06353271 0.22721247 0.06259259 0.13692343
-0.22662178 -0.110686526 -0.042561226 0.12773792 0.20945936 0.11842044 0.048100054 0.04181064
0.06355839 -0.20423296 -0.23195148 0.14470926 0.069785535 -0.3612596 -0.0004767474 0.0017260152
-6.870444e-05 -0.19155617 0.11236607 0.07197552 -0.016738145 4.3089425e-05 -0.020465236 0.029556537
0.082875974 0.05431202 0.06763386 0.35136843 -0.18651004 -0.17152242 -0.37571943 0.16688104
0.16276118 -0.013104519 -0.099946186 0.24564044 -0.32318392 -0.17023799 0.059913553 -0.114335775
-0.30024973 0.07085908 -0.08692722 -0.31177106 0.28737402 0.18935165 -0.3465425 -0.023051752
-0.05469496 -0.20914823 0.09826955 0.0071480516 -0.20336923 -0.021331923 0.16353856 -0.2974117
-0.016948555 -0.22174314 -0.23618352 -0.06930034 -0.067149036 0.1012777 -0.23474964 -0.014885598
0.11920094 -0.20631336 -0.07395209 0.13605896 0.114668444 -0.16547018 -0.31002402 0.21627623
-0.2137873 -0.35365966 0.072043866 0.069881685 0.07075389 -0.25182074 0.107705206 0.435188
-0.20477012 -0.13564926 0.25624663 -0.05272291 0.45456302 -0.16650563 0.17866647 -0.06303023
-0.17427112 -0.009565614 0.3624198 0.080354705 0.0766779 0.18410803 -0.28552893 0.26909727
0.59767824 -0.3311674 0.03825257 -0.41255084 -0.0367355 -0.05223962 -0.11467624 0.1804899
0.035618473 0.2998642 -0.18795705 -0.08696588 0.14714442 0.08007024 0.11776163 -0.12553258
-0.33641747 -0.4032334 0.041270427 0.1477447 0.14066647 -0.13573205 0.047904946 0.17784153
-0.18807204 -0.20254658 0.017140955 0.029234765 -0.20710473 0.17643774 -0.06925138 -0.07463922
-0.119446985 0.13781007 -0.25584537 0.061751906 0.283434 -0.17724988
00000000: c8ae 86be 2d10 c5bc 36b3 373e 2d8d 47be
00000010: c523 673e 6605 193e 8b63 7cbe 9593 99be
00000020: cbed 8bbd d821 3a3e 033d 993d 98a8 9a3c
00000030: 701d 82bd 63aa 683e 8b30 803d a835 0c3e
00000040: 8a0f 68be 9eaf e2bd ae54 2ebd bbcd 023e
00000050: 847c 563e 6a86 f23d 9004 453d a241 2b3d
00000060: e72a 823d 7222 51be b084 6dbe aa2e 143e
00000070: b8eb 8e3d 05f7 b8be f4f3 f9b9 763b e23a
00000080: 6a15 90b8 4d27 44be 2f20 e63d e767 933d
00000090: 6f1e 89bc ebba 3438 b6a6 a7bc 8d20 f23c
000000a0: e1ba a93d 4876 5e3d 9f83 8a3d 90e6 b33e
000000b0: 7dfc 3ebe 93a3 2fbe 4c5e c0be dde2 2a3e
000000c0: deaa 263e 56b4 56bc 96b0 ccbd 2b89 7b3e
000000d0: 5d78 a5be de52 2ebe ea67 753d e028 eabd
000000e0: 55ba 99be 911e 913d e606 b2bd 75a0 9fbe
000000f0: b022 933e 66e5 413e 056e b1be 07d7 bcbc
00000100: d307 60bd f42a 56be 8c41 c93d 343a ea3b
00000110: 0640 50be 49c0 aebc a776 273e 5946 98be
00000120: b2d7 8abc a210 63be 18da 71be 56ed 8dbd
00000130: 6f85 89bd af6a cf3d 3662 70be b9e2 73bc
00000140: 9f1f f43d cf43 53be 3274 97bd 0a53 0b3e
00000150: 4ad7 ea3d 0471 29be 78bb 9ebe 8477 5d3e
00000160: 0feb 5abe e112 b5be bc8b 933d 211e 8f3d
00000170: 6ae7 903d a6ee 80be 8c94 dc3d f6d0 de3e
00000180: 42af 51be a4e7 0abe c232 833e faf3 57bd
00000190: 7cbc e83e 7480 2abe 58f4 363e fe15 81bd
000001a0: 2174 32be 18b9 1cbc 178f b93e 0291 a43d
000001b0: 4e09 9d3d d186 3c3e d930 92be 1ec7 893e
000001c0: 7101 193f c68e a9be baae 1c3d dd39 d3be
000001d0: f777 16bd 36f9 55bd 60db eabd 58d2 383e
000001e0: ade4 113d cd87 993e d077 40be 2b1b b2bd
000001f0: 07ad 163e defb a33d 022d f13d 9d8b 00be
00000200: e93e acbe 9c74 cebe 2e0b 293d 634a 173e
00000210: df0a 103e 58fd 0abe fa37 443d 171c 363e
00000220: f595 40be 5f68 4fbe 306b 8c3c bf7d ef3c
00000230: 4313 54be 18ac 343e abd3 8dbd 73dc 98bd
00000240: 9fa0 f4bd 151e 0d3e 2afe 82be 91ef 7c3d
00000250: 431e 913e fe80 35be

base.0linear.bias f4 [50]
-0.018254934 -0.053334035 0.19441019 -0.10767024 -0.030288279 0.04917662 -0.06158646 -0.07521807
0.06301048 0.09144235 0.001505683 0.00913619 0.01831078 -0.05663793 0.05347287 0.0040618028
0.043550942 0.115236245 0.037103463 -0.04953074 0.120401 0.09294471 0.07450726 0.10087274
-0.033529315 -0.009364999 -0.023945164 -0.03855078 0.15237588 -0.06719217 -0.08200358 -0.0626097
-0.100400664 0.010282834 0.061742455 -0.19662082 0.013825617 0.020667296 0.034855988 -0.07641326
0.12546495 -0.0438464 -0.0042400775 0.104105644 0.0038543658 0.06382317 0.12506746 -0.031517893
0.11375481 0.07384368
00000000: 5f8b 95bc ca74 5abd 7713 473e 3782 dcbd
00000010: 201f f8bc 6c6d 493d 1542 7cbd ee0b 9abd
00000020: a30b 813d 2046 bb3d 565a c53a f5af 153c
00000030: 7d00 963c 2dfd 67bd 5e06 5b3d df18 853b
00000040: 7962 323d fb00 ec3d cdf9 173d bfe0 4abd
00000050: cd94 f63d cc59 be3d 4397 983d 5e96 ce3d
00000060: 0956 09bd a76f 19bc a628 c4bc 6ce7 1dbd
00000070: 6c08 1c3e 0c9c 89bd 7ef1 a7bd 8439 80bd
00000080: dd9e cdbd 5579 283c a8e5 7c3d f856 49be
00000090: d784 623c 764e a93c 27c5 0e3d 8e7e 9cbd
000000a0: e279 003e 4898 33bd 59f0 8abb 5735 d53d
000000b0: 8799 7c3b b9b5 823d af11 003e e818 01bd
000000c0: 48f8 e83d 5b3b 973d

base.1linear.weight f4 [50, 50]
-0.23082027 -0.002210316 0.10960184 -0.03630822 0.17168121 0.026107477 -0.03421601 0.066273846
-0.0015810818 -0.040997557 0.08179534 -0.15980606 -0.22499758 0.068409316 0.06702824 0.07504323
0.025649222 0.07580838 -0.10009194 0.21011002 0.011582299 0.095520124 0.19693589 -0.13122822
-0.057312448 0.060588453 -0.196476 0.11314979 -0.107931145 -0.09532005 -0.0905885 -0.17699963
0.18255332 -0.27817532 -0.17758955 0.026065266 0.10464151 0.15288973 -0.17107704 0.089552864
0.11123807 -0.16427544 -0.12063987 0.17452244 0.040402748 0.006165028 -0.098135225 -0.101797186
0.10394233 -0.10640326 0.033865817 0.38470697 -0.34368548 0.07296396 -0.121943824 -0.14561379
0.04499245 -0.064301185 -0.20658024 -0.012474294 -0.051031273 0.03491501 -0.20382264 -0.027245188
0.002142129 -0.028087141 0.019508848 -0.11654571 0.2630056 -0.14216782 -0.19052733 -0.10010415
-0.18115987 -0.032302532 -0.05830923 -0.122993685 0.14107893 -0.17282262 0.0068427557 -0.029335406
0.028101286 0.09999762 -0.24996197 0.14026429 0.07806089 0.4405667 0.09088096 0.17816287
-0.2709007 0.22839876 0.19890644 0.10462259 0.1192919 -0.19604664 -0.15127662 -0.022813486
0.19599149 -0.27979994 0.14773025 0.0033053872 -0.19552441 0.074692324 -0.14176549 0.21856722
0.14864957 -0.17727634 0.17880267 0.09319733 0.059065145 -0.017404778 0.039989635 0.26352876
-0.004357622 0.16056812 0.116642594 -0.0072261547 0.17606588 0.21652427 -0.3466224 0.09319115
-0.14010128 0.05428304 0.010039173 -0.07339778 -0.13890466 -0.002756537 -0.0757912 -0.32731074
-0.1434329 0.08423283 0.07320218 -0.34004003 -0.22075152 -0.1592675 0.15881255 0.0858042
-0.09119878 0.022480851 -0.1355956 -0.023162566 -0.12185226 -0.15447742 -0.18450351 -0.3466189
0.16340557 0.085687056 -0.26322728 0.22272922 -0.19812876 -0.09211648 -0.07431594 -0.11421073
-0.04858464 0.020045517 0.056039345 -0.20548436 0.081575565 -0.029249193 -0.13603675 0.14061935
0.010169016 0.15525746 -0.0172354 -0.09507055 0.19291957 -0.36736864 -0.1437073 -0.10734428
0.036038928 -0.15907086 -0.26098 0.031174682 0.1434213 0.00093467016 -0.01676478 -0.27733728
-0.029479658 -0.021032581 -0.32473752 -0.26752296 -0.016661482 0.0005005259 -0.11132694 0.17029026
-0.14686884 0.12778674 0.062790774 0.14297336 -0.032900494 0.0061811167 0.2107082 -0.21230799
-0.0062712557 -0.0055499263 -0.040327273 -0.07509766 0.034079257 -0.15578097 -0.06672228 -0.0186993
0.42463183 0.20046689 -0.17679693 0.07106669 0.6001186 -0.3433487 -0.07619578 -0.19118099
-0.04609927 -0.10583153 0.037259966 0.12825231 0.11133034 0.0029975744 0.090427436 -0.10630773
-0.0358854 -0.23523267 -0.07164359 -0.1406526 -0.14055414 0.052624494 -0.016916359 -0.15361534
0.24781059 -0.23141904 0.33939296 0.16197042 -0.16304666 0.08925257 0.17453392 0.10829558
0.22280976 0.035467423 0.02255952 0.4007467 0.053553134 0.0450388 0.15754022 -0.020445356
-0.1894002 0.20637353 -0.08584648 0.30866736 -0.39456615 0.00096461095 -0.11115183 -0.026437987
-0.030839287 0.11715876 -0.051530536 -0.29270804 0.09810194 0.12705503 0.10380051 -0.24721372
00000000: 265c 6cbe f3da 10bb ee76 e03d eeb7 14bd
00000010: 33cd 2f3e 59df d53c 1626 0cbd 95ba 873d
00000020: 4d3c cfba 0eed 27bd 5184 a73d 33a4 23be
00000030: c465 66be 2f1a 8c3d 1a46 893d 44b0 993d
00000040: 511e d23c 6d41 9b3d 01fd ccbd 1527 573e
00000050: afc3 3d3c 0ea0 c33d 90a9 493e b160 06be
00000060: 75c0 6abd 992b 783d 0131 49be 14bb e73d
00000070: 010b ddbd 2937 c3bd 7786 b9bd 643f 35be
00000080: 42ef 3a3e ff6c 8ebe 09da 35be d386 d53c
00000090: 4a4e d63d 208f 1c3e d22e 2fbe 7e67 b73d
000000a0: c9d0 e33d d237 28be 0912 f7bd 03b6 323e
000000b0: 5a7d 253d 0104 ca3b 1ffb c8bd 0b7b d0bd
000000c0: b7df d43d f4e9 d9bd e2b6 0a3d 50f8 c43e
000000d0: 8bf7 afbe 216e 953d afbd f9bd c81b 15be
000000e0: 014a 383d 57b0 83bd c589 53be fb60 4cbc
000000f0: 2b06 51bd 0b03 0f3d e2b6 50be 4d31 dfbc
00000100: f662 0c3b 0117 e6bc 05d1 9f3c 84af eebd
00000110: aca8 863e 7194 11be 9919 43be 6803 cdbd
00000120: f981 39be a94f 04bd a9d5 6ebd 1de4 fbbd
00000130: ff76 103e 6af8 30be 3239 e03b ce50 f0bc
00000140: ab34 e63c 8dcb cc3d 08f6 7fbe 71a1 0f3e
00000150: 63de 9f3d f591 e13e cc1f ba3d 5470 363e
00000160: 7fb3 8abe 5de1 693e 21ae 4b3e 5e44 d63d
00000170: 504f f43d 73c0 48be 42e8 1abe 59e3 babc
00000180: feb1 483e f041 8fbe 9946 173e 329f 583b
00000190: 8d37 48be 4af8 983d f92a 11be 16d0 5f3e
000001a0: 9837 183e ee87 35be 0c18 373e 3ede be3d
000001b0: 4bee 713d 7794 8ebc 2ccc 233d 3eed 863e
000001c0: 62ca 8ebb f86b 243e 50e2 ee3d 61c9 ecbb
000001d0: 9d4a 343e 8ab8 5d3e 7e78 b1be 00db be3d
000001e0: b676 0fbe e557 5e3d 587b 243c 9351 96bd
000001f0: 063d 0ebe 04a7 34bb 6b38 9bbd 4695 a7be
00000200: 13e0 12be 4382 ac3d 06eb 953d ba19 aebe
00000210: b00c 62be 0517 23be c29f 223e 1dba af3d
00000220: 6dc6 babd c329 b83c 93d9 0abe 6cbf bdbc
00000230: ad8d f9bd 542f 1ebe 7dee 3cbe 0878 b1be
00000240: ca53 273e b27c af3d bac5 86be 2113 643e
00000250: 44e2 4abe 91a7 bcbd f532 98bd 51e7 e9bd
00000260: b000 47bd 7f36 a43c 8389 653d 7e6a 52be
00000270: 1711 a73d 019c efbc 384d 0bbe 85fe 0f3e
00000280: f29b 263c d0fb 1e3e 4131 8dbc 59b4 c2bd
00000290: b58c 453e be17 bcbe 0228 13be 51d7 dbbd
000002a0: 8e9d 133d 79e3 22be 2c9f 85be 0c62 ff3c
000002b0: 09dd 123e a704 753a 4b56 89bc 27ff 8dbe
000002c0: 537f f1bc 854c acbc ff43 a6be c5f8 88be
000002d0: a97d 88bc b935 033a 61ff e3bd 9260 2e3e
000002e0: c964 16be 87da 023e 7398 803d 9c67 123e
000002f0: abc2 06bd f78a ca3b e4c3 573e 4467 59be
00000300: 1b7f cdbb 28dc b5bb 362e 25bd cdcc 99bd
00000310: b196 0b3d 0c85 1fbe b1a5 88bd 462f 99bc
00000320: 5869 d93e 3147 4d3e 410a 35be 6a8b 913d
00000330: 5fa1 193f 67cb afbe 880c 9cbd f3c4 43be
00000340: 97d2 3cbd 34be d8bd e89d 183d 9354 033e
00000350: 2901 e43d f472 443b 0532 b93d deb7 d9bd
00000360: 92fc 12bd d5e0 70be e0b9 92bd 3c07 10be
00000370: 6ded 0fbe c88c 573d 2d94 8abc 574d 1dbe
00000380: 0fc2 7d3e 1df9 6cbe eac4 ad3e 93db 253e
00000390: b4f5 26be 0dca b63d 05b9 323e 13ca dd3d
000003a0: 3e28 643e 4a46 113d bece b83c ac2e cd3e
000003b0: 885a 5b3d 9b7a 383d 3952 213e 057d a7bc
000003c0: 20f2 41be 9553 533e 48d0 afbd a609 9e3e
000003d0: 9304 cabe f2dd 7c3a 92a3 e3bd 7a94 d8bc
000003e0: aca2 fcbc eff0 ef3d af11 53bd d4dd 95be
000003f0: abe9 c83d b71a 023e 5d95 d43d 9825 7dbe

base.1linear.bias f4 [50]
-0.033620976 -0.04441161 0.036742143 -0.0042148153 -0.10624061 0.048812915 0.06417591 -0.09711704
0.11654332 0.028074702 -0.0666322 -0.12069855 0.007238032 -0.0023986252 0.19387572 -0.03343762
0.08411191 0.14377737 0.015660152 0.18158254 -0.06350867 -0.01819985 0.019437304 0.1014255
0.0043940963 0.06988449 0.091896735 0.0066801957 0.036315057 0.16598153 0.0511018 0.028978018
0.06724824 -0.002096197 0.06074297 0.09361827 0.06977922 -0.062450532 -0.074771054 0.04934716
-0.089783326 0.067436986 0.020426013 -0.07530578 -0.014855593 -0.0057691527 -0.04374893 0.06541141
0.046320684 0.11745704
00000000: 26b6 09bd f3e8 35bd ee7e 163d 6f1c 8abb
00000010: ad94 d9bd 0df0 473d a96e 833d 4ce5 c6bd
00000020: 44ae ee3d ebfc e53c 7676 88bd cd30 f7bd
00000030: 032d ed3b 4132 1dbb 5b87 463e e3f5 08bd
00000040: dd42 ac3d 603a 133e b849 803c c6f0 393e
00000050: d510 82bd da17 95bc fb3a 9f3c 2cb8 cf3d
00000060: 5afc 8f3b 991f 8f3d 5b34 bc3d 8be5 da3b
00000070: 19bf 143d 10f7 293e 1f50 513d 4f63 ed3c
00000080: 72b9 893d 5a60 09bb 9fcd 783d efba bf3d
00000090: 68e8 8e3d 21cc 7fbd 9121 99bd 3f20 4a3d
000000a0: 52e0 b7bd 671c 8a3d 7454 a73c eb39 9abd
000000b0: e064 73bc 290b bdbb 1432 33bd 6bf6 853d
000000c0: c2ba 3d3d 518d f03d

base.2linear.weight f4 [50, 50]
0.008640915 -0.1233557 -0.10699474 -0.09259037 -0.07689334 0.1664452 0.021870105 0.01461473
-0.30457515 -0.06920942 -0.11733859 0.032191835 -0.029944675 0.012652675 0.20499673 -0.066812776
0.16115625 -0.09142367 0.079140075 0.028184917 0.083334595 -0.048483223 -0.11097967 -0.040488843
0.09607863 -0.20487927 0.13371795 -0.14698862 0.03174374 -0.22214136 0.33126512 0.18338223
-0.018785508 0.041629124 -0.06262096 0.080555744 0.22941157 -0.12535293 0.25527632 0.042000998
-0.020776387 0.19274946 -0.18614234 -0.07071339 -0.04049655 0.033770964 0.18753617 -0.036031816
0.19200803 0.0850635 -0.0322944 0.263861 -0.09301744 0.16766454 0.18192253 0.025166355
0.36699864 0.08907242 0.05771161 -0.00900003 0.12162184 -0.062416907 0.111870944 -0.039109897
-0.21612199 0.10414199 0.13959287 -0.32804966 0.10152296 -0.25621074 -0.19088979 -0.03972877
0.1251229 -0.11380315 -0.001565416 -0.1367597 -0.20488045 -0.0065776785 -0.0583883 -0.09341979
-0.33242145 -0.12941314 -0.28753486 0.03542519 0.16921389 -0.22850531 -0.14489745 0.023839196
-0.10298414 -0.015090763 0.15826772 -0.36312583 0.019392405 0.17612378 0.07410715 -0.010121833
0.06211219 0.11506634 0.081458755 -0.25261638 0.06272608 -0.033757754 0.04377642 -0.04518927
-0.012397524 -0.16378395 0.010304621 0.133421 -0.20410855 0.08704119 0.34252885 0.19891717
-0.067600824 -0.06375277 -0.0056291046 -0.1230247 -0.14738922 -0.050876208 0.011337113 -0.118996605
0.013956429 -0.018375438 0.0055697826 -0.057978254 0.06006738 -0.07477636 -0.3404352 0.03011015
0.07676779 0.05745241 0.08369852 0.0484897 0.22136582 -0.058014315 0.20918918 -0.18507394
-0.36371785 0.0166957 -0.1225561 -0.067587174 0.05374429 -0.0639748 0.13374099 0.20079476
0.01610262 -0.012218333 0.23999049 -0.034606986 -0.39305925 -0.0009551924 -0.05698383 0.040744193
0.044081222 -0.26769343 0.047689363 0.25006893 -0.15161222 0.087787524 0.028116055 -0.05952137
-0.09940736 -0.07249599 0.035655074 0.08910197 -0.3028349 0.0402213 -0.029465515 -0.30555433
-0.07269111 -0.34177235 0.017350132 -0.12216742 -0.17287888 0.080647685 -0.043626815 0.062138774
-0.08139862 0.102507606 -0.094584145 0.058073476 0.13772222 -0.10747206 -0.2669676 0.12283802
-0.10820578 -0.14722557 0.36706004 -0.14104746 -0.12918271 -0.05800554 -0.07096755 -0.0028182755
-0.165955 0.118655816 -0.07374667 -0.025784962 -0.07315621 -0.023760933 0.098985136 -0.21966995
-0.10779074 0.10455437 0.2801857 0.096693076 0.17055613 -0.0708616 -0.12145166 0.092412785
-0.046577383 -0.11121208 0.2310477 -0.105638064 0.053147256 -0.022168105 -0.20307188 0.033283886
-0.13321297 -0.30907097 0.06141133 -0.14373867 -0.03928637 0.013063307 -0.069925226 -0.048214667
0.035661694 0.1717644 -0.16708621 -0.21951924 0.006585553 -0.45642737 -0.09167589 0.13782193
-0.13507177 -0.04910055 -0.10655433 0.010081884 -0.09927629 -0.0045552207 -0.11291859 -0.015409813
0.16102168 -0.13929911 -0.083907805 0.10970739 0.104550116 0.0018476263 0.14334443 -0.35923436
-0.012599492 -0.5016251 0.0035319852 0.14146991 0.044013746 -0.25292248 -0.02103981 -0.11745855
00000000: a092 0d3c eaa1 fcbd 0f20 dbbd 05a0 bdbd
00000010: 417a 9dbd 9c70 2a3e ef28 b33c 9f72 6f3c
00000020: 46f1 9bbe abbd 8dbd 374f f0bd 96db 033d
00000030: 894e f5bc 2a4d 4f3c aaea 513e 23d5 88bd
00000040: 2506 253e 553c bbbd 3114 a23d 0ee4 e63c
00000050: 54ab aa3d 5896 46bd 4f49 e3bd a1d7 25bd
00000060: dfc4 c43d dfcb 51be 5ced 083e 2f84 16be
00000070: b905 023d 0679 63be 959b a93e 8dc8 3b3e
00000080: 11e4 99bc 4d83 2a3d 6b3f 80bd 69fa a43d
00000090: deea 6a3e 855c 00be 94b3 823e 3d09 2c3d
000000a0: 3e33 aabc 1d60 453e 199c 3ebe 2fd2 90bd
000000b0: b6df 25bd 6c53 0a3d 7b09 403e 1996 13bd
000000c0: c19d 443e c635 ae3d 2247 04bd ca18 873e
000000d0: ed7f bebd 41b0 2b3e e649 3a3e ac29 ce3c
000000e0: 3fe7 bb3e 9a6b b63d 0263 6c3d dd74 13bc
000000f0: df14 f93d dfa8 7fbd 981c e53d b331 20bd
00000100: 154f 5dbe 6548 d53d 6ff1 0e3e 20f6 a7be
00000110: 45eb cf3d 0e2e 83be 9d78 43be a2ba 22bd
00000120: 3820 003e a011 e9bd a52e cdba bc0a 0cbe
00000130: 2ecc 51be 9189 d7bb 9228 6fbd e052 bfbd
00000140: 2533 aabe e184 04be c537 93be 011a 113d
00000150: 6846 2d3e 4cfd 69be ff5f 14be 6b4a c33c
00000160: 59e9 d2bd 3f3f 77bc ef10 223e a1eb b9be
00000170: d2dc 9e3c cb59 343e 7dc5 973d 0bd6 25bc
00000180: 5a69 7e3d e7a7 eb3d d9d3 a63d ef56 81be
00000190: 8876 803d 9245 0abd e74e 333d 6218 39bd
000001a0: fc1e 4bbc fbb6 27be b7d4 283c 849f 083e
000001b0: d501 51be a742 b23d f15f af3e f1b0 4b3e
000001c0: 4d72 8abd d090 82bd 5a74 b8bb 60f4 fbbd
000001d0: 33ed 16be 9263 50bd 4cbf 393c 7eb4 f3bd
000001e0: 82a9 643c 1688 96bc b982 b63b 9b7a 6dbd
000001f0: 3709 763d 5924 99bd 864d aebe 90a9 f63c
00000200: 6e38 9d3d 3853 6b3d 216a ab3d 239d 463d
00000210: b9ad 623e 6ba0 6dbd b035 563e 0684 3dbe
00000220: 3a39 babe 6cc5 883c b1fe fabd 256b 8abd
00000230: f922 5c3d 3805 83bd 66f3 083e 249d 4d3e
00000240: a4e9 833c 672f 48bc 11c0 753e 0ec0 0dbd
00000250: 103f c9be e065 7aba e067 69bd 62e3 263d
00000260: 838e 343d 1d0f 89be ec55 433d 0909 803e
00000270: 3c40 1bbe f2c9 b33d a453 e63c aecc 73bd
00000280: 1696 cbbd c778 94bd 0e0b 123d 187b b63d
00000290: 2d0d 9bbe 17bf 243d aa61 f1bc 9e71 9cbe
000002a0: 14df 94bd c9fc aebe dd21 8e3c ea32 fabd
000002b0: 2907 31be 9d2a a53d 08b2 32bd 3a85 7e3d
000002c0: 52b4 a6bd 82ef d13d 55b5 c1bd 74de 6d3d
000002d0: 0e07 0d3e 501a dcbd faaf 88be 8092 fb3d
000002e0: fe9a ddbd 4dc2 16be 4bef bb3e bf6e 10be
000002f0: 7948 04be 3897 6dbd 6f57 91bd d1b2 38bb
00000300: 1cf0 29be d201 f33d 7e08 97bd fc3a d3bc
00000310: ecd2 95bd 4aa6 c2bc b8b8 ca3d 29f1 60be
00000320: 64c1 dcbd 9a20 d63d 8074 8f3e 0507 c63d
00000330: 44a6 2e3e e31f 91bd a6bb f8bd ea42 bd3d
00000340: edc7 3ebd 29c3 e3bd c597 6c3e c558 d8bd
00000350: f0b0 593d e399 b5bc 13f2 4fbe af54 083d
00000360: fb68 08be 8d3e 9ebe 728a 7b3d 3b30 13be
00000370: bfea 20bd 7b07 563c f534 8fbd be7c 45bd
00000380: ff11 123d 02e3 2f3e a618 2bbe a7c9 60be
00000390: 9fcb d73b d9b0 e9be 92c0 bbbd 3121 0d3e
000003a0: 4150 0abe a91d 49bd 2839 dabd 7d2e 253c
000003b0: 5e51 cbbd f643 95bb dd41 e7bd 7179 7cbc
000003c0: dee2 243e 6da4 0ebe dbd7 abbd 45ae e03d
000003d0: 5f1e d63d 0d2c f23a e2c8 123e 91ed b7be
000003e0: 1a6e 4ebc 816a 00bf e178 673b 7ddd 103e
000003f0: c247 343d 0e7f 81be ae5b acbc 1c8e f0bd

base.2linear.bias f4 [50]
0.0077665076 -0.11792584 -0.08090836 -0.12239521 -0.07258958 -0.09294017 0.035793148 -0.0031365766
-0.20241356 0.03489883 -0.10602378 -0.042382985 -0.1493086 0.052824244 0.10554942 -0.18052164
-0.032337308 0.16693519 -0.04183645 -0.05146348 0.051148877 0.13084483 0.034400214 -0.07381209
0.06837318 -0.032582216 0.013843875 -0.012622461 0.06060795 0.084866054 -0.0036867985 0.1729297
-0.16357361 -0.10450191 -0.16398609 -0.08473091 0.00605688 0.0792094 0.10385007 0.11651458
-0.012275609 -0.010300909 0.029427754 0.034839522 -0.08196135 -0.06775357 -0.026145268 0.14233032
0.06761094 -0.01420747
00000000: 307e fe3b 1a83 f1bd 48b3 a5bd 57aa fabd
00000010: d9a9 94bd 6a57 bebd d69b 123d 068f 4dbb
00000020: 8045 4fbe 13f2 0e3d ff22 d9bd c899 2dbd
00000030: 5be4 18be 3c5e 583d 4b2a d83d aada 38be
00000040: 2074 04bd 0ff1 2a3e b35c 2bbd 5fcb 52bd
00000050: 7c81 513d 30fc 053e 3de7 0c3d cb2a 97bd
00000060: 3d07 8c3d ee74 05bd 6cd1 623c 70ce 4ebc
00000070: 0b40 783d 41ce ad3d 379e 71bb 7c14 313e
00000080: d77f 27be 1905 d6bd f8eb 27be 6687 adbd
00000090: cb78 c63b 8a38 a23d 58af d43d 329f ee3d
000000a0: a31f 49bc 25c5 28bc 7912 f13c e3b3 0e3d
000000b0: 5adb a7bd 62c2 8abd 9a2e d6bc 0abf 113e
000000c0: 9b77 8a3d 73c6 68bc

base.3linear.weight f4 [50, 50]
0.16513951 -0.35722363 0.3868775 -0.24155916 -0.12885916 -0.14751859 -0.1925885 -0.22798812
0.03793306 -0.054634087 0.0072924397 -0.109225966 -0.11074546 -0.24756812 -0.37171608 -0.09746548
0.13890278 0.29931128 0.03432704 -0.01117154 0.22584175 -0.03790319 0.01059707 -0.26450238
0.07770229 -0.038563073 -0.18639354 0.074202634 -0.10454328 0.088048585 -0.09650764 -0.13372022
0.040371083 -0.121922165 -0.04957495 -0.07131158 0.3724448 -0.029418424 -0.40990546 0.09655896
-0.036612574 0.1656518 -0.2484811 -0.2975014 -0.034238033 -0.044144765 0.0636599 -0.046540968
0.009748657 0.08139126 0.029713841 -0.22821154 -0.22441906 0.02336912 -0.14237659 0.017827133
0.18665087 0.15766625 -0.17029831 0.043460764 -0.09416404 -0.1409876 -0.14480107 0.38295916
0.11027705 -0.23446566 -0.18486813 -0.03703811 -0.015439521 -0.0010180491 0.30230328 0.4207547
0.1713448 -0.17822953 -0.080112904 0.05111428 0.07651291 -0.06896971 0.11467108 0.007949456
0.09647941 0.0685219 0.09465346 -0.25397804 -0.14410798 0.15198116 -0.014479432 0.12118749
0.27212483 -0.23029408 0.10989833 0.050861593 0.34211412 0.50373006 -0.045747142 -0.1703464
-0.06064431 0.25720075 0.06169617 0.29099572 0.07556344 0.011883299 -0.072920024 0.13541302
-0.1817367 0.2732705 0.07775288 0.19979376 0.1069818 -0.028737629 -0.054242004 -0.21283473
0.12454603 0.243336 -0.2028673 0.053561397 -0.032499075 0.124917306 -0.027481517 -0.07528893
0.09039493 0.057837788 -0.02504493 0.05881248 0.06704263 -0.058311358 0.019598778 0.06831194
-0.20824371 -0.14834185 0.02647498 0.107590556 -0.09041163 -0.23977578 0.25031173 -0.1203126
-0.06278588 0.0031126803 -0.07655145 0.02028262 0.00735032 -0.09422265 -0.2106225 0.022637503
0.020412736 0.004663726 0.06857392 -0.19889024 0.14066753 -0.11224984 -0.063690744 -0.2046679
-0.23172462 -0.4406671 0.053378116 -0.1861185 -0.26257417 -0.25619265 -0.23243494 0.058821477
-0.23621209 -0.10476831 -0.34212685 -0.032576583 0.044652827 -0.4809396 -0.029488083 0.3222736
0.15609217 0.18781044 0.36833444 -0.08642745 0.18117328 0.019099802 0.45103374 -0.35898545
-0.3292757 0.12891941 0.12742858 0.12154054 -0.06657039 0.46717474 -0.17772596 -0.08357211
-0.45226327 0.0508197 0.143574 -0.12928689 0.043310203 0.64762914 -0.11545794 -0.12463971
-0.20258893 -0.09658066 0.13710502 -0.3422879 0.08307599 0.055884775 0.07091751 0.12477516
0.12803286 -0.084417574 -0.09948484 -0.09422336 0.12411777 0.34887347 -0.051578864 -0.33459365
-0.4324392 0.0060638553 0.0692096 -0.1075411 -0.110445686 -0.038827453 0.35346103 -0.23920928
0.2650554 0.005681551 -0.11790899 0.22338478 -0.117155686 0.09505328 0.3143929 -0.09577895
0.093828455 0.021343833 -0.20093793 -0.08035307 -0.32590196 -0.00077465846 0.1529421 0.29802263
-0.52314186 -0.122040994 -0.08670533 0.19180612 0.10300872 -0.085178696 0.048124038 0.011369352
-0.41493344 -0.088311784 -0.10200134 -0.00088101864 0.2727788 0.14876288 -0.0003813115 -0.09090971
0.020319972 0.114310175 -0.10966588 0.04401346 0.10133411 -0.057341833 0.49148998 0.08055851
00000000: 551a 293e 04e6 b6be cf14 c63e 495b 77be
00000010: a8f3 03be 1d0f 17be eb35 45be b875 69be
00000020: b25f 1b3d fec7 5fbd 6bf5 ee3b ddb1 dfbd
00000030: 84ce e2bd 7f82 7dbe 9251 bebe fb9b c7bd
00000040: 883c 0e3e 543f 993e 839a 0c3d d608 37bc
00000050: 0f43 673e 6040 1bbd 559f 2d3c db6c 87be
00000060: 6122 9f3d 50f4 1dbd f3dd 3ebe 8df7 973d
00000070: ca1a d6bd d152 b43d cca5 c5bd f4ed 08be
00000080: 265c 253d 54b2 f9bd 1a0f 4bbd ce0b 92bd
00000090: 16b1 be3e e8fe f0bc 21df d1be b4c0 c53d
000000a0: 11f7 15bd a0a0 293e d471 7ebe 1a52 98be
000000b0: 2e3d 0cbd 24d1 34bd 1f60 823d bea1 3ebd
000000c0: d5b8 1f3c 76b0 a63d 716a f33c 49b0 69be
000000d0: 1cce 65be 9970 bf3c 2bcb 11be 350a 923c
000000e0: 6821 3f3e 4373 213e ae62 2ebe ea03 323d
000000f0: 14d9 c0bd 0e5f 10be bb46 14be 3913 c43e
00000100: efd8 e13d c417 70be 124e 3dbe 46b5 17bd
00000110: 0bf6 7cbc 0f70 85ba 7fc7 9a3e 296d d73e
00000120: 0375 2f3e cd81 36be 3c12 a4bd 355d 513d
00000130: cdb2 9c3d fe3f 8dbd acd8 ea3d 6f3e 023c
00000140: ff96 c53d 3655 8c3d acd9 c13d 6909 82be
00000150: 0b91 13be f3a0 1b3e 243b 6dbc 2631 f83d
00000160: f253 8b3e 36d2 6bbe 6012 e13d 3f54 503d
00000170: 9529 af3e 74f4 003f 5b61 3bbd 496f 2ebe
00000180: 2b66 78bd d1af 833e 20b5 7c3d 64fd 943e
00000190: 01c1 9a3d 2bb2 423c 1857 95bd b6a9 0a3e
000001a0: 2f19 3abe 1cea 8b3e e73c 9f3d bc96 4c3e
000001b0: 4619 db3d 2d6b ebbc dd2c 5ebd 59f1 59be
000001c0: fd11 ff3d 132d 793e 72bc 4fbe 3263 5b3d
000001d0: c01d 05bd a5d4 ff3d eb20 e1bc 1531 9abd
000001e0: fa20 b93d 51e7 6c3d 062b cdbc 5be5 703d
000001f0: a54d 893d e4d7 6ebd 9e8d a03c 21e7 8b3d
00000200: d73d 55be ede6 17be 0fe2 d83c 7058 dc3d
00000210: bc29 b9bd c887 75be dc28 803e 7466 f6bd
00000220: e295 80bd 1cfe 4b3b 02c7 9cbd bd27 a63c
00000230: f4da f03b cef7 c0bd 6dad 57be 4972 b93c
00000240: 9c38 a73c 2bd2 983b 7c70 8c3d e2a9 4bbe
00000250: 260b 103e 3ee3 e5bd 4b70 82bd 7694 51be
00000260: 3849 6dbe 1e9f e1be 03a3 5a3d d995 3ebe
00000270: 1f70 86be af2b 83be 6d03 6ebe caee 703d
00000280: 95e1 71be c590 d6bd 402b afbe 066f 05bd
00000290: e2e5 363d b73d f6be fe90 f1bc 0c01 a53e
000002a0: a0d6 1f3e 6151 403e 5596 bc3e e000 b1bd
000002b0: 7d85 393e 3077 9c3c e5ed e63e f1cc b7be
000002c0: d396 a8be 7303 043e a37c 023e 3fea f83d
000002d0: 0e56 88bd 8731 ef3e cbfd 35be db27 abbd
000002e0: 0d8f e7be 5128 503d 1005 133e c863 04be
000002f0: 0a66 313d 06cb 253f 3675 ecbd 1b43 ffbd
00000300: 7973 4fbe 15cc c5bd 4265 0c3e 5c40 afbe
00000310: bf23 aa3d 6fe7 643d 333d 913d 1e8a ff3d
00000320: 0c1b 033e 1fe3 acbd b5be cbbd 2df8 c0bd
00000330: 7531 fe3d 8b9f b23e 5c44 53bd dc4f abbe
00000340: ac68 ddbe 4eb3 c63b c3bd 8d3d 823e dcbd
00000350: 5931 e2bd 8909 1fbd d8f8 b43e 47f3 74be
00000360: 57b5 873e 4e2c ba3b 457a f1bd fbbe 643e
00000370: 52ef efbd 4bab c23d 1bf8 a03e c127 c4bd
00000380: 2229 c03d 43d9 ae3c acc2 4dbe 2690 a4bd
00000390: 9fdc a6be 7312 4bba db9c 1c3e 6c96 983e
000003a0: a0ec 05bf a1f0 f9bd 9092 b1bd d368 443e
000003b0: 3cf6 d23d 2b72 aebd b61d 453d 8546 3a3c
000003c0: 2872 d4be cfdc b4bd 14e6 d0bd 29f4 66ba
000003d0: aaa9 8b3e 4c55 183e c3ea c7b9 df2e babd
000003e0: 1276 a63c 741b ea3d 8198 e0bd 7547 343d
000003f0: 4288 cf3d 45df 6abd 93a4 fb3e dcfb a43d

base.3linear.bias f4 [50]
0.02309099 0.10730473 -0.084513165 0.18494831 0.08645394 0.013376029 -0.036164816 -0.038737547
0.030971812 0.03344673 -0.014993317 -0.021479936 -0.024227036 -0.05369836 0.05815026 -0.06240337
-0.047870096 -0.044235595 -0.011116252 0.05718425 0.011688551 0.056115404 -0.06198879 0.021838978
-0.037774634 0.09457696 0.045308117 0.0015059597 0.10396068 0.0029858404 -0.06619257 -0.025335616
0.047236152 0.1428121 -0.077149875 0.010323282 0.057391617 -0.03863297 -0.16535668 -0.05418487
-0.16357608 0.027246991 -0.017272346 -0.009757796 -0.01712747 -0.06343097 -0.039523534 0.0011026401
-0.057449766 0.013265874
00000000: 5129 bd3c 95c2 db3d 3d15 adbd 1763 3d3e
00000010: c30e b13d 2227 5b3c 8f21 14bd 43ab 1ebd
00000020: 99b8 fd3c 70ff 083d 88a6 75bc b1f6 afbc
00000030: c777 c6bc d0f2 5bbd f82e 6e3d ad9a 7fbd
00000040: 6f13 44bd 6230 35bd f120 36bc 083a 6a3d
00000050: 5681 3f3c 44d9 653d f5e7 7dbd a8e7 b23c
00000060: 93b9 1abd 91b1 c13d 0195 393d 9f63 c53a
00000070: 56e9 d43d 17ae 433b f88f 87bd a38c cfbc
00000080: b27a 413d 563d 123e c100 9ebd fc22 293c
00000090: 7913 6b3d 9b3d 1ebd 4353 29be f4f0 5dbd
000000a0: 7d80 27be 1535 df3c bc7e 8dbc 2adf 1fbc
000000b0: e84e 8cbc 19e8 81bd 6ee3 21bd 7686 903a
000000c0: 7250 6bbd 1c59 593c

base.4linear.weight f4 [50, 50]
-0.012293178 -0.09938852 0.008111984 0.241684 -0.17438628 0.17957984 -0.106478944 -0.027828012
-0.03139579 -0.014728023 0.17761257 -0.058676127 0.034547385 -0.05998818 -0.26556915 -0.04522945
-0.18076181 -0.047009174 -0.18301836 0.24324593 0.14681971 0.21938665 -0.004762319 -0.06938867
-0.011733242 -0.09900691 -0.041707017 0.03271542 -0.03916762 0.07249409 0.0968818 -0.10122922
0.01971784 0.15218759 -0.10286619 -0.1561913 -0.13406001 -0.17325976 -0.08716653 0.23254745
0.18721773 0.06449002 0.20940031 0.09405354 -0.06312396 0.0069141435 0.11788537 -0.29237035
-0.25137764 -0.05617055 0.1531607 0.19455665 0.17096737 0.32538974 0.2282945 -0.39161518
-0.0024124708 -0.11212203 -0.0072820433 -0.0075762225 -0.043884255 0.038147293 0.13102715 0.033774756
0.3619846 0.1842169 0.021199003 -0.011894441 0.23776738 -0.23574194 -0.05286819 -0.03010301
-0.027653513 -0.16127592 -0.06740949 0.20089193 -0.017375648 -0.3136947 0.22939591 0.08425297
-0.05751958 0.06433052 0.022078373 0.08212466 -0.042880353 0.019554716 0.16418703 0.16678481
-0.13121328 0.11800959 0.025763808 0.07955709 -0.34965685 0.12399928 0.13919467 0.11776711
-0.33984277 0.07405612 -0.1536602 -0.11299456 -0.31853414 -0.059506066 0.1460659 -0.33964732
-0.17527641 -0.077129476 0.03607712 -0.044972382 0.009926631 0.010698772 -0.042380035 -0.010489217
0.04107236 0.060810767 -0.111376934 0.049972583 0.20082295 -0.26656345 0.27053177 -0.057626
0.25537968 0.18665889 0.40138498 -0.08872874 0.3469417 -0.18252625 -0.04444986 -0.06841016
-0.14296079 0.14534478 -0.1407231 -0.15181874 0.03115555 -0.03309145 0.1765138 -0.06934868
-0.10576515 0.008213108 0.40797657 0.038058195 -0.0019767338 0.01575674 -0.021049934 -0.07646149
0.019076455 0.09449099 -0.08214468 0.2065371 0.26369578 0.39595628 0.100552484 -0.031392317
-0.1141543 -0.18253304 -0.24798174 0.2681915 -0.10223952 -0.24644175 0.26940414 0.029504614
-0.1744224 0.12883158 -0.18550828 -0.10524148 -0.23180664 0.2602414 0.043179803 0.23673303
0.04105007 -0.17721759 -0.02351654 -0.12693822 -0.117771804 -0.24385647 0.008172977 0.025860494
0.116255365 0.11317739 -0.022808129 0.29041883 0.008143801 -0.015631823 -0.009914566 -0.20201422
-0.097315885 -0.32553917 -0.0034175152 0.13427562 -0.12164189 0.009442501 0.06302647 -0.17786452
0.06472795 -0.16646312 0.07153729 -0.022737956 0.05468796 0.26074 -0.06803665 -0.06884222
-0.17932434 0.085607 0.23273505 0.008206622 -0.06587377 -0.17623992 -0.005119626 0.11309352
-0.21309437 -0.018623415 -0.2333721 0.10430545 -0.06577362 0.041222215 -0.29847655 0.11346865
0.03555708 0.06969777 0.34350836 -0.1441678 -0.060421485 0.023121515 0.12499409 0.09652674
0.3469238 -0.2161713 -0.0366393 -0.20928505 -0.18938857 -0.0014243546 0.14369527 0.014130739
-0.22902946 0.013689523 0.5029578 -0.034589212 0.0077991537 0.07572792 -0.13402462 0.06971217
0.37389845 -0.2535797 -0.2139856 0.10650943 -0.043797366 -0.11081082 0.2526632 0.2961075
0.0003075241 0.18282036 -0.107006975 -0.4837574 0.42992413 -0.5859579 -0.37334615 -0.033977177
00000000: 5369 49bc 358c cbbd 20e8 043c 037c 773e
00000010: 5192 32be c7e3 373e a211 dabd 92f7 e3bc
00000020: df98 00bd ce4d 71bc 12e0 353e 6156 70bd
00000030: 8f81 0d3d 2ab6 75bd aef8 87be 8442 39bd
00000040: a019 39be b18c 40bd 2a69 3bbe 7615 793e
00000050: e857 163e e5a6 603e 3a0d 9cbb a61b 8ebd
00000060: c93c 40bc 23c4 cabd fad4 2abd 9b00 063d
00000070: 3a6e 20bd c877 943d f769 c63d 4451 cfbd
00000080: 4f87 a13c 10d7 1b3e 82ab d2bd 9df0 1fbe
00000090: 0747 09be 026b 31be 5e84 b2bd eb20 6e3e
000000a0: 01b6 3f3e 5813 843d 096d 563e 249f c03d
000000b0: 2247 81bd 0a90 e23b e36d f13d 91b1 95be
000000c0: 92b4 80be 1713 66bd 29d6 1c3e dc39 473e
000000d0: 1212 2f3e 7c99 a63e 09c6 693e c981 c8be
000000e0: 8b1a 1ebb 3ca0 e5bd 359e eebb f641 f8bb
000000f0: fabf 33bd 5640 1c3d fb2b 063e 6657 0a3d
00000100: 0c56 b93e 5ba3 3c3e 88a9 ad3c e7e0 42bc
00000110: 4b79 733e 5666 71be 518c 58bd 969a f6bc
00000120: 9f89 e2bc 8425 25be fd0d 8abd 9db6 4d3e
00000130: 6057 8ebc 979c a0be c3e6 6a3e d28c ac3d
00000140: a799 6bbd b8bf 833d b4dd b43c f930 a83d
00000150: 4fa3 2fbd 3631 a03c a520 283e a3c9 2a3e
00000160: c65c 06be 03af f13d 9f0e d33c d4ee a23d
00000170: 3906 b3be 56f3 fd3d 0c89 0e3e e22f f13d
00000180: dfff adbe bcaa 973d 1959 1dbe b169 e7bd
00000190: e816 a3be a2bc 73bd 4d92 153e 41e6 adbe
000001a0: a97b 33be 0ff6 9dbd 9ac5 133d f634 38bd
000001b0: 4fa3 223c e749 2f3c b096 2dbd f7da 2bbc
000001c0: 7e3b 283d b614 793d 9719 e4bd 0db0 4c3d
000001d0: 88a4 4d3e 017b 88be 2483 8a3e 3e09 6cbd
000001e0: 20c1 823e 8223 3f3e 5582 cd3e 6ab7 b5bd
000001f0: 58a2 b13e 29e8 3abe 0e11 36bd a01a 8cbd
00000200: 5064 12be 43d5 143e b719 10be 5f76 1bbe
00000210: ed39 ff3c e68a 07bd 09c0 343e ae06 8ebd
00000220: 669b d8bd 4690 063c 4ee2 d03e e9e2 1b3d
00000230: 178c 01bb 4714 813c e970 acbc d797 9cbd
00000240: 3a46 9c3c 7e84 c13d 783b a8bd 767e 533e
00000250: 2203 873e c8ba ca3e 76ee cd3d 3b95 00bd
00000260: bbc9 e9bd f1e9 3abe edee 7dbe 6550 893e
00000270: f462 d1bd 3a5b 7cbe 57ef 893e a9b3 f13c
00000280: c99b 32be 6dec 033e e2f5 3dbe d888 d7bd
00000290: b85e 6dbe 5c3e 853e 4edd 303d 256a 723e
000002a0: 1e24 283d 8778 35be c2a5 c0bc 18fc 01be
000002b0: 5832 f1bd 83b5 79be f3e7 053c 63d9 d33c
000002c0: 4b17 ee3d 8cc9 e73d 1dd8 babc c7b1 943e
000002d0: 946d 053c 4f0e 80bc b470 22bc d1dc 4ebe
000002e0: 8d4d c7bd 12ad a6be 64f8 5fbb 8c7f 093e
000002f0: 621f f9bd b8b4 1a3c 0614 813d 1e22 36be
00000300: 1690 843d 4f75 2abe 2582 923d f344 babc
00000310: 7b00 603d b77f 853e cd56 8bbd 26fd 8cbd
00000320: cda0 37be b952 af3d 1952 6e3e 1175 063c
00000330: d4e8 86bd 3d78 34be 89c2 a7bb 939d e73d
00000340: 6935 5abe 2290 98bc 19f9 6ebe 199e d53d
00000350: 52b4 86bd a0d8 283d ebd1 98be 4062 e83d
00000360: 4da4 113d b4bd 8e3d 54e0 af3e b9a0 13be
00000370: 857c 77bd 5569 bd3c e7fc ff3d d0af c53d
00000380: ff9f b13e 025c 5dbe 1713 16bd d24e 56be
00000390: 14ef 41be 69b1 baba da24 133e 9d84 673c
000003a0: b386 6abe 054a 603c d8c1 003f 6bad 0dbd
000003b0: 0b90 ff3b 3d17 9b3d c03d 09be 41c5 8e3d
000003c0: 9e6f bf3e 33d5 81be 0b1f 5bbe 9e21 da3d
000003d0: de64 33bd c8f0 e2bd 125d 813e 679b 973e
000003e0: 303b a139 4335 3b3e 7926 dbbd 0daf f7be
000003f0: 041f dc3e 5601 16bf 3a27 bfbe a72b 0bbd

base.4linear.bias f4 [50]
-0.059769336 -0.017882353 -0.027593179 -0.028050387 -0.101469256 -0.11289251 0.038831923 0.08902445
-0.010681865 0.042307775 -0.01612403 0.0045125065 0.064288124 0.030088106 -0.08058093 0.04668277
0.068200305 0.013083107 0.04394053 -0.05108899 -0.08619646 0.044543475 -0.1534925 0.040111296
-0.021989629 0.023871662 -0.011064801 -0.0727367 0.07088086 0.037670203 0.031053165 -0.073300146
0.08869347 0.016180743 -0.08252878 0.042726614 0.005914237 -0.0935827 0.06310872 -0.07702424
-0.040958803 -0.010799256 0.025658555 0.003085236 -0.012029806 -0.0959458 -0.035893533 0.025503332
0.08390879 0.025246395
00000000: b1d0 74bd 037e 92bc 170b e2bc edc9 e5bc
00000010: 1dcf cfbd 3034 e7bd 390e 1f3d 7352 b63d
00000020: fd02 2fbc eb4a 2d3d 8b16 84bc a6dd 933b
00000030: 7ea9 833d 557b f63c 9d07 a5bd 6f36 3f3d
00000040: 9aac 8b3d 875a 563c fcfa 333d b042 51bd
00000050: c587 b0bd 3873 363d 232d 1dbe be4b 243d
00000060: 9823 b4bc 818e c33c 2449 35bc fbf6 94bd
00000070: fc29 913d 124c 1a3d 3563 fe3c 631e 96bd
00000080: eca4 b53d 7a8d 843c d904 a9bd 1a02 2f3d
00000090: 37cc c13b 49a8 bfbd 253f 813d e2be 9dbd
000000a0: 6bc4 27bd 5def 30bc e431 d23c ac31 4a3b
000000b0: aa18 45bc 3b7f c4bd 1905 13bd 5dec d03c
000000c0: 5fd8 ab3d 87d1 ce3c

base.5linear.weight f4 [50, 50]
0.11861455 -0.24650764 -0.36936077 0.002358136 0.01839847 0.025115838 -0.3653601 -0.12517352
0.23170759 -0.027138853 -0.17064072 0.06822424 -0.033644315 0.19361018 -0.051182415 0.004813261
0.17489877 0.13194175 -0.108290784 -0.17402409 -0.016635312 -0.19374281 0.028674003 -0.286895
0.27642527 0.17925978 -0.11824941 -0.0055475933 -0.01602713 -0.04210382 0.037208833 0.1587398
0.1547755 -0.24061818 -0.11841846 0.052386887 0.31633148 -0.023777397 -0.050552044 -0.020162998
0.0079486 0.40888578 -0.18188083 -0.10843307 -0.004229486 -0.00040609506 0.012611399 0.19621764
-0.33036783 0.14892125 -0.004070768 -0.065614104 0.20343016 -0.040210906 0.05672961 -0.00016326206
0.04273986 -0.1141575 -0.06692098 -0.24554272 0.05160922 -0.022753816 -0.31662735 0.32242146
0.19345309 0.1888741 -0.054594465 0.11806919 -0.030250043 0.22227359 0.031914707 0.45254952
0.011698665 -0.022106672 0.13980532 0.11895964 0.09980319 0.18692172 0.17843077 -0.030677324
0.13166976 0.010567 0.38771528 0.012020047 0.02223227 -0.020653741 0.25659028 -0.21005231
-0.037505377 0.0816905 -0.022601523 -0.10825178 -0.11288089 0.20066917 -0.05245666 0.041507088
-0.15119845 0.10658638 -0.18726172 0.14520705 -0.039347008 0.18752807 -0.14766769 -0.15940534
-0.09377725 -0.25332734 0.30498368 -0.0040637734 -0.115769565 -0.42256945 0.06596689 0.107075974
-0.31927183 0.07930454 0.091972254 0.019563088 -0.14663567 0.10530445 -0.0036527163 0.17439069
-0.21304615 0.01563225 -0.18834196 0.035825606 0.014764811 0.0021986875 -0.028627144 0.11571278
0.14581692 -0.31581292 0.2792826 0.025603855 -0.06132253 0.1369983 -0.27216035 -0.19477867
0.082959816 0.22253135 0.021144219 0.16815822 0.05371071 -0.1634075 0.13667879 -0.12890151
-0.1139845 -0.1817368 -0.0140675325 -0.13312043 -0.33753973 0.07537903 -0.21309097 0.6497575
0.089732155 -0.099337146 -0.09231526 -0.17548771 0.0140503 0.03206632 -0.08305066 0.15480372
-0.14024131 -0.0014528511 -0.07628983 -0.111663505 0.22623244 -0.17689261 -0.00014257921 -0.087168984
-0.21865675 -0.0224647 -0.24074548 0.06404822 -0.21945322 -0.16011032 0.0031195225 0.12859826
0.13813667 0.099779606 -0.024583088 0.07718518 -0.1742653 0.0023129466 0.17775881 0.081935
0.09216213 0.24180022 0.10610577 0.020344594 -0.12078812 -0.016366338 0.20873977 0.012905306
0.12599656 -0.23606332 -0.051895194 0.016291656 0.11156738 0.12708588 -0.13955808 0.088516235
-0.14532027 -0.070489205 0.10661915 0.01579619 0.18601586 0.2359767 0.29408923 -0.30921215
0.06891297 0.07273454 0.071979135 -0.14097756 0.14776374 0.09971465 -0.23935518 0.14116582
-0.22257897 0.2232965 0.14538184 -0.094345264 0.049785107 -0.03631046 0.14920938 -0.021109547
-0.09712878 0.1275252 0.13242382 0.053182244 0.0939284 0.2070303 0.0004116376 0.28736883
0.0052216034 -0.06866757 0.10063256 0.066067606 -0.3338012 0.11328555 0.12447061 0.12413072
0.27175084 -0.10877003 -0.017828152 0.13519986 -0.18152921 0.024031859 0.06904664 -0.021441804
-0.032454465 -0.1940257 0.080989644 -0.01741863 0.21908386 -0.13363089 0.17073561 0.013912771
00000000: 2fec f23d 806c 7cbe db1c bdbe f58a 1a3b
00000010: 63b8 963c bbbf cd3c 7b10 bbbe 7d2d 00be
00000020: c144 6d3e 4d52 debc 71bc 2ebe 26b9 8b3d
00000030: 9fce 09bd bf41 463e a7a4 51bd 8fb8 9d3b
00000040: aa18 333e bd1b 073e 8fc7 ddbd 5f33 32be
00000050: c746 88bc 8464 46be bee5 ea3c e7e3 92be
00000060: 9d87 8d3e e08f 373e bf2c f2bd 96c8 b5bb
00000070: 544b 83bc 0e75 2cbd 4a68 183d b08c 223e
00000080: 787d 1e3e 9d64 76be 6185 f2bd a293 563d
00000090: 33f6 a13e d1c8 c2bc a90f 4fbd df2c a5bc
000000a0: d83a 023c 7a59 d13e f83e 3abe 2812 debd
000000b0: 8097 8abb 28e9 d4b9 0ba0 4e3c 47ed 483e
000000c0: f925 a9be d07e 183e 1464 85bb b060 86bd
000000d0: ff4f 503e 31b4 24bd 4f5d 683d 5331 2bb9
000000e0: fe0f 2f3d 68cb e9bd de0d 89bd 8d6f 7bbe
000000f0: 3164 533d 3666 babc fb1c a2be 6d14 a53e
00000100: 9118 463e 3668 413e 729e 5fbd 42ce f13d
00000110: f0ce f7bc b09b 633e ffb8 023d 92b4 e73e
00000120: c2ab 3f3c 0d19 b5bc 2029 0f3e 1da1 f33d
00000130: 9d65 cc3d 6868 3f3e 8eb6 363e 034f fbbc
00000140: 70d4 063e 3621 2d3c 9e82 c63e bbef 443c
00000150: 7320 b63c 0932 a9bc cd5f 833e f417 57be
00000160: 3d9f 19bd 594d a73d d426 b9bc 1cb3 ddbd
00000170: 192e e7bd 387c 4d3e cbdc 56bd 5603 2a3d
00000180: c4d3 1abe f649 da3d 89c1 3fbe 28b1 143e
00000190: 542a 21bd 5c07 403e 3336 17be 273b 23be
000001a0: 490e c0bd 1fb4 81be d226 9c3e 6729 85bb
000001b0: 9818 edbd 065b d8be a619 873d a64a db3d
000001c0: 9977 a3be 6b6a a23d f35b bc3d c542 a03c
000001d0: a927 16be dca9 d73d 6962 6fbb 7993 323e
000001e0: c528 5abe 340f 803c b7dc 40be dfbd 123d
000001f0: 1be8 713c db17 103b 7983 eabc d2fa ec3d
00000200: 0851 153e 3bb2 a1be 21fe 8e3e 2dbf d13c
00000210: 552d 7bbd 4849 0c3e 9a58 8bbe 0f74 47be
00000220: d6e6 a93d 42df 633e a436 ad3c ab31 2c3e
00000230: c3ff 5b3d 4c54 27be 86f5 0b3e c2fe 03be
00000240: b570 e9bd 3619 3abe 827b 66bc b950 08be
00000250: 02d2 acbe 5260 9a3d 8534 5abe 8256 263f
00000260: 7ec5 b73d 4671 cbbd c80f bdbd 0db3 33be
00000270: 3b33 663c f957 033d 7716 aabd de84 1e3e
00000280: 6b9b 0fbe 986d beba d83d 9cbd d6af e4bd
00000290: 7aa9 673e 5623 35be 5181 15b9 a785 b2bd
000002a0: 8ee7 5fbe e407 b8bc fc85 76be b72b 833d
000002b0: 58b8 60be f6f3 23be e770 4c3b 43af 033e
000002c0: b373 0d3e 4059 cc3d 7962 c9bc 4313 9e3d
000002d0: 9a72 32be ce94 173b 6806 363e 8acd a73d
000002e0: 80bf bc3d 7a9a 773e fb4d d93d b5a9 a63c
000002f0: c35f f7bd b312 86bc e1bf 553e c770 533c
00000300: 3e05 013e 95ba 71be 0e90 54bd 1476 853c
00000310: 707d e43d cd22 023e 50e8 0ebe 0048 b53d
00000320: d6ce 14be a55c 90bd 245b da3d 0367 813c
00000330: f17a 3e3e e0a3 713e dd92 963e 0e51 9ebe
00000340: 3e22 8d3d d9f5 943d cc69 933d 6c5c 10be
00000350: 614f 173e 3237 cc3d 8619 75be c68d 103e
00000360: beeb 63be d6a7 643e fade 143e 1738 c1bd
00000370: 78eb 4b3d 47ba 14bd 58ca 183e eeed acbc
00000380: 74eb c6bd f795 023e 1c9a 073e a0d5 593d
00000390: 885d c03d c0ff 533e 10d1 d739 0222 933e
000003a0: fc19 ab3b 95a1 8cbd 7218 ce3d 744e 873d
000003b0: fee7 aabe 4102 e83d 72ea fe3d 3f38 fe3d
000003c0: ed22 8b3e d2c2 debd 580c 92bc d571 0a3e
000003d0: cbe2 39be 76de c43c 5368 8d3d b9a6 afbc
000003e0: f9ee 04bd acae 46be e6dd a53d 84b1 8ebc
000003f0: 8557 603e 89d6 08be 51d5 2e3e 64f2 633c

base.5linear.bias f4 [50]
-0.04141941 0.025762336 -0.08109625 0.024090515 0.025618088 -0.036306765 0.027624758 -0.16900156
-0.047499765 0.05115035 0.044968665 -0.07679089 -0.037727915 -0.023218112 0.16615568 -0.11867912
-0.06731818 0.0070479913 -0.006091782 -0.01034943 -0.105965935 -0.016914647 0.008956585 0.03949884
0.021720717 -0.017004913 0.07425933 0.0985 -0.032649346 0.040390246 0.05238257 -0.064869255
0.06260225 0.04115096 -0.030451166 -0.09732401 -0.2973966 -0.031106457 -0.09238995 0.10918057
0.020849172 -0.06082917 -0.008934084 -0.02623083 0.079634115 0.10151026 0.059480723 0.01220884
0.08392351 -0.074880525
00000000: 66a7 29bd 890b d33c ca15 a6bd 7959 c53c
00000010: 06dd d13c 67b6 14bd 514d e23c bf0e 2dbe
00000020: 1d8f 42bd 0883 513d 1031 383d 8b44 9dbd
00000030: 9688 1abd e933 bebc b724 2a3e 0a0e f3bd
00000040: 1dde 89bd d6f2 e63b 929d c7bb a890 29bc
00000050: ab04 d9bd 9690 8abc a4be 123c 89c9 213d
00000060: a5ef b13c e34d 8bbc 4715 983d 5eba c93d
00000070: 52bb 05bd 3e70 253d 1b8f 563d 2cda 84bd
00000080: 9c35 803d e98d 283d b974 f9bc d051 c7bd
00000090: 5e44 98be f8d2 febc f136 bdbd 109a df3d
000000a0: e2cb aa3c 0228 79bd 4460 12bc 0ae2 d6bc
000000b0: 3617 a33d 9ce4 cf3d 0fa2 733d 9607 483c
000000c0: 17e0 ab3d f65a 99bd

base.6linear.weight f4 [50, 50]
0.013416222 0.25915825 0.006135755 0.28892976 -0.04555052 -0.12864895 0.02012834 -0.160066
0.36154547 0.009698253 0.2383547 0.05820994 0.1929678 -0.06821621 -0.11275315 -0.07346909
0.02338337 -0.04410099 -0.12063109 0.12674002 0.10032045 0.2548384 -0.11631673 0.0612827
-0.04277799 -0.022542099 0.17903072 0.13560124 -0.10724403 -0.09697817 -0.24220575 -0.12878253
-0.011251147 0.012412043 -0.15307347 0.39140797 -0.059292346 0.18536714 -0.009580801 -0.021917993
-0.11169333 -0.020822974 -0.007681168 0.16778183 0.086012214 -0.021863736 -0.006844624 -0.12355997
0.05620991 0.08317551 0.04570136 -0.024953442 -0.07303188 0.19939667 0.0900363 0.13516475
0.00319936 0.14386585 -0.30756158 0.103697926 -0.011832969 -0.104237065 -0.13110632 -0.07411071
-0.09682993 -0.074971244 0.070474885 -0.005311454 0.10702328 -0.007372962 -0.04547389 -0.22130981
-0.34988472 -0.28667834 0.116815336 0.13522689 -0.08338874 -0.009363042 -0.047146652 0.37867588
-0.29817656 0.19580656 0.32646918 -0.19211301 -0.11094615 0.34369162 -0.011738357 0.038649466
-0.091770016 0.03831613 -0.060370587 -0.20350412 0.23578967 0.06799355 0.021797813 -0.1635516
0.08055392 0.04529911 -0.110650994 -0.07725944 -0.12857954 -0.00047025215 -0.051358413 -0.14072408
0.097911455 0.03008819 -0.05778017 0.35850182 0.14235146 -0.26686785 0.20542464 0.080592014
-0.26890495 0.0015843599 -0.057502773 -0.015859451 -0.061834097 -0.2079283 -0.14372309 -0.20954189
0.26567677 0.15488623 0.24161206 -0.13800722 -0.31755108 -0.08278229 0.020320227 -0.564544
-0.14170437 -0.18052721 -0.065488935 -0.1931564 0.16344534 0.25480497 -0.01094733 0.026526693
0.014253611 -0.46258727 -0.2575071 -0.026612734 -0.07041846 -0.038651213 -0.05732096 0.16740108
-0.050882317 -0.108181335 -0.15904489 0.044533122 0.30311772 0.05173522 0.11411245 -0.18507414
-0.26162186 0.046691988 -0.1587543 0.051352743 -0.31875795 -0.11810572 -0.31500387 0.11175524
-0.10588218 -0.023312366 -0.011644769 -0.25943568 0.11578365 0.09733425 -0.02212767 0.011293026
-0.024091398 0.26626724 -0.007209967 0.24296711 0.056460403 -0.0127142705 -0.027813355 0.17018977
-0.12298122 -0.13079691 -0.26084393 -0.22288284 -0.12704335 -0.23131996 0.09094913 -0.0020924194
0.14887169 -0.053536616 0.06509044 0.0065599377 -0.0440968 0.06754973 0.23197505 -0.20616993
0.12753516 -0.19861513 -0.17474678 0.14087369 -0.07344819 -0.29791722 -0.14966904 -0.17446779
-0.41362044 0.01565427 -0.2112615 -0.19934927 0.27551907 0.041352402 -0.36633542 -0.16630654
-0.083296314 -0.012305658 0.07042495 0.15375699 -0.21433675 0.027347274 -0.008279428 -0.1108005
-0.106198214 -0.119930334 -0.27408418 0.25984374 -0.2641916 -0.15367672 0.023019822 -0.015761675
-0.0012282375 0.32130155 -0.09363468 0.3905184 -0.24399304 0.25813103 -0.28117612 -0.24106982
-0.03940036 -0.07314367 -0.16141528 -0.295906 0.047230706 -0.16025822 -0.018355299 0.064416856
-0.14404474 -0.07163238 0.043185115 0.25914454 0.029997643 -0.045199122 0.13452624 0.031584017
-0.12035492 0.12993605 0.16862293 0.19401428 0.15786733 -0.15878427 0.07191829 0.124246344
00000000: b7cf 5b3c 64b0 843e 720e c93b 9aee 933e
00000010: 2f93 3abd 8dbc 03be 30e4 a43c 57e8 23be
00000020: 7d1c b93e 6ce5 1e3c 4113 743e 8c6d 6e3d
00000030: 5a99 453e f1b4 8bbd 20eb e6bd f676 96bd
00000040: 7b8e bf3c 3da3 34bd 6f0d f7bd 23c8 013e
00000050: cf74 cd3d 2e7a 823e 7737 eebd 9203 7b3d
00000060: f937 2fbd 35aa b8bc d453 373e 0ddb 0a3e
00000070: c2a2 dbbd 7e9c c6bd c904 78be 91df 03be
00000080: bb56 38bc e25b 4b3c 4bbf 1cbe a066 c83e
00000090: 88dc 72bd e2d0 3d3e cbf8 1cbc 5d8d b3bc
000000a0: 79bf e4bd f194 aabc 4fb2 fbbb 00cf 2b3e
000000b0: 2c27 b03d 941b b3bc de48 e0bb 020d fdbd
000000c0: 5d3c 663d ec57 aa3d 5931 3b3d 296b ccbc
000000d0: bd91 95bd a42e 4c3e f464 b83d a168 0a3e
000000e0: 5bac 513b 9251 133e b678 9dbe 945f d43d
000000f0: 12df 41bc 3e7a d5bd bc40 06be 5bc7 97bd
00000100: c54e c6bd 868a 99bd 2355 903d b50b aebb
00000110: 052f db3d e398 f1bb d442 3abd 0a9f 62be
00000120: 1724 b3be 81c7 92be e13c ef3d eb78 0a3e
00000130: b7c7 aabd 7267 19bc d91c 41bd cee1 c13e
00000140: 99aa 98be 8481 483e f826 a73e 46b9 44be
00000150: bc37 e3bd 59f8 af3e 3d52 40bc e74e 1e3d
00000160: ebf1 bbbd 60f1 1c3d 2647 77bd 6263 50be
00000170: d972 713e 3440 8b3d 5491 b23c 127a 27be
00000180: 74f9 a43d 8f8b 393d fd9c e2bd 333a 9ebd
00000190: 5baa 03be 2d8c f6b9 335d 52bd f919 10be
000001a0: cd85 c83d 827b f63c e6aa 6cbd 8d8d b73e
000001b0: 95c4 113e e7a2 88be d65a 523e 6d0d a53d
000001c0: e9ad 89be 4caa cf3a 0788 6bbd aeeb 81bc
000001d0: c045 7dbd 28eb 54be 252c 13be 2692 56be
000001e0: c906 883e 7f9a 1e3e 2769 773e c451 0dbe
000001f0: 0e96 a2be c389 a9bd 9b76 a63c f585 10bf
00000200: f31a 11be 20dc 38be 101f 86bd cbca 45be
00000210: 375e 273e cc75 823e 6e5c 33bc 824e d93c
00000220: fa87 693c 3dd8 ecbe f8d7 83be f302 dabc
00000230: 8e37 90bd bc50 1ebd 62c9 6abd 306b 2b3e
00000240: fa69 50bd 2d8e ddbd aadc 22be 5d68 363d
00000250: 3f32 9b3e 4fe8 533d cab3 e93d 1384 3dbe
00000260: 4df3 85be 1940 3f3d 7d90 22be 4157 523d
00000270: 3e34 a3be 69e1 f1bd 3048 a1be eedf e43d
00000280: c2d8 d8bd 93f9 bebc b4c9 3ebc c1d4 84be
00000290: fa1f ed3d 2e57 c73d 1645 b5bc 6206 393c
000002a0: 535b c5bc 2e54 883e 9641 ecbb 5fcc 783e
000002b0: 0643 673d 844f 50bc d5d8 e3bc 3a46 2e3e
000002c0: 94dd fbbd a0ef 05be 568d 85be 663b 64be
000002d0: a717 02be 24df 6cbe 8a43 ba3d f920 09bb
000002e0: d271 183e 3649 5bbd 234e 853d bff4 d63b
000002f0: d99e 34bd 8357 8a3d de8a 6d3e 361e 53be
00000300: 9498 023e c461 4bbe d2f0 32be 3141 103e
00000310: 016c 96bd 9b88 98be d742 19be afa7 32be
00000320: 0fc6 d3be 623d 803c ef54 58be 3722 4cbe
00000330: d610 8d3e 2361 293d 5190 bbbe 434c 2abe
00000340: 4297 aabd ac9d 49bc f53a 903d 7972 1d3e
00000350: 187b 5bbe 6407 e03c 70a6 07bc 5feb e2bd
00000360: 737e d9bd 099e f5bd c354 8cbe 3d0a 853e
00000370: 1f44 87be 6e5d 1dbe 1194 bc3c a11e 81bc
00000380: d0fc a0ba a381 a43e 8ac3 bfbd 07f2 c73e
00000390: 50d9 79be c029 843e 51f6 8fbe 02db 76be
000003a0: 4662 21bd 59cc 95bd 0c4a 25be fe80 97be
000003b0: fc74 413d bb1a 24be da5d 96bc fcec 833d
000003c0: 7780 13be ffb3 92bd e0e2 303d 98ae 843e
000003d0: 9ebd f53c b722 39bd 3fc1 093e 3e5e 013d
000003e0: a47c f6bd f50d 053e 7dab 2c3e aeab 463e
000003f0: f9a7 213e 5898 22be e549 933d de74 fe3d

base.6linear.bias f4 [50]
0.051856622 -0.072829 -0.016119223 0.0009208543 -0.0336977 -0.022326048 0.08960822 -0.03696713
0.056984622 -0.0029870525 -0.005602288 -0.08271791 -0.052218046 -0.11639578 0.06482545 0.010808444
0.09706232 -0.011223659 -0.021887926 0.09126651 -0.12338328 0.009766544 -0.06172515 -0.008148478
-0.013998004 -0.03190165 -0.008907775 0.16074117 -0.02420631 -0.04181209 -0.045862887 -0.11825477
0.05737333 0.03724078 -0.031946607 0.014087273 -0.033246294 -0.0269112 0.09716166 0.020737391
-0.18410109 -0.040522292 -0.016564725 -0.04934622 0.0027487988 -0.000755908 0.07375028 -0.0021735625
-0.11400964 0.023574062
00000000: 9c67 543d 5f27 95bd 760c 84bc 7c65 713a
00000010: 9906 0abd 1ee5 b6bc 8484 b73d d86a 17bd
00000020: b568 693d 6dc2 43bb 6693 b7bb 0268 a9bd
00000030: 97e2 55bd e960 eebd 35c3 843d e615 313c
00000040: 9cc8 c63d 70e3 37bc 4f4e b3bc f0e9 ba3d
00000050: 60b0 fcbd db03 203c 83d3 7cbd 3281 05bc
00000060: e257 65bc 4eab 02bd ebf1 11bc 5599 243e
00000070: 504c c6bc 2743 2bbd b9da 3bbd 8f2f f2bd
00000080: 4c00 6b3d ca89 183d 72da 02bd 4ece 663c
00000090: 442d 08bd e074 dcbc b1fc c63d 76e1 a93c
000000a0: ff84 3cbe b4fa 25bd bfb2 87bc 431f 4abd
000000b0: 3125 343b 2128 46ba 630a 973d 5472 0ebb
000000c0: e37d e9bd 641e c13c
