STPINN-RANS/sub_data/sub_write/04NS_model_train.pt (torch, 100283 bytes, 22 tensors)

base.0linear.weight f4 [50, 3]
-0.269413 -0.03630234 0.12150985 -0.17473362 0.19047812 0.1412174 -0.3690147 -0.32054213
0.02248976 0.23934053 0.036852404 -0.003520803 -0.019644001 0.22698756 0.0031408535 0.12083464
-0.0939555 -0.08743497 0.0036611918 -0.0019660355 -0.0022412087 0.29550034 -0.01498753 -0.068201095
0.0754354 -0.10877078 -0.1795646 0.10509542 0.05750907 -0.35991868 -0.15102333 0.048144583
-0.030759556 -0.23032369 0.09706541 0.14815308 -0.2592706 0.084937945 -0.04923608 0.030212969
0.08009949 0.18185946 -0.0098474575 0.22120836 -0.27994967 -0.15572952 -0.31375718 0.19619752
0.0030202041 -0.00043686733 0.0018147081 0.26189205 -0.31279194 -0.17064753 0.05203129 -0.106689155
-0.2805144 0.12247829 0.012849731 -0.319111 0.1656451 0.23390667 -0.3099426 -0.08295061
-0.04335292 -0.10595013 0.06613046 -0.015735472 -0.21118389 -0.07517414 0.15843473 -0.3136803
0.008290005 -0.052437223 -0.15907462 -0.07423319 -0.09813069 0.17399283 -0.2835379 0.045588575
0.13796073 -0.17836191 -0.014281856 0.14911637 0.08382006 -0.1284785 -0.29160932 0.2843163
-0.13614067 -0.2464476 0.19769989 0.032840807 0.17609929 -0.25794575 0.028678097 0.34072104
-0.20490487 -0.08420793 0.2836862 -0.17486049 0.4022887 -0.19014618 0.17865513 -0.057129208
-0.13934365 0.010257417 0.27201208 0.0005803717 0.036698464 0.18871184 -0.3270522 0.2316524
0.5909464 -0.3022432 0.06640893 -0.28139916 0.069571696 0.009821146 -0.03564431 -0.0019090007
0.049771488 0.28197062 -0.11829307 -0.13446231 0.14186746 0.064167686 0.13457316 -0.090862125
-0.27080756 -0.46670005 0.038171265 0.2206048 -0.0016367584 0.0010175555 0.0033470257 0.21643153
-0.17202106 -0.16528171 -0.03275115 -0.020202141 -0.026059568 0.09495253 -0.14176029 -0.085125364
-0.16670378 0.20703329 -0.15509163 -0.015563541 0.15391067 -0.18187
00000000: 80f0 89be c3b1 14bd 28da f83d 5fed 32be
00000010: b20c 433e 4b9b 103e 7fef bcbe 191e a4be
00000020: 723c b83c af15 753e 8cf2 163d 46bd 66bb
00000030: 75ec a0bc 6d6f 683e c7d6 4d3b 2778 f73d
00000040: be6b c0bd 1b11 b3bd 9bf0 6f3b 9ad8 00bb
00000050: 3ee1 12bb d24b 973e 428e 75bc 04ad 8bbd
00000060: e07d 9a3d 37c3 debd c8df 37be 443c d73d
00000070: a18e 6b3d 4347 b8be dca5 1abe 4133 453d
00000080: 77fb fbbc f9d9 6bbe 3bca c63d 71b5 173e
00000090: 1ebf 84be f2f3 ad3d c6ab 49bd 3081 f73c
000000a0: 340b a43d 5e39 3a3e 3b57 21bc 7284 623e
000000b0: 9055 8fbe 8f77 1fbe c8a4 a0be 01e8 483e
000000c0: 9eee 453b 570b e5b9 80db ed3a b716 863e
000000d0: 4426 a0be 3abe 2ebe c31e 553d d87f dabd
000000e0: 959f 8fbe e6d5 fa3d ae87 523c 8462 a3be
000000f0: de9e 293e 3b85 6f3e ccb0 9ebe 02e2 a9bd
00000100: d592 31bd 62fc d8bd 686f 873d ade7 80bc
00000110: 9740 58be e6f4 99bd b73c 223e b49a a0be
00000120: cdd2 073c 6ac8 56bd 75e4 22be 9207 98bd
00000130: bef8 c8bd 2d2b 323e e12b 91be 16bb 3a3d
00000140: 9445 0d3e 81a4 36be 72fe 69bc f6b1 183e
00000150: daa9 ab3d de8f 03be d14d 95be e891 913e
00000160: 7668 0bbe c25c 7cbe d771 4a3e 1584 063d
00000170: 5f53 343e 7711 84be 54ee ea3c fd72 ae3e
00000180: 95d2 51be 3575 acbd 513f 913e a10e 33be
00000190: c9f8 cd3e aeb5 42be 5ff1 363e 5100 6abd
000001a0: 1ab0 0ebe ba0e 283c 2b45 8b3e 1624 183a
000001b0: 2151 163d ad3d 413e 6373 a7be 4936 6d3e
000001c0: 4348 173f 9fbf 9abe 6801 883d 8d13 90be
000001d0: 9b7b 8e3d dfe8 203c c5ff 11bd 6f37 faba
000001e0: 30dd 4b3d 745e 903e a343 f2bd 7db0 09be
000001f0: b445 113e 596a 833d 8ccd 093e ec15 babd
00000200: 4aa7 8abe 4ff3 eebe 7959 1c3d 3ae6 613e
00000210: 8088 d6ba 7f5f 853a c659 5b3b 3aa0 5d3e
00000220: 4a26 30be 9c3f 29be 1226 06bd f67e a5bc
00000230: e07a d5bc 7976 c23d 9c29 11be 3556 aebd
00000240: 65b4 2abe 8900 543e 57d0 1ebe 39fe 7ebc
00000250: c29a 1d3e 213c 3abe

base.0linear.bias f4 [50]
0.12920262 -0.09987997 0.25198612 -0.16266194 -0.13751398 0.055039573 -0.0029228495 -0.071017645
0.06632975 0.09691051 0.062435582 -0.02165468 0.11404821 -0.17052159 0.01777898 0.17728426
-0.0022716464 0.18378437 0.1050147 -0.038223494 -0.088838376 0.14463615 0.096414365 0.105588436
-0.08902118 0.08510226 -0.0031768128 -0.020893652 0.16981153 -0.03693173 -0.1450721 0.014220023
-0.020361139 -0.17277928 0.056010857 -0.21312253 -0.012434228 -0.14542197 0.15694986 0.026858434
-0.1336131 -0.10001898 0.089566596 0.04716512 0.00046178538 0.11703597 0.05267551 0.0886087
-0.023809273 0.031471103
00000000: b14d 043e df8d ccbd 5304 813e da90 26be
00000010: 77d0 0cbe 2d71 613d 478d 3fbb b371 91bd
00000020: e4d7 873d 0479 c63d 74bc 7f3d 2865 b1bc
00000030: 1c92 e93d 369d 2ebe 39a5 913c 018a 353e
00000040: e7df 14bb f831 3c3e f211 d73d 3d90 1cbd
00000050: e5f0 b5bd 801b 143e e574 c53d c03e d83d
00000060: bd50 b6bd 184a ae3d 1332 50bb 2a29 abbc
00000070: 13e3 2d3e ba45 17bd c88d 14be 19fb 683c
00000080: 67cc a6bc 0ded 30be a46b 653d cb3c 5abe
00000090: efb8 4bbc 7fe9 14be 77b7 203e 3806 dc3c
000000a0: dfd1 08be c0d6 ccbd b16e b73d 3630 413d
000000b0: c91b f239 8eb0 ef3d 47c2 573d 7a78 b53d
000000c0: aa0b c3bc d8e7 003d

base.1linear.weight f4 [50, 50]
-0.193749 0.072339706 0.08645156 -0.032326076 0.22675577 -0.0055149626 -0.018046377 0.10475874
-0.03831301 -0.13254711 0.013875155 -0.1185819 -0.29323745 0.10599088 0.124977045 -0.005257238
-0.107557885 -0.029532433 -0.14622614 0.1705553 0.06504647 0.091869965 0.16805287 -0.15931402
-0.08432511 0.010901243 -0.18672359 0.11106231 -0.214474 -0.14258401 -0.03337025 -0.11251048
0.17087267 -0.18807599 -0.20190394 0.1126749 0.08841573 0.26214656 -0.23569891 0.1056936
0.1573041 -0.117764026 -0.175308 0.187899 0.03907991 -0.07117784 -0.079631865 -0.16728339
0.058366627 -0.073536575 -0.14109735 0.27151296 -0.520323 0.27664185 -0.082556754 -0.048166048
0.03246591 0.101397485 -0.18878466 0.080521554 -0.06807665 -0.07914766 -0.26502258 0.023075411
0.022502197 -0.17440328 -0.015698282 -0.018323313 0.2557786 -0.15093675 -0.030230321 -0.088362694
-0.089280054 -0.039563555 -0.07496665 -0.2383162 -0.03872714 -0.32347402 0.07501097 -0.008249117
0.17938823 0.048306074 -0.40231025 0.11247946 0.25148997 0.4057072 0.12685107 0.29250854
-0.22260982 0.14784975 0.2799019 0.03094708 0.13580908 -0.41016957 -0.048282724 0.08716583
0.12567297 -0.18452768 0.04747686 -0.0064373664 -0.1866327 0.026436137 -0.039190095 0.16419962
0.07398125 -0.14952454 0.05483982 0.07665315 0.07603757 -0.05141638 -0.17549627 0.2217526
-0.1119535 0.17378321 0.01860357 0.06713015 0.03875611 0.25393292 -0.33823586 0.08927972
-0.2066811 0.09685851 -0.013658768 -0.13097851 -0.12308653 0.07352038 -0.05281242 -0.2845747
-0.12306245 0.09384367 0.062374864 -0.34527144 -0.15973036 -0.27788067 0.14502266 0.022513
-0.13719243 -0.046493344 -0.03445453 -0.028873881 -0.14346816 -0.20656835 -0.17364176 -0.34236285
0.071547 0.13911837 -0.22779636 0.28336442 -0.16614263 -0.12574762 -0.06648339 -0.16721402
-0.0004034833 0.010955642 -0.014114878 -0.1242614 0.17873186 -0.047939673 -0.03877822 0.07449737
-0.008879696 0.14821921 -0.07185423 -0.08654445 0.11673924 -0.31434238 -0.09879237 -0.071332835
0.09284101 -0.112869024 -0.31311297 0.04931061 0.11483084 -0.06879373 0.05286604 -0.2362344
-0.021709893 0.053737987 -0.29874104 -0.22600359 -0.021258816 -0.0061082714 -0.0361038 0.1268903
-0.13451345 0.07818539 0.02231012 0.10772304 0.03539918 0.042267766 0.10058693 -0.23200227
0.02981312 -0.013268439 -0.02644439 -0.03735439 -0.041278604 -0.14171568 -0.13166805 -0.14253671
0.38132223 0.05757719 -0.17809436 0.13148814 0.50978214 -0.18864729 0.018991873 -0.11834
0.058994055 -0.11574809 -0.0486719 0.037805296 0.05033627 -0.018631918 0.07431858 -0.09289502
0.16829056 -0.047907885 -0.03624266 -0.13466996 -0.07435426 0.072122075 -0.0071816696 -0.18908402
0.26475543 -0.23162712 0.23303364 0.10874279 -0.10285754 0.11784792 0.20256074 0.11189843
0.18047382 -0.055275034 0.12246875 0.23950775 0.0065466277 0.077417664 0.22207013 -0.053004246
-0.22005616 0.10140245 -0.052852947 0.2591629 -0.09074342 0.110715 -0.12348765 0.04082459
-0.092479914 0.09764472 -0.05188039 -0.25310752 0.086682916 0.13444954 0.109916404 -0.30490768
00000000: 2366 46be d726 943d 840d b13d 5968 04bd
00000010: aa32 683e dcb6 b4bb ffd5 93bc c08b d63d
00000020: 1aee 1cbd 6eba 07be 9e54 633c 11db f2bd
00000030: 3823 96be bf11 d93d f7f3 ff3d e944 acbb
00000040: 4f47 dcbd 00ee f1bc 4ebc 15be 0ca6 2e3e
00000050: 1537 853d 5226 bc3d 0d16 2c3e 3723 23be
00000060: a5b2 acbd 219b 323c 7834 3fbe a374 e33d
00000070: 129f 5bbe 8b01 12be 3eaf 08bd e56b e6bd
00000080: 3ff9 2e3e fe96 40be e8bf 4ebe 19c2 e63d
00000090: 4e13 b53d 1338 863e 0e5b 71be e375 d83d
000000a0: 5314 213e 442e f1bd f183 33be 9868 403e
000000b0: 4112 203d b0c5 91bd 0816 a3bd 564c 2bbe
000000c0: d811 6f3d 589a 96bd d37b 10be bf03 8b3e
000000d0: e333 05bf 00a4 8d3e 8413 a9bd c349 45bd
000000e0: f9fa 043d 7ca9 cf3d c450 41be 7ce8 a43d
000000f0: c56b 8bbd 2b18 a2bd 0ab1 87be a508 bd3c
00000100: 8756 b83c c696 32be af99 80bc c61a 96bc
00000110: 6af5 823e 2a8f 1abe 94a5 f7bc 80f7 b4bd
00000120: 76d8 b6bd 650d 22bd 1d88 99bd 2909 74be
00000130: 59a0 1ebd 639e a5be 5a9f 993d 4e27 07bc
00000140: 8cb1 373e 97dc 453d 9cfb cdbe a25b e63d
00000150: 4bc3 803e dbb8 cf3e 3fe5 013e aec3 953e
00000160: d4f3 63be ed65 173e 4d4f 8f3e bb84 fd3c
00000170: 8911 0b3e bf01 d2be 1bc4 45bd 0084 b23d
00000180: 6ab0 003e d3f4 3cbe 1977 423d 8bf0 d2bb
00000190: a41c 3fbe 9990 d83c cb85 20bd f223 283e
000001a0: 7b83 973d f61c 19be b89f 603d 54fc 9c3d
000001b0: 96b9 9b3d fb99 52bd 4bb5 33be 1d13 633e
000001c0: e047 e5bd 3af4 313e 8466 983c 887b 893d
000001d0: babe 1e3d 7f03 823e 402d adbe 49d8 b63d
000001e0: 36a4 53be c15d c63d 06c9 5fbc 3b1f 06be
000001f0: ca14 fcbd da91 963d d651 58bd c6b3 91be
00000200: 2a08 fcbd 1c31 c03d c97c 7f3d 6bc7 b0be
00000210: 5b90 23be 6046 8ebe d280 143e 2f6d b83c
00000220: 2c7c 0cbe ce6f 3ebd 3120 0dbd eb88 ecbc
00000230: 51e9 12be a786 53be 25cf 31be 2f4a afbe
00000240: 3c87 923d 0c75 0e3e 7343 69be 2415 913e
00000250: 4b21 2abe fcc3 00be 7228 88bd 273a 2bbe
00000260: 9d8a d3b9 4b7f 333c 1742 67bc c37c febd
00000270: 7c05 373e 645c 44bd e9d5 1ebd 1492 983d
00000280: 257c 11bc c7c6 173e 4f28 93bd 373e b1bd
00000290: fc14 ef3d 7cf1 a0be a753 cabd f316 92bd
000002a0: 6d23 be3d e027 e7bd 5850 a0be ecf9 493d
000002b0: 6e2c eb3d bae3 8cbd 108a 583d 6ee7 71be
000002c0: f2d8 b1bc 5d1c 5c3d 96f4 98be 7c6d 67be
000002d0: f826 aebc e527 c8bb 94e1 13bd 88ef 013e
000002e0: e5bd 09be a91f a03d b6c3 b63c e69d dc3d
000002f0: bbfe 103d f720 2d3d 8500 ce3d 0192 6dbe
00000300: a53a f43c de63 59bc e8a1 d8bc eb00 19bd
00000310: c113 29bd ea1d 11be fdd3 06be 25f5 11be
00000320: ab3c c33e 0fd6 6b3d 5e5e 36be d4a4 063e
00000330: 1581 023f c12c 41be d894 9b3c 3e5c f2bd
00000340: c0a3 713d 560d edbd 305c 47bd bad9 1a3d
00000350: 682d 4e3d f7a1 98bc 5734 983d bf3f bebd
00000360: 5c54 2c3e 0f3b 44bd 2f73 14bd ece6 09be
00000370: 0c47 98bd bdb4 933d 3654 ebbb 3e9f 41be
00000380: 068e 873e a92f 6dbe 5fa0 6e3e 8ab4 de3d
00000390: f9a6 d2bd 405a f13d 156c 4f3e 012b e53d
000003a0: 21ce 383e 1368 62bd e5d0 fa3d 8541 753e
000003b0: 1885 d63b 278d 9e3d 5a66 633e fb1a 59bd
000003c0: 6756 61be 16ac cf3d 557c 58bd 00b1 843e
000003d0: b0d7 b9bd 8cbe e23d 18e7 fcbd af37 273d
000003e0: 1c66 bdbd f4f9 c73d 8880 54bd 4f97 81be
000003f0: d086 b13d 24ad 093e da1b e13d dc1c 9cbe

base.1linear.bias f4 [50]
-0.13041876 0.027589899 0.07521852 -0.07685974 0.005623607 0.020401567 0.048375838 -0.029270459
0.0050262217 0.044758547 0.17169608 -0.12572026 0.06580517 -0.089368366 0.13055305 0.10592278
-0.024050405 0.14874128 0.13937338 0.20084153 0.021980472 -0.09137933 0.08783773 0.057162303
0.03321581 0.11569223 0.048123065 -0.072684996 0.010161676 0.10121344 0.14598663 0.037104394
0.1425803 -0.04772307 0.0972816 0.1233512 0.005899034 -0.08639103 0.026103988 0.035753813
-0.03265865 0.13415144 0.08926798 -0.11059778 0.01393879 0.01914902 0.04058261 0.001364574
0.11705366 0.13626687
00000000: 7f8c 05be 3604 e23c 2b0c 9a3d a468 9dbd
00000010: 3c46 b83b 3021 a73c be25 463d 9ac8 efbc
00000020: 01b3 a43b bd54 373d 19d1 2f3e d0bc 00be
00000030: dcc4 863d c306 b7bd b3af 053e 0bee d83d
00000040: 5b05 c5bc a24f 183e e5b7 0e3e 67a9 4d3e
00000050: 6410 b43c 1625 bbbd 45e4 b33d 0523 6a3d
00000060: 4d0d 083d 0cf0 ec3d b11c 453d dfdb 94bd
00000070: 297d 263c fe48 cf3d 857d 153e c7fa 173d
00000080: 9200 123e 4479 43bd 933b c73d 8e9f fc3d
00000090: af4c c13b c8ed b0bd 08d8 d53c 9772 123d
000000a0: 14c5 05bd ff5e 093e 21d2 b63d 1781 e2bd
000000b0: 865f 643c 68de 9c3c f339 263d 81db b23a
000000c0: d4b9 ef3d 8b89 0b3e

base.2linear.weight f4 [50, 50]
-0.09115868 -0.12131597 -0.07623386 -0.0030097314 -0.10746264 0.19977532 0.06451658 0.0040545035
-0.21401402 -0.049031503 -0.14825569 0.052095942 -0.19965087 0.3687454 0.18659578 -0.04906655
-0.019008817 -0.0991252 0.14718536 0.10302075 -0.022277797 0.16367155 -0.079939514 -0.1540263
0.020107059 -0.15143049 0.0028174322 -0.086983606 0.0054693874 -0.28286207 0.19734132 -0.14971453
-0.001179471 -0.1653803 -0.030064961 0.055927783 0.081786156 -0.13083188 0.21153605 0.3473098
0.05098657 0.2995361 -0.20211586 0.015263841 -0.15131463 0.13336988 0.15803625 -0.057353273
0.16510534 0.043952778 -0.08166287 0.14316717 -0.084595315 0.10587596 0.05231057 0.11466401
0.31075382 -0.030572439 -0.0598229 0.02238539 0.13252658 -0.061661996 0.073396124 0.028175768
-0.19006342 -0.035493065 -0.010150227 -0.33107725 0.21117407 -0.2611817 -0.04539212 -0.11687578
-0.0582672 -0.11257908 -0.084487095 -0.15959944 -0.049113277 0.0012238277 0.005961982 -0.026826248
-0.30459026 -0.08293543 -0.31668457 0.077028245 0.1866147 -0.23190485 -0.006468058 -0.045183722
-0.014727358 0.20727295 0.041394606 -0.45000678 -0.13664874 0.17342961 0.1341432 0.07683335
-0.015363095 0.052437235 0.12610535 -0.21678302 0.06441354 -0.12906209 0.07413509 -0.032401226
-0.039378777 -0.24816114 -0.08289298 0.20340633 0.016716113 0.021086667 0.24302879 0.14205341
-0.13748558 -0.06784516 0.0029351097 -0.17354523 0.008618262 0.016626036 0.18974179 -0.22541401
0.0026695144 0.043857653 0.047350116 -0.0047893706 0.0031444735 -0.18532091 0.00036754133 0.008151288
0.022934226 0.05883642 0.12000466 -0.00038738843 0.20381483 0.018450571 0.14610262 -0.1317741
-0.030726958 0.021427466 -0.17474782 -0.2547688 -0.0058809617 -0.09063548 0.19122282 0.19541742
0.08888253 -0.00227624 0.26458794 0.012739752 -0.48874122 0.027467644 -0.13063568 0.004235725
0.047689054 -0.25410724 0.08048064 0.1354226 -0.091198854 0.12138961 -0.29660928 -0.0009630858
-0.07642381 -0.15428063 0.11964501 0.11305968 -0.026542356 0.1851746 0.06177383 -0.12560855
-0.0046595605 -0.037631977 -0.162412 -0.3140069 0.011020013 0.22943293 -0.0439526 0.0735241
0.101955935 -0.11291527 -0.10872226 0.22586243 0.14703965 0.029909432 -0.07101504 0.1792282
-0.18449973 -0.16803323 0.13977891 -0.064355455 -0.17292817 -0.08269808 -0.09938937 -0.042383272
-0.02491359 0.014744211 -0.016305018 -0.26259518 -0.049946096 0.081295684 -0.005111062 -0.19176503
-0.11906583 0.08663678 0.27323458 0.028514935 0.05097396 -0.056245495 0.0061156224 0.043226264
-0.01615227 -0.020877864 0.3263675 -0.07541333 0.107077114 0.015475284 -0.15171841 0.09824712
0.004463393 -0.30760223 -0.019402869 -0.17172095 -0.028688293 -0.037136745 -0.19736478 -0.07567237
0.046062056 0.16650717 -0.016568717 -0.22274184 -0.001152937 -0.38216788 -0.018663345 0.079989135
-0.16934489 -0.08165853 -0.119608276 0.06064623 -0.038133476 -0.08985733 -0.041545514 0.016271306
0.04447874 -0.16140592 -0.18982334 0.13843949 0.16138035 0.023665406 0.15925586 -0.08309108
0.059910387 -0.4342891 0.0075955507 0.18903527 0.08275086 -0.18850474 -0.020550646 -0.06275473
00000000: 67b1 babd 8274 f8bd 7f20 9cbd ea3e 45bb
00000010: 5f15 dcbd e791 4c3e 4521 843d a4db 843b
00000020: 7e26 5bbe 42d5 48bd 57d0 17be 8e62 553d
00000030: 4771 4cbe 32cc bc3e f712 3f3e 02fa 48bd
00000040: 61b8 9bbc 2702 cbbd c2b7 163e 8bfc d23d
00000050: ed7f b6bc 8499 273e 54b7 a3bd 12b9 1dbe
00000060: 8fb7 a43c 9810 1bbe aba4 383b 7624 b2bd
00000070: 8c38 b33b 4cd3 90be d813 4a3e c44e 19be
00000080: 7b98 9aba 7459 29be cb4a f6bc 8814 653d
00000090: 807f a73d cbf8 05be e89c 583e 97d2 b13e
000000a0: 4bd7 503d cc5c 993e 76f7 4ebe 3015 7a3c
000000b0: 39f2 1abe 1d92 083e 41d4 213e 44eb 6abd
000000c0: 6011 293e d407 343d dd3e a7bd 6a9a 123e
000000d0: 4f40 adbd 7fd5 d83d 9c43 563d f7d4 ea3d
000000e0: 201b 9f3e 0d73 fabc db08 75bd 9161 b73c
000000f0: 0cb5 073e 4a91 7cbd b550 963d ded0 e63c
00000100: fc9f 42be 2d61 11bd 234d 26bc f582 a9be
00000110: 043e 583e 9cb9 85be 16ed 39bd 925c efbd
00000120: 96a9 6ebd dc8f e6bd 9207 adbd 096e 23be
00000130: 012b 49bd d868 a03a bb5c c33b b8c2 dbbc
00000140: 41f3 9bbe 0dda a9bd 7b24 a2be fcc0 9d3d
00000150: ed17 3f3e 7778 6dbe 01f2 d3bb 9112 39bd
00000160: 044b 71bc 5c3f 543e 648d 293d 4a67 e6be
00000170: a6ed 0bbe 8897 313e d65c 093e ce5a 9d3d
00000180: 7eb5 7bbc 6dc8 563d c321 013e 5efc 5dbe
00000190: 3feb 833d da28 04be 23d4 973d 26b7 04bd
000001a0: a44b 21bd f41d 7ebe cbc3 a9bd c049 503e
000001b0: 3bf0 883c f2bd ac3c 8adc 783e 7376 113e
000001c0: 05c9 0cbe 67f2 8abd f85a 403b d7b5 31be
000001d0: 9c33 0d3c 5333 883c ac4b 423e eed2 66be
000001e0: 05f3 2e3b 15a4 333d 32f2 413d 27f0 9cbb
000001f0: 8313 4e3b c4c4 3dbe 90b2 c039 fb8c 053c
00000200: 8fe0 bb3c 75fe 703d 01c5 f53d 651a cbb9
00000210: d6b4 503e a725 973c ed9b 153e caef 06be
00000220: 1ab7 fbbc a788 af3c 18f1 32be 0e71 82be
00000230: 15b5 c0bb 189f b9bd eacf 433e 811b 483e
00000240: 0b08 b63d f82c 15bb 1278 873e 65ba 503c
00000250: 4a3c fabe d303 e13c 5cc5 05be d6cb 8a3b
00000260: 9955 433d 581a 82be 09d3 a43d 39ac 0a3e
00000270: 77c6 babd 1e9b f83d 2cdd 97be 9877 7cba
00000280: 1684 9cbd befb 1dbe 7108 f53d d58b e73d
00000290: 5b6f d9bc 699e 3d3e 8e06 7d3d 879f 00be
000002a0: 3aaf 98bb fd23 1abd 554f 26be 83c5 a0be
000002b0: 498d 343c 77f0 6a3e a407 34bd ce93 963d
000002c0: 46ce d03d 1f40 e7bd c7a9 debd 7b48 673e
000002d0: 9091 163e a004 f53c 5570 91bd 9987 373e
000002e0: 7fed 3cbe e710 2cbe 3422 0f3e cbcc 83bd
000002f0: 1514 31be 9c5d a9bd a78c cbbd 159a 2dbd
00000300: 9617 ccbc b491 713c 1a92 85bc e072 86be
00000310: 4794 4cbd 5a7e a63d b27a a7bb 0d5e 44be
00000320: c9d8 f3bd a06e b13d 67e5 8b3e 2798 e93c
00000330: 12ca 503d ad61 66bd 8f65 c83b 060e 313d
00000340: c451 84bc 0e08 abbc a419 a73e 4e72 9abd
00000350: 3f4b db3d 0c8c 7d3c 125c 1bbe c935 c93d
00000360: a741 923b 0a7e 9dbe c4f2 9ebc 9ed7 2fbe
00000370: b603 ebbc b31c 18bd fe19 4abe 1efa 9abd
00000380: 91ab 3c3d db80 2a3e 1ebb 87bc 7016 64be
00000390: 251e 97ba 82ab c3be dfe3 98bc 58d1 a33d
000003a0: bf68 2dbe 963c a7bd 2ff5 f4bd 2e68 783d
000003b0: d931 1cbd 1f07 b8bd a12b 2abd 674b 853c
000003c0: 572f 363d 9847 25be 0d61 42be 15c3 0d3e
000003d0: e440 253e f4dd c13c f813 233e a82b aabd
000003e0: 9864 753d 245b debe 19e4 f83b 7692 413e
000003f0: 4879 a93d 6307 41be d459 a8bc 8d85 80bd

base.2linear.bias f4 [50]
0.0993279 -0.11935233 -0.103629224 -0.044648174 -0.029081982 -0.05641763 0.12711251 -0.041610055
0.04477614 0.0042007025 -0.06009997 0.021754429 -0.018522348 0.01798256 0.10542217 -0.027130326
-0.18702321 0.056013815 0.06207616 -0.039632935 0.025496684 0.114987634 -0.01290228 -0.060298055
0.070301026 -0.08066603 -0.09111797 -0.21422844 0.026791045 0.11421209 0.059532024 0.0403102
0.047417194 -0.08157326 -0.070043 0.025016692 0.068895966 0.016583616 0.21812639 0.14260304
0.10791411 -0.09296762 -0.089342214 0.04330162 -0.009891879 -0.11889787 -0.07269887 0.042183846
0.11831446 -0.0875139
00000000: 6d6c cb3d ff6e f4bd 8f3b d4bd 01e1 36bd
00000010: 563d eebc 2c16 67bd c829 023e 4e6f 2abd
00000020: 3067 373d 0ca6 893b 632b 76bd 5836 b23c
00000030: 2ebc 97bc 2950 933c 94e7 d73d 6b40 debc
00000040: 0383 3fbe be6e 653d 9243 7e3d 2556 22bd
00000050: 6cde d03c a37e eb3d 1664 53bc 18fb 76bd
00000060: fcf9 8f3d 3b34 a5bd 0f9c babd b35e 5bbe
00000070: e578 db3c 07e8 e93d dad7 733d 4f1c 253d
00000080: 8838 423d e20f a7bd b472 8fbd ceef cc3c
00000090: 5419 8d3d 5dda 873c 865c 5f3e 8806 123e
000000a0: 1302 dd3d cf65 bebd 0df9 b6bd 0a5d 313d
000000b0: 8c11 22bc ba80 f3bd 25e3 94bd f8c8 2c3d
000000c0: da4e f23d 7d3a b3bd

base.3linear.weight f4 [50, 50]
0.19195974 -0.48839945 0.2524553 -0.01507148 -0.2696248 -0.40665984 -0.17602165 -0.014572215
-0.0065915775 0.06567311 -0.049302384 0.025818657 -0.030111838 -0.2338721 -0.41661528 -0.11710126
-0.033020936 0.008375715 0.012108031 -0.24190176 0.376737 0.24501586 -0.09109634 -0.16711852
0.08497124 -0.14390346 -0.29013386 0.06449347 0.14255534 0.10509662 0.05272547 -0.026697125
-0.03905297 -0.08421508 -0.2282728 -0.019640783 0.53910947 0.004203817 -0.29723892 0.09166884
0.15552676 -0.07865522 -0.29550588 -0.2542748 -0.039978098 0.023667702 -0.123439185 0.076555096
0.13686736 0.0048087 0.035580777 -0.14316231 -0.32615247 -0.0070717344 0.096132465 0.04271391
0.30024892 0.2788966 0.012298046 0.05023343 0.05049521 0.013032753 0.0018144749 0.35370207
0.15285462 -0.18940043 -0.19738835 -0.024765572 0.10239352 -0.06463302 0.26064935 0.19331557
-0.0033235562 -0.14076641 -0.1276219 0.066943765 0.03780533 -0.26478732 0.16677305 0.015495193
0.24910876 -0.113358 0.27093047 -0.11814889 -0.11237005 0.004681176 0.003962588 -0.008606567
0.45264512 0.022201704 0.281121 0.033941314 0.27101326 0.5604116 0.033265065 -0.2760683
-0.025886195 0.25904053 -0.08420176 0.13526955 0.06607856 0.0041181915 -0.0221891 0.004993786
-0.08090762 0.30208823 0.019421877 0.07368238 -0.0016878728 -0.1533538 -0.020710597 -0.050922357
0.10038507 0.1875206 -0.20491558 -0.08344499 0.06448042 0.007275118 0.041106198 0.06413232
0.10660862 0.10730314 0.110744074 -0.0117562115 0.1789853 -0.064503 0.001736 0.1354707
-0.1971943 -0.15362662 -0.03032053 0.21134557 -0.24260083 -0.2047752 0.18545108 -0.045751628
-0.037998736 -0.023132214 -0.19412796 0.0007060063 0.021648826 -0.10904863 -0.18649879 -0.031533863
0.022684347 0.16832148 0.065740675 -0.17457862 0.19428009 -0.12276212 -0.123136744 -0.13832363
-0.18515885 -0.028287653 0.21075568 -0.20639221 -0.22342944 -0.06205961 -0.027661163 0.061554547
-0.22424132 -0.04670868 -0.30215654 -0.112551846 0.043845125 -0.25210214 -0.27622297 0.0017479634
0.23989722 0.121388614 0.18716255 -0.10416148 0.23102556 0.12825806 0.51737225 -0.45388162
-0.46769595 0.1291004 0.1551689 0.15607676 0.05190871 0.25734505 -0.18338779 -0.10202447
-0.34689403 -0.08061087 0.12749036 -0.0030958191 0.043392815 0.20993774 -0.18771136 -0.3005446
-0.42459738 -0.17593333 0.070546955 -0.40486977 0.061923575 0.0351939 0.15556656 -0.0953283
0.1352296 0.0437186 -0.093278974 -0.07599277 0.048400387 0.19350934 0.054469008 -0.09537211
0.015362947 0.076753296 -0.16093358 -0.059138596 -0.13957033 0.07792189 0.15707171 -0.13460824
0.055423684 0.0031947815 -0.21297511 -0.10417668 -0.22754216 0.089331344 -0.033726256 0.008238203
0.1134835 0.109242566 -0.14366633 0.0053802524 -0.074384615 0.07157748 0.18529856 0.108909674
-0.29943013 -0.20564543 -0.004350351 0.07244555 0.03348849 0.034393504 0.052360326 0.15859073
-0.21067268 -0.05512053 -0.02692086 0.08155201 0.077269986 0.011219107 0.035560083 -0.15272366
-0.010307835 -0.013988599 0.04143551 -0.017565588 0.15054825 -0.036272485 0.38661548 0.20800036
00000000: 1891 443e 7e0f fabe d241 813e 5eee 76bc
00000010: 430c 8abe b835 d0be 053f 34be 4dc0 6ebc
00000020: 29fe d7bb a07f 863d 4cf1 49bd a681 d33c
00000030: 1aad f6bc 2b7c 6fbe 994e d5be c9d2 efbd
00000040: f640 07bd 4c3a 093c c360 463c 18b5 77be
00000050: ace3 c03e 70e5 7a3e b890 babd 1e21 2bbe
00000060: 6705 ae3d 6e5b 13be 6d8c 94be 2715 843d
00000070: 07fa 113e e63c d73d aaf6 573d eeb3 dabc
00000080: 02f6 1fbd f578 acbd 58c0 69be b5e5 a0bc
00000090: 1403 0a3f 2cc0 893b b32f 98be dfbc bb3d
000000a0: 6842 1f3e fd15 a1bd 8c4c 97be 4e30 82be
000000b0: 13c0 23bd c5e2 c13c afcd fcbd ebc8 9c3d
000000c0: f526 0c3e 4d92 9d3b 26bd 113d 2499 12be
000000d0: 75fd a6be 02ba e7bb 19e1 c43d c8f4 2e3d
000000e0: 3aba 993e 89cb 8e3e be7d 493c 92c1 4d3d
000000f0: 11d4 4e3d 5487 553c add3 ed3a 7018 b53e
00000100: ec85 1c3e 30f2 41be 2c20 4abe 2be1 cabc
00000110: b2b3 d13d 515e 84bd d573 853e 84f4 453e
00000120: 05d0 59bb 1225 10be 51af 02be d019 893d
00000130: c3d9 1a3d 3492 87be 8ec6 2a3e 8ddf 7d3c
00000140: 5e16 7f3e 3d28 e8bd 66b7 8a3e 0cf8 f1bd
00000150: 4522 e6bd 8d64 993b 99d8 813b 8f02 0dbc
00000160: 1ac1 e73e 59e0 b53c 17ef 8f3e 0c06 0b3d
00000170: 40c2 8a3e 2277 0f3f f340 083d d358 8dbe
00000180: 490f d4bc f6a0 843e f971 acbd 1a84 0a3e
00000190: 3254 873d e5f1 863b eac5 b5bc eaa2 a33b
000001a0: e5b2 a5bd 4fab 9a3e a11a 9f3c cae6 963d
000001b0: 9d3b ddba c708 1dbe 45a9 a9bc f693 50bd
000001c0: b096 cd3d 6605 403e 64d5 51be 35e5 aabd
000001d0: 4f0e 843d 1d64 ee3b f95e 283d ce57 833d
000001e0: 9f55 da3d c0c1 db3d cacd e23d 209d 40bc
000001f0: ec47 373e 261a 84bd 7e8a e33a d5b8 0a3e
00000200: 4ded 49be 4c50 1dbe c362 f8bc f96a 583e
00000210: 5a6c 78be 97b0 51be e3e6 3d3e 0f66 3bbd
00000220: 90a4 1bbd c57f bdbc 7bc9 46be 4813 393a
00000230: e158 b13c e354 dfbd 8af9 3ebe a729 01bd
00000240: 86d4 b93c 775c 2c3e 0ca3 863d bdc4 32be
00000250: 5cf1 463e b56a fbbd 1e2f fcbd b6a4 0dbe
00000260: 489a 3dbe 82bb e7bc 56d0 573e 7b58 53be
00000270: b0ca 64be 3832 7ebd aa99 e2bc 9f20 7c3d
00000280: 849f 65be 9a51 3fbd 43b4 9abe 9581 e6bd
00000290: f296 333d 8813 81be 196d 8dbe eb1b e53a
000002a0: 9ea7 753e 989a f83d 8aa7 3f3e 9d52 d5bd
000002b0: f791 6c3e 1556 033e 8272 043f 2c63 e8be
000002c0: d875 efbe e532 043e 99e4 1e3e 96d2 1f3e
000002d0: 3a9e 543d bbc2 833e 02ca 3bbe 35f2 d0bd
000002e0: 189c b1be 5017 a5bd d58c 023e 3ae3 4abb
000002f0: aabc 313d ebf9 563e 6837 40be fbe0 99be
00000300: d464 d9be de27 34be ec7a 903d 174b cfbe
00000310: 93a3 7d3d 7b27 103d d74c 1f3e 7c3b c3bd
00000320: a179 0a3e 4612 333d 0c09 bfbd 19a2 9bbd
00000330: 7c3f 463d 5027 463e e51a 5f3d 7452 c3bd
00000340: dfb4 7b3c d530 9d3d c6cb 24be 503b 72bd
00000350: 86eb 0ebe 8395 9f3d 68d7 203e bed6 09be
00000360: f203 633d 8a5f 513b 2616 5abe 955a d5bd
00000370: d000 69be 5af3 b63d 8b24 0abd 87f9 063c
00000380: 0a6a e83d 91ba df3d 441d 13be d44c b03b
00000390: f656 98bd 3797 923d e8be 3d3e 090c df3d
000003a0: e84e 99be b794 52be 648d 8ebb 555e 943d
000003b0: 3a2b 093d 34e0 0c3d c877 563d 9c65 223e
000003c0: 94ba 57be 11c6 61bd 2389 dcbc bd04 a73d
000003d0: ba3f 9e3d 58d0 373c 73a7 113d 9763 1cbe
000003e0: 32e2 28bc 7030 65bc 48b8 293d b5e5 8fbc
000003f0: 5229 1a3e 7592 14bd 77f2 c53e 0cfe 543e

base.3linear.bias f4 [50]
0.07815121 0.14295289 -0.03895251 0.13076967 0.053471904 0.022048537 -0.04338951 -0.016124468
-0.040493056 0.036982972 0.045143086 0.06481977 0.09608763 -0.068031624 0.092544705 -0.0023229495
-0.034774903 -0.014796147 -0.052179962 0.0070388024 -0.009902636 0.037845843 -0.059161056 -0.028832383
0.048697248 -0.00940699 0.088971406 -6.5445245e-05 0.06829695 0.080313265 -0.08360127 0.070417956
0.12672931 0.14187126 -0.12781519 -0.060431555 -0.027412739 -0.1459479 -0.11591019 -0.061839014
-0.08254265 0.005249785 -0.06876888 -0.019164467 -0.022652095 0.027822098 -0.122301854 -0.13195439
0.034658056 0.04017814
00000000: be0d a03d 3e62 123e ab8c 1fbd 7ce8 053e
00000010: 5b05 5b3d 229f b43c 33b9 31bd 7617 84bc
00000020: 0cdc 25bd 757b 173d f5e7 383d 3ac0 843d
00000030: 97c9 c43d 2a54 8bbd 1488 bd3d a03c 18bb
00000040: 2170 0ebd 8a6b 72bc a8ba 55bd c1a5 e63b
00000050: aa3e 22bc 3e04 1b3d dd52 72bd e431 ecbc
00000060: c476 473d c71f 1abc a436 b63d a63f 89b8
00000070: 45df 8b3d 487b a43d 2537 abbd 4a37 903d
00000080: 54c5 013e b346 113e fce1 02be 1487 77bd
00000090: ae90 e0bc 5e73 15be 5262 edbd e84a 7dbd
000000a0: 1f0c a9bd 6306 ac3b b3d6 8cbd cdfe 9cbc
000000b0: e390 b9bc 2beb e33c 6579 fabd 0d1f 07be
000000c0: 9bf5 0d3d d591 243d

base.4linear.weight f4 [50, 50]
-0.12348602 0.02116085 -0.021774441 0.22090364 -0.15010017 0.06986368 -0.033466976 -0.09316754
-0.2530882 -0.05789668 0.19557187 -0.109715365 0.010340135 0.04485488 -0.26661056 0.047352873
-0.21915464 -0.031192115 -0.21528663 0.16147783 -0.08830702 0.2971395 0.032513704 -0.027453354
-0.047717445 -0.07263338 -0.16605371 -0.09004169 -0.032856803 0.08172995 0.15521796 -0.05276028
-0.0055474048 0.15044357 0.023837836 0.025375083 0.039891787 -0.29432362 0.0804176 0.10102794
0.13107508 0.112742975 0.23200566 0.122082755 -0.1384662 0.18576387 0.10635457 -0.1860838
-0.2241479 0.051409513 0.2080335 0.15486398 0.12920666 0.15555292 0.13000804 -0.19327766
0.021603813 -0.13672581 -0.038704507 0.0029259112 0.009208668 0.063074514 0.05934873 -0.010124774
0.35067916 0.060549356 0.056081876 0.015897732 0.20317718 -0.12193447 0.015211379 -0.09077335
-0.018271986 0.050459906 -0.12587003 0.0060666385 0.057672434 -0.21933252 0.101135924 0.057291735
-0.052080024 0.031721547 -0.07740892 -0.13046429 0.03203993 0.03222794 0.15001458 0.15629211
0.05915647 0.03839848 -0.050959215 0.09166126 -0.17501205 0.0034697403 0.18616456 0.2019999
-0.30543417 0.18038717 -0.28034636 -0.07630532 -0.26164714 0.09646758 0.10891639 -0.10484919
-0.085774586 -0.15908475 0.027449852 0.0013112547 0.11130884 -0.00034664557 -0.15033312 0.010847129
0.34922525 -0.119538575 -0.0511119 -0.013231601 0.21781372 -0.25989726 0.24451175 -0.013983741
-0.038344268 0.21699442 0.0090650385 -0.07054258 0.25919726 0.012299004 0.041199856 -0.041328143
-0.07807507 0.1402398 -0.12536114 -0.05428028 0.065791376 0.047290985 0.122019075 0.05710089
-0.1365442 -0.02019929 0.132399 0.2018326 -0.07811008 0.06006328 -0.0487666 -0.15749833
0.1116614 0.06765729 -0.15621117 0.06551849 0.15199542 0.22519745 -0.032406505 0.10025909
-0.045183018 -0.08628225 -0.14700283 0.21269357 -0.03767622 -0.16074747 0.3713129 -0.053358242
-0.16789785 0.119197674 -0.21560892 -0.096958406 -0.17930026 0.0694279 -0.028146185 0.12529014
0.011537455 -0.1939778 0.095653825 0.24554653 -0.01570725 -0.05177695 -0.020030238 -0.019629383
0.23045446 0.13197942 0.21243288 0.27476922 -0.11272426 0.014520471 0.06854484 0.0005344763
-0.101767406 -0.105259925 0.04890092 0.17392291 -0.18388127 -0.11173172 0.085308105 -0.20102997
-0.06319662 -0.18390001 0.110262655 -0.04095284 -0.003936741 0.23916812 -0.003097327 -0.16719608
0.007638293 0.041205246 0.14037952 -0.27905574 -0.096916996 -0.32991457 0.060646012 0.009303301
0.0065774648 -0.12532486 0.00860252 0.1909401 -0.051829636 -0.13949625 -0.40509185 -0.030118389
0.0063746898 0.33523208 0.03495334 0.09902513 0.04448187 0.011169366 -0.011884293 0.17084782
0.29687735 -0.029209735 -0.38783294 -0.25738877 -0.13898961 -0.001468237 0.19587931 0.041562375
-0.34716517 0.051813345 0.27446866 0.053302076 -0.019809678 0.2251508 0.03572482 0.0620314
0.50841737 -0.32061422 -0.30413437 -0.02290335 -0.1435687 0.25530255 0.3283677 0.30055276
-0.06618122 0.29231083 -0.015673542 -0.48743767 0.42988145 -0.17855024 -0.0756787 -0.09734937
00000000: 3de6 fcbd 8559 ad3c 5060 b2bc 9034 623e
00000010: dcb3 19be b014 8f3d ab14 09bd a0ce bebd
00000020: c794 81be 1225 6dbd fe43 483e 73b2 e0bd
00000030: ab69 293c c0b9 373d 2e81 88be 16f5 413d
00000040: 136a 60be 9b86 ffbc 1974 5cbe 725a 253e
00000050: 50da b4bd ab22 983e 172d 053d dbe5 e0bc
00000060: 5e73 43bd cfc0 94bd fc09 2abe c767 b8bd
00000070: db94 06bd 0862 a73d 75f1 1e3e 2a1b 58bd
00000080: 01c7 b5bb e10d 1a3e 9147 c33c 68df cf3c
00000090: 9265 233d 96b1 96be fcb1 a43d bde7 ce3d
000000a0: 8c38 063e cae5 e63d e492 6d3e 8606 fa3d
000000b0: 15ca 0dbe e238 3e3e 6dd0 d93d c08c 3ebe
000000c0: 0787 65be c892 523d bc06 553e aa94 1e3e
000000d0: c04e 043e 4449 1f3e d420 053e 94ea 45be
000000e0: 7bfa b03c da01 0cbe 9e88 1ebd a5c0 3f3b
000000f0: f4df 163c 362d 813d a717 733d 61e2 25bc
00000100: 388c b33e 9a02 783d 1cb6 653d f63b 823c
00000110: ae0d 503e c8b8 f9bd 2639 793c 61e7 b9bd
00000120: 22af 95bc 0caf 4e3d 13e4 00be a7ca c63b
00000130: ee39 6c3d b498 60be 5a20 cf3d bdaa 6a3d
00000140: dd51 55bd 74ee 013d 9188 9ebd 6e98 05be
00000150: 4d3c 033d 7201 043d 6c9d 193e 0a0b 203e
00000160: 0e4e 723d b947 1d3d 9cba 50bd e6b8 bb3d
00000170: 5c36 33be 9564 633b eca1 3e3e 10d9 4e3e
00000180: de61 9cbe 6ab7 383e 8f89 8fbe f745 9cbd
00000190: 9df6 85be cb90 c53d 8e0f df3d 2cbb d6bd
000001a0: 96aa afbd 1de7 22be 83de e03c 68de ab3a
000001b0: e4f5 e33d fbbd b5b9 edf0 19be 28b8 313c
000001c0: a7cd b23e a4d0 f4bd b65a 51bd 5bc9 58bc
000001d0: 8f0a 5f3e 4111 85be 4a61 7a3e 101c 65bc
000001e0: e10e 1dbd c933 5e3e 8785 143c a178 90bd
000001f0: 81b5 843e c381 493c 2ec1 283d b347 29bd
00000200: d3e5 9fbd 069b 0f3e ac5e 00be 0055 5ebd
00000210: a1bd 863d 31b4 413d 23e5 f93d 9fe2 693d
00000220: 3ed2 0bbe fb78 a5bc 9a93 073e 35ad 4e3e
00000230: 2df8 9fbd ea04 763d 7dbf 47bd 3e47 21be
00000240: bbae e43d e88f 8a3d d2f5 1fbe 8f2e 863d
00000250: b0a4 1b3e 299a 663e afbc 04bd a354 cd3d
00000260: d411 39bd c0b4 b0bd e987 16be 58cc 593e
00000270: 6152 1abd fc9a 24be b91c be3e 2c8e 5abd
00000280: 6aed 2bbe e91d f43d 96c8 5cbe 2192 c6bd
00000290: 7d9a 37be 3730 8e3d d492 e6bc 0f4c 003e
000002a0: 9807 3d3c 1ea2 46be 27e6 c33d 8d70 7b3e
000002b0: 7eac 80bc 1114 54bd 7416 a4bc cdcd a0bc
000002c0: 41fc 6b3e 9d25 073e 0188 593e 8dae 8c3e
000002d0: fadb e6bd 45e7 6d3c 3d61 8c3d 191c 0c3a
000002e0: 6e6b d0bd 8492 d7bd 554c 483d d918 323e
000002f0: 5f4b 3cbe 9ad3 e4bd 04b6 ae3d cdda 4dbe
00000300: 3b6d 81bd 4950 3cbe 63d1 e13d 2abe 27bd
00000310: c7ff 80bb 7de8 743e 86fc 4abb 7335 2bbe
00000320: a54a fa3b d5c6 283d a6bf 0f3e 65e0 8ebe
00000330: 6b7c c6bd 90ea a8be f467 783d df6c 183c
00000340: c687 d73b 2955 00be 96f1 0c3c cd85 433e
00000350: 504b 54bd 1bd8 0ebe 3368 cfbe d7ba f6bc
00000360: c6e2 d03b 8aa3 ab3e 3c2b 0f3d b0cd ca3d
00000370: 9f32 363d b7ff 363c 56b6 42bc bbf2 2e3e
00000380: 4f00 983e 4149 efbc 0a92 c6be 76c8 83be
00000390: 4b53 0ebe dc71 c0ba 9694 483e 4f3d 2a3d
000003a0: a2bf b1be 3b3a 543d 2887 8c3e 4753 5a3d
000003b0: e847 a2bc ee8d 663e 3054 123d a314 7e3d
000003c0: a427 023f 8c27 a4be 80b7 9bbe ce9f bbbc
000003d0: ac03 13be 04b7 823e d01f a83e 0de2 993e
000003e0: 058a 87bd c4a9 953e cd65 80bc 6e91 f9be
000003f0: 6c19 dc3e e0d5 36be 6ffd 9abd 1b5f c7bd

base.4linear.bias f4 [50]
-0.06350909 0.022191621 0.017177097 0.020766826 0.010001373 -0.09441482 -0.045967095 0.062252764
-0.08702085 0.08492149 -0.068408646 0.048192184 -0.028123474 -0.033579618 0.10540761 -0.09321478
-0.06291697 -0.010465407 -0.019183442 -0.07702348 -0.040695578 0.044106647 0.06535573 0.0060239052
-0.080354616 0.023275206 0.054723103 0.09985877 0.06657655 0.07092914 -0.034325793 -0.049592864
0.057015 0.073296644 0.024116583 0.026826505 -0.01253555 0.01810232 0.023596859 -0.013678544
0.040860143 0.07246488 0.008256696 0.10054224 -0.0736921 0.06065193 -0.0017189356 0.09406761
-0.06757178 -0.03114078
00000000: 0e11 82bd 34cb b53c fcb6 8c3c 311f aa3c
00000010: ccdc 233c 8f5c c1bd fe47 3cbd c1fc 7e3d
00000020: fd37 b2bd 51eb ad3d d519 8cbd 2b65 453d
00000030: 3363 e6bc c88a 09bd f2df d73d 64e7 bebd
00000040: 9dda 80bd 1977 2bbc 9826 9dbc 7cbe 9dbd
00000050: 68b0 26bd 2ca9 343d 3ad9 853d 2e64 c53b
00000060: f690 a4bd a5ab be3c 5525 603d c182 cc3d
00000070: 4959 883d 4c43 913d 3499 0cbd e321 4bbd
00000080: 9088 693d 8d1c 963d 2490 c53c 42c3 db3c
00000090: e861 4dbc 514b 943c 334e c13c f91b 60bc
000000a0: f75c 273d 7868 943d 1847 073c 17e9 cd3d
000000b0: e2eb 96bd 286e 783d e84d e1ba 85a6 c03d
000000c0: 1363 8abd f31a ffbc

base.5linear.weight f4 [50, 50]
0.016962979 -0.23378608 -0.2526618 -0.06854734 0.050970737 0.084799424 -0.38716477 -0.3709369
0.39105007 -0.03334765 -0.09279073 -0.061183322 0.049635936 0.38459903 -0.062219895 0.077423885
0.1737369 -0.0038603 -0.038462304 -0.1298235 0.085418835 -0.2195039 -0.061567675 -0.20592739
0.26134464 0.2617635 -0.024316534 -0.16559297 -0.0811129 -0.012798165 -0.03556929 -0.05444343
0.08221508 -0.2895515 -0.12790693 0.11984126 0.35358167 0.04943286 -0.004942906 -0.03432876
-0.03332502 0.09965159 -0.20369177 -0.086851515 0.19676916 -0.072583236 0.035400234 0.18563215
-0.22220634 0.12112976 0.029606836 -0.020473585 0.16050526 -0.06534516 0.044244774 -0.062355313
-0.052470207 -0.12522274 -0.15142258 -0.16916642 0.05078389 0.01512671 -0.29734197 0.28924897
0.2895901 0.013617424 -0.16663471 0.041017655 0.07736145 0.22966747 0.015101863 0.38476408
-0.039094184 -0.052394386 0.09266747 0.12336957 0.16484691 0.21380456 0.10181664 0.081915945
0.089848995 -0.02994304 0.28732038 0.01619468 -0.101733506 -0.11803996 0.2880586 -0.06708546
-0.010960036 0.026276609 0.018717775 -0.026850298 -0.10880119 -0.09152461 -0.0015330071 0.051461853
-0.06853464 -0.03964643 -0.13745247 0.038808394 -0.09219427 0.19505687 -0.069267884 -0.115173906
-0.10800594 -0.06868311 0.24217755 -0.24715564 0.059918422 -0.1438645 0.05476108 0.0022203557
0.15699725 0.16674677 0.03620016 0.053028997 -0.07327465 0.16610579 0.0053719436 0.13223186
-0.095366195 -0.0453222 -0.27080783 0.14103062 -0.018644214 -0.02635431 -0.10555162 0.13851164
-0.007686974 -0.13943061 0.24399118 0.2522883 -0.017856011 0.13223295 -0.17069878 -0.1672169
-0.016421853 0.18404269 0.12476639 0.39132184 0.09415411 -0.12337346 0.10600739 0.033783436
-0.16462341 -0.010104511 -0.086189136 -0.3652362 0.001226197 0.13250433 -0.13488832 0.40243152
-0.026288457 -0.030490994 -0.12522593 -0.24051407 -0.035891585 -0.010990717 -0.24269754 0.12699796
-0.06458309 -0.021490492 -0.25914967 -0.15700373 0.23974046 -0.23137982 -0.12283819 -0.051681425
-0.16962348 -0.0017479426 -0.2740764 0.18690716 -0.20977908 -0.16745308 0.05721833 0.08241597
0.22202703 0.18902686 -0.0027176917 0.02428027 -0.13673717 0.024091182 0.15704605 0.12491385
0.0642732 0.23487192 0.10867507 0.06605562 -0.054757293 -0.06693203 0.14256252 -0.092957996
0.116315395 0.069699846 -0.066278115 0.21221712 0.06559417 0.17668158 -0.27254787 0.09919973
-0.041612983 -0.07539169 0.029308958 0.100792095 0.13624607 0.06967598 0.31647283 -0.41447878
0.12984256 0.053527262 -0.01748253 -0.16859695 0.05512393 0.07986806 -0.2059127 0.066613376
-0.15863496 0.2267097 0.24395847 -0.15807435 0.09390977 -0.04133687 0.020564506 -0.017400125
-0.043124408 0.06264288 0.20204417 -0.03387921 -0.02709263 0.24409465 -0.0056292815 0.2307618
-0.019944329 -0.019030403 0.08943763 0.07195617 -0.20270623 -0.005066743 0.23085824 0.26908135
0.24920623 -0.1463317 0.08991035 0.07223962 -0.20751597 0.16248842 0.016386732 -0.08118595
-0.022408437 -0.15037106 0.062723964 -0.16560106 0.07674227 -0.20069215 0.18782017 0.22881864
00000000: f2f5 8a3c 9e65 6fbe e35c 81be 8c62 8cbd
00000010: b1c6 503d 52ab ad3d 763a c6be 71eb bdbe
00000020: b737 c83e 8c97 08bd 1109 bebd 5d9b 7abd
00000030: 0d4f 4b3d 2aea c43e 4ada 7ebd 6a90 9e3d
00000040: 16e8 313e 16fd 7cbb a68a 1dbd 74f0 04be
00000050: 12f0 ae3d a1c5 60be 632e 7cbd a1de 52be
00000060: f7ce 853e de05 863e 7833 c7bc 3491 29be
00000070: 851e a6bd 65af 51bc 1bb1 11bd 1300 5fbd
00000080: 6160 a83d 1840 94be 09fa 02be 566f f53d
00000090: a808 b53e 1c7a 4a3d 1af8 a1bb 509c 0cbd
000000a0: d17f 08bd 2216 cc3d 9394 50be 35df b1bd
000000b0: db7d 493e 85a6 94bd d6ff 103d 5b16 3e3e
000000c0: 0f8a 63be e112 f83d 098a f23c 38b8 a7bc
000000d0: 7e5b 243e afd3 85bd 023a 353d 4968 7fbd
000000e0: 00eb 56bd 643a 00be 850e 1bbe f639 2dbe
000000f0: c502 503d 05d6 773c 353d 98be 7118 943e
00000100: 2745 943e 9e1b 5f3c 4aa2 2abe 2102 283d
00000110: ae6f 9e3d f32d 6b3e ce6d 773c ccff c43e
00000120: 3921 20bd 7f9b 56bd 71c8 bd3d 2fa9 fc3d
00000130: a1cd 283e 95ef 5a3e 3e85 d03d 8cc3 a73d
00000140: c002 b83d 1b4b f5bc a81b 933e b5aa 843c
00000150: a859 d0bd efbe f1bd 6b7c 933e 1a64 89bd
00000160: b991 33bc 0b42 d73c 0556 993c 28f5 dbbc
00000170: 29d3 debd 4171 bbbd 2fef c8ba aac9 523d
00000180: e45b 8cbd 4c64 22bd 57c0 0cbe 8df5 1e3d
00000190: 59d0 bcbd fdbc 473e 52dc 8dbd 4ce0 ebbd
000001a0: 3832 ddbd bba9 8cbd 64fd 773e 5e16 7dbe
000001b0: 056d 753d 3751 13be 274d 603d 6383 113b
000001c0: e3c3 203e aabf 2a3e 9e46 143d ef34 593d
000001d0: 0511 96bd a317 2a3e 2107 b03b ca67 073e
000001e0: 5a4f c3bd c5a3 39bd 53a7 8abe 556a 103e
000001f0: c0bb 98bc fee4 d7bc 732b d8bd ffd5 0d3e
00000200: 03e3 fbbb e6c6 0ebe d3d8 793e ef2b 813e
00000210: c546 92bc 1368 073e a9cb 2ebe e83a 2bbe
00000220: 1f87 86bc b075 3c3e 8585 ff3d 565b c83e
00000230: dfd3 c03d 39ab fcbd 671a d93d 8060 0a3d
00000240: 0a93 28be 648d 25bc ee83 b0bd 3d00 bbbe
00000250: 58b8 a03a 37af 073e 2a20 0abe 810b ce3e
00000260: e45a d7bc 40c8 f9bc 3a3b 00be 5249 76be
00000270: 0e03 13bd 6912 34bc b485 78be c10b 023e
00000280: 2444 84bd d40c b0bc 44af 84be 96c5 20be
00000290: 867e 753e d5ee 6cbe 9792 fbbd e7af 53bd
000002a0: c7b1 2dbe 391b e5ba be53 8cbe 9764 3f3e
000002b0: 54d0 56be d278 2bbe c55d 6a3d b4c9 a83d
000002c0: 0e5b 633e 4290 413e 4d1b 32bb 6be7 c63c
000002d0: d404 0cbe df5a c53c aed0 203e d5d2 ff3d
000002e0: aba1 833d 4482 703e 0991 de3d 2b48 873d
000002f0: 2f49 60bd a913 89bd e9fb 113e c360 bebd
00000300: c436 ee3d cbbe 8e3d d2bc 87bd 724f 593e
00000310: 3c56 863d 04ec 343e 658b 8bbe 3a29 cb3d
00000320: 6072 2abd f566 9abd 5719 f03c 166c ce3d
00000330: 1784 0b3e 48b2 8e3d ba08 a23e 9036 d4be
00000340: 73f5 043e 673f 5b3d 8637 8fbc aea4 2cbe
00000350: a1c9 613d de91 a33d c7da 52be 986c 883d
00000360: 3471 22be 9626 683e 40d0 793e 3ede 21be
00000370: c453 c03d da50 29bd e576 a83c b58a 8ebc
00000380: 38a3 30bd e94a 803d abe4 4e3e edc4 0abd
00000390: 5df1 ddbc f3f3 793e d675 b8bb d24c 6c3e
000003a0: 4a62 a3bc a6e5 9bbc 132b b73d c25d 933d
000003b0: 3992 4fbe ec06 a6bb 1a66 6c3e 08c5 893e
000003c0: eb2f 7f3e fad7 15be eb22 b83d 5ef2 933d
000003d0: 117f 54be 5d63 263e 783d 863c d244 a6bd
000003e0: e691 b7bc dffa 19be 6c75 803d 5393 29be
000003f0: 0d2b 9d3d 3e82 4dbe ee53 403e 6f4f 6a3e

base.5linear.bias f4 [50]
-0.04170587 0.039449748 -0.03370353 0.06501414 0.07609673 0.009396849 0.0064795967 -0.019542782
-0.02369057 0.104568616 -0.031947993 -0.042665772 0.11785852 -0.096355274 -0.015490876 0.0068509635
0.020209294 0.0048570307 0.030747566 0.020597361 0.093504846 0.06076437 -0.120333776 -0.06073749
0.03807662 0.09398115 0.03221922 0.08235617 -0.007575271 -0.01607542 0.082610965 -0.0025163512
0.024554893 -0.028726935 -0.032718536 0.03471837 -0.02547607 0.022110466 -0.01993739 -0.078167595
-0.016303634 -0.029361531 0.10317478 0.07187348 0.045603994 0.023284396 -0.072961256 0.058050375
-0.032554645 0.027307244
00000000: c6d3 2abd 0f96 213d b60c 0abd 2226 853d
00000010: 9ad8 9b3d 3ef5 193c cc52 d43b 2f18 a0bc
00000020: ba12 c2bc 1228 d63d e6db 02bd 4ec2 2ebd
00000030: cf5f f13d ea55 c5bd 71cd 7dbc 0c7e e03b
00000040: f68d a53c ba27 9f3b 52e2 fb3c ccbb a83c
00000050: 787f bf3d 0fe4 783d 8e71 f6bd e0c7 78bd
00000060: 3bf6 1b3d 3079 c03d 4df8 033d 5aaa a83d
00000070: fb39 f8bb 99b0 83bc f02f a93d 5ee9 24bb
00000080: 5827 c93c c054 ebbc df03 06bd d934 0e3d
00000090: 31b3 d0bc 0221 b53c bd53 a3bc 5516 a0bd
000000a0: 338f 85bc 9887 f0bc 4d4d d33d 6732 933d
000000b0: 41cb 3a3d ebbe be3c b66c 95bd 3bc6 6d3d
000000c0: 0558 05bd 71b3 df3c

base.6linear.weight f4 [50, 50]
0.040750887 0.21489882 -0.054053288 0.3021622 -0.20050085 -0.06511081 -0.048347324 -0.18318912
0.28927016 -0.062390033 0.21153751 -0.23631018 0.10588111 -0.019169489 -0.015168743 0.06288297
0.058135316 -0.2272996 0.040120535 0.07965979 0.11316796 0.21657458 -0.099252835 -0.032841213
-0.030515099 0.04128706 0.19633523 0.17701715 -0.23297249 -0.035648957 -0.15702567 -0.14328773
-0.015447379 -0.0724669 -0.021131735 0.39533517 0.030234609 0.21229196 0.10242878 0.14842886
-0.18140785 -0.16831511 0.12116399 0.13961226 0.009645511 -0.04249121 -0.12009355 -0.1043359
0.20143186 0.0963319 -0.02668328 -0.06960483 -0.054088864 0.2538652 -0.012325028 0.005029033
0.05759979 -0.002812383 -0.30214956 0.008336119 -0.020923493 -0.040491343 0.09517777 -0.080757625
-0.019211393 -0.037075516 0.053512298 0.0649925 0.1349294 0.06978068 0.12723757 -0.23707761
-0.12796922 -0.29914096 0.061118715 0.035741825 -0.09936211 0.12350573 -0.13444148 0.12882611
-0.24190271 0.2041739 0.28864107 -0.18180798 -0.15107799 0.34554443 -0.10838831 0.06373429
-0.06501153 -0.0069809053 0.120480604 -0.11812203 0.2775419 0.14060149 -0.0023206477 -0.12769113
0.17146787 0.031909797 -0.15317892 -0.106998764 -0.0708973 -0.039570805 -0.08343405 -0.094391786
0.09739595 0.017831597 -0.15995392 0.2443301 0.008930431 -0.22574808 0.20643264 0.015866341
-0.3325926 0.20875256 -0.112595074 0.09005194 0.10177138 -0.18605538 -0.19990002 -0.21353908
0.13498116 -0.0936658 0.05074083 0.10312909 -0.061870188 -0.0068653007 0.07136994 -0.32296652
-0.12941949 -0.0177981 0.09401446 -0.022664193 -0.0029306833 0.17344601 0.27865142 0.081990056
-0.0076383813 -0.35681415 -0.16162372 -0.13362956 -0.040477786 0.09693219 -0.06451635 -0.06793543
-0.10103715 0.11942193 -0.01868867 0.14083813 0.19501312 -0.056578264 -0.047393363 -0.21961801
-0.08401798 0.12528872 0.17971194 0.07850576 -0.38430008 -0.24239765 -0.03960254 0.124749735
-0.1816411 0.115770325 0.022192057 -0.24164501 0.049709607 0.18088976 -0.21207404 -0.299574
-0.07239537 0.34983885 0.26543012 0.1879488 0.07072379 0.016366348 0.08691391 0.0075363056
-0.23128882 0.12722726 -0.35728487 -0.17132649 -0.022665447 -0.40626708 0.0035771015 -0.055454157
-0.009025891 -0.04600246 0.0061415145 0.050598882 -0.15038487 0.08335479 0.0073954463 -0.13034678
0.31172696 0.045755252 -0.017076325 0.25297245 -0.058150325 -0.1941473 -0.2562666 -0.103346065
-0.46460354 -0.00990228 -0.026589124 -0.057005674 0.079574846 0.094630055 -0.3541517 -0.1234443
0.010991859 -0.1275404 -0.11097554 0.14342982 -0.19026756 0.02372285 0.039743926 -0.06715232
-0.08361185 -0.12454331 -0.21625187 -0.014835236 -0.24295606 -0.055670165 -0.0027681035 0.07436625
-0.14668733 0.1898141 -0.19517162 0.22032635 -0.26297975 0.17245616 -0.25805584 -0.022481823
-0.07187396 -0.15989974 -0.18253349 -0.14411451 -0.061249163 -0.12500538 0.14344357 0.31914663
-0.10197281 0.0010321741 0.14231832 0.26679635 0.25097775 -0.115298204 0.16926073 -0.15245894
-0.2044378 0.19522537 0.19431984 0.16675211 0.2686724 -0.120591864 0.19797504 0.064637765
00000000: 67ea 263d 700e 5c3e fb66 5dbd 01b5 9a3e
00000010: 1850 4dbe d158 85bd d807 46bd ee95 3bbe
00000020: 381b 943e b18c 7fbd 4a9d 583e 4cfb 71be
00000030: 32d8 d83d 5509 9dbc 5286 78bc c9c8 803d
00000040: 4c1f 6e3d 3ac1 68be 6e55 243d ac24 a33d
00000050: 9ac4 e73d bac5 5d3e 1245 cbbd 8284 06bd
00000060: cdfa f9bc 9f1c 293d 1a0c 493e fc43 353e
00000070: 5790 6ebe a404 12bd 56cb 20be 05ba 12be
00000080: 0117 7dbc 8769 94bd 761c adbc 5f69 ca3e
00000090: 92ae f73c 1063 593e 2ec6 d13d bcfd 173e
000000a0: fbc2 39be cc5a 2cbe d324 f83d 84f6 0e3e
000000b0: 3508 1e3c 430b 2ebd 9bf3 f5bd 0fae d5bd
000000c0: 2744 4e3e a949 c53d e596 dabc fa8c 8ebd
000000d0: 498c 5dbd 9ffa 813e eaee 49bc 96ca a43b
000000e0: c2ed 6b3d f54f 38bb 59b3 9abe 3894 083c
000000f0: bf67 abbc 40da 25bd 90ec c23d 4164 a5bd
00000100: 3661 9dbc 7fdc 17bd b62f 5b3d ca1a 853d
00000110: ef2a 0a3e 2ce9 8e3d 914a 023e 79c4 72be
00000120: 5d0a 03be 0129 99be 9e57 7a3d 0566 123d
00000130: 5d7e cbbd 92f0 fc3d 07ab 09be feea 033e
00000140: 58b5 77be f612 513e c3c8 933e df2b 3abe
00000150: 30b4 1abe 33eb b03e b1fa ddbd 2087 823d
00000160: c424 85bd 14c0 e4bb 89be f63d f6e9 f1bd
00000170: f919 8e3e d6f9 0f3e 0216 18bb 77c1 02be
00000180: 4695 2f3e d9b3 023d efda 1cbe 2b22 dbbd
00000190: 9b32 91bd ff14 22bd 79df aabd 7b50 c1bd
000001a0: 8777 c73d 9213 923c f6ca 23be ab31 7a3e
000001b0: f150 123c 812a 67be 1463 533e 21fa 813c
000001c0: 9449 aabe 3bc3 553e 3f98 e6bd 276d b83d
000001d0: 836d d03d 4d85 3ebe 97b2 4cbe fda9 5abe
000001e0: 8038 0a3e dbd3 bfbd 9ed5 4f3d 5835 d33d
000001f0: 986b 7dbd 51f6 e0bb 672a 923d de5b a5be
00000200: 8b86 04be 52cd 91bc a78a c03d 42aa b9bc
00000210: b510 40bb d59b 313e 66ab 8e3e 67ea a73d
00000220: 634b fabb 58b0 b6be b080 25be 30d6 08be
00000230: 09cc 25bd 6284 c63d 2621 84bd bb21 8bbd
00000240: 91ec cebd 7c93 f43d fb18 99bc df37 103e
00000250: 85b1 473e 9cbe 67bd 8b1f 42bd 8be3 60be
00000260: 9e11 acbd b04b 003e 6806 383e a1c7 a03d
00000270: fbc2 c4be 1737 78be 4636 22bd ca7c ff3d
00000280: 2000 3abe fe18 ed3d 1ecc b53c ca71 77be
00000290: 4d9c 4b3d 2a3b 393e f029 59be c361 99be
000002a0: 0644 94bd 141e b33e 75e6 873e a675 403e
000002b0: a2d7 903d b812 863c ecff b13d 1df3 f63b
000002c0: fad6 6cbe dd47 023e 0bee b6be 3670 2fbe
000002d0: e3ac b9bc 3d02 d0be ce6d 6a3b e623 63bd
000002e0: 55e1 13bc 136d 3cbd c23e c93b c640 4f3d
000002f0: 7efe 19be ebb5 aa3d 8055 f23b a079 05be
00000300: ad9a 9f3e dc69 3b3d a6e3 8bbc 9b85 813e
00000310: 092f 6ebd 8dce 46be 6035 83be 1aa7 d3bd
00000320: 84e0 edbe 2c3d 22bc 6fd1 d9bc c87e 69bd
00000330: 23f8 a23d 67cd c13d 5f53 b5be 5dd0 fcbd
00000340: 3317 343c f399 02be 2547 e3bd 44df 123e
00000350: 80d5 42be 6c56 c23c 87ca 223d 2887 89bd
00000360: b13c abbd 9010 ffbd 2171 5dbe 7d0f 73bc
00000370: 79c9 78be 6606 64bd 1269 35bb 554d 983d
00000380: 3435 16be a15e 423e 12db 47be 3b9d 613e
00000390: 48a5 86be 5998 303e e51f 84be cd2b b8bc
000003a0: a832 93bd c2bc 23be 0fea 3abe c192 13be
000003b0: 67e0 7abd 6901 00be dfe2 123e 3067 a33e
000003c0: 1fd7 d0bd 044a 873a e5bb 113e 8899 883e
000003d0: 2880 803e 7721 ecbd af52 2d3e 321e 1cbe
000003e0: 2558 51be 29e9 473e c8fb 463e 11c1 2a3e
000003f0: 6e8f 893e def8 f6bd f8b9 4a3e ce60 843d

base.6linear.bias f4 [50]
0.08410089 0.018584283 -0.07679284 0.032883376 -0.015995506 0.02921412 0.024518255 0.07107897
0.0037973488 -0.08750098 -0.035574105 -0.05819603 0.032742776 0.03977643 -0.0024070996 -0.044199057
0.07666578 0.12537646 -0.0067888624 0.08652943 0.068417706 -0.03335995 0.14977187 -0.011788782
0.011430854 -0.09801614 -0.006744223 0.02204929 0.026815798 -0.0004945767 0.0634329 -0.059951596
0.07416818 0.040770646 0.027725507 -0.016230777 -0.022627234 0.011799467 0.014031761 -0.05622665
0.036256995 0.033163704 0.013865016 -0.026618171 -0.051947255 -0.13535245 -0.01651972 -0.0066319853
-0.09525171 0.035088994
00000000: 163d ac3d 113e 983c 9145 9dbd b8b0 063d
00000010: 0209 83bc 7352 ef3c 82da c83c da91 913d
00000020: f1dc 783b b733 b3bd 27b6 11bd f65e 6ebd
00000030: 4a1d 063d 9cec 223d 6ec0 1dbb 120a 35bd
00000040: f302 9d3d b062 003e 1b75 debb 5736 b13d
00000050: 951e 8c3d 71a4 08bd cc5d 193e bc25 41bc
00000060: 7a48 3b3c b0bc c8bd a5fe dcbb b6a0 b43c
00000070: ceac db3c 7ba6 01ba 1ce9 813d ce8f 75bd
00000080: 7de5 973d 1fff 263d 9a20 e33c 68f6 84bc
00000090: c05c b9bc 8d52 413c 79e5 653c ea4d 66bd
000000a0: 3782 143d aad6 073d 182a 633c 5a0e dabc
000000b0: a5c6 54bd d599 0abe 5d54 87bc 2051 d9bb
000000c0: 5413 c3bd 7ab9 0f3d
