STPINN-RANS/sub_data/sub_write/05NS_model_train.pt (torch, 100283 bytes, 22 tensors)

base.0linear.weight f4 [50, 3]
0	0xbe8382e5	-0.25685802
1	0xbd891115	-0.06692711
2	0x3d8e6372	0.069525614
3	0xbe82430f	-0.25441787
4	0x3e1fb043	0.15594582
5	0x3e4ad26d	0.19806834
6	0xbe8faca2	-0.28061396
7	0xbea126fa	-0.3147505
8	0x3c15a6dd	0.009134022
9	0x3ce464bc	0.027880065
10	0xbd0b65fd	-0.03403281
11	0x3b08774c	0.002082306
12	0xbcc4fc72	-0.024046157
13	0x3e56d79f	0.2098069
14	0x3c90dddd	0.017683918
15	0x3e0474c0	0.12935162
16	0xbddec55d	-0.10877488
17	0xbd4e69ee	-0.05039399
18	0xbc63403b	-0.013870294
19	0x3d8fc41c	0.07019827
20	0x3e8186fe	0.25298303
21	0x38ee574b	0.00011364984
22	0xb904ea3d	-0.00012675762
23	0x39860ac4	0.00025566493
24	0x3d6743fc	0.05646132
25	0xbe25af61	-0.16180183
26	0xbe3a6353	-0.18201952
27	0x3df4ac3b	0.11946913
28	0x3d6b2323	0.057406556
29	0xbec1a374	-0.37820017
30	0x3b13a31a	0.0022527636
31	0xba5252f7	-0.0008023227
32	0x3a5c59ea	0.0008405732
33	0xbdbc6418	-0.09198779
34	0x3da8907f	0.082306854
35	0x3b866161	0.004100964
36	0xbddc5af9	-0.10759539
37	0x3dd39e6f	0.10332953
38	0xbe19e723	-0.15029578
39	0xbc8ec17b	-0.017426243
40	0x3c0edce9	0.008719661
41	0x3c45fc23	0.01208404
42	0xbdb2c63a	-0.08729215
43	0x3e354d4a	0.17705265
44	0xbe0917fc	-0.13388056
45	0xbe46b714	-0.19405776
46	0xbead206b	-0.33813795
47	0x3e31e048	0.17370713
48	0x3e5bcf1d	0.21465726
49	0xb980d9e5	-0.00024576407
50	0xbdcaba99	-0.09898872
51	0x3e9a06f7	0.3008344
52	0xbe8c8dcc	-0.27451932
53	0xbe13641b	-0.14393656
54	0x3d756baf	0.05991715
55	0xbdbf09f7	-0.093280725
56	0xbe7271fd	-0.23676296
57	0x3d9df005	0.07711796
58	0xbe01a0ca	-0.12658992
59	0xbf067b53	-0.5253193
60	0x3e8ba283	0.27272424
61	0x3e4321e0	0.19055891
62	0xbec73916	-0.3891074
63	0xbd419834	-0.047264293
64	0xbc9e4f56	-0.01932494
65	0xbe29ab15	-0.16569169
66	0x3e19f8c7	0.15036307
67	0x3d2a55e5	0.04158582
68	0xbe7c6c97	-0.24650799
69	0xbc04eb5f	-0.0081127575
70	0x3e3b83a2	0.18311933
71	0xbed0e882	-0.4080239
72	0xbcd48896	-0.025944036
73	0xbde4399b	-0.111438
74	0xbe22e0e1	-0.15906097
75	0xbd9e631d	-0.07733748
76	0xbdd34e97	-0.10317724
77	0x3e1a2a62	0.1505523
78	0xbe896580	-0.2683525
79	0xbc8c633a	-0.017137159
80	0x3da7dc56	0.081963226
81	0xbe1fd884	-0.15609938
82	0xbbbe3161	-0.0058042263
83	0x3df3b145	0.11899046
84	0x3df8c222	0.12146403
85	0xbdd909bc	-0.1059756
86	0xbea4772b	-0.32122168
87	0x3e3eb511	0.18623759
88	0xbdf393ff	-0.118934624
89	0xbe72b496	-0.237017
90	0x3e8b824b	0.27247843
91	0xbbd7cbde	-0.006585582
92	0x3e50504b	0.2034313
93	0xbe983229	-0.2972577
94	0x3d7e15f5	0.06203266
95	0x3f06636b	0.5249545
96	0xbe64300a	-0.2228395
97	0xbdeff576	-0.1171674
98	0x3e88f99c	0.26752937
99	0xbe26fd0b	-0.16307466
100	0x3ebd0f3e	0.3692569
101	0xbe30e3f6	-0.1727446
102	0x3e396200	0.1810379
103	0xbd88689e	-0.06660579
104	0xbe3ae473	-0.18251209
105	0xbd7fd07a	-0.062454678
106	0x3e78db4b	0.24302404
107	0x3cf061c1	0.029343488
108	0x3dcd9191	0.1003753
109	0x3e2cfb07	0.16892634
110	0xbea2dc65	-0.31808773
111	0x3e3021d2	0.17200401
112	0x3f059d1e	0.52192867
113	0xbebd3bf2	-0.36959797
114	0x3db15cce	0.08660279
115	0xbed7de81	-0.42161945
116	0xbd540c2d	-0.051769424
117	0x3aed4a9f	0.0018103904
118	0xbe308454	-0.17237979
119	0x3e8aff99	0.2714813
120	0x3d54163d	0.05177902
121	0x3e9cc3dd	0.30618182
122	0xbddf38db	-0.10899516
123	0xbd97c2b0	-0.074101806
124	0x3e2431e1	0.16034652
125	0x3a81ec66	0.0009912371
126	0x3e17b8e0	0.14816618
127	0xbd93c136	-0.072145864
128	0xbe8fafc4	-0.28063786
129	0xbefc9006	-0.4932863
130	0x3d08c996	0.033395372
131	0x3e71d2d3	0.2361558
132	0xbab3d776	-0.0013720829
133	0xbada64b8	-0.0016662097
134	0xba22eb45	-0.00062148675
135	0x3e77193e	0.24130723
136	0xbe27e5e0	-0.16396284
137	0xbe172922	-0.14761785
138	0xbcc0f0ef	-0.023552386
139	0x3bc48af1	0.0059980084
140	0xbe867bfe	-0.26266474
141	0x3dc58184	0.09643844
142	0xbe33f1a1	-0.17572643
143	0xbd965f27	-0.073423676
144	0xbe024515	-0.12721665
145	0x3e20740e	0.15669271
146	0xbe0efaa5	-0.13962801
147	0xbd9b1f86	-0.07574372
148	0x3e2c237d	0.16810413
149	0xbe37177e	-0.17880055

base.0linear.bias f4 [50]
0	0x3dce1e17	0.10064333
1	0xbd24e291	-0.040255133
2	0x3e890a74	0.26765788
3	0x3cecfb14	0.028928317
4	0xbe463f78	-0.19360149
5	0x3da4d8fb	0.08049198
6	0xbe0ab77e	-0.13546559
7	0x39ff8587	0.00048736876
8	0x3e3a7f0d	0.18212529
9	0x3e3f9f73	0.18713169
10	0x39a533c8	0.00031509832
11	0xbd6ae024	-0.057342663
12	0x3d035339	0.03206179
13	0xbc3aa05e	-0.011390774
14	0xbcede485	-0.02903963
15	0x3e4b98ea	0.19882551
16	0x3cb60286	0.022218
17	0x3e1ed930	0.15512538
18	0x3e13a91a	0.14419976
19	0xbe1a67d2	-0.15078667
20	0x3c85a15b	0.016312292
21	0x3dfb24d7	0.12262886
22	0xbccf5b82	-0.025312189
23	0x3d49a25e	0.04922711
24	0x3e538cdb	0.20659201
25	0x3d29e453	0.041477513
26	0x3cafd461	0.021463575
27	0xbd9f43d1	-0.07776607
28	0x3e479cb1	0.19493367
29	0x3d867b16	0.065664455
30	0x3d6267a0	0.055274606
31	0x3d202a9f	0.039103147
32	0xbdc06a88	-0.09395319
33	0xbe0e1939	-0.13876809
34	0x3e073ed3	0.1320756
35	0xbe28e689	-0.16494192
36	0xbda27b96	-0.079337284
37	0xbe1f110a	-0.15533844
38	0x3e232245	0.15931042
39	0x3b9e18f2	0.004824751
40	0xbe36c0c0	-0.17846966
41	0xbdfaf06f	-0.1225289
42	0x3d47027e	0.04858636
43	0xbe023b28	-0.12717879
44	0x396fa8f6	0.00022855759
45	0x3e0e87be	0.13918969
46	0x3e68ce4c	0.22734946
47	0x3e2e2a44	0.1700831
48	0xbc4ead0d	-0.012614501
49	0x3ca1e2fb	0.019761553

base.1linear.weight f4 [50, 50]
0	0xbe5009e7	-0.20316277
1	0x3d7c5d01	0.061612133
2	0x3ceaf57d	0.028681511
3	0x3cc5726f	0.024102418
4	0x3eb3618e	0.35035366
5	0xbd7642cf	-0.060122307
6	0x3d5f6a48	0.054544717
7	0x3d1ad4d3	0.03780062
8	0xbe04a69c	-0.12954181
9	0xbea08b7b	-0.31356415
10	0x3d9358b1	0.07194651
11	0xbe1373d8	-0.1439966
12	0xbeb98f8a	-0.36242324
13	0x3defbacf	0.11705553
14	0x3d9acf23	0.075590394
15	0xbd65d545	-0.056111593
16	0x3d4752c5	0.04866292
17	0xbca2e611	-0.019885095
18	0xbe37dcdb	-0.17955343
19	0x3e43312f	0.19061731
20	0x3c2a979a	0.010412121
21	0x3c7d0dde	0.015445201
22	0x3e1e33cf	0.15449451
23	0xbe654529	-0.22389664
24	0xbe1e2ce9	-0.1544682
25	0x3cbe587a	0.023235548
26	0xbe2fd8a3	-0.17172484
27	0x3db50d48	0.08840424
28	0xbe8e0da9	-0.27744797
29	0xbe2c36a0	-0.16817713
30	0xbbdfcf37	-0.006830122
31	0xbdfcf447	-0.1235128
32	0x3e81f4f6	0.25382203
33	0xbe2f9c25	-0.17149408
34	0xbe9ea4b3	-0.3098503
35	0x3dc0dcde	0.09417127
36	0x3d5e4884	0.054268375
37	0x3e8debdf	0.27719018
38	0xbe7ffb8c	-0.24998301
39	0x3e24c628	0.16091216
40	0x3e5e7122	0.21722844
41	0xbdd6c329	-0.104864426
42	0xbe3e4b5b	-0.18583433
43	0x3ea3f5ef	0.3202357
44	0x3d8c19f6	0.06840889
45	0xbdd2e4a4	-0.10297516
46	0xbf1d55d5	-0.61459094
47	0xbe9ca8e4	-0.30597603
48	0xbc280892	-0.01025595
49	0xbd53cb95	-0.051707823
50	0x3e166ae5	0.14689215
51	0x3f2d9db3	0.67818755
52	0xbed0b37a	-0.4076193
53	0x3dc7273e	0.09724282
54	0xbcbb1686	-0.022837888
55	0xbe8db339	-0.276758
56	0x3eb2d0f9	0.34925058
57	0x3ce53db6	0.027983528
58	0xbefc8866	-0.49322814
59	0xbdba4e69	-0.09096987
60	0x3c644358	0.013932072
61	0x3d65eb96	0.056132875
62	0xbe507070	-0.20355392
63	0x3e0061e6	0.12537345
64	0xbd64e91b	-0.05588637
65	0xbd272cf5	-0.04081436
66	0x3d356e81	0.044294838
67	0xbea4dde6	-0.32200545
68	0xbd819779	-0.06327719
69	0xbec66241	-0.38746837
70	0xbe774119	-0.24145927
71	0xbe80ee27	-0.25181696
72	0xbee7ca37	-0.45271465
73	0xbe3d89d8	-0.18509614
74	0xbe629382	-0.22126582
75	0xbd8579bc	-0.065173596
76	0x3db8fd04	0.09032634
77	0xbe5514b6	-0.20808682
78	0xbe460c18	-0.19340551
79	0xbecef3b5	-0.4042031
80	0x3e7b7a60	0.24558401
81	0x3f2baf71	0.6706458
82	0xbe5f3016	-0.21795687
83	0x3dc4125b	0.095738135
84	0xbb58161e	-0.0032972167
85	0x3ee7a72d	0.45244732
86	0xbe31a6ae	-0.1734874
87	0x3e3b7841	0.18307592
88	0xbec99f8f	-0.39379546
89	0x3eb39188	0.3507197
90	0x3e2c3f1a	0.16820946
91	0x3e3f4638	0.1867913
92	0xbea09137	-0.3136079
93	0xbe557dc2	-0.20848754
94	0xbcbf5721	-0.023356976
95	0xbe44e887	-0.19229327
96	0x3e17cbc9	0.14823832
97	0xbecc82e8	-0.39943624
98	0x3dedc203	0.116092704
99	0xbc2941ee	-0.01033066
100	0xbd24c6d5	-0.040228684
101	0x3e2a1265	0.1660858
102	0x3d802613	0.06257262
103	0xbd969f2e	-0.0735458
104	0x3e0b2f6e	0.13592312
105	0xbe5a3aab	-0.21311443
106	0x3ddcf3a6	0.1078866
107	0xbcfbde24	-0.030745573
108	0x3de39096	0.11111562
109	0xbccdac26	-0.0251065
110	0x3e2fb379	0.17158307
111	0x3ed4f1ff	0.41590878
112	0x3dbba4d6	0.09162299
113	0x3e0b8c16	0.13627657
114	0x3e3e2ee5	0.18572576
115	0x3d8300b4	0.063966185
116	0x3d9425bc	0.0723376
117	0x3ddd5fe8	0.10809308
118	0xbe9a5cc6	-0.30148906
119	0x3de31b78	0.110892236
120	0xbe885a3b	-0.2663134
121	0x3e479ef0	0.19494224
122	0xbc13a818	-0.009012245
123	0xbaa67b46	-0.0012701533
124	0xbdb55c0b	-0.088554464
125	0x3d6b3733	0.05742569
126	0x3d2066fe	0.03916072
127	0xbe65fe80	-0.22460365
128	0xbe02a912	-0.12759808
129	0x3d986f70	0.0744313
130	0xbd283ff9	-0.041076634
131	0xbe93c5ad	-0.28861752
132	0xbde73adc	-0.112905234
133	0xbe0798b6	-0.13241848
134	0x3d28e4b5	0.041233737
135	0x3dbaaa6a	0.09114535
136	0xbd959001	-0.07302857
137	0xbccd120d	-0.025033021
138	0xbdf11e1b	-0.1177332
139	0xbe05a727	-0.13052045
140	0xbdf7c3fc	-0.12097928
141	0xbd1eb53c	-0.038747057
142	0xbe27e1e1	-0.1639476
143	0xbe589bd1	-0.21153189
144	0xbe1f4d6d	-0.1555688
145	0x3cc7b82d	0.024379814
146	0xbdfd8854	-0.12379518
147	0x3e3d4e2c	0.18486851
148	0x3db67aa7	0.08910113
149	0xbd65c55c	-0.05609642
150	0xbd839a18	-0.064258754
151	0xbde3cb05	-0.11122707
152	0xbd7e54c3	-0.062092554
153	0xbd697ecd	-0.057005692
154	0x3e38b1d3	0.18036585
155	0xbe4b2e1b	-0.19841807
156	0x3ddf6b22	0.10909106
157	0x3c0d0342	0.008606734
158	0xbe458d9d	-0.19292302
159	0x3d3a1aeb	0.045435827
160	0xbd87ef62	-0.066374555
161	0x3e2160cb	0.1575958
162	0x3bfa7e53	0.0076444536
163	0xbd947503	-0.07248881
164	0x3e07f31f	0.13276337
165	0xbebfc36c	-0.37453783
166	0xbe1c97d2	-0.1529229
167	0xbe117fa5	-0.14208849
168	0x3ce540d1	0.027985008
169	0xbe0fb9eb	-0.14035766
170	0xbe7e56ef	-0.2483785
171	0x3d313ce4	0.04327096
172	0x3e13f4c6	0.14448842
173	0xbd1a7871	-0.037712518
174	0xbd01a8cd	-0.03165512
175	0xbe9835a1	-0.29728416
176	0xbbb62e02	-0.005559684
177	0x3d27033e	0.040774576
178	0xbec38424	-0.38186753
179	0xbe902db0	-0.28159857
180	0x3b864970	0.00409811
181	0x3bb64ee9	0.005563606
182	0xbd96e7a5	-0.073684014
183	0x3e260b49	0.16215242
184	0xbe51dd8c	-0.2049467
185	0x3dd6d346	0.10489516
186	0x3d8a5c0c	0.06755838
187	0x3e2ced68	0.16887438
188	0xbd0c2bfc	-0.034221634
189	0x3c8ab5d5	0.016932407
190	0x3e5b1aa5	0.21396883
191	0xbe409aed	-0.188091
192	0xbc361683	-0.011113766
193	0x3d44d938	0.04805872
194	0xbd5b564d	-0.0535491
195	0xbdf65ded	-0.12029634
196	0xbe0928a0	-0.13394403
197	0xbea7144d	-0.32632676
198	0xbda2ea74	-0.07954875
199	0xbda80e05	-0.08205799
200	0x3ec426a6	0.38310736
201	0x3de44fe2	0.11148049
202	0xbe1c73d4	-0.1527856
203	0x3da84b33	0.08217468
204	0x3f0ad09a	0.5422455
205	0xbe5ebc93	-0.21751623
206	0xbdafbaa4	-0.08580521
207	0xbe14fa32	-0.14548567
208	0xbc880d38	-0.016607866
209	0xbe24058b	-0.1601774
210	0x3cb55942	0.022137288
211	0x3d54b927	0.051934388
212	0x3e490f45	0.19634731
213	0xbcef38ac	-0.029201828
214	0x3d69472f	0.05695265
215	0xbdb37e64	-0.087643415
216	0x3cd5d955	0.026104609
217	0xbd7fe235	-0.062471587
218	0xbd77d289	-0.060503516
219	0xbe1daf53	-0.15398912
220	0xbd97eb56	-0.07417934
221	0x3de1910f	0.11013996
222	0xbdb90ec6	-0.09036021
223	0xbe4db3ac	-0.2008807
224	0x3e82fc1b	0.25582966
225	0xbe83f547	-0.2577307
226	0x3e8644e6	0.2622444
227	0x3e01b379	0.1266612
228	0xbe080edd	-0.1328692
229	0x3dbc7006	0.09201054
230	0x3e52c29f	0.20582055
231	0x3e04dde3	0.12975268
232	0x3e4a5935	0.19760592
233	0xbd53ae1f	-0.051679727
234	0x3d2fc189	0.04290918
235	0x3e6192a9	0.22028603
236	0xbc09cbca	-0.0084104035
237	0x3d7736df	0.060355064
238	0x3e59793d	0.21237655
239	0xbcebc73f	-0.028781531
240	0xbe4cd368	-0.2000252
241	0x3e0ccd0a	0.13750091
242	0xbda82365	-0.08209876
243	0x3ea2d16c	0.318004
244	0xbe9cfee2	-0.3066321
245	0x3d860167	0.06543236
246	0xbe1d111b	-0.15338556
247	0xbd2dd233	-0.04243679
248	0xbbb69c71	-0.0055728485
249	0x3db33281	0.08749867
250	0xbbff12a3	-0.007784204
251	0xbe8a07f9	-0.26959208
252	0x3e0776c7	0.13228904
253	0x3e086459	0.1331953
254	0x3c4b98ce	0.012426568
255	0xbe88d235	-0.26722875

base.1linear.bias f4 [50]
0	0xbe2a0f37	-0.16607367
1	0x3e0d5273	0.13800983
2	0x3d5f23bf	0.05447745
3	0xbdbec967	-0.09315758
4	0xbc31a1f1	-0.0108418325
5	0x3e0be067	0.13659821
6	0x3d0a9d62	0.0338415
7	0x3de5bb94	0.11217418
8	0x3e1ad0d8	0.1511873
9	0x3be9efac	0.007139167
10	0x3d0c421a	0.034242727
11	0xbe0cda4e	-0.13755152
12	0x3ca84791	0.020541938
13	0xbda48b3c	-0.08034369
14	0xbcb0e323	-0.021592682
15	0x3d1721db	0.03689752
16	0x3e3a71ca	0.1820747
17	0x3dd165d4	0.102245
18	0x3d06ff2b	0.03295819
19	0xbcec16e9	-0.028819518
20	0xbd459918	-0.048241705
21	0x3dfc4398	0.1231758
22	0xbdf7f932	-0.12108077
23	0xbc2e0897	-0.010622165
24	0xbd4cd53f	-0.050008055
25	0x3d8c1a90	0.06841004
26	0x3e6150d7	0.22003494
27	0x3b93f5a8	0.0045153685
28	0x3d692287	0.056917693
29	0x3e316e77	0.17327295
30	0x3d0677ba	0.032829024
31	0xbda36c55	-0.07979647
32	0x3e0820dd	0.13293786
33	0xbd8dbcb2	-0.069207564
34	0x3dd57f6b	0.10424694
35	0x3e16b269	0.14716496
36	0x3e2d8936	0.16946873
37	0xbd9b57fb	-0.0758514
38	0x3bedb6da	0.0072544636
39	0x3c967d13	0.018370187
40	0xbd99e960	-0.07515216
41	0x3e223773	0.15841465
42	0xbcb776b4	-0.02239547
43	0xbddfd36a	-0.10928996
44	0x3d16b484	0.036793247
45	0x3dac48d2	0.08412327
46	0xbcb96245	-0.022629866
47	0xbd126b8c	-0.035747096
48	0x3a7d7aa7	0.00096694607
49	0x3e01f211	0.12689997

base.2linear.weight f4 [50, 50]
0	0xbf1fddf6	-0.6244806
1	0xbd1ddd3a	-0.038541056
2	0xbd32c76f	-0.043647226
3	0xbd8ab5b5	-0.06772939
4	0xbdd1c3f2	-0.10242452
5	0x3e95ab84	0.2923242
6	0x3d91339b	0.07089921
7	0xbc6a4cb3	-0.014300513
8	0xbe677e0a	-0.22606674
9	0xbd700294	-0.05859621
10	0xbe2041fc	-0.15650171
11	0xbc3ecbd4	-0.011645276
12	0xbcf6f555	-0.03014628
13	0x3ea56ba0	0.32308674
14	0x3e6510f8	0.22369754
15	0xbd5312cd	-0.0515316
16	0x3ea88c5d	0.3291959
17	0xbd50bcbc	-0.05096124
18	0x3e038840	0.12844944
19	0x3e37d203	0.17951207
20	0xbcbba39b	-0.022905162
21	0x3c7f0171	0.0155643085
22	0xbdf27903	-0.118394874
23	0xbbf841a0	-0.0075761825
24	0xbcdd0254	-0.02697865
25	0xbda60619	-0.08106632
26	0x3ec93da5	0.39304844
27	0xbe1eb162	-0.15497354
28	0x3dacc16e	0.08435331
29	0xbd9b3d24	-0.07580021
30	0x3e5c202f	0.21496652
31	0x3e16e935	0.14737399
32	0x3d30dd4b	0.04317979
33	0xbc763da4	-0.015029345
34	0x3ddf3054	0.1089789
35	0x3e56b8a6	0.20968875
36	0x3effe4ca	0.4997924
37	0xbe3bac03	-0.18327336
38	0x3e802a7e	0.2503242
39	0x3e6cb4be	0.23115823
40	0xbd74aa95	-0.059732992
41	0x3ee86f9a	0.45397645
42	0xbe50c426	-0.20387325
43	0xbdbc1e8e	-0.09185515
44	0xbdf2dbab	-0.118583046
45	0x3e7d0d9a	0.2471222
46	0x3dead283	0.11465933
47	0xbdcf3c10	-0.10118878
48	0x3e2a8e98	0.16655958
49	0x3da53c40	0.080681324
50	0xbe774106	-0.24145898
51	0x3e22c28a	0.15894523
52	0xbddd7313	-0.10812964
53	0x3dc69162	0.09695698
54	0x3ca90bd0	0.020635515
55	0x3dd46fa6	0.10372858
56	0x3eb02e1e	0.34410185
57	0xbdc18be4	-0.0945051
58	0x3d172f0b	0.036910098
59	0x3cc358a2	0.023845974
60	0x3db80c78	0.08986753
61	0xbd48a8b2	-0.048989005
62	0x3e24b616	0.16085085
63	0xbcb5b6c4	-0.022181876
64	0xbe37df52	-0.17956284
65	0x3cee3b9c	0.029081158
66	0x3e8d7494	0.27628005
67	0xbe88b64d	-0.26701584
68	0x3e0ba477	0.13636957
69	0xbe22b2eb	-0.15888564
70	0x3cca8eac	0.024726234
71	0xbe320f27	-0.17388593
72	0x3d10bba5	0.0353352
73	0x3bd7c8fa	0.0065852376
74	0xbe6fcc9c	-0.23417896
75	0xbe0294d0	-0.1275208
76	0xbdd33bb4	-0.10314122
77	0x3cf5340a	0.02993204
78	0x3bd67a23	0.0065453216
79	0xbd63e8cf	-0.055641945
80	0xbe325479	-0.17415036
81	0xbdc8f377	-0.09812062
82	0xbe83719b	-0.25672612
83	0x3e3a2548	0.18178284
84	0x3e7866ce	0.24257967
85	0xbdb5d025	-0.08877591
86	0x3dac1998	0.08403319
87	0xbd1b487f	-0.037910935
88	0x3d2021d2	0.039094754
89	0x3df0436a	0.11731608
90	0x3d934838	0.07191509
91	0xbe5b7ebb	-0.21435063
92	0xbd02ee7f	-0.03196573
93	0x3e028bc1	0.12748624
94	0x3dbab602	0.091167465
95	0xbcb5bef3	-0.022185778
96	0xbd87fd86	-0.06640153
97	0x3e6c580e	0.23080465
98	0x3e658e23	0.22417502
99	0xbdf6ee37	-0.120571546
100	0x3f070fab	0.5275828
101	0xbdc565be	-0.096385464
102	0x3dc2a119	0.09503383
103	0xbc43a6b5	-0.0119416015
104	0xbdaee4bc	-0.08539721
105	0xbe8e70eb	-0.27820525
106	0xbdd1dce3	-0.10247209
107	0x3d8c1738	0.06840366
108	0xbe21eeeb	-0.15813796
109	0xbcbe0666	-0.02319641
110	0x3ea78c4e	0.3272423
111	0x3dfec517	0.12439936
112	0xbdf5ea5b	-0.120075904
113	0xbdf66190	-0.12030327
114	0x3d837f66	0.06420784
115	0xbe2cc4ac	-0.168719
116	0xbe6086ac	-0.21926373
117	0xbdcd7945	-0.10032896
118	0x3ddc2662	0.107495084
119	0xbe4a209f	-0.19739006
120	0x3d5f0656	0.0544494
121	0xbceca5f1	-0.02888772
122	0x3d5bea3b	0.053690176
123	0x3d00fa8f	0.03148895
124	0x3e620962	0.22073892
125	0xbd4c0291	-0.049807135
126	0xbf27444a	-0.65338576
127	0x3d20fd11	0.039303843
128	0x3d9fe08a	0.07806499
129	0x3dc75703	0.09733393
130	0x3d7ffa83	0.062494766
131	0xbc0e440b	-0.008683215
132	0x3dfe16e8	0.12406713
133	0xbe0c6f13	-0.13714246
134	0x3e0f06dc	0.1396746
135	0xbe61d7fe	-0.2205505
136	0xbf08bbbc	-0.5341146
137	0xbce2de10	-0.027693778
138	0xbe2f669e	-0.17128989
139	0x3cfedf81	0.031112434
140	0x3c7207e1	0.014772386
141	0xbe62df9a	-0.2215561
142	0x3df227e8	0.11824018
143	0x3e4b2e4f	0.19841884
144	0x3c83ee48	0.016104832
145	0x3d8ed21a	0.069736674
146	0x3e3c40b6	0.1838406
147	0x3d0067fb	0.031349164
148	0xbe9f60c1	-0.31128505
149	0xbcdfcfb1	-0.027320715
150	0x3c91a151	0.017777117
151	0x3d20e063	0.03927649
152	0x3dfac5cd	0.12244759
153	0xbe985cf2	-0.29758412
154	0xbe6e62c3	-0.23279862
155	0x3e87a1e8	0.26490712
156	0xbe76b9bb	-0.24094288
157	0xbdcef35b	-0.1010501
158	0xbca8c914	-0.020603694
159	0xba5e1fe2	-0.0008473379
160	0xbc2204ea	-0.009888867
161	0xbd4f8f82	-0.05067397
162	0x3dd9ca5f	0.10634302
163	0x3df97b15	0.12181679
164	0xbe10f381	-0.1415539
165	0x3e6e9a58	0.23301065
166	0x3d2c3f83	0.042052757
167	0xbe3611f6	-0.17780289
168	0xbd77a955	-0.060464222
169	0xbe1ac3bb	-0.15113728
170	0xbd720094	-0.059082583
171	0xbea3d3af	-0.3199744
172	0xbe35a606	-0.17739114
173	0x3c92a8d1	0.017902764
174	0xbc81833f	-0.015809653
175	0x3e102e0a	0.14080063
176	0xbed6fc33	-0.41989288
177	0x3df168e3	0.11787584
178	0xbc7736c1	-0.015088738
179	0x3d96d79a	0.073653415
180	0x3e016de4	0.12639576
181	0xbe3e6469	-0.18592991
182	0xbe414f64	-0.18877941
183	0x3e72ce87	0.23711596
184	0x3c82191a	0.01588111
185	0xbcbfb5e6	-0.023402166
186	0x3eded88a	0.4352458
187	0xbe5ac8d0	-0.21365666
188	0xbc91ee66	-0.017813873
189	0xbdee12e5	-0.116246976
190	0xbe25ab40	-0.16178608
191	0xbcfb024c	-0.030640744
192	0xbe40f00d	-0.18841572
193	0x3e1965d2	0.14980248
194	0x3d47509b	0.048660856
195	0x3b308685	0.0026935649
196	0xbe5bb255	-0.21454747
197	0x3e0b686b	0.13614051
198	0x3e9f1c4d	0.3107628
199	0xbe75aff5	-0.23992904
200	0xbdcfbbdd	-0.10143254
201	0x3da40b88	0.08010012
202	0x3df6df6f	0.12054335
203	0x3cfbe03c	0.030746572
204	0xbbfe3029	-0.007757206
205	0xbd0ff12c	-0.03514211
206	0xbdd03c15	-0.1016771
207	0xbd1c2b2b	-0.038127106
208	0xbd668d34	-0.056287006
209	0xbb763f6f	-0.003757443
210	0x3e6d15db	0.23152868
211	0xbe032afd	-0.12809367
212	0x3e231283	0.1592503
213	0xbd761ac3	-0.060084116
214	0xbe31aeb4	-0.173518
215	0x3e4e19d6	0.20127043
216	0xbd08be96	-0.033384882
217	0xbea26d3a	-0.31723958
218	0x3c08a56c	0.008340221
219	0xbe23a092	-0.15979221
220	0x3c2172ac	0.009854
221	0xbd016f7a	-0.031600453
222	0xbe171492	-0.1475394
223	0x3da0a5c8	0.0784412
224	0x3e46d8d3	0.1941865
225	0x3e7362b0	0.23768115
226	0xbe151f0a	-0.14562622
227	0xbe33bbec	-0.17552155
228	0xbc0c8370	-0.008576259
229	0xbeadc822	-0.33941752
230	0x3b0b18fe	0.0021224613
231	0x3e64cd5a	0.2234396
232	0xbe1e81ea	-0.15479246
233	0xbdde7f3c	-0.10864112
234	0xbd45087e	-0.048103802
235	0x3dd74999	0.105120845
236	0xbc7d4eee	-0.015460713
237	0xbdee780a	-0.116439894
238	0xbd4619f5	-0.0483646
239	0x3c8a30a0	0.01686889
240	0x3cd0b742	0.02547801
241	0xbcece1c3	-0.028916245
242	0xbe25c0f7	-0.16186891
243	0x3deded8c	0.11617574
244	0x3ad62e7f	0.0016340761
245	0xbd129778	-0.035788983
246	0x3d9bca43	0.07606938
247	0xbe7d7661	-0.24752189
248	0x3de1a300	0.11017418
249	0xbebd92a3	-0.37025937
250	0xbd71a85a	-0.058998443
251	0x3db7cc41	0.08974505
252	0xbc6c575e	-0.014425127
253	0xbe962e58	-0.29332232
254	0xbd9e0363	-0.0771549
255	0xbdd915fa	-0.10599895

base.2linear.bias f4 [50]
0	0x3e15e84d	0.14639397
1	0x3a63f6a6	0.0008696116
2	0xbde355c3	-0.11100342
3	0xbd0d63d2	-0.034519024
4	0xbcd87178	-0.026421294
5	0xbcd09cb3	-0.025465345
6	0x3e262c69	0.16227879
7	0x3cff9cc9	0.03120269
8	0xbe2788df	-0.16360806
9	0x3c7b94b2	0.015355276
10	0xbdfd3392	-0.12363352
11	0x3dc39a26	0.09550886
12	0x3d679ab3	0.056544017
13	0x3bafae71	0.005361371
14	0x3e127dc8	0.14305794
15	0xbdb0cd94	-0.08632961
16	0xbdb6ff7d	-0.08935449
17	0x3dc9f2c7	0.09860759
18	0xbd0c7581	-0.034291748
19	0x3c407598	0.011746787
20	0xbe2f12f8	-0.1709708
21	0x3d361265	0.044451136
22	0x3d9a2a31	0.075275786
23	0xbd87070e	-0.065931424
24	0xbccc6a1c	-0.02495294
25	0x3d81bcea	0.063348606
26	0xbbacbdb8	-0.0052716397
27	0xbc3532be	-0.011059461
28	0xbcd942f3	-0.026521182
29	0xbdcda632	-0.10041465
30	0x3daa3838	0.08311504
31	0x3e3e0a47	0.18558608
32	0xbd98fc09	-0.07469947
33	0xbe021176	-0.12701973
34	0x3d3346c7	0.04376867
35	0xbc4d9432	-0.01254754
36	0xbd7071a3	-0.058702122
37	0x3d494a8b	0.049143355
38	0x3e3e282a	0.18570009
39	0x3d324dec	0.043531343
40	0x3daa6851	0.08320678
41	0xbd60b4fb	-0.054860096
42	0xbd82f51b	-0.063944064
43	0xbdf7e242	-0.12103702
44	0xbd6a15f5	-0.057149846
45	0xbddc3433	-0.10752144
46	0xbdde1072	-0.108429804
47	0x3d951140	0.07278681
48	0x3df2b27e	0.11850451
49	0xbdf3cb69	-0.11904032

base.3linear.weight f4 [50, 50]
0	0xbbe4a34c	-0.0069774743
1	0xbe6e49cb	-0.23270337
2	0x3eb0f0c1	0.3455868
3	0xbd876bbe	-0.06612347
4	0xbe0e35f9	-0.13887776
5	0xbeb616b5	-0.355642
6	0xbe51c1cb	-0.20484082
7	0xbd4138db	-0.047173362
8	0x3dbf9c11	0.09355939
9	0x3da72e51	0.08163131
10	0x3e9af594	0.30265486
11	0xbd443a84	-0.047907367
12	0xbbdbfb4d	-0.006713307
13	0xbe688257	-0.2270597
14	0xbec7b17d	-0.390026
15	0xbdeda7b8	-0.116042554
16	0x3dd8990a	0.10576065
17	0xbd8e416b	-0.06946071
18	0xbd8fffb0	-0.070311904
19	0xbe241f96	-0.16027674
20	0x3e9d1d0c	0.30686224
21	0x3d13798c	0.036004588
22	0xbd8738c0	-0.06602621
23	0xbcffeaed	-0.031239951
24	0x3c6370d1	0.013881878
25	0xbadb0750	-0.0016710553
26	0xbd821850	-0.063522935
27	0xbbca276b	-0.00616925
28	0xbda41271	-0.0801133
29	0xbdbaf794	-0.09129253
30	0x3dceb046	0.10092215
31	0xbe0b253d	-0.13588424
32	0xbcf38c6f	-0.02973005
33	0x3d295c0b	0.041347545
34	0x3b945b88	0.004527513
35	0xbc49383a	-0.012281472
36	0x3ee3bbda	0.44479257
37	0xbdc5dd2d	-0.096613266
38	0xbe9ef2bc	-0.31044567
39	0x3e44cc19	0.19218482
40	0xbd644a60	-0.055734992
41	0x3e005113	0.12530927
42	0xbe71ed0b	-0.23625581
43	0xbea5241e	-0.32254118
44	0xbd783cd7	-0.060604896
45	0x3b7a723f	0.0038215069
46	0x3dca4766	0.098768994
47	0xbcd566e1	-0.026050033
48	0x3d631db8	0.055448264
49	0x3ea10326	0.31447715
50	0xbc751263	-0.014957997
51	0xbe449172	-0.19196108
52	0xbd67ba2f	-0.056574043
53	0xbd57a491	-0.052647177
54	0x3d9fe796	0.078078434
55	0x3dbb719e	0.0915253
56	0x3e06e251	0.1317227
57	0x3e53e302	0.20692065
58	0xbe1e7dd3	-0.15477686
59	0x3dc1e976	0.09468357
60	0x3e401a48	0.18760026
61	0xbe467b51	-0.19382979
62	0xbe5494e8	-0.20759928
63	0x3e45d96c	0.19321221
64	0x3dd0a66e	0.10187994
65	0xbe54658e	-0.20741865
66	0xbe0e47e5	-0.13894613
67	0x3dcfa8f7	0.10139649
68	0x3e48a89a	0.19595566
69	0xbd5c44e1	-0.053776626
70	0x3e1cff66	0.15331802
71	0x3e024128	0.12720168
72	0x3d688363	0.056765925
73	0xbe4e061c	-0.20119518
74	0x3b9a34a6	0.004705983
75	0x3d4875c4	0.048940435
76	0xbd8d8fea	-0.06912215
77	0xbc0fce2b	-0.008777182
78	0x3d1ae5d4	0.037816837
79	0x3d915f7c	0.0709829
80	0xbc8d4753	-0.017245924
81	0xbe0d451c	-0.13795894
82	0x3de3f156	0.111300156
83	0xbddf7243	-0.109104656
84	0x3d8451c9	0.06460912
85	0x3b8381d0	0.0040132776
86	0x3d3bceb9	0.045851443
87	0x3e1fae8e	0.15593931
88	0x3db7f810	0.08982861
89	0xbe7ced14	-0.24699813
90	0x3e5e8012	0.21728542
91	0x3d48376d	0.048880983
92	0x3e939e13	0.2883154
93	0x3ee0a73a	0.43877584
94	0x3d2f6286	0.04281857
95	0xbe25ec78	-0.16203487
96	0x3c706c5a	0.0146742705
97	0x3e5eea98	0.21769178
98	0xbca243d8	-0.019807741
99	0x3ea96362	0.33083636
100	0x3d3ad514	0.045613363
101	0x3d560f29	0.05226055
102	0xbdc53b48	-0.096304476
103	0x3e6a5490	0.2288382
104	0x3cad5e70	0.021163195
105	0x3e960ae2	0.29305178
106	0x3e0c7ad0	0.13718724
107	0x3c0780de	0.00827047
108	0x3d031b73	0.0320086
109	0xbd763aab	-0.060114544
110	0xbe0cc23c	-0.1374597
111	0xbe6e753a	-0.23286906
112	0x3dfc346e	0.12314688
113	0x3ead2c65	0.33822933
114	0xbdf94a80	-0.12172413
115	0xbc4862ff	-0.012230634
116	0x3cd79cd5	0.0263199
117	0x3de5b05a	0.11215277
118	0xbca52b61	-0.020162286
119	0x3dd8dbe8	0.10588819
120	0x3e73d4de	0.23811671
121	0xbd55c375	-0.052188355
122	0x3d9d3fca	0.076781824
123	0x3e231d2b	0.15929095
124	0x3e520092	0.2050803
125	0xbe0a9bcd	-0.13535996
126	0xbe0a7554	-0.1352132
127	0xbc80a354	-0.01570288
128	0xbea2afdc	-0.31774795
129	0xbe11d30c	-0.14240664
130	0x3d324dc3	0.04353119
131	0x3e057cd9	0.13035907
132	0xbe39e925	-0.18155344
133	0xbe3588ad	-0.17727919
134	0xbd6621cb	-0.05618457
135	0xbc75e9d6	-0.015009364
136	0xbdc22385	-0.09479431
137	0xbe08dc7a	-0.13365355
138	0xbbe846dd	-0.0070885257
139	0xbe431954	-0.1905263
140	0x3d338158	0.043824524
141	0xbdd097f7	-0.10185235
142	0xbe0ac620	-0.13552141
143	0x3da1cbf6	0.079002306
144	0x3e16a69d	0.14711995
145	0x3dcfdc66	0.101494595
146	0x3cbb3e60	0.022856891
147	0xbddaf176	-0.10690586
148	0x3e2978ac	0.16549939
149	0xbe24d58b	-0.16097085
150	0xbde595e8	-0.11210233
151	0xbcf1e143	-0.029526358
152	0xbe817146	-0.25281733
153	0xbe4b847d	-0.19874759
154	0x3e54dbb8	0.20786941
155	0x3b2360dd	0.0024929561
156	0xbdcaf27b	-0.09909531
157	0xbea76cd6	-0.32700223
158	0xbe3e634a	-0.18592563
159	0x3e116a75	0.14200766
160	0xbe2e0b1b	-0.16996424
161	0xbc51784f	-0.012785031
162	0xbe43d5ea	-0.1912457
163	0xbba8275b	-0.0051316447
164	0x3be6f7b5	0.007048572
165	0xbebdd4a5	-0.37076297
166	0xbe04c5ac	-0.12966031
167	0x3caf4ee2	0.021399919
168	0x3e213a7e	0.15744969
169	0x3e829941	0.25507548
170	0xbe115154	-0.1419118
171	0xbe284092	-0.16430882
172	0x3e780df9	0.2422408
173	0x3d9b88ad	0.07594428
174	0x3ea0ca5f	0.31404397
175	0xbec4a41d	-0.38406458
176	0xbe5cd062	-0.21563867
177	0x3dc66fe1	0.09689308
178	0x3d4df04c	0.050277993
179	0xbdfaca6d	-0.12245641
180	0x3d87043e	0.06592606
181	0x3ed362c7	0.412863
182	0xbe7376f5	-0.23775847
183	0xbe02fd91	-0.1279204
184	0xbe2846b9	-0.16433229
185	0xbe13bf01	-0.14428331
186	0xbbd907c2	-0.0066232393
187	0xbe6365a4	-0.22206742
188	0x3d7f6486	0.062351726
189	0xbd8bcc7c	-0.06826112
190	0xbe6791d3	-0.22614221
191	0xbe9d3c96	-0.30710286
192	0xbe9ac075	-0.30224958
193	0xbe8c7fa1	-0.27441123
194	0x3e5ca8fe	0.2154884
195	0xbed84baf	-0.42245242
196	0xbe6b53ea	-0.2298123
197	0x3e3e9074	0.18609792
198	0x3e6637bc	0.22482198
199	0xbdf7b234	-0.120945364
200	0x3e22d00a	0.15899673
201	0xbe4a6da9	-0.19768395
202	0xbd20f0d2	-0.039292164
203	0xbeb47aa9	-0.35249832
204	0xbe430fd6	-0.1904901
205	0x3e44b427	0.19209348
206	0x3d58a1ec	0.052888796
207	0xbe27e615	-0.16396363
208	0xbd8e649b	-0.06952783
209	0x3c890aca	0.016728777
210	0xbdf27bd2	-0.11840023
211	0xbd2e5af6	-0.042567216
212	0xbe606c5f	-0.2191634
213	0xbdaba3a4	-0.08380821
214	0x3df63193	0.12021174
215	0xbe09db63	-0.13462596
216	0x3ce2129f	0.02759677
217	0x3e7e2d6a	0.24822012
218	0xbe081157	-0.13287865
219	0xbe2e0850	-0.16995358
220	0xbef08053	-0.46972904
221	0x3d8c07dd	0.06837437
222	0xbd4ce020	-0.05001843
223	0xbe81eafa	-0.25374585
224	0x3d2d644d	0.042331982
225	0x3e470c3a	0.19438258
226	0xbe6a7800	-0.22897339
227	0x3e20188f	0.15634368
228	0x3d8a8db3	0.06765308
229	0x3d5add2a	0.053433575
230	0xbc2ca05a	-0.010536278
231	0x3ddb99e1	0.107227094
232	0xbebee39b	-0.37283024
233	0xbe950dd1	-0.29112104
234	0xbe91d752	-0.2848459
235	0x3e1491a8	0.14508688
236	0x3e009b42	0.12559226
237	0x3de3c958	0.11122388
238	0xbddac0c4	-0.106812984
239	0x3de0e97c	0.109820336
240	0xbd53089a	-0.051521875
241	0xbd879ca1	-0.066216715
242	0xbdc199cb	-0.09453162
243	0xbcb44409	-0.022005098
244	0x3e3b791f	0.18307923
245	0x3bf80a41	0.0075695817
246	0x3d648159	0.055787418
247	0xbe6b781d	-0.22995038
248	0xbcdaf11a	-0.026726294
249	0x3d67bbe5	0.056575675
250	0xbc7502c8	-0.014954276
251	0xbd491306	-0.049090408
252	0x3e4a8a90	0.1977942
253	0xbdf886e3	-0.121351026
254	0x3ea48e8e	0.3214001
255	0x3e307294	0.17231208

base.3linear.bias f4 [50]
0	0xbd50875d	-0.050910342
1	0x3c5d8a14	0.01352169
2	0x3c37d26e	0.011219604
3	0x3dfb7133	0.122774504
4	0x3dd29952	0.1028315
5	0x3cc4bacb	0.024014851
6	0x3cd9e822	0.026599947
7	0x3dc82c83	0.09774115
8	0xbdba9c83	-0.091118835
9	0x3b714461	0.0036814439
10	0xbc22c282	-0.00993407
11	0x3d436221	0.047701005
12	0x3d910ccd	0.0708252
13	0x3ca84489	0.020540493
14	0x3db3711b	0.087618075
15	0x3c9abfba	0.01889025
16	0x3ade0f3c	0.0016941796
17	0xbe07afcd	-0.13250656
18	0xbc1e06f9	-0.009645217
19	0x3d7e88e5	0.06214227
20	0xbd37a4c7	-0.04483488
21	0x3dd0f655	0.10203234
22	0x3d4ea4f1	0.05045027
23	0x3d915c5b	0.070976935
24	0x3e062554	0.13100177
25	0xbb476128	-0.00304229
26	0x3d5c1e84	0.05374004
27	0x3c0e7a2b	0.008696119
28	0x3bc6b0b4	0.006063545
29	0x3bd8e088	0.006618563
30	0xbda49c54	-0.0803763
31	0x3c9dd2f8	0.019265637
32	0x3d0b191f	0.033959504
33	0x3de8a0c2	0.11358787
34	0xba69a44a	-0.00089127256
35	0x3cbb0790	0.022830755
36	0x3dd61dda	0.104549125
37	0xbe423770	-0.1896646
38	0xbcee331d	-0.029077107
39	0x3c8a70b0	0.016899437
40	0xbdbd55cb	-0.09244879
41	0x3c44a17f	0.012001394
42	0xbd82f18f	-0.0639373
43	0x3d2209f1	0.039560262
44	0x3d93c191	0.07214654
45	0xbd45c53a	-0.048283793
46	0xbe162002	-0.14660648
47	0x3d94df92	0.07269205
48	0xbcf392e3	-0.029733127
49	0xbcfe9113	-0.031075036

base.4linear.weight f4 [50, 50]
0	0xbdd6eb8d	-0.104941465
1	0xbde3ed94	-0.11129299
2	0xbd1678b5	-0.03673621
3	0x3e34ce41	0.17656805
4	0xbe93e5b6	-0.28886193
5	0x3db8e622	0.09028269
6	0xbca67fc4	-0.020324595
7	0x3dbcecdb	0.09224864
8	0xbdb73d93	-0.08947291
9	0x3e53ba3c	0.20676512
10	0x3deabcc5	0.11461786
11	0xbe3e68e7	-0.18594705
12	0x3c8830a0	0.016624749
13	0xbd073b2a	-0.033015408
14	0xbe9db805	-0.30804458
15	0x3c55c301	0.013046981
16	0xbe066cbe	-0.1312742
17	0xbda24d24	-0.0792487
18	0xbe9ddc13	-0.30831966
19	0x3e6e459c	0.23268741
20	0x3e3c4220	0.183846
21	0x3e921a77	0.28535816
22	0xbd36b843	-0.04460932
23	0xb91064da	-0.0001377048
24	0xbd39102f	-0.04518145
25	0xbdc8a080	-0.09796238
26	0xbe2592cc	-0.1616928
27	0xbd4024e7	-0.046910193
28	0xbe232e14	-0.15935546
29	0x3d868b89	0.06569583
30	0x3e6d5f43	0.2318087
31	0xbe96ad27	-0.2942898
32	0x3e28ac9d	0.16472097
33	0x3e21273f	0.15737627
34	0xbdc1b95c	-0.094591826
35	0xbe08c5a7	-0.13356648
36	0xbd2b2a88	-0.041788608
37	0xbe2a5730	-0.16634822
38	0x3d47a56c	0.048741743
39	0x3ddc45cb	0.107554995
40	0x3e1e405d	0.1545424
41	0x3e9fcde0	0.31211758
42	0x3e8a4b0d	0.27010384
43	0xbd876ab6	-0.0661215
44	0xbd361546	-0.04445388
45	0x3e1341c7	0.14380561
46	0x3e2132fa	0.15742102
47	0xbe4e3717	-0.20138203
48	0xbdf0bd43	-0.11754849
49	0x3db8e092	0.090272084
50	0x3dc86fdc	0.097869605
51	0x3e7d82af	0.24756883
52	0x3dbf190d	0.0933095
53	0x3e8c0836	0.27350014
54	0x3bca3547	0.006170902
55	0xbe5cc22a	-0.21558443
56	0x3d442447	0.04788616
57	0xbd80ffcd	-0.0629879
58	0xbdc7a83b	-0.09748884
59	0x3e49668c	0.19668025
60	0x3d776da3	0.060407292
61	0x3e44c940	0.19217396
62	0xbd0523ba	-0.032504775
63	0x3e0dd019	0.13848914
64	0x3ecf42e7	0.4048073
65	0xbc813378	-0.015771613
66	0xbd305a80	-0.043055058
67	0xbd95ce44	-0.07314733
68	0x3de87951	0.11351264
69	0xbe3edbdc	-0.18638557
70	0xbd6014d2	-0.054707356
71	0x3dfe329e	0.12411998
72	0x3d156784	0.036475673
73	0xbd6f83c1	-0.05847526
74	0x3cfb6d12	0.030691657
75	0x3e51f81d	0.20504804
76	0x3da9ef20	0.082975626
77	0xbea691ed	-0.32533208
78	0x3e045b21	0.12925388
79	0x3ab66e90	0.0013918448
80	0x3dc54dc3	0.096339725
81	0xbd48c4c8	-0.04901579
82	0x3dc769ce	0.097369775
83	0x3cf5a1be	0.029984351
84	0xbde69179	-0.112582155
85	0x3df33f08	0.11877257
86	0x3e52f0e8	0.20599711
87	0x3d580bf9	0.052745793
88	0x3d72f482	0.059315212
89	0xbda27170	-0.07931793
90	0x3d7bccd8	0.06147465
91	0x3e8a8baa	0.2705968
92	0xbe2ae4fc	-0.16688913
93	0xbcf78ba2	-0.03021795
94	0x3e40618c	0.18787211
95	0x3e98b4f6	0.29825562
96	0xbea73beb	-0.326629
97	0x3e00e695	0.1258796
98	0xbe48aafe	-0.19596478
99	0xbe057b70	-0.13035369
100	0xbdd39e8c	-0.10332975
101	0xbe20c533	-0.15700226
102	0xbb275656	-0.0025533638
103	0xbdb0e35a	-0.08637114
104	0x3d8451a0	0.06460881
105	0xbdc65893	-0.09684863
106	0xbd28623d	-0.041109312
107	0x3c8e277b	0.01735281
108	0xbd0f8c7a	-0.03504608
109	0xbe612ca3	-0.21989684
110	0xbe48413e	-0.19556138
111	0xbd3cb9ea	-0.04607574
112	0x3e65a1ce	0.22425005
113	0xbdf04466	-0.11731796
114	0xbd6970cd	-0.05699234
115	0x3e3c48da	0.18387166
116	0x3e8f3bac	0.27975214
117	0xbe9df421	-0.30850318
118	0x3e0bb835	0.13644488
119	0xbd4fb04e	-0.050705247
120	0x3e21aa40	0.15787601
121	0x3db2724e	0.08713208
122	0x3e788c32	0.2427223
123	0xbe3cd71a	-0.1844143
124	0x3e4aefe6	0.19818076
125	0xbe247e3b	-0.16063778
126	0x3dabd120	0.08389497
127	0xbcabbaed	-0.020963157
128	0xbd086e03	-0.03330804
129	0x3e6bf7be	0.23043725
130	0xbe24d223	-0.16095786
131	0xbd942b2f	-0.07234799
132	0x3c0c881e	0.008577375
133	0xbd22a52b	-0.039708298
134	0x3d70d832	0.05879993
135	0xbd1f30bc	-0.038864836
136	0xbe3f0522	-0.18654302
137	0x3e1654d7	0.14680801
138	0x3dc590b5	0.09646741
139	0x3edddcd1	0.43332532
140	0xbe2c63fd	-0.16835018
141	0x3d82a3ab	0.063788734
142	0xbd8aefdb	-0.0678403
143	0xbe23ab7e	-0.15983388
144	0x3e4a7e9d	0.19774862
145	0xbc6a5313	-0.014302033
146	0xbe4eeab1	-0.20206715
147	0x3de68c7e	0.112572655
148	0x3e44538c	0.19172496
149	0x3e5cc5a4	0.21559769
150	0x3da0dd4c	0.07854709
151	0xbb803b46	-0.003913316
152	0xbded0a1f	-0.11574196
153	0xbe252f17	-0.16131245
154	0xbe7a5643	-0.24446969
155	0x3dc6fe2f	0.097164504
156	0xbcda3557	-0.026636763
157	0xbd73671b	-0.0594245
158	0x3ea78c24	0.32724106
159	0x3e451d60	0.19249487
160	0xbe9da6cb	-0.30791315
161	0x3dd0dced	0.10198388
162	0xbeab432a	-0.3344968
163	0xbe8b63a0	-0.27224445
164	0xbe712ba5	-0.23551805
165	0x3e6aa56a	0.22914663
166	0xbcfee0aa	-0.031112988
167	0x3e4cd48e	0.20002958
168	0xbd9168c8	-0.071000636
169	0xbe26bdd0	-0.16283345
170	0x3d8170a1	0.063203104
171	0x3d3f956e	0.046773367
172	0xbe50a5e5	-0.20375784
173	0xbe72cb5f	-0.23710392
174	0xbd8ae403	-0.06781771
175	0x3de94561	0.11390186
176	0x3e3ed718	0.18636739
177	0x3dbe1dde	0.092830405
178	0xbd3d9f8e	-0.04629474
179	0x3ea2d906	0.318062
180	0x3e5403e2	0.20704606
181	0xbe83390a	-0.25629455
182	0x3da1ad96	0.07894437
183	0xbe07f53e	-0.13277146
184	0xbdecccc7	-0.11562496
185	0xbe3c9d22	-0.18419316
186	0x3d4faa1a	0.05069933
187	0x3e8dbc21	0.27682593
188	0xbcfd86e8	-0.030948117
189	0x3c57e7ee	0.013177855
190	0x3d385f0e	0.045012526
191	0xbdcf36d2	-0.10117878
192	0x3e1e19ec	0.15439576
193	0xbe263a0c	-0.1623308
194	0x3e37f6d4	0.17965251
195	0xbbc2a7ee	-0.005940429
196	0x3d9ba470	0.07599723
197	0x3e6d40b2	0.2316921
198	0xbd8d1712	-0.06889166
199	0x3d1d1a92	0.038355418
200	0xbd8f0cc9	-0.069848605
201	0x3ddd8262	0.10815884
202	0x3e573fdb	0.21020453
203	0x3cc04318	0.023469493
204	0xbe448c9c	-0.19194263
205	0xbe5a03bf	-0.21290492
206	0x3bd2b3dc	0.0064301323
207	0x3de5ef55	0.112272896
208	0xbde9f7b3	-0.11424198
209	0x3e5770a4	0.21039063
210	0xbe147129	-0.14496292
211	0x3e2bcf70	0.1677835
212	0xbd109fbb	-0.03530858
213	0x3cb12dfd	0.021628374
214	0xbe7b9f4d	-0.24572487
215	0x3dce9823	0.100876115
216	0xbd142698	-0.03616962
217	0x3d1cdfb3	0.038299274
218	0x3d8daa3e	0.06917237
219	0xbd82a46e	-0.06379019
220	0x3c941e2d	0.018080795
221	0x3dbdb97a	0.092638925
222	0xbe32dd4c	-0.1746723
223	0x3e002104	0.12512594
224	0x3e88ce76	0.26720017
225	0xbe2097bf	-0.15682887
226	0xbe0eba3b	-0.13938229
227	0xbe7dca28	-0.24784148
228	0xbe9deaa1	-0.3084307
229	0x3e814ef5	0.25255552
230	0x3e9374c0	0.2880001
231	0xbe41494f	-0.18875621
232	0xbe8463ab	-0.2585729
233	0x3da7f365	0.08200721
234	0x3e6b6e61	0.22991325
235	0xbc9a53ea	-0.018838841
236	0x3c84f3b8	0.016229495
237	0x3df124a5	0.117745675
238	0xbbb120fd	-0.005405544
239	0x3df68237	0.12036555
240	0x3e6c3ada	0.23069325
241	0xbcd621ef	-0.026139228
242	0xbdcc824a	-0.09985788
243	0xbe0f4728	-0.13991988
244	0x3cce8c38	0.025213346
245	0x3db9c7c3	0.09071305
246	0x3e535261	0.20636894
247	0x3e338263	0.17530207
248	0x3e3f275f	0.18667363
249	0x3eb08f49	0.34484318
250	0xbc7a4679	-0.015275591
251	0xbe6eb677	-0.23311792
252	0x3eec114b	0.46106943
253	0xbd98f99c	-0.07469484
254	0xbdf7fee3	-0.12109163
255	0xbe96c339	-0.29445818

base.4linear.bias f4 [50]
0	0xbcf0b938	-0.029385194
1	0x3da2df03	0.07952692
2	0x3cce50b8	0.025184974
3	0xbc23f789	-0.010007747
4	0xbb90cd5b	-0.0044190115
5	0x3b4a3c6c	0.0030858768
6	0xbd132cf5	-0.035931546
7	0x3d0404a3	0.032230984
8	0x3d4ade74	0.049528554
9	0x3b731d47	0.0037096308
10	0xbd63ebbc	-0.055644736
11	0xbd8da23a	-0.06915708
12	0x3cc32eeb	0.023826083
13	0xbdaae826	-0.0834506
14	0x3dddc2fe	0.108282074
15	0x3ca78155	0.020447413
16	0x3c9e655d	0.019335443
17	0xbd83d938	-0.064379156
18	0x3aeef94b	0.0018232254
19	0xbe15a2cc	-0.14612883
20	0xbceec06d	-0.02914449
21	0xbb960d09	-0.0045791906
22	0xbd6e676a	-0.058204092
23	0xbbc94532	-0.006142282
24	0xbcf2e471	-0.029649945
25	0x3d5c1b7b	0.053737145
26	0x3ca73181	0.020409347
27	0xbd314886	-0.043282054
28	0xbc83099c	-0.015995793
29	0x3d1d9f35	0.03848191
30	0xbca505bf	-0.020144342
31	0x3c81ff77	0.015868885
32	0xbd7a488d	-0.061104346
33	0x3aebf722	0.0018002728
34	0xbd421433	-0.047382545
35	0x3d840588	0.064463675
36	0xbca431fb	-0.020043364
37	0xbd9a5b3c	-0.07536933
38	0xbd3e44c4	-0.0464523
39	0x3cdc3a25	0.026883194
40	0xbd2869a0	-0.041116357
41	0xbde27480	-0.11057377
42	0xbcfe4968	-0.031040862
43	0xbd04eb3f	-0.03245091
44	0xbd85371b	-0.06504651
45	0x3ce3437d	0.027742142
46	0x3d89a825	0.06721524
47	0x3d47124b	0.04860143
48	0xbdc5d0b6	-0.09658949
49	0xbd9802cc	-0.074224085

base.5linear.weight f4 [50, 50]
0	0xbd73e5f8	-0.059545487
1	0xbe59bc53	-0.21263246
2	0xbe720abd	-0.23636909
3	0xbd8a4429	-0.06751282
4	0xbc000152	-0.007812815
5	0xbd3fbd1b	-0.046811204
6	0xbeae4254	-0.3403498
7	0xbe1b3ec0	-0.15160656
8	0x3e8138c1	0.25238612
9	0xbcef46c6	-0.029208552
10	0xbe050094	-0.12988502
11	0xbe276efd	-0.16350932
12	0x3dc0f053	0.09420838
13	0x3dc18a95	0.094502605
14	0xbbc019e4	-0.0058624614
15	0x3d9ffddd	0.078120925
16	0x3e7dedd1	0.24797751
17	0x3c9d770e	0.019221809
18	0xbd66b2ae	-0.056322746
19	0xbe66b9a9	-0.22531761
20	0xbd44e741	-0.048072103
21	0xbd7539e2	-0.059869654
22	0xbdb94deb	-0.09048065
23	0xbe870095	-0.26367632
24	0x3e3ca9d8	0.18424165
25	0x3eaca6be	0.33720964
26	0xbc65f097	-0.014034412
27	0xbe6b994e	-0.230077
28	0xbd4ee3fa	-0.050510384
29	0x3bd36fe6	0.0064525483
30	0x3de37a45	0.111073054
31	0xbd990045	-0.074707545
32	0x3cd2d55d	0.025736505
33	0xbe520df6	-0.20513138
34	0xbe27d05e	-0.1638808
35	0x3e322cc0	0.17399883
36	0x3e6e5076	0.23272881
37	0xbd89018b	-0.066897474
38	0xbdf8be96	-0.121457264
39	0x3d6a1fe9	0.05715934
40	0x3d349f55	0.044097263
41	0x3e9f74bb	0.31143746
42	0xbe5878e8	-0.21139872
43	0xbe33e0ed	-0.17566271
44	0xbb9ce782	-0.00478834
45	0xbdf2b3be	-0.11850689
46	0x3dedc688	0.116101325
47	0x3e530cc0	0.20610332
48	0xbe88167f	-0.26579663
49	0x3ddc4be0	0.107566595
50	0x3c7681ac	0.015045565
51	0xbdc676f2	-0.09690656
52	0x3e0e5c6e	0.13902447
53	0x3d0e25e9	0.034704123
54	0x3e1623bc	0.14662069
55	0x3b9f8818	0.0048685186
56	0xbe503481	-0.20332529
57	0xbe91c180	-0.2846794
58	0xbe9648c1	-0.29352382
59	0xbdc9aeb8	-0.09847778
60	0x3e099a1b	0.13437693
61	0x3ccc267a	0.02492069
62	0xbeaac695	-0.3335463
63	0x3e46015e	0.19336459
64	0x3ec30274	0.3808781
65	0x3ce27381	0.027642967
66	0xbe83240c	-0.2561344
67	0x3e70b61d	0.2350697
68	0xbde9ff4b	-0.114256464
69	0x3f0d2ee8	0.551497
70	0x3d9b7457	0.075905494
71	0x3e95a40c	0.2922672
72	0x3d0af897	0.03392848
73	0xbb5a231a	-0.0033285082
74	0x3e107704	0.14107901
75	0xbd9d9893	-0.07695117
76	0x3dac9725	0.08427266
77	0x3e8c3a96	0.27388448
78	0xbd591ed6	-0.053007923
79	0x3d9cef31	0.0766281
80	0x3b764ff8	0.0037584286
81	0x3cfc886f	0.030826775
82	0x3e88452a	0.26615268
83	0x3dc9697a	0.09834571
84	0xbd752620	-0.059850812
85	0xbdc87f3c	-0.09789893
86	0x3ea437f1	0.3207393
87	0xbd94b117	-0.0726034
88	0x39aa5e2b	0.00032495087
89	0x3e03213b	0.12805645
90	0x3ce21540	0.027598023
91	0xbda99dc0	-0.082820415
92	0xbe635ff4	-0.22204572
93	0x3eb60140	0.3554783
94	0x3d48858a	0.048955478
95	0x3e5d1dde	0.21593425
96	0xbe5257d2	-0.20541313
97	0xbe184a90	-0.14872193
98	0x3d6f021e	0.05835163
99	0x3e278c11	0.16362025
100	0xbe07d8cf	-0.132663
101	0x3dc61919	0.09672756
102	0x3db0e4ee	0.08637415
103	0xbe2adde6	-0.1668621
104	0xbe08be6c	-0.1335389
105	0xbdd9b55c	-0.10630295
106	0x3eb2d6f1	0.34929612
107	0xbd25a077	-0.040436234
108	0xbd4af760	-0.04955232
109	0xbe5cad12	-0.21550396
110	0x3dd47bed	0.103751995
111	0x3d4a05ae	0.049321823
112	0x3dbaed3b	0.09127279
113	0xbd8be124	-0.068300515
114	0x3daa92e9	0.08328802
115	0x3e0d3142	0.13788322
116	0xbd08a348	-0.033358842
117	0x3e3412c9	0.17585291
118	0x3da7b54f	0.08188879
119	0x3e592158	0.21204126
120	0xbe3465d9	-0.17616977
121	0xbca6e6a0	-0.020373642
122	0xbe95beec	-0.29247224
123	0x3e3b881d	0.18313642
124	0x3cc75cca	0.024336237
125	0x3c8e9639	0.017405616
126	0xbdb64d04	-0.08901408
127	0x3e18fc31	0.14939953
128	0x3e6bb3f3	0.23017864
129	0xbe7eee64	-0.24895626
130	0x3e8018d5	0.25018945
131	0x3e6ca750	0.231107
132	0xbcf28554	-0.029604591
133	0x3cf82898	0.030292794
134	0xbe9cc580	-0.3061943
135	0xbe49af74	-0.19695836
136	0x3a3857f3	0.00070321484
137	0x3e6e559e	0.23274848
138	0x3c74120c	0.014896881
139	0x3eb381dd	0.35060015
140	0x3d52a03a	0.051422335
141	0xbe7c3f72	-0.24633577
142	0x3e08c2f2	0.13355616
143	0x3cd47854	0.025936283
144	0xbd84ae10	-0.06478512
145	0xbe9af08c	-0.30261648
146	0xbd10af3a	-0.03532336
147	0xbe75560a	-0.23958603
148	0xbc43c7df	-0.011949508
149	0x3d7a6493	0.06113107
150	0xbe8ad434	-0.27115023
151	0x3e7a3e36	0.24437794
152	0x3d59076d	0.052985597
153	0xbd9f7d36	-0.07787554
154	0xbd424861	-0.047432307
155	0xbe6a8b8b	-0.22904794
156	0xba23c860	-0.0006247815
157	0xbd53e077	-0.05172774
158	0xbe271b81	-0.16319086
159	0x3e32d209	0.17462935
160	0xbb2aaa58	-0.0026041474
161	0xbd48f90d	-0.04906564
162	0xbdcf58f2	-0.10124387
163	0x3cbf8e75	0.023383358
164	0x3ecb6425	0.39724842
165	0xbdee7f10	-0.11645329
166	0xbb2553d4	-0.0025226967
167	0xbda2a38d	-0.07941351
168	0xbe14f2bd	-0.14545722
169	0x3da8f848	0.08250481
170	0xbe355596	-0.1770843
171	0x3dd8f830	0.10594213
172	0xbea8d55f	-0.3297529
173	0xbde66dfa	-0.11251445
174	0x3d8d8eb4	0.06911984
175	0x3db69079	0.08914275
176	0x3e376586	0.17909822
177	0x3ca822e0	0.020524442
178	0xbdfaa071	-0.12237633
179	0xbd885f45	-0.06658796
180	0xbe020864	-0.12698513
181	0xbcd8bf2e	-0.02645835
182	0x3dd87fb0	0.105712295
183	0x3e026b0f	0.12736152
184	0x3cacbaba	0.021085132
185	0x3e685473	0.22688465
186	0x3e3702c1	0.17872144
187	0xbc9a6ffb	-0.018852225
188	0xbd1b6f1f	-0.03794777
189	0x3d89118b	0.06692799
190	0x3d15675f	0.036475535
191	0x3a415066	0.0007374346
192	0x3da3827b	0.079838715
193	0xbd97156c	-0.07377133
194	0x3d962519	0.073312946
195	0x3e32fef1	0.17480065
196	0x3e459734	0.1929596
197	0x3e1e529b	0.15461199
198	0xbe7536d1	-0.23946692
199	0x3e6259f9	0.22104634
200	0xbe76a180	-0.24085045
201	0xbe191db9	-0.14952745
202	0x3dbc3a18	0.09190768
203	0x3d67264b	0.056433003
204	0x3e879935	0.26484075
205	0x3d0fbb98	0.035091013
206	0x3eb72361	0.3576918
207	0xbe87fd35	-0.2656037
208	0x3d0d039b	0.034427267
209	0x3d17b682	0.037039287
210	0x3df02e65	0.11727599
211	0xbdd0dfc6	-0.101989314
212	0x3c3365fd	0.010949609
213	0x3d4b55c0	0.049642324
214	0xbe8981ba	-0.26856786
215	0x3e2590ca	0.16168514
216	0xbe3d9e65	-0.18517454
217	0x3e867fa6	0.26269263
218	0x3e2dfddc	0.16991371
219	0xbdb5eb21	-0.08882738
220	0x3d534543	0.051579725
221	0x3e384756	0.17995963
222	0x3dfaef41	0.12252665
223	0x3d62ab0c	0.055338904
224	0xbe946b54	-0.28988135
225	0x3d2ac991	0.041696135
226	0x3d9f930a	0.07791717
227	0x3c854903	0.016270166
228	0x3ccbcd8e	0.02487829
229	0x3e7c26f5	0.24624236
230	0xbc64ff3d	-0.013976869
231	0x3dfb111c	0.12259123
232	0xbd50f225	-0.051012177
233	0xbd94d4df	-0.072671644
234	0x3da1563a	0.078777745
235	0x3d1d506b	0.03840677
236	0xbea7dd6f	-0.32786128
237	0x3e3901e9	0.18067135
238	0x3e474f8d	0.1946394
239	0x3d28076d	0.041022707
240	0x3e7db79a	0.2477707
241	0xbdbaa61d	-0.09113715
242	0x3c89b168	0.016808227
243	0x3e1e924f	0.154855
244	0xbe13bc50	-0.14427304
245	0x3dc26d24	0.09493473
246	0x3da520e1	0.08062912
247	0xbd61d285	-0.055132408
248	0x3dbf7fa1	0.09350515
249	0xbdde7c49	-0.10863549
250	0xbb12c967	-0.0022397877
251	0xbe31431c	-0.17310756
252	0x3df85a08	0.12126547
253	0xbe0d1ec4	-0.13781267
254	0xbc4e4aed	-0.012591106
255	0xbdcf9a6d	-0.10136876

base.5linear.bias f4 [50]
0	0xbb2e1a98	-0.0026566144
1	0xbd9aa0c2	-0.07550193
2	0xbd748d1c	-0.059704885
3	0x3d06aa03	0.03287698
4	0xbcb34cc7	-0.021887196
5	0x3d72e2d5	0.059298355
6	0xbcaa6134	-0.020798303
7	0xbd7f81ee	-0.06237977
8	0x3d368360	0.044558883
9	0xbc6f3062	-0.014598938
10	0xbf5654f9	-0.8372341
11	0x3ce051b1	0.027382703
12	0x3dc59d38	0.09649128
13	0xbd842d23	-0.06453922
14	0x3d90126a	0.07034762
15	0x3dbc9c45	0.092094935
16	0xbce3bd1a	-0.027800132
17	0x394cc16c	0.00019527011
18	0xbccac1d0	-0.02475062
19	0xbcdae2b5	-0.02671943
20	0xbd9a2a72	-0.07527627
21	0x3d1364b7	0.03598472
22	0xbd0d14b6	-0.03444358
23	0xbc2bff31	-0.010497854
24	0xbd087071	-0.033310357
25	0x3d6e2b44	0.05814673
26	0xbd52b430	-0.05144137
27	0x3d20ab94	0.03922613
28	0xbc76f0b3	-0.015072036
29	0x3ca61523	0.02027375
30	0xbbd26364	-0.0064205397
31	0x3cca853c	0.024721734
32	0x3d7b4d11	0.061352793
33	0x3dbeee56	0.09322803
34	0xbd61b12b	-0.0551006
35	0x3cb1dc37	0.021711452
36	0x3d1cccb3	0.038281154
37	0x3d88e0f7	0.06683534
38	0xbcbc8a08	-0.023015037
39	0xbcd7956c	-0.026316367
40	0xbdbaafd2	-0.09115566
41	0x3d12c95c	0.035836563
42	0x3db6f5ba	0.08933587
43	0xbdb9dc76	-0.09075253
44	0x3cf92bd8	0.030416414
45	0xbd8959c0	-0.067065716
46	0x3c8e8f0c	0.017402194
47	0xbdb6ed27	-0.08931952
48	0xbd386ed7	-0.04502758
49	0xbdb445d0	-0.08802378
