STPINN-RANS/sub_data/sub_write/07NS_model_train.pt (torch, 100283 bytes, 22 tensors)

base.0linear.weight f4 [50, 3]
000000 e5 75 7c be 1b 1c 3c 3d 65 e2 f1 3d f0 63 41 be
       -0.24654348 0.04592524 0.118107595 -0.1888578
000010 60 cc 83 3e 07 4f 08 3e c7 fc 6f be e7 b4 80 be
       0.25741863 0.13311397 -0.2343627 -0.25138018
000020 60 2e a3 bd f1 d5 26 3e 66 bb 4b 3d f9 5b 4f 3d
       -0.0796783 0.1629255 0.049739264 0.05062482
000030 24 3d b3 bc 55 b6 78 3e 09 60 7b 3d 2c fd 8c 3d
       -0.02187974 0.24288304 0.061370883 0.06884226
000040 4e 3e 8d be ad 52 c5 bd 62 2a ad bb fe 40 ff 3d
       -0.27586597 -0.0963491 -0.0052845934 0.12463568
000050 05 c4 19 3e d9 2f 6f ba 89 ff 42 ba 9e 83 bf b9
       0.15016182 -0.00091242563 -0.00074385904 -0.0003652842
000060 71 0d c3 3c b0 5c 4b be d3 b7 44 be c1 fc 00 3e
       0.02381012 -0.19859576 -0.19210748 0.12596418
000070 0f 81 8a 3d ee c9 ab be ff f4 8c be 84 71 02 3e
       0.06762897 -0.33552498 -0.27530667 0.12738615
000080 53 40 8d bc 8a 0b 47 be c7 08 f4 3d 81 f4 4a 3d
       -0.017242586 -0.19437996 0.11915737 0.049549583
000090 71 f6 7a be c2 79 7f 3d cf 34 1e bd 16 ad ee 3c
       -0.24508072 0.062371977 -0.03862458 0.029135268
0000a0 46 bc 23 3e 83 63 59 3e 1e c3 60 3d fc e8 b9 3e
       0.1598979 0.21229367 0.05487358 0.36310565
0000b0 9c 45 72 be 76 e2 18 be 88 04 c1 be d1 32 f6 3d
       -0.23659366 -0.14930138 -0.3769877 0.12021411
0000c0 e1 74 40 3e 1c 2e 22 bd b0 be df bd e6 70 94 3e
       0.18794586 -0.039594755 -0.10925043 0.28992385
0000d0 fb 73 9f be e6 51 38 be 28 a9 43 3d 61 a1 dd bd
       -0.31143174 -0.17999992 0.04776874 -0.10821796
0000e0 ce bc 8a be 75 3e 8a 3d c9 ce e2 bd fb 60 ac be
       -0.27097172 0.06750194 -0.110745974 -0.3366774
0000f0 54 05 8d 3e b6 9f 4e 3e 44 9f a8 be 14 b8 03 bd
       0.27543128 0.20178112 -0.3293401 -0.032157972
000100 49 00 8c bd b5 f0 6e be ae 1e f1 3d d5 d6 73 3c
       -0.06835992 -0.2333401 0.1177343 0.014882763
000110 64 e5 86 be bb 4a df bc c7 86 25 3e 8e bd 95 be
       -0.26346886 -0.027257314 0.16164695 -0.2924618
000120 ac 66 15 bb 3b 13 2f be b9 1b 33 bd c2 ee 0f bd
       -0.0022796793 -0.1709718 -0.04372761 -0.035139807
000130 d9 92 b8 bc a6 05 da 3d e6 d1 9a be 2c ab 15 bd
       -0.02253096 0.106456086 -0.30238265 -0.036540195
000140 48 0d e0 3d a1 66 17 be b4 19 6a bd f5 bc dc 3d
       0.10940033 -0.14785244 -0.05715342 0.10778228
000150 e5 1d d1 3d 38 d3 13 be 62 f7 9b be 91 a0 3f 3e
       0.1021078 -0.14436042 -0.30462176 0.18713595
000160 d6 df 41 be b3 51 8c be ee 62 23 3e 18 9a 9f 3d
       -0.18933043 -0.27406082 0.15955707 0.07793063
000170 e2 02 5a 3d 8d f3 84 be d4 3c fb 3d 11 6e fc 3e
       0.053225406 -0.25967064 0.122674614 0.49302724
000180 26 be 4b be f4 03 12 be f7 55 87 3e f1 dc da bd
       -0.19896755 -0.1425932 0.26432773 -0.106866725
000190 76 39 cf 3e 68 f2 ff bd c5 7d 4d 3e a4 3e 8b bd
       0.40473527 -0.12497407 0.20067509 -0.06799057
0001a0 41 6c 48 be c5 08 ac 39 c6 de b4 3e c7 a2 b7 3d
       -0.19572546 0.0003281293 0.35326213 0.08966594
0001b0 0b 38 af 3d 69 69 0e 3e 2f 45 cb be 75 07 95 3e
       0.08555611 0.13907398 -0.3970122 0.29107252
0001c0 61 8c 11 3f ce 0a a0 be 52 50 f2 3c 6c 9f dd be
       0.56854826 -0.31258243 0.029579315 -0.43285692
0001d0 08 8d 3d bd 7f 1d 38 bd 29 86 a9 bd 7c 84 68 3e
       -0.046277076 -0.044950005 -0.08277542 0.22706789
0001e0 e2 e1 85 3d e9 87 8d 3e cd ee 19 be 78 f2 15 3a
       0.06537224 0.27642754 -0.15032502 0.00057200296
0001f0 aa ce b0 ba f0 2e b9 3a e3 0d f6 3d 1f de 14 be
       -0.0013489325 0.0014128368 0.120143674 -0.14537857
000200 1d 01 91 be a3 03 b6 be 8f 69 ac 3d 2e 0c 1a 3e
       -0.28321162 -0.3554965 0.08418571 0.15043709
000210 25 62 d9 3a 30 36 8b 3a 00 69 2b 39 8e 76 37 3e
       0.0016585035 0.0010621008 0.00016346946 0.17916319
000220 1e 2e 3f be 17 96 3f be 5e 1f e2 3b a1 93 16 3b
       -0.18669936 -0.18709598 0.006900712 0.0022976177
000230 b8 d6 46 be 76 67 b8 3c 50 f8 fd bc 41 fb 02 bc
       -0.19417846 0.022510272 -0.031002194 -0.007994474
000240 c3 c4 0a be b7 38 fe 3d 79 a1 4a be 2d fd 8d 3d
       -0.13551621 0.12413161 -0.1978816 0.06933055
000250 5b d0 98 3e 05 8d 30 be
       0.29846463 -0.17241295

base.0linear.bias f4 [50]
000000 92 60 4b bc b6 0d b0 bd f0 78 47 3e 28 9f e2 bd
       -0.012413161 -0.08596365 0.19479728 -0.11065513
000010 62 4b 9c bd 3d 93 e1 3d 35 a9 e0 bd 2e 6d 6e 39
       -0.07631566 0.110144116 -0.10969774 0.00022738121
000020 d8 03 12 3e 9f 95 16 3e bb 2d ef 3d c2 93 9a 3b
       0.14259279 0.14705513 0.11678644 0.004717321
000030 d9 ce ed 3d 59 53 c8 3d 96 05 8b 3d 02 9d 3d bd
       0.11611719 0.09781522 0.06788175 -0.046292312
000040 b1 21 77 3c 80 2e 83 3d 5f 71 a1 3d 68 15 2a bd
       0.015083716 0.064053535 0.07882952 -0.04152432
000050 58 55 02 3e 2e 6b cf 3d 1e 67 20 3d 60 58 b0 3d
       0.12727869 0.10127865 0.03916084 0.08610606
000060 c5 20 b8 3b 34 8a 80 bd d9 d8 9d bd f4 f7 9c bd
       0.005619141 -0.0627636 -0.07707376 -0.07664481
000070 03 c9 34 3e d7 55 eb b9 55 95 dc bd 11 9e da ba
       0.17654805 -0.00044886649 -0.1077067 -0.0016679188
000080 66 70 b7 bd a8 6a 13 3d 8d 77 da 3c b0 cd 52 be
       -0.08956985 0.035990387 0.026668334 -0.20586276
000090 02 1d 87 bd 17 63 28 3c b8 34 b2 3d 0f 2c fc bd
       -0.0659733 0.010277531 0.087014616 -0.12313091
0000a0 e9 30 6a 3c 37 f3 89 ba f3 94 5a 3c 1c 12 90 bd
       0.014293888 -0.0010524754 0.013341176 -0.07034704
0000b0 40 63 79 38 4e 44 8f 3d 8b c1 fd 3d 0c c3 44 3b
       5.945866e-05 0.0699545 0.12390431 0.0030023484
0000c0 97 f4 17 3e 62 0b 87 3d
       0.14839397 0.06593968

base.1linear.weight f4 [50, 50]
000000 b8 4b 86 be a9 f6 f2 3c 88 51 ec 3c d0 58 cc 3b
       -0.26229644 0.029658632 0.02884747 0.006236173
000010 b1 7c 85 3e 02 b7 ec bc 06 9c 55 bc 7f 0b a4 3d
       0.26071694 -0.028895859 -0.013037687 0.08010005
000020 03 be 5b bd c3 b0 83 bc 4c df 7f bc fe c0 1c be
       -0.053648006 -0.016075497 -0.015617203 -0.15307996
000030 53 d5 9e be 14 d1 3c 3d 81 e4 08 3e 2e b8 27 3d
       -0.31022128 0.04609783 0.13368417 0.04094713
000040 5e 88 b0 3b 4a 12 95 3d 1a 7e f3 bd 79 e7 77 3e
       0.00538735 0.07278879 -0.11889286 0.24209394
000050 78 51 8c 3d 55 c2 0f 3d 76 eb 75 3e 41 71 0b be
       0.068514764 0.03509744 0.24015602 -0.13617422
000060 7d 9d a5 bd f1 12 83 3c bf 63 4a be 0b 51 fa 3d
       -0.08086679 0.016000243 -0.19764613 0.12222489
000070 85 d2 12 be 85 1b 8f bd 1f f7 56 bd 68 96 83 be
       -0.1433812 -0.06987671 -0.052481767 -0.25700688
000080 14 c2 06 3e 3a ca 46 be fd 2b 1e be 1b 21 f5 3d
       0.13159972 -0.19413081 -0.15446468 0.11969205
000090 20 51 42 3e 48 d8 82 3e 32 c9 7b be 0a 4b 94 3d
       0.18976259 0.25555634 -0.24588469 0.07240875
0000a0 3a dd 32 3e d7 55 fe bd 0f 8c ec bd 9e 35 2d 3e
       0.17467204 -0.124187164 -0.115501516 0.16914985
0000b0 19 46 c5 bd 0f 57 1a bc 34 21 01 be 3e 5f ec bd
       -0.09632511 -0.00942017 -0.12610322 -0.115416035
0000c0 63 8c 2d 3d a5 02 ba bd 5d 32 c7 3c f3 5e d3 3e
       0.04237021 -0.09082536 0.024316007 0.41283378
0000d0 20 1a c7 be 33 5f f8 3d 2c a3 b2 bd f4 15 45 be
       -0.3888712 0.12127533 -0.08722529 -0.19246656
0000e0 1e eb 3a 3c fa 5d 92 3c 7f 95 57 be 1b 83 9a 3c
       0.011408595 0.017867077 -0.21053122 0.018861344
0000f0 cf 2f bd 3c ba e9 6b 3d 96 d9 30 be 66 4b 06 bd
       0.023094086 0.057595946 -0.17270502 -0.03278675
000100 b4 ea 47 3d 96 ce 28 bd 1f 81 e6 3a 70 d5 f7 bd
       0.048807815 -0.04121264 0.0017586089 -0.12101257
000110 cd d4 97 3e 91 fa b5 bd 38 ae 26 be 5b 6c a1 bd
       0.29654542 -0.088856824 -0.16277397 -0.07881995
000120 09 2d eb bd 54 98 59 3c f8 90 ef bc 91 a8 33 be
       -0.11483199 0.013280947 -0.029243931 -0.17544772
000130 c1 5c 21 3e 35 76 2e be c9 02 9f 3c 8f b3 a1 ba
       0.15758039 -0.1703728 0.019410508 -0.0012336838
000140 50 84 6d 3d f9 0d e3 3c 30 23 8c be f6 c5 55 3e
       0.05798751 0.027716624 -0.27370596 0.20876297
000150 7c 70 eb 3d 8e 9c 03 3f 30 97 33 3e a7 0f 42 3e
       0.11496064 0.5141076 0.17538142 0.18951283
000160 56 08 9d be 0f 69 27 3e 93 c7 69 3e 89 52 1b 3d
       -0.30670422 0.1634867 0.22830038 0.03792051
000170 58 79 1e 3e c4 38 2d be 1b d4 c3 bd 91 8b 0b bc
       0.15475976 -0.16916186 -0.0956194 -0.008517162
000180 8c de 65 3e 55 13 6e be b3 82 33 3e 0b be a3 3c
       0.22448176 -0.23249562 0.17530327 0.01998808
000190 22 de c4 bd 5a 42 d5 3d bb 8a 53 3b f6 da fa 3d
       -0.09612681 0.10413046 0.0032278735 0.12248795
0001a0 50 df c6 3d 08 d4 48 be 55 88 0e 3e d1 c8 a0 bd
       0.09710562 -0.19612134 0.13919194 -0.07850803
0001b0 0e 3c 86 3d 24 77 57 bd 48 13 3f be 19 73 8f 3e
       0.06554423 -0.052603856 -0.18659699 0.280175
0001c0 90 76 bf bd 8c ab 0b 3e a1 36 eb 3d bc 7c 50 3d
       -0.09348786 0.13639659 0.11485029 0.050900206
0001d0 e7 72 05 3e a4 b8 23 3e 79 f0 a0 be 41 c9 cf 3d
       0.13032113 0.15988404 -0.31433466 0.10145808
0001e0 b5 f3 66 be b6 19 0c 3e d4 ce 3c 3b 05 43 da bc
       -0.22553904 0.13681683 0.0028809803 -0.026643286
0001f0 97 aa a0 bd 80 ee 27 3c 13 f9 9f ba 7c 75 79 be
       -0.078450374 0.010249734 -0.0012204967 -0.24361223
000200 8a 6c 1c be b3 9c 9e 3d 13 8f 6e bc bb 5e 96 be
       -0.1527578 0.07744732 -0.014560479 -0.2936915
000210 7b 01 11 be 72 f8 12 be 20 a2 b0 3d c7 b2 c6 3d
       -0.14160721 -0.14352587 0.08624673 0.09702068
000220 ef 6e ef bd 3f 60 ea ba ae 62 01 be d9 96 78 bd
       -0.11691081 -0.0017881467 -0.126353 -0.060690735
000230 aa a0 f9 bd 17 06 6d be 56 39 30 be 91 56 88 be
       -0.12188847 -0.23146854 -0.17209372 -0.26628545
000240 05 84 57 3c 59 cf 93 3d 76 4c 54 be a4 80 d1 3d
       0.0131540345 0.07217283 -0.20732293 0.102296144
000250 c5 ca ad bd 29 92 af bd 9c 46 cd bd 6a 11 1c be
       -0.08485941 -0.085728 -0.10023233 -0.15241018
000260 96 26 2f bd 29 b9 92 3d e2 e1 9a 3c 41 e8 4f be
       -0.042761408 0.07164223 0.018906537 -0.20303442
000270 b5 3c 74 3d 65 83 41 3d f6 fe 0c be 70 34 02 3e
       0.059628207 0.04724445 -0.13769135 0.12715316
000280 51 d8 e9 bc 4f 58 00 3e 55 06 ae bd 11 59 0a bd
       -0.02854553 0.12533687 -0.084973015 -0.033776347
000290 62 80 0f 3e a6 8c a3 be 0f 9d b8 bd bd 14 5e bd
       0.14013818 -0.31943244 -0.090143315 -0.054218996
0002a0 22 2c 0d 3d ab 8d 1c be 52 4d 88 be 38 99 9d bb
       0.034465916 -0.15288417 -0.2662149 -0.004809525
0002b0 9b 66 1d 3e 28 19 0d bd 2c 67 e3 39 48 36 8b be
       0.15371172 -0.03444782 0.00043373683 -0.2718985
0002c0 6b 5e 57 bd fd a2 a6 bc 5b ba a1 be f1 56 81 be
       -0.05258028 -0.02034139 -0.3158749 -0.25261644
0002d0 5c c2 cf 3c 29 45 c4 bc b3 1a dd bd fb 50 c5 3d
       0.025361232 -0.02395876 -0.10796108 0.096345864
0002e0 6b 2c ec bd 72 be 10 3e ab ee 91 3d 27 06 bf 3d
       -0.115319096 0.14135149 0.071256004 0.09327345
0002f0 74 25 02 bb 92 ae 19 3d c0 92 29 3e f5 fd 10 be
       -0.001985875 0.03752 0.16559887 -0.14159377
000300 48 57 11 ba 8d 73 c8 bc c2 7b ca bd 2c bd 3b bd
       -0.0005544317 -0.024469161 -0.09886886 -0.045834705
000310 1a db 1e b9 53 d8 be bd 40 f7 07 be b2 39 95 bd
       -0.00015149676 -0.09318604 -0.13277912 -0.07286395
000320 9b 2a bd 3e 91 5b 6c 3e 75 49 94 be 57 d0 19 3e
       0.36946568 0.23081805 -0.28962293 0.15020882
000330 af 05 36 3f 60 e5 ee be ca 03 9d bd bb f7 6f bd
       0.7110242 -0.46659374 -0.07666738 -0.058585864
000340 57 c9 e9 bd d4 d2 74 bd 90 3e 55 3d 6e 7b f6 3d
       -0.11415356 -0.059771374 0.052061617 0.12035261
000350 65 55 27 3e 8c b8 86 bc 22 1f 2d 3e 01 d2 22 be
       0.16341169 -0.01644542 0.16906407 -0.15900423
000360 c8 0a 1e 3d be 2b 18 be de c3 99 bd 90 32 eb bd
       0.0385845 -0.14860436 -0.07508062 -0.114842534
000370 64 84 13 bb 9b 9d fb 3c ab 69 4d 3d 29 a6 f0 bd
       -0.002250933 0.0307148 0.0501496 -0.117504425
000380 91 30 68 3e b1 eb 90 be 2c 18 94 3e 67 2d 8e 3d
       0.22674777 -0.28304818 0.28924692 0.069422536
000390 ab 38 18 be 84 31 aa 3d eb bc 57 3e 53 78 19 3d
       -0.14865367 0.083102256 0.2106816 0.037468266
0003a0 5d 44 c3 3d 7c f1 e0 3d a1 7e c7 3d cf e5 01 3f
       0.09534524 0.109835595 0.097409494 0.50741285
0003b0 73 1c 04 3e bb b9 f5 3d 4e 08 7c 3d bf 4a 83 bd
       0.12901478 0.11998316 0.061531357 -0.06410741
0003c0 f6 44 9a bd a8 b0 03 3d cb 83 a5 bd 66 e3 ad 3e
       -0.075326845 0.032150894 -0.08081778 0.33962554
0003d0 b2 cc c5 bd 71 f1 02 3c df 2b b8 bd 70 6f 22 3d
       -0.09658183 0.007992134 -0.08992743 0.039657056
0003e0 29 84 36 bd f2 3f 3f 3e c2 99 61 3c bf 22 75 be
       -0.04455963 0.18676737 0.013769569 -0.23939036
0003f0 c2 68 fd 3d 04 67 11 3d 2e 6a b9 3d 99 11 74 be
       0.123734966 0.035498634 0.09053455 -0.23834838

base.1linear.bias f4 [50]
000000 14 b9 c9 bd 58 9b cd bd 14 cd 47 3c 1a f8 dd bc
       -0.09849754 -0.10039395 0.0121948905 -0.027095843
000010 16 b9 ee bd 7c 46 38 3c 7c ee bb 3c 05 81 8d bd
       -0.11656396 0.011247274 0.022940867 -0.06909374
000020 f6 c3 0c 3e c1 32 94 bd 80 c6 80 bc 6f b3 15 be
       0.13746628 -0.07236243 -0.015719652 -0.1461923
000030 1f 7b e6 3b 55 e6 2b bc 61 7f aa 3d 3b 5f c7 bd
       0.00703372 -0.010491927 0.08325077 -0.09734961
000040 b9 e9 05 3e eb 16 4c 3d 71 dc bc 3c 09 a7 be 3d
       0.1307744 0.049826544 0.023054333 0.09309203
000050 03 df 6b bd d9 9b ca bd 5b 62 2c bd 7c 21 1b 3e
       -0.057585727 -0.09893007 -0.042085987 0.15149492
000060 f9 4e ee bc 52 1d 3e 3d 91 22 b7 3d fc 23 de bd
       -0.029090391 0.04641468 0.0894214 -0.10846707
000070 e7 77 fb 3d 54 eb fd 3d 94 b5 61 3c e6 ff 82 bd
       0.12278729 0.12398401 0.013776202 -0.06396465
000080 12 cd 7c 3d a1 66 36 bb 41 8c 5f 3d 74 45 0a 3e
       0.061719008 -0.0027832168 0.054577116 0.13503057
000090 d4 96 a7 3d 71 4c 99 bd 08 3b 43 bd cc 79 a0 3d
       0.08183065 -0.07485283 -0.04766372 0.07835731
0000a0 b4 a1 cf bd 34 b6 07 3e e3 0a 82 bd 02 99 88 bd
       -0.10138264 0.13253099 -0.06349733 -0.06669809
0000b0 7e 80 a9 bc 35 cd 8a 3c 3d 48 4a bd 7f 06 51 3d
       -0.020691153 0.016943553 -0.049385298 0.051031586
0000c0 65 b5 d3 3d 17 8e d4 3d
       0.10337333 0.10378664

base.2linear.weight f4 [50, 50]
000000 f9 52 29 be 50 cf 11 be 0a 72 5f be cd 82 e0 bd
       -0.16535558 -0.1423924 -0.21820846 -0.10962448
000010 01 f3 69 bd d2 6f 3f 3e 4b 12 13 3d 5c 97 01 bc
       -0.057116512 0.18695 0.035906117 -0.007909622
000020 4d 6a 9b be 27 0b 4a bc fb f9 77 3d f9 5f 6c 3d
       -0.3035454 -0.0123317605 0.060541134 0.057708714
000030 f1 d2 bd 3a 4b 1e d4 bc c5 87 2a 3e e4 e2 1f bd
       0.0014482421 -0.025893351 0.16653354 -0.03903474
000040 bf 24 3b 3e a5 47 72 bd 27 a3 1c 3e c4 1c da 3c
       0.18275736 -0.059150357 0.15296613 0.026625045
000050 5f 67 d9 3d 81 3a a5 bb 3e a4 e9 bd 3f 32 8f 3d
       0.106154196 -0.0050423746 -0.1140828 0.069920056
000060 b1 a2 13 3d ef 2e 3c be 94 f2 c2 3d 38 cf 04 be
       0.036043826 -0.18377279 0.09518924 -0.12969673
000070 b3 ac a0 3d 96 e6 80 be 7a 17 bd 3e aa c5 41 3e
       0.0784544 -0.25175923 0.36931974 0.18923059
000080 bd 11 83 bc 46 2c b3 bb 0b b1 16 bd 44 ce 15 3c
       -0.01599967 -0.0054679243 -0.036789935 0.009143416
000090 d4 5c 86 3e bc d4 0d be 18 84 9f 3e b5 62 9d 3e
       0.26242697 -0.13850683 0.31155467 0.3073937
0000a0 ba 0c be bc 12 d5 c4 3e 13 db 47 be c5 8b 75 3d
       -0.023199428 0.3844381 -0.19517164 0.059947748
0000b0 1f 47 1c be 8c e0 cb 3d 71 70 30 3e 35 2e 98 bd
       -0.15261506 0.09954938 0.17230393 -0.07430688
0000c0 cf 75 6a 3e c3 e0 d1 3d 9c 4d 3b be 2b af 56 3d
       0.22896503 0.10247948 -0.18291324 0.052413147
0000d0 c5 9d a5 bd 4b ee 35 3d 2b 2a 63 bd 94 dd dc 3c
       -0.08086733 0.044416707 -0.055460136 0.026961125
0000e0 56 64 f2 3d 9c 6c 9a 3d a6 ed 99 3d 70 09 77 ba
       0.11835544 0.07540247 0.07516031 -0.00094237085
0000f0 15 37 c0 3d 52 f9 13 be 33 38 12 3e 13 b3 68 bd
       0.09385506 -0.14450577 0.14279251 -0.056811403
000100 7f 42 fb bd 7f ee 7f 3d ed 66 57 3e e4 95 39 be
       -0.122685425 0.062483307 0.21035357 -0.18123585
000110 47 34 d2 3d 43 6a 56 be dc 61 8a be 33 d4 f4 bd
       0.10263877 -0.20938973 -0.27027786 -0.11954536
000120 2e aa 17 3e 82 f1 0a be 2a 9e 4a be a1 80 4b be
       0.14811012 -0.1356869 -0.19786897 -0.19873287
000130 74 d0 d2 bd 87 ee 2a bc 0b 69 fe bd 70 06 be bc
       -0.102936655 -0.010432846 -0.12422379 -0.023196429
000140 53 55 60 be cf 0e 2a be 2a ce 3e be 9a c3 33 bc
       -0.21907549 -0.16607212 -0.18633333 -0.010971928
000150 93 5e 05 3e 8e 19 99 3b 00 e9 13 be ee 75 79 bc
       0.13024358 0.004672236 -0.14444351 -0.015225871
000160 54 7c 9f 3c 7b 09 2a 3e da 06 42 3c 49 57 a1 be
       0.019468464 0.16605179 0.011842454 -0.31511906
000170 ab b8 59 bc 25 47 6f ba d5 b2 7b 3d fa 30 23 3d
       -0.013288657 -0.0009127728 0.061449844 0.03984163
000180 b1 30 01 3e 3f c0 71 3e fa 66 bd 3d 14 b2 12 be
       0.1261623 0.23608492 0.09248157 -0.14325744
000190 9a e6 42 bc 9b b8 d7 bc eb 4e a2 3d d4 5f 20 bd
       -0.0118958 -0.026333144 0.07925209 -0.03915389
0001a0 4e 03 fd bc 51 da 32 be a3 3f 8d 3c f5 56 0f 3e
       -0.030885365 -0.17466094 0.017242258 0.13998015
0001b0 ee ea 42 be c2 ab 79 3d 36 f9 21 3e bb 47 28 3e
       -0.19034931 0.060954817 0.15817723 0.16433613
0001c0 d3 cd 7c bd 19 da 7d bc 48 4b 1e 3d 52 bb 5e be
       -0.061719727 -0.015493893 0.038646013 -0.21751145
0001d0 db ea fd bd 1c 7c fb bd bf 8c 85 3d ed 30 0c be
       -0.12398311 -0.12279531 0.06520986 -0.13690539
0001e0 6b 2b 21 3b 5f 68 69 3d a5 72 87 3d 43 a6 c8 bd
       0.002459253 0.0569843 0.066136636 -0.09797337
0001f0 d5 98 e0 3d 80 cb 48 bd 01 84 8d be 56 f9 66 3c
       0.109666504 -0.049022198 -0.27639773 0.014097532
000200 e7 7f 2d 3e 55 05 2c 3e ab c3 89 3d 07 e9 18 3d
       0.16943322 0.16798909 0.06726774 0.037331607
000210 07 85 6d 3e 84 9e 8e bd 2f 40 56 3e a5 19 0d be
       0.23195277 -0.06963828 0.20922922 -0.13779314
000220 67 f8 bb be b9 a5 26 3d 3d 9e 1c be 8e 52 63 be
       -0.36712953 0.04068539 -0.15294738 -0.22199461
000230 96 aa 61 3c 83 35 29 be 6f b9 33 3e c5 60 f1 3d
       0.013773581 -0.1652432 0.17551206 0.117860354
000240 9f 65 0d 3e ef bc 8c 3d e9 8c 70 3e 9b a9 e4 ba
       0.13808297 0.06871974 0.23491253 -0.0017445566
000250 57 8b f1 be a5 bc b2 bc 4d f3 07 3d ed 93 86 3c
       -0.4717662 -0.021818468 0.033191014 0.016427958
000260 f2 32 fd 3d 85 7c 8b be a8 77 1a bc 14 2f 16 3e
       0.12363233 -0.27243438 -0.009427942 0.14666396
000270 94 e6 7b be 17 f5 04 3e a3 c4 79 3c 1b b1 b8 3b
       -0.24599677 0.1298412 0.015244636 0.005636347
000280 50 dd 02 bd bd 45 c0 bd 7d 7a 53 3d 8c b2 d0 3d
       -0.03194934 -0.093883015 0.051630486 0.10190305
000290 b8 03 25 be 77 89 a3 3e 41 6b 4b bd 54 2e e6 bd
       -0.161147 0.31940815 -0.049662832 -0.11239305
0002a0 a3 ee 16 bd cb f8 04 be 94 a5 16 bd a5 eb 5e be
       -0.036848675 -0.12985532 -0.036779 -0.21769579
0002b0 a2 c4 af bd 7d 3f 47 3d ed 44 1d 3d 2f d8 ff 3c
       -0.085824266 0.04864453 0.03839581 0.031231014
0002c0 8b 3a e7 bd 10 3b 3e 3e 33 d9 c0 be 59 3b 18 3b
       -0.11290463 0.18577218 -0.3766571 0.0023228733
0002d0 c0 ce 0f 3e 8b 09 06 be 12 8d 5e be 1b 1b 3d 3e
       0.14043713 -0.13089578 -0.21733502 0.18467371
0002e0 93 e6 3f be 76 3b f4 bd 0d 41 a5 3e 96 f7 c2 bd
       -0.18740301 -0.11925404 0.32276192 -0.095198795
0002f0 5a c4 b3 bd 2c 91 39 be 7e cd ba bd c5 64 23 bd
       -0.087776855 -0.18121785 -0.09121226 -0.039891023
000300 aa e4 d0 bd 08 93 53 bd 77 7d d7 3c 0d 26 4f 3b
       -0.10199864 -0.05165389 0.026304943 0.0031608373
000310 c9 82 13 bd c5 1c ff bc fe 9e 42 3d 75 0f 62 be
       -0.0360134 -0.031141648 0.047514908 -0.22076209
000320 52 f7 19 be 4a 35 20 3e 29 0a b2 3e 54 68 a3 3d
       -0.15035751 0.15645328 0.34773377 0.079788834
000330 ab a3 82 3d 00 c8 04 bd 59 69 fb bd 87 ba 1b bc
       0.063788734 -0.032417297 -0.12275953 -0.009504921
000340 6d 73 05 bc 61 cd f4 bd 07 15 84 3c c2 31 25 be
       -0.008145195 -0.119532354 0.016123308 -0.16132262
000350 9e 77 9a 3d e9 a3 bb 3c 17 a4 13 be 90 63 24 3e
       0.075423464 0.022905307 -0.14418064 0.16053605
000360 5e f3 d3 bd 93 e0 b8 be 7e 80 a1 3d b9 b0 86 bd
       -0.10349153 -0.36108837 0.07885836 -0.06576676
000370 03 de b8 bc 1e 1e 13 3b 70 45 cb bd c3 3f 9e bb
       -0.022566801 0.0022448371 -0.099253535 -0.0048293783
000380 47 d1 5b 3e 40 50 6c 3e 59 c0 84 bd 9b 5d 20 be
       0.21466552 0.23077488 -0.06482 -0.15660708
000390 da 36 01 be a4 9f c6 be 4a 2e b1 bd 7e c8 13 3e
       -0.1261858 -0.3879367 -0.08651407 0.1443195
0003a0 7a ac 1f be aa 98 8c bd 72 41 17 bd ff 1f e3 3d
       -0.15593138 -0.06865056 -0.036927648 0.11090087
0003b0 fc 63 ae bc c6 bb 53 bd 55 08 f2 bd 9c b9 30 3d
       -0.02128791 -0.051692747 -0.118179955 0.04314576
0003c0 19 60 aa 3d 97 98 9c bd 98 c6 0a be 5f 1c d4 3d
       0.083191104 -0.07646292 -0.1355232 0.10356974
0003d0 a4 cd fa 3d 67 3f 72 ba 2d bf a3 3d bd 97 99 be
       0.12246254 -0.0009241015 0.07995448 -0.2999858
0003e0 d0 60 02 3d de 3d d1 be 01 49 4f bd 2c 61 c2 3d
       0.03183061 -0.40867513 -0.05060673 0.0949119
0003f0 4c 85 a5 3d fe df 57 be 86 84 a7 bd c9 4d f3 bd
       0.08082065 -0.2108154 -0.08179574 -0.11880071

base.2linear.bias f4 [50]
000000 ae 7b 29 3d 54 d3 80 bc 41 d2 94 bd 82 3d 86 bd
       0.041377716 -0.01572577 -0.07266665 -0.065547004
000010 f5 36 ca 3c 5c 0a 6d bd e5 17 63 3d 47 5e 42 bb
       0.024684409 -0.057871208 0.05544271 -0.0029658244
000020 4e dd ef bd 52 66 95 3d 54 69 f3 3c a7 95 0d be
       -0.117121324 0.07294907 0.02971331 -0.13826619
000030 3d 15 8b bd 8c 1e 3a 3d 60 5b 1e 3e 3d c6 16 be
       -0.0679116 0.045439288 0.15464544 -0.1472406
000040 e5 9c bc bd 5e d3 08 3e 5d 84 9a 3d 13 a4 75 bd
       -0.09209613 0.1336188 0.075447775 -0.059970926
000050 e7 2c 3e bc a0 54 43 3e 11 83 3e bb 9b 24 37 be
       -0.011607385 0.1907525 -0.002906982 -0.17885058
000060 ae d6 82 3d d0 d5 6b bc 14 e1 f9 bc 4b f7 12 bd
       0.06388603 -0.014394239 -0.030502833 -0.03588037
000070 84 b1 eb 3d 02 54 b8 3c 73 e2 c4 bc 1f 23 47 3e
       0.11508468 0.022500996 -0.02403376 0.19446991
000080 17 a9 3c 3b b6 51 12 be 1b 5f 4e bd c4 4b d7 bd
       0.002878731 -0.14288983 -0.05038367 -0.10512498
000090 0d 62 3e bd 9f a3 98 3d aa 9b a8 3d 27 39 c6 3d
       -0.046480227 0.07453083 0.082328156 0.0967887
0000a0 c8 39 1b 3d cb e8 c2 bc fb a6 9f bc ce 29 d5 3d
       0.0378969 -0.023792645 -0.019488802 0.10408364
0000b0 8a 4f 89 bd c1 74 14 bd 3d 95 eb bc 91 93 56 3d
       -0.06704624 -0.036244158 -0.028757686 0.052386824
0000c0 1f 2a 47 3d a6 a7 bf 3b
       0.048624154 0.0058488427

base.3linear.weight f4 [50, 50]
000000 2e b2 00 3e 0d 8a 57 be b0 d0 c7 3e cd 65 6a be
       0.1256797 -0.21048756 0.39026403 -0.22890396
000010 16 46 d1 bd 7b 45 51 be a7 0c 64 be 12 54 aa bc
       -0.10218446 -0.20436661 -0.22270451 -0.020792041
000020 29 46 c2 bc 2b 15 ac 3d a7 92 bc 3c 0a 6c 07 be
       -0.023715096 0.08402475 0.023019148 -0.13224807
000030 37 d3 25 bd fb 8e 44 be 65 0f 97 be c2 74 36 be
       -0.040484633 -0.19195168 -0.29503933 -0.17817977
000040 8e 33 4d 3d ce 1d 89 3e 81 2e a9 bb f6 a7 a0 bd
       0.050097995 0.26780552 -0.0051630144 -0.07844536
000050 ea 32 3f 3e bd 43 06 3d 01 d2 b1 bc 4e d3 a5 be
       0.18671766 0.032779444 -0.021706583 -0.32387775
000060 d6 6a 45 3d 14 59 52 bd 22 1e 89 bd 6d f9 06 3d
       0.04819759 -0.051354483 -0.066952005 0.032952715
000070 ff 05 10 be 87 d7 0e bd 2b 88 a3 bd 20 5a 0d bd
       -0.14064787 -0.03487351 -0.07984956 -0.034509778
000080 6e 76 c4 bd a2 a0 3c bd 08 21 b4 bd 62 d5 99 be
       -0.09592901 -0.04605163 -0.08795363 -0.3004561
000090 1c 56 be 3e 99 ff 19 bd 37 37 ab be 7c e6 2f 3d
       0.3717507 -0.037597273 -0.33440563 0.042944416
0000a0 cf cd 06 bb 51 52 01 3e 12 2e 5f be 34 3c 96 be
       -0.0020569449 0.12629057 -0.21794918 -0.29342806
0000b0 c9 4e 6d bd 76 02 51 bc a3 12 29 bc e5 75 b1 bc
       -0.057936464 -0.012756934 -0.010319385 -0.021662662
0000c0 db 17 e2 3d 5f 13 28 3e 38 39 8c 3d f9 07 33 bd
       0.11039706 0.1641364 0.06846851 -0.043708775
0000d0 cf 5d 57 be c3 43 01 3d 79 f1 7a 3d 8c ed 0d bb
       -0.21031879 0.031558763 0.061265443 -0.0021656482
0000e0 a0 16 2e 3e d6 6b 23 3d e7 0a 4c be 8b f3 0d 3e
       0.17000818 0.039897762 -0.19926034 0.13862436
0000f0 f3 9a 7f 3d 1f a3 36 be 00 f2 4d bd f1 b8 be 3e
       0.06240363 -0.17835663 -0.050279617 0.37250474
000100 23 fe 9c 3e ec c2 90 be 89 8a 77 be 5b 7a 12 3b
       0.3066264 -0.28273714 -0.2417394 0.0022350762
000110 90 fe 84 3a f2 1c 63 bc a3 3e b6 3e 86 7e 0d 3f
       0.0010146666 -0.013861882 0.35594663 0.55271184
000120 5d 02 0e 3e 45 e2 21 be 40 e2 95 bd b1 c9 a1 3c
       0.13868089 -0.15808971 -0.073185444 0.019749494
000130 1d 51 15 3e 04 e3 7f bd 68 53 65 3e 4c 4d 37 bb
       0.14581724 -0.06247236 0.22395098 -0.0027969657
000140 e2 62 4b 3d b1 89 34 3d 05 1f 06 3e 11 50 6b be
       0.04965485 0.044076625 0.1309777 -0.22979762
000150 b8 dd 13 be 5d 54 34 bd d6 11 a2 bd 49 11 46 3e
       -0.14440048 -0.044025768 -0.07913558 0.19342531
000160 7a 3b 80 3e 3f c5 bc bd b9 c2 41 3e 0b 71 bf bc
       0.25045377 -0.09217309 0.18921937 -0.023369333
000170 14 b9 81 3e b0 19 1e 3f 4d d4 84 bd 7d 02 29 be
       0.25336516 0.61757946 -0.06485806 -0.16504855
000180 83 e2 91 bd e8 fd 8f 3e a3 96 fa 3c 2c ac 9c 3e
       -0.07123282 0.28123403 0.030589407 0.30600107
000190 c6 1d 7a 3d 7a e6 07 bd d8 94 b1 bd e9 aa 22 3e
       0.06106355 -0.033178784 -0.08670968 0.1588551
0001a0 7f b6 5f bd 55 58 84 3e e6 d9 86 3d 49 5f 8e bd
       -0.0546174 0.25848642 0.065845296 -0.06951768
0001b0 0f 8f 16 3e d4 0a 06 be 8a 94 b2 3d f2 a4 76 be
       0.1470301 -0.13090068 0.08719738 -0.24086359
0001c0 f5 ed e1 3d 1b 95 73 3e 37 04 3a be 39 13 0a 3d
       0.11031715 0.23787348 -0.1816567 0.03370974
0001d0 9f 5d 29 3d f2 9c fd 3d ce fa 56 bb f7 71 fe bb
       0.04134905 0.123834506 -0.00328033 -0.0077650505
0001e0 65 9c b4 3d 7d 0f 08 3e 0d 76 c7 bd ad db 01 3d
       0.088188924 0.13287158 -0.09739313 0.03170364
0001f0 e9 e4 12 bd 92 3d e7 bd e6 6d 47 be 28 93 5e 3d
       -0.035862837 -0.112910405 -0.19475517 0.054339558
000200 e0 8f 7a be e3 dc 96 bd 61 cc 83 bc ef 9d 05 3e
       -0.24468946 -0.073663495 -0.016088666 0.13048528
000210 5f 0b 82 be 45 75 60 be e6 dd 43 3e 5d 36 7b bd
       -0.253993 -0.21919735 0.19127616 -0.06133114
000220 b1 73 03 bd 59 8c 29 bd be c3 ad bd c0 97 6e 3d
       -0.032092754 -0.04139361 -0.084846005 0.05825019
000230 82 b5 05 3d da 60 8b bd 85 0f 0f be 75 3a 6e 3d
       0.032643802 -0.06805582 -0.13970764 0.058161218
000240 b7 3d 2e bd 84 6b 03 3e 2d be 8c 3d ac dc df bd
       -0.042539325 0.12833983 0.06872211 -0.10930762
000250 a1 30 db 3d 99 d1 ba bd d6 59 d0 bd 63 88 20 3d
       0.107026346 -0.09122009 -0.10173385 0.03919257
000260 ef bd 8f be 5d e2 8a be 64 e8 22 3e 79 3a 11 be
       -0.28074595 -0.27125826 0.15908962 -0.14182462
000270 a3 86 5a be 0e 4d bb bd 72 d0 37 be 48 59 68 3e
       -0.21340422 -0.091455564 -0.1795061 0.22690308
000280 f3 e1 e2 bd b8 c7 1f be 59 c8 71 be 80 8e 89 bb
       -0.11078253 -0.1560353 -0.23611583 -0.0041978955
000290 12 7b 81 3d d6 f7 ef be 1c 5a 84 bd 8e ef 45 3e
       0.06322302 -0.4686877 -0.064624995 0.19329664
0002a0 04 38 99 bc 81 4f 35 3e cc c9 35 3e 88 e1 20 bd
       -0.018703468 0.1770611 0.1775276 -0.039277583
0002b0 a4 5f 22 3e 61 51 0a 3c bc 7f 62 bb 59 a4 a6 be
       0.15856797 0.008442254 -0.0034561 -0.32547262
0002c0 a2 b8 8b be 99 99 ff 3d 1b d5 3f 3e 71 40 d7 3c
       -0.272893 0.12480468 0.18733637 0.026275845
0002d0 6f db 49 3c bd 44 2a 3f cf c7 db bd f1 2d 05 3c
       0.012320383 0.66511136 -0.1073147 0.008128629
0002e0 4d 6c 90 be 13 be 58 be 38 ed 15 3d 98 2b bb bd
       -0.28207627 -0.21166258 0.036603183 -0.09139174
0002f0 4d 5e 2e 3d f5 bc 5c 3e a5 63 7b be ec 67 91 bd
       0.0425704 0.21556456 -0.2454973 -0.070999
000300 f0 d1 51 be 47 c7 12 3b ce b5 15 3e e9 2b a3 be
       -0.20490241 0.002239661 0.14620134 -0.31869438
000310 76 64 f6 3d c2 ed a0 ba a0 c1 b7 3d 6a 89 bb 3d
       0.1203088 -0.0012277889 0.08972478 0.09157069
000320 7f 74 1e 3e ef ac b6 3c 43 ab 23 be f5 50 76 bd
       0.15474127 0.022299258 -0.159833 -0.0601358
000330 87 e0 98 3d 09 54 6a 3e a1 8e a8 3c ae c2 5e bd
       0.074647 0.2288362 0.020575823 -0.05438488
000340 3a 4c 63 bc 32 af 4d 3c 33 16 bf bd 27 2d 47 bd
       -0.013873154 0.012553977 -0.09330406 -0.048627045
000350 36 98 a8 bd fa 8b 2b 3d 2b b6 74 3d ef e4 fb bd
       -0.08232157 0.04188154 0.05974404 -0.12299525
000360 b8 4d 10 3e 09 e1 5e 3d a9 7c 15 3b 8f 3a 24 be
       0.14092147 0.05441383 0.00228099 -0.16037963
000370 0d ea 43 be c3 10 1a 3e 82 2b ad bd 50 2c 85 3b
       -0.19132252 0.15045457 -0.08455564 0.0040641204
000380 ad 29 de 3d 4a 9e 0d 3e d4 eb 18 be e5 3e 4e 3d
       0.10847793 0.13829914 -0.14933711 0.05035295
000390 cd c4 0f bd f3 a2 80 3d c4 c0 1a 3e de 4b 52 3e
       -0.035099793 0.0628108 0.15112597 0.20536754
0003a0 e0 e0 b4 be 62 2e 63 be 99 e5 e6 3d 1c fa ed 3d
       -0.35327816 -0.22185662 0.11274261 0.1161997
0003b0 6a a1 4a 3d 01 da 23 bd 72 00 91 bc 58 a5 a7 3d
       0.049470343 -0.040002827 -0.017700408 0.08185834
0003c0 e6 a2 15 be 06 45 ad bd 04 7b 66 bd 4c 37 e2 3d
       -0.14612922 -0.08460431 -0.05626966 0.11045703
0003d0 5c 16 81 3c 4e 29 9d 3d 8d e1 c4 3d fd 48 27 be
       0.015757732 0.07673894 0.09613333 -0.16336437
0003e0 44 73 08 be 38 91 78 3c b3 44 24 be 0e d7 e7 3d
       -0.1332522 0.015171342 -0.16041832 0.11320315
0003f0 6c 24 3f 3e 6e 58 6f bd 15 8b ce 3e 4b 4c ad 3d
       0.18666238 -0.058433942 0.40340486 0.08461817

base.3linear.bias f4 [50]
000000 95 73 44 3d 81 ba 26 3e 52 c7 62 bd 58 6d 08 3e
       0.04796179 0.16282083 -0.055365868 0.13322961
000010 1b b7 66 3b 69 32 a7 bc a8 4b dd 3d da f8 f3 3c
       0.0035204354 -0.02040978 0.10805446 0.029781748
000020 26 99 9c bb f6 39 2e bd 1b 95 7d bd 28 90 97 bd
       -0.004778999 -0.042535745 -0.061909776 -0.074005425
000030 7a cc 87 3d a9 a8 35 bd cd ef bd 3b 67 9e 2a bd
       0.06630798 -0.0443503 0.0057964087 -0.04165497
000040 4f b4 8a bd 7c 44 a0 bd 87 2c 04 be 19 4d 6b 3d
       -0.067726724 -0.07825562 -0.12907611 0.057446573
000050 15 13 b1 bc cc de aa 3b bf 63 ce 3c a6 49 93 3c
       -0.021615544 0.0052145477 0.025194047 0.017979454
000060 d9 51 1d bd e9 e9 94 3c 4e 63 60 bc ec 1f a1 3d
       -0.038408134 0.018177943 -0.013695551 0.07867417
000070 be 36 f1 3d e6 e3 ed 3c ec dd 1e bd 5a 28 d9 3d
       0.11778019 0.029039335 -0.03878586 0.106033996
000080 90 fa 7f 3d c5 ee 6b 3e 51 fd d2 bc 38 2e fc bb
       0.062494814 0.23040302 -0.025755556 -0.0076959394
000090 05 51 67 3d 0e 65 6d bd 3c a0 fb bd 8d 88 97 bc
       0.05647375 -0.0579577 -0.12286422 -0.01849773
0000a0 1d e4 55 bd 75 30 92 3b 84 ad 8f bd 8e 0e d5 bc
       -0.0522195 0.004461343 -0.07015517 -0.026007917
0000b0 7f 62 4a bd 2b 4b a0 bd d3 56 f7 bd 98 22 6f bc
       -0.04941034 -0.07826837 -0.12077107 -0.01459565
0000c0 f2 17 ad bc 44 64 6a bb
       -0.021129582 -0.003576533

base.4linear.weight f4 [50, 50]
000000 e5 ed 2f 3d 3c cb 48 be 32 55 1e bd 5e 6f 2a 3e
       0.042951483 -0.19608778 -0.038655467 0.16644046
000010 43 d2 4b be 5a b1 26 3e ee 91 11 be 49 3a da bc
       -0.19904427 0.16278592 -0.14215824 -0.02663912
000020 ff cb ef bd fe be 80 3e 4e b8 5b 3e 20 75 e9 bd
       -0.11708831 0.25145715 0.21457025 -0.11399293
000030 7e fc e2 bd ca 99 84 bc 1e fb ce be 8e a9 53 bd
       -0.11083315 -0.016186614 -0.40425962 -0.05167537
000040 4b b2 8c 3b 4f 4f 8c bd cd c4 63 be ce e6 a2 3d
       0.004293715 -0.068510644 -0.22243042 0.07954179
000050 29 e6 07 3e 27 a0 14 3e 01 16 ed bc 2b a5 0e 3e
       0.13271393 0.14514218 -0.028941156 0.13930194
000060 86 22 fe bd 38 a5 f6 bd 0a 39 66 be 32 2c 0d 3c
       -0.124089286 -0.12043232 -0.22482696 0.008616494
000070 01 1f 1e be de 8e 56 3d 7d 01 53 3e e0 e0 39 be
       -0.15441515 0.052382343 0.20606036 -0.18152189
000080 e5 d8 70 3d 16 3c 02 3e c4 c5 90 bd 1d 77 46 be
       0.058800597 0.12718233 -0.07068971 -0.19381376
000090 12 f7 cc bd 71 fa 80 bd f2 de ba 3c b1 66 a1 3d
       -0.100080624 -0.06297768 0.022811387 0.07880915
0000a0 ec 3d 5b 3e 23 8c 31 3e dc 85 aa 3e 0f 99 55 3d
       0.2141034 0.17338614 0.33305252 0.05214792
0000b0 bc 89 10 be f6 55 4c 3e 67 c9 2f 3e 85 1c 81 be
       -0.14115041 0.19954666 0.17166673 -0.2521707
0000c0 4e 5a a8 be f1 a0 be bc 85 d8 18 3e a6 77 b6 3e
       -0.32881397 -0.023270102 0.14926346 0.3563816
0000d0 30 7a 3d 3e 23 1f 6d 3e cd 80 17 3e 14 bd 9e be
       0.18503642 0.23156409 0.14795227 -0.3100363
0000e0 49 74 15 3d f0 d0 83 be 25 53 e6 bc 17 85 f3 3d
       0.03648785 -0.25745344 -0.028115818 0.11890619
0000f0 07 94 22 3d e7 69 c9 3d d4 53 83 3d 82 1d 98 3d
       0.03969195 0.098346524 0.06412473 0.07427503
000100 06 e2 bc 3e 70 69 e1 3d 2a da 27 3d f1 c6 bc bd
       0.36891192 0.11006439 0.04097954 -0.092176326
000110 c0 ef 63 3e 68 44 1c be b1 a4 90 3c e1 ff 52 bd
       0.22259426 -0.1526047 0.017656656 -0.051513556
000120 a8 84 24 3e 27 a2 64 bd fb bb 8b bc ba 63 b3 3e
       0.1606623 -0.055818703 -0.01705741 0.35037023
000130 1d 87 35 3d 0f eb bb be 92 ad 9b 3e f9 52 42 3d
       0.044318307 -0.36702773 0.3040586 0.04744241
000140 c3 86 a3 bd 50 1f 47 3e 99 e5 e1 bb c1 c0 3f bc
       -0.07984688 0.19445539 -0.0068938253 -0.011703671
000150 da 42 2b bd 2f 3e 9f 3d db 20 81 3e fb 8b ec 3d
       -0.0418118 0.077755325 0.2522038 0.11550137
000160 53 26 96 bd 1b 22 fe 3d 62 a2 25 3d 78 ee fe 3c
       -0.073315285 0.12408849 0.040438063 0.03111957
000170 a6 ae c0 be 1e 9c b1 3d f9 5a 2b 3e 92 e6 84 3e
       -0.37633246 0.08672355 0.16733922 0.2595716
000180 9a ad c0 be bd f8 a6 3d d9 ba fb bd de 27 ca bd
       -0.37632447 0.08152912 -0.12291498 -0.09870885
000190 3c 04 6c be ab c4 2e bd 91 9d e9 3c 51 25 56 be
       -0.2304849 -0.042668026 0.028517516 -0.20912673
0001a0 5c e4 b3 bd 68 63 74 bd 11 bf 5e bd 2a a6 33 3d
       -0.087837905 -0.059665114 -0.054381434 0.04385964
0001b0 da cb 35 3d 56 06 07 3c 9c 6d 14 be af fa 41 3d
       0.04438386 0.008241257 -0.14494938 0.04735821
0001c0 9e 50 2f 3e 45 8d 9b bd 53 8a 90 bd f7 76 8f 3d
       0.17120597 -0.075953044 -0.07057633 0.070051126
0001d0 ee 52 53 3e de ab 9f be 52 38 77 3e 22 27 62 bd
       0.20637104 -0.31185812 0.24142578 -0.0552131
0001e0 da 91 90 3e e6 a1 9a 3e e6 39 83 3e de 03 bd bd
       0.28236276 0.30201644 0.2563011 -0.09229253
0001f0 55 f6 a6 3e 6f e9 29 be 9b f7 01 3e a6 5d be bd
       0.3260981 -0.16592954 0.1269211 -0.09295206
000200 a7 db 08 be 41 39 6a 3e b3 a3 61 bd 66 45 07 be
       -0.1336504 0.22873403 -0.055087756 -0.13210067
000210 1f cb e3 3d fd 8e 6a bc f1 c3 9c 3d d2 39 95 bd
       0.11122727 -0.014316318 0.0765456 -0.07286419
000220 3d 9e 06 be 0d 85 62 3d f6 c9 9b 3e f9 28 38 3e
       -0.131463 0.05530267 0.3042752 0.1798438
000230 c1 69 ec bd 34 2e b9 bb ab cc 8e bb ab 2f 04 be
       -0.115436085 -0.00565126 -0.0043578944 -0.12908809
000240 18 48 94 3e 57 dd 11 3d d8 17 e2 bd c8 05 4d 3d
       0.28961253 0.035611477 -0.11039704 0.05005434
000250 3c 35 34 3e 3f 0a 80 3e b4 10 3e 3d 01 38 90 3c
       0.17598432 0.25007817 0.046402648 0.01760483
000260 ab bb fb bd 16 ed ad be 6b ee 62 be c6 2c d8 3e
       -0.12291654 -0.33969945 -0.22161262 0.4222166
000270 5f 37 b8 be 8f e0 eb bd 12 9e a0 3e f9 75 bb 3e
       -0.35979745 -0.115174405 0.31370598 0.36613443
000280 ff 68 ba 3c 64 64 9e 3e 0d b1 6b be 43 32 cb be
       0.022755144 0.30935967 -0.23016758 -0.39686784
000290 53 83 77 be df 9e 90 3e 15 30 4d 3d 39 90 5d 3e
       -0.2417119 0.2824621 0.050094683 0.21637048
0002a0 3a 3c 43 3e 42 9e 25 be 6b 04 95 3d 4a 9c 8a 3d
       0.19065943 -0.16173652 0.07276233 0.06768091
0002b0 79 ff d7 bd dc e6 4d bd 4f 14 59 3d d4 f4 3d 3d
       -0.105467744 -0.050268993 0.052997883 0.046376064
0002c0 c0 9a 93 3e e0 13 1f 3d 2a a1 dd 3c 38 00 a4 3e
       0.28829002 0.038837314 0.027054388 0.32031417
0002d0 0c 8d 29 3e 9f 76 5a be fe 96 c7 bd ad c4 ac be
       0.16557711 -0.21334313 -0.09745596 -0.33743802
0002e0 7e f5 2b 3d 67 58 88 be a8 28 17 bd 1e 0c 2c 3e
       0.041982166 -0.26629946 -0.036904007 0.16801497
0002f0 1d e0 9c 3e 18 55 8b 39 0c 63 4b 3e 24 7e 1c be
       0.30639735 0.00026575546 0.19862002 -0.15282494
000300 41 81 83 3d 7c ba 04 be 0e f0 bc 3e aa 3a d6 3d
       0.064211376 -0.12961763 0.36901897 0.10460408
000310 bf 11 df 3d 87 df e0 3e 19 60 76 bd b0 b7 98 bd
       0.10892057 0.43920538 -0.06015024 -0.074569106
000320 ce 72 5a bb a8 85 d7 3b 4e 08 c3 3e 67 ec 50 be
       -0.003333259 0.0065772124 0.38092273 -0.2040268
000330 1e 64 a4 be de 61 a1 3e 1b 9d eb bd 11 2f 43 3e
       -0.32107633 0.3151998 -0.11504575 0.19060923
000340 b1 a5 42 bd 7a f3 f0 3e a5 ab 08 3d 9c e5 d3 3e
       -0.047521297 0.47060758 0.033366818 0.41386116
000350 6c d9 21 be f0 53 85 bd b2 81 92 be c7 84 76 3f
       -0.15805596 -0.065101504 -0.28614575 0.9629635
000360 be 3d 03 3e 39 e6 d7 3e 11 0a 54 3f 6f 64 e7 bd
       0.12816522 0.42167833 0.8282786 -0.11298453
000370 ff 07 c6 ba e8 77 7f 3d 8a 48 b2 3e 52 10 f4 bc
       -0.0015108584 0.06237021 0.34820968 -0.029792938
000380 af ec 95 3e c8 0a b2 be 8b c2 47 bc 31 57 33 be
       0.29282138 -0.3477385 -0.012192379 -0.1751373
000390 91 20 84 be f7 af 4e 3d 81 c2 38 3f 31 34 7d be
       -0.25806096 0.050460782 0.7217179 -0.2472694
0003a0 32 22 52 bf 90 8b a2 bf 10 44 a7 3f c2 1b 22 be
       -0.8208343 -1.2698841 1.3067646 -0.15830901
0003b0 70 c6 6c be b6 4a f3 3d 72 9b e5 3d f1 48 15 3e
       -0.23122573 0.11879484 0.112112895 0.14578606
0003c0 dd f9 03 3f 57 2d 36 be 1f 3f e6 bc 99 97 76 bc
       0.51553136 -0.17790733 -0.02810627 -0.015050792
0003d0 27 96 6b 3e af 5a eb 3e b3 fd ef 3e d8 04 7b 3e
       0.23006497 0.45967624 0.46873245 0.24513566
0003e0 43 12 ea bd 13 fb a4 3e 9a 9b 94 bd 6a 7b d0 be
       -0.114292644 0.32222804 -0.07256241 -0.40719157
0003f0 b3 a2 b3 3e 61 67 d1 bd 6a 11 ff bd 8e ab 3d be
       0.35085067 -0.10224796 -0.12454493 -0.18522474

base.4linear.bias f4 [50]
000000 28 7f 1a bd 70 eb df bc 4a ff 1d bc b5 7a e6 bd
       -0.037718922 -0.027333945 -0.009643385 -0.11253873
000010 c1 6c 16 bf e3 a0 04 bd 3f 81 3c bb 32 1a 2a 3d
       -0.58759695 -0.032379996 -0.002876356 0.041528888
000020 ac 0d 14 3d 3a 23 62 3d e2 27 45 3d 3d 27 ee 3d
       0.03614585 0.055209376 0.04813374 0.11628578
000030 34 96 5a 3b a7 61 e1 3d 2c 0e dc bd 4c f7 76 3c
       0.0033353688 0.11004954 -0.107448906 0.015073609
000040 92 73 23 3d 0d 4c bd bc 90 41 0e 3d a2 b6 ea bd
       0.03990514 -0.023107553 0.034730494 -0.11460616
000050 6b 65 b4 bd 30 4c 1b 3d 71 10 a1 be 43 5a 96 bd
       -0.088084064 0.037914455 -0.31457856 -0.07341435
000060 a4 0c e8 3b 05 09 81 bb 1a a2 a8 3c cc c0 8a bd
       0.007081585 -0.003937843 0.020585109 -0.06775054
000070 21 7d c2 3d 24 6b 78 bd b6 df 43 3d ce 2f 8a bd
       0.09496523 -0.060649052 0.04782077 -0.06747399
000080 17 1f 98 bb d0 00 14 bd f0 0e 32 bd 9b 01 46 ba
       -0.004642378 -0.036133587 -0.043471277 -0.000755334
000090 83 ba 76 3d 2a 8f c3 bd e4 02 ab 3c d8 bd 4b bc
       0.060236465 -0.09548791 0.020875402 -0.012435399
0000a0 01 14 7c 3d cb 53 43 3c 83 94 18 3e 3e c2 87 3d
       0.061542515 0.011921833 0.14900403 0.06628846
0000b0 ed 9a 99 3c 22 52 80 bd 88 cc fd 3d a9 e5 06 3e
       0.018750632 -0.062656656 0.12392527 0.13173546
0000c0 50 6f 78 bc b3 39 01 bd
       -0.015163258 -0.031549167

base.5linear.weight f4 [50, 50]
000000 52 52 32 3e 61 2f 90 be 2c 71 a9 be 7a 2a 4f bd
       0.17414215 -0.28161147 -0.33094156 -0.05057762
000010 38 4d de 3c 75 aa 9a 3c 23 50 b5 be 82 a8 90 be
       0.02713643 0.018880108 -0.35412702 -0.2825356
000020 12 e4 a2 3e ed 27 a7 3d a6 db 1f bd 44 d8 f5 3c
       0.3181463 0.08161912 -0.039027832 0.03001035
000030 28 80 87 3d e5 7e 38 3e 0c 5e 77 bd 1e ba bd 3b
       0.06616241 0.18017156 -0.060392424 0.005790009
000040 ab 63 0b 3e 6c 08 84 bd 19 52 69 bc c7 60 58 be
       0.13612239 -0.06446919 -0.014240765 -0.21130668
000050 5e b5 e0 bc da 13 5e be 76 d3 bf bc 97 4c 2c be
       -0.027430233 -0.2168726 -0.023416262 -0.16826092
000060 1e ce 4c 3e 44 35 31 3e e9 02 38 bd 4b fe eb bd
       0.20000502 0.17305475 -0.04492465 -0.11523112
000070 59 e0 b1 bd 62 c5 9c bb 39 ff 82 3d 5e 60 ff 3c
       -0.08685369 -0.004784272 0.06396336 0.031173881
000080 de 3e 1e 3e 5a 25 86 be 62 5a d8 bd e6 93 89 3d
       0.1545367 -0.26200372 -0.10564114 0.067176625
000090 67 8f 9a 3e d1 ff bd 3c 92 6c c3 3d ff d9 b0 bc
       0.30187532 0.023193272 0.095421925 -0.021588324
0000a0 18 2c 02 3c 66 4f ac 3e f9 84 44 be c7 84 05 be
       0.007945083 0.33654326 -0.1919135 -0.13038932
0000b0 a7 57 cc 3d c8 21 e0 3a 40 2e bf 3d b8 06 6b 3e
       0.09977656 0.0017099911 0.09334993 0.22951782
0000c0 24 42 24 be 7f cd e3 3d 30 5c 3f bc cf 0b 3e be
       -0.16040856 0.1112318 -0.011679694 -0.18559192
0000d0 ba 97 a5 3e 96 66 61 3e 9e 47 df 3c 25 24 8c 3d
       0.3234232 0.2201179 0.02725583 0.068428315
0000e0 37 9c 73 bd 6d 11 09 be a6 6d 01 be 4c 2f 01 be
       -0.05947515 -0.13385554 -0.12639484 -0.12615699
0000f0 44 fa 05 3d 55 e4 7f bd 1d f7 2c be 51 9a 0c 3f
       0.032709375 -0.062473614 -0.16891141 0.5492297
000100 a4 d2 1d 3e cc 84 19 3e f6 37 2a be 66 0a 7e 3d
       0.15412384 0.14992064 -0.1662291 0.062021635
000110 56 6d d1 3d 37 b9 09 3f a3 f0 a6 3d 25 3e b6 3e
       0.10225932 0.5379824 0.081513666 0.35594288
000120 50 b8 1f bd b2 b4 96 3d 0f dc 1f 3e ac 2c 47 bb
       -0.038994133 0.07358684 0.1561129 -0.0030391617
000130 96 9e 81 bd 7f 1d fa 3d c1 4b 42 3a 58 2f 0e 3e
       -0.06329076 0.12212657 0.0007411801 0.13885248
000140 49 8f b9 3d ef 76 5c bd 8d 41 9a 3e 82 ca 1d bd
       0.090605326 -0.05382436 0.30128136 -0.038523205
000150 75 b3 ba 3c e7 ac 97 bd 8f bd 83 3e 37 ec 0c be
       0.02279065 -0.074060254 0.2573056 -0.13761984
000160 9b 05 8d bc b1 af c8 3d d2 87 a6 bc 60 db 4c bd
       -0.017214587 0.097991355 -0.020328436 -0.0500139
000170 65 03 c9 bd 3d 8e 3f 3e b0 98 82 3d 36 ec a8 bd
       -0.098151006 0.18706603 0.06376779 -0.08248179
000180 30 db 1e be 42 3d 6e bd 3c 7a 0c 3d e5 1e 24 3e
       -0.15513301 -0.05816389 0.03429626 0.1602741
000190 73 c5 c3 bd 02 31 b2 3e de c8 34 be 64 a9 47 be
       -0.09559145 0.34803015 -0.1765475 -0.19498211
0001a0 47 91 c3 bd de 41 2d be 57 9f 69 3e e8 82 13 bc
       -0.09549194 -0.16919658 0.2281469 -0.009003378
0001b0 c9 b3 ba bc b3 1e 33 be 30 06 16 3e d0 e3 39 3d
       -0.022790806 -0.1749218 0.14650798 0.045383275
0001c0 de 9d b8 3d 89 af 3b bd 3f b1 03 bd 90 92 ca 3d
       0.09014486 -0.0458217 -0.032151457 0.09891236
0001d0 5c ae b5 bd e7 ce 30 3d 9e da 80 3b 4c 8e 1e 3e
       -0.08871147 0.043166067 0.003932311 0.1548397
0001e0 35 96 4f bf 85 a2 85 bc 2a 94 99 be 73 c6 5b 3d
       -0.8108857 -0.016312847 -0.29995853 0.053656053
0001f0 03 53 7b bd bf 1f 03 be de bd 84 3d 63 79 42 3e
       -0.061358463 -0.12805079 0.06481527 0.18991618
000200 48 18 f2 3d c8 a1 b0 bc d8 b9 2e 3e af 4a df 3d
       0.118210375 -0.021561518 0.17063081 0.10902917
000210 8e e4 9a bd e4 ce 36 3e 52 eb 99 be 30 6c 62 be
       -0.075631246 0.1785236 -0.30062348 -0.22111583
000220 12 82 ff 3d 27 47 10 3e 2e 39 0c 3d c3 e2 ab 3e
       0.12475981 0.14089642 0.03423422 0.33571443
000230 18 9f 4d 3e 1b 55 2e be aa f8 37 3e 83 dd 54 be
       0.2008022 -0.17024653 0.17965952 -0.20787625
000240 d1 25 19 be 45 56 08 bd 11 23 fd 3c c9 db 00 be
       -0.14955832 -0.033285398 0.03090051 -0.12583841
000250 9f 86 13 bc 4d 09 05 3e 86 f0 86 be 07 64 ca 3e
       -0.009004264 0.12991829 -0.2635538 0.3952944
000260 e2 76 b0 3d 94 7d 94 bd 1b 52 0a be 42 09 4f be
       0.08616425 -0.072505146 -0.13507883 -0.20218375
000270 f1 87 de 3d 94 2b c5 3d 2c ed 8c be c3 e0 e1 3d
       0.108657725 0.096274525 -0.27524698 0.11029198
000280 96 39 ab bd 62 55 05 bd cc 6b 42 be dc f4 9d bd
       -0.08360593 -0.03255213 -0.18986434 -0.07712719
000290 6f af aa 3e 33 a5 cf bd fe f1 4f be 3b ab 28 be
       0.3333697 -0.10138931 -0.20307156 -0.16471569
0002a0 71 64 2b be b7 ab fa bb d8 e0 e9 be 29 b5 19 3e
       -0.16737534 -0.0076498645 -0.45679355 0.15010513
0002b0 d3 40 8b be ed 71 2c be 84 6a a2 bd fc 8c c9 3d
       -0.27197894 -0.16840334 -0.079304725 0.09841344
0002c0 c6 9a 35 3e 5e 2a 1c 3e e3 fa 20 bd 9d 1e 8b 3c
       0.17734823 0.15250537 -0.039301764 0.016982371
0002d0 75 fe b0 bd eb f0 29 be a5 62 9b 3d d2 69 36 3e
       -0.08642284 -0.16595809 0.07587174 0.17813805
0002e0 d4 7a 5e 3c f9 9b 92 3e 9a 00 05 3e 1c ae ae 3b
       0.013579089 0.28634623 0.1298851 0.005330814
0002f0 0c 40 1e be 8b 05 bb 3d d3 10 01 3e 8c c2 89 bd
       -0.1545412 0.091319166 0.12604074 -0.0672656
000300 6e 40 46 3e a5 92 b6 3d d1 37 2e bd 08 c6 f2 3d
       0.19360515 0.08914689 -0.0425337 0.11854178
000310 40 68 eb 3d ce 7d 36 3e 2d 96 54 be e4 0e 0b 3e
       0.114944935 0.17821428 -0.20760413 0.13579899
000320 15 4a b5 bd 16 10 57 bd 98 b0 13 3e f6 91 35 bb
       -0.08852021 -0.052505575 0.14422834 -0.0027705408
000330 2c 11 13 3e 86 e2 c7 3c 0d 48 a9 3e e5 64 b2 be
       0.1436202 0.024400007 0.33062783 -0.348426
000340 0a 6d 25 3c f9 8b 61 3d 18 fc 89 3c 8e 88 78 be
       0.010096798 0.05506513 0.01684384 -0.24270841
000350 25 17 7b 3b d1 af 94 3d d9 11 8b be 4d 8f 5a 3e
       0.0038313356 0.07260097 -0.27162054 0.21343727
000360 2e bd 2d be 3f c7 a0 3e 4c f5 20 3e ae 9c d8 bd
       -0.16966698 0.31402013 0.15718573 -0.10576759
000370 1b ac 92 bd 79 3a f1 bd f4 20 c0 3d fc 38 84 3d
       -0.07161733 -0.11778731 0.09381285 0.064561814
000380 d0 8e c3 bd 42 d2 e7 3d a9 e0 14 3e 88 2a b1 39
       -0.09548724 0.113194 0.14538826 0.0003379176
000390 11 ba 7a bb a6 d2 44 3e 74 95 3c bd 30 2f 5b 3e
       -0.0038257877 0.19220981 -0.046040967 0.2140472
0003a0 c6 49 50 3d d3 5b 11 bd 7a dd 46 3d 9d 6f f1 3d
       0.050851606 -0.03548796 0.04855106 0.11788867
0003b0 91 5f b0 be bd ae 6f 3d 64 df 87 3e 24 ce 49 3e
       -0.3444791 0.058516253 0.2653762 0.19707543
0003c0 dc 0b a0 3e a0 e3 89 bd 9c 8a ba 3d 8c 86 10 3e
       0.31259048 -0.06732869 0.09108469 0.14113826
0003d0 30 e2 d9 bd eb 2e a4 3d 23 72 a2 bc 76 78 24 3b
       -0.10638845 0.080167614 -0.019829815 0.0025096214
0003e0 d0 95 29 3d 0c 8b 39 be 6d 06 e9 3d 2f 97 1e be
       0.041402638 -0.18119448 0.11378179 -0.1548736
0003f0 72 25 77 3d 64 ba 98 bd b9 ee 69 3e e4 a5 9b 3d
       0.060338445 -0.07457426 0.22844972 0.076000005

base.5linear.bias f4 [50]
000000 6d 95 97 bb 76 97 2b 3d c9 07 c5 3a 24 0c 7f 3c
       -0.0046259672 0.04189249 0.0015032227 0.015566859
000010 d2 a4 1b 3d f6 d9 39 bd 98 95 c6 3b d5 54 17 bd
       0.03799898 -0.04537388 0.0060603134 -0.036946137
000020 fb 28 8f 3c 47 ba 1c 3b 99 13 18 3e 94 2c 05 be
       0.017475596 0.002391474 0.14851226 -0.13005286
000030 c7 c9 b3 bc 8c 1d f7 3c a9 5d 3a 3b f4 96 88 bd
       -0.0219468 0.030165456 0.0028437173 -0.06669417
000040 b6 cb 71 bd 31 eb 52 3d 6c c8 ce ba bc f7 73 bd
       -0.059032165 0.051493827 -0.0015776283 -0.05956243
000050 76 30 24 bd 65 9a b3 3b a8 67 00 3d 97 e8 b8 3d
       -0.04008528 0.0054810517 0.031348854 0.09028738
000060 ee 0d 0f bd 65 5b d8 bc 2d d2 21 3c 24 80 b7 bd
       -0.034925394 -0.026410768 0.00987677 -0.08959988
000070 11 d5 be 3a 0b e6 06 3d 38 2a 64 3d 9a 2b f1 3d
       0.0014559348 0.03293423 0.055704325 0.117758945
000080 b3 6a 07 3b 67 d9 03 3d e0 c0 8f bd 27 70 08 3c
       0.0020662963 0.032189753 -0.0701921 0.00832752
000090 db 5a 03 be 4b 16 20 3e dc ce 7e 3d 87 61 9a 3d
       -0.12827627 0.15633504 0.062208995 0.07538133
0000a0 3b f9 dd 3c dc 66 06 bd 01 03 e8 3c 51 3b 44 bc
       0.027096381 -0.032812938 0.028321745 -0.011977033
0000b0 8d 65 8f 3d 46 a8 0d 3d 79 bd a3 bc ba 87 c2 3c
       0.07001791 0.034584306 -0.019987809 0.02374636
0000c0 66 ef 95 3d 1f 62 65 be
       0.07321052 -0.22400711
