STPINN-RANS/sub_data/sub_write/10NS_model_train.pt (torch, 100283 bytes, 22 tensors)

base.0linear.weight f4 [50, 3]
-0.21974824 -0.05265756 0.19328055 -0.19096944 0.22596827 0.1314556 -0.3330171 -0.34017226
0.053728595 0.15010789 0.12180577 0.018396612 -0.035582263 0.14144556 -0.016849535 0.13329598
-0.27917722 -0.20150144 0.0019226833 -0.0021648703 -5.7826615e-05 0.22381526 0.04913224 -0.10636076
-0.006237557 -0.048072122 -0.050503984 0.1588734 0.108820446 -0.30407345 -0.14905712 0.04342884
-0.033727594 -0.21652047 0.22063658 0.11795056 -0.25107267 0.07865859 -0.04328826 0.08401398
0.32844347 0.19190776 0.075453505 0.35398227 -0.24640962 -0.20860872 -0.42484125 0.13207734
0.15389305 0.061852075 -0.065338574 0.19964974 -0.33794636 -0.2269003 0.047559936 -0.08332816
-0.11049473 0.09969807 -0.19201396 -0.3582931 0.2567349 0.2303931 -0.29901338 0.00047127274
-0.014034836 -0.051122073 0.076407604 0.016041543 -0.27921242 -0.003690292 0.16347058 -0.28572333
-0.035157464 -0.2571714 -0.113125116 -0.078923926 -0.062055074 0.1475236 -0.3193928 -0.06996119
0.16246295 -0.23472835 -0.14594172 0.08576536 0.10078883 -0.042495698 -0.29214254 0.18348636
-0.24378645 -0.2510514 0.18118355 0.20364688 0.16452207 -0.2581556 0.093765676 0.459375
-0.25057828 -0.17547485 0.3132947 -0.17180252 0.5104775 -0.17427836 0.19920796 -0.013043537
-0.06429844 -0.00128166 0.3596603 0.06646491 0.065916985 0.047142155 -0.28960255 0.21825989
0.63775045 -0.23429388 -0.036108468 -0.5492582 -0.04897425 0.059823167 -0.11695752 0.23651277
0.053719025 0.35931817 -0.16029146 -0.00216287 0.00020147835 0.001620791 0.10926234 -0.13695893
-0.26152718 -0.49914226 0.04159542 0.19870283 0.16313955 -0.05310352 0.102053046 0.2008933
-0.15369824 -0.23991051 -0.00059717696 5.4305874e-05 0.0010184351 0.08894028 -0.118350424 -0.11824937
-0.13410926 0.15290166 -0.11797234 0.06923308 0.3639038 -0.077781156
00000000: af05 61be 74af 57bd 56eb 453e 7e8d 43be
00000010: 3a64 673e 4c9c 063e 3881 aabe 0f2b aebe
00000020: 8412 5c3d e2b5 193e 4e75 f93d 7eb4 963c
00000030: b5be 11bd 1bd7 103e 0908 8abc be7e 083e
00000040: 51f0 8ebe 6556 4ebe 8c02 fc3a 7fe0 0dbb
00000050: db8a 72b8 d42f 653e e33e 493d acd3 d9bd
00000060: 6c64 ccbb 46e7 44bd 44dd 4ebd b5af 223e
00000070: 41dd de3d 84af 9bbe 6ea2 18be 70e2 313d
00000080: f225 0abd 8bb7 5dbe 8eee 613e 1090 f13d
00000090: 998c 80be c117 a13d 084f 31bd 860f ac3d
000000a0: be29 a83e 7883 443e 5e87 9a3d 2a3d b53e
000000b0: ce52 7cbe 869d 55be cb84 d9be 483f 073e
000000c0: 2496 1d3e 9a58 7d3d 3bd0 85bd fb70 4c3e
000000d0: 4e07 adbe 8d58 68be 35ce 423d f4a7 aabd
000000e0: 104b e2bd 802e cc3d 4f9f 44be 3172 b7be
000000f0: c272 833e 2bec 6b3e 4818 99be 2815 f739
00000100: 5ef2 65bc 6165 51bd 977b 9c3d 8e69 833c
00000110: eef4 8ebe d3d8 71bb d564 273e 544a 92be
00000120: 4601 10bd f8ab 83be 24ae e7bd dea2 a1bd
00000130: 762d 7ebd 6d10 173e 7487 a3be d047 8fbd
00000140: b05c 263e a15c 70be bf71 15be c0a5 af3d
00000150: 606a ce3d f80f 2ebd b593 95be d9e3 3b3e
00000160: 28a3 79be cf89 80be 2e88 393e cf88 503e
00000170: 7978 283e f92c 84be 3808 c03d 3333 eb3e
00000180: cc4b 80be aeaf 33be 2a68 a03e 00ed 2fbe
00000190: a7ae 023f 0776 32be 2cfd 4b3e 8fb4 55bc
000001a0: e7ae 83bd 60fd a7ba 6525 b83e c11e 883d
000001b0: 7cff 863d 2218 413d c946 94be 857f 5f3e
000001c0: 9d43 233f bcea 6fbe 79e6 13bd 2f9c 0cbf
000001d0: 3999 48bd 2309 753d 6d87 efbd 6730 723e
000001e0: 7b08 5c3d 8df8 b73e 7223 24be f0be 0dbb
000001f0: ef43 5339 b970 d43a efc4 df3d f63e 0cbe
00000200: e4e6 85be 938f ffbe f65f 2a3d c178 4b3e
00000210: 0e0e 273e 1483 59bd 3001 d13d f9b6 4d3e
00000220: 1263 1dbe 1aab 75be de8b 1cba 7dc6 6338
00000230: 037d 853a 5226 b63d b561 f2bd ba2c f2bd
00000240: f053 09be 4192 1c3e 7b9b f1bd 13ca 8d3d
00000250: 9951 ba3e ba4b 9fbd

base.0linear.bias f4 [50]
-0.029160881 0.020873336 0.045466963 -0.09258929 0.018994955 0.08047195 -0.0017852468 -0.03730762
0.037421588 -0.034666296 0.1184798 0.032772917 0.18895149 -0.09670634 0.05056818 0.039750684
-0.06353765 0.07137049 0.03066931 0.07857171 -0.024822546 0.027900603 0.08610921 0.06989298
-0.08628571 0.029071026 -0.035989918 0.05983668 0.108385354 0.03947594 -0.1668824 -0.08257079
-0.040039286 0.013379894 -0.119007535 -0.08682001 0.054683574 -0.07261179 0.048687626 -0.19066101
0.048356354 0.0001299385 0.03781455 -0.03194149 -0.06528795 0.030260155 -0.00029652985 0.0349587
0.12177327 -0.059961505
00000000: cde2 eebc 8ffe aa3c 913b 3a3d 749f bdbd
00000010: 4f9b 9b3c 7ace a43d f1fe e9ba e0cf 18bd
00000020: 6147 193d 3ffe 0dbd 8aa5 f23d e53c 063d
00000030: 807c 413e f90d c6bd 9420 4f3d 9dd1 223d
00000040: 0720 82bd b12a 923d 343e fb3c 34ea a03d
00000050: a758 cbbc ce8f e43c 075a b03d 0d24 8f3d
00000060: 90b6 b0bd 5c26 ee3c 2a6a 13bd 4e17 753d
00000070: 24f9 dd3d 86b1 213d 38e3 2abe e01a a9bd
00000080: 3c00 24bd 5837 5b3c 39ba f3bd b0ce b1bd
00000090: e2fb 5f3d 7db5 94bd ad6c 473d a43c 43be
000000a0: 5011 463d 1a40 0839 6ee3 1a3d 14d5 02bd
000000b0: b0b5 85bd 25e4 f73c 9077 9bb9 db30 0f3d
000000c0: 4464 f93d 329a 75bd

base.1linear.weight f4 [50, 50]
-0.18127853 0.05079251 0.20863307 -0.021563381 0.13752055 -0.017653462 -0.06269931 0.035357803
-0.04305117 -0.012905 -0.014341612 -0.10979064 -0.29265437 0.011311178 0.12001523 0.0880911
-0.019581698 0.04882167 -0.05470768 0.25817135 0.018598959 0.11625306 0.21580568 -0.09592076
0.028497532 0.0449992 -0.09767504 0.19874582 -0.08295976 -0.0889835 -0.07810094 -0.17891207
0.19525546 -0.20201325 -0.20609199 -0.0023949826 0.13436744 0.2491893 -0.2088725 0.112893194
0.13424604 -0.1917041 -0.089673065 0.26242688 -0.022471068 -0.01831106 -0.013974771 -0.1414448
0.10649626 -0.094691254 0.017910939 0.33361784 -0.39487508 0.15293543 -0.16864291 -0.1989535
0.060958803 0.009919664 -0.17307 -0.023377493 -0.036247637 0.021302745 -0.2580664 0.050387293
0.0028847337 -0.10082565 0.053680006 -0.10621014 0.24407466 -0.1682771 -0.16632189 -0.09024853
-0.20363456 -0.06346773 -0.085147955 -0.17817774 0.09438032 -0.22185227 -0.000404542 -0.056414824
0.15194269 0.13361515 -0.24708438 0.12495153 0.13497454 0.43712065 0.076111466 0.2124578
-0.34054336 0.25698543 0.17934327 0.007910143 0.09270758 -0.22881964 -0.14189458 -0.0179645
0.028302869 -0.28686714 0.0975303 0.030834386 -0.19979364 0.08013242 -0.09734885 0.16755342
0.11436306 -0.15283164 0.09730861 0.12851432 0.047163617 0.015480531 -0.18920274 0.25347015
-0.101550154 0.17322712 0.16457027 -0.061026014 0.19292018 0.1946048 -0.3029226 0.09906031
-0.13322785 0.14244033 0.06072678 0.0037091174 -0.13230892 -0.03427591 -0.15208246 -0.36093336
-0.13567604 0.09474617 0.07111999 -0.35528708 -0.2376026 -0.13722324 0.14514834 0.095118366
-0.039212238 0.07169687 -0.1356089 -0.08455176 -0.06536928 -0.11082215 -0.17641395 -0.43598282
0.13847438 0.08607296 -0.1107668 0.21810001 -0.14345086 -0.019892884 -0.041530963 -0.13773209
-0.023131333 -0.009142899 -0.01917222 -0.22549331 0.1483614 -0.056899227 -0.009431811 0.17864968
0.04696072 0.18611956 -0.020799013 -0.07922662 0.21211772 -0.3409725 -0.1966298 -0.0815366
0.057378322 -0.097899035 -0.24415684 0.046470325 0.16020897 0.017912887 0.0063103433 -0.26598433
0.0074014245 0.021039495 -0.24604215 -0.23785666 -0.03701135 -0.033606637 -0.10478595 0.17977713
-0.15845211 0.07872294 0.09046914 0.14945802 -0.040708207 -0.007313245 0.18094759 -0.123781994
0.031468242 0.026615724 -0.052195802 -0.05904797 -0.013635276 -0.1401733 -0.10072134 -0.06979848
0.57135755 0.19569775 -0.07095045 0.046052355 0.533611 -0.41156211 -0.012256663 -0.26383674
0.003624081 -0.078369185 0.056482572 0.19330485 0.15186621 -0.03917337 0.044840496 -0.006195649
-0.09424114 -0.18927872 -0.076776884 -0.14632867 -0.16482924 0.075536184 -0.09175524 -0.14766742
0.3075929 -0.23746353 0.45788705 0.22916694 -0.17792323 0.03435276 0.13947879 0.19351055
0.3182137 0.06946125 0.04101299 0.31530455 0.03294589 -0.023865439 0.19945367 0.024466688
-0.25190273 0.04284319 -0.092813976 0.48255265 -0.42810288 -0.037362646 -0.023544768 -0.09336606
-0.030368298 0.06190584 -0.006301576 -0.21572906 0.087346196 0.11347106 0.12303892 -0.25628012
00000000: 14a1 39be cf0b 503d e8a3 553e b0a5 b0bc
00000010: 30d2 0c3e fe9d 90bc 7f68 80bd 58d3 103d
00000020: 6c56 30bd 7e6f 53bc 15f9 6abc ead9 e0bd
00000030: cbd6 95be 8552 393c 8bca f53d 1b69 b43d
00000040: cc69 a0bc 3bf9 473d 2915 60bd 092f 843e
00000050: d85c 983c 1616 ee3d 2afc 5c3e 1a72 c4bd
00000060: a873 e93c 1551 383d da09 c8bd 0684 4b3e
00000070: cfe6 a9bd fb3c b6bd 63f3 9fbd ba34 37be
00000080: 0cf1 473e 90dc 4ebe c709 53be 24f5 1cbb
00000090: 9e97 093e 7b2b 7f3e ace2 55be 8c34 e73d
000000a0: cb77 093e 144e 44be 83a6 b7bd d15c 863e
000000b0: 3f15 b8bc 1301 96bc 70f6 64bc e8d6 10be
000000c0: b61a da3d 7ded c1bd f6b9 923c f5cf aa3e
000000d0: 112d cabe 1b9b 1c3e bab0 2cbe 77ba 4bbe
000000e0: f0af 793d 1686 223c 4339 31be 2882 bfbc
000000f0: 6778 14bd 1883 ae3c 4721 84be e862 4e3d
00000100: cd0d 3d3b ae7d cebd 91df 5b3d b484 d9bd
00000110: b5ee 793e d550 2cbe 4950 2abe 39d4 b8bd
00000120: 9485 50be 5ffb 81bd 0d62 aebd 3a74 36be
00000130: 784a c13d 3e2d 63be b518 d4b9 3b13 67bd
00000140: dd96 1b3e 69d2 083e b003 7dbe 96e6 ff3d
00000150: c436 0a3e 47ce df3e 54e0 9b3d 8a8e 593e
00000160: b35b aebe 9893 833e c3a5 373e 8b99 013c
00000170: 79dd bd3d b24f 6abe d04c 11be 492a 93bc
00000180: 6bdb e73c 40e0 92be f7bd c73d 6598 fc3c
00000190: b496 4cbe 771c a43d d55e c7bd 2093 2b3e
000001a0: 2e37 ea3d e67f 1cbe bd49 c73d 4299 033e
000001b0: a32e 413d 0ea2 7d3c 5dbe 41be d7c6 813e
000001c0: 87f9 cfbd 7362 313e 1c85 283e 6af6 79bd
000001d0: de8c 453e 7b46 473e ac18 9bbe 22e0 ca3d
000001e0: e26c 08be e1db 113e a5bc 783d aa14 733b
000001f0: fd7b 07be e664 0cbd 81bb 1bbe 42cc b8be
00000200: a9ee 0abe 480a c23d 5ba7 913d 30e8 b5be
00000210: 194e 73be 4084 0cbe c4a1 143e 6bcd c23d
00000220: 039d 20bd cfd5 923d 0fdd 0abe 7929 adbd
00000230: 54e0 85bd b9f6 e2bd dca5 34be 2439 dfbe
00000240: 3acc 0d3e 0547 b03d b4d9 e2bd 9c55 5f3e
00000250: c8e4 12be 67f6 a2bc 5f1c 2abd a409 0dbe
00000260: ec7d bdbc 19cc 15bc 0f0f 9dbc b8e7 66be
00000270: 0dec 173e 2a0f 69bd e287 1abc f1ef 363e
00000280: e259 403d 2096 3e3e b162 aabc 9141 a2bd
00000290: 6335 593e f393 aebe 5359 49be a9fc a6bd
000002a0: 8805 6b3d 4a7f c8bd 4004 7abe ab57 3e3d
000002b0: d20d 243e 0cbe 923c ffc6 ce3b 192f 88be
000002c0: a687 f23b 055b ac3c 79f2 7bbe b290 73be
000002d0: 3799 17bd 1da7 09bd 049a d6bd 7f17 383e
000002e0: 4541 22be 7e39 a13d e247 b93d 860b 193e
000002f0: a6bd 26bd f2a3 efbb 534a 393e 6a81 fdbd
00000300: d8e4 003d 3809 da3c 44cb 55bd 49dc 71bd
00000310: 7e66 5fbc 9789 0fbe fd46 cebd 81f2 8ebd
00000320: 7d44 123f fe64 483e 784e 91bd 65a1 3c3d
00000330: bb9a 083f 45b8 d2be 2cd0 48bc 9c15 87be
00000340: fd81 6d3b 0680 a0bd 455a 673d b5f1 453e
00000350: d182 1b3e 4174 20bd abaa 373d df04 cbbb
00000360: 8001 c1bd 48d2 41be 333d 9dbd 2fd7 15be
00000370: ffc8 28be b7b2 9a3d 2cea bbbd 2136 17be
00000380: d17c 9d3e a429 73be 2c70 ea3e bdaa 6a3e
00000390: 8231 36be 7bb5 0c3d 87d3 0e3e a127 463e
000003a0: e8ec a23e b341 8e3d 3dfd 273d 996f a13e
000003b0: 45f2 063d 7481 c3bc 953d 4c3e 5d6e c83c
000003c0: 65f9 80be 577c 2f3d 4115 bebd 2411 f73e
000003d0: 4d30 dbbe 9309 19bd f5e0 c0bc b436 bfbd
000003e0: f0c6 f8bc fa90 7d3d 737d cebb 14e8 5cbe
000003f0: 90e2 b23d 8463 e83d d4fb fb3d 2637 83be

base.1linear.bias f4 [50]
0.09084346 -0.07659588 0.058616325 -0.022193346 -0.18730927 0.038074445 0.062492415 -0.111601666
-0.05911707 -0.14036041 0.11743964 0.010833432 -0.080439314 -0.025207039 0.013985897 -0.08558337
0.015582668 0.11373551 0.004683653 0.11591581 -0.12394841 -0.0236412 0.061382513 -0.108114
0.0047814776 -0.053651806 -0.07104062 0.031753827 0.15511034 0.06033765 0.03692886 -0.059580512
0.10312323 0.0922292 0.030592818 0.037728824 -0.022999244 -0.015725775 -0.0129350955 0.1783532
-0.0062053725 -0.045883175 0.08536477 -0.05716448 -0.12411785 0.047804035 0.006193545 -0.0005755495
-0.06859077 0.037044425
00000000: 230c ba3d 4dde 9cbd ac17 703d d2ce b5bc
00000010: 00ce 3fbe f3f3 1b3d 0cf8 7f3d 6a8f e4bd
00000020: be24 72bd a4ba 0fbe 3284 f03d b57e 313c
00000030: 5ebd a4bd fe7e cebc 1b25 653c 5546 afbd
00000040: 724e 7f3c 2aee e83d 5479 993b 4565 ed3d
00000050: aad8 fdbd 31ab c1bc 3b6c 7b3d df6a ddbd
00000060: f1ad 9c3b ffc1 5bbd bf7d 91bd 4d10 023d
00000070: 3fd5 1e3e 9d24 773d b742 173d b20a 74bd
00000080: 4632 d33d aae2 bc3d ca9d fa3c 8a89 1a3d
00000090: e968 bcbc 57d3 80bc b9ed 53bc 39a2 363e
000000a0: 7056 cbbb ffef 3bbd b9d3 ae3d 4d25 6abd
000000b0: 8031 febd 2ace 433d 39f3 ca3b 79e0 16ba
000000c0: 5179 8cbd e5bb 173d

base.2linear.weight f4 [50, 50]
-0.15199882 -0.08827018 -0.039526977 -0.023255324 -0.14079632 0.036577623 0.08314265 -0.06589224
-0.26831764 -0.17942792 -0.10546746 0.055228822 -0.072289534 0.0005658166 0.24470295 -0.058963884
-0.01822898 -0.042701483 0.24355716 0.21208291 0.042097956 -0.02381029 -0.08264213 0.0032134044
0.013637246 -0.130966 -0.16415136 -0.023833193 0.20107223 -0.20021406 0.25994402 0.15586962
0.045589197 0.01141465 -0.09133467 0.078949966 0.1992804 -0.16609126 0.20842503 0.49764264
0.0032349243 0.022205103 -0.18156579 -0.12284138 -0.23650874 0.2175069 0.15874992 -0.13119064
0.17265782 -0.037608467 -0.18078323 0.07548501 -0.08644325 0.09347279 -0.025248267 -0.3664014
0.35564014 -0.03863816 0.02593123 0.057618853 0.060113546 -0.08226239 0.0429607 0.32204932
-0.0963465 0.09641683 -0.20510289 -0.17046112 0.29147226 -0.117288895 -0.12451928 -0.16199453
0.09523332 -0.017211258 0.003673284 -0.1884529 -0.13770537 0.5813058 -0.11056582 -0.049520846
-0.21913879 -0.12841183 -0.14347835 0.0936574 0.2159565 -0.07602859 -0.07858311 0.00806972
0.0142000895 0.10157637 0.047849745 0.06875032 0.061557535 0.040843964 0.0868859 -0.029513976
0.07108497 0.3615902 0.20062964 -0.32011506 0.01113687 -0.11863152 0.011631688 -0.04885734
-0.083530344 -0.032826986 -0.024532327 0.0114865 -0.16650403 0.102545105 0.2576611 0.19149867
-0.005499804 -0.020086057 -0.031248193 -0.17966238 0.012240184 -0.011815535 0.15068236 -0.12784718
-0.005629194 -0.029609293 0.008857159 0.014084972 -0.0032244008 -0.05165207 -0.27469304 0.027533704
0.1598362 0.12329649 0.12613955 0.06338742 0.28899613 -0.052866187 0.29716396 -0.084815904
-0.31139427 -0.03004397 -0.0891744 -0.2776496 0.06314073 0.004430113 0.19925176 0.19969401
0.16679387 0.009831433 0.1980905 0.00881846 -0.37704 0.054250557 0.12635413 0.021146236
0.10217443 -0.33718425 0.002140651 -0.004745134 -0.022748843 0.15760234 0.0002795642 -0.08408042
0.032786965 -0.08095389 -0.03515509 0.047127537 -0.05185305 0.19493723 -0.016862532 -0.081311055
0.004456041 -0.036321696 -0.15864266 -0.20832923 0.0008046752 -0.011106005 0.0043729963 0.039344933
-0.15419266 -0.014502249 -0.26602146 0.12903143 0.13750453 -0.13325804 -0.082117274 0.12849791
-0.25793236 -0.14354812 0.26754242 -0.056307882 -0.104254104 -0.16759972 -0.03884758 0.016928248
-0.12698472 0.12857589 0.028354777 0.14565979 0.036665887 -0.08826341 -0.018458363 0.0021587438
-0.08023454 0.09230179 0.25280154 0.039287508 0.058465727 0.05968324 0.016747484 0.03313529
-0.030355439 -0.10912863 0.277724 -0.10869422 0.11309076 0.007350107 -0.13969679 0.1149024
-0.025091298 -0.28691924 0.026514523 -0.054125063 -0.08462539 0.034728102 -0.100178055 -0.043527234
0.008539616 0.19597854 -0.02597626 -0.12430807 -0.12944952 -0.3106355 -0.07216918 0.17302607
-0.12557511 -0.123549394 -0.1268959 0.048530452 -0.036854547 -0.028893305 -0.085061274 -0.0022090652
0.038596086 0.006761471 -0.14458928 0.1409141 0.12433361 0.025399746 0.14965065 -0.11863863
-0.010580598 -0.07683382 -0.024204353 0.19425525 0.037323788 -0.16846068 -0.0063838544 -0.07592977
00000000: 94a5 1bbe ffc6 b4bd 0ae7 21bd f381 bebc
00000010: e92c 10be 6bd2 153d b246 aa3d 83f2 86bd
00000020: ee60 89be f4bb 37be 53ff d7bd 9e37 623d
00000030: 890c 94bd 4f53 143a 6993 7a3e 1d84 71bd
00000040: f154 95bc c0e7 2ebd 0c67 793e 432c 593e
00000050: e86e 2c3d cc0d c3bc 4740 a9bd fb97 523b
00000060: c16e 5f3c f31b 06be 4b17 28be d43d c3bc
00000070: e1e5 4d3e ea04 4dbe 6217 853e 499c 1f3e
00000080: bdbb 3a3d 8304 3b3c ac0d bbbd 85b0 a13d
00000090: 2910 4c3e d413 2abe 5f6d 553e 04cb fe3e
000000a0: 0601 543b 7ae7 b53c 62ec 39be 4394 fbbd
000000b0: 592f 72be 21ba 5e3e 578f 223e d756 06be
000000c0: 36cd 303e 560b 1abd 3d1f 39be e397 9a3d
000000d0: 2909 b1bd aa6e bf3d 74d5 cebc f798 bbbe
000000e0: 7716 b63e 0c43 1ebd bb6d d43c bf01 6c3d
000000f0: 9f39 763d 2f79 a8bd 8ff7 2f3d a6e3 a43e
00000100: 5051 c5bd 3076 c53d 7e06 52be 5c8d 2ebe
00000110: da3b 953e 2935 f0bd f703 ffbd e5e1 25be
00000120: b009 c33d a0fe 8cbc 7bbb 703b ccf9 40be
00000130: a302 0dbe 75d0 143f 5570 e2bd 5fd6 4abd
00000140: eb65 60be 647e 03be fdeb 12be 73cf bf3d
00000150: b323 5d3e e1b4 9bbd 2ef0 a0bd dc36 043c
00000160: 7ea7 683c 4607 d03d 18fe 433d f8cc 8c3d
00000170: c123 7c3d 004c 273d 3cf1 b13d 4bc7 f1bc
00000180: ff94 913d 5a22 b93e db71 4d3e 1fe6 a3be
00000190: 6b77 363c 15f5 f2bd d692 3e3c a21e 48bd
000001a0: f511 abbd 9775 06bd 05f8 c8bc df31 3c3c
000001b0: 0880 2abe 2b03 d23d 28ec 833e 3a18 443e
000001c0: b337 b4bb 848b a4bc 36fc ffbc 6af9 37be
000001d0: 0d8b 483c f295 41bc 7a4c 1a3e 5fea 02be
000001e0: 1a75 b8bb 308f f2bc 9e1d 113c a8c4 663c
000001f0: 7850 53bb 1f91 53bd 91a4 8cbe 5d8e e13c
00000200: 1aac 233e df82 fc3d ba2a 013e 43d1 813d
00000210: 4df7 933e 378a 58bd e025 983e f6b3 adbd
00000220: 126f 9fbe c61e f6bc 11a1 b6bd 1728 8ebe
00000230: ed4f 813d 7b2a 913b a708 4c3e 967c 4c3e
00000240: 03cc 2a3e 0514 213c 3cd8 4a3e 4d7b 103c
00000250: 630b c1be d535 5e3d fa62 013e df3a ad3c
00000260: d440 d13d 6aa3 acbe 2a4a 0c3b 127d 9bbb
00000270: c85b babc 8262 213e 7992 9239 5b32 acbd
00000280: a04b 063d 27cb a5bd c9fe 0fbd ce08 413d
00000290: dd63 54bd a09d 473e 4b23 8abc 6986 a6bd
000002a0: fb03 923b 0fc6 14bd 3973 22be 4254 55be
000002b0: d7f0 523a f6f5 35bc 5a4b 8f3b 2728 213d
000002c0: aee4 1dbe d79a 6dbc f733 88be d120 043e
000002d0: fdcd 0c3e cc74 08be 1a2d a8bd f594 033e
000002e0: b60f 84be 47fe 12be 52fb 883e 18a3 66bd
000002f0: 2d83 d5bd 439f 2bbe a41e 1fbd 1cad 8a3c
00000300: 4808 02be 66a9 033e 4748 e83c d727 153e
00000310: f82e 163d 72c3 b4bd fe35 97bc b679 0d3b
00000320: 0252 a4bd b908 bd3d 346f 813e f0eb 203d
00000330: c279 6f3d 6a76 743d 0532 893c dfb8 073d
00000340: f8ab f8bc d57e dfbd d731 8e3e 139b debd
00000350: 219c e73d 2bd9 f03b ad0c 0fbe f351 eb3d
00000360: 448c cdbc 14e7 92be fc34 d93c 3eb2 5dbd
00000370: 1450 adbd 0e3f 0e3d 272a cdbd 9d49 32bd
00000380: bfe9 0b3c 99ae 483e 2acc d4bc 3b95 febd
00000390: 6a8e 04be 9e0b 9fbe 6fcd 93bd bf2d 313e
000003a0: c396 00be 7707 fdbd 00f1 01be dec7 463d
000003b0: cbf4 16bd a7b1 ecbc 9b34 aebd f7c5 10bb
000003c0: ee16 1e3d 548f dd3b 360f 14be c94b 103e
000003d0: 9fa2 fe3d 2113 d03c 053e 193e cff8 f2bd
000003e0: 3f5a 2dbc 0d5b 9dbd 3548 c6bc d9ea 463e
000003f0: d4e0 183d f580 2cbe a72f d1bb 1181 9bbd

base.2linear.bias f4 [50]
0.12543929 0.03182694 0.054773133 -0.013150074 -0.0029994827 -0.021570593 -0.021354169 -0.18232873
-0.13381603 -0.04024204 0.013972039 -0.19024262 -0.031915527 0.004760525 0.04540742 -0.12495287
0.0015349383 0.1723008 0.021237167 -0.045218084 0.07880793 -0.025291065 0.093228176 0.046381015
0.14575233 -0.029872347 -0.025298674 0.00472967 0.014439885 0.08036503 -0.031874962 0.16941519
-0.056231808 0.022198193 -0.016771391 -0.12074434 0.007956753 0.11928501 0.01610268 0.013545425
0.022687746 -0.037248977 0.0037058147 -0.10845038 -0.079591915 0.10713244 -0.112848826 0.023627859
0.009667839 0.07468067
00000000: 2873 003e f75c 023d cb59 603d 6873 57bc
00000010: f892 44bb d0b4 b0bc f0ee aebc 62b4 3abe
00000020: 1207 09be d6d4 24bd fbea 643c f6ce 42be
00000030: dbb9 02bd 2efe 9b3b 21fd 393d 4ae7 ffbd
00000040: fc2f c93a 9f6f 303e 91f9 ad3c 9936 39bd
00000050: 0d66 a13d 352f cfbc 6aee be3d 05fa 3d3d
00000060: 1940 153e dab6 f4bc 2a3f cfbc 59fb 9a3b
00000070: 4495 6c3c 6c96 a43d 528f 02bd 2d7b 2d3e
00000080: 5353 66bd fcd8 b53c 2864 89bc cf48 f7bd
00000090: 0a5d 023c b34b f43d c4e9 833c a1ed 5d3c
000000a0: a7db b93c 6292 18bd 41dd 723b 3c1b debd
000000b0: 1601 a3bd 4168 db3d 491d e7bd 368f c13c
000000c0: db65 1e3c 2ef2 983d

base.3linear.weight f4 [50, 50]
0.12086225 -0.01061943 0.3542104 -0.11478808 -0.14976689 -0.12597953 -0.1748265 -0.18678916
-0.03043275 0.02171357 0.0091281105 -0.1032994 0.014608093 -0.18067107 -0.33502874 -0.024645342
0.095395386 0.21252447 -0.03678807 -0.10969749 0.27432632 0.0061075785 -0.106571026 -0.12629417
0.020299155 0.06432784 -0.030617941 0.056654587 -0.09110021 -0.02634049 0.08216453 -0.130521
0.051273614 0.004115953 -0.00039648332 -0.19123691 0.37184644 0.100226946 -0.28571025 0.08001365
0.053640693 -0.023622094 -0.122200094 -0.2645373 -0.101515 -0.03110266 0.055736315 -0.0010861537
0.05001624 0.04338365 0.02938792 -0.0044198865 -0.11020363 -0.052450523 -0.116820715 0.09261152
0.012204065 0.31294838 -0.11246319 0.12092841 0.05720295 -0.17988904 -0.13202778 0.28039482
0.008876748 -0.27731872 -0.101416774 -0.062909044 0.038924616 -0.076162495 0.41832757 0.008496216
-0.041148894 0.02206219 0.020744381 0.06363085 0.012070622 0.05255861 0.12329813 0.050636157
0.089571044 -0.10682076 0.15615545 -0.044947352 -0.09416902 -0.033035375 0.063878894 0.035347655
0.13352667 -0.087825656 0.20442836 -0.035090126 0.19347025 0.44305268 -0.16934632 0.07638372
-0.013357629 0.2873108 0.010834631 0.31362695 0.010271056 0.0008503231 -0.074369036 0.113083676
-0.07769627 0.1637886 0.1213139 0.1863278 0.08090801 -0.030665651 -0.05582849 -0.22733636
0.086926065 0.18425342 -0.22020356 -0.012098126 -0.06289415 0.11718192 -0.07169764 0.00014881465
0.12003729 -0.00418076 0.053347703 0.04610579 0.065764844 -0.109452605 -0.00034013455 0.06200488
-0.30537206 -0.16591814 0.011161118 0.057273716 -0.16839235 -0.02685539 0.16950236 -0.07976207
0.0036452385 -0.114645846 -0.092947766 -0.028337762 0.029417347 -0.06271486 -0.1667038 -0.036757804
-0.04449082 0.10919151 0.01983425 -0.14967477 0.12431014 -0.103195675 -0.05941462 0.0018406102
-0.30034712 -0.24264981 0.08329253 -0.102711044 -0.21737027 -0.31488094 -0.12383688 0.1352048
-0.056367856 -0.16971433 -0.2099379 0.030276489 -0.052988447 -0.3536302 -0.016667647 0.080381155
0.10553892 -0.008369381 0.3174786 0.0049789324 0.098972596 0.41240248 0.6294035 -0.12510325
-0.005418576 0.1552319 0.20915346 -0.0024014744 0.15876201 0.45777518 -0.14119749 -0.02749972
-0.36949673 -0.12264422 -0.04322823 -0.046730112 0.10402287 0.11081202 -0.13881356 0.0062118135
-0.09831092 -0.02013198 0.015214266 -0.22484273 0.2007419 0.02257401 0.15504031 0.010157826
0.29867184 0.0067011486 -0.13397731 -0.20615734 -0.041107357 0.027081972 -0.07610683 -0.25676444
-0.06779936 -0.01728475 -0.10835071 -0.21531041 -0.19063358 0.05155887 0.17070393 -0.1625467
0.07986112 0.16160491 -0.18576525 -0.13058509 -0.056810614 -0.005963926 -0.03054718 0.09029079
0.19068912 0.12754908 0.007331944 0.00075024273 -0.12782899 0.15519156 0.20045461 0.2155784
-0.3224905 -0.1514363 -0.014918124 0.09628682 -0.0069650924 -0.08368325 0.07414047 -0.0003967907
-0.093409464 0.05397658 0.037997562 0.011082637 0.011308801 0.19295502 0.02524749 -0.19733644
-0.042261496 0.11596817 -0.032467674 -0.011227838 0.09218878 -0.12927876 0.26984963 0.09144763
00000000: a186 f73d 1efd 2dbc 115b b53e 0316 ebbd
00000010: 7e5c 19be c700 01be b805 33be a845 3fbe
00000020: 1a4e f9bc a8e0 b13c 128e 153c a38e d3bd
00000030: c856 6f3c d601 39be e388 abbe 07e5 c9bc
00000040: a85e c33d 04a0 593e 16af 16bd 14a9 e0bd
00000050: 8074 8c3e 1522 c83b e941 dabd 4253 01be
00000060: 6a4a a63c 51be 833d 7ad2 fabc a40e 683d
00000070: bf92 babd 03c8 d7bc e145 a83d 4ca7 05be
00000080: 4804 523d 1edf 863b 17df cfb9 9cd3 43be
00000090: a862 be3e c943 cd3d 9d48 92be 32de a33d
000000a0: 58b6 5b3d 1f83 c1bc 0b44 fabd 6f71 87be
000000b0: 19e7 cfbd 01cb febc c34b 643d 455d 8eba
000000c0: d4dd 4c3d 0eb3 313d efbe f03c b2d4 90bb
000000d0: 71b2 e1bd 5cd6 56bd b33f efbd 1cab bd3d
000000e0: 8ff3 473c c53a a03e 1a53 e6bd 50a9 f73d
000000f0: a44d 6a3d d534 38be 4a32 07be e98f 8f3e
00000100: c86f 113c b8fc 8dbe 99b3 cfbd 75d6 80bd
00000110: 6b6f 1f3d 15fb 9bbd 082f d63e b633 0b3c
00000120: be8b 28bd c4bb b43c 1ff0 a93c e450 823d
00000130: dcc3 453c b247 573d bb83 fc3d dc67 4f3d
00000140: 0671 b73d d8c4 dabd 37e7 1f3e b71a 38bd
00000150: b0db c0bd 1a50 07bd f0d2 823d b4c8 103d
00000160: 37bb 083e f0dd b3bd ab55 513e aaba 0fbd
00000170: 111d 463e cdd7 e23e 1f69 2dbe 116f 9c3d
00000180: f5d9 5abc 671a 933e bc83 313c b693 a03e
00000190: ee47 283c 38e8 5e3a cb4e 98bd 6a98 e73d
000001a0: 391f 9fbd 33b8 273e 6c73 f83d b7cc 3e3e
000001b0: 19b3 a53d 8836 fbbc 6aac 64bd ddca 68be
000001c0: 4b06 b23d eeac 3c3e 0b7d 61be 3837 46bc
000001d0: a6ce 80bd 13fd ef3d 36d6 92bd 210b 1c39
000001e0: 1cd6 f53d c2fe 88bb 1f83 5a3d 6dd9 3c3d
000001f0: b8af 863d b028 e0bd 1654 b2b9 d4f8 7d3d
00000200: ba59 9cbe 72e6 29be 1fdd 363c d897 6a3d
00000210: 0b6f 2cbe d6ff dbbc 0792 2d3e 4c5a a3bd
00000220: f4e4 6e3b 71cb eabd 665b bebd 9824 e8bc
00000230: a6fc f03c a670 80bd 67b4 2abe 5a8f 16bd
00000240: 023c 36bd cc9f df3d 707b a23c 5844 19be
00000250: 5196 fe3d 4158 d3bd bf5c 73bd a140 f13a
00000260: 19c7 99be 3179 78be 4695 aa3d 2b5a d2bd
00000270: 5096 5ebe 1338 a1be 319e fdbd 2173 0a3e
00000280: fbe1 66bd 98c9 2dbe f6f9 56be 6606 f83c
00000290: 6a0a 59bd 040f b5be 978a 88bc e09e a43d
000002a0: ca24 d83d ba1f 09bc 8e8c a23e 5026 a33b
000002b0: 25b2 ca3d 6b26 d33e 9620 213f 111b 00be
000002c0: 4f8e b1bb 1cf5 1e3e 532c 563e 0e62 1dbb
000002d0: 8292 223e 8261 ea3e 1396 10be 1847 e1bc
000002e0: ad2e bdbe e52c fbbd 1610 31bd 1368 3fbd
000002f0: f109 d53d 6af1 e23d 2425 0ebe 788c cb3b
00000300: 3c57 c9bd d2eb a4bc 4245 793c 2c3d 66be
00000310: 498f 4d3e 21ed b83c e3c2 1e3e 036d 263c
00000320: 84eb 983e 4f95 db3b 5931 09be e91a 53be
00000330: 3060 28bd 03db dd3c e6dd 9bbd a176 83be
00000340: 64da 8abd bf98 8dbc fae6 ddbd 557a 5cbe
00000350: 7335 43be 652f 533d 03cd 2e3e a472 26be
00000360: 3a8e a33d c27b 253e 3f39 3ebe 19b8 05be
00000370: 3fb2 68bd 0a6d c3bb 143e fabc 61ea b83d
00000380: 0244 433e 3a9c 023e ce40 f03b f0ab 443a
00000390: 9ae5 02be 89ea 1e3e f943 4d3e 96c0 5c3e
000003a0: 7a1d a5be 1e12 1bbe 266b 74bc 0632 c53d
000003b0: 6e3b e4bb 2062 abbd f5d6 973d 5908 d0b9
000003c0: 764d bfbd 8c16 5d3d 55a3 1b3d f393 353c
000003d0: 8d48 393c 0096 453e d3d3 ce3c 9012 4abe
000003e0: 641a 2dbd b880 ed3d d3fc 04bd f7f4 37bc
000003f0: 79cd bc3d a761 04be bb29 8a3e e548 bb3d

base.3linear.bias f4 [50]
0.016779823 0.06514059 -0.032140475 0.122834586 0.123981506 6.926513e-05 0.12696403 0.1111117
-0.10513606 -0.0115992455 0.024308939 -0.09827046 0.016021622 0.09340506 0.032348122 -0.09302772
-0.061272547 -0.117380165 0.18300502 -0.052374426 -0.031436708 0.065696225 -0.076048866 0.09708954
-0.107447654 0.016797265 0.05821464 -0.050065085 -0.074851975 -0.0624975 -0.0011121129 0.02331098
0.018580452 0.10032679 -0.025300099 0.013282861 0.041040115 -0.042309258 -0.17861637 0.015476738
-0.0119740805 0.0056968755 -0.056048997 0.0064464915 0.05215732 0.028178863 -0.12188061 -0.1770434
-0.08514236 0.012832359
00000000: d775 893c 6e68 853d bba5 03bd b390 fb3d
00000010: 04ea fd3d 6f42 9138 dc02 023e 888e e33d
00000020: 9351 d7bd c30a 3ebc 8a23 c73c 0642 c9bd
00000030: c73f 833c 274b bf3d 777f 043d 5185 bebd
00000040: ecf8 7abd 0365 f0bd ab65 3b3e 9186 56bd
00000050: c7c3 00bd be8b 863d 82bf 9bbd e1d6 c63d
00000060: 840d dcbd 6b9a 893c 7972 6e3d 0c11 4dbd
00000070: fe4b 99bd 61fd 7fbd 51c4 91ba abf6 be3c
00000080: 0836 983c 2278 cd3d 2742 cfbc 5ba0 593c
00000090: ae19 283d 794c 2dbd 36e7 36be 2592 7d3c
000000a0: ef2e 44bc dbac ba3b a293 65bd 173d d33b
000000b0: eaa2 553d 5cd7 e63c 8b9c f9bd dd4a 35be
000000c0: 1e5f aebd d13e 523c

base.4linear.weight f4 [50, 50]
0.04297322 -0.10810406 -0.0009501475 0.13188139 -0.13187337 0.13669336 -0.15627293 0.01582835
-0.16817774 0.25659907 0.22957514 -0.08333142 0.03221491 -0.02674941 -0.34086204 0.056910384
-0.124802634 -0.025817059 -0.28580484 0.22344294 0.08335154 0.3424818 0.08183312 -0.09817296
-0.043002278 0.20402579 -0.22591005 -0.0919042 -0.12182029 0.06577869 0.13242565 -0.14556253
-0.0006231324 0.10499011 -0.10339149 -0.16398056 -0.10492226 -0.16604465 0.032292183 0.027692528
0.12130317 0.16363366 0.3080277 0.05449449 -0.109896675 0.16332485 0.13160035 -0.4686241
-0.20870784 -0.007180056 -0.054636143 0.15175246 0.16579936 0.3383444 0.24601585 -0.34949115
0.017767893 -0.26325956 -0.010168239 0.10942953 -0.0569061 0.08805911 0.15941034 0.025285283
0.39646107 0.17898841 0.050121192 -0.008092344 0.20288107 -0.13568646 0.10291761 -0.056180965
0.1277714 -0.00067893625 -0.04764165 0.057362176 0.10921405 -0.35689712 0.14451802 0.033050887
0.008583314 0.21464571 -0.01572073 0.049421877 -0.09493405 0.13877665 0.31630456 0.16599262
-0.034597993 0.09662382 0.041680567 0.14765087 -0.09498673 0.121097006 0.16420461 0.20083767
-0.3779253 -0.103396095 -0.02272234 -0.056852188 -0.22623613 0.00021783906 0.048634697 -0.13143788
-0.03619986 -0.0799932 0.008335857 -0.022883704 0.024192609 0.005502791 -0.15666918 -0.06235817
0.121968985 -0.15155151 0.001302506 0.0464776 0.13918196 -0.36820334 0.2307568 0.0028307629
0.2416779 0.33151752 0.26937175 -0.07249901 0.3394746 -0.047285605 0.08417948 -0.0023646837
-0.044219546 0.13235573 -0.2080391 -0.11220359 0.11197148 0.042346448 0.009200523 -0.07394492
-0.17109779 0.02463724 0.1351646 0.12046414 -0.07173475 0.034731198 -0.060546752 -0.19062036
0.16815665 0.052365903 -0.18378058 0.07675125 0.18984255 0.27333337 -0.039155614 0.08008128
-0.15596762 -0.20777018 -0.3630578 0.31410134 -0.29025012 -0.18546073 0.5702028 0.2618362
-0.19219884 0.10306979 -0.093181685 -0.4291084 -0.1709518 0.21425486 -0.058170505 0.20417386
-0.14302678 -0.025820252 -0.009143981 0.012091201 -0.08814714 -0.21151966 0.10734464 0.012563218
0.16825107 0.12710273 0.22292928 0.2773121 -0.11136687 -0.10612432 -0.015770555 -0.11726146
-0.07820865 -0.14711864 -0.11211659 0.08053096 -0.01421744 0.06220721 0.052005827 -0.32559365
-0.019197758 -0.21069172 0.12903751 -0.07980901 0.099216595 0.4016575 0.0597399 0.050475743
0.14855066 0.12021061 0.17715052 0.00070174335 -0.033073414 -0.14455983 0.0650783 0.17536587
-0.15545878 0.14091788 -0.0518167 0.10288818 0.04665628 0.17572562 -0.25793117 -0.09710143
0.024685493 0.09918642 0.111794904 -0.22710903 -0.17597018 -0.006855177 -0.15050912 0.13960147
0.13682623 -0.19524647 -0.21662869 -0.11918829 -0.2890465 -0.0049778493 0.20455122 -0.09570747
-0.19770847 0.12359881 0.21962745 -0.069641784 -0.08515845 0.12613693 -0.17439061 0.044854533
0.19189264 -0.16039215 -0.10322771 -0.15375786 -0.0356317 0.1461723 0.19922028 0.091525115
-0.18171342 0.10332958 -0.09159778 -0.35809964 0.4026197 -0.14592528 -0.17152333 -0.11446152
00000000: b004 303d a965 ddbd 5213 79ba ea0b 073e
00000010: d009 07be 58f9 0b3e 0306 20be 75aa 813c
00000020: c936 2cbe f460 833e bf15 6b3e aaa9 aabd
00000030: c8f3 033d 9421 dbbc 7885 aebe dd1a 693d
00000040: 8698 ffbd 4c7e d3bc 0355 92be 3ace 643e
00000050: 36b4 aa3d c659 af3e 1f98 a73d e80e c9bd
00000060: 2823 30bd 23ec 503e f754 67be 4538 bcbd
00000070: eb7c f9bd fab6 863d 979a 073e 580e 15be
00000080: b559 23ba 0e05 d73d ebbe d3bd 85ea 27be
00000090: 7be1 d6bd 9c07 2abe cf44 043d 71db e23c
000000a0: cc6d f83d 958f 273e cfb5 9d3e 9d35 5f3d
000000b0: 8211 e1bd a13e 273e 3ec2 063e 7fef efbe
000000c0: 82b7 55be ad46 ebbb 26ca 5fbd ff64 1b3e
000000d0: 4fc7 293e 7a3b ad3e 94eb 7b3e 81f0 b2be
000000e0: f98d 913c f5c9 86be af98 26bc 971c e03d
000000f0: 5f16 69bd 5658 b43d 773c 233e 1523 cf3c
00000100: f2fc ca3e bd48 373e e14b 4d3d c095 04bc
00000110: 0ec0 4f3e 64f1 0abe 78c6 d23d 031e 66bd
00000120: 82d6 023e a4fa 31ba e423 43bd 9af4 6a3d
00000130: 9eab df3d 38bb b6be 88fc 133e 5e60 073d
00000140: 07a1 0c3c 16cc 5b3e c3c8 80bc 986e 4a3d
00000150: c96c c2bd 771b 0e3e acf2 a13e f8f9 293e
00000160: a0b6 0dbd b6e2 c53d 3eb9 2a3d ca31 173e
00000170: 6788 c2bd b501 f83d 4125 283e 64a8 4d3e
00000180: 6d7f c1be 55c1 d3bd 3324 babc d7dd 68bd
00000190: 72aa 67be ba6b 6439 2d35 473d a797 06be
000001a0: 4e46 14bd 7ad3 a3bd 1e93 083c 9b76 bbbc
000001b0: 942f c63c c250 b43b e36d 20be 486b 7fbd
000001c0: e0ca f93d 5230 1bbe d9b8 aa3a 4c5f 3e3d
000001d0: b785 0e3e 2685 bcbe 834b 6c3e 5284 393b
000001e0: 697a 773e aabc a93e 18eb 893e 5c7a 94bd
000001f0: 9dcf ad3e 8dae 41bd 4b66 ac3d cff8 1abb
00000200: 8e1f 35bd 4388 073e 3408 55be ffca e5bd
00000210: 4e51 e53d 7873 2d3d cabd 163c 6f70 97bd
00000220: 4234 2fbe 0ad4 c93c 9768 0a3e e7b5 f63d
00000230: abe9 92bd 4d42 0e3d dfff 77bd fc31 43be
00000240: 4231 2c3e a17d 563d fa30 3cbe c22f 9d3d
00000250: 1666 423e 5af2 8b3e a361 20bd a701 a43d
00000260: fab5 1fbe b5c1 54be b6e2 b9be e4d1 a03e
00000270: aa9b 94be 6be9 3dbe d0f8 113f 650f 863e
00000280: c6cf 44be 4116 d33d 0ad6 bebd 19b4 dbbe
00000290: fd0d 2fbe a065 5b3e 3244 6ebd f412 513e
000002a0: 9d75 12be fe84 d3bc a3d0 15bc 2c1a 463c
000002b0: 7d86 b4bd 9c98 58be 82d7 db3d f5d5 4d3c
000002c0: 024a 2c3e 3827 023e 9347 643e dafb 8d3e
000002d0: 5014 e4bd b557 d9bd 4031 81bc c726 f0bd
000002e0: db2b a0bd 45a6 16be 629d e5bd 6aed a43d
000002f0: 44f0 68bc fdcc 7e3d 1004 553d 36b4 a6be
00000300: 9e44 9dbc 92bf 57be 6922 043e e872 a3bd
00000310: 1232 cb3d 0da6 cd3e d3b1 743d a7bf 4e3d
00000320: aa1d 183e fb30 f63d f266 353e 33f5 373a
00000330: fd77 07bd 7e07 14be c647 853d 1c93 333e
00000340: 9630 1fbe c74c 103e bf3d 54bd 0ab7 d23d
00000350: a81a 3f3d 6bf1 333e 8e0f 84be 1ddd c6bd
00000360: 3b39 ca3c 4022 cb3d baf4 e43d 458f 68be
00000370: 8731 34be 65a1 e0bb 101f 1abe b0f3 0e3e
00000380: 2d1c 0c3e b1ee 47be e9d3 5dbe fd18 f4bd
00000390: e7fd 93be 3a1d a3bb e075 513e 4702 c4bd
000003a0: 1774 4abe 5f21 fd3d 05e6 603e 5aa0 8ebd
000003b0: 8e67 aebd 0a2a 013e 7493 32be 63b9 373d
000003c0: 817f 443e d73d 24be 0d69 d3bd b372 1dbe
000003d0: 8cf2 11bd 31ae 153e 6700 4c3e 8571 bb3d
000003e0: 1513 3abe 759e d33d 9e97 bbbd d658 b7be
000003f0: 2b24 ce3e 706d 15be d0a3 2fbe cd6a eabd

base.4linear.bias f4 [50]
-0.09896992 0.042213492 0.061568532 -0.11281828 -0.0074963723 -0.10809656 0.016712468 0.052865807
0.035387654 0.017795388 -0.008443446 0.06565397 -0.030630454 -0.0043405592 -0.024480512 0.08396799
0.01591575 -0.076321505 0.030820146 -0.0821859 0.037106548 -0.031926703 0.006254052 0.085016
0.0067191496 -0.07784943 0.0059059146 0.07095103 0.034093585 0.014962654 0.0012767323 -0.06353276
0.12200821 0.043889344 0.00077375426 0.09312164 0.0096824765 -0.08008296 0.004456109 -0.0020081494
0.21949479 -0.07666406 0.057594605 -0.10660221 0.007219665 0.09924102 0.08558826 0.048506632
-0.07538955 -0.091202386
00000000: beb0 cabd 0ee8 2c3d 492f 7c3d 450d e7bd
00000010: 21a4 f5bb bb61 ddbd 96e8 883c d189 583d
00000020: a5f2 103d a2c7 913c 6156 0abc 9775 863d
00000030: b8ec fabc 403b 8ebb 5b8b c8bc 69f7 ab3d
00000040: bf61 823c 734e 9cbd 887a fc3c 1551 a8bd
00000050: 09fd 173d 93c5 02bd caee cc3b de1c ae3d
00000060: 502c dc3b 866f 9fbd 6786 c13b c64e 913d
00000070: b7a5 0b3d eb25 753c 0758 a73a 771d 82bd
00000080: 71df f93d 50c5 333d c5d5 4a3a 8fb6 be3d
00000090: 40a3 1e3c 8902 a4bd 8d04 923b 289b 03bb
000000a0: 3ec3 603e 0c02 9dbd 52e8 6b3d 4252 dabd
000000b0: f192 ec3b e03e cb3d e648 af3d e4ae 463d
000000c0: d665 9abd 51c8 babd

base.5linear.weight f4 [50, 50]
-0.04301716 -0.21026854 -0.2807351 -0.015463652 0.11998069 0.018802192 -0.40645003 -0.27365664
0.27736554 0.009722101 -0.1033832 -0.061583728 0.16596135 0.14160082 -0.025259204 0.06595551
0.18680273 0.08033988 -0.099377 -0.17667328 0.031261325 -0.027864564 0.03697714 -0.20539555
0.21576922 0.29505807 -0.041729424 -0.040917564 0.12064916 -0.0075039756 0.12481473 -0.045134924
0.09010094 -0.32643577 -0.08068196 0.121483274 0.19118266 0.059541024 -0.11770005 -0.000120282246
0.004272687 0.3323068 -0.23883495 -0.16803849 0.28633046 -0.23135543 -0.03342833 0.12755457
-0.09572946 0.17516784 0.15505819 -0.10463803 0.24541955 0.17412479 0.013131835 0.038035374
-0.05877431 -0.15350193 -0.16660568 -0.094612874 0.15857285 -0.080419265 -0.2697142 0.29511032
0.269351 0.062047455 -0.30833057 0.0881217 0.082124166 0.20203039 0.12566394 0.46196148
0.029675305 -0.06435107 0.12990893 -0.07422567 0.06027871 0.21776499 0.042236112 0.040583815
0.15369686 -0.115598775 0.27247658 0.016594453 -0.022176592 -0.018226327 0.26072338 -0.13553469
-0.050413974 0.06726254 0.037549246 -0.09816848 -0.12538725 0.45152417 0.05799201 -0.0014028426
-0.13470022 0.006347196 -0.0021823938 -0.025413498 -0.12213415 -0.016023494 -0.116944104 -0.27271882
-0.010395327 -0.09194083 0.08584132 -0.049546864 -0.056522075 -0.17318317 0.1606404 -0.07165475
0.067872465 0.102395765 0.012034172 0.076486215 0.02411809 0.093165405 0.071357444 0.24964628
-0.009932269 -0.03769208 -0.26945063 0.16593842 0.075907685 -0.08322597 -0.08929519 0.046034835
0.2512852 -0.1303961 0.22086565 0.17965406 0.018207956 -0.06877869 -0.24415565 -0.17592047
0.114572085 0.26756784 -0.015482118 0.39823735 0.12766445 -0.15813975 0.05988287 -0.24125485
0.011501233 -0.16605392 0.018476117 -0.24788155 -0.040308833 0.07509511 0.046289947 0.1698895
-0.19478442 0.07834953 -0.026658 -0.32349566 -0.03687252 -0.059228413 -0.15857725 0.018852735
-0.006685812 0.03426811 -0.34145033 -0.18132508 0.46060243 -0.11891245 -0.101294145 -0.08203888
-0.031915907 -0.121127136 -0.018631157 0.17798236 -0.07813978 -0.09090662 0.010700316 0.24638662
0.19460562 0.21104369 -0.09735832 -0.14274374 -0.014496919 -0.028667558 0.34786615 0.034510728
0.028315116 0.26723474 0.27402622 -0.01962582 0.05049159 -0.053713884 0.007454531 0.039410703
0.2174459 0.18331057 0.06632792 0.024940109 0.17158061 0.13829808 -0.35614574 0.117507
0.1257486 -0.17343116 0.017229026 0.035225414 0.20775051 0.06376088 0.2694575 -0.33532307
0.074473314 0.10904361 0.10640991 -0.10703383 0.003478537 0.083276875 -0.2824128 0.11954512
-0.17282628 0.2186277 0.23624356 -0.10629769 0.11484445 -0.012583183 0.12708539 -0.012878668
-0.031268112 0.028765693 0.12819327 -0.05312754 0.10991874 0.034856997 -0.005678782 0.15694071
0.015673734 -0.06404101 0.1211579 0.09145216 -0.17503789 0.10520426 0.21436816 0.08770366
0.26094413 -0.098028265 0.06115953 0.21155573 -0.10750543 0.11495525 -0.034780312 0.0034920883
0.08165649 -0.08067503 0.097595036 -0.2859461 -0.016519748 -0.20084257 0.17857711 -0.13392477
00000000: c332 30bd a350 57be 83bc 8fbe 425b 7dbc
00000010: 70b8 f53d 0e07 9a3c 381a d0be b91c 8cbe
00000020: db02 8e3e 7249 1f3c 92ba d3bd 383f 7cbd
00000030: c6f1 293e ceff 103e 64ec cebc af13 873d
00000040: 3749 3f3e 3c89 a43d 2b86 cbbd d7e9 34be
00000050: e00b 003d 3a44 e4bc 5775 173d 3653 52be
00000060: 9bf2 5c3e da11 973e 79ec 2abd 2d99 27bd
00000070: e816 f73d e9e3 f5bb dd9e ff3d 66df 38bd
00000080: d786 b83d 9722 a7be 953c a5bd 39cc f83d
00000090: 63c5 433e 4ae1 733d b90c f1bd 0a40 fcb8
000000a0: e501 8c3b 1e24 aa3e 2691 74be 4812 2cbe
000000b0: e899 923e 70e8 6cbe 25ec 08bd aa9d 023e
000000c0: cf0d c4bd 335f 333e 93c7 1e3e 774c d6bd
000000d0: 434f 7b3e c54d 323e e826 573c fbca 1b3d
000000e0: 55bd 70bd 9c2f 1dbe ae9a 2abe 65c4 c1bd
000000f0: ec60 223e dbb2 a4bd fb17 8abe b318 973e
00000100: 60e8 893e 7925 7e3d 81dd 9dbe 2679 b43d
00000110: b730 a83d 0ee1 4e3e 0cae 003e 3786 ec3e
00000120: a019 f33c 7eca 83bd d906 053e a103 98bd
00000130: cfe6 763d c9fd 5e3e c6ff 2c3d 373b 263d
00000140: b662 1d3e 0dbf ecbd 0d82 8b3e 17f1 873c
00000150: afab b5bc 614f 95bc 897d 853e 9bc9 0abe
00000160: e27e 4ebd f1c0 893d 3dcd 193d 8e0c c9bd
00000170: 8465 00be 2d2e e73e 0889 6d3d 96df b7ba
00000180: dbee 09be 24fc cf3b 7e06 0fbb f82f d0bc
00000190: 7821 fabd b443 83bc 6480 efbd cda1 8bbe
000001a0: 2951 2abc 794b bcbd 93cd af3d a7f1 4abd
000001b0: b183 67bd ee56 31be eb7e 243e babf 92bd
000001c0: b800 8b3d dfb4 d13d fa2a 453c cea4 9c3d
000001d0: 4d93 c53c 81cd be3d da23 923d 46a3 7f3e
000001e0: f5ba 22bc 0363 1abd 6ff5 89be c3eb 293e
000001f0: 7d75 9b3d 6172 aabd 66e0 b6bd 068f 3c3d
00000200: 74a8 803e 8e86 05be 9b2a 623e 3cf7 373e
00000210: da28 953c d8db 8cbd f003 7abe 7f24 34be
00000220: c5a4 ea3d a7fe 883e b6a8 7dbc c4e5 cb3e
00000230: 78ba 023e 63ef 21be be47 753d 830b 77be
00000240: ab6f 3c3c 0a0a 2abe 3a5b 973c a9d4 7dbe
00000250: e01a 25bd 77cb 993d 879a 3d3d 83f7 2d3e
00000260: 9175 47be b875 a03d e161 dabc 39a1 a5be
00000270: a407 17bd 7e99 72bd 1362 22be 0d71 9a3c
00000280: a814 dbbb b85c 0c3d 94d2 aebe 48ad 39be
00000290: 15d4 eb3e 5f88 f3bd 4e73 cfbd 0004 a8bd
000002a0: 41ba 02bd 8111 f8bd 5ea0 98bc 0241 363e
000002b0: c007 a0bd 402d babd 6150 2f3c c64c 7c3e
000002c0: b246 473e d61b 583e cd63 c7bd 6a2b 12be
000002d0: 7c84 6dbc 3ad8 eabc 831b b23e 1f5b 0d3d
000002e0: 1af5 e73c fed2 883e 2a4d 8c3e 54c6 a0bc
000002f0: 45d0 4e3d 1703 5cbd 2345 f43b 1e6d 213d
00000300: 23aa 5e3e c4b5 3b3e efd6 873d 334f cc3c
00000310: d4b2 2f3e 039e 0d3e bc58 b6be 83a7 f03d
00000320: 3ec4 003e f097 31be e323 8d3c 8648 103d
00000330: 8dbc 543e 1095 823d 55f6 893e 77af abbe
00000340: 7785 983d 4252 df3d 70ed d93d 8d34 dbbd
00000350: 2bf8 633b 118d aa3d 6998 90be 12d4 f43d
00000360: 5ff9 30be f1df 5f3e d5e9 713e 9ab2 d9bd
00000370: 9133 eb3d b229 4ebc ac22 023e 0c01 53bc
00000380: fe12 00bd 08a6 eb3c 1945 033e 439c 59bd
00000390: 141d e13d 36c6 0e3d 1315 babb 11b5 203e
000003a0: 3466 803c ef27 83bd a221 f83d 454b bb3d
000003b0: 223d 33be 5575 d73d 5483 5b3e fa9d b33d
000003c0: 789a 853e 0bc3 c8bd 6a82 7a3d 11a2 583e
000003d0: cf2b dcbd a86d eb3d cd75 0ebd 85db 643b
000003e0: 853b a73d f338 a5bd e8df c73d 8767 92be
000003f0: 6c54 87bc ada9 4dbe ebdc 363e 9323 09be

base.5linear.bias f4 [50]
-0.051534373 0.13019389 -0.025105279 0.061494775 0.035571955 0.030504348 0.0121440375 -0.06293634
-0.042025965 0.08017736 -0.027324472 -0.11280064 0.042778827 0.000502432 0.10701503 -0.0695407
0.027594257 -0.08547857 -0.052423086 0.08348742 0.056841742 -0.0378581 -0.037460208 0.050308246
-0.008521171 0.052240383 0.041590124 0.023579119 0.14886491 0.10054477 -0.016381864 -0.003704332
-0.022488352 0.06299949 -0.04252347 -0.016579583 -0.053101223 0.007169186 -0.025114074 -0.06565771
0.061582506 -0.12799364 0.12976556 -0.067441784 0.08979455 0.061781835 0.002667434 -0.025023865
-0.00430417 -0.06112653
00000000: b515 53bd 8c51 053e 96a9 cdbc f2e1 7b3d
00000010: e6b3 113d 41e4 f93c c9f7 463c c5e4 80bd
00000020: 6b23 2cbd 0734 a43d 92d7 dfbc 0604 e7bd
00000030: da38 2f3d a4b5 033a b22a db3d 5b6b 8ebd
00000040: 5a0d e23c 630f afbd 97b9 56bd 74fb aa3d
00000050: e3d2 683d 1811 1bbd e06f 19bd 0510 4e3d
00000060: 629c 0bbc 03fa 553d 685a 2a3d ff28 c13c
00000070: 0b70 183e 6bea cd3d 4233 86bc 61c4 72bb
00000080: 7e39 b8bc e005 813d 172d 2ebd e8d1 87bc
00000090: ab80 59bd 7eeb ea3b 08bc cdbc 8d77 86bd
000000a0: f03d 7c3d c410 03be 43e1 043e eb1e 8abd
000000b0: 34e6 b73d f30e 7d3d 1ed0 2e3b d9fe ccbc
000000c0: ff09 8dbb d05f 7abd

base.6linear.weight f4 [50, 50]
0.088872924 0.32346678 -0.07854611 0.2362028 -0.08704488 -0.19086272 0.021555936 -0.16394499
0.34975192 0.047001764 0.31353444 0.031649914 0.13233247 -0.11842057 -0.07520182 -0.15842405
0.033740867 -0.084796794 0.050545085 0.082919724 0.10913607 0.1049599 -0.122789964 0.14401563
0.008465502 0.061106734 0.10345816 0.18220323 0.026909787 0.001484945 -0.17811853 -0.11210082
0.034947824 -0.09470173 -0.12058571 0.39015672 -0.071783945 0.15727721 -0.046785265 -0.024889473
-0.31796992 -0.08929207 -0.00027016838 0.16322179 0.09458135 0.05123529 -0.027374357 -0.11716331
0.19429122 0.04182575 0.22576083 -0.048492897 -0.12051288 0.23992775 0.05964222 -0.002665725
0.03404404 0.06705752 -0.28270638 0.109116375 0.0824997 -0.13966064 -0.08365133 -0.068100184
-0.1096764 -0.10666388 -0.061806917 0.023221666 0.01774131 0.07579649 -0.02378162 -0.08031005
-0.25783747 -0.39988878 0.123560406 0.07993901 -0.111632936 -0.022595074 0.032636307 0.3396456
-0.2330429 0.028857565 0.2703429 -0.06214704 -0.15972604 0.2644025 -0.11509155 0.078897655
-0.054218244 0.063134156 -0.06473739 -0.10423008 0.20942508 0.04729393 0.06915967 -0.2324222
0.12419525 0.03492257 -0.09231378 -0.08455708 0.01288389 -0.059148185 0.05210368 -0.34316486
-0.11389672 0.07384938 -0.30022886 0.19405113 -0.11759781 -0.1285744 0.21924645 0.15815847
-0.33319628 0.20722723 -0.10355172 0.048214085 0.096971765 -0.23697452 -0.07816758 -0.19263436
0.38527238 -0.19673274 0.12836821 0.12014065 -0.11123649 -0.2280286 -0.26232684 -0.39603326
-0.2969151 -0.33152205 0.23084868 0.0042540124 -0.08857177 0.0023185639 0.038571328 0.05643238
0.009017682 -0.50188506 -0.35572472 -0.17029484 0.076923884 -0.15665875 -0.03387615 -0.035255115
-0.07578082 0.040189385 -0.5335898 0.21216054 0.15613973 0.009080033 -0.07208203 -0.21470472
-0.14149769 0.1270934 -0.03204441 -0.03161725 -0.29259554 -0.05745079 -0.089733124 0.12174151
-0.12853327 0.10673717 -0.009082442 -0.20162594 0.10955851 0.18169369 -0.21062842 0.07841377
-0.021026094 0.1277644 0.0967409 0.18167101 0.008902976 0.06208159 -0.039084394 0.09938167
-0.22948152 -0.20055766 -0.06756609 -0.08843222 0.040229548 -0.1843784 0.02671375 0.12752187
0.08978343 -0.03356385 0.120303296 0.06448129 -0.14086159 0.06251234 0.053166203 -0.3666007
0.04261818 -0.19510932 -0.12665689 0.14007623 -0.29361013 -0.30546018 -0.257241 -0.06456741
-0.44746897 0.06957372 -0.16543435 -0.12246805 0.058279306 -0.03699835 -0.26894954 -0.12905604
-0.0338704 0.11061774 0.0015723108 0.0717358 -0.25395977 -0.04549953 -0.08466682 -0.022345312
-0.03226 0.01812927 -0.28864095 0.12792133 -0.27837902 -0.13689134 -0.16104014 0.02457029
-0.015100785 0.23156215 -0.19875623 0.2560026 -0.11995833 0.25219023 -0.23250379 -0.0039257905
0.02439815 -0.1617474 -0.30077937 -0.09863516 -0.107590035 -0.07091972 0.2285686 0.16216978
-0.18445551 0.0026755158 0.054427918 0.25396138 0.12390356 -0.06592095 0.1913175 -0.13908435
-0.15174413 0.0736401 0.21795891 0.29906353 0.15329294 -0.09479363 0.07874384 0.3042665
00000000: 0203 b63d 709d a53e c8dc a0bd 26df 713e
00000010: 9644 b2bd 8471 43be 1396 b03c 32e1 27be
00000020: af12 b33e ec84 403d 9687 a03e 57a3 013d
00000030: 2a82 073e 7c86 f2bd 6903 9abd ea39 22be
00000040: dd33 0a3d f1a9 adbd 5d08 4f3d d1d1 a93d
00000050: bb82 df3d 37f5 d63d 4e79 fbbd d578 133e
00000060: e4b2 0a3c 0e4b 7a3d dfe1 d33d 7c93 3a3e
00000070: ea71 dc3c 7ca2 c23a b464 36be 1d95 e5bd
00000080: 7325 0f3d fbf2 c1bd a4f5 f6bd 9fc2 c73e
00000090: 7603 93bd 470d 213e e8a1 3fbd 02e5 cbbc
000000a0: f4cc a2be c3de b6bd 63a5 8db9 9d23 273e
000000b0: deb3 c13d 18dc 513d 3040 e0bc 51f3 efbd
000000c0: 47f4 463e 7a51 2b3d d92d 673e 7da0 46bd
000000d0: 75cf f6bd 9faf 753e 674b 743d 72b3 2ebb
000000e0: c371 0b3d 7455 893d e4be 90be 6878 df3d
000000f0: 9af5 a83d 3303 0fbe 6351 abbd 1c78 8bbd
00000100: 059e e0bd 9872 dabd 4029 7dbd 5d3b be3c
00000110: 3956 913c 313b 9b3d acd1 c2bc 9879 a4bd
00000120: 4603 84be 39be ccbe 3d0d fd3d 10b7 a33d
00000130: cf9f e4bd 4e19 b9bc a6ad 053d 07e6 ad3e
00000140: cca2 6ebe b366 ec3c 626a 8a3e e58d 7ebd
00000150: 398f 23be c45f 873e 1eb5 ebbd 1895 a13d
00000160: f313 5ebd 7b4c 813d 0995 84bd 9576 d5bd
00000170: 8773 563e 48b7 413d 96a3 8d3d 1600 6ebe
00000180: 145a fe3d f80a 0f3d 020f bdbd 432c adbd
00000190: f416 533c 5e45 72bd ab6a 553d 4eb3 afbe
000001a0: af42 e9bd 583e 973d 99b7 99be 57b5 463e
000001b0: 1fd7 f0bd 02a9 03be 2482 603e 4bf4 213e
000001c0: b498 aabe 6033 543e ed12 d4bd 227c 453d
000001d0: 2299 c63d 73a9 72be 5316 a0bd f141 45be
000001e0: 6c42 c53e 4f74 49be f572 033e 4d0c f63d
000001f0: f5cf e3bd 5480 69be b44f 86be dfc4 cabe
00000200: 4205 98be 42bd a9be 9963 6c3e 3e65 8b3b
00000210: 1e65 b5bd 0cf3 173b f8fc 1d3d a425 673d
00000220: e6be 133c 8a7b 00bf 8d21 b6be c561 2ebe
00000230: 458a 9d3d 276b 20be b8c1 0abd ab67 10bd
00000240: f932 9bbd a09d 243d 5799 08bf 9d40 593e
00000250: 18e3 1f3e 6bc4 143c be9f 93bd 8edb 5bbe
00000260: c5e4 10be c624 023e 0041 03bd 1781 01bd
00000270: 15cf 95be 8551 6bbd 00c6 b7bd 9d53 f93d
00000280: 3a9e 03be 0499 da3d 86ce 14bc 0877 4ebe
00000290: 3660 e03d e90d 3a3e faae 57be 6697 a03d
000002a0: ea3e acbc acd4 023e 1820 c63d f707 3a3e
000002b0: cadd 113c 4449 7e3d f516 20bd 9e88 cb3d
000002c0: 34fd 6abe fd5e 4dbe 1760 8abd f41b b5bd
000002d0: bdc7 243d b1cd 3cbe cbd6 da3c 1895 023e
000002e0: 60e0 b73d 3f7a 09bd 9361 f63d c40e 843d
000002f0: 053e 10be 7806 803d cec4 593d 16b3 bbbe
00000300: 6790 2e3d bdca 47be 58b2 01be 2570 0f3e
00000310: 1154 96be 4765 9cbe 18b5 83be eb3b 84bd
00000320: a71a e5be ab7c 8e3d 9f67 29be 87d0 fabd
00000330: 48b6 6e3d 958b 17bd c1b3 89be 4427 04be
00000340: b0bb 0abd 8e8b e23d ff15 ce3a 38ea 923d
00000350: 0407 82be b75d 3abd cc65 adbd 840d b7bc
00000360: 1023 04bd d683 943c bfc8 93be cffd 023e
00000370: b287 8ebe 3e2d 0cbe b5e7 24be a247 c93c
00000380: 4869 77bc a11e 6d3e c186 4bbe c612 833e
00000390: b7ac f5bd 141f 813e 7915 6ebe eba3 80bb
000003a0: a1de c73c 1ca1 25be c1ff 99be 3b01 cabd
000003b0: 2a58 dcbd 5c3e 91bd e30d 6a3e d60f 263e
000003c0: e8e1 3cbe b557 2f3b cfef 5e3d 3a07 823e
000003d0: 26c1 fd3d 9001 87bd bce8 433e 216c 0ebe
000003e0: d062 1bbe 9fd0 963d 9f30 5f3e db1e 993e
000003f0: d3f8 1c3e 2a23 c2bd 7344 a13d d2c8 9b3e

base.6linear.bias f4 [50]
0.0397214 0.03731704 -0.13746825 0.008459425 0.05580564 0.019335048 0.042891297 0.06589403
-0.023039496 -0.058212034 -0.091754645 -0.01414641 -0.0057362905 -0.014757904 -0.1212458 -0.04581557
0.015422092 -0.016699128 -0.074130565 -0.018094644 0.097772464 -0.03637813 -0.009171655 0.12336048
0.12574394 -0.09561885 -0.05177945 0.12086078 0.003564609 -0.030456997 -0.06321347 -0.10988517
0.020440832 -0.0056181294 -0.08752316 -0.046670176 0.023463992 -0.006647747 0.06062328 -0.0051151817
-0.15430488 -0.014844245 0.033663068 -0.09375123 -0.04750212 -0.05293513 0.005264383 -0.032208003
-0.06813382 0.12834992
00000000: e8b2 223d c1d9 183d 7ac4 0cbe 6699 0a3c
00000010: 7494 643d 8964 9e3c c9ae 2f3d 73f3 863d
00000020: 53bd bcbc be6f 6ebd dce9 bbbd 58c6 67bc
00000030: 7ef7 bbbb 23cb 71bc b84f f8bd 1ba9 3bbd
00000040: f1ac 7c3c 9ccc 88bc c4d1 97bd 383b 94bc
00000050: ee3c c83d 3c01 15bd b644 16bc 6ba4 fc3d
00000060: 05c3 003e d1d3 c3bd b016 54bd db85 f73d
00000070: 379c 693b f480 f9bc 1076 81bd 7a0b e1bd
00000080: 8873 a73c 4918 b8bb 583f b3bd 3a29 3fbd
00000090: 8f37 c03c 58d5 d9bb 1e50 783d 419d a7bb
000000a0: 1902 1ebe 4735 73bc 49e2 093d a500 c0bd
000000b0: 9591 42bd 82d2 58bd d880 ac3b 8aec 03bd
000000c0: bf89 8bbd 296e 033e
