STPINN-RANS/sub_data/sub_write/11NS_model_train.pt (torch, 100283 bytes, 22 tensors)

base.0linear.weight f4 [50, 3]
-0.24050409 0.0020866508 0.1691425 -0.20667312 0.22205421 0.16662824 -0.25538892 -0.21751218
-0.026239814 0.0015254412 0.0019752455 0.00085130916 0.03157736 0.2966803 0.06406735 0.08778565
-0.28666747 -0.15008628 -0.010716082 0.10980119 0.21126002 0.13739187 -0.033248607 -0.06924348
-0.00045397328 -0.19151045 -0.1983083 0.112359434 0.084664844 -0.34610632 -0.23787716 0.07999703
-0.072733045 -0.17742445 0.109348714 0.062003 -0.19912669 0.040140457 -0.102199055 0.017384425
0.17112099 0.22407334 0.06432954 0.3524523 -0.22458136 -0.1533867 -0.368982 0.1216158
0.20002744 -0.013278292 -0.14034408 0.28551418 -0.30239773 -0.18635532 0.011021447 -0.18714957
-0.22162133 0.077160485 -0.13972539 -0.45623675 0.24719308 0.19822465 -0.34859484 -0.016709372
-0.06806912 -0.15556048 0.12575895 0.035575725 -0.24591859 -0.014843517 0.14526404 -0.32402152
-0.01772446 -0.02423227 -0.017287217 -0.02907163 0.0082341945 0.054862157 -0.26555744 -0.0454002
0.13176425 -0.14032795 -0.06409471 0.11256184 0.10348108 -0.11031806 -0.33303776 0.17220724
-0.23452856 -0.28629243 0.114346765 0.055189498 0.0450072 -0.27049702 0.101916924 0.4898567
-0.2036251 -0.15856029 0.27901205 -0.18044339 0.38484874 -0.23378968 0.18573666 -0.062796734
-0.19668832 0.017319003 0.31531292 0.08876475 0.0899186 0.14085403 -0.41441128 0.27988052
0.56489843 -0.3135005 0.02976368 -0.4530036 -0.06297844 -0.0014331323 -0.10719035 0.20039165
0.072324716 0.34298542 -0.19373223 0.002568739 0.008516991 0.008877833 0.11295197 -0.18376409
-0.2832876 -0.5174319 0.050970897 0.21178995 0.0017973629 0.0004820167 -0.00043340126 0.21569933
-0.18427628 -0.21473289 -0.030131754 0.035204917 -0.23125565 -0.00052685785 0.0022673456 0.00160636
-0.20301014 0.15969388 -0.2634393 0.055724654 0.3013729 -0.14926068
00000000: b446 76be 31c0 083b b133 2d3e 1ea2 53be
00000010: 2e62 633e 98a0 2a3e 56c2 82be 83bb 5ebe
00000020: e1f4 d6bc 50f1 c73a 1f73 013b 642a 5f3a
00000030: 4357 013d 7be6 973e be35 833d f6c8 b33d
00000040: 14c6 92be 38b0 19be 8192 2fbc 72df e03d
00000050: 8c54 583e 74b0 0c3e b12f 08bd 87cf 8dbd
00000060: 4303 eeb9 511b 44be 5511 4bbe b41c e63d
00000070: c364 ad3d d934 b1be 1296 73be 7cd5 a33d
00000080: 10f5 94bd c1ae 35be 38f2 df3d dcf6 7d3d
00000090: dee7 4bbe 526a 243d bd4d d1bd c869 8e3c
000000a0: 573a 2f3e 7b73 653e 35bf 833d a174 b43e
000000b0: a8f8 65be 6711 1dbe 35eb bcbe b411 f93d
000000c0: fed3 4c3e 318d 59bc 5cb6 0fbe ea2e 923e
000000d0: e0d3 9abe eed3 3ebe 4d93 343c 23a4 3fbe
000000e0: b4f0 62be 5106 9e3d 2c14 0fbe dd97 e9be
000000f0: 2f20 7d3e 67fb 4a3e 067b b2be 18e2 88bc
00000100: d367 8bbd 3f4b 1fbe f4c6 003e dab7 113d
00000110: 15d2 7bbe 3932 73bc 19c0 143e 26e6 a5be
00000120: e332 91bc c182 c6bc ec9d 8dbc a127 eebc
00000130: b7e8 063c 24b7 603d 25f7 87be 8ff5 39bd
00000140: 35ed 063e 21b2 0fbe 1644 83bd d286 e63d
00000150: e3ed d33d 6fee e1bd ed83 aabe 1857 303e
00000160: 4128 70be ec94 92be a32e ea3d 620e 623d
00000170: 7859 383d 967e 8abe d2b9 d03d 7fce fa3e
00000180: 1983 50be a15d 22be abda 8e3e 27c6 38be
00000190: e50a c53e 9066 6fbe c031 3e3e 939b 80bd
000001a0: aa68 49be 95e0 8d3c b270 a13e 4bca b53d
000001b0: 3e27 b83d 0a3c 103e b72d d4be 804c 8f3e
000001c0: 2f9d 103f 2383 a0be f6d2 f33c 16f0 e7be
000001d0: d7fa 80bd f1d7 bbba 9d86 dbbd 7833 4d3e
000001e0: fb1e 943d c99b af3e be61 46be 4a58 283b
000001f0: d98a 0b3c 5574 113c 5d53 e73d a72c 3cbe
00000200: 130b 91be 6b76 04bf dcc6 503d 77df 583e
00000210: 7e95 eb3a 30b7 fc39 223a e3b9 49e0 5c3e
00000220: ecb2 3cbe f0e2 5bbe ded6 f6bc 0833 103d
00000230: 48ce 6cbe d51c 0aba bf97 143b 7f8c d23a
00000240: e4e1 4fbe cb86 233e 84e1 86be 893f 643d
00000250: 8c4d 9a3e cbd7 18be

base.0linear.bias f4 [50]
-0.035739757 -0.011642938 0.16823986 -0.0008848337 -0.12791936 0.13782829 -0.103938915 0.06723908
0.17106432 0.11295463 0.13870524 0.045068767 0.1477757 0.12461691 0.06571283 0.028606731
-0.016327204 0.0127519015 0.07856212 -0.09867134 0.07117732 0.09262678 -0.024059335 0.040180206
0.022943113 -0.02683162 0.0024138445 -0.07302341 0.15384325 0.060311355 -0.08476386 -0.008864718
-0.06717271 0.1219524 0.02299061 -0.10959184 -0.13127817 -0.03150022 0.08404455 -0.10575463
-0.020363437 -0.0069909347 0.0064330227 -0.22947447 -0.0004970133 0.07515062 0.13364927 -0.00020251982
0.07939417 0.022678802
00000000: da63 12bd 05c2 3ebc 1247 2c3e 2ff4 67ba
00000010: 4bfd 02be dc22 0d3e eddd d4bd a5b4 893d
00000020: 7c2b 2f3e c254 e73d bf08 0e3e 079a 383d
00000030: 8352 173e 2737 ff3d 7394 863d aa58 ea3c
00000040: a1c0 85bc 5aed 503c 2de5 a03d 3314 cabd
00000050: 6ac5 913d 1cb3 bd3d 1518 c5bc 0094 243d
00000060: 32f3 bb3c fccd dbbc 9731 1e3b 4c8d 95bd
00000070: 1689 1d3e 0a09 773d ad98 adbd 523d 11bc
00000080: d991 89bd 2ec2 f93d ce56 bc3c b071 e0bd
00000090: c96d 06be 6006 01bd 8d1f ac3d e295 d8bd
000000a0: 39d1 a6bc 3614 e5bb 1bcc d23b 5bfb 6abe
000000b0: ff49 02ba 91e8 993d 5bdb 083e 805b 54b9
000000c0: 6999 a23d e5c8 b93c

base.1linear.weight f4 [50, 50]
-0.26703024 0.011597791 0.020320809 -0.019492326 0.3912424 -0.11003133 0.045110736 0.15658809
-0.17375894 -0.06008323 -0.07416851 -0.1679235 -0.374346 0.069717444 0.1592109 -0.019020941
0.08651135 0.072129 -0.17459407 0.23474422 0.093729004 -0.018753154 0.2134361 -0.11929982
-0.081011206 0.025613215 -0.23307313 0.08827612 -0.18796536 -0.13487792 -0.011081536 -0.19765608
0.12200621 -0.21330655 -0.14745806 0.18022573 0.17745338 0.29648882 -0.31143886 0.10156011
0.22612949 -0.09528673 -0.14826402 0.23688881 0.013349188 -0.01696745 -0.17407578 -0.10502916
0.04323754 -0.027964251 0.0008739081 0.33676666 -0.34636766 0.016224096 -0.07896052 -0.16168208
0.028643819 -0.027992511 -0.2065229 0.02464715 -0.012918807 0.0094017945 -0.21467723 -0.018604524
0.039122414 -0.029400846 0.043714315 -0.062119927 0.28640565 -0.105331 -0.11718065 -0.07668044
-0.15174468 -0.01578371 0.022379057 -0.15801908 0.15133727 -0.1687186 0.06332649 -0.0047229216
0.049185436 0.06344799 -0.29952493 0.17093346 0.12135121 0.3608339 0.12667856 0.22003402
-0.27619496 0.21227902 0.21235733 0.067351125 0.14520268 -0.1862558 -0.06252134 0.016247287
0.19666283 -0.14122957 0.1646895 0.006200274 -0.3570293 0.08104308 -0.33064485 0.029420706
0.142563 -0.040429365 0.23810744 0.40534186 0.11741323 0.044618312 -0.35761005 0.20139036
-0.32661512 0.3177152 0.25925466 -0.21514916 0.30974323 0.21495293 -0.44019902 -0.02811179
-0.06195067 -0.023126941 -0.030090384 -0.11714022 -0.19551554 -0.007348046 -0.3256852 -0.66967034
-0.076502785 0.06751637 0.27691883 -0.29540962 -0.3238006 -0.20702769 0.16145433 0.15943079
-0.21992964 0.16982982 -0.30812055 -0.045423344 -0.06255925 -0.03706269 -0.25949407 -0.8296897
0.04461842 0.19525333 -0.21420865 -0.004239827 -0.31797966 0.089375146 -0.08849391 -0.13198252
-0.054263145 -0.0061708135 0.16723526 -0.31564286 0.11360729 -0.030032855 -0.23289792 0.0876501
-0.017215176 0.15760407 -0.0639598 -0.031824023 0.1731796 -0.37305844 -0.104322515 -0.087380715
0.029452141 -0.15127458 -0.2696318 0.0058660875 0.117287666 -0.05299233 0.0688914 -0.2776087
-0.050063632 -0.010928225 -0.35888925 -0.28404614 0.022892611 -0.0048235147 -0.077785134 0.131061
-0.14030288 0.14953047 0.059223533 0.16649327 -0.055410903 0.04629788 0.199427 -0.25304958
-0.010060001 0.049254965 0.00036347593 -0.09561265 -0.038747534 -0.05849768 -0.1293492 -0.020130487
0.37955114 0.14630158 -0.22192615 0.07279076 0.72857964 -0.46374503 -0.036542613 -0.14094462
-0.1836913 -0.124674805 0.001169461 0.09978024 0.108607315 0.015304173 0.1195812 -0.16176938
0.08062038 -0.113170885 -0.10521006 -0.14992861 -0.04932221 0.00924482 0.012698829 -0.15983187
0.21259628 -0.2845081 0.24399947 0.06795666 -0.17677942 0.041505065 0.25800735 0.10187996
0.15333968 0.024422362 0.07263085 0.40430096 0.0709755 0.10654703 0.11476893 -0.026422648
-0.118318655 0.14048383 -0.1054045 0.37179598 -0.26110396 -0.010421867 -0.15229957 0.05031364
-0.061215058 0.18845628 -0.059877723 -0.2715196 0.042672276 0.14858533 0.080584906 -0.22218436
00000000: 30b8 88be a904 3e3c d377 a63c 5fae 9fbc
00000010: ed50 c83e 1b58 e1bd 09c6 383d a158 203e
00000020: dded 31be d519 76bd a9e5 97bd 23f4 2bbe
00000030: 47aa bfbe 05c8 8e3d 2f08 233e ced1 9bbc
00000040: dd2c b13d 5fb8 933d cac8 32be ca60 703e
00000050: fef4 bf3d 37a0 99bc fe8e 5a3e 7753 f4bd
00000060: 34e9 a5bd ced2 d13c b9aa 6ebe 1cca b43d
00000070: fe79 40be 701d 0abe 558f 35bc 5b66 4abe
00000080: 64de f93d 086d 5abe 3fff 16be 188d 383e
00000090: 57b6 353e 62cd 973e ea74 9fbe bffe cf3d
000000a0: 7d8e 673e b025 c3bd 86d2 17be fb92 723e
000000b0: 8db6 5a3c 52ff 8abc ec40 32be 8719 d7bd
000000c0: d919 313d 4915 e5bc fb16 653a ae6c ac3e
000000d0: 1a57 b1be 65e8 843c 0eb6 a1bd fd8f 25be
000000e0: 71a6 ea3c 8d50 e5bc bd7a 53be d2e8 c93c
000000f0: 67a9 53bc fc09 1a3c 59d4 5bbe 8468 98bc
00000100: d33e 203d 0bda f0bc c80d 333d 7771 7ebd
00000110: c3a3 923e c8b7 d7bd 69fc efbd a20a 9dbd
00000120: f562 1bbe d74c 81bc 4954 b73c c1cf 21be
00000130: 28f8 1a3e 92c4 2cbe 52b1 813d bdc2 9abb
00000140: ab76 493d 05f1 813d 555b 99be 2e09 2f3e
00000150: fc86 f83d 39bf b83e 06b8 013e 9950 613e
00000160: 6d69 8dbe ac5f 593e 3374 593e 63ef 893d
00000170: 03b0 143e d7b9 3ebe 300b 80bd 0819 853c
00000180: fb61 493e 7c9e 10be 5da4 283e ab2b cb3b
00000190: 8bcc b6be eaf9 a53d 484a a9be b103 f13c
000001a0: 09fc 113e 4399 25bd 70d2 733e f888 cf3e
000001b0: 5976 f03d b1c1 363d aa18 b7be 4639 4e3e
000001c0: 193a a7be 91ab a23e 07bd 843e 1050 5cbe
000001d0: aa96 9e3e 9f1c 5c3e c461 e1be b24a e6bc
000001e0: fcbf 7dbd b674 bdbc 1c80 f6bc 36e7 efbd
000001f0: 3a35 48be e1c7 f0bb 36c0 a6be 846f 2bbf
00000200: 7ead 9cbd 0646 8a3d 4ec8 8d3e ee3f 97be
00000210: 31c9 a5be 11ff 53be 4954 253e d341 233e
00000220: 3c35 61be dee7 2d3e fac1 9dbe d40d 3abd
00000230: 101f 80bd 0ccf 17bd 68dc 84be 8b66 54bf
00000240: cec1 363d 7df0 473e 8359 5bbe 3fee 8abb
00000250: 3bce a2be 510a b73d 4c3c b5bd 6d26 07be
00000260: 0843 5ebd 8934 cabb b83f 2b3e f19b a1be
00000270: f0aa e83d 7607 f6bc cb7c 6ebe e581 b33d
00000280: d706 8dbc f662 213e 5bfd 82bd e859 02bd
00000290: fe55 313e 8401 bfbe 0ba7 d5bd a9f4 b2bd
000002a0: 9e45 f13c b9e7 1abe 2e0d 8abe 4f38 c03b
000002b0: 8434 f03d 7c0e 59bd ef16 8d3d ba22 8ebe
000002c0: 860f 4dbd 4c0c 33bc 55c0 b7be 7f6e 91be
000002d0: 4989 bb3c 930e 9ebb d04d 9fbd db34 063e
000002e0: 8fab 0fbe 841e 193e 6094 723d 367d 2a3e
000002f0: 8bf6 62bd d9a2 3d3d 9736 4c3e b78f 81be
00000300: b4d2 24bc 93bf 493d ea90 be39 91d0 c3bd
00000310: bcb5 1ebd 439b 6fbd 1e74 04be b1e8 a4bc
00000320: 8754 c23e 15d0 153e 9c40 63be 5213 953d
00000330: 3284 3a3f fd6f edbe b5ad 15bd c953 10be
00000340: 9219 3cbe 8155 ffbd 9948 993a 9559 cc3d
00000350: 836d de3d 5bbe 7a3c fde6 f43d dfa6 25be
00000360: 4c1c a53d 23c6 e7bd 5f78 d7bd e386 19be
00000370: 1606 4abd 9677 173c c00e 503c f7aa 23be
00000380: d7b2 593e 0cab 91be ffda 793e dd2c 8b3d
00000390: aa05 35be 3701 2a3d 8a19 843e 71a6 d03d
000003a0: 1405 1d3e 6811 c83c 7cbf 943d 8900 cf3e
000003b0: 9a5b 913d 5435 da3d f90b eb3d 4f74 d8bc
000003c0: 0d51 f2bd feda 0f3e 51de d7bd 0b5c be3e
000003d0: 6baf 85be 7ac0 2abc 6bf4 1bbe ad15 4e3d
000003e0: a4bc 7abd affa 403e 5842 75bd 9e04 8bbe
000003f0: 20c9 2e3d c126 183e b309 a53d 4c84 63be

base.1linear.bias f4 [50]
-0.13331558 -0.020823456 0.28248638 -0.060275167 -0.09758802 0.008698026 0.08278606 0.029850332
0.08707362 -0.057557646 -0.003953294 -0.10714142 -0.07220907 -0.022794217 -0.016570834 -0.14494753
0.19327296 0.022117918 0.046848964 -0.0082896035 -0.07422674 0.11648736 -0.09874041 0.029192856
0.0054616085 -0.02457173 0.13401863 -0.13663343 0.12518086 0.13035291 0.044447962 -0.029326437
0.043172445 0.047605067 0.019692563 0.13032381 0.11470982 -0.032828577 -0.012468322 0.12974797
-0.11050105 0.12940481 0.021594279 -0.05814554 -0.045599446 0.017092193 -0.03938943 -0.02669102
0.07387389 0.059116956
00000000: e183 08be f495 aabc 0ea2 903e 18e3 76bd
00000010: 3adc c7bd 2a82 0e3c bd8b a93d af88 f43c
00000020: a753 b23d 91c1 6bbd a28a 81bb f66c dbbd
00000030: 59e2 93bd f0ba babc 8fbf 87bc 206d 14be
00000040: 59e9 453e a330 b53c b3e4 3f3d 1ed1 07bc
00000050: 3004 98bd ed90 ee3d 6938 cabd db25 ef3c
00000060: 4bf7 b23b a74a c9bc 2e3c 093e a2e9 0bbe
00000070: 692f 003e 3c7b 053e 110f 363d ff3d f0bc
00000080: 97d5 303d 88fd 423d 4c52 a13c 9b73 053e
00000090: fbec ea3d 4277 06bd ef47 4cbc a7dc 043e
000000a0: 604e e2bd b282 043e 7ce6 b03c 052a 6ebd
000000b0: 7cc6 3abd ed04 8c3c d056 21bd 20a7 dabc
000000c0: 324b 973d 9f24 723d

base.2linear.weight f4 [50, 50]
-0.3996372 -0.15982719 -0.011328746 -0.23832579 -0.33445612 0.19993787 -0.0783125 -0.005280202
-0.3918016 -0.03492698 0.019785935 -0.011677975 -0.07723716 0.026531845 0.2105106 -0.08279435
0.42175868 0.060744666 -0.01358306 -0.0020395217 -0.03203983 0.005936326 -0.17789654 -0.0052306526
0.026195543 -0.24382158 0.25689995 -0.23427221 0.17325975 -0.27541754 0.18229795 0.20855907
-0.034588702 -0.01333644 -0.019297704 0.24821952 0.3096207 -0.12071486 0.37174258 0.3821081
-0.217212 0.51090616 -0.24699543 -0.09195053 -0.11687431 0.13700221 0.2152783 -0.016116122
0.24828285 0.12288414 -0.09075459 0.16621618 -0.0806092 0.11031647 -0.019472362 0.015385725
0.24550901 0.07292839 0.046057038 0.05971034 0.013345667 -0.09642276 0.12871046 -0.095988505
-0.110149756 0.09456552 0.2948696 -0.120278575 0.07788758 -0.2118798 -0.20312522 -0.10226638
0.11101801 -0.17966254 -0.12578362 -0.20545965 -0.063508764 -0.0792661 -0.10438543 -0.0039147204
-0.20736098 -0.07991609 -0.18012631 -0.013960482 0.08182144 -0.02757472 -0.13692464 0.040396452
-0.047088385 0.14356852 0.066734985 -0.19170769 0.056123856 0.16597965 0.075904615 0.055153668
0.15347677 0.18211913 0.11332276 -0.09039526 0.030444581 -0.033047706 0.015021562 -0.01156003
0.024090657 -0.17387576 0.0375649 0.047063272 -0.05976328 0.060783908 0.19458196 0.14544138
-0.049562823 -0.037010238 0.014762274 -0.1971935 -0.20976886 -0.030689206 0.035858426 -0.115473
0.046828937 -0.006742844 0.041985594 0.055888828 -0.0088538695 0.008620729 -0.2754863 0.05943791
0.15555765 0.23835015 0.09849193 0.012075403 0.21736789 -0.1153609 0.22962926 -0.18738909
-0.33808988 -0.018729752 -0.16733813 -0.23433141 0.07505132 -0.06513853 0.11019546 0.19627437
0.12128258 0.06699085 0.1672458 -0.040119894 -0.39714462 0.018259553 0.02107276 0.019104512
0.010992169 -0.30718005 -0.0127478205 0.24353088 -0.22352119 0.09612169 -0.00696611 -0.018754493
0.03871158 -0.05969329 0.12180065 0.13894719 -0.14519693 0.33850065 -0.06558448 -0.06659974
0.055526618 -0.1453642 -0.07845472 -0.3702235 -0.11191183 0.032981914 -0.07559696 0.035036027
-0.09629383 0.27051887 -0.38421914 0.0044247825 0.09990321 -0.092963226 -0.1703872 0.20126925
-0.13481998 -0.15797107 0.31947392 -0.11782251 -0.08271796 -0.19043384 -0.10209491 0.086592756
-0.19988973 0.10194667 0.028715009 0.04071151 -0.047377195 0.0003215859 0.06628635 -0.22161734
-0.06126054 0.053713437 0.26867807 0.03215249 0.085482225 -0.039249312 -0.16492757 0.010267768
-0.07889892 0.007375138 0.02388902 -0.11631502 0.1470771 0.0001558397 -0.16273782 0.19829217
-0.10444788 -0.23448867 -0.02106193 -0.07587643 -0.010132288 -0.014099818 -0.06952649 -0.023546737
-0.0070446017 0.2225823 -0.096423954 -0.21599576 -0.14167254 -0.37889266 0.122819304 0.21091412
-0.19008389 -0.087946795 -0.113680676 0.09068699 -0.082847916 -0.0055872113 -0.056820206 -0.03512669
0.081050865 -0.044109907 -0.14858851 0.06144381 0.12240739 -0.100106895 0.12498272 -0.27428925
0.033730786 -0.31382638 -0.07079564 0.12823236 0.11660428 -0.2801436 -0.08392601 -0.12257906
00000000: 3f9d ccbe bda9 23be 349c 39bc ad0b 74be
00000010: d53d abbe 83bc 4c3e 4e62 a0bd 8b05 adbb
00000020: 389a c8be 980f 0fbd 1d16 a23c fa54 3fbc
00000030: 842e 9ebd 5059 d93c 1790 573e 1690 a9bd
00000040: c1f0 d73e 66cf 783d 7c8b 5ebc 7fa9 05bb
00000050: 323c 03bd 8385 c23b 832a 36be e565 abbb
00000060: 0998 d63c 5dac 79be 6488 833e 0ee5 6fbe
00000070: 016b 313e 8703 8dbe 50ac 3a3e 8290 553e
00000080: e2ac 0dbd 1581 5abc 3816 9ebc 422d 7e3e
00000090: 9b86 9e3e 5a39 f7bd 0b55 be3e aca3 c33e
000000a0: d36c 5ebe bfca 023f 5fec 7cbe 8f50 bcbd
000000b0: cc5b efbd 4f4a 0c3e ea71 5c3e f505 84bc
000000c0: dc3d 7e3e aeaa fb3d 8bdd b9bd 9334 2a3e
000000d0: 7016 a5bd 9aed e13d 8184 9fbc 6814 7c3c
000000e0: b766 7b3e 7b5b 953d 4ea6 3c3d d492 743d
000000f0: c9a7 5a3c 4c79 c5bd adcc 033e 9f95 c4bd
00000100: 3296 e1bd 91ab c13d 26f9 963e 9d54 f6bd
00000110: 8683 9f3d 05f7 58be 0f00 50be 0971 d1bd
00000120: 695d e33d 75f9 37be 6ccd 00be 0464 52be
00000130: e210 82bd 4456 a2bd 07c8 d5bd 0e47 80bb
00000140: 7056 54be 0cab a3bd 0873 38be 81ba 64bc
00000150: 0092 a73d 61e4 e1bc f935 0cbe c076 253d
00000160: c0df 40bd a003 133e 5aac 883d 054f 44be
00000170: 21e2 653d 92f6 293e e173 9b3d d0e8 613d
00000180: 0429 1d3e 707d 3a3e c315 e83d 2621 b9bd
00000190: ea66 f93c 085d 07bd ff1c 763c 4866 3dbc
000001a0: c559 c53c 7d0c 32be a7dd 193d 6bc5 403d
000001b0: 57ca 74bd 8cf8 783d 7e40 473e 96ee 143e
000001c0: 6302 4bbd 0c98 17bd 77dd 713c 18ed 49be
000001d0: a6cd 56be ee67 fbbc 49e0 123d 1c7d ecbd
000001e0: b3cf 3f3d 13f3 dcbb 16f9 2b3d afeb 643d
000001f0: d20f 11bc f53d 0d3c 8a0c 8dbe 2a75 733d
00000200: 814a 1f3e 1012 743e 23b6 c93d e9d7 453c
00000210: b095 5e3e 5642 ecbd ef23 6b3e ede2 3fbe
00000220: 1e1a adbe 236f 99bc b05a 2bbe 93f4 6fbe
00000230: 82b4 993d 5a67 85bd 28ae e13d 26fc 483e
00000240: 0063 f83d 8032 893d 7c42 2b3e c254 24bd
00000250: 8a56 cbbe 0f95 953c c8a0 ac3c 1181 9c3c
00000260: 8018 343c b446 9dbe 3cdc 50bc 2960 793e
00000270: bde2 64be 73db c43d f743 e4bb 06a3 99bc
00000280: 0990 1e3d f480 74bd 9f72 f93d 2c48 0e3e
00000290: 81ae 14be f54f ad3e 2851 86bd 7265 88bd
000002a0: e16f 633d 5ada 14be deac a0bd ef8d bdbe
000002b0: 0832 e5bd 0b18 073d 94d2 9abd f081 0f3d
000002c0: b335 c5bd 7381 8a3e 5fb8 c4be c4fd 903b
000002d0: 0e9a cc3d 8163 bebd fb79 2ebe 8719 4e3e
000002e0: 400e 0abe 2bc3 21be 1692 a33e ee4c f1bd
000002f0: 0968 a9bd 1701 43be 2317 d1bd 8b57 b13d
00000300: e5af 4cbe 6ac9 d03d bd3b eb3c 1dc1 263d
00000310: 970e 42bd 879a a839 23c1 873d a8ef 62be
00000320: 55ec 7abd 9f02 5c3d 2c90 893e 54b2 033d
00000330: 4e11 af3d e3c3 20bd c6e2 28be 243a 283c
00000340: c295 a1bd 24ab f13b e8b2 c33c 9236 eebd
00000350: 619b 163e e768 2339 bea4 26be 1a0d 4b3e
00000360: c5e8 d5bd cc1d 70be 128a acbc 1a65 9bbd
00000370: e501 26bc ec02 67bc e863 8ebd 16e5 c0bc
00000380: 67d6 e6bb 9dec 633e ec79 c5bd fe2d 5dbe
00000390: 9b12 11be 38fe c1be b088 fb3d dff9 573e
000003a0: 5aa5 42be 731d b4bd 6ad1 e8bd 1aba b93d
000003b0: 2bac a9bd ed14 b7bb 4ebc 68bd 01e1 0fbd
000003c0: fffd a53d 97ac 34bd 9627 18be 81ac 7b3d
000003d0: bab0 fa3d d804 cdbd f1f6 ff3d a46f 8cbe
000003e0: 4b29 0a3d daad a0be 4efd 90bd 584f 033e
000003f0: 3ace ee3d fb6e 8fbe 66e1 abbd bb0a fbbd

base.2linear.bias f4 [50]
0.1525485 -0.006092851 -0.07174246 -0.08186431 -0.03106861 -0.021074124 0.07253623 -0.16421048
-0.19698785 -0.0127496105 -0.07805385 -0.033249155 0.08932546 0.011717642 0.08192006 -0.10014523
-0.012839231 0.11305159 0.013663517 0.022554182 -0.10180571 0.05250918 0.17240964 -0.15927774
0.10630387 -0.06588399 0.036014896 0.0040736347 0.098576345 0.04197042 -0.0051847305 0.19041988
-0.18803748 -0.12274669 0.006302105 -0.1375038 -0.100693084 0.075475246 0.06857917 0.07842697
0.008613214 -0.017523767 -0.041438144 -0.06426888 -0.0800233 0.0018676391 -0.0050701587 0.06839758
0.10637762 -0.03843512
00000000: ad35 1c3e 8aa6 c7bb b6ed 92bd 7aa8 a7bd
00000010: 9983 febc a4a3 acbc e08d 943d cb26 28be
00000020: 2fb7 49be bee3 50bc b2da 9fbd 4430 08bd
00000030: 44f0 b63d 5afb 3f3c b4c5 a73d f118 cdbd
00000040: a35b 52bc 9887 e73d f2dc 5f3c 8cc3 b83c
00000050: 837f d0bd de13 573d 278c 303e b419 23be
00000060: d8b5 d93d 2fee 86bd 5b84 133d 207c 853b
00000070: 65e2 c93d 2de9 2b3d ace4 a9bb 6efd 423e
00000080: e68c 40be 9e62 fbbd e381 ce3b cccd 0cbe
00000090: 2d38 cebd c492 9a3d 3c73 8c3d 529e a03d
000000a0: 701e 0d3c 018e 8fbc 0bbb 29bd 679f 83bd
000000b0: 42e3 a3bd 92cb f43a 9323 a6bb 0814 8c3d
000000c0: 82dc d93d 256e 1dbd

base.3linear.weight f4 [50, 50]
0.05081365 -0.1494225 0.25519624 -0.08385053 -0.1371178 -0.19366162 -0.07263114 -0.23246431
-0.02709561 0.12930642 0.0969939 -0.008472325 0.07326207 -0.10642412 -0.27356875 -0.22263086
0.050601393 0.07792772 0.0017846958 -0.091363855 0.23569964 0.106196366 -0.0025284023 -0.098487705
0.070873514 -0.07183856 -0.13643122 -0.043083116 -0.076526776 0.010989807 0.12597497 -0.058104698
-0.008026443 -0.088054694 -0.13207762 -0.28210744 0.3251568 -0.021354169 -0.25365227 0.10198858
0.03676665 0.1302958 -0.33187202 -0.27222887 -0.07738094 -0.115993656 0.078837454 0.05058687
0.17976172 0.0061282213 -0.081349075 -0.16074 -0.13830292 0.092887744 0.024025539 -0.009898803
0.10467127 0.2506918 -0.13460144 0.119350135 0.16064632 -0.031594973 -0.079214826 0.25626144
0.15506247 -0.20823602 -0.21114573 -0.13493851 0.11460304 -0.05564002 0.4638056 0.22177672
0.07436942 0.05310342 -0.009427512 0.029662037 -0.013416887 -0.07083027 0.060987033 0.016573237
0.14472966 -0.05280731 0.17387772 -0.06751528 -0.12289073 -0.09278233 -0.042995058 0.056407142
0.31512478 -0.30171755 0.17747924 -0.019735157 0.2765535 0.46279246 -0.1562033 -0.165581
-0.014643644 0.23853947 0.04385753 0.28507417 0.038843825 0.030771222 -0.051381156 0.15737188
-0.20207888 0.11409728 -0.0012637884 0.24798733 0.16800806 -0.054998904 -0.105790004 -0.059340615
0.067517065 0.18615039 -0.338722 -0.022089783 0.046345532 0.12383322 0.030137254 -0.16159359
0.23096406 0.09706651 -0.09854626 0.17439152 0.047878016 0.07499386 -0.0018566332 0.06239092
-0.21323621 -0.02273812 0.02468778 0.031667177 -0.2150281 -0.17674209 0.20998755 -0.25469822
-0.0881299 -0.003170496 -0.019307813 0.13249025 0.11190505 -0.2494178 -0.18829787 0.037952434
-0.08133674 0.19787887 0.080150224 -0.15657142 0.082554035 -0.08705166 -0.12158236 0.108806
-0.33699015 -0.21195982 0.28701207 -0.17422977 -0.24921675 -0.31998742 -0.121275574 0.10622616
-0.07809876 0.016911922 -0.21671072 0.023764228 0.050230816 -0.28563797 -0.084424384 0.06187825
-0.0034897819 0.25793758 0.22418599 -0.1852677 0.21885107 0.18875098 0.385909 -0.445757
-0.29670176 0.12759645 0.15880206 -0.00278507 0.10468597 0.37926528 -0.13147657 0.006064142
-0.29092413 -0.029066255 0.017387949 -0.15176669 0.036709733 0.0281902 -0.2954219 -0.027937857
-0.19121613 -0.0493749 0.14230545 -0.4532354 0.110785544 0.019083919 0.060071085 0.008879222
0.42173058 -0.0402497 -0.0608552 -0.32528746 0.032290753 0.30222455 -0.047097363 -0.31071404
-0.17154847 0.103084445 -0.015587449 0.002231435 -0.09808317 -0.15426347 0.15806927 -0.26926905
0.015270045 0.34019038 -0.0034043835 0.064339764 -0.32585618 0.016679008 0.088287055 -0.51167613
0.10961927 -0.2098025 -0.03003448 0.12579052 0.11766034 0.009506775 0.018448014 0.2896223
-0.8002815 -0.23071636 0.025720986 0.0075970716 0.031384535 0.20489994 -0.0055704783 0.0028403623
-0.28616574 -0.06463933 -0.09983376 -0.1477622 0.08633027 0.2025454 -0.053801768 -0.011459297
0.00641572 0.028456245 -0.016980069 -0.020101748 0.1324749 -0.084315866 0.3251319 0.19094954
00000000: f921 503d 3602 19be 15a9 823e d4b9 abbd
00000010: 9c68 0cbe 3b4f 46be a3bf 94bd 200b 6ebe
00000020: 9df7 ddbc e768 043e bda4 c63d 82cf 0abc
00000030: 6d0a 963d e4f4 d9bd 3411 8cbe 58f9 63be
00000040: 6843 4f3d 9298 9f3d 74ec e93a f91c bbbd
00000050: 3f5b 713e 7b7d d93d 8db3 25bb ecb3 c9bd
00000060: 2226 913d 1820 93bd a0b4 0bbe ec77 30bd
00000070: 12ba 9cbd 970e 343c 95ff 003e 31ff 6dbd
00000080: 5881 03bc 0556 b4bd 5b3f 07be 6370 90be
00000090: f47a a63e f0ee aebc b6de 81be 63df d03d
000000a0: a098 163d 436c 053e 21eb a9be 9561 8bbe
000000b0: e679 9ebd 158e edbd 8875 a13d 2e34 4f3d
000000c0: 7513 383e 3fcf c83b 589a a6bd 0799 24be
000000d0: 489f 0dbe ee3b be3d 35d1 c43c 972e 22bc
000000e0: e45d d63d ad5a 803e f6d4 09be d86d f43d
000000f0: 7880 243e bb69 01bd 623b a2bd b334 833e
00000100: b2c8 1e3e d33b 55be 9636 58be 522d 0abe
00000110: 00b5 ea3d cae6 63bd ed77 ed3e 7019 633e
00000120: ff4e 983d f982 593d da75 1abc cdfd f23c
00000130: 81d2 5bbc 760f 91bd 8acd 793d 99c4 873c
00000140: 0334 143e 7a4c 58bd 000d 323e 7345 8abd
00000150: 23ae fbbd aa04 bebd 961b 30bd 2d0b 673d
00000160: 0958 a13e b97a 9abe 1ebd 353e a0ab a1bc
00000170: 6c98 8d3e 22f3 ec3e c2f3 1fbe 118e 29be
00000180: e5eb 6fbc b143 743e f4a3 333d 3ef5 913e
00000190: b41a 1f3d ee13 fc3c 0c75 52bd 1826 213e
000001a0: c4ed 4ebe d6ab e93d b4a5 a5ba 64f0 7d3e
000001b0: 4e0a 2c3e 8846 61bd 6ea8 d8bd 250f 73bd
000001c0: 6346 8a3d 359e 3e3e f86c adbe a2f5 b4bc
000001d0: d0d4 3d3d 459c fd3d 67e2 f63c ca78 25be
000001e0: d881 6c3e ceca c63d 9fd2 c9bd b193 323e
000001f0: bd1b 443d 6296 993d 465a f3ba 9f8d 7f3d
00000200: 985a 5abe 4b45 babc 073e ca3c 71b5 013d
00000210: 5430 5cbe e1fb 34be fa06 573e ce67 82be
00000220: 737d b4bd 19c8 4fbb 6b2b 9ebc 86ab 073e
00000230: 7a2e e53d 6167 7fbe 28d1 40be 0374 1b3d
00000240: e093 a6bd c2a0 4a3e cd25 a43d 4254 20be
00000250: 1712 a93d 2448 b2bd 2c00 f9bd aed5 de3d
00000260: f989 acbe ff0b 59be 3ff3 923e 4a69 32be
00000270: ad32 7fbe 64d5 a3be 545f f8bd 1a8d d93d
00000280: 3ef2 9fbd df8a 8a3c 6ae9 5dbe 33ad c23c
00000290: d4be 4d3d 243f 92be b1e6 acbd 0c74 7d3d
000002a0: d3b4 64bb 6510 843e 0391 653e d1b6 3dbe
000002b0: 7f1a 603e f047 413e dd95 c53e 433a e4be
000002c0: 4be9 97be a5a8 023e 029d 223e b985 36bb
000002d0: 9965 d63d 0f2f c23e cba1 06be b6b5 c63b
000002e0: 02f4 94be 5b1c eebc 2c71 8e3c ba68 1bbe
000002f0: f25c 163d 22ef e63c 8a41 97be efdd e4bc
00000300: 29ce 43be 563d 4abd 85b8 113e 780e e8be
00000310: 88e3 e23d e155 9c3c 190d 763d 287a 113c
00000320: 12ed d73e dfdc 24bd 4d43 79bd 148c a6be
00000330: 4f43 043d 2dbd 9a3e 2ae9 40bd e915 9fbe
00000340: 67aa 2fbe f01d d33d 8062 7fbc 443d 123b
00000350: d4df c8bd 3ef7 1dbe e9dc 213e a2dd 89be
00000360: 362f 7a3c 6f2d ae3e 141c 5fbb 91c4 833d
00000370: 9fd6 a6be 6aa2 883c d8cf b43d 35fd 02bf
00000380: 1180 e03d 77d6 56be df0a f6bc 3bcf 003e
00000390: e8f7 f03d 4ec2 1b3c 4a20 973c 6049 943e
000003a0: 40df 4cbf e940 6cbe d1b4 d23c dbf0 f83b
000003b0: 128d 003d 4ad1 513e 8f88 b6bb 5f25 3a3b
000003c0: 5184 92be a061 84bd a475 ccbd f94e 17be
000003d0: edcd b03d 1068 4f3e 3e5f 5cbd c6bf 3bbc
000003e0: f63a d23b 121d e93c c919 8bbc 6cac a4bc
000003f0: 80a7 073e ccad acbd b077 a63e 4788 433e

base.3linear.bias f4 [50]
0.07087697 0.051049203 -0.023851752 0.072362185 0.18112676 0.053683076 0.0767102 0.033132263
-0.20101069 -0.012363738 -0.05858413 -0.033406034 0.011209435 -0.021788066 0.05412268 -0.06486831
-0.09288622 -0.14702311 0.10031501 -0.021876076 -0.090492785 -0.017609758 -0.006092315 0.08387669
-0.017325457 0.24011964 0.071913086 -0.0042367154 0.046474412 -0.0037774441 -0.0984157 0.04773446
0.09473212 0.1706705 -0.053357963 0.04688026 -0.034576006 -0.12552783 -0.0688729 -0.0158007
-0.027668206 0.037537053 -0.030553928 0.014782447 0.02924489 -0.045482326 -0.112577125 0.02350906
-0.039224546 0.0023399764
00000000: f227 913d f818 513d c064 c3bc a032 943d
00000010: 4b79 393e c9e2 5b3d 3d1a 9d3d b2b5 073d
00000020: bfd5 4dbe 4791 4abc eaf5 6fbd c4d4 08bd
00000030: c7a7 373c e37c b2bc beaf 5d3d add9 84bd
00000040: 213b bebd 3a8d 16be f571 cd3d 7535 b3bc
00000050: 4854 b9bd 5742 90bc 0ba2 c7bb 8bc7 ab3d
00000060: 1eee 8dbc ece1 753e 2b47 933d 25d4 8abb
00000070: f45b 3e3d ff8e 77bb 2c8e c9bd 3685 433d
00000080: ea02 c23d 3fc4 2e3e e18d 5abd 8405 403d
00000090: 929f 0dbd 5e8a 00be 3c0d 8dbd 7870 81bc
000000a0: 6fa8 e2bc 74c0 193d 3b4c fabc 1432 723c
000000b0: fb92 ef3c ad4b 3abd d68e e6bd 1296 c03c
000000c0: eba9 20bd 4a5a 193b

base.4linear.weight f4 [50, 50]
-0.044498157 -0.18161279 0.16824806 0.05112226 -0.3457012 0.13847831 -0.18227763 -0.17715472
-0.097996324 0.15816528 0.2578695 -0.07319601 0.07710635 0.012480074 -0.3332674 -0.05185757
0.016244056 -0.07636354 -0.30748793 0.2690999 0.2277299 0.13400206 -0.049115907 -0.03400893
-0.0842527 -0.010111961 -0.20779294 -0.034857955 0.049507998 0.07609577 0.14214231 -0.14697178
-0.09996506 0.1673161 -0.13207044 -0.2570673 -0.06457718 -0.19408743 0.13099547 0.43447164
0.23672539 -0.00024900617 0.2577269 0.08146918 -0.2221634 0.29326776 0.09467604 -0.108083926
-0.28952196 0.03119121 -0.0077005825 0.119759746 0.10506026 0.19328462 0.15815125 -0.18111631
-0.04856676 -0.21677388 0.014702575 0.2114857 0.06506326 0.12589444 0.08690489 -0.0024313338
0.31446987 0.24862354 0.124609284 -0.031188598 0.22298035 -0.22014198 0.071564905 0.08358234
0.2629083 -0.16592267 0.019672178 0.23468032 0.02692956 -0.3275798 0.058687836 0.1621388
-0.05285348 0.0060028364 -0.053905286 -0.095341764 0.0031342607 0.04235098 0.21051262 0.16318929
0.027928447 0.061199922 0.0910528 0.03232464 -0.42349783 0.10981596 0.13700555 0.29823884
-0.32039854 0.058492925 0.014725644 -0.026393956 -0.31553507 -0.0654492 0.15560038 -0.16261189
0.044263266 -0.08499279 0.14851208 -0.06571174 0.020287892 0.06435136 -0.0742805 0.0659007
0.16239078 -0.016341824 -0.072923906 0.13129248 0.18278822 -0.34266797 0.41758862 -0.030743433
0.14381795 0.16383259 0.33452174 -0.13682361 0.26032323 -0.07243602 0.032517083 -0.34233
-0.14821956 0.12444287 -0.19184765 -0.17815852 0.022867981 -0.0027226454 0.16650814 -0.10999752
-0.072768115 0.022714967 0.19506413 0.23465203 0.046376497 -0.08782231 -0.29468015 0.07162776
-0.03739692 0.06157297 -0.12212953 0.08893805 0.21399036 0.21374053 0.06488729 0.1487897
-0.13094549 -0.17164643 -0.23350066 0.29188165 -0.1155648 -0.12130485 0.34629467 0.124707945
-0.22795309 0.076295406 -0.36737812 -0.06012895 -0.24346852 0.18669054 0.07791699 0.37717247
-0.21976435 -0.16458203 -0.017569115 -0.055675596 -0.16651824 -0.21750572 -0.014606182 -0.31158698
0.013101024 0.3424048 0.08582846 0.23107418 0.39313674 -0.098235525 -0.0632138 -0.16951159
-0.14174198 -0.29378194 -0.12855309 0.3299495 -0.10136497 -0.06542304 0.0575418 -0.09479771
0.11402604 -0.35267136 0.006710523 0.07207843 0.10163709 0.24183597 -0.08126481 0.056303
-0.0797992 0.08645036 0.2514047 -0.13420765 -0.0638345 -0.14413476 0.05773615 -0.056971345
-0.18548432 0.26097524 -0.08066651 0.19275776 -0.006297938 0.016228756 -0.36251625 0.11989875
0.2380893 0.070743814 0.31336662 -0.084970385 -0.07624211 -0.023323253 -0.10322762 0.035104286
0.23842944 -0.20758143 -0.24330401 -0.1831297 -0.08687364 -0.053348184 0.14566933 -0.14804865
-0.37098393 -0.046839513 0.23554121 -0.15886234 -0.011850977 0.16904248 -0.004205146 0.16265139
0.3028871 -0.2449771 -0.11468811 0.0030203462 -0.068940274 0.21628639 0.33184564 0.17695145
-0.112616755 0.06037705 -0.068451084 -0.3681403 0.34660885 -0.18466231 -0.1252547 -0.1092389
00000000: b343 36bd b4f8 39be 3849 2c3e 9365 513d
00000010: bfff b0be 42cd 0d3e fda6 3abe 0c68 35be
00000020: 4cb2 c8bd 14f6 213e 7907 843e cae7 95bd
00000030: efe9 9d3d 3979 4c3c 06a2 aabe 9a68 54bd
00000040: 4112 853c 7d64 9cbd 0f6f 9dbe 76c7 893e
00000050: 0732 693e d637 093e c32d 49bd f34c 0bbd
00000060: ae8c acbd a3ac 25bc acc7 54be 37c7 0ebd
00000070: e6c8 4a3d 19d8 9b3d c18d 113e c57f 16be
00000080: 7bba ccbd e954 2b3e 793d 07be 539e 83be
00000090: 0a41 84bd dbbe 46be ad23 063e 1173 de3e
000000a0: 2468 723e 0b8d 82b9 c8f4 833e 50d9 a63d
000000b0: cd7e 63be 3127 963e 83e5 c13d 1b5b ddbd
000000c0: 393c 94be b584 ff3c 2b55 fcbb 9944 f53d
000000d0: d529 d73d 67ec 453e 67f2 213e 8e76 39be
000000e0: f0ed 46bd f9f9 5dbe 12e3 703c b58f 583e
000000f0: e33f 853d 79ea 003e 31fb b13d 0357 1fbb
00000100: 3202 a13e 2b97 7e3e 2733 ff3d 3b7f ffbc
00000110: f654 643e e66c 61be 9f90 923d 382d ab3d
00000120: eb9b 863e a2e7 29be 8c27 a13c 0a50 703e
00000130: 619b dc3c 8ab8 a7be a862 703d b707 263e
00000140: e47c 58bd 71b3 c43b cacb 5cbd 8b42 c3bd
00000150: 2b68 4d3b 3978 2d3d 9f90 573e 181b 273e
00000160: 33ca e43c c5ac 7a3d e479 ba3d d766 043d
00000170: b5d4 d8be 31e7 e03d 2f4b 0c3e c3b2 983e
00000180: 470b a4be 4796 6f3d d443 713c 2338 d8bc
00000190: d08d a1be 3b0a 86bd b555 1f3e bb83 26be
000001a0: 664d 353d b310 aebd 8d13 183e e093 86bd
000001b0: cb32 a63c a5ca 833d 6020 98bd f2f6 863d
000001c0: c549 263e 4adf 85bc 2159 95bd 8971 063e
000001d0: d62c 3b3e 2d72 afbe 2dce d53e a7d9 fbbc
000001e0: 0345 133e bbc3 273e 6f46 ab3e 7d1b 0cbe
000001f0: 1649 853e 5659 94bd a230 053d e145 afbe
00000200: dec6 17be e7db fe3d b673 44be 306f 36be
00000210: a255 bb3c 696e 32bb 1c81 2a3e 6146 e1bd
00000220: 7307 95bd bd14 ba3c e4be 473e 9f48 703e
00000230: 48f5 3d3d 2fdc b3bd 51e0 96be 93b1 923d
00000240: 832d 19bd f033 7c3d 0c1f fabd 2725 b63d
00000250: 4a20 5b3e ccde 5a3e a1e3 843d 545c 183e
00000260: 9316 06be 15c4 2fbe cc1a 6fbe 8371 953e
00000270: 3dad ecbd ad6e f8bd 894d b13e e166 ff3d
00000280: 896c 69be c440 9c3d fc18 bcbe c649 76bd
00000290: d04f 79be ce2b 3f3e f192 9f3d c01c c13e
000002a0: e809 61be 3188 28be 1bed 8fbc 180c 64bd
000002b0: c283 2abe d2b9 5ebe c54e 6fbc 5488 9fbe
000002c0: ada5 563c af4f af3e d5c6 af3d b69e 6c3e
000002d0: 3849 c93e b52f c9bd 3d76 81bd 7294 2dbe
000002e0: cf24 11be 966a 96be 6ca3 03be 24ef a83e
000002f0: 7098 cfbd 84fc 85bd f3b0 6b3d 4d25 c2bd
00000300: 7c86 e93d 5791 b4be f2e3 db3b db9d 933d
00000310: 1b27 d03d d9a3 773e 2a6e a6bd f99d 663d
00000320: c36d a3bd e30c b13d 1eb8 803e bb6d 09be
00000330: aabb 82bd 1098 13be be7c 6c3d c95a 69bd
00000340: 9aef 3dbe 8c9e 853e 7c34 a5bd 4a62 453e
00000350: ef5e cebb 2bf2 843c bb9b b9be 7a8d f53d
00000360: aecd 733e 22e2 903d 9771 a03e f404 aebd
00000370: d324 9cbd 6810 bfbc 0169 d3bd 83c9 0f3d
00000380: d926 743e 3a90 54be b024 79be 5a86 3bbe
00000390: cfea b1bd a083 5abd 572a 153e 119a 17be
000003a0: 9bf1 bdbe cada 3fbd b731 713e cfac 22be
000003b0: 9a2a 42bc 7919 2d3e 52cb 89bb 168e 263e
000003c0: 0514 9b3e 47db 7abe 9ae1 eabd 00f1 453b
000003d0: 8f30 8dbd 2e7a 5d3e ace7 a93e c332 353e
000003e0: 9da3 e6bd ed4d 773d 1530 8cbd e37c bcbe
000003f0: b776 b13e 1e18 3dbe c542 00be a5b8 dfbd

base.4linear.bias f4 [50]
-0.037313398 -0.043402307 0.011303862 -0.037305593 -0.048411693 -0.076477446 0.029143853 -0.0009721518
-0.06985913 0.09489939 -0.124537766 0.11612677 0.006154057 0.073186375 0.0045394185 -0.048071936
0.04385384 -0.0541956 0.042321485 -0.110113315 -0.05785082 -0.039754752 -0.3113086 -0.026653158
0.00025896824 0.03258628 0.04544626 -0.109620556 0.052877612 -0.057002477 0.022716187 -0.019404884
0.045095358 8.282152e-05 -0.06861161 0.04739047 0.057605967 -0.07437657 0.0028936223 -0.0053290185
0.119568296 -0.14455087 0.0215015 0.058863614 -0.0074483864 0.13075939 0.07346362 0.029151011
-0.029090362 0.0063729105
00000000: efd5 18bd 9ec6 31bd d533 393c c0cd 18bd
00000010: 574b 46bd 35a0 9cbd 17bf ee3c 01d8 7eba
00000020: 4e12 8fbd 9d5a c23d a80d ffbd dfd3 ed3d
00000030: f9a7 c93b bde2 953d 67bf 943b 14e7 44bd
00000040: 16a0 333d 35fc 5dbd 4b59 2d3d 1783 e1bd
00000050: fbf4 6cbd e1d5 22bd d763 9fbe b957 dabc
00000060: 21c6 8739 3179 053d dc25 3a3d be80 e0bd
00000070: 3296 583d 6e7b 69bd 4c17 ba3c fef6 9ebc
00000080: e9b5 383d 77b0 ad38 3e84 8cbd 821c 423d
00000090: 3cf4 6b3d be52 98bd eda2 3d3b 0c9f aebb
000000a0: 39e0 f43d 2505 14be ea23 b03c f91a 713d
000000b0: 9811 f4bb cae5 053e 1874 963d 1ace ee3c
000000c0: e94e eebc d9d3 d03b

base.5linear.weight f4 [50, 50]
0.10699284 -0.24655245 -0.45455858 -0.04403847 0.08397509 0.009869952 -0.35305265 -0.2864901
0.27373645 -0.00192144 -0.014143829 0.040168136 0.089237995 0.22470276 -0.100192286 0.09637777
0.17534815 0.086046934 -0.06738789 -0.14542443 -0.121138275 -0.07116055 -0.044224266 -0.25877476
0.15452296 0.30847922 -0.09837909 -0.10675996 -0.0204338 -0.029446147 0.097007595 0.00043571353
0.059392866 -0.2177088 -0.12176086 0.12482885 0.15168019 0.10345405 -0.10647789 -0.09691186
0.00967983 0.3460612 -0.22429831 -0.03502664 0.0028217083 -0.20697007 0.024492465 0.25968182
-0.2032172 0.0097336825 -0.017276151 -0.103910655 0.26425365 0.07838822 0.029744698 -0.041537933
-0.03765269 -0.33297348 -0.11755993 -0.1336741 0.06399224 -0.010261184 -0.40312028 0.3071988
0.26959184 0.10948202 -0.14830452 0.056175914 0.077204764 0.2848686 0.009249771 0.39709714
-0.041908577 -0.021923797 0.1376199 0.08500441 0.07620955 -0.08876767 0.17625949 -0.0007880126
0.1253867 -0.100546174 0.28820202 -0.012749211 -0.115733385 -0.03811813 0.29750234 -0.06326164
0.002989494 0.073612496 -0.06294309 -0.095073864 -0.06423624 0.022930833 0.05184059 -0.25595355
-0.07708564 0.03541012 -0.029369084 0.13685422 0.098948516 -0.0014266232 -0.16437532 -0.059267666
-0.006020478 0.10086669 0.12813905 -0.2331805 -0.17414042 -0.22584441 0.20460273 -0.037075873
-0.055788375 0.17409147 0.12855913 0.0932965 -0.12592328 0.010020741 0.12360365 0.42686895
-0.017715093 0.073328994 -0.12521228 0.049584266 0.03403507 -0.053126138 -0.064210616 -0.11854114
0.09653458 -0.3116051 0.070969135 -0.10079166 -0.047101326 -0.07359551 -0.19072504 -0.31218493
0.055070903 0.6624539 0.077387765 0.14849177 -0.13793276 -0.064577684 0.09192049 -0.1346147
-0.010136109 -0.63862187 -0.13543473 -0.34459686 0.1189806 0.17163102 -0.2654568 0.11840871
-0.10618109 0.034318063 -0.38036007 -0.3649354 0.09669857 0.092349865 -0.07749307 0.204845
-0.00022317987 0.07391706 -0.12366622 -0.037952017 0.23131002 -0.3369307 0.11142569 -0.15268315
0.08822867 -0.056636803 -0.221687 0.016203921 -0.28992674 -0.05749079 0.2531776 0.077069364
0.23306549 0.021106357 0.18532218 0.05385166 -0.21281299 0.026069643 0.2734295 -0.054834556
0.038926452 0.3841926 0.22875804 -0.021653598 0.028150547 0.086502574 0.074328095 -0.09120778
0.36479986 -0.105527155 0.06752293 0.13096215 0.25672323 0.20587695 -0.55741876 0.15888834
-0.079835564 -0.059743594 0.10829487 -0.0108549325 0.09298592 0.0047649737 0.39615947 -0.30247307
0.113977194 0.12268094 0.050564248 -0.19356462 0.032272194 0.09855469 -0.3309696 0.23072153
-0.094442755 0.21982889 0.15760845 -0.10845345 0.05119088 -0.010291511 0.10359246 0.062439937
-0.022007806 0.10809343 0.19068734 0.06970061 -0.010269279 0.18429056 0.19999233 0.10605965
0.028077574 0.10070788 0.07747808 0.22075248 -0.13899343 0.07462499 0.1775941 0.2250607
0.29957658 -0.15589854 0.10652687 0.20586361 -0.326975 0.16164301 0.035112165 0.06809202
-0.0048252237 -0.113838926 0.15284187 -0.13829571 0.11431486 -0.07231145 0.29856202 0.06980378
00000000: 101f db3d 3f78 7cbe e7bb e8be af61 34bd
00000010: 22fb ab3d 94b5 213c 51c3 b4be d5ae 92be
00000020: 2f27 8c3e d4d8 fbba 85bb 67bc 5887 243d
00000030: 69c2 b63d 7b18 663e 9d31 cdbd b561 c53d
00000040: 778e 333e 6039 b03d a902 8abd 24ea 14be
00000050: 5817 f8bd 9fbc 91bd 8124 35bd 207e 84be
00000060: 443b 1e3e fdf0 9d3e fa7a c9bd f7a4 dabd
00000070: c964 a7bc 0c39 f1bc ebab c63d 7b70 e439
00000080: ef45 733d 0eef 5ebe c25d f9bd 45a6 ff3d
00000090: 0d52 1b3e b8df d33d 1411 dabd ba79 c6bd
000000a0: 2698 1e3c ef2e b13e 75ae 65be 1878 0fbd
000000b0: 69ec 383b f6ef 53be 6ca4 c83c 04f5 843e
000000c0: 2b18 50be 067a 1f3c b786 8dbc 1ccf d4bd
000000d0: 414c 873e 018a a03d 27ab f33c ae23 2abd
000000e0: b539 1abd 807b aabe 43c3 f0bd dde1 08be
000000f0: 5d0e 833d 861e 28bc c865 cebe 2949 9d3e
00000100: f107 8a3e 1c38 e03d 24dd 17be b718 663d
00000110: 881d 9e3d 4cda 913e 5a8c 173c 5150 cb3e
00000120: 54a8 2bbd 8999 b3bc 3bec 0c3e cb16 ae3d
00000130: c113 9c3d d3cb b5bd 5e7d 343e a192 4eba
00000140: 5f65 003e 27eb cdbd 378f 933e 11e2 50bc
00000150: a005 edbd c221 1cbd 3a52 983e 528f 81bd
00000160: 63eb 433b 26c2 963d 4fe8 80bd 16b6 c2bd
00000170: 4a8e 83bd 71d9 bb3c cc56 543d 580c 83be
00000180: 13df 9dbd 340a 113d 6f97 f0bc 8323 0c3e
00000190: 85a5 ca3d 88fd baba 0152 28be a7c2 72bd
000001a0: 6e47 c5bb 3293 ce3d e236 033e dec6 6ebe
000001b0: de51 32be c243 67be 6183 513e dfdc 17bd
000001c0: 5a82 64bd 0945 323e 01a5 033e 3c12 bf3d
000001d0: 08f2 00be 092e 243c e923 fd3d 918e da3e
000001e0: 3e1f 91bc 832d 963d a637 00be df18 4b3d
000001f0: 5c68 0b3d cb9a 59bd db80 83bd b2c5 f2bd
00000200: ecb3 c53d b48a 9fbe 4458 913d dc6b cebd
00000210: 52ed 40bd 3eb9 96bd 6d4d 43be b4d6 9fbe
00000220: 0792 613d 9496 293f 7a7d 9e3d 3a0e 183e
00000230: 3f3e 0dbe 4e41 84bd cf40 bc3d 70d8 09be
00000240: ec11 26bc b97c 23bf 67af 0abe 006f b0be
00000250: 1aac f33d 0bc0 2f3e f4e9 87be 4480 f23d
00000260: 7975 d9bd 1991 0c3d 8ebe c2be d0d8 babe
00000270: e609 c63d ed21 bd3d b0b4 9ebd e3c2 513e
00000280: 6405 6ab9 d461 973d b744 fdbd 9373 1bbd
00000290: 89dc 6c3e 2e82 acbe 2733 e43d f958 1cbe
000002a0: 3cb1 b43d fefb 67bd eb01 63be 16be 843c
000002b0: 4771 94be 767b 6bbd 7fa0 813e 8bd6 9d3d
000002c0: b8a8 6e3e 3de7 ac3c 19c5 3d3e 8f93 5c3d
000002d0: a6eb 59be 0190 d53c f4fe 8b3e 339a 60bd
000002e0: 5871 1f3d e4b4 c43e 8c3f 6a3e e362 b1bc
000002f0: fa9b e63c 4328 b13d 5439 983d 25cb babd
00000300: 0cc7 ba3e 9f1e d8bd 7649 8a3d f11a 063e
00000310: 3a71 833e 68d1 523e ffb2 0ebf a0b3 223e
00000320: d480 a3bd b3b5 74bd b3c9 dd3d e3d8 31bc
00000330: 676f be3d 7f23 9c3b 6ad5 ca3e c0dd 9abe
00000340: e06c e93d 2540 fb3d 751c 4f3d ce35 46be
00000350: d92f 043d 0bd7 c93d d974 a9be 4442 6c3e
00000360: 346b c1bd d31a 613e 1c64 213e d81c debd
00000370: 87ad 513d ba9d 28bc 4928 d43d 05c1 7f3d
00000380: b749 b4bc 1760 dd3d 8b43 433e 32bf 8e3d
00000390: 7a40 28bc aab6 3c3e caca 4c3e cd35 d93d
000003a0: f102 e63c ef3f ce3d d4ac 9e3d f00c 623e
000003b0: 4b54 0ebe fdd4 983d 3adb 353e 5076 663e
000003c0: 1a62 993e dea3 1fbe c22a da3d e9cd 523e
000003d0: 4469 a7be bf85 253e c6d1 0f3d d473 8b3d
000003e0: e91c 9ebb 6224 e9bd 9482 1c3e 649d 0dbe
000003f0: e91d ea3d 0718 94bd 1fdd 983e 49f5 8e3d

base.5linear.bias f4 [50]
-0.020926392 0.055584557 -0.057025913 0.15497601 -0.038109947 -0.057808943 0.26528072 -0.04702779
0.08022568 -0.00786164 0.005994548 0.015460356 0.024295291 -0.010485113 0.07924901 -0.034289036
-0.036483813 0.055089418 -0.053868916 -0.14188008 0.018166026 0.08314388 0.1034437 -0.016320413
-0.02680293 0.0010118003 -0.051453754 -0.13585381 -0.022130212 0.058772326 0.06345171 0.030388188
0.030082172 0.030829344 -0.047886092 -0.046049677 -0.24490695 0.09026459 0.041963737 0.04310589
-0.027489029 0.047155853 0.01953205 -0.09543355 0.034863394 0.022957008 -0.04267205 0.009818736
-0.003969402 -0.056835685
00000000: d36d abbc a2ac 633d 0194 69bd 08b2 1e3e
00000010: 2d19 1cbd 12c9 6cbd e0d2 873e 36a0 40bd
00000020: 5c4d a43d 1cce 00bc ea6d c43b 6f4d 7d3c
00000030: eb06 c73c c0c9 2bbc 4e4d a23d a972 0cbd
00000040: 0d70 15bd 71a5 613d a7a5 5cbd 0349 11be
00000050: ebd0 943c 5747 aa3d 4ada d33d 63b2 85bc
00000060: d191 dbbc 629e 843a 2cc1 52bd 431d 0bbe
00000070: 6b4a b5bc 40bb 703d f8f2 813d a6f0 f83c
00000080: e36e f63c d28d fc3c 3524 44bd 969e 3cbd
00000090: e3c8 7abe a4dc b83d 2be2 2b3d cd8f 303d
000000a0: ac30 e1bc 7f26 413d ad01 a03c aa72 c3bd
000000b0: ebcc 0e3d 5610 bc3c e3c8 2ebd c4de 203c
000000c0: c211 82bb 89cc 68bd

base.6linear.weight f4 [50, 50]
0.044875655 0.31467256 0.012721405 0.33375522 -0.01198542 -0.28662542 -0.008738748 -0.21580277
0.2500028 -0.08184378 0.36559433 -0.020110732 0.15936841 -0.033204343 -0.03951713 -0.16034558
0.089531705 -0.09510627 -0.04419956 0.07109589 0.19459936 0.13857009 0.004829965 0.041582394
-0.016852692 -0.0111587485 0.073489755 0.08338787 -0.04057941 -0.101080924 -0.2318245 -0.05514758
0.03726198 -0.18115309 -0.20180169 0.35949662 -0.038664322 0.20774461 -0.012822155 0.017427849
-0.2908159 -0.09220462 0.052953698 0.10970283 0.1837256 0.017086046 0.016160307 -0.033095244
0.12321272 0.08117606 0.13046849 -0.042479347 -0.00880896 0.1826102 0.07015212 -0.05986288
0.03415067 0.023867222 -0.30502075 0.101167716 0.10224743 -0.08351745 0.02974709 -0.1479722
-0.069741495 -0.1533212 0.139459 -0.005510492 0.00075130817 0.066821575 0.03832137 -0.31679478
-0.03373153 -0.26034296 0.010590098 0.12643792 -0.15964596 0.036446534 0.002221612 0.3191655
-0.3347684 0.19311833 0.37497222 -0.21411887 -0.032905534 0.40842938 -0.08592599 0.09245698
-0.08297922 0.108412914 0.08504017 -0.24249755 0.38760516 0.08537811 0.05456012 -0.13633591
0.22275206 0.085216485 -0.12711711 -0.11807067 -0.1902562 0.00043425418 0.09372516 -0.22037594
-0.14228621 -0.030298118 -0.29512918 0.2479163 0.016145563 -0.2289062 0.22964051 0.35298803
-0.18492612 0.047550943 -0.03624485 0.026194924 -0.0924076 -0.4914069 -0.1208545 0.18681455
0.15138479 -0.13946857 0.16810203 0.17727104 -0.10213443 -0.06852974 -0.087286144 -0.38399932
-0.2562813 -0.103970505 -0.03745335 -0.171681 -0.00080477557 0.17980513 0.45051292 0.13195382
0.08261348 -0.33609238 -0.36239588 -0.19944255 -0.058616873 0.017494692 -0.06936908 0.0651502
-0.12453899 0.049809635 -0.08132606 0.007536185 0.16114554 0.045733195 -0.13247807 -0.24766767
-0.34475127 0.13907312 0.08566337 0.10611548 -0.20161465 -0.08188054 0.13107166 0.1383262
-0.15351798 -0.04167657 0.01613848 -0.25566256 0.0941878 0.13221385 -0.1572522 -0.14042987
-0.038782336 0.14658101 0.13295062 0.055613756 -0.063002795 0.0045636524 -0.12521791 0.5086143
-0.1459686 0.09438611 -0.31256193 0.00095091417 -0.14795843 -0.19606432 0.005716093 0.23931757
0.09710906 0.1725591 0.03822011 0.08883792 -0.039196722 0.04142688 0.14473401 -0.27440056
0.14466085 -0.19405141 -0.11857217 0.10352694 -0.092616655 -0.4306746 -0.23863904 -0.1522086
-0.30754578 0.08365374 0.010766191 -0.15341336 0.11844684 -0.1297537 -0.33964995 -0.038680837
-0.10549912 0.08117874 0.21639326 0.18276434 -0.24103531 0.0043791295 -0.034603663 -0.28382847
-0.1993762 -0.20226541 -0.39706773 0.2139272 -0.20783448 -0.1995465 -0.13165547 0.09795447
-0.08463462 0.21249953 -0.22840312 0.20706093 -0.273939 0.0901476 -0.1652385 -0.0077815885
0.35053617 0.04120142 -0.22669186 -0.0038892238 0.023283815 -0.1556958 0.027818399 0.22321874
-0.1170824 -0.1493863 0.34473148 0.459685 0.08578685 -0.14082095 0.19308613 -0.23979916
-0.2491185 0.06559905 0.21766397 0.20080711 0.18013625 -0.0732893 0.032344174 0.347814
00000000: 89cf 373d c31c a13e 716d 503c f7e1 aa3e
00000010: 7f5e 44bc 91c0 92be f72c 0fbc 67fb 5cbe
00000020: 5e00 803e b69d a7bd 2e2f bb3e 43bf a4bc
00000030: 7931 233e 4701 08bd b7dc 21bd a231 24be
00000040: 665c b73d 13c7 c2bd 990a 35bd b99a 913d
00000050: 0e45 473e 51e5 0d3e af44 9e3b 4d52 2a3d
00000060: a80e 8abc 2fd3 36bc cc81 963d 42c7 aa3d
00000070: 9836 26bd 8403 cfbd 6763 6dbe 6ee2 61bd
00000080: 05a0 183d 3280 39be 1aa5 4ebe f10f b83e
00000090: 7b5e 1ebd 01bb 543e 0414 52bc d9c4 8e3c
000000a0: d2e5 94be c7d5 bcbd fae5 583d e1ab e03d
000000b0: 9022 3c3e 09f8 8b3c 9f62 843c e18e 07bd
000000c0: f356 fc3d a23f a63d 8899 053e d3fe 2dbd
000000d0: 7553 10bc 2bfe 3a3e eaab 8f3d c732 75bd
000000e0: 93e1 0b3d 3185 c33c ae2b 9cbe 0531 cf3d
000000f0: 1a67 d13d 320b abbd 2bb0 f33c 0686 17be
00000100: a1d4 8ebd 3c00 1dbe 57ce 0e3e 5b91 b4bb
00000110: 70f3 443a c0d9 883d def6 1c3d ed32 a2be
00000120: 132a 0abd ac4b 85be 1782 2d3c f178 013e
00000130: 3b7a 23be f648 153d 7798 113b a969 a33e
00000140: c466 abbe d0c0 453e 5cfc bf3e fa41 5bbe
00000150: f4c7 06bd a81d d13e f7f9 afbd 165a bd3d
00000160: 02f1 a9bd 9707 de3d 8a29 ae3d 4751 78be
00000170: 2f74 c63e b8da ae3d 6f7a 5f3d a49b 0bbe
00000180: 1e19 643e fb85 ae3d fd2a 02be 09cf f1bd
00000190: 85d2 42be 9cac e339 faf2 bf3d 3baa 61be
000001a0: 7ab3 11be c233 f8bc 2c1b 97be c5dd 7d3e
000001b0: b343 843c 6366 6abe e226 6b3e d9ba b43e
000001c0: 465d 3dbe c7c4 423d 7b75 14bd bd96 d63c
000001d0: 3240 bdbd af99 fbbe 9082 f7bd 504c 3f3e
000001e0: 9d04 1b3e d9d0 0ebe f022 2c3e 8a86 353e
000001f0: db2b d1bd 5259 8cbd 14c3 b2bd 8f9b c4be
00000200: 4d37 83be 7dee d4bd af68 19bd 25cd 2fbe
00000210: 93f7 52ba d61e 383e a1a9 e63e e71e 073e
00000220: 4231 a93d 4d14 acbe f48b b9be ab3a 4cbe
00000230: 3f18 70bd 0751 8f3c 6011 8ebd 786d 853d
00000240: 4c0e ffbd 3005 4c3d 478e a6bd 1af2 f63b
00000250: 5603 253e bb52 3b3d 55a8 07be 989c 7dbe
00000260: 3d83 b0be 2f69 0e3e 4770 af3d 1353 d93d
00000270: 1274 4ebe fcb0 a7bd a637 063e 62a5 0d3e
00000280: d133 1dbe 0db5 2abd d834 843c 34e6 82be
00000290: 89e5 c03d 1163 073e b906 21be d9cc 0fbe
000002a0: 3ada 1ebd 5519 163e 3524 083e 40cb 633d
000002b0: 9c07 81bd b18a 953b 2039 00be 8c34 023f
000002c0: cb78 15be 814d c13d 1e08 a0be c546 793a
000002d0: 6a82 17be 16c5 48be 104e bb3b aa0f 753e
000002e0: 1de1 c63d 55b3 303e b18c 1c3d a8f0 b53d
000002f0: be8c 20bd 3baf 293d 2735 143e 3b7e 8cbe
00000300: f921 143e 6ab5 46be f7d5 f2bd ef05 d43d
00000310: cdad bdbd 6281 dcbe cb5d 74be 92dc 1bbe
00000320: a476 9dbe a752 ab3d ae64 303c 6418 1dbe
00000330: 4294 f23d 27de 04be 99e6 adbe cc6f 1ebd
00000340: ec0f d8bd 0a41 a63d 3296 5d3e 9326 3b3e
00000350: f6d1 76be cd7e 8f3b 92bc 0dbd f751 91be
00000360: 4629 4cbe aa1e 4fbe 764c cbbe bb0f 5b3e
00000370: 90d2 54be eb55 4cbe b1d0 06be 5a9c c83d
00000380: ea54 adbd 7a99 593e 82e2 69be c807 543e
00000390: bc41 8cbe 4e9f b83d 4834 29be b2fc febb
000003a0: 7a79 b33e d2c2 283d e921 68be 59e2 7ebb
000003b0: b3bd be3c b86e 1fbe 69e3 e33c 7493 643e
000003c0: e6c8 efbd b9f8 18be a580 b03e d55b eb3e
000003d0: 04b1 af3d 5e33 10be 5fb8 453e e98d 75be
000003e0: ec18 7fbe cb58 863d 4ee3 5e3e 61a0 4d3e
000003f0: a375 383e b318 96bd 537b 043d ad14 b23e

base.6linear.bias f4 [50]
-0.0002796433 -0.026920851 -0.106811605 0.03353384 -0.04294058 -0.007073058 0.010117729 -0.03950854
0.07995717 -0.2259347 0.04002089 -0.002887281 0.0022409384 0.03666338 0.21174319 0.07059418
0.40521255 0.14985333 -0.032847878 0.053904902 0.0048856507 -0.020325122 -0.00521064 0.10133033
0.054955788 0.038278773 -0.019117227 0.067057565 -0.056980904 -0.10480363 0.060840137 -0.08123185
0.03929863 0.029822808 -0.03649179 0.0038940907 -0.027270114 0.039619017 -0.010757471 0.052763537
0.010092303 0.019866262 0.0013625992 -0.15203293 -0.06662439 0.0395569 0.06934314 0.07120217
-0.079066604 0.0204807
00000000: 179d 92b9 1e89 dcbc 0bc0 dabd c85a 093d
00000010: 76e2 2fbd 1cc5 e7bb d5c4 253c b5d3 21bd
00000020: 96c0 a33d 6d5b 67be f2ec 233d 8938 3dbb
00000030: b5dc 123b 572c 163d 35d3 583e ae93 903d
00000040: 0578 cf3e 2773 193e 7f8b 06bd 63cb 5c3d
00000050: cf17 a03b df80 a6bc 04be aabb 4786 cf3d
00000060: 5219 613d 34ca 1c3d bb9b 9cbc 7a55 893d
00000070: cf64 69bd 49a3 d6bd 8233 793d e25c a6bd
00000080: 9af7 203d f64e f43c 6a78 15bd 0034 7f3b
00000090: 9365 dfbc 8d47 223d 1b40 30bc 941e 583d
000000a0: 305a 253c 92be a23c 3e99 b23a 85ae 1bbe
000000b0: 5e72 88bd 6a06 223d c703 8e3d 71d2 913d
000000c0: aced a1bd 24c7 a73c
