STPINN-RANS/sub_data/sub_write/16NS_model_train.pt (torch, 100283 bytes, 22 tensors)

base.0linear.weight f4 [50, 3]
00000000: 741d e13e ec1d 42be bf31 84be 395f 0e3e
00000010: 30cb ebbd 17b9 55be b1c6 68be dbf1 313e
00000020: 5f70 b33c 532d fbbc 08d6 06be b967 893e
00000030: 5d3b 793d 14d5 833e 01e8 813d 59c1 1ebe
00000040: b84f 99be 7164 0abe ae08 0abe 45d4 713c
00000050: 4033 233e a648 5aba b98d 22b8 1ccc 163a
00000060: 96cf 9a3d b8d0 d03d 6b06 4d3d 3468 1b3d
00000070: a857 4a3e a32f 053b e4c3 0dbe c901 2fbe
00000080: 8a02 5a3d 5a74 1fbe f463 db3d 08f6 613e
00000090: 3701 22bc 0e12 f63b 2b93 89be 2f33 3a3e
000000a0: a417 373d 7717 2f3e 2e58 88be 5a31 b03e
000000b0: 27f2 90bd a5b4 95bd 8da1 9d3b acb5 6abe
000000c0: bd1a 52ba a6e5 9d3a 3f3b 99b8 6fa5 a53e
000000d0: 32b7 553c 9918 3f3e 142d c9be 54ec 42be
000000e0: 4ce1 103e 874c 67be f889 3c3d e2f3 053f
000000f0: 19f8 78bc 339d 08be e7a4 febd d9de 57be
00000100: 6ea0 c3bd 6de0 ba3e fb76 75bd 7cd5 c2be
00000110: 0691 be3e efbd dabd a51d 863d 1bf1 283e
00000120: fce6 dcbd e2eb 783e 5668 7ebc f43a dfbc
00000130: e3f3 99bd d6d1 5a3d 66eb 813e fa58 8ebe
00000140: f44f 96be bf83 6bbe 4518 343e 6271 3ebe
00000150: 430a 9c3e e66d 5bbe aa18 75be dfdb f2bd
00000160: 75c1 9ebd 6c4d 51bd 53cf f5bc ab7b c2bd
00000170: bedc 1d3e 4705 8cbd fac3 21bd f96d 89be
00000180: 4272 4f3e b57e 9cbe 1b47 0a3e 2bfb 5bbb
00000190: 6ea9 37be 9334 313d 8f67 bdbe d9b6 e83d
000001a0: d40e df3e 97fe 14be e8da 843e 92f8 afbd
000001b0: 1daf af3d 5072 f8bd 5f61 35bd 14cb 57be
000001c0: 5abd 34bd 31e4 a33e eac6 7c3d fd48 733c
000001d0: 17b9 d83d 927f c63a 698c 96ba e798 57ba
000001e0: 076f 813e 172e 8a3c cc63 8abe bdc3 a33d
000001f0: 8054 073d 31ac 143d 271a b33c 94fa 213e
00000200: d254 6d3d 098e b83c 1f2f 333e 7ade d53d
00000210: a14a a33d ca79 c1bd 810d 77be 1668 83bd
00000220: d83d a9be 93d5 d53d f636 0fbe 4893 f5bd
00000230: 6f9b c73e d4cf 043d 03fc b93d a5f9 043d
00000240: 60a7 3c3c a4c3 a4be 345f 153e bb91 61be
00000250: 5c9e 9b3d 386b 72be
0.43967783 -0.18956727 -0.25819203 0.13903512 -0.11513364 -0.20871387 -0.22732045 0.17377417
0.021904169 -0.03066126 -0.13167584 0.26836947 0.06084763 0.25748503 0.06343079 -0.15503444
-0.29943633 -0.13514878 -0.13479874 0.014760082 0.15937519 -0.00083268655 -3.87558e-05 0.00057524606
0.07559125 0.1019606 0.05005495 0.037941173 0.1976 0.0020322583 -0.13844258 -0.17090525
0.053225078 -0.15571728 0.10712424 0.2206651 -0.009887985 0.0075094765 -0.26870093 0.18183587
0.04470028 0.17098795 -0.26629776 0.34412652 -0.07077437 -0.07309846 0.004810518 -0.22920865
-0.00080148486 0.001204659 -7.306644e-05 0.32352778 0.013044165 0.18661727 -0.39292204 -0.19035465
0.14148444 -0.22587787 0.046030015 0.5232526 -0.01519587 -0.13341217 -0.124337964 -0.21081103
-0.09552084 0.36499348 -0.05992792 -0.380535 0.3722002 -0.10680758 0.06548623 0.16498224
-0.10786244 0.24308732 -0.015527805 -0.02724979 -0.07517221 0.05342277 0.25374907 -0.2780226
-0.29357874 -0.22999476 0.17587383 -0.1859794 0.3047658 -0.21428642 -0.2393519 -0.11858343
-0.07751743 -0.051099226 -0.030006086 -0.09496244 0.15416238 -0.06836944 -0.03949354 -0.26841715
0.2025843 -0.3056542 0.13503687 -0.0033566456 -0.17935726 0.04326303 -0.3699307 0.113630004
0.43566 -0.14550243 0.25948262 -0.08592333 0.08578322 -0.121311784 -0.044282313 -0.21073562
-0.044125892 0.32010034 0.061713137 0.014848945 0.10582178 0.001514422 -0.0011485937 -0.00082243833
0.2528002 0.01686768 -0.27029264 0.079963185 0.03303957 0.036297027 0.021863056 0.15818244
0.05794222 0.022528665 0.17498444 0.10442825 0.07973219 -0.094470575 -0.24126245 -0.06416337
-0.33054996 0.10441127 -0.1398581 -0.11990982 0.38985774 0.032424763 0.090812705 0.032464642
0.011514515 -0.32180512 0.14587098 -0.22028248 0.07598564 -0.23673713

base.0linear.bias f4 [50]
00000000: c8bc d53c 8ee2 d73d 580f 803d fb6c 0abc
00000010: 7401 50be 9031 4b3e d219 bfbb a73e efb8
00000020: 04b5 29be 8d1e 34be 1f8e 3c3e 9fce 69bd
00000030: 5b28 0d3e 492f d83b 8c31 f8bd 70a4 1a3e
00000040: 43d5 2cba ecde 82b9 18b4 e2bd 3120 a7bd
00000050: fdb1 323e d750 bfbd 85c4 373e fc87 c9bd
00000060: ecf4 15be 88f8 723d b1fe 1d3d 03ad 48bd
00000070: e16f ab3d 3919 253e 5eb5 043b ddb3 383e
00000080: 0e35 a33d 1b39 1b3e 2c50 913c 0cbe a8bd
00000090: 0f7a a93d c3e5 673d 9f00 d2bd a446 1138
000000a0: 3e9b acbd 3693 bdbd aef9 3fbe 1f34 2ebe
000000b0: 014d cd3d 2f6a 753e a5c7 d33b 20ed f6bd
000000c0: aa1f 163e 6d46 643e
0.026090994 0.10541259 0.062529266 -0.0084488345 -0.20313054 0.19843125 -0.0058319354 -0.00011408078
-0.16572958 -0.17589779 0.1841359 -0.057081815 0.13784926 0.0065974337 -0.12118825 0.1510179
-0.0006593058 -0.00024961622 -0.110695064 -0.08160437 0.1745071 -0.09341591 0.1794606 -0.0984039
-0.14644212 0.05931905 0.03857297 -0.04899312 0.083709486 0.16122903 0.0020249705 0.18037362
0.07969104 0.15158503 0.017738424 -0.082393736 0.08275234 0.056615602 -0.10254025 3.4636483e-05
-0.084280476 -0.09256594 -0.18747589 -0.1701207 0.10024453 0.23966287 0.0064630085 -0.12056947
0.14660516 0.2229249

base.1linear.weight f4 [50, 50]
00000000: 4eed c93d 2635 0fbe 362d 973e 58bb 19be
00000010: e859 54be 8118 853e e1f5 743d 3247 3b3d
00000020: f9ac b4bd 103d cabe 5056 0d3e a7a3 903d
00000030: 7b8f ac3d f140 cabd 669b 36bc c5a5 d53d
00000040: aeb0 d33c 44e5 d13d 908b 583e 65cf fbbc
00000050: 29d6 2a3e 19bf 00bc 9cd5 593d d93a e0bd
00000060: df81 33bb a5e3 62bc dec4 883e d726 af3c
00000070: ca42 14be ff51 b03e e0b0 f33d 8822 91bd
00000080: eed1 ebbd 9048 653d e154 f43c 5737 d93a
00000090: 24ce b6bc fe0c 9abd 496a ccbd 01ff 70bd
000000a0: ddbf 3ebe 7990 04be 979c acbd 73b8 88be
000000b0: cca2 1dbd 9ee7 fa3e 2459 5ebe adb6 8bbe
000000c0: 3a43 4f3e 9813 c63d b0c4 0fbd 62bb e9bd
000000d0: c954 b83c 0e5a 853d ac36 14bf 200c 6f3e
000000e0: d749 0bbe b01e 29bd 9bab 963d 70a1 4cbe
000000f0: 80dd 373d 23ef 83bd fa3b e43c 7b3b 10be
00000100: f411 6cbe a454 aabc 2803 1abd d8f4 193e
00000110: 71ad 5ebe 7ff1 cb3d 3def b03d 8796 9bbc
00000120: fc5f 313e 423c 04be 6f87 10bd c856 ac3b
00000130: ad88 ad3e a20e b8bd 12aa 913d cb8e f3bd
00000140: 4d35 c0bc eb0b 223e 6c53 683e 8803 923e
00000150: 5f75 b9bd 993f dcbd 31ec 723e 26e3 00be
00000160: 8a2f 45bc 9fa2 19be 55c6 32be f2ca 7abe
00000170: b5dc ff3d ea56 f4bd 280a d43c c9df bc3e
00000180: 4aef f43d 6e51 92be 91aa 753e d3d4 98bd
00000190: 23fd a03c 33c6 a2bd ac75 4bbe 002f 47be
000001a0: 2e36 813d 7684 28bd 7d91 383d 9208 723d
000001b0: a324 87bc 1dbc cd3d 0628 743e ff3c 753e
000001c0: ac23 053e d12e b1bc 7d7a 9fbd 4baf 943d
000001d0: 705b 153e 519b 0fbe 74cc 72be 6d63 723e
000001e0: fa5a a63e 2240 94bd b09a 2abe fb4d 1c3e
000001f0: 0080 543e d4f3 b13d 0e06 2d3e 77cc d8bc
00000200: 0318 703d 3417 09be aec1 1f3d 186d 183c
00000210: f482 223e 5f11 bfbe 66e4 ad3b bb21 74bd
00000220: a684 cebe 6290 fabd 9c8c 813b 99ab 473e
00000230: ef2f 04be 57f1 b1be dc61 40bd 17ae bfbd
00000240: 2423 6e3d c04b 37bd 056c 863e 942f 0dbe
00000250: 286d 953c c330 dcbd a341 a4bd e11d 2abe
00000260: 88ed 28be 04a3 333e d15c 973e 063c 84be
00000270: c27c d7bd 7937 963d 6f1e 943e f287 d13e
00000280: 6d30 8bbe 6857 b23e f6c8 8dbd 3871 383e
00000290: 0e76 813e 9421 4dbe e629 903d aeeb 72bd
000002a0: 98d6 5a3d 4593 df3e e011 24be 5734 c5bd
000002b0: 6b1e bf3d ad77 f33d 4012 7e3c 6036 6bbd
000002c0: b669 d4bd c7ed 13be 8b74 1f3e 9895 52bd
000002d0: 9711 13bd ad97 6cbc 68f8 003e 6bdc a0be
000002e0: b209 24be 862e 8d3d 3d11 043e 39c9 61be
000002f0: 079d 0dbe 44b2 183c 313b cb3d 0d55 873c
00000300: 8f3e 743e 6e0a a83e ccea 3dbd 3d96 dfbe
00000310: fca2 f7bd eb86 af3d dc9e 3abc 56de 8ebe
00000320: e30a 2ebe 6106 43bb d695 61bc b3dc c73c
00000330: 98ad 58bd c9d2 b23d 8d06 8dbd 7aa8 d43c
00000340: fbc0 48be 583c 6bbd ec90 253e 6af2 283e
00000350: 8b6c c4bd 6f91 babd 38b5 293d 06ce 023e
00000360: 6b89 65bd 4bcc 81bd d07d 163e 04d4 8b3c
00000370: f4cf 083e 9fad 133e aaaf a13e 60c6 8e3d
00000380: 68c9 58be 01d6 1abd be43 bebc fc77 283e
00000390: e483 5e3e f598 b83e 3005 13bd cf59 c33d
000003a0: b2bc dbbd 8d89 133e 6ec8 3ebe 6896 81be
000003b0: 42c0 3ebe abbc 483e bb34 a73d d23a e53c
000003c0: 5cbc 533d 7108 a33c 97e4 69be f340 5abd
000003d0: faca 033e dd0d c33e 99c7 29bb 7a46 92bd
000003e0: b528 043e 0183 393d 5e3d 7c3d 2573 ad3d
000003f0: d9fd e6bd 7ed6 03bd 5bb2 68bd d144 153e
0.098597154 -0.13985118 0.2952668 -0.15012872 -0.20737422 0.25995257 0.0598048 0.045722194
-0.088220544 -0.39499712 0.13802457 0.07062464 0.08425804 -0.09875668 -0.011145448 0.10432009
0.025841083 0.10248807 0.21146989 -0.030738542 0.16683258 -0.007858061 0.05318223 -0.10948724
-0.0027390642 -0.01384822 0.26712698 0.021380825 -0.14478603 0.34437558 0.118989706 -0.070866644
-0.1151465 0.055977404 0.02982563 0.0016572279 -0.022315092 -0.07522009 -0.0998121 -0.05883694
-0.18627878 -0.12945737 -0.08428305 -0.26703224 -0.038485333 0.49004835 -0.21713692 -0.27287808
0.20240489 0.09671706 -0.035099685 -0.114126936 0.022501366 0.06511317 -0.5789592 0.23344469
-0.13602386 -0.04128903 0.0735695 -0.19983459 0.044888973 -0.06442096 0.02786063 -0.1408519
-0.23053724 -0.020792313 -0.037600666 0.15034807 -0.2174585 0.09958171 0.08639381 -0.018992675
0.17321771 -0.12913612 -0.03528541 0.0052593686 0.33893338 -0.08987166 0.071125165 -0.1189247
-0.023462916 0.15824859 0.22688073 0.2851832 -0.0905559 -0.10754318 0.23722912 -0.1258665
-0.01203526 -0.15003441 -0.1745847 -0.2449148 0.124932684 -0.1193064 0.02588375 0.36889485
0.11959703 -0.2857775 0.23990847 -0.07462468 0.019651955 -0.0794796 -0.19869107 -0.19451523
0.06309162 -0.04114195 0.045060623 0.059090205 -0.016496962 0.100456454 0.23843393 0.2394905
0.13001889 -0.02162877 -0.07787035 0.07259997 0.14585662 -0.14024092 -0.23710805 0.2367074
0.32491285 -0.07238795 -0.16660571 0.15264122 0.20751953 0.08689085 0.16896841 -0.026464684
0.05861665 -0.13387758 0.039003067 0.009303354 0.15870267 -0.3731794 0.005306768 -0.05960248
-0.40335578 -0.1223457 0.0039535295 0.19499053 -0.1290891 -0.3475444 -0.046968326 -0.09359377
0.05813898 -0.044749975 0.26254287 -0.13787681 0.018240526 -0.10751488 -0.08020332 -0.1661296
-0.16496861 0.17542654 0.29563 -0.25827044 -0.105218425 0.07334799 0.2892947 0.4092403
-0.27185383 0.3483231 -0.06923096 0.1801194 0.2528538 -0.2003234 0.070392415 -0.059306793
0.05342731 0.43667045 -0.16022444 -0.09629124 0.09331974 0.11888061 0.015507281 -0.057424903
-0.10371725 -0.14446174 0.15571801 -0.051412195 -0.035905447 -0.014440459 0.1259476 -0.31418166
-0.16019323 0.06893639 0.12897201 -0.22049417 -0.13829432 0.009319846 0.09923399 0.016520048
0.23851989 0.32820457 -0.046366498 -0.4366931 -0.12091634 0.085706554 -0.011390414 -0.27904004
-0.1699634 -0.002975844 -0.013768634 0.02439723 -0.052899927 0.0873161 -0.06886015 0.025959242
-0.19604866 -0.057430595 0.16168565 0.16498724 -0.095910154 -0.091097705 0.04143259 0.12773904
-0.056039255 -0.06337794 0.14696431 0.01706887 0.13360578 0.144217 0.31579334 0.06971431
-0.2117058 -0.037801746 -0.023225661 0.1645202 0.2173 0.36054197 -0.03589362 0.09538614
-0.1072935 0.1440794 -0.18631145 -0.25310063 -0.18628028 0.19603221 0.081643544 0.02798215
0.051693305 0.019901486 -0.22841106 -0.053284597 0.12870398 0.38096514 -0.0025906323 -0.071423486
0.12906154 0.04529095 0.06158196 0.08469228 -0.11278886 -0.032186978 -0.056810718 0.14577033

base.1linear.bias f4 [50]
00000000: f6c4 233e 8db8 093e 367d 17bd 4d37 09be
00000010: 571f 9f3d caf6 673d 8581 853d a345 6f3b
00000020: 02cb 1ebd 63b3 10bd a02f c8bd 1178 d6bd
00000030: 68ab 3c3d ccca afbd 7fe0 b5bc 5e47 a93c
00000040: 0a2e 383e 9976 11be 5bf6 a3ba 0750 b6bd
00000050: b0a6 843d f4d4 fcbc e4b0 34bb 8492 dbbb
00000060: 14d4 363d 6b33 0b3e 82d5 94bd e0bb c4bd
00000070: 85f7 80bd f7b2 5b3c a9ef c9bd 6f98 073d
00000080: 60b8 67bd 1843 72bd 49a2 39bd a9f2 69bd
00000090: 9f7e 6c3d 8486 a53c 4c2e f9bd b474 c53d
000000a0: 36eb 4c3e a4f6 fa3d f4f4 15bc 2ac6 ed3d
000000b0: b3b4 293d 3e64 d0bd 6b03 e4bc 5904 5cbd
000000c0: 1f8f ab3d 3b8c d2bc
0.15993103 0.13449307 -0.036984645 -0.13400002 0.077696495 0.05663184 0.065188445 0.0036510013
-0.038767822 -0.035327327 -0.09774709 -0.104721196 0.046061903 -0.08583602 -0.022201775 0.020663913
0.17986313 -0.14205398 -0.0012509333 -0.08901983 0.064771056 -0.030863263 -0.0027571255 -0.0067008156
0.044635847 0.13593833 -0.07267286 -0.09606147 -0.062972106 0.013409368 -0.09860165 0.033104356
-0.056572318 -0.059146017 -0.045320783 -0.057116184 0.057737943 0.020205744 -0.121670336 0.096414
0.20011601 0.12254074 -0.00915264 0.116100624 0.041432094 -0.1017537 -0.027833661 -0.053715084
0.083769076 -0.025701633

base.2linear.weight f4 [50, 50]
00000000: f377 833d c22b fe3e 9667 0bbd c804 80be
00000010: e228 e23d 01a5 533d a3dd a73e bf3f 343b
00000020: c2b4 7d3c 1fbc e4bd 813f 943d 57df e33c
00000030: f3e9 a83c be37 d83b 8fa0 d8bd 2d12 23be
00000040: 70cc 233e 7ccd 21be 7d8e eebc 1e67 57be
00000050: e83a babd b279 323e 4c41 5d3a 135b e43d
00000060: 4fd8 16bb a007 083e 902f edbd 5ef4 9fbb
00000070: dcd8 73be 3c5c 003e 777f f1bd 04c4 cfbc
00000080: 9acb 84bc f387 60bb e425 39be 625d 1abf
00000090: dcbe 873d b392 9dbc e9fd 1e3e 0c2a 2f3e
000000a0: ed7d 573e f7a8 303c e0f9 353c 4439 083f
000000b0: 6c7b 1c3d dae9 6cbe 96fa acbc c100 f0bc
000000c0: bf6f ea3e b5a2 6e3d f50a 7d3e 2efb 64be
000000d0: 0ac0 b2bd 293d c3be fb99 af3c e7be 983d
000000e0: 843a 703b d234 e13a c6e2 773d a559 623e
000000f0: cdf5 523e c282 643d 11d4 46bc 4441 a9bc
00000100: ebf8 0b3e 4aa7 963d 4a14 1cbd 8906 903e
00000110: 7fd3 ce3c ccaa 0d3d 0380 4abe 2396 393e
00000120: 7e54 843c 74ad 933d f1dc dbbb 08cd 36bd
00000130: c63e ac3d 1d95 8b3d 9144 b2be 726e 86be
00000140: f361 24be b581 123c 33bc 49be 10ff 96be
00000150: 519b 82be e112 b3be 2d4e 23be 6e5e 7fbd
00000160: 837e 573a 0a0d 37be 3016 24bf b9b0 09bf
00000170: 7b49 82bd 0ab8 713e 53f7 393d 607a 4f3d
00000180: 2cdb 483d 7dfe 133e e8d6 653c 4f28 2ebd
00000190: c533 5dbd fc06 9ebe 280b c33d 1c23 253e
000001a0: 2d90 bdbd 3944 373e 7f97 f7bd e9f0 1e3d
000001b0: 9b25 ca3d bd80 a13e d4be ddbc d406 583d
000001c0: 337b 29bc c88c 343e 2ae1 b63d 28cb afbc
000001d0: 0192 8fbd 9242 4abe 1fcb 15bd da1b 0e3c
000001e0: ee6e 153e 6210 503e d573 543d 22d8 ec3d
000001f0: 5095 34bb fa7e ff3d 1611 6e3e 1232 18bd
00000200: 2cc2 82be 7f88 853d 0ba9 5bbd b344 08be
00000210: 92d6 37be d06c d6bd 8145 113e 56ae 1e3e
00000220: 8acd 07be 9b2d f1bc 4607 cbbd 7eb3 78bd
00000230: 6c10 17bd 8e5c 93bd 1da7 a13d 4896 5cbe
00000240: d25a c4bd 767d 42be 94ae d83c 4612 b6be
00000250: 01e3 2ebe 094b ea3e eec9 9bbd 9372 d83c
00000260: 6e85 1b3e 0e7b 223e 4d88 6fbe 9a33 2b3e
00000270: 7c02 353e be72 fc3d 8be1 c83c 3eee e8bb
00000280: c58e 973d da34 b1bb cdb3 173e 31f3 873d
00000290: 96cb de3b ad96 4cbd 0912 6cba 57f7 aa3d
000002a0: 73cb 17bf 8d0c f93c 2c06 0a3e ec05 233c
000002b0: 08ec 123e 39e7 323e 0563 d2bd cb64 ce3d
000002c0: 6cef 4bbe 1026 d83e e770 73be b21c 623e
000002d0: 012d 95bc 6ec2 08bd f253 33bd 628b 4bbd
000002e0: 7dbf cf3d 8c5d 30be 6dde 4b3d f5be 34be
000002f0: c04a 8c3e a0ea 4cbd e7de 8abd 5385 0e3e
00000300: ae3c 9b3e 0345 5cbe 028a 453b 840c 263d
00000310: fd6e 8cbe ee12 423e a87e b4bd 2a60 16be
00000320: 8f30 7c3c 83e6 6dbd 3736 573d ac50 21be
00000330: 033a f53d 40f4 2b3e 9ecb 7c3e fcce 413d
00000340: 97f6 4dbd 9458 8b3d a6a8 0b3d db85 48bb
00000350: 5d74 74bd 6ca3 51be ff5b 763d 72b3 30bc
00000360: adb5 bc3d 8bee 2f3e 4b94 cfbd 58f2 babd
00000370: c6ec afbd d1ca 013e d8c3 d7bc 2af7 31be
00000380: 28d5 1e3d 7895 1e3d 21bb 36be 2b4d 63bc
00000390: 5468 c2bd 0eed 35be 6aaf 1d3e 160c 013e
000003a0: 7384 0fbd 5bc7 5fbe 18d7 83bd d54e bd3b
000003b0: 1307 3bbe 3032 d43d f9a8 b8bc e1d4 033e
000003c0: 8602 6f3e bd12 5d3e 2cc3 3f3e 4805 7fbd
000003d0: 5947 eabc 0100 b3be 5246 3bbd b0fb 0fbe
000003e0: 6b02 9e3b 72b6 813e a3da b9bd 2aa7 1b3e
000003f0: 7f79 16be 6665 5e3d 08cb febd 203d 283e
0.06419363 0.4964276 -0.034034334 -0.25003648 0.11042954 0.05167103 0.32786283 0.0027503816
0.015484991 -0.11168694 0.07238675 0.027816458 0.020619368 0.006598442 -0.10577499 -0.15924902
0.15995955 -0.15801042 -0.029120678 -0.2103543 -0.09093267 0.17429236 0.0008440211 0.111501835
-0.0023017114 0.13284159 -0.115813375 -0.0048814258 -0.23813194 0.12535185 -0.1179189 -0.025362022
-0.016210366 -0.003426072 -0.1808086 -0.6029874 0.066282004 -0.01923499 0.15526547 0.17105883
0.2104413 0.010782472 0.011106938 0.5321238 0.03820364 -0.23136082 -0.021115582 -0.029297234
0.4578838 0.05826064 0.24711211 -0.22361442 -0.08728035 -0.381326 0.021435728 0.07458287
0.0036655972 0.0017181879 0.060519002 0.22104509 0.20601578 0.055788763 -0.0121355215 -0.020661004
0.13669173 0.073561266 -0.038105287 0.28129986 0.025247334 0.034586713 -0.19775395 0.18123679
0.01615357 0.07210818 -0.006709688 -0.044629127 0.084104106 0.068155505 -0.34817937 -0.26256138
-0.1605299 0.008942057 -0.19700699 -0.29491472 -0.25509122 -0.3497534 -0.1594779 -0.062345915
0.0008220451 -0.17876068 -0.64096355 -0.5378528 -0.063616715 0.23605362 0.045401882 0.050653815
0.049037144 0.14452548 0.014028288 -0.04251891 -0.05400445 -0.30864704 0.09523612 0.16126674
-0.09256015 0.17897119 -0.120894425 0.03880397 0.09870454 0.31543532 -0.027068533 0.052740887
-0.010344314 0.17631829 0.089296654 -0.021459177 -0.0701027 -0.19751957 -0.036570664 0.0086736325
0.14593098 0.2031875 0.05186828 0.115646616 -0.0027554817 0.12475391 0.23248705 -0.037157126
-0.25538766 0.06520175 -0.05362801 -0.13307457 -0.17952946 -0.10469973 0.1418667 0.15496191
-0.13262 -0.029440692 -0.09913497 -0.060718052 -0.036880895 -0.07195388 0.078932025 -0.21541703
-0.09587635 -0.18993172 0.026450433 -0.35560817 -0.17078783 0.45760372 -0.076068744 0.02642182
0.15187618 0.15867254 -0.23391838 0.16718903 0.17676729 0.12326573 0.02452161 -0.007108479
0.07400278 -0.0054079117 0.14814682 0.06638182 0.0067991717 -0.049948383 -0.0009005373 0.083479576
-0.59294814 0.030401492 0.13478917 0.009950142 0.14347851 0.17471017 -0.10272793 0.100778185
-0.19915551 0.4221654 -0.23773538 0.22081259 -0.018209936 -0.033388548 -0.04378123 -0.049693473
0.10143945 -0.17223185 0.04977267 -0.1765097 0.2740078 -0.050028443 -0.067807965 0.13918047
0.30319732 -0.21510701 0.0030142074 0.04053928 -0.27428427 0.18952534 -0.0881322 -0.14685121
0.015392437 -0.05808116 0.052541938 -0.1575343 0.119739555 0.16792393 0.24687049 0.047316536
-0.050283995 0.06804004 0.034096383 -0.0030597362 -0.059681285 -0.20472497 0.060146328 -0.010784971
0.092143394 0.1718084 -0.101357065 -0.09128255 -0.08590083 0.12675025 -0.026338503 -0.17379442
0.0387775 0.038716763 -0.17844822 -0.013873379 -0.09492555 -0.1776621 0.15398946 0.12602267
-0.035038423 -0.21853392 -0.0643751 0.00577722 -0.18264417 0.10361135 -0.02254151 0.12874176
0.23340806 0.2158918 0.18726796 -0.062260896 -0.028598474 -0.3496094 -0.04572136 -0.14060855
0.0048220656 0.25334507 -0.09074905 0.15200487 -0.14694785 0.05429592 -0.12441069 0.16429567

base.2linear.bias f4 [50]
00000000: dcc7 d83d 0f75 0ebe e6b9 033d d433 83ba
00000010: 3634 943d 5abe d6bd 25ad ecbd 45ce b13d
00000020: 44a5 a53a 4035 333e f30f 1e3d 4d60 31bb
00000030: 9114 b9bd 8c2b 92bd b680 a9bc 50db 45bd
00000040: 66af 11be 4467 76bd a1f1 00bd 975e d3bc
00000050: 860e 273c f392 f83d 4b4f cabd 4367 bf3d
00000060: 6a8b f0bd 74d6 5cbc 776a 913c 4e8f e33d
00000070: abba 243d 7004 04bb 4d28 ba3d f4b0 51bb
00000080: 223a 133e bd3e 9d3d 2147 18be 45fb c2bd
00000090: 113a 44bb f1f5 ecbb 535a a3bc 517f 543d
000000a0: 9468 b8bd c1aa b93b eaa5 003d b4e5 c93b
000000b0: 1059 643d 8bf3 5cbd 9a43 583d 8915 20be
000000c0: 7893 b5bc 637a b23d
0.10584995 -0.13911842 0.03215971 -0.0010009953 0.07236521 -0.104855254 -0.11556462 0.08681921
0.0012637754 0.17500782 0.03858943 -0.0027065456 -0.09037126 -0.07137212 -0.020691257 -0.048304856
-0.14227065 -0.060157076 -0.031480435 -0.02580194 0.010196334 0.12137403 -0.09878405 0.093458675
-0.11745341 -0.013478864 0.017750962 0.111113176 0.040217083 -0.0020144247 0.09089718 -0.0031996341
0.14377645 0.07677982 -0.14870884 -0.09520582 -0.0029941837 -0.007231467 -0.01994053 0.05187923
-0.09004322 0.0056661074 0.031408228 0.006161416 0.055749 -0.0539432 0.052798845 -0.15633215
-0.022165045 0.0871475

base.3linear.weight f4 [50, 50]
00000000: 5569 ac3d bf2a 97be 1873 9bbd 916d e13b
00000010: ddab 3a3e e8ca ccbd fd0b cebc 063e 733e
00000020: 8d5b 303e d07b 1c3f 3f11 69bd 7544 10be
00000030: d467 2e3e 0ad2 643d ee28 10be 5081 97be
00000040: b9c1 a8be 5613 ddbe 4411 8abd 0379 c0bc
00000050: b29d 0d3c c267 433e 8ba5 adbb 068b 48be
00000060: 2d62 56be 72dd f5ba ffff 3e3c f6a2 d23d
00000070: 4187 fb3d e4f6 09be 21d3 673e 20d6 2fbe
00000080: 1688 873c 3a79 2f3d 7b96 ccbe 9eba adbd
00000090: 34e3 b43e ff5b f23e 7914 9e3d ea90 bcbd
000000a0: 1845 5ebc ba9d 18bc 6b9b 053f fadb 00be
000000b0: 0f6c 90bd 23ee c9bd 7e23 24bc 3936 54be
000000c0: a866 96bc 42fd d8bd 8347 dc3d 9ac6 e43d
000000d0: a3d8 8dbe 5bdc 243d 228b 8abe 6a5e 20be
000000e0: 0996 8cbc f827 d1bd 0d59 4abd 2c91 183e
000000f0: d624 76bd 8091 7cbe 659b 1b3d 55d0 8b3c
00000100: 0719 903d 97f9 37bd d00f 693d cbd7 97be
00000110: 17c7 b23c dc9c 963c 16d1 7e3e 2e77 033e
00000120: 7767 c73e 549a 2b3e 2e42 f5bd a790 09bb
00000130: 6cfc 973d d41d 5e3d ecf8 793d 428e 6cbe
00000140: cab1 893e 33ec 2dbd 570a 163e 8dc8 143d
00000150: 17e3 923d a91c 79bd 9570 3d3e d68d 3ebc
00000160: 5ae3 1a3e bb7d 3cbe 08a4 12be 0d49 1a3c
00000170: 6d2f 533e d846 23be b727 20bc 05db 8ebc
00000180: 4a07 493d 7a3f 1b3e 9356 973d d93f 7a3d
00000190: ec1c 7d3d 0174 02bb ae46 073e fa0c 2a3d
000001a0: 7c06 d3bd 1017 303e 1bbb b1bd 6cd1 a23d
000001b0: 32ce 27bd 410d 5d3e 4f40 8abc 75a5 3f3e
000001c0: 77a2 1e3e ef2b fbbd 412a de3b 2c37 753d
000001d0: 9eaa 67bc eb8e c539 85e0 03bd c9a5 dfbb
000001e0: f9b7 10be 343f 8fbe e6c1 f6bd c257 1fbe
000001f0: 111c 253d 9295 36bd 1291 213e 960b 5e3d
00000200: a13c f83c 0d5e 143d 24bb f6bc 5f85 573d
00000210: ba11 623d 7bad 9cbd e538 23be 1c14 8f3d
00000220: c50a 573d 7eaa 093c b7c2 30bd f764 d23d
00000230: 403b 2f3e 6920 053a 95f9 aebe cd8b d8bd
00000240: 8300 b6bd 2379 383d 4f34 1c3d 45f1 97be
00000250: b85f aa3d fa28 0abc 8458 5c3e f117 4fbe
00000260: 913e d2bd 0b8d 163c 9481 2fbe f46b 1f3e
00000270: fe7d ddbd 3e77 61be cce0 9cbd d072 703e
00000280: b27c 663d afd1 24be 5643 82be ec70 9b3d
00000290: 312c c1bd c847 44be e36e 763e 5848 4e3e
000002a0: 043c a2ba 0ca3 d9bc f251 593c f7df ec3d
000002b0: 9a85 a03d e6a9 963e d0cb acbc 53e9 02bb
000002c0: 32a6 953d 72f3 353e ddbe 13be f9e5 e5bd
000002d0: f1f7 8cbe bb41 053e 2612 e13d 3463 dd3c
000002e0: 45d0 80be 5c8a ee3d 6b7c bcbd 60a6 39bd
000002f0: 5088 083e 4405 fa3d 9d5c a7bd 56dd 9bbd
00000300: cd27 983d 87fa cebc 2484 ffbd d647 59bc
00000310: 37a3 ec3c 9993 84bd a205 a2bd f1b4 913e
00000320: ce90 27bd 94c8 f3be 821e b93e b2a5 87bc
00000330: 6750 08bd d3e7 6f3d 9b7f 9fbd fdee 113e
00000340: 722a ca3d 9cdc 2e3f 4871 983d 3cc7 123e
00000350: 5423 04be 4513 9ebd 23f9 c83c 86a1 2e3d
00000360: d7fb 97be e878 b6bd 52d0 813e 5c89 3bbc
00000370: cbf1 3b3e e9c6 debe bac0 383c 126b 663e
00000380: 8314 60be 3d83 71bb 97d1 49be db08 dabd
00000390: 13d8 acbd e246 2abc f95a 9e3d ca1f e1be
000003a0: a254 b13d 84a6 573d aa13 8cbe 48c2 223d
000003b0: 620b d53e 81e3 843e b2fb fe3d 90f7 743e
000003c0: 0e32 993e 8ebd 0dbd 8fa4 e63d 6729 893e
000003d0: 5d55 483d a0be c9bb abbf 9fbb 343c f0bc
000003e0: d311 d3bc 6429 30be 15fe b93e c953 363d
000003f0: c717 4cbd 9137 803a 7a8d f93d 3a6a 47bc
0.08418528 -0.295248 -0.07590312 0.0068795164 0.18229623 -0.09999639 -0.0251522 0.23754129
0.17222424 0.6112642 -0.056901213 -0.14088614 0.17031795 0.05586437 -0.14078113 -0.29590845
-0.329603 -0.43178815 -0.067415744 -0.023495203 0.0086435545 0.19082549 -0.0052992753 -0.19584283
-0.20935889 -0.0018758012 0.011657714 0.102849886 0.12281657 -0.13473088 0.22639133 -0.17171526
0.016544383 0.04284022 -0.39958557 -0.0848286 0.35329592 0.47335812 0.077187486 -0.09207328
-0.013566278 -0.009314949 0.52190274 -0.12583914 -0.070518605 -0.09859874 -0.010018228 -0.2072381
-0.018359497 -0.1059518 0.10755827 0.11170693 -0.27704343 0.04024921 -0.27059275 -0.15661016
-0.017161386 -0.102127016 -0.04940133 0.14899129 -0.060093723 -0.24664879 0.037989993 0.017067114
0.070360236 -0.04491576 0.056899846 -0.29656824 0.021823449 0.018385343 0.24884447 0.12838432
0.38946125 0.1675809 -0.119755134 -0.002099076 0.074211925 0.054227665 0.061028406 -0.23101142
0.26893455 -0.042461585 0.14652382 0.036324073 0.0717222 -0.060818348 0.18499978 -0.011630496
0.1512579 -0.18407337 -0.14320385 0.009416831 0.2062356 -0.15944993 -0.009775094 -0.017438421
0.049079217 0.15160933 0.073895596 0.061096046 0.06179516 -0.001990557 0.13210556 0.04151628
-0.10303971 0.17196298 -0.08678266 0.079501 -0.040968128 0.21587087 -0.016876368 0.1871546
0.15491663 -0.12264239 0.0067799394 0.05986707 -0.014139799 0.0003768125 -0.03219654 -0.006825183
-0.1413268 -0.27977908 -0.12048702 -0.1556082 0.04030997 -0.044576235 0.15777996 0.054210268
0.030302348 0.036222506 -0.030118532 0.052617427 0.055192687 -0.07650276 -0.15939672 0.069862574
0.052500505 0.008402465 -0.043154445 0.10273164 0.17112446 0.0005078377 -0.3417479 -0.1057354
-0.08886816 0.0450374 0.038135823 -0.29676262 0.08319038 -0.008432621 0.21518141 -0.20223977
-0.1026584 0.009188901 -0.17139274 0.15568525 -0.10815047 -0.22018144 -0.07660064 0.23481297
0.056271262 -0.16095613 -0.25441998 0.075898975 -0.09432257 -0.19168007 0.24065737 0.20144784
-0.0012377505 -0.026567005 0.013264166 0.115661554 0.078379825 0.29426497 -0.02109328 -0.0019975498
0.0730709 0.17768648 -0.14428277 -0.112255044 -0.27532914 0.13013355 0.1098979 0.027024843
-0.25158897 0.11647484 -0.09203418 -0.045324683 0.13333249 0.122080356 -0.081719615 -0.07610576
0.074294664 -0.025265945 -0.12476376 -0.013261756 0.02888642 -0.064734645 -0.079112306 0.2845836
-0.04090958 -0.47613966 0.36156088 -0.016558502 -0.033279803 0.058570694 -0.07788011 0.14251323
0.09871377 0.68305373 0.07443482 0.14333814 -0.12904102 -0.07718519 0.02453286 0.04263451
-0.29684326 -0.0890978 0.25354248 -0.011446323 0.18353955 -0.4351113 0.011276418 0.22501782
-0.21882825 -0.0036851906 -0.19708858 -0.1064622 -0.084396504 -0.010392876 0.077321954 -0.43969566
0.086587206 0.052649036 -0.27358752 0.039736062 0.41610247 0.25954822 0.12450351 0.23922563
0.29921 -0.0346046 0.11261856 0.267894 0.048909534 -0.0061567575 -0.0048751435 -0.029325582
-0.025765335 -0.1720329 0.36326662 0.044513498 -0.049827363 0.0009782185 0.12185188 -0.0121713225

base.3linear.bias f4 [50]
00000000: ed8c 633e 086c b7bc 5a33 09be 39f5 ba3b
00000010: 0ebb 9f3d 00a8 953d 1d77 fcbd 8256 82bd
00000020: acce e93c c939 3fbd f88d a7bb 7c64 e4bd
00000030: cb39 d1bc 90fd d73d 3719 293d 1bfb 2ebd
00000040: 055a c7bd b120 29bd 5214 4abd 4f3e 0f3d
00000050: 3f5e 563d 78c8 a93c 8031 b0bb 0805 f13c
00000060: 6d6d e1bc 798c b6bc a740 59bd 5e3d ea3c
00000070: f050 5a3c b5f5 d8ba 168e b6bc 2617 80bd
00000080: b5a8 453c 066a 2b3d b7a8 d8bc 8f56 80bd
00000090: d20d 4abd 0a23 cc3b 7b3f 4a3d adcd 33bc
000000a0: ba25 02be 5870 f7bd 5d44 833d 4be3 0e3e
000000b0: 6025 3fbd 6e93 493c 35a9 5e3d 593f 5ebd
000000c0: b021 86bb 721d 923d
0.22221728 -0.02239038 -0.13398495 0.0057055023 0.0779935 0.07307434 -0.123274066 -0.06364156
0.028540932 -0.046685968 -0.0051133595 -0.111519784 -0.025540253 0.1054641 0.041283812 -0.04271994
-0.09733967 -0.041290943 -0.049335785 0.03497153 0.052335974 0.020725474 -0.0053769946 0.029421344
-0.027517999 -0.02228378 -0.053040173 0.028593715 0.013324961 -0.0016552719 -0.022284549 -0.06254415
0.012064149 0.04184916 -0.026447637 -0.0626651 -0.049329586 0.006229763 0.049376946 -0.01097433
-0.12709704 -0.12081975 0.06409524 0.13953893 -0.046666503 0.012303216 0.054360587 -0.05425963
-0.0040933713 0.071345225

base.4linear.weight f4 [50, 50]
00000000: b036 c3bc b5c0 2abe 14d0 133e 96b2 aebb
00000010: 4cae 6ebd bd93 363d 31cf 01be db24 7f3d
00000020: f45b 913d 3a06 cf3e 7117 433c 7981 ecbd
00000030: 89b6 2fbd 1417 2cbd 4b61 463e 810c 0bbe
00000040: 3d6b 03bd d7fe 23be d37f 1c3e 8a27 233e
00000050: eaba a2bd adc6 a1bd cc21 0dbd ef0d 56be
00000060: bea7 6dbd fb71 60be 80e5 053d b934 36be
00000070: 70d9 d2be b5c3 e43d 9445 09bf 98fd e4bc
00000080: 8fdc 693d 01d4 56be df89 d0bd c382 b03d
00000090: f7bf cbbc 8771 31be 3b02 a1bb 6006 cf3d
000000a0: 5d90 5fbe 2def 1f3d 7f80 bdbd 4aff 0abe
000000b0: 7e4f be3e e9d1 933e ff17 23be 1582 983b
000000c0: e1ac 9c3e 78d6 85bd e638 60bc 3194 323d
000000d0: 3144 82bd 9e1e 48bd feda 913d c03e 5bbe
000000e0: 5d06 11be 0d54 dd39 b972 163e 0562 b43d
000000f0: 60d9 22be a317 6b3e 7494 77be 1d3b 96bd
00000100: 70bb 92be f280 003e d422 3abe dbdb d33e
00000110: 60bd 383d b5ff 6fbe 7119 85bc e2ca 513d
00000120: 6b27 063d 14aa fcbc ab4d fa3d 019a 203e
00000130: c4be 4bbd 1371 cfbe f0d1 98bd c962 803c
00000140: bc68 3ebd 064d 913e 12f0 c53c 41c0 ef3e
00000150: 2af3 4ebc 12e3 493d 0c53 57bd 1926 9d3d
00000160: 7464 023c 6087 f13d 43b8 953e b5f2 203e
00000170: 8ef6 38bd 2099 82bd d3c5 1b3e 02f5 32be
00000180: 7aa9 e23d ac8f e33c 160e 863c 0019 1dbc
00000190: 9b49 873e 407d 6ebe 7fb5 ce3d 6b9e 80bd
000001a0: 9e6f 083f 6160 91bd a660 563d 4776 803e
000001b0: f48e 863e f960 00bd 994b bebb 4270 b1bc
000001c0: 9fe8 b1bd 7344 e63d d943 94be e40f 1a3e
000001d0: e606 19bd 2c87 1c3e 37c9 8a3e 8708 d7bd
000001e0: 68ba 493c 3991 4b3c 3e3a 8bbe 3c22 edbd
000001f0: f7c0 2b3e 3ede e4bd fec5 973d ca2e 94be
00000200: 0364 d9bd 144c 4abd d63a 35be df5e 61bb
00000210: cd30 41be 4dad f6bd 5d9d 2c3e e592 ecbb
00000220: 8385 1abe 4bdb 8abd 2027 16bd 3644 2fbe
00000230: 2e6e 57be 235b 673d ddb8 743d 6f2f bebd
00000240: c03b e3bc ef48 4abe 635b 15bd e526 a9bd
00000250: 3887 6b3d db5c 9bbe 8bc4 283c 80ed d93e
00000260: 6177 78be 87e1 183e 61d7 cebb 0e6c 3cbe
00000270: 1c57 3a3e e529 723d 5061 07be 36cc 95be
00000280: dbd9 c83d 2df1 2cbe fe5a 1ebe 35f0 cbbe
00000290: 1a99 bc3c 1452 dfbc f157 8e3e 1666 273d
000002a0: ba60 db3d c1d4 e3be 4f43 413e db11 233d
000002b0: f0e7 d2bd 1a80 babe 2353 c13b 8938 143e
000002c0: 1841 0b3d e3c8 e13d 8d06 e33d 0c04 a2bd
000002d0: c93f 0f3e d202 27be a4a0 5f3e 9cd1 d13d
000002e0: 1d46 633e 5dca e7bc c646 7d3d c772 7d3e
000002f0: 50b4 c23a 00cb de3d ab0b 8f3e 8ed9 333e
00000300: 5e04 afbd 7e1f 943e 87c8 8cbe dcde cbbc
00000310: 7228 703d 2052 6cbd 7c18 0f3e 2e81 0e3d
00000320: 8494 7cbe cee5 f53d d36c 86be 82c0 c3bc
00000330: 1200 bebd 7734 223e aa50 c0bd 4c64 853c
00000340: 2c3c 41be c0b7 06be ecd5 303d b52d d5bd
00000350: 4a78 82be 52b4 afbd 50dc f1bc 14ca d43c
00000360: 38af af3d 31d3 26be 087e 00be 32b8 45be
00000370: cad8 343e ece5 013e 51f5 943e 1410 fcbd
00000380: 9167 613d b50b 0f3e 1d2b a1bc 30cd 2a3e
00000390: 6c62 8ebe 3c77 48be e1e5 72bd f8da 0abc
000003a0: 2578 893d c156 19be 52aa 10bd 9600 83bd
000003b0: 2e59 6dbd e8a5 babd 6f40 9dba 58de a2bd
000003c0: 3f20 fcbd 8a1c 1c3d 310d 02be 2693 6e3e
000003d0: 2c9e e03d 4b8f 4f3e 6d91 fcbd 12e2 433d
000003e0: 4f6c e83d a019 9dbd 1205 c23c 5541 14bd
000003f0: f641 a13c 4feb 9abd 25e7 593e 87a6 85be
-0.023829788 -0.16675074 0.14434844 -0.0053313477 -0.05827169 0.044574488 -0.12676693 0.062291007
0.07097617 0.40434438 0.011907444 -0.115481324 -0.04289869 -0.042014197 0.19373052 -0.13578989
-0.032084692 -0.16015182 0.15283136 0.15933052 -0.07945807 -0.078992225 -0.03445606 -0.20903753
-0.0580213 -0.2191848 0.03268957 -0.1779355 -0.41181517 0.11170141 -0.5362179 -0.027952954
0.057095107 -0.2097931 -0.10182547 0.08618691 -0.02487181 -0.17328463 -0.004913596 0.10108638
-0.21832414 0.039046455 -0.09253024 -0.13573948 0.37170023 0.28871086 -0.15927123 0.004654179
0.30600646 -0.06535047 -0.013685441 0.043598358 -0.06360663 -0.048857324 0.071218476 -0.21410656
-0.14162584 0.00042215027 0.146922 0.08807758 -0.15903234 0.22958235 -0.24177724 -0.07335494
-0.28658628 0.12549189 -0.18177348 0.41378674 0.045102477 -0.23437388 -0.016247483 0.051218875
0.032752436 -0.030842818 0.12221845 0.15683748 -0.049742475 -0.40515956 -0.074619174 0.015672104
-0.0464866 0.28379077 0.024162326 0.46826366 -0.012631217 0.049288817 -0.052569434 0.07673282
0.00795852 0.11793399 0.29242143 0.15717585 -0.045157008 -0.063768625 0.15212183 -0.17476276
0.11067481 0.027778469 0.016364139 -0.00958848 0.26423344 -0.23289967 0.100932114 -0.06280216
0.53295314 -0.07098461 0.052338265 0.25090238 0.2628094 -0.03134248 -0.005807352 -0.021659974
-0.08686947 0.112435244 -0.28958014 0.15045124 -0.037360094 0.15285939 0.2710664 -0.10499673
0.012312509 0.0124247605 -0.27192873 -0.11578795 0.16772829 -0.11175202 0.07410811 -0.28941947
-0.10614779 -0.04938896 -0.17698225 -0.0034388823 -0.18866272 -0.12044773 0.16856904 -0.0072196596
-0.15089993 -0.06780108 -0.036658406 -0.17115864 -0.21038124 0.0564834 0.059746612 -0.09286391
-0.027738452 -0.19754384 -0.036464106 -0.08259372 0.057502 -0.3034428 0.010300766 0.4256401
-0.2426429 0.14929782 -0.0063122963 -0.18400595 0.18197292 0.059121985 -0.13220716 -0.29257363
0.09807178 -0.16888876 -0.15464398 -0.398317 0.023022223 -0.027260818 0.2780147 0.04086884
0.107118085 -0.44498256 0.18873332 0.03981195 -0.10298145 -0.3642586 0.0058998032 0.14474691
0.033997625 0.11024644 0.11085234 -0.07910928 0.13989176 -0.1630967 0.21838623 0.10245058
0.22194715 -0.028294737 0.061835073 0.24750815 0.0014854763 0.10878563 0.2793859 0.1756346
-0.08545755 0.28930277 -0.2749674 -0.024886541 0.05863232 -0.057695508 0.13974184 0.034791164
-0.24666029 0.120067224 -0.262549 -0.023895506 -0.09277357 0.15840326 -0.093903854 0.016283177
-0.1887061 -0.13156033 0.04317276 -0.104091085 -0.25482398 -0.08579315 -0.029523998 0.025975265
0.08578342 -0.162915 -0.12548077 -0.19308546 0.17660823 0.12685364 0.29093412 -0.12307754
0.05503041 0.1396931 -0.019673878 0.16679835 -0.27809465 -0.19576734 -0.05930126 -0.008475058
0.06712369 -0.149745 -0.03531868 -0.06396596 -0.057946377 -0.09113675 -0.0011997352 -0.07952565
-0.12310838 0.038113154 -0.12700345 0.2329832 0.10967669 0.20269506 -0.12332425 0.04782302
0.11348783 -0.07670903 0.023684058 -0.036195118 0.019684773 -0.07564413 0.21279581 -0.26103613

base.4linear.bias f4 [50]
00000000: 2d79 163c 8fae 87bd 6dee bb3b 6f22 2cbd
00000010: b157 db3c 3398 85bd 4278 b73d 2c27 173d
00000020: fae4 8ebb 81c7 87bb 3474 44bd 61f5 a8bb
00000030: ec57 a73b 4ec5 4b3c 229a 6abd 9d52 dabc
00000040: ce20 f6bb 61de b6bd 8e71 3f3c 73c8 1abd
00000050: cb95 4d3d 23c0 9a3c a676 0ebe 77e0 f23c
00000060: ee97 0b3e b774 a2bc 9c6f 813d 1c75 c4bd
00000070: 84eb 1cbd 3271 743d eca2 c53d c477 5f3d
00000080: 0324 2bbd 56de 3ebd a688 383d eb65 90bc
00000090: b0c1 173e 2caa febc f2be afbd 4ed6 93bd
000000a0: f7fe c3bc bce5 9a3d 70d3 f7bd 551a 30bd
000000b0: dbfa 1a3d 556b ae3c 38cb 9d3d 65e1 40bd
000000c0: 77b3 7cbd 0b2f 293d
0.009184164 -0.06625091 0.0057352097 -0.042025026 0.026775213 -0.0652317 0.08958484 0.03690259
-0.004360792 -0.0041436558 -0.047962382 -0.0051562046 0.0051069167 0.012437178 -0.0572759 -0.026650721
-0.007511235 -0.08929134 0.011684788 -0.03778882 0.05019168 0.018890446 -0.13912448 0.029648049
0.13632175 -0.019831045 0.06320116 -0.09592649 -0.038310543 0.059678264 0.096502155 0.054557577
-0.04178239 -0.046598755 0.045052193 -0.017626723 0.1481998 -0.031087004 -0.08581342 -0.0721861
-0.023925288 0.075633496 -0.121008754 -0.042993862 0.03783689 0.021291414 0.077047765 -0.047089953
-0.06169459 0.04130463

base.5linear.weight f4 [50, 50]
00000000: 647c 9b3d 2aab ba3e 191e f23d d495 a23c
00000010: 72de a53d 502f 183d 393a d2bd 14bd 4f3e
00000020: 03f5 8bbc d913 15be f1e3 77be cb70 b7be
00000030: 7563 36bd bc52 7f3e c8b1 69be 0a27 42bd
00000040: 7828 883b c8b1 debd 24bf b23d ff97 a53d
00000050: ad69 b0be 7cbf 0b3e 75c2 663d 247b 4dbd
00000060: cba0 3d3e b351 60bd 4dcd fabd cf7c 213e
00000070: 71c7 33be e50d 8cbb 6c12 0ebc 37a2 fa3d
00000080: ecbe 4dbe fc31 9b3d 92ce a83d bab8 04be
00000090: ba4d 803d cc91 9abc 4767 993d d304 0e3c
000000a0: a1ba 86bd c2a1 873d 0ac5 8ebd 4b17 6abe
000000b0: d131 1dbe 2f0e 0bbe 21cf f33d c7de 393e
000000c0: d9b1 96bd 1b58 983c 6903 c3bd 67cf edbd
000000d0: 6d73 8bbe cfe4 1a3e b7cb 943e f228 b5bb
000000e0: 773e 523e 0a7c 90bc 57bb 84be 1563 443e
000000f0: 3b87 113e 594e aebe 6df0 26bc 234c 08be
00000100: fec5 1dbe 0cca ef3c 7f98 ee3d 741d c8bd
00000110: 3195 033d b4be 263d 2508 5cbd 9592 7f3d
00000120: fddf 143e d5bc 1fbe 45ce ac3e 2a68 04be
00000130: 2db8 b23e 7541 d53c ba10 11bc ac01 443e
00000140: 3e18 e43e fbf7 863e 9589 853d 3ee7 bf3d
00000150: 2ba1 aebd 7860 f93d 4f69 a63d 46da adbb
00000160: d888 f43d ed48 193f 0e62 0d3d 9aca d1bd
00000170: e327 793d 3f81 dc3d 947f 6f3e 6dd6 c3bd
00000180: df17 3fbe 7e05 8c3e 796f ca3b 500c afbe
00000190: fec6 f8bc 6f97 073e 550b 7d3d 5192 5dbc
000001a0: 4ae0 593d 4fe3 9d3e 1043 1a3e 4c66 b3be
000001b0: d258 2b3e a806 643e f1f8 20be 428d b23d
000001c0: c9ab 85bc 37ee 333e 07f3 023e f5bd a03d
000001d0: e2da 53be 4e02 663e 18c0 4abe 3117 143d
000001e0: db25 4c3b 58d0 453e 8aa2 9b3e d385 09be
000001f0: 459c f1bd 6b17 ae3d 4e6e 7e3e 4573 443e
00000200: 94b6 703e ccd2 a23d bdd3 173d ca15 8fbe
00000210: 65f7 3e3d ab2b 1b3e e52e a6be ed35 5abc
00000220: c98c e03d 70ca 433d 75f4 263e 76a5 b73a
00000230: 966a 82bd 890f 763d 64b4 6b3e f171 36be
00000240: 5b13 57be 5e39 053c b8df 0dbe 2286 9ebc
00000250: 0555 2f3e cbb7 e03d 2b7b 12be 3425 613d
00000260: f828 37bd db8b 013e 5f60 04bc 1e53 a43d
00000270: c019 2d3c 4414 8fba f766 0d3e a7c9 d5bd
00000280: 9e53 a73e 0a1a b53c cee7 8c3e ec94 093e
00000290: 0fd8 ab3d d0f4 1d3e 79bc 6a3a bb5c e33d
000002a0: 3078 653e 8c6e 313e ceab 95bd 8e0e d3bd
000002b0: 65d9 a23e 2994 10bd 5fd7 eabe e1c8 6b3e
000002c0: 48eb 09be 5eec b4bd 47d9 963d ac06 47be
000002d0: 4ec8 9b3d 325d 86be 0961 1d3e d2cb 3c3d
000002e0: e471 5e3e 2b0f 52bd 23fc 0fbe 8d0d 05bb
000002f0: 8bda 9e3d 8618 7e3e f8f9 f13d d557 47be
00000300: 360f 5e3e 5671 543d 3f85 92bd 888d df3d
00000310: ca88 f6bb 955d 4f3c b9ca ecbd 031d 32bd
00000320: ed26 f03d b05a 85bd ed06 e33d b7ac c93d
00000330: 0ca4 3e3d 5f99 aabd 28b1 e43d 1c04 a4bc
00000340: c6e3 423e 179c 66be 311d c2bc 3568 64bc
00000350: 2145 9bbd c8b8 d23c 1b57 dd3d ee7f 343e
00000360: 0cf8 92be 3163 dc3c 0815 2cbe 7ed1 b0bd
00000370: 5989 523e 7c25 07be 64d3 fc3d 52d4 873d
00000380: 380f 2a3e b99c 693e c5e0 a43c a229 49bc
00000390: 45ff 1e3e e31e 813d ac15 8cbd 80dc 2bbe
000003a0: 6ef4 853d 88b0 8c3e 1f0b 373e 6c5c 933c
000003b0: 3de4 d63d 75cd 5e3d e117 d0be 2c86 36be
000003c0: b157 053e c3a4 e23d d44a c4bd 49ab 3dbd
000003d0: dc67 36bc 09b7 16be 9c73 593d e00d a1bd
000003e0: 25b1 df3d d01f 26be 54db a8bd 4fd0 903c
000003f0: 5c07 d5bd 0e9d 60be 8028 dabc c4b5 cf3b
0.07592085 0.36458713 0.11822147 0.019846834 0.08099069 0.037154496 -0.10265011 0.20286971
-0.017084604 -0.14558353 -0.24208046 -0.35828242 -0.044528443 0.24933904 -0.22821724 -0.04740051
0.004155215 -0.10873753 0.087278634 0.080856316 -0.34455624 0.13647264 0.056337792 -0.050166264
0.18518369 -0.054765414 -0.12246189 0.15770267 -0.1755655 -0.0042741173 -0.008671384 0.12237971
-0.20092362 0.07577893 0.08242525 -0.12961093 0.06264825 -0.01886835 0.07490402 0.008668142
-0.065785654 0.0662265 -0.06971176 -0.22860448 -0.15351035 -0.1357963 0.11904741 0.18151389
-0.073581405 0.0185967 -0.09522135 -0.116118245 -0.272365 0.15126346 0.29061672 -0.0055285627
0.20531641 -0.017637271 -0.2592418 0.19178422 0.14211743 -0.3404415 -0.010189158 -0.13310294
-0.1540756 0.029271148 0.1165018 -0.09771243 0.032124702 0.040709212 -0.053718705 0.06239565
0.1453857 -0.15599377 0.3375112 -0.1293036 0.3490614 0.026032189 -0.008854086 0.19141263
0.44549745 0.2636107 0.06520382 0.09370278 -0.08526834 0.12176603 0.08125555 -0.0053055612
0.119401634 0.598769 0.03451734 -0.10243721 0.060829055 0.10766839 0.23388511 -0.09562383
-0.1866145 0.2734794 0.0061778394 -0.3418908 -0.030368324 0.13241361 0.061778385 -0.013523654
0.053192414 0.30837485 0.15064645 -0.35038984 0.16733101 0.22268164 -0.15719964 0.08718349
-0.016317265 0.1757134 0.1278802 0.078487314 -0.20688966 0.22461817 -0.1979984 0.03615493
0.0031150493 0.19317758 0.30397445 -0.13429956 -0.11797384 0.085005604 0.24846765 0.19184597
0.23507148 0.079503626 0.037067164 -0.2794631 0.046622653 0.15153377 -0.32457653 -0.013318521
0.10964353 0.04780048 0.1630419 0.0014011103 -0.06367986 0.06007341 0.23018032 -0.17816903
-0.21003477 0.008131353 -0.13854873 -0.019351069 0.17122276 0.10972556 -0.14304797 0.05496712
-0.044716805 0.12651007 -0.008079617 0.08023666 0.010565221 -0.0010916074 0.13808809 -0.10438853
0.32680982 0.022107143 0.27520603 0.13435715 0.08390819 0.1542542 0.0008954476 0.11101671
0.22409129 0.17327327 -0.0730816 -0.103055105 0.31806484 -0.035297547 -0.4586744 0.23025848
-0.13468659 -0.08834146 0.07365661 -0.19436139 0.076065645 -0.26242977 0.15369047 0.046092816
0.21723133 -0.051283997 -0.14061026 -0.0020302266 0.077565275 0.24814042 0.11815256 -0.19467099
0.2168549 0.051865898 -0.07154321 0.10915667 -0.0075236307 0.012656589 -0.11562104 -0.0434847
0.117261745 -0.06511438 0.11085305 0.09847396 0.046543166 -0.083300345 0.111666024 -0.02002149
0.19032201 -0.22520481 -0.02369556 -0.0139408605 -0.07581545 0.025722876 0.1080763 0.17626926
-0.2870487 0.026902767 -0.16804898 -0.086337075 0.20560206 -0.13197893 0.12345007 0.06632294
0.16607368 0.22813691 0.02012671 -0.012277992 0.15527065 0.06304719 -0.06840071 -0.16783333
0.06540762 0.27478433 0.17875336 0.017988406 0.10492752 0.054395158 -0.40643218 -0.1782462
0.13021733 0.11066582 -0.09584585 -0.04630593 -0.01113316 -0.1471826 0.05308877 -0.078639746
0.109224595 -0.16223073 -0.082449585 0.017677454 -0.10401794 -0.21934912 -0.02663064 0.006338807

base.5linear.bias f4 [50]
00000000: fee6 733c 5a1f 593d 6d51 a0bd b8d3 6ebd
00000010: 8b3d 5cbd c138 c03b 3e33 53b9 8dbe c6bc
00000020: 0372 5e3d 823f c3bc a212 fb3c c42a e6bc
00000030: 62ba a0bc cca0 bcbc 0d5f 4e3d e7ab e4bb
00000040: 4aa2 63bd db15 5c3d 01f7 90bd 3317 43be
00000050: 6e92 97bd 671b f1bc 7989 b8bd 5499 0bbd
00000060: 4c3a 81bc 0310 d8bb b22c c73c a614 63bd
00000070: 9972 953d ceab b9bd 593d 44bd 1f1b 7e3d
00000080: 0f98 5dbc 9c49 efba dfd1 34bc 1734 fd3c
00000090: f908 24be 8049 64bd fd69 183e 2a65 50bd
000000a0: 1b02 5fbd 2c54 453d 85e5 a33d 5210 adbc
000000b0: 8c4b 9fbd 209d eeba 62ac 90ba 5775 e03b
000000c0: 7a33 8bbd 5486 61bb
0.014886616 0.053008415 -0.07828031 -0.05830738 -0.05376963 0.0058661406 -0.00020141617 -0.024260784
0.05430795 -0.023833994 0.030648533 -0.028096564 -0.019620124 -0.023025893 0.050383616 -0.0069785
-0.055574693 0.05373178 -0.07078362 -0.19051819 -0.07400976 -0.029432012 -0.09010596 -0.034081772
-0.015774868 -0.0065937056 0.024313305 -0.055439614 0.072972484 -0.09065972 -0.04791007 0.062037583
-0.013525023 -0.001825619 -0.011036365 0.030908627 -0.16019048 -0.055734158 0.14884181 -0.050877728
-0.054445367 0.048175976 0.08002762 -0.021125946 -0.07778081 -0.0018204786 -0.0011037702 0.0068499255
-0.06796928 -0.0034412341

base.6linear.weight f4 [50, 50]
00000000: 457c 9cbd 940a 183e dc62 cdbc 5084 313e
00000010: 8a87 9bbc cd5c ebbd 326f 84be 5ade 363e
00000020: d38f b6bd 9d92 503d af47 afbe ee81 513c
00000030: a89d 873d 798f 4e3e 4cd4 eabd 8edf 923e
00000040: 089e c5be 3300 c73d cbb8 8bbd aec9 46be
00000050: beaa 203e 11c7 e53c aa60 49bd e068 a1bd
00000060: e5e2 eebd 2659 84bd 1401 af3e 3287 be3d
00000070: 4f37 08be 4a07 893a 1cb4 15bd fd91 4dbe
00000080: ceef e83d d729 6dbe 3bac a5bd 3efd abbd
00000090: 78b5 043e 4fc2 c43e 5aa5 94be dc35 913e
000000a0: 4a82 bfbe f538 3abe 50ef 82bd cecf a93c
000000b0: 28e6 773d 6b7f a43d 434d 36bc dec5 f7bc
000000c0: 5856 893c bf0c fcbd 924a 8bbd 9889 653d
000000d0: a046 92bd 3e99 eebb 03e0 42be 128f f53d
000000e0: 658b 57bd 8225 103e f9b0 0d3e 3dd0 6cbe
000000f0: 4583 523d c20c c63d 1e6d dbbe 8c90 813e
00000100: d78c 053e 07e2 0fbc 79be 4d3d 6ce5 4abd
00000110: 0731 0f3d b7af fbba a18c 023e 5d9c fd3d
00000120: 91d7 79bd 27b7 133c 4b00 5d3d e0dd 8b3e
00000130: b147 293e 0b9b 983e c930 f83d 624a e73d
00000140: 0184 79be 0b43 e33d aa83 6ebe 7a15 163e
00000150: f270 773d 6bfe c73e 0848 bf3d c206 fd3d
00000160: af1c ae3e 9f5e 20be 8e21 a6bd e3ce d7bc
00000170: 251b f0bc c34b 78be 7192 31be 2ac7 313e
00000180: 48d6 cc3c 0911 c7bb a303 76bd 276e b9bc
00000190: 0729 40be d203 f6bd 998b 0dbe c4e0 d1bd
000001a0: 6a1b e4bd 9b0c 3e3e 1018 80bc 1f9f 9c3d
000001b0: b9b0 e43c 24d0 a43c c989 0ebd 582b 5cbd
000001c0: 37f0 01be bc1d 813d 6815 263e 231d d9bd
000001d0: df43 66be 4325 f2bd 8017 21be 9de8 eabd
000001e0: 8fcf 1fbd 2d80 96be 29d0 723e 00bb 743d
000001f0: c2cd b33d aa2e 4fbe 828a 30be 6746 14be
00000200: 5f78 0dbe d907 b0be d026 633e e35d 2abe
00000210: d826 7c3e ef0c 0a3d 2579 49be 0148 e6bd
00000220: 0f6c a9be 9e65 15be a49d 5b3c e9af 20be
00000230: 16d0 463d 7638 383e d3a2 563e ff0d 54be
00000240: 3943 cf3d bd8e a03d 3a40 1cbd 5987 e53d
00000250: bd5a 64be e854 f93c 4a75 12bd 63b4 5b3e
00000260: 9283 5cbe 138c 72be c05a 573e babd 853e
00000270: 845f 103e 77f9 3fbe 6ca6 c83d 6918 8a3e
00000280: 79ba 31be 72a8 83bc 30eb 38bd 7be3 ea3d
00000290: 723e f03c 2618 a73e c603 91bd 57f2 52be
000002a0: 0ad4 9b3e c00c 053d ac55 40be 874e 5e3e
000002b0: 6f30 0c3d e02e 643e 76a4 0d3e 2d27 653e
000002c0: 1843 0a3d 7ee3 7ebd 54ad a8bd 65a0 f1bd
000002d0: 8c8b c33d b851 413e 2469 32bc 6999 b33b
000002e0: 37f5 cc3d 536b 40be a0a5 903d a41a e1bd
000002f0: b768 883e 2737 12bd c533 51be cbf8 4d3e
00000300: f045 e33d 0da5 933d 63d0 52be 6e10 0cbe
00000310: df58 98bd bebc 28be 8e91 28be ac30 10bd
00000320: 9d71 75be d083 cdbb 8cce 60be 3a65 283d
00000330: ed6d cabd 258e 59be 9eaa a8bd 2e31 063c
00000340: cfc8 f1bd 4e91 a5bc 4c02 183e 1ebd 013e
00000350: 58a8 40bc a54e 4e3e 6eea 9d3d 7e90 dc3d
00000360: 5460 07be 5e7d bd3e 6866 cd3c 0555 febd
00000370: a19f 953e 972e eebd c6bd f23d ea75 543e
00000380: f861 1cbe a458 b83d 04e3 b63d cf75 263e
00000390: b2e7 7a3c 1f59 bc3d 166f 6d3c 4bd8 0fbe
000003a0: 6de4 243e 579c 21bc cea3 80be 462b edbd
000003b0: a094 28bd ea22 5fbe de8c 82be 676c b7bd
000003c0: 9986 08be ec6b 623d 94e7 153e ae22 1ebe
000003d0: aaa4 8f3e aca8 5abe fb96 8bbe 9f99 30bd
000003e0: ef85 303e ad2b f2bd 2d61 b93e 9cff dabd
000003f0: 75e5 5abd 1177 c9bd 336f 4b3e d144 523d
-0.0764089 0.14847785 -0.025071554 0.1733563 -0.018985528 -0.1149231 -0.25866085 0.17858258
-0.08914151 0.05092107 -0.34234378 0.012787325 0.066218674 0.20171918 -0.11466274 0.28686184
-0.3859713 0.09716835 -0.06822356 -0.19412872 0.15690133 0.028049024 -0.04916445 -0.078813314
-0.116643704 -0.06462316 0.3418051 0.0930313 -0.13302349 0.0010454443 -0.03654872 -0.20075221
0.11373864 -0.23160492 -0.08089491 -0.083979115 0.1295985 0.38429496 -0.29032403 0.28361404
-0.3740409 -0.1818579 -0.063933015 0.020728972 0.06052223 0.080321155 -0.011126819 -0.030245718
0.016764805 -0.123071186 -0.068013325 0.056039423 -0.07142377 -0.0072814515 -0.19030766 0.11990179
-0.05262317 0.14076808 0.13837041 -0.23126312 0.05139472 0.09670402 -0.42856687 0.25305593
0.13042007 -0.008781916 0.050230477 -0.0495352 0.034958865 -0.0019202147 0.12748958 0.123833396
-0.060996596 0.009015835 0.053955358 0.27317715 0.16531254 0.29805788 0.1211868 0.11293484
-0.24366762 0.11096772 -0.23292413 0.1465663 0.060410447 0.39061293 0.09339911 0.123548046
0.3400626 -0.15661095 -0.08111869 -0.026343768 -0.029309819 -0.24247651 -0.17341019 0.17361131
0.025004521 -0.006075029 -0.060062062 -0.022635533 -0.1876565 -0.120124474 -0.13822784 -0.10247949
-0.11138041 0.18559496 -0.015636474 0.076475374 0.0279163 0.02011878 -0.03479937 -0.053752273
-0.12689291 0.063044995 0.16219103 -0.106012605 -0.22486828 -0.11823513 -0.15731621 -0.11470149
-0.039016303 -0.29394665 0.2371222 0.05974865 0.087794796 -0.20232645 -0.17240337 -0.14479981
-0.13815449 -0.34380987 0.22182775 -0.16637377 0.24624193 0.03370374 -0.19675119 -0.112442024
-0.33090255 -0.14589545 0.013404284 -0.15692104 0.04853829 0.17990288 0.2096055 -0.20708464
0.101202436 0.07839725 -0.03814719 0.11207456 -0.22300239 0.030435994 -0.035756387 0.21455531
-0.21534565 -0.23686247 0.21030712 0.26121312 0.14098936 -0.18747507 0.097973675 0.26971748
-0.1735629 -0.016071532 -0.045146167 0.1146917 0.029326651 0.3263561 -0.07080798 -0.20600258
0.3043521 0.032482862 -0.18782681 0.21709643 0.034225877 0.22283506 0.13832268 0.22378226
0.03375539 -0.062228672 -0.08236185 -0.11798171 0.09548101 0.1887883 -0.010889325 0.0054809344
0.100077085 -0.18790941 0.070628405 -0.109914094 0.2664239 -0.03569713 -0.20429905 0.20114438
0.11097324 0.07209215 -0.20587306 -0.13678142 -0.07438826 -0.1647825 -0.16461775 -0.035202667
-0.23969121 -0.006271817 -0.21953791 0.041112162 -0.09884248 -0.2124563 -0.08235668 0.008190436
-0.11805879 -0.020210888 0.14844626 0.12669799 -0.011758886 0.20147188 0.077107295 0.10769747
-0.1322034 0.3700971 0.025073245 -0.1241856 0.2922335 -0.1162998 0.11852603 0.20748106
-0.15271747 0.09001282 0.089300185 0.16255878 0.0153140295 0.09196686 0.014491817 -0.14047353
0.16102763 -0.0098639345 -0.25124973 -0.115805194 -0.041157365 -0.21790662 -0.25498098 -0.08956223
-0.13332595 0.055278704 0.14639121 -0.15442917 0.28055316 -0.21353406 -0.27263626 -0.043115254
0.17238592 -0.11824737 0.36206952 -0.10693285 -0.053441484 -0.09837163 0.19866638 0.05133516

base.6linear.bias f4 [50]
00000000: e641 a2bd e51b 4d3c 5b14 603d 2e09 a43d
00000010: 4e51 7abd 51dd 043e c43c a7bd ff0e cc3c
00000020: 5678 b5bd 6c12 db3c d781 c63c 7b90 7cbc
00000030: 80c9 a73b 61ca 7abd 71ea c73d 3032 de3c
00000040: 209a 373d 32f7 823d a701 87ba 705b cdba
00000050: e2de 1cbe 0bf5 273d 07f6 59bd b779 933b
00000060: a953 933c 2832 09be 5994 993d 1ef3 babd
00000070: a2a6 8f3b 6208 20bc cd1f 973c 960a 2a3c
00000080: d7f1 a9bc d2e2 9d3d 2925 6a3d 13fe ed3c
00000090: aed1 c43d 77b2 f0bd 4437 90bd aa95 69bd
000000a0: 3004 813c 7aac 6fbc 1921 59bd 70e3 4739
000000b0: 4e03 a9bd 4f51 35be b1f9 81bb bbc9 4cbd
000000c0: 1dd8 64bd 49d4 fabc
-0.079227254 0.012518858 0.054706912 0.080095634 -0.061112694 0.1297505 -0.08165887 0.024909494
-0.08860843 0.026742183 0.024231834 -0.015415306 0.005120456 -0.06122816 0.09761513 0.02712354
0.04482472 0.06394805 -0.0010300175 -0.0015667509 -0.15319398 0.041005176 -0.053213146 0.0045005935
0.017984228 -0.1339804 0.07498998 -0.09128402 0.004383878 -0.009767624 0.018447781 0.0103785
-0.020745201 0.07709278 0.057164345 0.029051816 0.09610306 -0.117527895 -0.07041791 -0.057027496
0.015749067 -0.014628524 -0.05301008 0.00019062846 -0.082525834 -0.17706798 -0.003966533 -0.049997073
-0.055870164 -0.030618804
