STPINN-RANS/sub_data/sub_write/17NS_model_train.pt (torch, 100283 bytes, 22 tensors)

base.0linear.weight f4 [50, 3]
0.4056918 -0.16074759 -0.26184177 0.14595045 -0.13431494 -0.27632555 -0.22190696 0.16914515
0.028699465 -0.068414785 -0.14163074 0.3058698 0.09891966 0.22045171 0.0021142347 -0.17020704
-0.35145178 -0.17819604 -0.15233369 -0.008725807 0.17139404 0.00088254706 -0.0008148769 0.0013783227
0.0063273837 0.009781751 0.0052886456 0.051659245 0.20674658 -0.011745055 -0.107987285 -0.15716943
0.1111078 -0.13489975 0.088612035 0.22850128 0.042733006 0.10917408 -0.19922607 0.107749514
0.011473354 0.1434654 -0.19259635 0.27531242 -0.11392481 -0.018899381 0.026490405 -0.1829305
-0.0031836943 -0.000451116 -0.0008083535 0.40525892 0.055110186 0.20926234 -0.32057405 -0.25781915
0.12036799 -0.22417392 0.04529786 0.53683776 -0.008520164 -0.12091202 -0.08631771 -0.14193524
-0.13139048 0.37995884 -0.090005785 -0.39663962 0.3862388 -0.094750606 0.04745862 0.156759
-0.06237332 0.22774383 -0.034005888 -0.019197231 -0.06631414 0.04303193 0.21069771 -0.25771785
-0.28838882 -0.013870664 0.04673134 -0.019491842 0.2981818 -0.1743082 -0.23710097 -0.09225394
-0.08523218 -0.06855918 -0.15825422 -0.1420157 0.30904403 -0.05178899 -0.026666785 -0.30053025
0.082587436 -0.20781763 0.14101854 -0.009895414 -0.14621316 0.098375775 -0.30905125 0.12795873
0.48975638 -0.07566025 0.1761623 -0.12658519 -0.002020106 -0.0003801243 -0.00032540955 -0.16219266
-0.033898216 0.33504096 -0.00042489308 0.0006582358 0.0013904944 0.0026103281 -0.0012032139 0.0025332673
0.25227016 0.0044596638 -0.314769 0.0017077383 0.0003411511 0.0018940872 0.0027957342 0.25199562
0.21829952 0.0036720566 0.033298675 0.00236176 0.058656365 -0.07439748 -0.2129479 -0.057757385
-0.27111152 0.1843904 -0.16445646 -0.10896953 0.39860433 0.038008545 0.10429359 0.049839932
-0.035535447 -0.2997807 0.22271116 -0.12628125 0.091638 -0.20970905
00000000: d6b6 cf3e 049b 24be 2010 86be 0974 153e
00000010: db89 09be 8b7a 8dbe 943b 63be 6334 2d3e
00000020: 241b eb3c 0d1d 8cbd a607 11be f79a 9c3e
00000030: 6496 ca3d 18be 613e f98e 0a3b c14a 2ebe
00000040: 7df1 b3be 0679 36be 5dfd 1bbe b0f6 0ebc
00000050: eb81 2f3e bb5a 673a 779d 55ba d6a8 b43a
00000060: f155 cf3b a343 203c 604c ad3b a598 533d
00000070: 60b5 533e 556e 40bc 7028 ddbd 06f1 20be
00000080: 7c8c e33d 2923 0abe 3a7a b53d 3dfc 693e
00000090: ce08 2f3d a996 df3d eb01 4cbe c7ab dc3d
000000a0: bcfa 3b3c 98e8 123e fa37 45be c0f5 8c3e
000000b0: 6951 e9bd e0d2 9abc 6802 d93c 2252 3bbe
000000c0: 87a5 50bb c483 ecb9 afe7 53ba 197e cf3e
000000d0: 38bb 613d de48 563e 4822 a4be df00 84be
000000e0: 7e83 f63d d98d 65be 408a 393d 336e 093f
000000f0: 2898 0bbc b9a0 f7bd 57c7 b0bd 7957 11be
00000100: 3a8b 06be f789 c23e f454 b8bd 5914 cbbe
00000110: 18c1 c53e 9b0c c2bd f863 423d 6e85 203e
00000120: 2b7b 7fbd ae35 693e c249 0bbd 8343 9dbc
00000130: b5cf 87bd 4042 303d 24c1 573e 98f3 83be
00000140: b3a7 93be c841 63bc 5d69 3f3d 5bad 9fbc
00000150: 49ab 983e d97d 32be 99ca 72be a2ef bcbd
00000160: 368e aebd c168 8cbd 650d 22be 906c 11be
00000170: 053b 9e3e b120 54bd 4d74 dabc 1adf 99be
00000180: 9a23 a93d 25ce 54be 2a67 103e 6020 22bc
00000190: e7b8 15be 3d79 c93d f73b 9ebe 9d07 033e
000001a0: 59c1 fa3e c3f3 9abd e463 343e 8c9f 01be
000001b0: c163 04bb 6b4b c7b9 bb9b aab9 d515 26be
000001c0: dbd8 0abd 7d8a ab3e 2fc4 deb9 758d 2c3a
000001d0: 4041 b63a 0a12 2b3b 29b5 9dba 2c05 263b
000001e0: 8e29 813e 5f22 923b 6729 a1be 30d6 df3a
000001f0: 87dc b239 0543 f83a a338 373b 9205 813e
00000200: e989 5f3e e3a6 703b 3164 083d c2c7 1a3b
00000210: a841 703d b55d 98bd 040f 5abe 0293 6cbd
00000220: 21cf 8abe d6d0 3c3e 4667 28be 6b2b dfbd
00000230: de15 cc3e d9ae 1b3d e197 d53d f524 4c3d
00000240: 9e8d 11bd db7c 99be 650e 643e df4f 01be
00000250: b4ac bb3d f8bd 56be

base.0linear.bias f4 [50]
0.051919084 0.12007488 0.04146851 -0.08975328 -0.23318319 0.015928136 -0.024234539 -0.00041022364
-0.016932102 -0.1866322 0.07638958 -0.075987235 -0.04830137 -0.04589335 -0.105863325 0.07136851
0.00036829343 0.057022877 -0.03570009 -0.090035185 0.15722391 -0.12738396 0.19520457 -0.117350854
-0.15766978 0.048633866 0.15618788 -0.028430445 0.080551066 0.15472737 -0.047267642 0.16937454
0.07847015 0.098221205 -0.013324996 -0.047919206 0.00035644928 -0.07906862 7.288307e-05 -0.0008040492
-0.0167261 -0.0007175762 -0.06460472 -0.03665947 0.103215724 0.15160376 0.032100882 -0.1402928
0.10694347 0.122739345
00000000: 1ba9 543d d2e9 f53d e2da 293d 91d0 b7bd
00000010: 93c7 6ebe b97b 823c 8387 c6bc 4913 d7b9
00000020: 31b5 8abc 831c 3fbe 2472 9c3d 329f 9bbd
00000030: a8d7 45bd aafa 3bbd dfce d8bd a729 923d
00000040: 8217 c139 d290 693d 423a 12bd 5e64 b8bd
00000050: 4eff 203e f170 02be b5e3 473e a555 f0bd
00000060: 3074 21be 4e34 473d b7ef 1f3e f7e6 e8bc
00000070: f5f7 a43d da70 1e3e b79b 41bd 8570 2d3e
00000080: f5b4 a03d 3328 c93d 1651 5abc ee46 44bd
00000090: d0e1 ba39 bbee a1bd cdd8 9838 d4c6 52ba
000000a0: 2d05 89bc b91b 3cba 7b4f 84bd 3e28 16bd
000000b0: c462 d33d 043e 1b3e 377c 033d eaa8 0fbe
000000c0: 2e05 db3d c45e fb3d

base.1linear.weight f4 [50, 50]
0.09425812 -0.10904001 0.28341156 -0.106094025 -0.28449032 0.25572318 0.09079697 0.03675237
-0.059298083 -0.49676883 0.14843161 0.049631245 0.09506435 -0.102958575 -0.012719265 0.114420526
0.11970753 0.11835854 0.23714602 -0.046470243 0.21785982 0.014827636 0.14430398 -0.15852875
-0.044427037 -0.052729424 0.33236688 -0.0048707477 -0.13665842 0.39571252 0.16414918 -0.0018829011
-0.0799032 0.046468664 0.021905271 -0.03164623 0.085430615 -0.09196895 -0.034135297 -0.0020677436
-0.22054754 -0.0346379 -0.115852095 -0.17113078 -0.014851544 0.41013053 -0.15994439 -0.5444447
0.2633482 0.0391915 -0.2213457 -0.30512834 0.13176319 0.09594324 -0.4952372 0.11953728
-0.021109007 -0.023552254 0.16668935 -0.13807566 -0.06290558 0.11561335 -0.19418666 -0.0987371
-0.053015903 -0.14663494 0.023905665 0.22208612 -0.24657655 0.29289117 -0.01231942 0.049051393
0.19473386 -0.011527418 0.107701264 0.09016023 0.16654816 -0.0007844708 -0.14039417 -0.104680665
-0.03187645 0.030389458 0.1769696 0.14776947 0.17425975 -0.093957044 0.11237645 -0.028179104
0.03743753 -0.17993136 -0.35433388 -0.21314853 0.2328998 -0.053633522 -0.09436017 0.14487712
0.27985555 -0.303229 0.18563826 -0.15150431 -0.0044831494 -0.02790927 -0.24546595 -0.21450335
0.048755314 -0.030835576 0.019465374 0.14802006 0.10739938 0.10140592 0.19823265 0.20024602
0.15228371 -0.03169969 -0.04208245 0.022560043 0.08990379 -0.18719812 -0.18299782 0.21211822
0.20810139 -0.077955425 -0.09238652 0.099702805 0.2017464 0.005595573 0.19316602 -0.0007090572
0.05479141 -0.1841286 0.07763887 0.025681011 0.17476134 -0.35412744 -0.033649597 -0.06003151
-0.13913672 -0.12534294 -0.16135174 0.52020156 -0.16214783 -0.1151932 -0.016509322 0.0138655715
0.077470265 0.02135204 0.26536146 -0.11056668 0.06224435 -0.04005228 0.025704227 -0.112994745
-0.19888978 0.11931993 0.2859989 -0.18723895 -0.19700827 0.08542627 0.18138647 0.41320693
-0.19041696 0.28533915 0.033466596 0.15831879 0.17441186 -0.10115476 0.09035723 -0.10672788
0.06229682 0.34657475 -0.12774901 -0.1775702 -0.012468864 0.06038411 -0.02167236 -0.043902047
-0.08705775 -0.13899775 0.25386027 -0.06059265 -0.04701312 -0.017349117 0.13905488 -0.23008697
-0.26021358 0.07126569 -0.021068754 -0.28766403 -0.170991 0.021552818 0.24011251 0.025257183
0.16395845 0.18306504 -0.016761092 -0.27175254 -0.2841921 0.2579828 -0.010959859 -0.17891498
-0.20975426 -0.04121496 0.020494442 0.04029177 0.01053613 -0.00856073 -0.066988 0.052862033
-0.107067145 -0.012379041 0.05404174 0.19988173 -0.15444747 -0.033489063 0.07016543 0.102184154
-0.13513592 0.0089023365 0.093419924 0.06574352 0.1088575 0.14441319 0.330187 0.07279505
-0.18854612 -0.038514234 -0.052200515 0.13757561 0.16920346 0.34471264 -0.06518393 0.059642013
-0.13147333 0.01125545 -0.13686396 -0.23389812 -0.073562205 0.19873475 -0.09715817 0.027325207
0.0034130227 -0.013535441 -0.1753828 0.059263278 0.096439295 0.18782875 0.03446389 -0.15543655
0.08005891 -0.016328314 0.13302675 0.075425334 -0.08454771 -0.07638029 -0.04463445 0.090805225
00000000: 670a c13d 5e50 dfbd 521b 913e d347 d9bd
00000010: b7a8 91be 26ee 823e c3f3 b93d a789 163d
00000020: 8ce2 72bd 7c58 febe 75fe 173e 224a 4b3d
00000030: 19b1 c23d f2db d2bd 7764 50bc 4f55 ea3d
00000040: 3929 f53d f665 f23d 68d6 723e 9557 3ebd
00000050: a516 5f3e 9def 723c 6cc4 133e 5c55 22be
00000060: 20f9 35bd cffa 57bd fe2b aa3e cb9a 9fbb
00000070: 2ff0 0bbe d59a ca3e b916 283e adcb f6ba
00000080: 4aa4 a3bd ed55 3e3d af72 b33c 7a9f 01bd
00000090: 3ff6 ae3d 385a bcbd 74d1 0bbd fb82 07bb
000000a0: 37d7 61be 78e0 0dbd dd43 edbd e83c 2fbe
000000b0: e453 73bc a1fc d13e 76c8 23be ba60 0bbf
000000c0: 93d5 863e 4487 203d 72a8 62be c839 9cbe
000000d0: eeec 063e e47d c43d bb8f fdbe f6cf f43d
000000e0: ccec acbc a8f0 c0bc 9db0 2a3e b563 0dbe
000000f0: a4d4 80bd b1c6 ec3d ded8 46be ad36 cabd
00000100: 3427 59bd 7827 16be d0d5 c33c 8b6a 633e
00000110: 907e 7cbe d5f5 953e 65d7 49bc 1dea 483d
00000120: 5068 473e 7fdd 3cbc 7b92 dc3d eda5 b83d
00000130: 9a8b 2a3e f2a4 4dba 7dc3 0fbe d162 d6bd
00000140: e190 02bd 50f3 f83c 8537 353e e150 173e
00000150: 2671 323e 8d6c c0bd a025 e63d ddd7 e6bc
00000160: 1858 193d ed3f 38be 406b b5be 9c43 5abe
00000170: 497d 6e3e d3ae 5bbd e83f c1bd ab5a 143e
00000180: 3a49 8f3e d540 9bbe f517 3e3e f223 1bbe
00000190: 62e7 92bb fba1 e4bc 6d5b 7bbe c4a6 5bbe
000001a0: a7b3 473d e49a fcbc d975 9f3c 9292 173e
000001b0: 35f4 db3d e8ad cf3d 80fd 4a3e 4b0d 4d3e
000001c0: 43f0 1b3e 89d7 01bd a65e 2cbd d7cf b83c
000001d0: 7a1f b83d ddb0 3fbe c863 3bbe 8535 593e
000001e0: 8818 553e 18a7 9fbd 2535 bdbd fc30 cc3d
000001f0: 9c96 4e3e 125b b73b 50cd 453e 06e0 39ba
00000200: f56c 603d 358c 3cbe 2101 9f3d fc60 d23c
00000210: a3f4 323e 3150 b5be 29d4 09bd 9ae3 75bd
00000220: db79 0ebe e659 00be 6439 25be ee2b 053f
00000230: 150a 26be 6aea ebbd 8f3e 87bc 6c2c 633c
00000240: bba8 9e3d 79ea ae3c 75dd 873e c970 e2bd
00000250: eef3 7e3d dc0d 24bd ac91 d23c ca69 e7bd
00000260: c3a9 4bbe 025e f43d 736e 923e 91bb 3fbe
00000270: 89bc 49be f8f3 ae3d 60bd 393e dc8f d33e
00000280: aafc 42be f917 923e 4514 093d 521e 223e
00000290: 0699 323e 3a2a cfbd 360d b93d 2694 dabd
000002a0: f32a 7f3d 3f72 b13e a3d0 02be f6d4 35be
000002b0: 354a 4cbc 5455 773d 3c8a b1bc a2d2 33bd
000002c0: 554b b2bd 6d55 0ebe f9f9 813e 0030 78bd
000002d0: d490 40bd bc1f 8ebc 6764 0e3e eb9b 6bbe
000002e0: b73a 85be bff3 913d 6198 acbc b348 93be
000002f0: 4418 2fbe 898f b03c 0ee0 753e 27e8 ce3c
00000300: b9e4 273e 6775 3b3e 8f4e 89bc 2623 8bbe
00000310: a081 91be 5216 843e fb90 33bc 7d35 37be
00000320: d2c9 56be 05d1 28bd f6e3 a73c fc08 253d
00000330: bb9f 2c3c 4e42 0cbc 0131 89bd dc85 583d
00000340: 0546 dbbd 76d1 4abc df5a 5d3d ccad 4c3e
00000350: 7a27 1ebe d42b 09bd e5b2 8f3d ed45 d13d
00000360: 1261 0abe 1bdb 113c f252 bf3d 8aa4 863d
00000370: aef0 de3d 0de1 133e 450e a93e 9215 953d
00000380: 3c12 41be 1ac1 1dbd 35d0 55bd 9fe0 0c3e
00000390: ac43 2d3e 2d7e b03e 277f 85bd 2f4b 743d
000003a0: f2a0 06be c768 383c 1126 0cbe fd82 6fbe
000003b0: c8a7 96bd 1f81 4b3e ddfa c6bd 1dd9 df3c
000003c0: 05ad 5f3b c1c3 5dbc 8c97 33be 0dbe 723d
000003d0: f781 c53d 2e56 403e 022a 0d3d c22a 1fbe
000003e0: edf5 a33d f5c2 85bc 2a38 083e 9978 9a3d
000003f0: 5a27 adbd 456d 9cbd 9dd2 36bd 17f8 b93d

base.1linear.bias f4 [50]
0.20192398 0.11441201 0.010623865 -0.15422873 0.079976 0.0972828 0.09435193 0.0053185034
-0.09649947 0.137544 -0.053950433 -0.08930704 0.040879596 -0.06937338 0.109119736 0.06552961
0.07604159 -0.05642914 -0.028426109 -0.02678802 0.022871189 -0.021384666 -0.026568322 -0.030866649
0.057637677 -0.111040145 0.037155416 -0.030033065 -0.036027767 -0.10751204 -0.059757218 0.12538548
-0.10462536 -0.053302124 -0.102457196 -0.016512807 -0.07544436 0.040255878 -0.0070644636 0.0065803514
0.0661979 0.08544977 0.010569654 0.12542483 0.01695034 -0.1198596 -0.000251391 -0.074814536
0.101634115 0.05458437
00000000: 29c5 4e3e d850 ea3d b80f 2e3c 23ee 1dbe
00000010: 75ca a33d 343c c73d 963b c13d d746 ae3b
00000020: 84a1 c5bd 56d8 0c3e 21fb 5cbd 9ce6 b6bd
00000030: 5d71 273d a113 8ebd 2b7a df3d 6334 863d
00000040: b1bb 9b3d 3e22 67bd dfdd e8bc 8d72 dbbc
00000050: 5c5c bb3c e52e afbc cfa5 d9bc 0edc fcbc
00000060: 7c15 6c3d 0469 e3bd 4730 183d e707 f6bc
00000070: da91 13bd 462f dcbd fcc3 74bd 0d65 003e
00000080: d245 d6bd 5453 5abd 14d5 d1bd de45 87bc
00000090: 9382 9abd 59e3 243d 047d e7bb fd9f d73b
000000a0: c492 873d 4a00 af3d 582c 2d3c 5e6f 003e
000000b0: 70db 8a3c f378 f5bd 21cd 83b9 5d38 99bd
000000c0: 8c25 d03d dc93 5f3d

base.2linear.weight f4 [50, 50]
0.09048149 0.6245124 -0.046699286 -0.21755242 0.13324144 0.00030268318 0.26351896 0.036488928
0.29909307 -0.11967808 0.13547376 0.023672627 0.011503818 0.17403445 -0.11294722 -0.10967179
0.028570134 -0.011450894 -0.11128101 -0.13245983 -0.07796006 0.014391663 -0.06194645 -0.027885048
-0.0989623 0.13288295 -0.1503466 -0.119268045 -0.1379819 0.15218577 -0.07905864 -0.040339988
-0.02478392 0.062315173 -0.1761584 -0.5042521 0.034064386 -0.041733176 0.12909655 0.0069762706
0.41132239 0.17126104 0.16507638 0.32460615 0.09601543 -0.0934056 -0.049018573 -0.09482132
0.5452756 0.041370057 0.1304362 -0.22027753 -0.0663882 -0.26296332 -0.03348622 -0.014075417
-0.107416816 -0.088715024 0.050270643 -0.0818704 0.23840317 0.14243945 0.097537786 0.005128189
0.10382698 -0.024837917 -0.035826966 0.028090544 0.04153939 0.055835966 -0.09881015 0.05196959
-0.0766404 -0.012179751 -0.00060655555 -0.05472327 -0.020274527 -0.041211765 -0.29339078 -0.11033114
-0.11877378 -0.008985387 -0.24840644 -0.16410366 -0.1511099 -0.30347472 -0.17165673 -0.097139984
0.0064711003 -0.12725328 -0.28356245 -0.23258954 -0.18512829 0.17561209 0.05268858 0.071843036
0.08386044 0.055803023 -0.024549946 -0.03956856 -0.04451261 -0.2464638 0.035369378 0.12983958
0.010806418 0.10877067 -0.20749511 0.1316038 0.30132148 0.29668587 0.07786082 -0.0362586
-0.0047718235 0.2422282 0.21463832 0.057497364 -0.13469145 -0.025742069 0.19751993 0.12005812
0.1267224 0.16383883 0.11872096 0.02984306 -0.011880022 0.1395465 0.10723323 -0.11430921
-0.10504867 0.1199749 -0.11065413 -0.323099 -0.14316104 -0.06481944 0.20366865 0.24923377
-0.005779889 -0.16479708 -0.17000492 -0.024550244 -0.07026295 -0.06805777 0.11713556 -0.26293844
-0.012508518 -0.15534215 0.08183122 -0.30942708 -0.15485165 0.3804723 -0.27160645 0.1968706
0.008703559 0.31519398 -0.29401886 0.33242995 0.1687798 -0.035021227 0.028170496 0.03427083
0.2139376 -0.014102543 0.06392873 -0.15103938 -0.095480785 -0.048853695 -0.027360579 -0.0036519964
-0.064700246 -0.054953504 0.20362733 -0.062654056 0.026850658 0.12816162 0.008211231 0.07668791
-0.27494195 -0.14584199 -0.30714977 0.1455993 0.060422197 -0.17758645 -0.06317998 -0.069597706
0.22902115 -0.19900267 0.10574629 0.032839708 0.2662418 0.004035089 0.00056814984 0.19550845
0.29464507 -0.16325146 -0.01145575 -0.05532267 -0.008569258 0.19260673 0.09465677 -0.12961957
0.026302017 -0.072443984 0.11725532 -0.102956586 0.08390714 0.28112426 0.25707617 0.12449498
-0.25344294 0.12775798 0.010288351 -0.08016804 0.023211414 -0.3728826 0.17445597 -0.05474043
0.036854573 0.022366663 -0.014930047 -0.22961558 -0.028335683 0.135257 0.27769366 -0.13192128
0.064177506 -0.12916893 -0.15378517 -0.063296236 -0.14432278 -0.27954936 0.29626653 0.18709448
-0.21228407 -0.27380133 -0.10995984 0.081733495 -0.2891099 0.37813076 0.057358768 0.018308405
0.20809968 0.19531028 0.26120952 -0.1290299 0.013521047 -0.46308705 -0.07543685 -0.17193475
0.018977627 0.3439579 0.00022390402 0.11363036 0.10065634 -0.017640855 -0.14327142 0.13063852
00000000: 5c4e b93d 0be0 1f3f c047 3fbd 10c6 5ebe
00000010: 7270 083e 73b1 9e39 f5eb 863e 6a75 153d
00000020: ba22 993e c819 f5bd a2b9 0a3e 19ed c13c
00000030: 837a 3c3c 1636 323e df50 e7bd 9a9b e0bd
00000040: ea0b ea3c 889c 3bbc 4ce7 e3bd 8da3 07be
00000050: 86a9 9fbd 02cb 6b3c 90bb 7dbd 2f6f e4bc
00000060: bfac cabd 7812 083e 76f4 19be ce42 f4bd
00000070: 214b 0dbe 96d6 1b3e 7fe9 a1bd 8b3b 25bd
00000080: a607 cbbc 323e 7f3d de62 34be aa16 01bf
00000090: 1987 0b3d 68f0 2abd e331 043e 3399 e43b
000000a0: d998 d23e 0e5f 2f3e c809 293e c732 a63e
000000b0: bda3 c43d 6f4b bfbd b3c7 48bd ae31 c2bd
000000c0: 2f97 0b3f a673 293d 1191 053e 6f90 61be
000000d0: 89f6 87bd 21a3 86be d928 09bd 949c 66bc
000000e0: 59fd dbbd 39b0 b5bd 97e8 4d3d abab a7bd
000000f0: f61f 743e a6db 113e e4c1 c73d 5e0a a83b
00000100: 3da3 d43d e378 cbbc 4cbf 12bd 241e e63c
00000110: 3525 2a3d 41b4 643d fa5c cabd 11de 543d
00000120: a4f5 9cbd 948d 47bc 4101 1fba 8225 60bd
00000130: c416 a6bc abcd 28bd 5137 96be 4bf5 e1bd
00000140: ab3f f3bd 7237 13bc 425e 7ebe ca0a 28be
00000150: 8ebc 1abe 0a61 9bbe c8c6 2fbe 54f1 c6bd
00000160: 860b d43b af4e 02be 192f 91be f42b 6ebe
00000170: 4592 3dbe a8d3 333e fbcf 573d 7122 933d
00000180: 06bf ab3d b691 643d f81c c9bc a412 22bd
00000190: db52 36bd 0261 7cbe 7bdf 103d abf4 043e
000001a0: 670d 313c 28c3 de3d 9979 54be 26c3 063e
000001b0: cf46 9a3e 36e7 973e 7e75 9f3d e683 14bd
000001c0: f55c 9cbb ab0a 783e 26ca 5b3e 5b82 6b3d
000001d0: 8eec 09be 08e1 d2bc aa42 4a3e 08e1 f53d
000001e0: 84c3 013e 5ec5 273e fa23 f33d 6f79 f43c
000001f0: 6ca4 42bc 47e5 0e3e 189d db3d f21a eabd
00000200: c223 d7bd 66b5 f53d a29e e2bd 3b6d a5be
00000210: cf98 12be 0ec0 84bd 848e 503e 2337 7f3e
00000220: 3965 bdbb 91c0 28be c515 2ebe 981d c9bc
00000230: 06e6 8fbd df61 8bbd c5e4 ef3d de9f 86be
00000240: 87f0 4cbc 0312 1fbe 2097 a73d 3a6d 9ebe
00000250: 6e91 1ebe 44cd c23e 0010 8bbe 7298 493e
00000260: 5f99 0e3c 1b61 a13e a489 96be 4234 aa3e
00000270: 9dd4 2c3e 6b72 0fbd d0c5 e63c 925f 0c3d
00000280: 7512 5b3e 5a0e 67bc 11ed 823d 11aa 1abe
00000290: 6e8b c3bd d01a 48bd 4b23 e0bc 5556 6fbb
000002a0: 9081 84bd ed16 61bd af83 503e c550 80bd
000002b0: e9f5 db3c cd3c 033e 6688 063c 8d0e 9d3d
000002c0: 31c5 8cbe 9a57 15be bc42 9dbe fc17 153e
000002d0: 447d 773d 39d9 35be 8164 81bd 3e89 8ebd
000002e0: 8584 6a3e 5bc7 4bbe 8391 d83d ee82 063d
000002f0: d850 883e c838 843b e4ef 143a 5e33 483e
00000300: b8db 963e 642b 27be e6b0 3bbc 069a 62bd
00000310: 1366 0cbc b33a 453e 69db c13d feba 04be
00000320: 5477 d73c 835d 94bd 8f23 f03d e7da d2bd
00000330: 82d7 ab3d 85ef 8f3e 7d9f 833e 39f7 fe3d
00000340: 46c3 81be fdd2 023e 7990 283c 242f a4bd
00000350: dd25 be3c 78ea bebe 96a4 323e 8037 60bd
00000360: d2f4 163d 4b3a b73c 289d 74bc 5920 6bbe
00000370: 3c20 e8bc d080 0a3e dd2d 8e3e 5f16 07be
00000380: 7f6f 833d dc44 04be dc79 1dbe 75a1 81bd
00000390: 5ac9 13be 1821 8fbe 3fb0 973e b295 3f3e
000003a0: ff60 59be b02f 8cbe a032 e1bd e463 a73d
000003b0: 3606 94be 5b9a c13e 07f1 6a3d 82fb 953c
000003c0: 1518 553e 6bff 473e 41bd 853e 6a20 04be
000003d0: 6287 5d3c bf19 edbe a37e 9abd aa0f 30be
000003e0: f876 9b3c 401b b03e c7c7 6a39 09b7 e83d
000003f0: e924 ce3d 8e83 90bc beb5 12be 1bc6 053e

base.2linear.bias f4 [50]
0.12544088 0.014766129 0.030159809 0.07425966 0.1127716 -0.044634078 -0.018615564 0.13211814
-0.043179322 -0.087052755 0.05317441 -0.09397833 -0.07355766 -0.0172797 -0.047988303 -0.076749876
-0.02678059 -0.12417853 -0.059039135 -0.06092852 0.053763907 0.10442634 0.05744782 0.1036126
-0.14864275 -0.033843644 -0.021514468 0.16333091 0.030713327 -0.02326609 0.08005628 0.07227806
0.036145303 0.061837297 0.114054956 0.048555925 -0.05172046 -0.013429346 -0.042540178 0.076728225
-0.13420777 -0.019300407 0.041661106 -0.030066287 -0.019996526 -0.04530585 0.024287576 0.055661965
0.07437985 -0.06149351
00000000: 9373 003e a2ed 713c b411 f73c 7315 983d
00000010: ccf4 e63d 39d2 36bd ab7f 98bc fa49 073e
00000020: cddc 30bd b748 b2bd 69cd 593d b677 c0bd
00000030: 66a5 96bd 288e 8dbc 628f 44bd 0a2f 9dbd
00000040: f862 dbbc 5051 febd 05d3 71bd 2f90 79bd
00000050: 8b37 5c3d 7add d53d 684e 6b3d d832 d43d
00000060: ce35 18be a29f 0abd 1c3f b0bc 3840 273e
00000070: 849a fb3c 8798 bebc 8cf4 a33d 8506 943d
00000080: 190d 143d 1b49 7d3d a595 e93d 94e2 463d
00000090: d5d8 53bd c206 5cbc 9c3e 2ebd b023 9d3d
000000a0: c36d 09be e31b 9ebc d6a4 2a3d 934d f6bc
000000b0: c1cf a3bc a192 39bd bdf6 c63c cdfd 633d
000000c0: 7654 983d 9ee0 7bbd

base.3linear.weight f4 [50, 50]
0.12032304 0.07090061 -0.1391648 -0.0034692944 0.20242877 0.012059625 0.05695038 0.19853278
-0.024329973 0.18316062 -0.14680052 -0.28568584 0.19497485 0.07931021 -0.0657168 -0.25618836
-0.1668073 -0.38944784 -0.22450355 -0.17117895 -0.03542891 0.32128596 0.016377168 -0.10189076
-0.100028045 0.29906267 0.14568056 0.0667254 0.18396981 -0.12859681 0.25628516 -0.0006071539
-0.07788235 0.10063135 -0.18554899 -0.10869803 0.05772734 0.15801983 0.06889642 -0.054999813
-0.17405616 0.06110719 0.42876807 -0.2603852 -0.077677436 -0.085174896 0.04918026 0.001961441
0.17366566 -0.12715286 0.10029735 0.0772177 -0.19428429 -0.14276317 -0.25885823 0.006632469
-0.08024818 -0.09627813 -0.035359856 0.23925143 -0.013824322 -0.2845093 0.040470343 0.11603441
0.082458064 0.06513425 0.033704944 -0.28052452 0.12040679 -0.034640536 0.23207018 0.111746445
0.18521501 0.07588457 -0.08278962 0.016126525 0.08155647 0.09741198 0.09927642 -0.14008911
0.21178359 -0.12642744 0.17060557 -0.026935278 0.023902107 0.02402874 0.13131587 -0.017301347
0.07747014 -0.05370544 -0.19392116 -0.14820942 0.12945849 -0.043949865 -0.059869327 0.056571044
0.009869315 0.017861545 0.20321348 0.10870014 -0.07036139 0.13211472 0.15772824 0.23994447
-0.14571974 0.08109063 -0.053959746 0.043923073 -0.12244717 0.008199265 -0.010652571 0.13551204
0.15434398 -0.17144547 0.016276231 0.041282516 -0.034608155 0.24506395 -0.15113014 0.3238768
-0.23090589 -0.2543402 -0.017624851 -0.18871808 0.085586324 0.10132231 0.22993478 -0.017581012
0.024664167 -0.02496792 -0.19754672 0.14781839 -0.08630382 -0.16717581 -0.110471494 0.0952744
0.057256404 -0.07675558 -0.052224044 0.1373079 0.17047933 -0.09359604 -0.33818868 -0.09601329
0.026691334 -0.012597155 0.037455402 -0.09252726 -0.0027197055 0.0066007315 0.15807436 -0.21138284
-0.036606852 -0.07773181 -0.13065392 0.068558544 -0.020085743 -0.15330644 -0.27784848 0.13142511
-0.033632606 -0.12111724 -0.34908417 0.07207486 -0.21800226 -0.16988365 0.19886972 0.22199196
-0.06299993 -0.18549983 0.058540605 -0.0038411634 0.008873466 0.2285653 -0.02998117 -0.06917089
0.06807482 0.13909425 -0.23521776 -0.010684891 -0.21488291 0.13126178 0.09085866 -0.035232168
-0.23979938 -0.088550255 -0.13767491 0.06407275 0.11879647 0.07619512 -0.00920818 -0.070162326
0.071646824 0.03873368 0.022070741 0.08826439 0.09289969 -0.012897142 0.0010198948 0.20210318
0.05827546 -0.23872918 0.322132 0.012496023 0.015439877 -0.027711378 -0.014765064 0.14494246
-0.019811084 0.13897948 -0.0039239363 0.079582125 -0.15538794 -0.11421479 -0.019273436 0.09911592
-0.27219555 -0.076645814 0.15378125 -0.4760515 0.17130628 -0.36264056 0.112655304 0.3080695
-0.1963294 0.078933686 -0.16497266 -0.049988978 -0.13061959 -0.022390038 0.12337374 -0.2471191
0.06420614 -0.116783306 0.031425 0.083165765 0.1610129 0.12141023 0.1717434 0.19728167
0.22339164 -0.13861986 0.093159966 0.13510762 0.07432514 -0.0742411 0.045643248 -0.058446307
0.061927073 -0.22818011 0.27146032 0.07403341 0.003174296 0.03343182 0.13679244 -0.08774221
00000000: ed6b f63d 5734 913d 3881 0ebe 1a5d 63bb
00000010: 7d49 4f3e bc95 453c cd44 693d 2d4c 4b3e
00000020: a74f c7bc 758e 3b3e e052 16be 6a45 92be
00000030: 7da7 473e 646d a23d 8896 86bd 1f2b 83be
00000040: 88cf 2abe b565 c7be 42e4 65be 8949 2fbe
00000050: e81d 11bd 987f a43e 6929 863c 1aac d0bd
00000060: 81db ccbd be1e 993e 492d 153e 54a7 883d
00000070: 9562 3c3e e2ae 03be cf37 833e 6929 1fba
00000080: c880 9fbd cf17 ce3d 8e00 3ebe 139d debd
00000090: 8173 6c3d f3cf 213e 9119 8d3d 7c47 61bd
000000a0: c73b 32be 884b 7a3d 7d87 db3e 3551 85be
000000b0: 5915 9fbd 2d70 aebd 3e71 493d 858b 003b
000000c0: 69d5 313e 5c34 02be b268 cd3d 5024 9e3d
000000d0: 76f2 46be 8230 12be 1189 84be 2f55 d93b
000000e0: 2859 a4bd 782d c5bd 7fd5 10bd 54fe 743e
000000f0: 697f 62bc 34ab 91be 3bc4 253d 73a3 ed3d
00000100: c6df a83d 1b65 853d 320e 0a3d e9a0 8fbe
00000110: d697 f63d 3ce3 0dbd cea3 6d3e 52db e43d
00000120: 01a9 3d3e 5f69 9b3d 9b8d a9bd c61b 843c
00000130: 1407 a73d ef7f c73d 7051 cb3d 8573 0fbe
00000140: ccdd 583e 3276 01be 3ab3 2e3e 5fa7 dcbc
00000150: 5ace c33c ecd7 c43c ab77 063e 8ebb 8dbc
00000160: aaa8 9e3d 3cfa 5bbd 4593 46be 36c4 17be
00000170: c490 043e c604 34bd 8a39 75bd 0ab7 673d
00000180: e8b2 213c 6052 923c 3217 503e 2e9e de3d
00000190: a219 90bd 1549 073e 8383 213e 01b4 753e
000001a0: 8e37 15be d812 a63d e504 5dbd aee8 333d
000001b0: 95c5 fabd 3656 063c 1f88 2ebc abc3 0a3e
000001c0: 590c 1e3e 678f 2fbe bb55 853c db17 293d
000001d0: 48c1 0dbd 0bf2 7a3e dcc1 1abe 2ed3 a53e
000001e0: 9872 6cbe e138 82be fe61 90bc 503f 41be
000001f0: e247 af3d 1282 cf3d 0674 6b3e 0e06 90bc
00000200: 820c ca3c 8689 ccbc b049 4abe b45d 173e
00000210: 0fc0 b0bd 2330 2bbe e13e e2bd 3a1f c33d
00000220: b185 6a3d 0832 9dbd e1e8 55bd 719a 0c3e
00000230: 2292 2e3e 48af bfbd 1127 adbe 9ea2 c4bd
00000240: c9a7 da3c 4c64 4ebc d66a 193d ef7e bdbd
00000250: 163d 32bb f34a d83b 3fde 213e be74 58be
00000260: 11f1 15bd db31 9fbd 24ca 05be 6c68 8c3d
00000270: db8a a4bc 5dfc 1cbe 2842 8ebe 4e94 063e
00000280: 58c2 09bd 510c f8bd 29bb b2be fc9b 933d
00000290: fc3b 5fbe fbf5 2dbe 81a4 4b3e dc51 633e
000002a0: 1b06 81bd abf3 3dbe 46c8 6f3d 07bc 7bbb
000002b0: 0462 113c 060d 6a3e 129b f5bc 78a9 8dbd
000002c0: d06a 8b3d b96e 0e3e eddc 70be ae0f 2fbc
000002d0: 440a 5cbe 7d69 063e 1b14 ba3d 9b4f 10bd
000002e0: f88d 75be d659 b5bd a7fa 0cbe 9338 833d
000002f0: 904b f33d 300c 9c3d e8dd 16bc 44b1 8fbd
00000300: 92bb 923d 35a7 1e3d b3cd b43c f6c3 b43d
00000310: 3142 be3d 894e 53bc fead 853a 23f4 4e3e
00000320: 40b2 6e3d 6c75 74be 7cee a43e 1fbc 4c3c
00000330: 8af7 7c3c f902 e3bc 2be9 71bc cc6b 143e
00000340: db4a a2bc a350 0e3e 5d94 80bb f4fb a23d
00000350: 041e 1fbe 72e9 e9bd 53e3 9dbc 4afd ca3d
00000360: 375d 8bbe 7bf8 9cbd d578 1d3e 06bd f3be
00000370: ea6a 2f3e 06ac b9be d3b7 e63d 49bb 9d3e
00000380: 930a 49be fca7 a13d 98ee 28be 3ec1 4cbd
00000390: 24c1 05be 506b b7bc 5fab fc3d ca0c 7dbe
000003a0: 827e 833d 162c efbd 80b7 003d d052 aa3d
000003b0: 91e0 243e eda5 f83d 80dd 2f3e 3504 4a3e
000003c0: c7c0 643e 5df2 0dbe a7ca be3d a759 0a3e
000003d0: c737 983d b80b 98bd 6af4 3a3d 6565 6fbd
000003e0: 3ea7 7d3d 0ca8 69be d9fc 8a3e d49e 973d
000003f0: da07 503b ceef 083d 5113 0c3e 30b2 b3bd

base.3linear.bias f4 [50]
0.12261866 -0.03332135 -0.1522425 0.05036273 0.0706684 0.060553826 -0.12138451 -0.14786063
-0.025778892 -0.005977523 -0.07894955 0.002896808 0.14098507 0.06609145 0.05493971 0.06951803
-0.058247123 -0.04480168 0.0032468312 -0.020599918 0.00941319 0.04643434 0.016700383 0.078053586
0.01705043 -0.04017048 -0.053502087 -0.02837528 0.0070312265 -0.07240292 -0.040836148 0.002571135
-0.019793361 -0.15089306 0.026948635 -0.072921276 0.049796034 0.06851677 0.04779811 0.011720569
-0.031332098 -0.12718113 0.06156319 -0.028225534 -0.08066806 0.0058713905 -0.061697435 -0.083767936
0.03449969 0.08960473
00000000: 7e1f fb3d f87b 08bd 75e5 1bbe 2649 4e3d
00000010: 98ba 903d 4a07 783d 7198 f8bd c768 17be
00000020: 412e d3bc 19df c3bb 4db0 a1bd 60d8 3d3b
00000030: 645e 103e f45a 873d 7608 613d 785f 8e3d
00000040: 8994 6ebd f781 37bd cac8 543b 29c1 a8bc
00000050: c839 1a3c ef31 3e3d 3ecf 883c 8fda 9f3d
00000060: 58ad 8b3c cd89 24bd 0125 5bbd 4673 e8bc
00000070: 3466 e63b fb47 94bd ce43 27bd 7d80 283b
00000080: b025 a2bc b683 1abe 62c3 dc3c c057 95bd
00000090: edf6 4b3d 8552 8c3d f3c7 433d a107 403c
000000a0: 1656 00bd c53b 02be af29 7c3d 3c39 e7bc
000000b0: 4c35 a5bd cb64 c03b 73b6 7cbd 868e abbd
000000c0: 8c4f 0d3d af82 b73d

base.4linear.weight f4 [50, 50]
-0.11891713 0.00457309 0.0052379463 -0.055799793 0.08090166 0.11737778 -0.03153881 0.104797
-0.14976197 0.16177459 -0.06646949 -0.13481314 -0.07702832 -0.09279641 0.15951174 -0.11452099
-0.057006873 -0.21939157 0.07493061 0.043143753 -0.028294316 -0.15794459 0.021546314 -0.23069988
0.028230753 -0.019773295 0.0063649327 -0.2014729 -0.432672 0.105457984 -0.3700417 -0.016869567
0.018818904 -0.15724015 -0.048863687 0.08370038 -0.28274062 -0.19930457 -0.06891969 -0.12968582
-0.25361732 -0.032236226 -0.20558828 -0.0057118232 0.26320624 0.19797245 0.02712422 0.002926424
0.2785908 -0.061351966 -0.06705607 -0.072796516 -0.03519437 -0.12057964 0.04926676 0.007861366
-0.12283974 -0.058597278 0.009980124 0.25031838 -0.12923461 0.30447647 -0.10759162 -0.04624086
-0.17805734 0.18978567 -0.19524217 0.38858813 0.06584883 -0.044914547 -0.07012676 -0.06058729
0.003461919 -0.030340677 0.05965621 0.33496195 -0.06263615 -0.38477784 -0.06233987 0.103381954
-0.054840844 0.37761274 -0.03278717 0.3719174 0.06595736 0.026156543 -0.13889726 0.041610043
0.11923055 0.09786744 0.2938148 0.10027567 0.026947038 0.10380397 0.19387351 -0.05226678
0.16840099 -0.023047581 0.054009967 -0.02280192 0.08623992 -0.18434104 0.05687625 -0.016520698
0.2670792 -0.061403062 0.022752583 0.23674618 0.06619312 -0.29405957 0.16307992 -0.09768313
-0.21004826 0.09435295 0.017987892 0.028297745 0.02129257 0.11848307 0.14651982 -0.19544889
0.062275596 -0.082524076 -0.24342245 -0.12993903 0.21913655 -0.17643856 -0.053717412 -0.1757696
-0.035162706 -0.097954355 0.017798048 -0.08581493 -0.18786258 0.093312725 0.075678274 0.037996855
0.014577034 -0.11061648 -0.06012277 -0.027680147 -0.22475868 0.08460741 0.061401352 -0.09578086
-0.095146894 -0.20553549 -0.045637213 0.06264827 -0.07676239 -0.41854304 -0.027627062 0.21468411
-0.112090394 0.1834544 -0.04112411 0.023094036 0.18097197 0.21148883 -0.036573917 -0.19796762
0.40348795 -0.15501627 -0.42215475 -0.25347635 -0.030154942 -0.032143462 0.26969287 0.13635957
0.18666603 -0.12699006 0.17781521 -0.09675088 -0.0031793893 -0.37448552 -0.23299088 -0.054032467
0.16707091 0.11472394 0.12699322 -0.021990564 0.23254226 -0.16851911 0.114365116 0.23837607
-0.040746037 -0.019738019 -0.25208145 0.11618128 -0.15945522 -0.05530218 0.22925344 0.19970632
-0.14799187 0.23453714 -0.09029493 -0.014153503 0.04424419 0.028610125 0.033012386 -0.11565316
-0.20594092 0.092242904 -0.20003156 -0.05505979 0.11171992 0.019076008 -0.05042996 0.228969
0.037124883 0.038260013 -0.042306587 -0.15905246 -0.29455343 -0.0017560297 -0.14198433 0.13942249
0.094154455 -0.16452734 -0.07670983 0.02895748 0.13681272 0.18574688 0.33178863 -0.20858897
0.05933549 0.12078142 -0.08163321 0.018554538 -0.37747 -0.097057 -0.12680143 0.07848948
0.1042783 0.005653882 -0.015049976 -0.0902031 0.005744415 -0.09633445 -0.1333528 -0.03835331
-0.20655714 0.01079917 -0.2389187 0.2057552 0.17596985 0.14045456 -0.027149195 0.018196145
0.13129248 -0.30592346 0.07297757 0.060249478 -0.0753544 -0.12218609 0.18389943 -0.046907682
00000000: d38a f3bd dcd9 953b 14a3 ab3b 538e 64bd
00000010: c5af a53d c363 f03d d72e 01bd cf9f d63d
00000020: 345b 19be 3da8 253e 2821 88bd 750c 0abe
00000030: 06c1 9dbd 0b0c bebd 0c57 233e fb89 eabd
00000040: 0a80 69bd 2fa8 60be 3875 993d 81b7 303d
00000050: 7bc9 e7bc 3abc 21be e581 b03c 973c 6cbe
00000060: 2e44 e73c 9bfb a1bc ed90 d03b e94e 4ebe
00000070: 2f87 ddbe 5bfa d73d 1b76 bdbe 0c32 8abc
00000080: 1a2a 9a3c 9003 21be 4a25 48bd 1b6b ab3d
00000090: 61c3 90be 7f16 4cbe c425 8dbd 5ccc 04be
000000a0: 21da 81be 220a 04bd bc85 52be 3f2a bbbb
000000b0: f8c2 863e 4ab9 4a3e 9d33 de3c 3fc9 3f3b
000000c0: 74a3 8e3e 334c 7bbd b154 89bd 5716 95bd
000000d0: f927 10bd 75f2 f6bd f1cb 493d f5cc 003c
000000e0: 6793 fbbd b303 70bd ad83 233c bb29 803e
000000f0: 1456 04be 57e4 9b3e ff58 dcbd 0e67 3dbd
00000100: aa54 36be 2d57 423e 90ed 47be 06f5 c63e
00000110: c0db 863d 51f8 37bd 9e9e 8fbd 612a 78bd
00000120: 5de1 623b 038d f8bc 125a 743d 2280 ab3e
00000130: 6247 80bd 9a01 c5be 1758 7fbd ebb9 d33d
00000140: cba0 60bd 7556 c13e d74b 06bd f56b be3e
00000150: a714 873d 3f46 d63c 153b 0ebe 4b6f 2a3d
00000160: 262f f43d b96e c83d e56e 963e 555d cd3d
00000170: 09c0 dc3c 2d97 d43d c786 463e b115 56bd
00000180: 4f71 2c3e 48ce bcbc 8e39 5d3d 18cb babc
00000190: 8e9e b03d e6c3 3cbe 12f7 683d 6a56 87bc
000001a0: 9bbe 883e c781 7bbd a063 ba3c 976d 723e
000001b0: 4290 873d fa8e 96be 6cfe 263e 180e c8bd
000001c0: e416 57be 1f3c c13d 585b 933c acd0 e73c
000001d0: c16d ae3c 40a7 f23d 4b09 163e c123 48be
000001e0: b214 7f3d 6202 a9bd bc43 79be bd0e 05be
000001f0: 5565 603e 4fac 34be ca06 5cbd f2fc 33be
00000200: c506 10bd 4b9c c8bd 36cd 913c bdbf afbd
00000210: 0c5f 40be be1a bf3d 36fd 9a3d 97a2 1b3d
00000220: 83d4 6e3c e58a e2bd 4b43 76bd 7ac1 e2bc
00000230: 2427 66be a646 ad3d fc7f 7b3d c128 c4bd
00000240: 60dc c2bd e577 52be 16ee 3abd bc4d 803d
00000250: 9a35 9dbd 464b d6be 2652 e2bc 27d6 5b3e
00000260: a68f e5bd 78db 3b3e c171 28bd b42f bd3c
00000270: b750 393e 8790 583e 88ce 15bd 06b8 4abe
00000280: f995 ce3e 96bc 1ebe ab24 d8be a7c7 81be
00000290: 7f07 f7bc dda8 03bd 2f15 8a3e d8a1 0b3e
000002a0: 6125 3f3e af09 02be 3115 363e 5325 c6bd
000002b0: 4d5d 50bb 91bc bfbe 2995 6ebe 2651 5dbd
000002c0: a314 2b3e 63f4 ea3d 830a 023e 8e25 b4bc
000002d0: 8f1f 6e3e 4690 2cbe 4238 ea3d db18 743e
000002e0: 51e5 26bd a0b1 a1bc d210 81be 73f0 ed3d
000002f0: 3b48 23be 8a84 62bd 6ac1 6a3e d07f 4c3e
00000300: 2e8b 17be 812a 703e 8cec b8bd 18e4 67bc
00000310: 6539 353d c85f ea3c ff37 073d 90db ecbd
00000320: 2de2 52be d9e9 bc3d 13d5 4cbe 6086 61bd
00000330: 6acd e43d 4a45 9c3c a58f 4ebd d976 6a3e
00000340: 4310 183d 88b6 1c3d ac49 2dbd a6de 22be
00000350: b5cf 96be 942a e6ba 5764 11be c5c4 0e3e
00000360: 0dd4 c03d db79 28be 0b1a 9dbd 3d38 ed3c
00000370: a218 0c3e 6e34 3e3e 33e0 a93e 5998 55be
00000380: c509 733d 405c f73d 502f a7bd b0ff 973c
00000390: bf43 c1be d2c5 c6bd 3cd8 01be 18bf a03d
000003a0: dd8f d53d 3344 b93b 2d94 76bc 67bc b8bd
000003b0: a53b bc3b ff4a c5bd a38d 08be 5c18 1dbd
000003c0: b783 53be 00ef 303c 1ba7 74be 7eb1 523e
000003d0: 7131 343e 52d3 0f3e fd67 debc 1510 953c
000003e0: 8971 063e 00a2 9cbe 4475 953d 28c8 763d
000003f0: 6853 9abd b33c fabd 2250 3c3e 4522 40bd

base.4linear.bias f4 [50]
-0.020611128 -0.058755014 -0.0049707647 -0.08551009 -0.033029277 0.060507428 -0.035716962 0.080437735
-0.06838314 -0.029437097 0.007170049 -0.033149727 0.046226997 -0.074777514 -0.007982749 0.01764548
0.058263633 -0.07808904 -0.13779715 0.010076287 -0.022568403 0.078150995 0.0091102 0.050890062
-0.01743916 -0.019373586 -0.016045429 -0.14528637 -0.06723512 0.10875384 -0.02804271 -0.0031401182
-0.052853893 -0.014547213 -0.093324594 -0.032429837 0.06647477 -0.0988523 -0.090841904 -0.007819201
0.049705263 -0.05650042 -0.21724711 -0.0051847757 0.0132965 -0.03899937 0.022671785 0.0009021243
0.024641473 0.009465227
00000000: abd8 a8bc 19a9 70bd cce1 a2bb ea1f afbd
00000010: b549 07bd a3d6 773d f34b 12bd 8abc a43d
00000020: 760c 8cbd 1126 f1bc bbf2 ea3b 02c8 07bd
00000030: 8558 3d3d f424 99bd 13ca 02bc 418d 903c
00000040: d9a5 6e3d 26ed 9fbd b21a 0dbe 0317 253c
00000050: 5fe1 b8bc a10d a03d f342 153c 1972 503d
00000060: 92dc 8ebc 5bb5 9ebc b471 83bc f3c5 14be
00000070: 91b2 89bd 55ba de3d d3b9 e5bc 71ca 4dbb
00000080: 537d 58bd 6f57 6ebc f720 bfbd 26d5 04bd
00000090: ed23 883d 1373 cabd 520b babd 1b1c 00bc
000000a0: bf97 4b3d fc6c 67bd 0776 5ebe 0de5 a9bb
000000b0: 90d9 593c cebd 1fbd 2eba b93c 897c 6c3a
000000c0: eadc c93c 0a14 1b3c

base.5linear.weight f4 [50, 50]
0.17475441 0.33489686 0.02777746 -0.15128194 0.011441181 0.2365411 -0.13381031 0.13048077
0.017843546 -0.22917405 -0.1277039 -0.4244212 0.047046058 0.15126964 -0.16772346 0.0016133036
-0.14838493 -0.0010270256 0.008753709 0.13359655 -0.2008151 0.0867436 0.04949125 0.02273057
0.13404484 -0.0827026 -0.18587236 0.17575544 -0.13013667 0.10812081 0.0734581 0.14874348
-0.15246573 0.071369775 0.08802088 -0.12351568 -0.093788 -0.1025722 -0.0037104175 -0.03393268
-0.023657836 0.013301659 0.011905727 -0.21412134 -0.17147247 -0.16028836 0.22369246 0.18500313
-0.030056102 -0.07279461 -0.015187061 -0.1196046 -0.122170486 0.17990029 0.27041456 -0.0053490954
0.20666537 -0.05331608 -0.20794438 0.23365754 0.051571064 -0.38789332 0.06815754 -0.10446164
-0.11625468 0.06900011 -0.3131219 -0.02385189 0.09916191 0.026524616 0.039912682 0.026928782
0.35218534 -0.10380679 0.21314137 -0.1015872 0.24674207 0.040532164 -0.04747416 0.30173993
0.3826184 0.16697338 0.19809866 0.15126862 0.42313883 0.18748613 -0.09236623 0.03750325
0.17401971 0.50037897 0.021486526 -0.11874157 0.16276608 0.31849906 0.20547773 -0.1502096
-0.13841607 0.09003046 0.0035257037 -0.37196183 0.0034215455 0.15739946 -0.084927194 0.029313745
0.059848584 0.29232785 0.24426034 -0.34600347 0.18884933 0.16696887 -0.046812575 -0.0019180438
-0.19128382 0.1304413 -0.018686958 0.062799774 -0.3049144 0.30188963 -0.4219597 0.03590168
-0.011524885 0.24321026 0.11836678 -0.12525944 -0.04913458 0.06507998 0.13901024 0.06396408
0.32758442 0.17973872 0.05121988 -0.28319114 -0.03184213 0.12761778 -0.41466177 0.100643925
0.05789059 0.08458579 -0.06707342 0.04987949 -0.104648046 0.053128958 0.106886074 -0.3163552
-0.32215554 0.053993776 0.0021321077 0.07017553 0.083392434 0.09465714 0.12343613 0.071039654
0.0043352726 0.12262397 0.019054538 -0.06703644 -0.04933035 -0.0035668658 0.15824136 -0.13421471
0.1360561 0.057466242 0.19842708 0.2317283 0.11639465 0.2349359 -0.20108266 0.021711502
0.19568785 0.18085843 -0.066415 -0.2207634 0.19302876 -0.02857464 -0.41271558 0.20125589
-0.08010455 -0.07163596 0.16501841 -0.16840492 0.12403847 -0.29489517 0.24425438 0.15581027
0.2077214 -0.027181156 -0.15289155 0.1296993 0.19639994 0.24503823 0.18570422 -0.22561526
0.25004593 0.014513639 0.012838944 0.06203652 0.08667492 0.022154817 -0.04193381 -0.07127686
0.031295672 -0.041729048 0.010533151 0.091599524 -0.041754026 -0.12191054 0.13489774 -0.028604422
0.09707139 -0.32503894 -0.09376468 0.016636014 -0.05308164 0.07407083 0.053271215 0.086125925
-0.2613735 -0.0048570405 -0.14353378 -0.089528255 0.0054931105 0.11466996 0.06403628 -0.088086106
0.1588812 0.2384206 -0.054454047 -0.18895943 0.07020943 -0.050136924 -0.02007137 -0.18212911
0.033102896 0.23294535 0.08344053 0.0023049254 0.18464318 -0.050812393 -0.40626824 -0.046209425
0.2448161 0.023647638 -0.30158496 -0.037677135 0.00037502093 -0.13899559 -0.10155171 -0.015227506
0.041226197 -0.1503357 -0.17906182 0.0152867 -0.16997455 -0.15871386 -0.04459547 -0.084243715
00000000: d2f2 323e 9a77 ab3e 8e8d e33c a7e9 1abe
00000010: cb73 3b3c d537 723e 9205 09be c09c 053e
00000020: a12c 923c 9aac 6abe d0c4 02be bc4d d9be
00000030: 5eb3 403d 6ee6 1a3e b3bf 2bbe 7c75 d33a
00000040: 38f2 17be 439d 86ba b76b 0f3c 89cd 083e
00000050: 79a2 4dbe a1a6 b13d 56b7 4a3d 7635 ba3c
00000060: 0d43 093e fb5f a9bd 5355 3ebe 3cf9 333e
00000070: 8c42 05be 716e dd3d 3371 963d 3650 183e
00000080: fa1f 1cbe 512a 923d 4b44 b43d caf5 fcbd
00000090: ec13 c0bd 6011 d2bd 7a2a 73bb fefc 0abd
000000a0: 14ce c1bc 34ef 593c 3d10 433c a042 5bbe
000000b0: 7b96 2fbe a222 24be a30f 653e 7671 3d3e
000000c0: 3738 f6bc 5715 95bd 27d3 78bc 42f3 f4bd
000000d0: 8534 fabd c837 383e c773 8a3e 7747 afbb
000000e0: 16a0 533e f661 5abd 5fef 54be ec43 6f3e
000000f0: 2e3c 533d f499 c6be 2e96 8b3d fcef d5bd
00000100: ef16 eebd ee4f 8d3d 8451 a0be 0a65 c3bc
00000110: 6615 cb3d 274a d93c 7b7b 233d c099 dc3c
00000120: a351 b43e a898 d4bd bb41 5a3e f30c d0bd
00000130: f4a9 7c3e 0e05 263d 4474 42bd a87d 9a3e
00000140: 8fe6 c33e 12fb 2a3e 60da 4a3e 29e6 1a3e
00000150: a7a5 d83e 5dfc 3f3e 822a bdbd 029d 193d
00000160: 3932 323e d618 003f 8304 b03c c82e f3bd
00000170: 27ac 263e 4f12 a33e c168 523e 8cd0 19be
00000180: f1bc 0dbe e461 b83d 7e0f 673b c871 bebe
00000190: 023c 603b 532d 213e 4fee adbd 6123 f03c
000001a0: ca23 753d ffab 953e 621f 7a3e 5e27 b1be
000001b0: b861 413e e3f9 2a3e 8bbe 3fbd df66 fbba
000001c0: e8df 43be 6792 053e 6415 99bc 2b9d 803d
000001d0: be1d 9cbe 4791 9a3e 1a0b d8be a40d 133d
000001e0: dfd2 3cbc 1c0c 793e 486a f23d 0344 00be
000001f0: 5741 49bd a748 853d b358 0e3e 99ff 823d
00000200: 25b9 a73e 6d0d 383e f0cb 513d 6efe 90be
00000210: e56c 02bd 3cae 023e 8c4e d4be 671e ce3d
00000220: af1e 6d3d 513b ad3d ca5d 89bd 704e 4c3d
00000230: b751 d6bd c09d 593d 16e7 da3d 4ff9 a1be
00000240: 92f1 a4be 9428 5d3d d5ba 0b3b 30b8 8f3d
00000250: a7c9 aa3d 9adb c13d 15cc fc3d 3d7d 913d
00000260: e70e 8e3b 4722 fb3d 4318 9c3c 674a 89bd
00000270: 9f0e 4abd 14c2 69bb 060a 223e 956f 09be
00000280: 4a52 0b3e b961 6b3d 7830 4b3e 2f4a 6d3e
00000290: 5160 ee3d 0993 703e 9de8 4dbe 52dc b13c
000002a0: 6562 483e f432 393e 9604 88bd cd0f 62be
000002b0: 55a9 453e 5d15 eabc 754f d3be 0616 4e3e
000002c0: db0d a4bd e0b5 92bd 96fa 283e 5772 2cbe
000002d0: e207 fe3d 80fc 96be d21d 7a3e ba8c 1f3e
000002e0: ebb4 543e 04ab debc 9a8f 1cbe e5cf 043e
000002f0: 111d 493e 4deb 7a3e 3f29 3e3e b007 67be
00000300: 0506 803e 9dca 6d3c 6f5a 523c 021a 7e3d
00000310: 9f82 b13d 057e b53c c9c2 2bbd 9af9 91bd
00000320: e42f 003d 14ec 2abd 3d93 2c3c 8898 bb3d
00000330: 4506 2bbd 3cac f9bd a222 0a3e d253 eabc
00000340: 5dcd c63d 816b a6be b207 c0bd 4048 883c
00000350: 226c 59bd 73b2 973d eb32 5a3d ca62 b03d
00000360: bfd2 85be cf27 9fbb 85fa 12be 975a b7bd
00000370: 8dff b33b 16d8 ea3d 7425 833d 7d66 b4bd
00000380: c1b1 223e 8824 743e 350b 5fbd 957e 41be
00000390: f6c9 8f3d 605c 4dbd b76c a4bc 0e80 3abe
000003a0: e796 073d 3a89 6e3e dee2 aa3d 3b0e 173b
000003b0: 1a13 3d3e a820 50bd 6402 d0be 1846 3dbd
000003c0: 12b1 7a3e b1b8 c13c 5869 9abe 5753 1abd
000003d0: 759e c439 dc54 0ebe 58fa cfbd ca7c 79bc
000003e0: cddc 283d 9af1 19be fb5b 37be 1175 7a3c
000003f0: cf0d 2ebe e385 22be bda9 36bd f887 acbd

base.5linear.bias f4 [50]
-0.03152622 -0.034555126 -0.02376377 -0.0698292 0.04129325 0.11433557 0.046187975 -0.053243525
0.017369846 0.05158282 -0.011140132 -0.044523068 0.09421598 -0.09579627 -0.011225175 -0.064745724
-0.07658405 -0.043664023 -0.059260912 -0.16317208 0.010955244 0.008014967 0.09034903 -0.022571659
-0.083215386 0.0006425226 0.015083361 -0.02286979 -0.035238665 -0.3428683 0.09954894 0.037884455
0.17001979 0.0132647045 0.015079583 -0.05161958 -0.033955898 0.039787114 0.08774327 0.087777175
-0.042047184 0.049455117 0.056975022 -0.006805452 0.022434596 0.015039736 0.011367155 0.051214907
-0.052335083 -0.026615152
00000000: a321 01bd ad89 0dbd 3dac c2bc 9d02 8fbd
00000010: 1c23 293d c428 ea3d 9a2f 3d3d e215 5abd
00000020: 354b 8e3c 8248 533d 1a85 36bc d25d 36bd
00000030: 4ff4 c03d d630 c4bd cce9 37bc 6899 84bd
00000040: 19d8 9cbd 0cd9 32bd 92bb 72bd 9516 27be
00000050: a07d 333c 3551 033c ea08 b93d 33e8 b8bc
00000060: d46c aabd f66e 283a 3420 773c 6d59 bbbc
00000070: 6b56 10bd 6f8c afbe 51e0 cb3d bb2c 1b3d
00000080: ab19 2e3e 3454 593c 5b10 773c 0d6f 53bd
00000090: 5715 0bbd d0f7 223d beb2 b33d 85c4 b33d
000000a0: ab39 2cbd 7391 4a3d a45e 693d 4500 dfbb
000000b0: c2c8 b73c 3a69 763c 4e3d 3a3c b9c6 513d
000000c0: 505d 56bd 0508 dabc

base.6linear.weight f4 [50, 50]
0.081931025 0.04599043 0.23549253 0.038269687 0.037946295 -0.06731809 -0.26231337 0.21412909
-0.13363223 -0.0655405 -0.27112207 -0.21014959 -0.01877508 0.048314303 0.068455406 0.114667766
-0.16641101 0.07131151 -0.002833733 -0.27659744 -0.099042825 0.061876148 -0.05481009 -0.0528951
-0.15495293 0.006397763 0.4614912 0.06499627 -0.12836598 0.18033831 -0.2546566 -0.03315355
-0.046568055 0.012550068 -0.06949555 0.11828965 0.146089 0.062232506 -0.2877095 0.08055824
-0.0051350864 -0.1775891 0.065939575 0.094539076 -0.024276879 0.21623203 -0.03146212 -0.008971554
-0.098695435 -0.06867814 0.0066387285 0.07781589 -0.034315597 0.08877175 -0.23649351 0.117872514
-0.16651037 0.25831738 0.20283736 -0.19188343 -0.055399526 -0.029609462 -0.31534496 0.27117047
-0.012208202 -0.013607642 0.05013896 0.109724864 0.055211347 0.039617922 0.24866368 0.101616174
-0.17576745 -0.022701444 -0.026410578 0.08850002 0.109988704 0.15688734 0.22137436 0.03126389
-0.13692085 0.1315951 -0.22649844 0.028359905 -0.06833712 0.30645135 0.13242207 0.12299757
0.28069586 -0.19884928 -0.11534572 0.069732934 -0.086960234 -0.16885321 -0.080848284 0.09383281
0.052690405 -0.04468744 0.061237868 0.023841832 -0.34527 -0.31024978 0.290481 -0.036423966
-0.1937715 0.10650979 0.034945745 -0.010612588 -0.036249768 0.09503499 -0.14074364 -0.07443181
-0.16621834 0.038626906 0.529289 -0.40988952 -0.16465738 0.015639314 -0.111573435 -0.2048826
0.11721419 -0.22924758 0.37817115 0.0207777 0.2527847 -0.11795342 -0.27832592 -0.21508928
-0.07164089 -0.18765832 0.31581795 -0.16343328 0.18376344 0.13257173 -0.20555857 -0.044197716
-0.34325466 -0.18560296 0.015621358 0.065418564 0.22186057 0.21553455 0.04725288 -0.33051723
0.1424271 0.07833541 -0.11266213 0.6194236 -0.36388475 0.4647173 0.07877877 0.37587845
-0.30643883 -0.30364096 0.1329238 0.26225507 0.021429367 -0.08040482 0.09207108 0.26892436
-0.029559152 0.09956973 0.042707913 0.017189771 -0.06856052 0.42777 -0.04831192 -0.09543576
0.22400385 0.15122184 -0.02105223 0.13681683 0.030120037 0.17769642 0.08723961 0.18766904
-0.05738397 -0.14225537 0.15653607 -0.010053967 0.026781283 0.02270041 -0.19625384 -0.21369688
0.003753798 -0.2693344 0.005363688 -0.0071743336 0.024632012 -0.33764127 -0.093782976 0.26457852
0.19630551 0.21293452 -0.15779245 -0.13653177 -0.11939572 -0.13238151 -0.18887469 0.16242738
-0.21737039 -0.01878311 -0.35330704 -0.11524758 -0.13316019 -0.14006516 -0.027804043 -0.06774853
-0.06842126 -0.01980735 0.02095639 -0.04266561 -0.13774695 0.12580128 0.06415039 0.28167027
-0.13407154 0.23201881 0.14148842 0.0032678104 0.37752756 -0.05311848 0.11353521 0.21734734
-0.051107567 0.18629025 0.07867086 0.33360103 0.041757677 0.23675747 -0.09673947 -0.11802812
-0.052424915 0.100136414 -0.29058707 -0.11737961 0.03758357 -0.09683705 -0.13152434 -0.13797064
0.026645266 0.12923504 0.02164585 -0.10387152 0.29818234 -0.17900057 -0.2604343 -0.15539113
0.10288007 -0.26174322 0.1615231 -0.13276547 -0.10095599 -0.041762333 0.33530873 0.12033136
00000000: 74cb a73d 7660 3c3d f424 713e adc0 1c3d
00000010: 936d 1b3d 11de 89bd f04d 86be a844 5b3e
00000020: e3d6 08be 193a 86bd 83d0 8abe 7431 57be
00000030: 32ce 99bc 38e5 453d 5932 8c3d efd6 ea3d
00000040: a667 2abe c50b 923d 27b6 39bb 2e9e 8dbe
00000050: f7d6 cabd d871 7d3d 8c80 60bd 88a8 58bd
00000060: fbab 1ebe 53a4 d13b 9348 ec3e c41c 853d
00000070: 5f72 03be 9baa 383e 5a62 82be 04cc 07bd
00000080: 25be 3ebd cd9e 4d3c af53 8ebd d841 f23d
00000090: 5b98 153e 83e7 7e3d a94e 93be b8fb a43d
000000a0: 3a44 a8bb ebd9 35be 540b 873d b49d c13d
000000b0: 4ee0 c6bc ee6b 5d3e 6dde 00bd 6dfd 12bc
000000c0: d520 cabd 20a7 8cbd b189 d93b f05d 9f3d
000000d0: 838e 0cbd f7cd b53d 5b2b 72be 2567 f13d
000000e0: b281 2abe 2d42 843e 99b4 4f3e 177d 44be
000000f0: 9dea 62bd 8b8f f2bc e574 a1be dbd6 8a3e
00000100: e904 48bc 96f2 5ebc 835e 4d3d 6eb7 e03d
00000110: 4b25 623d 6746 223d b1a1 7e3e 241c d03d
00000120: 62fc 33be 61f8 b9bc ff5a d8bc 803f b53d
00000130: c241 e13d 13a7 203e f6af 623e 910e 003d
00000140: fb34 0cbe dec0 063e 35ef 67be 0853 e83c
00000150: 55f4 8bbd 31e7 9c3e a799 073e 26e6 fb3d
00000160: 5eb7 8f3e 259f 4bbe 603a ecbd 24d0 8e3d
00000170: 3518 b2bd dbe7 2cbe c993 a5bd 6b2b c03d
00000180: e5d1 573d 2d0a 37bd 8fd4 7a3d f24f c33c
00000190: 3bc7 b0be 0fd9 9ebe edb9 943e 4c31 15bd
000001a0: 096c 46be ce21 da3d 4523 0f3d 6ce0 2dbc
000001b0: a37a 14bd b4a1 c23d 1a1f 10be b46f 98bd
000001c0: 2435 2abe 3f37 1e3d 7c7f 073f 0add d1be
000001d0: f29b 28be 051e 803c 9d80 e4bd bfcc 51be
000001e0: fe0d f03d e1bf 6abe a69f c13e ff35 aa3c
000001f0: ff6c 813e 9091 f1bd bc80 8ebe 5d40 5cbe
00000200: 75b8 92bd 8129 40be e4b2 a13e 0e5b 27be
00000210: 7c2c 3c3e e2c0 073e f27d 52be aa08 35bd
00000220: 13bf afbe b40e 3ebe b9f0 7f3c 2bfa 853d
00000230: 6b2f 633e 17b5 5c3e 3c8c 413d 8e39 a9be
00000240: 69d8 113e 516e a03d 67bb e6bd 8c92 1e3f
00000250: 1a4f babe 6def ed3e c456 a13d 2473 c03e
00000260: 8de5 9cbe d476 9bbe 2d1d 083e 4c46 863e
00000270: a48c af3c 48ab a4bd c38f bc3d 74b0 893e
00000280: 0926 f2bc 37eb cb3d 7eee 2e3d 90d1 8c3c
00000290: 7569 8cbd ab04 db3e b8e2 45bd d373 c3bd
000002a0: 4461 653e e6d9 1a3e ba75 acbc b619 0c3e
000002b0: 4cbe f63c 0df6 353e aeaa b23d 502c 403e
000002c0: 740b 6bbd 64ab 11be fe4a 203e 65b9 24bc
000002d0: 6c64 db3c 36f6 b93c c4f6 48be 5bd3 5abe
000002e0: 4802 763b 33e6 89be e0c1 af3b ac16 ebbb
000002f0: 13c9 c93c 51df acbe 4a11 c0bd d676 873e
00000300: 5004 493e 820b 5a3e 5894 21be fcce 0bbe
00000310: be85 f4bd 058f 07be 5e68 41be 5d53 263e
00000320: 5896 5ebe 09df 99bc a9e4 b4be ec06 ecbd
00000330: 255b 08be 3e6d 0fbe 4ec5 e3bc bebf 8abd
00000340: 7220 8cbd 0643 a2bc bcac ab3c 22c2 2ebd
00000350: 890d 0dbe 0dd2 003e 4861 833d 1637 903e
00000360: 0d4a 09be 5796 6d3e 57e2 103e c328 563b
00000370: 4b4b c13e c392 59bd 2685 e83d 4d90 5e3e
00000380: 2b56 51bd dfc2 3e3e 301e a13d c1cd aa3e
00000390: 190a 2b3d 8d70 723e 581f c6bd bab8 f1bd
000003a0: 82bb 56bd 5214 cd3d d4c7 94be b964 f0bd
000003b0: 3bf1 193d 8152 c6bd 51ae 06be 2d48 0dbe
000003c0: 2c47 da3c 3156 043e a352 b13c 97ba d4bd
000003d0: 5bab 983e ed4b 37be a557 85be da1e 1fbe
000003e0: c9b2 d23d 3503 86be 5066 253e acf3 07be
000003f0: 04c2 cebd fb0e 2bbd 96ad ab3e 4a70 f63d

base.6linear.bias f4 [50]
-0.07311545 -0.033377416 0.10488354 -0.002778153 -0.099166006 0.07627092 0.037337214 0.034648612
-0.035599142 0.078353636 -0.027635524 -0.016298536 -0.08992373 -0.02566776 0.10527544 0.018683638
-0.016916431 0.10393999 -0.009137012 -0.0018377219 -0.009499841 -0.0050876793 0.04719511 -0.03279633
0.072621055 0.037519954 0.08544329 0.06138526 0.04355007 -0.004451485 -0.010208446 -0.046691194
-0.04098998 -0.08143809 0.05108842 -0.003665721 0.06122846 0.03154735 0.0063987244 -0.15099095
0.042762443 -0.12539674 0.0018730761 -0.014341411 -0.08373564 -0.04071393 -0.04068239 -0.038206775
-0.009543017 -0.020069044
00000000: 8ebd 95bd c2b6 08bd 2ecd d63d ac11 36bb
00000010: 8c17 cbbd ee33 9c3d e8ee 183d b4eb 0d3d
00000020: 68d0 11bd df77 a03d e563 e2bc 8284 85bc
00000030: ef29 b8bd 3245 d2bc a69a d73d 6e0e 993c
00000040: 5494 8abc 7dde d43d 68b3 15bc b7df f0ba
00000050: 39a5 1bbc 8cb6 a6bb a94f 413d 7255 06bd
00000060: 59ba 943d 86ae 193d e4fc ae3d 1c6f 7b3d
00000070: 8f61 323d c3dd 91bb 5341 27bc 443f 3fbd
00000080: 1ce5 27bd 03c9 a6bd 1742 513d 983c 70bb
00000090: b2ca 7a3d cb37 013d 64ac d13b 5f9d 1abe
000000a0: ac27 2f3d 0168 00be 0182 f53a 3df8 6abc
000000b0: 977d abbd a6c3 26bd 94a2 26bd b57e 1cbd
000000c0: 505a 1cbc d667 a4bc
