STPINN-RANS/sub_data/sub_write/18NS_model_train.pt (torch, 100283 bytes, 22 tensors)

base.0linear.weight f4 [50, 3]
0	0x3ec531ce	0.3851456
1	0xbe4e8a44	-0.20169932
2	0xbe7d327c	-0.2472629
3	0x3dff63ce	0.12470208
4	0xbe5486ce	-0.20754549
5	0xbe856d66	-0.26060027
6	0xbdee0b33	-0.1162323
7	0x3ea6a3a5	0.32546726
8	0x3da03750	0.0782305
9	0xbde82684	-0.11335471
10	0xbe739f56	-0.2379125
11	0x3e34bc59	0.17649974
12	0x3d570258	0.05249247
13	0x3e870e8d	0.2637829
14	0x3d7246a9	0.059149418
15	0xbdfe8b88	-0.12428957
16	0xbede5e50	-0.4343133
17	0xbe08153c	-0.1328935
18	0xbdc4446a	-0.095833614
19	0xbd25fb2b	-0.040522736
20	0x3dc9d302	0.098547
21	0x39fe1e13	0.00048469062
22	0xbacdaf0f	-0.001569243
23	0xb9fe9498	-0.00048557366
24	0x3df418a6	0.11918764
25	0x3db1746a	0.08664782
26	0x3d70020a	0.058595695
27	0x3d4a0817	0.04932412
28	0x3e423873	0.18966846
29	0x3c68cf88	0.014209636
30	0xbad93a17	-0.0016573098
31	0xbe0376ec	-0.12838334
32	0x3d1d61ac	0.038423225
33	0xbdd36a16	-0.10322969
34	0x3ddb080b	0.106948934
35	0x3e2f4f05	0.17119987
36	0x3d26b690	0.04070145
37	0xbc7a3586	-0.01527155
38	0xbde4488d	-0.111466505
39	0x3df1f7dd	0.11814854
40	0x3e2b61cf	0.1673653
41	0x3e053baa	0.13011041
42	0xbe64afe4	-0.22332722
43	0x3eb71df9	0.35765055
44	0xbd68b4cc	-0.056813046
45	0x3b5764d0	0.0032866485
46	0x3ca52681	0.020159962
47	0xbc0eb9cf	-0.008711292
48	0x3d8bef6b	0.06832775
49	0x3d4e88d8	0.050423473
50	0x3de026be	0.109448895
51	0x3e7adcd4	0.24498302
52	0x3e4734fd	0.19453807
53	0x3e030c5c	0.12797683
54	0xbeb459e7	-0.3522484
55	0xbe91294e	-0.28351825
56	0x3d9ea554	0.077463776
57	0xbe4117bb	-0.18856709
58	0xbc99011e	-0.01867729
59	0x3efed7ed	0.49774113
60	0xbb16b3c9	-0.0022995344
61	0xbdfd06b2	-0.12354793
62	0xbd9ffe33	-0.078121565
63	0xbe8b8c12	-0.27255303
64	0xbe10aba6	-0.14127979
65	0x3e9bb376	0.30410355
66	0xbd94dd58	-0.072687805
67	0xbef26448	-0.47342134
68	0x3ea894cc	0.32926023
69	0xbdd9f148	-0.10641724
70	0xbb534cc0	-0.0032241791
71	0x3e027102	0.12738422
72	0xbdb72367	-0.08942299
73	0x3e9678b7	0.29388973
74	0x3d0d8ede	0.034560077
75	0xb77891d2	-1.4815903e-05
76	0x3a2031a0	0.00061109103
77	0xbb3559af	-0.0027671864
78	0x3e542a14	0.20719177
79	0xbe934ad6	-0.28768033
80	0xbe8fe437	-0.28103802
81	0xbe5e16d7	-0.216884
82	0x3e199560	0.14998388
83	0xbe2d172f	-0.16903375
84	0x3e8dca0b	0.2769321
85	0xbe6aca68	-0.22928774
86	0xbe61ee57	-0.22063576
87	0xbe2b37b3	-0.16720466
88	0xbdd01fbd	-0.101623036
89	0xbd2e4a07	-0.042551067
90	0xbe480a20	-0.19535112
91	0xbe118416	-0.14210543
92	0x3e8f932d	0.28041974
93	0xbcb3a804	-0.021930702
94	0x3c824fa9	0.015907126
95	0xbe697fbf	-0.22802638
96	0x3dbd59ad	0.0924562
97	0xbec5d830	-0.386415
98	0x3dbd7885	0.09251503
99	0x3988a719	0.0002606444
100	0xb8a7c5e5	-8.000041e-05
101	0x39a25c81	0.0003096797
102	0xbe93bc59	-0.28854635
103	0x3e3ac043	0.18237405
104	0x3ee4733f	0.44619176
105	0xbd4a978b	-0.04946093
106	0x3e7a74f6	0.2445868
107	0xbdb7a224	-0.08966473
108	0x3a64d269	0.00087288633
109	0xbb29a664	-0.002588653
110	0x39c1b963	0.00036949952
111	0xbe5d250f	-0.21596168
112	0xbd656b2a	-0.056010403
113	0x3e83af6b	0.2571977
114	0xba8a151c	-0.0010534856
115	0x3b0fae09	0.0021923801
116	0xba93893e	-0.0011256111
117	0x3d4eca3e	0.050485842
118	0x3e7f8098	0.24951398
119	0x3de56dda	0.11202593
120	0x3e75c272	0.23999956
121	0xbce3b0b1	-0.027794214
122	0xbe8bf384	-0.27334225
123	0xbaa1065d	-0.0012285222
124	0x3afde51a	0.0019370646
125	0x3a440b8c	0.0007478527
126	0x3e2edf3d	0.17077346
127	0x3ec8c524	0.39212906
128	0x3e3c1546	0.1836749
129	0xbc3c66e2	-0.011499139
130	0x3e234d12	0.15947369
131	0x3d2fddb9	0.04293606
132	0x3dbbd78b	0.09171971
133	0xbe214c53	-0.15751772
134	0xbe839793	-0.2570158
135	0xbca7fd27	-0.020506455
136	0xbeb7deeb	-0.3591226
137	0x3db496ef	0.08817851
138	0xbe292fe2	-0.16522172
139	0xbe279046	-0.1636363
140	0x3eb86f0d	0.36022225
141	0x39bae7ad	0.00035649296
142	0x3933d094	0.00017148472
143	0x39947e37	0.00028322797
144	0xbb893e02	-0.0041883
145	0xbec70128	-0.3886807
146	0x3e107774	0.14108068
147	0xbd1a155a	-0.03761802
148	0x3e3c57df	0.18392895
149	0xbd9abb14	-0.075552136

base.0linear.bias f4 [50]
0	0x3cd5e780	0.026111364
1	0x3d4e870b	0.050421756
2	0x3d4f40b8	0.05059883
3	0xbc34a8b3	-0.011026549
4	0xbdbe5802	-0.0929413
5	0x3d660e8d	0.05616622
6	0xbbfabb23	-0.007651703
7	0xb9eca183	-0.00045133763
8	0xbdf76851	-0.12080444
9	0xbd4a43d5	-0.049381096
10	0xbc51bb23	-0.0128009645
11	0xbd4ab239	-0.049486373
12	0x3cb802e2	0.022462312
13	0xbd572ef9	-0.05253503
14	0x3d2234bc	0.039601073
15	0x3b7afce1	0.00382977
16	0xbde28cd4	-0.11062017
17	0xbe210125	-0.15723093
18	0x3df99f33	0.12188568
19	0xbd9db01d	-0.076996066
20	0x3d4227b5	0.04740115
21	0x3cc7c6b9	0.02438675
22	0x3c4e5ebd	0.01259583
23	0xbd048c89	-0.032360587
24	0xbd1ca752	-0.038245507
25	0x3aade980	0.0013268441
26	0xbbf95561	-0.007609055
27	0x3d9c99b4	0.07646504
28	0x3d90af6d	0.0706471
29	0x3e2003bf	0.15626429
30	0xbd8e324c	-0.06943187
31	0x3d5a23e5	0.053256888
32	0xbd7de89f	-0.061989423
33	0xb98d03d9	-0.00026896482
34	0xbda2fac0	-0.07957983
35	0x3d8ceb21	0.06880785
36	0xbb38da41	-0.0028206261
37	0x3d897f80	0.06713772
38	0x3a53cc57	0.000807946
39	0xbdc407d6	-0.09571807
40	0xbcc25fbe	-0.023727294
41	0xb9f48370	-0.00046637235
42	0xbe471321	-0.19440891
43	0x3c2fcd74	0.010730136
44	0x3ce03352	0.027368221
45	0xbc76b9be	-0.015058933
46	0xbc80b9e1	-0.015713634
47	0xb9ea3421	-0.00044670797
48	0xbd922228	-0.07135421
49	0x3d6a6571	0.05722565

base.1linear.weight f4 [50, 50]
0	0x3df5da94	0.12004581
1	0xbdef1f96	-0.116759464
2	0x3e695d5c	0.2278952
3	0xbdfcc29b	-0.123418055
4	0xbe53e1db	-0.20691626
5	0x3e9991ec	0.29994142
6	0x3d3bc58d	0.045842696
7	0xbd1970f5	-0.03746124
8	0xbdf794a0	-0.12088895
9	0xbe98ef27	-0.2986996
10	0x3dd169fc	0.10225293
11	0x3d606fbe	0.054794066
12	0x3d8d524f	0.06900465
13	0xbdb4c329	-0.08826286
14	0xbd3b6c9b	-0.04575787
15	0x3dfdb146	0.12387328
16	0x3e0a81f7	0.1352614
17	0x3dfa4345	0.12219862
18	0x3e666aa5	0.22501619
19	0xbd0d0505	-0.034428615
20	0x3dd6e2ac	0.10492453
21	0xbba317d5	-0.0049772062
22	0xbc807f43	-0.015685683
23	0xbd668cf2	-0.05628676
24	0xbd16f803	-0.036857616
25	0xbc2661f1	-0.010155187
26	0x3ea474be	0.32120317
27	0xbd2cc066	-0.042175673
28	0xbe0e0935	-0.138707
29	0x3e978af8	0.29598212
30	0x3e06bb0d	0.13157292
31	0xbda09d2b	-0.078424774
32	0xbc280985	-0.010256176
33	0xbd9ae9b5	-0.07564107
34	0xbc3d0790	-0.011537448
35	0xbd2cb26e	-0.04216235
36	0x3d4d7286	0.050158046
37	0xbdd82e08	-0.10555655
38	0xbde1e2e5	-0.11029605
39	0xbe247d63	-0.16063456
40	0xbe15219b	-0.145636
41	0xbc84d04e	-0.016212609
42	0xbe363169	-0.17792286
43	0xbe74e3bb	-0.23914997
44	0xbc8b6cd2	-0.017019663
45	0x3eb54634	0.35405123
46	0xbe6e837b	-0.23292343
47	0xbe201615	-0.15633424
48	0x3e3b6029	0.18298401
49	0xbb0d4532	-0.0021556136
50	0xbd563d28	-0.052304417
51	0xbe529747	-0.2056552
52	0x3d8bba13	0.068226
53	0x3d56513c	0.052323565
54	0xbed3a812	-0.41339165
55	0x3e07b246	0.132516
56	0xbe0325e9	-0.1280743
57	0xbcfe09fd	-0.031010622
58	0x3e2739b6	0.16330609
59	0xbb77fc83	-0.0037839718
60	0xbe104ab1	-0.14090993
61	0xbaf7e274	-0.0018912093
62	0xbd68d37e	-0.05684232
63	0xbd81e6af	-0.063428275
64	0xbe16b500	-0.14717484
65	0xbcc1f31c	-0.023675494
66	0x3d2eba06	0.042657875
67	0x3e7e5c02	0.24839786
68	0xbe998446	-0.2998373
69	0x3e2ee897	0.17080913
70	0xbd65d36b	-0.056109827
71	0xbc560aab	-0.013064067
72	0x3d6a0f3f	0.057143446
73	0xbcfc8720	-0.030826151
74	0x3e00cfb7	0.12579237
75	0x3e374a93	0.17899542
76	0x3e91475f	0.28374764
77	0xbe08d81a	-0.13363686
78	0xbbe42367	-0.006962228
79	0xbe8c3d9e	-0.2739076
80	0xbd8d7f8c	-0.06909093
81	0x3d9a1a68	0.07524568
82	0x3e46b1f6	0.19403824
83	0x3b70eb7c	0.0036761453
84	0xbcd4a04b	-0.02595534
85	0xbd9ad5da	-0.0756032
86	0x3e3b6d14	0.18303329
87	0xbe0e4241	-0.13892461
88	0x3d7f9df7	0.062406506
89	0xbe31870d	-0.17336674
90	0xbe302ebb	-0.17205326
91	0xbd3d0c34	-0.046154216
92	0x3e72f60e	0.23726675
93	0xbca9ca32	-0.020726297
94	0xbd42e7ba	-0.047584273
95	0x3da6929d	0.08133433
96	0x3e129262	0.14313653
97	0xbe2bf5a6	-0.16792926
98	0x3e025fa9	0.12731804
99	0xbe171898	-0.14755476
100	0x3e3e4ddd	0.1858439
101	0xbc52bd98	-0.0128625855
102	0xbe97557f	-0.29557416
103	0xbe680c36	-0.22660908
104	0x3e0e4b2d	0.13895865
105	0xbdd9d08f	-0.106354825
106	0xbd8a2f6e	-0.06747328
107	0xbd57c976	-0.052682362
108	0x3dd0bc44	0.10192159
109	0x3e130081	0.14355661
110	0x3dc13a5d	0.0943496
111	0x3e35063d	0.17678161
112	0x3d8b47b5	0.068007864
113	0x3d9216f8	0.07133287
114	0xbe87c92d	-0.26520672
115	0xbcf3692e	-0.02971324
116	0x3e171384	0.14753538
117	0xbcce6096	-0.02519254
118	0xbeb74a3b	-0.3579882
119	0x3e46acae	0.1940181
120	0x3e83e469	0.257602
121	0xbe273fb0	-0.16332889
122	0xbdd9fe03	-0.10644152
123	0x3cfc070a	0.030765075
124	0x3dbf523e	0.09341858
125	0x3d0d4b79	0.034495804
126	0x3e7c0586	0.24611482
127	0xbe33c160	-0.17554235
128	0x3e36adf0	0.1783979
129	0xbea56f83	-0.3231164
130	0xbc89f1bf	-0.016838906
131	0xbd94a73a	-0.072584584
132	0x3eaa478b	0.33257708
133	0xbc737501	-0.014859439
134	0xbd971b28	-0.073782265
135	0xbe5da191	-0.21643664
136	0xbe4544cb	-0.19264524
137	0xbe52cb28	-0.2058531
138	0x3c7b7173	0.015346873
139	0x3efab142	0.48963362
140	0xbae73742	-0.001764037
141	0xbdd649c5	-0.10463289
142	0x3d8e75ce	0.06956063
143	0xbd709b6c	-0.05874197
144	0x3d605a35	0.054773528
145	0xba65062b	-0.0008736576
146	0x3e6a19d0	0.22861409
147	0xbc930424	-0.01794631
148	0x3db4172e	0.08793484
149	0xbe448aa8	-0.19193518
150	0xbd98b0e2	-0.07455613
151	0xbd856ce0	-0.06514907
152	0xbe6813dd	-0.22663827
153	0x3e40790e	0.18796179
154	0x3e068891	0.13138033
155	0xbe202fb1	-0.15643193
156	0xbe03c7ff	-0.12869261
157	0xbc8eb9ce	-0.017422583
158	0x3e1546c0	0.1457777
159	0x3e43dcd2	0.19127205
160	0xbe0932e2	-0.13398317
161	0x3e95c3b5	0.29250875
162	0x3db4b217	0.088230304
163	0x3d32b983	0.04363395
164	0x3e728d48	0.23686707
165	0xbd8cd726	-0.06876974
166	0x3ccfba7a	0.025357474
167	0xbe45d3bd	-0.19319053
168	0x3e0f9262	0.14020684
169	0x3eba1fea	0.36352473
170	0x3d8b51da	0.06802721
171	0xbda153ab	-0.078772865
172	0x3e34eaa1	0.17667629
173	0xbc1cfe32	-0.009582089
174	0xbdc817c6	-0.097701594
175	0x3d245852	0.04012329
176	0xbd2363b9	-0.039890025
177	0x3af14e66	0.0018410205
178	0x3e545bba	0.20738116
179	0x3e00f054	0.12591678
180	0x3c875b30	0.016522974
181	0x3e539aa5	0.20664461
182	0x3db49bdc	0.0881879
183	0xbdff696e	-0.12471281
184	0xbe2e9e0f	-0.17052482
185	0x3d9917c0	0.07475233
186	0x3befef88	0.0073222555
187	0xbe4aa646	-0.19789991
188	0xbe7171b8	-0.23578537
189	0xbdba293a	-0.090898946
190	0x3d8ca261	0.06866909
191	0x3c6a0836	0.014284184
192	0x3dc29dc9	0.095027514
193	0x3dfc04be	0.12305592
194	0x3dd8963f	0.10575532
195	0xbe43253f	-0.19057177
196	0xbe0b5e1b	-0.13610117
197	0x3d8104db	0.06299754
198	0x3dc04510	0.093881726
199	0xbd8fcaac	-0.070210785
200	0xbe6b5fd3	-0.22985773
201	0xbcba4446	-0.022737633
202	0x3d4a53b0	0.049396217
203	0xbd9cd19d	-0.07657168
204	0x3cfa24d0	0.030535132
205	0x3d0bb273	0.03410573
206	0xbdd40042	-0.10351612
207	0xbdaf01af	-0.08545243
208	0xbda92986	-0.08259873
209	0x3dcdf9c6	0.10057406
210	0x3dd42713	0.10359015
211	0x3e37e37b	0.1795787
212	0xbd88f542	-0.06687404
213	0xbd8e19a2	-0.06938483
214	0x3e227356	0.1586431
215	0x3e397b77	0.18113504
216	0xbdca71fc	-0.09885022
217	0xbd0c2761	-0.034217242
218	0x3dcc4fc8	0.099761546
219	0x3c49fb4f	0.012327983
220	0x3db0bb0e	0.08629428
221	0x3d4d31b6	0.050096236
222	0x3dea5204	0.114414245
223	0x3da60663	0.08106687
224	0xbdabfd19	-0.08397884
225	0xbc87f18d	-0.016594673
226	0xbd8e7f32	-0.06957854
227	0x3e212c9e	0.15739676
228	0x3e1d2ddc	0.15349525
229	0x3ea848e6	0.32868117
230	0xbdefdbe1	-0.117118604
231	0x3daf2a84	0.08553031
232	0xbe580a3b	-0.21097653
233	0xbd330653	-0.043707203
234	0xbe4b7cb6	-0.19871792
235	0xbe0aefc7	-0.1356803
236	0xbe8ef6bc	-0.27922618
237	0x3e1a186b	0.15048377
238	0x3de1cb7e	0.11025141
239	0xbd5457ec	-0.05184166
240	0x3d94468d	0.07240019
241	0x3bb38333	0.0054782867
242	0xbe5d1765	-0.21590956
243	0x3d416295	0.047213156
244	0x3e013352	0.12617233
245	0x3de9ba90	0.11412537
246	0xbd9491d0	-0.07254374
247	0xbdc9653a	-0.098337606
248	0xbd65f31e	-0.056140058
249	0x3cf53d15	0.029936353
250	0x3b5d38ab	0.00337557
251	0xbd23071b	-0.0398017
252	0x3cbfc8aa	0.023411114
253	0xbd85582b	-0.06510957
254	0x3e0e4543	0.13893609
255	0xbcff79da	-0.031186033

base.1linear.bias f4 [50]
0	0x3c0a61ff	0.008446216
1	0xbd6502d7	-0.05591091
2	0xbd0abb0a	-0.03386978
3	0x3c274664	0.0102096535
4	0x3d021523	0.03175844
5	0xbbe35488	-0.006937567
6	0x3daac33f	0.083380215
7	0xbb6fce48	-0.003659146
8	0x3c1cf979	0.009580963
9	0x3dd8112c	0.1055015
10	0xbc81ecfc	-0.015860073
11	0xbd2ddf92	-0.04244954
12	0xbca2a642	-0.019854669
13	0xbdaa4b13	-0.083151005
14	0x3e2925dc	0.16518348
15	0x3bf06660	0.007336423
16	0x3dbcf0e1	0.092256315
17	0xbe8f3932	-0.27973324
18	0xbd1e4d12	-0.03864772
19	0xbc0fefa2	-0.00878516
20	0x3d73a686	0.05948498
21	0xbd0aeb3e	-0.03391575
22	0xbd107a04	-0.035272613
23	0xbc649844	-0.013952319
24	0xbd42246d	-0.04739802
25	0x3c8987ed	0.016788447
26	0xbcefcc9d	-0.029272372
27	0xbdb5d50c	-0.08878526
28	0xbdbb812d	-0.09155498
29	0xbce93a2c	-0.028470121
30	0xbb3ea3ef	-0.0029089411
31	0x3d053cb1	0.032528583
32	0x3c8597c5	0.01630772
33	0xbd06bc8b	-0.032894652
34	0xbc855625	-0.016276428
35	0x3cd2dd2b	0.025740227
36	0xbc9d79e1	-0.019223155
37	0x3d9110a1	0.0708325
38	0xbbce39a3	-0.006293492
39	0xbdc9e438	-0.098579824
40	0xbdc9c7de	-0.09852575
41	0x3caea1ed	0.021317447
42	0xbc6bce40	-0.014392436
43	0x3dbe59f7	0.09294503
44	0xbe1254e3	-0.14290194
45	0xbc9dfc49	-0.019285338
46	0x3e033c70	0.12816024
47	0x3ca05e5c	0.019576244
48	0xbdf132f6	-0.11777298
49	0xbc99b028	-0.018760756

base.2linear.weight f4 [50, 50]
0	0xbcc68149	-0.02423157
1	0x3ea4bcc2	0.3217526
2	0xbdaa973a	-0.083296254
3	0xbd3023fe	-0.043003075
4	0x3e1c6cd0	0.15275884
5	0xbc92f628	-0.017939642
6	0x3e7f3ea1	0.24926235
7	0x3c80aafe	0.015706535
8	0x3e038a79	0.12845792
9	0xbdd8653e	-0.105661854
10	0x3dfe74f3	0.1242465
11	0x3deac63a	0.1146359
12	0x3d24e43f	0.040256735
13	0x3e127bbb	0.14305012
14	0xbe51d199	-0.20490111
15	0xbb351c9e	-0.0027635465
16	0x3d350713	0.0441962
17	0xbe4015c0	-0.18758297
18	0xbe60726d	-0.2191865
19	0xbdb6eb57	-0.08931606
20	0xbd720373	-0.05908532
21	0x3e134061	0.14380027
22	0xbe116033	-0.14196853
23	0x3d16df9a	0.036834337
24	0xbd926ef7	-0.07150071
25	0x3d856680	0.06513691
26	0xbdb2b9d2	-0.08726849
27	0xbe1009fc	-0.14066309
28	0xbe010cbe	-0.12602517
29	0x3e1f88bf	0.15579508
30	0xbd9f4c2e	-0.07778202
31	0xbda46bf9	-0.08028407
32	0xbca0b512	-0.019617591
33	0x3de7ab4c	0.11311969
34	0xbe421298	-0.18952405
35	0xbd971478	-0.07376951
36	0x3bd4cde6	0.0064942716
37	0x3d29124b	0.04127721
38	0x3e38fb91	0.18064715
39	0x3ce5e7f0	0.028064698
40	0x3e12f2c1	0.14350416
41	0x3d177902	0.036980636
42	0x3d9c4c1e	0.07631706
43	0x3eaa0b18	0.3321159
44	0x3e8c3331	0.27382806
45	0xbe0b004f	-0.13574336
46	0xbe2162ae	-0.157603
47	0xbd7efcc5	-0.06225278
48	0x3ed743ce	0.42043918
49	0x3dc43afa	0.095815614
50	0x3dcac342	0.09900524
51	0xbe1e832f	-0.1547973
52	0xbd2ca8cd	-0.04215317
53	0xbe1432d2	-0.14472511
54	0xbd6c0a7b	-0.057627182
55	0x3c83ec07	0.016103758
56	0xbdf63cdd	-0.120233275
57	0xbdf4c2dc	-0.11951229
58	0x3d3e63f7	0.046482053
59	0xbcd1ac24	-0.025594778
60	0x3e9deda9	0.30845383
61	0x3dc08369	0.094000645
62	0x3ddb76b8	0.10716003
63	0x3d93e770	0.072218776
64	0x3d7f3ccb	0.062313836
65	0x3d46d8f3	0.048546743
66	0xbe039b03	-0.12852101
67	0x3df142d2	0.11780323
68	0x3d2626e6	0.04056444
69	0x3d3310f2	0.043717332
70	0xbd717011	-0.058944765
71	0xbd0035d4	-0.031301335
72	0xbc634bae	-0.013873024
73	0xbdd972b7	-0.10617583
74	0x3d17d6ce	0.037070088
75	0x3d2e6dd7	0.04258522
76	0xbde022c5	-0.10944132
77	0xbd8b0f6c	-0.06790051
78	0xbe87d2bb	-0.26527962
79	0xbd24f375	-0.04027124
80	0xbe284a79	-0.16434659
81	0x3b28e88c	0.0025773374
82	0xbe47a801	-0.19497682
83	0xbe28d8e0	-0.16488981
84	0xbdcfd91f	-0.101488344
85	0xbd80974b	-0.06278857
86	0xbd8ef440	-0.06980181
87	0xbdb46775	-0.08808795
88	0xbd5fdb40	-0.054652452
89	0xbda38746	-0.07984786
90	0xbe4da0d6	-0.20080885
91	0xbe30942d	-0.17244025
92	0xbd0bae35	-0.034101684
93	0x3e205e9c	0.1566109
94	0x3d42ee8b	0.047590774
95	0x3e513629	0.20430817
96	0xbc1adc51	-0.009451942
97	0x3d97604f	0.07391416
98	0x3bfbf98a	0.0076896595
99	0xbde75e7a	-0.11297317
100	0x3cbfff02	0.023437027
101	0xbe80892d	-0.25104657
102	0x3dc003bc	0.09375712
103	0x3e54d20d	0.20783253
104	0x3ca45f95	0.020065108
105	0x3de00c06	0.10939793
106	0xbe2fbdaa	-0.17162195
107	0x3e19a3f3	0.15003948
108	0x3ceab482	0.028650526
109	0x3e91fd36	0.28513497
110	0xbbe92f13	-0.0071162074
111	0xbd848a0c	-0.06471643
112	0xbd69a71e	-0.05704414
113	0x3e844210	0.25831652
114	0x3e9c7969	0.3056138
115	0x3d205b60	0.039149642
116	0xbd821a0c	-0.06352624
117	0xbdcc8e0a	-0.09988029
118	0x3de55e5e	0.1119964
119	0x3e2ad422	0.16682485
120	0x3e156a8f	0.1459143
121	0x3e475b0f	0.1946833
122	0x3e29a417	0.16566502
123	0x3beeab57	0.007283609
124	0xbc83b50d	-0.016077543
125	0x3c9b6578	0.018969283
126	0x3e1c4e55	0.15264256
127	0x3cf36969	0.02971335
128	0xbdd9b724	-0.106306344
129	0x3d6827bb	0.056678515
130	0xbe0f4fc6	-0.13995275
131	0xbe87f352	-0.26552826
132	0xbd808459	-0.06275243
133	0xbde8467c	-0.11341569
134	0x3e04d4c7	0.12971793
135	0xbb7afabc	-0.0038296422
136	0xbcd882df	-0.026429592
137	0xbe215630	-0.15755534
138	0xbe424a6e	-0.18973705
139	0xbb1b0e2d	-0.0023659572
140	0xbdfba3b9	-0.12287087
141	0xbdb1404b	-0.08654841
142	0x3dc580c3	0.096437
143	0xbe387c1d	-0.18016095
144	0xbde9613c	-0.11395499
145	0xbe32003b	-0.173829
146	0x3e116058	0.14196908
147	0xbe8d9d1f	-0.27658936
148	0xbe1b857f	-0.15187643
149	0x3ecfb86d	0.40570393
150	0xbeafbc05	-0.34323135
151	0x3ec5f70f	0.38665053
152	0x3efc3f22	0.49266917
153	0x3e1bd0b6	0.15216336
154	0xbebfcc1c	-0.3746041
155	0x3ecd3736	0.40081185
156	0x3de2f164	0.11081198
157	0xbea5a109	-0.32349423
158	0xbcfa21cf	-0.0305337
159	0xbd09d750	-0.033652604
160	0x3e68eaa4	0.22745758
161	0xbd053753	-0.032523464
162	0xbeed013f	-0.46290013
163	0xbe193648	-0.14962113
164	0x3cf482f3	0.029847598
165	0xbc6e37cb	-0.014539669
166	0x3dfe50bd	0.12417743
167	0xbece7087	-0.40320227
168	0xbd29d690	-0.04146439
169	0x3cb289a7	0.021794153
170	0x3ee7a9d1	0.45246747
171	0xbeb33931	-0.3500457
172	0x3e0e14fa	0.1387519
173	0x3cedf2b5	0.029046396
174	0xbee30e6b	-0.44346938
175	0xbbb571f4	-0.005537266
176	0xbede3345	-0.4339849
177	0xbe921ef8	-0.28539252
178	0xbeb75ed5	-0.3581454
179	0x3e1c02e5	0.15235479
180	0xbc434c14	-0.011919994
181	0xbe9702d3	-0.29494342
182	0xbdd623d0	-0.104560494
183	0x3dcb8180	0.099368095
184	0x3ec1a03f	0.3781757
185	0xbd3a12e3	-0.045428168
186	0x3dbcd13d	0.092195965
187	0x3d86bfde	0.065795645
188	0x3e93a1b3	0.28834304
189	0x3cf79963	0.030224508
190	0x3e77c184	0.24194914
191	0x3f14b2e8	0.5808549
192	0x3f103bd7	0.5634131
193	0xbe19bca9	-0.15013374
194	0xbf1d2d44	-0.61397195
195	0xbc4e8bce	-0.012606574
196	0x3f29e549	0.66365486
197	0x3d02d7b0	0.031943977
198	0x3e613cc8	0.21995842
199	0xbe8c0f6e	-0.27355522
200	0xbcf7a809	-0.030231493
201	0xbd6c1a02	-0.05764199
202	0x3e0cc447	0.13746749
203	0xbd766cd5	-0.060162384
204	0x3de9632f	0.11395871
205	0x3e35f37b	0.17768662
206	0x3e2bb912	0.16769817
207	0x3dcc57ce	0.09977685
208	0xbe374973	-0.17899112
209	0xbb821a65	-0.0039704316
210	0x3d3914a9	0.04518572
211	0x3c126847	0.0089359945
212	0xbda12a1e	-0.07869361
213	0xbda6445f	-0.081185095
214	0x3de17945	0.110094585
215	0x3cc98495	0.024599353
216	0x3dd18e3b	0.102322064
217	0x3e747bd0	0.23875356
218	0xbd16216a	-0.03665296
219	0x3c8ace3e	0.016944047
220	0xbcc2554f	-0.023722319
221	0x3dba96b7	0.09110778
222	0x3e0fa930	0.14029384
223	0xbe833aaa	-0.25630695
224	0x3e11da21	0.14243366
225	0x3d823eba	0.063596204
226	0xbe181114	-0.14850265
227	0xbc132772	-0.008981572
228	0x3d1881d2	0.03723318
229	0xbe44128f	-0.19147705
230	0x3da80a70	0.08205116
231	0x3e1c48c2	0.1526213
232	0xbc8fd5d5	-0.017558018
233	0xbe3cce5f	-0.184381
234	0xbdb3c9d6	-0.087787315
235	0x3cc090de	0.023506578
236	0xbe5a0dac	-0.21294278
237	0x3e8cf399	0.275296
238	0x3c49bd59	0.01231321
239	0x3d5a9af6	0.05337044
240	0x3e86ac06	0.26303118
241	0x3e7b76dd	0.24557061
242	0x3ea23ef9	0.3168867
243	0xbe2a90c6	-0.16656789
244	0xbdd5c8bb	-0.10438677
245	0xbe51b6c1	-0.20479871
246	0xbd2f8564	-0.04285182
247	0xbe5f3546	-0.21797666
248	0x3cf726d3	0.03016988
249	0x3e6f8acb	0.23392789
250	0xbd901715	-0.070356525
251	0x3df35838	0.11882061
252	0xbe489e0c	-0.1959154
253	0x3d1c0836	0.038093768
254	0xbe357b99	-0.1772293
255	0x3dd3b2fe	0.103368744

base.2linear.bias f4 [50]
0	0x3d85086e	0.064957485
1	0xbd4dc19c	-0.05023347
2	0x3c9ba5d2	0.018999968
3	0x3e8a54ba	0.27017766
4	0x3c2ea7c0	0.010660112
5	0xbda164b5	-0.078805365
6	0xbdbc05fb	-0.09180828
7	0x3da2b585	0.07944778
8	0xbc286623	-0.010278258
9	0x3e1e1761	0.15438606
10	0xbad2b7fe	-0.0016076562
11	0xbd590fcc	-0.05299358
12	0xbd721cb9	-0.059109423
13	0x3dcba7d8	0.09944123
14	0xbdf8340e	-0.12119304
15	0x3cd32ac0	0.02577722
16	0x3d379a8b	0.044825118
17	0xbc55607f	-0.013023495
18	0x3cdde7f2	0.02708814
19	0x3db4fa34	0.08836785
20	0xbdbf727a	-0.093480065
21	0x3ec2a73e	0.3801822
22	0xbe17b2f0	-0.14814353
23	0xbd18212d	-0.037141014
24	0xbbe0fd0b	-0.0068661026
25	0x3dc463c5	0.09589342
26	0x3df002d9	0.11719293
27	0x3ce0d3e3	0.027444785
28	0xbd9e166e	-0.07719122
29	0xbcffdae0	-0.031232297
30	0x3c9d6913	0.019215142
31	0xbaf1dedb	-0.0018453257
32	0x3cd1c0dc	0.025604658
33	0xbc82f9c1	-0.015988233
34	0xbd369dd0	-0.044584095
35	0x3dec7fef	0.11547839
36	0xbcb05f47	-0.021529807
37	0xbcd6ea1d	-0.02623468
38	0x3dcc1440	0.099648
39	0xbd76ecf0	-0.060284555
40	0xbd577f8b	-0.05261187
41	0x3e1c0275	0.15235312
42	0xbb975a53	-0.004618922
43	0xbd0dda32	-0.034631915
44	0xbc745989	-0.014913925
45	0xbbc35d41	-0.0059620445
46	0x3e5f2e3b	0.2179498
47	0xbe1e19c2	-0.15439513
48	0x3a3e21dd	0.0007252971
49	0x3d5e51e0	0.0542773

base.3linear.weight f4 [50, 50]
0	0xbc3d9541	-0.011571229
1	0x3d866edd	0.06564114
2	0xbcbe21f7	-0.023209555
3	0x3e70687a	0.23477355
4	0x3e5b7dfc	0.21434778
5	0xbe7592cd	-0.23981781
6	0x3c65dfbc	0.014030393
7	0x3e97e710	0.29668474
8	0xbc927e00	-0.017882347
9	0x3e43fba6	0.19138965
10	0xbea83247	-0.3285086
11	0xbea12417	-0.31472847
12	0x3e60173b	0.21883862
13	0x3d646c21	0.055767182
14	0xbddcf970	-0.10789764
15	0x3c59bc14	0.01328947
16	0xbea94beb	-0.33065733
17	0xbe6058f0	-0.21908927
18	0xbdc11a51	-0.094288476
19	0xbd2ff56e	-0.04295867
20	0x3caaec4c	0.020864628
21	0x3e77c31b	0.2419552
22	0xbd8c0d04	-0.0683842
23	0xbc8043cb	-0.015657326
24	0x3d52eea8	0.05149713
25	0x3ed4be8b	0.41551623
26	0x3e1c9e43	0.15294747
27	0x3d2c14a2	0.042011864
28	0x3e273d40	0.16331959
29	0xbba0ecc9	-0.0049110395
30	0x3e3af5df	0.18257855
31	0xbe1c8829	-0.15286316
32	0xbe26be33	-0.16283493
33	0x3e373639	0.17891778
34	0xbdd47d2e	-0.10375439
35	0xbdde5868	-0.10856706
36	0x3da27c98	0.079339206
37	0x3ed40698	0.4141128
38	0x3d12ebda	0.035869457
39	0x3bb4c969	0.005517174
40	0xbe185406	-0.14875802
41	0x3e869496	0.26285237
42	0x3edbe4a9	0.4294789
43	0x3c886c4a	0.016653199
44	0x3d9d2089	0.07672221
45	0xbe97f3f2	-0.29678303
46	0x3ebb0c6e	0.3653292
47	0xbe90ed78	-0.28306174
48	0xbac21ea1	-0.0014810154
49	0xbcadc1b1	-0.021210523
50	0x3e32a9ab	0.17447536
51	0x3d2bc309	0.041934047
52	0xbded16c1	-0.115766056
53	0xbdf68035	-0.12036172
54	0xbe430d62	-0.19048074
55	0xbdc82e1d	-0.097744204
56	0x3cfc1b28	0.030774668
57	0x3a3a9eda	0.00071190076
58	0x3d53c801	0.05170441
59	0x3e57e2f0	0.21082664
60	0xbd83f659	-0.064434715
61	0xbea16b9b	-0.3152741
62	0xbc16dbe9	-0.009207704
63	0x3daa140c	0.08304605
64	0x3d8113ff	0.06302642
65	0xbd85c90b	-0.065324865
66	0xbd67d72f	-0.0566017
67	0xbe66adec	-0.22527283
68	0x3e12c5d6	0.14333281
69	0xbcd953e8	-0.026529267
70	0x3e520142	0.20508292
71	0x3dd0cdd4	0.101955086
72	0x3e630fe4	0.2217403
73	0xbda50c4f	-0.08058988
74	0xbd872311	-0.06598485
75	0x3d5d68e6	0.054055117
76	0x3dd0e9b6	0.10200827
77	0x3dee5d72	0.11638917
78	0x3d809424	0.062782556
79	0x3dc20925	0.094744004
80	0x3e236e89	0.15960135
81	0x3c6d1acf	0.014471724
82	0x3e0418f2	0.12900141
83	0xbdd4eca0	-0.10396695
84	0x3ded18b3	0.115769766
85	0xbcfedce8	-0.031111196
86	0x3e5e6cbc	0.21721166
87	0xbc123c5f	-0.008925526
88	0x3d2055f7	0.039144482
89	0xbc68f460	-0.01421842
90	0xbe5df8b0	-0.21676898
91	0xbdbda669	-0.09260256
92	0x3e1d4920	0.15359926
93	0xbda4f820	-0.080551386
94	0x3d9c9dd1	0.076472886
95	0x3befcd77	0.0073181945
96	0x3dd35602	0.10319139
97	0xbc1f95d3	-0.009740311
98	0xbcf24c7e	-0.02957749
99	0x3e2352c4	0.15949541
100	0x3e3e1c27	0.18565427
101	0x3e2461a7	0.16052876
102	0x3d93044f	0.07178556
103	0x3e753090	0.23944306
104	0xbdfe0c32	-0.1240467
105	0xbcd05abd	-0.025433892
106	0xbd36bc64	-0.044613257
107	0x3d14ea90	0.03635651
108	0xbd0755be	-0.033040754
109	0xbbde6052	-0.0067863846
110	0x3e0a41ac	0.13501614
111	0x3dc1e87d	0.09468172
112	0x3e3f9f5d	0.18713136
113	0xbe1febc7	-0.15617286
114	0x3db8f431	0.09030951
115	0xbcef222b	-0.029191097
116	0x3c39b8a5	0.011335527
117	0x3d3fff9d	0.04687463
118	0xbe43b214	-0.191109
119	0x3e8a8af9	0.27059153
120	0xbe530ead	-0.20611067
121	0xbda72667	-0.081616215
122	0xbda93f4d	-0.08264027
123	0xbc848c8b	-0.016180297
124	0x3d87dea1	0.0663426
125	0x3e5e144a	0.21687427
126	0x3e9e139a	0.3087433
127	0x3d73e3b8	0.05954334
128	0x3ddb8ed0	0.10720599
129	0x3c91a77c	0.017780058
130	0xbe0df31e	-0.13862273
131	0x3dec722f	0.11545216
132	0xbc2c478c	-0.010515105
133	0xbcd1701a	-0.02556615
134	0xbdf45a88	-0.1193133
135	0x3e3bb82d	0.18331976
136	0x3deb000a	0.11474617
137	0xbdbff4b2	-0.09372844
138	0xbd03f853	-0.032219242
139	0x3ddb0651	0.10694564
140	0x3de2b76a	0.1107014
141	0xbdfc6a3d	-0.12324951
142	0xbe425f2b	-0.18981616
143	0xbb5e8037	-0.0033950934
144	0x3d62e77f	0.055396553
145	0x3d7dfd02	0.062008865
146	0x3bf80d50	0.0075699463
147	0xbe5ab808	-0.21359265
148	0x3e0ea65a	0.13930646
149	0x3d26d991	0.04073483
150	0x3d53ec5d	0.051739085
151	0xbe49c46a	-0.19703832
152	0x3d02cbd5	0.03193267
153	0xbe01bb3b	-0.12669079
154	0xbe16d25e	-0.14728686
155	0x3e377624	0.17916161
156	0xbddde712	-0.10835089
157	0xbdfd7f3a	-0.12377782
158	0x3941dcc1	0.00018488152
159	0x3e80aef2	0.25133473
160	0xbb8a26b3	-0.004216039
161	0xbe35d0e9	-0.17755474
162	0xbe9c34ec	-0.30509126
163	0x3e10bfce	0.14135668
164	0xbe6c8df2	-0.23101023
165	0x38b96f85	8.8422596e-05
166	0x3e24d002	0.16094974
167	0x3e3d5ace	0.1849167
168	0x3d945e19	0.0724451
169	0xbe6ecfde	-0.23321483
170	0x3d3473a1	0.044055585
171	0xbd8b72a4	-0.06808975
172	0x3d385b25	0.045008797
173	0x3a2b0271	0.0006523496
174	0xbe48b2a9	-0.19599403
175	0xbd96eba3	-0.07369163
176	0x3d8173c2	0.06320907
177	0x3e480d4e	0.19536325
178	0xbda6eb3f	-0.081503384
179	0x3c460abf	0.012087523
180	0xbe45ffae	-0.19335815
181	0x3e0de32c	0.1385619
182	0x3db643bc	0.08899638
183	0xbc85d5dd	-0.01633733
184	0xbe7943d6	-0.24342284
185	0x3d7bc356	0.061465584
186	0xbb6fc9fa	-0.0036588893
187	0x3ad86cad	0.001651188
188	0x3e0b8570	0.13625121
189	0x3da330bb	0.07968279
190	0xbc9e3ac4	-0.019315131
191	0xbdcc0ac3	-0.0996299
192	0xbda0e176	-0.07855503
193	0xbcfed5ab	-0.031107744
194	0x3d5b8618	0.05359468
195	0xbcb0ab0c	-0.021565937
196	0x3e8b0f76	0.27160233
197	0xbdb4688f	-0.088090055
198	0x3c12649a	0.008935118
199	0x3d3c0f89	0.045913253
200	0xbd7e86c9	-0.06214026
201	0xbe65e5e4	-0.22450978
202	0x3ea757e3	0.3268424
203	0xbcb55a7e	-0.022137877
204	0x3d24632c	0.04013364
205	0xbca157a8	-0.019695118
206	0xbdbb2d71	-0.09139527
207	0x3ddf64f9	0.10907931
208	0x3be5b13b	0.007009653
209	0xbd2126b6	-0.03934356
210	0xbc471e01	-0.01215315
211	0xbd21a53e	-0.039464228
212	0xbdef6de4	-0.11690882
213	0xbd46047c	-0.04834412
214	0x3e3dc8f7	0.18533693
215	0xbb2bccc5	-0.0026214581
216	0xbe70f404	-0.23530585
217	0x3e1ba125	0.1519819
218	0x3d7a7bf3	0.061153363
219	0xbea08f80	-0.31359482
220	0x3e99c570	0.30033445
221	0xbf02be88	-0.5107198
222	0x3d3665f2	0.044530816
223	0x3cb97cb5	0.022642473
224	0xbe4d4e0a	-0.20049301
225	0x3e06b641	0.13155462
226	0xbdba383b	-0.09092756
227	0xbdf4a4b0	-0.11945474
228	0xbcfe0661	-0.031008901
229	0x3b9561c7	0.004558775
230	0x3c8eca59	0.017430471
231	0xbe68d07b	-0.22735779
232	0xbda02428	-0.07819396
233	0xbd37c8e3	-0.044869315
234	0xbc6153b9	-0.013752871
235	0x3e624d38	0.22099769
236	0x3e02fb90	0.12791276
237	0x3e125133	0.14288788
238	0x3b41b29f	0.002955593
239	0x3eba0b85	0.36336914
240	0x3df727b1	0.120681174
241	0xbe524f90	-0.20538163
242	0x3d25a6cf	0.040442284
243	0x3c814aae	0.01578268
244	0x3de90afb	0.113790475
245	0xbd507d4a	-0.050900735
246	0xbec00b21	-0.3750849
247	0xbccab69b	-0.024745276
248	0x3cb56b0d	0.022145772
249	0xbd756c0e	-0.059917502
250	0x3ea5f9ca	0.32417136
251	0x3ca1a476	0.019731741
252	0x3da96009	0.082702704
253	0x3e905bca	0.2819503
254	0x3e8180d4	0.252936
255	0xbdc89ae0	-0.09795165

base.3linear.bias f4 [50]
0	0x3dd20007	0.102539115
1	0xbcc09ee7	-0.02351327
2	0x3ccc52cb	0.024941823
3	0x3d9e59dc	0.07731983
4	0xbd8ab5f2	-0.067729846
5	0x3e057bb2	0.13035467
6	0xbdbf87d2	-0.093520775
7	0x3d417b59	0.047236774
8	0x3c00279c	0.007821944
9	0x3bab9fad	0.0052375407
10	0xbd4f3df0	-0.050596178
11	0xbe3419dc	-0.1758799
12	0x3d865bf2	0.06560506
13	0x3d91d1f2	0.07120122
14	0x3dcd59ae	0.10026871
15	0x3c365e7a	0.011130923
16	0xbcd48eb3	-0.02594695
17	0xbe1cc95b	-0.15311186
18	0xbd6c1c5b	-0.05764423
19	0x3dd098b9	0.101853795
20	0xbd82f9bd	-0.0639529
21	0x3d016fbd	0.031600703
22	0xb9f14dfe	-0.0004602521
23	0x3d291b0c	0.04128556
24	0x3cddd280	0.027077913
25	0xbd1b2954	-0.03788121
26	0xbd64dc6e	-0.05587428
27	0xbd961fd9	-0.07330293
28	0xbc72d37f	-0.014820932
29	0xbd53549e	-0.05159437
30	0x3ce7fe73	0.028319573
31	0xbc9a0412	-0.018800769
32	0x3d08c78e	0.033393435
33	0xbdb75ed8	-0.08953637
34	0xbd4d5dcd	-0.050138284
35	0xbd733daf	-0.059384998
36	0x3cb908a1	0.022587122
37	0x3d1d153a	0.03835032
38	0xbccb68ec	-0.024830304
39	0x3d32e6c6	0.043677114
40	0xbdc38c00	-0.09548187
41	0x3ce77a0c	0.028256439
42	0x3dae011c	0.08496305
43	0xbdbe2390	-0.09284127
44	0xbd362c50	-0.044475853
45	0xbd28fb95	-0.041255552
46	0xbd2eab2c	-0.04264371
47	0x3a17c9db	0.00057902717
48	0xbda3fbb1	-0.08006991
49	0x3d5be699	0.053686712

base.4linear.weight f4 [50, 50]
0	0xbe3597bc	-0.17733663
1	0x3d9d9a80	0.07695484
2	0xbbde9d8c	-0.0067936834
3	0xbd2c5def	-0.04208177
4	0xbdcec73a	-0.10096593
5	0x3cacb5de	0.021082815
6	0xbd2e0295	-0.04248293
7	0x3dada897	0.084794216
8	0xbde92eaa	-0.113858536
9	0x3d91a122	0.07110812
10	0xbd8b171e	-0.06791519
11	0xbe146448	-0.1449138
12	0xbe10080e	-0.14065573
13	0xbdd79e9d	-0.105283
14	0x3cba173d	0.022716159
15	0xbdb66be8	-0.089073
16	0xbd3d40b6	-0.04620429
17	0xbe3187ba	-0.17336932
18	0x3df2a688	0.118481696
19	0x3aaa7212	0.0013003966
20	0x3b20be86	0.0024527623
21	0xbe15dcde	-0.14635035
22	0x3d3f7928	0.046746403
23	0xbeafbf9c	-0.34325874
24	0x3da58b3b	0.08083197
25	0x3d4defad	0.0502774
26	0x3decd473	0.11563959
27	0xbd435b74	-0.04769464
28	0xbe8e1e11	-0.27757314
29	0x3d8f73a4	0.070044786
30	0xbe88f195	-0.26746812
31	0xbd9a38d7	-0.075303726
32	0x3d4df52a	0.050282635
33	0xbe426901	-0.18985368
34	0xbd991561	-0.07474781
35	0x3e10b94e	0.14133188
36	0x3dd26ae8	0.10274297
37	0xbe838a00	-0.25691223
38	0xbcf09df5	-0.029372195
39	0xbd882350	-0.0664736
40	0xbe201e70	-0.15636611
41	0xbb63eca3	-0.0034778498
42	0xbe0f4e99	-0.13994826
43	0xbe20dc37	-0.15709005
44	0x3e790853	0.24319582
45	0x3e4e9438	0.20173728
46	0xbcbb3f75	-0.022857407
47	0x3de4b36d	0.11167035
48	0x3e3a48ab	0.18191783
49	0xbe040599	-0.1289276
50	0xbd4bb86d	-0.04973643
51	0x3b873ce7	0.004127133
52	0xbd63497e	-0.05549001
53	0x3c0fcd2a	0.008776942
54	0x3d94f185	0.07272629
55	0xbe54218b	-0.2071592
56	0xbe5c4b2d	-0.21513052
57	0xbe110c73	-0.14164905
58	0x3e1e33d9	0.15449466
59	0x3e38b4f0	0.18037772
60	0xbdf92101	-0.12164498
61	0x3eed12a1	0.46303275
62	0xbdc7e9e4	-0.09761408
63	0xbd361cf2	-0.0444612
64	0xbe3a5aa6	-0.18198642
65	0xbce7a3af	-0.028276293
66	0xbe5d6859	-0.21621837
67	0x3ecc830e	0.39943737
68	0x3d3cc29e	0.04608404
69	0xbe6b8446	-0.22999677
70	0x3d2e5bde	0.04256808
71	0xbcd787ea	-0.026309926
72	0x3d9d0ee6	0.07668857
73	0xbd879d89	-0.06621844
74	0x3dfa59bb	0.12224146
75	0x3e18344f	0.14863704
76	0xbe18e3dc	-0.14930671
77	0xbec231a1	-0.3792849
78	0xbd8b3d87	-0.06798845
79	0x3d7871be	0.060655348
80	0xbdef8324	-0.11694935
81	0x3e9aef66	0.30260772
82	0x3c699d78	0.014258735
83	0x3eb8ba8c	0.36079824
84	0xbd5704ab	-0.052494686
85	0xbe038bc6	-0.12846288
86	0xbd3b7369	-0.04576436
87	0x3d9d8168	0.07690698
88	0x3e5703d2	0.20997551
89	0x3eaee88c	0.34161794
90	0x3ec88eb3	0.3917137
91	0x3ddeb21d	0.10873816
92	0x3e001e19	0.12511481
93	0xbd41fa08	-0.04735759
94	0x3e2f1966	0.17099532
95	0xbe0390dc	-0.12848228
96	0x3e26ac37	0.16276632
97	0x3e542329	0.20716538
98	0xbd810dcf	-0.06301462
99	0xbcf0c530	-0.029390901
100	0x3e0e3efd	0.13891216
101	0xbd2098a4	-0.03920807
102	0x3d111602	0.03542138
103	0xbdc85ad9	-0.09782953
104	0x3e427038	0.1898812
105	0xbcea114e	-0.028572705
106	0x3d8165d1	0.06318248
107	0x3e6d2b11	0.2316096
108	0x3d0cbdd3	0.034360718
109	0xbe3ca0d6	-0.18420729
110	0x3d3f6f2a	0.046736874
111	0xbc020c20	-0.007937461
112	0xbe0f08c8	-0.13968194
113	0x3dbd5f6f	0.09246718
114	0xbe1699fe	-0.14707181
115	0x3c60504e	0.013691021
116	0x3c063f8f	0.0081938645
117	0x3e401a36	0.18759999
118	0x3e48b645	0.1960078
119	0xbe01e946	-0.12686643
120	0x3c87ae5a	0.01656263
121	0xbdef03dc	-0.11670658
122	0xbe758ed3	-0.23980264
123	0xbd575355	-0.052569706
124	0x3e13d2e7	0.14435922
125	0xbd6a70f5	-0.05723663
126	0x3c1196ec	0.00888608
127	0xbe3742df	-0.17896603
128	0xbd8483fc	-0.064704865
129	0xbbdb1efc	-0.0066870432
130	0xbdb474c8	-0.08811337
131	0xbd873c33	-0.06603279
132	0xbe5d5032	-0.21612623
133	0x3dcada7b	0.09904953
134	0x3e45fb32	0.19334105
135	0x3d6964ac	0.056980774
136	0xbd33645b	-0.04379688
137	0xbdee6e9d	-0.116421916
138	0xbd202b68	-0.039103895
139	0xbddcbc56	-0.1077811
140	0xbe4bb09a	-0.19891587
141	0x3d9125e8	0.07087308
142	0x3d257d6c	0.040402815
143	0x3d62fd4d	0.055417348
144	0xbded499b	-0.11586305
145	0xbdeb987c	-0.115036935
146	0xbd9daafe	-0.0769863
147	0xbd3a69ba	-0.045510985
148	0xbdb85f19	-0.090025134
149	0xbe839b72	-0.25704533
150	0x3e09d973	0.13461857
151	0x3d827c24	0.06371334
152	0xbe693d39	-0.22777261
153	0x3d54c0e5	0.05194177
154	0xbaebedad	-0.001799991
155	0xbc234ac5	-0.009966557
156	0x3e00f468	0.12593234
157	0x3d821649	0.06351907
158	0xbe4a00ef	-0.19726919
159	0xbe8e3d50	-0.27781153
160	0x3df1632c	0.11786494
161	0xbe15011a	-0.14551201
162	0xbe54f980	-0.20798302
163	0xbe24911f	-0.16070984
164	0xbe20fea6	-0.1572214
165	0xbccea8a1	-0.025226893
166	0x3e6280a7	0.2211939
167	0x3d681da5	0.056668896
168	0x3db3586c	0.087570995
169	0xbe4c8bac	-0.19975156
170	0x3e27c7cc	0.1638481
171	0xbd675b47	-0.056483533
172	0xbd6e3c3d	-0.058162916
173	0xbe9b0c6e	-0.3028292
174	0xbe48ea16	-0.19620547
175	0x3d7bf535	0.061513145
176	0x3e076ae6	0.13224372
177	0x3e1350d6	0.14386305
178	0x3e0f6422	0.14003041
179	0xbdc970bf	-0.09835958
180	0x3e50bc2e	0.20384285
181	0xbe8bbb4b	-0.2729133
182	0x3e29a16d	0.16565485
183	0x3e2e6a5e	0.17032763
184	0x3de57ac8	0.11205059
185	0xbd8d9912	-0.069139615
186	0x3c0f4b36	0.008745959
187	0x3e3c16a3	0.1836801
188	0xbe25e555	-0.16200764
189	0xbda0fcb8	-0.07860702
190	0x3e4b24d3	0.19838266
191	0x3d8add4d	0.06780491
192	0xbd856b67	-0.06514626
193	0x3ec4bd42	0.38425642
194	0xbe272a72	-0.16324785
195	0x3d1445d2	0.0361994
196	0x3cc58201	0.024109842
197	0x3dc0ba61	0.09410549
198	0x3e2fcd51	0.17168166
199	0x3c6fd3bb	0.014637883
200	0xbe4bb22d	-0.19892187
201	0x3caee235	0.021348098
202	0xbea576ad	-0.32317105
203	0xbdeb94a6	-0.11502962
204	0x3d4d6e65	0.05015411
205	0x3e272547	0.16322814
206	0xbd646f89	-0.05577043
207	0x3c7b910b	0.015354405
208	0xbdb5bd4f	-0.088739984
209	0xbdb980b5	-0.09057752
210	0xbce5568c	-0.02799537
211	0x3c049690	0.0080925375
212	0xbeac98fe	-0.33710474
213	0x3cae004d	0.021240378
214	0xbe82cad8	-0.25545382
215	0x3d9392fe	0.07205771
216	0x3e44d272	0.19220904
217	0xbe09660b	-0.13417833
218	0xbdf5a582	-0.11994459
219	0xbddde42b	-0.10834535
220	0x3e490e52	0.19634369
221	0x3e8ff99a	0.28120118
222	0x3e9ce1cd	0.30641022
223	0xbdc9c6fc	-0.098524064
224	0x3d94cab6	0.072652265
225	0x3e6d5770	0.23177886
226	0xbda43ae9	-0.08019049
227	0x3e3925a1	0.1808076
228	0xbe4de0fa	-0.20105353
229	0xbe3c47c3	-0.1838675
230	0xbd6a77ff	-0.057243343
231	0x3d0fc14b	0.035096448
232	0x3e23b835	0.15988238
233	0x3c1a022f	0.009399935
234	0xbd0102ee	-0.031496935
235	0xbd5c8cf5	-0.053845365
236	0xbc77f90b	-0.01513506
237	0xbd9ae25d	-0.075627066
238	0x3d58d67f	0.052938934
239	0xbe43760f	-0.19088005
240	0xbd6b01ff	-0.05737495
241	0xbcbeb750	-0.02328077
242	0xbe4e668c	-0.20156306
243	0x3e8bc15b	0.27295956
244	0x3e156dab	0.14592616
245	0x3e0f7d81	0.1401272
246	0xbd10aada	-0.035319187
247	0x3d529cdd	0.051419128
248	0x3e23cbac	0.15995663
249	0xbe6c591e	-0.2308087
250	0x3d1e8b44	0.038707033
251	0x3d243500	0.040089607
252	0xbd7bebd2	-0.061504193
253	0x3d2fc181	0.04290915
254	0x3e503d1f	0.20335816
255	0xbee98156	-0.45606488

base.4linear.bias f4 [50]
0	0xbdd283cb	-0.10279044
1	0x3d48409d	0.048889745
2	0xbdcb2322	-0.099188104
3	0xbd87f09d	-0.0663769
4	0xbda73766	-0.08164863
5	0xbbb27bf2	-0.0054469043
6	0xbc821aeb	-0.015881976
7	0x3df6f71a	0.1205885
8	0x3da0c20f	0.07849514
9	0xbdb2d6bf	-0.08732366
10	0xbe1b3af4	-0.15159208
11	0x3d2e76a8	0.04259363
12	0xbbc63da6	-0.0060498295
13	0xbd813a83	-0.06309988
14	0xbb86699e	-0.004101946
15	0x3cb93b50	0.02261129
16	0x3db0a942	0.08626033
17	0xbd57bb39	-0.052668784
18	0x3dd4e8bc	0.10395953
19	0xbd201289	-0.039080177
20	0xbe27c6c7	-0.16384421
21	0x3de877ef	0.113510005
22	0xbd96a890	-0.073563695
23	0x3daa2bae	0.083091125
24	0xbc397844	-0.0113201775
25	0xbceb352d	-0.02871188
26	0xbd219575	-0.039449174
27	0xbd3bac5e	-0.04581868
28	0xbd647a26	-0.055780552
29	0xbca0919b	-0.01960068
30	0x3be0e712	0.006863483
31	0xbc2b3fdf	-0.01045224
32	0xbe233b06	-0.15940484
33	0xbcc94e4e	-0.024573471
34	0xbd9ed404	-0.077552825
35	0xbe289076	-0.16461357
36	0xbd6428de	-0.055703036
37	0x3d58a6af	0.052893337
38	0xbde1545f	-0.11002421
39	0x3a4ffd4f	0.0007934169
40	0xba706e0b	-0.0009171671
41	0x3d8cfd94	0.06884304
42	0xbced5267	-0.028969957
43	0xbce6afc4	-0.028159983
44	0xbce89e40	-0.028395772
45	0x3dc02e07	0.09383779
46	0xbd3f97de	-0.04677569
47	0xbd912456	-0.07087009
48	0xbd9315ec	-0.07181916
49	0x3c8496ae	0.01618513

base.5linear.weight f4 [50, 50]
0	0x3df8e936	0.121538565
1	0x3ec6b21d	0.38807765
2	0x3daa09bc	0.08302638
3	0x3c02ba62	0.007979007
4	0xbca806b9	-0.020511018
5	0x3dfd11d8	0.12356919
6	0xbe365564	-0.17806011
7	0x3d5f240e	0.054477744
8	0x3d389020	0.045059323
9	0xbe46cc2e	-0.19413826
10	0xbd9a93d6	-0.07547729
11	0xbec7d615	-0.3903052
12	0x3ddf6a34	0.109089285
13	0x3d940aa6	0.072285935
14	0x3cec0cc5	0.028814683
15	0x3dadaa1a	0.0847971
16	0xbcc6fa21	-0.024289193
17	0xbcb804a3	-0.022463148
18	0x3d394c10	0.045238554
19	0x3de00fbd	0.10940502
20	0xbe5f3f7b	-0.2180156
21	0x3ddb7101	0.10714913
22	0x3ca3aa3b	0.019978633
23	0xbde0bafa	-0.10973163
24	0x3dba0c04	0.09084323
25	0xbdde4fb0	-0.10855043
26	0xbd8e8d16	-0.06960504
27	0x3e3a266b	0.18178718
28	0xbe3bf668	-0.18355715
29	0xbd39a4a4	-0.04532303
30	0x3d906192	0.0704986
31	0x3e0f7f67	0.14013444
32	0xbe5418ef	-0.20712636
33	0xbd9cfa66	-0.07664947
34	0x3e183b79	0.14866437
35	0xbdbc5109	-0.09195144
36	0xbe44333b	-0.19160168
37	0x3d8476d4	0.06467977
38	0xbcf7c3e4	-0.030244775
39	0xbd37db2b	-0.04488675
40	0xbc00550f	-0.00783278
41	0x3d3e880d	0.046516467
42	0xbce279dd	-0.027646
43	0xbe61c50a	-0.2204782
44	0xbe083b88	-0.1330396
45	0xbddfeb33	-0.109335326
46	0x3e8779dd	0.26460162
47	0x3d395feb	0.04525749
48	0xbd04324f	-0.03227454
49	0xbe808723	-0.251031
50	0xbd7f4ed6	-0.062331043
51	0xbd2ba1db	-0.041902404
52	0xbe01c34e	-0.12672159
53	0x3e553e98	0.20824659
54	0x3e89103c	0.26770198
55	0x3bbdd15c	0.00579278
56	0x3e65fbdf	0.22459362
57	0xbdaf4105	-0.08557323
58	0xbe7a60d1	-0.24450995
59	0x3e089361	0.1333747
60	0x3e6df8fe	0.23239514
61	0xbee8b945	-0.4545385
62	0x3e203007	0.15643321
63	0xbd9eb1f1	-0.077487834
64	0xbe02b02c	-0.12762517
65	0xbcc3cedf	-0.023902355
66	0x3e0fbe5c	0.1403746
67	0xbddc6822	-0.10762049
68	0xbd535309	-0.05159286
69	0x3ddf0376	0.10889332
70	0x3d8ebe7d	0.069699265
71	0x3dafaf14	0.085783154
72	0x3e91eb78	0.2849996
73	0xbe78c8bf	-0.24295329
74	0x3ec33791	0.3812833
75	0xbe3749bd	-0.17899223
76	0x3e3731e3	0.17890124
77	0x3db0fe26	0.08642225
78	0x3cd7cadb	0.026341846
79	0x3e8a1cf5	0.26975217
80	0x3ed350df	0.41272637
81	0x3e3f50fa	0.18683234
82	0x3e319a60	0.17344046
83	0x3e0397c0	0.12850857
84	0xbceb2ae1	-0.02870697
85	0x3dc12293	0.09430423
86	0xbd9b464d	-0.07581768
87	0x3c9aa4be	0.018877383
88	0x3dcd00a6	0.10009889
89	0x3ed8f4b0	0.42374182
90	0x3d2cef93	0.042220663
91	0xbe187d18	-0.1489147
92	0x3e09e2b1	0.13465382
93	0x3e0b3ff4	0.13598615
94	0x3dd7a795	0.105300106
95	0xbe263d9c	-0.1623444
96	0xbd137ff8	-0.036010712
97	0x3e3c13fa	0.18366995
98	0xbdac729f	-0.084203
99	0xbecfef9c	-0.40612495
100	0x3c99dd5f	0.018782316
101	0x3deea078	0.11651701
102	0xbd90d9dc	-0.070728034
103	0x3e09f6b5	0.13473018
104	0x3da15d8c	0.07879171
105	0x3ed0e6fc	0.40801227
106	0x3daf601c	0.08563253
107	0xbec0a2d8	-0.3762424
108	0x3e55454f	0.2082722
109	0x3e4d7766	0.20065078
110	0xbdd39e7f	-0.10332965
111	0xbd9711ea	-0.07376464
112	0xbe763b14	-0.24045974
113	0x3dd3a2eb	0.103338085
114	0xb899e7b9	-7.33877e-05
115	0x3d9769a8	0.07393199
116	0xbeba7d56	-0.3642375
117	0x3dc80f92	0.09768595
118	0xbe7657c4	-0.24056917
119	0x3d3ab61a	0.04558382
120	0xbd837964	-0.06419638
121	0x3e5b6d3f	0.21428393
122	0x3e5f0977	0.21780954
123	0xbd1c314e	-0.038132958
124	0xbc903a7a	-0.017606009
125	0x3db9bf81	0.090697296
126	0x3ce5a6fe	0.02803373
127	0x3ea93ba9	0.3305333
128	0x3e82a14c	0.25513685
129	0xbdcf18b1	-0.101121314
130	0x3e32822a	0.17432466
131	0xbe845a69	-0.25850227
132	0x3c080606	0.008302217
133	0x3e2b3b2a	0.16721788
134	0xbebd6e30	-0.3699813
135	0x3d2c4642	0.04205919
136	0x3d263411	0.040577
137	0x3e98dd99	0.29856566
138	0x3d8f408c	0.06994733
139	0x3cfbbf01	0.030730726
140	0xbdc17dbb	-0.09447809
141	0x3e0924cb	0.13392942
142	0x3e31eb34	0.17374879
143	0xbeb8d829	-0.36102417
144	0xbe8cb7b7	-0.27483913
145	0xbd52fd81	-0.05151129
146	0xbd85df44	-0.06536725
147	0x3d279d17	0.040921297
148	0x3dbdc9a3	0.09266975
149	0x3dd9131e	0.105993494
150	0xbc473115	-0.012157698
151	0x3e568f09	0.20953001
152	0xbdb845e7	-0.08997708
153	0x3d4afdb6	0.049558364
154	0xbdad2a01	-0.08455277
155	0x3e4e99e9	0.201759
156	0xbd6834cd	-0.05669098
157	0x3d7dbd2e	0.061947994
158	0x3e0235f2	0.12715891
159	0xbe555767	-0.20834123
160	0x3de75633	0.11295738
161	0x3c424b58	0.011858784
162	0x3da2584d	0.07926998
163	0x3e562e59	0.20916118
164	0x3e490782	0.1963177
165	0x3e548b98	0.20756376
166	0xbdc91c2a	-0.09819825
167	0x3a3d311f	0.00072170974
168	0x3d258c84	0.04041721
169	0x3e28fe16	0.16503176
170	0xbe50edfe	-0.20403287
171	0xbeaad5d2	-0.33366257
172	0x3e24eda1	0.16106273
173	0x3dca87a6	0.09889154
174	0xbedaf4b4	-0.4276482
175	0x3e6377cb	0.22213666
176	0x3debff16	0.11523263
177	0xbe45663b	-0.19277279
178	0x3bda7edb	0.0066679544
179	0xbe00dca3	-0.12584166
180	0x3ddb551a	0.10709591
181	0xbe831f94	-0.2561003
182	0x3e4ffcba	0.20311251
183	0xbd000121	-0.031251077
184	0x3e642fc8	0.22283852
185	0xbc0e467a	-0.008683795
186	0xbde97d45	-0.114008464
187	0x3e52e6eb	0.205959
188	0x3de20dbd	0.110377766
189	0x3e6dff8f	0.23242019
190	0x3e75146d	0.23933573
191	0xbe4323af	-0.19056581
192	0xbc4fa235	-0.0126729505
193	0xbd1b5812	-0.037925787
194	0x3df3218a	0.118716314
195	0xbb9b9f09	-0.004749183
196	0x3ea9fc28	0.33200192
197	0xbc52d956	-0.0128692
198	0xbe8d64a2	-0.2761584
199	0xbe1d1acc	-0.15342253
200	0x3d37a35e	0.044833533
201	0xbd94a70c	-0.07258424
202	0x3d797bc1	0.060909037
203	0x3c8c5747	0.01713146
204	0xbc443be5	-0.011977171
205	0xbe477526	-0.19478282
206	0x3d9963ca	0.074897364
207	0xbcfc0d46	-0.030768048
208	0x3e17c084	0.14819533
209	0xbe8a84ac	-0.27054346
210	0xbd9aa838	-0.075516164
211	0x3bd6ddd9	0.006557208
212	0xbde7401c	-0.11291525
213	0x3daa7cd2	0.08324589
214	0xbda1c7a3	-0.07899406
215	0x3e0d3ab9	0.13791932
216	0xbe8bb6e8	-0.27287984
217	0xbd53a63b	-0.0516722
218	0xbe36c27a	-0.17847624
219	0xbde2785e	-0.110581145
220	0xbadb8e75	-0.001675083
221	0xba957a7f	-0.0011404305
222	0x3dd1c265	0.10242156
223	0xbd8ba21c	-0.06818029
224	0x3e91fbd4	0.28512442
225	0x3e892c66	0.26791686
226	0x3cb88e14	0.022528686
227	0xbd7c6384	-0.061618343
228	0x3e36c7d1	0.17849661
229	0xbd690a44	-0.056894556
230	0xbbeeb92a	-0.007285257
231	0xbe70bf9b	-0.23510592
232	0x3d991f80	0.07476711
233	0x3e7c8bcd	0.24662705
234	0x3dc41516	0.09574334
235	0x3d1ea2da	0.038729526
236	0x3e34de88	0.17663014
237	0xbe013466	-0.12617645
238	0xbea11b06	-0.3146593
239	0xbdbdb278	-0.09262556
240	0x3dbc278d	0.09187231
241	0x3cc35fb1	0.02384934
242	0xbe94fbd0	-0.29098368
243	0x3db42c15	0.087974705
244	0x3b6ecaa8	0.003643671
245	0xbe4d8217	-0.20069157
246	0xbd18c8da	-0.037300922
247	0xbd0a9134	-0.033829883
248	0x3d97b047	0.07406669
249	0xbe2c092f	-0.16800378
250	0xbd33e82a	-0.04392258
251	0x3d2d438c	0.042300746
252	0xbdce0622	-0.100597635
253	0xbe694f06	-0.22784051
254	0xbe393627	-0.18087064
255	0x3c1941f7	0.009354106

base.5linear.bias f4 [50]
0	0x3ce24f3f	0.027625678
1	0xbdb3aa6c	-0.0877274
2	0xbdc9a49a	-0.098458484
3	0x3d845855	0.064621605
4	0xbd617cfe	-0.055050842
5	0x3dad2d3f	0.08455896
6	0xbdbd36c4	-0.09238961
7	0xbd8ce013	-0.06878676
8	0x3bae9a77	0.0053284722
9	0xbbbef21e	-0.0058272025
10	0xbcfe3f2a	-0.031035978
11	0x3af1b871	0.0018441809
12	0xbd9da56c	-0.07697567
13	0xbda3d5d6	-0.0799977
14	0x3ca550a6	0.020180058
15	0xbdd93ff6	-0.10607903
16	0xbd096324	-0.033541813
17	0xbd4ebac4	-0.050471082
18	0xbd20c754	-0.039252594
19	0x3d7e9158	0.06215033
20	0x3d8b163b	0.067913495
21	0xbe0b9586	-0.13631257
22	0xbdf7cb51	-0.120993264
23	0xbdc33de4	-0.09533289
24	0xbb854cbb	-0.004067985
25	0xbd834489	-0.064095564
26	0x3d6e5607	0.05818751
27	0x3d3a1c24	0.045436993
28	0xbd72d4a0	-0.059284806
29	0xbdcaf628	-0.09910232
30	0xbd0af436	-0.033924304
31	0x3ccf06d0	0.025271803
32	0x3e6c75c4	0.23091799
33	0x3d6cc6ca	0.057806768
34	0x3c685ce7	0.014182306
35	0x3bcaaf41	0.0061854427
36	0x3c1fa412	0.009743707
37	0x3d857296	0.06515996
38	0xbb59b328	-0.0033218358
39	0xbd16afaf	-0.03678864
40	0x3daf4a26	0.085590646
41	0xbd9a17d0	-0.07524073
42	0xbae447e3	-0.0017416443
43	0x3d5dc7bb	0.054145556
44	0x3dff8c0e	0.12477885
45	0x3dd2f0c1	0.102998264
46	0x3d34534c	0.04402475
47	0x3d85205c	0.06500313
48	0xbdac4b89	-0.08412845
49	0xbb819484	-0.003954472
