STPINN-RANS/sub_data/sub_write/22NS_model_train.pt (torch, 100283 bytes, 22 tensors)

base.0linear.weight f4 [50, 3]
0	0x3ec22cdc	0.3792485
1	0xbe648155	-0.22314961
2	0xbe8aec45	-0.27133384
3	0x3e005f34	0.12536317
4	0xbe6c770a	-0.23092285
5	0xbe977567	-0.29581758
6	0xbdcfc9c9	-0.10145909
7	0x3ec4896b	0.38386092
8	0x3dae30c5	0.08505396
9	0xbe0040e2	-0.12524751
10	0xbe888c3a	-0.26669484
11	0x3e6fce2c	0.23418492
12	0x3be295b8	0.0069148205
13	0x3e7786d8	0.24172533
14	0x3d318674	0.043341115
15	0xbde08fe7	-0.10964947
16	0xbee53e00	-0.44773865
17	0xbe0127bb	-0.12612812
18	0xbdf57db9	-0.1198687
19	0xbcd8f648	-0.026484624
20	0x3df76f7e	0.12081812
21	0x3b05a77a	0.0020394013
22	0x3b5f8df3	0.0034111708
23	0x3a9a367a	0.0011765503
24	0x3d8775c6	0.066142604
25	0x3d494c74	0.049145177
26	0x3c99782d	0.018734062
27	0x3b6478a0	0.0034861937
28	0x3aa4ed09	0.0012582849
29	0x3b1653ff	0.002293825
30	0xbbafaec9	-0.005361412
31	0xbe5a9f6e	-0.2134988
32	0x3d3ebcaa	0.046566643
33	0xbe1c0f5b	-0.15240233
34	0x3d92ef0e	0.07174502
35	0x3e3f0227	0.18653165
36	0x3d61ddfd	0.055143345
37	0xbc7eeca5	-0.01555935
38	0xbe0ebe06	-0.13939676
39	0x3e1a0087	0.15039264
40	0x3e496b18	0.1966976
41	0x3e158c28	0.14604247
42	0xbe6e38ba	-0.23263827
43	0x3ed43eb7	0.41454098
44	0xbd40e915	-0.047097284
45	0x3d0877cd	0.033317376
46	0x3de1618c	0.11004934
47	0xbda35e21	-0.07976938
48	0x3dc1eb89	0.09468753
49	0x3d92968e	0.07157622
50	0x3e3c0969	0.18362965
51	0x3ea47d48	0.32126832
52	0x3e3d6358	0.18494928
53	0x3e0b55f1	0.13607003
54	0xbeb0e351	-0.3454843
55	0xbe87e90d	-0.2654499
56	0x3d694ffe	0.056961052
57	0xbe40fb4b	-0.1884586
58	0x3c1561a5	0.009117519
59	0x3f0e0e03	0.5549013
60	0x3d14e3c7	0.036350038
61	0xbe434c91	-0.19072177
62	0xbdc5fe0b	-0.096675955
63	0xbe8f4d05	-0.2798845
64	0xbe1289bb	-0.14310353
65	0x3e9fce7e	0.3121223
66	0xbdaf6c64	-0.08565596
67	0xbee6c076	-0.4506871
68	0x3eb0ddad	0.34544125
69	0xbdf35775	-0.118819155
70	0x3b8ee1c1	0.004360408
71	0x3e216e6d	0.1576478
72	0xbdca25c5	-0.09870485
73	0x3e974a9e	0.29549116
74	0x3d414f01	0.047194485
75	0x3a34dbb7	0.0006899195
76	0x3a73e98a	0.00093045144
77	0xb94488b1	-0.00018742938
78	0x3e4fc750	0.20290875
79	0xbe86ccf3	-0.2632824
80	0xbe9250b7	-0.28577206
81	0xbe7044bf	-0.23463725
82	0x3df9bec1	0.121945865
83	0xbe2b239b	-0.16712801
84	0x3e867fd0	0.26269388
85	0xbe8d2068	-0.27563787
86	0xbe689261	-0.22712089
87	0xbe245987	-0.16049777
88	0xbd729f99	-0.059234235
89	0xbc9b3447	-0.018945826
90	0xbe70a04a	-0.23498645
91	0xbe91f949	-0.28510502
92	0x3e8e1098	0.27747035
93	0xbcb8cb2f	-0.022557823
94	0xbc8b4ce0	-0.01700443
95	0xbe81920a	-0.2530673
96	0x3dfb1933	0.12260666
97	0xbeda295e	-0.42609686
98	0x3de79822	0.11308314
99	0x3d3d24c9	0.04617766
100	0xbdbf84c2	-0.093514934
101	0x3da46f0e	0.080289945
102	0xbe9812ce	-0.29701847
103	0x3e2d327e	0.16913792
104	0x3edbedf2	0.42954975
105	0xbd615179	-0.05500934
106	0x3eaeffee	0.34179634
107	0xbdd0b384	-0.1019049
108	0xbbb3e5f8	-0.005490061
109	0xbd9425ca	-0.0723377
110	0xbd785683	-0.06062938
111	0xbe553be6	-0.2082363
112	0xbd32877e	-0.043586247
113	0x3e8be6a3	0.273244
114	0xb8d054c3	-9.934001e-05
115	0xbb8c90c4	-0.0042897183
116	0xb96751fe	-0.00022060421
117	0x3d38039e	0.044925325
118	0x3e768231	0.24073102
119	0x3e0416db	0.12899344
120	0x3e7217db	0.23641913
121	0xbd03091a	-0.0319911
122	0xbe8c3fa6	-0.2739231
123	0x38e6f2ff	0.00011012516
124	0xba41d0db	-0.00073934876
125	0x39342f95	0.00017183863
126	0x3e257ba8	0.16160452
127	0x3eb0f719	0.3456352
128	0x3e195670	0.1497438
129	0xbb740d59	-0.00372394
130	0x3e7f0d85	0.24907501
131	0x3e1286e9	0.14309277
132	0x3dcc8566	0.09986381
133	0xbe140229	-0.14453949
134	0xbe84c439	-0.25930956
135	0xbd8797f1	-0.066207774
136	0xbec5038c	-0.3847927
137	0x3de6bd00	0.11266518
138	0xbe3a63a2	-0.1820207
139	0xbe2bf5aa	-0.16792932
140	0x3eb4b5d4	0.35294974
141	0x3a5a47dc	0.0008326748
142	0x3a60c7dd	0.0008574704
143	0x3984fd35	0.00025365656
144	0xba9b547d	-0.0011850741
145	0xbed279fd	-0.41108695
146	0x3e101389	0.14069952
147	0xbdade6b5	-0.084912695
148	0x3e84f4a7	0.25967905
149	0xbe00cfec	-0.12579316

base.0linear.bias f4 [50]
0	0x3cc01380	0.023446798
1	0x3dd175ce	0.102275476
2	0xbc90ed97	-0.017691417
3	0xbc8dccb3	-0.017309522
4	0xbd7a86cd	-0.061163712
5	0x3cbdae5a	0.023154426
6	0x3c2763d5	0.010216673
7	0xbada93be	-0.0016676111
8	0xbd7f9cf1	-0.06240553
9	0xbab39edd	-0.0013703961
10	0xbd118a37	-0.035532203
11	0xbd33a3aa	-0.043857254
12	0x3c00790f	0.007841363
13	0xbdb53508	-0.088480055
14	0x3d4d09c4	0.05005814
15	0x3c177605	0.009244447
16	0xbe3f2bcf	-0.18669055
17	0xbe391768	-0.18075335
18	0x3e15d3b4	0.1463154
19	0x3ce5bc9e	0.028044041
20	0x3c8dd990	0.017315656
21	0x3be3b94d	0.00694958
22	0xbda5951e	-0.080850825
23	0xbd8d1b26	-0.06889944
24	0xbd4e5404	-0.050373092
25	0xb9f302cf	-0.00046350664
26	0x3dd54718	0.10413951
27	0x3e11a87d	0.1422443
28	0x3da288bd	0.07936237
29	0x3e1822c3	0.1485701
30	0xbd4b9386	-0.049701236
31	0x3d33eae8	0.043925196
32	0xbd8076e4	-0.062726766
33	0xbd8eed85	-0.06978897
34	0xbd2fcb90	-0.04291874
35	0x3d90e1e5	0.07074336
36	0x3d5b8338	0.053591937
37	0xbbe193f5	-0.006884093
38	0x39e7218d	0.0004408475
39	0xbe0d3954	-0.137914
40	0xbcce228d	-0.02516296
41	0xba09535f	-0.00052385585
42	0xbe1cb156	-0.15302023
43	0xbd303edc	-0.043028697
44	0x3d82c840	0.06385851
45	0x3b9b91ad	0.0047475905
46	0xbc02e03d	-0.007988033
47	0xb98027dd	-0.00024443763
48	0xbce9837c	-0.02850508
49	0xbe02e975	-0.1278437

base.1linear.weight f4 [50, 50]
0	0x3db7624c	0.089542955
1	0xbe428c84	-0.18998915
2	0x3eac7bab	0.336881
3	0xbe3c2461	-0.18373252
4	0xbd6bfc1f	-0.05761349
5	0x3e507e28	0.20360625
6	0x3ca05e7b	0.019576302
7	0x392e0ca9	0.0001659865
8	0x3d79406a	0.060852446
9	0xbcc72884	-0.024311312
10	0x3deb658b	0.11493977
11	0x3dcdd915	0.10051171
12	0x3dc07683	0.09397604
13	0xbd05e970	-0.032693326
14	0xbb1e9b97	-0.0024201625
15	0x3e194575	0.14967902
16	0x3e441065	0.19146879
17	0x3e47e002	0.19519046
18	0x3dfe0a63	0.12404325
19	0xbc43b6b8	-0.011945419
20	0x3dd77331	0.10520018
21	0xbd2e9a7d	-0.0426278
22	0xbd9a7b41	-0.0754304
23	0xbd02f33b	-0.031970244
24	0x3d9233f4	0.071388155
25	0xbe954162	-0.29151446
26	0x3e755328	0.23957503
27	0xbdac018f	-0.08398735
28	0xbe46ae0a	-0.19402328
29	0x3e54b25d	0.20771165
30	0x3d9b4a22	0.07582499
31	0xbdd5d397	-0.10440748
32	0xbdbc0317	-0.09180277
33	0x3ccf5591	0.025309356
34	0x3d112c32	0.03544254
35	0xbbbf7705	-0.0058430457
36	0xbdc34ed3	-0.09536519
37	0xbde51091	-0.111848004
38	0xbe789b04	-0.24277884
39	0xbd1afc36	-0.037838183
40	0xbe1ef797	-0.15524136
41	0x3cf5ea4a	0.030018944
42	0xbca6e3a1	-0.020372214
43	0xbe3c1225	-0.18366297
44	0xbda74979	-0.08168311
45	0x3e6ef2d3	0.23334818
46	0xbe7d8670	-0.24758315
47	0xbe02f7f9	-0.12789907
48	0x3db6f7c3	0.089339755
49	0xbc778cd7	-0.015109262
50	0xbcc31ed5	-0.023818413
51	0xbe4fc100	-0.20288467
52	0x3d36884d	0.04456358
53	0x3db5eaa1	0.088826425
54	0xbed671f3	-0.4188381
55	0x3e193402	0.14961246
56	0xbdd617e3	-0.10453775
57	0xbd0eb7b5	-0.034843165
58	0x3e121103	0.14264302
59	0xbd12f2fe	-0.035876267
60	0xbd9cc993	-0.07655635
61	0xbc3909e7	-0.011293865
62	0xbd3911d9	-0.045183036
63	0xbd8be360	-0.06830478
64	0xbe3a79fa	-0.18210593
65	0xbd39c6fb	-0.04535578
66	0x3e2f517a	0.17120925
67	0x3e86bc1a	0.26315385
68	0xbe9c7b67	-0.305629
69	0x3e1dad98	0.15398252
70	0xbd186b6e	-0.037211828
71	0xbbeb1944	-0.0071746428
72	0x3dca1c9e	0.098687395
73	0xb9e336cd	-0.00043337644
74	0x3df21be1	0.11821724
75	0x3d51a327	0.051180985
76	0x3e9182a9	0.28419998
77	0xbe1dec6f	-0.15422224
78	0x3c4300a5	0.011902009
79	0xbe9d804a	-0.3076194
80	0xbd1fd5f0	-0.039022386
81	0x3d92683c	0.071487874
82	0x3e81e297	0.25368187
83	0x3de0bcc6	0.10973506
84	0xbd4356e1	-0.047690276
85	0xbdfe6a1b	-0.12422582
86	0x3e2f8fd7	0.17144714
87	0xbe04d7d3	-0.12972955
88	0x3cb69f7e	0.022292849
89	0xbe13ee65	-0.14446409
90	0xbe1a52c5	-0.15070637
91	0xbcbac0d1	-0.02279702
92	0x3e6eff86	0.23339662
93	0xbca926b8	-0.020648345
94	0xbd50e322	-0.05099786
95	0x3de1a3fb	0.11017605
96	0x3e0b190b	0.13583772
97	0xbc0323ff	-0.008004188
98	0x3e175dc8	0.14781868
99	0xbe2aa3a7	-0.16663991
100	0x3e1984db	0.14992087
101	0x3cd8aa4c	0.026448391
102	0xbe8d218f	-0.27564666
103	0xbe9a6cb5	-0.30161062
104	0x3dc8e5f4	0.09809485
105	0xbd6b5c60	-0.057461143
106	0xbd995bdc	-0.07488224
107	0xbd2059f3	-0.039148282
108	0x3c1a718e	0.009426488
109	0x3e09e474	0.13466054
110	0x3e117c73	0.1420763
111	0x3e215418	0.15754735
112	0x3dfb5eac	0.122739166
113	0x3c96beb3	0.01840148
114	0xbe47653c	-0.19472212
115	0x3d3ce3fd	0.046115864
116	0x3ddbb22f	0.10727345
117	0xbdb7c396	-0.08972852
118	0xbea96482	-0.33084494
119	0x3e1dbb34	0.15403444
120	0x3ea35d28	0.3190701
121	0xbe43f4fe	-0.19136426
122	0xbe2b1101	-0.16705705
123	0x3d5cd391	0.053912703
124	0x3e124156	0.14282736
125	0x3d58f89a	0.05297146
126	0x3e8526fb	0.26006302
127	0xbdce34f5	-0.100686945
128	0x3e288179	0.1645564
129	0xbe7a0f9a	-0.24420014
130	0xbd3cbe04	-0.04607965
131	0xbc5794b3	-0.013158011
132	0x3e841185	0.25794616
133	0xbe8941f1	-0.26808122
134	0xbdeb72e4	-0.11496523
135	0xbe0f2bc9	-0.13981546
136	0xbe8b1205	-0.27162185
137	0xbe554563	-0.2082725
138	0x3c864fd5	0.016395489
139	0x3ee22a89	0.44173077
140	0xbcbf5e94	-0.023360528
141	0xbd4130aa	-0.04716555
142	0xbc376098	-0.011192463
143	0xbd9efdec	-0.077632755
144	0x3dbe6934	0.0929741
145	0xbd031c36	-0.032009326
146	0x3e40cdea	0.1882855
147	0x3d18c6e9	0.03729907
148	0x3c6b3d66	0.0143579
149	0xbdf20a46	-0.11818366
150	0xbdd07f48	-0.10180527
151	0xbe34f442	-0.17671302
152	0xbe2d55a6	-0.16927204
153	0x3e960f9b	0.2930878
154	0x3e2d3284	0.16913801
155	0xbe4d8bb5	-0.20072825
156	0xbd82d981	-0.06389142
157	0x3d6da5f9	0.058019612
158	0x3e2b29b6	0.1671513
159	0x3e3cbb07	0.1843072
160	0xbdf5e0c8	-0.12005764
161	0x3eb3b752	0.351008
162	0xbe02aa4f	-0.1276028
163	0x3dfd1ea8	0.12359363
164	0x3e5851d8	0.21124971
165	0xbe2069fc	-0.1566543
166	0x3e39fd15	0.1816295
167	0xbe081ae0	-0.13291502
168	0x3e357d30	0.17723536
169	0x3f2148a0	0.6300144
170	0xbd9dc8bc	-0.07704303
171	0x3c269483	0.010167244
172	0x3ea40625	0.32035938
173	0x3d5bcd73	0.05366273
174	0xbde5d546	-0.11222319
175	0xbda387bb	-0.07984873
176	0xbddb3f55	-0.10705439
177	0xbd8331ab	-0.06405958
178	0x3e38c629	0.18044342
179	0x3e1391df	0.14411114
180	0x3dadec62	0.08492352
181	0x3c5ee942	0.013605418
182	0x3e0c643d	0.13710113
183	0xbdb0745d	-0.086159445
184	0xbd8a08c6	-0.06739955
185	0x3ce6aafc	0.028157704
186	0x3d843769	0.06455881
187	0xbda85adc	-0.08220455
188	0xbe01b8e3	-0.12668185
189	0x3bfecc89	0.0077758473
190	0xbd09ff20	-0.03369057
191	0x3b8f03f4	0.004364485
192	0x3e1c9e19	0.15294684
193	0x3e5d14fe	0.21590039
194	0xbdb587d8	-0.08863801
195	0xbdc1fd36	-0.09472124
196	0x3c9187bd	0.01776492
197	0xbc90c744	-0.017673142
198	0x3e3bdf9e	0.18347022
199	0xbe0f228c	-0.13978022
200	0xbe94f1a7	-0.29090616
201	0xbdaf3b2c	-0.08556208
202	0x3db63cc6	0.0889831
203	0x3b43c1db	0.0029870186
204	0x3d7d4257	0.061830845
205	0x39937a30	0.00028129062
206	0xbd8d1eb3	-0.06890621
207	0x3d47eb95	0.048808653
208	0xbce964c3	-0.02849043
209	0x3dd6931b	0.10477277
210	0x3d766df5	0.060163457
211	0x3e600dd1	0.2188027
212	0xbdde5944	-0.1085687
213	0xbd53b9c1	-0.05169082
214	0x3e14dd58	0.14537561
215	0x3dde3d8a	0.108515814
216	0xbe1058a8	-0.1409632
217	0xbc84e3ec	-0.016221963
218	0x3de6c845	0.11268667
219	0x3d84f1f9	0.06491465
220	0x3d667ebd	0.05627321
221	0x3e1591fa	0.14606467
222	0x3e417971	0.18893982
223	0x3dfa9a7d	0.122364976
224	0xbda819df	-0.082080595
225	0x3d081659	0.033224437
226	0xbe04008c	-0.12890834
227	0x3e0f00b1	0.13965108
228	0x3da8acf5	0.08236114
229	0x3e8f26f5	0.2795941
230	0xbd8d78b9	-0.06907792
231	0x3d665736	0.056235515
232	0xbe46ef0c	-0.19427127
233	0xbda141f4	-0.07873908
234	0xbdef2f98	-0.11679
235	0xbe44bba5	-0.19212206
236	0xbe68d68d	-0.22738095
237	0x3e474035	0.19458087
238	0xbd81bf8a	-0.06335361
239	0xbcc3d988	-0.023907438
240	0x3bfe69d9	0.007764083
241	0xbb084104	-0.0020790705
242	0xbe2024c2	-0.15639022
243	0x3d2ccdb2	0.042188354
244	0x3dbb30ba	0.09140153
245	0x3de7d9d0	0.11320841
246	0xb9c1559b	-0.0003687561
247	0x3c8b3103	0.016991144
248	0xbc0ebcaf	-0.008711978
249	0xbc4a6b13	-0.01235463
250	0xbaab93ed	-0.001309035
251	0xbc9776a5	-0.018489191
252	0xbb1018db	-0.0021987471
253	0xbd5d2af0	-0.053996027
254	0x3d5dca88	0.054148227
255	0x3d0c0748	0.03418663

base.1linear.bias f4 [50]
0	0x3d1e2538	0.038609713
1	0xbdda1d4c	-0.10650119
2	0xbc3d29e8	-0.011545636
3	0x3d5ef582	0.054433353
4	0xbca5054f	-0.020144133
5	0xbcb3687d	-0.02190041
6	0x3d9f77ac	0.077864975
7	0xbc7592e3	-0.014988634
8	0x3c9fb14e	0.019493725
9	0x3e7c5d3c	0.24644941
10	0x3cb47292	0.022027288
11	0xbc33938a	-0.010960469
12	0xbcc51822	-0.024059359
13	0xbd6a3041	-0.057174925
14	0x3e143373	0.14472751
15	0xbb8c006b	-0.0042725108
16	0xbd317fa9	-0.043334637
17	0xbe8248ed	-0.25446263
18	0xbd535a88	-0.05160001
19	0x3ac7ef09	0.0015253733
20	0xbca37497	-0.019953055
21	0x3da20293	0.07910647
22	0xbd020a1d	-0.031747926
23	0xbd82144f	-0.0635153
24	0xbd8e440f	-0.06946575
25	0xbe33608a	-0.17517295
26	0x3ca26d36	0.019827466
27	0xbdcb8774	-0.09937945
28	0xbdd35b53	-0.10320153
29	0xbe0468a9	-0.1293055
30	0xbbafaebf	-0.0053614075
31	0x3dc71eeb	0.09722694
32	0x3be27458	0.006910842
33	0xbd8703f0	-0.06592548
34	0xbcc65e35	-0.024214843
35	0xbb948375	-0.0045322725
36	0xbd3e8420	-0.046512723
37	0x3bfa6639	0.0076415804
38	0xbd744e14	-0.059644774
39	0xbcbe695e	-0.023243602
40	0xbdf9bd40	-0.121943
41	0x3c004d71	0.0078309635
42	0xbb6a262d	-0.003572832
43	0x3de50d46	0.11184172
44	0xbd90528e	-0.07046996
45	0x3d4ae4e9	0.049534712
46	0x3c7c1bc1	0.015387476
47	0x3cb40c12	0.021978412
48	0xbd38691d	-0.04502212
49	0xbd929fc8	-0.07159382

base.2linear.weight f4 [50, 50]
0	0xbd124d6b	-0.035718363
1	0x3ee966be	0.455862
2	0x3db77b66	0.08959083
3	0xbdc97e13	-0.098385
4	0x3d828bba	0.06374307
5	0x3d62b474	0.055347875
6	0x3e93ab17	0.2884147
7	0x3ab124a5	0.0013514949
8	0x3daf3d8a	0.085566595
9	0x3d2cc3dc	0.042178974
10	0x3e2882a8	0.16456091
11	0x3d8120b7	0.06305068
12	0x3d33002e	0.043701343
13	0x3d9f064c	0.07764873
14	0xbe60b15b	-0.21942656
15	0xbe2d3761	-0.16915657
16	0xb9c2ebff	-0.00037178394
17	0xbe8be549	-0.27323368
18	0xbe1ad375	-0.15119727
19	0xbda2ee20	-0.07955575
20	0x3b657ed7	0.003501823
21	0x3e1d9d08	0.15391934
22	0x3cb70374	0.022340514
23	0x3c32e58b	0.010918985
24	0xbde9fa1b	-0.11424657
25	0x3d6f9fc7	0.058501985
26	0xbdf0ffd1	-0.11767543
27	0xbe955094	-0.2916304
28	0xbe7e0dc6	-0.24809942
29	0x3d6b03a6	0.057376526
30	0xbd4a7275	-0.04942556
31	0xbe29d723	-0.16585974
32	0xbca2bc5e	-0.019865211
33	0x3db6591a	0.089037135
34	0xbe307869	-0.17233433
35	0xbd55f967	-0.0522398
36	0x3d7ce9ac	0.061746284
37	0x3d054a37	0.03254148
38	0x3e46e3fc	0.19422907
39	0x3def8e86	0.11697106
40	0x3e688fe8	0.22711146
41	0x3d98fd55	0.07470194
42	0x3de97cc4	0.1140075
43	0x3ecda614	0.4016577
44	0x3e90d2bd	0.2828578
45	0xbd9d9ae4	-0.07695559
46	0xbe25eb6d	-0.16203089
47	0xbe0e84d5	-0.13917859
48	0x3ef4f69b	0.47844395
49	0x3ccdb912	0.025112662
50	0xbd6cebd6	-0.0578421
51	0xbe592050	-0.21203732
52	0xbdd6336e	-0.10459028
53	0xbe84a922	-0.25910288
54	0x3d7a0f95	0.061050016
55	0xbd0a641e	-0.033786885
56	0xbe334110	-0.17505288
57	0xbd0afd3e	-0.033932917
58	0x3d21cd31	0.039502326
59	0xbd0911df	-0.03346431
60	0x3e8bb8e5	0.272895
61	0x3cf97433	0.030450916
62	0x3de20f1a	0.11038037
63	0x3ddb413c	0.10705802
64	0x3d4f09dc	0.050546512
65	0xbd6b973b	-0.05751727
66	0xbe0937f0	-0.13400245
67	0x3e214a7d	0.15751071
68	0xbcebe4ca	-0.028795619
69	0xbcb61c51	-0.0222303
70	0x3a593f88	0.000828736
71	0xbd25f94c	-0.04052095
72	0xbde6e04a	-0.112732485
73	0xbdc85e2d	-0.097835876
74	0x3d849635	0.06473962
75	0xbbadb28a	-0.0053008245
76	0xbdcdffb4	-0.10058537
77	0xbd4914e2	-0.04909218
78	0xbe696069	-0.22790684
79	0xbca05c09	-0.019575136
80	0xbd8dd49d	-0.069253184
81	0x3dba55aa	0.090983704
82	0xbe5944ba	-0.21217623
83	0xbe186bd4	-0.14884883
84	0xbde9d0d6	-0.114167854
85	0xbd019f4a	-0.03164605
86	0xbdf0c01a	-0.117553905
87	0xbe199f63	-0.15002207
88	0xbdb169c8	-0.08662754
89	0xbdc4e182	-0.09613325
90	0xbea3abae	-0.3196692
91	0xbe3bfaaa	-0.1835734
92	0xbde52e4e	-0.111904725
93	0x3e05bf57	0.13061272
94	0x3d953853	0.072861336
95	0x3e3d34c7	0.18477164
96	0x3c806093	0.01567105
97	0x3dbb9f3a	0.091612294
98	0xbd0ffe61	-0.035154704
99	0xbd55960a	-0.05214504
100	0xbc9b1233	-0.018929577
101	0xbe91ed5e	-0.2850141
102	0x3d9caec5	0.07650522
103	0x3dc10634	0.09425011
104	0x3c4ba0dd	0.0124284895
105	0x3dabe8a5	0.08393983
106	0xbe22f04f	-0.15911983
107	0x3dd682cd	0.10474167
108	0x3dbfa1f2	0.093570605
109	0x3e9461b9	0.28980806
110	0xbbfee68e	-0.007778949
111	0xbd0fa0f7	-0.035065617
112	0xbd8622ec	-0.065496296
113	0x3e7a0b54	0.24418384
114	0x3eb2cda0	0.34922504
115	0xbd52e3fe	-0.05148696
116	0xbdc06f8b	-0.09396275
117	0xbde53de4	-0.11193445
118	0x3e0b378e	0.13595411
119	0x3de72063	0.11285474
120	0x3e1de609	0.15419783
121	0x3e4f17cd	0.20223923
122	0x3e143643	0.14473824
123	0x3d85ccdd	0.06533215
124	0xbc93d01e	-0.018043574
125	0x3e1375b3	0.14400367
126	0x3e2b423c	0.16724485
127	0x3d1120cb	0.035431664
128	0xbdc7d22c	-0.09756884
129	0x3d2652fe	0.04060649
130	0xbd83119b	-0.06399842
131	0xbe8207c7	-0.2539656
132	0xbdca2c67	-0.0987175
133	0xbdcca066	-0.09991531
134	0x3e1ce7d5	0.15322812
135	0x3c1a2ae5	0.009409641
136	0xbd54f6a5	-0.05199303
137	0xbdaf0100	-0.085451126
138	0xbe3a4dc7	-0.18193732
139	0x3cc589dc	0.024113588
140	0xbddfc7be	-0.1092677
141	0xbda724f1	-0.08161343
142	0x3dd08fd7	0.10183685
143	0xbe3f62b3	-0.18689995
144	0xbe17d202	-0.14826205
145	0xbe38f7da	-0.18063298
146	0x3e33e098	0.17566144
147	0xbe8a5be7	-0.2702324
148	0xbe31312f	-0.17303918
149	0x3ec81213	0.3907629
150	0xbcea2788	-0.028583303
151	0x3e7d8093	0.24756078
152	0x3ede583b	0.4342669
153	0x3e8783d7	0.26467773
154	0xbecf3dd0	-0.40476847
155	0x3e974c5e	0.2955045
156	0x3e8d3577	0.27579853
157	0xbe659357	-0.22419487
158	0xbc433371	-0.01191412
159	0x3dde9ac2	0.108693615
160	0x3dc560af	0.096375816
161	0xbbe7ccfb	-0.007073996
162	0xbe546f65	-0.20745619
163	0xbe06fd48	-0.13182557
164	0xbd8869ab	-0.066607796
165	0x3d56c21f	0.052431222
166	0x3d3ad1cd	0.045610238
167	0xbdc736a7	-0.09727221
168	0x3df7dd97	0.12102812
169	0xbd3948d0	-0.045235455
170	0x3dfd4909	0.12367446
171	0x3da26f9f	0.07931446
172	0x3db67b4d	0.089102365
173	0x3eb1a137	0.3469331
174	0xbdffa22d	-0.124821045
175	0x3b5f997f	0.003411859
176	0xbdff16d3	-0.12455525
177	0xbe7578f6	-0.23971924
178	0xbe96d229	-0.29457214
179	0x3e0922e2	0.13392213
180	0x3d513e69	0.05108491
181	0xbea2f12b	-0.31824622
182	0xbdb7a6ff	-0.08967399
183	0xbdf132c0	-0.11777258
184	0x3da0c41a	0.078499034
185	0x3ce23f0b	0.027617952
186	0x3c49157c	0.012273189
187	0x3d02dd4a	0.03194932
188	0x3f0397fa	0.5140377
189	0xbca345e1	-0.019930782
190	0x3d9626ad	0.073315956
191	0x3e176825	0.14785822
192	0x3e6aa13d	0.2291307
193	0xbdf0fc01	-0.11766816
194	0xbe4901b4	-0.19629556
195	0xbe1c78fe	-0.1528053
196	0x3e88086a	0.2656892
197	0x3e18ae1d	0.14910169
198	0x3e0741bb	0.13208668
199	0xbddce4c9	-0.10785825
200	0x3d94c23b	0.07263609
201	0xbd9bfb39	-0.07616276
202	0x3d9e36e8	0.07725316
203	0xbd9b0cb6	-0.07570784
204	0x3e155bfa	0.14585868
205	0x3dded9ab	0.108813606
206	0x3e25bc17	0.16185032
207	0x3dd3efdb	0.10348483
208	0xbe2cdee9	-0.16881908
209	0xbcf7087a	-0.03015541
210	0x3d846fe6	0.064666554
211	0x3c756a49	0.014978954
212	0xbd93bc66	-0.072136685
213	0xbd94bfe4	-0.07263163
214	0x3e358ca8	0.17729437
215	0xbdf363c8	-0.11884266
216	0x3daeed3f	0.08541345
217	0x3e3d83d8	0.18507326
218	0xbd52dcdf	-0.05148017
219	0xbd9d5f2d	-0.07684169
220	0x3c543c32	0.012953805
221	0x3d77c416	0.060489736
222	0x3e0a535c	0.13508362
223	0xbe65b082	-0.22430614
224	0x3dd7f0cc	0.10543975
225	0x3d8e85cd	0.06959114
226	0xbe3673a4	-0.17817551
227	0x3d064f90	0.03279072
228	0x3d459f70	0.048247755
229	0xbe3fe9d2	-0.18741539
230	0x3db87659	0.09006948
231	0x3e0afa54	0.13572055
232	0xbd0e6fa8	-0.034774452
233	0xbe1d6314	-0.15369827
234	0xbd388643	-0.045049917
235	0x3c42a844	0.011880938
236	0xbe660ad5	-0.2246507
237	0x3eb938f1	0.36176255
238	0xbcab953f	-0.02094519
239	0x3dba3775	0.09092609
240	0x3e84b7b6	0.2592141
241	0x3e906d33	0.28208312
242	0x3eb1ba9a	0.34712678
243	0xbe251fd2	-0.1612542
244	0xbdf0e17a	-0.11761756
245	0xbe255acc	-0.16147918
246	0x3b26fd4e	0.0025480571
247	0xbe431c02	-0.19053653
248	0x3cd03bc1	0.025419118
249	0x3e491a22	0.19638875
250	0xbcc3c236	-0.023896318
251	0x3e0d9c38	0.13829124
252	0xbe274e8c	-0.16338557
253	0x3cbe731d	0.02324825
254	0xbe40cd86	-0.18828401
255	0x3db2482c	0.08705172

base.2linear.bias f4 [50]
0	0x3dab11b2	0.083529845
1	0xbc129629	-0.008946934
2	0x3cfcb982	0.030850176
3	0x3d40ec62	0.047100432
4	0x3cc6e3c2	0.024278525
5	0xbd9cee33	-0.076626204
6	0x3db2aaf9	0.08724017
7	0x3c12374b	0.008924316
8	0xbb505ccb	-0.003179359
9	0x3e17b220	0.14814043
10	0x3dcc1b8b	0.09966191
11	0xbdb19073	-0.086701296
12	0xbccdbba8	-0.025113896
13	0x3c2f9ed1	0.010719017
14	0xbdb489f1	-0.08815373
15	0xbbc66aeb	-0.006055226
16	0x3d2bee53	0.04197533
17	0xbd5cf44a	-0.05394391
18	0x3d8b8447	0.06812339
19	0x3cd8c73b	0.026462188
20	0xbd63086a	-0.055427946
21	0x3e9db7ee	0.3080439
22	0xbdb571ef	-0.08859622
23	0x3cc37442	0.023859147
24	0x3d962a75	0.07332317
25	0x3d55ce82	0.052198894
26	0x3de01098	0.10940665
27	0x3da8a69e	0.08234905
28	0x3d14a4e5	0.03629007
29	0x3c039570	0.008031234
30	0xbd079df5	-0.033109624
31	0x3d7fc627	0.062444832
32	0xbd299840	-0.041404963
33	0x3d2b1179	0.04176471
34	0xbcf40e9f	-0.029792128
35	0x3d98a81b	0.074539386
36	0xbccb2ed0	-0.024802595
37	0x3b94e8b5	0.0045443424
38	0x3dc32d8f	0.09530174
39	0x3df392ce	0.11893235
40	0x3cf46f8e	0.02983835
41	0xbca02dae	-0.019553032
42	0xbd23d2f5	-0.039996106
43	0x3d2725df	0.0408076
44	0xbb6941fa	-0.0035592304
45	0xbe0a56c9	-0.13509668
46	0x3e4ade50	0.19811368
47	0xbe09b86b	-0.13449256
48	0xbb89d52e	-0.004206321
49	0xbc12ef51	-0.00896819

base.3linear.weight f4 [50, 50]
0	0x3c27cc37	0.01024156
1	0xbe1fbd9a	-0.15599671
2	0xbd6623dc	-0.056186542
3	0x3de209ae	0.110370025
4	0x3e14b3b5	0.14521678
5	0xbbbdb42d	-0.005789301
6	0x3d145234	0.036211208
7	0x3e5014bf	0.20320414
8	0x3d479f9f	0.04873621
9	0x3ea9ee68	0.33189702
10	0xbedec6a6	-0.43510932
11	0xbe8a20f2	-0.2697826
12	0x3e073303	0.13203053
13	0xbc7f868e	-0.015596045
14	0xbe00eda0	-0.12590647
15	0xbc68e2fb	-0.014214273
16	0xbee7ffae	-0.45312256
17	0xbebd07de	-0.36920065
18	0xbe90e473	-0.28299293
19	0xbe0902da	-0.13379994
20	0x3dda9d46	0.10674529
21	0x3e1f0537	0.15529333
22	0xbcdb219b	-0.026749423
23	0x3c07082f	0.008241697
24	0xbd91b8a3	-0.07115295
25	0x3e7bb6b7	0.24581419
26	0x3d0f0d18	0.034924597
27	0x3e0cc394	0.13746482
28	0xbc3807fb	-0.011232371
29	0xbb8d6fbf	-0.0043162997
30	0x3d8e2f14	0.06942573
31	0xbd38fc1d	-0.04516231
32	0xbe0c1d61	-0.13683082
33	0xbcf4028b	-0.029786369
34	0xbe2c7cde	-0.16844508
35	0xbe41d746	-0.18929777
36	0x3e4b9170	0.19879699
37	0x3ed3e836	0.413881
38	0x3e569fdb	0.20959418
39	0x3d340e04	0.04395868
40	0x3acb83f2	0.0015526994
41	0x3d43dded	0.047819067
42	0x3edcacee	0.43100685
43	0xbe4148db	-0.18875448
44	0x3e11f9bc	0.14255422
45	0xbe55f5b1	-0.20894505
46	0x3f0a1398	0.5393615
47	0xbe435a17	-0.19077335
48	0x3c3dad15	0.0115769105
49	0xbc0c3355	-0.00855716
50	0x3de4da7f	0.11174487
51	0x3db2d582	0.0873213
52	0xbe037af5	-0.12839873
53	0xbdf74f3a	-0.12075658
54	0xbe4d241f	-0.2003331
55	0xbdc2a0b6	-0.095033094
56	0x3c6b77a4	0.014371786
57	0xbd486e00	-0.04893303
58	0xbdac0959	-0.084002204
59	0x3e45aef5	0.19305022
60	0xbd93414f	-0.07190191
61	0xbeace586	-0.33768862
62	0xbcc68bc8	-0.024236575
63	0xbd18b441	-0.03728128
64	0x3daadd6c	0.08343014
65	0x3c982142	0.018570546
66	0xbbd6ef22	-0.0065592686
67	0xbe3fdf09	-0.18737425
68	0x3ddf5f01	0.109067924
69	0xbd125c16	-0.03573235
70	0x3e88a7ac	0.26690423
71	0x3e1a96d4	0.15096599
72	0x3e89f229	0.26942566
73	0x3bc5f80d	0.006041533
74	0xbdb6bb57	-0.08922451
75	0x3d644c1b	0.055736642
76	0x3e054725	0.1301542
77	0x3da99e24	0.08282116
78	0x3bef2d34	0.00729909
79	0xbcb6a37d	-0.022294754
80	0xbcf97c32	-0.030454729
81	0xbd3f8433	-0.046756934
82	0x3dde6780	0.10859585
83	0xbddf1d6e	-0.10894285
84	0x3e09b98b	0.13449685
85	0x3d83e346	0.06439833
86	0x3e4eb40b	0.20185868
87	0xbd925fd4	-0.07147184
88	0x3cf8f94a	0.030392308
89	0x3c80bb52	0.015714321
90	0x3c7d3af0	0.015455946
91	0xbda1ac83	-0.07894232
92	0x3dccfb21	0.100088365
93	0x3c6f1532	0.014592456
94	0xbcdc7785	-0.02691246
95	0x3c39e87a	0.011346931
96	0x3de52084	0.111878425
97	0x3d0e6fa2	0.03477443
98	0x3cb23d08	0.021757618
99	0x3ddd27cc	0.10798606
100	0x3e23d8ee	0.16000721
101	0x3e304b2b	0.17216174
102	0x3e03fa79	0.12888516
103	0x3df94de7	0.12173062
104	0xbe00e2ab	-0.12586467
105	0xbda1f418	-0.07907885
106	0x3cdeb616	0.027186435
107	0x3c8f3306	0.017480385
108	0xbd246a7d	-0.040140618
109	0x3c72ab3c	0.014811333
110	0x3e1365bf	0.14394282
111	0x3dd56b57	0.10420864
112	0x3e50c8f0	0.20389152
113	0x3ba63ce3	0.005073176
114	0x3da80203	0.08203509
115	0x3c2a0d84	0.010379199
116	0x3d884749	0.066542216
117	0x3d85c41f	0.06531548
118	0xbdf70a07	-0.120624594
119	0x3e8019e3	0.2501975
120	0xbe836f84	-0.25671017
121	0xbd8bd910	-0.06828511
122	0xbd900fb6	-0.070342466
123	0xbbc06d02	-0.0058723697
124	0x3e27b1d1	0.16376425
125	0x3e654867	0.223909
126	0x3e9a7c54	0.3017298
127	0xbc855506	-0.016275894
128	0x3c5800b9	0.013183766
129	0xbc8e02e1	-0.017335357
130	0x3b016051	0.0019741247
131	0x3dc47a6d	0.09593663
132	0xbcea4ae2	-0.02860016
133	0xbd9987c8	-0.07496601
134	0xbdb5db1f	-0.08879685
135	0x3e02dfe0	0.12780714
136	0xbcf58922	-0.029972617
137	0xbde9b32c	-0.114111274
138	0xbd262e63	-0.04057158
139	0x3e07de1e	0.13268325
140	0xbd0bb192	-0.03410489
141	0xbdc15fef	-0.09442126
142	0xbe7ac02b	-0.24487369
143	0xbe31ecc1	-0.1737547
144	0xbddcc61d	-0.107799746
145	0x3c590012	0.013244646
146	0xba9cb871	-0.0011956823
147	0xbe5b8f9c	-0.21441501
148	0xbd248843	-0.04016901
149	0x3ddac0e4	0.10681322
150	0x3d11979c	0.035544977
151	0xbe40e601	-0.1883774
152	0x3b610a28	0.003433833
153	0xbde62898	-0.112382114
154	0xbdeeb2b6	-0.1165518
155	0x3e58e603	0.21181493
156	0xbde2a421	-0.11066461
157	0xbe22fc15	-0.15916474
158	0xbcba6b12	-0.022756133
159	0x3e624310	0.22095895
160	0xbd43f4b3	-0.047840785
161	0xbe2586be	-0.16164681
162	0xbe99a3ef	-0.30007884
163	0x3bb058f0	0.005381696
164	0xbe6aafef	-0.22918676
165	0xbbefa169	-0.0073129428
166	0x3e1fc17f	0.15601157
167	0x3e2f393c	0.17111677
168	0x3d87a70a	0.06623657
169	0xbe8cbe5b	-0.2748898
170	0x3dbd1b9b	0.09233781
171	0xbd583464	-0.05278434
172	0x3c8ecaf2	0.017430756
173	0x3a16316e	0.00057294115
174	0xbe3f7b65	-0.18699415
175	0xbdbc9b03	-0.09209254
176	0x3d05ac9a	0.03263531
177	0x3e6b524d	0.22980614
178	0x3bc332de	0.0059569916
179	0xbc1577b2	-0.009122776
180	0xbe148071	-0.14502122
181	0x3df35072	0.11880578
182	0x3d38e6e4	0.04514207
183	0xbb11eca1	-0.0022266286
184	0xbe70ecf9	-0.23527898
185	0x3c06886b	0.0082112355
186	0x3cfaf140	0.030632615
187	0x38b500df	8.630915e-05
188	0x3e07c1d8	0.1325754
189	0x3e17e2c0	0.14832592
190	0x3c94492e	0.018101301
191	0xbd8bcf41	-0.0682664
192	0xb8ba5abf	-8.886074e-05
193	0xbb6e8eaf	-0.0036400964
194	0x3b196c2a	0.0023410418
195	0xbd98842a	-0.07447083
196	0x3e95e682	0.29277426
197	0xbe092b64	-0.13395458
198	0xbc8bb8e8	-0.017055944
199	0x3d30596a	0.043054022
200	0xbe227b75	-0.15867408
201	0xbe4ef972	-0.20212343
202	0x3ea991bb	0.33118996
203	0xbcf92f50	-0.030418068
204	0x3b30d3e6	0.002698177
205	0x3d2c4829	0.042061005
206	0xbe109f7c	-0.14123338
207	0x3db030e0	0.08603072
208	0xbc9b6cd0	-0.018972784
209	0x3ced51a7	0.028969599
210	0x3d92d5af	0.07169663
211	0xbbe4b613	-0.0069797128
212	0xbe2ee8d5	-0.17081006
213	0xbb2abaf8	-0.0026051383
214	0x3dc3db53	0.09563317
215	0x3c81122c	0.015755735
216	0xbe3c55b3	-0.18392067
217	0x3e306a2a	0.17227998
218	0x3e311c0e	0.17295858
219	0xbebd2d8d	-0.36948815
220	0x3e052c70	0.13005233
221	0xbf08fad4	-0.53507733
222	0x3d238285	0.039919395
223	0x3b018354	0.0019762116
224	0xbe9c6b24	-0.30550492
225	0x3d56bacd	0.05242424
226	0xbdc2580c	-0.0948945
227	0xbd93cc5e	-0.07216714
228	0x3aa9f4d7	0.0012966645
229	0x3a255193	0.0006306406
230	0x3d23e85f	0.04001653
231	0xbe6bef9a	-0.2304062
232	0xbd0b2f11	-0.033980433
233	0xbd19e571	-0.037572328
234	0xbd0c1a04	-0.034204498
235	0x3e6ede30	0.23326945
236	0x3e791087	0.24322711
237	0x3e1665e6	0.14687309
238	0x3d1a5d91	0.037686888
239	0x3e987c68	0.29782414
240	0x3d75fae1	0.06005371
241	0xbd3a5c92	-0.04549844
242	0xbc4380b5	-0.011932542
243	0x3e0fa719	0.14028586
244	0x3dd922e1	0.10602356
245	0x3cb86743	0.022510177
246	0xbe9d5e44	-0.3073598
247	0x39362d85	0.0001737383
248	0xbb9ce4e9	-0.0047880304
249	0xbd32ac8b	-0.04362158
250	0x3ec307b4	0.38091815
251	0xbd2a0f26	-0.041518353
252	0x3ce9d096	0.028541844
253	0x3e8662d2	0.2624727
254	0x3e2ca56e	0.16859981
255	0xbd2a252d	-0.04153936

base.3linear.bias f4 [50]
0	0xbb375783	-0.0027975745
1	0xbd9ae713	-0.07563605
2	0x3d0ff7c1	0.035148386
3	0x3d0572c4	0.032580152
4	0xbcce5a32	-0.025189493
5	0x3dcf8925	0.1013358
6	0xbd4c1436	-0.049823962
7	0xbb94e9e8	-0.0045444854
8	0xbb409b09	-0.0029389283
9	0x3da11c55	0.07866732
10	0xbd69fc79	-0.057125542
11	0xbda6d358	-0.08145779
12	0x3deae15c	0.11468765
13	0x3d7f6b85	0.062358398
14	0xbd4f075c	-0.050544128
15	0x3d4c5147	0.0498822
16	0xbcb921ae	-0.022599068
17	0xbe0738ba	-0.13205233
18	0xbccf47f5	-0.025302866
19	0x3e2d2427	0.16908322
20	0xbddc92e6	-0.10770206
21	0xbcb0a799	-0.021564292
22	0xbca25bf5	-0.01981924
23	0x3d9e3d76	0.077265665
24	0x3c0d7cc2	0.008635702
25	0xbda15ce7	-0.07879048
26	0xbdf67392	-0.12033762
27	0x3d439236	0.04774686
28	0xbd1c2141	-0.03811765
29	0xbc8c1dad	-0.017103994
30	0x3d680333	0.056643676
31	0x3b410694	0.0029453384
32	0x3ccc57da	0.024944235
33	0xbd4a995d	-0.049462665
34	0xbe2f44eb	-0.17116134
35	0xbd32179b	-0.043479543
36	0x3dac8763	0.084242605
37	0x3d7aaf7e	0.06120252
38	0x3b68f65a	0.0035547228
39	0x3d816027	0.06317168
40	0xbc96c1fa	-0.018403042
41	0xbde1cdea	-0.11025603
42	0x3d6c621a	0.057710744
43	0x3d1a01d0	0.037599385
44	0xbd755710	-0.059897482
45	0x3d32f314	0.04368885
46	0xbd2cb54d	-0.04216509
47	0xbcbd8c75	-0.023138264
48	0xbcd08c11	-0.025457414
49	0x3d806cd1	0.06270755

base.4linear.weight f4 [50, 50]
0	0xbe2c63ed	-0.16834994
1	0xbd746ec8	-0.05967596
2	0x3d789bdf	0.060695525
3	0xbe0e3d28	-0.13890517
4	0xbe2b25e0	-0.16713667
5	0x3da331d2	0.07968487
6	0xbd69749d	-0.056995977
7	0x3d51e4e4	0.051243678
8	0xbdce6b35	-0.10079042
9	0x3dd256a9	0.10270435
10	0x3d4173c8	0.04722956
11	0xbc6deca8	-0.014521755
12	0xbdbfb01e	-0.093597636
13	0xbdfbe4d3	-0.12299504
14	0xbd15cdb9	-0.036573146
15	0xbcbd059d	-0.023073966
16	0x3d623460	0.05522573
17	0xbe689aef	-0.22715352
18	0xbd31608f	-0.043304976
19	0x3dd54551	0.10413612
20	0xbc8de23c	-0.017319791
21	0xbd61293c	-0.054970965
22	0x3db24abb	0.0870566
23	0xbe8ae996	-0.27131337
24	0x3cd0a35d	0.025468523
25	0xbd4ccf05	-0.050002117
26	0x3d35b3de	0.044360988
27	0xbcdadc67	-0.026716424
28	0xbe9c52d1	-0.30531934
29	0xbd7f9603	-0.06239892
30	0xbeb4fe17	-0.35350105
31	0xbcd06f3f	-0.025443671
32	0x3c674e09	0.014117726
33	0xbe7d173e	-0.24715897
34	0xbe40991f	-0.18808411
35	0x3d2e8bde	0.042613856
36	0xbe97068a	-0.29497176
37	0xbe716ea6	-0.23577365
38	0x3d85faa5	0.06541947
39	0xbd01b6ce	-0.031668477
40	0xbb2d1ad7	-0.0026413703
41	0xbce86942	-0.028370503
42	0xbde71e00	-0.11285019
43	0xbe14684c	-0.14492911
44	0x3e751dc5	0.23937137
45	0x3e8b5eaf	0.27220675
46	0xbd72415a	-0.059144355
47	0x3e227b5a	0.15867367
48	0x3e96426c	0.2934755
49	0xbdcfa2f8	-0.10138506
50	0xbdda774d	-0.10667286
51	0xbdf69d4c	-0.12041721
52	0xbdfded17	-0.12398737
53	0xbd843f78	-0.06457418
54	0x3e02ddf5	0.12779982
55	0xbe464850	-0.19363523
56	0xbe4a9f22	-0.19787267
57	0xbe2ac921	-0.16678287
58	0x3e986a6b	0.2976869
59	0x3e29ccea	0.16582075
60	0xbdc43964	-0.09581259
61	0x3f0ac622	0.54208577
62	0xbe1eba2e	-0.1550071
63	0xbd7032f5	-0.058642346
64	0xbe40c53c	-0.18825239
65	0xba0690f1	-0.0005133292
66	0xbe0e23c0	-0.13880825
67	0x3ef34a72	0.47517735
68	0xbcca0d56	-0.024664562
69	0xbea8ea32	-0.32991177
70	0x3db159a4	0.08659676
71	0x3ccf4996	0.025303643
72	0x3e33c9de	0.17557475
73	0xbe07f7a9	-0.13278069
74	0xbd14c353	-0.03631909
75	0x3e0ec1f4	0.13941175
76	0xbeb0ec4e	-0.34555286
77	0xbefc669c	-0.49297035
78	0xbdd79add	-0.10527585
79	0x3e49a2c6	0.19691
80	0xbe38ef6a	-0.18060079
81	0x3eb09e8e	0.34495968
82	0x3dfe023c	0.1240277
83	0x3eb50670	0.35356474
84	0x3e62fd94	0.22167045
85	0xbe0349ca	-0.12821117
86	0xbe20e275	-0.15711387
87	0x3d59a20d	0.05313306
88	0x3e46911f	0.19391297
89	0x3ed69f71	0.4191852
90	0x3ea68757	0.3252513
91	0x3e0d803b	0.13818447
92	0xbd340bc5	-0.043956537
93	0xbeae647c	-0.34061038
94	0x3df7a078	0.12091154
95	0xbe1b1f82	-0.15148738
96	0x3e3920f2	0.18078974
97	0x3e888fcb	0.26672205
98	0xbb9cb874	-0.0047827307
99	0x3e21770b	0.15768068
100	0x3d2cef8e	0.042220645
101	0xbe31db2f	-0.17368768
102	0x3d4d4725	0.050116677
103	0xbe2cee45	-0.16887768
104	0x3e741434	0.23835832
105	0x3cf02df9	0.029318796
106	0x3d171f3d	0.036895026
107	0x3e54ea60	0.20792532
108	0x3dfa6ef4	0.12228194
109	0xbe32cfc6	-0.17462072
110	0x3dc1afe1	0.09457374
111	0x3d0214db	0.03175817
112	0xbe25bcbe	-0.1618528
113	0x3d9df6e6	0.07713108
114	0xbdff87ca	-0.124770716
115	0x3ca1a76a	0.01973315
116	0x3d23ccd9	0.03999028
117	0x3e663182	0.22479823
118	0x3cf25217	0.02958016
119	0xbe7a3723	-0.24435095
120	0x3e23d729	0.16000046
121	0xbd6a965e	-0.057272308
122	0xbe4c628a	-0.19959465
123	0xbe322320	-0.17396212
124	0x3e5505c8	0.20802987
125	0xbe1ab008	-0.15106213
126	0xbe2c1c3a	-0.16807643
127	0xbe86f7fb	-0.2636107
128	0xbe1367fc	-0.14395136
129	0x3b9f64c9	0.0048643094
130	0xbe084fec	-0.13311738
131	0xbd70bb34	-0.05877228
132	0xbe21f719	-0.15816917
133	0xbd8ad203	-0.06778338
134	0x3e38af4b	0.18035619
135	0xbdbe8260	-0.09302211
136	0x3cf5bfc0	0.02999866
137	0xbd8396e8	-0.064252675
138	0x3c29dab4	0.010367084
139	0xbe0aedef	-0.13567327
140	0xbe12d41b	-0.14338724
141	0x3e4670dc	0.1937899
142	0x3d29b75b	0.041434627
143	0xbe49f31f	-0.1972165
144	0xbe2a6fc1	-0.16644193
145	0xbe970488	-0.29495645
146	0xbce0ea4c	-0.027455471
147	0xbd80e34d	-0.06293354
148	0x3c5d5372	0.013508664
149	0xbeb1c139	-0.3471773
150	0xba116fd5	-0.00055479753
151	0x3e93965e	0.2882566
152	0xbe2f4f16	-0.17120013
153	0x3d31ba40	0.043390512
154	0xbd348b86	-0.044078372
155	0xbda0ee66	-0.07857971
156	0x3e4c80f2	0.19971064
157	0x3c947ad6	0.018124979
158	0xbdf54f88	-0.1197806
159	0xbe9581be	-0.29200548
160	0x3e64f4cc	0.22359008
161	0xbd669559	-0.056294773
162	0xbe958787	-0.29204962
163	0xbe8ed302	-0.2789536
164	0x3d8d66ae	0.0690435
165	0x3d1fa415	0.03897484
166	0x3e89a209	0.26881436
167	0x3df20a95	0.118184246
168	0x3dc0b082	0.09408666
169	0xbe8e575a	-0.2780102
170	0x3e820b2a	0.25399143
171	0xbd1a52c5	-0.03767659
172	0xbd7b948c	-0.061420962
173	0xbeb5d304	-0.35512555
174	0xbe3dfa09	-0.18552412
175	0x3d19c075	0.037537057
176	0x3da56dc7	0.08077579
177	0x3dd9ad13	0.106287144
178	0x3e03bce0	0.12865019
179	0xbdf113bc	-0.11771342
180	0x3d7a5279	0.06111381
181	0xbe427ab9	-0.18992127
182	0x3e7dfd97	0.24803768
183	0x3e958893	0.2920576
184	0x3e3f471e	0.18679473
185	0xbd724257	-0.059145298
186	0xbeb08c50	-0.3448205
187	0x3c9e6efc	0.01934003
188	0xbdd36b47	-0.10323196
189	0xbd466915	-0.048440058
190	0x3e5e20f3	0.21692257
191	0x3e5efe8b	0.21776788
192	0xbdec8f81	-0.11550809
193	0x3d18313d	0.037156332
194	0xbdb2c05b	-0.08728095
195	0xbc3bafe7	-0.011455513
196	0x3d974909	0.07386977
197	0x3e18bf09	0.14916624
198	0x3e19844d	0.14991875
199	0x3d969108	0.07351881
200	0xbe65d37f	-0.2244396
201	0x3d3cf5b3	0.046132755
202	0xbe43b887	-0.1911336
203	0xbddc6b48	-0.1076265
204	0x3c6fd1d8	0.014637433
205	0x3dc08250	0.09399855
206	0x3b129a85	0.0022369933
207	0x3d1fbd48	0.038998872
208	0xbc97fe45	-0.018553862
209	0xbdb03511	-0.086038716
210	0x3dd77a33	0.105213545
211	0x3df6f5d9	0.120586105
212	0xbe95fc80	-0.29294205
213	0xbd981aea	-0.074270085
214	0xbd0f138f	-0.034930762
215	0xbc6008a1	-0.013673932
216	0x3e335e34	0.17516404
217	0xbe2ef3a3	-0.17085128
218	0xbd4576f3	-0.048209142
219	0xbde3555f	-0.111002676
220	0x3dffeb7e	0.124960884
221	0x3e7df482	0.24800304
222	0x3e82799a	0.254834
223	0xbdb94d6e	-0.09047972
224	0x3da9ed31	0.08297194
225	0x3e346b2c	0.17619008
226	0xbde00752	-0.10938896
227	0x3e010dad	0.12602873
228	0xbea860f3	-0.32886466
229	0xbe6fd6cf	-0.23421787
230	0xbe07850d	-0.13234349
231	0x3da5a35f	0.08087801
232	0x3e3b1b5e	0.18272159
233	0x3d35c02d	0.044372726
234	0x3dbb0f70	0.09133804
235	0xbdf013b7	-0.1172251
236	0xbd02b0e9	-0.031906996
237	0xbe48801b	-0.19580118
238	0x3c89f2e6	0.016839456
239	0xbd95ee9b	-0.07320901
240	0xbe210a71	-0.1572664
241	0x3d4a5f9e	0.049407594
242	0xbe1cd8fb	-0.15317146
243	0x3d4333ba	0.047656752
244	0x3df8e942	0.121538654
245	0x3e10a574	0.14125615
246	0xbd98020d	-0.07422266
247	0x3d92c96f	0.07167327
248	0x3dce6934	0.1007866
249	0xbe3cf71d	-0.18453641
250	0x3bafd80a	0.00536633
251	0xbbf4972e	-0.007464311
252	0xbd12b2c3	-0.03581501
253	0x3df3b30a	0.11899383
254	0x3e23e101	0.16003801
255	0xbeb1dc77	-0.34738514

base.4linear.bias f4 [50]
0	0xbce258a3	-0.027630156
1	0x3cfd50ed	0.030922377
2	0xbd2d2a58	-0.04227671
3	0xbd8dd8a0	-0.069260836
4	0x3b9e2e84	0.0048273224
5	0x3d841d08	0.0645085
6	0x3dc93d99	0.09826202
7	0xbdc59a4c	-0.096485704
8	0x3d2f2f5a	0.042769767
9	0xbd3a7fdc	-0.045532092
10	0xbdc6cf64	-0.09707525
11	0xbcef7ef2	-0.029235337
12	0x3ce1c8a9	0.027561503
13	0xbdeae025	-0.114685334
14	0x3d1faae6	0.03898134
15	0x3ca12db5	0.019675115
16	0x3e08f0d0	0.13373113
17	0x3d136799	0.03598747
18	0xbc0c84ee	-0.008576615
19	0x3a18f934	0.0005835474
20	0xbc549955	-0.01297601
21	0x3ddd2ac7	0.10799175
22	0xbd85532d	-0.06510005
23	0xbbb9c0f0	-0.005668752
24	0x3d506e61	0.050886516
25	0xbd2d19cb	-0.042260926
26	0xbcf31ed5	-0.029677788
27	0x3d88592b	0.066576324
28	0xbe2965b7	-0.16542707
29	0x3b9dfd2b	0.0048214397
30	0xbcd39714	-0.025828876
31	0x3d163912	0.03667552
32	0xbe0fffbd	-0.140624
33	0x3b11d96c	0.0022254838
34	0xbd6f78b9	-0.05846474
35	0xbdeee8e8	-0.11665517
36	0xbd16fe6b	-0.036863726
37	0xbc918c37	-0.017767055
38	0xbd668dd5	-0.056287605
39	0x3a817cd8	0.0009879125
40	0xbd2a58d7	-0.04158863
41	0x3c96d7dc	0.018413477
42	0x3bfc8ee3	0.007707463
43	0xbd8313ca	-0.06400259
44	0xbd3badbd	-0.045819987
45	0x3c83b158	0.016075775
46	0xbc9f9e3e	-0.019484635
47	0xbd2880d7	-0.041138496
48	0xbd8a7db4	-0.06762257
49	0xbc463a81	-0.012098909

base.5linear.weight f4 [50, 50]
0	0x3df50664	0.119641095
1	0x3ea53f61	0.32274917
2	0x3d9774b2	0.07395305
3	0xbd651c96	-0.055935465
4	0x3d9374cb	0.07200011
5	0x3e3afe3e	0.18261048
6	0xbe31145f	-0.17292927
7	0x3dba6fcc	0.09103355
8	0x3e17c073	0.14819507
9	0xbe3d33ea	-0.18476835
10	0xbe9559b1	-0.29169992
11	0xbee80bb4	-0.4532143
12	0xbbcfdffa	-0.0063438388
13	0x3dc91e41	0.098202236
14	0xbdcc28be	-0.099687085
15	0x3c807cce	0.015684512
16	0xbdbf3026	-0.093353555
17	0xbe1f3858	-0.15548837
18	0xbbf74edd	-0.007547243
19	0x3e069a69	0.1314484
20	0xbe574286	-0.2102147
21	0x3d9b4782	0.075819984
22	0x3ca9acf7	0.020712359
23	0xbd71b19c	-0.059007272
24	0x3e25cd16	0.16191515
25	0xbe399e3e	-0.18126771
26	0xbd675120	-0.05647385
27	0x3e37be1f	0.17943619
28	0xbe4309a5	-0.19046648
29	0x3d7f6a09	0.062356982
30	0xbe0b4610	-0.13600945
31	0x3e471936	0.19443211
32	0xbe879ad3	-0.2648531
33	0x3cbb6598	0.022875592
34	0x3ca48585	0.020083198
35	0xbe129f74	-0.14318639
36	0xbe377a26	-0.1791769
37	0xbdaf4a43	-0.08559086
38	0xbd9ff15e	-0.07809709
39	0xbdc845a4	-0.09778908
40	0x39f61571	0.00046936751
41	0x3d4ef7bf	0.050529238
42	0xbb37d938	-0.0028053056
43	0xbe8d2eee	-0.27574867
44	0xbe3ccb44	-0.18436915
45	0xbe203c4c	-0.15648001
46	0x3e6525d7	0.22377716
47	0x3d560160	0.052247405
48	0xbda955a3	-0.08268287
49	0xbdda4812	-0.106582776
50	0x3a0d18d6	0.0005382424
51	0xbdc19416	-0.09452073
52	0xbdf4e950	-0.11958563
53	0x3e80aaa1	0.2513018
54	0x3e840098	0.25781703
55	0x3d33df8b	0.04391436
56	0x3e7f4924	0.24930245
57	0xbda3bf4f	-0.079954736
58	0xbe048431	-0.12941052
59	0x3e70b0ac	0.23504895
60	0x3e68db6e	0.22739956
61	0xbec196a1	-0.37810233
62	0x3d5867cd	0.052833367
63	0xbd8d354e	-0.06894933
64	0xbd3e9b4f	-0.046534833
65	0x3db385ec	0.08765778
66	0x3d909026	0.07058744
67	0xbdb2ad89	-0.087245055
68	0x3cda9922	0.026684348
69	0xbc33b14f	-0.010967567
70	0x3cc99929	0.024609165
71	0x3d8ddf54	0.06927362
72	0x3eafbd73	0.34324226
73	0xbe10ecb2	-0.14152792
74	0x3e1cc403	0.15309148
75	0xbdf8fb23	-0.121572755
76	0x3e0c747a	0.13716307
77	0x3d066f46	0.032820962
78	0xbb3d1ddc	-0.002885691
79	0x3e843a45	0.25825706
80	0x3e95c4d7	0.2925174
81	0x3e3f4c59	0.18681468
82	0x3db66c78	0.089074075
83	0x3e3690a5	0.17828615
84	0x3dba419a	0.09094544
85	0x3d490c7d	0.049084175
86	0xbd9eb17b	-0.077486955
87	0x3d2881e0	0.041139483
88	0x3de202a1	0.11035658
89	0x3ecdede1	0.4022055
90	0xbc4e8a77	-0.012606255
91	0xbe581c59	-0.21104564
92	0x3c519295	0.012791296
93	0x3e00ad5d	0.12566133
94	0x3d3b3f08	0.04571441
95	0xbe26fce9	-0.16307415
96	0xb9f522bf	-0.0004675593
97	0x3e800b58	0.25008655
98	0x3d6f2dc6	0.058393262
99	0xbed12b30	-0.40853262
100	0xbdd15e45	-0.102230586
101	0x3e095ff9	0.13415517
102	0xbd0031a5	-0.031297345
103	0xbc2f39e7	-0.010694957
104	0x3c7ed20b	0.015553008
105	0x3e92cc70	0.28671598
106	0x3e18031e	0.14844939
107	0xbea2a694	-0.31767714
108	0x3db7c22e	0.08972584
109	0x3dd53ee1	0.10412384
110	0xbd330914	-0.04370983
111	0x3c771d75	0.015082707
112	0x3cd32310	0.025773555
113	0xbb59e406	-0.0033247485
114	0x3d4179a2	0.04723514
115	0x3d83a251	0.06427444
116	0xbecbbd20	-0.39792728
117	0x3e4b100c	0.1983034
118	0xbe49248b	-0.19642846
119	0x3db72457	0.08942478
120	0x3cc8cff2	0.024513219
121	0x3e5491c3	0.20758729
122	0x3e4da5c1	0.20082761
123	0xbdc1a7a4	-0.09455803
124	0xbd8dec60	-0.069298506
125	0x3d9749ba	0.07387109
126	0x3e56ce85	0.20977218
127	0x3e04a889	0.12954916
128	0x3e734412	0.23756436
129	0x3d44ac46	0.048015855
130	0x3e51f612	0.20504025
131	0xbeda99ba	-0.4269541
132	0x3c6874dd	0.014188019
133	0x3dd6f7e0	0.10496497
134	0xbeadea1b	-0.3396767
135	0xbcbea9b3	-0.023274278
136	0x3dfabb4a	0.12242754
137	0x3ec8c96e	0.3921618
138	0x3d302757	0.043006267
139	0x3d78aef3	0.06071372
140	0xbd6e5684	-0.058187976
141	0x3dbc146e	0.09183584
142	0x3e72cefd	0.23711772
143	0xbe9272d7	-0.2860324
144	0xbe818f96	-0.2530486
145	0x3cfc8620	0.030825675
146	0xbe4e567e	-0.20150182
147	0xbc926842	-0.01787198
148	0x3ddf4624	0.1090205
149	0x3e30f5e2	0.17281297
150	0xbe6045fe	-0.219017
151	0x3d0a7744	0.033805147
152	0xbd08adeb	-0.033368986
153	0x3be620c2	0.007022948
154	0xbd7c1f7e	-0.06155347
155	0x3de11983	0.10991194
156	0x3d435b93	0.047694754
157	0x3d8a8312	0.06763281
158	0x3d26fb3b	0.040766936
159	0xbe6de1aa	-0.23230615
160	0x3e8ec3ee	0.27883857
161	0x3e03ca1b	0.12870066
162	0x3e756bd5	0.23966916
163	0x3e231a01	0.15927888
164	0x3d992ba1	0.07479025
165	0xbc5c13fc	-0.013432499
166	0xbe03de02	-0.12877658
167	0x3deb712d	0.11496196
168	0x3e3a1c66	0.18174896
169	0x3e4d2cbc	0.20036596
170	0x3d1e62fe	0.038668625
171	0xbe12e062	-0.14343408
172	0x3de2d982	0.110766426
173	0x3dcec8e6	0.10096912
174	0xbeb1561f	-0.34636018
175	0x3e7d299f	0.24722908
176	0x3c9b4f0a	0.018958587
177	0xbe64212e	-0.22278282
178	0x3d1bc77f	0.03803205
179	0xbe8c9294	-0.2745558
180	0x3e4151ff	0.18878935
181	0xbe264a40	-0.16239262
182	0x3e3e5aad	0.18589278
183	0xbcaafed3	-0.020873463
184	0x3e0d97c6	0.13827428
185	0x3cb6d838	0.022319898
186	0xbd5d43ca	-0.054019727
187	0x3db5e8f5	0.08882324
188	0x3dcf29d3	0.10115399
189	0x3e6f8caa	0.23393503
190	0x3d9c6054	0.07635561
191	0xbe39a099	-0.1812767
192	0x3d52aed9	0.05143628
193	0xbd3e88e7	-0.04651728
194	0x3ccce0e6	0.025009584
195	0x3d5df826	0.05419173
196	0x3e0efd4e	0.13963816
197	0x3c222de9	0.009898641
198	0xbe2aebd9	-0.16691531
199	0x3d51be46	0.05120685
200	0x3e425f0c	0.1898157
201	0xbdc28cb3	-0.094994925
202	0x3da713f4	0.08158103
203	0xbc48a593	-0.012246507
204	0x3daef47e	0.08542727
205	0xbe7664cd	-0.2406189
206	0x3d1fd0e9	0.03901759
207	0x3bcbe087	0.006221834
208	0x3defd17b	0.11709877
209	0xbe62fa03	-0.22165684
210	0x3d0fd62f	0.03511637
211	0xbd29f84a	-0.041496553
212	0x3bd9b3fa	0.0066437693
213	0x3d86b0cb	0.06576689
214	0xbcfff08f	-0.031242637
215	0x3e5b7e23	0.21434836
216	0xbe91cbe5	-0.28475872
217	0x3df5de7c	0.12005326
218	0xbe7cc24e	-0.24683496
219	0xbdb3731d	-0.087621905
220	0xbd3f275a	-0.046668388
221	0x3e2b7c69	0.16746677
222	0x3dcee494	0.101021916
223	0xbd55a0f0	-0.052155435
224	0x3dba9288	0.0910998
225	0x3e93865d	0.2881345
226	0x3cfd8845	0.030948767
227	0xbe0dff33	-0.13866882
228	0x3e0f9b1d	0.14024015
229	0xbd48db7d	-0.049037445
230	0xbdbc9971	-0.09208954
231	0xbddb2d5d	-0.10702012
232	0x3d7f1642	0.062277086
233	0x3e4e13f3	0.20124798
234	0x3e1a7a9d	0.15085836
235	0x3d943ac9	0.07237775
236	0x3e1bed05	0.15227135
237	0xbb42880b	-0.0029683139
238	0xbebda21a	-0.37037736
239	0xb8910b6a	-6.916265e-05
240	0x3d4dde84	0.050261036
241	0xbd9e88dc	-0.077409476
242	0xbeb1f0a6	-0.34753913
243	0x3d53c879	0.051704857
244	0x3cff1479	0.031137692
245	0xbe692bb1	-0.22770573
246	0x3daa24fb	0.08307835
247	0x3dd1d8cf	0.10246431
248	0x3daae82c	0.083450645
249	0xbe5914c1	-0.21199323
250	0xbd50c798	-0.050971597
251	0x3cd1d9c8	0.025616542
252	0xbe52dc06	-0.20591745
253	0xbe9dd4a3	-0.3082629
254	0xbd94ec93	-0.072716855
255	0x3daa4c9b	0.083153926

base.5linear.bias f4 [50]
0	0x3d81f89b	0.06346246
1	0xbd198b14	-0.03748615
2	0xbcd2925f	-0.02570456
3	0xbcd484a4	-0.025942154
4	0xbcedb8c2	-0.029018763
5	0x3cb7914f	0.022408156
6	0x3c8e66f7	0.017383082
7	0x3ccea010	0.025222808
8	0xbd762937	-0.0600979
9	0xbd168c1d	-0.036754716
10	0x3c140129	0.00903348
11	0xbc735b17	-0.0148532605
12	0x3d275090	0.040848315
13	0xbc467e06	-0.012115007
14	0x3da77f7a	0.08178611
15	0xbd136ba9	-0.035991345
16	0xbda72b9e	-0.08162616
17	0x3acf2bb3	0.001580587
18	0xbdfb0149	-0.122561045
19	0x3d1fbfcb	0.039001267
20	0x3d48de39	0.049040053
21	0xbcf5bfe5	-0.029998729
22	0xbdb3bdde	-0.08776449
23	0xbd8e4f9f	-0.0694878
24	0x3ca59f43	0.020217543
25	0xbd2b2bb3	-0.04178972
26	0x3e0bd305	0.13654716
27	0x3d9cdcda	0.076593116
28	0xbdb4feeb	-0.08837684
29	0xbd657434	-0.056019023
30	0xbda51778	-0.08061117
31	0x3d91681e	0.07099937
32	0x3dcf359e	0.101176485
33	0x3cdd58b5	0.027019838
34	0x3dcb90a8	0.099397
35	0x3d682044	0.056671396
36	0xbcf41dbf	-0.02979934
37	0xbd6bb07f	-0.057541367
38	0x3b109527	0.0022061558
39	0x3cdaa615	0.026690522
40	0x3dd519d8	0.1040532
41	0xbb9e2d74	-0.004827196
42	0x3a304545	0.0006724189
43	0x39baecea	0.000356532
44	0x3d3606f0	0.04444021
45	0x3ddc3047	0.10751396
46	0x3d5d90bd	0.05409311
47	0x3de8eb24	0.113729745
48	0xbdedcf5e	-0.11611818
49	0x3d47a772	0.048743673
