STPINN-RANS/sub_data/sub_write/27NS_model_train.pt (torch, 100283 bytes, 22 tensors)

base.0linear.weight f4 [50, 3]
00000000: 0391 85be 884d 993d a627 2b3e fd5a 3ebe
00000010: 8ab8 423e c569 2b3e 8d42 20bf 1ac8 e9be
00000020: a243 fcbc 24f1 0f3d 44a9 9e3c 024a a53c
00000030: 4b7b 203d d23b 5e3e f55e 013d 4ef9 ef3d
00000040: 5b74 83be 7c1a 43be 33b9 9fbb 8ef4 8d3d
00000050: be95 8f3e 66c8 2d3b 0bc8 32bb abac 5abd
00000060: dcbf dfbc 409d 15be 0782 1dbe 2913 ee3d
00000070: 229a 0b3e 7468 aebe 2340 f8bd bcda 9e3d
00000080: 40d8 99bd a972 61be 8bd0 b43d ba86 3e3e
00000090: 6e6f adba 2469 253a 24a0 8739 3729 abbc
000000a0: 1230 0a3e 6177 7d3e a76d a5bb 5055 f23e
000000b0: 3b69 6dbe 0470 79be b9bf e2be 7a93 423e
000000c0: 2dee 9b3d 73bc 19bd ef07 5cbc c39d 8f3e
000000d0: 8dcf 92be 399d a3bd 2c47 cb3d b988 85bd
000000e0: 22f7 90be a180 c33d fc95 cabd f371 bcbe
000000f0: 64a7 783e 25e6 533e 86a3 61be 6ffc 63bd
00000100: cc31 81bd c2f4 2abe e44a 0f3e 17d5 143d
00000110: 231c 64be c390 dbbc 4646 3e3e d963 6abe
00000120: a4dd bfbc da14 96bd 2adb 11bd 5d7e f9bc
00000130: 3544 c5bd 9f46 433e 96bf 8ebe 3275 b5bc
00000140: b16d d03d ad81 e5bd 2c25 08be 3925 c63d
00000150: bd95 903d 0a07 f6bd 7c21 87be 7e39 663e
00000160: 9e5e 51be 9cfb babe 5b46 bb3d 8a81 563d
00000170: d457 393e d077 89be 7870 0e3e d3a9 e53e
00000180: 0647 5fbe 3abd 41be 7638 753e 8ed4 21be
00000190: 6ed7 ba3e ebf8 23be 786e 443d 28a1 afbc
000001a0: 4ce9 c13c ff60 b03c 1224 be3e 8634 013e
000001b0: 9ae6 003e 7273 043e cdea bfbe b904 683e
000001c0: ce87 153f 0a74 91be 786c 923d 3a52 c9be
000001d0: 46a1 f53b e181 843c e644 05be 62b2 7a3e
000001e0: 60b2 cf3d 2a4b 5f3e aae0 c2bc a478 22be
000001f0: e9d0 673d bcd5 71bc 2099 fe3d b64d 05be
00000200: 84e5 a4be 3545 debe fa2a ab3c 4a5b 593e
00000210: 7d39 023e 5d73 bbbd f233 063e 5743 763d
00000220: 3255 03be 2d3f f5bd d8e9 03ba 74e9 643a
00000230: fa16 c439 9324 193d e525 06be 4c06 0ebe
00000240: 7a5c 06be 3d2e e13d 7a92 6cbe af3a 7c3c
00000250: fbd5 af3e 56dc c3bc
-0.26087198 0.07485491 0.16714343 -0.18589397 0.19015709 0.16739567 -0.6260155 -0.45660478
-0.030793969 0.03514208 0.019367822 0.020176891 0.03918008 0.21702507 0.0315847 0.11717473
-0.2567471 -0.19053072 -0.0048743724 0.06931411 0.28043932 0.0026517152 -0.002727988 -0.053387325
-0.027313165 -0.14610767 -0.15381633 0.11624748 0.13633016 -0.34064066 -0.12121608 0.07756564
-0.075119495 -0.22016396 0.08828839 0.18606082 -0.0013232061 0.00063099177 0.0002586852 -0.020893676
0.134949 0.2475257 -0.005048472 0.47330713 -0.23184673 -0.24359137 -0.44286898 0.1900157
0.07613788 -0.037533235 -0.013429626 0.2805005 -0.28673974 -0.07988972 0.09925684 -0.065202184
-0.28313547 0.095460184 -0.098918885 -0.36805686 0.24282604 0.20693262 -0.22035035 -0.05566066
-0.06308326 -0.1669493 0.13993412 0.03633603 -0.22276358 -0.026802426 0.18581495 -0.22889651
-0.023421116 -0.07328196 -0.0356094 -0.030455763 -0.0963215 0.19069909 -0.27880543 -0.02215061
0.10177172 -0.11206374 -0.1329543 0.096750684 0.0705981 -0.12013061 -0.26392734 0.22482869
-0.2044625 -0.36520088 0.091442786 0.05236963 0.1809991 -0.26849222 0.13910091 0.44856128
-0.21804437 -0.1891984 0.2394732 -0.1580374 0.36492485 -0.16012923 0.047956914 -0.02143915
0.023670815 0.021530626 0.37136894 0.12617692 0.12587968 0.12934664 -0.37483826 0.22658052
0.58410347 -0.28408843 0.07149595 -0.39320546 0.007496032 0.016175212 -0.13014564 0.2448211
0.10141444 0.21806017 -0.023788769 -0.15866333 0.056595717 -0.014760431 0.1243155 -0.13017926
-0.32206357 -0.43412176 0.020894516 0.2122623 0.12717243 -0.09152863 0.13105753 0.060122814
-0.12825468 -0.119749404 -0.0005032099 0.0008732297 0.00037401152 0.037388396 -0.13100393 -0.1386959
-0.13121215 0.109951474 -0.23102751 0.015394851 0.34342942 -0.023908775

base.0linear.bias f4 [50]
00000000: 6cf7 d4bd 1292 b3bd db4e e2bd 7355 c1bc
00000010: 0ff8 a8bd 2b91 233e 83fe c8bd e3d3 503d
00000020: 2d13 233e e6cd ea3d bc1e ac3d edee d2bd
00000030: ead9 1ab8 4e5f 283d 2e09 033e c02e a2bd
00000040: 50c5 653a 0379 0fbd 4870 553d c916 be3d
00000050: 61e6 943c 4b08 d43d 8f38 303d 8a4c 7d3d
00000060: a927 2c3d fd8a d6bd fa0d 8ebd ad86 c7bd
00000070: 717b 123e 3185 94bc f2d3 22be 6091 1bbd
00000080: 08b9 91bd 5c0c fc3d 6cee c8bc e840 6bbe
00000090: bd60 2fbd 090c 50bd ed53 4b3c 274d 0abe
000000a0: 35d4 29bd 5873 1f3d cdd1 6f3c b929 4cbd
000000b0: 75f6 debd 7b42 b63d ba90 9339 1603 1b3e
000000c0: 5a5f d63d abdc 78bd
-0.103987545 -0.08768095 -0.11050197 -0.023600316 -0.082504384 0.15973346 -0.09814169 0.05098332
0.15925284 0.11465053 0.084042996 -0.10299478 -3.691941e-05 0.041106515 0.1279647 -0.07919073
0.00087650586 -0.035027515 0.052109033 0.0928169 0.01817626 0.10353144 0.04302269 0.06184057
0.04203001 -0.10475729 -0.069362596 -0.09742484 0.14304902 -0.018129917 -0.15901163 -0.037980437
-0.0711537 0.12307045 -0.02452775 -0.22973979 -0.042816866 -0.050792728 0.012410146 -0.13505994
-0.041462142 0.03892836 0.014637423 -0.049844477 -0.10886852 0.08899399 0.00028145855 0.15137896
0.104674056 -0.06075732

base.1linear.weight f4 [50, 50]
00000000: 59cb 6ebe 5766 033d 6674 cf3d bc63 3dbe
00000010: 7a82 163e 1f17 2f3c db55 483c a6b1 003e
00000020: 24ac db3c 08ac 3ebc fa4a 543d 9d48 11be
00000030: f5ba 1fbd 410c ca3d 5c74 9d3d f85b b83d
00000040: 5d87 1cbd 2aaa 363d ec76 17be 533d 343e
00000050: 3ec5 313d d050 573d 33c5 5f3e c9ec 40be
00000060: f843 95bd d2cf 653c 0c59 41be 2b9b d23d
00000070: 1e10 d3bd 9069 03be f18c 92bb 45b6 11be
00000080: 35cf 043e d62b 68be e28f 82be bedd edbc
00000090: c228 a13d 428c 2d3e 45c7 53be a8b8 c83d
000000a0: d4ee c03d cf37 bfbc c29a 32be ea77 523e
000000b0: 33a9 293d 635f 85bc 403f 803d 8cf7 93bd
000000c0: c913 103d f52c 0bbe fd5e e33b 8d69 c43e
000000d0: 4ab4 a5be bd75 843d 06fa 9bbd 8f83 3abe
000000e0: 9da9 383d a971 ccbb 6613 60be c19e 023d
000000f0: f144 26bc 4cb2 263d 9c13 3fbe 1e5c b13a
00000100: d015 543c 63ac 38bd 6aca 7f3d 642c 6cbd
00000110: 4c7a 8a3e 9073 fabd 54a7 0bbe 1acd e0bd
00000120: a52e 09be 5c61 a0bb a5ac 82bc d614 4cbe
00000130: da07 f73d 5089 45be d2eb 073d 4f39 afbb
00000140: eb0c 0c3e d6ae 973d 81a8 8dbe d60d 1c3e
00000150: f000 293e a86e e93e 5b59 273e 5dec 433e
00000160: a471 93be d33e 443e bd98 263e f0df e03d
00000170: 9fb6 073e 3bf7 56be 291a 28be 7f64 153c
00000180: d24f 1c3e 469c a2be 2e99 193e ef39 c7b9
00000190: d9ec f93c fba6 3e3e 57ca 213d 82f8 fb3c
000001a0: d61b a53d bec3 68be 5390 403e 11e1 86bd
000001b0: fb6d 823d 1eb1 19be a113 4d3b 0056 c53e
000001c0: 528f c33d 5881 403e 200b f53d f700 793d
000001d0: e260 973d 9d12 3c3d e9c8 d9be 029c 79bc
000001e0: 65a1 abbe 196a 113e 9aa2 d3bd ba03 c7bc
000001f0: 0637 9bbd 5de4 543d ebfd b63d 426c 63be
00000200: 6a46 5ebe 4763 d0bd f67e 21bd 3e2d eebd
00000210: 8639 e2bc 06c7 b5bd eb97 94bc a51e 323d
00000220: 7baf 8ebe 3f91 88bd 745b debd 3543 8bbd
00000230: 50af 20be f4a0 a6bc ba64 9cbe 9c4a d2bd
00000240: 8e1c 353c 6125 45bc e355 0ebe 58dc 2c3e
00000250: d4ba 3abd 8ce0 bcbd d089 90bd 9b2c 3bbe
00000260: 1a83 0b3d 4308 39be e86d 81bd dd0a 15be
00000270: 85f5 e43c ba3b 95bd 048d 8ebc 9dbe 003e
00000280: 823a 1c3c f3ca 303e ec02 16be e3f7 bcbd
00000290: 61eb 8f3d 3bc6 7fbe 87c6 1fbe f065 db3c
000002a0: dbab b13d 4dcb dcbd 18e2 9bbe 845f ef3d
000002b0: ed32 163e 0f99 61bd a0ef 583e 2cbb 63be
000002c0: 04d5 773b 3a04 813d 5229 52be a2db 51be
000002d0: f1bd 8fbd aadf 21bd c086 76bd 6019 6f3d
000002e0: 9665 88bd 8778 2fbb 5d7c 763d 8720 593c
000002f0: 1fc4 103e 6690 3b3d de09 df3c 651f 85be
00000300: 02ce 493d e7e6 bb3c 697f dfbc b385 233d
00000310: e34e 603c 171d 27be 8d73 a4bd 3eac 7dbe
00000320: 8279 0a3f f3ff 9f3e c390 87bd d22a 7b3c
00000330: af1a 2f3f 8181 04bf 0b05 c0bd 11d4 5abe
00000340: 984b 10be 8b79 83bd b2ce 293e e9fb 8c3e
00000350: e78b c03d f3cc 00bd c088 093e 64a8 9fbd
00000360: 1641 dc3b c92d 33be ab2c c4bd d6ec 21be
00000370: fb46 fbbc 55e0 9b3d bb3f a53c 7486 a7bd
00000380: 238a 833e 99cd 7fbe fbd0 bb3e 37bf 153e
00000390: 56c5 25be caba 843d 9415 3c3e 707c f73d
000003a0: b9f2 243e b40d d53d 0683 023d c30e ff3e
000003b0: 156d f83d cbea b33d c2ca bf3d 2816 91bd
000003c0: 8727 0ebe dc09 883e 9918 d0bd 86a9 e33e
000003d0: 5704 f1be 4018 a5bc a8db 20bb 140e 50be
000003e0: b38b e73c af94 3c3e e93e d6bb 69b0 4dbe
000003f0: d10c 033e 0c27 bd3d ef4e 053e 0e2c a9be
-0.23319758 0.03208002 0.10129623 -0.18495077 0.1469821 0.010686665 0.012227501 0.12567768
0.026815481 -0.011637695 0.051829316 -0.14187856 -0.038996655 0.098656185 0.076882094 0.09001917
-0.03821503 0.044595875 -0.14791459 0.17601518 0.043400995 0.052567303 0.2185257 -0.18840326
-0.07288355 0.014026599 -0.18881625 0.10283502 -0.103058085 -0.12833238 -0.004472368 -0.14229687
0.12969668 -0.22672972 -0.255004 -0.029036399 0.07869102 0.16948035 -0.20681484 0.098008454
0.09420553 -0.023342041 -0.17441848 0.20553556 0.041421127 -0.016280835 0.06262064 -0.0722495
0.03517512 -0.13591368 0.0069388137 0.3836178 -0.32364112 0.06467769 -0.076160476 -0.18214248
0.04508363 -0.0062391353 -0.218824 0.03188968 -0.010148273 0.04069738 -0.18659824 0.0013531481
0.012944654 -0.045086276 0.062448896 -0.05765952 0.2704643 -0.12229073 -0.1363805 -0.1097662
-0.133967 -0.0048944186 -0.015951464 -0.19929823 0.120620444 -0.19290662 0.03318388 -0.005347408
0.13676803 0.07406394 -0.2766762 0.15239653 0.16504264 0.45592237 0.1634268 0.19133134
-0.28797638 0.1916459 0.16269203 0.10980213 0.13253258 -0.20992748 -0.1641623 0.009118198
0.15264824 -0.31759852 0.1499984 -0.00037999402 0.030508446 0.18618385 0.039499607 0.030758146
0.0806195 -0.2273092 0.18805055 -0.06585897 0.06368633 -0.15008971 0.0031292217 0.38542175
0.095488206 0.1879934 0.119650126 0.060791936 0.07391526 0.04591619 -0.42536095 -0.015234949
-0.33521572 0.1420063 -0.10333748 -0.02429377 -0.07578854 0.051975597 0.0893515 -0.22209266
-0.21706548 -0.10175186 -0.03942772 -0.11629723 -0.02761532 -0.08875851 -0.018138846 0.043486256
-0.27868256 -0.066683285 -0.10857287 -0.06799928 -0.15691876 -0.02034042 -0.30545598 -0.10268137
0.011054171 -0.012032838 -0.1389995 0.1688093 -0.04558833 -0.092225164 -0.07057536 -0.18278734
0.034060575 -0.18069558 -0.06319791 -0.14554925 0.027949104 -0.072867826 -0.017401226 0.12572713
0.009535434 0.17264919 -0.14649552 -0.09226968 0.07027317 -0.24977963 -0.15603076 0.026782006
0.08675357 -0.10780964 -0.30445933 0.1168814 0.14667864 -0.05507761 0.2118516 -0.22239369
0.0037816176 0.06299634 -0.20523575 -0.2049394 -0.0701865 -0.039519943 -0.0601871 0.05837381
-0.06660001 -0.002677472 0.060177196 0.013252384 0.14137314 0.045792006 0.027226385 -0.26000515
0.04926873 0.022937251 -0.027282434 0.039922427 0.013690683 -0.1631969 -0.08029852 -0.24772736
0.54091656 0.3124996 -0.06619408 0.015330033 0.6840009 -0.5176011 -0.09375962 -0.2136996
-0.14091337 -0.06419667 0.16582754 0.27535942 0.09401684 -0.031445455 0.13431072 -0.0779579
0.006721626 -0.17497934 -0.09578832 -0.15813002 -0.030673495 0.07611147 0.02017199 -0.08179942
0.25691327 -0.24980773 0.36682877 0.14623724 -0.16188559 0.0648094 0.18367606 0.120842814
0.16108216 0.10403004 0.031863235 0.4981595 0.12130181 0.087850176 0.09364845 -0.07084304
-0.13882266 0.26570022 -0.10160942 0.44465274 -0.47073624 -0.020153165 -0.0024544988 -0.2031787
0.028264856 0.18416093 -0.006538261 -0.20086826 0.12797858 0.09235963 0.13018392 -0.33041424

base.1linear.bias f4 [50]
00000000: 9e43 263c 99ad 7abd 8efd ab3d d323 91bb
00000010: 7163 09be 90d5 bdbd d092 a1bd 9d6f b13d
00000020: 1ed9 2d3d 329c 24be 2d42 ecbd 264c dcbc
00000030: 6e0e 423c 7e9d da3c 6364 983c c345 07bd
00000040: 7c69 7b3d 9a63 fcbc bc8a 94bd 2135 07be
00000050: db63 893d c2d3 51bc 553c cbbc c880 7e3d
00000060: 94e9 c53c 9824 1cbd 714f 4fbd 7dde 88bd
00000070: 6dbe 0d3e 9adc 093d 32f4 303c 1b2e 4cbe
00000080: 5558 f5bc f6db 66bd eaaf 4fbb f544 463d
00000090: 303c ba3d 9b49 c2bd c591 18bb 58ce 473c
000000a0: c835 09be f154 a43d 6fb9 e2bd 54b9 0cbe
000000b0: 0e31 893b 0119 103d 8044 e1bd 90ef c2bd
000000c0: a038 2c3d ee20 f2ba
0.010147957 -0.061200712 0.08397971 -0.0044293194 -0.1341684 -0.092692494 -0.078893304 0.08663867
0.042443387 -0.16075209 -0.115360595 -0.02689178 0.011844261 0.026686426 0.018602556 -0.033025514
0.061379895 -0.030809212 -0.07253024 -0.13203861 0.06708499 -0.012806835 -0.024809042 0.062134534
0.02415923 -0.038120836 -0.05061287 -0.06683061 0.13842173 0.033657648 0.010800408 -0.19939463
-0.029949347 -0.056362115 -0.0031690546 0.048405606 0.09093511 -0.094866954 -0.0023280245 0.012195192
-0.13399422 0.08024014 -0.11070525 -0.13742572 0.004186756 0.035180096 -0.109993935 -0.09518349
0.04204619 -0.0018472949

base.2linear.weight f4 [50, 50]
00000000: c436 8bbe 934c eabd fc8f 2b3c 7cac 2ebc
00000010: 16ae 003d b5be 36bd 60d5 273c d272 c53d
00000020: 3201 32be decb 43bd 40c2 5bbe 3ca3 05be
00000030: 57a0 4bbe b325 d33e 1c34 b73e 4f58 a6bd
00000040: 8cbf 3d3d f1d1 65bd f86c 313e fa42 2f3e
00000050: 7307 a63d 09b8 9a3d 4d6a 1d3e 2ab8 e33d
00000060: ea70 3939 fc68 1dbe cb5c b13d ba2d e2be
00000070: 0920 543e 52ff cebc e962 4e3e b90e 0b3e
00000080: adac d13d 23e4 4ebd 7ee1 e0bc 6fa8 a93c
00000090: 1ea3 433e 4ff6 07bd caa2 013e 224d 203e
000000a0: 4e7c b7bd d2be 3a3e c9d3 833c 1475 efbc
000000b0: 3c76 43be f864 e43e 42f3 663e ef80 c6be
000000c0: 6ee0 e2bc 85e3 503d 28ce 87be aa61 073e
000000d0: ca72 fdbd 90db c43d a653 433d 58ca f33d
000000e0: c337 a53e 991a 443d 692e 1a3d 1353 843b
000000f0: d14e 543d a3b7 9ebd b67a 363e a520 afbb
00000100: 50fc 45be 0647 8e3d c61c e13d 20c0 94be
00000110: 412c 8b3e ef6b 64be 402f 4cbe 5d9f 32be
00000120: a4a5 083d b08f d2bd 5834 a5bd 4803 32be
00000130: 7d9a a1bd 01ed 853d 0b72 86bd 5432 0bbe
00000140: 58b2 70be a187 d5bd de9f 83be 6282 003e
00000150: a72b 3f3e a0c8 42bd ddc4 c4bc 082f 4bbd
00000160: 7688 c3bc d7f8 303e 8abc 063e d896 30be
00000170: 9247 28bd 8d01 963d 2c3a c83d 429f 00bd
00000180: 4c92 963c 97f0 593e 2e1d 2e3e 2ed7 eebd
00000190: 3c53 a23d 7797 0c3b 6c42 ad3d 5aec cfbd
000001a0: 344a febd d46f 1fbe 1662 08bd 987a 583d
000001b0: 3bca e4bd d6b9 923d 5f09 6c3e ec02 ea3d
000001c0: 24aa 92bd c135 003d 01db 4e3c 21a6 263d
000001d0: 4c2e 0e3c 0cf3 01be 3028 b13d dabf debd
000001e0: 5dc6 d03d 492d e9bb f928 96bd 4abd 913d
000001f0: 98ab dfbd 9f7a 0d3d 123d b0be 84ef 683d
00000200: 1ad5 053e 2cb4 8a3e 8c1c 193d dc51 d43c
00000210: 0e44 053e 897c 2fbe a394 883e 297c 1dbe
00000220: 9d61 02be 6819 2cbe 1e76 14be 9a16 5abe
00000230: c4f6 74bd 6619 493e f16c 343d 0af3 273e
00000240: 11f4 053e 3ef0 d13c a76c fd3c f9a8 953d
00000250: 54aa 84be f194 2d3d 09fb 22bd 11d3 1a3d
00000260: 391f be3c 0c71 6bbe 82ed fa3c 3975 533e
00000270: ab33 ffbd 2355 a43d b36f af3c 8152 36be
00000280: 6bc9 c0bc e71a b0bd fcc3 a23d 8954 b43d
00000290: 700b 07be 1ff5 4f3e ff4b 483c 2d52 36be
000002a0: ca23 a5bd 702e 26be 3234 acbd 2f15 82be
000002b0: 58bc 98bd 5e85 703d 8d8b fbbd fc9b b93d
000002c0: ca2a ddbd 7e65 803d f0ce 9cbe b74e 683d
000002d0: f97d e23d c694 13be 93c7 28be 04fa ed3d
000002e0: 1283 dfbd bf02 20be 35a7 973e 6971 24be
000002f0: dded ffbd 0ff9 31be cd75 e73c 63a0 b6bd
00000300: 8658 01be d6de 123e 7854 053d 129b 403c
00000310: b32c a0bc 4a0d 86bd 3aa2 3b3d 76ec 40be
00000320: 0696 45be 133e 1b3e c840 6a3e 9672 cebd
00000330: c1f7 003e 92c3 133d 1fdb e93c 413b 4abd
00000340: b31e 72bc 01d5 19be 9498 7f3e bbf9 18be
00000350: 010e ed3d 51af d0bd 8235 1ebe 268f 07bb
00000360: 3988 18bd 5077 babe 1625 48bd ce73 e1bd
00000370: 7024 17bd d9e0 b73c f1ab c8bd ef25 87bd
00000380: 6037 1f3d 1d52 763e 0d03 32bd a9a0 2cbe
00000390: 6d85 29be 123f 9abe 45f4 ccbc b711 143e
000003a0: 98fc 4ebe d1c6 5d3b e180 073c 2f9f 863d
000003b0: 6dc4 97bd 60ab a5bd 7c62 75bd 9d75 db3d
000003c0: 7ae9 4f3e 6a79 81bd 678f f9bd ae3e 493e
000003d0: f564 fe3d ed54 f3bc eef5 e43d 04aa b7be
000003e0: 1d7a ef3c 2148 bebe 47cb debb f5ee 183e
000003f0: e26e 2fbc 5652 2abe eb80 16bd a0d7 b1bd
-0.2719022 -0.114403866 0.01047134 -0.010661241 0.03141602 -0.044615466 0.010243744 0.09641041
-0.17383268 -0.047801845 -0.21460819 -0.1305055 -0.19885384 0.412397 0.35781944 -0.08122312
0.04632525 -0.05610842 0.17326725 0.17115393 0.081068896 0.07554633 0.15372582 0.11119111
0.00017685039 -0.1537208 0.08660277 -0.44175512 0.20715345 -0.02526823 0.20154919 0.13579835
0.102380134 -0.050510537 -0.027451273 0.020710198 0.19105193 -0.033193883 0.12659755 0.15654424
-0.08959256 0.18236855 0.016092198 -0.029230632 -0.19088072 0.44608283 0.22553733 -0.38770244
-0.027694907 0.05099823 -0.26524472 0.1322085 -0.1237541 0.09612191 0.047687195 0.119038284
0.32269105 0.047876928 0.037641916 0.0040382235 0.051832978 -0.0774987 0.17820248 -0.0053444677
-0.19334531 0.069471404 0.10991816 -0.2905283 0.271822 -0.22306798 -0.199399 -0.17443605
0.033361092 -0.102813125 -0.080666244 -0.17384064 -0.078907944 0.065393455 -0.06564721 -0.13593417
-0.23505533 -0.1042626 -0.25707906 0.12549737 0.18668996 -0.047554612 -0.024019653 -0.0496054
-0.02386878 0.17282425 0.1315786 -0.17245042 -0.04108388 0.073245145 0.097767204 -0.03140188
0.018380307 0.21283184 0.17003319 -0.11662136 0.07926032 0.0021452585 0.084599346 -0.10152502
-0.12416497 -0.15570003 -0.033296667 0.05285129 -0.11171385 0.07164352 0.2305045 0.114263386
-0.07161358 0.031301264 0.012625457 0.040685777 0.00867803 -0.12690371 0.08650243 -0.108764365
0.10194085 -0.007115994 -0.07332034 0.07116182 -0.10921401 0.03454077 -0.34421593 0.056869045
0.13069573 0.27090585 0.03738074 0.02591794 0.13014242 -0.1713735 0.266759 -0.15379395
-0.12732549 -0.16806567 -0.14498183 -0.21297684 -0.059805647 0.19638595 0.044049207 0.16401306
0.13081385 0.025627252 0.030935599 0.073076196 -0.259112 0.04237837 -0.039790187 0.037798945
0.023208247 -0.22992343 0.03063083 0.20650186 -0.12461027 0.08024051 0.021415567 -0.1780491
-0.023533544 -0.08598881 0.07947537 0.08805186 -0.13187957 0.2030835 0.01222515 -0.17804785
-0.08063467 -0.16228652 -0.08408393 -0.25406787 -0.07457799 0.05872094 -0.122824766 0.09062955
-0.10799177 0.06269358 -0.3062663 0.056715693 0.110591836 -0.14412221 -0.16482382 0.11619952
-0.109136716 -0.15626048 0.29619756 -0.16058888 -0.12496541 -0.17380165 0.028254414 -0.0891731
-0.12631425 0.14342818 0.03255126 0.011755722 -0.019552564 -0.065455034 0.04580901 -0.18840203
-0.1929551 0.15160398 0.22876275 -0.10080449 0.1259451 0.036075182 0.028546868 -0.049372915
-0.014777827 -0.15022661 0.24960548 -0.14939015 0.11574937 -0.10189689 -0.15450099 -0.0020684688
-0.037239287 -0.36419153 -0.048863493 -0.11008416 -0.036899984 0.022446083 -0.0979842 -0.06599032
0.03887117 0.24054761 -0.04345994 -0.16858162 -0.16554804 -0.30126244 -0.02501882 0.14459883
-0.20213544 0.0033840428 0.008270473 0.065733306 -0.07410512 -0.08089328 -0.059908375 0.10715792
0.20303908 -0.06321986 -0.12185555 0.19652817 0.124216 -0.029703582 0.1117972 -0.358719
0.029233033 -0.37164405 -0.006799135 0.14934905 -0.010707589 -0.16632971 -0.03674404 -0.08683705

base.2linear.bias f4 [50]
00000000: f254 083e e801 50bc 70e9 e2bb d4fc d63c
00000010: 01d0 843c c637 8fbd c5df 343d 6357 f2bd
00000020: 531a 39be d34b c93c 2ae4 143e 234d b7bd
00000030: 2fea 873c 7143 18bd 7349 693e 70f1 94bd
00000040: 7a0c 193d f6d4 b83c d496 4bba 7ee1 1abb
00000050: 3d50 21be 67bf 5b3d aec5 1e3e ac7d 603b
00000060: 0686 b8bc 875c 373d 9bca 963c 412d 42bd
00000070: 896c e53c f7fb c83c d394 ab3c 18d5 2a3e
00000080: c302 63be e1e1 c13d 9557 44bd 1bcf 8cbc
00000090: f015 9639 0dbc df3c 72bd a13d fee8 b93c
000000a0: aa5b d33c f438 e83c a382 aebc 9557 943c
000000b0: 980b 71bd c285 003e 0dbd 113d be90 9ebc
000000c0: b409 c63d 04dc e33d
0.13313654 -0.012695767 -0.0069248006 0.026243605 0.016212465 -0.0699306 0.044158716 -0.11833074
-0.18076448 0.024572289 0.14540163 -0.089502595 0.01659116 -0.037173692 0.22781925 -0.07272613
0.037365414 0.022562485 -0.00077663106 -0.002363294 -0.15753265 0.053649332 0.15505096 0.0034254594
-0.022524845 0.044765975 0.018407157 -0.04740644 0.028005855 0.024534209 0.020944988 0.16682851
-0.22169022 0.09466911 -0.047935087 -0.0171886 0.00028626574 0.02731135 0.07897462 0.022694107
0.025800545 0.02834747 -0.021302527 0.018108169 -0.058848947 0.12551025 0.035580683 -0.019356128
0.096698195 0.11125949

base.3linear.weight f4 [50, 50]
00000000: 042c 273d c3e4 5dbe 17b0 4a3d 33e8 1abe
00000010: e08b 02be 86b4 39be d570 e4bd b8c7 25be
00000020: af3f e73d dc21 4bbd 33e8 b7bd ac2b fbbd
00000030: d8ee e6bc 7078 e4bc 4d82 cabe 3433 d0bd
00000040: e9f5 9c3d c446 d13d 4e86 60be 0ed3 aabd
00000050: 515c f93e 9735 d43c 36dd a1bd 4a32 8bbd
00000060: 593b ad3d 637a 0b3c 36be 04be c057 813d
00000070: 5d07 85bc 94d6 40bd e38c 0b3e 7c33 63be
00000080: 23a5 96bb 9d5a 01be a0fd 32bd cf68 9ebe
00000090: f223 863e 112a 37bd 39fd 71be 50aa adbd
000000a0: f785 cbbc 3acf 1b3e 43a5 4abe 549b 99be
000000b0: f425 5fbe 0912 4abe b6da 1b3d 5e5d e43c
000000c0: 46d8 a7bb 2ceb e03c bda7 12bd a5d7 debd
000000d0: afe8 7ebd 9e95 f03c 18a0 1ebd 54ce 3b3d
000000e0: 0532 e03d 1d45 a93e c8fd 3abe 3d3a 463d
000000f0: 28e3 6d3e 1a46 68be 8161 2bbe 9ac1 843d
00000100: c275 bd3c 8e60 e3bd 68a2 8cbd ddbb 1dbc
00000110: 3b91 373e fe2d 133d 03c8 6b3e 365c 133e
00000120: e395 d63c 0ae9 c3bd 33d9 96ba 3f37 3f3d
00000130: ee74 303d fb67 a63c cb20 453d e5f2 a63d
00000140: 0e3c ccba 4161 cabd ba52 e33d 76c7 78bd
00000150: 98c5 e6bc c0cd 823c 0606 873d 13c7 1b3e
00000160: ae9e b63d 2271 5ebe 1527 463e fb2e 5b3c
00000170: 8510 bc3e 7906 f53e 38e4 89bc 1c86 c8bd
00000180: 005b 1ebd 747b 613e 252a 5ebd 56d3 df3e
00000190: 0ecc 8b3d 2fa0 e5bd e318 63bd 35b1 2f3c
000001a0: 2799 43be 99e3 5f3e 8502 a7bc 2332 423e
000001b0: 74c9 0d3e 4eb2 34be d449 b9bd 103c 71be
000001c0: 9456 df3c 8b10 673c a4bc 6abe 60c1 5fbd
000001d0: 862b 1fbd bf5d 2f3e 463c f23b 51f6 5cbd
000001e0: e048 9a3e 0700 f73d 0ab7 3a3d 06e8 703b
000001f0: b6e3 273e 9312 c5bd 32ee 06bd 4dd1 043e
00000200: a500 b8bd 45d6 d6bd 20a2 a13c afa3 2e3d
00000210: a7b8 78be 344c 99be 53ad 313e dbd0 0dbe
00000220: 5366 a7bc bd3a 0cbc d5a7 3dbb d3a4 9d3d
00000230: 48a6 c03d 68c7 a3bd 28b6 78be d802 f4bc
00000240: 507e 133d a7fc 0e3e 6362 7bba 499d fabd
00000250: 5d30 083d 9b13 08be 58cc 81bd 2771 32bd
00000260: 15f8 27be c62e 85be 178b 133e 3c13 13be
00000270: 129f 5dbe edff 89be eb50 2fbb c75a a43d
00000280: 9982 41be 397f cebd 3503 8abe b5d4 1fbd
00000290: 8994 9cbd aa7e a7be 7f62 e3bd 8e6c 623d
000002a0: 3bb2 7d3d b6c9 533d 1d2f 233e eef1 b3bd
000002b0: 2fe0 d83d 1203 263e ca45 b73e e334 a6be
000002c0: a90b c1be c6b9 2f3e 1540 e93d e31e 0abb
000002d0: e846 113d 4320 a13e 1acc cbbd 24a4 7dbb
000002e0: c8e2 a7be 4579 833c e6a9 683d 658c f0bd
000002f0: 6784 f23b 5aa0 0b3e 5b88 73be 4547 20bd
00000300: 9e09 8fbe a2c7 3cbe 0a68 1e3e 8017 a7be
00000310: 6a19 0e3e df14 cb3c c44e d6bc f90a 53bd
00000320: 3c73 f23e 051b c4be ffa8 df3a b2ff 18be
00000330: 4598 463d 4f16 4a3e c0a8 38be deb9 09bf
00000340: 49d2 e2be 0e2b 963d 2031 f4bd b840 9f3a
00000350: dd57 d5bd f2a5 54bc dcfe 773e 0c1f 8ebe
00000360: 6794 b8bc 5dbd a63d b4ff afbd cad5 d3bc
00000370: dc66 80be 7e16 973e 5d8b cc3e f776 cebd
00000380: 45ed 403e 1eb5 b9bc e2ca 4ebe 4fee 36bc
00000390: 1ca6 40bd 5cce 203d 6e84 fc3c 1668 9c3e
000003a0: 45d8 0cbf c1b0 75be 1945 cbbd 7d9a 693d
000003b0: d94c 313e d6c1 babd 2b02 b7bd 56ff 313d
000003c0: 5b5c 2cbe 1ac8 06be 4a9a 2ebe 1840 36bd
000003d0: eec2 fc3c 64b7 b53e dfe7 7bbd 72d1 55bc
000003e0: 0632 1f3c 7a04 a93c 01e6 bc3c 23af 82bd
000003f0: e566 603d 6da9 6dbd 0789 cc3e 5272 8c3e
0.04081346 -0.21669297 0.04948434 -0.1512764 -0.1274867 -0.1813527 -0.111543335 -0.16189468
0.112914436 -0.049592838 -0.08979835 -0.12264189 -0.028190061 -0.02788946 -0.39552537 -0.10166016
0.07664091 0.102185756 -0.21926233 -0.08341037 0.48703244 0.02590446 -0.07903521 -0.06796701
0.08458585 0.008513066 -0.12963185 0.06315565 -0.016238863 -0.047079638 0.13627963 -0.22187608
-0.0045973225 -0.12632222 -0.043698907 -0.30939338 0.261993 -0.044717852 -0.23631753 -0.0847975
-0.024844153 0.1521577 -0.19789605 -0.30001318 -0.21791822 -0.19733442 0.038050376 0.027876552
-0.0051222173 0.027455889 -0.0358045 -0.10880975 -0.062233623 0.029368218 -0.038726896 0.045851067
0.109470405 0.33060542 -0.18260872 0.048395384 0.23231184 -0.22682992 -0.16736414 0.06482239
0.02312744 -0.11102401 -0.06866914 -0.00962731 0.17926495 0.035932533 0.23025517 0.14390644
0.026194518 -0.09565933 -0.0011508822 0.046683546 0.043080263 0.020313254 0.048126977 0.08151797
-0.0015581863 -0.09881831 0.11099763 -0.060737096 -0.028170392 0.01596725 0.06592946 0.1521266
0.089169845 -0.21722844 0.19350846 0.0133779 0.36731353 0.478565 -0.016832456 -0.09791204
-0.038661003 0.2201975 -0.05423941 0.43715924 0.0682603 -0.11212193 -0.055443656 0.010723402
-0.19101392 0.21864165 -0.020386944 0.18964438 0.1384638 -0.17646143 -0.09047285 -0.23558068
0.027262963 0.014103065 -0.22923523 -0.054627776 -0.038859867 0.17125605 0.007392439 -0.053945843
0.30133724 0.12060552 0.045584716 0.003675939 0.16395459 -0.096226834 -0.032942005 0.12970467
-0.08984498 -0.104900874 0.019730628 0.04263657 -0.2428919 -0.2994095 0.17351274 -0.13849203
-0.020434534 -0.008558926 -0.0028939147 0.07697453 0.09406716 -0.07997018 -0.24288237 -0.029786512
0.036009133 0.13963567 -0.0009589551 -0.12237031 0.033249248 -0.13288729 -0.063378036 -0.04356494
-0.1640323 -0.26012248 0.14408527 -0.14362806 -0.21642712 -0.26953068 -0.0026751112 0.08025127
-0.18897475 -0.100828595 -0.26955572 -0.039021213 -0.07645518 -0.32713825 -0.11102771 0.055279307
0.061937552 0.05170604 0.15935941 -0.08786379 0.105896346 0.16212109 0.35795432 -0.32462224
-0.37704208 0.1716071 0.11389176 -0.0021075539 0.035468012 0.31469926 -0.09951039 -0.0038702572
-0.32790208 0.016049037 0.056802653 -0.11745528 0.0074010375 0.13635388 -0.23782484 -0.039130468
-0.27937025 -0.18435529 0.15469375 -0.32635117 0.13876882 0.024790226 -0.026160605 -0.051524136
0.47353542 -0.38301864 0.0017063915 -0.1494129 0.04848506 0.19735073 -0.18033123 -0.53799236
-0.4430106 0.07332431 -0.11923432 0.0012150025 -0.10417149 -0.012979018 0.24218315 -0.27758062
-0.022531701 0.08141587 -0.085936934 -0.025858779 -0.25078475 0.29509348 0.39950076 -0.100812845
0.18840511 -0.022669371 -0.20194581 -0.011165216 -0.047033414 0.0392593 0.030824866 0.3054816
-0.550175 -0.23993208 -0.09925289 0.057032097 0.17314471 -0.091190025 -0.089359604 0.043456398
-0.16832106 -0.1316227 -0.17051044 -0.04449472 0.030854668 0.35491478 -0.061500426 -0.013050424
0.009716516 0.020632017 0.023058893 -0.06381061 0.054785628 -0.058022905 0.39948294 0.2743097

base.3linear.bias f4 [50]
00000000: 1096 25be 9d19 68bc c044 2fbd 29f0 6f3c
00000010: 4b54 6e3e d42c 28bb 189f 253a 429e 9e3d
00000020: f02c aa3c 02bb 2fbd 16da 25bd 5b77 3bbe
00000030: f18e 513d dab8 39ba f200 923d d6f9 dabd
00000040: 3a74 a1bd 0acc 03be 9d9a 063e 116a fd3c
00000050: 49e3 39bd b3e6 503d 97a3 c73b 6fa1 4e3d
00000060: cf8b d93c b6b5 11bd 360d ecbd a57c 193c
00000070: 3485 94bd 83b5 d6bd 49ba 7aba 6a57 0f3d
00000080: 1145 0d3e ed83 693d ea36 86bc 2153 6e3d
00000090: f9d3 3b3d 4c63 92bd 9d8f 4cbd f83a 90bd
000000a0: f77d b1bd 06b0 bb3c fe96 71bd eb09 38bd
000000b0: c19d fdbc 9fd3 4cbd 3133 0ebe 4c75 a9bc
000000c0: bea0 adbd a917 0a3c
-0.16170526 -0.014166263 -0.042790174 0.014644661 0.23274343 -0.0025661485 0.00063179573 0.07745029
0.020773381 -0.042902954 -0.040491186 -0.18307249 0.05116171 -0.0007084735 0.071290866 -0.10692184
-0.078834966 -0.12870803 0.13144918 0.030934365 -0.04538277 0.051001262 0.0060924995 0.050446924
0.026555924 -0.035573684 -0.11525957 0.0093680965 -0.07251969 -0.10483839 -0.0009564502 0.034995474
0.13795878 0.05701058 -0.016383607 0.058184747 0.04585645 -0.071478456 -0.049941648 -0.070424974
-0.08666604 0.022911083 -0.058981888 -0.044931334 -0.030959012 -0.050006505 -0.13886715 -0.020685814
-0.08477925 0.008428493

base.4linear.weight f4 [50, 50]
00000000: 7760 b63b 3689 e1bd fdda 4a3c 3eb2 1f3e
00000010: d671 aabe dfe7 523e 6ea3 f4bd 63d4 d23c
00000020: e68e 1abe 47ad 933e 91a5 4f3e b314 d7bd
00000030: 0cba 00bd 3037 43bd 0e50 83be a025 eebc
00000040: 143e 24be 7f91 5ebd bc15 8abe 58aa 2e3e
00000050: c124 e63d 2015 603e b22e a0bd 0e9a 1fbd
00000060: e21a 3ebe 26fc 8a3d df0b 14be 4f4a 6c3c
00000070: 16b6 bcbd ddd8 c23d 1c82 343e 7be2 e1bd
00000080: ec4d b43d ad3e 463e b064 0ebe 4d33 23be
00000090: 8d03 bbbc 5217 ffbd 1c5e 6d3d 3418 3a3e
000000a0: 4121 1d3e 509e 283e 3b46 a93e 36fc b23c
000000b0: e69c 3ebe 61fa 843e ed77 0b3e 1988 84be
000000c0: 7c2b 9ebe 1e85 3cbd 198b b93d 026f 9c3e
000000d0: 9f5f 273e b033 033e ba20 903e f7d0 74be
000000e0: 7d07 c23c 6982 3fbe 16d0 223c 74be 883e
000000f0: 5131 07bd a540 cb3c 3077 cebd 62cb 88bd
00000100: 8a43 883e a53e 013e e67e 383e b56a 2bbe
00000110: 63c4 a13e 1168 33be 5b53 01bd c0be 8cbd
00000120: a4cc f9bc 200d b3bd 71ef 1abd 9c93 4b3e
00000130: d03f e4bc 2a8e d1be c52d 1e3e f188 6a3d
00000140: 8dab 63bc 5d7c a53d 390b 983d 70b0 703d
00000150: aac9 d93c a837 773b 36d8 ab3e 4f1f 293e
00000160: a47c 57bd a6cf 7a3c 2998 a93c 5970 ea3d
00000170: 77b1 4bbe fc17 403d 3f9d 173d 8242 b33e
00000180: 43a1 c9be 45c3 3d3e 1ade b8be 1d80 adbd
00000190: 095b 87be eb65 c33b 2c8c d13d 6f64 48be
000001a0: cc3a 8e3c a3c2 45be 2ab2 283e ef11 98bd
000001b0: 2556 fb3c f1c9 c33c 5108 3abe a916 d73b
000001c0: 13aa 243e 7e45 28be bf6a 0cbe 4189 da3c
000001d0: 194e 8a3e 9add a4be 4485 a93e 6511 273d
000001e0: 8242 843e 4510 653e f3ae 753e 7739 07be
000001f0: 95a8 593e c76e 36be d77c 9d3d e966 0ebe
00000200: 689d 29bd be5f a93d e044 30be 41dc d53c
00000210: b03e 293d b68d 6abc 7cd6 b8ba 0b2c 0dbe
00000220: 999b 2ebe 5200 333d 41fa 243e 5bfd 323e
00000230: d48f e0bb 2ce8 003d ed7c b2bd 418b 1bbe
00000240: d7bd 333d 6c19 af3d 1ed5 a3bd 6b6c e8bd
00000250: 5ae8 cd3d 0d0c 433e 1eaa 513d 4616 1f3e
00000260: 94bb 60bd f140 31be 25ba a6be 9520 03bc
00000270: 067b a3bd 6425 47be 72db 753e 30c8 7a3e
00000280: 6d2a 74be 150e bf3d d8c4 c5be f511 a8be
00000290: 27c4 48be b649 643e 7e40 68bb a599 4d3e
000002a0: 6167 d83d a7f9 dcbd f0a8 6bbd 9ef6 94bc
000002b0: 1e76 bbbd be4f 78be 6c03 5bbd f2c9 743e
000002c0: b49d a93d 61d8 873d dafc fb3d 6799 753e
000002d0: 2dce 9a3d 1a4a febd dea2 08be 8028 40bc
000002e0: 60b9 31bd 5f4d 99be ff5d 8f3d c974 603e
000002f0: fa07 37be 68b4 44bd f0fd f23d e0a2 43be
00000300: 68d4 39bd 668c b0bd e04b 1f3c 77ce 013e
00000310: fe93 583e 18c0 5f3e 5f0f 89bc 4590 b6bd
00000320: cbf7 f13b 3ee2 113e 5733 9f3e df84 86bb
00000330: 8b4b 56be 7df0 44be 1775 ad3d e34b a33d
00000340: a019 5abe 0da5 4c3e 13cd febd de82 253e
00000350: c7da d3bd 7322 2d3e c5a4 d1be 791e aa3d
00000360: a1a6 383e a399 0a3e 7602 223e 1b9e dcbd
00000370: 94b2 29be fd94 02bd 4d3a 9fbd 24e2 783c
00000380: 4395 793e cf02 98bd 270d 9ebd 4baa 23be
00000390: 1da6 563c 2637 4cbd df21 403e 8e98 babc
000003a0: 3f30 c4be 8818 913d 9b92 6e3e a8ba 0abe
000003b0: 9d9b dabb e69a 6e3e be03 75be cd2e c23d
000003c0: 5e19 973e 564b 30be 1284 4ebe 706c 433d
000003d0: 7ea5 16be 0e1d 553e 5978 df3e b67f 123e
000003e0: 45b5 febd fb43 f9bb 5694 2abd 2250 cfbe
000003f0: 7979 a43e 31db 5cbd 4295 a3bd aa92 3bbe
0.0055656987 -0.11012499 0.012381312 0.15595338 -0.33289975 0.20596264 -0.11945234 0.02573604
-0.15093574 0.28843138 0.20278002 -0.10501995 -0.031427428 -0.047660053 -0.25647014 -0.029070675
-0.16039306 -0.054337975 -0.26969707 0.17057168 0.11237479 0.21883059 -0.078214064 -0.038965277
-0.18564942 0.06786375 -0.14457653 0.014422013 -0.09214418 0.0951402 0.17627758 -0.11029526
0.08803925 0.19359846 -0.13905597 -0.15937538 -0.022828842 -0.1245562 0.057951078 0.18173295
0.15344717 0.16466641 0.33061394 0.02184878 -0.1861454 0.25972274 0.13619967 -0.25885084
-0.3089255 -0.046025388 0.09059734 0.30553442 0.1634507 0.12812686 0.28149968 -0.23907839
0.023685211 -0.18702091 0.009937307 0.26707804 -0.033006016 0.024811098 -0.10081327 -0.06679417
0.26614028 0.12621553 0.18017158 -0.16739924 0.31595144 -0.17520167 -0.031573635 -0.0687232
-0.030493088 -0.08742738 -0.037826005 0.19880527 -0.02786246 -0.40928775 0.15447147 0.057259504
-0.013895881 0.08080361 0.074240156 0.058762014 0.026585419 0.0037722383 0.33563393 0.1651585
-0.0526091 0.015308296 0.020702438 0.1144721 -0.19891916 0.046897873 0.037015196 0.3501168
-0.39380845 0.1853152 -0.3610695 -0.08471701 -0.26436642 0.0059630773 0.10231814 -0.19569562
0.01736202 -0.1931253 0.16474214 -0.074252956 0.030680725 0.023900004 -0.18167235 0.0065639806
0.16080503 -0.16432759 -0.13712595 0.026676776 0.2701271 -0.3220032 0.33109486 0.040788073
0.2583199 0.22369488 0.23992519 -0.13205515 0.21255715 -0.17815696 0.07689827 -0.13906445
-0.04140988 0.082702145 -0.17213774 0.026106002 0.04131955 -0.014316013 -0.0014102007 -0.13786332
-0.17051543 0.043701477 0.1611109 0.1747946 -0.006853083 0.031471416 -0.08715234 -0.1518984
0.043882217 0.08549771 -0.07999633 -0.11348804 0.10054083 0.19047566 0.051187627 0.1553584
-0.05486639 -0.1730993 -0.32563892 -0.008003374 -0.07982449 -0.19447857 0.24009493 0.24490428
-0.23844309 0.09328858 -0.38626742 -0.328262 -0.19606076 0.22293743 -0.003543883 0.20078142
0.10566593 -0.10789805 -0.05753416 -0.018184002 -0.091533884 -0.24249169 -0.05347006 0.23905161
0.082820326 0.06633068 0.12304087 0.239843 0.07558856 -0.124164775 -0.13343379 -0.011728406
-0.043389678 -0.29941842 0.0700035 0.2191955 -0.17874137 -0.04802361 0.11864841 -0.191051
-0.045368582 -0.08620529 0.00972268 0.12676416 0.21150205 0.21850622 -0.016730962 -0.08914236
0.0073842756 0.14246461 0.31093857 -0.004105195 -0.20927255 -0.19232364 0.08469599 0.079734586
-0.21298838 0.19984837 -0.124414586 0.16163203 -0.10344463 0.16907673 -0.40946022 0.083065934
0.18032314 0.1353517 0.15821251 -0.10772344 -0.16572028 -0.031880368 -0.07774792 0.015190635
0.24373345 -0.07422411 -0.07717352 -0.1598293 0.013101128 -0.04985728 0.18762921 -0.022777822
-0.3831806 0.07084757 0.23298113 -0.13547766 -0.0066713826 0.23301277 -0.23927209 0.09481583
0.2951154 -0.17216238 -0.20167568 0.047710836 -0.14711568 0.20811865 0.43646505 0.1430653
-0.12436918 -0.007606981 -0.04164537 -0.40490824 0.32123926 -0.053919975 -0.07987453 -0.18317667

base.4linear.bias f4 [50]
00000000: 6a9e 843c ea2e 2dbb 556a 593c 75dc 29bd
00000010: 4872 96bd cbaa 313d 6492 8c3d d88a bc3d
00000020: 5b06 363b ae46 6a3d 13bd 003d b005 f8bb
00000030: 5a10 e63d 8d67 ab3c a7cd 87bd d799 893d
00000040: 4336 6f3d b974 3fbd 6df5 c9bc 87cf 82bd
00000050: 468c f83d 2700 273c 9bec 9bbd 3614 f93c
00000060: 3eb5 c4bc eab3 023d 58ac 443c a3e7 30bd
00000070: e8d0 7e3d ca0d f33b f1a0 43be e591 b7bc
00000080: 8356 563c 09fd 3abc e597 3cbd 9e42 a13d
00000090: e484 9d3c 3a8f cebd 115c 013d 3a88 16bd
000000a0: 6a8f 583d 0410 423b 727d 843d 6fb7 b63d
000000b0: 563e 2ebd f13c 343d 8683 823d 2a84 1d3e
000000c0: e5c1 043b 1b6f 20bc
0.016188819 -0.0026425668 0.01326998 -0.04147001 -0.07346016 0.04337577 0.06863859 0.0920617
0.0027774784 0.05719631 0.031430315 -0.0075690374 0.112335876 0.0209234 -0.06631022 0.06718796
0.058401357 -0.046742175 -0.024653161 -0.06387239 0.1213613 0.010192907 -0.07613488 0.030405145
-0.024012204 0.03190986 0.012003981 -0.043189656 0.062210947 0.0074174153 -0.19104363 -0.022408435
0.013082149 -0.011412867 -0.046043295 0.07874034 0.019228406 -0.10085912 0.031581942 -0.03675101
0.052871145 0.0029611597 0.06469239 0.08921706 -0.042539917 0.04400343 0.06372742 0.15382448
0.0020257172 -0.009792115

base.5linear.weight f4 [50, 50]
00000000: 68ca b03d c72c 28be 3a73 b0be 6f15 2a3b
00000010: b928 5c3d d49a 453e 5da5 08bf a3ca f2be
00000020: 5c3c 5e3e 446f e7bc 0d4c 4abe aa9b 28be
00000030: 4abb 363d 664c 303e 9fe9 f5bc 7552 13bd
00000040: 237c 0c3e aaca e13c a345 24be 8062 2dbe
00000050: 8604 13bd e012 30bc a5f9 6cbc 0007 96be
00000060: 61b1 a73e 87fe 5c3e d506 c8b8 08b3 24be
00000070: 36a9 b0bd 09ba 37be 6bce 733e 7ebb 8dbd
00000080: 4e8d 993c e6e7 adbd a4f8 4abe 3a1f b83c
00000090: 49e8 553e 2d0a 753d a8cd 7abe e4e8 ffbd
000000a0: e998 843a b72e 7b3e c7c1 d1be 95c9 fcbd
000000b0: 8356 5b3d f85f 46be 0eac c6bd a913 fc3d
000000c0: a8de 44be f4bc 683d 5821 afbd 85eb b3bd
000000d0: 7ea8 303e 8a95 3a3d 5ee1 b83c cca2 dbbd
000000e0: 10ad 9ebd 0358 2cbe 583d abbd 067e 8abd
000000f0: e49d ce3d 9472 883d 631a 90be 0188 d13e
00000100: d2e4 983e cc58 1a3d 6a60 10be 8f4c a13d
00000110: 4d47 333d 3769 9c3e 7c44 cdbc 454e d13e
00000120: f22d fdbc 861b 003d 3be7 ea3d 0a8f 8e3d
00000130: 94bb eebc 1742 793e a084 1d3d 5c57 6b3d
00000140: 160e 163e e689 76bd c086 983e df54 12bd
00000150: 857f bebc dc5d 0e3d 6453 793e 7460 e6bd
00000160: fb57 3fbd 353e 9c3d a92c 2ebd 1d9f 97bd
00000170: 4400 b9bd 5a9c c93d 565c 1bbd 6dbe 343d
00000180: 05c3 b7bc cde9 313c cf41 51bb f3af 0e3e
00000190: 1480 62bd 5e25 553e fd50 13be cab6 67be
000001a0: 4320 5cbd 3d90 07be 930c f83d 9b57 0abe
000001b0: ca34 47bd 9845 a9bd 5e0c 8f3d 3f41 033e
000001c0: 7a2f 363e d015 713d 76f5 a3bd 0682 07bd
000001d0: a8cd 04be 7ab2 013e da23 d7bc 06d6 933e
000001e0: 66af 38be cfad 89bd 3fb3 8bbe 7042 083e
000001f0: c1a2 c1bc 1c76 39bd 66c6 92bc 669c 5e3e
00000200: 3a96 80bc 7d6c 28be 1f48 813e b082 ea3d
00000210: c773 b2b9 ad56 cb3d a058 73be d06b c5be
00000220: 4908 e13d 1e39 803e ec97 973d 1b46 703e
00000230: 026c 46bd 6d1a 23be 7b31 7a3d 250b 21be
00000240: b859 613c fcd7 fabd b86e 1bbd 38ab aabe
00000250: 821b 053e 4ed0 e93d 95d6 e7bd f3e2 763e
00000260: a2c5 6d3d 06ed 05bc 433a 23be 97e1 90be
00000270: 9aaf 09bc cd59 d3bc fa7e 82be e261 163e
00000280: 69e9 153d eada eb3b caa1 8abe 5f7a f33d
00000290: a150 ae3e 9b28 4fbe f067 a0bd d446 b3bd
000002a0: 8e68 edbd 7ad2 f53d b8b0 9cbe a9af 553d
000002b0: ba83 8ebe e418 23be 7602 c03d 2f0a 0c3e
000002c0: 9d41 223d 12ce bb3d 8345 6bbd f615 83bd
000002d0: aacb 74bd c8d7 0abe 8248 8a3e c5bb 52bd
000002e0: d89d c53d 3230 903e b4ca bb3d 0bdc 093e
000002f0: d05f a1bd 398b 92bd a9ab 48bd 5c2a 853d
00000300: ad89 203e adeb a53c f0ce 1fbc 8d26 d7bc
00000310: b265 8e3d 58ba 3f3e addf 14be 6830 173e
00000320: 3f8b 3fbe d39f 48bc 23e8 3d3d 4306 e2bc
00000330: 96b2 a13d bbc4 8e3e 1064 c33e 1790 d53d
00000340: d657 0a3e de85 783d 8364 703d 813a 85be
00000350: c105 f33d ba8e 003d 0886 c0be 0e70 a03e
00000360: e0c2 f8bc 666d d63d e074 773e a35f 12be
00000370: 97be 2b3e b624 8bbd d71f 56bd 04a1 873c
00000380: 8f83 a4bc ebf9 213d 878e e03d c344 f9bd
00000390: bc01 ba3d 5a8e 6e3e 64dd cdbe 7d79 293e
000003a0: 81ec 673e cda6 283d 2fc9 c73d 28b6 133e
000003b0: 1273 dfbd caae 4f3d 5f43 243e 2619 2f3d
000003c0: 55cb a83e 7252 c9be 002a a43e c5d1 8c3e
000003d0: f70e 5bbe 05dc 9a3e 7408 f23d 053d d13e
000003e0: 6713 5dbb c6bc 1bbe 0e0f f03d 4218 c9be
000003f0: 8689 853e 0259 edbd beea d63e 0fc1 163e
0.08632356 -0.16423331 -0.3446291 0.0025952717 0.053749774 0.19297343 -0.53377324 -0.47420225
0.21702713 -0.028251298 -0.19755574 -0.16465631 0.044612207 0.17216644 -0.030018626 -0.03596731
0.1371923 0.027562458 -0.1604219 -0.16932106 -0.035892986 -0.010746688 -0.014463817 -0.29302216
0.32752517 0.2158147 -9.538016e-05 -0.1608392 -0.086260244 -0.1794206 0.23809211 -0.06920527
0.018744137 -0.08491497 -0.19821411 0.022475827 0.20889391 0.059824158 -0.24492514 -0.12495592
0.0010116372 0.24529539 -0.40968153 -0.12343136 0.0535493 -0.19372547 -0.097007856 0.123084374
-0.19225562 0.056820825 -0.08551282 -0.08785156 0.17251775 0.045552768 0.022568401 -0.107244104
-0.07747853 -0.16830449 -0.0836131 -0.06762318 0.10088709 0.06662479 -0.2814513 0.40924075
0.29862076 0.03768234 -0.14099279 0.078759305 0.04376917 0.30549023 -0.02505707 0.40880027
-0.030905697 0.03127625 0.11469885 0.06960876 -0.029142179 0.24341618 0.03845656 0.05745636
0.14653811 -0.060190104 0.29790306 -0.03572547 -0.023254165 0.03475748 0.24348217 -0.11248866
-0.046714764 0.076290525 -0.04252306 -0.07403395 -0.09033254 0.09844275 -0.037929855 0.044126917
-0.02243186 0.010858965 -0.0031930094 0.13934307 -0.055297926 0.20815036 -0.14386363 -0.22628322
-0.053741705 -0.13238616 0.12111773 -0.13509981 -0.048634328 -0.08265227 0.06984781 0.12817858
0.17791548 0.058858693 -0.08005802 -0.033082984 -0.12969077 0.1266574 -0.026262213 0.28874224
-0.18035659 -0.067226045 -0.2728519 0.13306594 -0.023637177 -0.045278654 -0.01791687 0.21739349
-0.015696634 -0.16447635 0.25250337 0.11450708 -0.00034037067 0.099286415 -0.23764277 -0.38558817
0.109879084 0.25043577 0.07402024 0.23464243 -0.048442848 -0.1592805 0.061082345 -0.15726908
0.013754301 -0.12248227 -0.037947387 -0.33333755 0.12998775 0.11416684 -0.11320225 0.24110012
0.058049805 -0.008174187 -0.15940194 -0.2829711 -0.008403683 -0.025799656 -0.254875 0.14685777
0.03659955 0.0071977274 -0.2707656 0.11888575 0.3404589 -0.20230334 -0.078323245 -0.08753744
-0.11592208 0.12003036 -0.30603576 0.052169476 -0.27834874 -0.15927464 0.093754694 0.1367576
0.039613355 0.09170164 -0.05743934 -0.06400673 -0.05976454 -0.13558877 0.27008444 -0.051448602
0.09649247 0.2816177 0.09169522 0.13462846 -0.07879603 -0.07155461 -0.048991833 0.0650222
0.15677519 0.02025398 -0.009753928 -0.0262635 0.069529906 0.18723428 -0.1453845 0.1476456
-0.18705462 -0.012245136 0.04636396 -0.027590876 0.07895391 0.27884468 0.3816228 0.104278736
0.13510069 0.06067454 0.058689605 -0.26021197 0.11866332 0.031386115 -0.37602258 0.3133549
-0.030366361 0.10470085 0.24165678 -0.14294295 0.16771923 -0.067941114 -0.05227646 0.01655627
-0.020082263 0.03954498 0.10964685 -0.121713184 0.09082362 0.2329649 -0.4020797 0.1655025
0.22648813 0.0411747 0.097551696 0.14424956 -0.1091062 0.0507038 0.16041325 0.042748593
0.3296763 -0.39320713 0.32063293 0.2750379 -0.21392427 0.30245987 0.118180186 0.40866867
-0.0033733489 -0.1520873 0.117216215 -0.3927632 0.26081485 -0.115892425 0.4197597 0.14722084

base.5linear.bias f4 [50]
00000000: a99d 67bd 55d7 383d 918a 81bd 19bb 633c
00000010: 95ca 283e 5f1c 13be bf4d 46bd 2822 a73d
00000020: 4839 06bd 1330 3abd 1d48 4f3d 6e44 b5bd
00000030: 5f55 833d f434 76bc d208 293c be1b ddbb
00000040: 336b 233b fe1b 3fbd 1559 a2bd c05e acbb
00000050: bbf5 813d 322e 0cbd 0166 163c 5736 4d3d
00000060: 8cc6 0d3d 495c 673d 437d 593c c2ba 2e39
00000070: f16c 46bc dbbd a03b 923b 883d 1bdf ec3c
00000080: 6cf6 633c 5c01 973c a795 34bd 82bd 2e3d
00000090: 216a 3cbd 1a47 263d 25a6 61bc fefb ab3c
000000a0: 8175 9b3d 9b76 843b 6236 733d b0f8 8ebd
000000b0: 05c8 3dbd 54df a83d f4ba 8ebc 44cb 09bd
000000c0: ee8d 12bd 2ee5 f73c
-0.05654684 0.04512723 -0.063252576 0.013899588 0.16483529 -0.14366291 -0.04841399 0.08160812
-0.03276947 -0.045456003 0.050605882 -0.088509426 0.064127676 -0.015027273 0.010317044 -0.006747692
0.0024935722 -0.046657555 -0.07927147 -0.0052603185 0.063456975 -0.034223743 0.009179593 0.05010065
0.034613177 0.056484494 0.013274494 0.00016663506 -0.012110935 0.004905445 0.06651987 0.028914979
0.013913732 0.018433265 -0.044088032 0.042661197 -0.04599965 0.04059515 -0.013772522 0.020994183
0.075907715 0.004042459 0.059378035 -0.06981027 -0.04633333 0.082457215 -0.01742313 -0.033641115
-0.035779886 0.030260649

base.6linear.weight f4 [50, 50]
00000000: 3677 cf3d 8451 963e b8d1 7fbd 37c2 813e
00000010: fa84 c5bd 4bff 1bbe 3522 a5bd bc8d 19be
00000020: 1132 7a3e 9c6b 10bd 087d a53e 4dbe f33d
00000030: bde6 543e 3454 3ebe 26c4 ddbd fb95 20be
00000040: 5b4e eabb 591d dcbd 291b 743d eaf5 653e
00000050: be01 41bd 0149 9f3d 6889 48bb 6123 c93d
00000060: b86d db3d 454e 8d3d 0228 213e 3820 0e3e
00000070: 4eeb abbd 62b3 1cbe 2d2e 03be 1998 0fbe
00000080: d7e4 dcbc 48e2 0ebe a03a 85bd 158b a83e
00000090: ebef d6bc 11f9 853e 5d6c b5bc 4dba a1bd
000000a0: 52ca c5be 7111 963c 4ae9 e63c ba80 0a3e
000000b0: c502 453e 748a a7ba 0378 363d 1eec 36be
000000c0: d15d 363e 817c fc3d 0faf ffbd 449c e23c
000000d0: 208d a6bc fb32 863e b101 273e 4eac 3dbc
000000e0: 6307 ba3d 6630 6cba 7308 5dbe e136 153e
000000f0: 9537 903d 93c9 07be a0a6 8b3d bb98 19be
00000100: d89e 6fbd 3cb2 8f3c 997b 3e3e fd31 713c
00000110: c757 ba3c cf96 4d3b cc2d af3d 0b44 75be
00000120: 2aa1 60be 7e2c 8fbe 871e e83d 920d a63e
00000130: 2cb9 073e a15a e83d c3dd 023e cec9 0d3f
00000140: de85 a1be 83b7 ad3e 4e07 b23e fb24 8bbe
00000150: 4bb8 bbbd 594f fb3d 0478 adbd 7a8c 6f3d
00000160: 7e90 8fbe 9f2e 023e 69d3 373e dc83 34be
00000170: b4fd 053e a8ab 583d 3d0f 2bbe 3e8e 72bd
00000180: 18b4 c33d 7327 0bbd c475 a33d 30f6 5bbe
00000190: 4cf1 30be 8416 f9bd 8ce3 33bd 8977 bcbd
000001a0: c4c9 5b3c ddf9 babd 23b6 fcbd 7fed 7b3d
000001b0: 448c 98bb 2045 bfbe 856d 743e bd33 a33d
000001c0: 40b9 4bbe 1acb f2bc 874f 43bd 3773 dabd
000001d0: f204 f73c f92e c8bd 98fc 31be aa3e b7bd
000001e0: b903 3f3d 68d3 e1bd 9dab 833e da9f 3b3e
000001f0: 8c16 1dbe 48c2 93bd 5841 2c3e c646 8cbe
00000200: 1988 0dbe 9693 6bbe 2c6d 27bc 404c 2cbc
00000210: bfa0 25bc a0f3 f63d 6400 043e 5e82 c6bc
00000220: c7e0 d2bd 9f3e cebe 2ad7 8bbe 193d 2dbd
00000230: 7526 82bc 36dd cd3d 0811 f7bc f19b 283c
00000240: da52 073e c649 c23d 4005 263d 7888 553e
00000250: 19f8 693e ff7f 92bd 97c3 5a3d 5e16 6fbe
00000260: 63e1 84bd 0e9f abbd 6e94 9fbd 6a92 9f3d
00000270: 8db9 7cbe 27d7 2bbd 9f5d bfbd 2b22 213e
00000280: 534e 1cbb 5086 e5bc 50cb dbb9 bc9a 38be
00000290: 0521 023e 9144 03be 274c a8bc a7e5 01be
000002a0: 2348 debd a2a5 163e bea3 453e de43 853e
000002b0: b119 41bd 353c 87bd e7b9 0cbe cffd 983b
000002c0: 98af 82be 78a7 033e 2cdf acbe 1b8a 6bbc
000002d0: f447 c73d a03a 12be ea52 023d 3bf3 1a3e
000002e0: d337 6d3e d253 b03d 553e 283e 5c80 01bd
000002f0: 67a4 b63c d991 0a3e 87a5 823d 63dd 1abf
00000300: f425 0c3e bd51 46be 485b 75be 669c 7a3e
00000310: 76b0 1ebc 3adc 5ebe 65f5 8ebe eae6 26be
00000320: 7f53 afbe 3db4 b33d c03d c6bc cf21 153d
00000330: b94a 233e 6ea4 873c 91e1 76be ab6c e8bd
00000340: da19 eb3c 9e8f 023d 2e65 c0ba ad05 303e
00000350: eadc c4be f998 983d d2fb 92bd 03be 973c
00000360: f7b1 a93c 80dd 2abd c7fe 9cbe 644d 083e
00000370: fa58 94be 241b d2bd a5b8 efbd 7ca3 0a3e
00000380: d695 b9bd 72e9 b93e 932b 63be 6c94 6a3e
00000390: ac97 8cbe 7b1c 5f3e 2dc6 24bc de78 543d
000003a0: e436 5e3d c223 20be de45 9cbe 5273 16be
000003b0: 0b86 5bbd aeb3 eebd d2c7 e8bc 8961 433e
000003c0: c64f cfbd 9c24 2ebd 9feb 383d 8951 c63e
000003d0: 78b6 edbd f84a 4bbd fc0c 003e 1c96 85be
000003e0: 6f71 93be 6836 d73d f5a3 9b3e 1468 403e
000003f0: 8fef 423e c6f7 35be 5cea 323d 5055 873e
0.101301596 0.29359066 -0.062455863 0.25343487 -0.09644504 -0.15234105 -0.08063165 -0.14995474
0.24433161 -0.035258874 0.32321954 0.11901531 0.20791145 -0.18586808 -0.10828428 -0.15682213
-0.007150454 -0.10747785 0.059596214 0.2245709 -0.047120802 0.07777596 -0.0030599479 0.09821201
0.107142866 0.06899694 0.15737918 0.13879478 -0.0839449 -0.15302804 -0.12810583 -0.14022864
-0.026964588 -0.13953507 -0.065053225 0.3291861 -0.026237449 0.26166585 -0.022146398 -0.07896862
-0.3863092 0.018318864 0.028187413 0.13525668 0.19239338 -0.0012782351 0.044548046 -0.17863509
0.17809226 0.12328435 -0.12484562 0.027662404 -0.020330966 0.2621077 0.16309239 -0.011576725
0.0908344 -0.00090098975 -0.21585254 0.14571716 0.070418514 -0.13260488 0.068188906 -0.14999668
-0.058501095 0.017541043 0.18601836 0.014721391 0.022746934 0.0031370407 0.08553657 -0.23951738
-0.21936479 -0.27963632 0.11333948 0.32432228 0.13254231 0.11345411 0.12779908 0.55386055
-0.31547445 0.3392907 0.34771198 -0.2717665 -0.091660105 0.12270994 -0.08470157 0.05848358
-0.28039926 0.12713097 0.1795174 -0.17628425 0.13085061 0.05289808 -0.16705032 -0.059217684
0.095558345 -0.03397317 0.079814464 -0.21480632 -0.17279547 -0.12162498 -0.043918177 -0.09202487
0.013414804 -0.09129689 -0.12339427 0.06150579 -0.004655393 -0.37357426 0.23869903 0.07968853
-0.19894886 -0.029637862 -0.047683265 -0.10666507 0.030153725 -0.09774584 -0.17381513 -0.08947499
0.04663441 -0.11026651 0.25716868 0.18322697 -0.15340632 -0.072147906 0.16821802 -0.27397746
-0.13821448 -0.23005518 -0.0102189 -0.010516226 -0.010109126 0.120581865 0.12890774 -0.024232086
-0.10296779 -0.4028215 -0.27312595 -0.042294595 -0.015887478 0.10051958 -0.030159488 0.010291086
0.13215199 0.094867274 0.04053235 0.2085284 0.22848548 -0.071533196 0.053409185 -0.23348376
-0.064883016 -0.08379947 -0.077919826 0.07791598 -0.24680157 -0.041953232 -0.09344029 0.1573569
-0.0023850396 -0.028018147 -0.00041922415 -0.18027776 0.12707908 -0.12819125 -0.020544125 -0.12685262
-0.10853603 0.14711621 0.19300744 0.2602834 -0.04714364 -0.066032805 -0.13742791 0.004668928
-0.25524592 0.12856853 -0.33764017 -0.014376189 0.09730521 -0.14280176 0.031817354 0.15131848
0.23165826 0.086097375 0.16430028 -0.031616554 0.02229519 0.13532199 0.06379228 -0.6049406
0.13686353 -0.19367118 -0.23960602 0.24473724 -0.009685626 -0.21763697 -0.27921596 -0.16299024
-0.3424339 0.08774612 -0.024199367 0.036409196 0.15946473 0.016557898 -0.24109484 -0.11348852
0.02869885 0.031875245 -0.0014678591 0.17189665 -0.38449794 0.07451052 -0.07176937 0.018523222
0.020714743 -0.041715145 -0.3066313 0.13310772 -0.28974134 -0.10259083 -0.1170514 0.13538927
-0.09061782 0.36310917 -0.22184591 0.22908181 -0.27459466 0.21788208 -0.010057014 0.05187308
0.054251567 -0.1563864 -0.30522054 -0.14692429 -0.05359463 -0.11655365 -0.028415594 0.19080175
-0.101226375 -0.042515382 0.04514658 0.3873408 -0.11607069 -0.049632043 0.12504953 -0.26091087
-0.2879748 0.10508424 0.30398527 0.18789703 0.19036697 -0.177703 0.043680534 0.26432276

base.6linear.bias f4 [50]
00000000: 5990 a83c 8f8c fa3c c20a 003e 2ac2 06be
00000010: 89d2 153d 7845 23bc ac1a 733d 00ec 733d
00000020: 19a3 b93c e99c cc3c 3143 243d 1b7f bebb
00000030: f49c 42bc c833 36bd a084 133c 92af 11be
00000040: b05d ae3d dc5c 2fbd 98e2 1bbd 3bf9 263b
00000050: 518c 86bc dbf5 7abc d8c4 a23c 6e5d fd3d
00000060: 9aaa 853d acab 57bd e8e2 b8bd 02c2 ff3d
00000070: a4fd 9a3c c42c 35bc ed35 7cbd c3ab 4d3d
00000080: 019b 1b3d 01c4 ac3c d0d8 7ebc fdbc e03b
00000090: 9988 c23a 2945 d13c 6ef3 2ebd 3937 263d
000000a0: 5207 1a3d 0354 13bd ec0b 2fbb 42da 3ebd
000000b0: bce8 a73a c37d c5bb 35aa 9a3c 97b4 2c3d
000000c0: a058 7cbd d5ed 893c
0.020576643 0.030584602 0.12504104 -0.13160005 0.036577735 -0.009965293 0.05935161 0.05955124
0.022660779 0.024977164 0.04010314 -0.005813492 -0.011878241 -0.044482976 0.009003788 -0.14227131
0.08513963 -0.042813167 -0.038057894 0.0025478143 -0.01642433 -0.015317406 0.019869253 0.12371336
0.0652668 -0.052653953 -0.09027654 0.12488176 0.018919773 -0.011058036 -0.061574865 0.050212633
0.03798962 0.021089556 -0.015554622 0.0068584667 0.0014841735 0.025545673 -0.04271262 0.04058001
0.037604637 -0.03596879 -0.0026709987 -0.046594866 0.0012810449 -0.006026955 0.01887999 0.04216441
-0.061607957 0.01683704
