STPINN-RANS/sub_data/sub_write/29NS_model_train.pt (torch, 100283 bytes, 22 tensors)

base.0linear.weight f4 [50, 3]
000000 ce 72 8c be ac 20 0a bd 48 e5 f0 3d 36 32 66 be
       -0.2743134 -0.033722565 0.11762482 -0.22480091
000010 f8 cd 19 3e bf 7d 0c 3e 8c b4 a7 be 28 13 a0 be
       0.15019977 0.13719843 -0.32754934 -0.31264615
000020 b1 38 91 bb ca a6 61 ba 29 6d 65 3a 6d 06 9d 3a
       -0.004431807 -0.00086079224 0.0008751923 0.0011980064
000030 69 ae 0b 3d e4 09 58 3e d8 f8 3f bc d0 94 07 3e
       0.034101877 0.21097523 -0.011717044 0.13240361
000040 f9 3f e4 bd 5b 3a 0d bc c9 96 e2 bc 05 41 72 3d
       -0.11145014 -0.00861987 -0.02765979 0.05914404
000050 c6 4d 6c 3e 94 e6 eb ba 1d 35 87 3a 98 9e d3 b8
       0.23076543 -0.0017997795 0.0010315512 -0.000100908044
000060 a1 75 58 3b 47 72 26 be 7e e6 e9 bd 05 c9 01 3e
       0.0033029097 -0.16254531 -0.11420916 0.12674339
000070 e2 77 58 3d 19 92 c1 be ec 36 16 bd 0b 9f ab 3c
       0.052848704 -0.37806776 -0.03667347 0.020949861
000080 80 ce 11 bc be 2c 4d be 3e 48 a7 3d e8 b0 02 3e
       -0.008899331 -0.20036599 0.08168076 0.12762797
000090 09 91 aa bc 25 fe a8 3d d9 f9 97 bc 34 fb 80 3b
       -0.020821111 0.08251599 -0.018551754 0.0039361957
0000a0 48 74 90 3d c9 58 64 3e 53 ae 38 bc fa 5d 69 3e
       0.07053429 0.22299494 -0.011272031 0.22789755
0000b0 1d f0 83 be 7d 47 71 be 98 b6 a5 be b8 cb 4d 3e
       -0.2576913 -0.23562427 -0.3236587 0.20097244
0000c0 65 1f 4c 3e 8d 48 cc 3b 5e f6 d7 bd b5 c5 98 3e
       0.19933851 0.0062342347 -0.10545038 0.29838338
0000d0 ae fd 8b be e6 6c 38 be a7 b0 5b 3d 8b 29 c9 bd
       -0.2734198 -0.18010291 0.053635266 -0.09822377
0000e0 ea 01 88 be d5 8c 83 3d 39 32 87 bd cf 53 bc be
       -0.2656396 0.06423346 -0.06601376 -0.3678269
0000f0 5c 98 83 3e 66 12 54 3e 65 23 b9 be 3d 9a a0 bc
       0.25702178 0.20710143 -0.36159816 -0.019604797
000100 4c 6f 9c bc 2c a2 33 be 00 9e 2a 3e 67 2f 14 3d
       -0.01909604 -0.17542332 0.16661835 0.03617802
000110 9f 42 94 be 69 cb e6 bc 20 87 41 3e 77 b0 c4 be
       -0.28957078 -0.028173165 0.18899202 -0.38415882
000120 0c 61 31 bd a5 d0 d2 bd c0 72 0f bd d1 8e 4e bd
       -0.04330544 -0.10293702 -0.035021544 -0.05042917
000130 27 03 ed bd 7f af 6e 3d 55 29 98 be e8 48 44 bc
       -0.11572867 0.058272835 -0.29719034 -0.011980273
000140 2a e5 08 3e 59 cd 00 be 15 e3 1f bc 6a 88 eb 3d
       0.13368669 -0.12578334 -0.00975873 0.11500628
000150 e7 27 f4 3d d0 dc b9 bd e0 47 a5 be 65 41 28 3e
       0.11921673 -0.0907532 -0.322814 0.16431196
000160 f3 c6 1f be 4c 86 57 be d5 77 e0 3d 31 0e 37 bd
       -0.15603237 -0.21047324 0.10960356 -0.04469127
000170 60 44 a5 3d 8e 97 8c be 9f 23 94 3d bd 09 fd 3e
       0.08069682 -0.27459377 0.07233357 0.49421492
000180 55 b1 69 be 7a ec fe bd 6e 26 95 3e ec 52 20 be
       -0.22821553 -0.12447448 0.29130882 -0.15656632
000190 da 01 b6 3e e3 db 22 be 66 76 26 3e a8 a2 69 bd
       0.35548288 -0.15904193 0.16256103 -0.057039887
0001a0 48 0a 44 be 84 34 92 bd 6a ba 51 3e ef 4f 27 3d
       -0.19144547 -0.07138923 0.20481268 0.040847715
0001b0 2a 40 f6 3d 8a 02 16 3e 4f ae d2 be d1 86 35 3e
       0.12023957 0.14649406 -0.41148612 0.1772721
0001c0 e7 dc 08 3f 1b d2 c3 be 41 3e 8e 3d f0 d2 d7 be
       0.5346207 -0.38246235 0.06945468 -0.4215312
0001d0 9f 2a 3f 3c 02 b9 b4 bc 52 33 31 be 27 df 6e 3e
       0.0116678765 -0.022060875 -0.17304733 0.23327313
0001e0 a2 db f3 3d 0f 0a 93 3e d1 f5 3a be 82 c0 04 be
       0.11907126 0.28718612 -0.18257834 -0.12964061
0001f0 c7 73 f9 3d 51 87 42 3d 3e 80 fb 3d 38 b3 95 bd
       0.12180286 0.04749233 0.1228032 -0.07309574
000200 c1 ff 8f be 8a 56 da be 07 3e 78 3d 23 8a 63 3e
       -0.28124812 -0.4264415 0.06060603 0.22220664
000210 7e 7d a6 3d 67 cb 20 bc 57 89 ef 3c ea 38 3c 3e
       0.081294045 -0.00981412 0.029240293 0.18381086
000220 51 8c 27 be b5 2c 06 be 8a 65 08 bd f8 e7 55 3c
       -0.1636212 -0.13102992 -0.03329996 0.013055794
000230 db 15 78 be 6a e3 6d 3d e2 d1 2b be aa 55 8f bd
       -0.24227087 0.058078207 -0.16779283 -0.06998761
000240 4f 28 d7 bd d4 4d 29 3e 9c 37 5d be 3d 00 b1 bb
       -0.10505735 0.16533595 -0.21603245 -0.0054016397
000250 f0 4a 56 3e 98 31 43 be
       0.20927024 -0.19061887

base.0linear.bias f4 [50]
000000 59 7a 97 3d ea c0 30 bd 6d 0e 62 3e f7 80 76 39
       0.07396383 -0.043152727 0.22075815 0.00023508431
000010 f7 0e 29 be a9 ef aa 3c 56 b1 e4 bd c6 46 fb 3a
       -0.16509615 0.020866232 -0.11166637 0.0019170872
000020 c1 35 2e 3e ae e8 20 3e 9c fa 77 3b 8d 08 7b bd
       0.17012693 0.1571376 0.0037838584 -0.06128745
000030 8f 1b 65 bd 11 d4 8d 3d b2 e0 58 3d 05 cd 0c 3e
       -0.055934485 0.06925214 0.05294866 0.13750084
000040 9a ad 0d bd 34 25 ec 3d e8 5a c0 3d c1 91 cf bd
       -0.034589387 0.115305334 0.09392339 -0.10135222
000050 14 4b d2 bc 58 06 cd 3d ff 57 66 bc ea 5f a7 3c
       -0.025670566 0.100109756 -0.014059066 0.020431478
000060 47 00 04 3e bd 48 bd 3d 70 6d 85 3c b3 14 8e bd
       0.12890731 0.09242389 0.016287535 -0.06937542
000070 ae 8b 2b 3e eb 66 9e 3c f1 34 06 bd 0b 8d 5e 3d
       0.16752502 0.019336184 -0.032765333 0.054333728
000080 7f ef 85 bd 32 2d ef bd fd fe b7 3d 58 23 04 be
       -0.06539821 -0.11678542 0.08984182 -0.12904108
000090 38 13 03 bc 5c 9c 00 be 53 72 01 3e f8 6f 51 3c
       -0.008000188 -0.12559646 0.12641267 0.012783043
0000a0 61 4a 0c be 5d 6c a4 bd 24 1d ad bc 13 b9 d4 bd
       -0.13700248 -0.08028481 -0.02113206 -0.103868626
0000b0 ad 6e 38 bd e6 53 16 3e e7 09 3f 3e 23 9a 26 3e
       -0.045027424 0.14680442 0.18656121 0.16269736
0000c0 b6 e3 bb 3c b3 8b 1d 3d
       0.02293573 0.038463306

base.1linear.weight f4 [50, 50]
000000 74 e8 8d be 45 3b 10 3d 9f 51 63 3c eb 0b 81 bd
       -0.2771641 0.035212774 0.01387444 -0.06301101
000010 45 9e a6 3e 67 e7 27 bc 6c 17 e4 3c fc 26 bd 3d
       0.32542625 -0.010248042 0.0278432 0.09235951
000020 c5 a3 0f be f9 d1 7d bd ee bc e3 3c a2 28 1f be
       -0.14027317 -0.061967824 0.02780005 -0.15542844
000030 a7 8b a3 be 04 7c ba 3d 7b 50 1c 3e 2d e6 c9 bc
       -0.31942484 0.09105685 0.15265076 -0.02464589
000040 94 a1 90 3d db 94 bc 3c 2f 36 25 be 8d dc 43 3e
       0.070620686 0.023020199 -0.1613395 0.19127102
000050 c0 34 2c 3e b0 2e ce 3c e0 3e 7b 3e 11 c1 06 be
       0.16816998 0.025168747 0.24535704 -0.13159586
000060 f7 ff 59 bd 46 57 95 bd e2 af 78 be 4f 1d 9f 3d
       -0.053222623 -0.07292037 -0.24285844 0.07769262
000070 c9 9f 46 be 06 6e 09 be 33 2f 4f 3c dd 31 22 be
       -0.1939689 -0.13420877 0.0126455305 -0.15839334
000080 a8 95 9e 3d ee 56 34 be 1e 42 3d be 8d 79 d2 3d
       0.077433884 -0.17611286 -0.18482253 0.1027709
000090 40 4b 18 3e 84 bd 96 3e d1 7d 88 be 88 eb de 3d
       0.14872456 0.29441464 -0.2665849 0.10884768
0000a0 5c a1 72 3e d2 c0 c8 bd bc 82 1d be d0 d4 01 3e
       0.23694366 -0.098024026 -0.15381902 0.12678838
0000b0 3d 1c 3c 3c 54 e2 5d bd 96 26 81 be 90 42 a7 be
       0.011481342 -0.05417092 -0.2522475 -0.3266797
0000c0 c7 fa 55 3c fd 17 84 bd 00 23 b0 3a 91 f9 b0 3e
       0.013060278 -0.06449888 0.0013438165 0.34565404
0000d0 96 01 d6 be f4 1f 45 bd a5 a1 b3 bd e3 ad bd bd
       -0.41798085 -0.048126176 -0.087710656 -0.09261682
0000e0 53 b9 dd 3b bd df 84 bc 04 77 2a be 76 4e 15 3e
       0.006766477 -0.016219968 -0.16646963 0.14580712
0000f0 84 d5 88 3c f4 11 a7 bc 23 5f f8 bd 96 f5 ed 3c
       0.016703375 -0.020394303 -0.12127521 0.029047769
000100 79 d9 80 3d 51 ef cc bd 83 65 7b 3d 49 61 77 bd
       0.062914796 -0.100065835 0.061376106 -0.060395513
000110 bd 1e 94 3e c5 0a 25 be df 03 d6 bd 56 14 37 bd
       0.289297 -0.1611739 -0.10449957 -0.04469713
000120 b3 2e 03 be 47 c1 29 3d 32 7a 33 bd cc dd 6a be
       -0.12810783 0.04144409 -0.043817706 -0.22936171
000130 b2 00 88 3d e3 d5 70 be 82 27 1a 3e 03 b3 5f bc
       0.066407576 -0.23519091 0.15054134 -0.01365352
000140 aa 35 8e 3d 85 e2 e2 3d e9 09 b5 be 48 de 48 3e
       0.06943829 0.110783614 -0.35359123 0.19616044
000150 21 18 38 3e df 11 ad 3e 7a 9c 0e 3e e0 6e 89 3e
       0.17977954 0.33802697 0.13926879 0.26842403
000160 d6 b8 a3 be 5c cb 1c 3e 6b 9f 7e 3e 69 ba fc 3d
       -0.31976956 0.1531195 0.248655 0.123402424
000170 9b 15 0c 3e 96 75 a0 be d6 1a 56 be 7c 11 34 3d
       0.13680117 -0.3133971 -0.20908675 0.043961987
000180 d0 2b c9 3e 9a 36 5d be 4d 83 6c 3e ce 0f 29 3d
       0.3929124 -0.2160286 0.23096962 0.04127484
000190 9c fe 04 3d da 06 23 3e 01 1c 7e 3d aa 81 78 ba
       0.032469377 0.15920582 0.062038425 -0.00094797707
0001a0 b9 c5 48 bc 16 23 32 be c8 f4 0f 3e f3 1a 55 bd
       -0.012254172 -0.17396197 0.1405822 -0.052027654
0001b0 86 18 15 3e 79 8c 81 bd 71 4e 01 be d5 c9 b1 3e
       0.14560136 -0.06325621 -0.1262758 0.34724298
0001c0 cc ff b4 3c 40 89 27 3e 4d ba 5a 3d 06 01 d4 3d
       0.02209463 0.1636095 0.053400327 0.10351758
0001d0 cf 41 af 3d c3 17 15 3e de 82 a6 be ca 57 4d 3d
       0.08557474 0.14559846 -0.3252172 0.05013255
0001e0 32 57 9e be 29 c1 28 3e a2 9b da bd 6f 8f ed bd
       -0.309259 0.16479935 -0.10674216 -0.115996234
0001f0 95 00 04 be 47 0e 40 3e 82 29 1b 3d b8 38 67 be
       -0.12890847 0.18755446 0.03788138 -0.2258023
000200 21 39 10 be 55 4c 5e 3d 3a 2a 41 bd 97 67 5b be
       -0.14084293 0.054272015 -0.04715941 -0.21426235
000210 f5 a0 a6 bd f3 53 7b be 13 bd 65 3c 3d 5d 17 bb
       -0.08136169 -0.24543743 0.01402213 -0.0023096346
000220 a7 df 4f be 76 e7 71 bd e8 7e c1 bd bd 02 9a bc
       -0.2030016 -0.05905863 -0.094480336 -0.018800134
000230 b1 fa 5e be e6 21 ec bd 1a 03 56 be ba 13 59 be
       -0.21775319 -0.11529903 -0.2089962 -0.21198931
000240 d7 98 f5 3d 93 c4 67 3d 82 4b fe bd cf 6b a8 3e
       0.119920425 0.056583952 -0.12416746 0.3289475
000250 cb ae 40 bd 5b e8 f5 bd d4 b8 b4 bd 1e f4 05 be
       -0.047041696 -0.12007209 -0.08824316 -0.13081405
000260 ba e5 88 bd 5b cb 67 bd 21 31 29 3e 62 04 3d be
       -0.06684442 -0.05659042 0.16522647 -0.18458703
000270 5a cd d1 3d 16 21 fb bd b8 ff 47 be 1f 48 89 3c
       0.10244246 -0.1226217 -0.19531143 0.016758023
000280 61 c6 52 3b 7b 12 44 3e 8d 12 4d bd f7 ba 76 bd
       0.00321617 0.19147675 -0.05006652 -0.060236897
000290 ea 4b 21 3e 59 2a c1 be 8d ed 0b be f5 f6 e0 bd
       0.15751615 -0.3772762 -0.13664837 -0.10984603
0002a0 65 a1 26 3d ca 11 18 be 8b 90 67 be b9 fd fc 3c
       0.04068126 -0.14850536 -0.22613733 0.030882703
0002b0 f0 c9 1b 3e f0 7a f2 bc 2b 10 94 bb ea e2 90 be
       0.15213752 -0.029599637 -0.004518529 -0.28298122
0002c0 67 91 e6 bc 8b f3 23 3d 11 4d b9 be ab 96 88 be
       -0.028145505 0.040027183 -0.3619161 -0.2667745
0002d0 6a c7 81 3b 53 aa 5c 3b 0a b0 9c bd 98 70 2a 3e
       0.0039605396 0.0033670857 -0.07650764 0.16644514
0002e0 a3 2d 45 be b6 27 d3 3d ca 71 74 3d fd 49 39 3e
       -0.1925569 0.10310309 0.05967883 0.1809463
0002f0 5b 01 0d bd 47 86 f7 3c 7d e5 65 3e fe e9 42 be
       -0.03442512 0.030215396 0.22450824 -0.19034573
000300 50 23 14 3c 5b e8 38 3b eb 38 ba bb dc 80 e0 bd
       0.009041622 0.0028214667 -0.0056830547 -0.10962078
000310 68 67 20 be 37 d5 c6 be 44 df c5 bd 9b c2 a4 bd
       -0.15664446 -0.38834545 -0.09661725 -0.080449305
000320 bc c8 d7 3e a0 68 1a 3e 7e f5 37 be a8 d4 bf 3d
       0.42145336 0.15078974 -0.17964742 0.09366733
000330 75 0a 15 3f f8 73 93 be df 31 5a bd 92 70 39 be
       0.5821908 -0.28799415 -0.053270217 -0.18109348
000340 a5 32 44 bd 1f a8 0a be b5 0f 26 ba e0 4d d6 3d
       -0.04789986 -0.13540696 -0.0006334738 0.10464072
000350 48 37 16 3e 18 2e d9 3c e4 9e b1 3d 50 7e e4 bd
       0.14669526 0.026511237 0.08672884 -0.11156905
000360 79 a1 83 3c f9 77 f4 bd ab f8 cd bd 9c d4 53 be
       0.016068207 -0.119369455 -0.10057195 -0.20686573
000370 22 95 6e bd 59 22 98 3d 6c 43 2a be a4 47 46 be
       -0.058247693 0.07428426 -0.16627282 -0.19363266
000380 1e 43 51 3e 61 b0 6d be b6 9d 8f 3e 12 48 02 3e
       0.2043576 -0.23211814 0.2805001 0.12722805
000390 3b cf 15 be 6d 1c 26 3d e5 1a 42 3e 3a 7c 47 3e
       -0.14629833 0.040554453 0.18955572 0.19480982
0003a0 f0 78 3a 3e fb 7a ad bc df f6 f0 3c b6 01 7f 3e
       0.18210196 -0.021176806 0.029414592 0.24902996
0003b0 ab b0 3c bd a7 63 c5 3d f4 51 30 3e 4f a7 8b bc
       -0.04606692 0.09638148 0.17218763 -0.017047552
0003c0 52 6e 2d be 5c 4c 19 3e c5 58 01 be bb a5 9c 3e
       -0.16936615 0.14970535 -0.12631519 0.30595192
0003d0 c8 ba b6 be 2c 6b a6 3c 7d f3 d9 bd 56 cf 69 bd
       -0.35689378 0.020314775 -0.10642145 -0.057082497
0003e0 08 38 9e bc 63 1b f8 3d b3 ed c9 bc c4 dc 89 be
       -0.019313827 0.121145986 -0.024649477 -0.26926243
0003f0 4b 23 fb 3d c7 83 0c 3e 92 84 49 3b db 21 79 be
       0.12262591 0.13722144 0.0030749184 -0.24329321

base.1linear.bias f4 [50]
000000 de 48 e8 bd d1 6a 2a 3e 52 9f fe 3d cb 20 be bd
       -0.11342023 0.1664231 0.12432732 -0.092835985
000010 5a 8d 23 3d a3 3c 01 3e 49 c5 59 3c 17 33 06 3e
       0.039929725 0.12620787 0.013291665 0.13105427
000020 3e 5c 09 3e 90 e5 89 3d 44 2c c9 3d f9 c8 d5 bd
       0.13414094 0.06733239 0.09822896 -0.10438723
000030 01 af 89 3b 15 c7 d8 bd d6 0d c6 3d b2 5e 75 3a
       0.0042017703 -0.10584847 0.09670608 0.0009360119
000040 9d 20 27 3e 16 f6 e3 3d 21 b8 3a 3d 89 41 42 bd
       0.16321035 0.111309215 0.045585755 -0.04742578
000050 36 eb ae bc a9 7a 03 3e c0 80 da bd 02 43 af 3d
       -0.021352392 0.1283976 -0.10669088 0.085577026
000060 c5 61 01 bc 86 51 1b 3e 98 ac 3b 3e a5 c0 91 bd
       -0.007896845 0.15167817 0.18327558 -0.07116822
000070 1d 25 e1 3d c2 54 fa 3d 56 67 43 3d df 9e be 3c
       0.10993407 0.122231975 0.04770597 0.023269115
000080 52 f5 d9 3d 07 22 4c bd 28 ab d1 3d 0a 0c fa 3d
       0.10642494 -0.04983714 0.102377236 0.122093275
000090 4e aa 1d 3e 24 de 9f bd 9d 1c 48 bd 75 6a c1 3b
       0.15396997 -0.07806042 -0.048855413 0.0059025832
0000a0 f5 8d 6a bd 3b 29 0d 3e 19 42 7f b9 31 3d b8 bc
       -0.057264287 0.1378526 -0.00024343318 -0.022490116
0000b0 b5 85 dd 3c 7a 6d b7 3d 55 75 88 bd 92 68 8d bd
       0.027041296 0.08956428 -0.06663004 -0.06904711
0000c0 bf 33 34 bd 23 e5 bb 3d
       -0.04399466 0.09174564

base.2linear.weight f4 [50, 50]
000000 93 f9 02 be 9f 8d d3 bd d0 6b a0 bd bb 44 bc bc
       -0.12790518 -0.103297465 -0.078330636 -0.022981992
000010 27 6d 19 be 9b 81 1e 3e cb 6d 1a bd 6d 66 46 3d
       -0.14983045 0.15479128 -0.037702363 0.048437525
000020 67 ee 94 be 31 0d 02 be 1d 48 2a be c5 74 bd 3b
       -0.29088137 -0.12700345 -0.16629072 0.0057817423
000030 a2 6f 19 bd 80 51 9c 3e eb 40 31 3e bd c6 c7 be
       -0.037459977 0.3053093 0.1730992 -0.39018813
000040 51 53 b1 3d 62 10 b5 bd 6e 6d c1 3e 0b 60 0d 3e
       0.086584695 -0.088410154 0.377788 0.13806169
000050 8e a6 99 be 4a ff e8 bc 8e 48 1b bd 56 7c 1e 3c
       -0.30009884 -0.028442044 -0.03791099 0.009673199
000060 ff 03 02 3d 13 3f 0f bd 5a cf 01 3d 48 af a6 bd
       0.031742092 -0.03497226 0.031691886 -0.08138901
000070 92 17 00 3d d0 5d 27 be a7 51 be 3e d0 6b fa 3d
       0.03127248 -0.1634438 0.3717167 0.12227595
000080 b9 e3 75 3d 42 dd e8 bc ee 03 36 bd 76 09 44 3d
       0.060031626 -0.028425816 -0.04443734 0.047860585
000090 b8 4a 5c 3e 6f 1a d6 bd 89 be 89 3e b4 03 6e 3d
       0.21512878 -0.104542606 0.2690318 0.058109
0000a0 c8 8b 11 3d 58 68 b5 3d 75 4a 18 3e 5d 7b f5 bc
       0.035533696 0.088577926 0.14872153 -0.02996605
0000b0 f1 21 85 be 3d 33 86 3e db 68 24 3e 6a 5a b1 bc
       -0.26002458 0.26210967 0.16055624 -0.021649558
0000c0 79 eb e3 3d 52 8a bd bc a9 0b 3c be 57 7c 0d 3e
       0.11128897 -0.023137245 -0.18363823 0.13816963
0000d0 50 82 0e 3d ac 5b 3b 3d 34 16 54 3d 3f bb b6 3d
       0.034792244 0.045741722 0.051778987 0.08922433
0000e0 44 dd af 3e 5a 7d b6 3d 67 65 af 3d df dc 61 3d
       0.343485 0.08910628 0.08564263 0.05514228
0000f0 ca cd 2d 3e 7c 4e 28 be 92 72 a8 3d 24 d9 07 be
       0.16973034 -0.1643619 0.082249776 -0.13266426
000100 ae 5b b4 bd 42 42 3d 3e e8 7b 7f 3e 58 b0 68 be
       -0.08806549 0.18482307 0.2494961 -0.2272352
000110 02 6c 9f 3c de 61 89 be 85 a8 c3 3b cd 68 65 bd
       0.019460682 -0.2683248 0.005971017 -0.05600815
000120 30 d9 eb 3c ed e8 73 bd bd 44 6e be b6 f3 1b be
       0.028790087 -0.059548307 -0.23268409 -0.15229687
000130 d4 3b 1d be 17 83 47 bd 3f 1a 0c bd 45 75 9e bc
       -0.15354854 -0.048709 -0.034204718 -0.019343028
000140 f8 42 0d be 87 49 a7 bd c2 9f 37 be 8c 91 d2 3d
       -0.13795078 -0.08168321 -0.17932037 0.10281667
000150 c8 6f 28 3e de 5e a5 bd 9c 30 4b bd 9c 3c 14 bd
       0.16448891 -0.08074735 -0.049606904 -0.036190614
000160 ef 8d 84 bd 3b c9 01 3d 6a 30 a8 3c 47 f3 37 be
       -0.06472384 0.03168605 0.020530898 -0.17963897
000170 7f 3a 79 3b 32 dd c3 3d 23 38 e7 3d 85 07 0f 3e
       0.003802925 0.09563674 0.11290004 0.13967712
000180 d8 72 81 3d c2 f4 10 3e fc 03 e9 3d 92 f4 e8 bd
       0.06320733 0.14155868 0.11377713 -0.11374773
000190 0e 64 b9 3d 98 67 fb bd 82 1c fb 3d 4f 0b 99 bc
       0.09052287 -0.12275618 0.12261297 -0.01868215
0001a0 63 0c 7f bd b8 6f 98 be 8c 83 a7 bd c0 33 aa 3d
       -0.062267672 -0.29772735 -0.081793875 0.08310652
0001b0 99 f5 3d be b6 e6 2e 3d 13 5a a6 3e 40 7b fc 3d
       -0.1855072 0.04270049 0.32490596 0.123281956
0001c0 19 b4 d4 bd 76 c2 1c bd 18 27 47 3c a8 c8 15 be
       -0.103859134 -0.03827139 0.012155317 -0.14627326
0001d0 76 c8 ef bd 84 c2 80 bd 9d 6d 04 3e b2 3a 60 be
       -0.11708157 -0.06287101 0.12932439 -0.2189739
0001e0 87 31 74 ba d7 d9 dc bc 17 b8 9d 3d 94 47 ec bd
       -0.00093152415 -0.026959343 0.07701128 -0.1153709
0001f0 d9 63 40 3e 0a 49 45 be 2f b8 b0 be 77 45 6f 3d
       0.18788089 -0.19266143 -0.3451552 0.058415856
000200 23 69 a2 3d a8 59 ab 3c 80 67 97 3d f3 59 30 bc
       0.079302095 0.020916775 0.07392788 -0.010763633
000210 e2 dd a9 3d 5d 17 12 be 6f 40 d9 3d 52 e3 5c be
       0.08294274 -0.14266725 0.10607993 -0.21571091
000220 d4 a3 f4 be fb 1b 53 bc 05 96 13 be 95 3e cb bd
       -0.4778124 -0.012885089 -0.14412697 -0.09924046
000230 6f b8 b9 bd 02 12 9d bd 33 ff 38 3d 01 e5 6b 3d
       -0.09068381 -0.0766945 0.045165252 0.057591442
000240 5a 6c e4 3d 4e 27 ac 3d a7 67 94 3e 87 d7 61 3d
       0.11153479 0.08405934 0.2898533 0.055137184
000250 20 a9 a1 be df c6 d3 3a 8b 9a 90 bd 0d c1 ab 3c
       -0.31574345 0.0016157291 -0.07060727 0.020966077
000260 e0 d6 a8 3d 4f 3e c1 be 6f 11 16 3c f5 22 1c 3e
       0.08244109 -0.3774285 0.00915943 0.1524771
000270 d9 94 62 be 6b a0 ec 3d 44 b0 1f 3d 4c 30 29 3c
       -0.22127093 0.11554035 0.03898646 0.010326456
000280 65 d5 05 3d 48 46 fd bd 95 5c f5 3c 66 e9 3c 3e
       0.032674212 -0.12366921 0.029951373 0.1844841
000290 d0 1e c7 bd 51 fc 0c 3d f6 1a bd bd 9c a6 77 bd
       -0.09722674 0.034420315 -0.09233658 -0.060461625
0002a0 e9 86 71 3e df 94 0a be c7 a9 30 be 9b e8 5a be
       0.2358662 -0.13533352 -0.17252265 -0.21377794
0002b0 bb ca 58 bd da 3b a9 3d b4 e3 1d 3c 4e e0 4d bc
       -0.052927714 0.08263369 0.009636808 -0.012565685
0002c0 7b 3d 8a be 26 35 f1 3c bf 4a 1b be 19 20 9c 3d
       -0.2700003 0.029444288 -0.15165232 0.0762331
0002d0 c1 40 24 3e d4 44 d3 bd 7c 96 d1 bd 27 63 db 3d
       0.16040327 -0.10315862 -0.10233781 0.10712271
0002e0 76 29 4d be 51 2e 1e be 99 4f 9f 3e 6b 54 90 bd
       -0.20035347 -0.15447356 0.31115416 -0.070473514
0002f0 8f ae 02 be fd 64 29 bd b5 e3 ee bd 88 da 00 bd
       -0.12761901 -0.041356076 -0.116645254 -0.031458408
000300 13 9f b5 3d bc c1 a8 3d e5 63 ae 3d 81 11 b6 3d
       0.088682316 0.08240077 0.08515147 0.08890057
000310 fb 02 8e bb 92 6a ac bd 8b c3 9f bb f9 86 09 be
       -0.0043338514 -0.08418764 -0.0048756055 -0.13430394
000320 87 e9 1d be 0a 2a 95 3d 17 4c 40 3e be c8 7b 3d
       -0.15421115 0.07283409 0.18779026 0.06147074
000330 79 d1 af 3d 07 68 cb bd 46 8c be bd 27 a4 3a 3d
       0.085848756 -0.09931951 -0.09304099 0.045566704
000340 2d e1 5d bd 23 10 51 bd 75 b7 2c 3e 7b ce dc bd
       -0.054169822 -0.05104078 0.16866858 -0.107815705
000350 19 0a f4 3d 91 c4 b1 bc 94 c6 50 be 87 e3 ad 3d
       0.119159885 -0.021700175 -0.20388252 0.08490663
000360 20 53 b6 bd 9a 80 8e be fd 05 ef 3c 04 cf b2 bd
       -0.089025736 -0.2783249 0.02917766 -0.08730891
000370 32 6f 32 bd 4f 8e 20 3d 68 66 20 bd 8c 71 45 bc
       -0.043563075 0.039198216 -0.039160162 -0.0120509975
000380 90 80 4b 3e 75 33 4a 3e 50 f0 a0 bd 66 97 88 be
       0.19873261 0.19746192 -0.07858336 -0.26678008
000390 07 90 13 be 8a 88 c0 be 44 cc 38 3d f0 ff 62 3e
       -0.14410411 -0.3760417 0.045116678 0.22167945
0003a0 9f 62 f3 bd 5c 0c f2 bd d2 56 08 be 4f e3 86 3d
       -0.11884045 -0.118187636 -0.1331437 0.065863244
0003b0 78 a7 62 bd 97 66 75 bb bf 99 9b bd d1 ee fc 3c
       -0.055335492 -0.0037445182 -0.07597684 0.030875595
0003c0 df 59 88 3d e6 18 22 3d 1e 47 b4 bc 3b 17 0c 3e
       0.066577666 0.039574526 -0.022006568 0.13680737
0003d0 08 17 0e 3e 52 e1 b2 bd e8 13 01 3e e4 e2 b2 be
       0.13875973 -0.08734383 0.1260525 -0.3493873
0003e0 e4 27 38 3d 48 0d 98 be 58 53 1f bd 16 da 03 3e
       0.044959918 -0.29697633 -0.038897842 0.12876162
0003f0 db 7a bd 3d c4 4b 97 be e4 e6 b3 bd 48 b9 9a bd
       0.092519484 -0.29549992 -0.08784273 -0.07554871

base.2linear.bias f4 [50]
000000 53 b8 39 3c f7 e5 48 bd fc 0c d1 bd 13 f3 94 bd
       0.01133545 -0.049047437 -0.10207555 -0.07272925
000010 9e 99 d7 3c 1b 7d 22 3c 86 64 1d 3e 76 0a f4 3c
       0.026318368 0.009917523 0.15370378 0.029790144
000020 c3 48 1e be 7c 92 1a 3e 72 8b 5f bd 41 89 fb 3d
       -0.15457444 0.15094942 -0.054576345 0.122820385
000030 65 8d d0 bc f5 3c ee 3c c6 63 36 3e c7 36 30 bd
       -0.025458047 0.029081801 0.17811498 -0.04302099
000040 95 92 13 be 65 c8 0e 3e bf 32 0a 3c 73 ed b2 3b
       -0.14411385 0.13943632 0.00843495 0.005460435
000050 87 fb 0a be a9 96 ed 3d d1 cd b0 3d 77 c4 33 bd
       -0.13572513 0.11601002 0.08633006 -0.043888535
000060 99 40 a7 3d cd 4b 9b 3d 8c 49 2e 3c e3 d6 b2 bc
       0.08166618 0.07582817 0.010637652 -0.021830982
000070 50 2b 2f bb 73 97 48 bd 78 d2 03 3e f9 bf 19 3e
       -0.0026728697 -0.04897256 0.12873256 0.15014638
000080 8c cf 9c bd 6b 2c fd bd 06 59 03 be de d7 b3 bb
       -0.07656774 -0.12361988 -0.12826928 -0.00548838
000090 31 50 13 bd e9 12 5a 3d 05 d8 0d 3e 11 9c 69 3d
       -0.03596515 0.05324069 0.13851936 0.057033602
0000a0 06 29 a5 3d ed cd a1 3d 05 33 cb bd fe 82 e9 bd
       0.08064465 0.07900605 -0.099218406 -0.11401938
0000b0 08 1a b1 bc d3 f9 f9 bd d5 dc cb 3b 5c ea e6 3d
       -0.021618858 -0.12205853 0.0062213936 0.11275169
0000c0 8b 30 fd 3d d0 1e c1 bd
       0.123627745 -0.09429705

base.3linear.weight f4 [50, 50]
000000 88 5a 27 3d bb ef 26 be fc 1c 8e 3e f9 d9 87 bc
       0.04085782 -0.16302387 0.27756488 -0.01658343
000010 d6 70 dc bd dc 02 7a be 0d 18 32 be 7f cd 3a be
       -0.10763709 -0.24415153 -0.17391987 -0.18242453
000020 c9 b6 7d 3d 6e 39 1b 3d 43 49 0e 3e 67 1f 8d bd
       0.061941896 0.037896566 0.13895135 -0.06890755
000030 80 d5 8e bc 2c 72 96 be a1 67 c6 be ee 65 13 be
       -0.01743579 -0.2938398 -0.38750938 -0.14394352
000040 98 1e 3f 3e 58 ce 53 3d 57 6e bf bc 5a df e8 bd
       0.18664014 0.051710457 -0.023368044 -0.11370726
000050 46 e0 79 3e ec 5b 1b be a9 2c 43 bd cd e3 26 bd
       0.2440196 -0.15171784 -0.047650013 -0.04074459
000060 38 20 ad bd a0 05 87 bd 34 d9 0a be 74 1e 23 bd
       -0.08453411 -0.0659287 -0.13559419 -0.039823964
000070 78 f8 55 bd 37 4d b9 bd 54 e9 a1 3d 52 78 00 be
       -0.05223891 -0.09047931 0.07905832 -0.12545899
000080 3d 75 21 bd 45 02 0e 3d 5b 8c 71 bd 1a d6 81 be
       -0.039418448 0.034670133 -0.058971744 -0.2535866
000090 df 6e d7 3e bf 1e 78 3c b5 0e e5 be e2 da 89 bc
       0.42076775 0.015144049 -0.44737783 -0.016828004
0000a0 d8 f0 6c bc 0c 1b 2c 3e c2 69 61 be 5c 57 8a be
       -0.0144617185 0.16807193 -0.22013 -0.27019775
0000b0 ac 83 1d be 24 f0 ac 3b 8b 41 8f 3d bc 9a 27 bd
       -0.1538226 0.0052776504 0.06994923 -0.04091905
0000c0 6c e9 d7 3d 6a 95 b0 3e 97 e5 51 3b 4b b5 c8 bd
       0.105425686 0.34488994 0.0032027715 -0.09800204
0000d0 b1 27 39 be 38 02 90 3d 05 2c 51 bc 1f 36 d7 3b
       -0.18081547 0.07031673 -0.012766843 0.006567731
0000e0 f8 ca 2b 3e 3a ca 7d 3e 84 72 37 be ce 16 fe 3d
       0.16776645 0.24784175 -0.17914778 0.124066934
0000f0 b1 58 7d 3d 6b 94 1a be b2 bd 75 bd c7 f2 08 3f
       0.06185216 -0.1509568 -0.05999536 0.5349545
000100 35 a4 01 3e 85 27 48 be ec 09 52 be 9f 65 9d bd
       0.12660296 -0.19546326 -0.20511597 -0.07685398
000110 9b f8 30 3d d3 30 84 bd 4a 9d ca 3e d8 57 97 3e
       0.04320584 -0.06454625 0.39573127 0.29559207
000120 1b 0d a0 bb d6 3a 00 bc c2 5e 40 3d 98 63 b1 3d
       -0.004884375 -0.007826528 0.046965368 0.08661574
000130 e2 01 5a bd 2b 94 30 3b 13 01 a5 3c d2 eb 5f 3d
       -0.05322445 0.0026943784 0.020142114 0.054668255
000140 e9 7b 34 3e 34 f3 b7 bd bf 34 2e 3e 1d 43 8f bd
       0.17625393 -0.08981934 0.17012309 -0.06995223
000150 f9 e3 dd bd ef 64 cd 3b 0a b3 3e be 11 ad 7f 3d
       -0.10834498 0.0062681357 -0.18622985 0.06242091
000160 72 d7 c7 3e d0 25 29 be 69 c4 5a 3e 0f 86 af bb
       0.3903156 -0.1651833 0.21363987 -0.005356557
000170 e1 88 cb 3e ce da fa 3e 64 4b a6 bd 73 f3 dd bd
       0.39752868 0.4899506 -0.08119848 -0.1083745
000180 fd c0 29 bc eb a9 8a 3e 18 27 49 bd dd 07 11 3e
       -0.010360953 0.27082762 -0.04910955 0.14163156
000190 7e 0e 49 bc e7 96 27 3d 55 1c 57 bd 41 d1 f3 ba
       -0.012271522 0.040915396 -0.052517254 -0.0018601791
0001a0 35 b1 e9 bd 21 a5 32 3e 02 6f e4 3d 67 44 ba 3d
       -0.11410753 0.17445804 0.111539856 0.09095078
0001b0 7e 6f 0c 3e c7 c3 0e be 22 0a 73 bd 90 a8 86 be
       0.13714406 -0.1394187 -0.059335835 -0.26300478
0001c0 38 2a 91 3d e6 bf 7b 3e e1 db 58 be 97 98 ab bc
       0.07088131 0.24584922 -0.21177627 -0.020946784
0001d0 6e ed db 3c 05 45 de 3d df 32 31 bd 8e 08 02 3d
       0.026846614 0.10853008 -0.043261405 0.03174644
0001e0 72 49 02 3e 6e 0b 22 3d 6c 28 9f 3d a0 c4 94 3d
       0.1272333 0.03956168 0.07771382 0.07264066
0001f0 0d d3 d4 3d 04 84 14 bd 1a 04 97 bd 78 b9 a1 3c
       0.10391817 -0.036258712 -0.07373829 0.019741759
000200 0b 0a 3e be f3 1f 22 be a2 e4 b1 bc 04 da bb 3d
       -0.18558519 -0.158325 -0.021715466 0.091724426
000210 58 5b 54 be e0 d6 70 be 7f 4c 53 3e cf 94 fc bc
       -0.2073797 -0.23519468 0.2063465 -0.030832676
000220 33 83 79 bd 82 47 c3 bd 59 87 8f bd 5f 7e a9 3d
       -0.060916137 -0.095351234 -0.070082374 0.082760565
000230 57 c2 63 3d e5 f9 3e be 8c 72 3f be bb c3 35 3d
       0.05560526 -0.18650015 -0.1869604 0.044376116
000240 41 f7 c1 bc 64 8c 27 3d 42 b1 ff 3c a7 48 3f be
       -0.02367747 0.04090537 0.031212453 -0.18680058
000250 65 ae 30 3e f6 f9 26 be 27 30 e8 bc 06 e4 41 3d
       0.17254026 -0.1630629 -0.028343273 0.0473366
000260 9c 03 96 be 62 4f 9f bd 01 2f 5b 3e 68 98 4d be
       -0.2929963 -0.07778813 0.2140465 -0.2007767
000270 e9 97 d2 bd 86 0a 5e be 38 7a 53 be 0a 4d d5 3e
       -0.10282881 -0.21683702 -0.20652092 0.4166034
000280 70 d3 1e be 46 65 93 3d 4e 5f 34 be 1c 4d 78 3d
       -0.15510345 0.07197051 -0.17614481 0.060620412
000290 5d be 76 3c 44 6b a1 be e2 70 29 be 24 b3 30 be
       0.015060035 -0.3152715 -0.16546968 -0.17255837
0002a0 d0 26 b4 3d fa 1a 05 3e 40 7e 91 3c 93 a2 7c bd
       0.087964654 0.12998572 0.017760396 -0.06167848
0002b0 5b 66 63 3e 71 50 44 3e fc 66 ca 3e d3 12 85 be
       0.22207014 0.19171311 0.39531696 -0.25990924
0002c0 0e 2e 73 be ab 5d 5b 3d dd e8 2f 3d f7 39 f2 bd
       -0.23748037 0.053556126 0.042946685 -0.11827462
0002d0 ff fd 21 3e 37 91 0f 3f fc 55 5b be 2f 49 f1 bc
       0.15819548 0.56080955 -0.21419519 -0.029453842
0002e0 79 5f 09 bf 80 44 19 be c8 76 cc bc f1 e7 5e be
       -0.53661305 -0.14967537 -0.024958983 -0.21768166
0002f0 e8 f9 1b 3e b0 ca 4f 3d dc 84 7b be 77 ca 3d bd
       0.1523205 0.050730407 -0.245624 -0.046335664
000300 d8 9e 9d be 91 d0 47 be e4 b5 e3 3d e6 12 bb be
       -0.3078525 -0.19513156 0.11118677 -0.36537856
000310 ab 77 45 3e f5 ab d5 3d e6 f7 c6 3d 95 70 95 bd
       0.19283931 0.10433189 0.097152516 -0.07296864
000320 f4 b9 95 3d b3 d1 2d be 5c 48 60 3b 03 3b ba bd
       0.07310858 -0.16974525 0.0034222817 -0.09093287
000330 15 c9 88 bd c5 c4 5d 3e 07 44 6f 3d a9 5e 4d be
       -0.06678978 0.21657093 0.058414485 -0.20055641
000340 33 3c 15 bd 90 8a f9 3c 4b 69 e3 bd 7b c4 71 bd
       -0.036434364 0.03046158 -0.111040674 -0.05902527
000350 c7 4b 57 be 78 de 3e 3b 71 ea 2d 3e da b7 7d bd
       -0.21025 0.00291243 0.16983964 -0.061942913
000360 3e 4c 75 3d 2c 3c 1a 3e 92 9a 1a be 66 ee 1d be
       0.059887163 0.15062016 -0.15098026 -0.15422973
000370 7b 59 9a be 3a 8f a6 3d eb cf b0 bc 6f e4 6d be
       -0.30146393 0.08132787 -0.021583518 -0.23231672
000380 da ab cc 3d f3 04 89 3d 20 ae b2 bd bc e6 b9 3d
       0.099937156 0.06690397 -0.08724618 0.09077212
000390 1d 81 82 bd c5 cc 34 3d d7 c8 00 3d 9b 0c 21 3e
       -0.06372283 0.044140596 0.031441536 0.15727465
0003a0 6e c4 b2 be 37 67 80 be 45 08 fa 3b 56 9d 0d 3e
       -0.3491549 -0.25078747 0.0076303803 0.1382955
0003b0 9d 8e 5c 3d ea 96 2a be 35 0a 1d 3d dc 06 41 bc
       0.053846944 -0.16659132 0.038339812 -0.011781421
0003c0 d8 4d 02 be 8d 9b 92 bd e9 b5 96 bd 7d bc 2f bd
       -0.12725008 -0.07158575 -0.07358915 -0.042904366
0003d0 15 cf b3 3a 92 38 cc 3d 34 23 5e 3c 09 cf 4a be
       0.0013718331 0.099717274 0.013558198 -0.1980554
0003e0 1e ed 43 bd e4 f6 db bc ee c8 6d 3d 8a e4 1a 3d
       -0.047833554 -0.026851125 0.05805295 0.037815608
0003f0 f3 ab 9a 3d 73 f0 c8 bc 00 51 c7 3e b4 79 07 3e
       0.07552328 -0.024528718 0.38928986 0.1323002

base.3linear.bias f4 [50]
000000 bb 71 7f bd d0 c7 5e 3d 7f 08 c0 bb 1b 7c 13 3e
       -0.06236432 0.054389775 -0.005860388 0.14402811
000010 5c ca ad 3d c3 4a 88 3b fa b8 b7 bc 59 10 8a bd
       0.084858626 0.004159303 -0.02242707 -0.06741399
000020 13 de 2a be 76 5d 5f 3d cc 7b eb 3c 71 85 bd 3d
       -0.16686277 0.05453249 0.028745554 0.092539676
000030 48 04 9e 3d b1 cd b3 3d 8a 4d 39 3e b6 d8 e1 3d
       0.0771566 0.08779467 0.18095985 0.110276625
000040 91 65 1a bc a3 b4 fe bd e9 a7 a4 bc 88 17 b3 3d
       -0.009423629 -0.124367975 -0.020099597 0.087447226
000050 fb ff ce bd e8 a2 8b bc 63 21 c3 3c 7b 1d 9c bb
       -0.10107418 -0.017045453 0.023819631 -0.0047642565
000060 d5 f1 24 3e d9 72 87 3d c3 c9 16 3e d9 d7 3f 3d
       0.16107877 0.06613702 0.14725403 0.046836708
000070 9c 11 50 3d 93 73 bc 3c 4e fe d6 bb e3 36 ed 3c
       0.050798044 0.023004329 -0.006561077 0.028956836
000080 49 bc 67 3d fc 02 92 3d d7 67 60 bc 9c 56 c7 3d
       0.056576047 0.071294755 -0.013696632 0.09733316
000090 cd 95 49 3d c9 0b 07 be 16 fa 2d bd 44 05 66 bd
       0.049215127 -0.1318809 -0.04247483 -0.056157365
0000a0 b9 f3 04 be 1c 91 a3 bc f7 10 6e bd bf 30 10 3b
       -0.12983598 -0.019966654 -0.058121648 0.0022001711
0000b0 42 86 87 bc 62 f5 93 bd 7e b4 ff bd 60 50 00 3d
       -0.016543511 -0.072245374 -0.12485598 0.03132665
0000c0 82 e1 38 3d c3 41 87 bd
       0.045136936 -0.0660434

base.4linear.weight f4 [50, 50]
000000 08 a1 89 bd fc 1c 6d bd 65 5d 95 bd 4d bf 4a 3e
       -0.067201674 -0.05788897 -0.07293204 0.19799538
000010 4d ac 32 be e7 34 cb 3d 26 ad b8 bd c2 e1 82 3d
       -0.1744854 0.099222 -0.090174004 0.06390716
000020 e4 f1 4d bd de a6 b9 3e ca f9 0c 3e d1 be 2d be
       -0.050279513 0.36260122 0.13767162 -0.16967322
000030 be bc eb bd c6 05 a3 bd f1 d6 9b be e9 35 87 3c
       -0.11510609 -0.079600856 -0.30437425 0.016505199
000040 42 13 66 be f3 0b 28 bd 0c b8 4c be 32 f6 4c 3e
       -0.22468284 -0.04102702 -0.19992083 0.20015791
000050 a8 ff 28 3e 02 1f 80 3e 3a bc 66 3d bf 21 e8 3c
       0.16503775 0.25023657 0.05633185 0.028336404
000060 5d 8d 25 bd 48 64 04 3d fd 0e 24 be 01 30 ef bd
       -0.040418018 0.0323222 -0.16021343 -0.11679078
000070 ba f2 3a be c3 16 a6 3d c0 6b 99 3e eb 6f eb bd
       -0.18256655 0.0810981 0.2996502 -0.11495956
000080 60 09 8c 3c 93 65 22 3e b3 ca d5 3c ed 77 af bd
       0.017094314 0.1585906 0.026097631 -0.08567796
000090 0e b1 99 b8 22 91 b3 bd 26 57 3e 3b a2 69 ba 3d
       -7.3285875e-05 -0.08767916 0.0029043644 0.09102179
0000a0 09 00 46 3e c1 ae 56 3d 18 a2 84 3e 99 68 10 bd
       0.19335951 0.052412752 0.25904918 -0.035256002
0000b0 c6 7f 76 bd c2 94 85 3e d5 63 0b 3e 63 b1 aa be
       -0.060180448 0.26090056 0.13612302 -0.3333846
0000c0 28 20 67 be 99 e8 c7 bc 50 f1 37 3b a8 f5 a0 3e
       -0.2257086 -0.024402903 0.0028067417 0.3143742
0000d0 35 2f c3 3d 5b 91 71 3e d1 ac 1e 3e 5c 76 95 be
       0.095304884 0.23590605 0.15495612 -0.29191864
0000e0 59 91 8a bd a6 94 a2 bd b0 e8 17 bd 54 39 26 3e
       -0.06766004 -0.07938509 -0.037087142 0.16232806
0000f0 45 5b ea bc 9f c5 cc 3d c0 08 00 be f5 9e 9c 3c
       -0.028607974 0.09998631 -0.12503338 0.019118765
000100 3a ce c7 3e a5 32 1b 3d 66 af aa 3d 63 64 17 bd
       0.39024526 0.037890095 0.08334236 -0.03696097
000110 88 ff 5a 3e e3 f1 47 be 3f 16 cc bd ea 95 fa 3c
       0.2138654 -0.19525866 -0.099651806 0.030589063
000120 c1 29 f7 bb f3 16 87 bd f0 6d 2e bd 8b 5b 8a 3e
       -0.0075428193 -0.06596174 -0.042585313 0.27022967
000130 b0 68 d0 3d 0a ab b6 be d7 20 4c 3e 56 d9 2c 3e
       0.101762176 -0.35677367 0.19934402 0.16879782
000140 e1 cd b6 3d 49 6f b1 3d 33 21 38 ba 9b 6a 69 3c
       0.08925987 0.08663804 -0.000702399 0.014246608
000150 ce 68 6c 3d 6f 3f a3 3d c1 3a 50 3e b1 3f 11 3e
       0.057717137 0.079710834 0.20334913 0.14184453
000160 52 ee c5 bd fc 4a 2a 3d e6 1d 7d bb 81 c3 0f 3e
       -0.096645966 0.041575417 -0.0038622557 0.14039423
000170 0e 51 74 be db 99 8e 3d 5e bd 45 3e e6 22 91 3e
       -0.23859045 0.06962939 0.19310519 0.28346938
000180 37 62 a7 be 3e b2 80 3d 4f 2b df bd 67 4b f2 bd
       -0.3269212 0.06283997 -0.10896932 -0.11830788
000190 b5 98 83 be 43 a2 2f 3d 55 ab f6 3d 48 b1 d7 bd
       -0.25702444 0.042879354 0.12044398 -0.105318606
0001a0 61 95 a6 bd 69 96 00 bc e6 0d ba 3a 28 6a e5 3b
       -0.081339605 -0.007848361 0.0014194816 0.00700118
0001b0 72 43 9d 3d 9f 6f 2c bd cd 1d 05 be fc 16 33 3c
       0.0767888 -0.042098638 -0.1299965 0.010930773
0001c0 ee e8 b9 3e 64 8d 51 be 5d 95 0c be 5c 09 46 3d
       0.36310524 -0.20464092 -0.13728853 0.04834877
0001d0 ba 03 70 3e 6e 4f 9a be cb 3d 05 3e 59 1d ba 3c
       0.23438922 -0.30138725 0.13011853 0.022719072
0001e0 67 0d 6d 3e db 69 ab 3d a2 f8 2b 3e 04 fa fb bd
       0.23149644 0.083698 0.16794065 -0.12303546
0001f0 22 60 ac 3e 76 13 66 be a4 9c f7 3d 10 15 5a 3c
       0.33667094 -0.22468361 0.12090424 0.013310686
000200 ec a2 31 bd 47 e4 54 3e c7 7d f6 bd be 31 e0 bd
       -0.043368265 0.20790206 -0.12035709 -0.109469876
000210 e1 86 0c 3e d0 ca 0a be 4c 72 2b 3d e2 f6 28 bd
       0.13723327 -0.1355393 0.04185705 -0.04125107
000220 db f6 20 be d0 ca e9 bb 8b ad e2 3d 1a 9f 46 3e
       -0.15719168 -0.007134773 0.11068257 0.1939663
000230 97 4e 4f be 97 32 b3 3c 5a d7 9e bc c8 a5 a7 be
       -0.20244823 0.021874709 -0.019389797 -0.3274367
000240 17 df 26 3e f2 69 a3 bc c6 0f fb bd 51 b4 76 3d
       0.1629604 -0.01994798 -0.12258868 0.060230557
000250 76 fb 4f 3e b9 be 77 3e 82 54 cf 3b c2 97 39 3e
       0.20310768 0.24193849 0.006327213 0.18124297
000260 fe 8c 16 be 10 de d2 bd dd 0a 6d be 07 a6 08 3e
       -0.14702222 -0.10296261 -0.23148675 0.13344584
000270 65 88 32 be 41 2e d1 bd 6b ea c6 3e e3 99 d6 3d
       -0.17434843 -0.102139 0.38850722 0.1047857
000280 b7 ac 5f be 29 13 cc 3b fa 6b 3b be 44 bc a8 be
       -0.21843229 0.00622787 -0.18302909 -0.32956135
000290 ef 91 6b be f0 64 06 3e a1 46 49 bd 18 5e dc 3d
       -0.23004888 0.13124442 -0.049139623 0.107601345
0002a0 df 4f 89 bc 59 b8 0a bd 37 8b 9b 3d d6 ca 4b 3b
       -0.016761718 -0.033867214 0.075949125 0.0031096241
0002b0 1c c6 37 be d8 90 1f be e5 bc 87 3d ac 41 e3 3d
       -0.17946666 -0.15582597 0.06627826 0.1109651
0002c0 22 68 94 3e 32 d0 68 3d 9c e1 fe 3d 17 7f 80 3e
       0.28985697 0.056839176 0.12445375 0.25096962
0002d0 74 65 11 3e 8a 3f ec bd 39 52 55 3d f8 03 36 bd
       0.14198858 -0.115355566 0.052080367 -0.04443738
0002e0 5a 00 aa bd 92 1e 4a be e4 dd be 3d a2 e3 ad 3d
       -0.08300848 -0.19738224 0.09319666 0.08490683
0002f0 ff 98 13 be ab 5c 75 bd 2e d5 23 bd a1 74 3b be
       -0.14413832 -0.05990283 -0.039998226 -0.18306209
000300 cd 96 da 3c 4f 1e 8e be 27 67 41 3e 4f 13 0e 3c
       0.026683236 -0.277575 0.18887006 0.008671596
000310 a5 89 3e 3b 68 fb 64 3e dd 95 40 3c 56 c9 ab 3b
       0.0029073742 0.22361529 0.01175448 0.005242507
000320 7b cf 49 bd 2c 47 07 3e 77 99 39 3e 59 bb 10 bd
       -0.049270134 0.13210744 0.18124948 -0.03533492
000330 3a ef 9b bc 9d 63 99 be d3 06 5b 3d 8e de a6 3d
       -0.01903497 -0.2995881 0.053473305 0.08147918
000340 ba 02 4f be 8e a7 82 3e 9f 30 c3 bd 9c aa 76 3e
       -0.20215884 0.2551846 -0.09530758 0.2408852
000350 3b 1d 54 3d 87 ab 6c 3e fa 8e 80 be de 0e c1 3c
       0.05178569 0.23112307 -0.25109082 0.02356666
000360 55 4d f7 bc 45 f4 b2 3d 0b 21 16 3e 6d ea cd bd
       -0.030188242 0.08737997 0.14661042 -0.10054479
000370 1f 23 2a be ef d8 20 3e af 93 0d bd e1 4f cf 3d
       -0.1661496 0.15707754 -0.03456467 0.101226576
000380 fb 99 90 3e 7d c7 fb bd 37 0d fd bd 80 6d 84 be
       0.28242478 -0.12293909 -0.12356036 -0.25864792
000390 94 95 21 be d2 16 6a bd a7 75 a1 3e bb 0a 62 3c
       -0.15779716 -0.05715067 0.31535074 0.013796504
0003a0 7f f2 ab be 8d 82 00 3e ca 58 88 3e fa e4 1e bc
       -0.33583447 0.12549801 0.2663024 -0.009698147
0003b0 ed ef 76 3d 34 07 12 3e d5 8e 1f be 53 a1 17 3d
       0.060287405 0.1426056 -0.1558183 0.037019085
0003c0 9d 78 9e 3e a6 f1 55 be 08 cb 2f be 28 bc ce 3c
       0.30951396 -0.20892963 -0.17167294 0.025236204
0003d0 1a a5 82 bd ef 29 97 3e c9 26 79 3e a4 cb d5 3c
       -0.06379147 0.2952418 0.24331202 0.02609808
0003e0 14 9e a3 bd 87 ba c8 3c a9 70 c5 3c cd 89 e1 be
       -0.079891354 0.024503006 0.024101572 -0.44050446
0003f0 f8 ac d1 3e 5d 9a ef bd c5 f2 63 bc aa be 81 bd
       0.40952277 -0.11699364 -0.013912861 -0.063351944

base.4linear.bias f4 [50]
000000 fc 72 b4 bc fe d6 87 3c f7 2c a2 bd 15 73 29 bd
       -0.022027485 0.016582008 -0.079187326 -0.041369516
000010 77 b4 b5 3c 80 58 41 3d a3 3b 74 bd e4 58 96 3d
       0.022180779 0.04720354 -0.059627187 0.07341173
000020 88 d6 c4 3c 6d f8 3a bd 63 9e 68 be d6 ab 16 bd
       0.024028078 -0.045647074 -0.2271667 -0.03678497
000030 1e 0c 16 bc 9f 58 2a bd bd 00 d2 bd 2e d8 4b bc
       -0.009158162 -0.041588422 -0.10254047 -0.012441678
000040 65 bc dc 3c af f2 8a bd 68 0c 22 bd 3d f2 c9 bd
       0.026945302 -0.067845695 -0.039562613 -0.098606564
000050 38 12 52 3c 9e be 37 bb c2 d1 8e bd 99 7c 15 bd
       0.0128217265 -0.00280372 -0.06973602 -0.03649578
000060 4f 26 9a bd 49 61 28 3d 80 ee 6d 3d a1 85 9d bd
       -0.07526838 0.041108403 0.05808878 -0.07691503
000070 ad ff 2f bd ab d2 89 bd 79 a0 99 3c 96 e1 ca bc
       -0.04296844 -0.06729635 0.018753277 -0.02476577
000080 de 7d 28 bc d2 27 58 3d 7d fe 7d 3b 96 a9 00 3e
       -0.010283915 0.05277235 0.0038756423 0.12564692
000090 d8 d2 2a bc 7c b2 8b bd 68 ea 3c bc 39 71 b9 3c
       -0.010426246 -0.068211526 -0.011530496 0.022636997
0000a0 df 3b bf 3d 79 33 97 3b fd 9e bf 3c 3b c9 d3 bc
       0.093375914 0.0046142903 0.023391241 -0.02585279
0000b0 ac d7 33 bc e5 d0 af 3d aa 7b 9f 3d 93 4a b8 3c
       -0.010976713 0.08584765 0.07787259 0.022496497
0000c0 66 dd 9a bd 65 8d 10 3b
       -0.0756176 0.0022056934

base.5linear.weight f4 [50, 50]
000000 c8 08 aa bd f6 6b 83 be 29 9a 6d be c8 3e 07 be
       -0.08302456 -0.25668305 -0.23203339 -0.13207543
000010 c5 72 b9 bd 20 e5 32 3e 68 e7 ca be c0 e6 dc bd
       -0.09055094 0.17470217 -0.39629674 -0.107861996
000020 db f6 85 3e 21 40 a2 bc 4d 18 11 be 51 5a 4b 3d
       0.26164898 -0.01980597 -0.14169426 0.04964668
000030 43 fa 66 3e 43 47 1c 3e 27 6c c5 bd d4 13 8e 3e
       0.22556405 0.15261559 -0.09639769 0.27749503
000040 8e ea 5f 3e b1 87 54 3c e4 e0 f1 bd 1e 3b 2c be
       0.2186682 0.0129718045 -0.118104726 -0.16819426
000050 17 32 db 3c 9b fb 22 be 9a 3e 6c be bf 2a 22 be
       0.026757283 -0.15916292 -0.23070756 -0.15836619
000060 9f 3c 30 3e 8b ed b0 3e 48 05 1f be c4 59 c0 bc
       0.17210625 0.3455623 -0.15529358 -0.023480304
000070 bb ff 9e bd a6 60 73 bd 43 85 d4 3d 36 37 ca bd
       -0.077636205 -0.059418343 0.1037698 -0.09873812
000080 52 69 00 3e 6a 2b 5e be 20 3e a7 3c 69 07 3c 3e
       0.12540177 -0.21696249 0.020415366 0.18362202
000090 2b 3a 7c 3e b6 60 52 3b b2 81 ef bd a9 70 32 3d
       0.24631564 0.0032101101 -0.11694659 0.043564472
0000a0 28 26 99 3c 16 b1 a2 3e 63 cc 14 be 0a a2 9f be
       0.018694952 0.3177573 -0.14531092 -0.31178313
0000b0 d6 f7 df 3c 91 8e 34 bd 78 1d d8 3c 10 dd 62 3e
       0.027339857 -0.044081274 0.02638124 0.22154641
0000c0 c0 ea a0 bd 25 c2 2a be 08 84 78 be 61 05 4a bd
       -0.07857275 -0.16675623 -0.24269116 -0.049321536
0000d0 44 b1 96 3e ad 41 8f 3e 09 bc 54 3d fb a9 85 be
       0.29432118 0.27979794 0.051937137 -0.26106247
0000e0 bc 21 8b bd f3 8d 6a be 00 5f 60 be 93 aa cb bd
       -0.06793544 -0.22905712 -0.2191124 -0.09944644
0000f0 a4 36 7c 3d a1 7d 69 bb 0b 87 78 be ec ff 83 3e
       0.061575547 -0.003562786 -0.24270265 0.2578119
000100 8a 0f 88 3e 3d 32 2d 3d c5 b0 d7 bd af ef 29 3e
       0.26574355 0.04228424 -0.10531763 0.16595338
000110 f2 6a 6a 3d de 58 8d 3e 90 8d 91 bc 01 27 01 3f
       0.057230897 0.27606863 -0.017767698 0.5045014
000120 34 1b 5f bd c4 ef 6b 3d 79 20 26 3e 08 39 b0 3d
       -0.054469302 0.057601705 0.16223325 0.08604628
000130 20 e7 50 3e d1 52 53 3e b2 97 39 3e 03 5c ce bd
       0.20400667 0.2063706 0.18124273 -0.100761436
000140 6e bc 6b 3a c8 42 93 3d a2 72 30 3e de 32 64 bc
       0.0008992617 0.07190472 0.17231229 -0.013928143
000150 13 ff a9 bd b7 af 0b be dd 32 9d 3e 37 45 6e be
       -0.08300605 -0.13641249 0.30702868 -0.23268591
000160 e5 a3 ba bd d1 69 0b 3e c3 5c 08 bc d1 4b f0 bd
       -0.09113292 0.13614585 -0.008322897 -0.11733211
000170 05 78 2d be 72 51 82 3e 55 d9 7c 3d 85 cc 81 3d
       -0.16940315 0.25452763 0.0617307 0.06337837
000180 48 b2 db bc 5a 83 d3 3c cb d7 10 be 0c de 34 3e
       -0.02681841 0.02581947 -0.14144818 0.17662829
000190 6d dd a2 bc 69 6e f2 bc 96 2f 60 bc ae 11 d5 bd
       -0.019880975 -0.029593663 -0.01368322 -0.10403763
0001a0 5e cb 05 be 18 c4 51 be 8e a9 8b 3e c6 9b 11 bd
       -0.1306586 -0.2048496 0.27277797 -0.035548948
0001b0 1c 69 ae bd 4a 7e 51 be c1 ba 1e 3e 1b 40 80 3d
       -0.08516142 -0.20458332 0.15500928 0.06262227
0001c0 f9 c0 8e 3d 4d d6 06 3e 75 7c ab bc 44 66 df 3c
       0.069704 0.13167687 -0.02093337 0.027270444
0001d0 ec d6 0e bd a4 71 12 3e 43 a2 e3 3d b1 dc 5b 3e
       -0.034872934 0.14301163 0.11114933 0.21470906
0001e0 88 6c c3 bd 01 9b 1c 3d 25 fd 53 be e1 f0 54 3e
       -0.09542185 0.03823376 -0.20702036 0.20795013
0001f0 42 6a 19 3e 92 8a 13 bc 0c be 81 bd 18 29 4e 3d
       0.1498194 -0.009005206 -0.06335077 0.05033216
000200 07 ad 15 3e 27 e8 5b be 59 7a 10 3e a7 e9 dd 3d
       0.14616786 -0.21475278 0.14109172 0.10835581
000210 99 da b8 3d 48 91 46 bd 86 7e 4f be 2a 96 8a be
       0.09026069 -0.048478395 -0.20263109 -0.2706769
000220 0e de 00 3e b3 b8 86 3e 0e a2 71 3d 9b 5d 36 3e
       0.12584707 0.2631279 0.058992438 0.17809145
000230 34 ad f2 3c 0f 41 66 3c be c5 2e 3e 82 4b 2d bc
       0.029623605 0.014053597 0.1706762 -0.0105770845
000240 03 3d 2a bd 5e e1 23 be ba dd 29 3d 57 7c 9a be
       -0.04156209 -0.1600394 0.04147122 -0.3017299
000250 2a 3e 9f 3d 71 85 eb 3d ed 9e 14 be b0 06 42 3e
       0.07775529 0.11500061 -0.1451375 0.18947864
000260 30 b9 0b 3e b8 0c 6c bd 47 59 2f be e2 d0 93 be
       0.13644862 -0.057629317 -0.171239 -0.28870302
000270 99 5f dc 3d 4c be 07 bc b4 b3 43 be b1 40 52 3e
       0.10760421 -0.008285116 -0.1911152 0.2053249
000280 2f ae 7c bb 1a ee de 3a 4d b1 ea bd f4 01 38 3c
       -0.003855597 0.0017008216 -0.11459599 0.011230934
000290 0c 9b 95 3e 19 66 67 be 54 d1 05 be 66 30 a0 bd
       0.29219854 -0.22597541 -0.13068134 -0.07821731
0002a0 73 f6 fc bd 1e dd 08 bd b1 04 d7 be bf d4 0d 3e
       -0.12351694 -0.033414 -0.41995767 0.13850687
0002b0 42 37 9a be 23 10 2b be 93 c7 21 3b 58 f6 10 3e
       -0.30120283 -0.16705374 0.0024685606 0.14156473
0002c0 b1 4f 10 3e b5 73 a7 bb ea d7 8e 3d 77 67 0d bd
       0.140929 -0.005110229 0.06974776 -0.0345225
0002d0 e5 f7 5b be 3f 43 fa bd 82 e7 45 3e cf 26 5f 3d
       -0.21481283 -0.122198574 0.19326594 0.05448037
0002e0 55 40 20 3d d2 56 9c 3e 26 2a 21 3e d2 63 2c 3d
       0.03912385 0.3053499 0.15738735 0.042087384
0002f0 c5 b7 32 be 18 26 60 3d 4b 8b 83 3d b2 57 bd 3c
       -0.17452915 0.05472383 0.064230524 0.023113105
000300 6d ec 4d 3e 06 75 65 bd e4 09 e3 bd aa 7f a5 bd
       0.2010972 -0.056019805 -0.11085871 -0.080809906
000310 64 c3 32 3e 91 c2 94 3e a7 a7 d0 bd f1 f5 51 3e
       0.17457348 0.29054692 -0.10188227 0.20503975
000320 87 f2 d0 bc f1 4e de bd 3f 47 c5 bd 20 9a 0e 3e
       -0.025506271 -0.10854901 -0.0963273 0.13925982
000330 5b 95 6b 3d 84 4e f2 3d 42 2c 0a 3f 4c 46 63 be
       0.057515483 0.11831382 0.5397378 -0.22194785
000340 90 f8 c4 3d d6 8f 1d 3b d6 4f f4 3d 08 23 16 3c
       0.09617722 0.0024042032 0.1192929 0.009163626
000350 94 2c f0 bc f6 e7 84 3e d5 78 9a be c8 85 41 3e
       -0.029318132 0.25958222 -0.30170313 0.1889869
000360 41 67 74 be 8d a7 27 3e f0 f5 c7 3e 03 47 31 be
       -0.23867513 0.1637251 0.39054823 -0.17312245
000370 38 d6 0d 3e 83 5c 57 be 80 47 c9 3d 47 ab b2 3d
       0.13851249 -0.21031384 0.09828091 0.08724075
000380 f5 db 8e bd 21 9f 6e 3d 99 22 b3 bd 39 00 1f be
       -0.06975547 0.058257226 -0.08746833 -0.15527429
000390 32 67 12 3e c3 92 79 3e c9 29 e6 bc e4 ee 19 3d
       0.14297178 0.24372391 -0.028096097 0.03758134
0003a0 ae 2c 46 bc 75 3b a6 bd 41 fb 54 3d 96 21 b4 3d
       -0.012095613 -0.08116809 0.051997427 0.087954685
0003b0 00 6c 59 be e2 72 1f 3e d9 02 22 3e 2b c0 cd 3d
       -0.21232605 0.15571168 0.15821399 0.10046419
0003c0 24 9f 93 3e 21 60 7e bd e3 41 91 3d fe 00 82 3e
       0.28832352 -0.062103394 0.07092645 0.25391382
0003d0 cc 2b 10 be 86 e7 51 3d 48 67 47 bc 23 7b 0f 3d
       -0.14079207 0.05124619 -0.01217062 0.03502954
0003e0 8f c9 7d 3d 4d 36 6f be 4b 31 57 3d fb da 40 be
       0.0619598 -0.23360558 0.052537244 -0.18833534
0003f0 91 70 12 3d 3f f6 6b be 89 b2 1a 3e cf a2 79 3c
       0.035751883 -0.23043154 0.15107168 0.0152365705

base.5linear.bias f4 [50]
000000 79 36 aa 3a fb 19 40 bd 5b 11 0f bd d1 d6 1d 3d
       0.0012986205 -0.046899777 -0.03492866 0.038534943
000010 69 d3 a5 bb ea 8c f0 3d 2a e7 16 3d 2f d9 00 be
       -0.0050606024 0.11745627 0.03684155 -0.12582849
000020 7b a5 32 3e a3 f3 b4 bd bf 72 cb 3c 38 d0 d6 bc
       0.17445938 -0.088355325 0.024834989 -0.026222333
000030 98 67 ee 3d ec b2 36 bd 7b e3 a1 3d 48 50 2e 3d
       0.11640853 -0.044604227 0.079047166 0.04255703
000040 b8 53 67 3c ab a4 89 bc 3f 85 48 3d 5d 38 23 3d
       0.014119081 -0.016802153 0.0489552 0.039848674
000050 98 fa f6 bb a5 d1 2f 3c e3 1e e6 bb 64 f2 13 be
       -0.0075371973 0.0107311355 -0.007022725 -0.14447933
000060 a8 c2 e4 3b a8 5b e0 3d fa cb 1c bd ea d0 ca 3d
       0.0069812126 0.10954982 -0.038280465 0.099031284
000070 c4 4e 15 bd f6 4d 82 3d b6 d2 4f bc 66 e3 41 3b
       -0.03645207 0.06362526 -0.012684515 0.0029585003
000080 58 36 c9 3d be 05 73 3c b9 b8 39 bd d9 5c 69 3d
       0.098248184 0.014832912 -0.04534218 0.056973312
000090 44 f9 0b be 86 27 8d 3d b5 9f 0c 3e f6 56 f7 3c
       -0.13669306 0.06892304 0.13732798 0.030192833
0000a0 ac 52 34 3d 33 1c 65 3d 9f d0 1a bc 1c 06 03 3c
       0.044024155 0.055935096 -0.009449153 0.007997062
0000b0 b7 02 a2 3d c9 6d 43 3d e0 55 13 3c 30 c0 ab bd
       0.07910674 0.04771212 0.008992642 -0.08386266
0000c0 8e 98 d6 3a 52 06 8e bd
       0.0016372369 -0.06934799
