STPINN-RANS/sub_data/sub_write/31NS_model_train.pt (torch, 100283 bytes, 22 tensors)

base.0linear.weight f4 [50, 3]
0	0xbe307b0b	-0.17234437
1	0xbc537330	-0.012905881
2	0x3cf4f48f	0.02990177
3	0xbe2d20ed	-0.16907091
4	0x3e24f4d8	0.16109025
5	0x3e2ac89e	0.16678092
6	0xbe36903f	-0.17828463
7	0xbe8104e8	-0.25199056
8	0x3d2507d9	0.040290687
9	0x3dd86801	0.10566712
10	0x3d670a37	0.056406226
11	0x3d892792	0.066970006
12	0x3cd5ad9d	0.026083762
13	0x3e0f0249	0.13965715
14	0x3d4bb365	0.04973163
15	0x3dc91f6c	0.09820446
16	0xbe89a6bc	-0.2688502
17	0xbe376940	-0.17911243
18	0x3d1603f3	0.03662486
19	0x3dba9c5b	0.09111854
20	0x3e146f80	0.14495659
21	0x3cfe026a	0.03100701
22	0x3cbbe101	0.022934439
23	0xbd74196b	-0.059594553
24	0xbc2a46ca	-0.010392854
25	0xbe11a0da	-0.14221516
26	0xbe3ad3e6	-0.18244895
27	0x3dfd7a39	0.12376828
28	0x3e00eb7a	0.12589827
29	0xbeaed9d3	-0.34150562
30	0xbbaf2f62	-0.0053462246
31	0xbaaa28ff	-0.0012982188
32	0xbb01339f	-0.0019714606
33	0xbe3ea8db	-0.18619101
34	0x3d86a39e	0.06574176
35	0x3de89b05	0.11357693
36	0xbda453f0	-0.08023822
37	0xbba49857	-0.005023043
38	0xbd3c8402	-0.04602433
39	0xbd16eb79	-0.036845658
40	0x3e38204f	0.17981075
41	0x3e7f97e2	0.24960282
42	0x3be4177d	0.006960808
43	0x3ec6e0c0	0.38843346
44	0xbe77d1ee	-0.24201176
45	0xbe59878f	-0.21243118
46	0xbedd84c2	-0.4326535
47	0x3e03210e	0.12805578
48	0x3e6b1ff0	0.22961402
49	0x3d851230	0.064976096
50	0xbe068d50	-0.13139844
51	0x3e90cc7e	0.28281015
52	0xbe9d2bbd	-0.30697432
53	0xbe994e94	-0.29942763
54	0x3da2380e	0.07920848
55	0xbd9f5a51	-0.07780898
56	0xbe98f827	-0.29876825
57	0x3dc7ebfa	0.09761806
58	0xbe0609e9	-0.13089718
59	0xbeb2938f	-0.34878203
60	0x3e8d6c11	0.2762151
61	0x3e68181f	0.22665451
62	0xbe9c86b7	-0.3057153
63	0xbcaf952e	-0.02143344
64	0xbd27458f	-0.04083782
65	0xbe187c74	-0.14891225
66	0x3e26613b	0.16248028
67	0x3ce47f99	0.027892875
68	0xbe991570	-0.29899168
69	0xbc672bb7	-0.0141095435
70	0x3e3a91cd	0.18219681
71	0xbea343d5	-0.3188769
72	0xbdc6b2b5	-0.097020544
73	0xbe308889	-0.17239584
74	0xbda2828e	-0.079350576
75	0xbced652f	-0.028978912
76	0xbe0876fa	-0.13326636
77	0x3e0b57a8	0.13607657
78	0xbe8f133b	-0.2794436
79	0xbd4fd0c2	-0.050736196
80	0x3e018dc5	0.12651737
81	0xbe32371d	-0.17403837
82	0xbe313f88	-0.17309391
83	0x3dcfc8ad	0.10145698
84	0x3dc9ba11	0.098499425
85	0xbda9199e	-0.08256839
86	0xbea9014e	-0.33008808
87	0x3e4a4535	0.19752963
88	0xbe4f9a17	-0.20273624
89	0xbe89f640	-0.26945686
90	0x3e052329	0.13001694
91	0x3e18c5e5	0.14919241
92	0x3e3d794d	0.18503304
93	0xbe8db6e7	-0.27678606
94	0x3ddf7d57	0.109125786
95	0x3f067bab	0.5253245
96	0xbe584275	-0.21119101
97	0xbe1693df	-0.14704846
98	0x3e87b196	0.26502675
99	0xbe62d0f4	-0.22150022
100	0x3ed5386f	0.41644618
101	0xbda5e004	-0.08099368
102	0x3e34b624	0.17647606
103	0x3b8a068c	0.004212206
104	0xbe28a214	-0.16468078
105	0xbd922f1d	-0.071378924
106	0x3ea42742	0.320612
107	0x3dfdf85a	0.12400885
108	0x3dd6e8af	0.104935996
109	0x3e008491	0.1255057
110	0xbebef43d	-0.37295714
111	0x3e82942b	0.25503668
112	0x3f1a3022	0.60229695
113	0xbe9c29eb	-0.3050073
114	0x3c2f85d1	0.010713057
115	0xbeb3e51c	-0.35135734
116	0xbd856c72	-0.06514825
117	0x3d130ab4	0.03589888
118	0xbdd7e9b0	-0.10542619
119	0x3e811e1a	0.25218278
120	0x3dcb4d98	0.09926909
121	0x3e865843	0.26239213
122	0xbd8135a0	-0.06309056
123	0xbdbf2169	-0.09332544
124	0x3dca45ae	0.098765716
125	0x3d93f0f3	0.07223692
126	0x3df645b2	0.12025012
127	0xbde099eb	-0.109668575
128	0xbeba718e	-0.3641476
129	0xbed17ed5	-0.40917078
130	0x3d047b2b	0.032344025
131	0x3e6a2321	0.22864963
132	0x3db805ec	0.089855045
133	0xbd6c206d	-0.05764811
134	0x3e0afbe3	0.1357265
135	0x3df4110a	0.119173124
136	0xbe1bedf2	-0.15227488
137	0xbe15c7da	-0.14627019
138	0xbd188655	-0.037237484
139	0x3d20fa63	0.039301287
140	0xbe4a4fe6	-0.19757041
141	0x3dade331	0.08490599
142	0xbe204250	-0.15650296
143	0xbe29b577	-0.1657313
144	0xbe571c25	-0.2100683
145	0x3e0b133c	0.13581556
146	0xbe7c7944	-0.24655634
147	0x3d61abb8	0.055095404
148	0x3eb145ba	0.3462351
149	0xbdeceb13	-0.11568274

base.0linear.bias f4 [50]
0	0x3d131b12	0.035914488
1	0xbd1c5192	-0.03816373
2	0x3da22881	0.07917882
3	0xbda32f14	-0.07967964
4	0xbd8fe939	-0.070269056
5	0x3df479b6	0.11937277
6	0xbdc7d5b6	-0.09757559
7	0x3d23661f	0.039892312
8	0x3e16ceb7	0.14727293
9	0x3dc33a60	0.095326185
10	0x39df7580	0.0004262142
11	0xbc8d43ad	-0.017244184
12	0x3d71b72a	0.05901257
13	0x3b9c8ac9	0.0047772867
14	0x3dea1ee9	0.11431677
15	0xbc496aad	-0.0122935
16	0xbbd50552	-0.0065008784
17	0x3cfc3177	0.030785305
18	0x3c5a3880	0.013319135
19	0xbd33b68f	-0.043875273
20	0x3c99d850	0.018779904
21	0x3ccc6cee	0.024954285
22	0x3d161291	0.0366388
23	0x3d136e1b	0.035993677
24	0xbc794a61	-0.015215487
25	0xbd02fdc2	-0.031980284
26	0xbd15ca4b	-0.036569875
27	0xbd90f1eb	-0.07077392
28	0x3e204508	0.15651333
29	0xbcaaed5e	-0.020865139
30	0xbe10faf8	-0.14158237
31	0x3d6fcd3f	0.058545347
32	0xbdbdbf7e	-0.0926504
33	0x3cc6a362	0.024247829
34	0xbd0d31d4	-0.034471348
35	0xbe082fa4	-0.13299423
36	0xbc45d15b	-0.01207384
37	0xbdb5cddf	-0.088771574
38	0x3d8a75c9	0.06760747
39	0xbe15e4dd	-0.14638086
40	0xbd05a704	-0.03262998
41	0xbcc8dfc3	-0.02452076
42	0xbd9ebf6f	-0.07751357
43	0xbdda1a5a	-0.106495574
44	0xbdf10a17	-0.117695026
45	0x3d94b72b	0.07261499
46	0x3e27b3b1	0.1637714
47	0x3e2117df	0.15731762
48	0xbaeb9f1e	-0.0017976498
49	0x3b38132c	0.00280876

base.1linear.weight f4 [50, 50]
0	0xbe8b48eb	-0.2720407
1	0x3c487e68	0.012237169
2	0x3dece72f	0.11567532
3	0x3d842960	0.06453204
4	0x3e1ec52c	0.15504903
5	0xbcdb3983	-0.026760822
6	0x3d5f2734	0.054480746
7	0x3e3227ea	0.17398039
8	0xbd9a577b	-0.07536217
9	0xbe0e5801	-0.13900758
10	0x3d85c81e	0.0653231
11	0xbe24ab1c	-0.16080898
12	0xbea406a1	-0.32036307
13	0x3dbe01ea	0.09277709
14	0xbd00e1d3	-0.031465363
15	0x3ddd81ef	0.108157985
16	0x3cdf27ca	0.027240653
17	0x3da3d9b6	0.080005094
18	0xbe06ebb9	-0.13175859
19	0x3e3bdcab	0.18345897
20	0x3c56ea24	0.013117347
21	0x3b2151a6	0.0024615317
22	0x3e1d3e94	0.15355903
23	0xbe816655	-0.25273386
24	0xbd9fe396	-0.078070804
25	0x3e012d0c	0.1261484
26	0xbe5546a0	-0.20827723
27	0x3e0485e7	0.12941705
28	0xbe5dd3a3	-0.21662764
29	0xbddd4c1d	-0.10805533
30	0x3d21cbd7	0.039501037
31	0xbe2e54c4	-0.17024523
32	0x3e554313	0.20826368
33	0xbeb1b846	-0.34710902
34	0xbe3dc73d	-0.18533035
35	0x3b93ba7d	0.004508315
36	0x3d8999dc	0.067187995
37	0x3e1fb44c	0.15596122
38	0xbe35c186	-0.17749605
39	0x3e652cab	0.2238032
40	0x3dc90015	0.09814469
41	0xbe28f91d	-0.16501279
42	0xbe05fd60	-0.13084936
43	0x3e430f48	0.19048798
44	0x3dcb70ae	0.09933601
45	0x3cf148e0	0.029453695
46	0xbe89ceb7	-0.26915523
47	0xbe2ff4f7	-0.1718329
48	0xbb69e5f7	-0.0035690048
49	0xbe465941	-0.19369985
50	0x3d09fe1a	0.033689596
51	0x3ec519df	0.384963
52	0xbead152b	-0.33805212
53	0x3dd5d0d4	0.104402214
54	0xbe331d26	-0.17491588
55	0xbe588acd	-0.21146698
56	0x3d1ac2c0	0.037783384
57	0x3c0e5506	0.008687263
58	0xbe82a9fe	-0.2552032
59	0xbd8c2319	-0.06842632
60	0x3ca1e076	0.019760352
61	0x3d0eb2fd	0.034838665
62	0xbe5811e6	-0.21100578
63	0x3c3a48e6	0.011369919
64	0xbd0cbf4f	-0.034362134
65	0xbcdb4cda	-0.026770044
66	0x3cab0fe7	0.020881606
67	0xbdec909d	-0.1155102
68	0x3e852237	0.26002666
69	0xbe160853	-0.14651613
70	0xbe583ce4	-0.21116978
71	0xbde55fd4	-0.111999184
72	0xbe5b9515	-0.21443589
73	0xbd368fe1	-0.044570807
74	0xbd75345b	-0.059864383
75	0xbe2f1d17	-0.1710094
76	0x3e0fa631	0.1402824
77	0xbe350010	-0.17675805
78	0xbd9c64ce	-0.076364145
79	0xbd51fb21	-0.051264886
80	0x3de5bf4e	0.11218129
81	0x3dea46f4	0.114393145
82	0xbe4d009d	-0.20019765
83	0x3e21383a	0.15744105
84	0x3db48ef5	0.088163294
85	0x3ee61cf0	0.44943953
86	0x3dc8947e	0.09793948
87	0x3e03678d	0.1283247
88	0xbe8c095f	-0.273509
89	0x3e6ec27e	0.2331638
90	0x3e16a429	0.1471106
91	0x3dc1336c	0.09433636
92	0x3dfcb35a	0.12338896
93	0xbe1c96b3	-0.15291862
94	0xbe281fb0	-0.16418338
95	0x3aed6f4d	0.0018114835
96	0x3e0f471f	0.13991974
97	0xbec9aa63	-0.39387807
98	0x3e1eaffd	0.15496822
99	0xbcffa03a	-0.031204332
100	0x3cc93b15	0.024564305
101	0x3e40408a	0.1877462
102	0x3d551b68	0.05202809
103	0xbcb79e94	-0.022414483
104	0x3e134409	0.14381422
105	0xbe6eb5d5	-0.23311551
106	0x3d8efed1	0.06982196
107	0xbe218758	-0.15774286
108	0x3da79d20	0.08184266
109	0x3d3e75e8	0.046499163
110	0xbd3b2292	-0.045687266
111	0x3ebfe8fa	0.37482435
112	0x3d9ff27a	0.078099206
113	0x3de92465	0.11383895
114	0x3e651fa1	0.22375347
115	0x3ce83791	0.028346809
116	0x3d9c4932	0.076311484
117	0x3dd0099c	0.10158083
118	0xbe9e1b76	-0.30880326
119	0x3e113ec6	0.14184102
120	0xbe53ddd8	-0.20690095
121	0x3e381a71	0.17978837
122	0x3d494abe	0.049143545
123	0x3d9a66ee	0.075391635
124	0xbd421435	-0.047382552
125	0xbd27f491	-0.04100472
126	0x3d9eb5d7	0.07749527
127	0xbe4df342	-0.20112327
128	0xbdd8993e	-0.10576104
129	0x3da32af2	0.079671755
130	0xbd78d91d	-0.06075393
131	0xbea20a05	-0.3164827
132	0xbe27c753	-0.1638463
133	0x3c89b93c	0.01681196
134	0x3ce32660	0.02772826
135	0x3e3c95e2	0.18416551
136	0xbd4c7a34	-0.04992123
137	0x3cb9aa4a	0.022664208
138	0xbe0f53b1	-0.1399677
139	0xbe20d81a	-0.15707436
140	0xbe017a14	-0.12644225
141	0x3d037d38	0.03210184
142	0xbe28f446	-0.16499433
143	0xbe5d6626	-0.21620998
144	0x3d896eff	0.06710624
145	0xbcdbde7e	-0.026839491
146	0xbdd59be4	-0.104301244
147	0x3e37dc3c	0.17955106
148	0xbccf51c6	-0.025307547
149	0xbcec3ed3	-0.02883855
150	0xbd3fd9a5	-0.04683842
151	0xbde08fb3	-0.109649085
152	0xbce5bde5	-0.02804465
153	0xbd19edf1	-0.037580434
154	0x3d13e6d9	0.036108825
155	0xbe8a3de3	-0.2700034
156	0x3d90c298	0.07068366
157	0xbd2eae4f	-0.042646702
158	0xbe2a778a	-0.16647163
159	0x3da1b147	0.07895141
160	0xbcf7663c	-0.030200116
161	0x3e2e5da9	0.17027916
162	0xbd3075d7	-0.04308113
163	0xbd66b364	-0.056323424
164	0x3e0c2796	0.13686976
165	0xbea66b32	-0.3250366
166	0xbe44a9c2	-0.19205382
167	0xbddc6015	-0.10760514
168	0x3d47639d	0.048678983
169	0xbe1e23cb	-0.15443341
170	0xbe941cf2	-0.28928334
171	0x3cae831c	0.021302752
172	0x3d9bdffe	0.076110825
173	0xbd258b52	-0.04041607
174	0xbcda0739	-0.026614772
175	0xbe6ab566	-0.2292076
176	0x3c44af56	0.012004694
177	0x3d2f2f5d	0.04276978
178	0xbec2b80c	-0.38031042
179	0xbe8d52d2	-0.2760225
180	0x3bd2acb2	0.0064292783
181	0x3b77427f	0.0037728844
182	0xbccaea2e	-0.024769869
183	0x3e0a22bf	0.13489817
184	0xbe2a7c10	-0.16648889
185	0x3dfc45c5	0.12317995
186	0x3d61563f	0.05501389
187	0x3de66e37	0.112514906
188	0xbc6a97ed	-0.0143184485
189	0x3d2f1819	0.04274759
190	0x3e260add	0.16215082
191	0xbe825afa	-0.25460035
192	0x3bde5dbd	0.006786077
193	0x3d825a74	0.06364909
194	0xbd35dbba	-0.044399
195	0xbd638796	-0.055549227
196	0xbd2dd7d3	-0.042442154
197	0xbe934144	-0.2876073
198	0xbda9e31e	-0.08295272
199	0xbdb58059	-0.08862371
200	0x3ee7ab19	0.45247725
201	0x3e48e354	0.19617969
202	0xbe170c9a	-0.14750901
203	0x3d315dc4	0.043302312
204	0x3f151145	0.58229476
205	0xbec90be4	-0.39266884
206	0xbdbf90ab	-0.09353765
207	0xbe305e99	-0.17223586
208	0xbd8e6bdc	-0.06954166
209	0xbe099e83	-0.13439374
210	0x3d70e79c	0.05881463
211	0x3e2eb981	0.17062952
212	0x3e2eba7b	0.17063324
213	0xbc41c4a9	-0.011826673
214	0x3db00d5e	0.085962996
215	0xbda59290	-0.08084595
216	0xbd2ef273	-0.042711686
217	0xbe151aed	-0.14561053
218	0xbd8c1bf6	-0.068412706
219	0xbe1e214b	-0.15442388
220	0xbddae4f8	-0.106882036
221	0x3d62f41b	0.05540858
222	0xbd9fe22d	-0.078068115
223	0xbe119f30	-0.14220881
224	0x3e6f0ce8	0.23344767
225	0xbe81574a	-0.2526191
226	0x3eb6acd2	0.35678726
227	0x3e1c6892	0.15274265
228	0xbe497c64	-0.19676358
229	0x3d648ae8	0.055796534
230	0x3e3e73ed	0.1859891
231	0x3de4b0e9	0.111665554
232	0x3e85e21a	0.26149064
233	0x3d39eadb	0.04538999
234	0x3d0fb59d	0.03508531
235	0x3eb35550	0.35026026
236	0x3d709d50	0.058743775
237	0x3cf50f29	0.029914455
238	0x3e2da2ed	0.16956683
239	0xbd1c4677	-0.038153138
240	0xbe2c7929	-0.16843094
241	0x3e2a669d	0.16640706
242	0xbda53d9b	-0.08068391
243	0x3ee3c21f	0.4448404
244	0xbed7701a	-0.42077714
245	0xbb6c140f	-0.0036022698
246	0xbe06ee79	-0.13176908
247	0xbe21d071	-0.1580217
248	0xbb627925	-0.003455707
249	0x3dec5d08	0.11541182
250	0x3d463344	0.048388734
251	0xbe4cf33e	-0.20014665
252	0x3db266fa	0.087110475
253	0x3e112e7e	0.14177892
254	0x3dc0a821	0.09407068
255	0xbe8b3c8d	-0.27194634

base.1linear.bias f4 [50]
0	0xbdddefdc	-0.10836765
1	0xbde5163d	-0.11185882
2	0x3d488050	0.048950493
3	0xbd93505b	-0.07193061
4	0xbdc2462e	-0.09486042
5	0x3d8f819f	0.07007145
6	0x3cbb2dfc	0.022849075
7	0x3d17a48c	0.03702216
8	0x3df0c75f	0.11756777
9	0xbd950c35	-0.07277719
10	0x3afa85c3	0.001911335
11	0xbdb4bc3f	-0.088249676
12	0xbd6ca7ec	-0.05777733
13	0xbce3188e	-0.02772167
14	0xbcf98a40	-0.03046143
15	0xbcf7b04a	-0.030235428
16	0x3dcf830d	0.10132418
17	0x3dcaa25d	0.098942496
18	0x3d2b54a7	0.041828778
19	0x3d1e3fd2	0.038635083
20	0xbd6905df	-0.056890365
21	0x3c8d970d	0.01728394
22	0xbd22eb61	-0.039775256
23	0x3d5dc865	0.05414619
24	0xbc1b8cb1	-0.009493993
25	0xbd1720da	-0.036896564
26	0x3cef4a75	0.029210309
27	0xbdffa793	-0.12483134
28	0x3e6241d9	0.22095431
29	0x3e196e1b	0.14983408
30	0x3d70ee58	0.058821052
31	0xbe28c9f5	-0.1648329
32	0x3e312cd8	0.17302263
33	0x3d75f48c	0.06004767
34	0x3d3b8059	0.0457767
35	0x3de0cd1e	0.10976623
36	0xbb5627a8	-0.0032677446
37	0xbd4da560	-0.050206542
38	0x3af0d250	0.0018373225
39	0x3cf8f166	0.030388545
40	0xbd34a9cd	-0.044107247
41	0x3dce38da	0.10069437
42	0x3a83f94a	0.0010068801
43	0xbdb8a19f	-0.09015202
44	0x3c978ffa	0.01850127
45	0x3dd164a8	0.10224277
46	0xbca37231	-0.019951912
47	0xbdc6f511	-0.097147115
48	0xbdce7f1f	-0.1008284
49	0x3d396df9	0.045270894

base.2linear.weight f4 [50, 50]
0	0xbd29c86e	-0.04145091
1	0xbcdb59f1	-0.026776286
2	0xbdbe1e91	-0.09283174
3	0x3ccb01d6	0.024781149
4	0x3afc727d	0.0019260194
5	0x3e3a37b6	0.18185315
6	0x3e29932e	0.16560051
7	0xbd0f5e59	-0.035002086
8	0xbe55a900	-0.2086525
9	0x3d19b384	0.037524715
10	0xbe09594a	-0.13412967
11	0xbb109822	-0.0022063334
12	0xbb7e7acc	-0.0038830517
13	0xbd8dbfe6	-0.06921367
14	0x3ea0d6ec	0.31413972
15	0xbc8f3758	-0.017482445
16	0x3da3dfac	0.080016464
17	0xbe274602	-0.163353
18	0x3ed34cc6	0.4126951
19	0x3e44deee	0.19225666
20	0x3e07bd6c	0.13255852
21	0xbd08de92	-0.033415385
22	0x3e58acbc	0.21159643
23	0x3cd3add0	0.025839716
24	0x3d1b5b78	0.03792903
25	0xbdcb0fe8	-0.09915143
26	0xbd001917	-0.031273928
27	0xbd963629	-0.07334549
28	0x3d4d6e48	0.050154
29	0xbe446910	-0.19180703
30	0x3e5f7451	0.21821715
31	0x3d88a62d	0.066723205
32	0xbd07a272	-0.033113904
33	0xbea9dee1	-0.33177856
34	0xbcfec6c2	-0.031100634
35	0x3d277ec5	0.04089238
36	0x3e6489ac	0.22318143
37	0xbd669332	-0.05629272
38	0x3e27edb6	0.16399273
39	0x3e2fbe85	0.17162521
40	0x3e78a38c	0.24281138
41	0x3dbd1750	0.09232962
42	0xbdf28841	-0.118423946
43	0xbe001924	-0.1250959
44	0x3d54c955	0.051949818
45	0x3e5a7d10	0.2133677
46	0x3e170314	0.14747268
47	0xbd798ea7	-0.06092706
48	0x3e1493f5	0.14509566
49	0x3cfbea5c	0.0307514
50	0xbe7d57ef	-0.24740575
51	0x3d8405a5	0.06446389
52	0xbd28f377	-0.04124781
53	0x3d29fce4	0.04150094
54	0x3dc20176	0.09472935
55	0x3d9e174e	0.07719289
56	0x3e2a6fb1	0.1664417
57	0x3db266c5	0.08711008
58	0x3d96ec0a	0.0736924
59	0xbd033026	-0.03202834
60	0x3e03373f	0.12814043
61	0xbe139ae8	-0.14414561
62	0x3d8d0b4d	0.06886921
63	0xbdc09899	-0.09404106
64	0xbde000e6	-0.10937671
65	0x3d44e11f	0.048066255
66	0x3e7ff6e6	0.24996528
67	0xbe45dc9c	-0.19322437
68	0x3e10b6cc	0.14132231
69	0x3dd0373c	0.10166785
70	0xbe6989c2	-0.22806457
71	0xbdd16947	-0.10225158
72	0xbdbc23c5	-0.0918651
73	0xbdad0674	-0.084484965
74	0xbdf51d05	-0.11968426
75	0xbe562ec4	-0.20916277
76	0x3c21730d	0.00985409
77	0xbbac8b8b	-0.0052656583
78	0xbe2b88ec	-0.1675145
79	0x3c050055	0.008117755
80	0xbe476cf2	-0.19475153
81	0xbdacdac7	-0.08440166
82	0xbe80135b	-0.25014767
83	0x3e12f792	0.14352253
84	0x3e02271e	0.12710235
85	0xbe799f61	-0.24377204
86	0xbdd4f2ad	-0.10397849
87	0xbcc21aae	-0.023694362
88	0xbd617507	-0.055043247
89	0x3da8f2eb	0.08249458
90	0xbe2a07da	-0.16604558
91	0xbe800ad4	-0.2500826
92	0x3d4d33db	0.05009828
93	0x3d55d12e	0.052201442
94	0x3c42e096	0.011894366
95	0x3cd0b1a7	0.025475336
96	0x3da5d3f2	0.08097066
97	0x3df4486f	0.11927878
98	0x3d64ad96	0.055829607
99	0xbd9899cd	-0.0745121
100	0x3da6f787	0.08152681
101	0xbd614ad0	-0.055002987
102	0x3ca217a1	0.019786658
103	0xbd69106e	-0.056900434
104	0xbd241165	-0.04005565
105	0xbe2c7b26	-0.16843852
106	0x3d36d8c5	0.04464032
107	0x3d05841b	0.03259669
108	0xbe2d3bb2	-0.16917303
109	0x3ded6940	0.115923405
110	0x3e5a535e	0.21320865
111	0x3e417545	0.18892391
112	0xbd5b9e6f	-0.05361789
113	0xbd88de51	-0.066830285
114	0xbb9b5905	-0.0047408366
115	0xbe297299	-0.16547622
116	0xbdf328ec	-0.118730396
117	0xbd143187	-0.036180045
118	0x3dace71c	0.08442518
119	0x3b83fa8b	0.00402767
120	0x3d065bb2	0.03280229
121	0xbcafd0c1	-0.021461846
122	0x3c919260	0.017769992
123	0x3b1a5dea	0.0023554512
124	0x3d3b1e62	0.045683272
125	0xbc9f5de4	-0.01945395
126	0x3be6e292	0.0070460523
127	0x3d65cef9	0.056105588
128	0x3d58748b	0.05284552
129	0x3dc9fd67	0.09862786
130	0x3da176d1	0.078839906
131	0x3df88810	0.12135327
132	0x3e30a91e	0.17252013
133	0xbdbcde1d	-0.09222052
134	0x3e54cd57	0.20781456
135	0xbe2484ff	-0.16066359
136	0xbe86eb3e	-0.2635135
137	0xbdad0cd3	-0.08449712
138	0xbde534aa	-0.111916855
139	0xbccf4095	-0.02529935
140	0x3d5f1287	0.05446103
141	0xbd441f19	-0.04788122
142	0x3dcc3d0e	0.09972583
143	0x3e2791be	0.1636419
144	0x3d00ba92	0.031427927
145	0x3bc8745d	0.006117387
146	0x3e452316	0.19251665
147	0x3d0d3b11	0.03448016
148	0xbe9ce5ef	-0.30644175
149	0x3d916cee	0.07100855
150	0x3cbff7f9	0.023433672
151	0x3cde8966	0.027165126
152	0x3e03c17c	0.12866777
153	0xbe9430f4	-0.28943598
154	0x3b91f3ce	0.0044541126
155	0x3e241834	0.16024858
156	0xbe0436df	-0.12911557
157	0x3de4c967	0.11171227
158	0x3d8106c8	0.063001215
159	0xbdaf5254	-0.08560625
160	0xbd1245f4	-0.035711244
161	0xbe276188	-0.16345799
162	0xbd08e7e9	-0.03342429
163	0x3e345729	0.17611374
164	0xbd0a6fea	-0.033798136
165	0x3e8a6391	0.27029088
166	0xbd23db77	-0.04000422
167	0xbe166744	-0.1468783
168	0xbe5ae6ec	-0.21377152
169	0xbd21be7d	-0.039488304
170	0xbde66940	-0.112505436
171	0xbe51d45f	-0.2049117
172	0xbd46742a	-0.048450626
173	0x3dd62f5a	0.1045825
174	0x3c8286c0	0.015933394
175	0x3d12f04c	0.035873696
176	0x3d9365dd	0.07197163
177	0x3d1ab6e6	0.03777208
178	0xbef56e82	-0.47935873
179	0x3df4e37c	0.11957452
180	0x3e37ac26	0.17936763
181	0xbd9a8381	-0.07544614
182	0xbe1443a7	-0.14478932
183	0x3e3823e6	0.17982444
184	0xbe33fed9	-0.17577685
185	0xbe130ef9	-0.1436118
186	0x3e916b37	0.2840211
187	0xbe0c7bf0	-0.13719153
188	0xbe0c45e3	-0.13698535
189	0xbd6d0327	-0.057864334
190	0xbdad67ae	-0.08467041
191	0xbe03de6f	-0.1287782
192	0xbd264448	-0.04059246
193	0x3d7e70cf	0.0621193
194	0xbc93859a	-0.018008042
195	0x3d60874e	0.054816537
196	0xbd89e2ce	-0.06732713
197	0xbcec3496	-0.028833669
198	0x3ba19d8c	0.004932111
199	0xbe405b8a	-0.1878492
200	0xbe22d531	-0.15901639
201	0x3e0298e8	0.12753642
202	0x3e512cd3	0.20427255
203	0x3dfb79b4	0.122790724
204	0x3e518bd2	0.20463493
205	0x3c251f3c	0.010078248
206	0xb992b2ee	-0.00027980603
207	0x3db9c101	0.09070016
208	0xbd0d0834	-0.03443165
209	0xbd30b4cb	-0.043141168
210	0x3e3bcd3f	0.18340014
211	0xbdd86bd3	-0.10567441
212	0x3d6a5a66	0.057215117
213	0xbd449f06	-0.04800322
214	0xbe3788e0	-0.17923307
215	0x3dd056dc	0.10172817
216	0xbdb79708	-0.08964354
217	0xbeb260b0	-0.34839392
218	0x3d313cc5	0.043270845
219	0xbd2735b6	-0.040822707
220	0x3d010db4	0.03150721
221	0x3d64c9aa	0.055856384
222	0xbd401e33	-0.0469038
223	0x3c678ed8	0.014133178
224	0x3d4624c7	0.048374917
225	0x3e3e3426	0.1857458
226	0x3c3d8292	0.011566775
227	0xbe5b7868	-0.2143265
228	0xbe80ca1c	-0.25154197
229	0xbee5e65e	-0.4490232
230	0xbdbf1a39	-0.093311734
231	0x3e7ee25f	0.24891041
232	0xbea2005b	-0.31640896
233	0xbdc992e4	-0.0984247
234	0xbdf1f34a	-0.11813982
235	0xbe45bea8	-0.19311011
236	0xbbb63b77	-0.005561288
237	0x3c46b6b1	0.012128518
238	0xbe167d51	-0.14696242
239	0x3c7b4643	0.015336576
240	0x3d3c7814	0.046012953
241	0xbde01c4c	-0.10942897
242	0xbda0562b	-0.07828935
243	0x3dc3bd29	0.09557564
244	0x3cb3f7b3	0.021968698
245	0xbd0619ab	-0.032739323
246	0x3ddde94d	0.10835514
247	0xbec967ca	-0.39336997
248	0xbc2b21fb	-0.010445113
249	0xbecb7b7a	-0.39742643
250	0xbd889e04	-0.06670764
251	0x3dca3a61	0.09874416
252	0x3ca6124c	0.020272397
253	0xbea1c565	-0.31595913
254	0xbd438d1c	-0.047741994
255	0xbdd035bd	-0.101665

base.2linear.bias f4 [50]
0	0x3c025c9d	0.007956651
1	0xbd603802	-0.054740913
2	0xbd8925e3	-0.066966794
3	0xbd770b1b	-0.060313325
4	0xbd87398f	-0.06602775
5	0x3c1cf795	0.0095805125
6	0xbc9bfe12	-0.019042049
7	0xbde89bcc	-0.11357841
8	0xbe24eaf4	-0.16105253
9	0x3e0495f2	0.12947825
10	0xbc974839	-0.018467056
11	0xbdfce116	-0.12347619
12	0xbcfc9659	-0.03083341
13	0x3c46221e	0.012093095
14	0x3dfc8341	0.12329722
15	0xbe191ea2	-0.14953092
16	0xbd594fb0	-0.05305451
17	0x3e539fc9	0.20666422
18	0xbca97c29	-0.020689087
19	0xbd7e99b8	-0.062158316
20	0xbd996938	-0.07490772
21	0x3e40d0fb	0.1882972
22	0xbba94009	-0.0051651043
23	0xbded0fb8	-0.11575264
24	0x3e0dadb9	0.13835801
25	0x3abcf4f8	0.0014416268
26	0xbd213a10	-0.039362013
27	0xbd08813a	-0.033326365
28	0xbd6b05cb	-0.05737857
29	0x3deb1af1	0.11479748
30	0x3cee9776	0.029124957
31	0x3e1dee18	0.15422857
32	0xbe31eb60	-0.17374945
33	0xbe14ab46	-0.1451846
34	0xbc0dbcf3	-0.008651006
35	0xbdd49b45	-0.10381178
36	0xbcec19db	-0.028820923
37	0x3c604257	0.013687692
38	0x3d64614e	0.05575686
39	0x3ce95f53	0.028487837
40	0xbd0eb4ad	-0.034840275
41	0xbc26959d	-0.0101675065
42	0xbe0fecca	-0.14055172
43	0xbd3b36b2	-0.04570646
44	0xbd166475	-0.036716897
45	0x3c632a28	0.013865031
46	0x3c54cbab	0.012988011
47	0xbcc84f43	-0.024451857
48	0x3d82360d	0.063579656
49	0xbce3523d	-0.027749175

base.3linear.weight f4 [50, 50]
0	0xbcec8504	-0.02887202
1	0xbe68f4ed	-0.22749682
2	0x3e90cb24	0.28279984
3	0xbd850554	-0.06495157
4	0xbe005d18	-0.12535512
5	0xbe516d92	-0.20451954
6	0xbdfdd552	-0.12394203
7	0xbe2de603	-0.16982274
8	0x3d7540a3	0.059876096
9	0x3d437c50	0.047725976
10	0x3cfad1e6	0.030617665
11	0xbd21cf28	-0.0395042
12	0xbbe6aa75	-0.007039363
13	0xbe4744e8	-0.1945988
14	0xbebe7cc4	-0.37204564
15	0xbdb021b0	-0.086001754
16	0x3d7393be	0.05946707
17	0x3e08d5d1	0.13362814
18	0x3bfe4a24	0.007760303
19	0xbd2efb17	-0.042719927
20	0x3e86224f	0.2619805
21	0x3c0f83ec	0.00875948
22	0xbd090d6f	-0.033460077
23	0xbe0cfc1b	-0.13768046
24	0xbca29fa6	-0.019851517
25	0x3d80ef16	0.06295602
26	0x3d7ee83b	0.06223319
27	0xbc8106b7	-0.015750272
28	0xbdfcb66e	-0.12339483
29	0xbd7cb714	-0.061698034
30	0x3e12897e	0.14310262
31	0xbe138570	-0.14406371
32	0xbc640732	-0.013917731
33	0xbd9c311f	-0.076265566
34	0xbcfa052e	-0.030520048
35	0xbe733ed4	-0.23754436
36	0x3eaa6f18	0.33287883
37	0xbdb651f6	-0.089023516
38	0xbe8d733a	-0.27626973
39	0x3ae075a8	0.0017124908
40	0x3d763ef4	0.06011863
41	0x3e2f9d85	0.17149933
42	0xbe4f270e	-0.20229742
43	0xbe951b82	-0.2912255
44	0xbcc3bf7c	-0.023895018
45	0xbe0aa5e5	-0.13539846
46	0x3e2ad840	0.16684055
47	0xbcbd1e11	-0.023085626
48	0x3d1266c5	0.03574254
49	0x3db38e16	0.08767335
50	0xbd3ac531	-0.045598213
51	0xbdfe108e	-0.12405501
52	0xbe010345	-0.12598903
53	0x3d95a311	0.07306493
54	0xbcf63b03	-0.030057436
55	0x3df358de	0.118821844
56	0x3e6c8a14	0.23099548
57	0x3e5abb28	0.21360457
58	0xbe3a06b3	-0.18166618
59	0x3d8751d7	0.066074066
60	0x3e0c3a2c	0.13694066
61	0xbe21edb1	-0.15813328
62	0xbd627836	-0.055290423
63	0x3eca3daa	0.3950017
64	0x3e1cd967	0.15317307
65	0xbe2934ff	-0.16524123
66	0x3d05902b	0.032608192
67	0xbd84ab5c	-0.06477997
68	0x3d950d38	0.07277912
69	0x3caca8ee	0.021076646
70	0x3e98b318	0.29824138
71	0x3e6a424d	0.22876854
72	0xbb0aadc4	-0.0021160701
73	0xbdc24424	-0.09485653
74	0xbd20a07a	-0.039215542
75	0xbd836e4d	-0.064175226
76	0xbda33c11	-0.07970441
77	0xbe10fd71	-0.1415918
78	0x3ccae857	0.024768991
79	0x3d2b23dd	0.04178225
80	0x3e2d30ba	0.16913119
81	0xbd8863bb	-0.06659647
82	0x3e3d2ddf	0.1847453
83	0xbdd0322b	-0.10165819
84	0xbe3fba3f	-0.18723391
85	0x3db01d7b	0.08599373
86	0xbbc401eb	-0.005981674
87	0x3d72b3ad	0.059253383
88	0x3e735f8b	0.23766916
89	0xbe947620	-0.28996372
90	0x3e1923c2	0.14955047
91	0xbbea7a01	-0.0071556573
92	0x3edca9fe	0.43098444
93	0x3f140e4e	0.5783433
94	0x3d2dc342	0.04242254
95	0xbe744b31	-0.23856808
96	0x3d3d167c	0.04616402
97	0x3e99690a	0.2996295
98	0x3d635697	0.0555025
99	0x3e96d4a1	0.29459098
100	0x3d96701f	0.07345604
101	0xbd43942a	-0.047748722
102	0x3d04e6dd	0.03244673
103	0x3dab850a	0.083749846
104	0xbdce8ae4	-0.10085085
105	0x3ec916de	0.3927526
106	0xbd9a2afd	-0.075277306
107	0x3e18ca3f	0.14920901
108	0x3d22309e	0.039597146
109	0xbcea7af4	-0.028623082
110	0xbd30bc79	-0.04314849
111	0xbe83b5b8	-0.25724578
112	0x3d1499f8	0.03627965
113	0x3e1fc4ae	0.15602371
114	0xbe6714ad	-0.22566481
115	0xbdc17e51	-0.09447921
116	0xbd9d0494	-0.07666889
117	0x3e693460	0.22773886
118	0xbd5506ea	-0.052008547
119	0x3dd57257	0.10422199
120	0x3e24dd9d	0.16100164
121	0x3d6259d8	0.055261463
122	0x3dc24bdd	0.09487126
123	0x3cc948cc	0.024570845
124	0x3e1a7b35	0.15086062
125	0xbda40cde	-0.08010267
126	0xbd896606	-0.067089126
127	0x3dd7f78a	0.10545261
128	0xbe1d1f0e	-0.15343878
129	0xbd4a15c6	-0.04933717
130	0xbdfd40a8	-0.12365848
131	0x3dd8705a	0.10568304
132	0xbe8d8bbd	-0.27645674
133	0xbe7c0656	-0.24611792
134	0x3e7bb99a	0.2458252
135	0xbe56feac	-0.20995587
136	0x3cd1ceca	0.0256113
137	0xbda6a050	-0.08136046
138	0xbe0f1351	-0.13972212
139	0x3cc8615b	0.024460485
140	0xbc95c161	-0.018280687
141	0xbd945ebb	-0.07244631
142	0xbea6f75a	-0.3261059
143	0xbde54cea	-0.11196311
144	0x3d8ef1a3	0.06979682
145	0x3e8e6e7e	0.27818674
146	0x3d197f0a	0.03747467
147	0xbe206b11	-0.15665843
148	0x3dad25b5	0.08454458
149	0xbd89ed11	-0.0673467
150	0xbd935c0e	-0.071952924
151	0x3d9d6a3c	0.07686278
152	0xbe642b77	-0.22282206
153	0xbdce6d1a	-0.10079403
154	0x3d184330	0.03717345
155	0xbe3ab64d	-0.18233605
156	0xbe471377	-0.19441019
157	0xbec4e7be	-0.38458055
158	0xbec7f284	-0.39052212
159	0x3da8425e	0.082157835
160	0xbe613b33	-0.21995239
161	0xbdce2abe	-0.10066746
162	0xbe1893bb	-0.14900105
163	0x3d0d51f6	0.034501992
164	0xbc43f41f	-0.0119600585
165	0xbeab748c	-0.33487356
166	0x3de5815f	0.11206316
167	0x3dc62409	0.09674842
168	0x3c50d87d	0.012746927
169	0x3ea424ff	0.32059476
170	0x3e833574	0.2562672
171	0xbdf9292c	-0.12166056
172	0x3e13b01b	0.14422648
173	0x3e2b5863	0.16732936
174	0x3eb275b4	0.34855425
175	0xbf1491b1	-0.5803481
176	0xbecbb672	-0.39787632
177	0x3becb188	0.007223312
178	0x3ee3fce5	0.4452888
179	0x3b974373	0.004616195
180	0x3dc1cae3	0.09462526
181	0x3eb6273c	0.35576808
182	0xbde62dad	-0.11239181
183	0xbd0f05e7	-0.03491774
184	0xbee283c7	-0.44241163
185	0xbde1b0a1	-0.110200174
186	0x3da4af7f	0.08041286
187	0xbe494324	-0.19654518
188	0x3d956476	0.07294552
189	0x3d789ee3	0.0606984
190	0xbeb729d9	-0.35774115
191	0xbe3a9ce9	-0.18223919
192	0xbdf01825	-0.11723355
193	0xbd4d73bb	-0.050159197
194	0xbc83f895	-0.016109744
195	0xbedfa34b	-0.4367927
196	0x3eaaeb33	0.33382568
197	0x3e4e73fd	0.20161434
198	0x3df52393	0.11969676
199	0x3daec7db	0.08534213
200	0x3d364c46	0.044506334
201	0xbea6c5e4	-0.32572854
202	0xbdec6ab9	-0.11543793
203	0xbe82a7b0	-0.2551856
204	0xbd95ea26	-0.07320051
205	0x3e8e2b1b	0.27767262
206	0xbd80c1ae	-0.062869415
207	0xbec199d8	-0.37812686
208	0xbe90efa8	-0.28307843
209	0x3dffaaef	0.12483775
210	0xbe6cc6a9	-0.23122658
211	0xbde2b172	-0.11069001
212	0xbdce9903	-0.100877784
213	0x3cbc44d9	0.022982048
214	0x3e821f86	0.25414675
215	0xbe2d1e11	-0.16906
216	0x3d21e00c	0.03952031
217	0x3ee995fa	0.45622236
218	0xbdd0ae72	-0.10189523
219	0xbe2bb9c6	-0.16770086
220	0xbea1e337	-0.31618664
221	0x3eb69d86	0.35667056
222	0xbc21145a	-0.009831512
223	0xbe4e9f21	-0.2017789
224	0x3ee6dfc0	0.45092583
225	0x3de7531b	0.11295148
226	0xbdb89f72	-0.09014787
227	0x3e0c3250	0.13691068
228	0x3e09194f	0.1338856
229	0x3e3806f8	0.17971408
230	0x3da0eee6	0.07858066
231	0x3ece0361	0.40236953
232	0xbecce226	-0.40016288
233	0xbebbb854	-0.3666407
234	0xbc853212	-0.016259227
235	0x3d9d6d02	0.07686807
236	0xbd9aa06f	-0.075501315
237	0x3dfef92a	0.12449868
238	0x3d5734af	0.052540477
239	0x3e25f8ba	0.16208163
240	0xbda73a32	-0.08165397
241	0xbd24bba2	-0.040218003
242	0xbdfdb9d3	-0.12388959
243	0xbbe7a2c5	-0.007068964
244	0x3d861a62	0.06548001
245	0x3e639c27	0.22227536
246	0x3ae94d24	0.0017799479
247	0xbe5850f8	-0.21124637
248	0x3c89fa6f	0.016843049
249	0xbe02061d	-0.12697645
250	0x3bb7c4ef	0.005608193
251	0x3b905926	0.0044051586
252	0x3e3a2b0b	0.18180482
253	0xbbb359b1	-0.0054733385
254	0x3eeb1a64	0.45918572
255	0x3e08c141	0.1335497

base.3linear.bias f4 [50]
0	0xbc11cade	-0.008898465
1	0x3cf79db2	0.030226562
2	0x3b83a836	0.004017855
3	0x3dcb9eb8	0.099423826
4	0x3e69ea5f	0.22843312
5	0xbd7c1624	-0.061544552
6	0xbc92a9d2	-0.017903242
7	0xbd6895fe	-0.05678367
8	0xbddfb672	-0.109234706
9	0xbd98f5f9	-0.074687906
10	0x3a0f05bc	0.00054558716
11	0xbde7dcfd	-0.11321447
12	0x3d44e3d7	0.048068848
13	0x3cbd3372	0.02309582
14	0x3d9eb36a	0.07749064
15	0xbcd26729	-0.025683956
16	0x3b892ec3	0.0041864826
17	0xbd4caa04	-0.049966827
18	0x3c3715e2	0.011174651
19	0x3d045e8e	0.032316737
20	0x3a44224b	0.00074819167
21	0x3d93d4c4	0.07218316
22	0xbcaeec30	-0.021352857
23	0x3b8ac16a	0.0042344825
24	0xbd279144	-0.04091002
25	0x3d24145e	0.040058486
26	0x3e00cba6	0.12577686
27	0x3ca14902	0.019688133
28	0x3e04c0e9	0.12964214
29	0x3d3b9ffd	0.045806874
30	0xbd448d53	-0.04798634
31	0x3be1e7e0	0.0068940967
32	0x3c9018e7	0.01759
33	0x3d317f9a	0.04333458
34	0xbd2b95f7	-0.041891064
35	0x3d5676e9	0.052359495
36	0x3d916ee4	0.07101229
37	0x3b4b7e13	0.0031050488
38	0xbd276e90	-0.040876925
39	0xbca182c5	-0.019715676
40	0xbdbe500a	-0.0929261
41	0x3cc1138c	0.023568891
42	0xbcb5bc2a	-0.02218445
43	0xbd34fa17	-0.044183817
44	0xbb959268	-0.004564572
45	0xbd021f5c	-0.031768188
46	0xbdc72769	-0.09724314
47	0xbcb21cc6	-0.021742236
48	0xbd0699b1	-0.032861415
49	0xbbe31ae3	-0.0069306954

base.4linear.weight f4 [50, 50]
0	0xbdaeb760	-0.0853107
1	0x3bde66f8	0.006787177
2	0xbda6fe75	-0.081540026
3	0x3e7a01dc	0.24414772
4	0xbf16e42c	-0.5894191
5	0x3e3d77ff	0.18502806
6	0xbe297a85	-0.16550644
7	0x3df15d6e	0.117853984
8	0xbe27bbc2	-0.16380218
9	0x3ebaa5e2	0.36454684
10	0x3e78960a	0.24275985
11	0xbd4b45ea	-0.049627222
12	0xbb032191	-0.002000902
13	0xbd77f020	-0.060531735
14	0xbe9adc02	-0.30245978
15	0xbdbca050	-0.09210265
16	0xbe69bd0b	-0.2282602
17	0xbd3f044f	-0.04663497
18	0xbe266584	-0.16249663
19	0x3e40175f	0.18758915
20	0x3e046009	0.1292726
21	0x3e959b5c	0.29220092
22	0xbe8beac0	-0.27327538
23	0xbbe6f92e	-0.0070487475
24	0xbe0854c3	-0.13313584
25	0xbd6a422d	-0.057192016
26	0xbeab8c72	-0.3350559
27	0xbd48b2b2	-0.048998542
28	0xbe44d5d0	-0.19222188
29	0x3dd4f9e1	0.10399223
30	0x3e3ae687	0.18252002
31	0xbe39da04	-0.18149573
32	0x3c3c9bf0	0.011511788
33	0x3e84da4d	0.259478
34	0xbdb70ce2	-0.08938004
35	0xbe4f2612	-0.20229366
36	0xbdaca466	-0.08429794
37	0xbe05da27	-0.130715
38	0x3cde81da	0.027161527
39	0x3d72761f	0.05919468
40	0x3e7e135e	0.24812075
41	0x3da2cd26	0.07949285
42	0x3e420716	0.18948016
43	0x3ddf8671	0.109143145
44	0xbe0e0fed	-0.13873263
45	0x3e817939	0.25287798
46	0x3e9b49fb	0.3032988
47	0xbe1eb277	-0.15497766
48	0xbe244ab0	-0.16044116
49	0x3c78253d	0.015145597
50	0x3d89b3ba	0.06723733
51	0x3e9715e7	0.29508898
52	0x3d0c9c38	0.03432867
53	0x3e78b472	0.24287584
54	0x3e54a512	0.20766094
55	0xbedd8ef0	-0.43273115
56	0xbd2d8381	-0.04236174
57	0xbde5741c	-0.11203787
58	0x3c225f15	0.009910365
59	0x3e13edc4	0.14446169
60	0x3d88e8dd	0.0668504
61	0x3de87bb3	0.11351719
62	0xbcc29f93	-0.023757732
63	0x37075edc	8.068713e-06
64	0x3ee8c2f6	0.45461243
65	0x3db70d43	0.08938076
66	0xbdb2b12a	-0.087251976
67	0xbcfd5006	-0.030921947
68	0x3d720614	0.059087828
69	0xbe1083be	-0.14112756
70	0xbd91b219	-0.071140476
71	0x3d591af6	0.053004228
72	0xb80ac779	-3.3087537e-05
73	0xbdc94e3a	-0.09829374
74	0x3da3ef56	0.08004634
75	0x3e9e32b0	0.30898046
76	0x3e39864c	0.18117636
77	0xbece32e7	-0.4027321
78	0x3e5d30de	0.21600673
79	0x3e36e29a	0.17859879
80	0xbc5f1dbf	-0.013617932
81	0x3e9e3170	0.30897093
82	0xbc87404d	-0.016510153
83	0xbd68f64f	-0.056875523
84	0xbcb0d91a	-0.021587897
85	0x3e0e0226	0.13868007
86	0x3e49cc09	0.1970674
87	0x3dc19506	0.09452252
88	0x3d4a6dc7	0.049421098
89	0x3d6977ec	0.056999132
90	0x3cb9816e	0.022644725
91	0x3cc328c9	0.023823159
92	0xbebc3c34	-0.3676468
93	0x3dc8c0ae	0.09802376
94	0x3d932550	0.07184851
95	0x3e7ef550	0.24898267
96	0xbec1246a	-0.37723094
97	0x3e0aba33	0.13547592
98	0xbd716aa2	-0.058939584
99	0xbd275542	-0.040852793
100	0xbecb83be	-0.3974895
101	0xbcaca07d	-0.02107262
102	0xbbb394f3	-0.0054804026
103	0xbe51ecee	-0.20500538
104	0xbda05091	-0.07827867
105	0xbdb1269a	-0.08649941
106	0x3d6a7163	0.05723704
107	0xbdc680d9	-0.096925445
108	0x3d6aaa08	0.05729106
109	0xbc95696e	-0.01823875
110	0xbe5809de	-0.21097514
111	0x3d326287	0.043550994
112	0x3e5ab297	0.21357189
113	0xbe69d254	-0.2283414
114	0xbd2a8311	-0.0416289
115	0x3e23a08e	0.15979216
116	0x3dcda18b	0.100405775
117	0xbe8b35c2	-0.2718945
118	0x3e1d09a2	0.15335706
119	0x3cb83fde	0.022491392
120	0x3e9ad7d4	0.3024279
121	0x3e30637a	0.17225447
122	0x3ee2d05d	0.44299594
123	0xbe2cff98	-0.16894376
124	0x3ed8a014	0.4230963
125	0xbdd2530c	-0.10269746
126	0x3d833ee4	0.0640848
127	0xbce1db86	-0.027570497
128	0xbe0c77bc	-0.1371755
129	0x3c436a52	0.011927204
130	0xbddc8872	-0.107682124
131	0xb9c8a0f7	-0.000382669
132	0x3d07bfe7	0.033141997
133	0x3aa251d6	0.0012384008
134	0x3b874562	0.004128144
135	0xbe08c887	-0.13357745
136	0xbe9d953b	-0.30777916
137	0xbd841cc7	-0.06450801
138	0x3eb637fa	0.35589582
139	0xbdb2ac8e	-0.087243184
140	0xbe09b466	-0.13447723
141	0xbdcae488	-0.0990687
142	0x3e772552	0.2413533
143	0xbe5e254b	-0.21693914
144	0x3e6cf780	0.23141289
145	0x3d8f4362	0.06995274
146	0xbe10451b	-0.14088862
147	0xbd9cbc6e	-0.076531276
148	0x3e9b238d	0.3030056
149	0x3e3de97d	0.185461
150	0x3a8c44ca	0.0010701653
151	0x3e5eb796	0.2174972
152	0xbdc459f1	-0.095874675
153	0xbe1682ce	-0.14698336
154	0xbe3fbc4b	-0.18724172
155	0x3dcac60c	0.09901056
156	0xbc650320	-0.013977796
157	0xbe2823f8	-0.16419971
158	0x3e8444fe	0.25833887
159	0x3eb5d3d2	0.3551317
160	0xbda29a78	-0.07939619
161	0x3e239348	0.15974152
162	0xbea2eb5a	-0.31820184
163	0xbe85e1a5	-0.26148716
164	0xbe5d8f0a	-0.21636596
165	0x3e4d1979	0.20029248
166	0xbdf0630c	-0.11737642
167	0x3e278533	0.16359405
168	0x3da7ae04	0.08187488
169	0xbdf32e58	-0.11874074
170	0xbe01b9fd	-0.12668605
171	0x3d109aa7	0.035303738
172	0xbdb144e7	-0.0865572
173	0xbe2d7073	-0.16937427
174	0xbd7ac9e8	-0.06122771
175	0x3e1e2333	0.15443115
176	0x3e81d76d	0.2535967
177	0x3b62538c	0.003453466
178	0x3de90238	0.11377376
179	0x3eab2af9	0.33431223
180	0x3dd6282a	0.104568794
181	0xbd933b3c	-0.071890324
182	0xbc9b7c36	-0.018980127
183	0xbb528327	-0.003212163
184	0x3cb83a3c	0.022488706
185	0xbe98ae72	-0.2982059
186	0x3e0b7173	0.13617496
187	0x3e714541	0.23561575
188	0xbe3d21ba	-0.18469897
189	0x3cb39328	0.021920756
190	0x3e66ed48	0.22551453
191	0xbe8ec788	-0.27886605
192	0xbdc142c9	-0.094365664
193	0x3d7329b1	0.059365932
194	0xba24351a	-0.0006264016
195	0x3e0bdb9a	0.1365799
196	0x3cec89e8	0.028874353
197	0x3dfe94e4	0.124307424
198	0xbc95bb69	-0.01827784
199	0xbe349e00	-0.17638397
200	0xbd7da584	-0.061925426
201	0x3e0540f4	0.13013059
202	0x3e438d86	0.19096956
203	0x3d78b17e	0.060716145
204	0xbe06f565	-0.13179548
205	0xbdecff19	-0.115720935
206	0x3db2c82e	0.087295875
207	0x3e06727b	0.13129608
208	0xbe8419bc	-0.25800884
209	0x3e9fa622	0.31181437
210	0xbdd0a99f	-0.10188603
211	0x3e7dec85	0.24797256
212	0xbc22bd23	-0.009932789
213	0x3e2e858b	0.1704313
214	0xbe82c16d	-0.25538197
215	0xbdf7aac3	-0.12093117
216	0x3c76322b	0.015026609
217	0x3dd31656	0.103069946
218	0x3e46e541	0.19423391
219	0xbdc6d166	-0.09707908
220	0xbe4dfe17	-0.20116459
221	0x3d734ae4	0.059397593
222	0xbe1989af	-0.14993928
223	0x3e3fa64d	0.18715782
224	0x3e3a44a8	0.18190253
225	0xbe4e8b18	-0.20170248
226	0xbe59d295	-0.21271737
227	0xbe320e11	-0.17388178
228	0xbe6cf826	-0.23141536
229	0xbbf983aa	-0.0076145725
230	0x3e72bf73	0.23705845
231	0xbdd09269	-0.101841755
232	0xbe80f626	-0.25187796
233	0x3df6a869	0.120438404
234	0x3e8864e2	0.26639467
235	0xbd3dd763	-0.046347987
236	0x3aba1778	0.0014197668
237	0x3e85e4bc	0.26151073
238	0xbe33d040	-0.1755991
239	0xbbb494be	-0.0055108955
240	0x3eb2e35b	0.34939083
241	0xbe25b1c2	-0.1618109
242	0xbdfe3f1d	-0.12414382
243	0xbc388c45	-0.011263912
244	0xbda64731	-0.081190474
245	0x3e340948	0.17581666
246	0x3e795539	0.24348916
247	0x3db3b429	0.08774597
248	0xbd29dbdd	-0.041469444
249	0x3decbc22	0.11559321
250	0xbd98ceca	-0.07461317
251	0xbecaf8f4	-0.3964306
252	0x3ecdd0b6	0.40198296
253	0xbe1a001d	-0.15039106
254	0xbd8e5178	-0.06949133
255	0xbe5b6dae	-0.21428558

base.4linear.bias f4 [50]
0	0x3da87972	0.08226289
1	0x3d7294c8	0.05922392
2	0xbdb06507	-0.086130194
3	0xbc965e9e	-0.018355664
4	0x3dc035ac	0.09385237
5	0xbd53f48c	-0.05174689
6	0xbc066bb9	-0.008204394
7	0x3ad6735f	0.0016361288
8	0xbd04fa33	-0.03246517
9	0x3d2b1c4f	0.041775044
10	0xbd2aa752	-0.041663475
11	0xbc9072e7	-0.017632915
12	0x39ff1ca4	0.0004865873
13	0x3c8d31c4	0.017235644
14	0x3d29a39d	0.0414158
15	0xbcaeda0c	-0.021344207
16	0x3bf34147	0.007423553
17	0xbd9b3b32	-0.0757965
18	0x3d7c4e20	0.061597943
19	0x3b4be8c8	0.003111409
20	0x3c97a118	0.018509433
21	0x3c8bba9d	0.017056758
22	0xbc57d9ef	-0.013174518
23	0xbd04b641	-0.032400373
24	0xbd4e3bb4	-0.050349906
25	0x3d8266f8	0.06367296
26	0xbae65ab5	-0.001757464
27	0xbcef6e98	-0.02922754
28	0x3c205537	0.009785942
29	0xbd005dfc	-0.03133963
30	0xbc89f3cf	-0.01683989
31	0xbd626465	-0.055271525
32	0x3bdd5741	0.0067547862
33	0x3d4a95ba	0.049459197
34	0x3d67508f	0.05647331
35	0x3d89dc95	0.06731526
36	0x3dc80887	0.097672515
37	0xbd9c7ffa	-0.07641597
38	0x3d7840b0	0.060608566
39	0xbd02c79d	-0.031928647
40	0x3d8b595f	0.068041556
41	0xbddaf96b	-0.10692104
42	0xbcd16b39	-0.025563823
43	0x3d555145	0.052079458
44	0xbd32b513	-0.043629717
45	0x3d8461b8	0.06463951
46	0x3d684fd3	0.05671675
47	0x3cf11bc0	0.029432178
48	0xbd24789a	-0.040154077
49	0xbd79891d	-0.060921777

base.5linear.weight f4 [50, 50]
0	0x3db43419	0.08798999
1	0xbe8dadf6	-0.27671784
2	0xbe9903f9	-0.29885843
3	0xbe0b2a36	-0.13590321
4	0x3d194d70	0.037427366
5	0xbe17fcb8	-0.14842498
6	0xbe9b12c4	-0.30287755
7	0xbe07fe8b	-0.13280694
8	0x3e03646b	0.12831275
9	0xbde63a88	-0.11241633
10	0xbe483a84	-0.19553572
11	0x3e0d0763	0.13772349
12	0x3e34581c	0.17611736
13	0x3e5d9d02	0.21641925
14	0xbe075541	-0.13216116
15	0x3e256b69	0.16154255
16	0x3e9f0e02	0.31065375
17	0x3cf7eb2a	0.030263502
18	0xbd342869	-0.04398385
19	0xbe1ff4c9	-0.15620722
20	0xbdcc2589	-0.09968097
21	0xbdbc0145	-0.0917993
22	0xbd35b088	-0.044357806
23	0xbe0b6048	-0.13610947
24	0x3e21dc2f	0.1580665
25	0x3e9e310e	0.308968
26	0xbd368d8d	-0.044568587
27	0xbb59cc66	-0.0033233403
28	0x3ce9370f	0.028468637
29	0x3cf94cc6	0.030432116
30	0x3e03492d	0.12820883
31	0xbd4fe9a6	-0.050759934
32	0x3e88e93e	0.2674045
33	0xbea1a740	-0.31572914
34	0xbe2e7e86	-0.17040452
35	0x3dc9cd2e	0.09853588
36	0x3e7cdcec	0.2469365
37	0x3dd24aa0	0.1026814
38	0xbe3eb535	-0.18623812
39	0x3da94ec3	0.08266976
40	0x3d2b11ab	0.041764896
41	0x3eacb93d	0.33735076
42	0xbe4e1ca6	-0.20128116
43	0xbd649b6e	-0.05581229
44	0xbd42b857	-0.04753908
45	0xbd62bd42	-0.05535627
46	0x3d333afc	0.043757424
47	0x3e586158	0.21130884
48	0xbe55adfd	-0.20867153
49	0x3e46e306	0.1942254
50	0xbd9f7589	-0.0778609
51	0xbda14a11	-0.07875455
52	0x3e76e0bf	0.24109171
53	0x3d27eb66	0.040995978
54	0x3d94858e	0.07252036
55	0xbd305b71	-0.043055955
56	0xbd6c7dee	-0.057737283
57	0xbdfeaf43	-0.12435772
58	0xbe239f1c	-0.15978664
59	0xbe1f8435	-0.15577777
60	0xbd07df0b	-0.033171695
61	0x3db8f8cc	0.09031829
62	0xbea115d9	-0.3146198
63	0x3e918e4a	0.2842887
64	0x3e479bd3	0.19493036
65	0x3e446b85	0.1918164
66	0xbdea0323	-0.114263795
67	0x3e12782e	0.14303657
68	0xbc8ecb3d	-0.017430896
69	0x3e49fdf9	0.19725789
70	0xbc55dd9f	-0.013053327
71	0x3e8c2fab	0.27380118
72	0xbd0e22c0	-0.03470111
73	0x3d09371d	0.033499826
74	0x3dd2d91f	0.10295319
75	0x3d4ff751	0.05077297
76	0x3de26d32	0.110559836
77	0x3e666d90	0.22502732
78	0x3dca0bb2	0.09865512
79	0x3e058f75	0.13043006
80	0x3e73a6c9	0.23794092
81	0xbe304968	-0.17215502
82	0x3e831e9f	0.256093
83	0x3cf1a5b6	0.029497962
84	0xbdf14eb8	-0.117825925
85	0x3e38fb23	0.18064551
86	0x3e92cc0b	0.28671297
87	0xbe06e460	-0.13173056
88	0xbdd11e4b	-0.10210856
89	0x3e265686	0.16243944
90	0x3dc63493	0.096779965
91	0xbe3f56f9	-0.18685521
92	0xbcda2181	-0.026627304
93	0x3d93d507	0.07218366
94	0x3d974819	0.073867984
95	0x3d2cd75c	0.04219757
96	0xbe3c1c36	-0.18370137
97	0x3d3e8694	0.046515062
98	0xbd740c91	-0.059582297
99	0x3e733812	0.23751858
100	0xbd64c44f	-0.055851277
101	0x3e647a2f	0.22312234
102	0xbdebc862	-0.11512829
103	0xbe625a68	-0.221048
104	0xbdef81b5	-0.116946615
105	0xbe13e83b	-0.14444058
106	0x3e4ab402	0.1979523
107	0xbb8962e9	-0.004192699
108	0xbe2b88f9	-0.1675147
109	0xbe6ae853	-0.22940187
110	0x3dbafbab	0.09130033
111	0xbb5bafdb	-0.0033521566
112	0x3e2076c8	0.15670311
113	0x3e04e892	0.12979344
114	0xbd72924e	-0.05922156
115	0xbd4d365b	-0.050100666
116	0x3d99484c	0.07484493
117	0x3e378f90	0.17925858
118	0x3def5dbc	0.116878
119	0x3e6f55ee	0.23372623
120	0xbda080ac	-0.07837042
121	0xbc4da0d9	-0.012550556
122	0xbe803181	-0.25037768
123	0x3e377206	0.1791459
124	0x3c5d2768	0.013498165
125	0xbd3ce27f	-0.04611444
126	0xbd2bf637	-0.041982856
127	0x3e04758d	0.12935467
128	0x3dd3803f	0.103271954
129	0xbe0a31b9	-0.1349553
130	0x3e5d9095	0.21637185
131	0x3d062398	0.03274879
132	0x3dd566bb	0.10419985
133	0x3cc6013d	0.024170512
134	0xbe4f776a	-0.20260397
135	0xbe20272b	-0.15639941
136	0x3d244f16	0.040114485
137	0x3ea95fe8	0.33080983
138	0xbc7f685f	-0.015588849
139	0x3e5ea431	0.21742322
140	0x3c5f949c	0.013646271
141	0xbdcc8fa1	-0.099883325
142	0x3e1409da	0.14456883
143	0x3d1d781f	0.038444635
144	0xbe21f10f	-0.15814613
145	0xbe050e0e	-0.12993643
146	0xbb00e792	-0.0019669277
147	0xbe8d00f6	-0.27539796
148	0x3db0c980	0.08632183
149	0x3e22b80f	0.15890525
150	0xbe3b6b77	-0.18302713
151	0x3e6b9a57	0.23008095
152	0x3dcf2848	0.10115105
153	0xbe21cdec	-0.15801209
154	0xbe8300fe	-0.25586694
155	0xbe48574d	-0.19564553
156	0x3e81ed82	0.25376517
157	0x3cf97acd	0.030454064
158	0xbea6698d	-0.32502404
159	0x3da909d2	0.08253826
160	0xbe209e7c	-0.15685457
161	0xbd1fb7d3	-0.038993668
162	0xbe5fbab2	-0.21848562
163	0x3ce5ba06	0.028042804
164	0x3e54eaf6	0.20792755
165	0xbea7ef53	-0.32799777
166	0xbd0cb1c3	-0.034349214
167	0xbe2948c9	-0.16531672
168	0xbd3db4ab	-0.046314877
169	0x3d95e2ba	0.07318635
170	0xbe67f216	-0.22650942
171	0x3e4e32f5	0.20136626
172	0xbec8a217	-0.39186165
173	0xbe216286	-0.1576024
174	0x3dbab7bf	0.09117078
175	0x3e7f3b16	0.24924883
176	0x3e0f4a18	0.13993108
177	0x3a3644ca	0.00069529994
178	0x3cd66b52	0.026174221
179	0x3d896595	0.06708828
180	0x3c3f9b91	0.011694805
181	0x3cff8e2c	0.031195723
182	0x3e6e2e32	0.2325981
183	0x3d061f06	0.03274443
184	0x3e2eed56	0.17082724
185	0x3ebb79aa	0.3661626
186	0x3d84bd0d	0.06481371
187	0xbde11d29	-0.1099189
188	0xbd7de7a8	-0.061988503
189	0x3db0fa44	0.086414844
190	0xbcd1b560	-0.025599182
191	0xbd848e48	-0.064724505
192	0x3e094d9a	0.13408509
193	0xbe214310	-0.15748239
194	0x3ded85d3	0.115977906
195	0xbdb01626	-0.085979745
196	0x3e218fef	0.15777563
197	0x3e938af8	0.28816962
198	0xbe7a0702	-0.24416736
199	0x3d0dc702	0.034613617
200	0xbe686125	-0.22693308
201	0xbe4ba54e	-0.19887277
202	0xbcb2737b	-0.021783581
203	0x3d89d5ec	0.067302555
204	0x3e1aef84	0.1513043
205	0x3e4293ab	0.19001643
206	0x3eae2087	0.3400919
207	0xbe549adc	-0.20762199
208	0xbc425585	-0.01186121
209	0x3da54770	0.08070266
210	0x3d946f53	0.07247796
211	0xbe8e5571	-0.27799562
212	0xbbd39124	-0.006456511
213	0x3d93da20	0.072193384
214	0xbeaca3e5	-0.33718792
215	0x3e21001d	0.157227
216	0xbe54c7e3	-0.20779376
217	0x3e52a7c6	0.20571813
218	0x3e37eb2f	0.17960809
219	0xbdcda33d	-0.10040901
220	0x3d340dbd	0.043958414
221	0x3e80b09d	0.25134745
222	0x3d85bfd3	0.06530728
223	0xbd1a6f27	-0.03770366
224	0xbd6bfa0c	-0.05761151
225	0x3e385f01	0.18004991
226	0x3db18c33	0.08669319
227	0xbdcbe055	-0.09954897
228	0x3d492ad8	0.049113125
229	0x3dad27bf	0.084548466
230	0xbdb3b23f	-0.08774232
231	0x3da85037	0.08218425
232	0xbdea6b3d	-0.11446235
233	0xbd0b1c24	-0.033962384
234	0x3dd20d18	0.10256404
235	0x3a9e04b2	0.0012055843
236	0xbe9f335c	-0.31093872
237	0x3d262142	0.04055906
238	0x3e8b3f21	0.271966
239	0xbd3a76c0	-0.045523405
240	0x3f1382bc	0.5762136
241	0xbd9324ac	-0.07184729
242	0x3e420dab	0.18950526
243	0x3e387bb0	0.18015933
244	0xbd2bed89	-0.041974578
245	0x3e26b8f1	0.16281487
246	0x3bac49f4	0.0052578393
247	0x3d154439	0.036442015
248	0x3d66a868	0.05631295
249	0xbdece7e2	-0.11567666
250	0x3ee287b4	0.44244158
251	0xbe93604f	-0.28784415
252	0x3e469938	0.19394386
253	0xbdcbb5a9	-0.09946758
254	0x3e59bd0b	0.2126352
255	0xbe0ad62a	-0.1355826

base.5linear.bias f4 [50]
0	0xbd3e7a7f	-0.04650354
1	0x3da37905	0.07982067
2	0xbd91fc1a	-0.07128163
3	0x3d6426dc	0.05570112
4	0xbc0be65d	-0.00853881
5	0x3c3b274c	0.011422943
6	0xbded7982	-0.115954414
7	0xbc9ea56c	-0.019365989
8	0xbd84b5e8	-0.06480008
9	0xbbc9c7e2	-0.006157861
10	0x3cc65692	0.024211202
11	0xbca19f00	-0.019729137
12	0xbcbabd04	-0.022795208
13	0x3c79bebd	0.015243229
14	0xbccb8405	-0.024843225
15	0x3d41fd10	0.04736048
16	0x3db12021	0.08648706
17	0x3cb7ac95	0.02242116
18	0xbe027d12	-0.12743023
19	0xbc99d192	-0.018776689
20	0xbbdf9763	-0.0068234666
21	0x3d1879d1	0.03722555
22	0x3d8e0386	0.06934266
23	0x3d80ef80	0.06295681
24	0xbe6e3ee5	-0.2326618
25	0x3d6e3ed1	0.058165375
26	0xbc0c7b08	-0.008574255
27	0xbdfda0bb	-0.123841725
28	0xbd57238e	-0.052524142
29	0x3d481592	0.048848696
30	0x3c9f726f	0.019463746
31	0xbcd6c55b	-0.026217153
32	0xbb2a4776	-0.0025982535
33	0xbc2e68a7	-0.010645068
34	0xbd01c08e	-0.031677775
35	0x3d39b9c5	0.04534318
36	0x3d8cc994	0.068743855
37	0x3d96ec3c	0.07369277
38	0x3c963cb0	0.018339485
39	0xbce1be54	-0.027556576
40	0xbda969d5	-0.08272139
41	0xbcc2e59b	-0.023791125
42	0x3bc94c6f	0.006143145
43	0xbba34773	-0.0049828826
44	0xbd930954	-0.071795136
45	0x3d78c015	0.06073006
46	0xbdad8b7e	-0.08473872
47	0xbd7fa3a1	-0.062411908
48	0xbce16d4d	-0.027517939
49	0x3d00739a	0.031360246
