STPINN-NS/sub_data/sub_write/07NS_model_train.pt (torch, 100091 bytes, 22 tensors)

base.0linear.weight f4 [50, 3]
-0.0010833826 -0.0007185919 -0.00012633266 -0.28312606 0.018551933 0.18603627 0.05187358 0.20048721
-0.16216394 -0.00063056627 -0.12278167 -0.24380463 -0.1135818 0.078784384 -0.017066238 0.09553569
-0.21861176 -0.24331968 -0.10732685 0.36942264 -0.22109702 0.08457895 0.3097133 -0.22791146
-0.009144252 -0.061295945 0.3304285 -0.48672593 0.36507213 0.2355835 -0.51345235 -0.0085323155
0.055186745 -0.044465583 0.07251144 -0.021200959 -0.15440129 -0.060326394 -0.12766089 0.0032920227
0.049329624 -0.016679607 -0.023501266 0.17037198 -0.47311926 0.04112506 0.23498642 -0.031157235
-0.10522026 0.28024003 0.064409904 -0.24337956 -0.008769438 0.20809816 -0.07265248 0.120837584
0.071443945 -0.08616166 -0.037617546 0.06864754 0.20727207 0.072401404 -0.038753115 0.051598955
0.042261858 -0.17622028 0.12881184 -0.2319279 -0.19223997 -0.021717545 0.052227277 0.20467561
-0.15363765 -0.21726876 0.22931676 0.046494517 -0.09277877 -0.16407342 0.16106637 0.12436327
-0.420934 0.20864145 0.16184331 -0.03037485 -0.2307415 0.099364385 0.16839576 -0.12218715
0.044103354 -0.28371742 0.021663642 0.18168259 0.16536176 0.06580829 0.3271633 -0.27297315
-0.20502323 -0.22860931 0.074207515 0.17952237 0.14330241 0.009879431 0.3006261 -0.30343825
-0.25013041 -0.065575115 0.095417306 -0.093548924 0.10548139 -0.11153369 -0.3791451 0.00018340354
0.0018809111 -0.00032803763 -0.041758824 -0.08526502 -0.075350255 0.08225545 0.030993741 -0.22423372
0.22164483 -0.29442316 -0.32599318 0.021244945 -0.06506593 -0.183312 0.04500855 -0.011006167
-0.21221831 -0.0003437592 0.0015292041 -9.647422e-05 -0.14323753 -0.13238047 -0.094455004 0.3302863
-0.246826 0.050406516 -0.020494603 0.27271894 0.086263224 -0.00040670397 -0.00020239908 -0.00022637256
0.01373627 -0.4914027 0.14287904 -0.07824949 -0.28709027 0.19976088
00000000: 4a00 8eba e35f 3cba 2a78 04b9 e6f5 90be
00000010: 39fa 973c 4b80 3e3e 6479 543d 854c 4d3e
00000020: 4e0e 26be 964c 25ba f574 fbbd eca7 79be
00000030: 939d e8bd b559 a13d 7fce 8bbc 37a8 c33d
00000040: c3db 5fbe cb28 79be 2ece dbbd f724 bd3e
00000050: 4267 62be bb37 ad3d be92 9e3e 9f61 69be
00000060: c6d1 15bc 7511 7bbd ed2d a93e 2434 f9be
00000070: bcea ba3e cd3c 713e 9d71 03bf 20cb 0bbc
00000080: 7f0b 623d 8b21 36bd e180 943d a2ad adbc
00000090: 5f1b 1ebe cf18 77bd 89b9 02be fabe 573b
000000a0: dc0d 4a3d aca3 88bc ba85 c0bc fe75 2e3e
000000b0: b03c f2be c072 283d 48a0 703e 753d ffbc
000000c0: b87d d7bd 9f7b 8f3e 57e9 833d 7e38 79be
000000d0: b0ad 0fbc af17 553e d3ca 94bd b279 f73d
000000e0: 3451 923d 8675 b0bd db14 1abd 1597 8c3d
000000f0: 213f 543e 3047 943d 96bb 1ebd 6d59 533d
00000100: c51a 2d3d 1773 34be 40e7 033e 827e 6dbe
00000110: 8eda 44be fee8 b1bc 45ec 553d 7c96 513e
00000120: 3053 1dbe b47b 5ebe 03d2 6a3e 0971 3e3d
00000130: cc02 bebd dd02 28be 95ee 243e 2cb2 fe3d
00000140: a984 d7be 1ba6 553e 41ba 253e add4 f8bc
00000150: 8047 6cbe 8e7f cb3d f06f 2c3e 423d fabd
00000160: b8a5 343d 6943 91be f377 b13c 000b 3a3e
00000170: 9854 293e 7fc6 863d f381 a73e 23c3 8bbe
00000180: 9cf1 51be 8f18 6abe 1cfa 973d b6d4 373e
00000190: debd 123e 56dd 213c aaeb 993e 425c 9bbe
000001a0: 1811 80be 3f4c 86bd 266a c33d 9496 bfbd
000001b0: a106 d83d c66b e4bd 4e1f c2be 0350 4039
000001c0: e788 f63a 77fc abb9 4d0b 2bbd 6d9f aebd
000001d0: 3c51 9abd 8c75 a83d 96e6 fd3c 869d 65be
000001e0: ddf6 623e a2be 96be 94e8 a6be e109 ae3c
000001f0: 4941 85bd 24b6 3bbe e35a 383d 3653 34bc
00000200: c24f 59be 943a b4b9 936f c83a 3452 cab8
00000210: dcac 12be bf8e 07be a071 c1bd 491b a93e
00000220: f4bf 7cbe 1077 4e3d 4ce4 a7bc d1a1 8b3e
00000230: c6aa b03d e23a d5b9 173b 54b9 6c5e 6db9
00000240: 180e 613c 2299 fbbe e24e 123e 4541 a0bd
00000250: 7ffd 92be 1e8e 4c3e

base.0linear.bias f4 [50]
4.0013154e-05 -0.03763529 0.053202894 0.017684696 0.08738864 0.08500646 0.15226041 0.046283685
-0.19871858 -0.0014099594 -0.070540525 0.0005440827 -0.018606508 0.0019797646 -0.04190887 -0.0100962715
-0.06426484 -0.07328529 -0.038448785 -0.024592666 -0.052924372 0.07791313 0.12220998 -0.1137538
-0.111815244 0.10450848 0.10914811 -0.17000233 -0.082554564 0.16037647 -0.13417475 0.07778012
0.051329374 -0.12610656 0.07299329 0.022414658 0.07665734 0.000401883 0.042367008 0.11249215
-0.0014188081 0.099321336 0.09175699 0.00017936184 0.1434302 0.053954337 -0.10895038 -0.00011890061
0.07026466 -0.068958625
00000000: ccd3 2738 7627 1abd 47eb 593d 7fdf 903c
00000010: d1f8 b23d de17 ae3d 27ea 1b3e f693 3d3d
00000020: e27c 4bbe 63ce b8ba 8d77 90bd c6a0 0e3a
00000030: ad6c 98bc f0be 013b a3a8 2bbd d56a 25bc
00000040: 499d 83bd 9916 96bd 797c 1dbd 8f76 c9bc
00000050: 3ac7 58bd eb90 9f3d 3a49 fa3d c1f7 e8bd
00000060: 64ff e4bd 8b08 d63d 0b89 df3d 1715 2ebe
00000070: 5e12 a9bd bb39 243e 1b65 09be 2f4b 9f3d
00000080: c03e 523d 1422 01be 827d 953d f29e b73c
00000090: 86fe 9c3d d3b3 d239 0789 2d3d 4962 e63d
000000a0: 4df7 b9ba fc68 cb3d 17eb bb3d 1413 3c39
000000b0: 5edf 123e 39ff 5c3d 6021 dfbd 475a f9b8
000000c0: ebe6 8f3d 2e3a 8dbd

base.1linear.weight f4 [50, 50]
-0.10169803 0.004016662 -0.015973622 -0.11022502 0.1755807 0.044745978 0.0343131 -0.07303615
-0.043566857 0.05356466 -0.00055416895 0.024102263 -0.12913993 -0.0050730146 -0.103594065 -0.33783695
0.036771443 0.23932318 -0.08942332 0.12979448 -0.033829093 -0.1328731 -0.11377736 -0.111774445
0.1098676 -0.016959209 -0.42232227 -0.086073846 -0.14532354 -0.1350875 -0.07348144 -0.17034058
0.29804036 -0.022896564 -0.016858533 0.09311642 0.10897553 -0.14346807 -0.11306108 -0.14359333
0.0882442 -0.0944978 0.16145414 -0.055634826 -0.08690572 -0.14682694 0.0017930656 -0.0019014436
0.20415772 0.13582194 0.13142672 -0.16612662 -0.028314939 0.09218267 -0.041495856 0.1665608
-0.02483112 0.01724222 0.44520295 0.05818686 -0.026523435 0.022562051 -0.15981539 -0.23497503
-0.18661654 -0.14071655 -0.05507447 0.060283575 0.06511398 -0.1447859 0.22340932 -0.029471152
0.021381326 -0.072745636 0.022159316 -0.046265636 -0.17958058 -0.21035646 0.22384003 -0.14749323
-0.14575984 -0.21836166 -0.15758038 0.17099147 -0.29374403 -0.22963142 -0.104847014 0.061949212
-0.26744694 -0.4738866 0.010015478 0.13266659 -0.14543597 -0.10585674 0.13038765 0.038220704
-0.44916913 0.120208696 0.0274318 0.1855934 -0.08361234 -0.077683784 0.3774592 -0.31398374
0.02232082 -0.14505053 0.29057437 0.15047811 -0.0036018768 -0.20687585 -0.061985005 -0.09003762
-0.016958475 -0.042675436 0.10575164 0.004520145 0.029502366 -0.033445556 -0.03147523 0.27606967
0.038919516 -0.17401884 0.12407659 -0.18086539 -0.15652792 -0.0881058 -0.034948505 0.25338337
0.1692195 -0.17696053 0.028751846 0.23295797 0.016452676 -0.13111702 0.08505779 0.091593534
0.0032934854 -0.006666635 0.11356642 -0.19768368 0.2877012 0.053848997 0.08692864 0.05196853
-0.2470541 -0.1848469 0.11099359 0.021103755 -0.37441307 0.043762445 -0.15039961 -0.041190166
0.16283338 0.23464563 -0.031980194 0.10085453 -0.14733842 0.15251738 -0.010888577 0.08872679
-0.16473313 0.2161643 0.09923636 -0.14343 0.15954787 0.07622644 0.03144101 0.101192385
0.15822323 -0.035382662 -0.16585639 -0.19969733 0.12056956 -0.06415181 -0.03307784 -0.0845064
0.03235235 -0.14684118 0.035319217 -0.10978338 -0.04322435 0.03398971 -0.22882503 -0.20539814
-0.017058598 -0.049543433 -0.22409682 0.088990755 0.06230904 -0.058345493 -0.044315156 -0.1301754
-0.03622035 0.056905385 -0.053070962 0.063474715 -0.0038779587 -0.00795557 0.18559547 -0.10625871
0.15174279 0.33395073 -0.22361563 -0.02289817 0.054901976 0.05664867 -0.2840846 -0.059920244
0.2786793 -0.09008149 -0.07151785 0.008018899 0.16243371 -0.015160382 -0.10104464 0.039479632
-0.12942693 -0.016673518 -0.10044706 0.007980679 -0.13821039 -0.36588424 0.02041967 0.10956212
0.34271252 -0.12920459 -0.09128822 -0.06610198 0.106556706 -0.2746638 -0.22215131 -0.1373175
0.11413436 -0.007939034 -0.24977347 -0.16888544 -0.00090306444 -0.04216536 0.06649243 -0.08100489
0.09378281 -0.08817251 -0.22175018 -0.004019228 -0.028126216 0.0031537083 -0.066902965 -0.02561902
0.040586308 0.17612436 -0.13352609 0.29223582 0.0038688083 -0.24158838 0.13329348 0.51461524
00000000: 0f47 d0bd 349e 833b 1ddb 82bc a8bd e1bd
00000010: 6dcb 333e 8f47 373d e58b 0c3d fa93 95bd
00000020: 2973 32bd 9e66 5b3d a645 11ba 1c72 c53c
00000030: 423d 04be 883b a6bb 2029 d4bd f7f8 acbe
00000040: a79d 163d 2311 753e 9323 b7bd d8e8 043e
00000050: 6090 0abd e30f 08be 1b04 e9bd 00ea e4bd
00000060: 4402 e13d 0aee 8abc a03a d8be 7c47 b0bd
00000070: b2cf 14be 6154 0abe 707d 96bd c36d 2ebe
00000080: bf98 983e 9391 bbbc e81a 8abc d2b3 be3d
00000090: 902e df3d 4be9 12be 918c e7bd 210a 13be
000000a0: 60b9 b43d 1088 c1bd 3c54 253e 58e1 63bd
000000b0: a0fb b1bd cd59 16be 4c05 eb3a dc39 f9ba
000000c0: b90e 513e e814 0b3e ba94 063e 191d 2abe
000000d0: bbf4 e7bc 45ca bc3d 8ff7 29bd ea8e 2a3e
000000e0: a26a cbbc 8e3f 8d3c a4f1 e33e 5855 6e3d
000000f0: ad47 d9bc 0dd4 b83c a5a6 23be 4b9d 70be
00000100: 6818 3fbe 0018 10be c495 61bd e9eb 763d
00000110: 7a5a 853d c142 14be 6ac5 643e 7c6d f1bc
00000120: e427 af3c aafb 94bd 7487 b53c 0981 3dbd
00000130: f9e3 37be af67 57be 5236 653e 7708 17be
00000140: 1142 15be 339a 5fbe c05c 21be 6318 2f3e
00000150: 9e65 96be 8024 6bbe 08ba d6bd 75be 7d3d
00000160: ceee 88be 44a1 f2be f617 243c c0d9 073e
00000170: 2bed 14be 6bcb d8bd 5784 053e 508d 1c3d
00000180: 7ff9 e5be fa2f f63d a7b8 e03c 320c 3e3e
00000190: f23c abbd ad18 9fbd 5542 c13e 7ac2 a0be
000001a0: 27da b63c 2088 14be 2ac6 943e ef16 1a3e
000001b0: 770d 6cbb 43d7 53be fde3 7dbd a565 b8bd
000001c0: 80ec 8abc 70cc 2ebd 5194 d83d b91d 943b
000001d0: f2ae f13c 35fe 08bd 2cec 00bd 0159 8d3e
000001e0: 126a 1f3d ff31 32be de1b fe3d c734 39be
000001f0: db48 20be d070 b4bd 2a26 0fbd 77bb 813e
00000200: e047 2d3e 2435 35be fe88 eb3c 898c 6e3e
00000210: c3c7 863c 8a43 06be c732 ae3d 6495 bb3d
00000220: 84d7 573b ca73 dabb 8395 e83d 976d 4abe
00000230: 924d 933e c490 5c3d a507 b23d f4dc 543d
00000240: c0fb 7cbe 8148 3dbe 9b50 e33d c8e1 ac3c
00000250: 12b3 bfbe 4040 333d 5b02 1abe 05b7 28bd
00000260: cbbd 263e f246 703e aafd 02bd d28c ce3d
00000270: e2df 16be 842d 1c3e 0166 32bc 64b6 b53d
00000280: cdaf 28be 2d5a 5d3e 6f3c cb3d 50df 12be
00000290: 8460 233e 9c1c 9c3d 4ac8 003d f43d cf3d
000002a0: 4505 223e 69ed 10bd 42d6 29be 757d 4cbe
000002b0: 2ced f63d 0662 83bd a17c 07bd b111 adbd
000002c0: e683 043d 895d 16be e2aa 103d 1cd6 e0bd
000002d0: 040c 31bd cb38 0b3d 1c51 6abe e453 52be
000002e0: 79be 8bbc 0eee 4abd a379 65be c940 b63d
000002f0: c437 7f3d affb 6ebd cf83 35bd b34c 05be
00000300: ca5b 14bd 9f15 693d f060 59bd 08ff 813d
00000310: 5a25 7ebb 1458 02bc bd0c 3e3e 2b9e d9bd
00000320: 7662 1b3e 97fb aa3e 7ffb 64be f194 bbbc
00000330: e5e0 603d 7008 683d 8973 91be ee6e 75bd
00000340: 0eaf 8e3e a57c b8bd f377 92bd b361 033c
00000350: 0655 263e 4063 78bc 7ef0 cebd 65b5 213d
00000360: 7e88 04be e796 88bc 30b7 cdbd 65c1 023c
00000370: 0687 0dbe 2e55 bbbe 2747 a73c 1b62 e03d
00000380: 0478 af3e 354e 04be 51f5 babd 7a60 87bd
00000390: 673a da3d bca0 8cbe a27b 63be f59c 0cbe
000003a0: 46bf e93d b912 02bc 9ec4 7fbe 4ef0 2cbe
000003b0: a1bb 6cba 96b5 2cbd 2f2d 883d e4e5 a5bd
000003c0: 3411 c03d ca93 b4bd 7b12 63be bab3 83bb
000003d0: f368 e6bc 72ae 4e3b 6c04 89bd fbde d1bc
000003e0: d43d 263d f259 343e 10bb 08be ef9f 953e
000003f0: d58b 7d3b f262 77be 167e 083e d3bd 033f

base.1linear.bias f4 [50]
0.01372859 0.023069806 -0.08911189 -0.013111926 -0.073515326 0.068126775 -0.041839756 -0.033979505
0.061522003 -0.004946962 -0.12003521 -0.031365875 -0.003843868 -0.016251786 -0.027109578 0.029138342
-0.20690851 -0.059974767 -0.023187516 -0.003807553 0.08109763 -0.034357272 0.060529146 -0.036736473
-0.19971561 0.022056913 0.033682656 -0.013348588 0.017188685 0.013781722 -0.0804406 0.10908862
-0.057276957 0.039345022 0.080552384 -0.08382012 -0.0075777564 0.028115854 -0.10038034 -0.15343836
0.09786061 -0.014409771 0.013726957 0.044635113 -0.028629126 -0.20998444 0.029753868 0.07242392
-0.06918085 -0.046638843
00000000: e1ed 603c e4fc bc3c 4b80 b6bd 67d3 56bc
00000010: 348f 96bd 0d86 8b3d 2a60 2bbd 182e 0bbd
00000020: 7ffe 7b3d 201a a2bb 05d5 f5bd 8179 00bd
00000030: 67e9 7bbb 7722 85bc e814 debc 88b3 ee3c
00000040: d3df 53be 1aa8 75bd bff3 bdbc 2488 79bb
00000050: 8416 a63d 36ba 0cbd 69ed 773d fc78 16bd
00000060: 4082 4cbe b3b0 b43c d3f6 093d 09b4 5abc
00000070: 49cf 8c3c bbcc 613c 0bbe a4bd db69 df3d
00000080: 3e9b 6abd 3f28 213d a6f8 a43d e2a9 abbd
00000090: d44e f8bb 3853 e63c 3594 cdbd f21e 1dbe
000000a0: 256b c83d f616 6cbc 08e7 603c 4fd3 363d
000000b0: a187 eabc 2906 57be 62be f33c fe52 943d
000000c0: b1ae 8dbd 5f08 3fbd

base.2linear.weight f4 [50, 50]
0.11974985 0.07817612 -0.1082191 -0.023690157 0.13058996 -0.048085213 0.13113828 -0.061602894
0.11313674 0.112575606 -0.07528828 -0.07595404 0.0015284367 -0.044348814 0.25796807 -0.2094898
0.066988975 -0.112700775 -0.40021607 -0.024747875 0.110058874 0.16459776 0.24328223 0.111798696
-0.09647836 0.03742788 0.18086416 -0.028570702 0.023094514 -0.0033032978 -0.0728533 -0.15357462
-0.19611363 0.15932302 0.15017346 0.118304834 -0.01783176 -0.12941708 0.10863314 -0.1667787
-0.13804476 0.18190867 -0.08299554 0.05930026 0.15717806 0.052625787 0.39535323 -0.042507287
0.20576872 0.06808676 0.039060805 -0.16988313 -0.110866494 -0.0959584 -0.07541719 -0.044869468
-0.16835658 -0.06962541 0.18145593 -0.06282407 -0.057124548 -0.13527627 -0.0040132487 -0.016838165
-0.06832044 0.08732794 -0.57540023 0.089114994 -0.017443376 0.20040785 0.15315545 0.09508873
-0.040348716 -0.024971196 -0.14161979 -0.006427102 -0.23692662 0.020066768 -0.19317503 0.04831476
0.21131411 0.08239018 0.13852842 -0.011481533 0.11309591 -0.13130178 0.08348927 0.016922541
-0.21079582 -0.08920485 -0.001141888 0.07459273 -0.0034186905 -0.009347683 -0.044667535 -0.43924776
-0.06323633 -0.06600211 0.2505912 0.07167715 0.009267599 -0.1358362 0.12060736 -0.11464949
0.10054231 0.022602016 0.23505513 0.024301328 0.11566225 0.003169707 0.09467144 0.048998225
0.0027375286 0.05512483 -0.21918896 -0.09006208 0.044340793 0.19067729 -0.2697341 0.38874444
-0.19691771 -0.11776842 0.24514392 0.042007633 -0.14288406 -0.048518885 -0.14423335 -0.021793792
-0.28386158 -0.13544367 0.17494786 -0.3514125 -0.058894765 -0.2220819 0.15980545 0.1296315
0.025499145 0.059635714 0.040148303 -0.02639155 0.117680624 0.04211456 -0.024043778 0.021251414
0.1945371 0.010972804 -0.20186259 0.00550505 0.18877506 0.05940274 -0.11575428 -0.073140986
0.09999584 -0.0015675406 -0.07234057 0.004324983 -0.055423394 0.037578214 0.10278534 -0.10127904
0.1353054 0.065971635 -0.043595668 -0.007974899 -0.06613943 0.008931294 -0.2999203 -0.03953451
0.11048665 -0.016163634 0.029771449 0.0040294346 0.028201727 -0.009845207 0.023845518 0.053483922
0.16164368 0.08179279 -0.08567254 0.202473 0.1333158 0.10932331 -0.10124778 0.17683038
0.20696555 -0.13381073 -0.09193565 -0.058420923 -0.12163004 -0.21413459 -0.22630356 0.047872722
-0.029376402 -0.050208874 0.037934422 0.010634585 0.102454334 0.15784165 0.005996093 -0.370601
0.1258799 -0.02799599 0.07276026 0.07892685 -0.2549831 0.026694974 0.08182216 0.017164359
-0.065457076 -0.0047684913 -0.2842421 -0.04731011 -0.010973233 0.011919008 0.19994697 -0.09908624
-0.061644427 0.08608233 0.0473051 -0.017516594 -0.084626034 -0.06619732 -0.22448945 0.011691896
-0.04826506 0.015399724 -0.15632103 0.046444964 0.015066587 -0.25504974 0.07632999 0.14075145
-0.03286705 0.13286552 -0.15261403 -0.23398846 -0.21236147 -0.009111348 -0.13829997 -0.13538462
-0.018551063 0.027769862 -0.008407618 -0.009032815 0.16817528 0.047787532 0.06995074 -0.042736776
0.23152919 0.18184346 -0.05119538 -0.23669097 0.03609404 0.16141607 0.043693732 -0.059824307
00000000: 693f f53d cd1a a03d faa1 ddbd dc11 c2bc
00000010: 60b9 053e 00f5 44bd 1d49 063e 5153 7cbd
00000020: 3cb4 e73d 0a8e e63d be30 9abd cb8d 9bbd
00000030: d355 c83a 1aa7 35bd 6414 843e 7e84 56be
00000040: 8431 893d aacf e6bd 1fe9 ccbe 0ebc cabc
00000050: 8c66 e13d 518c 283e fa1e 793e b7f6 e43d
00000060: 7296 c5bd fa4d 193d 7434 393e 1b0d eabc
00000070: b530 bd3c 247c 58bb 1c34 95bd aa42 1dbe
00000080: 03d2 48be 9325 233e 12c7 193e ce49 f23d
00000090: e913 92bc e985 04be 0d7b de3d 09c8 2abe
000000a0: 9b5b 0dbe 4446 3a3e 91f9 a9bd d4e4 723d
000000b0: 49f3 203e 238e 573d bd6b ca3e 1f1c 2ebd
000000c0: 09b5 523e 1271 8b3d 39fe 1f3d d8f5 2dbe
000000d0: f90d e3bd d685 c4bd 5474 9abd 0cc9 37bd
000000e0: ab65 2cbe c497 8ebd 95cf 393e e8a9 80bd
000000f0: 6efb 69bd dd85 0abe 9281 83bb 31f0 89bc
00000100: 96eb 8bbd fed8 b23d 6e4d 13bf ec81 b63d
00000110: 69e5 8ebc b737 4d3e c8d4 1c3e e1bd c23d
00000120: b244 25bd 6590 ccbc c704 11be 709a d2bb
00000130: e49c 72be 1063 a43c adcf 45be b3e5 453d
00000140: ba62 583e 2fbc a83d 65da 0d3e 0a1d 3cbc
00000150: d49e e73d f973 06be 6cfc aa3d 24a1 8a3c
00000160: dcda 57be 08b1 b6bd 67ab 95ba 13c4 983d
00000170: 1c0c 60bb 0627 19bc 4ef5 36bd 15e5 e0be
00000180: 0d82 81bd 1d2c 87bd 7d4d 803e 78cb 923d
00000190: 21d7 173c a518 0bbe fe00 f73d 5acd eabd
000001a0: 20e9 cd3d dd27 b93c 4bb2 703e 9413 c73c
000001b0: 54e0 ec3d dcba 4f3b 1ae3 c13d 5db2 483d
000001c0: 1c68 333b 93ca 613d 1273 60be 7872 b8bd
000001d0: b19e 353d e840 433e 971a 8abe 8309 c73e
000001e0: cca4 49be 9230 f1bd 0207 7b3e 3210 2c3d
000001f0: 3350 12be bdbb 46bd e8b1 13be e588 b2bc
00000200: 4e56 91be bfb1 0abe 8825 333e 57ec b3be
00000210: a33b 71bd 7069 63be 0aa4 233e 1fbe 043e
00000220: 95e3 d03c 9444 743d 8c72 243d 1833 d8bc
00000230: 8a02 f13d 5180 2c3d 75f7 c4bc 7217 ae3c
00000240: bc34 473e 47c7 333c 11b5 4ebe b563 b43b
00000250: 404e 413e 4a50 733d 9410 edbd f1ca 95bd
00000260: 9eca cc3d ef75 cdba 4b27 94bd 96b8 8d3b
00000270: a403 63bd 9deb 193d 1f81 d23d 636b cfbd
00000280: 808d 0a3e 231c 873d 5f91 32bd 27a9 02bc
00000290: 1c74 87bd 9054 123c 278f 99be f0ee 21bd
000002a0: d346 e23d 9969 84bc 41e3 f33c 5909 843b
000002b0: 4f07 e73c cb4d 21bc ad57 c33c f511 5b3d
000002c0: ec85 253e fa82 a73d 1675 afbd 1555 4f3e
000002d0: f083 083e e6e4 df3d ff5a cfbd 0613 353e
000002e0: c7ee 533e ae05 09be c248 bcbd c74a 6fbd
000002f0: 2c19 f9bd 1946 5bbe 1fbc 67be 3016 443d
00000300: c8a6 f0bc d2a7 4dbd 2061 1b3d af3c 2e3c
00000310: 94d3 d13d 3ea1 213e e07a c43b 6abf bdbe
00000320: a9e6 003e d957 e5bc 5503 953d 66a4 a13d
00000330: 258d 82be 6baf da3c 6092 a73d 459c 8c3c
00000340: 5c0e 86bd 0141 9cbb 2e88 91be 3fc8 41bd
00000350: 13c9 33bc f147 433c e6be 4c3e baed cabd
00000360: de7e 7cbd ef4b b03d fec2 413d f67e 8fbc
00000370: 6a50 adbd 7692 87bd 90e0 65be 5e8f 3f3c
00000380: 95b1 45bd 204f 7c3c 9f12 20be 133d 3e3d
00000390: d9d9 763c e195 82be e652 9c3d 2621 103e
000003a0: 9a9f 06bd e60d 083e da46 1cbe ac9a 6fbe
000003b0: 4975 59be c347 15bc 829e 0dbe 44a2 0abe
000003c0: 66f8 97bc 9f7d e33c 1bc0 09bc 5ffe 13bc
000003d0: 2436 2c3e dcbc 433d 5542 8f3d c20c 2fbd
000003e0: fd15 6d3e 2c35 3a3e 3fb2 51bd 1e5f 72be
000003f0: 58d7 133d 414a 253e 33f8 323d 550a 75bd

base.2linear.bias f4 [50]
-0.0024491453 0.10475952 -0.0036463218 0.08434649 -0.017717341 -0.0577195 -0.17994021 -0.1474106
-0.12057417 -0.13560918 0.048262842 0.059982248 -0.046680756 -0.0021123376 0.021287879 -0.02467106
0.046740733 0.029855313 0.066339165 -0.0181932 0.043445915 0.009193454 0.04063374 0.18931553
-0.012420359 -0.046697292 -0.090652764 -0.1515464 -0.047658227 0.02479454 -0.035599414 0.089315966
0.122202784 0.0038879006 0.041787487 -0.12499441 -0.15110312 0.10550607 0.035652652 -0.09019819
0.27871975 -0.013530951 0.036975615 -0.11769306 -0.013410123 -0.10528923 -0.015516539 0.0079907905
0.027147444 0.05250688
00000000: d781 20bb 298c d63d 21f7 6ebb dabd ac3d
00000010: f523 91bc 486b 6cbd 3f42 38be cef2 16be
00000020: 97ef f6bd 22dd 0abe 42af 453d f2af 753d
00000030: 5234 3fbd 256f 0abb eb63 ae3c f61a cabc
00000040: 3673 3f3d 2193 f43c d4dc 873d e809 95bc
00000050: 58f4 313d 24a0 163c 916f 263d eedb 413e
00000060: c37e 4bbc a945 3fbd 28a8 b9bd fb2e 1bbe
00000070: 4635 43bd eb1d cb3c b1d0 11bd 4aeb b63d
00000080: 7445 fa3d 26cc 7e3b 5b29 2b3d 12fd ffbd
00000090: c7ba 1abe 9113 d83d 8408 123d d4b9 b8bd
000000a0: 5bb4 8e3e ecb0 5dbc be73 173d 0f09 f1bd
000000b0: 22b6 5bbc e1a1 d7bd 1539 7ebc ceeb 023c
000000c0: 5164 de3c 7411 573d

base.3linear.weight f4 [50, 50]
-0.21870531 0.010944792 0.16611871 -0.23810269 -0.15134203 -0.5050348 -0.1829235 0.3165635
-0.50166374 0.08607358 0.13129368 -0.1941214 0.05961507 -0.0075593856 0.038459845 0.23366083
-0.039737303 -0.17734624 -0.11880881 -0.05002469 0.028583864 -0.13540405 0.10959408 0.06645223
0.04884965 -0.17286627 0.4070342 0.22872154 -0.11498685 0.008854524 -0.07518961 -0.09864483
-0.08842184 -0.26959544 0.033040643 -0.08792589 -0.41769022 0.10422442 0.13888003 -0.09583996
0.12311854 0.01807468 -0.0012428646 -0.2515747 -0.3013575 -0.12270788 -0.1134702 -0.03304781
0.14483452 0.12531926 -0.04187738 0.27415282 -0.2327254 0.3159566 -0.09033662 -0.15069868
-0.18978572 -0.46527544 -0.1378401 -0.116374716 0.21673694 0.0014862614 -0.05565006 -0.0133028915
-0.0038578624 -0.19622074 -0.01505138 0.09192246 0.16623148 -0.15821725 -0.027125264 0.20128447
0.21899381 0.23959872 0.08511787 0.10161301 -0.21798572 -0.33933035 0.023671541 -0.12651649
0.025803773 0.080522865 0.30533102 -0.0050531635 -0.017287098 -0.20241554 -0.45348838 0.31761184
0.304659 -0.13725083 0.4914808 -0.0026379025 0.022793455 -0.29599962 -0.21617244 -0.1835433
-0.032766562 -0.09643811 0.19401015 0.17936917 0.053344492 0.033993166 -0.19566447 -0.0042470666
0.0147111295 0.05407119 -0.44640318 0.13918151 0.33226573 -0.08421918 0.2869729 0.20047915
0.26825073 0.00131918 -0.10525405 0.087108254 -0.21132506 -0.021639436 -0.037459012 0.113663934
0.089897014 -0.0594499 -0.031694796 0.013213613 -0.21399882 -0.07948545 -0.010120905 -0.0033218989
0.34885973 0.0008405182 0.0051591876 -0.010533331 -0.163164 0.22236532 -0.10534272 -0.16065519
-0.080445446 -0.029354522 0.20230551 0.12031236 -0.24763778 0.031503107 -0.038280565 0.32080927
0.04940328 0.13201652 -0.008407363 0.024125671 0.32361206 -0.11807859 0.090143576 -0.039572995
0.07998657 0.11071137 -0.27393046 -0.02589151 0.4371689 0.13798952 -0.026955558 0.078348026
-0.20894033 0.21804261 0.21341206 -0.007516827 0.2770204 -0.1669387 0.011352518 -0.021699002
0.16078396 0.050111227 0.049829114 0.0006919425 0.014048811 0.026066735 0.12714013 0.08843177
-0.14632697 0.17234248 -0.009223474 -0.2836744 0.0066680573 -0.014228367 0.14014493 -0.25907558
-0.22370625 -0.16476157 0.019663356 0.04108051 -0.14878093 -0.039685015 -0.047982972 -0.0053450535
0.14667909 -0.21729197 0.13373661 0.02656669 -0.004608787 0.05533421 -0.15231387 0.14507394
-0.115722634 0.3139085 0.13627332 -0.16855294 -0.19044435 -0.05153799 -0.27286983 -0.31894097
0.08559669 0.1670367 0.124072745 -0.14906897 -0.09557743 -0.005938958 -0.044500552 -0.08054555
-0.089036345 -0.07537013 -0.07154331 0.17070775 0.12923403 0.09320919 -0.1201894 0.2410015
0.14387849 0.03922562 -0.030962108 -0.45551234 0.18573317 0.111498974 0.07858865 0.123490304
-0.015505703 -0.121447735 0.22020018 -0.3728063 -0.13807675 0.00745055 -0.118026294 0.0254536
0.09955231 0.021296492 -0.15797907 -0.18780787 -0.092397235 0.12081065 -0.16483666 0.19300391
0.0074291234 0.08174361 -0.14768106 0.19398123 -0.094629064 -0.11786821 -0.11899201 -0.2811356
00000000: 49f4 5fbe c951 333c 061b 2a3e 31d1 73be
00000010: 68f9 1abe f649 01bf 4c50 3bbe 9c14 a23e
00000020: 096d 00bf 5847 b03d da71 063e c3c7 46be
00000030: ee2e 743d b9b4 f7bb 1288 1d3d c944 6f3e
00000040: 95c3 22bd 419a 35be 0952 f3bd b0e6 4cbd
00000050: b528 ea3c 5ca7 0abe dc72 e03d 1b18 883d
00000060: 9216 483d db03 31be c966 d03e fb35 6a3e
00000070: 3a7e ebbd 9112 113c 03fd 99bd 4d06 cabd
00000080: 8216 b5bd 6a08 8abe a055 073d 7d12 b4bd
00000090: 7edb d5be 9d73 d53d 9136 0e3e be47 c4bd
000000a0: 9325 fc3d 5a11 943c 9ee7 a2ba 66ce 80be
000000b0: 884b 9abe 454e fbbd 1063 e8bd 245d 07bd
000000c0: 804f 143e b153 003e 9e87 2bbd c25d 8c3e
000000d0: 914f 6ebe 10c5 a13e 6802 b9bd c150 1abe
000000e0: 3057 42be 9538 eebe f525 0dbe de55 eebd
000000f0: 4af0 5d3e a8ce c23a 51f1 63bd 5ff4 59bc
00000100: 31d4 7cbb 17ee 48be 109a 76bc d841 bc3d
00000110: 9638 2a3e b403 22be cd35 debc 841d 4e3e
00000120: ea3f 603e 5e59 753e 4752 ae3d 7b1a d03d
00000130: a637 5fbe b5bc adbe d2ea c13c 8a8d 01be
00000140: 6f62 d33c 2ce9 a43d 5954 9c3e 0295 a5bb
00000150: ac9d 8dbc 0546 4fbe a12f e8be 059e a23e
00000160: 44fc 9b3e 7b8b 0cbe 5fa3 fb3e a9e0 2cbb
00000170: 57b9 ba3c 438d 97be 4f5c 5dbe c6f2 3bbe
00000180: 3b36 06bd 5881 c5bd 99aa 463e 8dac 373e
00000190: c17f 5a3d 6b3c 0b3d 445c 48be fa2a 8bbb
000001a0: f306 713c c179 5d3d f58e e4be 9985 0e3e
000001b0: bc1e aa3e 1b7b acbd 1dee 923e 684a 4d3e
000001c0: 2958 893e 56e8 ac3a 6f8f d7bd d065 b23d
000001d0: 9965 58be 3045 b1bc 9f6e 19bd a3c8 e83d
000001e0: ed1b b83d bd81 73bd 67d2 01bd e97d 583c
000001f0: 8222 5bbe 45c9 a2bd 27d2 25bc 37b4 59bb
00000200: be9d b23e 3956 5c3a 670e a93b fe93 2cbc
00000210: 7714 27be bcb3 633e edbd d7bd cb82 24be
00000220: 95c0 a4bd e578 f0bc 2d29 4f3e 5466 f63d
00000230: c294 7dbe 6709 013d 15cc 1cbd 1d41 a43e
00000240: 185b 4a3d 572f 073e 09bf 09bc 33a3 c53c
00000250: 7bb0 a53e 30d3 f1bd 329d b83d 4b17 22bd
00000260: 00d0 a33d a5bc e23d 9d40 8cbe 6f1a d4bc
00000270: 9ad4 df3e 204d 0d3e e7d1 dcbc ee74 a03d
00000280: 74f4 55be 9046 5f3e b188 5a3e b74f f6bb
00000290: 9ed5 8d3e fbf1 2abe e9ff 393c 1bc2 b1bc
000002a0: 8da4 243e 6e41 4d3d 9d19 4c3d 7a63 353a
000002b0: fc2c 663c e889 d53c 0631 023e b71b b53d
000002c0: bdd6 15be 8c7a 303e 0e1e 17bc c53d 91be
000002d0: b87f da3b 191e 69bc 2782 0f3e 8ea5 84be
000002e0: 4013 65be 42b7 28be 0c15 a13c 0944 283d
000002f0: 075a 18be c18c 22bd cb89 44bd 8f25 afbb
00000300: 0b33 163e c981 5ebe 40f2 083e 63a2 d93c
00000310: 4f05 97bb 20a6 623d 2bf8 1bbe 438e 143e
00000320: fdff ecbd 9db8 a03e 3c8b 0b3e 2499 2cbe
00000330: d803 43be 8019 53bd 98b5 8bbe 3b4c a3be
00000340: 514d af3d ab0b 2b3e da19 fe3d 89a5 18be
00000350: 1abe c3bd 979b c2bb 3646 36bd 11f5 a4bd
00000360: b058 b6bd a85b 9abd 4d85 92bd 03ce 2e3e
00000370: ed55 043e 76e4 be3d dc25 f6bd 19c9 763e
00000380: e254 133e 0bab 203d 3fa4 fdbc ea38 e9be
00000390: d630 3e3e 9359 e43d 16f3 a03d 7ce8 fc3d
000003a0: a20b 7ebc 97b9 f8bd 287c 613e 78e0 bebe
000003b0: fe63 0dbe be23 f43b c5b7 f1bd 1184 d03c
000003c0: 15e2 cb3d fb75 ae3c 44c5 21be b550 40be
000003d0: c33a bdbd 936b f73d f1ca 28be d1a2 453e
000003e0: 0170 f33b 3269 a73d b439 17be 04a3 463e
000003f0: e2cc c1bd e364 f1bd 15b2 f3bd 01f1 8fbe

base.3linear.bias f4 [50]
0.07256828 0.17368957 -0.031288892 0.025329228 0.054237325 0.0042817346 -0.019682482 0.020239437
-0.0317941 -0.0042531886 -0.05288872 0.11348017 -0.0847884 0.17723645 0.08011538 0.123666316
-0.09477875 -0.028718188 -0.075341076 0.08113861 -0.15238777 -0.0609182 0.10023741 -0.05001274
-0.027811568 -0.030890986 -0.072687276 -0.1270554 -0.02352653 -0.02489746 -0.05863148 -0.05799032
-0.0031826282 0.08950002 0.010382637 0.06562188 0.07257652 -0.02264966 0.1424484 -0.064830035
-0.070167065 -0.03481835 -0.013877018 -0.058500417 -0.129354 0.031933118 0.017868659 -0.09464874
0.022435218 -0.1053539
00000000: ae9e 943d aedb 313e c828 00bd 3e7f cf3c
00000010: f527 5e3d cb4d 8c3b 283d a1bc 2dcd a53c
00000020: 883a 02bd 555e 8bbb d8a1 58bd 4b68 e83d
00000030: 8aa5 adbd 797d 353e 8813 a43d c444 fd3d
00000040: 5c1b c2bd 6842 ebbc 6c4c 9abd 002c a63d
00000050: 8a0b 1cbe 5d85 79bd 4549 cd3d 29da 4cbd
00000060: 16d5 e3bc 180f fdbc 11dd 94bd d01a 02be
00000070: b6ba c0bc c2f5 cbbc 9027 70bd 4287 6dbd
00000080: a493 50bb c94b b73d f01b 2a3c c464 863d
00000090: 00a3 943d c88b b9bc fedd 113e 9cc5 84bd
000000a0: c0b3 8fbd b09d 0ebd 6f5c 63bc 229e 6fbd
000000b0: 6075 04be 4dcc 023d 4b61 923c 33d7 c1bd
000000c0: 10ca b73c c9c3 d7bd

base.4linear.weight f4 [50, 50]
0.09625044 0.2217206 -0.13024743 0.04760954 -0.085074 0.019965565 -0.038424384 0.17726511
0.08881398 0.16616277 -0.19524741 0.06882981 -0.11668605 0.37674132 -0.07416871 0.264497
0.05668232 -0.05887592 -0.14805505 0.1334891 -0.5855578 0.018008562 -0.1626337 -0.12982133
-0.19421205 -0.15874468 0.24299188 -0.46727103 -0.23594745 -0.110522225 -0.25129154 -0.020393146
0.29308245 -0.035319883 -0.5190745 -0.033210352 0.05331118 0.09859463 -0.05464711 -0.03415872
-0.06318301 -0.12632944 0.06092415 -0.12369279 -0.08502718 0.06489684 0.23056279 0.09796771
-0.18695652 0.00046237896 0.13490316 -0.070735104 -0.04831044 -0.018522322 0.22135368 -0.036560643
0.15435979 -0.06688962 -0.028380534 -0.26630527 0.5911207 0.038498044 -0.11090372 0.017850935
0.0787745 -0.21267998 -0.30960584 -0.14644915 -0.09023439 -0.18655217 0.39352915 0.09105489
-0.20582174 0.09662776 0.16638206 -0.044228442 -0.043119565 0.2013498 0.061418854 -0.002469988
-0.014984598 0.02542304 0.010908999 0.08517534 0.37747183 -0.07729493 -0.07512166 -0.15819454
-0.002114949 0.15111691 -0.16983992 0.40523368 0.0137258265 0.36817148 0.03592878 -0.341598
-0.11558743 -0.10051633 -0.16197395 -0.19100522 0.08839522 0.062654525 0.08653191 0.23091601
-0.15544096 -0.061292768 -0.19471477 0.025561629 -0.19609879 -0.037941113 0.118466824 0.07829302
-0.16493112 -0.050821766 0.10799165 0.49325895 0.06680473 0.13849708 -0.12537272 0.32000253
-0.20257089 0.00073312386 0.32200265 -0.026341192 -0.12855421 -0.08574749 0.29229122 -0.022904724
-0.1454716 0.011616868 -0.010542295 0.00087604806 0.13312629 0.0077992026 -0.035116598 0.058936078
0.18357395 -0.10194614 -0.11609453 0.033975203 0.122698724 -0.046775322 0.05324899 -0.235722
0.03161624 -0.10406525 -0.07527628 -0.41791752 0.027279614 -0.0911286 -0.053395476 -0.27924636
0.004664297 0.028753817 0.055010363 -0.0118050715 -0.113780975 -0.056337368 -0.053404972 0.00046686048
0.33709723 -0.3977339 0.37535813 0.15862602 -0.13345055 -0.13376291 0.07769424 0.21071824
-0.03417523 -0.2783505 0.40398216 0.16128471 0.18529144 0.3948093 -0.01471745 0.4094868
0.21429963 0.31713107 -0.049014587 -0.16009316 0.1357068 -0.0032119397 -0.16549583 0.06084941
0.1349492 0.12531072 -0.15168323 -0.22357237 0.06801321 0.2244006 0.15753326 0.091957375
0.03194119 0.4648626 -0.12249257 -0.057162266 0.0077736164 -0.05074155 0.07962856 0.20532104
0.011788139 -0.19845365 0.019888144 -0.23175427 -0.2110539 -0.104712196 0.072312884 -0.08063005
0.17387873 0.21050774 -0.1753515 -0.24500811 0.09306356 -0.26539165 -0.35481298 -0.3305714
-0.23410149 -0.020379173 0.19279937 -0.03176819 -0.062048424 0.022140015 -0.22306222 -0.13277552
0.12797992 0.096731685 -0.03127742 0.18489443 0.020418614 0.13050438 0.28895554 0.008642925
0.21265763 0.075660825 -0.14227948 -0.06502387 -0.3165626 0.15453425 0.14496784 -0.24574848
0.0741443 -0.006601548 -0.0065165283 -0.065976925 -0.054842606 0.20099957 0.098993964 0.14178585
-0.19504982 0.15085119 -0.03563397 -0.027954442 0.079472184 0.28737256 0.10131371 -0.052079376
00000000: f31e c53d ba0a 633e 955f 05be 3902 433d
00000010: 473b aebd d38e a33c e362 1dbd fc84 353e
00000020: 1be4 b53d 9326 2a3e f0ee 47be a5f6 8c3d
00000030: 19f9 eebd 3de4 c03e c4e5 97bd 276c 873e
00000040: b82b 683d e027 71bd be9b 17be 5eb1 083e
00000050: 1ee7 15bf b186 933c 7389 26be e2ef 04be
00000060: 86df 46be f78d 22be ddd2 783e 263e efbe
00000070: 359c 71be 7a59 e2bd 49a9 80be 870f a7bc
00000080: e70e 963e 95ab 10bd 11e2 04bf 9407 08bd
00000090: d35c 5a3d fbeb c93d a6d5 5fbd 04ea 0bbd
000000a0: 1866 81bd 815c 01be 9a8b 793d a552 fdbd
000000b0: bb22 aebd a2e8 843d a718 6c3e 4ba3 c83d
000000c0: 8871 3fbe 746b f239 0e24 0a3e 91dd 90bd
000000d0: 2be1 45bd 20bc 97bc 8aaa 623e 9dc0 15bd
000000e0: 7e10 1e3e 6dfd 88bd 4b7e e8bc 2a59 88be
000000f0: b053 173f 20b0 1d3d 7d21 e3bd 203c 923c
00000100: 8654 a13d c8c8 59be a884 9ebe c4f6 15be
00000110: cfcc b8bd 8807 3fbe a77c c93e fc7a ba3d
00000120: efc2 52be c6e4 c53d 0f60 2a3e e228 35bd
00000130: 249e 30bd a42e 4e3e 5692 7b3d 86df 21bb
00000140: f681 75bc fb43 d03c a8bb 323c 6970 ae3d
00000150: fd43 c13e ce4c 9ebd 63d9 99bd c0fd 21be
00000160: f59a 0abb 64be 1a3e 84ea 2dbe ca7a cf3e
00000170: 4ae2 603c f980 bc3e 0e2a 133d efe5 aebe
00000180: 1ab9 ecbd 81db cdbd 80dc 25be df96 43be
00000190: 8e08 b53d 0451 803d a437 b13d 3f75 6c3e
000001a0: ea2b 1fbe 200e 7bbd 4f63 47be 9f66 d13c
000001b0: 1fce 48be 2468 1bbd bc9e f23d 1758 a03d
000001c0: b4e3 28be 7c2a 50bd ba2a dd3d 708c fc3e
000001d0: ebd0 883d 2ed2 0d3e b561 00be 5fd7 a33e
000001e0: be6e 4fbe 1c2f 403a 88dd a43e 7cc9 d7bc
000001f0: b7a3 03be 619c afbd 32a7 953e b0a2 bbbc
00000200: 82f6 14be ad54 3e3c 97b9 2cbc 97a6 653a
00000210: 4252 083e 7490 ff3b 6cd6 0fbd f566 713d
00000220: cffa 3b3e 23c9 d0bd f8c2 edbd 9529 0b3d
00000230: 7849 fb3d 7b97 3fbd 9d1b 5a3d 1c61 71be
00000240: 0880 013d 2920 d5bd 732a 9abd 49f9 d5be
00000250: 7f79 df3c a2a1 babd 37b5 5abd 61f9 8ebe
00000260: f6d6 983b 208d eb3c 8c52 613d 0f6a 41bc
00000270: 0006 e9bd 03c2 66bd 2cbf 5abd f4c4 f439
00000280: 0298 ac3e c7a3 cbbe f12e c03e dc6e 223e
00000290: 43a7 08be 25f9 08be 281e 9f3d 86c6 573e
000002a0: 53fb 0bbd f583 8ebe c0d6 ce3e d227 253e
000002b0: 0abd 3d3e 7224 ca3e 7621 71bc 41a8 d13e
000002c0: 5d71 5b3e 015f a23e 85c3 48bd 76ef 23be
000002d0: b9f6 0a3e 687f 52bb bd77 29be 3b3d 793d
000002e0: 2030 0a3e 7451 003e d952 1bbe 28f0 64be
000002f0: 834a 8b3d 45c9 653e 6650 213e 2654 bc3d
00000300: c4d4 023d 7902 ee3e 62dd fabd fb22 6abd
00000310: d2b9 fe3b 5fd6 4fbd 4c14 a33d ae3f 523e
00000320: 0a23 413c 6f37 4bbe 76ec a23c fe50 6dbe
00000330: 831e 58be 5973 d6bd c718 943d 5e21 a5bd
00000340: 440d 323e 578f 573e 588f 33be 68e3 7abe
00000350: 1c98 be3d 6ae1 87be 0caa b5be a840 a9be
00000360: 4db8 6fbe 39f2 a6bc 336d 453e 5d1f 02bd
00000370: 7d26 7ebd fa5e b53c 6c6a 64be 4ef6 07be
00000380: 2b0d 033e 431b c63d c11c 00bd f754 3d3e
00000390: f044 a73c f1a2 053e fbf1 933e 0e9b 0d3c
000003a0: ecc2 593e 10f4 9a3d b6b1 11be 3c2b 85bd
000003b0: 7e14 a2be 3a3e 1e3e 7372 143e 7da5 7bbe
000003c0: f7d8 973d cc51 d8bb 9a88 d5bb e91e 87bd
000003d0: a4a2 60bd d5d2 4d3e 59bd ca3d 4f30 113e
000003e0: 24bb 47be bc78 1a3e edf4 11bd b700 e5bc
000003f0: 50c2 a23d 7f22 933e 907d cf3d 2f51 55bd

base.4linear.bias f4 [50]
0.09321378 -0.031453624 0.026351174 -0.057229236 -0.066585064 -0.03567564 0.028815335 -0.020596957
-0.12886955 -0.035770994 -0.020749193 0.056578692 -0.03258755 0.053926878 0.14801492 0.021966778
0.010059011 0.13266464 -0.22423854 0.042615917 0.053101134 -0.024558729 -0.363065 -0.013203094
0.072330356 0.071864754 0.009144481 -0.025664074 -0.039451588 0.048002563 -0.002065739 0.06321332
0.015767802 0.08780058 0.063126884 -0.11601561 -0.07861368 0.13533379 -0.028788354 -0.063495755
0.1897634 0.04139044 -0.015177185 -0.05546424 0.049753256 0.030456975 -0.0031883854 -0.073835246
-0.023301702 -0.09964603
00000000: dee6 be3d 84d5 00bd 6bde d73c 3469 6abd
00000010: c05d 88bd 9f20 12bd 230e ec3c f3ba a8bc
00000020: 61f6 03be 9b84 12bd 36fa a9bc 0fbf 673d
00000030: 867a 05bd 6ee2 5c3d 3991 173e acf3 b33c
00000040: 8dce 243c 3dd9 073e ca9e 65be 078e 2e3d
00000050: 9380 593d 632f c9bc a8e3 b9be ca51 58bc
00000060: f021 943d d42d 933d bcd2 153c 773d d2bc
00000070: fd97 21bd 569e 443d 5961 07bb fc75 813d
00000080: 7a2b 813c cad0 b33d ab48 813d 9899 edbd
00000090: 3600 a1bd f194 0a3e 8ed5 ebbc 100a 82bd
000000a0: 5651 423e 0689 293d baa9 78bc 792e 63bd
000000b0: 12ca 4b3d e880 f93c 3bf4 50bb ef36 97bd
000000c0: 36e3 bebc 3813 ccbd

base.5linear.weight f4 [50, 50]
-0.027812632 0.04610201 0.024791779 0.24151203 -0.04069506 -0.28993297 0.09534032 -0.08891683
-0.20384726 0.06397287 0.049760543 0.12114679 0.12599224 -0.030324006 -0.04715652 -0.05435684
-0.03547185 -0.1012493 -0.1411615 -0.02368795 0.1487205 -0.0034663684 0.07995067 -0.329112
0.394383 -0.22055814 0.017536324 -0.1252172 -0.055002328 -0.51904356 0.00056039036 -0.2256549
-0.21054575 -0.34077352 -0.018297292 0.3588323 -0.07941852 -0.075672455 -0.008668399 -0.22642083
-0.0223164 0.004710469 0.028804246 -0.2357886 -0.11914636 0.012766874 0.24508317 0.07154258
-0.10178901 0.28192827 0.012497807 0.10673771 -0.2567722 -0.19264539 0.105947025 -0.06265692
-0.235402 -0.13454758 -0.55289924 0.1739268 0.028682504 -0.24984582 0.09114635 0.09654682
-0.16321695 -0.17719036 -0.08511178 0.3459748 -0.002907359 -0.16733871 -0.18892048 -0.09803795
0.060791884 0.354833 -0.22144221 0.21049564 0.22739328 -0.14780228 -0.1512356 -0.036078267
0.05725008 -0.02443298 0.021917574 0.06631511 -0.31388214 -0.09675481 0.08119686 0.29621768
0.03714568 0.18519919 -0.1228776 0.0010728291 0.29807892 -0.124133475 -0.13195778 0.0051076883
0.32203853 -0.06061062 0.10837051 -0.20297185 0.19086479 -0.031811234 -0.08597479 0.3857122
0.02274498 -0.15934974 -0.016239671 0.082893506 -0.11310228 -0.09499123 -0.12583072 0.19683287
-0.015502302 0.1082089 0.054935265 0.22779371 0.07606356 -0.3079726 0.12744 0.09189935
0.04006414 0.23335876 -0.01954989 0.15239543 0.13613294 0.24583687 -0.056290865 0.03888417
-0.17566223 -0.004465824 -0.09873801 -0.039896544 -0.15051605 0.42125493 -0.009350841 0.08654525
-0.051565498 0.06942041 -0.031977344 -0.16891004 0.11379242 0.012974471 -0.09795505 0.034795105
-0.08060671 -0.012508749 -0.07724735 -0.12207347 -0.030281479 -0.047511663 -0.012057854 -0.054417275
-0.08009703 -0.22841358 0.07396691 -0.044492863 -0.13427901 0.3245025 0.009080322 0.035246115
-0.55426705 0.047403693 0.11329593 0.34466422 0.060317088 -0.45830846 0.0395212 0.22047219
0.11449513 0.1550417 -0.3191202 0.051301297 -0.025568776 -0.29166397 0.24179155 -0.023156598
-0.3032236 0.03229681 0.1029438 0.15527923 -0.05810013 0.3026594 0.14712352 -0.022267029
0.15286832 -0.78911585 0.18511456 0.03941351 0.16299051 0.05399309 0.2717761 0.054359835
-0.15321366 0.2551655 0.171408 -0.04855928 -0.26719654 -0.13403499 -0.18913215 -0.014856388
0.22450982 -0.1562908 -0.14538296 0.08345685 -0.023685759 -0.31175095 -0.28793558 -0.0570075
-0.14892155 -0.06402253 0.07263027 -0.06907433 0.023366956 -0.15114804 -0.04739715 0.34978634
-0.45531803 0.1065852 0.13185993 -0.11364479 -0.010293191 0.021157602 0.2303958 -0.27301732
0.006943111 0.0029386412 0.08128219 0.23802371 -0.008465908 0.19987941 0.06053754 0.012172608
0.17809588 -0.23613398 -0.1634651 -0.04258394 0.23952855 0.24414419 0.053061116 -0.018323448
-0.18576421 -0.080198444 0.14769444 0.11422047 -0.06937215 -0.03568697 -0.21522589 0.14086406
0.07066574 -0.12070675 0.022154888 -0.018739665 -0.019440193 0.00010906538 0.0088975625 0.12535197
00000000: 51d7 e3bc 76d5 3c3d 2118 cb3c ee4e 773e
00000010: ddaf 26bd 1872 94be c941 c33d 071a b6bd
00000020: 56bd 50be 3504 833d b6d1 4b3d cf1b f83d
00000030: 1c04 013e 0d6a f8bc 3227 41bd 47a5 5ebd
00000040: ee4a 11bd cb5b cfbd a48c 10be 3b0d c2bc
00000050: 304a 183e 032c 63bb 2dbd a33d 5e81 a8be
00000060: 92ec c93e fed9 61be 56a8 8f3c f038 00be
00000070: 1f4a 61bd 0ae0 04bf 29e7 123a 1412 67be
00000080: 4e99 57be de79 aebe 34e4 95bc deb8 b73e
00000090: 2da6 a2bd 29fa 9abd e705 0ebc ddda 67be
000000a0: e2d0 b6bc 475a 9a3b e2f6 eb3c 9172 71be
000000b0: 0203 f4bd 272c 513c 15f7 7a3e eb84 923d
000000c0: c276 d0bd e758 903e 9ac3 4c3c 4d99 da3d
000000d0: a577 83be d544 45be c1fa d83d 4552 80bd
000000e0: 390d 71be d7c6 09be ce8a 0dbf de19 323e
000000f0: 92f7 ea3c 95d7 7fbe f0aa ba3d 57ba c53d
00000100: 5822 27be 6471 35be 164f aebd 9c23 b13e
00000110: 6489 3ebb d75a 2bbe 5f74 41be 1fc8 c8bd
00000120: e900 793d acac b53e bfc1 62be 2b8c 573e
00000130: c9d9 683e 7b59 17be 81dd 1abe cec6 13bd
00000140: 0f7f 6a3d ac27 c8bc 7c8c b33c 37d0 873d
00000150: 29b5 a0be 6327 c6bd 8a4a a63d d8a9 973e
00000160: 1226 183d dba4 3d3e 40a7 fbbd 2c9e 8c3a
00000170: cd9d 983e b139 febd f11f 07be 655e a73b
00000180: 3ce2 a43e d742 78bd 5cf1 dd3d dad7 4fbe
00000190: 0f72 433e 7f4c 02bd 8d13 b0bd 127c c53e
000001a0: ae53 ba3c 942c 23be 0f09 85bc 12c4 a93d
000001b0: 2ba2 e7bd c38a c2bd c5d9 00be 8e8e 493e
000001c0: 5efd 7dbc a19c dd3d cd03 613d c142 693e
000001d0: 36c7 9b3d 96ae 9dbe a27f 023e ba35 bc3d
000001e0: 4c1a 243d 99f5 6e3e 1727 a0bc 8c0d 1c3e
000001f0: 6f66 0b3e a9bc 7b3e 4091 66bd 0245 1f3d
00000200: cde0 33be 0c56 92bb 2737 cabd 8f6a 23bd
00000210: e120 1abe baae d73e 4534 19bc a33e b13d
00000220: 5836 53bd 4a2c 8e3d adfa 02bd c1f6 2cbe
00000230: 000c e93d e092 543c a89c c8bd 5085 0e3d
00000240: 2115 a5bd 7ff1 4cbc dc33 9ebd a801 fabd
00000250: dd10 f8bc 979b 42bd 4e8e 45bc a6e4 5ebd
00000260: e909 a4bd 40e5 69be f77b 973d 263e 36bd
00000270: 7080 09be 3125 a63e a2c5 143c 3b5e 103d
00000280: 72e4 0dbf 602a 423d b207 e83d d477 b03e
00000290: 0d0f 773d 68a7 eabe fbe0 213d 76c3 613e
000002a0: 6c7c ea3d 40c3 1e3e b963 a3be 4f21 523d
000002b0: 9c75 d1bc fb54 95be 3498 773e e8b2 bdbc
000002c0: 2040 9bbe a949 043d 33d4 d23d 8501 1f3e
000002d0: 67fa 6dbd 2cf6 9a3e 8ca7 163e 5869 b6bc
000002e0: 8389 1c3e 7f03 4abf ac8e 3d3e 1070 213d
000002f0: fce6 263e dc27 5d3d 3d26 8b3e 6ba8 5e3d
00000300: 0be4 1cbe 0da5 823e 9485 2f3e 18e6 46bd
00000310: fccd 88be 7840 09be dcab 41be 3568 73bc
00000320: e7e5 653e b20a 20be 45df 14be 6deb aa3d
00000330: a308 c2bc d29d 9fbe 4b6c 93be b280 69bd
00000340: e47e 18be 3f1e 83bd 2ebf 943d d876 8dbd
00000350: 0f6c bf3c 8dc6 1abe 8423 42bd 3217 b33e
00000360: 721f e9be 5749 da3d 4a06 073e 9abe e8bd
00000370: c6a4 28bc b552 ad3c e0ec 6b3e edc8 8bbe
00000380: 0983 e33b 3896 403b 4777 a63d 7dbc 733e
00000390: 97b4 0abc 30ad 4c3e 36f6 773d 9e6f 473c
000003a0: c45e 363e 1bcd 71be 6563 27be 7f6c 2ebd
000003b0: f946 753e ef00 7a3e 9d56 593d 0e1b 96bc
000003c0: f938 3ebe 153f a4bd 363d 173e 6cec e93d
000003d0: fc12 8ebd 802c 12bd 2d64 5cbe ab3e 103e
000003e0: 33b9 903d 1a35 f7bd 2b7e b53c ed83 99bc
000003f0: 0a41 9fbc 08ba e438 15c7 113c 445c 003e

base.5linear.bias f4 [50]
0.084515505 -0.10189044 0.03659021 -0.021126155 -0.15409535 0.014616727 -0.041919407 0.04353752
0.011564294 -0.13054518 -0.0068513015 0.0419092 -0.03500481 0.0104984855 -0.07781531 -0.057091188
-0.100927725 0.010929362 0.03559879 -0.10612724 0.010521061 0.05354788 0.10275848 0.019722285
0.12860246 0.08392643 -0.023106175 0.05586425 -0.06889114 0.033010196 0.05029457 -0.020266294
-0.034985144 -0.0051318826 -0.10314034 0.05734739 -0.03381534 -0.13792326 0.032848857 0.009963396
-0.00860576 -0.06667851 0.119326234 0.0010340246 0.10409194 -0.02984251 0.006328423 0.13434878
-0.034443535 -0.06700543
00000000: 7716 ad3d efab d0bd 9edf 153d c210 adbc
00000010: 2ccb 1dbe ff7a 6f3c afb3 2bbd 6654 323d
00000020: 2a78 3d3c a3ad 05be e280 e0bb fba8 2b3d
00000030: 3461 0fbd d701 2c3c a25d 9fbd 73d8 69bd
00000040: 32b3 cebd 1111 333c 09d0 113d 3d59 d9bd
00000050: 8760 2c3c 0655 5b3d 0a73 d23d a190 a13c
00000060: 5db0 033e 9fe1 ab3d 2949 bdbc e9d1 643d
00000070: cc16 8dbd b335 073d ae01 4e3d 8005 a6bc
00000080: 954c 0fbd 5a29 a8bb 3e3b d3bd 19e5 6a3d
00000090: f481 0abd c13b 0dbe 868c 063d 833d 233c
000000a0: 2cff 0cbc be8e 88bd 5061 f43d 1c88 873a
000000b0: 282e d53d 4878 f4bc a95e cf3b ba92 093e
000000c0: aa14 0dbd 253a 89bd

base.6linear.weight f4 [50, 50]
-0.17961659 0.09206282 0.15216061 -0.22151576 0.2532104 0.15144415 -0.039080147 -0.01940333
0.08158058 0.23299874 -0.12406626 -0.0134800915 -0.15157072 0.011669612 -0.051836524 -0.060416102
-0.18856244 0.1818013 -0.07580283 -0.027591884 -0.04280961 -0.17438233 -0.065120056 -0.015817316
0.20163213 0.09620053 -0.078655325 0.23770423 -0.34582865 0.011243658 0.07753479 -0.08426925
-0.16222316 -0.12425968 -0.14288905 0.037047066 -0.21648933 0.099668406 0.48572838 0.069744796
0.08104675 0.2730958 -0.010695819 0.041134097 -0.40931264 -0.43928516 0.19519915 -0.044120643
-0.1474035 0.24975185 -0.25148594 0.100265406 0.29462725 -0.08907042 0.27157697 -0.034740094
0.10644823 0.3046603 0.0063721673 0.3346876 -0.04066981 0.18043786 0.15418781 0.12841651
-0.15253443 -0.08426275 -0.0059016813 -0.04132072 -0.28660983 -0.027649205 0.04089476 0.107411124
-0.01450584 -0.1368615 0.053525046 0.047803685 -0.038741168 0.058284298 0.114283174 -0.11374258
-0.3769933 -0.12556121 -0.26878622 -0.000597784 -0.16117781 -0.054175764 0.4637572 -0.08158671
-0.050533764 -0.02644886 0.1874627 -0.24672289 -0.0155700715 -0.0071637426 0.18482904 0.13670677
-0.2724261 0.042171188 -0.009174347 0.1606663 0.17378825 -0.09222702 -0.046306774 -0.3515969
-0.44774905 0.2889512 0.19765499 -0.03871761 0.29368338 -0.19999295 -0.044625062 -0.2187353
0.30200827 0.059682928 0.26173985 -0.20986785 -0.112534896 0.26110846 0.14716144 0.036058236
0.15729232 0.022317113 -0.13394767 -0.1759548 -0.44645983 -0.05837844 -0.04004202 -0.09163035
0.11478584 0.01951479 -0.117688015 -0.14558178 0.10683699 0.36156023 -0.20260333 -0.02431833
-0.03873129 0.023757158 0.15423907 -0.128386 0.042638212 -0.053548858 -0.122161224 0.25442314
0.12450512 -0.05811149 0.021398753 0.07083609 0.16535537 -0.081835225 -0.092489585 -0.11061681
-0.078553274 -0.13731386 0.25293857 0.011661916 -0.02377395 -0.110842325 0.13763542 -0.022155356
-0.16505945 0.011104112 0.14508697 -0.23188797 0.08503147 -0.05111855 -0.03657301 -0.0077468865
-0.23731606 -0.016718715 0.034587525 0.1483041 -0.05503535 0.60682297 0.113724284 -0.2567368
-0.3975991 -0.010682874 0.15503088 -0.16057733 -0.3138007 0.019899968 -0.15543056 -0.05108122
0.043284554 -0.18369496 0.38902667 0.03795906 -0.4295733 -0.24554996 -0.027017606 -0.003943655
0.08234026 0.31891558 0.13400882 0.17521517 0.007027603 -0.17306603 0.15789783 0.17033422
0.122033276 0.086926155 -0.39651397 -0.27393863 0.1547632 -0.06214966 -0.039658844 -0.33115533
0.14162287 -0.20545366 -0.06310315 -0.09248849 0.013213681 -0.036391675 -0.18869972 0.1073985
0.15961233 0.45833746 0.40619162 0.066009656 0.29119003 0.069327585 0.0277722 0.018921934
-0.08439674 -0.1491033 -0.037570637 -0.21487246 -0.03456514 -0.14103043 -0.09791687 -0.049247935
0.07101619 0.2599821 -0.05336264 0.13439915 -0.12470186 0.17344376 0.19155282 0.15104291
-0.1389891 -0.088055074 -0.09932747 0.17223585 -0.2079215 -0.20955126 0.14694698 -0.26926187
0.013032802 -0.05758879 -0.037292585 -0.63225996 -0.22705932 -0.06307823 -0.132898 0.18595098
00000000: 69ed 37be 6f8b bc3d fecf 1b3e 07d5 62be
00000010: cba4 813e 2d14 1b3e 8112 20bd bbf3 9ebc
00000020: b813 a73d 3997 6e3e 7416 febd 9adb 5cbc
00000030: 5b35 1bbe e631 3f3c 8952 54bd e076 77bd
00000040: 8316 41be 1f2a 3a3e 843e 9bbd 6008 e2bc
00000050: 2159 2fbd 4891 32be aa5d 85bd 5193 81bc
00000060: a778 4e3e c904 c53d 0b16 a1bd bd68 733e
00000070: 7410 b1be 5237 383c 8fca 9e3d 5b95 acbd
00000080: d41d 26be dc7b febd 8251 12be aabe 173d
00000090: 61af 5dbe f31e cc3d 64b1 f83e 5cd6 8e3d
000000a0: d7fb a53d 36d3 8b3e 843d 2fbc 3a7c 283d
000000b0: 6d91 d1be fce9 e0be 49e2 473e d9b7 34bd
000000c0: f1f0 16be f3be 7f3e c4c2 80be f357 cd3d
000000d0: 62d9 963e 8d6a b6bd 230c 8b3e a14b 0ebd
000000e0: 8801 da3d 6ffc 9b3e 9dcd d03b 2c5c ab3e
000000f0: 6395 26bd b4c4 383e 69e3 1d3e 9e7f 033e
00000100: fc31 1cbe f391 acbd e462 c1bb ea3f 29bd
00000110: 86be 92be 9680 e2bc 4481 273d 5dfa db3d
00000120: e7a9 6dbc 6c25 0cbe 143d 5b3d cccd 433d
00000130: 0faf 1ebd 84bb 6e3d 4c0d ea3d dff1 e8bd
00000140: 4405 c1be 1e93 00be 599e 89be 9bb4 1cba
00000150: cc0b 25be 68e7 5dbd 9571 ed3e ef16 a7bd
00000160: 7efc 4ebd 48ab d8bc 39f6 3f3e eda4 7cbe
00000170: 9d19 7fbc d4bd eabb d343 3d3e dcfc 0b3e
00000180: 6f7b 8bbe b2bb 2c3d 0050 16bc b585 243e
00000190: 8cf5 313e 85e1 bcbd 2cac 3dbd 8204 b4be
000001a0: 5d3f e5be 69f1 933e 1266 4a3e 5b96 1ebd
000001b0: ab5d 963e f4ca 4cbe c5c8 36bd 25fc 5fbe
000001c0: d4a0 9a3e 1676 743d c402 863e 99e7 56be
000001d0: b278 e6bd 02b0 853e 7db1 163e cdb1 133d
000001e0: 3d11 213e 61d2 b63c 9429 09be 7f2d 34be
000001f0: 6296 e4be 3b1e 6fbd 1a03 24bd b1a8 bbbd
00000200: d714 eb3d 7bdd 9f3c 6a06 f1bd 6413 15be
00000210: 5acd da3d 6c1e b93e 3f77 4fbe 3c37 c7bc
00000220: b3a4 1ebd 5f9e c23c d9f0 1d3e 9f77 03be
00000230: 68a5 2e3d 0c56 5bbd aa2f fabd c043 823e
00000240: 8afc fe3d 5006 6ebd 704c af3c 8312 913d
00000250: eb52 293e 3a99 a7bd 2e6b bdbd 118b e2bd
00000260: 8ae0 a0bd 019c 0cbe 2a81 813e 9f11 3f3c
00000270: 96c1 c2bc 4d01 e3bd 4df0 0c3e 267f b5bc
00000280: 5805 29be 05ee 353c ae91 143e 0a74 6dbe
00000290: fb24 ae3d af61 51bd 95cd 15bd 98d9 fdbb
000002a0: fb02 73be b0f5 88bc a6ab 0d3d 08dd 173e
000002b0: bf6c 61bd c058 1b3f 47e8 e83d 0173 83be
000002c0: 1c92 cbbe 3907 2fbc 6ac0 1e3e 626e 24be
000002d0: 7caa a0be 4205 a33c 3029 1fbe 8b3a 51bd
000002e0: 254b 313d 881a 3cbe 812e c73e f67a 1b3d
000002f0: 08f1 dbbe 7371 7bbe 0754 ddbc c739 81bb
00000300: 03a2 a83d e748 a33e 9c39 093e 9b6b 333e
00000310: cf47 e63b 3938 31be f8af 213e 186c 2e3e
00000320: 95ec f93d 5706 b23d e103 cbbe af41 8cbe
00000330: 3f7a 1e3e a490 7ebd 5071 22bd 318d a9be
00000340: 9605 113e 7262 52be 393c 81bd 9b6a bdbd
00000350: 327e 583c 700f 15bd 803a 41be bff3 db3d
00000360: 6a71 233e 35ab ea3e 59f8 cf3e 1230 873d
00000370: dc16 953e 9ffb 8d3d 8682 e33c 2c02 9b3c
00000380: 33d8 acbd 89ae 18be abe3 19bd 8707 5cbe
00000390: 2d94 0dbd 486a 10be a488 c8bd 34b8 49bd
000003a0: f070 913d 601c 853e c992 5abd ee9f 093e
000003b0: b063 ffbd 3e9b 313e 6c26 443e feaa 1a3e
000003c0: 2953 0ebe 3856 b4bd 336c cbbd 985e 303e
000003d0: 60e9 54be 9b94 56be 4579 163e b1dc 89be
000003e0: 8987 553c 39e2 6bbd 1cc0 18bd cadb 21bf
000003f0: 3d82 68be 292f 81bd 6a16 08be ef69 3e3e

base.6linear.bias f4 [50]
-0.0043898714 -0.021880647 -0.0040016687 0.0022501198 -0.0048202635 0.11263577 -0.025908304 0.08870039
0.036309376 0.11554712 0.049294036 -0.009773099 -0.07426456 0.2076744 -0.113153644 -0.039221916
0.053273372 0.045830846 -0.11723225 0.129834 0.15967529 0.16843764 0.017221346 0.041102406
0.07235982 0.012267788 0.031327505 0.094246775 -0.012915052 0.078314506 0.00648284 -0.07648758
-0.04898928 0.030687863 0.05765756 0.054407947 -0.068665974 -0.12529774 -0.07424671 0.073092215
-0.09902833 -0.0054940972 0.035780597 -0.01838517 0.041065842 0.06352902 0.011775172 -0.17290239
0.062035285 0.013520853
00000000: e9d8 8fbb 0b3f b3bc 6e20 83bb bf76 133b
00000010: 4df3 9dbb 95ad e63d a73d d4bc 8da8 b53d
00000020: 24b9 143d f8a3 ec3d 8be8 493d 591f 20bc
00000030: 0518 98bd 99a8 543e 19bd e7bd 29a7 20bd
00000040: 2e35 5a3d 20b9 3b3d 7617 f0bd 34f3 043e
00000050: eb81 233e eb7a 2c3e c813 8d3c ff5a 283d
00000060: 6331 943d d5fe 483c 4551 003d 7404 c13d
00000070: a799 53bc 5b63 a03d 016e d43b 85a5 9cbd
00000080: fca8 48bd 1d65 fb3c 552a 6c3d deda 5e3d
00000090: bfa0 8cbd 0d4e 00be a90e 98bd 5fb1 953d
000000a0: 5dcf cabd d407 b4bb ad8e 123d 7f9c 96bc
000000b0: a834 283d 811b 823d a7ec 403c 530d 31be
000000c0: b618 7e3d 9186 5d3c
