STPINN-NS/sub_data/sub_write/08NS_model_train.pt (torch, 100091 bytes, 22 tensors)

base.0linear.weight f4 [50, 3]
00000000: 3f6a 5239 d4c3 35b9 9736 46b9 28f1 d1be
00000010: a69c 91bb a54c f83d 06de 6d3c e320 683e
00000020: f81f f5bd ad94 e3bc dbe8 9fbd cd50 adbe
00000030: bd84 2ebe 2c1b 063e 4789 823d b825 823d
00000040: 9ce5 18be 07ee 82be 5829 34be 34a6 d83e
00000050: 31c6 0ebe 981b 4d3d bb0c a13e 502d 71be
00000060: b516 d63d df5f 86bc f6ec b23e b26d 08bf
00000070: 1d9a b63e 77f2 693e f01a 0ebf 9834 0fbd
00000080: 1c81 90bc e6b9 b2be 9b8c 533e 7566 8bbd
00000090: ac4d 01be aca1 3ebd b807 07be f0e3 893d
000000a0: cf24 5e3e fc9d f3bc bc5f 90bd 7680 323e
000000b0: 82a9 fbbe 21ae 5a3b 1f9e 013e f505 14bd
000000c0: b72f 0abe 7589 7c3e 1a19 dd3c 5a2e 30be
000000d0: dbdf 3e3d b93f 0c3e 3122 58be 493e 4a3e
000000e0: c2e8 013e 835e d8bc 1602 8ebd 424d d4bb
000000f0: 2b04 673e 5d60 003d c868 27bd dab0 7a3d
00000100: 1d95 f73d ee2c ebbd 5fee 253e dc51 63be
00000110: 57f0 4abe a704 3cba 99bd 563a 90c1 53ba
00000120: efe2 2ebe 0ecd 57be 9634 413e 06d3 b43c
00000130: 0786 ebbd 8270 0bbe 9e5b 423e 3e39 103e
00000140: 7601 d1be ae10 453e d910 f63d 9a5d 3bbe
00000150: 49e3 50be 0b19 df3d 5b1f f13d 99f8 84bd
00000160: 75ce bd3c f190 b0bd 6b40 543d f1b7 273e
00000170: 53f1 6a3e 77d6 16bc c3aa 8f3e 9c3a b1be
00000180: 5f66 8cbe d258 4abe 2e1d a13d 6aaa 043e
00000190: fc6a df3d a142 073c f68a a93e a8e9 6fbe
000001a0: d631 1cbe 754a 1cbc f2c1 cd3d f58c 53bc
000001b0: baae ee3d 6e00 18bc d875 b1be 9bd1 0d3a
000001c0: 2a7a d3b9 8c7f b939 7cbc a6bd bd5c 9abd
000001d0: 947e 3abe 3dea cb3d 8ba1 2b3d 1a4b 6fbe
000001e0: d620 7b3e 9c7b 80be b7ed b8be 8289 2d3c
000001f0: 6137 f8bd 1cce 0dbe f532 8bb9 a554 29ba
00000200: 046a 7339 2833 5a3a 908e a23a c4d3 89b8
00000210: b1b3 55be 69ff dfbd f5fb 09be aac4 c93e
00000220: a572 7abe 0e38 ec3d d4d7 e43b a878 903e
00000230: 6487 963d c864 1c3a 22a3 bb3a d649 ae3a
00000240: 6c51 de3d 84d3 9abe 3fce 9b3e 3e90 8bbd
00000250: 2624 97be c3e9 ac3d
0.0002006674 -0.00017334457 -0.00018903088 -0.410043 -0.004443723 0.12123994 0.014518267 0.22668795
-0.11968988 -0.027780855 -0.078080855 -0.3385071 -0.17042823 0.13096303 0.0637384 0.063548505
-0.14931339 -0.25572225 -0.17593896 0.42314303 -0.13942792 0.050075144 0.31455025 -0.23552442
0.1045355 -0.016403137 0.34946412 -0.5329238 0.35664454 0.22846399 -0.55509853 -0.034962267
-0.01763969 -0.34907454 0.20659105 -0.068066515 -0.12627286 -0.0465409 -0.13186538 0.06732929
0.21693729 -0.029738419 -0.0704951 0.17431816 -0.49152762 0.003336795 0.12657975 -0.036138494
-0.13494764 0.2466181 0.026989508 -0.17205182 0.046600204 0.13696183 -0.21106793 0.19750322
0.12686446 -0.026412254 -0.069339916 -0.0064789364 0.22560184 0.0313419 -0.04087141 0.061203815
0.12088988 -0.11483179 0.16204213 -0.22199196 -0.19818245 -0.0007172324 0.00081917044 -0.0008077854
-0.17078756 -0.21074316 0.18867716 0.02207328 -0.11500173 -0.13617137 0.18980262 0.14084336
-0.40821427 0.19244644 0.12014932 -0.18297425 -0.20399202 0.108934484 0.11773559 -0.06492729
0.023169735 -0.086213954 0.051819246 0.16378762 0.2294362 -0.009206406 0.28059968 -0.34615028
-0.27421853 -0.19760445 0.07866894 0.12955633 0.109090775 0.008255632 0.3311383 -0.23428977
-0.15253386 -0.009539236 0.10046758 -0.012912025 0.1165442 -0.009277446 -0.3466022 0.0005409957
-0.00040336075 0.0003538098 -0.08141419 -0.0753722 -0.18212348 0.09956787 0.041902106 -0.23368493
0.24524245 -0.25094306 -0.36118862 0.010591866 -0.12119938 -0.13848156 -0.00026550112 -0.00064594514
0.0002321378 0.0008323663 0.0012402106 -6.5721135e-05 -0.20869328 -0.109373875 -0.1347502 0.39407855
-0.24457796 0.11534129 0.0069837365 0.28217053 0.073500425 0.00059659453 0.0014315585 0.0013297151
0.10855374 -0.302395 0.3043079 -0.068146214 -0.29519767 0.08443024

base.0linear.bias f4 [50]
00000000: 5b77 6339 f63c 8d3b 78c2 1bbe e38f 3e3e
00000010: ece6 8ebd df75 f83c ed24 4abe ed48 13be
00000020: 93c4 36be ccb5 803b ebf0 083e e16a 09be
00000030: 5947 113e b156 4ebe db1c ddbd 4092 d7bd
00000040: 32d9 22be 96c5 febc cf48 e8bd 911e 9e3d
00000050: 7bf9 90bd 8617 acbd d367 4e3e 20cd f3b9
00000060: 3ef2 e03d 72ff 153e b778 0b3d 25c0 ffbd
00000070: b9f7 bbbd d0a1 2a3d f367 55be 1e43 56ba
00000080: 4df4 263e ba08 30be f0fb 843d 8d3d adbd
00000090: 7525 e8bc db2f 07b8 ecd0 113e 72b5 383d
000000a0: 0163 4bbd 060c 3b3e 9082 5e3a fb98 deba
000000b0: e6e9 2c3e 3af4 d63d a78d 80be b503 42bb
000000c0: ee89 7e3d cb13 4d3e
0.0002169287 0.0043102456 -0.15210903 0.18609576 -0.069776386 0.030329643 -0.19740649 -0.14383288
-0.17848425 0.003927922 0.13373153 -0.13419677 0.14187373 -0.20150258 -0.10796519 -0.10525942
-0.15903166 -0.031100076 -0.11342012 0.07720674 -0.070788346 -0.08402924 0.20156793 -0.00046501402
0.10983704 0.14648226 0.03405067 -0.124878205 -0.09178109 0.041658223 -0.20840435 -0.00081734534
0.16304131 -0.17190829 0.06493366 -0.084590055 -0.028338173 -3.2231077e-05 0.14239854 0.045094915
-0.049654964 0.18266305 0.0008488083 -0.0016982848 0.168861 0.10495801 -0.25108072 -0.002960426
0.06214326 0.20027082

base.1linear.weight f4 [50, 50]
00000000: 108c 99bd 4e85 d83d 9618 45bd 7a3b cdbd
00000010: 970f 833e 6813 c63c a573 e93c fc55 c6bd
00000020: 527a 9abd 0a65 0c3e 8657 ef3d c437 b93d
00000030: 51f5 fcbd 8eec e7bd 86d8 3bbd 1410 9ebe
00000040: 6658 aa3d 0393 803e 242b 84bb 05ee 983d
00000050: 2140 89bd 3e8d 3fbe ed79 2fbe ce46 cdbc
00000060: 5fc7 1d3e a65e 1cbd ccb6 d6be d62c 12be
00000070: 6e9e 47bd 6b5c f8bd 782e 2fbd ffac 3dbe
00000080: acab b43e 7831 94bd 716d 18bd fc1e 843d
00000090: 8f18 043e d3ce 18be 0ed4 cfbd 0e46 36be
000000a0: 4df2 c93d f487 eabd f709 053e 3125 a0bd
000000b0: 5cc2 e8bc 8d64 60be 4aad 9c3c d2e0 a5bd
000000c0: e489 413e 3b87 363e 0f18 643d e350 e4bd
000000d0: 5cee f7bd 7d88 253e 9d79 a0bb 6a50 693e
000000e0: c436 f4bd 4751 86bc 1549 903e 7c4c 8c3d
000000f0: 8529 b13d 15c5 2a3d 890c c1bd dd50 d4be
00000100: b632 06be 83ee 91bd 74ee e9bd 07b9 373d
00000110: cd2e 863d 46fb 05be 5bda 263e f27f e8bc
00000120: 0cdf 1b3e 15a9 d4bd c7a6 763d 6521 283d
00000130: 9ec7 ecbd 67d3 8dbe 7a46 5d3e 0543 8dbd
00000140: 504a 62be 3e7a 54be 9244 87bd 6a48 003d
00000150: 6350 64be 18c6 3abe eb8a edbc 6d2d 453d
00000160: 5e4e 65be b406 dbbe 6407 b63d 3324 583e
00000170: 625a 67bd f8b2 ffbd 7689 7a3e 9ce1 e7ba
00000180: 5740 27bf e842 033e 1b57 e23c c1de 993e
00000190: 7e89 0cbe bf65 67bd 03a9 f93e 1f5b 90be
000001a0: 0ebe 0f3d 4a8e 08be 81e1 e73e 50b0 3e3e
000001b0: d204 a2bc 94b9 39be e2d0 bbbd 41f0 5fbc
000001c0: cb98 7cbc 628f 463d 3ea5 db3d 42ff c1bd
000001d0: 2219 be3d bfa6 c93b 57d8 913a 70ac 813e
000001e0: 78af 2f3c 170c 20be cc68 723d e41c 6e3c
000001f0: 3188 44be 470f a8bd 326b d1bc b14a 283e
00000200: bca5 4c3e 58a9 edbd cb3e 5739 53eb 723e
00000210: 0a29 a83c d990 29be 885e 363d b6fd 833d
00000220: ec7d 163c 1150 e43c 5a71 2c3e 52dc 2dbe
00000230: 8375 863e 283e f53d 30db bc3d 88a1 053e
00000240: 1a28 7fbe 209c 65be 435d 803e 74ea a03d
00000250: aa21 c1be 56de 77bd 60a7 993d 3190 c0bd
00000260: 02ea 8f3e a76d 203e f13b 0abd 3b4f 8f3d
00000270: d33e 0cbd eb14 633e 1507 c93d bb0b 9e3d
00000280: 0615 96be 055e 683e 7d30 af3d 3fb0 833d
00000290: aab2 243e ca99 093e 976c fd3d 985e ee3d
000002a0: 3b54 733e b9f5 43bb 8c05 7abd f16a 34be
000002b0: fcd1 dcbc 5c8c 40bd a02d c5bd fedf 0fbe
000002c0: 6ab6 d8bc 4e85 7fbd 6b45 4d3d 0e50 0cbe
000002d0: 572d fa3d d6b2 9c3d 2255 bcbe f0bf 20bc
000002e0: 2873 2cbd 2b6f 91bd c1dc 83be fe6d b3bd
000002f0: 09bb a3bc 319b debd 8830 b7bd f3a7 49be
00000300: 1210 6abc 8f2e fcbc 45e9 66be a6e6 ab3d
00000310: 53cb 943e 67e7 0ebd 80bd 093e 0648 83be
00000320: b5ae 473d 1018 833e ec17 afbe 4daa 893d
00000330: eaa3 4abd b68d 0b3e e9cd dbbe 5166 31bd
00000340: 2465 b53d 207c 81be b1b0 7bbd fd30 903c
00000350: ecad 303e f322 4abe 01c0 06bd 112d 023e
00000360: ee69 8cbe b594 5fbe aa10 66be 8c48 6e3d
00000370: cbf7 21be 81b0 b7be 7601 6f3e 5feb 9a3d
00000380: ce4d 693e 8054 72bd fdf3 8b3d 0162 a7bd
00000390: 82f1 21bd 418e 71be 92b3 a3be 8ed6 f0bd
000003a0: c79f 263e f237 66bd 28bd b2bd fee4 17be
000003b0: 620e d23d 1373 02bd 5cab e93d ac51 0c3d
000003c0: 3bc0 643e 4b3c 9fbb 5f1c 14bb 70eb 6bbd
000003d0: 4424 8f3d 84fc 403a 0e3e b2be 4424 73bd
000003e0: 4d84 a03d ec4c 773e 43b6 67bb 2d22 293f
000003f0: 2e51 f53e 3b54 ad3c d755 8e3e 56f0 2b3f
-0.07497418 0.10572301 -0.04811915 -0.1002111 0.25597832 0.024179175 0.028497526 -0.09684369
-0.07542862 0.13710418 0.11686616 0.090438396 -0.12351478 -0.11324416 -0.04586079 -0.30871642
0.08317642 0.2511216 -0.004033463 0.074672736 -0.06701685 -0.18706223 -0.17136355 -0.025058176
0.15408085 -0.0381762 -0.41936338 -0.14274916 -0.048735075 -0.12127002 -0.042768925 -0.18523024
0.35287225 -0.07235998 -0.037213746 0.06451222 0.12899993 -0.14922647 -0.10147868 -0.17800161
0.09860668 -0.11451712 0.12992083 -0.07819594 -0.02841299 -0.21913357 0.0191256 -0.08099522
0.18900257 0.17825024 0.055687007 -0.111482404 -0.1210601 0.16165347 -0.00489731 0.22784582
-0.11924508 -0.016396178 0.28180757 0.06850526 0.08650497 0.04169186 -0.09426219 -0.41467944
-0.13105282 -0.071255706 -0.114224344 0.04485419 0.06551895 -0.13084134 0.16294234 -0.028381322
0.15221804 -0.10383812 0.060217645 0.041047473 -0.115615115 -0.2770035 0.21608916 -0.068975486
-0.2209866 -0.20749757 -0.066048756 0.03131906 -0.2229629 -0.1823963 -0.028996905 0.048139025
-0.22393176 -0.42778552 0.088881284 0.21107559 -0.05648268 -0.124853075 0.244665 -0.0017691138
-0.6533255 0.12818491 0.027629426 0.3005276 -0.13724324 -0.056493517 0.48761758 -0.2819452
0.03509336 -0.13335529 0.45289233 0.18621945 -0.01977769 -0.18137199 -0.091707006 -0.013668121
-0.015417288 0.048476584 0.10724877 -0.09472515 0.092821375 0.006153911 0.0011127096 0.25326872
0.010722987 -0.15629612 0.059181973 0.014533255 -0.19192578 -0.08206039 -0.02556381 0.16434743
0.19985098 -0.116045654 0.0002052739 0.23722582 0.020527381 -0.16559161 0.044523746 0.06444876
0.009185296 0.02787021 0.16840115 -0.16978577 0.2626153 0.11974746 0.09221494 0.130499
-0.24917641 -0.22422838 0.25071153 0.078572184 -0.37720996 -0.06051477 0.075026274 -0.09402502
0.2810822 0.15666829 -0.03374857 0.06997534 -0.0342396 0.22175948 0.09815804 0.07717081
-0.29312915 0.22692116 0.0855417 0.06430101 0.1608378 0.13437572 0.123742275 0.11639136
0.237626 -0.00299011 -0.061040446 -0.1761892 -0.026955597 -0.047008857 -0.09627843 -0.1405029
-0.02645417 -0.06238299 0.05011503 -0.13702413 0.12215679 0.07651298 -0.367837 -0.0098113865
-0.04210201 -0.07101282 -0.2575436 -0.08761214 -0.019986646 -0.10869444 -0.089448035 -0.19692974
-0.014286058 -0.03078392 -0.22549923 0.08393602 0.29061374 -0.03488865 0.13451195 -0.25640887
0.048750598 0.25604296 -0.34197938 0.067219354 -0.049472727 0.13628277 -0.42930534 -0.043310467
0.08857182 -0.25290012 -0.061447803 0.017601484 0.17253846 -0.19739895 -0.032897953 0.12712504
-0.27424568 -0.21834071 -0.22467294 0.058174655 -0.15817182 -0.3587685 0.23340401 0.07564425
0.22783586 -0.059162617 0.068336464 -0.0817299 -0.03953696 -0.23589422 -0.3197294 -0.11759673
0.16271888 -0.056205697 -0.08727485 -0.14833447 0.102566496 -0.031848025 0.11409637 0.034257576
0.22338955 -0.0048594824 -0.0022599918 -0.057597578 0.06989339 0.00073618465 -0.3481297 -0.059360757
0.07837734 0.24150437 -0.003535644 0.66067773 0.47913498 0.021158328 0.27799866 0.671636

base.1linear.bias f4 [50]
00000000: a7a7 45bc 22e3 d73d 4128 d2bd b44b 04be
00000010: c9be 8b3d 8db4 86be 41d8 a9bc 54aa 5cbd
00000020: 68fa 1a3d c924 783c b68f 84bd 2d85 f3bd
00000030: e06d 173d 75fd 743d 641f 4f3d 3de0 a6bc
00000040: 8eae 4d3d 0de6 9dbb c666 ccbd c45f 0dbc
00000050: ce99 0c3e 2345 6ebc 3592 3e3c d960 0fbb
00000060: 25b9 1e3d 90ce 843a effa 023e 3975 043e
00000070: 8897 193e 501b 973d 2b28 6f3d eef5 f93d
00000080: 13c3 8e3d bd86 17be a62f c4bc 884c 4dbc
00000090: 46fe 163d a43f 243d bc5a 603d 56bf 07be
000000a0: 1cfc 90bd f417 17bd 058d 603d 14c0 033d
000000b0: 12af bcbc 35f9 12be 8585 d3bc 6f1b 84bc
000000c0: b3ab 7bbb 668c 80bd
-0.012063897 0.10541369 -0.10261584 -0.12919503 0.06823499 -0.26309624 -0.020733 -0.053873375
0.037836462 0.015145489 -0.06472723 -0.11890636 0.03697002 0.059812028 0.050567046 -0.020370597
0.050215296 -0.004818684 -0.0998054 -0.008628789 0.13730547 -0.014542851 0.011631538 -0.0021877794
0.038750786 0.0010132361 0.12791036 0.12935342 0.14999211 0.07378256 0.058387917 0.122051105
0.06970801 -0.14797492 -0.023948502 -0.0125304535 0.036863588 0.040099755 0.05477403 -0.13256583
-0.07079336 -0.036888078 0.054821987 0.0321656 -0.023032699 -0.14352877 -0.025820503 -0.016126363
-0.0038401901 -0.06276779

base.2linear.weight f4 [50, 50]
00000000: 7c0d ec3d 8086 173e 2337 06be a860 59be
00000010: f042 1c3e c2d4 e03c 6026 3b3c 414f 023d
00000020: 6c1c 183e 1f19 643c cb4b dbbc 7e9d b7bd
00000030: 50d3 72bd 047d fa3e 1e39 9b3e be4a 6dbe
00000040: f363 1abd 3f5e 4cbc cffc b0be 11d9 91bc
00000050: 96dd 903e 5ae6 fb3d 5e5b 233e b69f 0c3c
00000060: 0713 303c e59c a93c 6615 703e 9427 203e
00000070: 88af 0f3e c9f6 e13d bcba 5b3c 1e98 0dbe
00000080: dffa 62be 69cf 88bd 5965 183e 74d4 943d
00000090: 3a4d 633a b1b1 02bd e344 693d 9a10 a6be
000000a0: a3c8 87be 9df0 7c3a 167c 153d 1deb 90bb
000000b0: ced2 a03d e7f9 1abd d32f e03e d7df 5cbd
000000c0: c569 21ba 514e bf3d fe41 b13d 1cdc 3cbe
000000d0: 8fd5 09be 8f7f f4bc de8e 0bbc 8f15 223d
000000e0: 27f7 12bd 6e6c f33d d168 b43c e4be 8fbc
000000f0: de90 6abd 29b0 c9bd 96c9 31bd 944f a8bd
00000100: 3bbf 30be 0a9b 833d bb6b a3bd abb4 473c
00000110: 64c1 55bd 78f1 253e 00cc 353e d391 853c
00000120: eb68 b9bd cc09 4ebb 50b6 8fbd 9170 cdbc
00000130: debb 40be 37f1 93bc f27c 15be 22dd a13c
00000140: 8d6d 673e 3ba1 033e 9fc9 d33d a4f9 143d
00000150: 1ac3 debd 1f4f bbbd cf83 0e3c 366f 013c
00000160: e69f 5cbe a811 ffbd 3c4e ef3c b7f1 f73c
00000170: d276 093e cc20 b7bb ea89 aebd f100 44be
00000180: 9110 d7bb b153 ddba cace 9bbb eaca f63d
00000190: 2d02 f03a db15 77be 0360 f03d 3df9 3e3d
000001a0: 03b9 3a3c 7bc2 733d ea4a 82bb 89c4 e23d
000001b0: 37e4 cb3c 23f2 20bb 25d7 413c 94f1 6a3e
000001c0: e70a 19bd e4e2 1dbe 561c 68be b20b 30be
000001d0: b60c 113d 6932 313c 458c 35be c414 a13e
000001e0: c6b9 e3be d13d 0bbe b1ac a43e 19bb 22bc
000001f0: 8bb5 cabb b7b7 c0bc 509e c0be a6d3 7fbe
00000200: d0b8 a7be e4fa cfbd 9184 b13d bb01 80be
00000210: 9e00 fabd 7f7c fbbd 034a 583d 5a15 4f3e
00000220: 84d7 bb3d 00ed af3c dd9d 8d3d 29f7 f23d
00000230: 4639 453e 7849 603c 9568 87be 8760 633c
00000240: d33c 113e 8c28 e63d f504 72bd b5a4 b73d
00000250: d165 e53b 3d64 353d ae1d 87bc d14a e0bc
00000260: 5f09 1c3e bf2e 13bd 79db 95bc a512 173c
00000270: 05be b9bd 25e1 0f3f 7468 aabd d602 183d
00000280: aef8 183e 6eeb 1f3e f877 b0bd 88d6 27bd
00000290: 62f6 81bd 9134 ef3b 4376 b73d 98c3 8d3c
000002a0: 0ee3 0a3d 05eb 4abd 9b47 a83d 4edb 023d
000002b0: 8846 76bd e57f 9ebd cf5e d4bd 6e9d d9bd
000002c0: 2da7 ac3d 79bd 173e ed88 39bc cd4d e83d
000002d0: 691d 3c3e d18e a03d 2483 cfbd a93c 1b3e
000002e0: fb83 c03c 4669 53be 3dc9 0ebe a14c 44bd
000002f0: 7268 7bbe 10e2 97bd 2abb debd 02b9 873d
00000300: 11f4 dbbd d9e8 023e a8e3 aa3d feac 163e
00000310: b903 ab3d 9974 023e 5db0 483d 55d5 3ebe
00000320: 0e26 633e b41f ab3d 2d09 38bd 67e5 4c3d
00000330: ccba 63be 06b2 523d 5c6d 8c3b 8abf 8bbc
00000340: 546d 11be 3bf5 e93b 49e5 d1be 005d e0bd
00000350: c53f b83b ea56 aa3d 48f1 853e cdfd 51be
00000360: 9800 473b 9c14 72ba 6c39 2d3e 7bc4 58be
00000370: 4e8a 41be e9f3 ffbd 1c59 8cbe bb0c 0f3c
00000380: 4317 ecbb b078 423c 699d 01bd d9e4 f0bd
00000390: 1750 3d3e 86d4 46be 145f 6e3c 9e0e 3e3e
000003a0: d232 0dbd 3743 7e3e ace7 90be 9052 94bd
000003b0: a705 dabd db84 943c a241 40be 0722 ccbd
000003c0: bca0 c7bd 6e91 20bb 6e8c 313d 0650 edba
000003d0: add8 343d 4644 ee3d 9583 ce3d 07af dd3d
000003e0: ebe8 11bc c9c0 733e e8ca adbc 7fcf 15be
000003f0: ecf1 80bd 7d4c 253e 0f44 373c d442 723d
0.115260094 0.14797401 -0.1310697 -0.21228278 0.1525991 0.0274452 0.0114227235 0.031813864
0.14854592 0.013922005 -0.02676954 -0.08965586 -0.059283555 0.48923504 0.30317014 -0.23173043
-0.037692975 -0.012473642 -0.34567878 -0.0178037 0.28294057 0.122997954 0.15952823 0.008583
0.010746724 0.020704696 0.23445663 0.15640098 0.14031804 0.11033399 0.01341122 -0.1382756
-0.22166012 -0.06680185 0.14882411 0.07267085 0.00086708704 -0.03190774 0.05695046 -0.3243454
-0.2652026 0.0009648891 0.03649529 -0.004422559 0.07852708 -0.03783598 0.43786487 -0.053924408
-0.00061574235 0.093411095 0.08655165 -0.1844334 -0.13460372 -0.02984598 -0.008517949 0.03957134
-0.035880234 0.11885916 0.022022637 -0.017547078 -0.057267062 -0.09848053 -0.043405138 -0.08218303
-0.17260449 0.06426056 -0.07979532 0.012189071 -0.052186385 0.16205394 0.17753601 0.016304886
-0.09053215 -0.0031438945 -0.07017195 -0.02507809 -0.18821666 -0.018059356 -0.14598444 0.019758765
0.22600384 0.12854473 0.103411905 0.03637089 -0.108770564 -0.091459505 0.008698418 0.00790005
-0.21545371 -0.124545395 0.02921211 0.030266626 0.13424233 -0.0055886265 -0.08522399 -0.19140984
-0.006563254 -0.0016885904 -0.004754876 0.120504215 0.0018311195 -0.24129431 0.11737063 0.04662441
0.011396649 0.059511643 -0.0039762156 0.11072642 0.024889095 -0.0024558387 0.01183108 0.22943717
-0.037363913 -0.15418583 -0.2266706 -0.17191961 0.035412513 0.010815241 -0.1772929 0.31461155
-0.4447767 -0.135978 0.32163003 -0.009932303 -0.0061861924 -0.023525102 -0.37620783 -0.24983081
-0.32758188 -0.101552755 0.08667863 -0.2500132 -0.12207149 -0.12279605 0.052804958 0.20222989
0.09171966 0.021475315 0.06914876 0.11863548 0.1926013 0.013689391 -0.26446977 0.013877994
0.14183359 0.112382025 -0.05908676 0.08966962 0.007000663 0.044285048 -0.016493645 -0.027379425
0.1523795 -0.035933252 -0.01829313 0.009220754 -0.090694465 0.5620292 -0.08320704 0.03711208
0.14938614 0.15617153 -0.08616632 -0.040976077 -0.06345822 0.0072999676 0.089581035 0.01730518
0.033907942 -0.04954054 0.08216783 0.031947426 -0.060125858 -0.07739238 -0.10369646 -0.106257305
0.08430324 0.14818372 -0.01132415 0.11342964 0.18370594 0.0783974 -0.10132435 0.15159859
0.023500433 -0.20645627 -0.13943954 -0.04792464 -0.24551561 -0.07416165 -0.108755425 0.06627084
-0.10739911 0.12784137 0.08344203 0.14714429 0.083503194 0.12739791 0.048996318 -0.18636067
0.22182485 0.08355656 -0.044930626 0.050023463 -0.22239226 0.051439308 0.0042854976 -0.017059106
-0.14201862 0.0071398295 -0.40995243 -0.10955238 0.0056228363 0.08317359 0.26160645 -0.20506974
0.0030365344 -0.00092346384 0.16916436 -0.21168701 -0.18900415 -0.12497694 -0.27411735 0.0087310625
-0.0072049215 0.011869594 -0.03164426 -0.11762399 0.18487583 -0.19417009 0.014549036 0.18560264
-0.034472294 0.24830328 -0.28301752 -0.0724231 -0.10645609 0.018129757 -0.18775037 -0.09967428
-0.097474545 -0.0024500745 0.043346815 -0.0018105514 0.04415195 0.11634116 0.10083691 0.108243994
-0.00890563 0.2380401 -0.021214917 -0.14629935 -0.06296143 0.16142459 0.01118566 0.059145764

base.2linear.bias f4 [50]
00000000: 736a f63d 1dc1 1d3d bb8e 16be c4b6 173d
00000010: 141b a93c 60c3 0abd f4e5 cabd f67e 23bc
00000020: ccb7 a43d 187b 3dbe 98dc 93bd f24c 483d
00000030: 47bb 04be 36d2 aabc 30b3 c13d 5d7a 1cbe
00000040: 68d6 723d cf7d 80b9 119b 8a3d ea11 12be
00000050: 9bd8 babd 4ea1 883d 168d 45bd 27dc 263e
00000060: 0c0d 5c3d a735 b1bd 6fb6 42be 5e68 55bd
00000070: de75 0e3d 8fef 24be dff5 fbbc d223 b1bc
00000080: 0ffa 763b d15f a33c f77d 10be d4f5 6cbd
00000090: 30bc 3c3d 3715 0fbc 2091 7b3d b02c 3dbc
000000a0: 6eb2 c3bd b26e a73c 08e3 9f3d 4bdd dbb9
000000b0: 84b2 493d d7c7 e7bd 0856 ffbd a657 2d3e
000000c0: 0e16 4bbd 30cf 44bc
0.12032022 0.038514245 -0.14702885 0.037039533 0.020642795 -0.03387773 -0.09907141 -0.009979
0.08042869 -0.18503988 -0.07219809 0.048901506 -0.12962066 -0.02085219 0.094580054 -0.15281053
0.059286505 -0.00024507797 0.06767858 -0.14264646 -0.091233455 0.066713914 -0.048230253 0.16294919
0.05372338 -0.086528115 -0.19014905 -0.052101485 0.034780376 -0.1610701 -0.030756889 -0.021623526
0.0037685668 0.01994315 -0.14110552 -0.057851627 0.046077907 -0.008733085 0.0614177 -0.011546299
-0.09555517 0.020438526 0.07806975 -0.0004193581 0.04924251 -0.11317413 -0.12467581 0.16927966
-0.04958158 -0.012012288

base.3linear.weight f4 [50, 50]
00000000: 958a 393d 89c9 9cbd 5a73 9d3e b220 413c
00000010: 70f0 17be febb 4abe 84e6 3bbe 922b 563e
00000020: 0028 0bbe 3048 763e f887 c63d 1ac5 68be
00000030: 5225 093e b70e 0e3c 39e8 f63c 8904 f63e
00000040: e954 dbbd 4abd 553d 4a04 f1bd 2b2f 503d
00000050: 6516 4c3d 55dd 8ebe a7c0 3fbd 7cff bcbc
00000060: 4fbb 833d 6cdc 52be 666a 0f3f f316 873e
00000070: 400f 95bd 9003 223e 9401 97be 3b57 65bd
00000080: d03c 80bd e82d aebe cd02 ae3c aaa0 6bbd
00000090: 3060 c1be 85c0 3e3e c101 dc3d 7069 56bd
000000a0: b1e3 c43d 1f20 4bbe 0572 b23d 9127 51be
000000b0: 6196 a5be 4dbb ecbd 0576 5fbd 7455 a23c
000000c0: 1db5 033e 42a6 3a3e c26d 073d fb91 963d
000000d0: d0e4 26be 6e57 15bc cdf2 10bd 95f2 a1bd
000000e0: dee2 b4be ba86 c4bd 6c50 50be 984d 33bd
000000f0: dd26 163b ae3f 8fbd eaef 3fbe 819e 083c
00000100: 4d42 213e 9cbb 2abe c98e 08be 9a50 043d
00000110: ce72 063e f139 2dbe 49bb dbbc 1911 af3e
00000120: 8f04 a73d 8e97 96bc 416e ac3e 490d 66bd
00000130: dd2e 05bd db8f 09be 5450 95bc 4b1e a5bd
00000140: 9497 823b 3e03 dabd c6e7 2f3e bac0 a1bd
00000150: 134d 1bbd f9d9 043d f4ff 91be 6232 9a3e
00000160: 49f8 6b3d b210 d1bb 6ec2 a43d 847c f13c
00000170: a1da e43d c1fb cbbd 139d 36bd 2760 51be
00000180: 717e 82be dd7e edbd 3e67 2f3e 62c0 a13d
00000190: 52a5 0f3e 1048 0abd 8909 d4bc 579d 7fbb
000001a0: d5c1 e5bd 8059 ce3d 85c1 47be 2f6d 413e
000001b0: 623f a23e 98fd b13d 4733 693e b1c7 983e
000001c0: 21ea a23e 47c0 03bd 3bbb ccbe 88f6 2c3e
000001d0: ff7d 87be 1a4a dabc accf 39be 7aba 603e
000001e0: 6cc2 483d 8fdf 8bbe 9392 b0bd 8a76 9b3c
000001f0: fad8 84be 3d6e 623e d1f1 b03d d7da fabc
00000200: e1fb a23e ddd7 0f3e 12c3 27be d443 2c3e
00000210: eeef 50be bd31 363e c0b0 fabd bbf5 21bd
00000220: 56a8 1d3b 5e74 5fbb 02d7 7e3d 1127 593c
00000230: 3291 84be 8019 373e 2c2c bdbb c93a 4a3e
00000240: 414d e1bc 9a1d 863e 1534 013d 4894 243d
00000250: 4b4f ba3e 9751 11bd 54ba 983e a4dd 0f3e
00000260: f269 b53d 64c3 b83c 4d70 86be 5a70 8cbc
00000270: 36bd ac3e 1f36 333d 275b 353e 4586 69bb
00000280: d820 53be 908e fa3d a0d2 b03e 44f8 0bbc
00000290: 765a 283e 7a70 17be 2a68 7cbd 2ddb c5bb
000002a0: 7638 3f3e b21b a53d dea2 5ebc c18c f43d
000002b0: e138 b0bd c6bd 4d3d 8eba 25bd 15a7 6f3e
000002c0: 0297 17be 1f2b e13d b96e 083d 6ba1 89be
000002d0: 09f4 21be b3d8 a5bd 9de3 cb3d 36e9 01be
000002e0: 4914 80be 9476 0bbe 415d f53d 0352 d5bb
000002f0: 5c0f ab3d fa2f 08bd 0af8 163d af8b a33d
00000300: f93e 013d 3030 46be 2482 413d a76b 603d
00000310: 9e89 de3d d25a 5d3c 054e 17be ece2 213e
00000320: 18c8 5dbd 8141 873e 34b3 513e 1c64 e0bb
00000330: e301 96be f49f 2b3e 3091 4fbe f475 2ebe
00000340: 9155 2b3e 1f58 423e 2d2e c63d 9168 36bd
00000350: 36ed 09be 7756 893c 75ab c6bd 32aa ff3b
00000360: 3677 0ebe 9501 1bbb f9d6 37be c87d c43d
00000370: 01fb 743d b232 423e 1ffb c7bd ca9c 123e
00000380: 4e05 0a3e d8b7 653c 098c 3c3d 561b bfbe
00000390: 645b 103e f9af 423e a8fd 70bd 1ce0 673d
000003a0: 8746 a8bd bcde edbd a058 6c3e ec80 32be
000003b0: f941 85bd b8ef 933d 09c2 5ebd e677 253c
000003c0: 778f f7bd ee9d 523e abac 0fbe 523d 2bbe
000003d0: e168 7abd d3bc 0a3e 0060 d5be ac33 853e
000003e0: 6fac 2a3e 2058 19bc 5c67 3fbe 7bfb 7a3e
000003f0: e8e2 cabd f8e8 853c 90f2 25be f40e 9b3b
0.045298178 -0.07655627 0.3075207 0.01178758 -0.14837813 -0.19798276 -0.18349653 0.20915058
-0.13589478 0.24050975 0.09693903 -0.22731438 0.13393143 0.0086705005 0.03014003 0.48050335
-0.10709555 0.052182473 -0.11768396 0.050826233 0.049826045 -0.27903238 -0.046814587 -0.023071043
0.06432211 -0.20591897 0.56021726 0.26384696 -0.07278299 0.15821671 -0.29493392 -0.055991393
-0.06261599 -0.340194 0.02124157 -0.057526268 -0.37768698 0.18628128 0.10742522 -0.052346647
0.09613741 -0.19836472 0.08713154 -0.2042525 -0.32341293 -0.11559162 -0.05455591 0.019816138
0.12862058 0.18227485 0.033063658 0.07352062 -0.16298223 -0.009115083 -0.035387803 -0.07907597
-0.35329336 -0.095960096 -0.20343179 -0.04377517 0.0022911348 -0.06994568 -0.18743864 0.0083385715
0.15747948 -0.1667313 -0.13335718 0.03230343 0.13129732 -0.16916634 -0.026822703 0.34192732
0.08155166 -0.018382814 0.33677867 -0.056165013 -0.032515395 -0.13433783 -0.01822678 -0.080624186
0.0039853547 -0.1064515 0.17178258 -0.07898088 -0.0379153 0.032434437 -0.2851559 0.30116564
0.05760983 -0.006380164 0.08044897 0.029478319 0.11174513 -0.099601276 -0.04458339 -0.20446835
-0.25487092 -0.11596463 0.17129228 0.07898022 0.14027908 -0.03376013 -0.025883453 -0.0039003694
-0.11218611 0.100756645 -0.19507416 0.18889306 0.31688982 0.08690947 0.22773467 0.29839852
0.3181925 -0.03216579 -0.39986596 0.16890919 -0.26463315 -0.026646663 -0.18145627 0.21946135
0.04901354 -0.27319 -0.08621707 0.018977422 -0.2594679 0.22112365 0.08639873 -0.03062193
0.31832793 0.14047189 -0.16383007 0.1682275 -0.20404026 0.17792411 -0.12240744 -0.039540987
0.0024056635 -0.003409646 0.062216766 0.013253943 -0.25892025 0.17880821 -0.005773088 0.19748987
-0.027502658 0.2619446 0.03154381 0.040180475 0.3638862 -0.0354782 0.29829657 0.14049393
0.08858098 0.022554107 -0.26257554 -0.017143417 0.33738106 0.043752786 0.17710553 -0.003563301
-0.20617998 0.12234223 0.34535694 -0.008543078 0.16440758 -0.14789 -0.061622776 -0.0060380907
0.18673882 0.08061923 -0.013588635 0.11940909 -0.08604599 0.05022981 -0.040461116 0.2340358
-0.14803699 0.10994553 0.03330872 -0.26880965 -0.15815748 -0.08097973 0.09955523 -0.12686619
-0.25015476 -0.13619453 0.119806774 -0.0065100207 0.08352539 -0.03324888 0.036857642 0.07985627
0.031554196 -0.1935432 0.047243252 0.054790165 0.10866092 0.013510423 -0.14775856 0.1580922
-0.054145902 0.26417163 0.20478517 -0.0068478715 -0.29298314 0.16760236 -0.20270228 -0.17037183
0.1673186 0.18978928 0.09676776 -0.044533316 -0.13469395 0.016764862 -0.097006716 0.0078022713
-0.13912663 -0.0023652066 -0.179531 0.09594303 0.05980969 0.18964651 -0.097646944 0.14317623
0.13478586 0.014020883 0.046031985 -0.37325543 0.14097363 0.1901244 -0.058835655 0.05661021
-0.08216577 -0.11614749 0.23080683 -0.17431992 -0.06506724 0.07223457 -0.054384265 0.010099387
-0.120879106 0.20568058 -0.14030711 -0.1672261 -0.061135177 0.13548593 -0.41674805 0.26015985
0.1666734 -0.00935939 -0.18691772 0.24509995 -0.0990656 0.01634644 -0.16205812 0.004732007

base.3linear.bias f4 [50]
00000000: fd12 aebd c912 0f3e 3230 bcbd 5d0b c9bd
00000010: 641c 84bc a401 e9bc 663f e03d 98c2 bc3c
00000020: 207f 9b3d 1b44 f13c ee49 37bb d621 be3d
00000030: 3034 b8bd ea18 a1bd 7ebb 1ebd 1dbe 393e
00000040: d2d3 e73d f8eb 40bd b31a 613d 2f7c e8bb
00000050: afb5 11be b4f1 e2bd 116f 87bd ab99 86bd
00000060: 09b7 58bd 1c29 32be a3d5 cdbc c27e f43a
00000070: 394a d2bc b9fd b53d 3f48 71bd 7ddb 953d
00000080: 7c76 363d 07d6 0cbc 95a8 1fbe 20d2 2c3e
00000090: f8c9 553d 23e2 11bd 8ad5 633d e255 40bd
000000a0: 6c38 e7bd 1975 1ebd b163 5bbe 913a 6d3c
000000b0: 6bae d63c 0603 8cbc 883c 2f3d 9795 3b3d
000000c0: c321 f8bd 055c 2ebe
-0.084997155 0.1397201 -0.0918888 -0.098166205 -0.016126819 -0.028443165 0.10949592 0.023042008
0.075926065 0.02945142 -0.002796765 0.092837974 -0.08994329 -0.0786608 -0.038753025 0.18138929
0.113196984 -0.047100037 0.054957103 -0.007094882 -0.14229463 -0.110812575 -0.06612981 -0.065722786
-0.05290893 -0.17398494 -0.025126284 0.00186535 -0.025670158 0.088862844 -0.05890679 0.07317255
0.04454659 -0.00859595 -0.15591653 0.16877031 0.052194566 -0.03561605 0.05562357 -0.046956904
-0.112900585 -0.03868589 -0.21424748 0.014479295 0.026206216 -0.017091285 0.042782336 0.045796957
-0.121158145 -0.1702729

base.4linear.weight f4 [50, 50]
00000000: a028 623e b973 273e e84e 003c 857e ac3c
00000010: 70f7 a7bd 28e9 8b3d d06f c9bc 9227 4b3e
00000020: 8de7 b43d f40f 0dbd 6f75 c7bc 08a4 adbd
00000030: 035f 5d3d 52b8 ba3e 5d06 cfbc ac3e 133e
00000040: ede0 84bd 6622 bebd b7be 983d 0b89 a03d
00000050: e3fc 88be 1ce2 6f3d 6e0c 8dbe cb2c b0bd
00000060: 8d01 f2bb eca3 e4bd 8c2c b13d 74d7 8ebe
00000070: b7c5 84be 541b 593c dce8 61be 3041 5abe
00000080: 2d0c df3d a876 503b ac5a 1fbf 9ef5 17bd
00000090: c745 1e3e c453 eb3c 2bf7 483c abc5 b0bd
000000a0: a634 4ebe 5f94 0e3e e9df 2abc 503d 92bb
000000b0: 4a3a 48bd e8bd 173b 5a89 9b3e 6c41 2c3e
000000c0: 3d46 efbd d441 843e 02ed 2c3e 52c4 51be
000000d0: 2e97 833d a3d0 1ebe 2724 243e 28bf babe
000000e0: 6524 293e 1857 8cbd 93a7 723e 7535 5bbe
000000f0: fef4 813d 7fc3 bb3d c8bb aebd b8c6 323d
00000100: 2952 5bbd 26d9 0abf 123c 83be 28a2 d9bd
00000110: d706 0e3e 8c1e 60be 0222 853e cb63 803e
00000120: 2846 0cbf d742 69bd 202e 203e 1eda 4f3d
00000130: 3102 14be 6c4f 0bbf 29d1 4fbd f57e 01be
00000140: feb4 eb3b eb49 4cbe 498c e23d 0675 dfbd
00000150: 4570 c8bc 05a9 91be c611 6cbe 6afd 4e3e
00000160: d6fd d5be 01b8 713e b8dd f8bd c032 ad3e
00000170: ae71 cb3e ba1e 75bc 632f 533d 08f4 bf3c
00000180: 3f24 e2bc b58d d8bd 17a4 23be 7242 68bd
00000190: 1604 c23d 6563 693e db61 003e 0d95 4b3d
000001a0: 80ac 1ebe 1fdf 43bd 22f4 5ebe c7e2 79bb
000001b0: aca7 2fbe c9ad 78bb 5956 dcbc 4684 e1bc
000001c0: cf05 c43d cf06 34be b89b a43d f3b4 c23e
000001d0: 750f 5c3e 1db2 703d ec4f 37be 84d8 9a3e
000001e0: 0bda fdbd 4dd9 c0bb bc61 923e 9016 dabd
000001f0: ec58 f9bd 0e4b 70bc c134 cd3e b0ef 593e
00000200: 3e69 ebbd 7f32 89bd 54c0 3a3e 6f57 293d
00000210: c642 9e3d e32e 2e3e 1725 ffbb d461 bdbd
00000220: 8b73 b83d fb2e 273e 372e dcbd 21c1 02be
00000230: a789 163e 5791 00be ad1f 8b3e e51d 50bb
00000240: 5d55 d93d 2369 03be 6560 cabc 0818 debe
00000250: c5c9 be3e c221 3dbe fe6c 95bd 3ffe 6bbe
00000260: 31d5 2ebd dda4 6abc 1b31 aa3c 8e09 cabd
00000270: ae5f 96be f4b4 063e 75cd 75ba 1363 a0bc
00000280: e5b9 2a3c 3006 14be b612 523e 6ce6 ca3e
00000290: 8968 3ebe 2b26 11be f451 b1bd 5dfc 633e
000002a0: 5f3f 8cbd f418 21be 2b54 993d 1c15 1f3e
000002b0: 12df 543e e30e 6e3e 9a67 12be 9c32 f63e
000002c0: 0c5d 303e 1eba e53d 615a 49be 739c b9be
000002d0: b5b0 783e e28a 92be 956f 993c a13e c23c
000002e0: 31e7 143e fea0 2ebe 1456 16be 846f 17bd
000002f0: 5fbc 143d 7b2f 1f3e a2ad 6d3e b0e2 38bd
00000300: 82d3 853e f146 1bbc 0def 9dbe 5706 e33d
00000310: 3c49 e83b aca5 f3bd 06e5 e73d badb 2f3e
00000320: ead1 06be 9df7 4abe 761b 57bd 7257 e4bb
00000330: 1143 46be 3655 cebd 86bf 1e3e dd0a 013d
00000340: d4ee 0c3e e73e a33c cce4 fbbc eb93 40be
00000350: 7fee 813c 3eff aabe 43ad a4be 1ef4 43be
00000360: 089b 9dbe e9e4 ff3c bfb8 3fbd 2d15 14bd
00000370: 774d 56bd 7a80 aebd 82f3 1c3b e3fc 96bc
00000380: cfbc 6c3e 4e21 063e 42a5 83bd 8bef 913e
00000390: 39a3 c83d 27d4 093e 8f5f 433e 48f9 a53d
000003a0: 5621 4d3e cdbe 37bc f2b0 4dbd ae00 13be
000003b0: 5a71 95be f00d 10bd 333d 923e 9d6f ccbd
000003c0: 8a3d 5f3d 01e3 253d a86e 81bd 6ee9 28b9
000003d0: 9341 00be acd9 ce3d ffb3 fabb dde3 d9bc
000003e0: c003 01be fabd b7bd 2eeb 3c3e e22b 81be
000003f0: de9a 4c3e 5540 333e 5cb5 f0bb 0d70 cfbd
0.2208581 0.16352738 0.007831313 0.021056423 -0.08201492 0.068315804 -0.02458945 0.19839314
0.08833227 -0.034439042 -0.024347989 -0.08478552 0.05404569 0.3646875 -0.025271589 0.14379376
-0.06488214 -0.09283905 0.07458251 0.07838639 -0.26755437 0.058565244 -0.27548546 -0.086022936
-0.007385439 -0.11164078 0.08651075 -0.27898753 -0.25932094 0.013251144 -0.22061485 -0.2131393
0.10890994 0.0031809006 -0.6224773 -0.037099473 0.15456305 0.028726466 0.012265961 -0.08631452
-0.20137271 0.13923787 -0.010429361 -0.0044628754 -0.048883714 0.0023153964 0.30378228 0.16821831
-0.11683319 0.25831473 0.16887286 -0.20485047 0.064253196 -0.15509276 0.16029416 -0.36473966
0.1651779 -0.06852549 0.23696737 -0.21407111 0.06345557 0.09168147 -0.0853191 0.043646544
-0.05354515 -0.5423759 -0.25631768 -0.10626632 0.13869797 -0.21886653 0.26002508 0.25076136
-0.5479455 -0.05694851 0.15642595 0.050745122 -0.14453961 -0.54418063 -0.05073658 -0.12646087
0.007193207 -0.19950072 0.110619135 -0.10910992 -0.024467597 -0.28449264 -0.23053655 0.20213857
-0.41795224 0.23605348 -0.121516645 0.33827782 0.39735168 -0.014960939 0.051558863 0.023431793
-0.027605174 -0.105739035 -0.15980564 -0.056703992 0.094734356 0.22791822 0.12537329 0.049702693
-0.15495491 -0.047820207 -0.21772817 -0.0038129555 -0.17153805 -0.003794538 -0.026896643 -0.027528893
0.095714204 -0.17580722 0.080375135 0.38028678 0.21490271 0.058763612 -0.17901582 0.30243313
-0.12395104 -0.0058852793 0.2859019 -0.10648835 -0.121751636 -0.014666332 0.4007931 0.2128284
-0.11494683 -0.066990845 0.1823743 0.04134315 0.0772758 0.17010073 -0.007786404 -0.09247175
0.09006413 0.16326515 -0.10751002 -0.12768985 0.14700948 -0.12555443 0.27172604 -0.00317561
0.10611985 -0.12833075 -0.024704168 -0.4337771 0.37263313 -0.18469909 -0.07296179 -0.23046206
-0.042683784 -0.014321533 0.020775368 -0.09865104 -0.29369873 0.13154966 -0.0009376624 -0.019578492
0.010420297 -0.14455485 0.2051495 0.39628923 -0.18594564 -0.14174716 -0.086582094 0.22264238
-0.068480246 -0.15732175 0.07486757 0.15535396 0.2078822 0.23247866 -0.14297333 0.48085487
0.17222995 0.1121714 -0.19663383 -0.36252174 0.24286158 -0.28621584 0.018729964 0.023711504
0.14541318 -0.17053601 -0.14681274 -0.036971584 0.036312457 0.15545456 0.23210767 -0.04513806
0.2613793 -0.009477363 -0.30846444 0.110851936 0.0070888083 -0.11896834 0.1132298 0.17173663
-0.13166013 -0.1982102 -0.052516423 -0.006968432 -0.19361521 -0.100748464 0.15502748 0.0315045
0.1376298 0.019927455 -0.030748747 -0.18806426 0.015860794 -0.3339786 -0.32163438 -0.19136092
-0.30782342 0.031237083 -0.046807047 -0.036153007 -0.05231997 -0.08520599 0.0023948853 -0.018431133
0.231189 0.13098642 -0.06428005 0.2850307 0.09796757 0.13459836 0.19079421 0.08104187
0.20032248 -0.011214924 -0.050217576 -0.14355728 -0.29188043 -0.03516954 0.28562316 -0.09982226
0.054502048 0.04049969 -0.06319934 -0.00016108688 -0.12525015 0.10100111 -0.0076508517 -0.026597911
-0.12599087 -0.08971782 0.18449089 -0.25228792 0.19980952 0.1750501 -0.0073458385 -0.10128794

base.4linear.bias f4 [50]
00000000: f93d b33d 3c4a 06bd 90d9 723c 6d20 9bbd
00000010: eb81 c8bd 6171 0dbe 31c7 cf3d c2d2 963d
00000020: 1794 4d3d 3d45 6bbe 0739 493d b016 36bd
00000030: fbe4 2cbd f36c 4c3d 376f 8d3d f2fb e4bd
00000040: d2cd f63c b6ff ffbd 9db6 ca3b ed32 8cbc
00000050: e738 1c3c 40a9 ad3d f65d 8ebd f17e 65bd
00000060: 43c0 e73d 3427 b3bb 3338 aebd 380e 973d
00000070: 6065 7abc 3eb8 a6bd ca5d 3d3d 17ac 393d
00000080: 7c1d 80bd 5fca c83c 83a1 55bd ed45 89bd
00000090: d72d 71bc 39a8 b53d e8b4 04bb c595 cfbd
000000a0: a3c0 983b 1b99 07be a91c 4e3c 8dab 56be
000000b0: 8d3c 5a3d aa72 ee3d 07fb 0e3d b48a 4fbd
000000c0: 4150 313d 0aca d23c
0.08752055 -0.03278564 0.014822379 -0.07574544 -0.09790405 -0.13812782 0.101454146 0.073644176
0.050190058 -0.22975631 0.04912665 -0.04445523 -0.04221056 0.04990859 0.06905978 -0.11180867
0.03012744 -0.12499945 0.00618632 -0.017114127 0.009535051 0.084795475 -0.069515154 -0.056029264
0.11315968 -0.00546732 -0.08506813 0.07375759 -0.015282959 -0.0814061 0.046232022 0.045330133
-0.06255624 0.02451056 -0.052155983 -0.067027904 -0.014720402 0.088699766 -0.002024943 -0.10135988
0.004661636 -0.13241999 0.012580075 -0.20963879 0.053280402 0.11642964 0.034907367 -0.050669387
0.043289427 0.025731105

base.5linear.weight f4 [50, 50]
00000000: eaec f3bc 5505 b93c a0b5 423d af05 ee3e
00000010: e98c 03be 8961 b4be 4a0f ca3c 3984 56bd
00000020: ff28 29be a589 4d3d bc7f 453d 3361 133d
00000030: c338 21bd dca7 c2be 4b8e 413d b7f6 83be
00000040: 3593 85be 2091 ae3d 0739 bbbd e22c 97bd
00000050: f591 ee3d a15a 1d3e 04f9 3d3e c4fd d1be
00000060: f8dd d23e 2102 4dbe 4e2b ad3d 2d66 49bd
00000070: c2b3 8bbd d5e9 5cbe 6b4e 4fbd bac3 7c3d
00000080: d5ff cbbd 4836 07bf 0ee5 37bd f5d7 603d
00000090: 26b8 30be 6893 c03e e8e3 923c 028a 8fbe
000000a0: aa7b 9cbd 074f bc3d ef07 253e 8727 51be
000000b0: 3b35 84be d5b7 56be 40ed 433d 7558 263e
000000c0: 57db 2cbd c762 823e 67e8 0abe 9918 143e
000000d0: 0fb4 c7be 8a05 a4be e084 8abd 7ba9 003e
000000e0: 527c 2bbe 7602 103d 28d3 cfbe e18b 683e
000000f0: 1369 dd3d 84ea 463e 6103 adbd 493a 5f3e
00000100: 6e88 8a3c 24d3 07be 2d27 32be c6d8 31ba
00000110: f6c9 f8bc 5584 afbd 40b4 aabe 0f63 8c3d
00000120: 68c8 09bd 829b f03d 0dfb f0bd 707c 203e
00000130: 6ffd 263e 20b1 2d3d 0efe c0bd 5c87 c1bd
00000140: 5bc3 4a3e cb03 aabd fb93 62be 389c 213e
00000150: b243 a5be 3520 1cbe 1ecf 553c a89c 663e
00000160: 91da c43d 6f1d fa3d 279c 1fbe 1017 853d
00000170: 5576 9d3e 78c1 293d cbe5 a1bd c5a3 923e
00000180: 272a ae3e 661e 053e dc2e 203d 2b89 69be
00000190: 8942 603e 2995 7fbd 50c7 56bd c1ac 8b3e
000001a0: 72d9 b73c 41c2 3dbe 6905 f2bc 030e 56bd
000001b0: 6460 a0be 4acf d7bd 1508 ecbd 0753 7d3e
000001c0: 4d20 b13d 10da 46bc ee61 d73d 6ba0 993e
000001d0: 4878 b93d 9c00 b0bd cad2 683d f841 b43c
000001e0: 3700 35bd d3e4 933e 6e75 16bc 97ed e93d
000001f0: 69ec bcbc 3ca1 ef3d 9c40 393c 927d 813d
00000200: b9b1 1cbe 6119 823e 4748 b9bd c087 713d
00000210: b73a 6cbb fb85 713e 78b1 0ebe a28a 25be
00000220: b13f 733e 5a23 753c a24e c73d 99c7 263d
00000230: 8d2f 1c3d bfc3 223d e67e e0bd 34a3 00be
00000240: 612e edbd 3643 66bd 8c8c 38be 0f7a e5bd
00000250: 44ad 73bd c7d9 21bd 1e28 d03d 1574 a0bd
00000260: 35f4 9cbb a4d1 97bd 43d9 bc3d 96ea cabd
00000270: 7b05 bdbd 2bb8 933d db94 48bd 57d6 81bc
00000280: f085 88be 007b 80bc 8042 023e 0ba6 fb3d
00000290: 968d c83d 3e4f 07bf d043 82bd 3125 82bd
000002a0: 40f9 083e b04a d53d 2af0 bbbe 2647 843c
000002b0: 206c 02be 01c7 91be 568b 253e b967 223e
000002c0: e3af d4be 9d4e 6ebd de29 b03a da7e f03d
000002d0: 58e0 06be 4121 923e 6c3c bc3d 64dc a73d
000002e0: a970 643e 176c dabe bb85 7fbe a839 0a3e
000002f0: 0738 a03e 2b19 d6bb e53b 473e b549 c03d
00000300: dcc5 60be 23e5 2ebd e776 ad3e 60e1 1a3e
00000310: 1ad2 c3bd 1661 ab3c 761f 72be 4b34 a0bd
00000320: cffa 483e 61b9 4bbe da56 e0bd fc0a 1d3e
00000330: c47e c8bc cfea 92bd 803a a2be 50a3 72bd
00000340: b55b 74bd 16dd a1bd 74ee c2bd 2cfa 973d
00000350: 56d8 5dbe f186 33be 177d cdbd 9b4d 543e
00000360: 41fa fdbe f1c8 493e f3d3 273e a1db 34be
00000370: 7577 90bc 117a e6be 50e8 d13d dc67 a4be
00000380: 3917 a13d 340e 953d cfdb 1f3e 57c4 c83d
00000390: 04c9 b13d 5049 febd 5b86 0e3d a316 0ebe
000003a0: 6e3e 4a3e 9345 74be fa68 9e3d 89b1 033e
000003b0: e3ca 54bd c8bc 813e 9850 5b3e a211 bc3d
000003c0: e482 5bbe e492 443c 1dff 89be 9f28 f33d
000003d0: 5100 2abd c6f0 383e 2935 fb3d 72d8 8f3e
000003e0: 4650 efbd 4a4e 1abe fd0e a1bc 1fdd 14be
000003f0: a8a0 b0bd 4358 ed3d 067a 423e 8247 693e
-0.029776055 0.02258555 0.047536492 0.4648871 -0.12846722 -0.35230663 0.024665494 -0.05237219
-0.16519545 0.050180096 0.04821752 0.03598137 -0.039360773 -0.38018692 0.04725484 -0.25774166
-0.26088873 0.08523774 -0.091417365 -0.073816076 0.11648933 0.15366603 0.18552023 -0.4101392
0.41184974 -0.20020343 0.08455525 -0.049169708 -0.068213955 -0.21573575 -0.050611895 0.061710097
-0.099609055 -0.528172 -0.044896178 0.054893453 -0.17257747 0.37612462 0.01793094 -0.2803498
-0.076407745 0.09194761 0.16116308 -0.20425235 -0.25821862 -0.20968564 0.04783368 0.16244681
-0.042201366 0.25465986 -0.13565217 0.14462508 -0.3900456 -0.32035476 -0.06763625 0.12564652
-0.16746643 0.035158597 -0.40590787 0.2270961 0.10811057 0.19425398 -0.0844791 0.21799578
0.016910758 -0.13264138 -0.17397757 -0.0006784316 -0.03036974 -0.08570162 -0.33340645 0.068548314
-0.033638388 0.11748411 -0.11766634 0.15672469 0.16307615 0.042405248 -0.09423457 -0.09449646
0.19801085 -0.08301505 -0.22126763 0.15782249 -0.3227821 -0.15246661 0.013049869 0.22520697
0.09612001 0.12212645 -0.15586911 0.064985394 0.30754343 0.04144427 -0.07905158 0.2864057
0.34016535 0.12999877 0.03910719 -0.22806232 0.21900381 -0.06239811 -0.052436173 0.27280238
0.022442553 -0.18531133 -0.029543595 -0.052259456 -0.3132354 -0.10537584 -0.11524979 0.24738704
0.08648739 -0.012136951 0.105167255 0.30005202 0.09056145 -0.08593866 0.05684165 0.022004113
-0.044189658 0.28885517 -0.009183271 0.1142227 -0.023061948 0.11700675 0.011306908 0.06322779
-0.15302171 0.25409988 -0.09046989 0.058967352 -0.003604574 0.23586266 -0.13934886 -0.16166165
0.23754765 0.014962042 0.09731795 0.040717695 0.038131285 0.03973746 -0.10961704 -0.12562257
-0.11581112 -0.05621644 -0.18022364 -0.112049215 -0.05949141 -0.03951433 0.10163902 -0.07834641
-0.004789854 -0.07413033 0.09221127 -0.09908025 -0.09229561 0.072128616 -0.048970085 -0.015849276
-0.26664686 -0.015683651 0.1272068 0.122875296 0.097926304 -0.5285529 -0.063605905 -0.0635475
0.13376331 0.10414636 -0.36706668 0.016147207 -0.12736559 -0.2847214 0.16166434 0.1585988
-0.4154044 -0.05818044 0.0013440212 0.11742945 -0.13171518 0.28540996 0.09191212 0.08196333
0.22308601 -0.4266059 -0.24953358 0.13498557 0.31292745 -0.006533762 0.19456442 0.093890585
-0.21950477 -0.04269899 0.33879778 0.15125036 -0.09561558 0.020920318 -0.23644814 -0.07822474
0.19626926 -0.19894935 -0.109540656 0.15336221 -0.024474509 -0.071736924 -0.31685257 -0.05923778
-0.05965777 -0.07903497 -0.095181376 0.074207634 -0.21664557 -0.17531945 -0.100336246 0.20732729
-0.4960499 0.1970556 0.16389446 -0.17661907 -0.017635087 -0.45015004 0.10249388 -0.32110488
0.078657575 0.072781 0.15611194 0.09803074 0.08680919 -0.12416327 0.0347961 -0.13875823
0.19750378 -0.23854665 0.077348664 0.12860693 -0.0519513 0.2533934 0.21417463 0.09183051
-0.2143665 0.011997912 -0.26952448 0.11872982 -0.041504208 0.18060598 0.12265999 0.28094822
-0.11685233 -0.15068927 -0.019660467 -0.14537476 -0.08624393 0.115891 0.18991861 0.22781184

base.5linear.bias f4 [50]
00000000: e51e 1f3e 7ab8 e1bc 456f 393d c889 2b3b
00000010: 9705 aabc 6df2 d7bd 9cd9 b1bd b04e ffbc
00000020: 0e8e 0c3d b042 20be 9fb8 843d 217f af3d
00000030: e99d 5c3d 7aa5 05bd 6a3d 923b 2933 2e3d
00000040: a997 abbd 6668 cebd 7e7f 7fbd a453 573d
00000050: abec 4b3d 79ac fc3d f171 dcbd 5833 193e
00000060: 9daf abbd 3318 cdbd bfa6 dc3d cba6 a0bd
00000070: 8dbc 803d 9bf3 9a3e 901f 0d3d abcf bc3d
00000080: f853 13bd 5f38 87bd f846 56bd f067 72bd
00000090: acee 913c 78ef 3abd 19d4 8b3d 9d57 88be
000000a0: 0902 a3bd 8ea2 ec3d 8fd0 163d a575 483b
000000b0: edf8 04be 3c4e 04be 7d4a 46bd 5a95 1dbe
000000c0: 1747 41be ac2c e8bd
0.15539129 -0.027553786 0.04527213 0.0026174653 -0.020754619 -0.10544286 -0.08684084 -0.03116545
0.03431516 -0.1565044 0.06480526 0.0856917 0.053861532 -0.032628514 0.0044628875 0.04252926
-0.08378536 -0.10078506 -0.062377445 0.05257 0.04978625 0.12337584 -0.1076392 0.14960992
-0.08383105 -0.10014381 0.10773992 -0.07844313 0.06285963 0.3026398 0.03445393 0.09219297
-0.03596875 -0.06602549 -0.052313775 -0.059181154 0.017814003 -0.04563853 0.06827564 -0.26629344
-0.079593726 0.11554442 0.03681999 0.00305877 -0.12985583 -0.12920469 -0.04841088 -0.15389004
-0.18874775 -0.113366455

base.6linear.weight f4 [50, 50]
00000000: 8a63 74be 7ca1 473e c30d 463e c457 a8be
00000010: 5514 df3d 1292 863e bdb6 4f3d 20be 953e
00000020: 2db8 113e c2d1 e9bc a3ae 96be c731 8cbe
00000030: de71 b1bd 447c 00bd 4545 a63d 95dd 4bbe
00000040: 9a63 b3bd 0568 acbc 1363 2a3d c69e 823c
00000050: 06bc 603e f384 0ebf 293a 10bc 2513 3ebd
00000060: da77 423e b996 d43e 3876 52be c44d aabc
00000070: 1252 bcbe 823f 87bd 4495 2d3d c203 b4bc
00000080: c325 09be 2aee 17bd ddac 00be 81e9 803e
00000090: 3d43 e63d 8c39 253e 6c37 803d 9555 873d
000000a0: e0db b7bd 1874 b53d 49d3 bf3d f615 273d
000000b0: eff6 9a3c 8f73 e0be 48d4 173e b7ff efbb
000000c0: 5208 e9be 9cf3 5d3e 690f 17bd 52db 5c3d
000000d0: 7090 ab3e fa9d c33c 496d 7c3e 3861 143e
000000e0: a9ec aabd 1307 213f c823 3fbe ab26 c73e
000000f0: bbc2 f63d ef7f 0d3f 577f 1d3e 3020 c73d
00000100: ad8d 52be 4622 e0bd 092e 07be cf4f a03e
00000110: 0559 f8be e396 063e 9f08 313d 1b47 0f3e
00000120: 9153 a6be ebea 5ebe 8897 063f 223c 263d
00000130: 93d7 b0bc a597 5b3e daff fd3d cadd 9e3c
00000140: 20e6 23bf 1831 e63d 87e5 a8be 0306 00be
00000150: c413 d0bd 21eb 0ebe 4397 a33e 0e03 f4be
00000160: e05b eb3d 937f be3e cc6d 923e 6aa6 ebbe
00000170: 75c8 8abe 7ad4 4abd 2f29 d63d f78f 913e
00000180: 2b04 3cbd eb8a f83d 1267 e53d 95cc 213a
00000190: e7bc 94bd ad85 c2bd 8e25 113e f193 01be
000001a0: 6ae2 14bf 0221 ea3d 5f44 a23e d3f6 b83d
000001b0: 868b 54bd cd01 6abe a59f 253e 768d 86bd
000001c0: c52a e93e 9653 853d c007 003f f0cd 393d
000001d0: 46c2 c2bd 62cc 1bbc 3fdc 3abe d1ce e4bd
000001e0: 9f70 c53e 701a 9dbd de13 b3bd 654c 06be
000001f0: 7f24 83be 98b6 673e d98a cb3c 42fd 833d
00000200: aee8 33bd d5f7 8f3d a008 bcbd 3a8f bfbe
00000210: 312b 1a3e f27f e03e dc98 b63d bcb7 0dbd
00000220: 7ceb 04bd 61f2 1a3e 8ad3 5b3e 613b 37be
00000230: e0d8 d9bd 477d 473d 81cb c2bd 5c1a 983e
00000240: 9c8e f63d 5bf3 33bd f9ea 2bbe 15a5 b73c
00000250: 6aa2 57bc 39a4 91bd 8fc7 88be be87 0dbe
00000260: 9fae 283d b101 75be e04f 003e dbda 10bd
00000270: 9817 cc3b 08e7 5cbe 8860 803e c55d ddbd
00000280: 516f 2b3d 93ba 3abe b77a be3d cf85 79be
00000290: d81d 643d 03be bebd 2660 d63d 9ed5 ea3d
000002a0: 475d d3be b255 da3b dd12 ad3c 8ecc a13e
000002b0: c9c8 d4bd 6e0a 953e f82f db3d 8411 24be
000002c0: 1664 e0be cc29 233e 3f36 983d d845 20be
000002d0: 1908 58be 5f0a 7cbc 9994 0cbe ee3e 6dbe
000002e0: dc04 abbd 7270 a9bd 874a 813e 26de d63d
000002f0: c628 b1be b0ec a4be 77cb cabc 3127 c4bc
00000300: b74c 643d 78f3 c73e d7f0 203e 17e1 fbbb
00000310: 5948 463e a387 5bbe 8741 473d 4abf 573e
00000320: 1173 d23d 3a8a b03e 432c 8fbe e24e dcbe
00000330: 311f 0c3e de39 a0bd adc9 b53c b251 03bf
00000340: 8df8 a63d c022 17be 80c4 d0bd 1a5e 7abe
00000350: f788 463e a08c cebd 3f64 b8be 18c7 653e
00000360: f200 e93e 45ce 203e a351 543e feb1 493d
00000370: b9f6 463d 99f6 203e 1abc cb3c ffb2 b03d
00000380: a59c 37be d2a2 24be 7fd9 e53d a31c 9dbd
00000390: d8b3 933c 75c4 11be 58f1 14bc 9eda a53a
000003a0: f820 bebd 884e 513e f15c 24be b0cd fb3d
000003b0: e2d2 36be 31a0 913e 326b 043d 8f9e a4be
000003c0: ede9 33bd 41ba 953e cf0a bbbe 2d2d 573d
000003d0: 17ed 2ebe 3e36 ecbd 9b5e 32bd 7872 5bbe
000003e0: ead0 84bc 5690 463d 7129 14be f41c 9cbd
000003f0: 978b 453e 453f c6bc 9b79 81be fd94 993e
-0.23866096 0.19495195 0.19341187 -0.3287946 0.1089255 0.26283318 0.050711382 0.29246616
0.14230414 -0.028542403 -0.29430112 -0.27381727 -0.086642966 -0.03136851 0.08118681 -0.19908746
-0.08759232 -0.021045694 0.04159839 0.01594485 0.21946725 -0.55671614 -0.008802929 -0.046404976
0.18991032 0.41521242 -0.2055291 -0.020789035 -0.36781365 -0.0660391 0.04237868 -0.021974448
-0.13393311 -0.037092365 -0.12565942 0.2517815 0.112432934 0.16135234 0.06260571 0.0660812
-0.08977485 0.08860034 0.09366471 0.040792428 0.018916575 -0.43838164 0.14827073 -0.0073241848
-0.4551416 0.21674961 -0.03687993 0.053920098 0.33508635 0.02387904 0.24651064 0.14490211
-0.083459206 0.6290142 -0.18665993 0.3889669 0.12048861 0.55273336 0.15380608 0.09722936
-0.20561858 -0.10944037 -0.13201155 0.3131089 -0.48505417 0.13143496 0.043221112 0.13991968
-0.3248563 -0.21769302 0.5257497 0.04058469 -0.021587169 0.21444567 0.124023154 0.019392867
-0.6402302 0.11239833 -0.32987615 -0.12502293 -0.1016002 -0.13956882 0.3195134 -0.4765858
0.11492133 0.37206706 0.28599393 -0.460254 -0.27106062 -0.04951904 0.10457074 0.2843015
-0.045902412 0.121358715 0.112013 0.00061721477 -0.07262593 -0.09498153 0.14174482 -0.12654091
-0.5815798 0.11432077 0.31692788 0.09031453 -0.051890872 -0.2285225 0.16174181 -0.0656995
0.45540443 0.065100834 0.50011826 0.045362413 -0.09509711 -0.009509178 -0.1824808 -0.111722596
0.38562486 -0.07671058 -0.08744024 -0.1311508 -0.25613782 0.22628248 0.024846481 0.064447895
-0.043923073 0.07029692 -0.091813326 -0.3741396 0.15055539 0.43847615 0.08915874 -0.03459905
-0.032451138 0.15131523 0.21467414 -0.17893745 -0.10637069 0.04870346 -0.095114715 0.2970761
0.12038919 -0.043933254 -0.16788854 0.022417584 -0.013161281 -0.07111401 -0.2671475 -0.13821313
0.041182157 -0.23926426 0.1253047 -0.035364967 0.0062283985 -0.21572506 0.25073647 -0.10808901
0.041854206 -0.18235235 0.0930075 -0.2436745 0.055692524 -0.093135856 0.104675576 0.114665255
-0.41282102 0.0066630477 0.021127159 0.31601375 -0.10389859 0.2910952 0.10702509 -0.16022307
-0.4382636 0.15933913 0.074322216 -0.15651643 -0.21096839 -0.015383332 -0.1372856 -0.23168537
-0.08350536 -0.082734 0.25252172 0.1049159 -0.3460142 -0.32211828 -0.024755223 -0.02394447
0.055737223 0.3905294 0.15716873 -0.007686745 0.19363536 -0.2143846 0.048646476 0.21069065
0.102758534 0.34480458 -0.27963457 -0.43028933 0.13683774 -0.07823537 0.022190893 -0.5129653
0.08152876 -0.1475935 -0.101937294 -0.2444996 0.19388185 -0.10085416 -0.36013982 0.2243923
0.45508534 0.15703686 0.20734267 0.049242012 0.048575137 0.1571907 0.024869967 0.08627891
-0.17930849 -0.16077736 0.11223125 -0.07671478 0.018030092 -0.14235099 -0.009090744 0.0012653654
-0.09283632 0.20440114 -0.1605108 0.12295091 -0.17853883 0.2844253 0.032328792 -0.3215222
-0.04392426 0.29243663 -0.36531684 0.052533317 -0.1708263 -0.115337834 -0.043547254 -0.21430385
-0.0162129 0.048477493 -0.14468934 -0.0762271 0.1929153 -0.024200091 -0.2528809 0.29996482

base.6linear.bias f4 [50]
00000000: b7e5 f1bd 336b 15bd ce23 28bb 3c73 f13c
00000010: c398 e03d 0fc6 9ebc b5d9 6abd 64e2 1c3b
00000020: 8db7 1dbd 34bb 5ebd b479 42bd 7330 0bbe
00000030: 94ae 31bc beba 563d 38ae a8bc 4ad6 243c
00000040: 2453 65bc a6a2 cabb 9da4 583d 62aa 1b3d
00000050: 209d 243d 2147 a23c 1cbe abbd ba08 3a3d
00000060: c523 7a3c a0fe c6bd 418c 37bd 3d42 ac3d
00000070: 72fa 59bd 741b 253e 971d 8dbd f99f 20bd
00000080: c64b ca3d 6c0b 963d 16a4 b8bd 3f22 0d3e
00000090: 6cfe b03d b913 b3bd cf1a c0bd 9649 ed3d
000000a0: 7f24 bb3d b5fc 6fbe 19b3 38bd 2a0e 003d
000000b0: e77f 1d3d 1540 3cbd 3be5 4dbc fce5 a73d
000000c0: bb9b d33d c854 3a3c
-0.11811393 -0.036479186 -0.0025656107 0.029473893 0.10966637 -0.019381551 -0.057336528 0.002393865
-0.038505126 -0.05437775 -0.047479346 -0.135927 -0.010844845 0.052424185 -0.020590886 0.010060856
-0.013996873 -0.00618394 0.052891362 0.038004287 0.04018891 0.019809308 -0.0838587 0.04541848
0.015267317 -0.097165346 -0.04481149 0.084110714 -0.05321736 0.16123754 -0.068904094 -0.03921506
0.09877734 0.07326397 -0.09015672 0.13782595 0.08642277 -0.08743996 -0.09380113 0.11586301
0.091378205 -0.23436244 -0.045092676 0.031263508 0.038452055 -0.04595955 -0.01256686 0.08198163
0.103324376 0.0113727525
