STPINN-NS/sub_data/sub_write/11NS_model_train.pt (torch, 100091 bytes, 22 tensors)

base.0linear.weight f4 [50, 3]
0	0xb93ba7b4	-0.00017896184
1	0x37709e85	1.4342023e-05
2	0xb9e8cd1b	-0.00044403304
3	0xbe87bcdc	-0.26511276
4	0xbb6a901f	-0.003579147
5	0x3e3eb1de	0.18622538
6	0x3d3315bc	0.0437219
7	0x3e8451aa	0.25843555
8	0xbe210690	-0.1572516
9	0xbd523b95	-0.051326353
10	0xbdfbf9d2	-0.12303509
11	0xbefb6445	-0.49099937
12	0xbdec5c87	-0.11541086
13	0x3dc6ff85	0.09716705
14	0xbd949742	-0.07255413
15	0x3dd2317d	0.102633454
16	0xbe499a8e	-0.19687864
17	0xbe7e40ff	-0.24829482
18	0xbdff7f10	-0.12475407
19	0x3ed40dac	0.4141668
20	0xbe5b5d7e	-0.21422383
21	0x3d8d5e73	0.069027804
22	0x3ea84a06	0.32868975
23	0xbe794ff0	-0.243469
24	0xba830f79	-0.0009999118
25	0xbe08c146	-0.13354978
26	0x3ea73da8	0.32664227
27	0xbf00a79b	-0.50255746
28	0x3ec0ffb1	0.37695077
29	0x3e720341	0.23634054
30	0xbf283849	-0.65710884
31	0xbd5e5e7c	-0.054289326
32	0x3c1a17d9	0.0094051
33	0xbe3c154d	-0.183675
34	0x3e4a5fc1	0.1976309
35	0x3c175b81	0.009238125
36	0xbe1056ea	-0.14095655
37	0xbddc6147	-0.10760742
38	0xbe6d85ce	-0.23195574
39	0x3d63dbd0	0.05562955
40	0x3e4db213	0.20087461
41	0xbbcd7f73	-0.0062712966
42	0xbb48c5b4	-0.0030635418
43	0x3e4d3700	0.20040512
44	0xbf07a92f	-0.5299253
45	0x3c0826a7	0.008309997
46	0x3e2af67d	0.1669559
47	0xbd2148ca	-0.039376058
48	0xbdc7ea09	-0.097614355
49	0x3eb45ea5	0.35228458
50	0x3de87482	0.11350347
51	0xbe6d3073	-0.23163013
52	0xbc8bf089	-0.01708247
53	0x3e590e30	0.21196818
54	0xbe4fe3d4	-0.20301753
55	0x3e3b9904	0.1832009
56	0x3e3a0329	0.18165268
57	0x3a761f8e	0.0009388857
58	0xbc7cb339	-0.015423589
59	0x3bf271cf	0.007398821
60	0x3e4acc02	0.19804385
61	0x3d98beed	0.07458291
62	0xbd7a8a15	-0.06116684
63	0x3d2bb00d	0.041915942
64	0x3d6433a0	0.055713296
65	0xbe2d76d4	-0.1693986
66	0x3e1774f3	0.14790706
67	0xbe786be2	-0.24259904
68	0xbe4e07c1	-0.20120145
69	0x3c02f178	0.007992141
70	0x3c629c78	0.01383125
71	0x3d898ba4	0.067160875
72	0xbdf58a28	-0.11989242
73	0xbe7d4f07	-0.24737178
74	0x3e591ada	0.2120165
75	0x3cbf83b4	0.02337823
76	0xbd977cb8	-0.07396835
77	0xbe146520	-0.14491701
78	0x3e1bf44f	0.15229915
79	0x3e138235	0.14405139
80	0xbedabedd	-0.42723742
81	0x3e632a88	0.22184193
82	0x3e264383	0.16236691
83	0xbe2a6267	-0.166391
84	0xbe47e884	-0.19522291
85	0x3d9fa6ae	0.077954635
86	0x3e2f955b	0.17146818
87	0xbe13e817	-0.14444004
88	0x3beb58b8	0.007182207
89	0xbe9cb653	-0.30607852
90	0x3d934b67	0.07192116
91	0x3e893ee9	0.2680581
92	0x3e614271	0.21998002
93	0x3d91166e	0.07084356
94	0x3ebbc8a5	0.36676517
95	0xbe85ce91	-0.2613416
96	0xbe77ce5c	-0.24199814
97	0xbe6ef88d	-0.23337002
98	0x3d882d14	0.06649223
99	0x3e5853ca	0.21125713
100	0x3e27e8cb	0.16397397
101	0x3d52a2b7	0.05142471
102	0x3e919489	0.28433636
103	0xbe95e4f2	-0.29276234
104	0xbe705a1f	-0.23471878
105	0xbd89fdb5	-0.06737844
106	0x3dadfde6	0.08495693
107	0xbe6cc498	-0.2312187
108	0x3dac0dda	0.084010795
109	0xbe0d9ebc	-0.13830084
110	0xbebbed46	-0.36704463
111	0x399bdb59	0.0002972733
112	0x3a2c0ede	0.00065634947
113	0x392359de	0.0001557837
114	0xbd38d46f	-0.045124467
115	0xbe087eb8	-0.1332959
116	0xbddc27e0	-0.10749793
117	0x3dbc49f8	0.09193796
118	0x3d553277	0.05205008
119	0xbe5ea99c	-0.21744388
120	0x3e67e510	0.22645974
121	0xbe8afefc	-0.27147663
122	0xbeb34f34	-0.35021365
123	0x3c20c6ce	0.009813024
124	0xbd8bd84a	-0.06828363
125	0xbe6c12ba	-0.23054019
126	0x3d333e9e	0.04376089
127	0x3cd888a3	0.026432341
128	0xbe50b850	-0.2038281
129	0xbaf39281	-0.001858309
130	0xba60ea3b	-0.0008579825
131	0xb9d976f1	-0.00041478084
132	0xbe2a37fc	-0.16622919
133	0xbe001a21	-0.12509967
134	0xbd2d1e17	-0.042265024
135	0x3e726d25	0.23674448
136	0xbe9594f6	-0.2921521
137	0x3c5bd15f	0.013416617
138	0xbb21ae75	-0.0024670635
139	0x3bb8a2f4	0.00563466
140	0xbaa217e5	-0.001236674
141	0x39cadff5	0.00038695303
142	0x3ab5b2e4	0.0013862518
143	0xb83bb01a	-4.474828e-05
144	0x3c4a503e	0.012348233
145	0xbeef1daa	-0.4670232
146	0x3df5c615	0.12000672
147	0xbd8076b3	-0.0627264
148	0xbea27975	-0.3173329
149	0x3e3553c8	0.17707741

base.0linear.bias f4 [50]
0	0x39a9165e	0.00032250857
1	0x3c61d5b4	0.013783861
2	0x3affbbbc	0.0019510905
3	0xbe056f9d	-0.13030858
4	0x3da6be30	0.08141744
5	0x3d86dfc5	0.065856494
6	0x3dfcee9a	0.12350197
7	0x3d89fc44	0.06737569
8	0xbe033fc6	-0.12817296
9	0xbc9c8a49	-0.019108908
10	0xbe20e6fd	-0.15713115
11	0x3cd28989	0.025700347
12	0xbd5dbefe	-0.054137222
13	0xbd848ba6	-0.06471948
14	0xbd520569	-0.05127469
15	0x3b8acffe	0.0042362204
16	0xbdb2fc79	-0.087395616
17	0xbd9b34db	-0.07578441
18	0x3d435fe4	0.04769887
19	0xbb9c8871	-0.0047770073
20	0xbd862567	-0.06550103
21	0x3d8da2d3	0.06915822
22	0x3df37e31	0.118893035
23	0xbd561a81	-0.05227137
24	0xbdb9ec97	-0.09078329
25	0x3dd0258c	0.101634115
26	0x3dd5132d	0.10404048
27	0xbe43ac1a	-0.1910862
28	0xbd644c37	-0.055736747
29	0x3e3901f6	0.18067154
30	0xbe479d64	-0.19493634
31	0x3ce91d9f	0.028456507
32	0x3dfde959	0.12398023
33	0xbe41a4f3	-0.1891058
34	0x3d41a9aa	0.047280945
35	0x3d865497	0.06559103
36	0x3e02e480	0.12782478
37	0xb9385f81	-0.00017583185
38	0x3b4f9937	0.0031677017
39	0x3db978c9	0.09056241
40	0xbca7126c	-0.020394526
41	0x3dc305cf	0.09522592
42	0x3d857ac4	0.06517556
43	0x382c861f	4.1132906e-05
44	0x3e0031b7	0.12518965
45	0x3a298d8d	0.0006467931
46	0xb9404a16	-0.00018338146
47	0xb8dabf08	-0.000104306324
48	0x3cf63366	0.030053806
49	0xbd2ce347	-0.042208936

base.1linear.weight f4 [50, 50]
0	0xbdc241c4	-0.094852
1	0x3d7c5c0c	0.06161122
2	0x3d61697e	0.055032246
3	0xbdb03597	-0.086039715
4	0x3e8b6134	0.27222598
5	0x3b451e27	0.0030077787
6	0x3dcf7b2d	0.10130916
7	0xbd365717	-0.04451665
8	0xbd8e724c	-0.06955394
9	0x3e1fc9a7	0.15604268
10	0x3d0d2c5d	0.034466136
11	0x3ce35df0	0.027754754
12	0xbde071c7	-0.10959201
13	0xbd0ce646	-0.034399293
14	0xbd7a67b3	-0.06113405
15	0xbe844d10	-0.25840044
16	0x3dcac1dc	0.09900257
17	0x3eb2b991	0.349072
18	0xbce66f78	-0.028129324
19	0x3dd93772	0.106062785
20	0xbd41b0b5	-0.04728766
21	0xbdd6b42f	-0.10483586
22	0xbe4e394e	-0.20139048
23	0xbde60260	-0.11230922
24	0x3e18e909	0.14932646
25	0xbd3b4f8e	-0.045730166
26	0xbec1324f	-0.37733695
27	0xbcc89e96	-0.024489682
28	0xbd508932	-0.05091209
29	0xbe05c668	-0.13063967
30	0xbcd73c61	-0.026273908
31	0xbde53a80	-0.111927986
32	0x3e8c10c0	0.2735653
33	0xbcc63b3a	-0.024198163
34	0xbdbf09ea	-0.09328063
35	0x3df1e010	0.11810315
36	0x3dd05b16	0.10173623
37	0xbe22823c	-0.15869993
38	0xbdedd4cd	-0.11612854
39	0xbe29ae24	-0.16570336
40	0x3d8a0c7d	0.06740663
41	0xbe15a6de	-0.14614436
42	0x3e1aab3f	0.15104388
43	0xbe109ec7	-0.14123069
44	0xbd8d1863	-0.06889417
45	0xbe459127	-0.19293652
46	0x3da4959c	0.08036348
47	0xbd7a5472	-0.06111569
48	0x3dfc7e70	0.123288035
49	0x3deb0522	0.114755884
50	0x3cb9f49b	0.022699645
51	0xbe23f1dc	-0.16010231
52	0x3c4a2206	0.012337213
53	0x3df09905	0.11747936
54	0x3b17cded	0.0023163513
55	0x3e3b2fbd	0.1827993
56	0xbc734879	-0.014848822
57	0x3cb7c829	0.022434311
58	0x3ecd839f	0.4013948
59	0x3da3626c	0.07977757
60	0xbc72e5e2	-0.014825316
61	0xbc51f7ca	-0.012815425
62	0xbe0eb964	-0.13937908
63	0xbe82f62f	-0.25578448
64	0xbe17294b	-0.14761846
65	0xbdee905e	-0.116486296
66	0xbd39e1d2	-0.045381375
67	0x3db9bdf4	0.09069434
68	0x3db0fa3b	0.08641478
69	0xbe25fc45	-0.16209514
70	0x3e6b06ea	0.22951856
71	0x3bdb5ae0	0.0066941828
72	0x3c89b469	0.01680966
73	0xbdf377c1	-0.118880756
74	0x3d2aef48	0.041732103
75	0xbcba2985	-0.022724876
76	0xbdf4cb2c	-0.119528145
77	0xbe4c5541	-0.19954397
78	0x3e779781	0.24178888
79	0xbe0b848c	-0.13624781
80	0xbdfc28bc	-0.12312457
81	0xbe4698a2	-0.19394162
82	0xbe35ad3e	-0.17741868
83	0x3e2a7c66	0.16649017
84	0xbe9506e4	-0.2910682
85	0xbe64dda7	-0.22350179
86	0xbd9508b2	-0.07277049
87	0x3d90f779	0.07078452
88	0xbe890626	-0.26762503
89	0xbee9b521	-0.45646003
90	0x3d1abd39	0.037778113
91	0x3dff8c25	0.12477902
92	0xbde8a599	-0.1135971
93	0xbd5a166c	-0.05324404
94	0x3e11bbf6	0.14231858
95	0x3d0c3287	0.034227874
96	0xbecd1570	-0.40055418
97	0x3e047077	0.12933527
98	0xba304886	-0.0006724674
99	0x3e3e139a	0.18562165
100	0xbe3a62f2	-0.18201807
101	0xbc15857f	-0.009126066
102	0x3e7053d6	0.23469481
103	0xbe8a1f21	-0.26976874
104	0xbd643b17	-0.055720415
105	0xbe10b95c	-0.14133209
106	0x3e462c0f	0.19352745
107	0x3ce809f4	0.028325059
108	0x3cee802e	0.029113855
109	0xbe25a81f	-0.16177414
110	0xbcf40c59	-0.029791044
111	0xbd6a98d9	-0.057274673
112	0x3c8bb577	0.017054303
113	0xbe2dc8e4	-0.16971165
114	0x3d895c1f	0.06707024
115	0xbdefcc18	-0.1170885
116	0xbd0833a5	-0.033252377
117	0xba91e2d8	-0.0011130227
118	0xbb9c06f0	-0.004761569
119	0x3ec25b0b	0.37960085
120	0xbd977dcd	-0.073970415
121	0xbe863a3f	-0.26216313
122	0x3e131854	0.14364749
123	0xbe273068	-0.1632706
124	0xbd9cdc3c	-0.07659194
125	0xbde5af96	-0.11215131
126	0xbddba061	-0.10723949
127	0x3df5e542	0.12006618
128	0x3e512175	0.20422919
129	0xbe28ee9d	-0.16497274
130	0xbd9b7d36	-0.075922415
131	0x3ddc303a	0.10751386
132	0x3e2867ce	0.16445848
133	0xbe698f95	-0.22808678
134	0x3d513670	0.051077306
135	0x3dba171c	0.09086439
136	0xbd0979e4	-0.03356351
137	0x3e111b8a	0.14170662
138	0x3e2d4d1e	0.16923949
139	0xbe8144ce	-0.25247806
140	0x3e7abb6b	0.24485557
141	0x3d9fce77	0.07803052
142	0x3cab926a	0.02094384
143	0x3e31e417	0.17372166
144	0xbe1891d1	-0.14899375
145	0xbe1f0420	-0.15528917
146	0x3ce99c5d	0.028516943
147	0xbe3475d5	-0.17623074
148	0xbe4b1250	-0.19831204
149	0x3e244ec7	0.16045676
150	0xbd92107a	-0.07132049
151	0xbd835e39	-0.06414456
152	0x3e2c3e2a	0.16820589
153	0x3e3fe21e	0.187386
154	0xbd1408e0	-0.036141276
155	0x3dcfea15	0.101520695
156	0xbe2fc30a	-0.17164245
157	0x3e2474eb	0.16060226
158	0xbc120729	-0.00891284
159	0x3db4d2cf	0.08829271
160	0xbe0ce570	-0.13759398
161	0x3e520821	0.20510913
162	0x3d79a752	0.060950585
163	0xbe16baa4	-0.14719635
164	0x3e2434be	0.16035745
165	0x3d58fcab	0.052975338
166	0xbc7a88c5	-0.015291397
167	0x3d9920ff	0.07476997
168	0x3e4ec06c	0.2019059
169	0xbda91aed	-0.08257089
170	0xbe0dafdb	-0.13836615
171	0xbe384834	-0.17996293
172	0x3e158572	0.14601687
173	0xbd941855	-0.072312035
174	0xbd38b665	-0.04509582
175	0xbd05284d	-0.032509137
176	0x3d030dc2	0.031995542
177	0xbdf38ebc	-0.11892459
178	0x3c18bad9	0.009321892
179	0xbdd2c321	-0.10291124
180	0xbd3fe590	-0.046849787
181	0x3d0b237e	0.033969395
182	0xbe7b6a80	-0.24552345
183	0xbe3eba71	-0.18625809
184	0xbb5c22ad	-0.0033590004
185	0xbd6d930d	-0.058001567
186	0xbe58c30e	-0.21168157
187	0xbe31196e	-0.17294857
188	0xbc2459c5	-0.010031168
189	0xbd7d72fb	-0.061877232
190	0xbd61638b	-0.055026572
191	0xbde884e8	-0.11353475
192	0xbcaf3a3e	-0.021390077
193	0xbe015214	-0.12628967
194	0xbda9a84d	-0.08284054
195	0x3defe67d	0.11713884
196	0xbd868f06	-0.06570248
197	0xbe39824c	-0.1811611
198	0x3e6fc325	0.23414285
199	0xbde473b2	-0.1115488
200	0x3e13919f	0.14411019
201	0x3e9136c3	0.28362092
202	0xbe646426	-0.22303829
203	0x3c735342	0.014851393
204	0x3d56e833	0.052467536
205	0x3dea1af0	0.11430919
206	0xbe9ac4ed	-0.30228367
207	0xbd8b4347	-0.067999415
208	0x3e402d17	0.187672
209	0xbe0c9a81	-0.13730814
210	0xbdc47fab	-0.09594663
211	0x39e6a72e	0.00043993577
212	0x3e4d1628	0.20027983
213	0xbd955abf	-0.07292699
214	0xbd9d4026	-0.07678251
215	0x3d960a06	0.073261306
216	0xbe3b2a97	-0.18277965
217	0xbdb89215	-0.09012238
218	0xbe19f925	-0.15036447
219	0x3d22080e	0.039558463
220	0xbe10dc86	-0.14146623
221	0xbea95f93	-0.3308073
222	0x3da86462	0.082222715
223	0x3db0e9bd	0.08638332
224	0x3e9859f5	0.29756132
225	0xbdad5b3a	-0.08464666
226	0xbc9161ba	-0.017746795
227	0xbd5c4f7d	-0.053786743
228	0x3d3df352	0.046374626
229	0xbe79c51f	-0.24391602
230	0xbe8b23b8	-0.2717569
231	0xbdee66eb	-0.11640724
232	0x3e06df3f	0.13171099
233	0xbc8ef260	-0.017449558
234	0xbe37e02d	-0.1795661
235	0xbe103011	-0.14080836
236	0x3d480435	0.048832137
237	0xbcc8ef40	-0.024528146
238	0x3ddbd741	0.10734416
239	0xbc978cd3	-0.018499767
240	0x3e1b26ef	0.1515157
241	0xbd37a315	-0.04483326
242	0xbe39e663	-0.18154292
243	0xbcd4ee56	-0.025992554
244	0x3c6ee616	0.014581224
245	0x3b4fb322	0.0031692465
246	0x3bebe4e7	0.007198918
247	0xbd4483d8	-0.0479773
248	0x3d2ab15b	0.041673046
249	0x3e2d57ed	0.16928072
250	0x3e05971a	0.13045922
251	0x3ea17d84	0.31541073
252	0xbcb8c1f6	-0.022553425
253	0xbe45b063	-0.19305567
254	0xbc46698a	-0.012110123
255	0x3f0c3ba0	0.5477848

base.1linear.bias f4 [50]
0	0xbd46efec	-0.04856865
1	0xbc46cfe5	-0.012134527
2	0xbceb1669	-0.02869721
3	0x3c113a4d	0.008863998
4	0xbd5f8d17	-0.054577913
5	0x3d289e3f	0.04116654
6	0xbcd6bf44	-0.02621425
7	0xbcc12179	-0.023575531
8	0x3d06d51c	0.03291808
9	0xbd2a70b1	-0.041611377
10	0xbd78eb26	-0.06077113
11	0xbca3ca13	-0.019993817
12	0xbbe40603	-0.0069587245
13	0xbb33a791	-0.002741311
14	0xbd1896df	-0.037253257
15	0x3d20d09d	0.03926145
16	0x3cfbe161	0.030747117
17	0xbd4b7a11	-0.04967696
18	0xbdb7048c	-0.08936414
19	0xbcf4f3f6	-0.029901486
20	0x3d538aae	0.051645927
21	0x3d5bfb4b	0.05370645
22	0x3d9a1f34	0.07525483
23	0xbcffbc00	-0.031217575
24	0xbe3fe90a	-0.18741241
25	0x3c62339b	0.013806249
26	0x3deaae26	0.114589974
27	0x3bca27fb	0.006169317
28	0xbcb879e0	-0.022519052
29	0xbcfc1687	-0.03077246
30	0xbe4db5a5	-0.20088823
31	0x3e18df61	0.14928962
32	0xbda0452a	-0.07825692
33	0x3c3a96af	0.011388465
34	0x3dad6275	0.08466045
35	0xbd2e702e	-0.04258745
36	0xbc3bdf21	-0.011466772
37	0x3d701ca7	0.058621075
38	0xbe02620c	-0.12732714
39	0xbd3dc4ff	-0.04633045
40	0x3d87034a	0.06592424
41	0xbcfa1570	-0.0305278
42	0x3caad309	0.020852583
43	0x3d55167d	0.0520234
44	0xbdc5a310	-0.09650242
45	0xbe4e737f	-0.20161246
46	0xbc61ed23	-0.013789448
47	0x3dc6533f	0.09683847
48	0xbda2da3b	-0.079517804
49	0xbd22adae	-0.039716415

base.2linear.weight f4 [50, 50]
0	0x3d65168f	0.055929717
1	0x3db4209f	0.087952845
2	0xbc9097f7	-0.017650587
3	0x3c91667f	0.01774907
4	0x3d1a29ba	0.03763745
5	0xbda2438b	-0.07923039
6	0x3e6988d1	0.22806098
7	0xbd33d33c	-0.04390262
8	0x3e60e43d	0.21962066
9	0x3d64498b	0.0557342
10	0xbd250101	-0.04028416
11	0xbd26f85d	-0.0407642
12	0xbd2d0075	-0.042236764
13	0x3e3921a3	0.18079238
14	0x3db78f9a	0.08962937
15	0xbe225f3e	-0.15856645
16	0x3d23cdf0	0.03999132
17	0xbda2ad6d	-0.079432346
18	0xbea50841	-0.3223286
19	0x3d3b929e	0.045794122
20	0x3dc6ea5f	0.097126715
21	0x3c7d7ca6	0.015471613
22	0x3eb103df	0.34573266
23	0x3d4fdd02	0.05074788
24	0xbd87901e	-0.06619285
25	0x3c87f6cf	0.01659718
26	0x3de13787	0.10996919
27	0x3d8402ef	0.06445872
28	0xbd7fd36a	-0.06245748
29	0x3ce637b0	0.028102726
30	0xbdd58b63	-0.104269765
31	0xbe7fd367	-0.24982987
32	0xbe7cb15c	-0.24677032
33	0x3d9a322e	0.07529102
34	0x3e17e8cb	0.14834897
35	0x3e148384	0.14503294
36	0xbd30abf0	-0.043132722
37	0xbd3e8afb	-0.04651926
38	0x3e817b47	0.25289366
39	0xbe5fd0cc	-0.21856993
40	0xbe5176b0	-0.20455432
41	0x3ea4e845	0.32208458
42	0xbd628b30	-0.05530852
43	0x3c743cc1	0.014907063
44	0x3e73a120	0.23791933
45	0x3dea4143	0.11438229
46	0x3ee56d91	0.44810155
47	0xbda2971a	-0.079389766
48	0x3e768f74	0.2407816
49	0xbd41cea8	-0.047316223
50	0x3dd95000	0.10610962
51	0xbd8f2ee8	-0.069913685
52	0x3d356818	0.044288725
53	0xbef6e054	-0.48218024
54	0xbc965c43	-0.01835454
55	0xbdae0f55	-0.08499018
56	0xbde827d0	-0.11335719
57	0xbe467fc2	-0.19384673
58	0x3dce3e7b	0.10070511
59	0xbdf7735b	-0.12082549
60	0xbdd8c938	-0.105852544
61	0xbd75307d	-0.059860695
62	0x3e565c52	0.20933655
63	0xbe89fd74	-0.26951182
64	0x3d69c080	0.057068348
65	0xbca84998	-0.020542905
66	0xbebc64c1	-0.3679562
67	0x3e52e72a	0.20595995
68	0xbcf38000	-0.029724121
69	0x3def928d	0.11697874
70	0x3d73c13b	0.05951045
71	0xbe17eb22	-0.1483579
72	0xbd93dda8	-0.07220012
73	0x3e6f1a27	0.2334982
74	0x3cf3e57f	0.029772518
75	0x3e06a155	0.13147481
76	0xbe9954c9	-0.29947498
77	0xbe560d32	-0.20903471
78	0xbde85b56	-0.11345546
79	0x3daa5d27	0.08318549
80	0x3d8225e7	0.063548855
81	0x3ddb2da7	0.10702067
82	0x3dbc254a	0.091868
83	0x3dfe5f25	0.12420491
84	0xbd9d8dd5	-0.07693068
85	0xbbbb6f76	-0.0057200743
86	0xbd4c1c91	-0.04983193
87	0x3e420186	0.18945894
88	0xbe350f7b	-0.17681687
89	0xbdc1f49e	-0.09470485
90	0x3edf4840	0.4360981
91	0x3e2a912c	0.16656941
92	0x3cfd0dc5	0.030890355
93	0xbdc7e16b	-0.09759792
94	0xbdb33bfd	-0.08751676
95	0xbe29b789	-0.1657392
96	0xbd283335	-0.04106446
97	0xbd802e1d	-0.062587954
98	0x3e546eac	0.20745343
99	0x3dcb0f69	0.09915049
100	0x3d96f3f1	0.07370747
101	0xbe151bd2	-0.14561394
102	0x3d714866	0.058906935
103	0xbd503b30	-0.050837696
104	0x3e18891c	0.14896053
105	0xbc7fba88	-0.015608437
106	0x3e42334c	0.1896488
107	0x3b9e545c	0.0048318338
108	0x3d9668bd	0.07344196
109	0xbc17ca24	-0.009264503
110	0x3d065b14	0.032801703
111	0xbd247d43	-0.04015852
112	0xbd8845e3	-0.06653955
113	0x3c342ac4	0.010996524
114	0xbd9a57f9	-0.07536311
115	0xbe058c59	-0.1304182
116	0x3cb04207	0.02151586
117	0x3e460695	0.19338448
118	0xbe8d0535	-0.27543035
119	0x3eb32b49	0.3499396
120	0xbe737222	-0.23774007
121	0xbd477212	-0.04869277
122	0x3e4e872e	0.20168754
123	0x3d3cf57c	0.04613255
124	0xbdf37f52	-0.11889519
125	0xbd880ae8	-0.06642705
126	0xbe130e92	-0.14361027
127	0xbdf9a891	-0.121903546
128	0xbe1a665c	-0.1507811
129	0xbe06689f	-0.13125847
130	0x3e24939a	0.1607193
131	0xbe816bf9	-0.2527769
132	0xbdbf3013	-0.09335341
133	0xbd4c7349	-0.049914632
134	0x3e344177	0.17603098
135	0x3e3e5ce8	0.18590128
136	0x3e02fc1b	0.12791483
137	0x3e086df0	0.13323188
138	0xbd4e4678	-0.050360173
139	0xbcde64be	-0.027147647
140	0x3d820f24	0.06350544
141	0x3d82306e	0.063568935
142	0xbe097dc1	-0.13426878
143	0xbb60c0b8	-0.0034294557
144	0x3e31bd8e	0.17357466
145	0xbd7d8be6	-0.061900996
146	0xbe42da19	-0.1902851
147	0x3db98d64	0.09060171
148	0x3e35ee30	0.17766643
149	0x3dc151d9	0.09439439
150	0xbcc02c07	-0.023458494
151	0xbd418cff	-0.047253605
152	0x3dba6fbd	0.09103344
153	0xbd9377e1	-0.072005995
154	0xbce3bbc8	-0.027799502
155	0xbc80e48f	-0.015733985
156	0x3ce8a22f	0.028397648
157	0x3d24e0ac	0.040253326
158	0x3aa36a39	0.001246757
159	0x3d46a91c	0.04850112
160	0x3dc4a681	0.096020706
161	0x3be60b3e	0.007020383
162	0x3d2dadef	0.042402204
163	0xbc977a43	-0.018490916
164	0x3ddd2655	0.10798327
165	0xbd6cf2b4	-0.057848647
166	0xbe2f6eaf	-0.17132066
167	0xbc6a87bc	-0.014314588
168	0x3e4906ce	0.19631502
169	0xbd14d07f	-0.03633165
170	0xbc8a4063	-0.016876405
171	0x3d84ac6f	0.064782016
172	0xbb5b5dee	-0.0033472735
173	0x3c3b285a	0.011423195
174	0x3d77861d	0.060430635
175	0x3cb9e78e	0.022693422
176	0x3e161466	0.14656219
177	0x3e27fa33	0.16404037
178	0xbcec98d4	-0.028881468
179	0x3e5bf697	0.21480785
180	0x3e2b7d72	0.16747072
181	0x3e032a79	0.12809171
182	0xbe060a04	-0.13089758
183	0xba8c228e	-0.001069145
184	0x3d8ee339	0.06976933
185	0xbde43dc6	-0.11144595
186	0xbda70abb	-0.081563435
187	0xbd448330	-0.047976673
188	0xbdbdbae0	-0.09264159
189	0xbd6bc3c9	-0.057559762
190	0x3d387885	0.04503681
191	0x3d8c1f9f	0.06841969
192	0xbb401197	-0.002930736
193	0x3cd67a6a	0.026181418
194	0x3d00cb25	0.031443734
195	0x3e043bec	0.12913483
196	0x3e2fd431	0.17170788
197	0x3e33e680	0.17568398
198	0xbcb945a7	-0.02261622
199	0xbe9be610	-0.3044896
200	0x3e2cb2db	0.16865103
201	0x3d1e06a3	0.038580548
202	0xbc33cfbb	-0.01097482
203	0x3daa4921	0.083147295
204	0xbe6a2e6a	-0.22869268
205	0x3d846f25	0.06466512
206	0x3e3e9da7	0.18614827
207	0xbd21b0f1	-0.039475385
208	0xbe0c4f08	-0.13702023
209	0x3bfb28ab	0.00766476
210	0xbea2fe9b	-0.31834874
211	0xbd21f846	-0.039543413
212	0xbd881900	-0.06645393
213	0x3dc40bd7	0.09572571
214	0x3e3e278a	0.1856977
215	0xbe591640	-0.21199894
216	0xbd474233	-0.048647117
217	0x3e0481fa	0.12940207
218	0x3dba4266	0.09094696
219	0xbdd18347	-0.10230117
220	0xbe144afb	-0.14481728
221	0xbd983b2f	-0.074331634
222	0xbe96e57c	-0.29471958
223	0xbcb44fdc	-0.022010736
224	0x3d0388d2	0.032112904
225	0xbc26c9d1	-0.010179953
226	0xbdac3729	-0.084089585
227	0xbdd91deb	-0.106014095
228	0x3d5797f3	0.052635144
229	0xbe753b7f	-0.23948477
230	0x3dbdb445	0.09262899
231	0x3dfe51a8	0.124179184
232	0x3c829dfb	0.015944472
233	0x3d7a8b82	0.0611682
234	0xbed5d899	-0.41766813
235	0xbe3df2fd	-0.18549724
236	0xbe0af863	-0.13571315
237	0x3e2fe1c7	0.17175971
238	0xbdb66d2d	-0.089075424
239	0xbe05df52	-0.13073471
240	0xbc1c8cd2	-0.009555059
241	0xbe1bf758	-0.15231073
242	0x3d02a228	0.031892926
243	0xbc08c4ea	-0.008347729
244	0x3dda2855	0.10652224
245	0x3e75ce6e	0.24004528
246	0x3da20091	0.07910264
247	0x3bb9c544	0.005669268
248	0x3e36b78a	0.17843452
249	0x3e815430	0.25259542
250	0xbcde5ea2	-0.027144734
251	0xbe0b7822	-0.13620046
252	0xbd8a9427	-0.06766539
253	0xbddda403	-0.108222984
254	0x3d791ca5	0.060818333
255	0xbe01021a	-0.12598458

base.2linear.bias f4 [50]
0	0xbd07dcb9	-0.033169482
1	0x3cd6ba67	0.02621193
2	0x3d8eec3a	0.069786504
3	0x3d2c774f	0.04210597
4	0xbd7eb09d	-0.06218015
5	0xbd80e3b0	-0.06293428
6	0xbd9693af	-0.07352387
7	0xbd8f0039	-0.06982464
8	0xbe11dc63	-0.14244227
9	0xbdf55818	-0.11979693
10	0x3dfd1fe4	0.12359598
11	0xbb3aab7b	-0.0028483558
12	0xbc66eeb7	-0.014095
13	0xbc1aa401	-0.009438516
14	0xbca7c706	-0.020480644
15	0x3d9134b8	0.070901334
16	0x3dc0da5e	0.0941665
17	0x3d0618a0	0.032738328
18	0x3cbb453f	0.022860168
19	0xbd93d461	-0.072182424
20	0x3daac66a	0.08338626
21	0x3d137bb7	0.036006656
22	0xbcf2b24b	-0.029626032
23	0x3ddf0741	0.108900554
24	0x3d108ece	0.03529244
25	0x3d427d17	0.047482576
26	0xbdc47696	-0.09592931
27	0xbe446351	-0.19178511
28	0x399a4c6a	0.00029430102
29	0xbd33bf80	-0.0438838
30	0xbd48139a	-0.04884682
31	0x3d218058	0.03942904
32	0x3e205392	0.1565688
33	0xbcc89e62	-0.024489585
34	0x3df823d5	0.121162094
35	0xbdd2971b	-0.10282727
36	0xbd59b217	-0.053148355
37	0x3d9f0a5d	0.077656485
38	0x3c89fa96	0.016843121
39	0x3d284253	0.041078877
40	0x3e74cd67	0.2390648
41	0x3d1dcb29	0.038523827
42	0xbc33440e	-0.0109415185
43	0xbdc4c70d	-0.096082784
44	0x3cb8c2be	0.022553798
45	0xbd149c95	-0.03628214
46	0xbc410a42	-0.011782231
47	0x3e07572a	0.13216844
48	0x3c77d91c	0.0151274465
49	0x3cf8331b	0.030297806

base.3linear.weight f4 [50, 50]
0	0xbdadd00f	-0.0848695
1	0x3d2d58de	0.04232108
2	0x3cf32171	0.029679032
3	0xbe974197	-0.2954223
4	0xbdd580a7	-0.10424929
5	0xbe3cd728	-0.1844145
6	0xbe6273b7	-0.22114454
7	0x3e780e37	0.24224173
8	0xbd2b9848	-0.041893274
9	0x3b349e45	0.0027560156
10	0x3e1ba168	0.1519829
11	0xbe0672b4	-0.13129693
12	0x3d5b8986	0.05359795
13	0x3d0cd6fc	0.034384713
14	0x3da896ac	0.082318634
15	0x3e7c5056	0.2464002
16	0xbcefa41b	-0.029253056
17	0xbde4c212	-0.111698285
18	0xbb5e5724	-0.0033926452
19	0xbcc8549f	-0.024454413
20	0xbc60c890	-0.013719693
21	0xbe576e38	-0.21038139
22	0xbd171def	-0.03689378
23	0xbcc9a260	-0.02461356
24	0x3d88536f	0.06656539
25	0xbe6f3b7a	-0.23362532
26	0x3ebb6d50	0.36606836
27	0x3e9971a3	0.2996951
28	0xbce53c1c	-0.027982764
29	0x3d840bb0	0.06447542
30	0xbe4ab967	-0.19797288
31	0xbd6d4f9b	-0.057937246
32	0xbc5d33c7	-0.013501114
33	0xbe825e2a	-0.25462466
34	0xbc43fbb3	-0.011961865
35	0x3cc9369e	0.024562176
36	0xbebab14c	-0.36463392
37	0x3e1b1f34	0.15148622
38	0x3da84e3e	0.082180485
39	0xbe333ed2	-0.17504433
40	0x3d31ecdf	0.04343879
41	0xbd5e3881	-0.054253105
42	0x3da36e0a	0.07979973
43	0xbea229d2	-0.3167253
44	0xbe979542	-0.29606062
45	0xbe2d5177	-0.16925608
46	0xbc340589	-0.010987648
47	0x3e0f6398	0.14002836
48	0x3d9c6edd	0.07638333
49	0x3e447b3a	0.19187632
50	0xbd4b43ef	-0.049625333
51	0xbd0a2f14	-0.033736303
52	0xbe749621	-0.23885395
53	0x3ec0b783	0.37640008
54	0xbdb4a260	-0.08820033
55	0xbea84ae6	-0.32869643
56	0xbe20ccd9	-0.15703143
57	0xbe4b210b	-0.19836824
58	0x3ce91052	0.028450165
59	0xbe8a4c11	-0.2701116
60	0x3e1b21a5	0.15149553
61	0x3d6915d4	0.056905583
62	0xbd4c17cb	-0.04982738
63	0x3c256144	0.010093991
64	0x3b5ca898	0.0033669826
65	0xbe5e5fd6	-0.21716246
66	0x3e113d3a	0.14183512
67	0x3e47d3bf	0.19514368
68	0x3e8bf3e9	0.27334526
69	0xbcd1b5da	-0.025599409
70	0xbd2c80c8	-0.042115003
71	0x3e81b65d	0.25334445
72	0x3a69c638	0.00089177815
73	0x3dd965d4	0.10615125
74	0x3de4f23c	0.11179015
75	0x3e0639cd	0.13107987
76	0xbdd65e37	-0.10467189
77	0xbe66c8bb	-0.2253751
78	0x3af0f26e	0.0018382797
79	0xbe09846d	-0.13429423
80	0x3e8b39f7	0.2719266
81	0xbdfda513	-0.12385001
82	0x3ed20464	0.41018975
83	0x3dfe405c	0.12414619
84	0x3c0bf610	0.008542553
85	0xbde6acb3	-0.112634085
86	0xbeea8425	-0.45803943
87	0x3eb752a5	0.3580524
88	0x3ee68cd1	0.4502931
89	0xbdaacde5	-0.083400525
90	0x3e29390a	0.16525665
91	0x3cefc3c0	0.029268146
92	0x3c9a3d98	0.018828198
93	0xbeefa2e2	-0.46803957
94	0xbe9d8123	-0.30762586
95	0xbe26e320	-0.16297579
96	0xbf289f6e	-0.6586827
97	0x3df6884a	0.12037714
98	0x3e45fa27	0.19333707
99	0x3df5bd43	0.119989894
100	0x3e46954a	0.19392887
101	0xbd85347c	-0.06504151
102	0x3d53d787	0.051719215
103	0xbc82ffc5	-0.015991101
104	0xbdb504b6	-0.08838789
105	0x3d21806a	0.039429106
106	0xbec2ef96	-0.38073415
107	0x3dcb76bd	0.09934757
108	0x3eb9df52	0.36303192
109	0x3cb213d3	0.021737969
110	0x3e2bc7ed	0.16775484
111	0x3defa490	0.1170131
112	0x3eaac8b9	0.33356264
113	0x3c30ea13	0.010797995
114	0xbe37ac35	-0.17936786
115	0x3d0dd5fa	0.034627892
116	0xbe5139be	-0.20432183
117	0xbe043b8a	-0.12913337
118	0xbdb5c32c	-0.08875117
119	0x3cef59d4	0.029217638
120	0x3de532a3	0.11191299
121	0xbe223bc1	-0.15843107
122	0x3ae27960	0.0017278604
123	0x3d8d5ed1	0.069028504
124	0xbdbc9e40	-0.09209871
125	0xbc24ad43	-0.010051074
126	0x3c668b1e	0.014071254
127	0xbd0d2f1f	-0.034468766
128	0xbbbc3de7	-0.005744684
129	0xbd8bfe35	-0.068355955
130	0x3d39e5d7	0.045385208
131	0x3dc5b5f2	0.09653844
132	0xbe11c5f2	-0.14235666
133	0x3e61f94f	0.2206776
134	0xbe73d633	-0.2381218
135	0xbe3ab063	-0.18231349
136	0xbd86e7d3	-0.06587186
137	0xbd16ac97	-0.03678569
138	0x3d2b50b7	0.041825023
139	0x3e31d348	0.17365754
140	0xbe794bb7	-0.24345289
141	0x3cf58e0c	0.02997496
142	0x3d82cdbf	0.06386899
143	0x3ec873dd	0.39150897
144	0x3da6a88a	0.08137615
145	0x3e871f7d	0.2639121
146	0xbe08a7f2	-0.13345316
147	0xbe44e6c2	-0.19228652
148	0x3ea3d6f9	0.3199995
149	0xbe0590a7	-0.13043462
150	0x3ec83653	0.39103946
151	0x3ce8927e	0.028390165
152	0x3e367fc2	0.17822173
153	0x3e1ed33e	0.1551027
154	0xbeb475ff	-0.35246274
155	0xbbb3f64c	-0.0054920074
156	0x3eac056b	0.33597884
157	0x3dbb1874	0.091355234
158	0x3e7aa53b	0.24477093
159	0x3e021e40	0.12706852
160	0xbe2a7a43	-0.16648202
161	0x3de54958	0.1119563
162	0x3e97e21e	0.296647
163	0xbd099723	-0.0335914
164	0x3dac86cc	0.08424148
165	0xbe117f17	-0.14208637
166	0xbd94d84a	-0.07267816
167	0x3d2bc08c	0.041931674
168	0x3e3138b2	0.17306784
169	0x3cdd57f0	0.02701947
170	0x3def4e52	0.1168486
171	0x3e2f9a51	0.17148711
172	0xbc69e7e2	-0.014276477
173	0x3dff83c5	0.12476305
174	0xbbe969ce	-0.0071232086
175	0x3e537c7f	0.2065296
176	0xbe20c462	-0.15699914
177	0x3d95cd81	0.073145874
178	0x3ba27bc5	0.004958602
179	0xbe8c9515	-0.2745749
180	0xbdc13bc6	-0.09435229
181	0xbdb4ec59	-0.08834142
182	0x3db2eb84	0.08736327
183	0xbe73e698	-0.23818433
184	0xbe998abc	-0.29988658
185	0xbe7c5706	-0.24642572
186	0x3ccad53b	0.02475988
187	0xbd445eda	-0.04794202
188	0xbdb88069	-0.09008867
189	0xbd5a23c3	-0.05325676
190	0x3cac3a45	0.021023879
191	0x3c9d6a75	0.019215802
192	0xbd2fef6a	-0.042952932
193	0xbdf47f46	-0.11938338
194	0x3defdeea	0.11712439
195	0x3d43277e	0.047645085
196	0x3d90b465	0.070656575
197	0x3be5a9de	0.007008775
198	0xbe18b6b9	-0.14913453
199	0x3e17409d	0.14770742
200	0xbe0cdc8f	-0.13756011
201	0x3d1436fb	0.036185246
202	0x3e2b7479	0.1674365
203	0xbe7d93eb	-0.24763457
204	0xbe974a68	-0.29548955
205	0x3e07db9b	0.13267367
206	0xbe91688a	-0.2840007
207	0xbe3fe611	-0.18740107
208	0x3e33c21d	0.17554517
209	0x3e22e77f	0.15908621
210	0x3e821014	0.25402892
211	0xbe345ee6	-0.17614326
212	0xbd821289	-0.063511916
213	0xbc39bb75	-0.011336197
214	0xbd4fd2c6	-0.05073812
215	0xbdd5bb10	-0.1043607
216	0xbdb8289f	-0.08992123
217	0xbdcb9618	-0.099407375
218	0xbdbbbbd8	-0.09166688
219	0x3e1578ac	0.14596814
220	0x3e1b55a9	0.15169396
221	0x3de1dfa3	0.110289834
222	0xbcb098e5	-0.02155728
223	0x3e76cd9b	0.2410187
224	0x3e4a7022	0.19769338
225	0x3dd10a49	0.1020704
226	0xbce866b8	-0.028369293
227	0xbf227fe4	-0.63476396
228	0x3af4a026	0.0018663451
229	0x3d90afa5	0.070647515
230	0x3d809574	0.06278506
231	0x3dade094	0.084901005
232	0xbc2af179	-0.010433548
233	0xbdcb14fa	-0.0991611
234	0x3e8c6ea5	0.27428165
235	0xbed0aaa8	-0.407552
236	0xbd000d3b	-0.031262618
237	0x3d492a1c	0.049112424
238	0xbe08afff	-0.13348387
239	0x3d541809	0.051780734
240	0x3d71ea27	0.059061196
241	0x3ca5b006	0.020225536
242	0xbcc71bdb	-0.024305275
243	0xbe3af272	-0.18256548
244	0xbce9fa08	-0.028561607
245	0x3e0406eb	0.12893264
246	0xbec14559	-0.3774822
247	0x3e6dbf9f	0.23217629
248	0x3c3a8638	0.011384539
249	0x3d1c2079	0.038116906
250	0xbe586f0d	-0.21136113
251	0x3db11ba7	0.086478524
252	0xbe09862b	-0.13430087
253	0xbe6b7d44	-0.22997004
254	0xbd628907	-0.05530646
255	0xbd819366	-0.06326942

base.3linear.bias f4 [50]
0	0xbbdbabe6	-0.0067038415
1	0x3e0b62a6	0.1361185
2	0xbd20128e	-0.039080195
3	0x3c1d6926	0.009607589
4	0x3d8671c9	0.065646715
5	0xbd2ad7b3	-0.041709613
6	0x3b306d3c	0.0026920578
7	0x3dcadc9e	0.09905361
8	0x3cc22396	0.02369861
9	0x3d4ff68b	0.05077223
10	0xbc16af9a	-0.00919714
11	0x3c52a281	0.012856127
12	0xbd131765	-0.035910983
13	0x3c2e1485	0.010625009
14	0x3d830526	0.06397466
15	0x3d8dabf6	0.069175646
16	0xbd883be4	-0.06652048
17	0xbcfeab5a	-0.031087566
18	0x3d6b8a6f	0.057505067
19	0x3d8ce77d	0.068800904
20	0xbdca95dd	-0.098918654
21	0xbca51623	-0.020152157
22	0x3e59d9d9	0.21274509
23	0x3d346cc8	0.044049054
24	0xbbe5d054	-0.00701336
25	0x3c766ede	0.015041081
26	0xbd471a89	-0.04860929
27	0xbd297f91	-0.041381422
28	0x3b68ff47	0.0035552548
29	0x3c153588	0.009107001
30	0xbbd52ad2	-0.0065053487
31	0xbd0b4e53	-0.034010243
32	0xbd87c792	-0.06629862
33	0x3e83e52c	0.25760782
34	0x3d448ad1	0.04798395
35	0xbd07910b	-0.033097308
36	0x3dc90bd9	0.09816713
37	0xbd7a7901	-0.061150555
38	0x3dfd8e85	0.12380699
39	0xbae2db5f	-0.0017307809
40	0xbd0cd3e7	-0.034381773
41	0xbd50b0b5	-0.05094977
42	0xbc392119	-0.011299395
43	0xbe14dca7	-0.14537297
44	0xbe26767a	-0.16256133
45	0x3d827dab	0.063716255
46	0x3cf766ae	0.030200329
47	0xbdf0e91a	-0.117632106
48	0x3ae61209	0.0017552982
49	0xbdb1c943	-0.08680966

base.4linear.weight f4 [50, 50]
0	0x3e7b9335	0.24567874
1	0x3e8fd42a	0.28091556
2	0xbe97ec29	-0.29672363
3	0x3c5fcfa3	0.013660344
4	0xbdaf7e8d	-0.085690595
5	0x3e0eb2be	0.13935372
6	0xbdf92acc	-0.12166366
7	0x3eaa3fe2	0.33251864
8	0xbe16c873	-0.14724903
9	0xbdff920d	-0.12479029
10	0xbd8acbfe	-0.0677719
11	0xbd185656	-0.03719171
12	0xbe6237d4	-0.22091609
13	0x3e80e347	0.251734
14	0x3b91d901	0.0044509177
15	0x3e89bc06	0.26901263
16	0xbe2da518	-0.1695751
17	0x3cdf7956	0.027279537
18	0xbdb7f1b8	-0.08981651
19	0x3e74863a	0.23879328
20	0xbef39c1d	-0.47580042
21	0xbd93c7c9	-0.0721584
22	0xbe0a2bb2	-0.13493231
23	0xbd4a3883	-0.0493703
24	0xbe35228a	-0.17688957
25	0xbe5e4497	-0.21705852
26	0x3dac30bd	0.084077336
27	0xbe8dada0	-0.27671528
28	0xbe34d5e2	-0.17659715
29	0xbcb06cdb	-0.021536281
30	0xbed00ea2	-0.40636164
31	0xbe1dd445	-0.15413006
32	0x3d9186e7	0.07105809
33	0x3b8da28f	0.004322357
34	0xbec82116	-0.39087743
35	0x3e16768d	0.14693661
36	0x3dbc48fc	0.09193608
37	0xbc28f30e	-0.010311855
38	0x3d49bd81	0.04925299
39	0x3c9ba330	0.018998712
40	0xbe984de9	-0.2974694
41	0xbe576889	-0.21035971
42	0x3d820221	0.06348062
43	0xbdd3a3fa	-0.103340104
44	0xbdea90f0	-0.11453426
45	0xbd42b424	-0.047535077
46	0x3e7d02d2	0.24708107
47	0x3d12d363	0.035846125
48	0xbe93300e	-0.287476
49	0xbca4ae52	-0.020102654
50	0x3e366b31	0.17814328
51	0xbe50fae1	-0.20408203
52	0xbd825e1f	-0.063656084
53	0x3d1d1ff7	0.038360562
54	0x3e12648d	0.1429617
55	0xbe400c62	-0.18754724
56	0x3d7926a7	0.060827877
57	0xbe48fdd9	-0.19628085
58	0x3c9c9a28	0.019116476
59	0xbe97d5b6	-0.29655236
60	0x3ec5b980	0.38618088
61	0x3e54be19	0.20775642
62	0xbd1688b7	-0.036751475
63	0x3c9c72bb	0.019097677
64	0x3cdb4a48	0.026768818
65	0xbe1d66ac	-0.15371197
66	0xbe8bd012	-0.27307183
67	0xbdb7a6be	-0.089673504
68	0xbd15eae9	-0.03660098
69	0xbea2473c	-0.31694973
70	0x3e9f7443	0.31143388
71	0x3d7b6c07	0.06138232
72	0xbed6b879	-0.41937616
73	0x3beaa276	0.00716048
74	0x3dd49186	0.10379319
75	0xbdf2bab9	-0.11852021
76	0xbdd899f7	-0.105762415
77	0xbdab6d2e	-0.08370434
78	0xbd4b1298	-0.04957828
79	0xbde69010	-0.112579465
80	0xbd6e1776	-0.058127843
81	0xbe0969fa	-0.13419333
82	0x3e3ce5b2	0.18446997
83	0xbe2c48e0	-0.16824675
84	0x3e680ec1	0.22661878
85	0xbdbe76bd	-0.09299991
86	0xbddd6d8b	-0.10811909
87	0xbda0e134	-0.07855454
88	0xbb39011a	-0.0028229416
89	0x3e7913c0	0.2432394
90	0xbe4240a0	-0.18969965
91	0x3e78c30c	0.24293154
92	0x3e018d90	0.12651658
93	0x3f057e88	0.52146196
94	0x3e847e91	0.25877813
95	0xbe95e546	-0.29276484
96	0xbd3cf10a	-0.04612831
97	0xbe1beb85	-0.15226562
98	0xbe6cfcf9	-0.23143376
99	0xbe5c6943	-0.21524529
100	0xbccb55cc	-0.024821185
101	0x3e5f7ff5	0.21826155
102	0x3e03d31e	0.12873504
103	0x3e2eaed6	0.17058882
104	0xbc0e7b68	-0.0086964145
105	0xbd21e679	-0.039526436
106	0xbe22ffd2	-0.159179
107	0x3d019574	0.03163667
108	0xbe09382b	-0.13400333
109	0xbd6e9108	-0.05824378
110	0x3e497441	0.19673254
111	0x3d832df2	0.06405248
112	0xbd06a2ef	-0.03287023
113	0xbcdcc310	-0.026948482
114	0x3eb41b6c	0.3517717
115	0x3f072278	0.5278697
116	0xbcc5db9c	-0.02415257
117	0x3d829d55	0.06377665
118	0xbc940450	-0.018068463
119	0x3e9aef72	0.30260807
120	0xbe08e6f3	-0.1336935
121	0x3b96063e	0.004578381
122	0x3e6218bd	0.2207975
123	0xbc0887ff	-0.008333205
124	0xbd201e80	-0.039091587
125	0x3d817e37	0.06322902
126	0x3e0c921a	0.13727608
127	0x3dad1808	0.08451849
128	0xbd3f33ad	-0.04668014
129	0xbd38a252	-0.045076676
130	0x3da02761	0.07820011
131	0xbdc7d43f	-0.097572796
132	0xbc78326b	-0.015148739
133	0x3dcd7d2d	0.10033641
134	0x3cc7e597	0.02440147
135	0x3e13f1d0	0.14447713
136	0x3e893927	0.26801416
137	0xbea1998c	-0.3156246
138	0xbc933316	-0.017968696
139	0x3dbd947d	0.092568375
140	0x3d5bff68	0.05371037
141	0xbd6c1fbf	-0.057647463
142	0x3e3a39b7	0.18186079
143	0xbea322cd	-0.31862488
144	0xbdc40511	-0.09571279
145	0xbe390437	-0.18068014
146	0x3d595ff1	0.053070012
147	0xbe9aa10b	-0.3020099
148	0x3e134ca0	0.14384699
149	0xbe3e38a8	-0.185763
150	0xbd80e5f2	-0.062938586
151	0xbeaa6cbe	-0.3328609
152	0x3dab3937	0.08360522
153	0xbd01a094	-0.03164728
154	0x3d502197	0.050813284
155	0xbc47fff4	-0.01220702
156	0xbd1394b3	-0.036030483
157	0x3cdb16ba	0.026744235
158	0x3d6f870b	0.058478396
159	0x3e00402d	0.12524481
160	0x3e16d159	0.14728297
161	0xbdc18b86	-0.0945044
162	0x3e8a7b44	0.2704717
163	0x3e58de95	0.21178658
164	0xbde12bd9	-0.109946914
165	0xbe2e2315	-0.1700557
166	0x3dc4b17e	0.096041664
167	0x3dd0a7d2	0.10188259
168	0xbd1e8d21	-0.03870881
169	0xbe9285b1	-0.28617623
170	0x3e63b2d8	0.22236192
171	0x3e89796e	0.26850456
172	0x3e2c3331	0.16816403
173	0x3e7443f0	0.23854041
174	0xbc5a9b13	-0.013342637
175	0x3eb86085	0.3601114
176	0x3c35b5b2	0.011090683
177	0x3df3f071	0.11911095
178	0xbd80ae62	-0.06283261
179	0xbe5ccc56	-0.21562323
180	0x3e9a8388	0.30178475
181	0xbd61f7d3	-0.055167984
182	0xbdb94c00	-0.09047699
183	0x3d8c2deb	0.06844696
184	0xbbbb9d24	-0.0057255197
185	0x3d933404	0.071876556
186	0xbe4625e8	-0.19350398
187	0xbe3ec77a	-0.18630782
188	0x3d8f99c3	0.070117496
189	0x3db759d0	0.08952677
190	0x3e4eb214	0.20185119
191	0x3db33a66	0.08751373
192	0x3dccdcc0	0.10003042
193	0x3eb3680f	0.35040328
194	0xbdfd1112	-0.123567715
195	0x3df2edba	0.11861749
196	0x3da492ab	0.08035787
197	0xbe0c9a70	-0.13730788
198	0x3e4a9912	0.19784954
199	0x3e5687a8	0.20950186
200	0xbde03b47	-0.10948806
201	0xbe4af319	-0.19819297
202	0xbd7dd3c9	-0.061969552
203	0xbe351a05	-0.17685707
204	0xbdfd3f5a	-0.12365599
205	0xbdf9cdb7	-0.1219744
206	0x3e646311	0.22303416
207	0xbcd40581	-0.02588153
208	0x3e52835f	0.20557927
209	0x3ea35bd1	0.31905988
210	0xbe00c4a1	-0.12575008
211	0xbe696c77	-0.22795282
212	0x3e0aaf80	0.1354351
213	0xbde754b3	-0.11295452
214	0xbeab44b3	-0.3345085
215	0xbe90668a	-0.2820323
216	0xbe1a4e1e	-0.15068862
217	0xbd672d75	-0.056439836
218	0x3d9e10ad	0.077180244
219	0x3c43438f	0.011917963
220	0xbe31e4ee	-0.17372486
221	0x3d690b3c	0.05689548
222	0x3db1e118	0.08685511
223	0xbdd8e34c	-0.105902284
224	0x3e6164e8	0.22011149
225	0x3e85e83c	0.26153743
226	0xbc0c7681	-0.008573175
227	0x3e2a2b24	0.1661802
228	0x3dee43db	0.11634036
229	0xbdfd954d	-0.123819925
230	0x3ec6587f	0.38739392
231	0x3d41e770	0.047339857
232	0x3e5a50b0	0.21319842
233	0x3e2ba177	0.16760813
234	0xbe0e0011	-0.13867213
235	0x3dafc0e0	0.0858171
236	0xbe954246	-0.29152125
237	0x3d3bc406	0.04584124
238	0x3d30b683	0.043142807
239	0xbe389615	-0.18026002
240	0x3e5c29d5	0.21500333
241	0x3c336256	0.010948738
242	0x3b43a2c9	0.0029851666
243	0xbdf059aa	-0.11735852
244	0xbe1c8904	-0.15286642
245	0x3e6942e3	0.22779422
246	0x3d4633d4	0.04838927
247	0x3d365e74	0.04452367
248	0x3d7f857c	0.06238316
249	0x3ddbd1c5	0.1073337
250	0x3e562210	0.20911431
251	0xbd8cf794	-0.06883159
252	0x3df526e4	0.119703084
253	0x3e932cb7	0.28745052
254	0x3db9eed8	0.09078759
255	0xbd5fffbe	-0.054687254

base.4linear.bias f4 [50]
0	0x3da395b4	0.07987538
1	0x3d0c612a	0.03427235
2	0x3d3a78bc	0.045525298
3	0xbd3ff34d	-0.04686289
4	0xbcb2ab00	-0.021810055
5	0xbd242bcf	-0.04008084
6	0xbda61ccb	-0.081109606
7	0xbcbc3be9	-0.022977786
8	0x3d8d8e99	0.06911964
9	0xbd29b4a1	-0.041432027
10	0x3d54670d	0.05185609
11	0x3d5538dc	0.05205618
12	0xbb314699	-0.0027050136
13	0xbb8309e0	-0.00399898
14	0x3d01ea93	0.031717848
15	0xbd9efa77	-0.07762616
16	0x3dc437c7	0.09580951
17	0x3c598f07	0.013278729
18	0xbe040cc0	-0.12895489
19	0x3d9e51d6	0.07730453
20	0x3d539a98	0.051661104
21	0x3d412b02	0.047160156
22	0xbe4ec069	-0.20190586
23	0x3c75c7af	0.015001222
24	0x3d85a74b	0.06526049
25	0x3dcf9876	0.101365015
26	0x3cb9d974	0.022686698
27	0xbd4d1086	-0.050064586
28	0xbdf845fe	-0.12122725
29	0x3de60dfd	0.11233137
30	0x3da04f47	0.07827621
31	0x3a8cf8be	0.0010755283
32	0x3d8b31f4	0.06796637
33	0x3e09d02c	0.13458318
34	0x3d255aed	0.040369917
35	0x3ba7d4cc	0.005121803
36	0xbdd02075	-0.10162441
37	0xbd432562	-0.047643073
38	0x3d195e52	0.037443466
39	0x3c69d0e9	0.0142709995
40	0x3d8c1a66	0.068409726
41	0x3d569fc6	0.052398466
42	0xbcd67bbc	-0.026182048
43	0xbcca3cb3	-0.024687147
44	0x3d187309	0.03721908
45	0x3d2fc939	0.04291651
46	0xbcc44906	-0.023960602
47	0x3d928b27	0.071554475
48	0xbda08801	-0.07838441
49	0xbd9dcd58	-0.07705182

base.5linear.weight f4 [50, 50]
0	0xbd14e891	-0.036354605
1	0x3ea11f08	0.31468987
2	0xbca74039	-0.020416366
3	0x3d965502	0.07340433
4	0xbde0ec88	-0.10982615
5	0xbe21d20d	-0.15802784
6	0xbe2a351a	-0.16621819
7	0xbedfefaa	-0.43737537
8	0xbe93d325	-0.28872028
9	0x3e2bf942	0.16794303
10	0x3ccab350	0.024743706
11	0x3db758c8	0.089524806
12	0x3e0c12e2	0.13679078
13	0xbdd4fb31	-0.103994735
14	0x3df79e21	0.120907076
15	0xbebcc689	-0.3687022
16	0xbe1ffe62	-0.15624383
17	0xbdf9505e	-0.12173532
18	0xbe14372c	-0.14474171
19	0xbdd0756f	-0.10178649
20	0x3db4ccb8	0.088281095
21	0xbd8b9ed5	-0.06817404
22	0x3dd7226c	0.10504612
23	0xbea14a3c	-0.3150195
24	0x3ef82f92	0.48473793
25	0xbe89f193	-0.2694212
26	0x3d74a7e4	0.059730425
27	0xbd61980b	-0.05507664
28	0x3c4621cc	0.012093019
29	0xbf07aa05	-0.52993804
30	0x3cb3cd4a	0.021948475
31	0xbe0c3e2d	-0.13695593
32	0xbe897cee	-0.26853126
33	0xbef83772	-0.484798
34	0x3a74ab01	0.0009333343
35	0x3e4fc213	0.20288877
36	0xbe4f8c66	-0.20268402
37	0x3ca8ce4d	0.020606184
38	0x3c0cb47b	0.008587952
39	0xbe4ae0de	-0.19812343
40	0xbda36b75	-0.0797948
41	0x3d9b648f	0.075875394
42	0x3db81811	0.08988965
43	0x3d611975	0.05495592
44	0xbe0842a6	-0.13306674
45	0x3ca56640	0.020190358
46	0x3eb2456c	0.3481859
47	0x3d821006	0.063507125
48	0xbe184071	-0.14868332
49	0x3e9d6bb5	0.30746236
50	0xbe51fde5	-0.2050701
51	0x3da0a124	0.07843235
52	0xbea73a4e	-0.3266167
53	0xbdbfeef6	-0.0937175
54	0xbde96e01	-0.11397935
55	0x3e2616ce	0.16219637
56	0xbe7106c6	-0.2353774
57	0xbda916a8	-0.082562745
58	0xbf0ea5b0	-0.5572157
59	0x3ef7d301	0.4840317
60	0xbd8189cd	-0.063251115
61	0xbe7a0f0e	-0.24419805
62	0xbd8df408	-0.06931311
63	0x3d2ab2f0	0.041674554
64	0x3dff2f95	0.124602474
65	0x3d0d3b97	0.034480657
66	0xbe66cfe4	-0.22540241
67	0x3dd1b4a2	0.10239531
68	0x3dcb0d3f	0.09914636
69	0xbdddfc25	-0.108391084
70	0xbd34caf3	-0.04413886
71	0xbde996c5	-0.1140571
72	0x3da41174	0.080111414
73	0x3dc3af02	0.095548645
74	0xbde75bd3	-0.11296811
75	0x3de4b117	0.1116659
76	0x3ea71dd1	0.32639936
77	0xbe0b85ca	-0.13625255
78	0xbd58d50f	-0.052937564
79	0xbd85bab7	-0.06529754
80	0xbe146326	-0.14490947
81	0xbe41748d	-0.18892117
82	0xbea0bcff	-0.31394193
83	0xbcb27c07	-0.021787656
84	0x3b49d2fa	0.0030795918
85	0x3d73ab54	0.059489563
86	0x3ddded80	0.10836315
87	0x3e465cfc	0.19371408
88	0x3dfae670	0.12250984
89	0x3e1b3339	0.15156259
90	0xbe5f0341	-0.21778585
91	0x3d002e3b	0.03129409
92	0x3e28663a	0.16445246
93	0xbe651e07	-0.22374736
94	0xbe6e7207	-0.23285685
95	0x3e06e547	0.131734
96	0x3e5d6422	0.21620229
97	0x3dc8675e	0.09785341
98	0x3d97a998	0.07405394
99	0xbe23703a	-0.1596078
100	0x3e0b5bb6	0.13609204
101	0xbdbc23aa	-0.0918649
102	0xbd726e74	-0.059187368
103	0x3e86c8ee	0.26325172
104	0x3e26e41a	0.16297951
105	0xbe8651b6	-0.26234215
106	0x3ddca1bd	0.10773037
107	0x3e837db3	0.25681838
108	0xbe247446	-0.1605998
109	0xbe01390f	-0.12619422
110	0xbde6deb2	-0.112729445
111	0x3e00f12e	0.12592003
112	0xbd427fb8	-0.047485083
113	0x3cfd99c3	0.030957108
114	0x3d88eb07	0.06685453
115	0x3ed3d7bb	0.41375527
116	0x3d1867bc	0.037208304
117	0xbdaf19d3	-0.085498475
118	0x3dbaae4f	0.09115278
119	0x3d089593	0.03334577
120	0xbc397c81	-0.011321188
121	0xbe554aa8	-0.2082926
122	0xbd548207	-0.051881816
123	0xbdf590aa	-0.11990483
124	0xbe401244	-0.18756968
125	0x3e7b8d21	0.24565555
126	0x3e2fa557	0.17152916
127	0x3d99901a	0.07498188
128	0xbe85db69	-0.2614396
129	0x3f0c9138	0.54909086
130	0xbd0cd892	-0.034386225
131	0xbcec6067	-0.028854562
132	0xbda0b0fa	-0.078462556
133	0x3ea67c4a	0.325167
134	0x3e82f575	0.25577894
135	0xbd701669	-0.058615122
136	0x3e460dcc	0.193412
137	0xbe30edaf	-0.17278169
138	0xbdbb1e5f	-0.09136652
139	0x3dbd061b	0.0922968
140	0x3d88ceb5	0.06680051
141	0xbcb4f661	-0.022090139
142	0xbe300a2a	-0.17191377
143	0xbe4ac849	-0.19802965
144	0xbd5edb8e	-0.054408602
145	0x3e8c3953	0.27387485
146	0xbe1efe1a	-0.1552662
147	0xbd951da2	-0.07281043
148	0x3d80466f	0.06263434
149	0xbe464c6e	-0.19365093
150	0x3deae481	0.11469365
151	0xbd895771	-0.06706131
152	0xbe399492	-0.18123081
153	0xbe0d540a	-0.1380159
154	0x3c90857e	0.017641779
155	0xbd81c289	-0.06335933
156	0xbe4b6659	-0.19863261
157	0x3e0e71eb	0.13910644
158	0xbdb283e2	-0.08716561
159	0xbc107a61	-0.00881824
160	0xbe40e70b	-0.18838136
161	0x3d903f97	0.07043379
162	0x3d900b24	0.07033375
163	0x3d8d9687	0.069134764
164	0xbcbf657d	-0.023363823
165	0xbd50c570	-0.05096954
166	0x3d026c31	0.03184146
167	0xbd9bc9c7	-0.07606845
168	0x3e2489ff	0.16068266
169	0x3dfe7fea	0.124267414
170	0xbe298b6e	-0.16557094
171	0xbdd6406f	-0.104615085
172	0x3d52c55f	0.05145776
173	0xbe1c28ed	-0.15249987
174	0x3e86d1b9	0.2633188
175	0xbda30977	-0.0796079
176	0xbf4f3fd0	-0.80956745
177	0x3eaad419	0.33364943
178	0x3db27fbd	0.087157704
179	0x3cdd7df1	0.027037593
180	0xbe29d41a	-0.16584817
181	0x3e40087f	0.18753241
182	0x3e0aa170	0.13538146
183	0xbd6b9c54	-0.057522133
184	0x3e9c8eb4	0.30577624
185	0xbea44925	-0.32087055
186	0xbe2f8067	-0.17138825
187	0x3e39faba	0.18162051
188	0x3e860849	0.26178196
189	0xbe829985	-0.2550775
190	0x3e2eb50b	0.1706125
191	0x3e20945f	0.15681599
192	0xbd7749e4	-0.060373202
193	0x3eaa9b84	0.33321774
194	0x3e42347b	0.18965332
195	0xbdbec26d	-0.093144275
196	0xbe02508e	-0.12726042
197	0x3cae8274	0.02130244
198	0xbe8781b2	-0.26466137
199	0x3d813c29	0.06310303
200	0x3e3aec37	0.18254171
201	0xbe8810af	-0.2657523
202	0xbe9add13	-0.3024679
203	0x3d1e29b6	0.038613997
204	0x3e02d52a	0.12776628
205	0xbec1a20a	-0.37818938
206	0xbe752fda	-0.23944035
207	0xbd80621f	-0.06268715
208	0xbebc9714	-0.36834013
209	0x3d13a308	0.03604415
210	0xbdf232cc	-0.11826095
211	0xbd39b67c	-0.045340046
212	0x3d8d1153	0.0688807
213	0xbe0ec2d4	-0.13941509
214	0xbd111818	-0.03542337
215	0x3ee9400c	0.45556676
216	0xbed99f83	-0.4250451
217	0x3c152498	0.009102963
218	0x3e5c58bd	0.21518226
219	0xbe1e88c7	-0.15481864
220	0xbe4a4bac	-0.19755429
221	0xbeab3b68	-0.3344376
222	0x3dbde23d	0.09271667
223	0xbe368839	-0.17825402
224	0x3c1b10c0	0.009464443
225	0xbe0c3812	-0.13693264
226	0xbd5a9d46	-0.053372644
227	0xbdbfe990	-0.093707204
228	0x3ddef672	0.108868495
229	0xbd8350af	-0.064118735
230	0xbb9c0117	-0.004760872
231	0xbd9500f5	-0.07275573
232	0x3d5a73c1	0.053333048
233	0xbe946329	-0.28981903
234	0x3dcb2c0c	0.09920511
235	0xbd9c5a44	-0.07634404
236	0x3dd70b5c	0.105002135
237	0x3e6fa031	0.23400952
238	0x3dbd6d32	0.09249343
239	0xbde93ea7	-0.11388903
240	0xbe831fd7	-0.2561023
241	0xbc40d1d9	-0.011768782
242	0x3cfc75c7	0.03081788
243	0x3e4a686b	0.19766395
244	0x3c3428ee	0.0109960865
245	0x3e7816f3	0.24227504
246	0xbe267329	-0.16254868
247	0x3e8b82b1	0.27248147
248	0x3dcff2b2	0.10153712
249	0x3d95e2ed	0.07318673
250	0xbd48d843	-0.04903437
251	0x3e01b3e2	0.12666276
252	0xbe31e1aa	-0.1737124
253	0x3e9d1f76	0.30688065
254	0x3cb45ce3	0.022016948
255	0x3e5aeb9e	0.21378943

base.5linear.bias f4 [50]
0	0x3cb36546	0.021898877
1	0xbdaf583d	-0.08561752
2	0xbd17dda7	-0.03707662
3	0xbd12ecd8	-0.035870403
4	0xbd101936	-0.035180293
5	0xbd3d3807	-0.04619601
6	0xbd135624	-0.035970822
7	0x3c594fe3	0.013263675
8	0x3d3cb813	0.046073984
9	0xbdd54cc0	-0.104150295
10	0xbd16e626	-0.03684058
11	0x3c27c5cb	0.010240029
12	0xbd62421c	-0.055238828
13	0x3dcfe9a5	0.10151986
14	0xbe1e45b2	-0.15456274
15	0xbe289e4a	-0.16466632
16	0xbd4000af	-0.046875652
17	0x3bce23d9	0.0062908945
18	0xbc71797c	-0.014738437
19	0xbdc303db	-0.0952222
20	0x3cc5d529	0.024149494
21	0xbae24263	-0.0017262216
22	0x3b2557d5	0.0025229354
23	0x3cfd5368	0.03092356
24	0x3c07e32a	0.008293906
25	0x3e6821c2	0.22669128
26	0xbd3325b9	-0.043737147
27	0x3dd8f2c5	0.105931796
28	0xbc90d0f9	-0.01767777
29	0x3d72b410	0.059253752
30	0x3d5bada9	0.053632412
31	0x3dafe4e0	0.08588576
32	0xbdbf0e56	-0.09328906
33	0xbc14db9b	-0.009085561
34	0xbdadd6d0	-0.08488238
35	0x3ce28873	0.027652955
36	0x3c324796	0.010881325
37	0x3b8a0aaf	0.0042126994
38	0x3d765588	0.060140163
39	0x3d849189	0.06473071
40	0xbdd330c3	-0.10312035
41	0xbaa4958e	-0.0012556778
42	0x3de7e453	0.11322846
43	0xbe1295d3	-0.14314966
44	0xbd8268f1	-0.06367672
45	0xbc7aca15	-0.015306969
46	0x3bc06f54	0.0058726463
47	0x3d074963	0.03302897
48	0x3dc9a563	0.09845998
49	0xbd2abb00	-0.041682243
