STPINN-NS/sub_data/sub_write/12NS_model_train.pt (torch, 100091 bytes, 22 tensors)

base.0linear.weight f4 [50, 3]
-0.0004024834 -0.000650942 -8.933578e-05 -0.39789793 -0.0099845175 0.107522726 0.0073971646 0.2251292
-0.110132694 -0.03162796 -0.08663266 -0.34524027 -0.1143665 0.1342942 0.0021325843 0.07533771
-0.13143663 -0.28742424 -0.20023535 0.41778335 -0.1404818 0.039819438 0.30614197 -0.26700827
0.097270176 -0.012656206 0.35658637 -0.5356654 0.36108646 0.22520278 -0.5055868 -0.039085407
-0.009995199 -0.33632112 0.2085329 -0.06222746 -0.17596504 -0.042847957 -0.1847137 0.06837898
0.21276917 -0.019173475 -0.050862152 0.2052412 -0.38985407 -0.008109443 0.109741256 -0.0090872655
-0.14573276 0.23924644 0.02582616 -0.20711328 0.042403966 0.17817451 -0.22623429 0.19895908
0.12761845 -0.09286335 -0.067581676 0.0054583927 0.21561727 0.037603498 -0.027045218 0.07461843
0.12185443 -0.13138132 0.16899419 -0.22544362 -0.19975528 -0.00033644555 0.00040048163 -0.0001456647
-0.17743452 -0.21257007 0.18788636 0.03727189 -0.11672879 -0.16190654 0.18864836 0.14468205
-0.40991902 0.19304208 0.13771045 -0.14399147 -0.22699688 0.09793535 0.12923366 0.00075663097
0.0002631548 0.00028099326 0.03824784 0.15055962 0.22171083 0.003958934 0.26914147 -0.3604379
-0.2968291 -0.19465744 0.06035725 0.14611983 0.11809223 0.028893655 0.32206735 -0.24078137
-0.16310488 -0.12338508 0.14931123 -0.16953114 0.10812834 -0.008014296 -0.36434877 -0.00057318126
0.0007553648 1.7135859e-05 -0.07487089 -0.07460992 -0.19652852 0.11104955 0.030131798 -0.23822874
0.2331251 -0.25642717 -0.37743598 0.0009926464 -0.11384815 -0.13838588 0.004526245 0.001449799
-0.0020763879 -0.00049791986 0.00056391204 -0.0008848341 -0.24647501 -0.12587261 -0.18352616 0.42886057
-0.2391528 0.13556659 -0.005119277 0.27920768 0.07259179 0.00057413895 -0.00012786832 0.00025505558
0.11719969 -0.29832047 0.28375375 -0.073392965 -0.29444015 0.082917325
00000000: 6804 d3b9 faa3 2aba c859 bbb8 47b9 cbbe
00000010: 1a96 23bc e034 dc3d ea63 f23b 4588 663e
00000020: 408d e1bd 528c 01bd 776c b1bd 55c3 b0be
00000030: fc38 eabd 6b84 093e d4c2 0b3b a84a 9a3d
00000040: 5397 06be 4529 93be 7f0a 4dbe b3e7 d53e
00000050: 76da 0fbe b519 233d a4be 9c3e 4fb5 88be
00000060: 9635 c73d fa5b 4fbc 7d92 b63e 5e21 09bf
00000070: 53e0 b83e 8f9b 663e 236e 01bf 0518 20bd
00000080: e7c2 23bc 4832 acbe a689 553e 39e2 7ebd
00000090: 2e30 34be 5781 2fbd 9725 3dbe 470a 8c3d
000000a0: 29e0 593e b111 9dbc d554 50bd c02a 523e
000000b0: f49a c7be 78dd 04bc 06c0 e03d c1e2 14bc
000000c0: f83a 15be 05fd 743e 6291 d33c 8115 54be
000000d0: c8af 2d3d 6173 363e f6a9 67be eebb 4b3e
000000e0: 69ae 023e 242f bebd 4368 8abd 51dc b23b
000000f0: c6ca 5c3e 2006 1a3d ef8d ddbc 8cd1 983d
00000100: d18e f93d d388 06be d00c 2d3e b1da 66be
00000110: a68c 4cbe f564 b0b9 bcf7 d139 92bd 18b9
00000120: 65b1 35be f8ab 59be 4865 403e 69aa 183d
00000130: 810f efbd d4ca 25be 092d 413e 8827 143e
00000140: e8e0 d1be d3ac 453e f803 0d3e 8072 13be
00000150: df71 68be 5492 c83d d455 043e a558 463a
00000160: 0af8 8939 4752 9339 c4a9 1c3d 4d2c 1a3e
00000170: 2a08 633e f2b9 813b e9cc 893e 518b b8be
00000180: fcf9 97be 4854 47be 2a39 773d 70a0 153e
00000190: 57da f13d 63b2 ec3c 03e6 a43e 648f 76be
000001a0: f704 27be 51b1 fcbd 0be5 183e 9299 2dbe
000001b0: 6472 dd3d 654e 03bc ec8b babe 8b41 16ba
000001c0: ac03 463a fabe 8f37 e955 99bd 16cd 98bd
000001d0: c63e 49be f26d e33d f6d6 f63c 3cf2 73be
000001e0: 59b8 6e3e 6c4a 83be 4a3f c1be b01b 823a
000001f0: 3829 e9bd 07b5 0dbe e550 943b 2f07 be3a
00000200: 0214 08bb d686 02ba 7fd3 133a 36f4 67ba
00000210: f263 7cbe c0e4 00be 48ee 3bbe 9d93 db3e
00000220: 79e4 74be f8d1 0a3e 9cbf a7bb 4ff4 8e3e
00000230: 01ab 943d d081 163a 6414 06b9 fbb8 8539
00000240: 6406 f03d 76bd 98be 2c48 913e 0d4f 96bd
00000250: dcc0 96be 8fd0 a93d

base.0linear.bias f4 [50]
0.00032690694 0.0023953936 -0.15639324 0.16626942 -0.071749195 0.030183574 -0.19682515 -0.14231052
-0.18101554 -0.0060631777 0.13854195 -0.12442409 0.12879917 -0.20504192 -0.08915763 -0.09857737
-0.16341536 -0.056896664 -0.1149982 0.091640644 -0.080229014 -0.08081904 0.18844289 -0.00015713845
0.11206906 0.13736406 0.027472556 -0.12790866 -0.08936535 -0.00022035286 -0.21396865 -0.015325451
0.18431272 -0.1766462 0.055731576 -0.0613156 -0.0084649185 0.0004886282 0.13672528 0.041280467
-0.053423893 0.17545158 -0.0047749383 -0.00056765886 0.1524182 0.09921145 -0.25760075 0.00047964856
0.069983974 0.20039314
00000000: b564 ab39 09fc 1c3b 8d25 20be 8842 2a3e
00000010: 3ef1 92bd 8b43 f73c 888c 49be d9b9 11be
00000020: 235c 39be 9fad c6bb f1dd 0d3e 0fd2 febd
00000030: eee3 033e 82f6 51be 4798 b6bd efe2 c9bd
00000040: 5b56 27be 7a0c 69bd 2d84 ebbd 17ae bb3d
00000050: 1c4f a4bd 7484 a5bd 2cf7 403e 88c5 24b9
00000060: 7784 e53d 2aa9 0c3e 200e e13c 7dfa 02be
00000070: 2e05 b7bd 850e 67b9 991a 5bbe 9a17 7bbc
00000080: 79bc 3c3e bee2 34be cb46 643d 1126 7bbd
00000090: 71b0 0abc 4917 003a b601 0c3e b515 293d
000000a0: 03d3 5abd 94a9 333e 1677 9cbb f1ce 14ba
000000b0: 8413 1c3e 5f2f cb3d 3fe4 83be 5779 fb39
000000c0: c253 8f3d dc33 4d3e

base.1linear.weight f4 [50, 50]
-0.051228162 0.07875194 -0.055223934 -0.07539828 0.20474091 0.030991932 0.021201564 -0.06172623
-0.12387796 0.08470264 0.10871484 0.0770562 -0.109868646 -0.12343614 -0.04933957 -0.24006094
0.06844184 0.2573059 -0.03229058 0.066549495 -0.044922825 -0.17838007 -0.12836507 -0.016383318
0.11451289 -0.032616932 -0.37058407 -0.11940465 -0.0942026 0.03573965 -0.064340174 -0.1438989
0.35907233 -0.08709902 -0.017507676 0.07878377 0.14455481 -0.060956992 -0.09336302 -0.13616225
0.10543037 -0.09536362 0.21107621 0.00056771 -0.023697073 -0.21881881 -0.02865273 -0.08789785
0.14802983 0.1717952 0.06049847 -0.10135858 -0.14502981 0.15388225 0.006932412 0.22097805
-0.1038617 -0.026482116 0.2950101 0.0621813 0.08274834 0.050762303 -0.092692114 -0.408212
-0.14652202 -0.07856277 -0.09832009 0.08074719 0.07815233 -0.09035444 0.15031429 -0.0728371
0.12398047 -0.13641782 0.072951384 0.025987621 -0.14453694 -0.30507496 0.2275833 -0.020951228
-0.22316805 -0.22884186 -0.055619787 0.035755854 -0.22718067 -0.21006653 -0.040426556 0.014033483
-0.22210208 -0.45684394 0.08389847 0.1900202 -0.018682217 -0.09027915 0.24861966 -0.013732195
-0.6420977 0.08749058 0.02990413 0.29231712 -0.064258106 -0.01800077 0.49882394 -0.32515252
0.04984085 -0.12321082 0.46606144 0.16751069 0.021769252 -0.1463416 -0.058739718 0.014862543
-0.02033118 0.048822872 0.08306854 -0.032770842 0.11971775 0.04850952 0.04199676 0.24339084
-0.004532364 -0.14652629 0.019279491 -0.06561829 -0.17293708 -0.108412005 -0.07153551 0.13429946
0.24686201 -0.099715985 0.026290815 0.22573978 0.03861482 -0.17400412 0.021262221 0.10836134
-0.0069018826 0.034976397 0.1531108 -0.20716844 0.25833815 0.08037672 0.05709908 0.07598057
-0.2597773 -0.24649203 0.28454772 -0.034601696 -0.37291962 -0.04840446 0.010970202 -0.10956261
0.26960045 0.1690576 -0.03283696 0.07563872 -0.059695583 0.2167679 0.10586714 0.0844326
-0.29883364 0.21265133 0.06519344 0.041512065 0.1598386 0.08591199 0.103424914 0.096803315
0.21965975 -0.022590749 -0.06529982 -0.16002184 0.007942757 0.060118567 -0.094870746 -0.12001737
-0.017103856 -0.04529134 0.04600102 -0.10302552 0.12091104 0.07945583 -0.38087004 -0.03558315
-0.032632004 -0.06398784 -0.25176466 -0.07674587 -0.019084455 -0.0862112 -0.07588329 -0.1526711
0.04077684 0.020950649 -0.22108215 0.1040058 0.25928083 -0.05470651 0.15182364 -0.23080324
0.07531793 0.23999692 -0.31848896 0.05741053 -0.026250012 0.11070517 -0.4012573 -0.00541553
0.055842828 -0.24243827 -0.071064144 0.008567097 0.19403042 -0.19137192 -0.04100071 0.17079943
-0.2560123 -0.23313624 -0.21072412 0.06557974 -0.15544115 -0.3443263 0.22212052 -0.01018277
0.21050644 -0.08481357 0.08540167 -0.08548527 -0.048677567 -0.16992636 -0.32335958 -0.07661686
0.16445601 -0.054789733 -0.10998064 -0.14424789 0.082703546 -0.063781 0.11052369 0.05396069
0.18485415 -0.01793102 -0.14006062 -0.09052749 0.060181405 -0.006139508 -0.34054613 -0.06449514
0.027703356 0.20663285 0.0025523768 0.6339111 0.54941595 0.22658984 0.23451793 0.7382452
00000000: 9fd4 51bd b248 a13d 7e32 62bd 6a6a 9abd
00000010: 9aa7 513e cbe2 fd3c e7ae ad3c a5d4 7cbd
00000020: bab3 fdbd 9478 ad3d e3a5 de3d a4cf 9d3d
00000030: d002 e1bd 16cc fcbd 4a18 4abd 89d2 75be
00000040: 3c2b 8c3d 99bd 833e 2143 04bd 1a4b 883d
00000050: ff00 38bd 44a9 36be 2272 03be 4f36 86bc
00000060: bc85 ea3d 5599 05bd 32bd bdbe 6d8a f4bd
00000070: 4bed c0bd bd63 123d c8c4 83bd 3c5a 13be
00000080: 54d8 b73e f960 b2bd 426c 8fbc 6359 a13d
00000090: 2d06 143e 0aae 79bd 1c35 bfbd 1e6e 0bbe
000000a0: e1eb d73d 004e c3bd 5d24 583e 60d2 143a
000000b0: 5d20 c2bc 0a12 60be 21b9 eabc ca03 b4bd
000000c0: 2295 173e 15eb 2f3e 3ecd 773d 1695 cfbd
000000d0: b282 14be 4f93 1d3e 4929 e33b 1248 623e
000000e0: 71b5 d4bd 06f1 d8bc 900b 973e d2b1 7e3d
000000f0: f677 a93d 22ec 4f3d 5dd5 bdbd 2a01 d1be
00000100: de09 16be 84e5 a0bd 0b5c c9bd c85e a53d
00000110: 540e a03d c00b b9bd fdeb 193e 9e2b 95bd
00000120: 79e9 fd3d 1db1 0bbe 8967 953d fee3 d43c
00000130: 7e01 14be c932 9cbe 990b 693e e9a1 abbc
00000140: 2a86 64be 8555 6abe 93d1 63bd bb74 123d
00000150: 0da2 68be ae1b 57be 5196 25bd b2ec 653c
00000160: ba6e 63be 73e7 e9be f6d2 ab3d a894 423e
00000170: 730b 99bc 46e4 b8bd 2796 7e3e 00fd 60bc
00000180: 8460 24bf 432e b33d 82f9 f43c 97aa 953e
00000190: c199 83bd 5a76 93bc da65 ff3e 647a a6be
000001a0: eb25 4c3d f455 fcbd 9b9f ee3e ec87 2b3e
000001b0: 6e55 b23c 93da 15be 0f99 70bd 0682 733c
000001c0: 938d a6bc 7efa 473d d71f aa3d b83a 06bd
000001d0: 942e f53d ebb1 463d cb04 2c3d 733b 793e
000001e0: 3a84 94bb fd0a 16be 06f0 9d3c e262 86bd
000001f0: 6b16 31be 1d07 debd 3681 92bd cc85 093e
00000200: 65c9 7c3e e537 ccbd d65f d73c 5428 673e
00000210: 932a 1e3d 232e 32be 1c2e ae3c 8dec dd3d
00000220: 3029 e2bb 6943 0f3d 14c9 1c3e f723 54be
00000230: e644 843e 8d9c a43d bae0 693d b39b 9b3d
00000240: 8801 85be 6868 7cbe 3db0 913e 82ba 0dbd
00000250: 52ef bebe c143 46bd 5dbc 333c 5d62 e0bd
00000260: 1209 8a3e 6f1d 2d3e 0c80 06bd 79e8 9a3d
00000270: 5b83 74bd 68f8 5d3e dfd0 d83d 00eb ac3d
00000280: b900 99be 45c1 593e 2384 853d 8e08 2a3d
00000290: bbac 233e a0f2 af3d 71d0 d33d d140 c63d
000002a0: 7cee 603e 3c10 b9bc e9bb 85bd c4dc 23be
000002b0: 5622 023c e33e 763d 984b c2bd abcb f5bd
000002c0: 631d 8cbc 6a83 39bd 916b 3c3d 0bff d2bd
000002d0: 35a0 f73d bdb9 a23d 6601 c3be a3bf 11bd
000002e0: 23a9 05bd 0f0c 83bd 4ce7 80be f02c 9dbd
000002f0: 0157 9cbc 7f8f b0bd b368 9bbd d055 1cbe
00000300: 9e05 273d b2a0 ab3c 5c63 62be fe00 d53d
00000310: 75c0 843e ef13 60bd a877 1b3e af57 6cbe
00000320: 4940 9a3d c1c1 753e fc10 a3be 4e27 6b3d
00000330: 440a d7bc 64b9 e23d 9971 cdbe c274 b1bb
00000340: 73bb 643d bd41 78be 148a 91bd 025d 0c3c
00000350: e9af 463e 00f7 43be 5cf0 27bd 0ce6 2e3e
00000360: 0b14 83be 44bb 6ebe 10c8 57be ac4e 863d
00000370: f72b 1fbe 894b b0be 9073 633e a2d5 26bc
00000380: 008f 573e bdb2 adbd 12e7 ae3d e712 afbd
00000390: 2162 47bd 2d01 2ebe 638f a5be 4de9 9cbd
000003a0: 2867 283e 336b 60bd 883d e1bd b8b5 13be
000003b0: 7a60 a93d 9d9f 82bd 3f5a e23d e205 5d3d
000003c0: 684a 3d3e 13e4 92bc 0d6c 0fbe 7a66 b9bd
000003d0: c780 763d ed2d c9bb 105c aebe 0716 84bd
000003e0: 26f2 e23c 9097 533e c745 273b ff47 223f
000003f0: 86a6 0c3f 2b07 683e 7825 703e a3fd 3c3f

base.1linear.bias f4 [50]
0.033481665 0.1050154 -0.12886855 -0.1260644 0.10337774 -0.24418001 -0.024994534 -0.029858606
0.02711274 0.025577968 -0.09904339 -0.116123244 0.067202784 0.049226556 0.06383839 -0.034430254
0.03962807 -0.018981865 -0.098341264 -0.03329963 0.12587008 -0.029232353 -0.018098319 0.0017706814
0.033739097 -0.01762159 0.13702518 0.12355119 0.14724757 0.08912661 0.05831283 0.025773942
0.06939457 -0.16628128 -0.036723897 0.04170943 -0.046349876 0.083587274 0.011934945 -0.14080538
-0.0803905 -0.05498989 0.022185251 0.022888836 -0.06347869 -0.11365681 -0.03321578 -0.022752818
0.0097342245 -0.10898933
00000000: 1224 093d 5012 d73d 1ef6 03be 0717 01be
00000010: b5b7 d33d 530a 7abe 56c1 ccbc 099a f4bc
00000020: 891b de3c e388 d13c 43d7 cabd 06d2 edbd
00000030: 9da1 893d c9a1 493d b4bd 823d bd06 0dbd
00000040: 0b51 223d db7f 9bbc 2567 c9bd 3165 08bd
00000050: 16e4 003e b078 efbc ed42 94bc 3516 e83a
00000060: 0232 0a3d 275b 90bc 5450 0c3e 6808 fd3d
00000070: 11c8 163e 0388 b63d 6fd9 6e3d e023 d33c
00000080: be1e 8e3d a445 2abe cc6b 16bd 82d7 2a3d
00000090: 5ed9 3dbd ce2f ab3d ca8a 433c 492f 10be
000000a0: c6a3 a4bd 143d 61bd d8bd b53c 5e81 bb3c
000000b0: 1e01 82bd e7c4 e8bd 450d 08bd 1e64 babc
000000c0: 4c7c 1f3c cc35 dfbd

base.2linear.weight f4 [50, 50]
0.14061233 0.14047736 -0.102019034 -0.20704639 0.17744838 -0.037783895 -0.012939218 -0.0001734462
0.13378443 0.0004957701 -0.029549275 -0.066330105 -0.23215799 0.5103362 0.31465796 -0.21392843
0.019887239 -0.005921787 -0.33555624 -0.021752022 0.26093206 0.13579378 0.14771944 0.008208317
0.007332133 0.008095359 0.20866837 0.12017591 0.22798999 0.01917384 0.019554116 -0.12116616
-0.2306759 -0.060639296 0.123964496 0.073261596 -0.013641614 -0.21093181 -0.0149735715 -0.26545414
-0.2596409 0.010308545 -0.032802623 -0.0030754218 0.1453915 -0.022108218 0.4160379 -0.019575339
0.2212474 0.053464003 0.071570136 -0.20619276 -0.08141026 -0.035203565 -0.01857975 -0.0011330982
-0.10452014 -0.050501943 0.008726538 -0.054503273 -0.07628045 -0.085416965 0.0048434655 -0.027330734
-0.056175016 0.03104877 0.29705107 0.059445545 0.0049402737 0.15832262 0.08871223 -0.026793635
0.027613044 0.06724417 0.128907 0.09152691 -0.18178941 -0.054277 -0.06611834 -0.0031219472
0.21388127 0.06767951 0.052125733 0.10089913 -0.061805394 -0.00046508948 0.15406817 0.19705674
-0.20559427 -0.07698728 0.037274987 0.09605463 0.095684856 0.15523154 -0.08011298 -0.14497916
0.0094649345 0.0018631398 0.23752096 -0.030748079 -0.0147399735 -0.2581125 0.13938533 0.019535746
-0.0009500827 0.08210702 -0.0011714847 0.017652532 0.07014199 0.00699985 0.056341447 0.24870497
-0.15478927 -0.16325067 -0.26230535 -0.112574294 -0.033237465 0.0010126488 -0.2008931 0.34956086
-0.43504575 -0.12145567 0.3347864 0.006220504 -0.0014012997 -0.00075919594 -0.38848627 -0.21682762
-0.43622234 -0.11008683 0.0829935 -0.2761033 -0.13940753 -0.15840454 0.10545749 0.1606806
0.005665318 0.05399491 0.08673495 0.057159867 0.20978692 0.005651448 -0.17392974 0.0081487615
0.1620003 0.09528125 -0.058313157 0.09970786 0.11367445 0.03594204 -0.061936535 -0.11095774
0.18399616 -0.13375491 0.004199994 -0.12454113 -0.0065326244 -0.014724919 0.017409949 0.0008051678
0.16270359 0.14347655 -0.17353323 0.12931395 0.010067581 0.019787354 0.03822511 0.0022166192
0.11892672 -0.055590276 0.1110262 0.07188528 -0.1047968 -0.010016033 0.017528709 0.0049684993
0.13399568 0.1796839 -0.016310303 0.21011347 0.2769748 0.11735934 -0.10526933 0.16246486
0.12542972 -0.16853309 -0.01590331 -0.24123198 -0.1480176 -0.17737707 -0.11531708 -0.0056805722
-0.05935233 -0.0009058555 0.02582246 0.09555191 0.14297527 0.17507923 0.07322668 -0.2844488
0.21033336 0.10855043 -0.043453738 0.05121463 -0.1872453 0.089379326 0.008435386 -0.003523093
-0.122262366 -0.002675391 -0.37867102 -0.1267831 -0.10170282 0.047210034 0.24567175 -0.19420382
0.052099448 -0.002442668 0.15644766 -0.18824674 -0.19133292 -0.116595566 -0.28752017 -0.0058179223
-0.0012324236 -0.0019307723 -0.047121435 -0.1197961 0.12854671 -0.19991395 0.058424875 0.19140929
-0.015672043 0.2819654 -0.32290915 -0.109311715 0.008771895 0.2887623 -0.19730364 -0.038052086
-0.105059974 0.0026758357 0.038942832 -0.0015138831 0.06150069 0.17549948 0.097019464 0.051191285
0.16331461 0.29033604 -0.0068851113 -0.21356694 -0.01439939 0.22324608 -0.044387713 0.10337474
00000000: aefc 0f3e 4cd9 0f3e 5bef d0bd f803 54be
00000010: 07b5 353e 49c3 1abd 04ff 53bc 1cdf 35b9
00000020: c9fe 083e 91f6 013a 5211 f2bc 14d8 87bd
00000030: d3ba 6dbe 65a5 023f d91a a13e 0e10 5bbe
00000040: 90ea a23c 8d0b c2bb 07ce abbe 4c31 b2bc
00000050: e398 853e 860d 0b3e c443 173e 2d7c 063c
00000060: 6442 f03b 66a2 043c 29ad 553e ca1e f63d
00000070: 3576 693e 7512 9d3c f42f a03c f725 f8bd
00000080: 4e36 6cbe e960 78bd 19e1 fd3d 2d0a 963d
00000090: 1381 5fbc 82fe 57be b653 75bc 9be9 87be
000000a0: a7ef 84be 2ce5 283c 0b5c 06bd 048d 49bb
000000b0: 82e1 143e 4b1c b5bc eb02 d53e 765c a0bc
000000c0: ae8e 623e 12fd 5a3d 5d93 923d 3224 53be
000000d0: 6cba a6bd 9d31 10bd 8f34 98bc 7784 94ba
000000e0: a80e d6bd 20db 4ebd c1f9 0e3c d33e 5fbd
000000f0: ed38 9cbd 17ef aebd efb5 9e3b b4e4 dfbc
00000100: c617 66bd fd59 fe3c 1417 983e 2c7d 733d
00000110: 05e2 a13b 531f 223e c2ae b53d 537e dbbc
00000120: c034 e23c 50b7 893d 3200 043e 7672 bb3d
00000130: 0127 3abe 8f51 5ebd 0d69 87bd 9599 4cbb
00000140: b103 5b3e 8e9b 8a3d cb81 553d 34a4 ce3d
00000150: a727 7dbd 41d7 f3b9 0cc4 1d3e 3ec9 493e
00000160: 4e87 52be 82ab 9dbd a8ad 183d 4ab8 c43d
00000170: 6cf6 c33d 04f5 1e3e 4612 a4bd 6b75 14be
00000180: d012 1b3c 9934 f43a b238 733e 65e3 fbbc
00000190: ee7f 71bc 5227 84be 07bb 0e3e 6e09 a03c
000001a0: f80e 79ba ba27 a83d 818c 99ba 0b9c 903c
000001b0: 9ba6 8f3d ff5e e53b 4ac6 663d 84ac 7e3e
000001c0: 1481 1ebe 2f2b 27be e34c 86be 5a8d e6bd
000001d0: 0224 08bd dbba 843a ecb6 4dbe a4f9 b23e
000001e0: 51be debe c0bd f8bd 1f69 ab3e 5fd5 cb3b
000001f0: d1ab b7ba c704 47ba ace7 c6be 0f08 5ebe
00000200: 8958 dfbe 3475 e1bd 7ff8 a93d 695d 8dbe
00000210: d9c0 0ebe cd34 22be 19fa d73d 7589 243e
00000220: 22a4 b93b c429 5d3d 18a2 b13d 7720 6a3d
00000230: 62d2 563e c82f b93b a31a 32be 6282 053c
00000240: 68e3 253e d122 c33d c7d9 6ebd a233 cc3d
00000250: 26ce e83d f637 133d 2ab1 7dbd d03d e3bd
00000260: 7d69 3c3e 0cf7 08be 1aa0 893b 6c0f ffbd
00000270: a00f d6bb c940 71bc 4f9f 8e3c e511 533a
00000280: c59b 263e 84eb 123e b2b2 31be e06a 043e
00000290: 7ff2 243c 1719 a23c ef91 1c3d b344 113b
000002a0: da8f f33d a1b2 63bd b461 e33d 9738 933d
000002b0: b49f d6bd 4a1a 24bc 5e98 8f3c cbce a23b
000002c0: 2a36 093e 0eff 373e 2f9d 85bc fc27 573e
000002d0: a4cf 8d3e 185a f03d 7297 d7bd 305d 263e
000002e0: a670 003e f093 2cbe a947 82bc 8405 77be
000002f0: ed91 17be 56a2 35be 5c2b ecbd 1824 babb
00000300: 6e1b 73bd ef76 6dba a089 d33c b8b0 c33d
00000310: 1c68 123e f847 333e dff7 953d 46a3 91be
00000320: a161 573e b04f de3d 8cfc 31bd 6fc6 513d
00000330: 3bbd 3fbe 820c b73d 9334 0a3c b1e3 66bb
00000340: b164 fabd 9d55 2fbb 2be1 c1be 6ed3 01be
00000350: 9149 d0bd 4f5f 413d 6091 7b3e 5edd 46be
00000360: 3b66 553d 2b15 20bb d133 203e c1c3 40be
00000370: c7ec 43be a8c9 eebd d835 93be 45a4 bebb
00000380: 4689 a1ba f811 fdba 6802 41bd a857 f5bd
00000390: c0a1 033e 3eb6 4cbe ec4e 6f3d cc00 443e
000003a0: a862 80bc c55d 903e 5954 a5be d2de dfbd
000003b0: ffb7 0f3c a7d8 933e f709 4abe 81dc 1bbd
000003c0: af29 d7bd 135d 2f3b 8582 1f3d 7d6d c6ba
000003d0: 26e8 7b3d 23b6 333e 24b2 c63d f4ad 513d
000003e0: f23b 273e eda6 943e 809c e1bb 4bb1 5abe
000003f0: 6beb 6bbc 9f9a 643e e4cf 35bd 23b6 d33d

base.2linear.bias f4 [50]
0.090453774 0.004263509 -0.14811549 0.07445269 -0.010690378 -0.041119218 -0.108996145 -0.03106383
0.053776696 -0.18338226 -0.0028650148 0.051533714 -0.14957458 0.0071137026 0.10288123 -0.09879026
0.06254614 0.048616283 0.103506535 -0.12333128 -0.097276114 0.054925982 0.16271333 0.15493582
0.037648827 -0.11565058 -0.105307095 0.011858063 0.037713785 -0.124470286 -0.03754592 0.0073474958
0.14825293 0.042859495 0.036992777 -0.0883078 0.046410006 0.019077403 0.008552972 -0.009105337
-0.07401692 0.0038592578 0.11025255 -0.01363159 0.055702128 -0.12518659 -0.10338749 0.06652861
-0.15197188 -0.06779367
00000000: d43f b93d e8b4 8b3b 96ab 17be a77a 983d
00000010: b226 2fbc a06c 28bd 5f39 dfbd 9379 febc
00000020: f444 5c3d 8fc8 3bbe f9c2 3bbb 0415 533d
00000030: 142a 19be 101a e93b 65b3 d23d 8c52 cabd
00000040: 3118 803d de21 473d 3cfb d33d 1c95 fcbd
00000050: b338 c7bd 11fa 603d 539e 263e 7fa7 1e3e
00000060: a835 1a3d 36da ecbd 3fab d7bd 5248 423c
00000070: c579 1a3d 47ea febd c0c9 19bd 43c3 f03b
00000080: 9ecf 173e 708d 2f3d bd85 173d b8da b4bd
00000090: 6b18 3e3d 3748 9c3c c421 0c3c 8d2e 15bc
000000a0: 2f96 97bd 9aeb 7c3b 17cc e13d 0857 5fbc
000000b0: ea27 643d ea30 00be d2bc d3bd 2740 883d
000000c0: 849e 1bbe 68d7 8abd

base.3linear.weight f4 [50, 50]
0.075174056 -0.022134416 0.254768 -0.22092053 -0.27216798 -0.2373902 -0.46453664 0.36696926
-0.039842512 0.039408248 0.16809797 -0.2529765 0.07500383 0.05536802 0.018945362 0.3061587
-0.12763555 -0.16594829 -0.04752812 -0.2515238 0.08763746 -0.09727949 0.2033143 0.20496452
0.0878813 -0.14914584 0.40589687 0.0894417 -0.11753741 -0.08524925 -0.35231817 -0.02069375
-0.036244076 -0.35733023 -0.033790372 -0.0661302 -0.41239128 0.0021926744 0.05024526 0.01753892
0.024206165 0.018622866 -0.04720485 -0.18646155 -0.18540432 -0.10312761 -0.18961065 -0.009971359
0.099222586 0.10850106 -0.10390956 -0.011072325 -0.27378383 0.09258735 0.058162387 -0.32927144
-0.27595624 -0.10409933 -0.44106013 -0.027635826 -0.077481546 -0.04153453 -0.27417898 0.24842906
0.24529743 -0.24113892 -0.17102912 0.016856803 0.0892078 -0.1453614 0.05555064 0.28267536
0.18290965 -0.107092746 0.4271536 -0.24138844 -0.009395215 -0.08806193 -0.064339235 -0.043229833
-0.013376458 0.17731878 0.1581515 -0.2631191 0.10958627 0.07643008 -0.34608063 0.0097804945
0.14118455 -0.06460286 0.11132017 0.031642117 0.19573915 -0.06846654 -0.12564744 -0.21132699
-0.24829462 -0.18653254 0.17421746 0.027679877 0.20968786 -0.012422003 0.01759287 -0.021612741
-0.15568496 0.1577441 -0.33799344 0.24389505 0.3902681 -0.011657027 0.24783243 0.10929689
0.26526156 0.014855126 -0.47131708 0.12961584 -0.27731484 -0.14307463 -0.21253406 0.07478461
0.031565234 -0.13920027 -0.09567018 0.12373084 -0.13018122 0.085610405 0.061624374 -0.22612989
0.18490088 0.025800759 -0.17897275 0.06389738 -0.21420312 0.17393444 -0.12283687 -0.2736429
-0.02554222 0.006848003 0.06833842 0.20033747 -0.29747948 0.019510323 0.04276018 0.19990107
0.09993737 0.20994283 -0.074009374 0.057684187 0.4500855 -0.099583276 0.2437846 -0.0069145984
0.12433121 0.15329301 -0.2682433 -0.04881589 0.22678025 0.1008911 0.20480047 0.12786804
-0.2736549 0.09483568 0.31721622 0.12586883 0.2642565 -0.24045193 -0.09776105 -0.034236267
0.13896321 0.045791257 -0.01802009 0.17311276 0.07341044 0.07432098 0.072009854 0.2099857
-0.052635696 0.087840945 -0.0016413532 -0.25406718 -0.1624622 -0.07724648 0.05739862 -0.1489883
-0.237832 -0.074863404 0.17026812 0.020272844 -0.012393586 -0.08849906 0.004481385 0.01702996
0.032688607 -0.11025438 0.11648207 -0.025285514 0.10645936 0.010685105 -0.10652474 0.12774265
-0.11945589 -0.0052959896 0.22425362 -0.20015262 -0.29760882 0.12667802 -0.29359674 -0.10507705
0.15990648 0.18412499 0.11290779 -0.10501799 -0.11414766 -0.284803 -0.19102909 -0.03784992
-0.1324342 -0.049966592 -0.15218832 0.06317812 0.105156444 0.23228669 -0.07363628 0.17016165
0.12766689 0.06392192 0.06534221 -0.4992024 0.056713454 0.088369146 -0.079156496 0.042466786
-0.09607815 -0.15311322 0.19358839 -0.31379506 -0.11555476 0.0072820387 -0.14579806 0.08791691
-0.11313342 0.025459165 -0.18364792 -0.1295264 -0.042665392 0.18516332 -0.40172118 0.17091562
0.15459423 0.020411495 -0.16240443 -0.007506046 0.045819096 0.060595527 -0.20404369 0.06331856
00000000: dbf4 993d 3c53 b5bc f470 823e fe38 62be
00000010: 9a59 8bbe 6b16 73be bfd7 edbe 65e3 bb3e
00000020: e731 23bd 8b6a 213d e021 2c3e 2386 81be
00000030: 9c9b 993d 94c9 623d 4e33 9b3c d5c0 9c3e
00000040: e5b2 02be 59ee 29be d9ac 42bd bac7 80be
00000050: 457b b33d 783a c7bd a031 503e 38e2 513e
00000060: 1cfb b33d b0b9 18be b7d1 cf3e 362d b73d
00000070: 74b7 f0bd 2997 aebd 0c63 b4be f085 a9bc
00000080: ab74 14bd fdf3 b6be c667 0abd 456f 87bd
00000090: f324 d3be f9b2 0f3b f9cd 4d3d c8ad 8f3c
000000a0: 024c c63c fb8e 983c df59 41bd c7ef 3ebe
000000b0: a1da 3dbe 9234 d3bd 4b29 42be e95e 23bc
000000c0: 3635 cb3d ce35 de3d 89ce d4bd b268 35bc
000000d0: 652d 8cbe 709e bd3d af3b 6e3d 4496 a8be
000000e0: 234a 8dbe 0832 d5bd a2d2 e1be 8764 e2bc
000000f0: a5ae 9ebd 1d20 2abd 3061 8cbe 3064 7e3e
00000100: 402f 7b3e 1fed 76be 4222 2fbe 4717 8a3c
00000110: 94b2 b63d 9ed9 14be 1189 633d d3ba 903e
00000120: ab4c 3b3e 7153 dbbd e0b3 da3e 882e 77be
00000130: 63ee 19bc d059 b4bd 4ac4 83bd c411 31bd
00000140: ee28 5bbc 0e93 353e 78f2 213e 8cb7 86be
00000150: c46e e03d 6087 9c3d 7b31 b1be 5e3e 203c
00000160: af92 103e 814e 84bd d4fb e33d 2a9b 013d
00000170: d86f 483e 2f38 8cbd b9a9 00be 1a66 58be
00000180: f240 7ebe 6302 3fbe 1066 323e e9c0 e23c
00000190: 6ab8 563e a885 4bbc ec1e 903c 340d b1bc
000001a0: e16b 1fbe ab87 213e 7a0d adbe a0bf 793e
000001b0: 38d1 c73e 1dfd 3ebc c9c7 7d3e 0cd7 df3d
000001c0: 5dd0 873e ea62 733c 7950 f1be 04ba 043e
000001d0: 36fc 8dbe 2882 12be 87a2 59be ac28 993d
000001e0: 8c4a 013d 848a 0ebe baee c3bd 9866 fd3d
000001f0: 3a4e 05be 8254 af3d d769 7c3d 988e 67be
00000200: a856 3d3e 1d5c d33c a244 37be a1dc 823d
00000210: 1058 5bbe df1b 323e e691 fbbd ec1a 8cbe
00000220: eb3d d1bc 3665 e03b 03f5 8b3d 4425 4d3e
00000230: 3b4f 98be 1dd4 9f3c 4c25 2f3d deb2 4c3e
00000240: f7ab cc3d 41fb 563e 3a92 97bd 4146 6c3d
00000250: 9b71 e63e 51f2 cbbd aca2 793e db93 e2bb
00000260: 5da1 fe3d d8f8 1c3e 3057 89be 2cf3 47bd
00000270: 1539 683e fe9f ce3d 37b7 513e d7ef 023e
00000280: 7f1c 8cbe 3639 c23d 2a6a a23e c2e3 003e
00000290: a14c 873e 0839 76be f236 c8bd 543b 0cbd
000002a0: 5f4c 0e3e 9d8f 3b3d de9e 93bc 7944 313e
000002b0: 3658 963d 9935 983d e779 933d 7e06 573e
000002c0: 8798 57bd f4e5 b33d ad22 d7ba 1815 82be
000002d0: 7e5c 26be 6733 9ebd d11a 6b3d 6490 18be
000002e0: 3b8a 73be fc51 99bd c45a 2e3e 3c13 a63c
000002f0: 780e 4bbc ff3e b5bd 95d8 923b 6a82 8b3c
00000300: 7de4 053d 0ccd e1bd 278e ee3d 9123 cfbc
00000310: 5d07 da3d 9410 2f3c a529 dabd f8ce 023e
00000320: 4aa5 f4bd fb89 adbb bea2 653e cff4 4cbe
00000330: 2f60 98be e2b7 013e 5052 96be a332 d7bd
00000340: 86be 233e 438b 3c3e 333c e73d ac13 d7bd
00000350: 40c6 e9bd b3d1 91be 219d 43be 8508 1bbd
00000360: d59c 07be c5a9 4cbd 41d7 1bbe 8863 813d
00000370: 435c d73d 90dc 6d3e 9ece 96bd db3e 2e3e
00000380: 1cbb 023e 7fe9 823d 23d2 853d 7597 ffbe
00000390: 5e4c 683d e2fa b43d cd1c a2bd a7f1 2d3d
000003a0: 9fc4 c4bd b6c9 1cbe 093c 463e bfa9 a0be
000003b0: f9a7 ecbd 2b9e ee3b 164c 15be c80d b43d
000003c0: 7fb2 e7bd bd8f d03c 330e 3cbe 92a2 04be
000003d0: e8c1 2ebd 749b 3d3e 66ae cdbe 8104 2f3e
000003e0: f34d 1e3e 0236 a73c 594d 26be 47f5 f5bb
000003f0: ceac 3b3d 0433 783d d4f0 50be 29ad 813d

base.3linear.bias f4 [50]
0.033860035 0.1293515 -0.018061059 -0.19573537 -0.040743604 -0.029101275 -0.027979165 0.08783663
0.11697686 0.054570563 -0.043168597 0.17686607 -0.12843844 -0.08885728 -0.0680652 0.0391733
0.11191889 -0.03927735 -0.00525717 0.03675509 -0.17394015 -0.10888359 -0.056510847 -0.15577948
-0.07367514 -0.11328382 -0.08891843 -0.09701364 -0.0014532183 0.008965122 -0.016757905 0.12993307
0.03965269 -0.0846605 -0.15312587 0.15850309 0.03805186 0.0016127056 -0.0018730899 -0.07087551
-0.12638696 -0.028326564 -0.019273601 -0.016428413 0.0134139415 -0.1322419 0.04790825 -0.022730786
-0.096383095 -0.16740331
00000000: d2b0 0a3d b874 043e c9f4 93bc da6e 48be
00000010: c4e2 26bd cc65 eebc 9034 e5bc b1e3 b33d
00000020: 9091 ef3d 6285 5f3d 8ed1 30bd 611c 353e
00000030: 5e85 03be cefa b5bd c465 8bbd 2f74 203d
00000040: bb35 e53d 49e1 20bd 5744 acbb 818c 163d
00000050: 5e1d 32be 5cfe debd eb77 67bd a884 1fbe
00000060: fee2 96bd 5901 e8bd de1a b6bd 16af c6bd
00000070: ea79 beba 72e2 123c e047 89bc 2d0d 053e
00000080: dc6a 223d 7c62 adbd 07cd 1cbe a24e 223e
00000090: 44dc 1b3d 6c61 d33a 7882 f5ba 2e27 91bd
000000a0: 956b 01be 1c0d e8bc ace3 9dbc e194 86bc
000000b0: 26c6 5b3c 6c6a 07be 713b 443d ea35 babc
000000c0: 8064 c5bd c66b 2bbe

base.4linear.weight f4 [50, 50]
0.22257847 0.12970021 0.097216 0.14168508 -0.03534277 0.0559044 0.024579825 0.07429851
-0.0827963 0.00508218 -0.055707943 -0.20601577 -0.0043318206 0.29859823 -0.026956294 0.13678296
-0.16655384 -0.10977357 -0.05762187 0.06950224 -0.09236001 0.08364678 -0.28448182 -0.087773055
0.14267877 -0.043309603 0.2608861 -0.13244064 -0.1683734 0.04139548 -0.13928375 -0.14803451
-0.0372702 -0.00079313165 -0.44327164 -0.041284572 0.10905176 -0.0008055651 0.023228806 -0.011255733
-0.24642833 0.12150388 -6.446413e-06 0.0613068 0.047766834 0.074073225 0.24393533 0.23175769
-0.10597535 0.37444645 0.21393736 -0.21348147 -0.0025222222 -0.15321316 0.2597401 -0.53680634
0.12082454 -0.1875056 0.23667693 -0.03355312 0.014990639 0.13303693 -0.16120751 0.03088823
0.006678845 -0.6294465 -0.7548552 -0.114075705 0.10987329 -0.20572735 0.2521208 0.4760088
-0.83738065 -0.016420621 0.18933518 -0.00019723573 0.19770494 -0.5374567 -0.0059294403 -0.01767114
0.22297777 -0.24175537 0.13671513 -0.0123640895 -0.1295404 -0.082363814 -0.12587443 0.038855974
-0.07784683 0.69175416 -0.22187388 0.4703128 0.07201669 0.10110977 0.10724683 0.027413428
-0.04474881 -0.025488747 -0.09288073 -0.112242766 -0.0959723 0.08444796 0.22777541 0.18078353
-0.12352058 0.0050576483 -0.16502598 0.21425593 -0.2278916 -0.08336022 0.10564767 0.057317447
-0.03249008 -0.1288739 0.07960788 0.487959 0.12434726 0.017568132 -0.10420456 0.16839966
0.0017721403 -0.16568081 0.21317962 0.07030003 -0.1661823 0.077878356 0.20524415 0.1407169
0.037548315 0.10673176 0.10588364 -0.048088506 0.14079821 0.026267499 -0.0019969568 -0.022626847
0.17442529 0.041901525 0.07007503 -0.058944423 0.09189593 -0.10192125 0.07509952 -0.005045821
0.03535298 -0.3282955 -0.19971386 -0.5794408 0.13064004 -0.3025994 -0.1701836 -0.2509974
0.032598283 -0.04229857 0.032247197 -0.12549232 -0.119597815 0.041333556 0.0031911065 -0.058155477
0.017557252 -0.23684177 0.17508592 0.39256847 -0.1617976 -0.2005036 -0.12984572 0.2561563
-0.04281042 -0.18737373 0.09066043 0.29480347 0.18535107 0.21079303 -0.083186604 0.34159335
0.39669758 0.16581678 -0.12796578 -0.21481456 0.27830836 -0.5228693 -0.09827474 -0.046550814
0.108948216 -0.032514147 -0.18050425 -0.0032794224 0.10148761 0.2798816 0.17433485 -0.043917846
0.07889084 -0.0020911796 -0.18546744 0.1387523 0.0615905 -0.09827578 0.11122793 0.22920215
-0.054208744 -0.053309843 -0.070133984 -0.0992732 -0.03978666 -0.20931165 0.17582723 0.09278899
0.20902088 0.15467404 -0.19023152 -0.19896476 -0.022832645 -0.4806252 -0.18900916 -0.21327068
-0.28123984 0.06601483 -0.12318681 0.085379995 -0.18153644 -0.021851832 -0.023382042 -0.24809276
0.17472874 0.12451691 -0.043931793 0.36582646 0.19802418 0.01940372 0.19869857 0.057274353
0.26708502 -0.139959 -0.19781014 -0.05369242 -0.20447147 0.03197049 0.20347582 -0.13000818
0.08721883 0.0060452423 -0.07284622 0.10729068 -0.14614758 0.05511964 -0.019447396 -0.14240466
-0.07850176 0.051545914 0.26447147 -0.091763504 0.28606778 0.11313454 0.1409909 -0.13936517
00000000: 9ceb 633e 22d0 043e 2f19 c73d e515 113e
00000010: 95c3 10bd 03fc 643d a15b c93c d129 983d
00000020: 1b91 a9bd 6a88 a63b 032e 64bd ccf5 52be
00000030: f2f1 8dbb dee1 983e 72d3 dcbc d510 0c3e
00000040: 178d 2abe f7d0 e0bd e904 6cbd 3157 8e3d
00000050: 3f27 bdbd 014f ab3d 9aa7 91be 5cc2 b3bd
00000060: 621a 123e 6965 31bd dd92 853e 859e 07be
00000070: 146a 2cbe 4f8e 293d 66a0 0ebe 5c96 17be
00000080: a3a8 18bd 2aea 4fba 80f4 e2be 031a 29bd
00000090: 8756 df3d 8f2c 53ba 564a be3c f769 38bc
000000a0: b557 7cbe 07d7 f83d 444e d8b6 d71c 7b3d
000000b0: 28a7 433d b4b3 973d 2fca 793e e351 6d3e
000000c0: 9b09 d9bd 72b7 bf3e 6512 5b3e e39a 5abe
000000d0: de4b 25bb e9e3 1cbe a8fc 843e 246c 09bf
000000e0: db72 f73d 7801 40be 705b 723e ff6e 09bd
000000f0: 4c9b 753c d53a 083e 9513 25be 5009 fd3c
00000100: 36da da3b 6823 21bf 313e 41bf 86a0 e9bd
00000110: 3f05 e13d 31aa 52be fa15 813e 6db7 f33e
00000120: 945e 56bf 8a84 86bc 15e1 413e 10d1 4eb9
00000130: 2a73 4a3e c396 09bf c04b c2bb 11c3 90bc
00000140: 4954 643e b88e 77be 0dff 0b3e c092 4abc
00000150: 3da6 04be 5cae a8bd 3ae5 00be 7127 1f3d
00000160: 296e 9fbd cd16 313f e832 63be d7cc f03e
00000170: 7d7d 933d a412 cf3d 3aa4 db3d 2092 e03c
00000180: 874a 37bd c7cd d0bc 4138 bebd 89df e5bd
00000190: 208d c4bd 0df3 ac3d f53d 693e 511f 393e
000001a0: 5cf8 fcbd a1ba a53b 92fc 28be e865 5b3e
000001b0: 6a5c 69be c3b8 aabd ce5d d83d b3c5 6a3d
000001c0: 5114 05bd 85f7 03be 7509 a33d c3d5 f93e
000001d0: c7a9 fe3d 0beb 8f3c 3369 d5bd f670 2c3e
000001e0: 2947 e83a 3ba8 29be c24b 5a3e 76f9 8f3d
000001f0: b12b 2abe b07e 9f3d 862b 523e 1718 103e
00000200: 43cc 193d 2e96 da3d 86d9 d83d 74f8 44bd
00000210: 682d 103e f02e d73c 60df 02bb f05b b9bc
00000220: 8b9c 323e efa0 2b3d 7f83 8f3d b56f 71bd
00000230: ef33 bc3d 17bc d0bd c7cd 993d 6a57 a5bb
00000240: 49ce 103d 5916 a8be ca81 4cbe 3b56 14bf
00000250: 81c6 053e 4fee 9abe 9c44 2ebe bb82 80be
00000260: c785 053d 4441 2dbd a315 043d 0f81 00be
00000270: b3ef f4bd 604d 293d e221 513b 7034 6ebd
00000280: 3ad4 8f3c a686 72be b949 333e bcfe c83e
00000290: 45ae 25be d150 4dbe 47f6 04be eb26 833e
000002a0: fb59 2fbd e6de 3fbe 2dac b93d 7bf0 963e
000002b0: accc 3d3e 21da 573e bd5d aabd 53e5 ae3e
000002c0: f21b cb3e e0cb 293e 7609 03be 59f8 5bbe
000002d0: 6f7e 8e3e c3da 05bf 4444 c9bd 11ac 3ebd
000002e0: 3e20 df3d 8e2d 05bd 1bd6 38be 94eb 56bb
000002f0: bcd8 cf3d a44c 8f3e d684 323e 33e3 33bd
00000300: 8591 a13d 2c0c 09bb 2deb 3dbe 1515 0e3e
00000310: 5246 7c3d d044 c9bd 78cb e33d f8b3 6a3e
00000320: fd09 5ebd 6c5b 5abd 68a2 8fbd bf4f cbbd
00000330: 56f7 22bd cb55 56be 0e0c 343e 2708 be3d
00000340: 9209 563e df62 1e3e 0dcc 42be 6bbd 4bbe
00000350: 870b bbbc 8214 f6be 9e8b 41be a163 5abe
00000360: abfe 8fbe c832 873d 5e49 fcbd b5db ae3d
00000370: b0e4 39be 9d02 b3bc b28b bfbc 070c 7ebe
00000380: 17ec 323e b902 ff3d d3f1 33bd 9b4d bb3e
00000390: dac6 4a3e 8df4 9e3c a377 4b3e 8398 6a3d
000003a0: 5ebf 883e 6951 0fbe be8e 4abe 95ec 5bbd
000003b0: f860 51be 7df3 023d f75b 503e dd20 05be
000003c0: c99f b23d 2b17 c63b 6630 95bd 37bb db3d
000003d0: b6a7 15be 22c5 613d 2550 9fbc 87d2 11be
000003e0: 88c5 a0bd cf21 533d ce68 873e 81ee bbbd
000003f0: 7a77 923e 15b3 e73d eb5f 103e beb5 0ebe

base.4linear.bias f4 [50]
0.116117395 -0.0036068568 0.00037942055 -0.10077036 0.16203272 -0.0428273 0.06965815 -0.029578125
-0.0034692197 -0.23838943 -0.07552102 -0.00400825 -0.08864452 0.07426358 0.06650414 -0.062360868
-0.0036235994 0.052446898 0.1923176 -0.078690514 0.009948751 0.027563734 -0.09780932 -0.018773872
0.064436354 -0.08914416 -0.06467592 0.061529256 -0.04154816 -0.018294657 0.030839682 0.15514377
-0.019794188 0.1298183 0.013080146 -0.053794574 -0.105630636 0.17855632 -0.07099317 -0.079814635
-0.021445224 -0.08577365 0.020429228 -0.11606682 0.040044095 0.031724345 -0.039474502 -0.04784222
-0.03471226 0.070978686
00000000: f5ce ed3d 0461 6cbb f7ec c639 b160 cebd
00000010: e8eb 253e ae6b 2fbd efa8 8e3d d34d f2bc
00000020: d95b 63bb 5c1c 74be c4aa 9abd a357 83bb
00000030: 428b b5bd 8117 983d 5333 883d 1c6e 7fbd
00000040: e979 6dbb 8fd2 563d e8ee 443e 7e28 a1bd
00000050: 1600 233c 57cd e13c 4150 c8bd aacb 99bc
00000060: 35f7 833d 3791 b6bd cf74 84bd 1a06 7c3d
00000070: 672e 2abd adde 95bc 80a3 fc3c 02de 1e3e
00000080: 6c27 a2bc 17ef 043e 1c4e 563c b357 5cbd
00000090: e054 d8bd 78d7 363e de64 91bd db75 a3bd
000000a0: e5ad afbc 18aa afbd 325b a73c 71b4 edbd
000000b0: 4705 243d 63f1 013d 04b0 21bd 34f6 43bd
000000c0: 712e 0ebd 465d 913d

base.5linear.weight f4 [50, 50]
0.085896075 -0.17955859 -0.052810423 0.30071655 0.017667577 -0.31122887 0.09670228 -0.101425536
-0.215747 0.20319416 -0.0362933 0.1809556 0.06845568 -0.25390574 -0.039601024 0.038064733
-0.0990028 0.016849006 -0.19256544 -0.122356795 0.11289355 -0.016188987 0.17227662 -0.32482186
0.39509016 -0.22698033 0.11453764 -0.118472286 -0.10812599 -0.38628098 -0.0910969 -0.08410066
0.06390054 -0.6641734 -0.09947816 0.16461694 -0.11135648 0.28644764 0.1496418 -0.1163254
-0.061421264 0.020225856 0.18418287 -0.23291425 -0.039817635 -0.10638337 0.19858363 -0.04383858
-0.21871255 0.2058654 -0.015066432 0.07671814 -0.24610856 -0.3172332 0.09055903 0.13251865
0.00508662 -0.3462078 -0.34707612 0.3095876 -0.0069848862 0.010158881 0.04737351 0.15547502
0.07769007 -0.27335024 -0.08357978 0.19017112 -0.049218323 0.06486902 -0.21491067 -0.036435723
-0.043654397 0.3752552 -0.102023676 0.08024519 0.30620006 -0.20987844 -0.13530526 -0.20518947
0.11784754 -0.08810315 -0.33339202 0.2763102 -0.24970165 -0.020444393 0.10719145 0.18804084
0.3175654 0.19551481 -0.19354413 -0.083922684 0.35015997 -0.032714214 -0.1399576 0.10383966
0.2502438 0.09403132 -0.066028275 -0.33097923 0.18701537 0.05106015 -0.05873379 0.21214104
0.1451504 -0.19473752 -0.07970943 -0.09981434 -0.24472556 -0.19642013 -0.20581678 0.1963046
0.07524332 -0.01911375 0.1630771 0.3143815 0.07575913 -0.060504902 0.089329675 0.11440717
-0.10228839 0.28025 -0.15829702 0.013450101 0.06730125 0.17609493 -0.066265814 0.0075035295
-0.12214664 -0.13360853 0.039496828 0.29220378 -0.103153475 0.370371 0.008603857 -0.07276889
-0.0988905 0.00081582385 0.14243688 0.08232544 0.033980276 0.08910091 0.04859231 0.061507512
0.08728993 0.09347468 -0.15174457 0.026649317 -0.21478453 -0.054562252 0.105104074 -0.027066607
0.0153264785 -0.11763839 0.03891632 -0.09075823 -0.07983907 -0.06889263 -0.09754959 -0.13540663
-0.32431644 0.15246987 0.17114685 0.07762173 -0.09603318 -0.4124847 0.1510773 0.031842805
0.09946438 0.27995056 -0.25319207 0.10408864 -0.08040973 -0.2023044 0.48209542 -0.06994543
-0.44875076 0.004017404 -0.060945526 0.12703827 -0.11291262 0.3107183 0.07171054 0.338486
0.30293027 -0.4003225 -0.1505244 0.09369008 0.14242433 0.015174925 0.27336162 0.12010857
0.07611197 0.087934114 0.35377848 0.07436873 -0.16593173 0.12195728 -0.3215774 0.014987175
0.07646324 -0.15390229 -0.022426637 0.37777 -0.043708894 -0.044168968 -0.27985218 0.053370137
-0.16322991 -0.063151106 0.040086992 -0.011288779 -0.015212621 -0.0711079 -0.05116143 0.29366425
-0.45156676 0.14300054 -0.019732596 -0.010821559 0.16579856 -0.32623917 0.14129354 -0.57954586
-0.0098669445 0.04069612 0.25698715 0.10500765 0.009789781 -0.11132971 -0.05852616 -0.17127986
0.320611 -0.14929576 0.085984394 0.15698625 0.17408474 0.23715064 0.3233958 -0.059366748
-0.07876039 0.19365385 -0.096502066 0.22466166 -0.06911587 -0.10577057 0.070196316 0.24224317
-0.24101399 -0.10634028 -0.13773888 -0.19960822 -0.11491475 0.24511696 0.017498096 0.19868265
00000000: 48ea af3d 35de 37be be4f 58bd 85f7 993e
00000010: 98bb 903c 6459 9fbe d80b c63d 31b8 cfbd
00000020: c8ec 5cbe 2112 503e 49a8 14bd 6d4c 393e
00000030: 7e32 8c3d efff 81be af34 22bd c4e9 1b3d
00000040: fbc1 cabd ed06 8a3c e02f 45be 3396 fabd
00000050: bc34 e73d c49e 84bc 4869 303e 0d4f a6be
00000060: 4249 ca3e 886d 68be b692 ea3d 99a1 f2bd
00000070: 2971 ddbd 9fc6 c5be 0391 babd f83c acbd
00000080: 49de 823d 4507 2abf 35bb cbbd 5891 283e
00000090: de0e e4bd 44a9 923e b33b 193e 033c eebd
000000a0: dd94 7bbd b2b0 a53c 6f9a 3c3e 1381 6ebe
000000b0: d117 23bd 86df d9bd 8259 4b3e 1590 33bd
000000c0: 2ff6 5fbe 61ce 523e 32d9 76bc 661e 9d3d
000000d0: e203 7cbe 646c a2be 0377 b93d f8b2 073e
000000e0: a9ad a63b 2642 b1be f6b3 b1be 4482 9e3e
000000f0: 79e1 e4bb 6f71 263c ba0a 423d d834 1f3e
00000100: f91b 9f3d 90f4 8bbe e02b abbd 38bc 423e
00000110: 2799 49bd 0cda 843d 8b11 5cbe a03d 15bd
00000120: f4ce 32bd 7321 c03e caf1 d0bd 9757 a43d
00000130: 41c6 9c3e 60ea 56be 768d 0abe 301d 52be
00000140: 0d5a f13d 6d6f b4bd 5cb2 aabe 8878 8d3e
00000150: cab1 7fbe 007b a7bc 3187 db3d c78d 403e
00000160: ef97 a23e 0935 483e 6f30 46be a8df abbd
00000170: 2b48 b33e 57ff 05bd 0c51 0fbe e3a9 d43d
00000180: f51f 803e 7e93 c03d d539 87bd 1c76 a9be
00000190: f580 3f3e 7324 513d d892 70bd 803b 593e
000001a0: 4ea2 143e 4669 47be b33e a3bd 766b ccbd
000001b0: 5699 7abe 5c22 49be a2c1 52be 1304 493e
000001c0: 2b19 9a3d 7094 9cbc affd 263e 9df6 a03e
000001d0: 9a27 9b3d fdd3 77bd 7af2 b63d 4e4e ea3d
000001e0: 937c d1bd ee7c 8f3e 9d18 22be d05d 5c3c
000001f0: 3dd5 893d 3b52 343e 5fb6 87bd 2be0 f53b
00000200: 0528 fabd add0 08be 6dc7 213d bc9b 953e
00000210: 2142 d3bd 45a1 bd3e 31f7 0c3c db07 95bd
00000220: 1a87 cabd 03dd 553a f9da 113e 3e9a a83d
00000230: e72e 0b3d 8a7a b63d bb08 473d 4def 7b3d
00000240: 10c5 b23d a76f bf3d ee62 1bbe ab4f da3c
00000250: 7af0 5bbe ab7c 5fbd ce40 d73d caba ddbc
00000260: e91b 7b3c 65ec f0bd b866 1f3d 73df b9bd
00000270: ab82 a3bd 9417 8dbd 14c8 c7bd 09a8 0abe
00000280: ce0c a6be 1021 1c3e 1f41 2f3e 24f8 9e3d
00000290: 0bad c4bd 3231 d3be 02b4 1a3e 9a6d 023d
000002a0: fbb3 cb3d ae55 8f3e 64a2 81be 6d2c d53d
000002b0: dbad a4bd e228 4fbe 36d5 f63e 8d3f 8fbd
000002c0: a9c2 e5be 6da4 833b 04a2 79bd 5216 023e
000002d0: bb3e e7bd 7816 9f3e fadc 923d 094e ad3e
000002e0: ad19 9b3e 12f7 ccbe 1123 1abe 96e0 bf3d
000002f0: afd7 113e 40a0 783c 0ef6 8b3e 7bfb f53d
00000300: 98e0 9b3d cd16 b43d 7422 b53e a24e 983d
00000310: 02ea 29be bdc4 f93d cba5 a4be c58c 753c
00000320: c298 9c3d 9098 1dbe 11b8 b7bc 126b c13e
00000330: 1908 33bd 85ea 34bd c948 8fbe a59a 5a3d
00000340: be25 27be 5e55 81bd 4232 243d 92f4 38bc
00000350: 5b3e 79bc 05a1 91bd a68e 51bd 295b 963e
00000360: c233 e7be bc6e 123e 41a6 a1bc e84c 31bc
00000370: 19c7 293e d208 a7be 41af 103e 1e5d 14bf
00000380: f7a8 21bc fab0 263d d293 833e 400e d73d
00000390: 5165 203c d500 e4bd 20b9 6fbd fd63 2fbe
000003a0: 2027 a43e fde0 18be 9618 b03d 01c1 203e
000003b0: 4543 323e 9ed7 723e 2294 a53e 8c2a 73bd
000003c0: 214d a1bd 324d 463e e0a2 c5bd b50d 663e
000003d0: 9f8c 8dbd 3e9e d8bd 16c3 8f3d 980e 783e
000003e0: 5fcc 76be efc8 d9bd 6c0b 0dbe 1966 4cbe
000003f0: 6d58 ebbd f1ff 7a3e 2b58 8f3c 7773 4b3e

base.5linear.bias f4 [50]
0.027073516 -0.08251287 0.056766536 0.09514627 0.07108518 -0.07491892 0.114196755 -0.016957246
-0.006807087 -0.09809684 -0.0024430207 0.095950946 -0.0580929 0.03844286 0.05238911 -0.0005941757
-0.018635267 0.011935798 0.024981463 -0.19785638 0.04949606 0.038305204 -0.042599116 0.22717294
-0.022189513 -0.020846417 0.049936157 -0.020130837 0.007126151 0.11310154 0.07928233 0.08625649
0.010652878 -0.024995564 -0.11256021 0.13174762 -0.0020302976 -0.13850118 -0.078161344 0.009122132
0.08196386 -0.019901896 0.009033969 -0.0126565285 -0.08579704 -0.0607514 -0.21326774 0.0046234597
-0.09990801 0.022396682
00000000: 47c9 dd3c 82fc a8bd 0784 683d 0cdc c23d
00000010: 1b95 913d 176f 99bd fddf e93d ece9 8abc
00000020: fc0d dfbb ffe6 c8bd 161b 20bb ee81 c43d
00000030: d2f2 6dbd 4376 1d3d f795 563d 75c2 1bba
00000040: fda8 98bc 5e8e 433c eda5 cc3c dd9a 4abe
00000050: 61bc 4a3d ebe5 1c3d 697c 2ebd 06a0 683e
00000060: c8c6 b5bc 1bc6 aabc db89 4c3d 6de9 a4bc
00000070: 7d82 e93b c8a1 e73d c65e a23d 3ea7 b03d
00000080: 6989 2e3c 7fc3 ccbc f885 e6bd d9e8 063e
00000090: be0e 05bb 41d3 0dbe 0e13 a0bd ff74 153c
000000a0: abdc a73d 4d09 a3bc 3603 143c 545d 4fbc
000000b0: 5cb6 afbd 76d6 78bd dc62 5abe 6480 973b
000000c0: 929c ccbd 3f79 b73c

base.6linear.weight f4 [50, 50]
0.04200167 0.16524449 0.07149845 -0.26235628 0.2867143 0.09700147 -0.04010473 0.31453106
-0.04540967 0.0038398115 -0.15690105 -0.24028409 -0.04429633 -0.07970409 0.032776825 -0.25447214
-0.26216406 0.12076043 0.027367396 0.119811095 -0.17989096 -0.14462452 -0.30810004 -0.049781766
0.18388142 0.1955594 -0.067656614 0.20197529 -0.25452492 0.03721259 0.050952833 0.16563608
-0.2797972 -0.11028007 -0.20173505 0.08877808 -0.18715452 0.024251398 0.3638151 0.17379917
-0.034067307 0.19265936 -0.053734496 0.24714877 -0.01892003 -0.31897187 0.012912865 0.031496767
-0.0053783176 0.30773497 -0.1131244 0.21784797 0.511619 0.2810182 0.116708085 -0.026606603
-0.065331616 0.27472088 -0.10405245 0.019936025 0.030181518 0.36716992 0.032097578 0.19763178
-0.040810995 -0.077379696 -0.23410074 -0.08394719 0.08845273 0.0440317 0.01595089 0.15007605
0.10800502 -0.30855247 0.09390326 0.18374111 -0.04615727 0.13677445 0.07882111 0.03336327
-0.41230777 0.3686301 -0.16091055 -0.20107333 0.026367271 -0.17292023 0.3732728 0.06327951
0.008394098 0.13577697 0.36172134 -0.71138465 0.13352573 -0.2806607 0.18570343 0.08283797
-0.12394035 0.014955547 0.31408903 0.054208536 0.12323862 0.06636804 -0.0064808414 -0.1862288
-0.39209053 0.0646432 0.16582064 -0.08324253 0.13585237 -0.03864806 0.22009993 0.109083496
0.38760245 0.102312036 0.45446935 0.27336955 0.104325026 0.19770417 0.02545677 0.078818105
0.31005642 0.069004685 -0.055708073 0.091714844 -0.43814263 0.09495225 0.16220555 -0.34929115
0.21484184 0.11162005 -0.06382474 -0.25336748 0.2468486 0.54308903 -0.1680028 -0.214403
0.08044607 0.16481347 0.06574662 -0.12559432 -0.098312326 0.31269124 -0.24719664 0.48700228
-0.15462779 0.17852527 -0.22725135 0.07545388 -0.12754375 -0.1853156 -0.23085994 -0.08398823
-0.07095022 -0.13861696 0.48106545 -0.19773202 0.035091825 -0.20936377 0.017976012 -0.07810971
0.041558895 -0.12683609 0.29847163 -0.13916472 0.055611014 -0.21296906 -0.18965046 -0.19840273
-0.40218645 -0.04325194 -0.033773955 0.33753538 0.032847498 0.25071806 -0.020743392 -0.18741846
-0.004949603 -0.045170404 0.06653232 -0.18666866 -0.2633906 0.12772241 0.11219094 -0.068517335
0.13552473 -0.1502403 0.10903765 -0.05232319 -0.4942027 -0.24569234 -0.08796252 -0.04134373
-0.042669587 0.32239226 0.1599765 0.086069554 0.28573504 -0.042101987 0.22999988 0.20066619
0.09012442 0.18284297 -0.37841046 -0.52745086 0.10817715 -0.08625037 0.017901234 -0.3042062
0.1386902 0.064461336 -0.0050173416 -0.08152594 -0.015325857 -0.07795449 -0.2077017 0.15209055
0.19036461 0.11745173 0.07314879 -0.0012177186 0.20575464 0.11331318 -0.13268441 0.04703289
-0.13625486 -0.32065013 -0.038597 -0.34508902 -0.025830064 -0.2125422 -0.032208458 0.041631218
-0.013588718 0.25961632 -0.010059679 0.28526822 0.1176785 0.06681424 0.011835548 -0.041637152
-0.13083746 0.14719346 -0.145813 0.10925609 -0.23542972 -0.08742123 0.16263661 -0.11844897
-0.15023164 -0.10781844 -0.10040005 -0.15394764 0.016557382 -0.0050309077 -0.06965815 0.103942536
00000000: f109 2c3d da35 293e c86d 923d 9053 86be
00000010: 37cc 923e b5a8 c63d db44 24bd 370a a13e
00000020: 7dff 39bd 59a5 7b3b abaa 20be 080d 76be
00000030: 1270 35bd e63b a3bd fe40 063d 2c4a 82be
00000040: 5e3a 86be 3f51 f73d 9731 e03c 855f f53d
00000050: 5635 38be 7318 14be 4abf 9dbe f7e7 4bbd
00000060: 694b 3c3e b940 483e 8d8f 8abd 9cd2 4e3e
00000070: 1751 82be 3b6c 183d ebb3 503d 819c 293e
00000080: 9441 8fbe 84da e1bd a293 4ebe 48d1 b53d
00000090: 6fa5 3fbe deaa c63c f945 ba3e 69f8 313e
000000a0: 298a 0bbd 7f48 453e b418 5cbd 9114 7d3e
000000b0: 2efe 9abc 4850 a3be 7b90 533c c102 013d
000000c0: 993c b0bb 708f 9d3e c4ad e7bd 8a13 5f3e
000000d0: 76f9 023f 9ee1 8f3e a604 ef3d 17f6 d9bc
000000e0: 95cc 85bd 37a8 8c3e 7319 d5bd e050 a33c
000000f0: 3b3f f73c b2fd bb3e c078 033d fc5f 4a3e
00000100: 6e29 27bd 3f79 9ebd 1bb8 6fbe 81ec abbd
00000110: b426 b53d 955a 343d 71ab 823c 89ad 193e
00000120: bc31 dd3d 97fa 9dbe 5a50 c03d a126 3c3e
00000130: 680f 3dbd 9a0e 0c3e f66c a13d eda7 083d
00000140: 011a d3be 16bd bc3e bcc5 24be 2be6 4dbe
00000150: 2d00 d83c 0012 31be 9d1d bf3e b098 813d
00000160: 6687 093c 1e09 0b3e 8a33 b93e 4e1d 36bf
00000170: f8ba 083e c2b2 8fbe 0a29 3e3e f4a6 a93d
00000180: 70d4 fdbd 1c08 753c 47d0 a03e c509 5e3d
00000190: 8864 fc3d f8eb 873d 3d5d d4bb c3b2 3ebe
000001a0: 17c0 c8be a763 843d e3cc 293e 0f7b aabd
000001b0: e21c 0b3e 6e4d 1ebd e061 613e 2b67 df3d
000001c0: d473 c63e f988 d13d 35b0 e83e 18f7 8b3e
000001d0: 5ca8 d53d f672 4a3e b78a d03c 636b a13d
000001e0: b7bf 9e3e 5452 8d3d 262e 64bd fed4 bb3d
000001f0: 3b54 e0be 5376 c23d 3619 263e 4ad6 b2be
00000200: 80ff 5b3e 0e99 e43d 8cb6 82bd 62b9 81be
00000210: e1c5 7c3e e207 0b3f ed08 2cbe 768c 5bbe
00000220: e9c0 a43d ddc4 283e 2aa6 863d cc9b 00be
00000230: f957 c9bd 1119 a03e 1e21 7dbe 5d58 f93e
00000240: bf56 1ebe 54cf 363e 94b4 68be 9087 9a3d
00000250: d49a 02be 5fc3 3dbe 8c66 6cbe 0502 acbd
00000260: 594e 91bd 9bf1 0dbe 364e f63e 437a 4abe
00000270: 72bc 0f3d 7563 56be 6e42 933c fcf7 9fbd
00000280: a939 2a3d 52e1 01be 46d1 983e 3281 0ebe
00000290: 60c8 633d 9014 5abe bb33 42be 162a 4bbe
000002a0: 62eb cdbe f228 31bd 8f56 0abd 70d1 ac3e
000002b0: 198b 063d 1e5e 803e 0cee a9bc a0ea 3fbe
000002c0: 4830 a2bb 9a04 39bd 1942 883d 1226 3fbe
000002d0: 22db 86be aac9 023e 5dc4 e53d d152 8cbd
000002e0: ffc6 0a3e 98d8 19be 224f df3d d750 56bd
000002f0: 2308 fdbe c696 7bbe b225 b4bd 0b58 29bd
00000300: 4ec6 2ebd 9910 a53e e1d0 233e 3c45 b03d
00000310: dd4b 923e 2273 2cbd 1785 6b3e 707b 4d3e
00000320: 2793 b83d 303b 3b3e 04bf c1be 0507 07bf
00000330: fb8b dd3d 09a4 b0bd 9ca5 923c eac0 9bbe
00000340: ce04 0e3e 4e04 843d 8368 a4bb 12f7 a6bd
00000350: 4e19 7bbc 9ba6 9fbd c1af 54be a0bd 1b3e
00000360: f1ee 423e 888a f03d 08cf 953d db9b 9fba
00000370: 58b1 523e be10 e83d 6cde 07be 8fa5 403d
00000380: 6586 0bbe 412c a4be e317 1ebd 82af b0be
00000390: 9299 d3bc aaa4 59be 04ed 03bd 7f85 2a3d
000003a0: 37a3 5ebc 6eec 843e 5ad1 24bc ad0e 923e
000003b0: 6d01 f13d e7d5 883d e3e9 413c b88b 2abd
000003c0: 41fa 05be e2b9 163e 0150 15be a8c1 df3d
000003d0: 7d14 71be e709 b3bd 368a 263e 6095 f2bd
000003e0: 53d6 19be eacf dcbd 8b9e cdbd 73a4 1dbe
000003f0: 59a3 873c 50da a4bb efa8 8ebd d3df d43d

base.6linear.bias f4 [50]
-0.025213514 0.054598004 0.00889755 -0.050907265 0.01081224 -0.016043853 -0.016652381 0.059784032
0.0062402897 -0.039459016 -0.01445972 -0.020109558 -0.022679936 0.073926285 0.10001697 -0.016267039
0.07643216 -0.030526716 0.2178924 -0.04014614 0.012104038 -0.08517803 -0.100740485 0.05877122
0.17692252 0.02857746 -0.05971458 -0.036782384 -0.10870225 0.04351346 0.034828678 -0.01286049
0.048292566 0.10171437 -0.0126790535 0.07881029 0.04721463 0.028708266 -0.08152744 0.002256551
0.076233834 0.018502375 0.027954994 0.0072894334 0.09215739 -0.07055412 0.09422652 0.090874866
0.13374722 0.038561884
00000000: 928c cebc 28a2 5f3d 08c7 113c 2384 50bd
00000010: d225 313c 666e 83bc 936a 88bc 1ae0 743d
00000020: 587b cc3b c79f 21bd 76e8 6cbc cdbc a4bc
00000030: 46cb b9bc aa66 973d b2d5 cc3d 7442 85bc
00000040: 7788 9c3d 2a13 fabc 2f1f 5f3e 4770 24bd
00000050: 0450 463c d271 aebd 0751 cebd 17ba 703d
00000060: 2d2b 353e 471b ea3c 4797 74bd 20a9 16bd
00000070: 499f debd 2b3b 323d 84a8 0e3d ceb4 52bc
00000080: 6dce 453d a04f d03d cebb 4fbc 4a67 a13d
00000090: 2164 413d 992d eb3c dcf7 a6bd a5e2 133b
000000a0: 7c20 9c3d 4b92 973c df01 e53c 33dc ee3b
000000b0: 04bd bc3d ae7e 90bd d5f9 c03d 9a1c ba3d
000000c0: 08f5 083e 11f3 1d3d
