STPINN-NS/sub_data/sub_write/13NS_model_train.pt (torch, 100091 bytes, 22 tensors)

base.0linear.weight f4 [50, 3]
0.0003828485 0.00041278813 -0.00018921038 -0.34607816 -0.001854824 0.16358949 0.0480126 0.18477724
-0.1958288 0.015036028 -0.061967082 -0.44867548 -0.20163415 0.036210895 -0.040004008 0.11082505
-0.17225938 -0.31677267 -0.10310897 0.37292507 -0.23582108 0.05413118 0.2653224 -0.28811106
0.017810903 -0.064487584 0.41007558 -0.5318075 0.3620366 0.26822907 -0.31687558 -0.010343447
0.028996373 -0.36976624 0.19534263 -0.045272958 -0.19230914 -0.016664982 -0.19758232 0.06378563
0.19192216 -0.091926895 -0.0052622976 0.17260107 -0.4782612 -0.008646177 0.17444456 -0.05391915
-0.13855465 0.22489786 0.044730417 -0.24067225 0.065665856 0.23998985 -0.22511399 0.18627186
0.14170837 0.00072753226 0.00088500004 -2.4653507e-05 0.11807893 0.038732138 -0.03663406 0.06895017
0.0834293 -0.18968579 0.17563905 -0.20017664 -0.18728483 -0.06276099 -0.027781175 0.25003257
-0.137359 -0.17968376 0.22031103 0.052453425 -0.12937336 -0.20055078 0.16803299 0.11938126
-0.44896603 0.19822264 0.13795096 -0.15997116 -0.2470838 0.094530195 0.17080787 0.00027529392
0.00043622183 0.00046881562 0.057262253 0.16001028 0.1949234 0.0447906 0.27775306 -0.35912788
-0.1616889 -0.19634044 0.084930494 0.13056502 0.09525255 -0.08519422 0.35058814 -0.25558677
-0.23585504 -0.080074325 0.1256633 -0.23604102 0.08974709 -0.060798667 -0.50165224 -0.00033905596
-0.0012397788 8.3822924e-05 -0.051722355 -0.0575068 -0.21034943 0.116562046 0.03544853 -0.25257596
0.25337732 -0.2647285 -0.37749374 0.041084368 -0.08862623 -0.15956862 0.057566945 0.010404089
-0.22940353 -0.043759592 0.11841009 0.04000663 -0.115901165 -0.09470978 -0.100450724 0.25139797
-0.2156539 0.0530006 0.0009861111 0.28566536 0.07747671 0.00015086157 0.00047028164 -0.00018148366
0.060183514 -0.33245775 0.18389642 -0.089796774 -0.3018058 0.20234227
00000000: 0eb9 c839 7c6b d839 c666 46b9 2831 b1be
00000010: 911d f3ba 0184 273e dca8 443d 3f36 3d3e
00000020: 5887 48be ac59 763c 32d1 7dbd cbb8 e5be
00000030: 2f79 4ebe e051 143d 3edb 23bd 3ef8 e23d
00000040: c364 30be 0730 a2be cc2a d3bd 09f0 be3e
00000050: 157b 71be a8b8 5d3d 56d8 873e 4b83 93be
00000060: 2ce8 913c 1112 84bd 6df5 d13e 8924 08bf
00000070: dc5c b93e 5255 893e 843d a2be 9077 29bc
00000080: cd89 ed3c 0052 bdbe e607 483e 2370 39bd
00000090: b0ec 44be 0085 88bc 0553 4abe 0aa2 823d
000000a0: 3e87 443e 2b44 bcbd 5a6f acbb 56be 303e
000000b0: a7de f4be b2a8 0dbc 98a1 323e 54da 5cbd
000000c0: 45e1 0dbe a04b 663e 3e37 373d c972 76be
000000d0: d27b 863d e6bf 753e 4884 66be 0dbe 3e3e
000000e0: 001c 113e ddb7 3e3a 59ff 673a 01cf ceb7
000000f0: 5ed3 f13d 97a5 1e3d 990d 16bd bf35 8d3d
00000100: fbdc aa3d fe3c 42be b9da 333e 1bfb 4cbe
00000110: 98c7 3fbe d588 80bd 5995 e3bc 4504 803e
00000120: d6a7 0cbe 05ff 37be 3799 613e 67d9 563d
00000130: 737a 04be 2f5d 4dbe d710 2c3e 297e f43d
00000140: e0de e5be e0fa 4a3e 0443 0d3e 7bcf 23be
00000150: 8903 7dbe 0c99 c13d 42e8 2e3e 5355 9039
00000160: b4b4 e439 5ecb f539 d38b 6a3d bcd9 233e
00000170: 009a 473e 5976 373d a635 8e3e 9cdf b7be
00000180: c691 25be 780d 49be 0af0 ad3d d6b2 053e
00000190: c513 c33d 4f7a aebd 4a80 b33e 45dc 82be
000001a0: fc83 71be 02fe a3bd e1ad 003e bdb4 71be
000001b0: 53cd b73d 0608 79bd 486c 00bf 52c3 b1b9
000001c0: 1380 a2ba 17ca af38 d2da 53bd 408c 6bbd
000001d0: d765 57be 15b8 ee3d 7a32 113d a351 81be
000001e0: acba 813e 7e8a 87be dc46 c1be 1548 283d
000001f0: ab81 b5bd f565 23be 51cb 6b3d e975 2a3c
00000200: c2e8 6abe 423d 33bd fd80 f23d fedd 233d
00000210: 975d edbd 33f7 c1bd 1cb9 cdbd 3cb7 803e
00000220: 60d4 5cbe 2817 593d 6640 813a bb42 923e
00000230: 1cac 9e3d 9830 1e39 2290 f639 a64c 3eb9
00000240: fd82 763d e737 aabe 584f 3c3e 5fe7 b7bd
00000250: 4a86 9abe d032 4f3e

base.0linear.bias f4 [50]
-9.8965545e-05 -0.0027791995 -0.060440473 0.09658511 0.10774493 0.026540196 -0.07415649 -0.0772286
-0.20831065 0.012790642 0.1737172 -0.122364305 0.028179742 -0.15152308 -0.021441815 -0.11510959
-0.13791248 -0.10309468 -0.09080332 -0.0005200471 -0.059083384 -0.003017555 0.1680093 -0.033981565
0.013938131 0.13679452 0.055584174 -0.15652493 -0.0708718 -0.0003856761 -0.23054226 0.03637751
0.17065331 -0.10945871 0.06769524 -0.04771706 -0.08043009 0.0007532947 0.1173566 0.053617198
0.006965962 0.13046609 0.035934415 -0.1013749 0.17795087 0.061724108 -0.27720904 -0.0004597345
0.17395872 0.1680787
00000000: b98b cfb8 3b23 36bb 6e90 77bd 6ace c53d
00000010: 60a9 dc3d d36a d93c 5cdf 97bd 072a 9ebd
00000020: 634f 55be d78f 513c ece2 313e 239a fabd
00000030: 34d9 e63c de28 1bbe bfa6 afbc 94be ebbd
00000040: ee38 0dbe 4e23 d3bd 17f7 b9bd c553 08ba
00000050: 6b01 72bd 2cc2 45bb a10a 2c3e 4130 0bbd
00000060: c25c 643c dd13 0c3e 3bac 633d 1248 20be
00000070: 3c25 91bd 9234 cab9 4513 6cbe 9500 153d
00000080: bebf 2e3e e32b e0bd cda3 8a3d f772 43bd
00000090: 88b8 a4bd c078 453a a858 f03d b59d 5b3d
000000a0: b942 e43b e798 053e f72f 133d a59d cfbd
000000b0: c138 363e 6bd2 7c3d 58ee 8dbe 8508 f1b9
000000c0: 3c22 323e d31c 2c3e

base.1linear.weight f4 [50, 50]
-0.09718834 0.055438664 -0.0642248 -0.10395485 0.23047376 0.028102009 0.01104991 -0.10914915
-0.02431061 0.0730714 0.019198436 0.036010332 -0.127907 -0.088263676 -0.09196993 -0.32482338
0.043212317 0.26155025 -0.07269358 0.07549324 0.008555128 -0.21193956 -0.109576955 -0.08100948
0.13302076 -0.03198416 -0.39946443 -0.13875026 -0.12668072 -0.056187063 -0.031291 -0.23435396
0.30958077 -0.027699597 -0.0032705076 0.048733797 0.13401794 -0.0664726 -0.11758806 -0.16437243
0.115559176 -0.106534235 0.15808553 -0.15057807 -0.05923039 -0.10417031 -0.06813467 -0.077120066
0.25896266 0.23595779 0.050492994 -0.10453761 -0.05374827 0.11595223 0.0640484 0.19322945
-0.02135398 0.00820885 0.38074556 0.09811351 0.0469601 0.043068327 -0.1289882 -0.32273236
-0.18021111 -0.1472266 -0.07676862 0.117989324 0.0976845 -0.13720219 0.20267157 -0.05526767
0.06699317 -0.08104295 0.029406223 0.0030573336 -0.1841933 -0.29068947 0.27912483 -0.035356157
-0.16601191 -0.21962759 -0.1159767 0.12683208 -0.267029 -0.23911121 -0.06202523 0.05769468
-0.24099858 -0.4859552 0.061189856 0.17281209 -0.0962178 -0.16882135 0.20279858 0.030779116
-0.5753006 0.17187554 0.07229513 0.24772035 -0.10872101 -0.047929946 0.279482 -0.3821105
-0.00029007604 -0.15699871 0.22166151 0.04648648 0.034071214 -0.19191521 -0.011058072 -0.068364896
-0.03257755 -0.13850254 -0.007079605 -0.18610623 -0.039843805 -0.0023097126 -0.077437446 0.32070532
-0.05964978 -0.21009208 0.16527183 -0.16204263 -0.105622366 -0.082220234 -0.11320373 0.084546015
0.14007008 0.17086665 -0.080612086 0.12457763 0.12380161 -0.28004086 0.07067658 -0.007127334
-0.059733078 -0.18754824 0.14033148 -0.20697764 0.21371438 0.14714706 0.03715933 0.08371507
-0.11791218 -0.14847562 0.0040766816 0.18074632 -0.19020195 0.11939609 -0.069497526 -0.12776132
0.2520726 0.15048715 -0.10955251 0.06223789 -0.116150856 0.21808976 0.17203388 0.07582153
-0.3010057 0.20475382 0.02327145 0.044780735 0.13689016 0.06848016 0.049380045 0.13511927
0.20210814 -0.010898539 -0.046871606 -0.1380227 -0.0062702224 -0.04848265 -0.10884017 -0.13986413
-0.054753702 0.009478711 0.024299942 0.027604407 0.12936175 0.05396335 -0.40164965 -0.034466792
-0.034710273 -0.08413152 -0.2700038 -0.17807102 -0.014756158 -0.09862785 -0.09093858 -0.13365477
-0.028948156 -0.1311607 -0.21529958 0.14476965 0.28072584 -0.07176338 0.14403605 -0.23543775
-0.0313661 0.33551264 -0.32548946 0.09834167 0.04309852 0.16498613 -0.3631979 -0.103723384
0.058275618 -0.19357799 -0.029477179 0.072655894 0.24971703 -0.22655132 -0.030817933 0.031552088
-0.23628113 -0.18409143 -0.20232563 0.050498195 -0.18290013 -0.43871093 0.24758387 0.058353133
0.30199522 0.013282317 0.040760946 -0.22470777 -0.0036437102 -0.10712995 -0.36465633 -0.16863716
0.23672399 -0.08694025 -0.08174135 -0.15303789 0.12360545 -0.0035219209 0.14724115 0.0039408747
0.23795973 0.04146557 -0.13991304 -0.07431768 0.107590154 -0.021657497 -0.4074778 -0.009169568
0.12465112 0.2760286 -0.03592267 0.36503136 0.32130146 0.102730684 0.23462477 0.7583443
00000000: ae0a c7bd a713 633d 4b88 83bd 48e6 d4bd
00000010: 5001 6c3e 2f36 e63c af0a 353c 9789 dfbd
00000020: 0b27 c7bc 75a6 953d 0a46 9d3c 927f 133d
00000030: 0dfa 02be 96c3 b4bd bb5a bcbd 404f a6be
00000040: 66ff 303d eae9 853e 5fe0 94bd 339c 9a3d
00000050: cf2a 0c3c af06 59be e269 e0bd 4ce8 a5bd
00000060: 9836 083e d301 03bd 9a86 ccbe 8c14 0ebe
00000070: 97b8 01be 6824 66bd fe2a 00bd 7cfa 6fbe
00000080: 5f81 9e3e 44ea e2bc 0356 56bb 179d 473d
00000090: 003c 093e c922 88bd 02d2 f0bd 3f51 28be
000000a0: 4aaa ec3d 9f2e dabd 2ce1 213e 2331 1abe
000000b0: 919b 72bd 3e57 d5bd 318a 8bbd 20f1 9dbd
000000c0: c196 843e eb9e 713e bed1 4e3d d117 d6bd
000000d0: 2527 5cbd 5d78 ed3d cf2b 833d f1dd 453e
000000e0: 8bee aebc 6a7e 063c 15f1 c23e bcef c83d
000000f0: 3c59 403d 6a68 303d 7c15 04be 2d3d a5be
00000100: 4389 38be 92c2 16be de38 9dbd 63a4 f13d
00000110: d00e c83d bb7e 0cbe 2389 4f3e 5a60 62bd
00000120: b733 893d d9f9 a5bd 52e5 f03c 8c5d 483b
00000130: 2b9d 3cbe 40d5 94be 73e9 8e3e 9ed1 10bd
00000140: 07ff 29be 0ee6 60be 3185 edbd 45e0 013e
00000150: 06b8 88be 92d9 74be 2b0e 7ebd 4251 6c3d
00000160: 55c8 76be 1fcf f8be 37a2 7a3d a7f5 303e
00000170: d70d c5bd 81df 2cbe 6eaa 4f3e 7c24 fc3c
00000180: e646 13bf 2400 303e 780f 943d 67aa 7d3e
00000190: 1fa9 debd 3152 44bd 4418 8f3e fda3 c3be
000001a0: 5915 98b9 45c4 20be 3cfb 623e 9b68 3e3d
000001b0: 428e 0b3d 6c85 44be ea2c 35bc e502 8cbd
000001c0: 0970 05bd 9cd3 0dbe 08fc e7bb a292 3ebe
000001d0: 4233 23bd 8c5e 17bb 8697 9ebd 7d33 a43e
000001e0: 5453 74bd 6122 57be 053d 293e 81ee 25be
000001f0: 8a50 d8bd 1563 a8bd 5bd7 e7bd 7626 ad3d
00000200: 886e 0f3e abf7 2e3e f317 a5bd 8e22 ff3d
00000210: b38b fd3d 8461 8fbe e2be 903d 698c e9bb
00000220: acaa 74bd a50c 40be 0eb3 0f3e f2f1 53be
00000230: f1d7 5a3e b8ad 163e 6234 183d ce72 ab3d
00000240: f17b f1bd fe09 18be af95 853b 9015 393e
00000250: 4dc4 42be f085 f43d b854 8ebd ddd3 02be
00000260: a90f 813e 4e19 1a3e 115d e0bd 28ed 7e3d
00000270: 80e0 edbd ec52 5f3e a629 303e 5148 9b3d
00000280: 6b1d 9abe fcaa 513e c5a3 be3c 016c 373d
00000290: ef2c 0c3e 533f 8c3d bb42 4a3d b55c 0a3e
000002a0: 70f5 4e3e c98f 32bc 71fc 3fbd d355 0dbe
000002b0: 7076 cdbb be95 46bd 98e7 debd 8b38 0fbe
000002c0: 6b45 60bd 984c 1b3c ac10 c73c a322 e23c
000002d0: 6877 043e ac08 5d3d 06a5 cdbe 0d2d 0dbd
000002e0: 5c2c 0ebd 254d acbd f03d 8abe 4058 36be
000002f0: d0c3 71bc 66fd c9bd 023e babd ccdc 08be
00000300: af24 edbc fe4e 06be 7e77 5cbe 7f3e 143e
00000310: 4cbb 8f3e aef8 92bd 307e 133e 9816 71be
00000320: bd79 00bd 50c8 ab3e 8ea6 a6be 5c67 c93d
00000330: 1388 303d 20f2 283e 13f5 b9be ed6c d4bd
00000340: 6ab2 6e3d 4f39 46be 207a f1bc 9dcc 943d
00000350: d2b5 7f3e 12fd 67be e475 fcbc c33c 013d
00000360: aef3 71be 7782 3cbe 732e 4fbe 32d7 4e3d
00000370: 2c4a 3bbe b89e e0be a086 7d3e b203 6f3d
00000380: 1e9f 9a3e 139e 593c f3f4 263d cb19 66be
00000390: 50cb 6ebb f266 dbbd 3cb4 babe 38af 2cbe
000003a0: c667 723e bb0d b2bd 0268 a7bd f7b5 1cbe
000003b0: db24 fd3d 07d0 66bb 62c6 163e 7422 813b
000003c0: b7ab 733e cdd7 293d 5d45 0fbe de33 98bd
000003d0: 3a58 dc3d 106b b1bc eea0 d0be f53b 16bc
000003e0: 1649 ff3d 9f53 8d3e a623 13bd 64e5 ba3e
000003f0: a081 a43e 7764 d23d 7a41 703e da22 423f

base.1linear.bias f4 [50]
0.0010839996 0.05279227 -0.024978409 -0.10124848 0.026927458 -0.1433776 0.0076482045 -0.05376368
0.038758527 -0.011241944 -0.10611744 -0.049603954 0.025495566 0.05093712 0.020119991 -0.06988283
-0.07897485 0.0024460354 -0.084924325 0.04782113 0.06256683 0.003824635 0.014918358 -0.008129682
-0.10697056 0.018636305 0.1254379 0.13745251 0.13329281 0.0585911 0.018703569 0.021896249
0.052483965 -0.01351428 0.029016118 -0.00075879 -0.039676756 0.01609282 -0.11298371 -0.19223124
-0.082734995 -0.011811171 0.030801041 0.03172629 0.07296273 -0.13333002 0.034357175 0.10575587
-0.08104893 -0.12164553
00000000: fe14 8e3a b53c 583d 859f ccbc 5d5b cfbd
00000010: f996 dc3c 94d1 12be ca9d fa3b 4e37 5cbd
00000020: 43c1 1e3d 2130 38bc 1a54 d9bd 842d 4bbd
00000030: 14dc d03c 71a3 503d aed2 a43c bb1e 8fbd
00000040: 91bd a1bd aa4d 203b ceec adbd 17e0 433d
00000050: 0a23 803d baa6 7a3b 216c 743c 5c32 05bc
00000060: 6213 dbbd 2aab 983c cb72 003e 5ac0 0c3e
00000070: e97d 083e 39fd 6f3d 3a38 993c c35f b33c
00000080: 6df9 563d 006b 5dbc 36b3 ed3c 89e9 46ba
00000090: 1884 22bd 17d5 833c 0164 e7bd 44d8 44be
000000a0: f770 a9bd a483 41bc 7752 fc3c 6df3 013d
000000b0: 7c6d 953d aa87 08be 1cba 0c3d 8996 d83d
000000c0: fbfc a5bd 4b21 f9bd

base.2linear.weight f4 [50, 50]
0.03943104 0.11543842 -0.05963982 -0.1014944 0.08818404 -0.08250379 0.0154838 0.007300908
0.23079567 0.075582325 -0.044983394 -0.02748356 -0.19021372 0.30434677 0.20250238 -0.16376199
0.0004135704 -0.05214652 -0.43861446 0.06563214 0.19244318 0.010644144 0.27769667 -0.004846132
-0.18284902 0.053290524 0.06496305 0.17943464 -0.017143037 -0.040087204 -0.10862836 -0.16839413
-0.12386648 -0.010041043 0.3731642 0.079961844 -0.03324971 -0.12624086 0.07811307 -0.39325166
-0.31884196 0.16698287 -0.19307768 0.022093821 0.24798907 -0.0977392 0.33055595 -0.09168676
0.24127729 -0.061802246 0.10496649 -0.2059579 -0.1188972 -0.05222275 -0.09050855 -0.15397039
-0.019686438 -0.076140024 0.017820284 -0.038025856 -0.03452546 -0.086983904 0.04417636 -0.08056182
-0.1196259 0.030121118 -0.25884873 0.18949366 -0.020268435 0.098991536 0.09275376 -0.04672095
-0.08880285 0.10690667 -0.064256586 -0.10066972 -0.24800108 -0.06471192 -0.14893812 0.11479812
0.17118001 0.08622231 0.010937561 0.006809493 -0.13067615 -0.023461126 0.1944839 0.038586464
-0.1689569 -0.035585143 0.0376439 -0.203927 0.2031124 -0.03088741 -0.16427307 -0.12570912
-0.02696984 -0.0016767564 0.16569732 0.12239518 0.030088363 -0.21585248 0.13360776 -0.061941396
0.01164497 -0.0014031515 0.006651536 0.24583109 0.07072279 -0.08580554 0.005082766 0.06785286
-0.05752674 -0.021703137 -0.12386599 -0.19426227 -0.0015860255 0.01666836 -0.20756316 0.29008862
-0.26335585 -0.014509215 0.23311271 0.005617865 -0.12859096 -0.007690656 -0.22421987 -0.12105871
-0.19219975 -0.034942742 0.14925435 -0.22929712 -0.15584734 0.007429071 0.10761748 0.21033175
0.024796313 0.06622448 0.023181858 -0.13166817 0.1736503 -0.018392283 -0.10751159 -0.020605467
0.104887575 0.048584476 -0.054494742 0.087741375 0.11206875 0.03288598 -0.14273395 -0.10327817
-0.03286669 -0.11512113 0.020207811 -0.116136365 -0.012829785 0.06332399 0.07357973 -0.06430906
0.13279513 0.071060725 -0.101202816 0.12587562 -0.041112624 -0.011013927 -0.37369227 -0.0107732555
0.07794762 -0.035116524 0.10375191 -0.0046929372 -0.026940089 -0.0063357307 -0.0135672605 0.0031029433
0.1275667 0.29056004 -0.06379474 0.17621931 0.19593579 0.08982621 -0.071936205 0.0076343887
0.21775292 -0.15427865 -0.0056238715 0.0018883238 -0.17760468 -0.5089744 -0.17132217 -0.062573016
-0.04295809 -0.0028851212 0.10065008 0.0003398409 0.1138163 0.27999252 0.008229225 -0.42897978
0.1308565 0.091821715 0.08656879 0.11285273 -0.28145754 -0.032324493 0.010587641 -0.16320536
-0.104716145 -0.030561285 -0.40955266 -0.047953293 -0.10436432 -0.091639705 0.20429988 -0.19270885
-0.008695196 0.042491984 0.056680724 -0.109954946 -0.22419026 -0.022725284 -0.20586681 -0.025818026
-0.06214332 -0.0076840133 -0.15069686 -0.17959383 0.047293615 -0.21115942 -0.01371721 0.20892756
0.02614746 0.022952816 -0.23181415 -0.12175714 -0.03738802 0.13826732 -0.054062806 -0.04601708
-0.11638408 -0.045837 -0.096160814 0.0062873056 0.050789144 0.05372265 0.024171108 -0.11455557
0.15073942 0.26724452 -0.00653396 -0.10662888 -0.031458862 0.18446535 0.029076274 0.14231059
00000000: 7182 213d fa6a ec3d e248 74bd 4cdc cfbd
00000010: d599 b43d bff7 a8bd c4af 7d3c 753c ef3b
00000020: b355 6c3e e8ca 9a3d 8240 38bd 3425 e1bc
00000030: 63c7 42be 57d3 9b3e c95c 4f3e 39b1 27be
00000040: 7bd4 d839 9797 55bd 1392 e0be 256a 863d
00000050: d30f 453e c764 2e3c 422e 8e3e 4dcc 9ebb
00000060: c63c 3bbe 2a47 5a3d 590b 853d b7bd 373e
00000070: 8e6f 8cbc 7b32 24bd 8c78 debd 836f 2cbe
00000080: b6ad fdbd 3083 24bc 610f bf3e 09c3 a33d
00000090: d930 08bd 4945 01be bff9 9f3d 4858 c9be
000000a0: 413f a3be 8ffd 2a3e 28b6 45be 1afe b43c
000000b0: d9f0 7d3e 7d2b c8bd a13e a93e 45c6 bbbd
000000c0: 6511 773e 5a24 7dbd acf8 d63d a1e6 52be
000000d0: 6080 f3bd 86e7 55bd 8c5c b9bd 6aaa 1dbe
000000e0: 7445 a1bc 4def 9bbd d8fb 913c 00c1 1bbd
000000f0: 926a 0dbd 9e24 b2bd 45f2 343d 98fd a4bd
00000100: 6dfe f4bd 90c0 f63c d287 84be a00a 423e
00000110: fd09 a6bc 13bc ca3d aff5 bd3d 785e 3fbd
00000120: 45de b5bd e2f1 da3d f598 83bd ed2b cebd
00000130: fff3 7dbe af87 84bd 3c83 18be 471b eb3d
00000140: d049 2f3e 5395 b03d 7533 333c 2b22 df3b
00000150: f8cf 05be 8c31 c0bc ca26 473e d70c 1e3d
00000160: 0a03 2dbe bac1 11bd 7d30 1a3d 3dd2 50be
00000170: b2fc 4f3e 9807 fdbc 3337 28be e4b9 00be
00000180: dbef dcbc 9cc6 dbba 8fac 293e 53aa fa3d
00000190: df7b f63c 6f08 5dbe 79d0 083e 43b6 7dbd
000001a0: 8bca 3e3c f4e9 b7ba 21f5 d93b 25bb 7b3e
000001b0: 1cd7 903d d1ba afbd 558d a63b 71f6 8a3d
000001c0: 29a1 6bbd c7ca b1bc 74ad fdbd b0ec 46be
000001d0: 2fe2 cfba 168c 883c 708b 54be 7f86 943e
000001e0: 94d6 86be 0fb8 6dbc 19b5 6e3e 1116 b83b
000001f0: 59ad 03be e601 fcbb e599 65be a1ed f7bd
00000200: 03d0 44be 1f20 0fbd 22d6 183e ddcc 6abe
00000210: 7296 1fbe 906f f33b 8e66 dc3d 3561 573e
00000220: a321 cb3c b3a0 873d e1e7 bd3c 05d4 06be
00000230: 62d1 313e 6aab 96bc 092f dcbd cccc a8bc
00000240: 4ccf d63d 8400 473d e135 5fbd c0b1 b33d
00000250: 4d84 e53d 73b3 063d d928 12be 8183 d3bd
00000260: 399f 06bd a1c4 ebbd da8a a53c e7d8 edbd
00000270: 0534 52bc 02b0 813d f8b0 963d 78b4 83bd
00000280: 72fb 073e 4988 913d 6c43 cfbd 8ae5 003e
00000290: b665 28bd c273 34bc 9854 bfbe 4f82 30bc
000002a0: 00a3 9f3d 58d6 0fbd e27b d43d 36c7 99bb
000002b0: 76b1 dcbc f69b cfbb 3749 5ebc c05a 4b3b
000002c0: d8a0 023e 49c4 943e d1a6 82bd d672 343e
000002d0: 64a3 483e cef6 b73d 4a53 93bd e529 fa3b
000002e0: 9ffa 5e3e 39fb 1dbe 7448 b8bb a281 f73a
000002f0: 00de 35be 254c 02bf 146f 2fbe 4826 80bd
00000300: d2f4 2fbd 4d14 3dbb a121 ce3d ac2c b239
00000310: 8518 e93d 2e5b 8f3e dfd3 063c 3da3 dbbe
00000320: 3fff 053e 060d bc3d fa4a b13d 551f e73d
00000330: 341b 90be b066 04bd c977 2d3c 4e1f 27be
00000340: 6b75 d6bd a95b fabc e3b0 d1be ac6a 44bd
00000350: f6bc d5bd 99ad bbbd fd33 513e 7855 45be
00000360: 4c76 0ebc 130c 2e3d 0c2a 683d 0f30 e1bd
00000370: 2292 65be 602a babc c0ce 52be 5380 d3bc
00000380: fe89 7ebd 2dca fbbb 4750 1abe 72e7 37be
00000390: f3b6 413d 2d3a 58be 26be 60bc 1bf1 553e
000003a0: 3333 d63c 8b07 bc3c b060 6dbe cf5b f9bd
000003b0: 2e24 19bd f395 0d3e f670 5dbd 687c 3cbd
000003c0: c75a eebd 94bf 3bbd f6ef c4bd be05 ce3b
000003d0: 4708 503d 480c 5c3d 7d02 c63c 1c9c eabd
000003e0: 6f5b 1a3e 46d4 883e d41a d6bb 3e60 dabd
000003f0: 02db 00bd 7ce4 3c3e 5e31 ee3c deb9 113e

base.2linear.bias f4 [50]
0.10633632 -0.021268602 0.055876113 0.11904362 0.010652492 0.0070202 -0.13885172 -0.036292713
0.12512921 -0.16456775 -0.10831355 0.06210924 -0.067326695 -0.0017062931 -1.0551482e-05 -0.08819744
0.07835736 0.04095271 0.099888824 -0.040394977 -0.08083671 0.03406195 0.23939419 0.15765154
0.012310347 -0.12307369 0.0068194317 -0.13242647 0.009066818 -0.032177463 -0.009031312 -0.017392881
0.11621501 0.03684103 -0.0482689 -0.062299266 -0.08001939 -0.025987506 -0.021660157 0.055546172
-0.06931072 0.012381256 0.04805087 -0.05115421 0.016884372 -0.03648291 -0.0783574 0.19135049
-0.06956153 -0.011714253
00000000: dbc6 d93d 7e3b aebc 5ade 643d 24cd f33d
00000010: ca87 2e3c b509 e63b 252f 0ebe aba7 14bd
00000020: df21 003e 7384 28be 7fd3 ddbd 4266 7e3d
00000030: 94e2 89bd b2a5 dfba 4506 31b7 dca0 b4bd
00000040: d379 a03d 07be 273d 8392 cc3d 3475 25bd
00000050: b88d a5bd 8b84 0b3d c023 753e 686f 213e
00000060: 56b1 493c 0f0e fcbd 8a75 df3b ce9a 07be
00000070: fe8c 143c 84cc 03bd 11f8 13bc 847b 8ebc
00000080: 2302 ee3d 9fe6 163d 9cb5 45bd 842d 7fbd
00000090: 35e1 a3bd c0e3 d4bc a470 b1bc 6284 633d
000000a0: c7f2 8dbd c0da 4a3c fdd0 443d 1487 51bd
000000b0: 1851 8a3c 1b6f 15bd d879 a0bd 62f1 433e
000000c0: 4776 8ebd 23ed 3fbc

base.3linear.weight f4 [50, 50]
0.08512162 0.11359831 0.17700736 0.08619321 -0.26616192 0.010475365 -0.3538982 -0.033162072
0.030347291 -0.014942734 0.1921043 -0.18196362 0.05810993 -0.08975607 -0.047516365 0.18990065
0.076413885 -0.024922393 0.12338397 0.020594107 -0.17134961 -0.39323938 0.19528718 0.2835962
-0.2229184 -0.12305563 0.41270748 0.19704205 0.039284144 -0.17579053 -0.015455848 -0.46773556
0.019481333 0.02267066 -0.14168423 -0.26210845 -0.5996497 0.13395807 0.33964747 -0.20292926
0.01709579 -0.2333209 0.14055042 -0.32267156 -0.42411414 -0.10514268 -0.1481166 0.1499411
-0.03485819 0.07674359 -0.03424451 0.13855565 -0.22313924 0.282583 -0.083715074 0.006075856
-0.09671159 -0.0827513 -0.20351058 -0.16815569 0.10276717 -0.0062162294 -0.13303149 -0.2137198
0.06849614 -0.20275842 0.04202552 0.24431475 0.22334355 -0.01888983 -0.28324783 -0.014161909
0.40162408 0.032366715 0.060792815 0.020842602 0.02879426 -0.099967204 -0.0024354167 -0.1345733
-0.00070206256 -0.28196615 0.26316848 0.15066446 -0.036432765 -0.08925709 -0.29723135 0.10795923
0.5334453 -0.17022122 0.18496451 0.00033493724 0.24533072 -0.33300105 -0.31000146 -0.17698584
-0.21790119 0.01845596 0.067028716 0.11414707 0.18819548 -0.00020879305 -0.14068851 -0.009201501
-0.02117461 0.044996463 -0.53367966 0.03915978 0.39804605 -0.095524564 0.026661858 0.23401996
0.28943133 0.11454327 -0.14023936 0.009013103 -0.2196973 -0.17804414 -0.099725634 0.02647879
0.08325102 -0.17831098 -0.05219923 0.06712712 -0.01194746 -0.04558476 0.01671006 -0.14698787
0.14164612 0.011390855 0.0070617693 0.10502069 -0.12673569 0.104158685 -0.12596159 -0.12864298
-0.04428488 0.085712634 -0.058487467 0.18336558 -0.318154 0.13830064 0.10297231 0.29495564
0.1332584 0.13512266 -0.031658746 -0.05794041 0.27051982 -0.059573073 0.46293586 -0.0034702446
0.14179705 0.34014034 -0.30703762 -0.046943706 0.15246202 0.018911773 0.1980527 0.05910218
-0.2040275 0.12414177 0.28123826 0.1259197 0.10033593 -0.1850896 -0.107166104 -0.06326529
0.17974603 -0.09437265 0.107583456 0.22414914 0.027982187 0.39527598 0.094610386 0.1733852
-0.09401246 -0.16619313 0.053154632 -0.3874158 -0.0060832174 0.0017431674 0.092287935 -0.26541916
-0.34794727 -0.18511796 -0.04026166 -0.0057672313 -0.15900733 0.081086166 -0.0034990858 0.15016659
0.041258473 -0.12931815 0.20991753 0.055961076 0.10577775 0.057412528 -0.13564146 0.08557338
-0.087742634 0.07338014 0.14503556 -0.14672904 -0.22091231 0.112555385 -0.29677564 -0.12864734
0.2613965 0.20957871 0.032929923 -0.14315228 -0.07424365 -0.2597434 -0.07546758 -0.08958889
-0.12289383 -0.13493359 -0.13907808 0.1182515 0.06188882 0.15068193 -0.14344689 0.095720224
0.16458505 0.042706043 -0.0065535284 -0.39762366 0.1271009 0.16862313 0.0065236343 0.063146114
-0.07615607 -0.08791176 0.21575327 -0.3309363 -0.050796468 0.02272966 -0.1768374 0.036647793
-0.10847142 0.17868729 -0.14199872 -0.1284415 -0.06264622 0.106274314 -0.42403653 0.16803382
0.030106297 0.0052627674 -0.17459393 -0.0100225145 -0.04874173 -0.16179726 -0.08039109 -0.041707337
00000000: 3e54 ae3d 3ba6 e83d 6b41 353e 1186 b03d
00000010: 6046 88be dea0 2b3c 2532 b5be f4d4 07bd
00000020: e29a f83c 5ed2 74bc fdb6 443e ac54 3abe
00000030: ae04 6e3d 08d2 b7bd 85a0 42bd 5175 423e
00000040: e27e 9c3d 0c2a ccbc bcb0 fc3d f9b4 a83c
00000050: 4676 2fbe ac56 c9be 5df9 473e 8533 913e
00000060: b944 64be 9704 fcbd 654e d33e 64c5 493e
00000070: 69e8 203d 6f02 34be 863a 7dbc 097b efbe
00000080: 5197 9f3c d2b7 b93c ac15 11be 1433 86be
00000090: a582 19bf 4e2c 093e 46e6 ad3e b0cc 4fbe
000000a0: 780c 8c3c adeb 6ebe 73ec 0f3e 3535 a5be
000000b0: 7d25 d9be 0c55 d7bd e1ab 17be 298a 193e
000000c0: 76c7 0ebd be2b 9d3d f943 0cbd 88e1 0d3e
000000d0: 9d7e 64be b8ae 903e cf72 abbd f917 c73b
000000e0: ba10 c6bd 8379 a9bd 1465 50be 0131 2cbe
000000f0: 9877 d23d 83b1 cbbb 6839 08be 5dd9 5abe
00000100: b447 8c3d e79f 4fbe f422 2c3d a52d 7a3e
00000110: 2cb4 643e d8be 9abc dc05 91be 5a07 68bc
00000120: aca1 cd3e f692 043d e301 793d 1bbe aa3c
00000130: f1e1 eb3c 9bbb ccbd 839b 1fbb 95cd 09be
00000140: 9f0a 38ba de5d 90be 05be 863e c947 1a3e
00000150: 863a 15bd 6ccc b6bd b52e 98be bb19 dd3d
00000160: df8f 083f 794e 2ebe 5667 3d3e 849a af39
00000170: fa37 7b3e 1d7f aabe 83b8 9ebe c73b 35be
00000180: 7d21 5fbe f430 973c 5a46 893d f0c5 e93d
00000190: 51b6 403e 75ef 5ab9 a610 10be e4c1 16bc
000001a0: 6076 adbc 364e 383d 3b9f 08bf 0166 203d
000001b0: b1cc cb3e 62a2 c3bd f869 da3c eea2 6f3e
000001c0: 5830 943e a995 ea3d e89a 0fbe b2ab 133c
000001d0: 54f8 60be 3451 36be f43c ccbd 0cea d83c
000001e0: 837f aa3d 2797 36be dcce 55bd f279 893d
000001f0: 47bf 43bc 16b7 3abd 89e3 883c fd83 16be
00000200: ae0b 113e b5a0 3a3c 6a66 e73b 1615 d73d
00000210: 00c7 01be 2651 d53d 13fc 00be fcba 03be
00000220: 1064 35bd 1b8a af3d 8e90 6fbd 30c4 3b3e
00000230: 15e5 a2be af9e 0d3e 25e3 d23d 6d04 973e
00000240: e474 083e 985d 0a3e 9aac 01bd ec52 6dbd
00000250: 9381 8a3e e502 74bd ee05 ed3e 0b6d 63bb
00000260: 3f33 113e e026 ae3e 0934 9dbe 0b48 40bd
00000270: 011f 1c3e ddec 9a3c 54ce 4a3e 2115 723d
00000280: 96ec 50be 0a3e fe3d 76fe 8f3e 18f1 003e
00000290: ed7c cd3d 2188 3dbe e779 dbbd 3b91 81bd
000002a0: 580f 383e 7346 c1bd b754 dc3d 5a87 653e
000002b0: e63a e53c 9d61 ca3e 17c3 c13d e48b 313e
000002c0: 9b89 c0bd 882e 2abe acb8 593d 5d5b c6be
000002d0: ba55 c7bb fe7a e43a 7501 bd3d 05e5 87be
000002e0: 2526 b2be 908f 3dbe 69e9 24bd 0bfb bcbb
000002f0: d1d2 22be 8110 a63d eb50 65bb 45c5 193e
00000300: a5fe 283d fa6b 04be 9ff4 563e 7137 653d
00000310: 01a2 d83d 6629 6b3d 98e5 0abe 1941 af3d
00000320: 69b2 b3bd 5448 963d 3484 143e 2340 16be
00000330: d636 62be 7083 e63d faf2 97be 21bc 03be
00000340: c3d5 853e cd9b 563e 87e1 063d 8396 12be
00000350: 0e0d 98bd 16fd 84be bf8e 9abd 617a b7bd
00000360: c3af fbbd 082c 0abe 7c6a 0ebe d82d f23d
00000370: 227f 7d3d 5d4c 1a3e bee3 12be f708 c43d
00000380: fc88 283e 88ec 2e3d fbbe d6bb 5495 cbbe
00000390: bd26 023e 8bab 2c3e 36c4 d53b c052 813d
000003a0: b7f7 9bbd 150b b4bd 6dee 5c3e 7c70 a9be
000003b0: f50f 50bd 8d33 ba3c dd14 35be ff1b 163d
000003c0: 4426 debd cdf9 363e 1d68 11be 2b86 03be
000003d0: a94c 80bd 59a6 d93d 511b d9be 0f11 2c3e
000003e0: 7ba1 f63c 4b73 ac3b c0c8 32be 7935 24bc
000003f0: 69a5 47bd 2eae 25be 15a4 a4bd 50d5 2abd

base.3linear.bias f4 [50]
0.0490304 0.11064735 0.058654986 0.04021293 0.0044373497 -0.032695845 0.025113953 0.10278427
0.044375997 -0.052220657 -0.021255203 -0.03141897 -0.0662497 -0.08529505 0.08277362 0.099771686
-0.035162702 -0.067753874 -0.13123329 0.0078029274 -0.010844843 -0.079843864 -0.10373172 -0.012630032
-0.0067230444 -0.15407231 -0.07103488 -0.03931434 0.035461385 -0.015284165 -0.03745534 0.06484916
0.030917874 -0.037232477 -0.04817492 0.016495574 0.037692387 0.020193275 0.059642233 -0.030895757
-0.08819134 0.05005969 -0.11924469 0.055532657 -0.16588336 -0.07385748 0.03131454 -0.05849927
-0.06898535 -0.059734765
00000000: 1ad4 483d 149b e23d 3640 703d 50b6 243d
00000010: 3067 913b 14ec 05bd c7bb cd3c 8f80 d23d
00000020: 9bc3 353d 54e5 55bd 641f aebc 2eb1 00bd
00000030: ecad 87bd 2caf aebd 3785 a93d 1955 cc3d
00000040: c406 10bd 8bc2 8abd 0562 06be b3af ff3b
00000050: 92ae 31bc 2e85 a3bd 4c71 d4bd 32ee 4ebc
00000060: fc4c dcbb 22c5 1dbe bc7a 91bd 1308 21bd
00000070: f53f 113d 6f6a 7abc c56a 19bd a3cf 843d
00000080: 7b47 fd3c 1581 18bd 1153 45bd ba21 873c
00000090: 5563 1a3d 5e6c a53c 6a4b 743d 1919 fdbc
000000a0: a99d b4bd 640b 4d3d 8f36 f4bd 3676 633d
000000b0: 54dd 29be 9742 97bd ad43 003d ee9c 6fbd
000000c0: 3148 8dbd 71ac 74bd

base.4linear.weight f4 [50, 50]
0.079590015 0.12102804 0.01781198 0.008104643 -0.00052601984 -0.04896311 0.08073484 0.2502743
0.02611148 0.061402466 0.020446645 -0.08462929 -0.12418302 0.19651328 0.13623507 0.35126722
-0.046451155 -0.27530527 -0.025234446 0.112880856 -0.34015247 0.035381198 -0.504428 -0.16371213
-0.025186334 -0.19767007 0.13477172 -0.5606601 -0.06197469 -0.054859016 -0.22475858 -0.015814409
0.16503868 -0.02774647 -0.5119787 -0.019866021 0.115033686 -0.0451321 0.05636988 -0.24864934
-0.25410157 0.110071026 -0.08578961 0.04930126 -0.101356685 -0.026774498 0.2769984 0.31005362
-0.25309035 0.117749006 0.0952522 0.03551745 -0.19466843 -0.30849966 0.113168605 -0.40765163
0.18058798 -0.17948805 0.09678925 0.013116435 -0.001991677 0.14942431 -0.023040561 0.006873289
-0.13167307 -0.66314125 -0.28292602 -0.33446246 0.18456261 -0.3360303 0.15404546 0.31932813
-0.45503142 -0.008134941 0.074978605 0.010701849 -0.030227328 -0.33183166 0.07843664 -0.09625815
0.10581507 -0.17769419 0.102434024 0.008060796 0.09030862 -0.22546592 -0.35537145 0.0942419
-0.12476913 0.010332033 -0.07341216 0.10475616 0.34973305 0.17489518 0.12727556 0.04310223
-0.038974147 0.07775321 -0.36225098 -0.12054527 -0.09051657 0.08862091 0.20272815 0.14849079
-0.17091039 0.12058361 -0.51330656 -0.0039395606 -0.13577712 0.07008332 0.01364066 0.104005724
0.10867282 0.103832245 -0.028346477 0.5833281 0.1267603 0.119186565 -0.034514282 0.24508335
-0.08914661 0.05378263 0.20575511 -0.23796813 -0.16574249 0.09399644 0.35166612 0.14782566
-0.27786195 0.011859569 0.1664465 -0.028764796 0.036799353 0.09774179 -0.15894164 -0.02221653
0.24456108 -0.123449475 -0.09251844 0.035191905 0.11602023 -0.3462403 0.060813487 -0.08679184
0.09986509 -0.06714803 -0.059508577 -0.36587885 0.2980894 -0.06844863 -0.4787663 -0.34944066
0.08599826 -0.07616156 0.1349478 -0.039660323 -0.05921688 -0.044167396 0.2641141 0.31826407
-0.011768594 -0.20413212 0.28396612 0.32329035 -0.25592119 -0.39828357 -0.12321114 0.24773988
0.136846 -0.3048803 0.28835848 0.89433515 0.1884254 0.1378457 -0.104083605 0.36389098
0.9039515 0.32919374 -0.17505991 -0.21346185 0.303412 -0.2691099 -0.17989843 0.14944711
0.03545115 0.18118611 -0.21290536 -0.2601498 0.10578538 0.13565215 0.2576631 0.14874807
0.16399762 0.1820701 -0.061908085 0.33764452 0.008671964 0.10019628 0.3326534 1.1064715
-0.033060618 -0.1066172 -0.28960353 -0.018901432 -0.30165735 -0.08174745 0.049175084 0.022084143
-0.0138627 -0.039897885 -0.014940696 -0.09935484 -0.013535308 -0.13310312 -0.48671305 -0.32708538
-0.28650585 0.111028925 -0.15160953 0.06244807 0.059985146 -0.16583617 0.22474663 0.05097095
0.07469336 0.14527427 -0.06441592 0.3809987 0.1558204 0.066737786 0.22836664 -0.053215053
0.27939147 0.047816355 0.047595255 -0.07930745 -0.30126253 -0.03654718 0.22418298 -0.051706042
0.10463495 0.118158616 0.00501156 -0.062487386 -0.2027572 0.07836692 -0.037066836 -0.16966459
-0.08320244 0.008096189 0.21130873 -0.041278422 0.37908158 0.04977126 0.0750352 -0.2152713
00000000: 1700 a33d 8ddd f73d 6eea 913c 56c9 043c
00000010: 98e4 09ba 8b8d 48bd 4f58 a53d f423 803e
00000020: bee7 d53c 2781 7b3d b97f a73c 1f52 adbd
00000030: ab53 febd c73a 493e 3581 0b3e 4cd9 b33e
00000040: 9143 3ebd d0f4 8cbe 78b8 cebc 142e e73d
00000050: 7728 aebe e0eb 103d 3222 01bf 27a4 27be
00000060: 9253 cebc 066a 4abe 9901 0a3e 6c87 0fbf
00000070: 2cd9 7dbd d9b3 60bd 1d27 66be 388d 81bc
00000080: e6ff 283e 914c e3bc 0911 03bf 11be a2bc
00000090: c896 eb3d 70dc 38bd 1ae4 663d ef9d 7ebe
000000a0: 9a19 82be eb6c e13d 77b2 afbd 1ef0 493d
000000b0: 1894 cfbd 3156 dbbc bcd2 8d3e 59bf 9e3e
000000c0: 0f95 81be 6426 f13d 9613 c33d bf7a 113d
000000d0: 2957 47be abf3 9dbe f1c4 e73d b7b7 d0be
000000e0: 0eec 383e b7cb 37be 7139 c63d 51e6 563c
000000f0: cc86 02bb b002 193e 8fbf bcbc 5439 e13b
00000100: 4ed5 06be a0c3 29bf aedb 90be aa3e abbe
00000110: fbfd 3c3e 2a0c acbe 18be 1d3e fa7e a33e
00000120: e1f9 e8be 6a48 05bc 628e 993d cf56 2f3c
00000130: 4d9f f7bc d7e5 a9be 64a3 a03d fe22 c5bd
00000140: 92b5 d83d 77f5 35be eec8 d13d 6e11 043c
00000150: baf3 b83d 8ae0 66be 3ff3 b5be e601 c13d
00000160: f586 ffbd b047 293c 1d59 96bd 668a d63d
00000170: 3610 b33e b917 333e 8654 023e f78b 303d
00000180: 5ba3 1fbd 133d 9f3d f678 b9be 70e0 f6bd
00000190: c060 b9bd e17e b53d f897 4f3e f80d 183e
000001a0: 2203 2fbe 8af4 f63d 0f68 03bf 6e17 81bb
000001b0: 2809 0bbe d887 8f3d 137d 5f3c f400 d53d
000001c0: db8f de3d 00a6 d43d df36 e8bc fe54 153f
000001d0: 74cd 013e 1618 f43d d95e 0dbd 21f7 7a3e
000001e0: 7f92 b6bd 2d4b 5c3d 78b1 523e ebad 73be
000001f0: 66b8 29be 3581 c03d 950d b43e 9c5f 173e
00000200: ec43 8ebe a34e 423c f470 2a3e 26a4 ebbc
00000210: ebba 163d d92c c83d 99c1 22be 71ff b5bc
00000220: 386e 7a3e 14d3 fcbd 4f7a bdbd 6325 103d
00000230: 049c ed3d 6946 b1be 9017 793d ecbf b1bd
00000240: 1186 cc3d e884 89bd 44bf 73bd 7954 bbbe
00000250: 2d9f 983e cc2e 8cbd db20 f5be e3e9 b2be
00000260: db1f b03d 98fa 9bbd c22f 0a3e dd72 22bd
00000270: 668d 72bd dfe8 34bd f739 873e 82f3 a23e
00000280: 10d1 40bc 0308 51be 0264 913e 5086 a53e
00000290: 1a08 83be d3eb cbbe 1f56 fcbd 86af 7d3e
000002a0: 5c21 0c3e 4519 9cbe b9a3 933e 26f3 643f
000002b0: 97f2 403e 6c27 0d3e c929 d5bd eb4f ba3e
000002c0: 5e69 673f 158c a83e e842 33be be95 5abe
000002d0: d158 9b3e c6c8 89be 4b37 38be aa08 193e
000002e0: 3a35 113d da88 393e dd03 5abe 5b32 85be
000002f0: 01a6 d83d 66e8 0a3e 6bec 833e 6a51 183e
00000300: feee 273e 9670 3a3e 5593 7dbd bedf ac3e
00000310: da14 0e3c b533 cd3d 8c51 aa3e dca0 8d3f
00000320: 926a 07bd 1e5a dabd ea46 94be 2dd7 9abc
00000330: d572 9abe 356b a7bd d06b 493d cee9 b43c
00000340: 6120 63bc f76b 23bd d2c9 74bc 8d7a cbbd
00000350: 32c3 5dbc 2f4c 08be 7432 f9be bc77 a7be
00000360: e5b0 92be 2263 e33d 873f 1bbe 8cc9 7f3d
00000370: fcb2 753d f5d0 29be fb23 663e eac6 503d
00000380: d5f8 983d c7c2 143e 7eec 83bd 4312 c33e
00000390: 628f 1f3e d2ad 883d f2d8 693e 07f8 59bd
000003a0: 660c 8f3e 15db 433d 3ef3 423d f26b a2bd
000003b0: 153f 9abe 7fb2 15bd 3990 653e b7c9 53bd
000003c0: d94a d63d 25fd f13d 0338 a43b c6f2 7fbd
000003d0: 959f 4fbe d67e a03d 65d3 17bd 8ebc 2dbe
000003e0: 0a66 aabd e1a5 043c 5161 583e 9013 29bd
000003f0: fb16 c23e f3dc 4b3d 0eac 993d 1470 5cbe

base.4linear.bias f4 [50]
-0.003703135 0.120156184 -0.027885243 -0.1262574 0.0021456608 0.009867542 -0.11804102 -0.03624523
0.026923925 -0.023416085 -0.0063132136 0.055468954 -0.093843885 0.03679591 -0.012131293 -0.03072996
-0.0066697826 0.087652326 0.027636439 -0.025543354 -0.037561283 -0.0067460523 -0.021561375 -0.015189564
-0.07323832 0.03183099 -0.10849457 0.001264471 0.007857665 0.11040051 0.023475379 0.07994224
-0.03853371 0.1467292 0.057130992 -0.0002057891 -0.011092675 0.065723024 -0.046278246 0.050453983
0.001488837 -0.018829422 -0.04496146 -0.10015203 -0.042581648 -0.011158304 0.05522416 0.0719366
0.08700132 0.04287337
00000000: 4cb0 72bb 7214 f63d 986f e4bc 9f49 01be
00000010: 379e 0c3b 79ab 213c 7ebf f1bd e175 14bd
00000020: 908f dc3c 17d3 bfbc 13df cebb 6a33 633d
00000030: 3931 c0bd 4fb7 163d 55c2 46bc 66bd fbbc
00000040: 318e dabb 1083 b33d d065 e23c 4c40 d1bc
00000050: dcd9 19bd fd0d ddbb 7ba1 b0bc a6dd 78bc
00000060: f9fd 95bd 3661 023d 6732 debd 9bbc a53a
00000070: 70bd 003c aa19 e23d 704f c03c c2b8 a33d
00000080: 86d5 1dbd 2e40 163e 3002 6a3d 17c9 57b9
00000090: 0dbe 35bc cb99 863d 428e 3dbd d6a8 4e3d
000000a0: 1425 c33a 2940 9abc 8229 38bd 821c cdbd
000000b0: 186a 2ebd 52d1 36bc bb32 623d 7f53 933d
000000c0: c02d b23d fd9b 2f3d

base.5linear.weight f4 [50, 50]
0.06335638 0.061932016 0.11534185 0.2574952 -0.11492376 -0.22655287 0.144978 -0.14237317
-0.060854007 0.06289895 0.06389007 0.2326681 -0.07328169 -0.14134794 0.13370422 -0.072336674
-0.06605322 0.019809991 -0.21249673 0.009857252 0.08195266 0.092860416 0.00475463 -0.39547104
0.3895048 -0.38312095 0.024824122 -0.06524688 -0.23128188 -0.43077502 0.021825897 -0.13398945
-0.25988972 -0.3357694 0.038043812 -0.0051651383 -0.14977252 0.19863261 -0.037633177 -0.23010677
-0.06809783 0.06688637 0.0115803825 -0.08897527 0.02267421 -0.029788418 0.3028662 0.11452104
-0.13344002 0.1066455 -0.12120009 0.071271494 -0.21587862 -0.17829467 -0.11277944 0.21638098
-0.13131768 -0.043151617 -0.5175569 0.28449997 -0.014342987 -0.18850513 -0.170689 0.10271144
0.14033411 0.17653309 -0.3080662 0.18426058 0.015579266 -0.28178415 -0.18216857 -0.26608473
0.10780703 0.17063999 -0.07302949 0.27100545 0.4510084 0.03736528 -0.14084399 0.1928707
0.13215788 -0.18549308 -0.20851406 0.009382431 -0.29603124 -0.0047193435 0.17867558 0.29364038
0.21552399 0.07628828 -0.34181756 -0.052209128 0.06004887 -0.38658836 -0.1324725 -0.2150543
0.2733525 0.08267159 0.10201771 -0.24448548 0.101855434 -0.08676118 -0.07113255 0.3605228
0.08251834 -0.21836849 0.016186954 0.049764365 -0.2266756 9.761143e-05 -0.11689317 0.24700135
0.06128319 0.18023548 0.18608801 0.2966329 0.08704769 -0.08882362 0.119573675 0.21051237
-0.028910073 0.11151389 -0.14216954 -0.049206223 0.0040048193 0.1626831 0.02915712 -0.0058042957
-0.112099774 0.037584536 -0.082162306 0.074240856 -0.2909472 0.3423896 -0.1623079 -0.11902865
-0.08393125 -0.21995781 -0.024492947 -0.0801111 0.1429616 0.022445697 -0.12146026 -0.05475404
-0.055983767 -0.062145222 -0.18543148 -0.07615563 0.020190928 -0.09023957 0.09403871 -0.07502948
-0.054908678 -0.05611226 0.14447652 -0.03155558 -0.15813452 0.17864321 -0.17553218 0.013824006
0.008157297 0.16270088 0.08020658 0.032198273 0.024794377 -0.10325089 0.020674333 -0.116039775
0.111349784 0.21346356 -0.19461274 -0.13651344 -0.036267847 -0.3866105 0.18709084 0.09648281
-0.538152 0.027472299 0.007245178 0.041804872 0.0883553 0.28516883 0.11120209 0.08453621
0.33536628 -0.3258282 -0.30732408 0.101869844 0.21353458 0.07782805 0.17971519 0.13952544
-0.24655315 0.04188208 0.0831704 -0.14779633 -0.15153833 -0.011756049 -0.29327187 -0.18445817
0.11832081 -0.07761961 -0.09778711 0.14183934 0.0089685265 -0.16585028 -0.3486715 0.08630569
-0.1381722 0.010922347 -0.022140885 -0.3282351 -0.12915918 -0.23199177 0.03233579 0.20245285
-0.45854434 0.11978886 0.048443597 -0.18629718 0.10933006 -0.2249245 0.20214508 -0.22182079
0.10772217 0.043058243 0.51169133 0.082059935 0.107656404 0.05927803 0.15924197 -0.4980171
0.24969679 -0.21079475 -0.013736832 0.23828448 0.3231015 0.07582651 0.1477328 -0.05666483
-0.14283647 -0.010227505 0.0827791 0.10502855 -0.11604418 -0.009017758 -0.041396584 0.07157402
0.078308746 0.014240353 0.009950054 0.011701025 -0.44054577 -0.06628902 -0.038805727 0.02916205
00000000: fdc0 813d 6dac 7d3d 5938 ec3d 69d6 833e
00000010: 265d ebbd 7afd 67be 1d75 143e 46ca 11be
00000020: 0d42 79bd 2ad1 803d ccd8 823d 8c40 6e3e
00000030: b614 96bd 84bd 10be c2e9 083e 4025 94bd
00000040: e946 87bd 9048 a23c be98 59be 5080 213c
00000050: ccd6 a73d 9a2d be3d bacc 9b3b 2e7b cabe
00000060: 2c6d c73e 6e28 c4be f55b cb3c 28a0 85bd
00000070: 28d5 6cbe 8b8e dcbe 39cc b23c 8834 09be
00000080: 4410 85be f7e9 abbe d4d3 1b3d 5240 a9bb
00000090: f85d 19be 5966 4b3e 3f25 1abd 1ca1 6bbe
000000a0: e076 8bbd b9fb 883d a5bb 3d3c ab38 b6bd
000000b0: 44bf b93c d706 f4bc 4711 9b3e 028a ea3d
000000c0: 80a4 08be f568 da3d c137 f8bd caf6 913d
000000d0: 490f 5dbe e192 36be e8f8 e6bd fa92 5d3e
000000e0: 2478 06be c0bf 30bd 9c7e 04bf fba9 913e
000000f0: d9fe 6abc 7d07 41be 19c9 2ebe 605a d23d
00000100: bfb3 0f3e 17c5 343e daba 9dbe ceae 3c3e
00000110: 2d40 7f3c 0346 90be 668a 3abe 423c 88be
00000120: efc9 dc3d 40bc 2e3e 7c90 95bd 3ac1 8a3e
00000130: 93ea e63e 560c 193d 6839 10be e67f 453e
00000140: 6554 073e e6f1 3dbe b684 55be c5b8 193c
00000150: 6891 97be b9a4 9abb bbf6 363e 0858 963e
00000160: 52b2 5c3e 083d 9c3d b602 afbe 3dd9 55bd
00000170: cef5 753d e9ee c5be dfa6 07be 3237 5cbe
00000180: dcf4 8b3e b94f a93d a9ee d03d 675a 7abe
00000190: 9599 d03d d8af b1bd f1ad 91bd 7296 b83e
000001a0: 60ff a83d fd9b 5fbe 819a 843c b8d5 4b3d
000001b0: a61d 68be bdb4 cc38 b065 efbd eced 7c3e
000001c0: 1504 7b3d a68f 383e db8d 3e3e 44e0 973e
000001d0: 0f46 b23d 28e9 b5bd 0be3 f43d 8e90 573e
000001e0: d1d4 ecbc 6561 e43d e494 11be 778c 49bd
000001f0: dc3a 833b 6696 263e eada ee3c f631 bebb
00000200: 9194 e5bd 3ef2 193d b644 a8bd 970b 983d
00000210: 08f7 94be b14d af3e 0b34 26be 4bc5 f3bd
00000220: 26e4 abbd 9f3c 61be 6fa5 c8bc 4a11 a4bd
00000230: 8764 123e 0ae0 b73c 28c0 f8bd c645 60bd
00000240: 3c4f 65bd fd8b 7ebd c0e1 3dbe 7cf7 9bbd
00000250: 7267 a53c 86cf b8bd 5e97 c03d 0ea9 99bd
00000260: ece7 60bd f8d5 65bd a7f1 133e 6d40 01bd
00000270: 04ee 21be 3fee 363e b5be 33be 157e 623c
00000280: 2fa6 053c 0f9b 263e 5943 a43d 56e2 033d
00000290: 941d cb3c 3475 d3bd 385d a93c 43a6 edbd
000002a0: 5b0b e43d 3196 5a3e 9048 47be 2eca 0bbe
000002b0: 988d 14bd d0f1 c5be be94 3f3e c898 c53d
000002c0: 54c4 09bf 960d e13c f568 ed3b 963b 2b3d
000002d0: a0f3 b43d a601 923e ecbd e33d 5221 ad3d
000002e0: 21b5 ab3e f4d2 a6be 9559 9dbe 23a1 d03d
000002f0: cfa8 5a3e 5064 9f3d 4207 383e c2df 0e3e
00000300: 6e78 7cbe 8b8c 2b3d 3e55 aa3d ec57 17be
00000310: dd2c 1bbe 719c 40bc bb27 96be 9ae2 3cbe
00000320: 2e52 f23d 08f7 9ebd 9c44 c8bd 553e 113e
00000330: baf0 123c a8d4 29be 1285 b2be 0ac1 b03d
00000340: 037d 0dbe a5f3 323c cd60 b5bc 6e0e a8be
00000350: 4e42 04be 408f 6dbe 8972 043d cd4f 4f3e
00000360: 53c6 eabe dd53 f53d cb6c 463d b0c4 3ebe
00000370: 70e8 df3d 9c52 66be 1fff 4e3e fd24 63be
00000380: 719d dc3d d75d 303d 34fe 023f 0a0f a83d
00000390: f67a dc3d 85cd 723d 5410 233e 19fc febe
000003a0: 84b0 7f3e 94da 57be 7310 61bc d900 743e
000003b0: 8f6d a53e ee4a 9b3d 4447 173e 6119 68bd
000003c0: b943 12be 4491 27bc 1788 a93d 3519 d73d
000003d0: 92a8 edbd 38bf 13bc 778f 29bd 6695 923d
000003e0: 5660 a03d 5f50 693c 8d05 233c a8b5 3f3c
000003f0: 378f e1be 8ac2 87bd c1f2 1ebd 40e5 ee3c

base.5linear.bias f4 [50]
-0.084603675 -0.04386883 0.072182655 -0.022860495 -0.054083433 0.010745647 -0.0759958 0.08783479
0.026040941 0.035667732 -0.03804342 -0.006183065 -0.13163204 -0.02565079 -0.00073394756 -0.0037259134
0.024714962 -0.023438731 -0.056757417 0.069325544 -0.00051505753 0.036668845 0.06284518 -0.04525592
0.035029657 -0.027668854 0.10987494 -0.044711977 -0.037698384 -0.055980433 0.051383704 0.019318528
-0.079076394 0.03131819 -0.0387348 0.037667733 -0.03822498 -0.06827187 0.012443714 -0.083832815
-0.03601523 -0.0007909535 0.12425212 -0.11285723 0.0031885887 -0.08089279 0.107744865 0.007592741
0.015829716 0.09156796
00000000: b144 adbd cdaf 33bd 80d4 933d ef45 bbbc
00000010: 9786 5dbd 830e 303c b0a3 9bbd bae2 b33d
00000020: d053 d53c 5418 123d 6bd3 1bbd 4f9b cabb
00000030: 8dca 06be 9b21 d2bc 6366 40ba 742e 74bb
00000040: 0877 ca3c 9502 c0bc 777a 68bd 8dfa 8d3d
00000050: ed04 07ba 1232 163d f9b4 803d 465e 39bd
00000060: 427b 0f3d cba9 e2bc 1d06 e13d e823 37bd
00000070: 9f69 1abd bd4b 65bd b877 523d e441 9e3c
00000080: cef2 a1bd 8147 003d 62a8 1ebd 7b49 1a3d
00000090: cc91 1cbd 1fd2 8bbd b8e0 4b3c 8ab0 abbd
000000a0: b584 13bd fe57 4fba e577 fe3d b121 e7bd
000000b0: a4f7 503b 1eab a5bd 57a9 dc3d 87cc f83b
000000c0: 52ad 813c fc87 bb3d

base.6linear.weight f4 [50, 50]
-0.028376535 0.15673682 -0.24765788 -0.29273975 0.31015024 0.43703714 -0.045614205 0.042514876
-0.085364945 0.06838315 -0.31348735 -0.12355882 0.07955413 -0.19293559 -0.1734031 -0.23525852
-0.04482889 0.02034351 -0.046617184 -0.34512827 0.032590374 -0.17420578 -0.07423671 0.15638076
0.34755558 0.40693513 0.12056283 0.35094336 -0.3587883 -0.05147878 0.21342674 0.12089139
0.05864194 -0.10254783 -0.12497243 0.04751429 -0.04856761 0.042411916 0.30921105 -0.16937114
0.14670877 0.37483785 -0.036912236 0.08741795 -0.067431174 -0.17399783 0.016550567 0.17033653
-0.12327674 0.26881686 -0.26059368 0.09372209 0.20515907 -0.021787222 0.35936078 -0.1302415
0.08640537 0.24718343 -0.17906483 0.29542994 -0.039697833 0.23942383 -0.051430985 0.07640878
-0.26983276 -0.15374923 0.01972166 -0.02371419 0.0012058247 0.0021396358 -0.032044 0.0048194793
-0.109063104 -0.26669753 0.23444346 0.06182441 -0.106826775 0.2549962 0.23163287 -0.15390332
-0.23681025 0.2516094 -0.101139285 -0.12822987 0.003772632 0.051590167 0.23339981 -0.030134358
0.15055454 0.064951636 0.20371678 -0.28782463 -0.2088803 -0.07110071 0.18012007 0.044520907
-0.078053616 0.21063158 0.29359588 0.04973597 0.24642052 0.04629578 -0.26212466 0.230087
-0.47353256 0.32426873 0.18665439 0.025880985 -0.055414923 -0.20053557 0.15081502 0.0548371
0.3226487 0.025442652 0.4564682 -0.06322541 -0.041272134 0.10622423 0.12572859 0.13161622
0.2026639 0.037429366 -0.025444109 -0.14112034 -0.33179563 -0.0042988397 0.0777331 -0.08421364
-0.009586123 0.19464117 -0.17943028 -0.27342847 0.20970432 0.2799346 -0.3522325 0.03814975
-0.09887042 0.2012461 0.11470789 0.19739316 0.0592349 -0.1603393 -0.22183028 0.21849486
0.008397215 0.09547605 -0.017989988 0.080028184 0.1574848 -0.10538245 0.09966409 -0.455519
-0.07529086 -0.13580537 0.2821594 -0.1848909 -0.081658505 -0.08927667 0.15829614 -0.24563147
-0.013432946 -0.06555096 0.10945857 -0.18200752 0.0145111475 -0.049800947 -0.13173282 0.022065049
-0.39848194 0.13688315 -0.06999527 0.21378168 0.011897252 0.4159325 0.102559865 -0.34934258
-0.32615355 0.07738437 0.3843882 -0.06195152 -0.34096617 0.19311002 0.123539425 -0.04563243
0.080809884 -0.22363187 0.27246347 -0.038745303 -0.26901758 -0.17766172 0.0010383201 -0.08319975
0.13038419 0.16270407 0.16824335 -0.062370732 0.13586989 0.103471495 0.21013477 0.14626627
0.052423213 0.23458183 -0.19502892 -0.12571268 0.020236854 -0.023524774 -0.049012657 -0.2594043
0.03594101 -0.23042224 0.035932537 -0.1342213 0.04082989 -0.006673111 -0.33034244 0.22343941
0.307345 0.24880442 0.19765502 0.05797977 0.18601865 0.2227963 0.20918572 -0.04204336
-0.069201 -0.11549722 0.013457712 -0.28597718 0.04545369 -0.23300196 0.0150470855 0.15513784
-0.0030107866 0.11617594 -0.10791887 0.05244838 0.007515971 -0.036245227 -0.12813306 -0.12018322
-0.17665845 0.16483742 -0.29312176 0.18929446 -0.29787406 -0.21652149 0.11719387 -0.024316704
-0.16794372 -0.12214219 0.046134166 -0.4082781 0.29763347 0.104565814 -0.11666926 -0.038940985
00000000: e875 e8bc 9e7f 203e 079a 7dbe fce1 95be
00000010: 03cc 9e3e 55c3 df3e f6d5 3abd 1424 2e3d
00000020: d1d3 aebd 770c 8c3d 6a81 a0be 680c fdbd
00000030: 47ed a23d e890 45be 9590 31be 9ce7 70be
00000040: 809e 37bd 6fa7 a63c a9f1 3ebd a7b4 b0be
00000050: 7c7d 053d 0063 32be 6b09 98bd 4722 203e
00000060: cef2 b13e cd59 d03e a5e9 f63d d9ae b33e
00000070: 1ab3 b7be 6adb 52bd 8a8c 5a3e e895 f73d
00000080: 8832 703d 9904 d2bd 8cf1 ffbd 589e 423d
00000090: d5ee 46bd 1eb8 2d3d e950 9e3e a16f 2dbe
000000a0: d33a 163e bfea bf3e 4931 17bd 2f08 b33d
000000b0: 5b19 8abd 7d2c 32be 0e95 873c b36c 2e3e
000000c0: 8478 fcbd 5da2 893e 896c 85be 5ef1 bf3d
000000d0: 3815 523e 1e7b b2bc 23fe b73e 075e 05be
000000e0: 4cf5 b03d a71d 7d3e c55c 37be 9842 973e
000000f0: 329a 22bd 852b 753e 4ca9 52bd 357c 9c3d
00000100: 8527 8abe 7070 1dbe 528f a13c 4344 c2bc
00000110: c30c 9e3a 2239 0c3b 9240 03bd b9ec 9d3b
00000120: 7a5c dfbd 948c 88be f211 703e 983b 7d3d
00000130: ffc7 dabd dd8e 823e 2b31 6d3e d598 1dbe
00000140: 637e 72be f3d2 803e 1d22 cfbd b14e 03be
00000150: 433e 773b 3650 533d 5c00 6f3e 54dc f6bc
00000160: f82a 1a3e 5d05 853d 229b 503e c05d 93be
00000170: b8e4 55be 409d 91bd 6571 383e 8e5b 363d
00000180: 93da 9fbd ceaf 573e 3352 963e f2b7 4b3d
00000190: a955 7c3e a5a0 3d3d 3435 86be ed9b 6b3e
000001a0: dc72 f2be 8d06 a63e 5422 3f3e 5c04 d43c
000001b0: c2fa 62bd 3259 4dbe 416f 1a3e de9c 603d
000001c0: 3632 a53e 1c6d d03c 33b6 e93e 537c 81bd
000001d0: f80c 29bd 178c d93d ffbe 003e 67c6 063e
000001e0: 2087 4f3e 894f 193d 2a70 d0bc da81 10be
000001f0: 1ee1 a9be 48dd 8cbb 8832 9f3d 3378 acbd
00000200: 1d0f 1dbc 0450 473e 92bc 37be d1fe 8bbe
00000210: bbbc 563e 9753 8f3e d157 b4be ea42 1c3d
00000220: 937c cabd 7513 4e3e f8eb ea3d 6f21 4a3e
00000230: 4ba0 723d fc2f 24be 7a27 63be 1ebd 5f3e
00000240: 7994 093c f388 c33d bd5f 93bc d1e5 a33d
00000250: b243 213e c1d2 d7bd b01c cc3d c939 e9be
00000260: 1832 9abd 9010 0bbe 3277 903e 0a54 3dbe
00000270: 933c a7bd b0d6 b6bd 6218 223e d186 7bbe
00000280: dc15 5cbc 953f 86bd d12b e03d 2e60 3abe
00000290: 2ac0 6d3c 14fc 4bbd f8e4 06be c3c1 b43c
000002a0: d305 ccbe 192b 0c3e ae59 8fbd 96e9 5a3e
000002b0: b1ec 423c 1bf5 d43e e80a d23d 08dd b2be
000002c0: 99fd a6be b27b 9e3d 88ce c43e e1c0 7dbd
000002d0: 1e93 aebe a2be 453e 3d02 fd3d 12e9 3abd
000002e0: a77f a53d c1ff 64be 5580 8b3e 65b3 1ebd
000002f0: acbc 89be f4ec 35be 3e18 883a a164 aabd
00000300: 6f83 053e e59b 263e fc47 2c3e 7478 7fbd
00000310: 7a21 0b3e dde8 d33d 922d 573e d3c6 153e
00000320: b9b9 563d 3836 703e a9b5 47be d3ba 00be
00000330: c2c7 a53c 07b7 c0bc 7fc1 48bd a4d0 84be
00000340: e136 133d cff3 6bbe ff2d 133d 4f71 09be
00000350: 3e3d 273d 1daa dabb a522 a9be 4dcd 643e
00000360: 535c 9d3e 96c6 7e3e 1466 4a3e 327c 6d3d
00000370: ac7b 3e3e b724 643e c834 563e a935 2cbd
00000380: 41b9 8dbd ce89 ecbd bc7d 5c3c 9a6b 92be
00000390: a62d 3a3d 1198 6ebe 0d88 763c 74dc 1e3e
000003a0: 9e50 45bb a7ed ed3d 9204 ddbd 1dd4 563d
000003b0: 8948 f63b e075 14bd 5035 03be 9f22 f6bd
000003c0: f4e5 34be 24cb 283e 0e14 96be 68d6 413e
000003d0: f382 98be cfb7 5dbe 5703 f03d d333 c7bc
000003e0: 70f9 2bbe af25 fabd 2ef7 3c3d d409 d1be
000003f0: 6a63 983e 9a26 d63d 4bf0 eebd 9580 1fbd

base.6linear.bias f4 [50]
-0.047847625 0.019704107 -0.056543235 -0.0051773265 0.06384073 -0.10890642 0.049103193 0.00022478898
-0.06977315 0.019266423 0.100717254 0.10407758 0.043737 0.03349349 0.034887377 0.049636364
0.016427606 -0.04833561 -0.028711893 -0.018455407 0.02420116 0.049501922 0.0824752 0.02764638
-0.027504997 -0.006890676 -0.017783387 0.053210996 0.02484294 0.043974757 -0.025037672 0.017934637
-0.07237634 0.2344352 0.03293166 0.026223296 -0.0014711383 -0.045320604 0.01587841 0.00038699456
-0.092188954 -0.09040454 -0.00949957 -0.07339757 0.0073051057 0.026169708 -0.005616956 0.051246855
0.066988915 -0.073277794
00000000: dffb 43bd 826a a13c e199 67bd 90a6 a9bb
00000010: eebe 823d 540a dfbd 6e20 493d 55b5 6b39
00000020: 3ae5 8ebd 9ed4 9d3c d944 ce3d a026 d53d
00000030: 9225 333d 7830 093d 11e6 0e3d 804f 4b3d
00000040: 3093 863c 90fb 45bd 3435 ebbc cb2f 97bc
00000050: 8341 c63c 87c2 4a3d c2e8 a83d a97a e23c
00000060: 2952 e1bc 2ecb e1bb 77ae 91bc c6f3 593d
00000070: 6c83 cb3c e01e 343d ce1b cdbc a9eb 923c
00000080: 0c3a 94bd c80f 703e 59e3 063d 3dd2 d63c
00000090: 36d3 c0ba 19a2 39bd 7013 823c 88e5 ca39
000000a0: 90cd bcbd 0426 b9bd 16a4 1bbc 7751 96bd
000000b0: ab5f ef3b db61 d63c 710e b8bb 39e8 513d
000000c0: 7c31 893d ab12 96bd
