STPINN-NS/sub_data/sub_write/14NS_model_train.pt (torch, 100091 bytes, 22 tensors)

base.0linear.weight f4 [50, 3]
000000 40 56 a8 bc a5 e3 18 bc f2 52 01 bb 11 72 95 be
       -0.02054894 -0.009331618 -0.0019733277 -0.29188588
000010 64 ff f0 bc 22 fc e5 3d 1d 73 44 3c 12 51 6c 3e
       -0.029418655 0.11229731 0.011990336 0.23077801
000020 4d 44 17 be fa ab 9f bd fc 4a 17 be 48 20 9d be
       -0.14772148 -0.07796474 -0.14774698 -0.3068869
000030 a6 46 05 ba 46 d7 e4 ba 3d 6b 9f ba b4 b4 a7 3d
       -0.0005084075 -0.0017459176 -0.0012162697 0.08188763
000040 ce 5f 83 be 14 a6 99 be 94 c2 41 be 33 bf fb 3e
       -0.2565903 -0.3000952 -0.18921882 0.4916931
000050 0a 91 50 be 9e 72 d3 3d ed f3 cf 3e b5 ac 7b be
       -0.20367828 0.10324596 0.40615788 -0.24577601
000060 dc c8 87 bd ab 1c 15 be 46 be ac 3e 26 2e f9 be
       -0.06630108 -0.14561717 0.33738917 -0.4866802
000070 a6 27 e2 3e 58 56 5c 3e 96 24 05 bf b8 a4 55 be
       0.44170874 0.21517313 -0.5200895 -0.20863616
000080 bc f7 51 3a 74 9e c8 be 25 93 39 3e 84 b7 e0 bd
       0.00080096326 -0.3918339 0.18122537 -0.10972503
000090 24 dd dc bd 91 6e 50 be 03 f6 21 be 2f 3c 41 3d
       -0.10784367 -0.20354678 -0.15816502 0.047176536
0000a0 fe 90 4e 3e 9e 9a 04 3d 50 4f f2 bc e2 e8 5c 3e
       0.20172498 0.032374017 -0.029578835 0.21573213
0000b0 8d 90 b8 be ea 7a d0 ba 99 34 8f 3e 8c e4 ac bd
       -0.36047783 -0.0015905772 0.27969816 -0.08442029
0000c0 2d db e2 bd a9 ca ca 3e cc a7 b6 3d d0 88 81 be
       -0.11076961 0.39607742 0.089187235 -0.25299692
0000d0 49 b8 81 bd 4b c3 37 3e e6 3d 22 be ca 58 9f 3e
       -0.06333978 0.17945592 -0.15843925 0.31122428
0000e0 9c f4 cc 3d 09 c9 1b be 2f 7e 01 be a3 87 02 3d
       0.10007593 -0.15213408 -0.12645791 0.031867635
0000f0 e1 1d 95 3e dd c8 35 3e 59 4d 94 bc 53 3a 16 3c
       0.29124358 0.17752405 -0.018103288 0.009169179
000100 39 e4 ba 3c 88 a5 f8 bd 39 03 22 3e 0d 42 90 be
       0.022813903 -0.121409476 0.15821542 -0.28175393
000110 aa af 68 be 09 d0 e9 bb 65 9d 3f 3e ea aa bf 3d
       -0.2272326 -0.0071353954 0.18712385 0.09358771
000120 a7 16 42 be 59 8e ba be f7 e5 22 3e c5 0e e9 3c
       -0.18953954 -0.36436728 0.15908037 0.028449425
000130 25 d7 94 bd e9 f6 23 be 9b cc 26 3e c9 6f 06 3e
       -0.07267598 -0.16012157 0.16288988 0.1312858
000140 7c 57 d7 be e8 33 4d 3e 83 a5 43 3e 0f 65 86 bd
       -0.42058933 0.20039332 0.19106106 -0.06562244
000150 c4 0e 63 be a4 22 59 3d c8 51 17 3e 26 c2 6f be
       -0.22173601 0.05301155 0.14777291 -0.23413906
000160 58 9d fc bd 90 de 73 be e1 bf 9b bd 56 7b 93 3e
       -0.123346984 -0.2381537 -0.07604957 0.28805035
000170 b5 e0 1a 3e af e2 a3 3d de 64 ce 3e ee 69 7b be
       0.15124781 0.08002221 0.4031133 -0.24552128
000180 f5 41 ce be a6 6f b8 be 6d 62 03 3c 69 13 1f 3e
       -0.40284696 -0.3602268 0.008019072 0.15534748
000190 e8 2f 9a 3d ab 63 94 3d 39 b5 92 3e 56 99 8e be
       0.07528669 0.07245573 0.28653887 -0.2785136
0001a0 54 02 7b be 2d 62 6b bd f1 4a 01 bd 58 79 e1 bd
       -0.24512607 -0.057466675 -0.03156561 -0.110094726
0001b0 d2 ce fe 3d 9f 23 35 be be d7 aa be 2c 81 1e 3c
       0.124417916 -0.1768937 -0.33367723 0.009674352
0001c0 ea 31 d8 3c 9c d5 5a ba dc 84 87 bd d4 6a 9b bd
       0.026390988 -0.00083478703 -0.06617138 -0.07588735
0001d0 13 9f ec bd f9 9e 5a 3d 90 8b 13 3d 86 32 6d be
       -0.115537785 0.053374264 0.03602177 -0.23163804
0001e0 86 d2 3d 3e 14 ff cf be 9f ab 97 be 08 2a f3 ba
       0.1853734 -0.40624297 -0.29623124 -0.0018551955
0001f0 63 fc 85 bc 56 bf 0d be 07 17 0c 3d 28 60 0c 3d
       -0.016355699 -0.1384252 0.034201648 0.03427139
000200 9e be 49 be a6 48 77 bd 60 9c 53 3e ae 8d d1 3d
       -0.19701621 -0.060372017 0.20665121 0.102321014
000210 e1 a4 ec bd 33 49 ae bd 99 09 2d be 21 e6 c5 3e
       -0.11554886 -0.085100554 -0.16898192 0.38652137
000220 58 6f 50 be 71 f7 fb 3d 04 dc 63 3d b7 f7 c0 3e
       -0.20354974 0.12303055 0.055629745 0.3768899
000230 e5 18 1d 3e 53 de b0 b8 58 b5 d4 38 f3 c3 a4 b9
       0.15341528 -8.433745e-05 0.00010142726 -0.0003142651
000240 67 51 62 3d 49 80 1f bf 01 d2 72 3e ba 02 b1 bd
       0.055253413 -0.6230512 0.23712923 -0.08643098
000250 f7 c5 b9 be 18 a8 b8 3d
       -0.36283848 0.09016436

base.0linear.bias f4 [50]
000000 91 83 4e 3c 5a ed c8 bc 91 98 8a 3d f3 66 5f 3e
       0.01260461 -0.02452724 0.06767381 0.21816616
000010 3b ef 57 3a e8 d7 9e 3c 37 45 81 bc a0 df 81 3c
       0.0008237247 0.019390061 -0.015780075 0.015853703
000020 06 c1 c3 bd 21 73 82 3d 7b 67 e0 3d 5b dc 49 bd
       -0.09558301 0.06369615 0.10957237 -0.049282413
000030 9e 98 06 3e fe 38 5f bd e4 d0 ce 3c 01 27 03 3d
       0.13144156 -0.05449771 0.025246091 0.03201962
000040 da 5b 0d bd 98 f9 23 3d 95 21 6e bc ef 79 1e 3d
       -0.034511425 0.040032953 -0.014534374 0.038690504
000050 26 85 09 bd f8 0c 7d 3d 74 1a 02 3e 88 55 f5 bc
       -0.033574246 0.061779946 0.12705404 -0.029948011
000060 46 97 96 bd dc 3f a9 3d db 57 47 3d 96 55 82 bd
       -0.07353072 0.08264133 0.04866777 -0.063639805
000070 3e 24 a8 3c fd 59 3d 3e 21 09 3f 3d f2 0c e5 3d
       0.020525094 0.18491359 0.046639565 0.1118411
000080 24 0a 83 3c eb 7a 02 be 1a 45 0e bc d1 a5 88 3d
       0.015996046 -0.12742202 -0.008683467 0.06672252
000090 d1 5b 91 3b 12 05 9d bb e0 8c c2 3d 56 12 e4 3d
       0.004435994 -0.004791864 0.09499526 0.1113631
0000a0 ad 50 4a bc 58 47 ba 3d 63 b9 3d 3c ea cd b4 bc
       -0.012348336 0.09095639 0.011579844 -0.022070844
0000b0 54 9c 0c 3e 59 7d df bc ce af 27 be e5 4c 56 39
       0.1373151 -0.02728145 -0.16375658 0.00020437276
0000c0 48 ae 7e bd c3 10 ad 3c
       -0.062177926 0.021126157

base.1linear.weight f4 [50, 50]
000000 a2 86 4d 3d 40 75 90 bd d3 f9 9f 3d 2b 1f 0a be
       0.050177224 -0.07053614 0.07811322 -0.13488452
000010 fd 64 5d 3d 42 69 72 3b a7 6b 60 3d b7 c9 8c bc
       0.054051388 0.0036989008 0.054790165 -0.017186029
000020 2b eb 7a bd b9 e7 a7 3c c7 d9 3f bd a1 5a 99 bc
       -0.06125943 0.020496236 -0.046838548 -0.018719973
000030 f8 1a 39 be a4 ea 69 bb 5b d2 c1 bd cb 96 98 be
       -0.18076694 -0.0035692835 -0.0946395 -0.29802546
000040 00 7b 11 3d e8 ae 39 3e 70 25 e6 bd 61 e4 8d 3d
       0.035517693 0.18133128 -0.112376094 0.069283254
000050 7d 5b 16 3d 7b b5 f4 bc c7 08 01 be 24 bd 34 bd
       0.036708344 -0.029871693 -0.12601005 -0.04412569
000060 4e 62 75 3d 9c 9e 61 bb e2 fb b5 be bd cf 32 3d
       0.059908204 -0.0034426814 -0.35543734 0.043655146
000070 07 1b 37 be c0 03 54 be 1a 56 59 bc bb 25 b8 bd
       -0.17881404 -0.20704556 -0.013265157 -0.089915715
000080 8a 44 60 3e 36 ac 88 3d e5 b2 1d 35 fb 5e 8f 3c
       0.21901146 0.06673472 5.8747383e-07 0.017501345
000090 24 b2 e3 3d be a6 05 bd 5d be 19 be 37 ab e7 bd
       0.11117962 -0.03262972 -0.15014024 -0.113119535
0000a0 51 71 b0 3d 45 c9 a8 bd b3 c2 01 3e 4d 78 0a be
       0.086153634 -0.08241514 0.12671928 -0.13522454
0000b0 84 0a ce bd cd 32 d4 bd fb 7b 60 3d 7a b5 f9 3b
       -0.100605994 -0.10361252 0.054805737 0.0076205106
0000c0 1b a1 2d 3e f3 42 99 3d 6a 94 87 be d7 1d 5a be
       0.16955988 0.07483473 -0.26480418 -0.21300445
0000d0 9a c0 8f 3d 62 f8 16 3e 7e e5 41 bb 12 13 46 3e
       0.07019158 0.14743188 -0.002958625 0.19343212
0000e0 51 0a 89 3d e1 e2 32 3e 40 db 97 3e c1 63 aa 3d
       0.06691421 0.1746936 0.29659462 0.08319808
0000f0 64 3b 14 3d cc 2d 27 3d 0a 4f c8 bd fb bf 87 be
       0.03618945 0.04081516 -0.097807005 -0.26513657
000100 2c 66 9c bd 1c 9f 36 bd be fa b9 3c a0 54 58 bd
       -0.07636675 -0.044585332 0.022702571 -0.05281508
000110 aa e3 00 3e 35 fd f2 bd 5e a9 4f 3e db cf 9c 3d
       0.12586847 -0.11864702 0.20279452 0.07656833
000120 33 a7 30 3d 46 b0 05 be 7b 5e 33 bd 01 27 3b bd
       0.043128204 -0.13055524 -0.043791275 -0.045691494
000130 1d 67 4e 3d 7b da e1 bd 4f ce 21 3e 45 06 c6 bd
       0.050391305 -0.11028 0.15801357 -0.096691646
000140 b4 a9 1a be 25 0d 9b bd f5 c0 e4 bd 47 42 70 3e
       -0.15103799 -0.075708665 -0.11169616 0.23462783
000150 db 4c 8d be 87 e2 4c be 6b 52 ab 3b d0 c4 f8 3d
       -0.275977 -0.20008288 0.005228331 0.12146914
000160 73 41 71 be dc 6a b7 be e6 d2 95 3c 49 e4 20 3e
       -0.23560123 -0.35823715 0.01828904 0.15712084
000170 b5 0c 89 bd 35 18 c1 bd 86 bc 66 3e a1 94 79 bc
       -0.06691877 -0.09428445 0.22532853 -0.01523319
000180 a9 8f d1 be 2c 81 e2 bd ea 55 15 be 76 ec 4e 3d
       -0.40929917 -0.11059794 -0.14583555 0.050518475
000190 45 99 fc 3c aa 98 1a bd 4e 28 8a 3e de 26 93 be
       0.030834803 -0.037743248 0.26983875 -0.2874059
0001a0 60 d0 0d 3d 40 04 dc bd c2 3b 38 3e ff 11 a0 3c
       0.03462255 -0.10742998 0.17991546 0.019539831
0001b0 b2 a0 20 3c 7a e2 d8 bd d8 1c 66 bd be 7f f1 bd
       0.009803938 -0.10590072 -0.05617985 -0.11791943
0001c0 5f c9 11 ba c4 c7 52 bd 09 ce 89 3b 80 a0 fe bd
       -0.00055613177 -0.051460043 0.0042054695 -0.12432957
0001d0 3e 39 46 bd 80 9e dc 3d f8 9a 59 bd 23 32 80 3e
       -0.048394434 0.10772419 -0.053126305 0.2503825
0001e0 89 e3 19 bb dd 6a 65 be d8 23 5a 3e 0f 75 4c be
       -0.0023481569 -0.22404046 0.21302736 -0.1996653
0001f0 31 2a 80 bd 0a 54 4d 3d 8e 87 30 be 5a 3e e7 3d
       -0.06258047 0.050128974 -0.1723921 0.112911895
000200 5c 98 44 3e a0 ee 0b be 4c 87 5b bc b1 df c2 3d
       0.19198745 -0.13665247 -0.0133989565 0.09515322
000210 cf 3c ff 3d b9 18 72 be 8e 47 44 3d 01 f0 ca 3d
       0.1246277 -0.23642243 0.047919802 0.09909058
000220 1d 0d 1f bd 7d bc b0 3d 7d d4 3c 3e f3 fa 70 be
       -0.038830865 0.08629701 0.18440433 -0.2353323
000230 c1 d6 55 3e 5f c6 36 3e 40 d5 98 3d 4b 9d a5 3d
       0.20882703 0.1784911 0.07462549 0.08086642
000240 fe cc 79 be fe 8a c8 bd 5e 2b 3b bb 60 7c 9a 3e
       -0.24394605 -0.09792136 -0.0028559784 0.30173016
000250 7b a9 64 be 85 76 0d 3e 22 58 80 bd fb 0b 14 bd
       -0.22330277 0.13814743 -0.0626681 -0.036144238
000260 1b 11 2c 3e 34 ab 5c 3e fa b1 b8 be be 18 12 3e
       0.168034 0.21549684 -0.36073285 0.14267251
000270 2c db 2a be 1a bd f4 3d 8e a9 fe bc d6 bb 9b 3d
       -0.1668517 0.11950131 -0.03108671 0.07604186
000280 69 99 24 be 11 38 8d 3e 12 2c a5 3d 8e 4c 5d bd
       -0.16074146 0.27581838 0.08065046 -0.054028086
000290 71 8f 47 3e 8e 0d 35 3d 00 bf 37 bc 99 76 36 3e
       0.19488312 0.04420238 -0.011214972 0.17818679
0002a0 38 16 1a 3e 73 8d b4 bd 76 86 04 be 2c d7 53 be
       0.15047538 -0.08816042 -0.12941918 -0.2068755
0002b0 55 51 15 3e 76 5c 99 bd 8d 3b 70 3c b8 73 98 bc
       0.14581807 -0.07488339 0.0146626355 -0.018609866
0002c0 8a 07 9c 3c e3 80 32 be 5d a2 81 3d ae 70 09 be
       0.019046564 -0.17431979 0.063297965 -0.1342189
0002d0 ba ab 8f 3a 8b 4a a0 ba e3 e1 5a be 30 72 18 be
       0.0010961213 -0.0012229247 -0.21375231 -0.14887309
0002e0 1e 88 85 3c 73 9c d9 bc 73 dd 49 be 09 95 c1 bd
       0.016300257 -0.026563859 -0.19713382 -0.09452254
0002f0 af b5 81 3b 43 58 7d bd 68 d8 3a bc ad 60 10 be
       0.003958426 -0.06185175 -0.011404134 -0.14099379
000300 a2 e5 16 ba f9 12 1a be 55 58 57 be 80 fc 2f 3d
       -0.0005756264 -0.150463 -0.2102979 0.042965412
000310 e5 82 24 3d e5 77 b8 be 34 c3 6b 3e 14 63 a5 bd
       0.040163893 -0.36028972 0.23023683 -0.08075538
000320 74 0d 7b 3d 4f 17 7c 3e b0 81 ad be 1b 18 ed bc
       0.061292127 0.24618267 -0.33888006 -0.028942158
000330 a2 93 9a bd 54 05 24 3e c6 3e a2 be 53 11 d9 bd
       -0.0754769 0.16017658 -0.31688517 -0.105990075
000340 31 33 73 3e 18 72 8e be e9 7d c9 bd f7 52 71 bb
       0.23749997 -0.27821422 -0.098384686 -0.0036823133
000350 84 b7 27 3e 06 e4 0e be 37 25 ce bd 0e 8a d9 bc
       0.163786 -0.13954172 -0.10065692 -0.026555087
000360 3c 89 8a be 01 81 3f be d0 ce 71 be a1 f6 be 3d
       -0.27057827 -0.18701555 -0.23614049 0.093243845
000370 db e3 0d be ca b2 ca be 4d b7 e8 3d f8 2e 2b 3d
       -0.13856451 -0.3958953 0.11363087 0.04179284
000380 2c 24 a8 3e 97 d1 cd bd 52 ce 05 bd c5 90 a2 bd
       0.32840097 -0.10049742 -0.032667466 -0.07937769
000390 0f 86 28 bd 70 68 9e be b7 ca a0 be 3b 33 66 be
       -0.041143473 -0.30939054 -0.3140466 -0.2248048
0003a0 a3 d7 1b 3e 97 8b 50 3d 78 9a 88 bd ac 8c 60 be
       0.15218978 0.050914373 -0.066700876 -0.21928662
0003b0 56 75 a1 3d 76 df 5c 3d a3 c8 f4 3c 86 cb 84 bd
       0.07883708 0.053924046 0.029880827 -0.064841315
0003c0 22 ae 7f 3e 2b 5e d1 bc f3 40 3b be ba 4d ec bd
       0.2496877 -0.025557598 -0.18286495 -0.11538263
0003d0 74 fa 34 3c 26 ae 29 3d 5a 84 0e be f4 9c 92 bc
       0.011046041 0.041425847 -0.13917676 -0.017897107
0003e0 1d 2c 3c 3e fb 86 42 3e 71 c8 85 3c 0e c2 a8 3e
       0.18376203 0.18996803 0.01633093 0.32960552
0003f0 f8 9a 8a 3e a1 fa 44 3e d8 37 12 bd 3f f4 53 3f
       0.27071357 0.19236232 -0.035697788 0.82794565

base.1linear.bias f4 [50]
000000 07 f6 f1 bc 8f 6a b6 bc 83 ee 4a 3c 34 2f f9 bb
       -0.02953626 -0.022267608 0.012385967 -0.007604504
000010 60 f7 a3 bd 89 e4 31 be c0 4a 4b bc 86 a8 fd bc
       -0.080061674 -0.17372335 -0.0124079585 -0.030964147
000020 79 f5 b7 3b 82 53 d9 3c 34 42 02 bd dd ef e4 bc
       0.0056139794 0.026529077 -0.031801417 -0.027946407
000030 9b 29 e4 3c 7d e0 82 3c 2f f0 1b bd 9c dd 88 bd
       0.02785187 0.015976185 -0.038070854 -0.06682894
000040 ee dc 54 3d 2d 91 ae 3b cf ac e2 3b 79 dc 10 bb
       0.051968507 0.005327365 0.006917573 -0.0022104068
000050 95 03 ae 3d a2 a3 fa bb 0a 3d 65 3d 21 8e 6f bd
       0.08496777 -0.007648901 0.055966415 -0.058485154
000060 91 f9 4b 3d 73 41 70 bc 59 bc c7 3d 10 67 8c 3d
       0.049798552 -0.014664042 0.09752721 0.06855595
000070 59 d7 a7 3d ab 59 62 3d 18 6e 82 3c 5d 67 95 bd
       0.08195371 0.055261295 0.015921637 -0.072951056
000080 67 a0 d3 3d 7e 15 00 be ac 95 50 bd f1 e7 74 3b
       0.10333329 -0.12508199 -0.05092399 0.0037369693
000090 84 1b 3d 3d 10 c2 66 3d 2d 44 da 3d 94 d1 21 be
       0.04616882 0.056337416 0.10657535 -0.15802604
0000a0 dc c9 27 3b e0 5b 6b bc b1 f8 d2 3d 1a 55 e7 3c
       0.0025602495 -0.014365166 0.1030134 0.028238822
0000b0 9c aa 88 bc 7a df 5b be 16 06 d8 3d 71 c2 52 3c
       -0.016682915 -0.21471968 0.10548036 0.012863741
0000c0 7c 4f 32 3d 03 a9 21 3b
       0.043532833 0.002466739

base.2linear.weight f4 [50, 50]
000000 cb a6 f7 3d 0c 94 60 3d 37 3d 49 bc e1 bc 2d 3b
       0.1209236 0.05482869 -0.012282661 0.0026510286
000010 d5 10 a9 3d 44 e9 03 bd c1 e3 eb 3d 68 4b 0a bd
       0.082551636 -0.03220488 0.1151805 -0.03376332
000020 84 6c 6d 3e db a4 18 3e e7 43 1e bd 1f 32 2a bd
       0.23185927 0.14906637 -0.038638975 -0.041551705
000030 57 3e 85 bd e6 d0 a7 3d 21 41 22 3e 5d ff da bd
       -0.06506031 0.08194141 0.15845157 -0.10693238
000040 eb 07 3f bc ca 7b 0d be 00 7d ba be 20 bc 65 3c
       -0.011659603 -0.13816753 -0.36423492 0.014021903
000050 79 08 88 3e 4d e0 94 3b 4e 69 96 3e 3a a3 66 3d
       0.26568964 0.0045433403 0.29377216 0.05630801
000060 ea e3 8e bd e4 ab b9 3d 2d 61 a4 3d 4f 02 6e 3d
       -0.06977065 0.09065989 0.08026347 0.05810767
000070 a3 c4 5f bb 71 e9 9a bc bc 7a 8d bd f2 0e 20 be
       -0.0034144304 -0.018910142 -0.06908175 -0.15630701
000080 57 eb 59 be 5a 1d 24 ba 30 58 9b 3e 53 aa da 3d
       -0.21281181 -0.0006260477 0.3034072 0.10677018
000090 46 58 c4 bd 7e cf 40 be c2 39 93 3d 30 51 99 be
       -0.09587149 -0.18829152 0.07188751 -0.29944754
0000a0 9e cb 94 be 21 57 c6 3d b2 b7 ca bd 2c eb 41 bd
       -0.29061598 0.09684587 -0.09898318 -0.047343418
0000b0 e6 09 36 3e 0a 9c 8c bd b2 5f c1 3e 7a 49 82 bc
       0.17777213 -0.068656996 0.37768322 -0.015904177
0000c0 56 09 79 3e 1e 76 f7 bc f2 6a b9 3d b3 3d bc bd
       0.24319968 -0.03020769 0.09053601 -0.09191456
0000d0 3e 9b 8b 3b b8 98 99 bc 92 8a 46 bd 5a 26 c6 bd
       0.0042604497 -0.01874958 -0.048471995 -0.09675284
0000e0 0c d1 16 be ab 85 fb bd e2 34 00 3e 09 97 37 be
       -0.14728183 -0.122813545 0.12520173 -0.17928709
0000f0 1d 23 9c bd 72 0b b2 bc fa ca 8d bd 3c 16 81 3d
       -0.07623885 -0.021733973 -0.0692348 0.06303069
000100 81 15 ae 3c 43 a0 e0 3d b5 8e 80 bd 74 56 6f 3d
       0.021250488 0.109680675 -0.06277219 0.058432057
000110 bb 0b ba bd 05 e0 49 3e 31 67 6c 3e 40 3c 0a bd
       -0.09084269 0.19714363 0.2308624 -0.033748865
000120 10 81 e9 bd 3a e3 24 bc e2 8e f1 3c 69 78 78 bd
       -0.1140157 -0.010063941 0.029487077 -0.060661707
000130 7e c4 07 be 2e a8 43 3b 33 a4 49 be a6 a5 f3 3c
       -0.1325855 0.0029854882 -0.19691543 0.029742073
000140 4d 54 1e 3e c1 7a 5a 3d 35 89 11 3e 44 1b d3 3d
       0.15461846 0.053339723 0.14212497 0.10307935
000150 cb e4 6b 3d d5 7e ea bd e8 ab c4 3d fd 91 4e 3e
       0.05759124 -0.114499725 0.09603101 0.20172878
000160 53 fa 2d be 2e 82 f2 bd 07 c6 36 3c a6 c0 5c 3c
       -0.16990022 -0.11841236 0.011155612 0.013473665
000170 fe af 07 3e 56 bc 09 bd 6f 2a 49 bd 1e 92 a6 be
       0.1325073 -0.033626877 -0.049112733 -0.32533354
000180 7f b8 eb bc a3 0d e6 3c 36 33 78 3e 3c c0 b1 3d
       -0.028774498 0.028082674 0.24238285 0.08679244
000190 63 7a 13 3d b5 d1 83 3c ee 77 ef bb 2a d5 cd 3b
       0.03600539 0.016091207 -0.007307998 0.0062815147
0001a0 18 db 86 3e 65 08 c2 3d a7 68 b9 3d ab 4b 0a 3d
       0.2633903 0.094742574 0.09053164 0.03376357
0001b0 ec 7c bd 3d 7c 83 76 3d 98 2a 21 3d 9f 84 47 3d
       0.092523426 0.060183987 0.03934726 0.04871046
0001c0 88 73 1e 3d dd 26 ac 3b 59 53 dc bd f6 29 e8 bb
       0.038684398 0.0052536563 -0.10758085 -0.0070850803
0001d0 6e 19 2d 3d 01 b8 07 3e a5 ca c3 be c6 0c e9 3e
       0.04226058 0.13253786 -0.38240543 0.45517558
0001e0 6e 6f 67 be 7b 3e 0a 3c 86 2a 61 3e 8f de 15 3d
       -0.22601101 0.008437748 0.21988878 0.0365892
0001f0 d6 51 31 be b0 20 5a bc 90 8d 90 be 5c 5d 1c bd
       -0.17316374 -0.013313457 -0.28233004 -0.038174972
000200 7a 56 d2 be e1 46 7e be 44 3a b4 3d d7 cc 8d be
       -0.410816 -0.24831726 0.08800176 -0.27695343
000210 8a 14 b5 bd 5f 46 69 be ba b5 5f 3e b2 9f de 3d
       -0.08841808 -0.2278075 0.21846667 0.10870303
000220 e5 2b cd bc 50 00 0a 3e 3e 82 ed ba 2a 4c da 3d
       -0.025045345 0.13476682 -0.001812048 0.106590584
000230 40 4e 10 3e 90 b2 dd bc 04 6c 9c be 53 2f e9 3c
       0.1409235 -0.027062684 -0.3055116 0.028464949
000240 83 0f 8c 3e 11 07 23 3e b4 8b 79 be 1e a9 e0 3b
       0.27355585 0.15920664 -0.24369699 0.006856098
000250 c3 99 13 3e cd 26 aa 3d 5f 5b b0 bd b6 a4 71 3b
       0.14414124 0.08308182 -0.08611178 0.0036871857
000260 51 b6 40 3b c6 6c 24 3d d7 14 b4 3c 57 d4 84 bd
       0.0029405544 0.040142797 0.021982593 -0.06485813
000270 17 7e c1 bd 77 85 84 3d fc 9e 56 3d 55 06 e3 bd
       -0.09447878 0.06470769 0.052397713 -0.11085192
000280 6b 41 f7 3d b5 84 b6 39 ba f1 fa bb 80 16 c0 bd
       0.12073024 0.0003481262 -0.0076582106 -0.093792915
000290 2e 0d 80 3c ea 9e 46 3d 86 82 ba bd f1 30 83 3d
       0.015631285 0.048491396 -0.091069266 0.06405819
0002a0 9c 0c d4 3d 18 d5 77 bc d4 02 ba 3d 13 2f 99 bb
       0.103539675 -0.015126489 0.09082571 -0.004674801
0002b0 27 4b 52 bc 1b 1e 35 bd 1f 30 ef 3c e4 b8 1f 3b
       -0.0128353005 -0.044218164 0.02919775 0.0024371678
0002c0 56 bd 07 3e 7b b0 46 3e 33 90 86 bd 0c 39 28 3e
       0.1325582 0.1940326 -0.065704726 0.16428012
0002d0 20 12 0a 3e 0c 46 d5 3d ea 56 30 bd a7 c6 5c 3e
       0.13483477 0.10413751 -0.043051638 0.21560155
0002e0 0a e5 31 3e 37 61 0c be a2 d3 24 be 79 58 52 be
       0.17372528 -0.1370896 -0.16096357 -0.20541562
0002f0 cf 8d 08 be 04 0d 4c be ad 54 52 be e6 11 13 bd
       -0.13335346 -0.1992684 -0.20540114 -0.03590574
000300 b8 06 a6 bd 96 49 3f 3c 30 40 9c 3d 45 0d 48 3d
       -0.0810675 0.011675259 0.0762943 0.04884078
000310 93 f4 83 3d 91 30 62 3c e7 e5 f5 3c 60 d0 a2 be
       0.06443133 0.013805524 0.030016853 -0.31799603
000320 ad cc b5 3d a8 d6 14 bd 73 5c 78 bd 8d 04 32 bd
       0.088769294 -0.036337525 -0.06063504 -0.04346137
000330 bf 4f 94 be 54 74 c7 3b fe b3 1d 3e 20 f0 8b bd
       -0.2896709 0.0060868654 0.15400693 -0.068329096
000340 ae a8 9a bd 73 3b 73 3c d0 0d 84 be 79 33 3f 3c
       -0.07551704 0.014845717 -0.25791788 0.011669987
000350 65 f7 b5 bd 51 09 e2 3c 5d f6 3f 3e a1 b0 4a be
       -0.088850774 0.027592333 0.18746324 -0.19793941
000360 80 ec 63 bd a8 88 42 bc 85 2d 9c 3d 86 ff c3 bd
       -0.055645466 -0.011873402 0.0762587 -0.095702216
000370 a8 12 23 be 28 62 1e 3d a0 83 48 be 46 ae 3e 3d
       -0.15925086 0.038667828 -0.19581461 0.04655292
000380 05 ef 0c bd 43 47 4b 3d 27 7c 72 bd 26 2e d7 bd
       -0.034407634 0.049628507 -0.059200432 -0.10506849
000390 b0 df bb 3d 87 72 57 be e1 d8 4b 3c d1 4f f4 3d
       0.091735244 -0.21039782 0.012441845 0.11929286
0003a0 74 6d ae 3c 7b f0 e6 3d 6a dc 91 be c3 dd 51 be
       0.021292426 0.11276337 -0.28488475 -0.20494752
0003b0 69 c0 1e be f4 f0 a9 3e 54 65 8a bd c5 c3 18 be
       -0.15503086 0.33191645 -0.06757608 -0.1491843
0003c0 0d 03 87 bd 8f b5 64 3d 79 6a 24 3d 1e e1 9c bd
       -0.06592379 0.05583721 0.040140603 -0.07660125
0003d0 6a 35 e2 3d 59 28 9d 3c 31 d2 6e 3d 06 aa f8 bc
       0.11045344 0.019184278 0.058305923 -0.030354511
0003e0 93 d1 56 3e c3 af 48 3e b5 30 81 bc 44 d7 8e bd
       0.20978384 0.19598298 -0.015770296 -0.069746524
0003f0 96 40 9a 3c 4d 18 db 3d 4d ca c8 3d 6a ff 81 3d
       0.018829625 0.106979944 0.09804211 0.063475445

base.2linear.bias f4 [50]
000000 08 8b 36 3d a7 89 0d 3d 34 2d 07 be c5 b4 f4 3c
       0.044566184 0.034555104 -0.13200837 0.029871354
000010 5f 96 3c 3d 03 51 82 bd 74 94 bf bd b8 5f c4 3d
       0.046041843 -0.06363108 -0.09354487 0.095885694
000020 05 16 dc bd 88 56 eb bd df af 82 3c cc 7b ea 3c
       -0.107463874 -0.11491114 0.015953002 0.028623484
000030 5f 01 01 be 9c f8 17 3c d2 8d ec 3d b2 5f 2c bd
       -0.1259818 0.009275582 0.115504876 -0.04208345
000040 45 89 c3 3c 37 95 6f 3c 2a f4 dd 3c ae ca 21 be
       0.023869166 0.014622978 0.027093966 -0.15799972
000050 16 69 9d 3c 6c 71 22 3d c7 c2 85 3d d4 c2 63 3e
       0.019215148 0.03965895 0.065312915 0.2224229
000060 64 9e a9 3d 9b df b9 bd 09 ac b4 bc 5b d9 d9 bc
       0.08282164 -0.090758525 -0.022054689 -0.026592901
000070 30 df c3 3c e3 bd 8f bc 7a af 06 bd 69 ad 5e 3d
       0.023910135 -0.0175466 -0.03288219 0.054364596
000080 df dc cd bb 22 62 57 3c cc fb b3 bd f4 49 95 3d
       -0.0062824334 0.013145955 -0.08788261 0.07289496
000090 3f fa 62 bd dc 60 84 bd 1f 73 71 bb b6 00 71 bc
       -0.055414435 -0.06463787 -0.00368423 -0.014709642
0000a0 20 2f be bd b2 a6 8f 3d 4f 96 ae bc 5f a3 3e bc
       -0.09286332 0.070142165 -0.021311907 -0.01163563
0000b0 18 5f 03 3d d8 b0 cf bc b6 8f 70 be d5 94 7c 3e
       0.03207311 -0.02535288 -0.23492321 0.2466615
0000c0 11 8e 5f bc 8d 09 0e 3c
       -0.013644711 0.008669269

base.3linear.weight f4 [50, 50]
000000 ba ef 7e 3d 8c ed c7 bc 08 50 6b 3e ba f4 53 be
       0.06224034 -0.024405263 0.22979748 -0.20698825
000010 f5 8d 56 be c9 66 33 be 65 5d 88 be 3c 1d 8f 3e
       -0.2095259 -0.17519678 -0.26633754 0.27951992
000020 a8 41 16 3d e3 15 9f 3d 46 62 eb 3d 57 7a 3b be
       0.03668371 0.077678464 0.114933535 -0.18308388
000030 33 1c bb 3d 94 07 3e 3d 4c 76 cc 3c 5a 75 9a 3e
       0.09136238 0.046393946 0.024958752 0.30167657
000040 0c ba 93 bd 47 46 7d bd 49 dd 10 3d 58 e1 eb bc
       -0.0721322 -0.0618346 0.035367284 -0.028793976
000050 63 3c 68 be 47 f1 6d be 7a b5 6a bc 8f 3d 20 3e
       -0.22679286 -0.23236571 -0.014325494 0.15648483
000060 e2 d1 5c 3d 29 bd 04 be 54 7b 9b 3e 5e 3a 40 3e
       0.053911097 -0.12962784 0.3036753 0.18772265
000070 a8 33 90 bd ac ee 48 bd 24 24 2a bd 5e dc bd bd
       -0.07041103 -0.04905574 -0.041538373 -0.09270547
000080 61 27 9b 3a ad 0e 9c be db 2a 00 bd 9d 28 5a bd
       0.0011837297 -0.30479947 -0.03129087 -0.053261388
000090 f4 12 bb be 39 76 1f 3e be 62 b9 3d fd e5 25 bd
       -0.36537898 0.15572442 0.09052037 -0.040502537
0000a0 84 b5 2e 3d 53 2d 53 be 17 d0 52 3c c5 eb 4d be
       0.042653576 -0.20622759 0.012866995 -0.2010947
0000b0 37 60 9f be 87 d7 d5 3c dc b1 06 be 62 8c 0a 3e
       -0.31128094 0.026103748 -0.13153785 0.13530114
0000c0 35 9b 33 3d 7b 55 4c 3e c2 ea 9a 3c 0e 71 f4 3d
       0.04384919 0.19954483 0.01891077 0.11935626
0000d0 f5 e0 a2 be 93 92 84 3e e9 ed c2 bd cf 74 26 be
       -0.31812254 0.25893077 -0.09518034 -0.16255496
0000e0 32 4c 2d bd 8e 78 4a be 4f 3e f4 bd db 09 06 3d
       -0.042308994 -0.1977255 -0.11925947 0.032724243
0000f0 1c b6 37 3e a0 09 8c 3d 5a af 63 bd cb 9d 64 bd
       0.17940563 0.06837773 -0.05558715 -0.055814546
000100 93 57 25 bd 28 d8 41 be 9c 45 ff bc b5 46 10 3e
       -0.04036672 -0.18930113 -0.031161122 0.14089473
000110 68 15 c5 3d 4f 19 17 3b c1 d0 55 3d ec 34 6a 3e
       0.096232235 0.0023055857 0.052201036 0.2287175
000120 40 4e 18 3e 83 4c 28 3d 6b f1 66 3d 70 8c 2d 3e
       0.148736 0.041088592 0.056382578 0.16948104
000130 50 ed 0f be 4c 40 02 be 3a 21 ba bc 07 bc a3 bd
       -0.14055371 -0.1271984 -0.022720922 -0.07994848
000140 e6 6f 87 bd 0c 75 20 3d b9 0d 60 3e 93 0b 1e 3d
       -0.0661314 0.039174125 0.21880235 0.038585257
000150 8e 82 0e be 69 51 0c be c8 a3 9d be e8 6c 94 3e
       -0.1391699 -0.1370293 -0.30789018 0.2898934
000160 4d c3 8a 3e 84 a0 8a bd 12 4d 46 3e e4 2e 1d 3e
       0.27102128 -0.06768897 0.19365337 0.15349919
000170 32 a9 bc bb ad e3 88 be 09 66 a8 be 8c 7e b9 bd
       -0.0057574743 -0.26736203 -0.32890347 -0.0905734
000180 1d 4c 2d be 01 d0 97 3d 96 36 02 3e 28 a5 04 3e
       -0.16923566 0.074127205 0.12716135 0.12953627
000190 4f 6f bf 3c 1c a4 06 3c 5c 07 96 be 69 06 e8 bd
       0.023368506 0.008217838 -0.2930249 -0.11329348
0001a0 47 ac 83 3d bf a5 1b 3d df 6e df be f9 bd 43 3e
       0.06429344 0.037999865 -0.43639275 0.19115438
0001b0 60 ef 41 3e 12 4e 00 be 18 d2 86 3d fa 10 74 3e
       0.1893897 -0.12529781 0.06583041 0.23834601
0001c0 68 35 a6 3e 5d 6f 16 3e a4 c8 34 3d a2 2a 3e 3d
       0.3246262 0.14690919 0.04413666 0.046427377
0001d0 99 0e 4f be 81 67 18 be 0b 32 a1 bd 94 cc 1d 3e
       -0.20220412 -0.14883234 -0.07870873 0.15410072
0001e0 3c 2d 88 3d 2e 1d a7 be c8 c1 2a 3c 48 ae e0 bc
       0.06649253 -0.3263945 0.010422178 -0.027426854
0001f0 0e db 8a bd 21 db c3 bd d8 9b c1 3d 60 03 7f 3d
       -0.067800626 -0.0956328 0.09453553 0.062259078
000200 f9 74 97 3e 85 93 e6 3d e2 63 b7 bc 8e e7 d2 3d
       0.2958143 0.11258606 -0.022386495 0.10298072
000210 9d 22 dd bd de f2 ee 3d 79 e5 e5 bd 65 29 ef bc
       -0.107976176 0.11667417 -0.11225409 -0.029194543
000220 11 e2 9f bb 61 f7 a4 bc 54 36 cf 3d 62 66 53 bc
       -0.004879244 -0.02013749 0.10117784 -0.012902828
000230 f6 c1 a3 be b0 ae 7f 3e 0f 72 08 3c c3 5b 84 3e
       -0.31983918 0.24968982 0.008327975 0.2585126
000240 d7 51 ad 3d 5a c6 1c 3e 79 9c a9 3d 01 79 03 be
       0.08462875 0.1531004 0.08281798 -0.12839128
000250 73 c8 90 3e fd b8 4b bd ef 6b a3 3e 02 e6 40 3c
       0.2827793 -0.049736965 0.31918284 0.011773588
000260 09 b0 bd 3d 23 58 12 3e c7 1f 91 be 85 44 99 bc
       0.09262092 0.14291434 -0.28344557 -0.01870943
000270 e7 dc a5 3e cb 06 8f bc 80 69 6a 3e 55 7b b8 3d
       0.32395098 -0.017459294 0.22891808 0.09007899
000280 ae 69 ff bd 71 67 00 3e 13 b5 85 3e 30 85 c5 3d
       -0.12471329 0.1253946 0.2611471 0.09644544
000290 21 e9 eb 3d c7 52 10 be f9 74 41 bd fb f5 7d bd
       0.11519075 -0.14094077 -0.047230694 -0.062002163
0002a0 49 f0 0e 3e 60 f4 76 3d 02 dd f2 bd 02 f5 51 3e
       0.13958849 0.060291648 -0.1185856 0.2050362
0002b0 74 e3 6f 3d b6 95 de 3d d9 cc 9c 3c b4 59 10 3e
       0.058566526 0.10868399 0.019140648 0.14096719
0002c0 db 97 1c be 9a 50 f4 3d 2d 89 80 3c 7f 23 77 be
       -0.15292303 0.11929436 0.01569041 -0.24134634
0002d0 46 ba 04 bd 93 3e 49 3d 65 ef e8 3d 84 74 34 be
       -0.032404207 0.04913194 0.11373786 -0.17622572
0002e0 7d 87 5d be 9f 95 85 be d8 bb 21 3d 4c a1 ab bb
       -0.21633716 -0.26090714 0.039485782 -0.005237734
0002f0 cd 64 9a bd 1c f1 5d bd 56 7e f5 3d c8 28 24 3c
       -0.075387575 -0.054185018 0.11986987 0.010019489
000300 fc 92 7a 3c bc 91 4f be 2c 56 51 3d 54 2f 35 3c
       0.015293833 -0.20270437 0.05110757 0.011058647
000310 f7 d5 21 3e cc 65 8c 3d 2f 81 e8 bd 05 6a e7 3d
       0.15804277 0.06855354 -0.11352765 0.112995185
000320 73 27 84 3c a5 f6 a0 3e 95 59 8d 3e 03 21 08 be
       0.016132092 0.31438175 0.27607408 -0.13293843
000330 07 20 8e be c4 d8 6f 3d 31 52 b1 be f5 60 6c be
       -0.2775881 0.058556333 -0.3463302 -0.23083861
000340 20 e1 5b 3e ea f6 55 3e bc 0d 1f 3e b6 02 67 be
       0.21472597 0.20894971 0.15532583 -0.22559628
000350 a7 b6 08 be 62 8d 7e be 1e 13 23 bd 4d 7a 86 be
       -0.13350926 -0.24858621 -0.039813153 -0.26265183
000360 d3 0a 65 be 8c 0a 21 be 1e 56 c1 bd 92 d8 cc 3c
       -0.2236741 -0.1572668 -0.09440254 0.025005613
000370 65 be 98 3d c3 da 47 3e c5 5b 07 bd 5d 7f a1 3e
       0.0745819 0.19517045 -0.033046503 0.31542483
000380 0b d3 42 3e 21 e0 0b 3c b5 b7 24 bc da c1 db be
       0.19025819 0.008537323 -0.010053565 -0.42921335
000390 71 54 16 3e 75 9a d2 3d 7a 8a 9d 3c 99 14 4d 3c
       0.1468065 0.102833666 0.01923107 0.012517118
0003a0 ea 7d bb bd 73 06 ef bd 08 cc 2a 3e 3e 67 a8 be
       -0.091548756 -0.11671152 0.16679394 -0.32891268
0003b0 4f e5 15 bd ae 20 f1 bc 4b dc 34 be 8f da 16 3c
       -0.03659564 -0.029434528 -0.1766216 0.009207382
0003c0 ef d9 0e bd f5 fd a0 3d 01 9b be 3a 3c db 36 bd
       -0.034875806 0.078609385 0.0014542044 -0.044642672
0003d0 2f f8 f8 3c 25 c5 d2 3d ae be 08 bf 62 4f 25 3e
       0.03039178 0.102915086 -0.53415954 0.16143563
0003e0 21 cc c8 3c fd ba 95 bd b9 78 00 be 47 92 57 3e
       0.024511399 -0.07311056 -0.12546052 0.21051894
0003f0 29 4f bb bd 1d 47 98 ba 0c 2d 5c be 8c 7d f4 bd
       -0.09145958 -0.0011617873 -0.21501559 -0.11938009

base.3linear.bias f4 [50]
000000 0e d5 77 3c a5 b2 72 3d af e8 8c bd 33 87 66 3d
       0.01512648 0.0592524 -0.068803184 0.05628128
000010 00 94 88 3d a2 24 93 bc 0e 20 69 3d d2 f9 a5 3d
       0.06668854 -0.017961804 0.056915335 0.0810429
000020 e5 8d 4b 3c 62 45 1a be de 42 c3 3b 89 d0 98 3c
       0.012423967 -0.1506553 0.005958899 0.018654125
000030 f2 c9 02 bc 0f aa 28 3d fd 68 e8 3d 0c 5d ff 3d
       -0.007982718 0.041177806 0.1134815 0.12468919
000040 4e 37 12 3e 3f 43 47 bd 36 9c a2 bd ea 5e 92 3d
       0.1427891 -0.048648115 -0.07939951 0.0714701
000050 ba dd e7 bd 38 63 89 bd ab ea 32 3d 39 ff 4e 3d
       -0.11321588 -0.067083776 0.043680828 0.050536368
000060 f7 25 6d 3c 69 ee 53 be b9 51 80 bd ac ba c5 3d
       0.014474384 -0.20696415 -0.06265587 0.096547455
000070 43 a8 c5 bd ae bd 9d 3c 81 df 01 be 0a bb c7 3d
       -0.09651234 0.019255485 -0.12682916 0.09752472
000080 05 53 93 3c eb 9f 80 3c 56 27 99 bd ee 5b 96 3d
       0.017983923 0.015701255 -0.07478206 0.07341753
000090 1e db af 3c fb c9 9a 3d 4e 24 88 bd 88 42 c2 bc
       0.021466788 0.07558056 -0.066475496 -0.023713365
0000a0 6d 78 df bd 7d 84 22 bd c5 23 63 be f8 ca bc bc
       -0.10911641 -0.039677132 -0.22181614 -0.023046002
0000b0 eb 57 21 bd 75 bf 63 3c da 33 26 3e a7 cb c9 3b
       -0.039390486 0.013900627 0.16230717 0.0061583105
0000c0 bd 74 63 bd a0 90 73 bd
       -0.055531252 -0.059464097

base.4linear.weight f4 [50, 50]
000000 02 a2 78 3e 97 d2 38 3e cf 7c 24 3d e6 25 3a 3d
       0.24280551 0.18049084 0.04015809 0.0454463
000010 f1 ad 25 bd 56 d2 e7 bd b2 aa 6e 3d ad 82 09 3e
       -0.040449087 -0.11319415 0.058268256 0.13428755
000020 d5 f5 3c be 99 c9 06 bd a7 82 05 be d1 f2 e4 bc
       -0.18453152 -0.032907102 -0.13038121 -0.027947815
000030 15 ad 27 bd 12 f6 b0 3e b4 ee 0f 3d 6b 4e 42 3e
       -0.04093655 0.34562737 0.035139754 0.18975227
000040 c6 11 5d be e0 e3 97 bd c7 f4 61 bd 11 25 ff 3d
       -0.21588811 -0.074165106 -0.05516508 0.12458242
000050 fe a9 c3 bd ed d9 0a bd 65 d1 85 bc f2 2f 32 3e
       -0.09553908 -0.033899236 -0.016335199 0.17401102
000060 19 0a 1a 3d 89 61 ce bd d3 9e 91 3e 24 ac 85 3c
       0.037607286 -0.10077197 0.28441486 0.016317435
000070 80 06 50 be 41 d1 8b bc 3b f4 7d be bb e3 67 be
       -0.2031498 -0.017067553 -0.24800198 -0.22645466
000080 50 84 5e be 67 b7 2f bd 8d a5 e4 be b5 21 82 bd
       -0.2173016 -0.042899515 -0.44657555 -0.06354085
000090 60 23 b9 3d 80 1a 1c 3e 09 7e 99 bd 9f 6b ed bc
       0.0903995 0.15244484 -0.074947424 -0.028981982
0000a0 c9 55 8a be b4 7f 9d 3d ac 1c 10 bc 2a 4f c1 bd
       -0.27018574 0.07690373 -0.008795898 -0.094389275
0000b0 12 42 a7 bd 0d fa a5 3b 65 e7 9b 3e f4 04 ac 3c
       -0.08166899 0.0050652088 0.30449978 0.020998456
0000c0 cd a2 e9 bc c5 59 23 3e 7a 77 ee 3d 3d 7e 87 bd
       -0.028520012 0.15952213 0.11643882 -0.06615875
0000d0 6c 09 46 be 7a 5f 60 3d 84 f6 de 3d 27 68 89 bc
       -0.19339532 0.054778554 0.10886863 -0.016773297
0000e0 da 53 9c bc dc 27 54 bd 43 91 11 3d a4 a6 75 3d
       -0.019082952 -0.051795825 0.035538923 0.059973374
0000f0 f0 bc b7 3e 86 fd 9a 3e 8c 2f 4e be 0e 22 d6 3d
       0.35886335 0.30271548 -0.20135325 0.10455714
000100 f3 d9 b6 bd 56 06 a7 be 92 4f a7 be 8c 53 46 bd
       -0.08928289 -0.3262202 -0.32677895 -0.04841952
000110 1e 75 4b be b1 a8 0d be 11 07 64 3e fd 33 43 3e
       -0.19868895 -0.13833882 0.2226832 0.190628
000120 3d 5e 2c 3c c7 d3 0a 3c 0c de ad 3c cf 9d e2 bc
       0.010520515 0.008473343 0.021224044 -0.02766314
000130 6a 7e 8d bb 24 36 59 be 11 9b 92 3d 91 32 f6 bd
       -0.0043180482 -0.2121206 0.07158483 -0.120213635
000140 49 49 f2 3c 9f 11 00 bd 8c 17 3a 3e 07 43 70 3e
       0.02957596 -0.031266805 0.18173045 0.23463069
000150 4e 62 81 3e 37 e8 15 be fb ff dd bd a4 a3 15 be
       0.25270313 -0.14639364 -0.1083984 -0.14613205
000160 77 a0 d4 3c 2d dd 6d 3e 9a ab 2d be d2 57 18 3e
       0.025955422 0.23228903 -0.16959992 0.14877251
000170 3d 0a 8d 3e db bf d4 3e d8 03 0a be 15 c9 8b be
       0.27546874 0.41552624 -0.13478029 -0.2730185
000180 5a 53 83 be 34 ae 21 bd 1d c2 46 be ff c7 55 be
       -0.2564953 -0.039472774 -0.19409986 -0.20877074
000190 71 00 a3 bd 3b 1c b5 3d c0 86 2b 3e 22 2f 4a 3e
       -0.079590686 0.08843275 0.16750622 0.19744542
0001a0 e1 c8 d4 bd a8 1f 55 3d 34 b5 72 be f3 71 fe 3a
       -0.10389877 0.052032143 -0.23701936 0.0019412622
0001b0 e4 96 ab bb fc dd 76 3c 09 77 ae 3d eb 17 cf 3c
       -0.0052364934 0.015067574 0.08518798 0.02527996
0001c0 8f 2d 17 bd e0 80 fb bd 53 cf 61 bd bb 90 e8 3e
       -0.036908682 -0.1228044 -0.05512936 0.4542292
0001d0 6b 40 f6 3d 9b b8 e6 bc fb 56 2c 3c 1e 36 2e 3e
       0.120240055 -0.028164199 0.010518785 0.17012832
0001e0 e1 46 85 bd f4 e2 04 3e ac d7 e0 3c ec 92 0f be
       -0.0650766 0.12977201 0.02744659 -0.1402089
0001f0 0c 64 ce bc 05 c6 39 3c 4b c6 54 3e b3 7c e2 3d
       -0.02519419 0.011338715 0.20778768 0.11058941
000200 ef 86 b0 bd fb e2 2b 3d 9e 29 16 3e bd 70 27 bd
       -0.086194865 0.041964512 0.14664313 -0.040879
000210 0d 32 22 3e 43 8b 90 3d 22 f9 13 bb 4e 06 41 bd
       0.15839405 0.07057812 -0.0022578915 -0.047125153
000220 a1 34 28 3e a6 3b a3 bd df fc cf 3b 09 ec f5 bd
       0.16426326 -0.079703614 0.0063472833 -0.12007911
000230 75 12 11 bc af d3 87 3d 50 83 05 3e 1e c3 bd bd
       -0.008854498 0.06632172 0.13038373 -0.09265731
000240 ef 0b 9f 3d 5b 23 21 be 85 27 0a be cf 8a 76 be
       0.07765948 -0.15736143 -0.13491638 -0.24076389
000250 ed 1e a1 3d f3 3b 16 be a1 09 83 bd 88 57 99 be
       0.07867227 -0.14671306 -0.06398321 -0.29949594
000260 84 32 22 3d 33 db 5c bd f5 bf 01 be eb b6 9a 3c
       0.039598957 -0.053919982 -0.12670882 0.01888605
000270 88 7f 41 be 2d 89 8e 3c ef 5e 67 bc 50 e9 5f 3e
       -0.18896306 0.017399395 -0.014121755 0.21866345
000280 04 a0 31 3e a0 54 6d be 3f 30 37 3e ba 08 ad 3e
       0.17346197 -0.23176813 0.17889498 0.3379572
000290 5a ad 8a be 4a 4d 72 be 67 de a3 3d bc e7 42 3e
       -0.27085382 -0.23662296 0.08001404 0.19033712
0002a0 46 6b f8 3d 4f a8 93 be a6 be 02 3e 27 25 a8 3e
       0.12129836 -0.28839347 0.12768039 0.32840845
0002b0 41 1d b1 3c 25 e9 47 3b c8 fa 7c bd 22 6c ee 3e
       0.021620395 0.0030503955 -0.0617626 0.46566874
0002c0 75 26 59 3e 06 78 64 bd de 4b f5 bc 7f 2b 37 be
       0.21206076 -0.055778526 -0.029943403 -0.17887686
0002d0 b2 ee 58 3e 15 66 16 be 87 7c 80 bd e2 8b eb 3d
       0.21184805 -0.14687379 -0.06273752 0.1150129
0002e0 b6 e7 01 3e 6b a6 5f bd 8f c4 1c be f6 29 63 be
       0.12686047 -0.054602068 -0.15309356 -0.22183976
0002f0 57 fa 36 3e dc 95 29 3e 6f 9a 7b 3e 1b 55 b1 bc
       0.17868935 0.16561073 0.2457063 -0.021647027
000300 94 3d 18 3e de 12 85 3e 7d cd 49 bd a1 e3 2c 3e
       0.1486724 0.25990957 -0.049268235 0.16883709
000310 92 d3 9f bd 55 5c 62 bd f1 ef c0 3d fd 67 2b 3e
       -0.07804026 -0.055263836 0.09420765 0.16738887
000320 78 7f 0d 3d b1 69 25 be 99 42 56 be 27 78 f4 3c
       0.03454539 -0.161536 -0.20923842 0.02984245
000330 01 11 03 be d7 ff 7a bd 26 df 4d 3e 74 9d 24 be
       -0.12799455 -0.061279144 0.20104656 -0.16075689
000340 75 c3 8a 3e 76 be b4 3d 13 ef a4 bd 76 06 26 be
       0.27102247 0.0882539 -0.08053412 -0.16213402
000350 32 2d c0 3d 13 16 96 be 42 9e 41 be b5 4a 73 be
       0.0938362 -0.29313716 -0.18908027 -0.23758967
000360 9c 86 ac be 20 54 02 bd 5f 17 14 be ff 92 a7 bd
       -0.3369645 -0.03181851 -0.1446204 -0.08182334
000370 25 a0 22 be 17 aa a4 3d 01 f2 35 bd d1 1d dc 3d
       -0.15881403 0.080402546 -0.044420246 0.107478745
000380 1b b7 74 3e c5 bb 26 bc 80 49 0f bd 9d bf 84 3d
       0.23897974 -0.010176604 -0.034982204 0.0648186
000390 43 cd e2 3e 8e da 67 3e e5 97 4d 3e a0 7f 4f 3d
       0.44297227 0.22641966 0.20077474 0.050658822
0003a0 be 9f 65 3e 5a a2 22 3e 9b e4 57 3e 7b 54 70 be
       0.22424218 0.15882245 0.210833 -0.23469727
0003b0 59 f5 64 be ad 9a 75 3d f5 46 df 3e 1b 40 47 be
       -0.22359218 0.059961963 0.43608823 -0.19458048
0003c0 e5 df 96 bb 6b 12 6b 3e 7a b6 82 bc 38 8a 9e 3e
       -0.004604327 0.22956245 -0.015956152 0.30964828
0003d0 03 5f 25 be cb e5 94 bc cb 25 99 bd 46 37 40 3d
       -0.16149525 -0.01817598 -0.074779116 0.046927713
0003e0 11 42 39 be 2b 2f 49 bc 79 98 ab 3d c3 4d 86 bd
       -0.18091609 -0.012279312 0.08378691 -0.065578006
0003f0 a1 af ad 3e 20 ed 11 3c 00 39 ca bd 66 20 02 3d
       0.33923057 0.008906633 -0.09874153 0.03176918

base.4linear.bias f4 [50]
000000 d3 57 b7 bb b5 ac 93 bc 5b b3 53 3d 66 7c 0d be
       -0.0055951863 -0.018026689 0.05168472 -0.13816985
000010 82 45 4e 3b ad 01 b9 bc 72 9a 9f 3d cc a4 5b bc
       0.0031474535 -0.022583807 0.0779313 -0.01340599
000020 c8 f1 69 3d 62 18 42 be b0 6a 4e bb 0f 3d 2c 3d
       0.057115346 -0.18954614 -0.0031496696 0.042050418
000030 be 16 1b 3e e8 6d 52 3b 0c 80 01 3d 36 f9 b2 bb
       0.15145394 0.0032108966 0.031616256 -0.005461837
000040 38 e7 c2 bc bd ba f7 bd 98 66 de bb 37 d4 16 bd
       -0.023791894 -0.120961644 -0.0067871325 -0.036823478
000050 8f 4c a1 bd 08 23 3d 3d 7d bf 80 bd d9 b4 22 3d
       -0.078759305 0.046175987 -0.062865235 0.03972325
000060 59 1c 1e 3d 0a ea b2 bc 9a ef c5 bd a1 0c 9c bb
       0.038601253 -0.021840114 -0.09664841 -0.0047622477
000070 9d 94 a8 bc f0 fc 9d bd 81 4f 9d 3b b6 6e a5 b9
       -0.020578677 -0.077142596 0.0048007374 -0.00031553739
000080 d5 3a 0d 3e ca 60 81 3d f7 80 6a 3d b7 13 3e bd
       0.13791974 0.06317289 0.057251897 -0.04640552
000090 73 d1 cd bd fb 03 ee 3a b4 a1 ed bc 01 54 c9 bc
       -0.10049715 0.0018159145 -0.02900777 -0.024576189
0000a0 c4 5d 93 3d 55 bb 00 3d 55 53 e6 bd e8 2f 79 3d
       0.07195619 0.031428654 -0.11246363 0.060836703
0000b0 28 14 92 3c 0f c7 55 bd d2 5e 0b 3e 5a 1c e8 3c
       0.017831877 -0.05219179 0.1361039 0.028333832
0000c0 af be 89 bd 66 4e 86 bd
       -0.06725823 -0.06557922

base.5linear.weight f4 [50, 50]
000000 43 02 3f 3d a8 38 b4 3d 55 bf 8b 3d e4 f1 19 3e
       0.046633016 0.08799869 0.06823603 0.1503368
000010 78 b9 11 be 57 7e c6 be f9 5b f5 3d 44 d2 11 bd
       -0.14230907 -0.38768265 0.11980433 -0.035600916
000020 44 06 02 be b8 20 a5 3d be a1 ca bd 2e 66 e4 3d
       -0.12697703 0.08062881 -0.09894131 0.11152302
000030 7e 7a c1 3d db 30 1f be ee 45 5b 3e 3d a2 91 be
       0.09447192 -0.1554598 0.21413395 -0.2844409
000040 7a c3 a8 bd da 99 a8 3d 98 b0 51 be 16 e7 8a 3d
       -0.08240409 0.0823247 -0.20477521 0.067823574
000050 4d c1 e6 3d 20 6d d0 3d f4 62 05 bd 90 14 92 be
       0.11267338 0.10177064 -0.032565072 -0.28531313
000060 4c db d9 3e 8f 9f 8e be 24 1d 1f be 55 7c 11 be
       0.42550123 -0.2785611 -0.1553846 -0.14207585
000070 97 18 00 be c4 38 df be 40 d4 08 bd a5 ba af bd
       -0.1250938 -0.43597996 -0.033405542 -0.085805215
000080 b0 7e 09 be 7f 5d 4c be 57 88 63 be 6f 64 9e 3d
       -0.13427234 -0.19957541 -0.22219978 0.07734
000090 4f db f6 3d 00 d6 29 3e b9 9b b4 bc 7e d2 87 be
       0.120535485 0.16585541 -0.02204691 -0.2652778
0000a0 02 a9 93 3b 70 2e 1e 3d 0b 1b 40 3e 7c cd 45 3c
       0.0045062313 0.038618505 0.18760316 0.012072917
0000b0 cd 65 bd bd 8c 58 0f bd bb 78 8b 3e 97 07 38 be
       -0.092479326 -0.034996554 0.27240548 -0.17971645
0000c0 85 c0 13 be 65 22 41 3e 01 a3 b9 be c4 3a b1 3e
       -0.14428909 0.18860777 -0.36257175 0.34615147
0000d0 3a e1 7f be 22 6d a3 bd 9a de 42 3e 04 9b ba bd
       -0.24988261 -0.079798 0.19030228 -0.09111598
0000e0 15 50 8b be 07 7d d9 3c 3e 47 9b bf 2f 7a ba 3e
       -0.27209535 0.026548875 -1.2131116 0.36421344
0000f0 6c 70 89 3d 24 78 ac bd 68 8b 2d be e5 70 6a 3d
       0.06710896 -0.084213525 -0.1694771 0.05723657
000100 5f 54 d8 3d c9 d0 05 be 94 ed 29 be 9b 9f 5c 3e
       0.105629675 -0.13067926 -0.16594535 0.2154526
000110 b7 85 8c 3d 08 99 ff 3d ee 5d 85 bd 76 84 19 be
       0.068614416 0.1248036 -0.06512056 -0.14991936
000120 3c e3 cc bd 96 37 b1 3d 1c de 91 be 85 cc 2e 3f
       -0.10004279 0.0865318 -0.28489769 0.6828082
000130 b7 55 ce 3e 53 9d 10 3d 4a 44 fc bd 89 b5 24 bd
       0.4029977 0.035306286 -0.123177126 -0.040212188
000140 6a fc 6c 3c 90 60 b6 be 78 bb e8 bd 21 53 af bd
       0.014464477 -0.35620546 -0.11363882 -0.085607775
000150 ff ec a9 be 57 23 21 3d ae ae 7b 3e 80 57 82 3e
       -0.33188626 0.039340343 0.24578354 0.25457382
000160 97 ee aa 3e 91 83 b2 3e da fe 9c be 72 2a 19 3e
       0.33385155 0.34866002 -0.30663186 0.14957598
000170 50 fa cb 3e 20 7b 8e be 62 5e fd bd 6a ea 6b bd
       0.3983941 -0.27828312 -0.12371518 -0.0575966
000180 73 4d f4 3d d3 6e 0e 3d 44 2d dd 3d 96 78 cd bd
       0.11928835 0.03477366 0.10799649 -0.100327656
000190 3f 9c 3d 3e 2e 20 87 bc 26 56 6c bb 72 57 93 3e
       0.18516634 -0.016494837 -0.003606209 0.28777653
0001a0 2e f0 1e 3d 86 fb d1 be 58 0f e8 3d 0f 2c a7 bc
       0.038803272 -0.4101221 0.113310516 -0.020406751
0001b0 20 23 fb bd 18 71 41 be 2d be 86 be 5f 9e 14 3e
       -0.12262559 -0.18890798 -0.26316968 0.14513539
0001c0 04 70 bd 3c 35 b1 b9 3d 4d 83 9f 3e 27 59 36 3e
       0.023124702 0.09067003 0.31154862 0.17807446
0001d0 93 1e b2 3c 63 c9 4b bd 3c 51 6b 3b dc 98 52 3e
       0.021743095 -0.049752604 0.0035906574 0.20566124
0001e0 0c e6 98 bd 07 8e 49 3e 8a dc 91 be 0b 85 78 3d
       -0.07465753 0.19683085 -0.2848857 0.060673755
0001f0 aa e4 a5 3d 66 03 36 3e ec d6 d0 bb 15 08 0d 3d
       0.08100255 0.17774734 -0.006373277 0.034431536
000200 b6 c3 6e bd b8 68 57 be 67 a6 87 3c bb 63 96 3c
       -0.058292113 -0.21036041 0.016558839 0.018358102
000210 ae 0b 9e bb e5 89 a3 3e f8 02 0d be 43 77 99 bd
       -0.0048231697 0.31941143 -0.13770664 -0.074934505
000220 15 55 ba 3d ea 55 5b 3d f9 e3 09 3e ee 48 65 bd
       0.09098259 0.05354873 0.13465871 -0.055977754
000230 27 48 a6 3d c7 05 ec 3d 76 80 a0 bd 7c 64 0e 3d
       0.08119231 0.115245394 -0.07837002 0.034763798
000240 3b a7 11 3d ac c3 3a bd 14 25 52 be 34 2f 47 be
       0.035559874 -0.045596763 -0.20521957 -0.194516
000250 98 cf f6 bd a3 0f 86 bd 89 23 a4 3c a9 73 16 bc
       -0.12051314 -0.06545951 0.020036476 -0.009182849
000260 93 ed a0 bd 5c b9 a6 3c db 37 a8 3d 10 d2 4b 3d
       -0.07857814 0.020352058 0.082137786 0.049760878
000270 19 46 a6 bc 9d 6f 37 3e 55 4e 9f bd db 6e 25 bc
       -0.020297097 0.17913671 -0.077786125 -0.010097231
000280 70 70 4c be bf 14 76 3e 6b 04 82 bd e1 41 f6 3d
       -0.19964767 0.24031352 -0.06348499 0.12024284
000290 fd 29 4d 3d b0 a6 91 be f1 a3 23 3e 88 31 f2 3c
       0.05008887 -0.28447485 0.15980507 0.029564634
0002a0 0f 59 2a 3e 1c 7d 22 3e 02 83 08 bd 83 61 e9 bd
       0.16635536 0.15868038 -0.033328064 -0.11395552
0002b0 58 13 ba bd 2b 13 80 be b0 28 a1 3e c3 62 a1 3d
       -0.09085721 -0.25014624 0.31476355 0.078801654
0002c0 e7 b9 93 be d0 32 8f bd 4f a1 ec 3b 77 ae 81 3d
       -0.2885277 -0.069921136 0.007221378 0.06332105
0002d0 e3 c6 c3 3d 2a b6 ee 3d a1 ed 9e 3d 1e 7f 4b 3d
       0.09559419 0.11655839 0.07760168 0.049681775
0002e0 f0 00 dd 3d 64 f7 42 be 16 16 dc bd b2 ed 31 3e
       0.107911944 -0.19039685 -0.107464 0.1737583
0002f0 e2 c7 6d 3e 3e c8 9a bc a6 6a 0c 3e 75 2b 42 3e
       0.2322078 -0.018894311 0.13712558 0.1896189
000300 93 14 48 be cc f0 7e bd 4d 12 80 3e 24 4a 0c 3e
       -0.19539098 -0.06224136 0.25013962 0.13700157
000310 7d 70 44 be b9 5a 2b be c2 e5 b9 be 6f 79 85 3e
       -0.19183536 -0.16733827 -0.36308104 0.2606921
000320 3e 0c 48 3e 7a 1f 55 be a3 6f 38 3c c8 64 b0 3d
       0.1953592 -0.20812789 0.011257085 0.086129725
000330 c7 54 1a bd 56 ac 50 bd b5 bb 90 be 34 bd a6 bb
       -0.037678506 -0.050945602 -0.2826821 -0.0050884727
000340 6b 53 c0 bd 5c 73 58 bd ea ca 50 3d be b4 b3 bd
       -0.09390911 -0.05284439 0.050974764 -0.08774708
000350 64 19 6c bc 47 b9 7b be 87 b4 a7 bd 3f eb 97 3e
       -0.0144103505 -0.24582396 -0.0818873 0.29671666
000360 8d b4 bf be 5e f2 4f 3e 7b b5 d2 bd a9 92 54 bb
       -0.37442437 0.203073 -0.10288521 -0.003243605
000370 4c f6 aa bd 5e 4b 95 be 33 16 f9 3d 4c 0d 96 be
       -0.08347759 -0.29159063 0.12162437 -0.2930702
000380 a4 4c 42 3e 2f f4 11 3c 91 02 41 3e c4 4a 40 3e
       0.18974549 0.008908316 0.18848635 0.18778521
000390 5c 81 d5 3a 4e c0 80 3d 29 d9 40 3c f6 3b 73 bd
       0.0016289162 0.06286679 0.011770525 -0.059383355
0003a0 a5 d8 cf bc c0 d6 aa be bc b3 9f 3c e5 40 d0 bc
       -0.025371859 -0.33366966 0.019494884 -0.02542157
0003b0 3a 6a c7 3e 96 6e 4d 3e 14 da bc 3d 5a 60 09 bc
       0.38948232 0.20061716 0.092212826 -0.008384788
0003c0 de e7 54 be a9 f1 05 be 90 71 71 3e b3 e2 37 3e
       -0.20791575 -0.13080467 0.23578477 0.17957573
0003d0 b2 24 18 be 08 19 d4 3a 0f 97 17 bd 05 fe 6e 3e
       -0.14857748 0.0016181776 -0.037009295 0.23339088
0003e0 a9 41 97 3e 09 02 04 be 7a ec 25 be b2 65 a2 3c
       0.29542282 -0.12891401 -0.1620349 0.019823883
0003f0 b5 4c 58 be 5f 53 b4 3c aa 1c fd 3d be c4 9f 3d
       -0.21123011 0.02201241 0.12358983 0.078011975

base.5linear.bias f4 [50]
000000 67 01 57 3d d9 65 dd bd 67 71 d8 3d fd 05 d1 bc
       0.05249157 -0.108104415 0.10568505 -0.02551555
000010 59 4e c0 3b c2 2a 2b bd 21 01 b2 bd 4e 9c 17 bd
       0.005868715 -0.041788824 -0.086916216 -0.0370143
000020 79 7d 5c 3b 83 d2 26 be 79 17 92 3d b5 2d 2b 3d
       0.0033644123 -0.16291241 0.07133383 0.041791636
000030 79 b5 4b 3b e0 d7 b4 3d 6d 2b 38 3e 4f 72 ae bd
       0.0031083508 0.088302374 0.17985316 -0.085178964
000040 ce 10 c3 bd c7 f5 8d 3c e2 0b ec 3d 55 35 66 3d
       -0.095246896 0.01732911 0.11525704 0.056203205
000050 9a 89 b6 3d 24 d2 f7 3d dd d7 86 3b 75 b2 4c 3d
       0.08912964 0.12100628 0.0041150884 0.049974877
000060 75 9d 0d 3c f4 c0 62 3c 83 6a 20 bd b2 46 b4 bc
       0.008643498 0.013839949 -0.039164077 -0.022006366
000070 5c 8b aa bb 52 a8 e3 3d f2 a1 a0 bd 3e f3 37 bd
       -0.005204601 0.11116089 -0.078433886 -0.04490971
000080 40 09 83 bd 33 92 bf bc d9 8e da bd 2d bc 36 3c
       -0.06398249 -0.023385143 -0.10671777 0.011153263
000090 e5 08 a8 bd 78 5d 16 bd d2 2d ab bc b4 30 31 3c
       -0.082048215 -0.036710232 -0.020895872 0.010814834
0000a0 e5 2e 86 3d a6 6b 51 bd 15 fd 50 bd a5 b6 06 be
       0.06551913 -0.051128052 -0.051022608 -0.13155611
0000b0 ad b3 84 3d 3e f5 83 bc 40 17 42 bd 86 a1 eb bc
       0.06479583 -0.016108152 -0.047385454 -0.028763544
0000c0 b6 01 93 3c a9 58 c3 bd
       0.017945152 -0.09538395
