STPINN-NS/sub_data/sub_write/15NS_model_train.pt (torch, 100091 bytes, 22 tensors)

base.0linear.weight f4 [50, 3]
-0.0008827021 -0.00042080486 0.0002927415 -0.27467245 -0.0050669154 0.18171526 0.042313937 0.25423485
-0.18961437 -0.075746216 -0.13081968 -0.39116105 -0.18870297 0.09396744 -0.059182797 0.1031166
-0.20264028 -0.26145318 -0.109253325 0.4146289 -0.22152084 0.0856655 0.35742724 -0.24787025
0.021891767 -0.13634709 0.33736968 -0.47792757 0.37400255 0.24251576 -0.5986013 -0.055889413
-0.02520747 -0.37244532 0.1319056 -0.094507106 -0.107292324 -0.12460638 -0.18847424 0.04688568
0.13171373 0.037287045 0.00069424027 0.15791024 -0.6430411 0.022027327 0.2597288 -0.07379845
-0.04825014 0.33774754 0.09349232 -0.2144882 -0.038795646 0.20895573 -0.21394974 0.2262685
0.17456384 -0.0010128799 0.0008024016 -5.144208e-05 0.21580207 0.07013141 -0.07330553 0.047608472
0.04596603 -0.16094586 0.11444745 -0.24419759 -0.1983095 -0.06688285 0.03408038 0.2237505
-0.11651217 -0.27435943 0.21276176 0.03424542 -0.085303135 -0.16777386 0.15738428 0.15398389
-0.42452818 0.2308777 0.1592634 -0.24928811 -0.18568285 0.09343807 0.16812235 -0.19630069
0.009764399 -0.2660559 0.053879637 0.22499892 0.18535596 0.084274344 0.38089693 -0.27405575
-0.22297508 -0.23158514 0.07917065 0.23296814 0.07418955 -0.11387257 0.2939285 -0.2912886
-0.24695952 -0.0594933 0.05974353 -0.17786618 0.105249345 -0.099138305 -0.33166376 0.14841385
0.050426207 0.06260679 -0.049054496 -0.03310588 -0.031120451 0.086995035 0.05686569 -0.19837187
0.23109867 -0.29314578 -0.39490017 0.030818729 -0.067933835 -0.24397507 0.057919014 0.0043260413
-0.21462171 -0.08397487 0.091675915 0.052455224 -0.19497612 -0.10821876 -0.012118927 0.17351441
-0.27842483 0.0053953915 0.0019161906 0.20593329 0.056656543 0.0001278793 -0.00039813394 0.0007457658
0.019379184 -0.4948238 0.13588436 -0.08313781 -0.34925047 0.18807885
00000000: 2365 67ba 799f dcb9 197b 9939 dea1 8cbe
00000010: 5e08 a6bb 9113 3a3e 6151 2d3d 122b 823e
00000020: 452a 42be d520 9bbd 98f5 05be 4346 c8be
00000030: 5a3b 41be 0072 c03d a969 72bd cc2e d33d
00000040: ef80 4fbe 31dd 85be 35c0 dfbd 3d4a d43e
00000050: 5cd6 62be 6571 af3d b400 b73e b3d1 7dbe
00000060: 5d56 b33c 929e 0bbe b8bb ac3e ecb2 f4be
00000070: 437d bf3e 0d56 783e ef3d 19bf 4cec 64bd
00000080: e57f cebc 27b1 bebe 4312 073e f18c c1bd
00000090: 14bc dbbd a131 ffbd 64ff 40be 330b 403d
000000a0: f7df 063e 4dba 183d adfd 353a 39b3 213e
000000b0: 579e 24bf a772 b43c 2cfb 843e a423 97bd
000000c0: f0a1 45bd 3fed ac3e e778 bf3d cba2 5bbe
000000d0: 2fe8 1ebd 7ef8 553e a415 5bbe eeb2 673e
000000e0: ddc0 323e 9cc2 84ba 4358 523a 83c3 57b8
000000f0: 38fb 5c3e 0fa1 8f3d 3621 96bd 1a01 433d
00000100: e046 3c3d fece 24be 6d63 ea3d ef0e 7abe
00000110: a511 4bbe e0f9 88bd de97 0b3d da1e 653e
00000120: ef9d eebd d778 8cbe 38de 593e ed44 0c3d
00000130: 69b3 aebd e9cc 2bbe 5829 213e f4ad 1d3e
00000140: c25b d9be 346b 6c3e f215 233e 6245 7fbe
00000150: a523 3ebe 755c bf3d 4428 2c3e 0c03 49be
00000160: dcfa 1f3c 7b38 88be e5b0 5c3d 1e66 663e
00000170: f4cd 3d3e 0798 ac3d ec04 c33e 0951 8cbe
00000180: 9453 64be a824 6dbe 3924 a23d 338f 6e3e
00000190: b1f0 973d 0636 e9bd cc7d 963e c823 95be
000001a0: f5e2 7cbe 3faf 73bd a2b5 743d 8d22 36be
000001b0: f88c d73d 0609 cbbd d5cf a9be cdf9 173e
000001c0: b68b 4e3d fd37 803d 5eed 48bd 089a 07bd
000001d0: 51f0 febc 742a b23d ffeb 683d ff21 4bbe
000001e0: 21a5 6c3e 3417 96be 5b30 cabe 8f77 fc3c
000001f0: e520 8bbd 9ad4 79be 7d3c 6d3d 77c1 8d3b
00000200: cbc5 5bbe 04fb abbd 95c0 bb3d 4adb 563d
00000210: d2a7 47be cca1 ddbd 778e 46bc c3ad 313e
00000220: b38d 8ebe d3cb b03b b028 fb3a 2de0 523e
00000230: b110 683d 5717 0639 a2bc d0b9 7f7f 433a
00000240: 18c1 9e3c 8c59 fdbe 4525 0b3e 2844 aabd
00000250: f5d0 b2be be97 403e

base.0linear.bias f4 [50]
-0.00033755222 -0.013663061 0.0043685148 -0.011161511 0.13211322 0.04055599 0.09678214 0.056945134
-0.1546924 0.0076906243 -0.17846045 -0.09962635 -0.00062878744 -0.06162606 -0.072269 -0.015308842
-0.08151905 -0.066118784 0.03198702 0.00015116388 -0.076351725 0.053991213 0.13856481 -0.044132307
-0.050889187 0.10902994 0.09948507 -0.15122156 -0.04990703 0.21886349 -0.14341992 0.04367324
0.030996166 -0.12433749 0.024109075 0.089731805 0.11199293 -0.12884305 0.04833887 0.09123963
-0.0495973 0.0969511 0.052906025 -0.007797805 0.12854885 0.02110884 -0.06422774 -0.00031407212
0.08377444 -0.038318608
00000000: 7ef9 b0b9 08db 5fbc c225 8f3b c5de 36bc
00000010: b048 073e 0a1e 263d b735 c63d 4d3f 693d
00000020: af67 1ebe a201 fc3b 56be 36be e608 ccbd
00000030: 36d5 24ba 9c6b 7cbd c501 94bd f0d1 7abc
00000040: 76f3 a6bd 4969 87bd d204 033d bf81 1e39
00000050: 4b5e 9cbd e425 5d3d efe3 0d3e 14c4 34bd
00000060: 2e71 50bd 174b df3d d4be cb3d d3d9 1abe
00000070: 506b 4cbd c01d 603e acdc 12be b6e2 323d
00000080: aceb fd3c a7a4 febd 6580 c53c 4fc5 b73d
00000090: 8d5c e53d 6fef 03be fbfe 453d d8db ba3d
000000a0: 8a26 4bbd 4c8e c63d fdb3 583d bb84 ffbb
000000b0: 4fa2 033e 72ec ac3c d589 83bd 0caa a4b9
000000c0: ef91 ab3d f9f3 1cbd

base.1linear.weight f4 [50, 50]
-0.09046027 0.056372527 0.014512294 -0.07953962 0.28524676 0.02517559 0.08189851 -0.078881
-0.07247755 0.12435106 0.03220524 0.05289772 -0.09790796 -0.07790078 -0.047347706 -0.31910872
0.046687074 0.29823998 -0.039405342 0.08451245 -0.07654348 -0.10102516 -0.14985242 -0.09386002
0.14754392 -0.03884734 -0.35139185 -0.07689953 -0.096410885 -0.11803699 -0.058198307 -0.15634547
0.31407517 -0.06179816 -0.06259958 0.12422297 0.11160438 -0.24087383 -0.12212562 -0.13004372
0.079203375 -0.13424309 0.15749082 -0.14624476 -0.029533034 -0.1810064 0.017830335 -0.033772513
0.15330203 0.15843472 0.035189386 -0.16659662 -0.024561506 0.13233453 0.0064093973 0.21209529
-0.034354232 0.0004581645 0.3959006 0.044038326 -0.012980276 0.02406972 -0.1251004 -0.27803215
-0.12735587 -0.14983927 -0.088805355 0.062453955 0.07077519 -0.14907296 0.22043262 0.01378158
0.079896875 -0.09851619 0.045479253 0.0025042417 -0.085867666 -0.23251335 0.2011073 -0.13405259
-0.168053 -0.2253859 -0.14644387 0.1484292 -0.25382298 -0.2191244 -0.044307973 0.09438212
-0.2702425 -0.41446325 0.055335317 0.1509977 -0.09815537 -0.20115213 0.18688612 0.034207057
-0.48702866 0.17406932 0.033468314 0.21281964 -0.07819304 -0.0939407 0.38728142 -0.3192528
-0.1085917 -0.12166715 0.28193185 0.15420061 0.00016117527 -0.21402505 -0.06861814 -0.06572129
-0.04166392 -0.018371265 0.1169094 0.034705717 0.03957588 -0.06873975 -0.07142749 0.23640923
0.057634827 -0.17373213 0.12278779 -0.18354619 -0.17651273 -0.106705025 -0.03687659 0.30619907
0.15526767 -0.27988353 0.05573543 0.24113919 0.027816499 -0.10417321 0.11590688 0.06293011
-0.00014527256 0.17675562 0.07874381 -0.17982295 0.353155 0.07197997 0.089705124 0.20393498
-0.30315524 -0.15444143 0.09455212 0.032215264 -0.3715681 0.03719496 0.22745362 -0.08265705
0.1693402 0.14243789 0.0031588012 0.09889445 -0.17701872 0.15990125 0.011520747 0.039318267
-0.12406952 0.24833928 0.03194697 -0.12889688 0.07057867 0.10245053 0.010892137 0.047468472
0.16783972 -0.15877372 -0.10523967 -0.1675946 0.1470351 -0.026143296 -0.057762384 -0.042864934
-0.0014496796 -0.101718664 -0.012838825 -0.07736648 0.0070456387 0.020820437 -0.29018462 -0.12194966
0.040584862 -0.04636475 -0.21997565 -0.24205369 0.041903693 -0.05339219 -0.037762582 -0.10511795
-0.016915044 -0.09521915 -0.1188784 0.1301155 -0.045077715 0.024035867 0.21928371 -0.11160529
0.06567841 0.3185685 -0.24055369 0.004045004 0.04595234 0.09106568 -0.2880868 -0.09994627
0.22284219 -0.10364349 -0.09697386 0.0050234767 0.18558559 -0.08412015 -0.08099861 0.033665888
-0.17445546 -0.063465714 -0.12006054 0.06931142 -0.1606371 -0.34371337 0.058271978 0.10196051
0.32471624 -0.115340486 -0.03978648 -0.106443204 0.06864425 -0.28594086 -0.24565434 -0.15617903
0.15283158 -0.041906737 -0.21817544 -0.16223213 0.018545909 -9.4598625e-05 0.037605897 -0.04016477
0.11913759 -0.07864063 -0.20691083 -0.05111965 0.008430332 0.029098043 -0.0781905 -0.011362552
0.06417167 0.20687628 0.13485326 0.30892792 -0.03024602 -0.21484606 0.11070147 0.5251055
00000000: 3c43 b9bd e1e6 663d f9c4 6d3c abe5 a2bd
00000010: dd0b 923e 0a3d ce3c 68ba a73d 5d8c a1bd
00000020: 1c6f 94bd c5ab fe3d a4e9 033d 48ab 583d
00000030: f883 c8bd 728a 9fbd abef 41bd 3862 a3be
00000040: f23a 3f3d e9b2 983e 7f67 21bd dd14 ad3d
00000050: d4c2 9cbd 47e6 cebd ea72 19be af39 c0bd
00000060: c115 173e 631e 1fbd a2e9 b3be 807d 9dbd
00000070: 1273 c5bd 61bd f1bd 5961 6ebd 0719 20be
00000080: 76ce a03e 1120 7dbd 3534 80bd 9d68 fe3d
00000090: d690 e43d a1a7 76be ff1c fabd 2e2a 05be
000000a0: 6135 a23d 0577 09be 4645 213e 30c1 15be
000000b0: 43ef f1bc be59 39be ec10 923c 0c55 0abd
000000c0: 35fb 1c3e b63c 223e bf22 103d 4e98 2abe
000000d0: 3635 c9bc b482 073e ec05 d23b 822f 593e
000000e0: 06b7 0cbd cc35 f039 7cb3 ca3e 8861 343d
000000f0: 39ab 54bc dd2d c53c 521a 00be 3b5a 8ebe
00000100: 9469 02be 776f 19be 95df b5bd b8cf 7f3d
00000110: 95f2 903d 95a6 18be 17b9 613e 23cc 613c
00000120: f9a0 a33d dbc2 c9bd 7448 3a3d 341e 243b
00000130: 63db afbd fb17 6ebe 12ef 4d3e 1545 09be
00000140: 1616 2cbe 90cb 66be 62f5 15be d3fd 173e
00000150: 16f5 81be 2662 60be 477c 35bd 6a4b c13d
00000160: 3a5d 8abe 8734 d4be 49a7 623d 249f 1a3e
00000170: af05 c9bd d3fa 4dbe 135f 3f3e b31c 0c3d
00000180: d25b f9be 3a3f 323e 1216 093d 64ed 593e
00000190: ac23 a0bd fb63 c0bd c049 c63e 1a75 a3be
000001a0: 5365 debd a02c f9bd 5f59 903e c4e6 1d3e
000001b0: 2801 2939 6229 5bbe ab87 8cbd e298 86bd
000001c0: c9a7 2abd 567f 96bc 326e ef3d 9527 0e3d
000001d0: 511a 223d 6dc7 8cbd 9348 92bd 4315 723e
000001e0: 7f12 6c3d d6e6 31be 2a78 fb3d 88f3 3bbe
000001f0: c1bf 34be 2a88 dabd e80b 17bd 20c6 9c3e
00000200: 7dfe 1e3e e54c 8fbe d64a 643d 31ed 763e
00000210: 6ddf e33c c458 d5bd 9660 ed3d 80e1 803d
00000220: 4e54 18b9 6dff 343e 6f44 a13d 8223 38be
00000230: bbd0 b43e 3c6a 933d 52b7 b73d 55d4 503e
00000240: 2a37 9bbe e525 1ebe 8ba4 c13d 27f4 033d
00000250: 2d3e bebe be59 183d 9ae9 683e 1948 a9bd
00000260: 8467 2d3e 3ddb 113e e403 4f3b 2c89 ca3d
00000270: 6544 35be 27bd 233e 84c1 3c3c 310c 213d
00000280: 2918 febd a74c 7e3e d3da 023d 8bfd 03be
00000290: 8d8b 903d 95d1 d13d ef74 323c 4d6e 423d
000002a0: 2dde 2b3e 9495 22be e587 d7bd eb9d 2bbe
000002b0: 5f90 163e 772a d6bc 4098 6cbd 2493 2fbd
000002c0: 2d03 beba e051 d0bd ef59 52bc 5172 9ebd
000002d0: 1adf e63b 9f8f aa3c 1493 94be bec0 f9bd
000002e0: 503c 263d f7e8 3dbd 4c41 61be ecdc 77be
000002f0: 35a3 2b3d c5b1 5abd f0ac 1abd 1448 d7bd
00000300: 6b91 8abc 4202 c3bd 8576 f3bd ff3c 053e
00000310: 69a3 38bd dee6 c43c e98b 603e 5091 e4bd
00000320: 6782 863d 691b a33e b553 76be f48b 843b
00000330: 8538 3c3d a580 ba3d 1d80 93be a1b0 ccbd
00000340: be30 643e 0a43 d4bd 3b9a c6bd fa9b a43b
00000350: 260a 3e3e 2f47 acbd 99e2 a5bd 3ee5 093d
00000360: 74a4 32be 50fa 81bd 4de2 f5bd 25f3 8d3d
00000370: 0d7e 24be 33fb afbe 99ae 6e3d acd0 d03d
00000380: 3541 a63e a237 ecbd 26f7 22bd e5fe d9bd
00000390: 5b95 8c3d d766 92be d08c 7bbe 65ed 1fbe
000003a0: e27f 1c3e 66a6 2bbd 6269 5fbe 2e20 26be
000003b0: 97ed 973c 4063 c6b8 a408 1a3d d083 24bd
000003c0: 69fe f33d 570e a1bd 6fe0 53be d762 51bd
000003d0: 601f 0a3c 055f ee3c 5722 a0bd ff29 3abc
000003e0: 706c 833d 60d7 533e f916 0a3e cd2b 9e3e
000003f0: 80c6 f7bc 9b00 5cbe 74b7 e23d 506d 063f

base.1linear.bias f4 [50]
-0.026303794 -0.0014626592 -0.103949636 -0.016285526 -0.05437789 0.024113888 -0.03216733 -0.019734943
0.060742795 -0.021229869 -0.058349974 -0.0016455104 0.02015722 -0.011281901 -0.08643743 -0.0057713585
0.039563585 0.0044024265 -0.11292421 -0.05759316 0.103029616 -0.04739662 0.08668215 -0.027170492
-0.117577046 -0.06196637 0.12480115 0.015964141 0.08008256 -0.030757872 -0.16430198 0.12744963
-0.035577044 -0.01932356 0.08424767 -0.055110205 0.04940527 -0.0017911914 -0.14928122 -0.09208299
0.061106853 -0.051228188 -0.1877963 0.060705338 0.06504795 -0.17997128 0.018183658 0.05745914
-0.08739989 -0.13165441
00000000: 0e7b d7bc b3b6 bfba 8ce3 d4bd 3969 85bc
00000010: 5abb 5ebd 7d8a c53c e4c1 03bd 2dab a1bc
00000020: 70cd 783d 43ea adbc 6200 6fbd 2bae d7ba
00000030: c120 a53c b9d7 38bc 1b06 b1bd aa1d bdbb
00000040: 6d0d 223d 3b42 903b cf44 e7bd cee6 6bbd
00000050: 3101 d33d f522 42bd 6986 b13d a794 debc
00000060: 3ccc f0bd 73d0 7dbd bf97 ff3d 3bc7 823c
00000070: 5302 a43d eff7 fbbc c73e 28be 2882 023e
00000080: 3cb9 11bd 714c 9ebc 0b8a ac3d 3dbb 61bd
00000090: 2e5d 4a3d 69c6 eaba 2ddd 18be 0296 bcbd
000000a0: 2e4b 7a3d a6d4 51bd ac4d 40be 29a6 783d
000000b0: dc37 853d 644a 38be e5f5 943c 465a 6b3d
000000c0: b7fe b2bd 6ad0 06be

base.2linear.weight f4 [50, 50]
0.016161416 0.10849914 -0.01879131 -0.019552063 0.052949477 -0.038456775 0.13322377 -0.01564496
0.23319523 -0.033274874 -0.015282686 -0.046655156 0.0008041901 0.35884118 0.11387762 -0.07118453
0.09758071 -0.12227712 -0.39114755 0.073601715 0.07680057 0.12728876 0.35354432 0.024688274
-0.10841156 0.27273774 0.018107196 0.17175554 -0.07961866 -0.006231337 -0.08485412 -0.28783023
-0.1865805 0.0048990906 0.1946781 0.1374074 -0.16111985 0.025394548 0.22877865 -0.19309324
-0.039180294 0.32336548 -0.11875214 0.01385099 0.21403764 0.07591194 0.38979822 -0.14668338
0.29262906 -0.023894804 0.11432548 -0.15078841 -0.082892716 -0.10148401 -0.018476197 -0.5192121
-0.109305575 0.04598227 0.11013977 -0.076107904 -0.121502586 -0.044896223 -0.05052396 -0.13143212
0.010283661 0.014620523 -0.21381284 0.45616993 -0.03655753 0.13135421 0.02910715 0.043738466
-0.08147258 0.1510402 0.010255513 0.16710815 -0.23173378 -0.016324861 -0.12255607 0.051051453
0.05539732 0.13872437 0.10160969 -0.02418082 -0.04878208 0.017670697 0.097944245 -0.197755
-0.12974943 -0.04419018 0.004775688 0.120098285 0.028345346 -0.018677287 -0.11906336 -0.20163295
-0.046107385 -0.10413125 0.17808045 0.07882038 0.040378645 -0.12869035 0.12680466 -0.04192844
0.14271969 -0.015375535 0.077210516 0.009253138 0.13593534 0.009923765 0.10118497 -0.035849027
-0.024508234 0.0017391084 -0.09523318 -0.0784593 0.07749247 0.01800542 -0.4015632 0.3782983
-0.23000084 -0.05690583 0.19759676 0.0134936655 -0.12827207 -0.33138886 -0.16048257 0.00035717632
-0.20664427 -0.19110164 0.16152048 -0.27320448 -0.035106577 -0.020650318 0.26579946 0.08886476
0.04018658 0.022214524 -0.04140747 0.028392816 0.0147020575 -0.009240143 -0.27674615 -0.0030717102
0.25088444 -0.12051462 -0.23533933 0.027460005 0.2311032 -0.046347193 -0.05502601 -0.10027108
0.086301886 -0.028069118 -0.081617005 0.049959905 -0.113232926 0.002255343 0.17899017 -0.025682125
0.15751608 0.06556804 0.014476789 -0.062121507 -0.037363168 0.0337378 -0.22700767 -0.041192327
0.07746828 -0.0057860613 0.09692245 -0.03759256 0.08989693 -0.0160218 -0.04276569 0.11758785
0.1915682 0.19928291 -0.08236262 0.18710522 0.11886606 0.12626414 -0.12325091 0.04794652
0.2763526 -0.1409745 -0.11726932 -0.046071403 -0.14715251 -0.20434934 -0.05970239 0.050730154
-0.1160442 -0.014541624 0.0859521 -0.044425942 0.093078524 0.19544023 0.018923193 -0.47661567
0.13981088 0.01381901 0.018183732 -0.046111636 -0.20276394 -0.007835234 0.14268723 0.010201714
-0.15767333 0.023941763 -0.30665696 -0.12789828 -0.035940498 0.031613946 0.20560709 -0.15109833
-0.06601488 0.115808174 0.069093466 -0.07808171 -0.09604392 -0.12865007 -0.3211011 -0.019842567
0.009225387 -0.15558371 0.004161338 -0.13897476 0.031940408 -0.25842258 0.10736956 0.10833128
-0.013449106 -0.02702754 -0.27194273 -0.23721287 -0.15897475 -0.002150081 -0.13756761 -0.1023543
0.029197594 -0.20930052 0.066310786 -0.0033672778 0.1241629 0.12151999 0.062482834 0.050922412
0.18826874 0.3450379 -0.03206176 -0.2824964 0.041217763 0.009974143 -0.08637397 0.0033926247
00000000: f264 843c cc34 de3d 3cf0 99bc a62b a0bc
00000010: 8de1 583d da84 1dbd d06b 083e dc29 80bc
00000020: bbca 6e3e 3c4b 08bd 3b64 7abc 7a19 3fbd
00000030: 49d0 523a 08ba b73e ab38 e93d 32c9 91bd
00000040: 65d8 c73d 6d6c fabd 7e44 c8be 7fbc 963d
00000050: 9e49 9d3d fc57 023e c303 b53e 103f ca3c
00000060: e106 debd 48a4 8b3e 8b55 943c afe0 2f3e
00000070: 1c0f a3bd 3e30 ccbb ffc7 adbd 7c5e 93be
00000080: f50e 3fbe 8d88 a03b b259 473e 87b4 0c3e
00000090: 9afc 24be 3a08 d03c f344 6a3e 3cba 45be
000000a0: 847b 20bd 2990 a53e 5234 f3bd 43ef 623c
000000b0: af2c 5b3e b877 9b3d a293 c73e 2b34 16be
000000c0: 7ad3 953e 09bf c3bc 7a23 ea3d 4768 1abe
000000d0: a8c3 a9bd d9d6 cfbd 655b 97bc 16eb 04bf
000000e0: 9adb dfbd e857 3c3d f690 e13d 76de 9bbd
000000f0: 59d6 f8bd 1ae5 37bd 36f2 4ebd 2496 06be
00000100: cd7c 283c eb8a 6f3c c1f1 5abe 1b8f e93e
00000110: 59bd 15bd b881 063e 1e72 ee3c 1b27 333d
00000120: 19db a6bd 48aa 1a3e bd06 283c 661e 2b3e
00000130: 9f4b 6dbe b7bb 85bc adfe fabd 541b 513d
00000140: 4de8 623d c30d 0e3e be18 d03d db16 c6bc
00000150: b8cf 47bd 23c2 903c fe96 c83d 4980 4abe
00000160: 09dd 04be c300 35bd 607d 9c3b 17f6 f53d
00000170: 8034 e83c 1c01 99bc 7ed7 f3bd de78 4ebe
00000180: 19db 3cbd c442 d5bd b95a 363e 946c a13d
00000190: 1464 253d 67c7 03be 15d9 013e 28bd 2bbd
000001a0: 1c25 123e abe9 7bbc 8c20 9e3d 799a 173c
000001b0: a232 0b3e 4a97 223c 113a cf3d 6ed6 12bd
000001c0: 7ec5 c8bc cbf2 e33a 9d09 c3bd 45af a0bd
000001d0: 5fb4 9e3d 1a80 933c b199 cdbe 51b0 c13e
000001e0: 5785 6bbe 1616 69bd ce56 4a3e 8914 5d3c
000001f0: c159 03be cdab a9be 8b55 24be 6543 bb39
00000200: 8e9a 53be 26b0 43be a065 253e 75e1 8bbe
00000210: eacb 0fbd db2a a9bc de16 883e bafe b53d
00000220: af9a 243d 3cfb b53c e19a 29bd 0d98 e83c
00000230: e6e0 703c f863 17bc acb1 8dbe bf4e 49bb
00000240: ed73 803e 5ed0 f6bd cbfc 70be cef3 e03c
00000250: 51a6 6c3e 8ed6 3dbd f462 61bd ed5a cdbd
00000260: 0bbf b03d 35f1 e5bc d126 a7bd c2a2 4c3d
00000270: aae6 e7bd 60ce 133b 3349 373e 5263 d2bc
00000280: e54b 213e 8948 863d 0e30 6d3c 1f73 7ebd
00000290: 1f0a 19bd a630 0a3d b374 68be 49b9 28bd
000002a0: b1a7 9e3d 0099 bdbb 477f c63d a8fa 19bd
000002b0: e21b b83d 2640 83bc 132b 2fbd e6d1 f03d
000002c0: 742a 443e d210 4c3e bcad a8bd 8398 3f3e
000002d0: 0d70 f33d 634b 013e f96a fcbd 9263 443d
000002e0: 177e 8d3e 9f5b 10be e62a f0bd 5eb5 3cbd
000002f0: 26af 16be f440 51be 7e8a 74bd 6cca 4f3d
00000300: 95a8 edbd fe3f 6ebc a807 b03d faf7 35bd
00000310: f49f be3d 7c21 483e d004 9b3c f806 f4be
00000320: 952a 0f3e 2169 623c 0df6 943c 8edf 3cbd
00000330: 5aa1 4fbe 5a5f 00bc 9a1c 123e 1725 273c
00000340: 1e75 21be 8421 c43c 2402 9dbe c4f7 02be
00000350: 5836 13bd a07d 013d aa8a 523e 85b9 1abe
00000360: cf32 87bd d62c ed3d e080 8d3d 4ee9 9fbd
00000370: adb2 c4bd d8bc 03be 5d67 a4be e18c a2bc
00000380: 1426 173c 5651 1fbe d55b 883b 664f 0ebe
00000390: f2d3 023d f74f 84be 92e4 db3d cadc dd3d
000003a0: a459 5cbc dc68 ddbc 143c 8bbe eee7 72be
000003b0: 47ca 22be 60e8 0cbb 86de 0cbe 229f d1bd
000003c0: cb2f ef3c e052 56be f3cd 873d 8cad 5cbb
000003d0: 1e49 fe3d 79df f83d 00ee 7f3d 0594 503d
000003e0: 85c9 403e cfa8 b03e 3153 03bd 5ea3 90be
000003f0: f5d3 283d 966a 233c d6e4 b0bd cc56 5e3b

base.2linear.bias f4 [50]
-0.03633205 0.02398657 0.10087838 0.11298616 -0.0608537 -0.0044512125 -0.073994644 -0.06375577
-0.04725783 -0.18177359 0.060659613 -0.030682085 -0.096148595 0.06626775 -0.0040152064 -0.0007554976
0.055129528 0.07892595 0.07251352 -0.112610474 -0.085766196 0.14221327 0.06961826 0.106066674
0.14020346 0.024553789 -0.03993774 -0.1974102 0.033396754 -0.026539233 -0.08528325 0.059930604
0.059328035 0.11450668 0.111383624 -0.090755485 -0.06198855 0.060644913 0.003939869 0.04755175
0.09720029 -0.089501545 0.16417252 -0.117204204 0.010217176 -0.045041077 -0.053033713 0.08829458
0.0037063865 0.086419515
00000000: ead0 14bd 7c7f c43c 5399 ce3d 4a65 e73d
00000010: bb41 79bd 7adb 91bb 818a 97bd 6392 82bd
00000020: 6d91 41bd db22 3abe 3776 783d ff58 fbbc
00000030: 8ee9 c4bd 63b7 873d fe91 83bb 960c 46ba
00000040: 80cf 613d eea3 a13d f881 943d 52a0 e6bd
00000050: 30a6 afbd 5ba0 113e 0594 8e3d 7c39 d93d
00000060: 7f91 0f3e 0725 c93c c195 23bd e625 4abe
00000070: 09cb 083d ce68 d9bc fca8 aebd cb79 753d
00000080: f401 733d 7a82 ea3d 191d e43d 03de b9bd
00000090: b5e7 7dbd cd66 783d 041a 813b a0c5 423d
000000a0: f210 c73d 964c b7bd d71c 283e c208 f0bd
000000b0: f165 273c fe7c 38bd e139 59bd cad3 b43d
000000c0: d9e6 723b b7fc b03d

base.3linear.weight f4 [50, 50]
0.114220574 0.013116742 0.16495577 -0.37983114 -0.16569528 -0.5274891 -0.19853519 0.6612124
-0.14506376 0.2002061 -0.14745884 -0.25355744 0.12896052 0.080461785 0.17369723 0.54836506
-0.19253345 0.15047534 -0.048552413 0.08067299 -0.28081757 -0.47290164 0.2329769 -0.13241526
0.02869658 -0.11856749 0.49885252 0.37072867 -0.3232438 0.12394984 -0.6755217 -0.16192186
-0.27644005 -0.49271432 -0.14333208 -0.0643962 -0.06991327 -0.056287672 0.0610744 -0.42479724
-0.021728642 -0.25124887 0.004785523 -0.1002083 -0.25883406 -0.047395144 -0.15530856 0.1636937
-0.19687884 0.27842703 -0.03925633 0.0052210935 -0.3081066 0.27042398 -0.06412362 0.09305259
0.045869064 -0.23914516 0.04568487 -0.13432091 0.25999156 0.14948529 -0.1648768 0.041256353
-0.0028036612 -0.13272113 0.02312007 0.026028449 0.32559928 -0.108131275 0.14540564 0.3344345
-0.014898265 0.08402399 0.098626725 0.090532266 -0.23728153 -0.19771157 0.1053085 -0.16253209
0.06421218 0.03195913 0.27806228 0.057337254 0.0318281 -0.017639522 -0.45824832 0.40794763
0.06718512 0.012062542 0.041466832 0.09124325 0.0848911 -0.3453923 -0.32277602 -0.10409707
-0.11128251 -0.0074924068 0.17936543 0.23328318 0.13544531 -0.023350846 -0.13420887 -0.04004813
-0.03705854 0.20277803 -0.44325778 -0.10435767 0.3283012 -0.04544987 0.25791425 0.24469765
0.26971096 0.16817707 -0.15524559 -0.11241021 -0.072955064 0.15346108 -0.036764804 0.032242145
-0.016391989 -0.1755766 -0.06756178 0.049072016 -0.096427396 -0.07012036 -0.074435644 0.019496864
0.3039157 -0.028008735 0.07321949 0.13987173 0.065656185 0.15697886 -0.16468385 -0.10780466
-0.19512576 0.13774778 -0.06263583 0.2148562 -0.24400492 0.20734136 0.05800738 0.2610208
-0.040940445 0.16651894 0.019963816 -0.10503557 0.32169503 -0.11834845 0.35661456 0.010763296
0.066043906 0.17028317 -0.33933574 -0.04036561 0.53859437 0.13853945 0.18957908 0.10159709
-0.14946835 0.2719268 0.2599022 0.03815757 0.16275047 -0.0115722185 -0.007535547 0.1340834
0.2528149 0.06423994 -0.09275928 0.2013597 -0.13903378 0.12709147 -0.016818156 0.09096103
-0.14898656 0.17398503 0.018536068 -0.30945343 -0.2637859 -0.031360216 0.13759175 -0.26466647
-0.27829954 -0.19441384 0.0037520088 -0.010139968 0.033803813 -0.046834666 -0.0682465 0.13249208
0.03953199 -0.1402153 0.017498719 0.04197759 0.09877958 0.060832392 -0.3016254 0.23688719
-0.10296356 0.043183718 0.20151494 -0.10369751 -0.3368891 0.07597052 -0.2522659 -0.13955592
0.21931385 0.14574146 0.06907905 -0.13655879 -0.10328939 -0.25247407 -0.054984864 -0.072782174
-0.09561269 -0.119525984 -0.086507775 0.11276752 0.051318966 0.33149618 -0.083747774 0.4174856
0.1958126 0.15726101 -0.0374352 -0.77626 0.06564447 0.06534416 -0.024395438 0.07166333
-0.05124388 -0.09135387 0.27243397 -0.4240795 -0.035115175 0.00584291 -0.041267097 0.010897722
-0.08455553 0.13603123 0.015632587 -0.18071395 -0.08962649 0.18171164 -0.40416506 0.21423995
0.014824407 0.09784519 -0.20874791 0.041993987 -0.14000033 -0.15379104 -0.14484024 -0.02176618
00000000: 7aec e93d 9ae7 563c 2aea 283e 3a79 c2be
00000010: 06ac 29be 8709 07bf cf4c 4bbe 3745 293f
00000020: 988b 14be d402 4d3e 73ff 16be 48d2 81be
00000030: 3a0e 043e 26c9 a43d b0dd 313e a761 0c3f
00000040: 7d27 45be 3516 1a3e e5de 46bd e137 a53d
00000050: 52c7 8fbe 2a20 f2be 7f91 6e3e de97 07be
00000060: 1715 eb3c 83d3 f2bd 9969 ff3e 26d0 bd3e
00000070: 3680 a5be 6ad9 fd3d fdee 2cbf d8ce 25be
00000080: 8d89 8dbe 0d45 fcbe a5c5 12be 28e2 83bd
00000090: b02e 8fbd e78d 66bd 2629 7a3d 067f d9be
000000a0: 4400 b2bc b1a3 80be e0cf 9c3b 023a cdbd
000000b0: e685 84be 6921 42bd 3509 1fbe 529f 273e
000000c0: 9b9a 49be fd8d 8e3e 3fcb 20bd b515 ab3b
000000d0: 26c0 9dbe 0375 8a3e 3f53 83bd 5b92 be3d
000000e0: 33e1 3b3d 78e2 74be 0f20 3b3d 6c8b 09be
000000f0: 9d1d 853e ac12 193e 77d5 28be 6cfc 283d
00000100: a1bd 37bb 0ce8 07be 4d66 bd3c 9d39 d53c
00000110: f3b4 a63e ee73 ddbd 37e5 143e 003b ab3e
00000120: da17 74bc c514 ac3d cffc c93d fb68 b93d
00000130: eef9 72be e774 4abe fcab d73d d06e 26be
00000140: ad81 833d 94e7 023d 2e5e 8e3e 78da 6a3d
00000150: 2f5e 023d c280 90bc 869f eabe 83de d03e
00000160: 5a98 893d f8a1 453c 20d9 293d bedd ba3d
00000170: 63db ad3d 42d7 b0be e642 a5be d830 d5bd
00000180: 16e8 e3bd dd82 f5bb 92ab 373e c9e1 6e3e
00000190: 2db2 0a3e 464a bfbc 0d6e 09be 8209 24bd
000001a0: b2ca 17bd 0ba5 4f3e aff2 e2be 79b9 d5bd
000001b0: 1817 a83e a529 3abd 560d 843e 0592 7a3e
000001c0: 8e17 8a3e 9c36 2c3e b3f8 1ebe 5337 e6bd
000001d0: 7769 95bd e724 1d3e b196 16bd 5710 043d
000001e0: 7e48 86bc 5aca 33be d55d 8abd bdff 483d
000001f0: ba7b c5bd 439b 8fbd b771 98bd e3b7 9f3c
00000200: d79a 9b3e 9372 e5bc 1af4 953d 893a 0f3e
00000210: c076 863d 11bf 203e e2a2 28be b1c8 dcbd
00000220: 0ccf 47be c10d 0d3e 3747 80bd 4403 5c3e
00000230: 6ddc 79be 4b51 543e 2699 6d3d 85a4 853e
00000240: 2bb1 27bd f183 2a3e 288b a33c e41c d7bd
00000250: 36b5 a43e ac60 f2bd 2f96 b63e 8958 303c
00000260: 0742 873d b65e 2e3e 6abd adbe 6956 25bd
00000270: 52e1 093f 49dd 0d3e 0521 423e 2312 d03d
00000280: 3b0e 19be fd39 8b3e e711 853e 1d4b 1c3d
00000290: 0fa8 263e 6799 3dbc c0ec f6bb 294d 093e
000002a0: f470 813e 3b90 833d 94f8 bdbd 3d31 4e3e
000002b0: df5e 0ebe 4424 023e 3bc6 89bc c749 ba3d
000002c0: ef8f 18be 2229 323e f4d8 973c ae70 9ebe
000002d0: f20e 87be 9273 00bd dae4 0c3e 5d82 87be
000002e0: 477d 8ebe 6c14 47be 43e4 753b 1c22 26bc
000002f0: de75 0a3d b5d5 3fbd d2c4 8bbd 01ac 073e
00000300: 4cec 213d 9994 0fbe 7959 8f3c b2f0 2b3d
00000310: f34c ca3d 632b 793d a56e 9abe 8e92 723e
00000320: 8fde d2bd 69e1 303d ef59 4e3e 5c5f d4bd
00000330: ba7c acbe 6f96 9b3d ff28 81be bfe7 0ebe
00000340: cf93 603e 403d 153e 5179 8d3d 11d6 0bbe
00000350: 6389 d3bd 4844 81be cf37 61bd d20e 95bd
00000360: 96d0 c3bd 0aca f4bd fd2a b1bd a8f2 e63d
00000370: d633 523d deb9 a93e f483 abbd acc0 d53e
00000380: 1983 483e 0809 213e a755 19bd fab8 46bf
00000390: 9c70 863d 29d3 853d f1d8 c7bc 39c4 923d
000003a0: 1ae5 51bd bd17 bbbd 777c 8b3e f320 d9be
000003b0: eed4 0fbd e275 bf3b b007 29bd 5c8c 323c
000003c0: 732b adbd c54b 0b3e e90f 803c 140d 39be
000003d0: 188e b7bd 9e12 3a3e b9ee cebe b861 5b3e
000003e0: 12e2 723c 0f63 c83d 03c2 55be e301 2c3d
000003f0: 3f5c 0fbe 667b 1dbe 0051 14be fd4e b2bc

base.3linear.bias f4 [50]
-0.033525765 0.11025365 0.049078204 -0.0036956093 0.06256711 0.020325102 -0.02363462 0.038637962
0.033727925 -0.07540646 0.014474482 -0.016486632 0.008913004 -0.021918505 0.09582738 0.0975572
-0.035804253 -0.008330401 -0.1282723 0.11320254 -0.17676008 -0.037664507 0.075707644 -0.013491401
0.02567384 0.008821775 -0.13628577 -0.007427135 -0.006443486 0.0015150409 0.036545582 0.16021886
-0.06765467 0.118747264 0.06733715 -0.07432802 0.0647472 -0.06392319 0.10753336 0.024480192
0.04698409 -0.038087297 -0.037506502 -0.05347306 -0.11205833 0.112425365 0.15673818 -0.13488309
-0.11616145 -0.15652333
00000000: 5052 09bd aacc e13d 3a06 493d 0932 72bb
00000010: 2f23 803d d480 a63c 649d c1bc d742 1e3d
00000020: 4b26 0a3d b46e 9abd 6126 6d3c f90e 87bc
00000030: d907 123c 708e b3bc 2541 c43d 12cc c73d
00000040: 7ba7 12bd 3c7c 08bc d059 03be bcd6 e73d
00000050: 9800 35be 1946 1abd 9c0c 9b3d 0a0b 5dbc
00000060: f251 d23c 3589 103c 7f8e 0bbe 535f f3bb
00000070: e123 d3bb 5694 c63a d2b0 153d 6a10 243e
00000080: 888e 8abd c431 f33d 0fe8 893d 4a39 98bd
00000090: 2e9a 843d 29ea 82bd 733a dc3d af8a c83c
000000a0: 6472 403d 6d01 1cbd 6ba0 19bd 9106 5bbd
000000b0: d67e e5bd 453f e63d f97f 203e cb1e 0abe
000000c0: 0ee6 edbd a747 20be

base.4linear.weight f4 [50, 50]
0.19769913 0.11607497 0.040349565 0.08499912 0.054311834 0.109234154 0.012037935 0.27511665
-0.15731306 -0.07887194 -0.026934188 -0.09572556 -0.0519205 0.21706675 0.13561726 0.2126732
-0.16892336 -0.0669781 -0.28502432 0.1866218 -0.21965183 -0.04401039 -0.12170782 0.034626357
-0.02704251 -0.03468971 0.20907675 -0.02719891 -0.054011166 0.031765383 -0.2526419 -0.13202573
0.023544952 0.009161769 -0.29310438 -0.054177597 0.07851747 0.058598842 0.11425987 0.098056816
-0.17595828 -0.032647587 0.0045706797 -0.030980209 -0.07921633 0.046524275 0.28280857 0.14120188
-0.08635736 0.008073875 0.23014417 -0.1384843 -0.1507029 -0.0798905 0.13627766 -0.2783826
0.15376706 -0.24291898 0.15549786 -0.0820863 0.20269425 0.15213235 0.04250965 0.015911058
-0.039444715 -0.24871968 -0.19794579 -0.21933569 0.02425112 -0.44033554 0.41873655 0.16976412
-0.32348087 -0.053457055 0.091960356 0.07101897 -0.0011482021 -0.08782454 0.058259916 -0.04155388
0.08134484 -0.19583902 0.17219515 -0.068909414 0.09440405 -0.11605282 -0.22047023 0.05886537
-0.067544006 -0.024827305 -0.20302022 0.3418521 0.07583172 0.44739056 0.10843341 -0.1464031
-0.24431206 -0.047769386 -0.0771088 -0.09515778 -0.066288665 0.13846412 0.23417139 0.113878876
-0.16957027 0.108377434 -0.31752867 0.020488951 -0.19037957 -0.05053051 0.10648719 0.026129942
-0.12989245 -0.054329325 0.0023418656 0.45520246 0.03688617 0.15128067 -0.033953868 0.3331955
-0.14987977 0.10905515 0.23780699 -0.15197025 -0.07482941 -0.057227515 0.20721562 0.14009954
-0.17150734 -0.02119651 0.012164418 0.00057385373 0.046119772 0.18376909 0.056602806 0.048874978
0.09672701 -0.15738085 -0.18654345 0.026306005 0.093789324 -0.20056127 0.23173565 -0.355625
0.007290885 -0.057858877 -0.028579745 -0.3205 0.067170456 -0.14746448 -0.028958647 -0.21637473
0.0191974 0.08890926 0.12266643 -0.07342789 -0.00046516577 -0.13191664 -0.0137928175 -0.095741734
0.22218238 -0.25004688 0.30092844 0.060477607 -0.07129244 -0.031011483 0.04557038 0.05346293
-0.03686647 -0.34735617 0.21250756 0.06355032 0.21703435 0.3841934 -0.09770841 0.32363388
0.1485484 0.081697814 -0.031901307 0.0026100178 0.14973761 -0.2349045 -0.20760864 -0.05745896
0.122450195 -0.12626937 -0.09821744 -0.15383817 0.14512837 0.20873185 0.19790076 0.19438194
-0.063045114 0.6763779 -0.20190302 0.025372678 -0.088711485 -0.09998566 0.012123923 0.14672601
-0.037653584 -0.17363317 -0.15013278 -0.17223874 -0.2595069 -0.11720828 0.15093803 -0.05814093
0.25571516 0.19817227 -0.24979125 -0.21048342 0.10218343 -0.17816591 -0.39400685 -0.20462771
-0.20046838 -0.035096735 0.051770657 -0.029982632 -0.14786555 0.08748111 0.04245382 -0.14831236
0.008501587 0.21438622 -0.018771175 0.1901535 -0.032814037 0.07688507 0.45498583 0.04590988
0.33784246 0.11172572 -0.22787738 -0.13559933 -0.31081796 0.114620976 0.009303301 -0.22147325
0.28939223 0.03291981 -0.03405637 -0.007832438 -0.18581226 0.14565726 -0.029705193 -0.063654944
-0.14984098 0.06292503 0.24128512 -0.07348366 0.15270737 0.22374955 0.08628038 0.019770648
00000000: a471 4a3e b7b8 ed3d 9645 253d 0514 ae3d
00000010: 1676 5e3d 28b6 df3d c23a 453c 17dc 8c3e
00000020: ad16 21be 9d87 a1bd 16a5 dcbc c30b c4bd
00000030: 97aa 54bd bf46 5e3e 40df 0a3e 01c7 593e
00000040: 3ffa 2cbe d02b 89bd b5ee 91be c919 3f3e
00000050: 69ec 60be 3d44 34bd f341 f9bd 5ed4 0d3d
00000060: 4188 ddbc cc16 0ebd 3718 563e 40d0 debc
00000070: d03a 5dbd 6b1c 023d 475a 81be c131 07be
00000080: 58e1 c03c 3f1b 163c c711 96be 54e9 5dbd
00000090: c4cd a03d 5705 703d 1401 ea3d 03d2 c83d
000000a0: 682e 34be 7ab9 05bd a4c5 953b 35ca fdbc
000000b0: 2c3c a2bd 3d90 3e3d 49cc 903e 3a97 103e
000000c0: 21dc b0bd 4948 043c eaaa 6b3e d4ce 0dbe
000000d0: dc51 1abe a19d a3bd 5f8c 0b3e 2a88 8ebe
000000e0: 1d75 1d3e c1bf 78be d53a 1f3e dd1c a8bd
000000f0: 158f 4f3e 95c8 1b3e 991e 2e3d e857 823c
00000100: c890 21bd 5fb0 7ebe 4db2 4abe 8999 60be
00000110: 49aa c63c a973 e1be a364 d63e a5d6 2d3e
00000120: 499f a5be c9f5 5abd b655 bc3d 6572 913d
00000130: 457f 96ba 5add b3bd f3a1 6e3d 6734 2abd
00000140: 2098 a63d 068a 48be ed53 303e 6120 8dbd
00000150: e956 c13d 1aad edbd f3c2 61be d01c 713d
00000160: 8354 8abd a262 cbbc 88e4 4fbe 3d07 af3e
00000170: a94d 9b3d 6010 e53e 5612 de3d b2ea 15be
00000180: f12c 7abe d5a9 43bd 38eb 9dbd 15e2 c2bd
00000190: 5ac2 87bd 8ac9 0d3e a0ca 6f3e 5439 e93d
000001a0: d4a3 2dbe fdf4 dd3d 1e93 a2be 72d8 a73c
000001b0: ddf2 42be 14f9 4ebd f515 da3d 760e d63c
000001c0: 8702 05be 6d88 5ebd fc79 193b 4c10 e93e
000001d0: f415 173d 52e9 1a3e 3613 0bbd 9a98 aa3e
000001e0: 157a 19be 4e58 df3d ad83 733e 179e 1bbe
000001f0: 2940 99bd 6667 6abd 5530 543e 4176 0f3e
00000200: 9f9f 2fbe 4ea4 adbc 444d 473c ac6e 163a
00000210: 16e8 3c3d f72d 3c3e 58d8 673d 2131 483d
00000220: d018 c63d 7228 21be 3f05 3fbe b17f d73c
00000230: 9e14 c03d ef5f 4dbe 1c4c 6d3e 7b14 b6be
00000240: 60e8 ee3b 6efd 6cbd 1220 eabc 9318 a4be
00000250: aa90 893d ee00 17be af3a edbc 5691 5dbe
00000260: de43 9d3c 0f16 b63d 8a38 fb3d 5d61 96bd
00000270: 7ee1 f3b9 2815 07be 45fb 61bc 3e14 c4bd
00000280: c783 633e 2506 80be 4b13 9a3e 5eb7 773d
00000290: c501 92bd cb0b febc 02a8 3a3d f2fb 5a3d
000002a0: 4c01 17bd abd8 b1be 959b 593e ac26 823d
000002b0: 413e 5e3e ffb4 c43e 591b c8bd 57b3 a53e
000002c0: 121d 183e 2f51 a73d f2aa 02bd d50c 2b3b
000002d0: d154 193e ce8a 70be 5c97 54be 165a 6bbd
000002e0: 2bc7 fa3d c24c 01be 3a26 c9bd c187 1dbe
000002f0: 889c 143e cdbd 553e 7fa6 4a3e 0f0c 473e
00000300: cc1d 81bd 1a27 2d3f aabf 4ebe 5dda cf3c
00000310: 5eae b5bd 48c5 ccbd 6ba3 463c 583f 163e
00000320: a53a 1abd e5cc 31be 68bc 19be 5a5f 30be
00000330: 17de 84be e50a f0bd 808f 1a3e 2f25 6ebd
00000340: 19ed 823e aced 4a3e 47c9 7fbe f788 57be
00000350: 8c45 d13d 2071 36be 44bb c9be ed89 51be
00000360: 9547 4dbe 98c1 0fbd 780d 543d 239e f5bc
00000370: 116a 17be 4c29 b33d 0fe4 2d3d 32df 17be
00000380: 3e4a 0b3c 1088 5b3e 02c6 99bc 99b7 423e
00000390: 0368 06bd eb75 9d3d e7f3 e83e 000c 3c3d
000003a0: b0f9 ac3e 74d0 e43d b058 69be 8dda 0abe
000003b0: 8823 9fbe 67be ea3d df6c 183c e2c9 62be
000003c0: 382b 943e ecd6 063d b17e 0bbd a053 00bc
000003d0: 9245 3ebe 2d27 153e 4e58 f3bc 865d 82bd
000003e0: ea6f 19be d7de 803d 7213 773e 9a7e 96bd
000003f0: 525f 1c3e 9a1e 653e c5b3 b03d 0ef6 a13c

base.4linear.bias f4 [50]
0.010817464 -0.101352714 0.057882905 -0.02497186 -0.019356916 -0.05997118 -0.0969901 -0.008085597
0.05778206 -0.01753521 0.05544303 0.09968683 -0.058276772 -0.008548805 0.085772686 -0.09571998
0.04199223 0.07959376 -0.131492 0.121991195 0.03720192 -0.017062303 -0.08006473 0.008591997
0.10552697 0.09716995 0.06995253 0.02978383 -0.09250228 0.050835777 0.04838619 0.07283019
-0.03457936 0.03872164 0.056044575 0.045750875 -0.09157872 0.08548388 -0.0010144621 -0.006526741
0.057658613 0.0074211797 -0.056361776 0.045742128 0.074644014 0.0957547 0.0032213137 -0.093383804
-0.011666833 -0.047851585
00000000: bc3b 313c 0392 cfbd a016 6d3d c991 ccbc
00000010: 6592 9ebc 57a4 75bd bfa2 c6bd 7479 04bc
00000020: e2ac 6c3d 00a6 8fbc 3b18 633d 9c28 cc3d
00000030: a0b3 6ebd 4910 0cbc 97a9 af3d d608 c4bd
00000040: 0b00 2c3d 0e02 a33d d7a5 06be 85d6 f93d
00000050: 0a61 183d 3ec6 8bbc faf8 a3bd 73c5 0c3c
00000060: 861e d83d 0a01 c73d 4643 8f3d 38fd f33c
00000070: d671 bdbd 2d39 503d 9930 463d ff27 953d
00000080: 16a3 0dbd 959a 1e3d ff8e 653d 4565 3b3d
00000090: a08d bbbd 2c12 af3d b3f7 84ba 46de d5bb
000000a0: 702b 6c3d 5e2d f33b 9bdb 66bd 195c 3b3d
000000b0: f6de 983d 0a1b c43d ad1c 533b 0240 bfbd
000000c0: 3f26 3fbc 0600 44bd

base.5linear.weight f4 [50, 50]
-0.14247431 0.034554563 0.013968172 0.2690103 -0.0161086 -0.24346304 0.15810059 -0.1070008
-0.056089673 0.10598144 0.0145516945 0.038457718 0.082329646 -0.23622154 0.214497 -0.4269465
-0.00925492 -0.03211209 -0.24452601 0.019722488 0.08564256 0.07329108 -0.03630128 -0.25272536
0.42380905 -0.24189836 0.073078424 -0.04722074 -0.15612863 -0.46006313 0.010339715 -0.06683579
-0.19473438 -0.13813438 0.017641395 0.07825353 0.17823794 0.1656876 0.045974173 -0.30154243
-0.13049062 -0.0067581064 0.10361983 -0.03817412 -0.008670282 0.13304609 0.37404233 -0.09726379
-0.22158815 -0.027972428 -0.11864126 0.15222493 -0.25021502 -0.06700044 -0.08916931 0.16219875
-0.08359429 -0.08261207 -0.5230492 0.50108945 -0.015489385 -0.21326615 -0.05788639 -0.037129894
0.089662366 -0.012838296 -0.1815288 0.15213051 0.050510783 -0.11224871 -0.18881832 -0.09591133
0.02674623 -0.012443223 -0.0945795 0.22384872 0.44403422 0.1717246 -0.20132643 0.038535338
-0.025339007 -0.14708687 -0.30192506 0.05188233 0.09875489 0.020756822 0.0896077 0.36126617
0.13598296 0.15435222 -0.33372143 0.19106808 0.11478655 -0.15599278 -0.20030247 0.016280113
0.31526762 0.16542062 0.039187778 -0.20962423 0.13878064 -0.04229114 -0.01006338 0.25297964
0.040415235 -0.12997387 -0.12403217 -0.038387083 -0.2373476 -0.057603277 -0.13296616 0.10821346
0.10192277 0.05349793 0.14345498 0.29767618 0.085203215 -0.28270194 0.110357344 -0.027870325
0.012758898 0.29974523 -0.048318394 -0.06104497 0.04196275 0.20840165 -0.043008808 -0.047752224
0.089408986 -0.09810489 0.15493043 -0.07793337 -0.065262154 0.3084768 -0.025928564 -0.02554126
0.05615611 -0.029945398 0.07108118 0.042254604 0.16102125 0.015587931 -0.07815172 -0.19652687
0.02401724 -0.042180482 -0.19359927 -0.05577984 -0.08209962 0.111884095 0.11375786 -0.11254236
0.0057992465 -0.11036086 0.35351172 0.10205689 0.06718252 0.08709892 -0.25481594 0.06687146
-0.3196173 0.048557498 -0.12575209 0.044975802 0.011660268 0.009464175 0.14820792 -0.11217971
0.16605261 -0.03510078 -0.22655867 -0.39344683 0.09850224 -0.32711256 0.3738056 -0.0951527
-0.4010507 0.10012346 -0.009050862 0.02008276 -0.39129668 0.27739623 -0.21099554 0.01344309
-0.053934682 -0.32628784 0.1489426 -0.049785662 0.2540951 0.008060295 0.18262073 0.073979676
-0.22986749 0.5253313 0.031266276 -0.11918513 -0.14949328 -0.04283191 -0.18005727 -0.117039114
0.344047 -0.20392811 -0.029940626 -0.000643206 -0.08733839 -0.135246 -0.53664786 0.022491166
-0.16131508 -0.046062786 0.13064727 0.046479285 -0.04701852 -0.19525631 0.011888702 0.22754543
-0.415826 0.18144576 0.010855747 -0.07576866 0.20063186 -0.221237 0.21526329 -0.38398358
0.14263502 0.06232295 0.051588397 0.13894142 0.19333892 -0.07319481 0.04164434 0.1535091
0.30133808 -0.12120837 -0.021777531 0.2499525 0.12326916 0.11903829 0.15611401 -0.11052913
-0.12321332 0.028781563 0.07750415 0.19932507 -0.15521212 0.07739591 0.048059557 0.32703012
-0.013126876 0.051057983 -0.01336596 -0.0053157196 -0.1796411 0.041498814 0.19019845 0.13725483
00000000: c9e4 11be 1689 0d3d c2da 643c b8bb 893e
00000010: 2ff6 83bc 604e 79be 1fe5 213e 3c23 dbbd
00000020: 49be 65bd cc0c d93d 3b6a 6e3c d785 1d3d
00000030: 729c a83d 0fe4 71be 1aa5 5b3e bb98 dabe
00000040: f3a1 17bc f887 03bd 0765 7abe 0e91 a13c
00000050: 5e65 af3d a219 963d a7b0 14bd 3865 81be
00000060: 80fd d83e 34b4 77be 24aa 953d 896a 41bd
00000070: 2fe0 1fbe 658d ebbe e867 293c 34e1 88bd
00000080: 7368 47be 1973 0dbe b084 903c 6343 a03d
00000090: 0284 363e 03aa 293e 6a4f 3c3d c563 9abe
000000a0: 559f 05be 1b73 ddbb a236 d43d 775c 1cbd
000000b0: cc0d 0ebc 3c3d 083e 7a82 bf3e 3d32 c7bd
000000c0: 01e8 62be 6f26 e5bc 30fa f2bd dae0 1b3e
000000d0: 2f1c 80be 8737 89bd 669e b6bd 6e17 263e
000000e0: 7c33 abbd 8430 a9bd 8de6 05bf 6647 003f
000000f0: 31c7 7dbc 7162 5abe 471a 6dbd 8415 18bd
00000100: e7a0 b73d b757 52bc b0e2 39be 1ac8 1b3e
00000110: 65e4 4e3d a7e2 e5bd 9759 41be 296d c4bd
00000120: e91a db3c a9de 4bbc e6b2 c1bd 9938 653e
00000130: 7458 e33e 93d8 2f3e 8428 4ebe 3bd7 1d3d
00000140: c093 cfbc f19d 16be ec95 9abe 9182 543d
00000150: 0140 ca3d 360a aa3c 3e84 b73d e1f7 b83e
00000160: 1e3f 0b3e 820e 1e3e 89dd aabe 5aa7 433e
00000170: 3615 eb3d 92bc 1fbe 171c 4dbe df5d 853c
00000180: c26a a13e 0664 293e 5d83 203d bca7 56be
00000190: 831c 0e3e 7939 2dbd e0e0 24bc 8c86 813e
000001a0: 728a 253d df17 05be 9404 febd c63b 1dbd
000001b0: 400b 73be 6af1 6bbd 4828 08be 059f dd3d
000001c0: e3bc d03d a520 5b3d dde5 123e 0369 983e
000001d0: 067f ae3d 4fbe 90be 0803 e23d 4f50 e4bc
000001e0: b20a 513c 3578 993e 82e9 45bd 4a0a 7abd
000001f0: 22e1 2b3d 3e67 553e 012a 30bd d697 43bd
00000200: 0f1c b73d 37eb c8bd 15a6 1e3e 889b 9fbd
00000210: 2aa8 85bd acf0 9d3e 2468 d4bc e83b d1bc
00000220: f303 663d 0d50 f5bc 0293 913d 2a13 2d3d
00000230: c1e2 243e 8564 7f3c 020e a0bd 573e 49be
00000240: cebf c43c 71c5 2cbd e33e 46be 6779 64bd
00000250: d823 a8bd 7d23 e53d e2f9 e83d 9c7c e6bd
00000260: 9b07 be3b e004 e2bd 7dff b43e 3403 d13d
00000270: fd96 893d eb60 b23d 3c77 82be e7f3 883d
00000280: e1a4 a3be 3ae4 463d 28c5 00be 8c38 383d
00000290: b50a 3f3c a10f 1b3c d1c3 173e 7abe e5bd
000002a0: b209 2a3e d6c5 0fbd fffe 67be dd71 c9be
000002b0: 8bbb c93d 4c7b a7be 7363 bf3e 6bdf c2bd
000002c0: 8456 cdbe 870d cd3d 114a 14bc 9a84 a43c
000002d0: 0a58 c8be e106 8e3e 370f 58be 6840 5c3c
000002e0: 9dea 5cbd 330f a7be 6984 183e 0dec 4bbd
000002f0: c118 823e 540f 043c ee00 3b3e a882 973d
00000300: 6262 6bbe 1d7c 063f 1111 003d 5517 f4bd
00000310: c414 19be 8370 2fbd ef60 38be 34b2 efbd
00000320: ee26 b03e 88d2 50be 0b46 f5bc d39c 28ba
00000330: 78de b2bd ed7d 0abe c161 09bf 653f b83c
00000340: c82f 25be 55ac 3cbd 66c8 053e 1061 3e3d
00000350: 7e96 40bd 45f1 47be d5c8 423c ab01 693e
00000360: 25e7 d4be ebcc 393e 4edc 313c 992c 9bbd
00000370: 7072 4d3e f48b 62be fb6d 5c3e 7f99 c4be
00000380: ea0e 123e 5a46 7f3d 5b4e 533d a946 0e3e
00000390: a3fa 453e 29e7 95bd 4193 2a3d 7d31 1d3e
000003a0: fc48 9a3e 183c f8bd cb66 b2bc 8cf3 7f3e
000003b0: 8b74 fc3d 59ca f33d 5adc 1f3e 195d e2bd
000003c0: 4457 fcbd 50c7 eb3c 7fba 9e3d df1b 4c3e
000003d0: edef 1ebe bf81 9e3d 19da 443d 7e70 a73e
000003e0: 1c12 57bc 2d22 513d e6fc 5abc 7d2f aebb
000003f0: d6f3 37be a9fa 293d 62c3 423e 888c 0c3e

base.5linear.bias f4 [50]
0.10493892 -0.006785008 0.007201561 -0.06479154 0.029755872 -0.056437124 -0.011836792 0.016118053
-0.028002623 -0.021592094 -0.018450588 0.046568464 -0.014122243 0.089252755 -0.0956077 0.025055224
-0.005118819 0.0958782 0.021185508 -0.13422543 -0.038503863 0.0637091 -0.0034374518 0.010060241
0.11426421 0.060937967 -0.027606722 -0.0593833 -0.061990455 -0.0729909 0.085010156 0.053951986
-0.03727495 -0.12677494 -0.013572404 -0.013221183 -0.011876583 0.0021648998 0.06271201 0.031802706
-0.06713116 -0.018043824 0.029901588 -0.0663196 0.09663036 -0.018770447 0.110640235 -0.1057068
0.16874139 -0.16936187
00000000: 37ea d63d c654 debb 12fb eb3b 6db1 84bd
00000010: 96c2 f33c 9d2a 67bd 1bef 41bc 020a 843c
00000020: c265 e5bc e7e1 b0bc b025 97bc 93be 3e3d
00000030: fb60 67bc 26ca b63d f8cd c3bd 9d40 cd3c
00000040: c4bb a7bb ca5b c43d 3b8d ad3c 6472 09be
00000050: 3ab6 1dbd eb79 823d df46 61bb b6d3 243c
00000060: 5b03 ea3d 179a 793d 7e27 e2bc e73b 73bd
00000070: b4e9 7dbd 417c 95bd ce19 ae3d c2fc 5c3d
00000080: 9ead 18bd 4ad1 01be ca5e 5ebc a99d 58bc
00000090: 0096 42bc fee0 0d3b 286f 803d 8e43 023d
000000a0: 107c 89bd a4d0 93bc 2df4 f43c 92d2 87bd
000000b0: 23e6 c53d 7bc4 99bc 5997 e23d cf7c d8bd
000000c0: 8bca 2c3e 336d 2dbe

base.6linear.weight f4 [50, 50]
-0.2710369 0.08088269 0.022222882 -0.17538515 0.19945878 0.043228883 -0.0542291 0.29726693
0.010846252 0.04199029 -0.1513247 0.00653991 -0.10568572 0.010627742 -0.00846485 -0.026439795
-0.1957325 -0.043705825 -0.022280969 -0.005097387 -0.09266015 -0.18308651 -0.35543633 0.14341249
0.43481132 0.19902931 0.059789356 0.1896706 -0.49626115 0.13781549 -0.054271474 -0.047475684
-0.26640853 -0.04557934 -0.21741335 0.06943124 0.1536955 0.16995858 0.32733878 0.054966517
-0.034796186 0.06160771 -0.049935237 0.0637452 -0.30172673 -0.13976404 0.19572568 -0.1962715
-0.28174588 0.30507785 -0.28732 0.15483001 0.2693139 0.030719748 0.15319893 -0.08282092
0.14176533 0.2656938 -0.088533685 0.3059236 -0.095783755 0.55016416 -0.051834818 0.09617061
-0.16028501 -0.062454432 0.00028991996 -0.119791836 -0.3008331 0.01142507 0.11142265 0.12100672
-0.24331938 -0.29805472 0.2912024 0.07394016 0.116049595 0.28580904 0.1486676 0.00020814329
-0.36120307 0.13451399 -0.2398843 -0.028686924 -0.121256985 -0.10468962 0.2851789 0.014246475
-0.0808663 -0.30762756 0.19741102 -0.29479367 -0.123888835 -0.056862567 0.058011 -0.00815546
-0.2324773 0.092665985 -0.07013744 0.13933335 -0.04289831 -0.30402124 -0.13226344 -0.07582329
-0.3313771 0.2761312 0.26672193 0.12095405 0.06974279 -0.4464395 -0.010782678 -0.06397333
0.5059189 -0.016952999 0.2999084 -0.15832128 -0.27996337 0.13005672 0.06482279 0.14564317
0.13770469 -0.07664201 -0.24010167 -0.11555589 -0.096979596 0.03361039 0.12188388 -0.02421473
0.103781305 0.08179473 -0.08798726 -0.38533133 0.101603 0.42480177 -0.1642434 -0.2592215
-0.37732136 0.31617612 0.17529267 -0.19803552 0.13066976 -0.025286922 -0.11605868 0.25137573
0.00273815 0.05185419 -0.1396274 0.0284519 -0.09019665 0.011851178 -0.2729358 -0.16968149
-0.16794667 0.13948117 0.5386394 0.4412919 -0.021617409 -0.048633736 0.20570587 -0.038528673
-0.38400006 -0.23905244 0.70066744 -0.3532844 0.6938523 -0.21345071 -0.03775754 0.14280848
-0.33018127 0.17982978 -0.34334633 0.10263627 -0.16452377 0.3093287 -0.07260589 -0.5667887
-0.18624093 0.1623312 0.26232633 -0.18628268 -0.2519121 0.05202093 0.024800554 -0.11012584
0.1179962 -0.4929057 0.24956575 0.08473298 -0.5037525 -0.2768292 -0.15690279 -0.028439488
0.7555474 0.1790226 0.0027548184 0.10505377 -0.0019521002 -0.027262973 0.07909627 0.36948955
-0.054201923 0.045426868 -0.28781277 -0.33886728 -0.06352727 -0.17939065 -0.0319976 -0.2412325
0.023034608 -0.25068212 0.58237517 -0.07983625 -0.21472234 0.09793636 -0.4623693 0.15918034
0.11443257 -0.004892531 0.02524903 -0.031717636 0.07701499 0.41828918 0.170806 0.03716224
0.0020895547 -0.119203396 0.2950011 -0.47809222 -0.1511744 -0.053183243 -0.11695259 -0.110424116
-0.035297807 -0.37455294 -0.17826933 0.44835562 -0.43388608 0.016298976 -0.09412694 -0.03366576
0.262959 0.1331109 -0.38090283 0.19917567 -0.3473409 -0.23995025 0.39899722 -0.04368353
0.040416613 -0.114699654 -0.016168024 -0.2369678 0.04589183 -0.24818891 -0.08381029 0.16413768
00000000: 59c5 8abe d3a5 a53d c30c b63c 2a98 33be
00000010: ec3e 4c3e c510 313d 551f 5ebd 5f33 983e
00000020: 7ab4 313c 03fe 2b3d ddf4 1abe be4c d63b
00000030: c171 d8bd fb1f 2e3c 27b0 0abc 4598 d8bc
00000040: 1a6e 48be e104 33bd 9486 b6bc fb07 a7bb
00000050: 9bc4 bdbd 087b 3bbe c0fb b5be b9da 123e
00000060: 979f de3e 57ce 4b3e afe5 743d 0339 423e
00000070: f115 febe 811f 0d3e c44b 5ebd dd75 42bd
00000080: b366 88be 67b1 3abd 9ba1 5ebe f731 8e3d
00000090: 5a62 1d3e 9f09 2e3e f398 a73e 9224 613d
000000a0: 7286 0ebd 5e58 7c3d e488 4cbd d88c 823d
000000b0: ed7b 9abe 4e1e 0fbe 506c 483e 65fb 48be
000000c0: ff40 90be 2a33 9c3e 9b1b 93be c28b 1e3e
000000d0: 83e3 893e fba7 fb3c 2ee0 1c3e 049e a9bd
000000e0: ee2a 113e 0509 883e 2651 b5bd 05a2 9c3e
000000f0: 462a c4bd 8fd7 0c3f bf50 54bd 19f5 c43d
00000100: c121 24be 38d0 7fbd 6600 9839 6c55 f5bd
00000110: cc06 9abe 3830 3b3c 8f31 e43d 5fd2 f73d
00000120: b728 79be a19a 98be 7b18 953e f06d 973d
00000130: 69ab ed3d 9055 923e 523c 183e 0a41 5a39
00000140: 9cef b8be 09be 093e 3ba4 75be d700 ebbc
00000150: 9555 f8bd 8367 d6bd f802 923e 0c6a 693c
00000160: 3b9d a5bd 5c81 9dbe 1d26 4a3e 32ef 96be
00000170: 6eb9 fdbd b9e8 68bd f19c 6d3d 7a9e 05bc
00000180: 880e 6ebe aac7 bd3d 38a4 8fbd 67ad 0e3e
00000190: 23b6 2fbd aca8 9bbe 1170 07be 3e49 9bbd
000001a0: 42aa a9be 1261 8d3e c78f 883e c2b6 f73d
000001b0: 4fd5 8e3d b893 e4be d4a9 30bc 7304 83bd
000001c0: e783 013f 04e1 8abc 988d 993e f91e 22be
000001d0: 5c57 8fbe 972d 053e d0c1 843d 7c23 153e
000001e0: 7502 0d3e 7cf6 9cbd 36dd 75be 91a8 ecbd
000001f0: 3d9d c6bd 0cab 093d 419e f93d f85d c6bc
00000200: 4b8b d43d ff83 a73d aa32 b4bd 264a c5be
00000210: 3c15 d03d 9e7f d93e 6c2f 28be aeb8 84be
00000220: 4430 c1be d6e1 a13e ec7f 333e d3c9 4abe
00000230: 4bce 053e 8526 cfbc 2cb0 edbd 52b4 803e
00000240: 8972 333b 0f65 543d 7cfa 0ebe f613 e93c
00000250: 05b9 b8bd 712b 423c 3ebe 8bbe fcc0 2dbe
00000260: 36fa 2bbe 27d4 0e3e 46e4 093f 03f1 e13e
00000270: fe16 b1bc 2b34 47bd 8fa4 523e 3ed0 1dbd
00000280: a89b c4be 2aca 74be f15e 333f b1e1 b4be
00000290: 4ea0 313f d392 5abe a6a7 1abd 633c 123e
000002a0: 850d a9be 4c25 383e 17cb afbe f732 d23d
000002b0: eb78 28be 5560 9e3e 66b2 94bd 1019 11bf
000002c0: f1b5 3ebe 263a 263e a34f 863e e3c0 3ebe
000002d0: 9ffa 80be e613 553d 882a cb3c a889 e1bd
000002e0: fea7 f13d 235e fcbe 2a8e 7f3e 7c88 ad3d
000002f0: edf5 00bf 8fbc 8dbe 20ab 20be eef9 e8bc
00000300: 8e6b 413f b351 373e 2f8a 343b 6e26 d73d
00000310: 9ddd ffba 9956 dfbc 3afd a13d bc2d bd3e
00000320: d602 5ebd 8611 3a3d 325c 93be 0380 adbe
00000330: 961a 82bd 2fb2 37be ea0f 03bd a705 77be
00000340: 13b3 bc3c 6859 80be 8a16 153f 3081 a3bd
00000350: 2ce0 5bbe dc92 c83d abbb ecbe 2c00 233e
00000360: a05b ea3d 8651 a0bb 0ed7 ce3c 5aea 01bd
00000370: 09ba 9d3d 002a d63e c5e7 2e3e 6f37 183d
00000380: e9f0 083b e920 f4bd 620a 973e 81c8 f4be
00000390: 76cd 1abe acd6 59bd d784 efbd 0a26 e2bd
000003a0: 6f94 10bd 67c5 bfbe 3c8c 36be de8e e53e
000003b0: 5126 debe 6e85 853c a0c5 c0bd 1ce5 09bd
000003c0: 90a2 863e 394e 083e b205 c3be b5f4 4b3e
000003d0: abd6 b1be 85b5 75be 5d49 cc3e 80ed 32bd
000003e0: e48b 253d a7e7 eabd ce72 84bc b0a7 72be
000003f0: 12f9 3b3d 3c25 7ebe bba4 abbd b513 283e

base.6linear.bias f4 [50]
0.03879297 0.0045480626 -0.07891337 -0.31595072 0.27334553 -0.018311566 -0.003038677 0.03199448
0.012125807 0.031586487 -0.026093056 0.08767058 -0.060385097 0.013545687 0.030116815 -0.020859133
-0.034286737 -0.11577548 -0.0501533 0.042022638 0.047637314 -0.013082334 -0.011337455 -0.009727805
0.015380791 0.10760132 0.08055354 0.047750946 -0.022662831 -0.095054 0.030290075 -0.0020637112
-0.045934316 -0.07758714 0.12801212 0.11341216 -0.05355125 0.008916872 0.089454845 0.013645238
-0.09257048 0.0020033186 -0.022131069 -0.073623896 0.076209046 -0.036066845 -0.019522257 -0.036625713
-0.044535145 0.07557735
00000000: 61e5 1e3d ea07 953b 559d a1bd 4bc4 a1be
00000010: f2f3 8b3e 2302 96bc 8a24 47bb a50c 033d
00000020: 52ab 463c d560 013d 1bc1 d5bc a28c b33d
00000030: 5d56 77bd bbee 5d3c 8ab7 f63c c6e0 aabc
00000040: 4070 0cbd b21b edbd 8c6d 4dbd ee1f 2c3d
00000050: 581f 433d 4957 56bc bcc0 39bc 5f61 1fbc
00000060: b7ff 7b3c 155e dc3d 41f9 a43d 7f96 433d
00000070: 67a7 b9bc acab c2bd e422 f83c 543f 07bb
00000080: 9f25 3cbd 02e6 9ebd 9c15 033e a244 e83d
00000090: 8e58 5bbd 1218 123c 1a34 b73d 4790 5f3c
000000a0: 9895 bdbd 1c4a 033b 374c b5bc 20c8 96bd
000000b0: 7d13 9c3d d4ba 13bd 24ed 9fbc d804 16bd
000000c0: 7c6a 36bd 4cc8 9a3d
