STPINN-NS/sub_data/sub_write/16NS_model_train.pt (torch, 100091 bytes, 22 tensors)

base.0linear.weight f4 [50, 3]
00000000: 6532 2e39 0b0a d239 cd74 71b8 b047 6d3e
00000010: 8aa1 2a3e d38c 0dbe 2778 87bd 5159 403e
00000020: a1f2 02be f0de 8039 6a3a 39b9 6381 6bb9
00000030: 0bcb 5bbc b8ae a13d 9358 ad3e c1e6 6a3c
00000040: 462f 363e 44ee 9abe b0d1 a9be 1071 303e
00000050: 8a86 a53e 70c1 60b7 a6d5 03b8 8ac4 4338
00000060: 2046 6639 0b69 1d39 b502 97b8 35b2 ddbd
00000070: 55f6 a9bc 1179 2ebe f414 d33d 2b5c 94bd
00000080: fb6e 6ebe d21c 49be 248d c33d 58b9 01be
00000090: 1be0 9cbe 5bfe 653e fdd5 043e 999a cfbd
000000a0: ac63 f0bd 3e55 9f3b cecb 44be 5484 3a3e
000000b0: d3f6 4a3e e48d 80bc 5f74 df3d dd3b c7be
000000c0: b4d0 8aba 9e63 4bbd 7c54 c4bd 4ded c83e
000000d0: ac06 33be 2059 88be 607c 983d d747 5cbe
000000e0: b12d f7bd 22d0 623e ae74 86bd add9 143e
000000f0: a41a c9bd 3e45 72be f177 493e 3e05 5a3d
00000100: e242 2b3e f9b3 2a3d 7cc6 30bf 95ed 97be
00000110: 2c7e 7bbe 6f4c a0bd ef65 ab3c f80c 423e
00000120: b395 3bba 0d14 5e39 4af3 14ba 5a83 0f3e
00000130: 9bf5 2e3e 074c cd3d dde4 a63c e082 193e
00000140: e412 5b3e 5c0e a23e d524 083d 5bd7 8fbc
00000150: ae2f 01be 577f d83d ce53 583e e203 d23b
00000160: 5319 183e 96de 06be 2347 a7be 1346 093e
00000170: 48cc 593e 5235 87be 78d5 a33e adfa f1bd
00000180: 9841 11be 268a 093e e1d4 07bd 6611 503d
00000190: 4aba 70bc 3fea 473e 667a b63e ed34 6b3d
000001a0: fe0a 96be ef4e 0dbe 3463 b4be 5c14 483d
000001b0: 2399 3fbe 8ea4 84ba d370 0a3f e641 903d
000001c0: 7a34 41be 6d75 603c 378d 85bd ed79 60be
000001d0: 4781 6b3e aa5a 9abd c111 d8be 3dd6 9e3e
000001e0: 60e1 823e 2a89 823e 8f97 b4be 6ebb abbd
000001f0: 2319 8c3e 4d93 e23c 4442 903c 0315 f03c
00000200: 348c 3dbe aaa1 a0bc aef6 523e 68e6 69be
00000210: 9b85 66be 1de3 533e b643 013e f3c8 67b9
00000220: 740d d7b9 ea1d e0ba 7f9f 4b3e e73f 14be
00000230: c769 84be 0a7d aabd 097c 36be 95d3 1f3d
00000240: fe79 143a 7be5 2a3a 1b14 4b39 284f 38b8
00000250: a4e9 c9b9 86d6 e5b6
0.00016612707 0.00040061804 -5.7567657e-05 0.23171878 0.16663185 -0.13823251 -0.06614714 0.18784072
-0.12787868 0.00024580164 -0.00017664736 -0.00022459547 -0.013415108 0.07894653 0.3385664 0.014337243
0.17791471 -0.30259907 -0.3316779 0.1723063 0.32329208 -1.3396479e-05 -3.143181e-05 4.6674664e-05
0.00021960633 0.00015011818 -7.200745e-05 -0.10825006 -0.020747343 -0.1703837 0.10306731 -0.07244142
-0.23284523 -0.196399 0.09548405 -0.1266836 -0.3063973 0.2246031 0.12972255 -0.10136909
-0.11737761 0.0048624566 -0.1921837 0.18214542 0.19820718 -0.015692659 0.10910868 -0.3891286
-0.0010590763 -0.04965555 -0.095864266 0.39243546 -0.17483014 -0.26630497 0.07445598 -0.2151178
-0.12069262 0.22149709 -0.06565224 0.14536162 -0.098195344 -0.23659226 0.1967466 0.053227656
0.16724733 0.04167554 -0.69052863 -0.29673448 -0.2455985 -0.078270786 0.02092263 0.1895026
-0.0007155791 0.0002117904 -0.0005682005 0.1401495 0.17085879 0.10024267 0.020372802 0.14991331
0.21393925 0.3165158 0.03323825 -0.017558744 -0.12615845 0.10571163 0.21125719 0.0064091543
0.1485341 -0.13170847 -0.3267146 0.13405637 0.21269333 -0.26407868 0.319988 -0.11815391
-0.14185178 0.13431606 -0.033162 0.050797842 -0.014692852 0.19522952 0.35640258 0.05742352
-0.2930526 -0.13799642 -0.35231936 0.04884754 -0.18710761 -0.0010119842 0.54078406 0.07043819
-0.18867674 0.0136998715 -0.06521075 -0.21921511 0.22998534 -0.07536824 -0.42201045 0.31022826
0.25562572 0.25495273 -0.3527188 -0.08385359 0.27362928 0.02765813 0.017609723 0.029306894
-0.18510514 -0.019608337 0.20601913 -0.228418 -0.22511904 0.20692106 0.12623486 -0.00022104736
-0.0004101802 -0.0017098759 0.19885062 -0.14477502 -0.25861952 -0.083246306 -0.17820753 0.03902014
0.000566393 0.00065191806 0.00019367078 -4.394274e-05 -0.00038511783 -6.8497056e-06

base.0linear.bias f4 [50]
00000000: d5d0 deb9 b4f6 24be 88aa a0bd df93 1a39
00000010: d8af 3fbe 4527 cebb 06b9 08be 4fc3 b238
00000020: b9b7 2fb9 f980 223e 2bc8 dd3d 5850 9e3d
00000030: 30ff 12be 32fd 183e d27d 0abe 61bc d8bd
00000040: 08b2 c43d 1547 313d c709 3d3e df07 31be
00000050: 8e12 333e 187c 41be 074a eb3d 6a50 90bd
00000060: d566 13b8 672f 73be 0988 3bbe 5a2d 07be
00000070: 39e6 02be e49a 98bd cc3e cfbd ed5c c9bd
00000080: 87d4 0ebd baa0 b3bd 8561 433d 5219 893e
00000090: c6ea 1f3d 8828 0f3d f623 b73d c54f 613e
000000a0: f001 28be 16a0 3dbe d5c2 723d a2e6 91bd
000000b0: 0b42 0fbe df30 6a3a 5aed 003e 4b4c 353e
000000c0: 3b8e 2cba 7cf1 5f39
-0.00042498732 -0.16109735 -0.07845026 0.00014741671 -0.18719423 -0.0062913024 -0.13351831 8.5240805e-05
-0.00016757743 0.15869512 0.10829195 0.07730168 -0.14355159 0.14940336 -0.13524559 -0.105828054
0.09604269 0.04328068 0.18460761 -0.17288159 0.17487547 -0.18894994 0.11488729 -0.07046588
-3.51433e-05 -0.23748551 -0.18313612 -0.13200894 -0.12783135 -0.07451418 -0.101193994 -0.09832177
-0.03487065 -0.087708905 0.047700424 0.2677713 0.039042257 0.034950763 0.08942406 0.22003086
-0.16406989 -0.18518099 0.059267838 -0.07124068 -0.13990037 0.0008933674 0.12590542 0.17704885
-0.0006582473 0.00021356897

base.1linear.weight f4 [50, 50]
00000000: 685c d3ba 9b15 103e b56e 743c 8a36 be39
00000010: 0cad e03d f094 75bc 789a 123f 4119 e8bc
00000020: 45b1 26bc 4975 d43c 4530 7dbd b7ca 383e
00000030: 375b d33e 07ec edbc 04b1 e73d f7d6 4c3e
00000040: 3ae9 b93d 4d79 91bd 2441 44be 8a19 ab3d
00000050: 4ed2 04be d693 f5bd 621c 26be 6b4b a9be
00000060: 4f43 88bd a157 753e f0f6 3dbd 6808 07bf
00000070: 33be 2b39 cf3b 6f3e 59f2 a33e a4e3 703e
00000080: 4f19 36bd f88d 89bc 1b77 c2be 464c 97be
00000090: b4e5 e1bc 1c36 74be 839a 6f3d 5f86 48be
000000a0: cd70 fabc 7a92 f63d 4693 bf3d 1a62 cf3d
000000b0: af71 413e 4214 f63c a850 8cbe 9505 db3d
000000c0: 0bd2 93bc eb8f 1f3d 3b10 12be ebcd 513d
000000d0: 6b6b 13be 045c 40bd f0d7 5fbe 33eb 82bd
000000e0: 4670 f2bd 6b7d 27bd b86a ff3d e40b fe3c
000000f0: 1ac0 7ebe f902 123e 9e59 353e 2210 7d3e
00000100: 14f9 813e e5b2 3e3d 55da bbbb 597b ee3b
00000110: c41d ce3d 4a78 c83d 6581 10be b083 bb3c
00000120: d6b2 84be 81f3 b73d 47eb 8b3d c29e 883d
00000130: e513 e13c cef8 3a3e c834 ab3c b9c8 73be
00000140: 8ed8 c93d 403e 413e 2807 5b3e debb 3cbe
00000150: dac8 bcbd 1780 23bd eb6c c6bc be97 64bc
00000160: 7a4e e1bd 854a 8ebe 654c 33bd aa9e 88bd
00000170: 082d 2abe cffe fabc c096 e7bd a775 8a3c
00000180: e1dd 9d3d 282f 943e 7e8b 29bd d2f4 1c3e
00000190: 3af7 96bd 6e04 d3bd d950 77be c31f 863c
000001a0: c1b3 38bd 7468 b0bd 4711 6abe 392a 74bc
000001b0: a14b 3f3c 25e3 e93d 3ca6 153d e3ed 2ebe
000001c0: c825 02bf 58f7 df3d c73b 97be 8091 0dbe
000001d0: 95c3 1b3d f0a8 283e 70b8 b83e b776 2fbe
000001e0: 2365 9c3d d74a fdbd 2f52 9abe 86ef 10bb
000001f0: 0368 933b ff89 8a3d 219b d73c 2283 983e
00000200: 767e 393e e1df 01be 0711 adbe 1e5a 92be
00000210: 6236 83ba b2d6 233e 4da9 0d3e 33b8 ba3d
00000220: 2de7 d63d cf9c e8bd ba0a 1e3e 7830 8b3e
00000230: 52af 79be e229 cbbe 629e a9be 4ccd e43d
00000240: b1ea 93bd 7bb6 e73d d90c 223e 7cad 613e
00000250: 4d3b bfbd b778 683d 5a3a 52bb f52a 173d
00000260: 82f8 343e 4054 59bd 161e 3abe 6657 bd3c
00000270: a3d6 1cbd 9294 873d defd cebd 884e be3d
00000280: b64c 7abd 5ca7 523e 0859 ab3d 996f 163e
00000290: 9717 1f3d 88bb c6bd 8636 00be 792c 783d
000002a0: 58d4 8b3d 28fb 01be 09af 62be f5d0 9e3e
000002b0: 9fa0 a4bc 5145 403d c932 babd cef0 8b3d
000002c0: e65e bb3d 4396 0d3d c4d3 9ebe 1dda a93d
000002d0: 3221 0cbe d99e 1b3e 4110 8f3d ea79 883e
000002e0: 3998 10be 6cfa 8ebc 2c59 2abd 2747 6fbe
000002f0: 98f7 04be dca1 62bd fc2e d83e 7f72 90bd
00000300: d185 49be 1d50 e9bd 3da8 403e ef75 3dbd
00000310: 759c 993c e019 923e 7618 2bbb e299 08be
00000320: 8dc9 d9bd 95b2 97bd 90c1 05be 98d6 61bd
00000330: b507 553e dfbf 5d3e 044c 67bd cebd cbbc
00000340: 484e e2b9 2ecf 11bc d91a cfbd 10da 38bd
00000350: 8bd1 d23e a613 3c3d 584c 523e de40 623e
00000360: 2419 7a3d ad3a 0fbe 3c8d 4dbe eab1 0238
00000370: c560 843e 78ac 0f3c e603 cfbd d1da 543e
00000380: 305c f33d d1d4 7cbe 8ed7 25be c768 3bbd
00000390: b837 5cbc 3b60 553e 655d 263e bbdc 373e
000003a0: 01c2 163e eddf cdbd 412d f33c b802 aabe
000003b0: 4a80 383d b212 123e 6be9 9dbe bc12 b9be
000003c0: 0247 ac3d df93 0d3e 5846 be3c 29e8 773e
000003d0: 370c b93e 86dc d73c 639c 72be 664d 49be
000003e0: 7a30 66bd bbde 213d 5230 d33c c70b 4dbe
000003f0: 5fbf 67bd 16fd d0bd a99e 183d 69df 9d3d
-0.0016125562 0.14070742 0.014918973 0.0003628026 0.10970506 -0.014989123 0.5726695 -0.028332355
-0.0101741 0.025934832 -0.06181361 0.1804608 0.4128053 -0.02904321 0.1131306 0.20003878
0.090776876 -0.071032144 -0.19165474 0.083544806 -0.1297085 -0.11991088 -0.16221765 -0.33065352
-0.06653463 0.23959209 -0.046378076 -0.527472 0.00016378686 0.23362659 0.32020834 0.23524338
-0.04445773 -0.016791329 -0.37981495 -0.2955038 -0.027575351 -0.23848766 0.058496963 -0.19582509
-0.030571366 0.12039657 0.09354262 0.10126133 0.18891023 0.030038957 -0.27405286 0.10694424
-0.018044492 0.03895561 -0.14264004 0.05122177 -0.14396445 -0.046962753 -0.21859717 -0.06392517
-0.11837821 -0.040891092 0.12471527 0.03101153 -0.24877968 0.14258946 0.17709967 0.24713185
0.25385344 0.046557326 -0.0057328143 0.007277888 0.10064271 0.09788568 -0.1411186 0.022889942
-0.2591769 0.089819916 0.06831985 0.06670906 0.027475307 0.18258974 0.020899191 -0.23807038
0.09855758 0.18871403 0.21389449 -0.1843104 -0.09217997 -0.039917078 -0.024221858 -0.013952194
-0.11001296 -0.2779123 -0.043774027 -0.06670888 -0.1661874 -0.03063908 -0.1130805 0.016901804
0.07708336 0.28942227 -0.041392796 0.15327767 -0.073713735 -0.10303579 -0.24151935 0.016372567
-0.0450933 -0.08613673 -0.22858153 -0.014902645 0.011675746 0.114202775 0.036535487 -0.17082934
-0.508389 0.10935849 -0.29537794 -0.13825035 0.03802832 0.16470695 0.36078215 -0.1713513
0.07636478 -0.1236779 -0.30140826 -0.0022115423 0.004498483 0.06764602 0.026319088 0.29787546
0.18114647 -0.1268306 -0.33802053 -0.2858438 -0.0010010714 0.15999869 0.13834114 0.091171645
0.10493312 -0.11358034 0.1543378 0.27185416 -0.24383286 -0.39680392 -0.3312865 0.1117197
-0.07222498 0.11314102 0.15825213 0.22038835 -0.093374826 0.056755748 -0.0032078237 0.0369062
0.17672923 -0.053058863 -0.1817554 0.023112964 -0.03829063 0.066201344 -0.10107015 0.092923224
-0.061108314 0.20571655 0.08366591 0.14691009 0.038840856 -0.097037375 -0.12520799 0.060589287
0.06827611 -0.12693465 -0.22137083 0.31018797 -0.020096121 0.046941105 -0.09091718 0.06833039
0.0914896 0.03456713 -0.3102094 0.08293555 -0.13684538 0.15197314 0.06985522 0.26655513
-0.14120568 -0.017453395 -0.041588947 -0.23366986 -0.12985075 -0.055330142 0.42223346 -0.070530884
-0.19679953 -0.113922335 0.18814178 -0.04625505 0.018751362 0.28535366 -0.002610711 -0.13339952
-0.10634146 -0.07407109 -0.1306212 -0.055136293 0.20803721 0.21655224 -0.05646898 -0.02487078
-0.00043164403 -0.008899493 -0.10112543 -0.045129836 0.41175494 0.045917176 0.20536935 0.22095057
0.061059132 -0.13987227 -0.20073408 3.116011e-05 0.2585508 0.008769147 -0.101081654 0.20786597
0.11882818 -0.24690558 -0.16195509 -0.04575422 -0.013441019 0.2083749 0.16246565 0.17955296
0.14722444 -0.10052476 0.029684665 -0.332052 0.04504422 0.14264944 -0.30842146 -0.36147106
0.08411981 0.1382594 0.023226902 0.24209656 0.36142132 0.026350271 -0.2369247 -0.19658431
-0.056198575 0.039519053 0.025779877 -0.20024024 -0.05657899 -0.10204522 0.037260685 0.07708628

base.1linear.bias f4 [50]
00000000: 32dc 00be 9432 ffbd 5934 f73d 2b58 98bd
00000010: 45e6 e0bd 1c63 1dbd d5d4 f03d 1954 583d
00000020: 259b ee3c bed6 afbd 7d40 75bd dded f03d
00000030: 5d1d 4dbc 8a40 b8bd 825d d93c dd5f 5f3d
00000040: a3d4 a33c 8535 60ba e6e8 d7bd 31e8 77bd
00000050: e3f3 12be 4c63 aebb 82ef 0ebb e82c 1c3e
00000060: f77b e3bd c596 d53d a1d1 4a3d 76ba afbc
00000070: 5979 cbbd e0b4 973c 488f 3c3e 0b9e 223e
00000080: c46d 1ebe e848 f13d c5b5 a83d a6a7 35be
00000090: 14ae 24be 7d4e a2bc 7a73 d1bd d80e 9fbd
000000a0: 4285 80bd 20bb 2c3e cb62 fa3d 72de bd3d
000000b0: 19a5 8fbd 9c82 c7bc 3549 ff3c a181 2e3d
000000c0: ed56 973d f027 9e3c
-0.12583998 -0.12460819 0.120705314 -0.07438692 -0.109814204 -0.038424596 0.117593445 0.052814577
0.029126713 -0.08585881 -0.059875954 0.11764119 -0.012519208 -0.08996685 0.026533846 0.05453478
0.019998854 -0.0008552897 -0.10542469 -0.06052417 -0.14350848 -0.0053218957 -0.0021810238 0.15251505
-0.11107629 0.10429148 0.049516324 -0.021451216 -0.099352546 0.018518865 0.18414032 0.15880601
-0.1547156 0.11781484 0.08237795 -0.17739734 -0.1608203 -0.019812817 -0.102271035 -0.07766503
-0.06275417 0.16868258 0.122258745 0.09270944 -0.07013912 -0.024354272 0.031162838 0.042604093
0.07389627 0.019306153

base.2linear.weight f4 [50, 50]
00000000: d3ac b2be 8c10 44be 93c4 1b3e 3d0a 12be
00000010: cb42 9ebe d3cd 4fbd cb5d 753d 0536 1fbb
00000020: 9319 083e 7439 48bd b272 0cbe b4a1 b03c
00000030: 430f 4dbb 2d35 8d3d d218 dd3b 3bde a83c
00000040: 841d 873d 9177 813a 3f5a 9cbc db93 703d
00000050: 88f1 8fbe c0a9 7dbe 0846 83ba d068 ae3c
00000060: 73e8 39be 8200 973e b430 1dbd 0005 d43c
00000070: 47c6 9c3d cfe1 5e3c 1d18 9b3d 75fe e6bd
00000080: ee48 60be 3d3b 7a3e 065b c9bc d725 97be
00000090: 2b6b 803e 8a88 cebc 7d26 5dbe 6ae4 043f
000000a0: b2c6 6cbe 8439 5bbe 11a9 49bd 4a9e afbc
000000b0: 1314 4f3e 79b8 db3a 86fa f0bc 13c3 a63c
000000c0: 4db3 9fbe 9480 273d 6854 12bc 90a2 5ebd
000000d0: 7bce c53e ea10 75be e5e2 42be 0a29 063e
000000e0: 7cba fbbd ea54 b8b9 dad2 a3be 2698 25bc
000000f0: 71d7 2cbc 3c54 633e 1ba0 9e3b 0f5a 98bd
00000100: eb9e 39bb c99a 593e bd81 c13d 4d4c d73a
00000110: 0311 b3be c767 70bd 8b9f 5dbe bf2f 82bd
00000120: c4a8 f2b9 31c3 d83e 406f a53e 2dd6 77be
00000130: 8603 943c a14e d7bd c444 14be 1ee4 6fbc
00000140: c474 8a3e 9933 0e3e 3c3e 2c3e fa11 983d
00000150: 8d4b 2dbc 9250 b1be 509e 29bf 020b 7f3e
00000160: 1797 663e 17b5 7fbe b0b2 b13e 6be8 9d3e
00000170: e817 ffbd 27f4 983e f189 6c3e 782c 3eb9
00000180: 4004 803c f527 ba3b 2329 b53e 4206 b53e
00000190: a534 053e 4301 523c 650c 20be cbba c8bc
000001a0: 16f3 17be b580 923e 58cd 3f3e c69d 95bb
000001b0: fb77 95bd b757 ea3c ccc1 2abc 2f9b 483e
000001c0: 4384 333c 62ae 3c3e 19dc baba 0ee6 833d
000001d0: 5e9e 54bd 9d71 bcbb cc1f 243e 568a 4fbd
000001e0: 3915 be3d 69d8 cbbd 4475 5c3b 733f 65bc
000001f0: 44e5 2bbd b974 a93d df8a a63c 8690 babc
00000200: e314 903e a5f1 50bd 54e6 22be c70f 43be
00000210: 1896 bdbc 50da 25be 62b7 02bd c9b7 18be
00000220: c801 96bd 7859 b3bc ac67 f3bd 8a66 303d
00000230: 3330 4cbe ce7c 8fbe 793a 35be 66a0 6abe
00000240: cffd 703e af39 403c 5348 623d 9d5c 95bd
00000250: eaec b1bd d99d ffbc 2dde 9d3b 2a7b a4bc
00000260: 5acf 60bd effb 103e ce45 433e 22ee 463d
00000270: 9e88 383e faa3 1ebc 2e87 533e b842 b33d
00000280: bd6c 10bc ad14 0abe 6b54 473b 5e15 4a3c
00000290: 3ce5 803b 9959 3d3e 0936 f8bc bebe 7339
000002a0: fd02 7e3a a683 b9bc 338b bc3e 3ad7 493e
000002b0: 4aa5 68bb 9ce3 633e 5828 89bd e248 bd3d
000002c0: 7dab 693c 3d12 cebd 2aa2 293e ff70 c1bc
000002d0: ba61 a63d f8bf dbbd 7f50 edbe 1ebd d9bd
000002e0: 4294 393d 25aa 8d3c ca3e babe cc8c 97bd
000002f0: 7203 6cbe 153c 22be d057 9a3c 3fe9 69bd
00000300: 54c3 813e d591 80be 6c4f ab3e 34e4 253c
00000310: 0d44 8b3b ba37 2d3d 2ae4 aebe dac1 b7bd
00000320: 09e5 033d da3f aebd 36af dd3c 4ad2 493e
00000330: 9808 5d3e 59ed 7abe f323 013e 4d30 a0be
00000340: bfb3 2fbe 4105 38be ef98 f43c bb3e 1dbd
00000350: 9354 debd e9c2 45be 906f 12be b096 af3d
00000360: 3e27 60be 235e b7bd 7a28 c13c bedb 8abe
00000370: f8d5 a93d 5707 103d f5de 12be 4f1f dfbd
00000380: 9866 a9bd e644 f93d aa5b 273f e51c 27be
00000390: ff27 dabc d61c 5ebe ba03 ae3d 2b28 25be
000003a0: 28bb c23d 5a8f 543d 2a3b cc3e 1400 00bb
000003b0: 0b1b 5ebd d148 283d 02be d33c df0c 873e
000003c0: 2788 193e 51b9 a2bd f9c8 19be d814 453e
000003d0: ae72 0dbe 3e32 b23d 3e40 e1be f1d1 6c3f
000003e0: 8d8e 12be b0d6 8cbe 013e 70bd 4763 2c3d
000003f0: 4185 08be 8947 e33c 87cc bcbd 5d8e 1e3e
-0.3489748 -0.19146937 0.15211706 -0.14261718 -0.30910334 -0.0507334 0.0599039 -0.0024293673
0.13291006 -0.048882917 -0.13715628 0.021561481 -0.0031289614 0.06894908 0.0067473436 0.02061378
0.065974265 0.0009877553 -0.019086001 0.058734756 -0.2811396 -0.24771786 -0.0010015378 0.021290213
-0.18155079 0.29492575 -0.038376525 0.02588129 0.07655006 0.013603642 0.075729586 -0.112790026
-0.2190282 0.2443666 -0.024579536 -0.29521057 0.25081763 -0.025211591 -0.21596713 0.5191103
-0.23122671 -0.21408659 -0.0492335 -0.021437783 0.20222501 0.0016763351 -0.029416334 0.02035669
-0.31191483 0.040894106 -0.008931257 -0.05435425 0.38634095 -0.23932233 -0.19031866 0.13101593
-0.122914284 -0.0003515848 -0.31996804 -0.010107076 -0.010549412 0.22200102 0.0048408634 -0.07439052
-0.0028323482 0.21250452 0.09448574 0.0016425938 -0.34973916 -0.05869272 -0.21642892 -0.06356763
-0.00046283577 0.4233642 0.3231144 -0.24202795 0.018068086 -0.10513044 -0.14479357 -0.01464179
0.2704221 0.1388687 0.16820616 0.07425304 -0.010577095 -0.34631783 -0.6625719 0.24906543
0.22518574 -0.24971424 0.3470664 0.30841383 -0.12455732 0.29873773 0.23099495 -0.00018136378
0.015627027 0.005681033 0.35382947 0.35356337 0.13008364 0.012817684 -0.15629728 -0.024503132
-0.14838824 0.2861382 0.18730676 -0.004565927 -0.07298275 0.028606279 -0.010422181 0.19590448
0.010956827 0.18425897 -0.0014256268 0.06440364 -0.051908843 -0.0057508484 0.16027755 -0.050669037
0.09281392 -0.09953386 0.0033639232 -0.013992178 -0.04196669 0.08274216 0.02032989 -0.022773992
0.28140935 -0.0510117 -0.15908176 -0.19048987 -0.02314286 -0.16196561 -0.03191317 -0.14913858
-0.073245585 -0.021893248 -0.11885008 0.04306654 -0.19940262 -0.28024906 -0.17698087 -0.2291275
0.2353432 0.011732503 0.055244755 -0.07293055 -0.08687766 -0.031203197 0.004817745 -0.02007826
-0.054885246 0.14158605 0.19069597 0.048566945 0.18020865 -0.00968265 0.20657036 0.0875296
-0.008814988 -0.1348445 0.0030415307 0.012334196 0.003933577 0.1849121 -0.030299203 0.00023245343
0.00096897763 -0.022645783 0.3682495 0.19711009 -0.003549891 0.22254795 -0.06697148 0.09242417
0.014262077 -0.100620724 0.16565767 -0.023613451 0.081241086 -0.107299745 -0.46350476 -0.10631774
0.045307405 0.017293045 -0.3637603 -0.07399902 -0.2304819 -0.15843232 0.0188407 -0.057107206
0.25344336 -0.2511126 0.33459032 0.010125209 0.0042500556 0.042289473 -0.3415845 -0.08972521
0.032200847 -0.085082725 0.027061086 0.19709125 0.2158531 -0.24504603 0.1261137 -0.3128685
-0.17158411 -0.17970754 0.02985808 -0.038389903 -0.10855975 -0.19312634 -0.1430037 0.08573663
-0.2188997 -0.08953502 0.023578871 -0.27120775 0.082927644 0.03516325 -0.14342864 -0.108946435
-0.08271521 0.121713445 0.65374243 -0.16319616 -0.0266304 -0.21690688 0.084968045 -0.16128604
0.095083535 0.051894523 0.3988889 -0.0019531297 -0.05422501 0.041085068 0.025847439 0.26377007
0.14993344 -0.079455025 -0.15018071 0.19246233 -0.13813278 0.08700989 -0.43994325 0.92507845
-0.14312191 -0.27507544 -0.05865288 0.042086866 -0.13332082 0.027744072 -0.09218698 0.15483995

base.2linear.bias f4 [50]
00000000: 8a88 ad3d 903e a33d e0ac edbc 697f 143d
00000010: 6750 1a3d 8234 b0bb e191 8abd 4d45 56bd
00000020: d8a6 9bbd f47f b1bb 7029 793b 7fa7 edbd
00000030: 38b3 17be 08eb 08bc 239f 893d 2ce7 4ebc
00000040: c363 9abc 9361 e6bd f03d d5bd 4588 f23b
00000050: 28a4 0dbd 3ae9 6ebd 6dd1 9c3d 33bb b4bb
00000060: 2db9 01bd f96e 35bc f0df b53d cf38 13be
00000070: 584b b13d dac8 6abd e766 5d3c 1afd 0b3c
00000080: 9c66 be3b 8442 053d 9418 ec3d 4c82 19be
00000090: 47d4 b53d dfcb 15be 4dca 4e3d 17e9 e93c
000000a0: eef8 d9bd 7467 9bbc 6ef8 d8bc 7e59 823e
000000b0: 5961 39be e555 3fbc b1cb 913d 062d 86bc
000000c0: 2bf9 33be 5425 5f3d
0.084733084 0.07970917 -0.029013097 0.03625432 0.037674334 -0.005377353 -0.067661054 -0.052312184
-0.07600182 -0.0054168645 0.0038019083 -0.11604213 -0.1481446 -0.008356817 0.06719806 -0.012628358
-0.018846398 -0.112490796 -0.10412204 0.0074014985 -0.03458038 -0.05832789 0.07657132 -0.00551548
-0.031670738 -0.011073821 0.08880603 -0.1437714 0.08656949 -0.057320453 0.013513303 0.008544231
0.005810572 0.032534137 0.115281254 -0.1499111 0.08878379 -0.14628552 0.050485898 0.028553529
-0.10643183 -0.018970229 -0.026485648 0.25458902 -0.18103541 -0.011678194 0.07118929 -0.01637889
-0.17575519 0.05447896

base.3linear.weight f4 [50, 50]
00000000: 514b d03c a04d f03e 345a 70bd e567 94be
00000010: 3848 caba 3b05 27bd 0f42 6a3e ac3d 5f3b
00000020: 0d51 dfbe 9744 78bc b1e8 84bc 183d 54be
00000030: 09bf 64be 2dec 993c 5215 52be 7f87 32be
00000040: 35f6 873e cd3a db3e 5557 babd 52ac eebc
00000050: 66a1 73bc b7e1 143d 2445 133e fc3f 84bc
00000060: 4da8 f33e d9f2 db3d 30d3 d33d 713b 7e3c
00000070: dae8 a9be 78ef 3abd 015e 49be 6e48 18be
00000080: 1697 d0ba 7f18 1c3d 6ffe a9bc 2cda 403e
00000090: e053 e3bc 0c9e a23e 6a56 a4bb 6ecc 53ba
000000a0: 57d2 1bbe e83e d6ba 3967 febd 29f4 1b3e
000000b0: 5cee ccbd e8f9 52bd 26e4 b1bd b8ff 833e
000000c0: 72f4 a7bc 7d5a 04be 0e34 a2bd 1cd0 6bbd
000000d0: 2a9e 4e3d df9d 1e3c 91cb 6c3b 622f 093e
000000e0: cda0 ef3d 701c a23d b764 17be d237 783d
000000f0: 422f a43b debe 1fbe 2389 adbe c7c7 013d
00000100: fdad f0bd 946e 78be 78df 9abd ea80 80be
00000110: 6083 e9be 8bb9 a93d d69c 11be ec2f 393c
00000120: 1abb 2c3c 30d2 9ebd 7466 b3be a0d1 e7bd
00000130: f17b ad3e 0b56 e03d 2450 4e3d 5691 663e
00000140: 03d5 373e 9e0e 083d 630e 003b c7d8 98bd
00000150: d345 c03d 81a0 8fbe af86 82bc e57c 3f3d
00000160: 3d48 e93d 4dda d8ba c741 643e 2c45 e8ba
00000170: 297d 923d 3baf b53e 5a53 2ebe 753b f5bc
00000180: 778a ca3e 530c 2ebd 9be1 96be a8fe 873d
00000190: f9fc f3bd dd96 813e a1f7 aabd a29b 67be
000001a0: e3da 463b 34a5 54bb 416f ef3d 0b2a 4abc
000001b0: 3642 1dbe 256f 4b3d d3bf 65bc bd38 dfbd
000001c0: 4d9c 3cbe 0ef5 f73c 8ea8 323c 077d c33d
000001d0: 870c c23d dc3c f939 303f bebe 0341 993d
000001e0: 85da 173e dc64 1abe 9032 96bd 55c1 983e
000001f0: 2cac 873d 4ab6 30be 4ac7 2f3d 7469 4e3d
00000200: 7a07 f03d 9eb5 83bd 9133 733e e52c 623e
00000210: 3a82 e9bc ba05 c93d d4e0 24bd ddd0 ac3d
00000220: 2b67 033e db38 7bbd d90a 873e d484 c83a
00000230: b1d9 aabd 05bf 1fbc 87f4 3dbe 8258 de3e
00000240: ceb8 99be b115 ddbc a0cd 1e3e f513 fe3d
00000250: aa8d a3bd 2da3 4a3e 37c2 3f3d 3883 ff3d
00000260: 1305 513e 9a70 d03e 5554 e53b 82f5 04be
00000270: f806 b13d 3d58 c3bd d72b 903d 90dc 89bb
00000280: 05d8 15bc 7084 56bd 35db d7bd 9d42 6c3c
00000290: d3be 31be 51e9 f33d 362a 8fbd aa24 dbbc
000002a0: 4682 213c 4038 a6bd bb36 3a3d 740c 82be
000002b0: 1c48 c3bd 43fb 8ebd e36b 16be f11f 4fbc
000002c0: 8c06 86bd 159d e13d 458e 1b3d 0520 6a3c
000002d0: 08cc eb3c 0640 3abd b19e 11bd 70a8 a4bc
000002e0: bc13 243e 1758 f0bd bd3c 11bd 39cb d33d
000002f0: 880e d5bd ea73 18bc 9b51 06bd 9b7c 41ba
00000300: 39f2 85be eadd 4bbe d808 9c3d e670 42bd
00000310: 7f86 1b3c cb90 f1bc 3d6f 73be c054 e03c
00000320: a328 64bd 5dc6 e8bd 48d0 85be 75e4 7f3d
00000330: 19e1 dabb 0fa2 35be 6b17 793e d211 7ebd
00000340: 8da4 223e cfd8 223c 1d9c fb3c d72e ba3c
00000350: 4bf6 48be 734e c9bd 63ff 453d 5b6e 79be
00000360: fb7c 01be c7e8 91be 7887 51be fc08 cf3d
00000370: 9352 55be 023e e4bc 9c76 a6bd 51b2 1c3d
00000380: 0d2b 3ebe 77b0 cabe d98b 00be 4bde 8d3b
00000390: 0dad 7f3e 686e 79bd 75bf 57bd 6fb0 bbbd
000003a0: 0eed 8eb9 a196 253e 5de5 d83e b9b0 acbe
000003b0: 602b d73d 321d c2bd 88c4 973d d33c 403c
000003c0: ba98 8d3d 7811 173a f4c5 e0bd 8af1 d03d
000003d0: ca25 883c 35df ecbd 092f a63d fce7 4e3e
000003e0: b364 14be dbce 9c3e 3bbb 9dbe 5832 9dbe
000003f0: 9352 96bd e43b f83e 1064 8abb 2c71 09bc
0.025426539 0.46934223 -0.058679774 -0.28985515 -0.00154329 -0.040776473 0.22876762 0.003406386
-0.43616524 -0.015153072 -0.016224237 -0.2072643 -0.22338499 0.018789375 -0.20515946 -0.174345
0.2655503 0.428183 -0.090986885 -0.029134903 -0.014870023 0.03634807 0.14381844 -0.016143791
0.4758934 0.10739679 0.10343015 0.015517102 -0.33185464 -0.04563853 -0.19664766 -0.1487138
-0.0015914168 0.0381093 -0.020751206 0.18833226 -0.027749956 0.31761205 -0.005015184 -0.00080794736
-0.15216957 -0.0016345652 -0.12422032 0.15229858 -0.10006401 -0.05150786 -0.08686094 0.25781035
-0.020502303 -0.12925144 -0.07920085 -0.057571515 0.050443806 0.009681194 0.0036132077 0.13396981
0.11700592 0.0791558 -0.14784513 0.06060011 0.0050105164 -0.15600154 -0.3389369 0.031684663
-0.11751936 -0.24260932 -0.075621545 -0.25098354 -0.45608044 0.08287343 -0.14219984 0.011302929
0.010542655 -0.07754934 -0.35039103 -0.1131928 0.33883622 0.109539114 0.050369397 0.22516379
0.17952351 0.033217065 0.0019539825 -0.07463222 0.09388318 -0.28052142 -0.015933363 0.046749968
0.113907315 -0.0016544551 0.22290717 -0.001772081 0.07152779 0.35485253 -0.17023984 -0.029935578
0.39558765 -0.042492222 -0.29468998 0.06640369 -0.11913485 0.25310412 -0.08348013 -0.22617963
0.003034287 -0.0032447102 0.11691142 -0.012339125 -0.15357289 0.049666543 -0.014022785 -0.10899494
-0.18418999 0.030268218 0.010904444 0.095453314 0.09475046 0.00047538325 -0.37157583 0.07483103
0.14829452 -0.15077537 -0.07333863 0.29835 0.06624636 -0.17257038 0.042914666 0.050393537
0.11720176 -0.06431125 0.2375014 0.22087438 -0.02850448 0.098155454 -0.040253475 0.08438275
0.12832324 -0.06133352 0.26375464 0.0015298375 -0.083423026 -0.009750132 -0.18550311 0.434269
-0.30023807 -0.026987882 0.15508127 0.1240615 -0.07986005 0.19788809 0.046816077 0.124762
0.20412092 0.40710908 0.0069985786 -0.12984279 0.08643907 -0.095383145 0.07039612 -0.0042072013
-0.009145741 -0.052372396 -0.10539857 0.014420179 -0.1735795 0.11909736 -0.06990473 -0.026750881
0.00985772 -0.081161976 0.04546235 -0.25400126 -0.09535238 -0.06981518 -0.14689593 -0.012641893
-0.065442175 0.11016289 0.037977476 0.014289861 0.028783813 -0.045471214 -0.03555173 -0.020099849
0.16023153 -0.11735552 -0.035458315 0.10341496 -0.10403162 -0.00930498 -0.03279267 -0.00073809334
-0.26161364 -0.19908872 0.07618874 -0.04747095 0.009492516 -0.029487988 -0.23772903 0.027384162
-0.055702817 -0.1136596 -0.26135468 0.062473733 -0.0066796658 -0.17737602 0.2432534 -0.062028714
0.15883084 0.0099393865 0.030714089 0.022727413 -0.19625203 -0.09829416 0.04833926 -0.24358504
-0.12645333 -0.28497908 -0.20461833 0.101091355 -0.20832281 -0.027861599 -0.08128092 0.038255993
-0.1857111 -0.39587757 -0.12553348 0.004329478 0.24968357 -0.060896307 -0.052672822 -0.091645114
-0.0002726097 0.16170742 0.4236249 -0.3372858 0.1050632 -0.09478225 0.07410532 0.011733252
0.06913896 0.0005762796 -0.109752566 0.1020232 0.016619582 -0.11566011 0.0811444 0.20205683
-0.14491539 0.30626568 -0.30806908 -0.30702472 -0.073399685 0.48483193 -0.004223354 -0.008388799

base.3linear.bias f4 [50]
00000000: be06 0bbd c1f6 a93d e2c8 d93d 4b59 813c
00000010: 2c7c fc3d f458 acbc c3ed 0a3e 26cb e8bd
00000020: 81e0 d83d cbb9 ca3d 2db8 adbb 8a7c a93d
00000030: 5153 2ebd 7a74 af3d 2be3 4b3d 7e2f 9a3d
00000040: 1f4d 68bd 0787 cb3d cd63 0dbe 51cf e23c
00000050: e113 39bd c3f6 1ebd 607c db3d 7036 3d3d
00000060: 440e cabc 34e2 e3bd a47b 97bd fd5e 953d
00000070: b9a6 1ebd 1871 143d 55d2 833d 879a 603d
00000080: 188c ab3c 4f62 d4bd 7305 d4bc 63a0 fbbd
00000090: ec40 42be 9fa4 2dbd 8011 89bd 1e67 c53d
000000a0: 30d9 d4bd 1679 e93c b5c1 96bd 18b8 173e
000000b0: d449 73ba 1bf7 8e3c e691 543c d91c a9bd
000000c0: 1c47 0f3d 858b 463d
-0.033941977 0.08299018 0.106340185 0.015789649 0.123283714 -0.02103851 0.13567261 -0.113668725
0.10589696 0.098987184 -0.0053014965 0.08275707 -0.042559925 0.08567138 0.04977719 0.0752859
-0.056714173 0.09937864 -0.13807602 0.027686747 -0.045184974 -0.03880955 0.10717082 0.046194494
-0.024665006 -0.11127129 -0.073966295 0.07293508 -0.038733218 0.036240667 0.06436602 0.05483487
0.020940825 -0.103703134 -0.025881505 -0.12286451 -0.18970078 -0.042393323 -0.06692791 0.09638809
-0.10392988 0.028500121 -0.073611654 0.1481632 -0.00092807156 0.017451813 0.012974238 -0.082574554
0.034979925 0.0484729

base.4linear.weight f4 [50, 50]
00000000: 8ee8 f93d 4028 60bb e75c 6fbe c98d a1bd
00000010: 8cdc d43d 6907 673d eba0 8d3e 75e3 a43e
00000020: 3115 263d ab5a 1d3d 2c62 aebc 650b 373e
00000030: 2a88 b13c 893c 47bc eb2a ad3e c30a 90bd
00000040: e063 1f3e 95dc 38be ce96 0c3f 5087 863d
00000050: e310 83bd 8985 b8bd d68d 7a3c 2f82 1a3d
00000060: ca86 823e 4af4 2c3f 1784 f13e a6ea 1abd
00000070: 18ef 953e e6e6 f4bd 1219 613d 3d68 a2be
00000080: 82d5 89bc cfe0 1cbe e4ea 4b3e cab3 693d
00000090: 73bf c63c 56f7 7d3d de0e f5bd 227f 5abe
000000a0: c1bd 77be b95c 7b39 352d 6b3d 803c b43d
000000b0: d15d a83e 3141 0c3e 469d 233d 31bc 99be
000000c0: 1fb5 073d ac51 08be b73d 05be 8fd8 1bbe
000000d0: f698 f0bc 337c a93b 194d 543c 7ea5 6abd
000000e0: d646 d43d 187c 573e 1cdc e33d e420 3cbe
000000f0: a3df d53d 035d 97bd 13aa 923e 6bfb 18be
00000100: 872b 9fbe 14b6 0d3e b4e6 16be 908b a73d
00000110: c6bd e6be c112 873d e826 babd 5f3c 46bd
00000120: 10ad 093e b1c5 2dbe e065 84be 9ee2 f33d
00000130: 39a8 403c ba1a c7bd e74a eebd b070 6cbe
00000140: 5941 623e 4ebd a83e c4de 333c 12e2 86bd
00000150: cfe9 7fbe 02e6 6ebe e687 12be 1c7e 5cbe
00000160: 577c 74bb 9522 2cbc ce85 013e b4b7 67be
00000170: c3cb 973d 8352 88be bbd1 08be d4d7 e53d
00000180: bbf6 b1bd 9eb7 08be 13be f93c a808 483e
00000190: 64cc 2fbe 900c f6bd d567 88be fedf 35bd
000001a0: b7d1 a9bd 56c9 d03d 0d68 3e3e 5372 78be
000001b0: 1cb0 92bd 7aba 333d 6a4a e43d ff1e 37bd
000001c0: 55e1 b33d 8eb9 4a3e d1eb 123e 749b a3be
000001d0: bb54 543e 01d3 dfbe 0de4 cb3e 8926 35be
000001e0: 4057 ae3d ed44 cdbc 81b3 3a3e ec91 813d
000001f0: ede9 42be 3fe3 e73d 0f86 583e 4ff3 4ebd
00000200: 1ce5 843e 47eb 63be b81c 8fbd 8c93 fbbc
00000210: 159c 583e d860 f6bc 93d9 833e a99a 753c
00000220: f584 9d3d daee 2abe 6d49 bc3d e7e8 e4bb
00000230: dccb 623f 6d33 b53e 2b09 b33d d11e 133e
00000240: 7703 85bc 4647 4e3e 6545 493e b27b 173b
00000250: 490c 363e bddc 08be dbb3 bbbd f82f 5f3e
00000260: cd78 62be 2a37 3e3e 7ad2 a83e 4183 b53e
00000270: 707a e33c f47b 54bb e020 bd3e 474f 403e
00000280: 7126 3cbe 7a26 0f3d f5f2 013e b244 55be
00000290: 3a26 8d3e b0c5 10be 5b4b 943c cd13 99bd
000002a0: 7630 113e 92b0 14bd f4dc f5bd 2977 60bc
000002b0: 7d7a 99bd 4b30 ccbe 6e07 02bd 082c d93e
000002c0: 72c0 5b3e 88b1 5ebe dbfa 433e ddf3 e3bd
000002d0: 4bb9 143e d462 7cbe de55 df3c 1668 c6bd
000002e0: a7dd b33e f334 2ebe a7e4 be3c f054 4dbd
000002f0: 2a22 55bd c59c 193c 4f38 0bbe dba8 31be
00000300: 83cc 133e b436 0b3d 39e0 64bc 7136 05be
00000310: db53 bcbd f1da d7bd 1850 18be 9fbc 34bc
00000320: d87c c8bd 10b1 533e 15a2 c7bd 200d 9bbd
00000330: f64d 273e 454f 5b3e 29d4 18be d6e3 b93d
00000340: cf14 2c3f fe1f a43e 5b9a f9bc d9b9 87bc
00000350: 0cca 383e 55ad 28bf b190 6dbd 39f2 d0bd
00000360: bacf 32bd 1a2c 82be e551 dd3e c03d 7a3e
00000370: 56d9 f7be ed98 42bd f6ef c2bd 6b53 49be
00000380: 5711 03be d6ac be3e 69a6 563e f391 873e
00000390: 6482 653d 267f 8d3e ac37 34bd e75f bfbd
000003a0: e2cc d03d a7f7 8dbd 587d 033e ecf0 d33e
000003b0: adc9 813b 5b5d 00bf 8869 823e c7c9 2bbf
000003c0: 00d4 fa3d d324 16bf e218 4c3e 2c3f d6be
000003d0: ebf0 c33e df9b f1be 6238 b53d fc18 1f3d
000003e0: fa51 5cbe c14c 93bd 99f8 c03d 04b7 c7be
000003f0: a765 e33c 4b88 96be 8b37 01be 3b47 e33c
0.122025594 -0.0034203678 -0.23375283 -0.078883715 0.103936285 0.05640355 0.27661833 0.32204786
0.040547553 0.038416546 -0.021287046 0.1787544 0.021671373 -0.012160429 0.33821806 -0.07033303
0.15565443 -0.18052895 0.5491761 0.065687776 -0.06399705 -0.09009845 0.015292605 0.03772181
0.2549346 0.67560256 0.4717109 -0.037821434 0.29283977 -0.11958103 0.05495555 -0.31720152
-0.016825441 -0.15320133 0.19913822 0.057056226 0.024261212 0.062003456 -0.11965726 -0.2133756
-0.24193479 0.00023971767 0.05741616 0.08800602 0.32884076 0.13696744 0.03994491 -0.3002639
0.033131715 -0.13312405 -0.13011824 -0.1521933 -0.029369812 0.0051722764 0.012957835 -0.057286732
0.103650734 0.21043432 0.11125967 -0.18371922 0.10443046 -0.073907875 0.2864538 -0.14939658
-0.31087896 0.13838989 -0.14736444 0.08180916 -0.4506666 0.06595374 -0.09089452 -0.048397418
0.13444924 -0.16969945 -0.25858974 0.11908458 0.011758857 -0.097218946 -0.1163538 -0.23089862
0.2209524 0.32956928 0.010978404 -0.06586088 -0.24991535 -0.23329929 -0.14309654 -0.21532482
-0.0037305558 -0.010506292 0.12648699 -0.22628671 0.07411911 -0.2662545 -0.13361256 0.112228066
-0.08689638 -0.13351294 0.030486142 0.19534552 -0.17167813 -0.12014115 -0.26641718 -0.04440307
-0.08291953 0.10194652 0.1859438 -0.24262361 -0.071624964 0.04387901 0.11147006 -0.044707295
0.08783213 0.19797346 0.1434777 -0.3195454 0.20735447 -0.4371567 0.39822426 -0.17690481
0.08512735 -0.02505728 0.18232538 0.063266605 -0.19034548 0.11322641 0.2114489 -0.050525006
0.25956047 -0.2225772 -0.069878995 -0.030710004 0.2115329 -0.030075476 0.25751933 0.014990487
0.07691375 -0.16692677 0.09193692 -0.006985772 0.88592315 0.35390797 0.08741983 0.14367224
-0.016237004 0.20144376 0.19655378 0.00231145 0.17778124 -0.13365455 -0.09165164 0.21795642
-0.22116394 0.18575731 0.3297308 0.354517 0.027768344 -0.0032422515 0.36939144 0.18780242
-0.18374039 0.034948803 0.12690337 -0.20826986 0.27568227 -0.14137912 0.018102339 -0.0747448
0.14178643 -0.036301203 -0.12005034 -0.013700285 -0.07494066 -0.39880595 -0.031745367 0.42416406
0.21460131 -0.2174741 0.19138663 -0.111304976 0.14523809 -0.24647075 0.027262624 -0.096878216
0.35130045 -0.17012386 0.02330239 -0.05012983 -0.052034535 0.009375756 -0.13595699 -0.1734957
0.14433484 0.033987716 -0.0139694745 -0.13009049 -0.09195682 -0.10539807 -0.14874303 -0.011031299
-0.09789437 0.20673013 -0.097477116 -0.07570863 0.16338333 0.21416958 -0.14924683 0.090766594
0.6721925 0.32055658 -0.03046911 -0.016568111 0.18045825 -0.65889484 -0.057999317 -0.1020245
-0.043655135 -0.25424272 0.43226543 0.24437618 -0.48408002 -0.047509123 -0.09518425 -0.19660728
-0.12799583 0.37241238 0.20961918 0.26478538 0.056032553 0.2763607 -0.043998405 -0.09344464
0.10195328 -0.069320016 0.12840784 0.41394746 0.003960809 -0.5014245 0.2547114 -0.6710476
0.12247467 -0.5864994 0.19931367 -0.4184507 0.38269743 -0.47189233 0.08848645 0.038842186
-0.21515647 -0.07192374 0.09422416 -0.39006817 0.027758433 -0.29400858 -0.12618844 0.027743926

base.4linear.bias f4 [50]
00000000: f259 fb3c 0788 b8bc e47e 92bd 8271 c63d
00000010: eb2f 243d e652 0bbd 1ceb 0a3d 3f05 d7bd
00000020: 3021 453e 367d dabc e9e3 df3d b0f1 ba3d
00000030: 0591 6abc 7692 b33d 8293 6cbd 9c6b b73c
00000040: a4ec 09bb 38e6 bebb c999 8cbc e4a3 46bd
00000050: 07c5 87bd 148f f13c 0b8e 143d 6636 003e
00000060: dd37 71bd 0bc6 b83d 36f6 74bd a5c7 01be
00000070: 60cd 6f3c c204 56bd 292c 143e 2439 8d3c
00000080: b080 a13c f952 e83b 8203 b63d 8b12 f43c
00000090: 7cd2 d0bc 6db9 b1bd 100d 47bd 4d0a 823d
000000a0: 1f04 8a3d c437 9f3d 4cbe 14be 5b9d 093d
000000b0: 7cd1 15be 586c 1cbe 90dc 0b3d 4561 0ebb
000000c0: 400a 82bd 2cce 7a3c
0.030682538 -0.0225258 -0.07153109 0.09689619 0.04008476 -0.034014605 0.033915624 -0.104990475
0.19250941 -0.026671033 0.10932142 0.091281295 -0.014316802 0.087681696 -0.057757862 0.02239018
-0.002104559 -0.005825784 -0.017163174 -0.048496142 -0.06629377 0.02948717 0.036268275 0.12520751
-0.058891166 0.09022149 -0.059805118 -0.12673815 0.014636368 -0.05225063 0.14469971 0.01723916
0.019714683 0.0070899692 0.08887388 0.029793998 -0.025490992 -0.08677945 -0.04859644 0.06349621
0.06739067 0.07774308 -0.14525717 0.03359733 -0.14630693 -0.15275705 0.03414589 -0.0021725458
-0.06349611 0.015307944

base.5linear.weight f4 [50, 50]
00000000: 019f d63e 2774 3bbe 260c 30be 8b67 3c3e
00000010: da8b 34be 5412 b5bc cb21 d83d 72fa 3abe
00000020: ea46 e0bd 3794 2b3e e021 5a3e f0df 243e
00000030: 5eea bc3d 2e57 0e3e ded1 c2bd b31d 9cbd
00000040: de8b 9bbd 5388 bc3e 9d64 2f3e 5a2e 97be
00000050: 19a2 72bd 0ce9 28bd daa6 ad3e 3b17 5d3e
00000060: 774d 66be 8c3b 10be 4f41 fdbd cfea 673e
00000070: 1f1c 0a3e bca9 75be 87d9 9cbc cf58 c23d
00000080: 2fec 86be 98a9 43be 576a f63d 2b6b e53d
00000090: 5de5 c63d cd26 6fbd 567e 6ebc 0222 3a3d
000000a0: 0f96 303c de18 57bd e3b3 44be c354 923d
000000b0: cba9 b0bd 5eac 80bd c465 943e 76ba 16be
000000c0: d3d3 aebe 2aea 37bd 6c10 7d3d 965c 4b3d
000000d0: c374 a83e 964d 803d 91ee 50be cb26 373e
000000e0: d6cc c53d 28dd 92bd 8947 883d d02b b8bb
000000f0: c9b0 25be a3ad 01be e24e bbbe 4b9c 1c3d
00000100: 5d56 593e 9b2b c43d 0bc9 4abe 2545 3cbe
00000110: 4cdd 543c 05a5 393e 0173 973d 2a66 37be
00000120: 4198 153e d439 7f3e 6cfa 66bd aedd 4c3d
00000130: 52c4 ddbc 51b9 e6bc 2556 4e3e 55c7 8ebe
00000140: 6829 d8bd d102 313c a4cf 74bd 0b35 45be
00000150: 782a 04bc 3d34 a6bc 2838 7fbc b830 e3bc
00000160: 2356 21be f201 9b3d c528 873e db0d cbbd
00000170: 7d74 d13d ea66 083e 8a1d 86be 9d43 b3be
00000180: e087 5c3e a94d 493b c8e1 5cbe 9c86 203d
00000190: 98bd ca3d a136 7abd f255 1dbe 0c56 4dbe
000001a0: 24ac 253d 3dfb 97bd da67 8b3c fcf7 693e
000001b0: e2cc d03d 7ba3 afbd c594 523e bc1b 143e
000001c0: 00d9 173e a8fc 25bd fd04 c13b f6d9 35be
000001d0: 8120 02bd 5e44 5b3e 1f76 1c3d c0d9 25bd
000001e0: 4573 d73d bdcb 723c e662 a8be 3aae 833e
000001f0: 9833 b6bc 03f4 8d3e c726 e9bd e06e 8d3e
00000200: 02b9 083e bb94 653e 1700 b13c 94e0 563e
00000210: 975d e93d 53ca 053e 37ee 9c3d 2374 be3c
00000220: 8c55 7c3d f85e 5e3e 0f78 fb3d 1957 1c3e
00000230: 08fd 0d3f 807a 33bd 73e8 e3bc 4442 a83c
00000240: 20ff 93bd 0054 2abe 0dc4 9d3e 50c4 fabd
00000250: 6c3a 043c 1b0e e5bd f390 d8be d696 303d
00000260: 889b d4bd 51ee 273e eb86 033e 0831 793e
00000270: 726a c63e 4a08 9fbd 7958 efbe f64c 763e
00000280: 3dde aebd d2b1 793d c7f5 07be d431 7fbe
00000290: 3a7a 90bc 01b6 7b3d 1f86 413e b22a 04bf
000002a0: 4bbd 8abc 687e cdbd 23d3 913e e87b 42bb
000002b0: e743 573e 3c11 013e 65c2 03be 0a08 2fbd
000002c0: eebb e1bc f2a6 133e c6e1 ae3d 7b33 8b3e
000002d0: bd25 773e 4e71 fa3d 0238 5dbe 2178 5b3d
000002e0: 1c6c e43d 5f90 91bd 034f 99be 1d4a 193e
000002f0: 9250 c53e 166c 40bd ffea a43c 4d60 79be
00000300: 9f18 70bd ee9f 363d 91d1 41be 178b efbd
00000310: 164f b23d 31fa 883b 80a8 01be 383d 8a3e
00000320: 3bf3 1a3d 9f96 93bd 46d8 b83e b096 7e3d
00000330: f91e 053e 7f1a b23c 8f31 b13d c1f9 9abc
00000340: 7193 1b3e b6fb 5b3e 5f9b c2bd 31b5 8b3e
00000350: fbf1 ad3d 51e8 5e3e 2ccb 323e f04e 523e
00000360: 8e43 113e 89a8 e33c f39b a8bd 2529 253e
00000370: 98e4 093d 0d0d 02bc 11d3 4cbe 366b 583e
00000380: 26da ad3e 4f42 17be 262b 03bd cf3a 91bc
00000390: 47eb c9be 3183 84bc 73cb 25be 876f 8e3d
000003a0: 36fa a7be 34ea fbbd f5f4 adbd aea1 303e
000003b0: 28aa 063e d2ce f5bd ef22 00be e395 483e
000003c0: a0bb 093c 1d9d 0bbe 5222 5d3e df39 993e
000003d0: 6ca3 8fbd c049 3d3b 7100 f43c 2f3e 053e
000003e0: 9b4f 6fbd f0b4 87bd 81d6 13be 5793 17bd
000003f0: 4747 123d 4f00 c53d aedb 9e3d 276b f4bd
0.41918185 -0.18306027 -0.17192134 0.18398874 -0.17631474 -0.022103466 0.105533205 -0.182596
-0.10951026 0.16755758 0.21301985 0.1610105 0.092243895 0.13900444 -0.09512685 -0.07622852
-0.07595037 0.36822757 0.17128225 -0.2952755 -0.05923662 -0.041237876 0.3391636 0.21590893
-0.22490488 -0.14085215 -0.12365972 0.22648166 0.1348729 -0.2399053 -0.019146694 0.09489595
-0.2635207 -0.19107664 0.120320015 0.11202081 0.09711716 -0.058386613 -0.014556488 0.04544259
0.010777964 -0.05251395 -0.19209246 0.07145073 -0.086261354 -0.062828764 0.2898389 -0.14719567
-0.34145984 -0.04490105 0.06178324 0.049648844 0.32901582 0.06264798 -0.20403506 0.17885892
0.0965821 -0.071710885 0.06654269 -0.005620457 -0.1618072 -0.12663893 -0.3658362 0.03823499
0.21224351 0.095786296 -0.19803254 -0.18385752 0.012992214 0.18129356 0.07394982 -0.17910066
0.14608862 0.24924403 -0.056391165 0.050016098 -0.027071152 -0.028164538 0.20150049 -0.27886453
-0.105547726 0.010803894 -0.059768334 -0.19258516 -0.008066766 -0.020288581 -0.015577354 -0.027733192
-0.15755515 0.075687304 0.26398292 -0.09914752 0.102272965 0.13320509 -0.26194412 -0.35012522
0.21536207 0.0030716455 -0.21570504 0.039190874 0.098994434 -0.061087254 -0.15364817 -0.20052356
0.04044737 -0.07420967 0.017017294 0.22848505 0.10195328 -0.08576103 0.20564564 0.14463705
0.14828873 -0.040524155 0.005890487 -0.17758927 -0.03176928 0.21412799 0.038198587 -0.040490866
0.10520033 0.014819083 -0.32887954 0.25718862 -0.022241399 0.2772523 -0.11384349 0.27623653
0.13351825 0.22420017 0.021606488 0.20984107 0.11394804 0.13065462 0.076626234 0.023248738
0.06160502 0.21715915 0.12278759 0.152676 0.5546422 -0.043817997 -0.027820801 0.02053941
-0.072263956 -0.16633606 0.30813637 -0.12244475 0.0080705695 -0.11184331 -0.42298087 0.0431126
-0.10381228 0.16399504 0.12844436 0.2433511 0.38753086 -0.07765253 -0.46747187 0.24052796
-0.08538482 0.0609606 -0.1327735 -0.24921352 -0.017636407 0.06145287 0.1889882 -0.5162765
-0.016935965 -0.10033876 0.28481397 -0.0029675905 0.21021996 0.1260423 -0.12867124 -0.042732276
-0.027555432 0.14419153 0.085391566 0.27187714 0.2413549 0.122286424 -0.21603397 0.05358136
0.11153433 -0.07107615 -0.29943094 0.14969678 0.38538033 -0.04697808 0.020131586 -0.24353142
-0.05861723 0.044586115 -0.189276 -0.11696451 0.08706491 0.0041802158 -0.12661934 0.2699983
0.03782962 -0.07206463 0.36102504 0.062155426 0.13000096 0.02174115 0.08652031 -0.01891792
0.15192963 0.21482739 -0.09502291 0.27286676 0.0849342 0.21768309 0.17460316 0.20537925
0.14185926 0.027790325 -0.0823287 0.16128977 0.03366527 -0.007937682 -0.2000239 0.21134648
0.33955497 -0.14771388 -0.03202357 -0.017728237 -0.39437315 -0.016175838 -0.16190891 0.06954866
-0.32808083 -0.1230053 -0.084939875 0.17249176 0.13150847 -0.120023385 -0.12513326 0.19588427
0.00840655 -0.13634153 0.21595123 0.29926965 -0.07013592 0.002888307 0.029785367 0.13012002
-0.058425527 -0.06626308 -0.14437295 -0.03700575 0.035712507 0.096191995 0.07756744 -0.119345

base.5linear.bias f4 [50]
00000000: 12ed 423e bc81 243c 2654 8e3d 4c6a 42bd
00000010: a29a 44bd 0a95 873d b8bf 3dbe 47c1 75bd
00000020: c618 983d 78a8 99bc c6a2 fdbc 8404 61be
00000030: ccdf 043d b127 943d 4959 d4bb 86e8 293d
00000040: 2fe8 3fbd 85e9 45be c15b cfbb 9451 943b
00000050: 97e2 38bd 42b5 c13d fe49 00be 03ba 39bd
00000060: fc78 623d 9874 1e3e 5dca 7fbb 6da8 313d
00000070: 1f7d babd 2946 563a c593 163c 47ee f13c
00000080: e9a5 dc3d 5da2 053e c75d 0fbd 4aa5 8bbd
00000090: c90b 8d3b 2ec0 f0bc 3db2 62bd d22a 1b3c
000000a0: b7e3 81bd 8e5b cb3d f44c 353e b9f8 1ebe
000000b0: d3f1 653c 2773 813d 7856 adbd 0ae5 e03d
000000c0: 7fc4 fcbb 7683 e93d
0.19035748 0.010040697 0.06949644 -0.047464654 -0.04799903 0.06620224 -0.18530166 -0.059998777
0.074266 -0.01875709 -0.030961405 -0.21974379 0.03243999 0.07234133 -0.00648037 0.041481517
-0.046852287 -0.19327362 -0.0063280766 0.0045263264 -0.045137968 0.094584 -0.12528226 -0.04534341
0.05529116 0.15474164 -0.003903053 0.043373514 -0.09105896 0.0008173907 0.009190504 0.029532565
0.10773832 0.13050218 -0.035001542 -0.06818636 0.0043043834 -0.029388513 -0.055345763 0.009470658
-0.06342261 0.09929572 0.17705137 -0.15524568 0.014034706 0.06320792 -0.08463758 0.10981186
-0.007713854 0.11402027

base.6linear.weight f4 [50, 50]
00000000: 9daf b23e b4a3 32be a9cb e3bd 34a1 843c
00000010: e6db bbbb 5254 91be 7fb3 47be a26b 583e
00000020: fabe bf3d 8bdb fa3d c712 bdbc 3fc5 88bd
00000030: fe6f 7fbe 3927 27be a379 a53e a809 753d
00000040: 3221 5e3e 2ee2 20be 366a cbbd fa8b 903e
00000050: 6e43 66be 54c6 693e a2f5 d23d 61fc aa3e
00000060: 4d14 5abe 87e9 87be 33a7 833d a544 6e3d
00000070: d650 cd3c b092 8e3d 18b7 123d 467c 6c3c
00000080: 18bf d13d 3ca2 ebbc 6803 9dbd d678 a2be
00000090: f010 20be 0b70 12bd 849a 57be a3e2 503d
000000a0: 79cf 353e 2bf4 903e aba5 afbd 8b8e 16be
000000b0: 6c60 823d 688c 0bbc ff94 8bbe 6813 103d
000000c0: cc63 06be ef03 1ebe f31f 953e 0e28 1a3d
000000d0: 1a1e 52bb 506d bd3d f357 a13d 05c2 87bb
000000e0: d1de 60bd 4e31 0cbe 607f 8fbc 964f 9cbe
000000f0: b854 ddbd 6cd0 9dbe 04da 3abe d778 26bc
00000100: 77df 83be 9e94 f9bd 4cf5 b03c cfae 79be
00000110: ffd0 103e 3622 5c3d deb9 b4bd 4180 43bc
00000120: 85b8 3f3b 3a14 40be 1341 56be 7a16 92bb
00000130: e5dc ca3c eb20 ae3e e7e5 8c3a 577f 98bd
00000140: 0537 c03d 5185 003e b77d 7cbd c1eb 333e
00000150: 63d0 dcbc d1fd 13be 3d9f fdbd 968d 9c3d
00000160: a379 cabd dc0c e1bd 82e1 95be e687 79be
00000170: cca4 28be c757 5c3e 04fb 253e 1395 57bd
00000180: 841c 94bb 1b4b ee3d 77e7 ef3d b9c8 483e
00000190: 0ebf 57bd 2f15 c2bc 7684 08bd bfd2 25be
000001a0: 0758 8a3e 7f43 01be cabc 723d bf43 16be
000001b0: cd2b b33e d9c3 f53e c828 cbbe 9b5c 07be
000001c0: fe92 8cbe c3a0 473e febc 07bd 6bd9 983e
000001d0: 045e b13d d75a 063e d311 d23d 7763 43be
000001e0: 55ca 503d 91aa 18bd 183e 8a3d eab6 53be
000001f0: 94ea 5cbb febf 71bc a9dc a13e 7f29 603e
00000200: 7134 343e 8408 ecbd 6c84 c63b 5779 debd
00000210: a1c9 b53e 3d98 28bc f2b1 d6bd e7d0 8d3d
00000220: cc23 31bd ec20 eabc 3e0b d2bd 190b f63e
00000230: f52c 71be 9c7a 88be 7abe 54be b599 7e3e
00000240: f20e 45be 247d 8b3e c8d5 c6bd ab1c 693e
00000250: a910 9dbb 76c6 5bbe 1a52 b7bc 9770 56be
00000260: 80a4 0d3e baf8 b6bd 532b 833c 0a7f 4ebe
00000270: 12f1 833e 5448 8c3c 4d12 883e 5c7d 413e
00000280: 1893 acbe 7dc9 353d 2383 b6bd 6939 95be
00000290: bc47 d73b 5576 bf3e 9ccf 21be 54f5 043d
000002a0: dbfe 6b3d 5b8d a3be 3f28 a93e dcfc 6fbd
000002b0: 38c8 82be 0144 b53e 8c00 2d3d 9c8c 703e
000002c0: 9492 213e ce5e a9be 06b5 2ebe 38b5 40be
000002d0: 4b63 92be 0020 6b3e b298 9dbc 0398 103d
000002e0: bee3 83be 47c3 1dbe 550a 4abe 4ebd ddbe
000002f0: c67a 0abd 3ae5 243a 9d62 dbbd f908 1dbe
00000300: 7d65 febd 964b 873e 6710 253e 1d51 0b3e
00000310: e864 e3bc b447 99ba 56dd 303e eaf7 6cbe
00000320: f94b 9dbd 7ce0 f63d 95fe 20bc e025 05be
00000330: 3210 15be 2be6 cb3d 9062 bd3d 48b2 54bd
00000340: a167 0c3e a578 88be 4d52 63bd a5d1 93be
00000350: 22a7 193e c42a 6c3e 7a47 b63d ae02 9e3d
00000360: c523 62be 2c2f 5dbe 7c32 363e 0ba0 173e
00000370: 1ab3 ae3e 9608 bbbd 7b0f 5e3d c6bf 5bbd
00000380: c319 a83d 26d5 87bd 164f 90be a537 81be
00000390: 40f9 3abe aaca 07bd 4825 8bbd b566 b9bd
000003a0: dbab 6e3e 30e4 5d3e 9c57 58be cd75 a03d
000003b0: 959c e5bd 33f5 ce3d 9411 d1bc f3d4 d03d
000003c0: 76c8 75bd 9e2c 19be 5266 293e 8aeb d73d
000003d0: e89f 06bc 3566 13be 1e31 73bd cd1c b2bd
000003e0: 5995 54be dc90 353e ba7c 193e 048f 2cbe
000003f0: f014 4bbd 0d55 b4be 7278 07be 359a 1fbe
0.34899607 -0.1744526 -0.111228295 0.016190149 -0.005733001 -0.28384644 -0.19502066 0.21134809
0.09362598 0.12248906 -0.023080243 -0.06678247 -0.24945065 -0.16323556 0.32319364 0.059823662
0.2169235 -0.1571128 -0.099323675 0.28231794 -0.2248666 0.22829562 0.10300757 0.33395675
-0.21296807 -0.26545355 0.06428375 0.058170933 0.02506296 0.06961572 0.035819143 0.014433926
0.10241526 -0.028763883 -0.07666665 -0.31732816 -0.15631461 -0.035751384 -0.21055037 0.050997388
0.17754926 0.28311285 -0.085765205 -0.14702813 0.06366047 -0.008517362 -0.27262112 0.035174757
-0.13124007 -0.15431188 0.29125938 0.037635855 -0.00320614 0.09249365 0.07878103 -0.004143002
-0.054899994 -0.13690683 -0.017516792 -0.3052947 -0.108071744 -0.30823076 -0.18247229 -0.010160646
-0.25756428 -0.121865496 0.021601342 -0.2438309 0.14142226 0.053743564 -0.08824514 -0.011932434
0.002925427 -0.18757716 -0.20923261 -0.004458246 0.024763534 0.3400949 0.0010749669 -0.07446163
0.09385494 0.12550856 -0.06164333 0.17570402 -0.026954835 -0.14452292 -0.12383888 0.07644193
-0.098864816 -0.10988781 -0.2927361 -0.24368247 -0.16469115 0.2151786 0.16209036 -0.052632403
-0.004520001 0.11635419 0.1171407 0.1960782 -0.05267244 -0.023691742 -0.03332945 -0.16193675
0.27020285 -0.12623404 0.059262075 -0.1467428 0.34994355 0.48000982 -0.3967955 -0.1321892
-0.27455896 0.1949492 -0.03313922 0.29853377 0.0866051 0.1312059 0.10257306 -0.19080912
0.05097421 -0.03727204 0.06750125 -0.20675245 -0.0033709155 -0.014755247 0.31613663 0.2189083
0.1759813 -0.11525062 0.0060582664 -0.108629875 0.35505393 -0.010290203 -0.10483159 0.069246106
-0.04324703 -0.028580151 -0.102560505 0.48055342 -0.23552306 -0.26656044 -0.20775786 0.24863322
-0.19243982 0.27243912 -0.09708744 0.22764842 -0.004793246 -0.21462426 -0.022378016 -0.20941387
0.13832283 -0.089341596 0.01601187 -0.20165649 0.2576986 0.017124332 0.26576462 0.18895477
-0.33705974 0.044381607 -0.08911731 -0.29145363 0.0065698307 0.37394968 -0.15801853 0.032460526
0.057616096 -0.31943783 0.33038518 -0.058590755 -0.2554338 0.35403445 0.04223685 0.23491138
0.15778571 -0.33080143 -0.17061242 -0.1881913 -0.2859138 0.22961426 -0.01923785 0.03530122
-0.2575969 -0.15406524 -0.19730504 -0.4330849 -0.033808492 0.0006290261 -0.10712168 -0.15335454
-0.12421701 0.26424855 0.16119538 0.13605161 -0.027758077 -0.0011694343 0.17271933 -0.23141447
-0.07680506 0.12054536 -0.009826322 -0.1300273 -0.1455696 0.099560104 0.09247315 -0.051927835
0.13711406 -0.26654544 -0.05549841 -0.28870884 0.15005162 0.23063189 0.08900352 0.07715355
-0.22083957 -0.21600026 0.17792696 0.14807145 0.3412102 -0.09132497 0.054213982 -0.053649686
0.08208039 -0.06632452 -0.28185338 -0.25237766 -0.18259144 -0.03315226 -0.0679422 -0.09052793
0.23307745 0.21669078 -0.2112717 0.07834969 -0.11211506 0.10105362 -0.025521077 0.10196867
-0.060005628 -0.14958426 0.16542938 0.105429724 -0.008216836 -0.14394458 -0.059373014 -0.086968996
-0.20760097 0.1773104 0.14988986 -0.16851431 -0.049580514 -0.3522114 -0.1322954 -0.15586169

base.6linear.bias f4 [50]
00000000: db23 96bd 964e f33d a4a9 94bd 2b26 ed3b
00000010: fb3f 95bc 1168 26bb 418a 1e39 9f06 ef3d
00000020: 1129 1fbc fb96 abbb 765d b13c cb99 0cbe
00000030: 2342 883c 4934 08be 5767 9bbc 4c73 933c
00000040: 8be9 9a3d 7feb 283d 407c 8abc 945a f13d
00000050: b01f 09bd c061 62bb c245 75bd 2fa0 dbbd
00000060: 23f4 963d 3add 283d 36b9 0c3c 8e93 99bd
00000070: 6749 4d3d 55ac 0abe 1a61 abbd 3aa3 0bbd
00000080: 984a a2bc 1626 513c 5423 8a3e 1cae 123d
00000090: b3e6 4abd 1495 bdbd 6bd0 43bd 98bf 903d
000000a0: bac1 293c fa7a 54bd 543e a53c cde3 693d
000000b0: b9e9 0dbe 1fe7 5d3d 8835 67bd 15d0 123e
000000c0: 080c 593e a06f 403d
-0.07331058 0.118802235 -0.07258919 0.007237216 -0.018218985 -0.0025391618 0.00015119558 0.11671185
-0.009714381 -0.005236504 0.021651011 -0.13730542 0.016633099 -0.13301195 -0.018970175 0.017999314
0.07564076 0.04124021 -0.01690495 0.117848545 -0.033477485 -0.0034543127 -0.05988098 -0.10723912
0.07370784 0.041226603 0.00858908 -0.07498847 0.05011883 -0.13542302 -0.0836813 -0.03409121
-0.01981096 0.012765428 0.26980078 0.035810575 -0.04953642 -0.0925695 -0.047806185 0.070677936
0.010361129 -0.051875092 0.020171322 0.057102013 -0.1385869 0.054175492 -0.056447536 0.1433719
0.21195996 0.046981454
