STPINN-NS/sub_data/sub_write/19NS_model_train.pt (torch, 100091 bytes, 22 tensors)

base.0linear.weight f4 [50, 3]
0.00326065 0.008755061 0.0033905893 0.22767693 0.14693625 -0.2602803 -0.058469623 0.2399779
-0.21830307 0.054118183 0.20930977 0.025918981 -0.057414904 0.22603309 0.42665607 0.110221386
0.23120362 -0.30578864 -0.27827588 0.20497705 0.35148808 0.0008683396 -0.0038936667 -0.00036656033
0.03896164 -0.051914692 0.07274774 -0.1292525 0.050330993 -0.2229885 0.1340767 0.0036056254
-0.26432443 7.55309e-05 -0.0025174273 -0.0012434592 -0.21849267 0.22756317 0.1330745 -0.08708472
-0.14253972 0.013206963 -0.14278665 0.20214716 0.19931293 0.0071701854 0.103176855 -0.40067008
0.04785765 -0.06051576 -0.16035835 0.37504822 -0.19778378 -0.28966254 0.08655948 -0.2038156
-0.16619855 0.14722213 -0.09021513 0.13619724 -0.07988021 -0.3333681 0.18951327 0.06367709
0.18407615 0.060407825 -0.5595391 -0.5223163 -0.24422106 -0.119632415 0.01659352 0.1824348
0.070250705 0.15390179 0.04727176 0.11140615 0.14502157 0.026817575 -0.008652563 0.17369135
0.12250835 -0.0009548169 0.004294121 -6.6074704e-06 -0.115272634 0.14922567 0.1762511 0.050308187
0.16805848 -0.29772675 -0.28178272 0.121066526 0.24762097 -0.17607348 0.26347613 -0.14307855
-0.18127751 0.14777191 -0.10917831 0.04140043 -0.1199557 0.13026533 0.36308992 0.13337785
-0.300565 -0.14802983 -0.36825988 0.09500657 -0.21658793 0.008155197 0.50406015 -0.02711287
-0.4091333 -0.10735459 -0.0901033 -0.14594571 0.059103284 -0.09420432 -0.39674053 0.4182829
0.3588153 0.22157662 -0.36148083 -0.13153923 0.23154956 -0.10770948 0.036506556 -0.07601489
-0.18186168 -0.043779165 0.1631519 -0.2429515 -0.22966462 0.14191289 0.079041496 -0.040255878
0.18376032 -0.25919053 0.16489528 -0.1103036 -0.2893969 -0.08664933 -0.17016229 0.16216438
-0.084046826 -0.072439015 -0.094196565 -0.00037972536 0.002130458 -0.00034899087
00000000: a1b0 553b 6371 0f3c a634 5e3b 2424 693e
00000010: 7576 163e 7643 85be d87d 6fbd c4bc 753e
00000020: d78a 5fbe 07ab 5d3d 4d55 563e 0b54 d43c
00000030: e42b 6bbd 3875 673e aa72 da3e c0bb e13d
00000040: a4c0 6c3e 5490 9cbe 2d7a 8ebe 81e5 513e
00000050: 3ff6 b33e 49a1 633a e32c 7fbb e52e c0b9
00000060: 3e96 1f3d 80a4 54bd c4fc 943d c45a 04be
00000070: df27 4e3d 1957 64be 674b 093e 5b4c 6c3b
00000080: 8855 87be 5866 9e38 6cfb 24bb 91fb a2ba
00000090: 8bbc 5fbe 5206 693e af44 083e 7959 b2bd
000000a0: eff5 11be 0562 583c aa36 12be aaff 4e3e
000000b0: b018 4c3e e0f3 ea3b 634e d33d a124 cdbe
000000c0: 6206 443d 60df 77bd fb34 24be 5206 c03e
000000d0: d587 4abe a64e 94be 1946 b13d 09b5 50be
000000e0: f42f 2abe 66c1 163e b6c2 b8bd 4a77 0b3e
000000f0: 3c98 a3bd 39af aabe c40f 423e 2269 823d
00000100: 757e 3c3e 326e 773d f43d 0fbf 85b6 05bf
00000110: 1615 7abe d701 f5bd 22ef 873c 30d0 3a3e
00000120: 9adf 8f3d 6e98 1d3e 08a0 413d e828 e43d
00000130: 8980 143e 88b0 db3c 7bc3 0dbc 25dc 313e
00000140: a8e5 fa3d ad4c 7aba b3b5 8c3b bdb5 ddb6
00000150: 0f14 ecbd 9dce 183e 2b7b 343e f50f 4e3d
00000160: 8617 2c3e a46f 98be d345 90be baf1 f73d
00000170: 5a90 7d3e 9b4c 34be 58e6 863e 2f83 12be
00000180: d0a0 39be 8551 173e e198 dfbd 7f93 293d
00000190: 56ab f5bd 4664 053e ece6 b93e 3494 083e
000001a0: a8e3 99be 2295 17be 8f8c bcbe ce92 c23d
000001b0: 3ac9 5dbe 609d 053c 160a 013f cf1b debc
000001c0: eb79 d1be b9dc dbbd 1488 b8bd cb72 15be
000001d0: 4916 723d 32ee c0bd 9321 cbbe 2d29 d63e
000001e0: a4b6 b73e fbe4 623e 0414 b9be 38b2 06be
000001f0: 541b 6d3e ca96 dcbd e687 153d b2ad 9bbd
00000200: f339 3abe c851 33bd 4b11 273e 47c8 78be
00000210: 342d 6bbe 9d51 113e 82e0 a13d 59e3 24bd
00000220: aa2b 3c3e 9fb4 84be 4fda 283e dbe6 e1bd
00000230: d52b 94be 3475 b1bd 063f 2ebe 6b0e 263e
00000240: be20 acbd e85a 94bd 21ea c0bd e015 c7b9
00000250: 279f 0b3b c3f8 b6b9

base.0linear.bias f4 [50]
-0.00410525 -0.024700454 0.08903982 -0.039567586 -0.024797687 0.0100043155 -0.08760529 -0.00048437197
-0.051410712 0.14962476 0.0265734 0.00033426884 -0.06186157 0.052361134 -0.046918936 0.0037502418
0.07311185 0.026854526 0.06320126 -0.1285116 0.04854624 -0.08376472 -0.14287958 -0.026530065
-0.08730963 -0.094561286 -0.05421131 0.0008305112 -0.090716876 0.071393244 -0.03057883 0.0984532
0.13821147 -0.04872316 0.10725576 0.048960555 0.0038464672 0.05026419 0.09925838 -0.057451915
-0.32940874 0.09521474 0.040441774 0.135251 0.05586588 0.09308733 0.09276566 -0.08472485
0.08849244 -3.2284122e-05
00000000: 5585 86bb 9b58 cabc 825a b63d 9f11 22bd
00000010: 8524 cbbc 24e9 233c 676a b3bd 4ef3 fdb9
00000020: 0a94 52bd 3c37 193e 75b0 d93c ce40 af39
00000030: 8f62 7dbd a178 563d 122e 40bd 9ec6 753b
00000040: aabb 953d 06fe db3c aa6f 813d 8b98 03be
00000050: 6cd8 463d d68c abbd 064f 12be 9455 d9bc
00000060: 64cf b2bd 59a9 c1bd ae0c 5ebd aab6 593a
00000070: c5c9 b9bd 9f36 923d 7480 fabc d5a1 c93d
00000080: 4f87 0d3e f091 47bd e8a8 db3d dd8a 483d
00000090: 0315 7c3b d3e1 4d3d fa47 cb3d b352 6bbd
000000a0: 43a8 a8be f2ff c23d 46a6 253d 3d7f 0a3e
000000b0: 9fd3 643d 92a4 be3d ecfb bd3d 3984 adbd
000000c0: 863b b53d d068 07b8

base.1linear.weight f4 [50, 50]
0.05767958 0.14351302 -0.023810325 0.18822645 0.1670952 -0.05827812 0.60263515 -0.035622705
0.113728404 -0.09635298 -0.07772681 0.120491676 0.32308158 -0.14316088 0.1431804 0.12540825
0.004585681 -0.08182017 -0.19574586 0.19730856 -0.086280555 -0.10160839 -0.18831633 -0.29950356
-0.14970338 0.27966967 -0.0047969925 -0.25859636 0.059701808 0.19808088 0.29765058 0.13396041
-0.11126913 0.047805212 -0.45163924 -0.28433847 0.041570496 -0.3325902 0.08719592 -0.02951042
0.033808652 0.024473751 -0.0036789353 -0.026390085 0.018445957 -0.0527005 -0.35197496 0.13450228
-0.08841545 -0.010936942 -0.2650143 0.04919143 -0.12461066 0.25388494 -0.22518712 -0.04643269
-0.18610443 -0.37484056 0.15611182 0.03805911 -0.26859313 0.09750951 0.085868075 0.22209458
0.19397381 0.023428032 -0.0069813766 0.041068453 0.16981453 0.07080697 -0.04535374 -0.027351601
-0.1968128 0.07579029 -0.02809561 -0.09704589 -0.007246995 -0.024863536 -0.016604416 -0.1523561
0.06565498 0.1652253 0.28702122 -0.13832352 -0.058495224 0.10464017 0.010869154 0.061859302
-0.15178907 -0.17574233 -0.05140821 -0.11648629 -0.16671419 0.0006630086 -0.13855027 -0.0027259244
0.12835823 0.21703678 -0.10863569 0.15703371 -0.09314697 -0.02623616 -0.13880573 0.0688276
0.02057658 0.06380434 -0.12881947 -0.026745785 0.09000196 0.15356073 0.015086939 -0.10321405
-0.3526933 0.083733216 -0.16156659 -0.11880303 -0.03513107 0.10908383 0.2027806 -0.21918178
-0.11011032 0.045654755 -0.35938483 -0.013158714 0.02364587 0.28628552 0.09952027 0.10944525
0.24637021 -0.10604786 -0.27414653 -0.119832456 0.023001406 0.14415525 0.19952084 -0.13017951
0.12080332 -0.21218404 0.035270147 -0.09704025 -0.21845639 -0.152394 -0.21687698 0.2544078
0.06992183 0.35369712 0.0821173 0.03832247 -0.2264603 0.10993416 -0.052310813 0.11564577
0.08068209 -0.08910357 -0.019244425 0.0554306 -0.023978243 0.052524194 -0.040919673 -0.10289588
-0.09779822 0.15642928 -0.013341437 0.052413315 0.054993816 -0.28633383 -0.036400758 0.11977497
0.02956328 -0.029785478 -0.15451966 0.43148243 -0.094611764 -0.060000986 0.11427639 0.13946375
0.25187173 -0.078050956 -0.26905188 0.06987678 -0.19882247 0.0061288737 -0.041315317 0.38504398
-0.0720256 -0.057700284 0.015578061 -0.3638537 -0.08097003 0.045622256 0.6112747 -0.15315981
-0.24360453 -0.1698103 0.023946213 -0.0016306889 -0.025867244 0.23842344 -0.36752102 0.012928909
-0.14328156 -0.08076021 -0.20301427 -0.1716512 0.17499945 0.1340264 -0.21575387 0.06405047
-0.10688275 -0.13408242 -0.096553214 -0.22965029 0.19347076 -0.064513505 0.08241527 0.13734956
0.11947313 0.0053504654 -0.047397323 0.21363367 0.38271302 -0.036443103 -0.01673045 0.20212649
0.07367687 -0.27611133 -0.16878033 0.21065587 -0.1030437 0.21352114 0.038030475 -0.06417441
0.06979781 -0.032467395 0.044186562 -0.22957544 0.052771628 0.16694568 -0.16918537 -0.13074291
0.030203529 -0.07145142 -0.117740974 0.094414175 0.14376423 0.007290199 -0.12508863 -0.14959589
0.008884727 0.14952405 0.088117056 -0.1575968 -0.03202477 0.12897855 0.063893594 0.11860875
00000000: 6c41 6c3d 14f5 123e df0d c3bc 6fbe 403e
00000010: 011b 2b3e 0ab5 6ebd 4c46 1a3f 1de9 11bd
00000020: 70ea e83d b654 c5bd 3c2f 9fbd 57c4 f63d
00000030: f36a a53e c498 12be e29d 123e 056b 003e
00000040: 7b43 963b 5591 a7bd 9a71 48be 410b 4a3e
00000050: dcb3 b0bd 0f18 d0bd ffd5 40be 8858 99be
00000060: d84b 19be dd30 8f3e 1730 9dbb be66 84be
00000070: e289 743d b7d5 4a3e a865 983e eb2c 093e
00000080: 12e1 e3bd 66cf 433d 423d e7be d094 91be
00000090: d345 2a3d 4349 aabe c693 b23d d6bf f1bc
000000a0: f17a 0a3d 2d7d c83c 4b1a 71bb 0530 d8bc
000000b0: fa1b 973c 7bdc 57bd 1036 b4be f7ba 093e
000000c0: 2913 b5bd dc30 33bc f4af 87be f47c 493d
000000d0: e033 ffbd 35fd 813e 7497 66be 3430 3ebd
000000e0: 2992 3ebe 1aeb bfbe c7db 1f3e dfe3 1b3d
000000f0: 0a85 89be 11b3 c73d 9adb af3d c36c 633e
00000100: 12a1 463e 25ec bf3c 08c4 e4bb 6537 283d
00000110: dce3 2d3e 3f03 913d d8c4 39bd 7710 e0bc
00000120: 4b89 49be f137 9b3d c428 e6bc ffbf c6bd
00000130: 3378 edbb 9dae cbbc fc05 88bc 3d03 1cbe
00000140: 1e76 863d d230 293e 72f4 923e aea4 0dbe
00000150: b098 6fbd 964d d63d 8914 323c 2e60 7d3d
00000160: 986e 1bbe ccf5 33be 6a91 52bd 5d90 eebd
00000170: 20b7 2abe c1cd 2d3a 1fe0 0dbe 6ca5 32bb
00000180: 5770 033e e43e 5e3e 637c debd 72cd 203e
00000190: d7c3 bebd 37ed d6bc 1723 0ebe 7cf5 8c3d
000001a0: 3790 a83c daab 823d 40e9 03be fa19 dbbc
000001b0: f352 b83d 063f 1d3e 352f 773c e361 d3bd
000001c0: 3794 b4be 527c ab3d b671 25be 014f f3bd
000001d0: 99e5 0fbd 5867 df3d b8a5 4f3e 3071 60be
000001e0: 8581 e1bd 7b00 3b3d 4a01 b8be a697 57bc
000001f0: fcb4 c13c 0494 923e 49d1 cb3d d524 e03d
00000200: 7948 7c3e 9f2f d9bd ef5c 8cbe b86a f5bd
00000210: 726d bc3c 6f9d 133e 314f 4c3e c74d 05be
00000220: bb67 f73d c646 59be 6e77 103d 0abd c6bd
00000230: 08b3 5fbe 2c0d 1cbe 0015 5ebe bd41 823e
00000240: 2d33 8f3d ca17 b53e 1d2d a83d 06f8 1c3d
00000250: 35e5 67be 2925 e13d dd43 56bd b1d7 ec3d
00000260: a73c a53d ef7b b6bd 7ca6 9dbc 320b 633d
00000270: 056e c4bc 9c23 573d 639b 27bd 13bb d2bd
00000280: 6f4a c8bd ff2e 203e 0b96 5abc 58af 563d
00000290: 3241 613d 599a 92be f618 15bd 944c f53d
000002a0: b12e f23c ad00 f4bc 673a 1ebe 44eb dc3e
000002b0: d0c3 c1bd 98c3 75bd bd09 ea3d 96cf 0e3e
000002c0: 55f5 803e 2ed9 9fbd 2bc1 89be 8f1b 8f3d
000002d0: 1e98 4bbe b8d4 c83b 403a 29bd 7c24 c53e
000002e0: 2882 93bd 2257 6cbd 203b 7f3c 084b babe
000002f0: 9dd3 a5bd 67de 3a3d 807c 1c3f edd5 1cbe
00000300: 7773 79be c0e2 2dbe d92a c43c d7bc d5ba
00000310: 8be7 d3bc 4625 743e b72b bcbe c6d3 533c
00000320: 67b8 12be 9c65 a5bd f9e2 4fbe 55c5 2fbe
00000330: 0e33 333e 373e 093e 95ee 5cbe e52c 833d
00000340: 58e5 dabd e74c 09be b1bd c5bd 7229 6bbe
00000350: 331d 463e a81f 84bd 56c9 a83d 5da5 0c3e
00000360: 54ae f43d f552 af3b b223 42bd c9c2 5a3e
00000370: f6f2 c33e 5d45 15bd 4c0e 89bc 3ffa 4e3e
00000380: e6e3 963d 775e 8dbe c0d4 2cbe 2cb6 573e
00000390: 9308 d3bd 49a5 5a3e d8c5 1b3d e06d 83bd
000003a0: 27f2 8e3d 88fc 04bd f8fc 343d d315 6bbe
000003b0: 1027 583d cff3 2a3e ee3e 2dbe 78e1 05be
000003c0: 646d f73c 1f55 92bd 2e22 f1bd 385c c13d
000003d0: ee36 133e 9fe2 ee3b 3c17 00be aa2f 19be
000003e0: 3f91 113c d51c 193e b776 b43d 0e61 21be
000003f0: 682c 03bd f412 043e a5da 823d 25e9 f23d

base.1linear.bias f4 [50]
-0.10051286 -0.05051088 0.115207344 -0.08576134 -0.025966275 0.032645084 0.074553795 0.03648438
0.050329998 -0.030304706 0.06699844 0.011007029 0.10198249 0.019252468 0.010462551 -0.037487358
-0.03445255 -0.030126587 -0.010754864 -0.006369338 -0.09356233 0.013720237 0.017731542 -0.07645651
-0.014251532 0.06404914 0.004811784 -0.035906807 0.031020314 0.007766679 -0.022682136 -0.04236621
-0.07605112 0.08863482 -0.0019093379 -0.16393554 -0.09867773 -0.06636278 -0.012197269 -0.008147854
-0.079734236 -0.04835882 0.014514325 -0.026503252 0.12632535 0.025969453 -0.063437454 -0.10257231
-0.029735804 0.124958724
00000000: b0d9 cdbd 7fe4 4ebd d4f1 eb3d a4a3 afbd
00000010: 3ab7 d4bc dab6 053d a9af 983d a570 153d
00000020: d426 4e3d 9341 f8bc 7a36 893d d356 343c
00000030: 32dc d03d 5ab7 9d3c 1f6b 2b3c 588c 19bd
00000040: 1e1e 0dbd 08cc f6bc 2b35 30bc e1b5 d0bb
00000050: 9b9d bfbd d8ca 603c bd41 913c 3b95 9cbd
00000060: 427f 69bc 322c 833d 2bac 9d3b 0413 13bd
00000070: 501e fe3c a07f fe3b e3cf b9bc 3188 2dbd
00000080: b1c0 9bbd 2c86 b53d c042 faba b8de 27be
00000090: 8d17 cabd 36e9 87bd 0ed7 47bc 947e 05bc
000000a0: b44b a3bd e613 46bd 7ecd 6d3c 591d d9bc
000000b0: 6f5b 013e e4bd d43c 7feb 81bd 6e11 d2bd
000000c0: 8098 f3bc 5cea ff3d

base.2linear.weight f4 [50, 50]
-0.27707005 -0.136215 -0.005072151 -0.15476693 -0.098383 -0.027235663 0.029220464 -0.1696649
0.16229917 -0.09185923 -0.12074435 0.03927073 0.43750238 -0.025193436 -0.01470325 0.035952237
0.018580258 -0.06788409 0.043853045 0.14763321 -0.2022865 -0.1362178 -0.053752545 -0.10465929
-0.0925211 0.2572137 -0.013393458 -0.03236503 0.08119084 0.053750064 0.033243097 0.014656708
-0.17548612 0.3107562 0.1431146 -0.26197225 0.07394945 -0.030027552 -0.04733615 0.38713756
-0.32812768 -0.0015212458 -0.11780322 -0.09700786 0.22918804 0.063010864 -0.26083893 -0.17331032
-0.33680514 0.3013698 -0.02705938 -0.03014257 0.45264384 -0.5199118 -0.0056998674 0.044676524
-0.11826072 -0.16823012 -0.28309146 0.34085113 0.17547369 0.048890382 0.06180475 -0.015855687
-0.006405292 0.14695318 0.083219595 -0.0052478653 -0.20019475 -0.13447411 -0.2768593 -0.04404588
0.27680063 0.32591596 0.32129186 -0.11114975 0.0021879175 -8.591239e-06 -0.054643173 -0.030836383
-0.011980638 0.012179728 0.012708915 0.11334224 -0.0091902325 -1.132865 -0.8900858 0.07597667
0.0010326789 -0.11147081 0.19919951 -0.012349335 -0.07360642 0.19440542 0.51158065 0.22761989
0.2615099 -0.073862135 0.26049522 0.45629904 0.20896135 0.017047536 -0.17076239 -0.08524766
-0.022978906 0.34644088 0.0600758 -0.086752385 -0.17931937 0.12301498 0.16377005 0.09548108
-0.19822891 -0.014495739 0.031575833 0.04050725 0.12071341 0.014942423 0.17110538 0.040975746
0.13102962 -0.1362506 0.2880483 -0.06282196 -0.023766978 -0.022800662 0.028405331 0.03518853
0.36450577 -0.09366338 -0.15667416 -0.041345417 0.1283246 -0.22988985 -0.22528473 -0.23600413
-0.3051912 0.14437117 -0.010793398 -0.005579034 -0.1830342 -0.16660993 -0.33676645 -0.16289745
0.22013785 -0.09297622 -0.036958225 -0.019134028 0.09382375 -0.05494735 -0.05103159 -0.015883222
-0.03755998 0.086867146 0.016008615 0.038160082 0.16437677 -0.20959905 0.13621452 0.261389
0.01990177 -0.021110186 -0.03803816 -0.047326043 0.048514355 0.2947678 0.0311296 -0.09768769
-0.19297215 -0.0071447105 0.28079626 0.14473699 0.19976854 0.40908659 -0.00084790227 -0.17010061
0.010315898 -0.086171016 0.105197445 -0.03270443 0.11874119 -0.043004412 -0.1319913 -0.0751164
0.107316524 0.038067497 -0.3379968 0.13273296 -0.027823668 -0.20903675 0.18332063 -0.068882026
0.22362016 0.046221457 0.19215235 -0.023744076 -0.15075101 0.42617097 -0.115352675 -0.33037102
-0.07924797 0.06672703 0.02106866 0.26061124 0.006168013 -0.26723772 0.08697708 0.11793429
-0.20370118 0.009673544 -0.08801306 0.10016027 0.07055861 0.0376185 -0.026233269 0.025226606
-0.22652023 0.01807546 0.042926442 -0.08648079 0.027320907 0.026461098 0.01908761 -0.09901521
-0.14020073 0.23655345 -0.02334647 -0.18782996 -0.08533969 -0.07322044 0.19803967 0.012133855
-0.039657056 0.12455775 -0.031512402 -0.11567964 -0.13968556 -0.016206836 -0.026939858 0.24311364
0.146525 -0.009275485 -0.13563482 0.22681914 -0.2433821 -0.19874217 0.04245196 0.27818117
-0.18467242 -0.18465532 -0.17039087 -0.037286878 -0.17737676 0.091175154 -0.03010654 0.09014144
00000000: 20dc 8dbe f27b 0bbe 4934 a6bb 397b 1ebe
00000010: 077d c9bd 531d dfbc c15f ef3c a3bc 2dbe
00000020: c131 263e b120 bcbd d048 f7bd 58da 203d
00000030: 5000 e03e 7762 cebc e6e5 70bc a742 133d
00000040: a035 983c d006 8bbd 409f 333d 292d 173e
00000050: 3124 4fbe ae7c 0bbe a12b 5cbd 9c57 d6bd
00000060: b47b bdbd 84b1 833e 3c70 5bbc 3291 04bd
00000070: 6247 a63d 0729 5c3d ea29 083d b022 703c
00000080: a2b2 33be 701b 9f3e a28c 123e 3a21 86be
00000090: cf72 973d 57fc f5bc 8de3 41bd e536 c63e
000000a0: 5a00 a8be 8a64 c7ba d142 f1bd 0fac c6bd
000000b0: 45b0 6a3e d70b 813d ae8c 85be 4378 31be
000000c0: b971 acbe 244d 9a3e a2ab ddbc 8ded f6bc
000000d0: efc0 e73e f118 05bf f4c5 babb bbfe 363d
000000e0: ad32 f2bd 8444 2cbe 5df1 90be 0a84 ae3e
000000f0: 60af 333e 4841 483d fa26 7d3d c9e3 81bc
00000100: 7ce3 d1bb e57a 163e 096f aa3d 49f6 abbb
00000110: daff 4cbe 95b3 09be 81c0 8dbe 7469 34bd
00000120: d0b8 8d3e 75de a63e 5e80 a43e 7ba2 e3bd
00000130: 2a63 0f3b 1723 10b7 85d1 5fbd 959c fcbc
00000140: 704a 44bc 7b8d 473c 0e39 503c fa1f e83d
00000150: a192 16bc b801 91bf aadc 63bf a899 9b3d
00000160: f45a 873a cf4a e4bd f5fa 4b3e dd54 4abc
00000170: f6be 96bd 3712 473e f3f6 023f 3015 693e
00000180: a0e4 853e 0845 97bd a15f 853e 07a0 e93e
00000190: f7f9 553e 46a7 8b3c 56dc 2ebe 5396 aebd
000001a0: 423e bcbc b360 b13e 0b12 763d 3cab b1bd
000001b0: 7f9f 37be 47ef fb3d 56b3 273e 968b c33d
000001c0: 85fc 4abe 897f 6dbc a955 013d eeea 253d
000001d0: 9838 f73d 11d1 743c 4036 2f3e 2fd6 273d
000001e0: a12c 063e 4785 0bbe 117b 933e cda8 80bd
000001f0: f7b2 c2bc 74c8 babc 4cb2 e83c d921 103d
00000200: 80a0 ba3e 96d2 bfbd 316f 20be d059 29bd
00000210: 8667 033e 3f68 6bbe 0ab1 66be 11ab 71be
00000220: 0542 9cbe 09d6 133e cbd6 30bc 54d0 b6bb
00000230: 516d 3bbe cb9b 2abe a76c acbe 97ce 26be
00000240: d16b 613e 516a bebd 8261 17bd f7be 9cbc
00000250: ab26 c03d 7910 61bd 8006 51bd 881d 82bc
00000260: 7ed8 19bd 67e7 b13d 8024 833c bf4d 1c3d
00000270: 6252 283e 22a1 56be d27b 0b3e c7d4 853e
00000280: 0909 a33c 45ef acbc e7cd 1bbd f4d8 41bd
00000290: fdb6 463d ceeb 963e 8103 ff3c 7c10 c8bd
000002a0: 7e9a 45be 2d1e eabb 87c4 8f3e ef35 143e
000002b0: 2090 4c3e cc73 d13e c245 5eba db2e 2ebe
000002c0: 0304 293c 6e7a b0bd c271 d73d 15f5 05bd
000002d0: 952e f33d 6525 30bd ba28 07be a1d6 99bd
000002e0: c4c8 db3d aaec 1b3d eb0d adbe 26eb 073e
000002f0: 76ee e3bc bb0d 56be 67b8 3b3e 0512 8dbd
00000300: affc 643e b652 3d3d 96c3 443e f082 c2bc
00000310: 795e 1abe 1533 da3e 063e ecbd 6426 a9be
00000320: c24c a2bd 2ea8 883d 2f98 ac3c d66e 853e
00000330: 0b1d ca3b 62d3 88be 0a21 b23d 8887 f13d
00000340: 0b97 50be c97d 1e3c 3140 b4bd d420 cd3d
00000350: 0881 903d db15 1a3d 27e7 d6bc 07a8 ce3c
00000360: ebf4 67be fd12 943c a3d3 2f3d d71c b1bd
00000370: 18d0 df3c f2c4 d83c 9f5d 9c3c 7dc8 cabd
00000380: c890 0fbe 113b 723e 1941 bfbc 7f56 40be
00000390: 93c6 aebd 99f4 95bd e9ca 4a3e 14cd 463c
000003a0: 706f 22bd 2218 ff3d 2613 01bd 72e9 ecbd
000003b0: bb09 0fbe 33c4 84bc fab0 dcbc c8f2 783e
000003c0: a60a 163e 34f8 17bc dbe3 0abe 4743 683e
000003d0: 2839 79be 1183 4bbe 1be2 2d3d c36d 8e3e
000003e0: c41a 3dbe 4916 3dbe f27a 2ebe 20ba 18bd
000003f0: 41a2 35be 0aba ba3d fea1 f6bc 139c b83d

base.2linear.bias f4 [50]
0.15342839 0.22675759 0.095007695 -0.102920696 -0.020893391 -0.049836762 -0.0843305 -0.08923227
-0.09768303 0.0070103724 -0.028179962 -0.011885061 -0.11707904 0.015311697 0.10842105 0.07824758
-0.02230491 0.0085176 0.02155225 0.071779646 0.01706294 0.09229601 0.069747224 0.025808705
0.040663645 0.060839303 0.00071055355 -0.04790382 -0.018476414 0.053873 -0.044988457 -0.10389111
-0.01993904 -0.065296404 0.08088296 0.020057676 0.09260474 -0.00021202747 -0.028293777 -0.0224396
0.048466105 -0.017459117 -0.05770344 -0.06685771 -0.074743256 0.039067015 -0.037131023 -0.0494711
0.0015227959 0.11285124
00000000: 551c 1d3e 2433 683e 6593 c23d 16c8 d2bd
00000010: 9e28 abbc a221 4cbd 78b5 acbd 69bf b6bd
00000020: 0a0e c8bd 44b7 e53b aad9 e6bc 8fb9 42bc
00000030: 23c7 efbd e9dd 7a3c db0b de3d 4440 a03d
00000040: c9b8 b6bc 678d 0b3c 588e b03c 3501 933d
00000050: 94c7 8b3c b105 bd3d a2d7 8e3d c76c d33c
00000060: ec8e 263d a232 793d 7144 3a3a cc36 44bd
00000070: d95b 97bc efa9 5c3d d145 38bd ddc4 d4bd
00000080: 3357 a3bc 1fba 85bd f7a5 a53d ff4f a43c
00000090: 8ea7 bd3d b153 5eb9 5ac8 e7bc 41d3 b7bc
000000a0: 6584 463d 6c06 8fbc 715a 6cbd b2ec 88bd
000000b0: fe12 99bd bc04 203d b316 18bd 35a2 4abd
000000c0: 8d98 c73a 8d1e e73d

base.3linear.weight f4 [50, 50]
0.18440612 0.77893823 0.38847023 -0.15827483 0.0058117127 -0.13208818 0.10858759 -0.14279352
-0.49177435 -0.0016646374 0.10037274 -0.12579261 -0.36526355 -0.1235109 -0.18826126 -0.037886243
0.15215404 0.24668759 -0.068786226 0.1556206 0.030624766 0.16756202 0.14857922 0.03390817
0.1785818 -0.037186112 0.057870895 -0.034633208 -0.14495298 0.035358302 -0.19553699 -0.2846029
-0.04036929 0.0020615521 0.16519144 0.14759105 0.14262562 0.3926679 0.012945898 -0.02466183
-0.059881765 0.035629496 -0.2431364 0.0359101 -0.09485029 0.048288126 0.06088278 0.05725238
-0.034289192 0.071220644 -0.09952355 -0.096619315 0.13001978 -0.09394861 0.02817649 0.027370296
0.040909808 0.17240874 -0.2708415 0.012671739 0.17730138 -0.15123935 -0.3343309 0.18868066
-0.013060748 -0.18853903 -0.1821862 -0.2678626 -0.18125178 0.16373564 -0.058873244 -0.15678723
0.10344912 -0.09936954 -0.49251482 -0.1538428 0.047219347 0.14218755 -0.10663159 0.2030371
0.14253415 -0.10414911 -0.02775026 -0.021868583 0.195133 -0.18741344 0.10102797 0.23814116
-0.104444556 0.031998355 0.26099825 -0.09596288 -0.0066470406 0.31884396 -0.09121485 -0.03283191
0.29011667 -0.098633185 0.05288593 0.118628606 -0.10614789 0.39132935 0.11174506 -0.16130073
-0.19323188 0.016502906 0.09148498 -0.009026626 -0.1263794 -0.006026686 0.30130744 0.09055975
-0.22785622 0.048193324 -0.027291613 0.03947054 0.09905155 -0.0069763605 -0.18852222 0.040220078
0.18597712 -0.092875466 -0.18024631 0.15891984 0.1565072 -0.12994674 0.054897666 0.12690909
0.13363996 0.0615128 0.32253388 0.26495165 0.031484805 0.11351155 -0.13192779 0.14191149
-0.080456525 -0.013714823 0.020641826 -0.028485896 -0.06132184 -0.14486411 -0.16083634 0.043754153
-0.12475613 -0.026581988 -0.04002981 0.17890589 0.018728599 0.22076626 0.015808478 0.16083176
0.28995767 0.39558953 -0.11978763 -0.05965986 0.1428813 -0.102192886 0.023106627 -0.0039193556
0.071728006 0.06264166 -0.14100988 0.17956841 -0.1843072 -0.028608447 -0.05565147 -0.020721352
-0.038372368 -0.09003453 -0.009075341 -0.19964351 -0.11942906 -0.14123364 0.031424902 0.119372435
-0.012581532 0.12588237 0.06982451 0.02088703 0.03209078 -0.030360928 0.25985545 -0.0071723685
0.05632674 -0.0732527 -0.15786405 -0.0038006108 -0.08689791 0.039106242 -0.0026386615 0.14499654
-0.2026059 -0.24229911 0.14415227 -0.06026947 -0.046691712 0.14263877 -0.063456036 -0.010836816
-0.044903755 -0.25423172 -0.2088755 0.040778056 -0.059734873 -0.279668 0.136407 0.020465873
0.18943083 -0.012914509 -0.17236029 -0.056227088 0.0030693426 -0.25176337 0.08578089 -0.17358805
-0.2223214 -0.26440087 -0.012158678 0.072749384 -0.20911002 0.01542682 -0.0414436 0.10578162
-0.17994218 -0.2806739 -0.13379455 0.078926444 0.052742407 -0.17616671 -0.17125961 -0.25990698
0.087373264 0.17591737 0.36620674 -0.2642152 -0.0392676 0.01922796 -0.058065627 0.0044244877
0.07796085 0.29477027 -0.05793353 0.045880117 0.07299098 -0.09296977 0.03636846 0.22248276
-0.04133381 0.18721344 -0.258882 -0.37426147 -0.37422627 0.38774294 0.09428089 0.029172335
00000000: f5d4 3c3e 7f68 473f 92e5 c63e cc12 22be
00000010: 2e70 be3b 2042 07be 2c63 de3d 7738 12be
00000020: d9c9 fbbe f62f daba 3990 cd3d c7cf 00be
00000030: d303 bbbe 48f3 fcbd 8fc7 40be 9b2e 1bbd
00000040: 45ce 1b3e ac9b 7c3e cbdf 8cbd 025b 1f3e
00000050: cae0 fa3c 6195 2b3e 2725 183e 4be3 0a3d
00000060: 26de 363e 7750 18bd 080a 6d3d 8ddb 0dbd
00000070: 8e6e 14be ded3 103d d93a 48be 79b7 91be
00000080: 455a 25bd 1b1b 073b f227 293e 1c22 173e
00000090: 730c 123e c40b c93e 081b 543c 9b07 cabc
000000a0: 9546 75bd 3cf0 113d c0f8 78be 7816 133d
000000b0: de40 c2bd c5c9 453d 3960 793d 7981 6a3d
000000c0: d372 0cbd 21dc 913d 01d3 cbbd 59e0 c5bd
000000d0: e823 053e 2168 c0bd 62d2 e63c ac37 e03c
000000e0: 0b91 273d eb8b 303e bdab 8abe 209d 4f3c
000000f0: 7e8e 353e 7dde 1abe 6b2d abbe 8135 413e
00000100: bffc 55bc 6010 41be 058f 3abe 4925 89be
00000110: 119a 39be 51aa 273e 1225 71bd d58c 20be
00000120: 22dd d33d 4282 cbbd e72a fcbe f888 1dbe
00000130: 1369 413d 9d99 113e aa61 dabd f5e8 4f3e
00000140: 79f4 113e 214c d5bd 8354 e3bc be25 b3bc
00000150: f2d0 473e 4fe9 3fbe c1e7 ce3d 47db 733e
00000160: 07e7 d5bd b510 033d 90a1 853e 3088 c4bd
00000170: 6bcf d9bb 843f a33e dace babd c17a 06bd
00000180: 2c8a 943e 3200 cabd eb9e 583d 8ef3 f23d
00000190: 1164 d9bd 525c c83e 98da e43d 052c 25be
000001a0: 94de 45be 1a31 873c 7a5c bb3d 6ae4 13bc
000001b0: 9a69 01be 827b c5bb f844 9a3e 6477 b93d
000001c0: 2453 69be 5d66 453d a992 dfbc dcab 213d
000001d0: 8adb ca3d f499 e4bb f80b 41be cfbd 243d
000001e0: c970 3e3e 7e35 bebd 7d92 38be e2bb 223e
000001f0: 6c43 203e c210 05be 60dc 603d 75f4 013e
00000200: ead8 083e d9f4 7b3d 2923 a53e bea7 873e
00000210: 36f6 003d be78 e83d 1418 07be 3f51 113e
00000220: 64c6 a4bd 23b4 60bc 0c19 a93c 415b e9bc
00000230: 9c2c 7bbd 4257 14be 48b2 24be 8e37 333d
00000240: 2480 ffbd 78c2 d9bc 4cf6 23bd 1b33 373e
00000250: b86c 993c 8d10 623e c880 813c 15b1 243e
00000260: 5575 943e b68a ca3e 3853 f5bd e65d 74bd
00000270: 7a4f 123e 814a d1bd 1c4a bd3c f06d 80bb
00000280: 22e6 923d 454a 803d e564 10be c8e0 373e
00000290: 07bb 3cbe 435c eabc ccf2 63bd d3bf a9bc
000002a0: 582c 1dbd 0664 b8bd bdb0 14bc 596f 4cbe
000002b0: 3997 f4bd 8d9f 10be 66b7 003d 8979 f43d
000002c0: c522 4ebc 4fe7 003e 2700 8f3d 471b ab3c
000002d0: 9f71 033d 7bb7 f8bc c60b 853e 3006 ebbb
000002e0: deb6 663d 8305 96bd 1da7 21be ab13 79bb
000002f0: 88f7 b1bd de2d 203d 65ed 2cbb f979 143e
00000300: ec77 4fbe 421d 78be a79c 133e 1fdd 76bd
00000310: cf3f 3fbd e60f 123e 3df5 81bd e78c 31bc
00000320: 00ed 37bd a92a 82be 76e3 55be e406 273d
00000330: 8eac 74bd a530 8fbe 47ae 0b3e 0ca8 a73c
00000340: 28fa 413e 6097 53bc 377f 30be 604e 66bd
00000350: 0627 493b 21e7 80be e4ad af3d 11c1 31be
00000360: 39a8 63be 8d5f 87be 3135 47bc a1fd 943d
00000370: f020 56be c6c0 7c3c c4c0 29bd 09a4 d83d
00000380: c342 38be 7db4 8fbe 7001 09be 30a4 a13d
00000390: 6c08 583d 0c65 34be ae5e 2fbe 8712 85be
000003a0: c1f0 b23d af23 343e 737f bb3e 3747 87be
000003b0: 10d7 20bd f483 9d3c 39d6 6dbd 4bfb 903b
000003c0: f0a9 9f3d 21ec 963e b64b 6dbd caec 3b3d
000003d0: 4c7c 953d ef66 bebd 18f7 143d 85d2 633e
000003e0: a44d 29bd e1b4 3f3e 2e8c 84be 339f bfbe
000003f0: 969a bfbe 3e86 c63e 5716 c13d d2fa ee3c

base.3linear.bias f4 [50]
0.10624576 0.09722646 -0.039237972 0.0028385455 -0.00663942 -0.101783894 4.7041518e-05 0.10706231
-0.16043796 -0.010243039 0.09461249 -0.06685059 -0.0037246768 0.08143236 0.01359393 0.07485769
-0.06319316 -0.0054455413 0.042367313 0.083129585 0.037727572 0.027798755 0.06766981 0.099703886
-0.07971414 -0.013333731 1.1247952e-05 0.040592417 0.11195799 -0.113667384 -0.059567038 -0.08840531
0.08066538 -0.14074287 -0.02098703 -0.015717695 0.115221396 -0.097285345 -0.07764338 -0.040222872
-0.07447056 0.065823644 -0.09546116 -0.03868988 -0.056333534 0.13043375 -0.007513293 -0.10923806
0.109761335 0.09341227
00000000: 6197 d93d ab1e c73d ffb7 20bd e406 3a3b
00000010: 7e8f d9bb 1374 d0bd 724e 4538 7c43 db3d
00000020: d949 24be 6bd2 27bc 31c4 c13d f6e8 88bd
00000030: b519 74bb 02c6 a63d 13b9 5e3c fd4e 993d
00000040: 6a6b 81bd 8370 b2bb 5989 2d3d d83f aa3d
00000050: 3a88 1a3d 37ba e33c 7896 8a3d 8d31 cc3d
00000060: 2b41 a3bd b975 5abc 96b5 3c37 3c44 263d
00000070: 3b4a e53d 72ca e8bd 91fc 73bd d80d b5bd
00000080: e433 a53d e61e 10be feec abbc 65c2 80bc
00000090: 32f9 eb3d 8a3d c7bd 7e03 9fbd bdc0 24bd
000000a0: 0584 98bd 8cce 863d 2481 c3bd 4879 1ebd
000000b0: febd 66bd 6d90 053e 1232 f6bb 34b8 dfbd
000000c0: 8dca e03d ef4e bf3d

base.4linear.weight f4 [50, 50]
0.011986488 -0.07319449 0.012946844 -0.058524076 0.14593095 0.03244021 0.09794025 0.15049084
-0.3597453 -0.3025486 0.07713402 0.0396176 0.10754105 0.29719874 -0.116089925 0.06456643
0.16354884 0.026469178 0.07014264 -0.047556456 0.0073399963 -0.07268935 0.22407049 0.1721663
0.2588209 0.46681893 0.49247772 -0.31990623 0.043573275 -0.08282843 -0.22584991 -0.39927834
-0.06902537 -0.11652188 0.12799169 0.029243473 0.37875938 0.37592137 0.02131614 0.09528487
-0.13091895 -0.0044367136 0.15096764 0.07963631 0.18477076 0.09912539 0.062454145 -0.1142566
-0.05365391 -0.07149852 0.11627926 -0.13891377 0.0114049995 0.06424272 -0.14505166 -0.15245508
0.28112057 0.13063942 0.10422919 -0.03896668 0.06927868 -0.01269714 -0.014008323 -0.04520856
-0.23500189 0.15804176 -0.18189557 0.007739765 -0.13908276 0.13482784 0.1308541 0.033192854
-0.01799442 -0.107671574 -0.33340794 -0.08546191 0.06253598 0.39185125 -0.09506375 -0.35710838
0.18312071 0.25583977 0.10191051 -0.17501895 -0.21333209 -0.19838734 0.08278919 -0.31283364
0.0045314804 -0.003239906 -0.06157369 -0.10079551 -0.088965416 -0.28356338 -0.18335944 0.32291058
-0.0006125301 -0.15640484 0.10381923 0.21339688 -0.046360683 -0.047355514 -0.028426996 -0.08657818
-0.11253895 0.15683262 0.11142424 -0.22736154 -0.16125652 0.14006852 0.06858115 -0.24080694
0.045001928 0.37114525 0.102289565 -0.20841299 0.17303067 -0.19905859 0.33092734 0.029819075
-0.023710478 0.07692317 0.072649874 0.17200334 -0.021352144 0.097588 0.18290874 -0.030894622
0.18495135 -0.21735834 -0.09476307 -0.061428647 0.24445271 -0.05592974 0.3539793 0.01106865
0.28297696 -0.2832208 0.1347614 0.025071947 0.2717882 0.28541356 0.029075436 0.08863729
-0.12927106 0.14657837 0.014981171 0.14610994 0.22764437 -0.06252764 -0.31933773 0.019392785
-0.2517628 0.029725846 0.20841719 0.3955281 -0.07368142 0.045362014 0.24357645 -0.026268605
-0.23536113 -0.00035197317 0.088315666 -0.1955559 0.21384743 -0.113932155 0.18416385 0.009155841
-0.043123107 -0.20222765 -0.27059332 -0.07473554 -0.115699686 -0.28489023 0.021834798 0.31804505
0.1860848 -0.388964 0.12377841 0.15642034 -0.0065280274 -0.0677876 -0.18463767 -0.014701699
0.28082103 -0.17599823 0.04193593 0.11131853 -0.09677258 0.07586024 -0.17550425 -0.21651703
0.16561967 0.05648936 0.10092714 -0.23756023 0.059777856 -0.03350669 -0.20626599 -0.06394371
-0.24529023 0.03284659 -0.066971816 -0.16298544 0.15437561 0.08882049 -0.10226667 0.024320478
0.28043526 0.39762762 0.11952349 0.07056599 -0.20071357 -0.32884952 -0.4369499 -0.12784357
-0.080354445 -0.069087565 0.41999295 0.21353734 -0.32446858 0.22572228 -0.1717057 -0.0658711
-0.31045067 0.038057595 -0.005722014 0.17697957 0.17322782 0.099238865 0.07138596 0.2597941
-0.18072963 -0.19305028 -0.02856044 0.38284293 -0.27172047 -0.42173648 0.21746336 -0.23695762
0.04963072 -0.094412915 -0.006988671 -0.1148078 0.3103534 -0.15337974 -0.0074346354 0.011732718
-0.16813794 -0.03138441 0.09086913 -0.3429784 0.13866174 -0.27029333 -0.034770522 -0.054292005
00000000: f962 443c fee6 95bd 001f 543c f1b6 6fbd
00000010: ec6e 153e 07e0 043d e694 c83d 451a 1a3e
00000020: 8930 b8be a6e7 9abe 71f8 9d3d 1146 223d
00000030: 7b3e dc3d 6f2a 983e 8ec0 edbd 683b 843d
00000040: 5979 273e e4d5 d83c f2a6 8f3d 8fca 42bd
00000050: 5a84 f03b 27de 94bd bc72 653e 5d4c 303e
00000060: 2c84 843e e402 ef3e 0a26 fc3e c0ca a3be
00000070: e479 323d f4a1 a9bd 3345 67be 366e ccbe
00000080: 2c5d 8dbd 06a3 eebd 4110 033e 0290 ef3c
00000090: c0ec c13e c478 c03e 309f ae3c b724 c33d
000000a0: 9e0f 06be da61 91bb 4397 1a3e 5d18 a33d
000000b0: 8c34 3d3e 4102 cb3d ebcf 7f3d 5dff e9bd
000000c0: 34c4 5bbd d16d 92bd d223 ee3d 693f 0ebe
000000d0: 09dc 3a3c b091 833d 6c88 14be 2f1d 1cbe
000000e0: 09ef 8f3e 57c6 053e 1d76 d53d 879b 1fbd
000000f0: fbe1 8d3d aa07 50bc 2a83 65bc 9c2c 39bd
00000100: 56a4 70be b3d5 213e d542 3abe db9d fd3b
00000110: b66b 0ebe 4f10 0a3e 9efe 053e 3bf5 073d
00000120: 0969 93bc ea82 dcbd 72b4 aabe a706 afbd
00000130: dd12 803d baa0 c83e c9b0 c2bd e9d6 b6be
00000140: ff83 3b3e 6efd 823e 75b6 d03d 2b38 33be
00000150: ba73 5abe 0d26 4bbe 618d a93d bb2b a0be
00000160: d07c 943b 9a54 54bb b234 7cbd e06d cebd
00000170: 8033 b6bd 382f 91be 94c2 3bbe 8954 a53e
00000180: 3392 20ba 9728 20be 2d9f d43d b684 5a3e
00000190: b3e4 3dbd dbf7 41bd bbdf e8bc e74f b1bd
000001a0: d27a e6bd bb98 203e 6432 e43d 77d1 68be
000001b0: 6e20 25be 1f6e 0f3e 4674 8c3d 1896 76be
000001c0: f153 383d c006 be3e 317d d13d 376a 55be
000001d0: f42e 313e 04d6 4bbe 4f6f a93e 2247 f43c
000001e0: 7a3c c2bc e589 9d3d 75c9 943d a521 303e
000001f0: b1ea aebc 38dc c73d 6e4c 3b3e b816 fdbc
00000200: e363 3d3e 2f93 5ebe 2413 c2bd 9b9c 7bbd
00000210: d051 7a3e 9516 65bd c63c b53e 4859 353c
00000220: 5be2 903e 5102 91be e4fe 093e af63 cd3c
00000230: d327 8b3e ba21 923e 9c2f ee3c 7887 b53d
00000240: a25f 04be a418 163e 9673 753c d89d 153e
00000250: 9b1b 693e 7e0e 80bd 3c80 a3be 9edd 9e3c
00000260: 0ee7 80be 9e83 f33c 516b 553e a982 ca3e
00000270: 49e6 96bd 85cd 393d 1b6c 793e 4231 d7bc
00000280: 8202 71be 0a89 b8b9 d8de b43d ce3f 48be
00000290: d2fa 5a3e 4355 e9bd 7395 3c3e 6102 163c
000002a0: dba1 30bd c414 4fbe 358b 8abe f20e 99bd
000002b0: f5f3 ecbd 22dd 91be e4de b23c cdd6 a23e
000002c0: 048d 3e3e 4a26 c7be 897f fd3d a72c 203e
000002d0: 10e9 d5bb 3ad4 8abd a811 3dbe 65df 70bc
000002e0: c6c7 8f3e e138 34be 02c5 2b3d f8fa e33d
000002f0: b430 c6bd 9d5c 9b3d 63b7 33be a4b6 5dbe
00000300: 3498 293e 6361 673d e3b2 ce3d fd42 73be
00000310: a0d9 743d 503e 09bd 6437 53be ebf4 82bd
00000320: 5d2d 7bbe 258a 063d 8528 89bd a8e5 26be
00000330: a414 1e3e 84e7 b53d 3071 d1bd bd3b c73c
00000340: 3695 8f3e d995 cb3e bbc8 f43d e784 903d
00000350: dc87 4dbe f75e a8be e6b7 dfbe 6de9 02be
00000360: df90 a4bd c87d 8dbd 5109 d73e 88a9 5a3e
00000370: bf20 a6be be23 673e 9ed3 2fbe 6de7 86bd
00000380: 64f3 9ebe 48e2 1b3d bb7f bbbb 223a 353e
00000390: a262 313e bf3d cb3d cd32 923d bb03 853e
000003a0: 3011 39be f9ae 45be 95f7 e9bc fd03 c43e
000003b0: f21e 8bbe d8ed d7be b7ae 5e3e 05a5 72be
000003c0: 9549 4b3d 8f5b c1bd 3901 e5bb 5a20 ebbd
000003d0: a4e6 9e3e 940f 1dbe 3e9e f3bb 963a 403c
000003e0: 5a2c 2cbe f08c 00bd 9819 ba3d dd9a afbe
000003f0: 58fd 0d3e e363 8abe 896b 0ebd 4b61 5ebd

base.4linear.bias f4 [50]
0.039297283 0.076592624 0.043419085 -0.10711504 0.017704932 0.059247267 0.038943537 0.011530108
-0.03609222 0.06399868 0.0575881 -0.037072252 -0.07161156 0.16145158 -0.1032356 0.000555537
-0.052680857 0.020884857 0.0737076 -0.054372746 0.07836384 -0.14212467 0.0032690451 0.011800605
-0.10247745 -0.022368485 0.023235414 -0.12168367 0.024219684 -0.010616918 0.056767557 0.08110447
0.0029842313 -0.07200713 0.0708648 -0.03659443 -0.010485036 0.06705307 -0.025838282 0.05871975
0.096208565 -0.06798546 -0.06983324 0.07153005 -0.07656648 -0.064756125 0.036929645 -0.093493685
-0.04961333 0.08431229
00000000: 30f6 203d 98dc 9c3d 36d8 313d 215f dbbd
00000010: ef09 913c 43ad 723d 4283 1f3d c7e8 3c3c
00000020: 70d5 13bd bd11 833d 80e1 6b3d 13d9 17bd
00000030: 15a9 92bd 9053 253e 306d d3bd 75a1 113a
00000040: e2c7 57bd b816 ab3c 03f4 963d f5b5 5ebd
00000050: 397d a03d 2189 11be 7a3d 563b 5357 413c
00000060: b3df d1bd 1d3e b7bc 3258 be3c 4a35 f9bd
00000070: 5c68 c63c 95f2 2dbc 1985 683d 1a1a a63d
00000080: 1893 433b 7978 93bd 9021 913d 0be4 15bd
00000090: 6ec9 2bbc 1f53 893d ceaa d3bc 1f84 703d
000000a0: ff08 c53d f63b 8bbd bb04 8fbd 597e 923d
000000b0: e3ce 9cbd dc9e 84bd 8a43 173d 9e79 bfbd
000000c0: 5937 4bbd ecab ac3d

base.5linear.weight f4 [50, 50]
0.48087883 -0.077299155 0.02061973 0.011311965 0.013743916 -0.04756464 0.05495528 -0.17226878
0.030108498 0.2992461 0.21837331 -0.24666756 0.025213128 0.14217697 0.0669162 -0.0057165995
-0.07547715 0.11768387 0.12194343 -0.35296836 0.009585908 0.08214135 0.051889867 -0.047277573
-0.26575795 0.02520863 0.1697361 -0.0772362 -0.09447821 -0.1014159 -0.16329283 0.18579297
-0.5614162 -0.27409157 0.02253685 0.094145946 0.117456436 0.09761722 0.033212144 0.20248961
-0.03534777 -0.07314936 -0.15691294 0.1620802 0.16772294 0.25485995 0.40722498 -0.041686628
-0.3216284 -0.061120983 -0.08064288 0.1266458 0.3390078 0.05834185 0.11098271 0.13361257
0.10926097 -0.0023674504 0.0058488036 0.11413753 -0.1386548 -0.33109054 -0.29393923 0.048236452
0.030141367 0.1795232 -0.28251034 -0.15298179 -0.07307397 0.0963246 0.052499138 -0.2079963
0.06906455 0.31396484 -0.21514076 0.30989882 -0.0035976362 -0.11256326 0.19889745 -0.32153243
-0.11546631 0.034452878 -0.18100525 -0.14636408 0.07056263 0.12228341 -0.18214232 -0.108963974
-0.07484043 -0.03124483 0.0847863 0.0050322725 -0.019658333 0.09868544 -0.15853757 -0.15143867
0.23272742 0.1255541 -0.1594672 0.02180813 -0.092624135 -0.018038778 -0.040314753 -0.17626366
-0.010626083 -0.07934976 0.16883923 0.10102229 -0.15144908 -0.0064795353 0.2996966 0.30526644
0.23003186 -0.09341184 0.12298084 -0.111343965 -0.022789558 -0.0038227332 -0.062969655 -0.021552917
0.14699335 -0.035460234 -0.28733644 0.33997843 -0.14800407 0.25984514 -0.20565265 0.19545092
0.016392346 0.111227565 0.11780609 0.33656952 0.28810787 0.061352376 0.13187893 -0.10360551
0.09457772 0.48493236 0.17062087 0.04468722 0.45430693 -0.06089885 -0.24325886 0.084403865
-0.03384827 0.03651776 0.43564737 -0.228866 0.06330857 0.012456598 -0.22939727 0.09681528
-0.12072715 0.12113967 0.14150164 0.2247571 0.43156457 0.17991704 -0.22027794 0.3729388
-0.21023296 0.11196946 -0.11375973 -0.5512206 0.032109514 0.25083014 0.18210797 -0.45757335
-0.09974303 -0.27171808 0.16578612 -0.029141845 0.04346583 -0.023798965 -0.16310284 -0.06074021
0.04724985 0.23645385 0.0926376 0.09466887 -0.092366695 -0.016063409 -0.11638885 -0.10839829
-0.10300362 0.15197408 -0.15604578 0.22776245 0.77937853 -0.17483187 0.01183284 -0.031251203
-0.13959137 0.30004162 -0.22835056 -0.42317685 -0.1630187 -0.14572068 -0.18230423 0.04404989
0.29835156 -0.17088719 0.09861225 -0.05316043 0.08238762 0.20943049 0.027635464 0.016348854
0.051952492 0.18879737 -0.19764207 0.20186189 0.055033352 0.13894506 0.18749747 0.08821912
0.095839374 -0.14481282 -0.19654551 0.20247726 0.14200959 -0.04409163 -0.26163164 0.2548244
0.27378374 -0.1722855 -0.027544333 -0.12858225 -0.3104253 -0.10531773 -0.17630371 0.053142726
-0.3163023 0.0029278682 0.059908684 0.08745993 0.031252936 -0.07872047 0.046483807 -0.007450541
-0.07741161 -0.094631195 0.21604241 -0.005875455 -0.06976401 -0.08303538 0.09254786 0.14723343
0.0703932 -0.05749316 0.09140011 -0.12830576 -0.011089111 0.13733691 0.0054686028 -0.03541915
00000000: c035 f63e 054f 9ebd b5ea a83c d255 393c
00000010: 292e 613c 24d3 42bd ca18 613d 3a67 30be
00000020: 19a6 f63c c936 993e 419d 5f3e 6c96 7cbe
00000030: c38b ce3c d796 113e 5c0b 893d 5052 bbbb
00000040: c493 9abd 3e04 f13d 7abd f93d 45b8 b4be
00000050: 360e 1d3c b939 a83d 788a 543d 21a6 41bd
00000060: 6d11 88be 5482 ce3c 4dcf 2d3e 032e 9ebd
00000070: cb7d c1bd 24b3 cfbd 3c36 27be 8340 3e3e
00000080: f9b8 0fbf bb55 8cbe 339f b83c 97cf c03d
00000090: 008d f03d 89eb c73d 7509 083d 7059 4f3e
000000a0: d3c8 10bd 55cf 95bd c9ad 20be 5af8 253e
000000b0: 90bf 2b3e 017d 823e cb7f d03e 99bf 2abd
000000c0: 7aac a4be ff59 7abd 1828 a5bd 70af 013e
000000d0: 6e92 ad3e ddf7 6e3d e74a e33d bcd1 083e
000000e0: 37c4 df3d 3a27 1bbb 52a7 bf3b f0c0 e93d
000000f0: 86fb 0dbe b384 a9be 347f 96be 9693 453d
00000100: 07eb f63c eed4 373e 32a5 90be 42a7 1cbe
00000110: cea7 95bd d545 c53d 5609 573d fbfc 54be
00000120: b771 8d3d 00c0 a03e dc4d 5cbe 0fab 9e3e
00000130: 52c6 6bbb 9187 e6bd c6ab 4b3e e69f a4be
00000140: 9a79 ecbd 761e 0d3d 7159 39be 77e0 15be
00000150: 2483 903d b96f fa3d 8483 3abe 8128 dfbd
00000160: f045 99bd 28f5 ffbc 71a4 ad3d c3e5 a43b
00000170: 830a a1bc 981b ca3d ac57 22be bd12 1bbe
00000180: 1950 6e3e 4191 003e 5f4b 23be f7a6 b23c
00000190: b9b1 bdbd 0fc6 93bc 1521 25bd 767e 34be
000001a0: 0619 2ebc 2182 a2bd 31e4 2c3e c6e4 ce3d
000001b0: 7815 1bbe 4852 d4bb d571 993e e24b 9c3e
000001c0: 798d 6b3e b54e bfbd 61dd fb3d 4e08 e4bd
000001d0: 2bb1 babc d286 7abb 3cf6 80bd be8f b0bc
000001e0: 6d85 163e c03e 11bd c31d 93be a711 ae3e
000001f0: 618e 17be 6c0a 853e 9c96 52be 4924 483e
00000200: 3e49 863c 47cb e33d 5244 f13d d752 ac3e
00000210: e082 933e a14c 7b3d 450b 073e 202f d4bd
00000220: f7b1 c13d 0e49 f83e 3db7 2e3e f209 373d
00000230: eb9a e83e 1371 79bd da18 79be efdb ac3d
00000240: 7ca4 0abd a693 153d 2c0d df3e d95b 6abe
00000250: eca7 813d c216 4c3c 1ee7 6abe 1747 c63d
00000260: cc3f f7bd 1318 f83d cee5 103e ba26 663e
00000270: 08f6 dc3e 2c3c 383e 8a90 61be d6f1 be3e
00000280: 4f47 57be 3f50 e53d dcfa e8bd cb1c 0dbf
00000290: 4485 033d cf6c 803e 837a 3a3e 0e47 eabe
000002a0: 1346 ccbd a21e 8bbe d6c3 293e e1ba eebc
000002b0: 3a09 323d 0cf6 c2bc 6e04 27be baca 78bd
000002c0: 0f89 413d f520 723e c8b8 bd3d c1e1 c13d
000002d0: c02a bdbd 6997 83bc 475d eebd ecff ddbd
000002e0: 90f3 d2bd 189f 1b3e 77ca 1fbe 8f3a 693e
000002f0: 5a85 473f 2007 33be 87de 413c 4301 00bd
00000300: 0af1 0ebe 0e9f 993e bbd4 69be a3aa d8be
00000310: 60ee 26be cd37 15be f6ad 3abe a86d 343d
00000320: 89c1 983e 0dfd 2ebe 38f5 c93d c0be 59bd
00000330: d7ba a83d f274 563e c563 e23c 08ee 853c
00000340: 23cc 543d 1954 413e af62 4abe e2b4 4e3e
00000350: a76a 613d 9d47 0e3e 56ff 3f3e 3aac b43d
00000360: 6f47 c43d d049 14be 3a43 49be 3356 4f3e
00000370: f66a 113e 6d99 34bd 95f4 85be 5878 823e
00000380: 622d 8c3e 9c6b 30be a7a4 e1bc 11ab 03be
00000390: 11f0 9ebe d2b0 d7bd f688 34be 30ac 593d
000003a0: 60f2 a1be 7ae1 3f3b cf62 753d 311e b33d
000003b0: 1403 003d 3338 a1bd ce65 3e3d ab23 f4bb
000003c0: fa89 9ebd 00ce c1bd 393a 5d3e e486 c0bb
000003d0: 6fe0 8ebd 740e aabd bc89 bd3d 5cc4 163e
000003e0: 4f2a 903d f37d 6bbd fb2f bb3d 9662 03be
000003f0: 1aaf 35bc 0ca2 0c3e f731 b33b ac13 11bd

base.5linear.bias f4 [50]
0.085327074 -0.005923962 0.07461403 1.5388883e-05 0.056110222 0.03284537 0.077141404 0.032906268
-0.053944472 -0.12583038 0.006457969 0.22988375 0.03384464 -0.0051994245 0.03815779 -0.09787223
-0.046205435 0.014371226 0.05905726 0.004226576 -0.021808872 0.08141531 0.11330559 -0.11395731
0.09846751 0.018491382 -0.25198054 -0.12583342 -0.07000987 -0.010882738 0.061123576 -0.028346008
-0.0030035637 0.09848154 0.016649192 0.026187394 0.0871775 0.066238865 -0.07184671 0.12121464
0.07305251 0.06425672 0.05351654 -0.10473341 0.013182874 0.09531817 -0.022931093 0.008523368
-0.03939914 0.023188245
00000000: f6bf ae3d cc1d c2bb 3ecf 983d 6017 8137
00000010: d5d3 653d de88 063d 50fc 9d3d b9c8 063d
00000020: e1f4 5cbd aed9 00be 5f9d d33b a566 6b3e
00000030: ada0 0a3d ef5f aabb 584b 1c3d 3c71 c8bd
00000040: e941 3dbd 4a75 6b3c 07e6 713d 177f 8a3b
00000050: 85a8 b2bc 12bd a63d c30c e83d 7362 e9bd
00000060: 55a9 c93d 3d7b 973c 9803 81be 7ada 00be
00000070: 5661 8fbd 834d 32bc b75c 7a3d e335 e8bc
00000080: 70d7 44bb b1b0 c93d e363 883c f286 d63c
00000090: 1e8a b23d 3ea8 873d 5e24 93bd 623f f83d
000000a0: 8e9c 953d 0799 833d 2934 5b3d 787e d6bd
000000b0: fbfc 573c 2c36 c33d fdd9 bbbc 99a5 0b3c
000000c0: fe60 21bd 46f5 bd3c

base.6linear.weight f4 [50, 50]
0.28791103 -0.20072998 -0.016614078 0.04310936 -0.08068812 -0.2006376 -0.31078774 0.05263195
-0.06403539 -0.098995596 -0.024283245 0.016137201 -0.64624715 -0.3293906 0.40374288 0.035480358
0.1793238 -0.008004346 -0.030356744 0.25126138 -0.22274457 0.66642874 0.083873354 0.1785473
-0.07190333 -0.3011018 0.10771913 0.401037 0.08610266 -0.1815099 0.040325135 0.26265627
0.05400295 -0.060441487 -0.066116795 -0.20367587 -0.046203636 0.118202955 -0.27780783 0.04637278
-0.15744755 0.15692696 -0.11781113 -0.060180843 -0.038992696 0.053881094 -0.011819292 -0.100419596
-0.073544994 -0.20150867 0.080687165 0.045016777 -0.09560697 0.20104726 0.1506969 0.121475376
0.07768858 -0.060872335 -0.12814036 -0.19030005 -0.13092941 -0.065329075 -0.263359 -0.019438291
-0.015731614 -0.10533788 -0.026931295 -0.32637748 -0.010567346 -0.13908154 0.007844054 0.0037274642
0.20815116 0.009346233 -0.11870832 -0.03313035 -0.06923733 0.5513058 0.20739175 0.11195882
0.1421903 0.15052877 -0.27356365 0.024597496 -0.036995456 -0.15492359 -0.14514834 0.2131989
-0.025654806 -0.085000366 -0.19379611 -0.13826908 -0.12234287 0.20131385 0.072847165 -0.078993864
-0.0400149 0.16288337 0.04802592 0.015944036 -0.25591642 -0.02769458 0.004211099 -0.29257083
0.04111766 0.06353564 -0.04796655 -0.28817147 0.030848118 0.16844495 -0.24327835 -0.08167673
-0.22951844 -0.055343013 0.13543057 0.14882423 -0.12204606 0.06577943 0.038727127 0.009103625
-0.15010348 -0.07351245 0.0039855964 -0.031074386 -0.094866514 0.14858028 0.2844627 0.3429924
0.21424693 0.10929794 -0.14998215 -0.224326 0.12965688 -0.113813266 0.104564734 0.16534539
-0.07934047 0.22522767 0.019373488 0.4213145 -0.19261241 -0.09189832 -0.15003492 -0.026882863
-0.18585338 0.25063345 0.1824719 0.22375071 0.08629468 -0.21537939 -0.020447403 -0.066523604
0.33401546 0.093224995 -0.026141021 -0.1309563 0.21118838 -0.04662119 -0.08586234 0.09179756
-0.1383311 -0.074319206 0.0036074976 0.02193577 0.05243374 0.26953635 -0.19540124 -0.15407646
-0.17244373 -0.40575767 0.44442147 0.14952768 -0.29389852 0.16812204 0.06297087 0.13209216
0.0660458 -0.17830166 -0.21137764 -0.039782487 -0.05074481 0.16766043 -0.08842493 0.146025
-0.18765837 -0.27330723 0.14225815 -0.11849498 -0.22167316 -0.02116526 -0.26299816 0.029175162
-0.09305314 0.200391 0.3206077 0.066761814 -0.12478131 0.1642148 0.23999645 -0.11091903
-0.05160874 0.17477775 -0.03202761 0.19882832 -0.3430546 0.12043786 0.16050571 0.044642244
0.03153761 -0.06639768 -0.06902003 -0.0619294 0.17523374 -0.09297863 0.11348352 -0.10664852
-0.17877907 -0.07878141 -0.13151264 0.18279922 0.23119862 0.004906449 0.1897779 -0.075543955
0.1402935 0.0019814002 -0.08647732 -0.16347963 -0.3276679 0.059148915 -0.118086584 0.17456605
-0.10768805 -0.055347502 -0.033294976 -0.08267024 -0.10422977 0.17420082 -0.111080945 0.22298081
-0.111101225 -0.11605261 0.0764731 0.04498421 0.33451882 -0.09489569 -0.30909854 -0.07464374
-0.10154331 0.29909134 0.06486439 -0.32621855 0.039225146 -0.36019325 -0.06563327 -0.2688111
00000000: 1369 933e 298c 4dbe 3f1a 88bc 7193 303d
00000010: d03f a5bd f173 4dbe 921f 9fbe 9994 573d
00000020: fd24 83bd 34be cabd a8ed c6bc 2a32 843c
00000030: 7470 25bf e2a5 a8be 63b7 ce3e da53 113d
00000040: a9a0 373e a924 03bc b5ae f8bc 55a5 803e
00000050: 2717 64be 139b 2a3f cbc5 ab3d 1ad5 363e
00000060: 0e42 93bd 042a 9abe d99b dc3d b954 cd3e
00000070: 9756 b03d bbdd 39be f82b 253d e27a 863e
00000080: 3332 5d3d 7e91 77bd 3e68 87bd 6890 50be
00000090: 0640 3dbd 6414 f23d d43c 8ebe 62f1 3d3d
000000a0: ee39 21be 76b1 203e f646 f1bd 3080 76bd
000000b0: ceb6 1fbd 6cb2 5c3d b4a5 41bc caa8 cdbd
000000c0: c29e 96bd 4a58 4ebe 503f a53d 8363 383d
000000d0: 96cd c3bd 55df 4d3e 4a50 1a3e 15c8 f83d
000000e0: 311b 9f3d 4555 79bd 3a37 03be 04de 42be
000000f0: 5c12 06be 40cb 85bd fed6 86be 0d3d 9fbc
00000100: 96df 80bc 63bb d7bd 059f dcbc f31a a7be
00000110: a922 2dbc 646b 0ebe 5984 003c 7948 743b
00000120: 9425 553e f120 193c 591d f3bd b1b3 07bd
00000130: 4dcc 8dbd 6022 0d3f 815e 543e aa4a e53d
00000140: 569a 113e 3724 1a3e 8910 8cbe b080 c93c
00000150: 8c88 17bd 4aa4 1ebe c4a1 14be d050 5a3e
00000160: 072a d2bc ac14 aebd 7d72 46be 6996 0dbe
00000170: e68e fabd 3825 4e3e e530 953d 89c7 a1bd
00000180: aae6 23bd e6ca 263e d4b6 443d 119d 823c
00000190: 7a07 83be bedf e2bc 42fd 893b d8cb 95be
000001a0: fe6a 283d f91e 823d 9378 44bd 368b 93be
000001b0: 31b5 fc3c d57c 2c3e f61d 79be 2146 a7bd
000001c0: e206 6bbe 5baf 62bd 50ae 0a3e 6165 183e
000001d0: 49f3 f9bd 5eb7 863d 56a0 1e3d 5f27 153c
000001e0: bab4 19be b28d 96bd 9b99 823b b68f febc
000001f0: 6049 c2bd 6e25 183e 18a5 913e b39c af3e
00000200: 8c63 5b3e 99d7 df3d ec94 19be b7b5 65be
00000210: c6c4 043e ee16 e9bd 0926 d63d 4d50 293e
00000220: 427d a2bd 15a2 663e 26b5 9e3c 89b6 d73e
00000230: 303c 45be 3035 bcbd c1a2 19be 7339 dcbc
00000240: 5950 3ebe 0753 803e ead9 3a3e e81e 653e
00000250: 44bb b03d 6a8c 5cbe 5081 a7bc 873d 88bd
00000260: 1304 ab3e bfec be3d b225 d6bc 6919 06be
00000270: c441 583e dcf5 3ebd 98d8 afbd 5c00 bc3d
00000280: aba6 0dbe ab34 98bd c46b 6c3b a5b2 b33c
00000290: c3c4 563d ab00 8a3e 4317 48be 38c6 1dbe
000002a0: 1795 30be 78bf cfbe 368b e33e c91d 193e
000002b0: de79 96be 2f28 2c3e dff6 803d 2b43 073e
000002c0: 0543 873d b694 36be 6173 58be f6f2 22bd
000002d0: cad9 4fbd 2daf 2b3e 2118 b5bd 9487 153e
000002e0: 8429 40be edee 8bbe 1fac 113e 7fad f2bd
000002f0: 4afe 62be c462 adbc b2a7 86be c000 ef3c
00000300: a592 bebd 4c33 4d3e b126 a43e 6bba 883d
00000310: 588d ffbd ed27 283e a1c1 753e 8429 e3bd
00000320: b063 53bd f0f8 323e 622f 03bd a799 4b3e
00000330: daa4 afbe 20a8 f63d 9c5b 243e c9da 363d
00000340: 952d 013d 82fb 87bd 605a 8dbd afa9 7dbd
00000350: 7970 333e 946b bebd 0c6a e83d 8a6a dabd
00000360: dc11 37be 2658 a1bd 40ab 06be b82f 3b3e
00000370: 55bf 6c3e 47c6 a03b 2355 423e cab6 9abd
00000380: 19a9 0f3e 61da 013b 051b b1bd 3467 27be
00000390: 16c4 a7be 2246 723d 61d7 f1bd 71c1 323e
000003a0: 8d8b dcbd 10b4 62bd 5060 08bd 044f a9bd
000003b0: 6b76 d5bd b361 323e 687e e3bd 1555 643e
000003c0: 0a89 e3bd feac edbd ee9d 9c3d 5d41 383d
000003d0: 0d46 ab3e ac58 c2bd 2a42 9ebe d1de 98bd
000003e0: f0f5 cfbd 8022 993e 9fd7 843d 1e06 a7be
000003f0: 8caa 203d 406b b8be bc6a 86bd 9ca1 89be

base.6linear.bias f4 [50]
0.0011319714 -0.028825128 0.040719427 0.06328426 -0.01716592 0.028315473 0.06116177 -0.026684599
0.074498415 -0.008191676 -0.040537644 -0.12544271 -0.06404535 0.04706001 -0.05178025 0.029609084
0.013328975 0.019612983 0.030555604 0.06327477 -0.13310163 0.025610736 0.073773906 -0.011249793
-0.0038099538 -0.063255526 -0.05012513 -0.08967203 -0.07026912 0.19778104 0.077004895 0.090016775
-0.059510134 -0.016678182 -0.08707398 -0.041985728 -0.06829294 -0.076835625 0.042091724 -0.0856361
0.012768304 -0.077234805 -0.055568036 -0.028606992 -0.09030924 0.03866334 0.11293353 0.026876003
0.08619574 0.14946997
00000000: a85e 943a ad22 ecbc 6ac9 263d 2e9b 813d
00000010: 8b9f 8cbc daf5 e73c c484 7a3d a999 dabc
00000020: a092 983d 6136 06bc cd0a 26bd 0e74 00be
00000030: 352a 83bd ffc1 403d 8717 54bd c08e f23c
00000040: c661 5a3c 68ab a03c bf4f fa3c 3496 813d
00000050: cb4b 08be 9bcd d13c c616 973d 0d51 38bc
00000060: 6bb0 79bb 1d8c 81bd 0250 4dbd f8a5 b7bd
00000070: 42e9 8fbd 1d87 4a3e beb4 9d3d b75a b83d
00000080: e6c0 73bd afa0 88bc d853 b2bd 3af9 2bbd
00000090: 2bdd 8bbd ff5b 9dbd 5f68 2c3d fb61 afbd
000000a0: 2632 513c 482d 9ebd 4f9b 63bd 3659 eabc
000000b0: 0df4 b8bd 735d 1e3d b249 e73d 102b dc3c
000000c0: 6487 b03d a80e 193e
