STPINN-NS/sub_data/sub_write/22NS_model_train.pt (torch, 100091 bytes, 22 tensors)

base.0linear.weight f4 [50, 3]
000000 90 95 3d ba 70 ba 64 3b 93 12 7e ba 4a e2 91 3e
       -0.00072320644 0.0034901164 -0.0009692099 0.28492957
000010 69 6c f0 3d 8a 2f 55 be 9e a2 59 bd d9 e9 3d 3e
       0.117394276 -0.20818916 -0.0531336 0.18546237
000020 d1 c7 9a bd 71 df 97 3d d0 4e c9 3e c0 6b be 3d
       -0.07557643 0.07415665 0.39317942 0.092978954
000030 f5 a4 11 bd 30 ba 8f 3e 76 d9 9d 3e e1 b6 80 3d
       -0.035557706 0.28071737 0.30829972 0.062848814
000040 9e c8 87 3e 20 dd 89 be c9 5f a5 be c8 e3 21 3e
       0.26520246 -0.26926517 -0.3229964 0.15809548
000050 82 1f b4 3e cf 2a bc 3d 68 cf b2 bc 9c 11 f4 3d
       0.3518029 0.091878526 -0.021827415 0.11917421
000060 87 24 08 ba 8c 27 94 ba f3 2e 23 39 cd 7c 62 bd
       -0.0005193431 -0.001130329 0.00015562381 -0.0552948
000070 3f 11 e8 bb 1a c0 b2 bd d8 09 1f 3e 19 23 36 bd
       -0.007082134 -0.08728047 0.15531099 -0.044467065
000080 bf 48 79 be 95 ca 4f be 5b cd b7 3e 56 f3 5c bd
       -0.24344157 -0.20292123 0.3589886 -0.053943
000090 20 9a bb be d5 11 94 3e 58 1c be 3d 17 ab f7 bd
       -0.36641026 0.28919855 0.0928275 -0.1209318
0000a0 1a 81 f6 bd e6 9e 01 3c 67 51 3a be 1c 75 90 3e
       -0.12036343 0.0079114195 -0.18195115 0.28214347
0000b0 5e 5e 44 3e ea ef 96 3c 05 40 9a 3d bd 69 b7 be
       0.19176623 0.018424947 0.07531742 -0.3582286
0000c0 72 62 31 3d b4 24 4a bd 8d 36 ae bd f1 40 c9 3e
       0.043306775 -0.04935141 -0.085064985 0.3930736
0000d0 e4 8b 7a be 1c a6 85 be a8 e4 98 3d 6a 08 86 be
       -0.24467427 -0.26103294 0.07465488 -0.26178294
0000e0 94 13 06 be d9 7a 2f 3e 1b 1b 66 be 1d e0 c2 bc
       -0.13093406 0.17136706 -0.22471277 -0.023788506
0000f0 35 6a 08 be 8d 73 97 be 9c 53 4e 3e 7b 77 27 3d
       -0.13321765 -0.29580346 0.20149082 0.04088543
000100 f4 85 80 3e 24 e5 60 3d 83 7f 11 bf 17 25 22 bf
       0.25102198 0.054906026 -0.5683519 -0.63337845
000110 cc a6 5c be 8b 1f a7 bd 19 ef 82 bd b3 e1 14 3e
       -0.21548003 -0.08160313 -0.063932605 0.14539222
000120 c1 97 00 b6 5e e4 87 ba 75 52 de 39 1a 95 1f 3e
       -1.9161819e-06 -0.0010367741 0.00042404575 0.15584221
000130 b1 7f 33 3e 38 60 b9 3d 36 2c b8 3b 57 a9 ab 3e
       0.17529179 0.090515554 0.0056205047 0.33527634
000140 2b a6 4f 3e 30 49 81 3e 7f e2 90 bd 50 8e 2d bc
       0.20278232 0.2525115 -0.07074451 -0.010593012
000150 9b f1 7f bd 1b 87 87 3d fe ab 2c 3e c9 b3 59 3d
       -0.062486272 0.06617566 0.16862485 0.053149972
000160 91 a3 70 3d 63 4a 4a be 51 4b a9 be af 2f 0a 3e
       0.05874974 -0.19754939 -0.33065274 0.13494752
000170 ad b7 4a 3e bc 60 85 be 63 d8 c7 3e 0e 8d b2 bd
       0.19796629 -0.26050365 0.39032277 -0.0871831
000180 0b b7 51 be 96 e4 b0 3e d8 f2 3b bd 13 5e 34 3d
       -0.20479982 0.34549397 -0.04588589 0.04403503
000190 78 3a ab bd 59 b9 26 3e 52 f2 bf 3e 3c 32 44 3e
       -0.083607614 0.16281642 0.37489563 0.19159788
0001a0 12 03 83 be 7b 06 17 be fc 55 f7 be 9f 98 be 3c
       -0.2558828 -0.14748566 -0.48307788 0.023266135
0001b0 c3 70 46 be f3 f2 cb 3c 7d 39 21 3f 2f 92 37 3c
       -0.19378953 0.02489612 0.62978345 0.0112042865
0001c0 e7 1f fb be b6 e5 e4 bd 78 ca 60 bc 92 c5 07 be
       -0.49047777 -0.111766264 -0.013720147 -0.13258961
0001d0 dd b0 56 3e 84 c3 bb bd d0 b9 e4 be f2 12 b7 3e
       0.20965905 -0.09168151 -0.44673014 0.35756642
0001e0 53 b6 90 3e 6e 0f 75 3e 40 f8 9e be 31 5a 2a bd
       0.28264102 0.23931667 -0.31048775 -0.04158992
0001f0 ec 96 be 3e 33 61 3e 3d f5 51 08 3d 3d 75 3d 3d
       0.3722452 0.046479415 0.033281285 0.046254385
000200 6c 08 3d be 63 88 15 bd 51 2d 99 3e ef 46 6a be
       -0.18460244 -0.03650702 0.29917386 -0.22878622
000210 59 7b 73 be bb d9 af 3e b0 88 b8 3d ff 52 f2 bc
       -0.23777522 0.34345803 0.09010446 -0.029580591
000220 ca c6 1c 3e dc 0a da bd 93 87 59 3e 8b f2 ae bd
       0.15310207 -0.106466025 0.21243124 -0.08542355
000230 6e a8 84 be a3 c9 2f bd 49 b8 5d be 59 4c db 3d
       -0.25909752 -0.042916905 -0.2165233 0.107079215
000240 36 08 c6 bd 2d 22 16 bd 5e 76 ef bd 16 d8 2b bd
       -0.09669535 -0.036653686 -0.116924986 -0.041954122
000250 03 0b 5f be 38 1d 69 bd
       -0.21781544 -0.05691263

base.0linear.bias f4 [50]
000000 7f 2d 12 3a 24 94 57 bd a8 4e 69 3d 69 50 a5 bd
       0.00055762375 -0.052631512 0.056959778 -0.08071978
000010 d7 2c d5 bd 43 69 d5 3d a6 4b 52 bb dd e4 07 be
       -0.10408943 0.10420468 -0.0032088547 -0.13270898
000020 e4 73 f3 39 40 01 b9 3d ce 8d c3 3d 9f 2f af 3d
       0.00046434917 0.090334415 0.095485315 0.08554005
000030 ee 38 34 3c 57 e4 bd 3d bb a2 5b bd 32 6b 5a 3d
       0.010999901 0.09272068 -0.05362199 0.053324886
000040 cf 37 c2 3c b7 a4 2d 3d a7 46 da 3d 3c a0 9e bd
       0.023708252 0.042393412 0.10658007 -0.07745406
000050 7c d9 dd 3d 66 b8 81 bd 14 fb 72 3d 09 b1 92 bd
       0.108324975 -0.06333999 0.059321478 -0.07162673
000060 ce 9c c3 b9 8e 26 1d be 3b a8 12 be 5c 9b d8 bd
       -0.00037310127 -0.15346739 -0.14321987 -0.105765074
000070 c0 0a ed bd 60 b9 c9 3d 32 5d 00 bd 02 f9 19 3e
       -0.11574316 0.098498106 -0.031338878 0.15036395
000080 37 2d 8e 3d 86 bf 01 be f6 0f 85 3d 76 32 9a 3d
       0.06942218 -0.12670717 0.06497185 0.07529156
000090 58 bb 59 3d 83 b3 a5 3d ab 9a 04 be 63 c3 50 bd
       0.05315718 0.0809088 -0.12949626 -0.050967585
0000a0 75 74 c2 3d 72 83 fe bc ec e2 13 3e 0b 98 cc 3d
       0.09494869 -0.031068537 0.14442033 0.099899374
0000b0 68 dd 12 bc e0 65 7a 3d 5c fa 16 3d b2 28 31 bd
       -0.00896392 0.06113231 0.036859855 -0.0432517
0000c0 a4 8b f0 3d e5 dd e9 3d
       0.11745384 0.11419276

base.1linear.weight f4 [50, 50]
000000 10 05 8b bc cb 52 fc 3d e4 74 a0 3c e0 d9 bb 3d
       -0.016970187 0.12320479 0.019586988 0.09172416
000010 19 3a e3 3d c9 8d 1c bb f3 1b 17 3f 29 d6 38 be
       0.110950656 -0.0023888221 0.5902702 -0.18050446
000020 f7 01 88 3c 8e 2e 6b 3d 81 38 ee bc 8b 89 3c 3e
       0.0166025 0.057417445 -0.029079678 0.18411843
000030 ad 01 af 3e 44 6c 1d bc 08 a7 0c 3e 6b 17 44 3e
       0.34180966 -0.009608332 0.13735592 0.19149558
000040 e0 ae a7 3d a4 e4 bd bd f3 b4 0b be 45 db b3 3c
       0.08187652 -0.09272125 -0.13643245 0.021955142
000050 57 dc b8 bd 19 71 1e be a8 08 2c be 07 5c a4 be
       -0.090264015 -0.15472831 -0.16800177 -0.3210146
000060 fb ff 6e bd 64 94 2a 3e bb 1c 88 bd 64 33 0d bf
       -0.05834959 0.16658169 -0.06646105 -0.5515654
000070 ea 09 d7 bc aa d7 97 3e 3a fe 8d 3e f6 f7 86 3e
       -0.026249845 0.29656726 0.27733022 0.26361054
000080 40 80 12 bd 7d 39 60 bd 3f 7c ba be 15 97 56 be
       -0.03576684 -0.054742325 -0.36422917 -0.2095607
000090 a6 23 89 bb a8 f3 82 be ab c4 ea 3c b1 9c e9 bd
       -0.004185158 -0.2557652 0.028658232 -0.1140684
0000a0 cc 87 19 bd cd 02 f4 3d 57 da 0c 3e d0 5b f8 3d
       -0.03748302 0.11914597 0.13755165 0.12126887
0000b0 94 2a c3 3d e0 6b 34 3d 82 51 8d be b0 cc d7 3d
       0.095296055 0.04404819 -0.27601248 0.10537088
0000c0 e5 44 8b bd c0 10 22 3d ac 91 54 be eb fa a7 3d
       -0.0680025 0.039566755 -0.20758694 0.08202156
0000d0 5b 4d 13 be 21 ab 8f 3e 1a cc 49 be bf 33 a2 bd
       -0.14384978 0.28060248 -0.19706765 -0.07920026
0000e0 0e 90 05 be b8 fc 6d bd f6 ba 4d 3e 57 c1 b3 3c
       -0.13043234 -0.05810234 0.20090851 0.021942778
0000f0 c4 16 81 be a7 c5 bb 3d c2 23 ac 3d 7a d2 11 3e
       -0.2521268 0.091685586 0.08405258 0.14240447
000100 14 95 5f 3e 30 a1 45 bc c4 07 63 bd be 28 7d 3d
       0.21834213 -0.012062356 -0.055427328 0.061806433
000110 d3 9a 1c 3e 28 43 d2 3d 24 98 fb bb b8 da ac 3d
       0.15293436 0.10266715 -0.0076780487 0.08440155
000120 e6 8e df 39 05 c2 44 3d 01 3d 0d 3e 00 5c 0c 3d
       0.00042640342 0.048036594 0.13792802 0.034267426
000130 9b 4d b6 3c 04 f9 57 3e 8e 29 09 bd 52 11 0c be
       0.022253802 0.21091086 -0.033486895 -0.13678482
000140 42 e2 f7 3c 85 93 09 3e 00 78 4e 3e 04 93 40 be
       0.030259255 0.1343518 0.20162964 -0.18806082
000150 e6 64 9c bc ae b5 76 3d a6 67 78 3d 2c 76 90 39
       -0.01909108 0.060231857 0.06064572 0.00027553865
000160 5b 3c 2a be ef 9b ba bd f8 ce f8 bc 92 08 14 be
       -0.16624586 -0.09111773 -0.030372128 -0.14456394
000170 38 fe 21 be 1c 2d ee bc cf dc 4a be 9e 0a 0e bd
       -0.15819633 -0.029074244 -0.19810794 -0.034678094
000180 ab 8f c3 3d 43 53 48 3e 9d ec 06 be 83 9f a0 3d
       0.09548887 0.19563012 -0.13176198 0.078429244
000190 19 bb 78 3d 23 d6 aa bc e1 18 0f be 72 2c 2e 3e
       0.060725305 -0.020854061 -0.13974334 0.17009142
0001a0 d6 5c fe 3c 60 28 4a 3d 1b 85 99 bd c3 e2 63 bd
       0.031050127 0.04935491 -0.07496091 -0.05563618
0001b0 85 e9 73 bd 73 ee 80 3d b5 d4 ae bc a1 28 cf bd
       -0.059548873 0.062954806 -0.021341661 -0.10115171
0001c0 49 e4 bd be 4f 48 49 3d 1d 6a 07 be a3 79 0a be
       -0.3708823 0.049141224 -0.13224073 -0.13522963
0001d0 84 14 8b 3b 0b eb d7 3d 63 fd f5 3d 44 48 65 be
       0.004244389 0.10542878 0.1201122 -0.22390848
0001e0 a1 d6 bf bd 22 df 07 3d 37 6f e3 be 77 d2 36 3d
       -0.09367109 0.03317178 -0.44420788 0.04463431
0001f0 f6 89 e1 bb 9e d1 94 3e 9f e5 3a 3e ab 0f a9 3e
       -0.0068829013 0.29066175 0.18251656 0.33019766
000200 ba 49 af 3e ff 40 06 be 7d 1b 81 be 73 c1 0e be
       0.34235936 -0.13110732 -0.25216284 -0.13940983
000210 9e 04 75 3c e9 51 51 3e 43 c0 36 3e 95 47 2e be
       0.014954714 0.20441402 0.1784678 -0.17019494
000220 0b 51 0b 3e 95 1b 87 be 4c 00 97 3d d7 fa 99 bd
       0.13605134 -0.2638823 0.073731035 -0.07518547
000230 6f 87 e3 bd 82 b3 1f be 0c 07 92 be cc 73 40 3e
       -0.11109816 -0.1559582 -0.28521 0.18794173
000240 8b 80 a8 3d 66 a0 af 3e 52 98 0d 3d e4 82 e1 3d
       0.082276426 0.34302062 0.034569092 0.110112935
000250 fa 74 62 be 50 7e e9 3c 84 29 bb bc d8 d0 81 3c
       -0.22114936 0.028502613 -0.022846945 0.015846655
000260 6c e8 59 3d 39 ee 44 be 63 fb 70 bd db 0d ba bd
       0.05320017 -0.192315 -0.05883349 -0.09084674
000270 fa b1 56 3d 64 ca 8b 3d 95 9f 83 3c f9 0c 81 bd
       0.052415825 0.06825712 0.016067306 -0.063013025
000280 31 35 55 be 2c f1 0a 3d 53 c5 7a 3d 9b d6 43 3d
       -0.20821072 0.033921406 0.06122334 0.047812086
000290 d5 36 c4 3d cb b2 8a be f1 5b 7e 3c 92 57 06 3d
       0.09580771 -0.27089533 0.01552485 0.032798357
0002a0 bc 7d 14 bd 8b 0c 9e 3d bd 30 9f bd fc 93 9f 3e
       -0.036252722 0.07717236 -0.07772968 0.3116759
0002b0 d6 2f ee bd 2e 0d 23 3d 9a fa 80 3d 94 4d 80 3e
       -0.11630218 0.03980749 0.062977985 0.25059187
0002c0 9d ac 53 3e e8 b0 3a 3e cd 1e 2f be cb 2d 89 3c
       0.20671315 0.18231547 -0.17101593 0.016745469
0002d0 93 75 c0 bd f0 81 be bd 85 06 bb bd 5d 75 c5 3e
       -0.093974255 -0.09302127 -0.09132103 0.38566104
0002e0 40 38 46 be 75 8d 28 3d cf 11 dd 3d 1c 07 9e be
       -0.19357395 0.04115053 0.10794412 -0.308648
0002f0 49 37 dc 3c e8 d5 2f 3e ff c6 9e 3e f1 95 2f be
       0.02688183 0.17171443 0.31011197 -0.17147042
000300 54 59 a4 be 96 db 7c be 3d a3 93 3d 41 95 89 ba
       -0.32099402 -0.2469314 0.072088696 -0.0010496752
000310 be 46 bf bd 8c 50 b3 3e 9f 68 27 be 24 7c ac 3c
       -0.09339665 0.3502239 -0.16348504 0.021055289
000320 bd 66 a3 bc 5a 85 19 be b8 e6 f2 bd 99 35 b5 be
       -0.01994645 -0.14992276 -0.11860412 -0.35392454
000330 23 6c c7 3d 02 84 59 3e 03 af 50 be a5 9f 52 be
       0.09737422 0.21241763 -0.20379262 -0.20568712
000340 ed 1a 43 bd b9 80 31 bd 8e a7 9b bc 35 ff 52 bd
       -0.0476331 -0.04333565 -0.019000795 -0.051512916
000350 71 4d a8 3e 1c 1b 96 3d a5 56 a2 3d 1e 90 8a 3e
       0.32871583 0.073293895 0.079266824 0.27063078
000360 f2 0a dd 3d d9 37 99 bd 5b a2 19 bd 4b 24 c5 3c
       0.10793103 -0.07481355 -0.03750835 0.024065157
000370 7a cb bc 3e ae 51 e3 bd d1 8b c9 3c 0a 16 4e 3e
       0.3687399 -0.110995635 0.024602802 0.20125595
000380 50 15 a5 3c 22 02 f1 be 45 6d a7 be d1 f8 14 be
       0.020151764 -0.4707194 -0.32700554 -0.14548041
000390 ae 21 f7 bd a0 ed 8f 3e 95 9b ca 3d 74 b6 25 3e
       -0.12066971 0.2811098 0.09892956 0.16182882
0003a0 4c 3c 80 3e f5 8e 17 be 93 4d 22 bb 26 93 0a be
       0.25046003 -0.14800628 -0.0024765476 -0.13532695
0003b0 c2 a5 11 3d 26 96 8d 3e 0f ed 9a be 6f 5b 58 be
       0.03555847 0.27653617 -0.30258986 -0.21128629
0003c0 57 ae d1 3c 0b 45 3d 3b 93 ca 0a 3d d5 d1 71 3e
       0.025595827 0.0028880264 0.033884596 0.23615201
0003d0 73 8a 8e 3e c0 05 09 3e 9a b9 d0 bd ff 21 d6 bd
       0.27840003 0.133811 -0.10191651 -0.10455703
0003e0 fa d3 b2 3d 6c a4 e9 3d 1a c9 97 3c 7a 92 49 be
       0.087318376 0.11408314 0.01852851 -0.19684783
0003f0 01 e3 64 bd e0 ab ee 3d 26 31 21 3d ce e6 bb 3d
       -0.05588055 0.11653876 0.039353512 0.09174882

base.1linear.bias f4 [50]
000000 53 f8 62 3c 32 b2 51 3c 9d 55 8d 3c d9 c2 f2 bd
       0.01385315 0.012798833 0.017252738 -0.118535705
000010 97 c2 e7 3d b6 e3 1c bd de a9 a8 ba 5a 11 2e 3d
       0.11316412 -0.0383031 -0.0012868007 0.042497016
000020 ef ae 04 3e 22 b1 ae 3c 97 49 ae 3b b0 90 54 3d
       0.12957357 0.021324698 0.005318831 0.051895797
000030 ca 0f b0 3c 17 da d7 bd fa 4e 23 3d 56 29 42 bd
       0.021491904 -0.10539644 0.03987024 -0.047402702
000040 33 a1 3a bd 64 97 28 3c bb 81 b5 3d 2d 65 66 bc
       -0.045563888 0.010290001 0.08862635 -0.014062208
000050 55 f0 51 be 47 71 ed 3d 6d 58 16 bd b0 f1 5c 3e
       -0.20501836 0.115938716 -0.036705423 0.21576571
000060 3f ff 00 be 39 80 e8 3d 6a 8e 50 3e b2 56 eb 3c
       -0.12597369 0.113525815 0.20366827 0.028727863
000070 60 84 01 bd d8 a0 ca 3c 1c b9 27 bd 85 12 b5 3d
       -0.031620383 0.0247349 -0.04094802 0.08841423
000080 78 e4 a3 bd 00 b1 9d 3b fe ca 71 bc 93 7b 43 bd
       -0.08002561 0.00481236 -0.01475787 -0.04772527
000090 e4 e6 08 3d 21 80 9c bc c1 1e e5 bd 85 af 91 3b
       0.03342332 -0.019104065 -0.111875065 0.0044459724
0000a0 84 ae 93 bd 00 f0 03 3e 9e 81 1f 3d cd 11 3a 3d
       -0.072110206 0.12884521 0.038941972 0.045427132
0000b0 cf d1 0a bd 0e 3a 5c bc 49 47 32 3c f4 56 0e bd
       -0.033891495 -0.013441576 0.0108812535 -0.034750894
0000c0 5d b8 2f 3c 2b f6 71 3c
       0.010725108 0.014768164

base.2linear.weight f4 [50, 50]
000000 b6 6d 89 be ee c8 32 3b fc 18 87 bd aa c8 2a be
       -0.26841515 0.0027280408 -0.06596562 -0.1667811
000010 f3 45 11 be 26 53 28 bd 31 fe c1 bb e3 fe 56 b9
       -0.1418684 -0.04109492 -0.0059201946 -0.00020503583
000020 f2 fa 6f 3e 55 85 d9 bd 4a 80 d2 39 87 0c 31 3d
       0.23435572 -0.10621134 0.00040149904 0.043224838
000030 fa 39 7c 3c 15 1e 19 be fa ea 1b bc 2f e4 6a bd
       0.015394682 -0.14952882 -0.009516472 -0.05734652
000040 3d a7 eb bc ea 3c 28 bd 0f 79 da 3d c0 43 fa 3b
       -0.028766269 -0.041073717 0.10667621 0.007637471
000050 d3 0f 5e be 4b f8 f2 bd 9c cb 37 bd 08 85 62 3d
       -0.21685724 -0.118637644 -0.04487191 0.05530265
000060 79 15 9f be dc 51 93 3e 42 92 04 3d 52 3b 2b bc
       -0.3107107 0.2877339 0.032366045 -0.010451155
000070 a6 3f ef 3d 86 d5 c1 3c 82 37 a0 bb 32 82 9e bd
       0.11682062 0.023661386 -0.0048894295 -0.077396765
000080 8e 59 3d be 79 ae fe 3b e7 f6 e1 3d a4 4d 1b be
       -0.18491194 0.0077722636 0.11033421 -0.15166336
000090 6a 1c 29 3e e7 de 8d bb 10 af 83 be 68 f3 b7 3e
       0.16514745 -0.0043295505 -0.257195 0.35927892
0000a0 0e b6 3b be c0 7c de bd 86 54 d9 3b e7 f9 ab bd
       -0.18331167 -0.10863638 0.0066323904 -0.083972745
0000b0 05 46 d2 3d 73 47 94 ba 93 be 1b be e0 2e de bd
       0.102672614 -0.0011312797 -0.15209417 -0.108487844
0000c0 ce e0 9f be 3c fe b1 3b 02 db a5 3c fd 74 67 3a
       -0.312262 0.0054319184 0.020246033 0.00088293833
0000d0 05 f7 ad 3e be b2 4b be 1b 0d 3a bd 47 c4 24 3e
       0.33977523 -0.19892403 -0.045422655 0.16090499
0000e0 e1 72 31 3c 3f 4f 02 3b d4 34 21 be c8 95 b8 3e
       0.010830612 0.001988366 -0.15742809 0.36051774
0000f0 f7 35 6c bb 25 bd ec 3d f1 6f 32 3d b6 52 a4 bb
       -0.0036042908 0.11559514 0.043563787 -0.0050147427
000100 a6 9a ef ba d0 e4 f8 3c e5 a8 a6 bd 68 0f 6b 3d
       -0.0018280342 0.030382544 -0.08137683 0.05738774
000110 c3 89 c1 bd 3d 4f f6 ba a3 eb 65 be 8a c0 d1 3b
       -0.09450104 -0.0018791925 -0.2245317 0.0064011263
000120 2b b6 0b bc 3b 96 29 3f d3 d9 84 3e 63 0e e9 bd
       -0.008527319 0.6624486 0.25947437 -0.11379697
000130 15 c4 19 3e 9a cb 83 bd a9 fb a6 bd 92 02 07 bc
       0.15016206 -0.06435318 -0.08153469 -0.008240359
000140 e3 0c 9d bc 1b 4d ff 3d 55 ce ae 3c 90 cb 1e 3b
       -0.019171184 0.124658786 0.021338621 0.002423022
000150 84 2d a9 bd 90 0d a4 be c3 dc 23 bf 3b 45 1d 3b
       -0.082606345 -0.32041597 -0.6400873 0.0023997563
000160 9c ab f9 3d a2 2e 25 be bc ce 75 3e 40 7f da 3e
       0.12190935 -0.1613107 0.24004644 0.4267521
000170 de aa 37 bb 7a e1 75 3e 2f 31 bc 3e a8 25 5a 3a
       -0.0028025429 0.24011794 0.36756274 0.0008321651
000180 3d 5b 40 3e a8 13 05 bd da 64 72 3e 1f 62 05 bb
       0.18784805 -0.03248945 0.23671284 -0.0020352674
000190 e9 b8 23 3e 5c 0f 83 3a 4f ba e6 bd d5 69 19 3a
       0.15988506 0.0009999084 -0.11266004 0.0005852257
0001a0 53 c6 53 be a2 a5 b1 3e 5a 4a 6f 3a 96 01 25 39
       -0.20681123 0.3469668 0.0009128206 0.00015736217
0001b0 fb 07 ec bd 1c 0c 05 3e 28 19 03 bb 13 79 16 3e
       -0.1152496 0.129929 -0.0020004008 0.14694624
0001c0 59 50 8d bc 6e 4c 48 3e 89 2a f6 3b 21 f1 8b 3d
       -0.017250227 0.19560406 0.007512395 0.06833101
0001d0 a9 d5 83 bd 32 7c 6c bc b3 a9 fc 3d 6d f2 2d bb
       -0.06437237 -0.014433907 0.12337055 -0.0026542202
0001e0 14 8d cc 3d 43 a0 f1 bd 18 20 5c 3d b3 76 64 bd
       0.09987846 -0.117981456 0.053741544 -0.055777263
0001f0 80 ef 3c bc cc ff 82 3a 19 e9 25 bd b3 63 37 3d
       -0.011531711 0.0009994446 -0.040505502 0.044772815
000200 cc 84 e2 3e f8 33 5a bc cd 1c 98 bc 8d 0e 10 be
       0.4424194 -0.013318054 -0.01856842 -0.1406805
000210 59 e9 83 3d ca 2d 32 bb 53 2f 6a be 44 8c 3a be
       0.06440992 -0.0027187937 -0.22869615 -0.1821757
000220 95 cc 28 be 58 1f 19 bb f2 29 d6 bd 35 9f 89 3d
       -0.16484292 -0.002336463 -0.10457219 0.067198195
000230 d5 7b 87 be 5b 4b 1f be 6e 13 81 3a 7e e5 31 be
       -0.26461664 -0.1555609 0.000984771 -0.173727
000240 4d db 9a 3e 04 f9 ba ba af 1a cc 3c c6 87 36 bc
       0.30245438 -0.0014264886 0.024915067 -0.011140769
000250 a2 c9 b4 3c c8 da 8a bb 8c 9f ed bb bf 17 68 3d
       0.022068802 -0.0042375065 -0.0072516855 0.05666327
000260 b6 37 39 3b 78 7e 88 3d 3b ca 9d 3d cd 8a f7 bb
       0.0028261966 0.06664747 0.07704588 -0.007554388
000270 19 86 fc 3d 1b 3b 5a 3c f1 b7 df 3d e6 6f 41 3e
       0.123302646 0.013319756 0.10923756 0.18890342
000280 fb 5e 90 3d 81 58 3a 3c 73 ed 35 3e f5 13 09 be
       0.07049366 0.01137364 0.17766361 -0.13386519
000290 89 89 9f 3d f5 c2 96 3e 95 6e 9c 3c 40 bf 92 3d
       0.077899046 0.29445615 0.019095698 0.07165384
0002a0 62 8c fb bd 09 b8 09 be ec 94 6e 3b 95 53 8e 3d
       -0.12282635 -0.1344911 0.0036404682 0.06949536
0002b0 3f 48 2f 3c 99 d8 94 3d 31 3c fd bc 8d 9d 17 be
       0.010698377 0.07267875 -0.03091249 -0.14806195
0002c0 1d c6 e4 3b 0b cb ad bd 57 6a bd 3d c7 28 2c 3e
       0.0069816248 -0.08485993 0.09248798 0.1681243
0002d0 f1 b5 0a be 40 2b b3 bd b7 be 12 be 08 c8 1b 3e
       -0.13545968 -0.08748484 -0.14330564 0.15213025
0002e0 fb 9a e6 3d 38 30 9a 3d 10 ae 82 be 70 dd 2f bd
       0.11260029 0.07528728 -0.25523424 -0.04293579
0002f0 7b 4d ac bd 02 ba 12 be 31 3f cb 3c da 54 4c 3b
       -0.08413216 -0.14328769 0.024810405 0.0031178505
000300 23 ea 8b bd 95 76 da 3c 99 c3 48 3e ef 9a cc 3d
       -0.068317674 0.026667872 0.19605865 0.09990489
000310 37 27 72 be a1 ee e9 3d 21 44 4a be af f8 eb ba
       -0.23647772 0.11422468 -0.19752552 -0.0018003191
000320 b9 fe 46 be ae 23 e4 ba 5e 96 20 3e 29 67 93 3e
       -0.19433106 -0.0017405653 0.1568236 0.28789642
000330 c0 f0 da 3a a5 cf ce be 23 99 cb 3b f4 03 06 bb
       0.0016703829 -0.40392795 0.0062133237 -0.0020449134
000340 35 de a3 be 59 4e f9 3c 78 bd 19 3a dd 96 fc 3d
       -0.32005468 0.030432867 0.000586472 0.123334624
000350 01 28 bf ba 9e b4 98 be 76 74 a4 3b ad 13 24 3e
       -0.0014584066 -0.298253 0.005018766 0.1602313
000360 1e 66 18 be c4 a1 8a 3d 1c c4 9e bd e6 26 5a 3a
       -0.14882705 0.067691356 -0.07752249 0.00083218364
000370 82 b5 7a bd 85 f0 da bc a4 b8 bb 3d 21 b1 fb bd
       -0.061208256 -0.026726017 0.09166077 -0.12289644
000380 01 43 d4 bd 39 6a 69 3e 8c 58 a3 be 35 fa 31 be
       -0.103643425 0.22794427 -0.31903493 -0.17380603
000390 2c c5 5e be 85 4c 75 bb 58 6c d3 3c 88 bf b1 bb
       -0.21754903 -0.0037429642 0.025808498 -0.0054244436
0003a0 b1 6d 00 3b 2d fd d7 ba 65 2e 80 3d ac 2e ae 3c
       0.0019596631 -0.001647865 0.06258849 0.02126249
0003b0 d3 9a c5 bd ba 29 4b 3a af be 85 3d c8 ac be 3e
       -0.09648671 0.0007750053 0.06530511 0.37241197
0003c0 73 1f 16 3e be 53 7d be 51 db 91 3a 48 ca 8a 3e
       0.14660434 -0.24738976 0.0011127983 0.27107453
0003d0 b5 c5 1f be ea e9 93 ba 57 8f 62 bd 04 f7 a7 3e
       -0.15602763 -0.0011284922 -0.05531248 0.32805645
0003e0 7f c7 26 be ff 54 0c bb e4 48 00 be 9a 06 dc b9
       -0.16287039 -0.0021412966 -0.12527806 -0.00041966588
0003f0 e5 3e 18 be c4 14 0a 3e 69 10 ff bd 92 6c ae 3d
       -0.14867742 0.13484484 -0.12454302 0.08516802

base.2linear.bias f4 [50]
000000 97 e1 04 3e d7 05 ee 3d 8d ee 64 3b 12 41 21 bd
       0.1297668 0.116222076 0.0034932226 -0.039368697
000010 36 d1 82 bd d5 4e dc 3b d1 08 c3 bc 55 f1 0b 3d
       -0.0638756 0.0067232647 -0.023807915 0.0341657
000020 9e 9a cd bc fb f2 43 bd c3 b3 db 3c 04 be 7e 3c
       -0.025098141 -0.047839146 0.026819116 0.015548233
000030 43 29 00 bb 0b 5d 77 3d f7 e1 b7 3c 2e 34 a2 bd
       -0.0019555844 0.060391467 0.022446616 -0.07920109
000040 38 d6 c6 bd 4e 09 82 be 0d 07 83 3c f3 c2 cf bc
       -0.09708828 -0.25397724 0.015994573 -0.025361514
000050 a1 71 dc 3c 7f 96 93 bc c8 26 ec bc 87 1b a3 3d
       0.026909651 -0.018016098 -0.028827086 0.07964235
000060 94 b9 93 bd 56 a9 2a bd e2 5b 28 3e 0d 57 fa 3b
       -0.072131306 -0.041665398 0.164413 0.007639772
000070 2e 59 5f 3d 3c 85 5e bc d5 7f 89 bd 9d 69 f3 bc
       0.054528408 -0.01358157 -0.06713835 -0.029713446
000080 ac e6 38 bc 28 09 88 3d ff 7d cd 3c b0 e5 a4 be
       -0.011285465 0.066423714 0.025084494 -0.32206488
000090 31 26 3a 3b 38 48 8a be 1e 7f dd 3b f9 70 a7 3c
       0.0028404112 -0.27008224 0.0067595383 0.020439612
0000a0 75 7e 09 bc fa 39 6a 3d a5 ec 98 3e c0 e1 08 3e
       -0.008391966 0.057184197 0.29868045 0.13367367
0000b0 f2 54 3e be f8 cf 0f 3b d8 1f d2 3c 16 71 da bc
       -0.18587092 0.0021944027 0.02564995 -0.026665252
0000c0 b6 ce 83 bc d8 ae f4 3b
       -0.016089778 0.007467132

base.3linear.weight f4 [50, 50]
000000 b4 6d c8 3d 44 74 1a 3e 6e 12 d8 3c 3d cb 8e 3b
       0.09786549 0.15083414 0.026375975 0.004357724
000010 fe 9e a7 3e 0a dd 9a 3c 65 ce 85 3d 80 61 17 3d
       0.3273849 0.018904228 0.06533507 0.036958218
000020 03 e6 3c be 7e 6c 54 be e3 13 a3 3e 4e 78 56 bb
       -0.18447118 -0.20744511 0.3185111 -0.0032725516
000030 b7 23 e5 bd 4f 2b f2 bc 94 ef 4e be 44 1a 32 bd
       -0.11188453 -0.029561667 -0.2020858 -0.04348208
000040 88 89 98 3e 1a e4 17 3f 7c 19 32 3a 5f b5 de 3d
       0.29792428 0.5933243 0.00067939586 0.108744375
000050 37 66 51 bd d1 cc 04 3e 42 16 16 3c f0 30 36 3d
       -0.05112287 0.12968756 0.00916058 0.044480264
000060 47 4f 08 3f 0c 31 9c 3e 1b 74 16 3e be e1 9c bd
       0.5324597 0.3050617 0.14692728 -0.076602444
000070 1b 9c b6 be a7 de 90 ba 4b 4b 2a be 86 ff 7a 3c
       -0.35665974 -0.0011052684 -0.16630284 0.015319711
000080 4e 8e bc 3c 99 4d 53 3d 99 d5 d0 3d 3b 60 a5 3e
       0.023017075 0.051587675 0.101969905 0.3229998
000090 91 16 ab bb b2 69 79 3e c6 58 bb bc a0 4f 7e 3d
       -0.005221196 0.24356726 -0.022869479 0.062087655
0000a0 f3 e5 52 ba 0e 36 14 3e 66 95 88 be c0 d1 92 bc
       -0.00080451294 0.14473745 -0.26676482 -0.017922282
0000b0 b4 23 65 bd 1d a1 94 3d 85 62 e4 be 26 8a 2f 3e
       -0.055942252 0.072572924 -0.44606414 0.17142543
0000c0 ba 05 4e be fc 30 5e bd 46 d8 8e bd e7 75 e7 3d
       -0.20119372 -0.054245934 -0.06974845 0.11301785
0000d0 26 f3 17 3e 09 f6 44 ba 85 bf 82 bd 0e 44 56 3d
       0.14838848 -0.0007513469 -0.06384186 0.052310996
0000e0 b0 f0 43 3d 40 ac 01 bb 08 9e a4 be 97 c9 a8 ba
       0.04783696 -0.0019786507 -0.32151818 -0.0012877461
0000f0 ad 12 20 3e 21 11 ba b8 19 a9 fe be 36 68 c6 3e
       0.15632124 -8.872362e-05 -0.49738386 0.38751382
000100 ee c2 d3 bb 77 09 4a be 9a b1 47 be f7 2d 85 be
       -0.0064624464 -0.19730173 -0.19501343 -0.2601163
000110 ce dc fb 3a c3 c9 ef bd f9 36 72 bd 17 ff 99 bc
       0.0019215585 -0.11708405 -0.059134457 -0.018798394
000120 d7 b4 18 3e 50 d7 2e 3b 4a 8a e3 be bd 6a 81 be
       0.14912735 0.002667863 -0.44441444 -0.25276747
000130 9b de e3 3e 7f e8 8f 3d f9 56 fa 3d 92 9e a7 39
       0.44505772 0.07026767 0.1222362 0.00031970866
000140 e9 0e 42 3e ab c5 58 be 6e 5d 4f b8 5e f1 55 be
       0.18951 -0.21169154 -4.943966e-05 -0.20892856
000150 1b 27 ab 3e 28 24 82 be cc e0 7a 39 7e e7 6d 3d
       0.33428273 -0.2541821 0.00023925601 0.058082096
000160 40 fd 97 bb 61 3a 98 bd 4e ae 81 bb 77 57 c3 bd
       -0.004638344 -0.0743301 -0.0039575463 -0.09538167
000170 c9 58 52 3f b7 30 36 3f df 53 57 be 0c 83 54 3b
       0.82166725 0.7116808 -0.21028088 0.0032426743
000180 51 09 91 3e d9 67 16 3d 5d dd 91 be 18 93 5b 3e
       0.2832742 0.03672013 -0.284892 0.2144283
000190 ca 90 c0 bc 27 a2 24 3e f5 bb 8c 3c c8 6a 04 3c
       -0.02350654 0.16077481 0.017179469 0.008082099
0001a0 65 0e 0a be b4 ec 48 bd 53 92 8e bd c5 17 d1 3c
       -0.13482054 -0.049053863 -0.06961503 0.02552403
0001b0 b9 cb cd bc 68 6b 89 bd b5 c6 41 3e db c8 e2 bb
       -0.025121557 -0.06709939 0.18923457 -0.0069209165
0001c0 eb 2c 41 bd 77 da fe bc 74 2b 39 3d ec ee 3a 3e
       -0.047161978 -0.031110032 0.045207456 0.18255204
0001d0 7c fb 8a 3d c2 5e 48 bc 93 43 04 3b df 58 ee 3d
       0.06786248 -0.012229623 0.002018188 0.116380446
0001e0 5e f4 73 3e c5 f4 d8 bd 28 00 0a be c4 60 a3 3d
       0.23823687 -0.10593561 -0.13476622 0.07977441
0001f0 e8 65 8c 3d 99 8f c4 bd a2 ab 0b 3e 5f b8 04 3d
       0.068553746 -0.095977016 0.13639691 0.032402392
000200 6c 08 62 3d 93 ae b9 bb 31 30 5f 3e fb 5b 77 3e
       0.055183813 -0.005666563 0.21795727 0.24156182
000210 33 28 b2 3c 4f 6c b5 3d 95 45 21 be 5d 23 b6 3d
       0.021747684 0.08858549 -0.157492 0.08893464
000220 4a 07 97 3b 48 54 03 be 48 c0 11 bd 81 84 f5 3d
       0.004609023 -0.1282512 -0.035583764 0.11988164
000230 b7 fd 91 bb 49 96 a1 bd 59 83 32 be 61 7b de 3d
       -0.004455294 -0.07889993 -0.17432918 0.108633764
000240 ce 12 aa bd ba 5c ba 3d 76 9d 36 3c 99 96 87 3d
       -0.08304368 0.090997174 0.01114594 0.06620521
000250 67 dc c5 bc 48 a0 f5 3d 71 b7 08 3c 2c d2 8e 3d
       -0.024152948 0.11993462 0.008344517 0.06973681
000260 14 63 ca 3d 4f c6 9b 3d 1b 3d 16 3c 2d 55 8e bd
       0.09882179 0.07606184 0.009169842 -0.0694984
000270 0c 0f cd 3d 82 b7 d3 bd 9d 36 94 3d 04 d1 9b bc
       0.100126356 -0.10337736 0.07236979 -0.019020565
000280 6e 25 cc 3d 6b e2 15 be 1c 0f a7 bd d4 85 4e bc
       0.09968077 -0.14637153 -0.08157179 -0.012605149
000290 1a c3 b7 bd 6c 68 02 3d d9 41 7b bd 7f ea 0d 3d
       -0.089727595 0.031837866 -0.061342094 0.03464746
0002a0 ff b1 d8 3d 7f c7 36 bc 97 ca 50 bc 38 7b 3a be
       0.10580825 -0.011155962 -0.012743614 -0.18211067
0002b0 79 dd bd bd 19 1b 8a be 37 ed 07 3d 7c 40 01 bc
       -0.09270758 -0.269738 0.03318521 -0.007888909
0002c0 fe 1b 33 bd 3d 76 5b 3d f2 59 98 bb 31 67 51 3d
       -0.043727867 0.053579558 -0.004649394 0.0511238
0002d0 4b f4 ac 3c ad 60 0d bd a6 c2 92 be cb fb b2 3d
       0.021112582 -0.034516025 -0.2866413 0.08739432
0002e0 9a 50 56 3d 07 3c e0 bc 3f 36 86 be 80 cc 20 bd
       0.05232296 -0.027372373 -0.2621326 -0.039257526
0002f0 bf 4e 31 3e 50 35 a6 bd 6d 3b 9d bd f3 0c 28 3e
       0.17315196 -0.08115637 -0.0767735 0.1641119
000300 fe d6 fd ba 07 fd f7 bd 30 04 e1 3d 66 40 40 3c
       -0.0019366441 -0.12108808 0.10987127 0.011734104
000310 65 65 8f 3d 39 d2 e5 3c 93 1c 3d be 97 83 06 bd
       0.07001761 0.028054344 -0.18467931 -0.032840338
000320 b4 dc ec 3d 34 5f 6f be e3 94 44 be c6 91 51 3a
       0.11565533 -0.23376161 -0.19197421 0.0007994439
000330 3e fd 77 be ce 73 47 be 47 61 ec 3d 72 6d 0f bd
       -0.24217698 -0.1947777 0.11541992 -0.035016485
000340 84 12 8c 3e a0 b3 cc 3b a3 f1 27 be 90 90 9d 3a
       0.27357876 0.006246999 -0.16400771 0.0012021232
000350 bc dd 55 3c 0f 25 a8 be 67 7c 3e 3d 5b a9 9d bd
       0.013053354 -0.32840773 0.046505358 -0.076983176
000360 c3 7a 80 be fe f0 ba be 66 d9 56 3a fa b6 5d 3e
       -0.2509366 -0.36511987 0.0008195847 0.21651831
000370 9d f2 0a be 09 55 c7 3d 7a 3b c3 bd 23 c2 2a bc
       -0.13569112 0.09733016 -0.09532829 -0.010422262
000380 b3 c3 f3 bd 2b 13 5c be 0e bd 1e be 65 f2 a9 3c
       -0.11902561 -0.21491687 -0.15501806 0.020745466
000390 a0 ae 36 3e a2 22 d3 ba 85 7f 81 be 32 5d 27 be
       0.17840052 -0.0016108344 -0.25292602 -0.16344145
0003a0 da 15 8c 3c a9 ad 6f 3e da ad 95 3e 9f d6 0b bf
       0.017100263 0.2340609 0.292342 -0.5462436
0003b0 f6 b8 0a ba 0d ae ea bb db 49 ed bb 5c 22 0d 3e
       -0.00052918436 -0.0071618618 -0.0072414703 0.13782638
0003c0 7d d8 74 bb 45 36 db 3e a1 e7 e9 bd 39 9b 12 bd
       -0.0037360482 0.42814842 -0.11421133 -0.035792563
0003d0 ba 27 a5 bc c5 0e 2d bd e7 2c 5c 3d d7 ca f7 3c
       -0.020160545 -0.042250413 0.05375376 0.030248089
0003e0 1d 5d 0e 3d 89 78 70 3e 02 77 4f be c0 7e 8d be
       0.03475677 0.2348348 -0.20260242 -0.27635765
0003f0 55 2c 37 be 0b 98 a6 3b bc 0d d8 bc 79 17 94 bd
       -0.17888005 0.005084043 -0.026373737 -0.072310396

base.3linear.bias f4 [50]
000000 2c 6f 15 be 80 2d 10 3e f8 6d a3 bc 94 12 a6 3c
       -0.1459319 0.14079857 -0.019949898 0.02027253
000010 06 ec 87 3d 4e 6a 86 bd 2e 14 b0 bb a3 7b 2d bc
       0.06636815 -0.06563245 -0.0053734994 -0.010588559
000020 3c a8 f8 3d cd 12 13 bd 82 f6 63 3c 82 52 c5 3c
       0.12141463 -0.0359066 0.0139137525 0.024087194
000030 dd 70 80 3d 28 47 d8 3d 2c 24 8d 3d 80 89 f3 bd
       0.06271527 0.10560447 0.06891665 -0.118914604
000040 48 b8 45 bc d0 98 06 3d 6f 0c 9b bc 0a 6b 56 bb
       -0.012067862 0.032860577 -0.018926827 -0.003271761
000050 10 90 96 bd 4c 60 2e bd b3 23 46 3e cf f3 69 3d
       -0.073516965 -0.042572305 0.19349556 0.05711728
000060 ee f3 e3 3c c0 5f 01 3e 78 5a a7 bb f3 36 26 ba
       0.027826276 0.12634182 -0.0051072203 -0.00063405855
000070 ac e4 b9 3d 53 dc a1 bc 40 d4 4a bd 38 02 c9 bd
       0.09076819 -0.01975838 -0.049518824 -0.09814876
000080 ff c7 80 bd 55 02 e2 bd 58 19 12 bd 36 0d ea bd
       -0.06288146 -0.11035601 -0.0356687 -0.11428301
000090 bd b0 6f bd a0 98 22 3d 10 66 b0 3c b3 bc 2b 3e
       -0.05851816 0.039696336 0.021533042 0.16771202
0000a0 e8 1a 5b 3d aa 69 49 3d ae 94 ae ba 56 2a 26 3c
       0.053492457 0.049173035 -0.0013319456 0.01014193
0000b0 85 cf e3 3c c8 bf df 3c 81 31 01 bd 07 06 c1 bd
       0.027808914 0.027313128 -0.03154135 -0.09424978
0000c0 e0 71 ea bc 6a 8e 31 bc
       -0.028618753 -0.010837177

base.4linear.weight f4 [50, 50]
000000 0e 62 b1 bc 67 c4 66 3d b2 60 5a bd 39 90 ed bc
       -0.021653201 0.056339648 -0.053314872 -0.028999435
000010 19 03 5e 3e f2 54 23 3c 9b bb ee 3d 1c 5b f3 3d
       0.21680869 0.009968983 0.11656877 0.11882612
000020 76 1f 18 be d7 fa 29 be 3b e6 e4 3d 10 0f 1c 3e
       -0.14855751 -0.16599594 0.111767255 0.15240121
000030 f7 96 9c 3d d4 db 6a bd d3 a2 a7 bd 7b 0c e9 bd
       0.07645982 -0.05733855 -0.08185353 -0.113793336
000040 d6 7d 2a 3e 74 35 f6 3c cd b2 61 3d 83 05 a3 bd
       0.16649565 0.030054785 0.05510216 -0.07960036
000050 98 11 4d be 2a 16 0f 3c a2 50 78 3e a1 6d 2f 3e
       -0.20026243 0.008733312 0.24249509 0.17131664
000060 f0 9b 32 3e 0c 16 05 3f 42 7c a3 3e 13 a9 31 be
       0.17442298 0.51986766 0.3193074 -0.17349653
000070 8b 54 81 3e 08 fe 2b bd 3e 3e 2b 3d b5 8c a4 be
       0.25259814 -0.04199031 0.041807406 -0.321386
000080 ef 65 b9 bd 3d 18 48 be 7b 18 d4 3d da c4 3c 3e
       -0.090526454 -0.19540496 0.10356232 0.18434468
000090 fb b2 5f 3e 26 6b 4d 3e 31 b6 ec 3d 35 54 ab bd
       0.2184562 0.20060405 0.11558188 -0.083656706
0000a0 0b 10 1b be 14 b9 79 3c fb 86 71 3e 26 6f 76 3d
       -0.15142839 0.01524188 0.23586647 0.060164593
0000b0 a2 8f 0f 3e e5 76 c5 3d 81 76 ea 3d 26 86 7f be
       0.14019635 0.09641818 0.11448384 -0.24953517
0000c0 72 f6 07 be bd ef 59 bd 26 a1 b1 bd 21 ec f4 bd
       -0.13277605 -0.053207148 -0.08673315 -0.119591005
0000d0 09 d8 d9 ba 7c f9 41 3a c9 d7 18 bd e6 70 6c bd
       -0.001662017 0.0007399542 -0.037315164 -0.057724856
0000e0 e0 cf 69 bd 32 31 55 3e 8b af 54 3e 5e 40 54 be
       -0.05708301 0.20819548 0.2077009 -0.20727679
0000f0 7b de 0b bd 97 1c f3 bd d1 bf 1b 3d f9 a2 88 3a
       -0.03414772 -0.118706875 0.038024727 0.0010424546
000100 fd 0b 36 be a6 ad f7 3d 18 bd 31 be 59 a7 b6 bc
       -0.1777801 0.12093668 -0.1735729 -0.022296594
000110 a8 69 73 be 8e 68 5e 3e 32 4a 21 3e 5f 09 ed bc
       -0.23770773 0.21719572 0.1575096 -0.028935133
000120 05 17 a7 bd e4 cd 68 be 22 12 87 be ef 41 70 be
       -0.081586875 -0.22734791 -0.26381022 -0.23462652
000130 a3 17 58 bd 5a 8d 06 bc 4a 5f ae bd c1 34 84 be
       -0.052756917 -0.008212412 -0.08514269 -0.25821498
000140 e5 1c 6f 3e d8 f4 3e 3e 63 4a 9e 3d b8 f0 81 bc
       0.23350866 0.18648088 0.07729032 -0.015861854
000150 3a 1f 84 bd 26 d6 8e bd 4e 79 e3 3d dc 48 9f be
       -0.064512685 -0.06974439 0.111071214 -0.31110275
000160 79 d1 30 bd 04 8c 8c 3d d0 17 1a 3e 36 2c 25 be
       -0.04316852 0.06862643 0.15048146 -0.16130146
000170 2e d9 de bd d2 73 a3 be d8 d5 4e be 55 70 94 3e
       -0.108812675 -0.319243 -0.20198762 0.28991953
000180 dc 78 05 bd 92 26 b5 bd f3 3d a4 3d 9f c1 17 3e
       -0.032585964 -0.08845247 0.080196284 0.14819954
000190 61 8c 43 bd 04 1d b3 3c 9c b7 99 bc 12 23 b2 bb
       -0.047741298 0.021864422 -0.01876431 -0.0054363096
0001a0 bf 9d eb ba 42 38 81 3d 9c 7e 23 3e 76 0f 8c be
       -0.0017976089 0.063095585 0.15966266 -0.27355546
0001b0 80 90 c3 bc f7 08 86 3d 41 ae 01 3e 4e 27 7a be
       -0.023872614 0.06544679 0.12664129 -0.24429056
0001c0 e8 32 ad 3d cb af 81 3e 2f 5c 7e 3e 1c 41 83 be
       0.08456975 0.25329432 0.24839853 -0.25635612
0001d0 fe f3 fb 3c 30 70 d1 3b 88 2e 99 3e 15 58 d6 3d
       0.030755993 0.0063915476 0.29918313 0.10466019
0001e0 57 2b ed bc 63 4a 10 3c 94 26 c1 3d 24 d7 8a 3d
       -0.02895133 0.008806798 0.09431186 0.06779316
0001f0 cc 72 92 bd f7 dd 26 3e cc dc 83 3d 44 2d 96 bd
       -0.07150802 0.1629561 0.06438598 -0.073328525
000200 bb 3d 36 3e 4d c5 28 be 13 fb 13 3d 0f df 81 bd
       0.17796986 -0.16481514 0.036128115 -0.06341373
000210 5b 14 94 3e bb 12 df bd 4b 37 89 3e 1f 46 aa 3d
       0.2892178 -0.108922444 0.26799998 0.08314156
000220 09 8a c4 3d 15 b2 85 be cd 6c 2c 3e d9 ad e7 3d
       0.095966406 -0.26112428 0.16838379 0.11312456
000230 8b 15 8c 3e 3d 23 93 3e 29 81 61 bd b5 f7 8c 3c
       0.27360186 0.28737822 -0.055054817 0.01720796
000240 f0 a2 0b be bc d4 de 3d 7d 28 13 3e f8 03 a7 3d
       -0.13636374 0.108804196 0.14370914 0.08155054
000250 66 5f 83 3e a4 e0 db 3c 2e 67 fc bd fa 78 16 3e
       0.2565872 0.026840515 -0.123243675 0.14694586
000260 02 0b b0 bd da 1d 63 bc 32 a3 99 3e 90 4c 7a 3e
       -0.085958496 -0.013862098 0.3000732 0.24443269
000270 af 94 19 be 93 50 73 3d 01 27 5c 3e 8f 3f c0 bc
       -0.14998125 0.059403013 0.21499254 -0.023467807
000280 4d 7f 06 be ba 22 cd 3c d1 a1 27 3e fa 6b 55 be
       -0.13134499 0.025040973 0.16370322 -0.20841971
000290 46 8d b1 3d ac 5a 2a be 66 b0 33 3e 37 fd a3 3c
       0.08669524 -0.16636151 0.1754776 0.020018203
0002a0 2c 9d a1 bc 89 ea bd bd f4 28 2e be 02 5c 58 3d
       -0.019728266 -0.0927325 -0.1700781 0.05282212
0002b0 db 16 c5 bc 37 9e a7 be 64 e5 38 bd 44 de 61 3e
       -0.02405875 -0.32737896 -0.04514064 0.22057444
0002c0 a1 47 ad 3d cf 3e b4 be 12 1b 51 3e cd 7b ae 3d
       0.08460928 -0.3520417 0.20420483 0.08519707
0002d0 d7 98 6c 3d d0 89 c3 bd b2 da ca bd a0 f9 1e be
       0.057762947 -0.0954777 -0.09904994 -0.15524912
0002e0 19 9a a4 3e 66 56 7d be eb f6 7e 3d 63 51 9f 3d
       0.32148817 -0.2473999 0.062247198 0.07779195
0002f0 14 96 5d bd ad 44 25 bd fe a3 86 be ba d7 47 be
       -0.054098204 -0.040348697 -0.2629699 -0.19515887
000300 39 8c 0f 3e 64 94 70 bd ac f0 85 3d 1a ca 88 bd
       0.14018334 -0.058735266 0.06540045 -0.06679173
000310 9c 90 14 be aa ad 5f bd 90 fd 0e be c2 c2 e4 bd
       -0.14508289 -0.05460898 -0.13963914 -0.111699596
000320 5f db 93 3d 01 80 e8 be 84 ae 8f bb 76 a1 1c bb
       0.07219576 -0.4541016 -0.0043848176 -0.002389995
000330 fa 15 91 3d 45 44 76 3e b8 dd fa 3c 4d 0a 20 3e
       0.0708427 0.2404948 0.030623302 0.1562893
000340 25 fd 8a bd 5f 01 ea 3e ea 94 8b 3d f3 46 80 3d
       -0.06786565 0.4570417 0.068155125 0.062635325
000350 7d ce e8 bd 68 06 32 be de a2 cc be 88 75 ea 3d
       -0.113675095 -0.17385256 -0.39968008 0.114481986
000360 3d ab 43 3e 3f 71 a7 bc 78 d5 07 3f f2 48 d6 3d
       0.19108291 -0.020439742 0.530601 0.10463132
000370 a2 d6 56 be 47 97 16 3e 4b 32 3b be 4c f0 d1 bd
       -0.20980313 0.14706145 -0.18280904 -0.10250911
000380 a2 e0 b5 be ed a7 29 3e 60 30 07 3c b1 65 4a 3e
       -0.35522944 0.16567965 0.00825128 0.19765355
000390 f9 76 be 3a df fd 9b 3c cb 90 67 bd 8b 1d 29 3e
       0.0014531306 0.019041954 -0.05653457 0.16515176
0003a0 2f 41 e2 bd 7a 90 c1 bc 75 af c2 bd e1 fb 5a 3e
       -0.11047589 -0.023628462 -0.09506122 0.21385147
0003b0 b2 0f 4f be 42 2d 92 be 5e 7e 6a 3e 57 54 35 be
       -0.20220831 -0.28550154 0.22899768 -0.17707954
0003c0 58 1a 3b 3d fb a6 0e be da 0a ac 3d 4c 9e 47 bd
       0.04567942 -0.13930885 0.08400507 -0.048734948
0003d0 6d c8 9a 3e 23 ea 30 be 25 ee a3 3c fb 93 19 3e
       0.30231038 -0.17276816 0.020011017 0.14997856
0003e0 66 96 20 be 54 db 3d bc 12 ee 60 3d 47 6d 0a bf
       -0.15682372 -0.011587936 0.05491454 -0.54072994
0003f0 a7 4e f5 3c da 12 bc bb 34 45 8e 3c 57 19 1e 3e
       0.02994473 -0.005739552 0.017366983 0.15439354

base.4linear.bias f4 [50]
000000 07 c6 c8 3d 3d 05 3c 38 2d 78 3b 3d ce 47 d8 bb
       0.09803396 4.482757e-05 0.045768905 -0.0066003567
000010 d9 de 8d bd f7 ce 56 3d 6e 41 b4 bd f2 41 a2 bd
       -0.069272704 0.05244347 -0.08801542 -0.07922734
000020 0c db 3b 3d db 7f a6 3d 44 26 b0 3c 9d b8 ec 3c
       0.045863196 0.08129855 0.021502621 0.028896624
000030 f5 9f 02 bc 7c f8 21 3e ec 68 8a bd 4c f1 cf 3c
       -0.007972707 0.15817446 -0.067582935 0.025383614
000040 8d 86 b2 3c 3d 4d 1b 3e 97 42 bc bb 68 9c 6a bd
       0.021792674 0.15166183 -0.005745243 -0.057278067
000050 29 58 76 bc 7a de af bd 48 6d 81 bc 43 3d 51 bd
       -0.015035667 -0.08587356 -0.01579918 -0.051083814
000060 24 e8 b5 bd 59 44 89 bd 0f 2b 32 bd 2b 5d 78 3a
       -0.08882168 -0.067024894 -0.043498095 0.00094743323
000070 30 d2 bb 3b 79 1f 80 bc 78 2e 0a 3d 7a 34 10 bd
       0.0057318434 -0.015640007 0.033735722 -0.035206296
000080 80 57 b3 bd d8 d3 82 bd fe b3 0d 3e 05 64 26 bd
       -0.08756924 -0.06388062 0.13838193 -0.04062273
000090 5c 76 90 bc c3 ce cf bc ce 9b 1b bd 17 43 a7 bd
       -0.017634563 -0.025367146 -0.037990384 -0.08167093
0000a0 6a bc 03 3e bc 8e a2 3d 52 d0 18 bd 6d b9 02 bd
       0.12864843 0.07937381 -0.037308045 -0.031915117
0000b0 af 1f be 3c 63 16 13 3d 70 aa 78 bd de 09 4a 3d
       0.023208467 0.03591002 -0.060709417 0.049325816
0000c0 e0 fb 0d bd c3 4f 21 ba
       -0.034664035 -0.0006153548

base.5linear.weight f4 [50, 50]
000000 72 cd 9f 3e b5 ac 5f be c2 b1 07 3c 3d 55 d4 bd
       0.3121143 -0.21843226 0.008282127 -0.103678204
000010 ae 62 4d be db 04 26 3c c8 23 ca 3d 19 94 30 be
       -0.20057175 0.010132994 0.09870106 -0.17243995
000020 82 d0 53 3c 25 88 06 bd 66 a2 bc 3d 4d d3 f6 bd
       0.01292813 -0.03284468 0.092106625 -0.12052021
000030 18 74 a8 3d 7b 17 35 3e b7 f2 a6 3d af 56 a6 bd
       0.08225268 0.17684738 0.08151763 -0.08122002
000040 3c 76 fc bd cf a6 8a 3e 10 e7 47 3d b1 2b 6b be
       -0.12327239 0.2708039 0.048804343 -0.22965886
000050 44 22 7b 3d 0d 16 97 be 7c 43 0e 3e 91 26 14 3e
       0.061311975 -0.2950901 0.13892931 0.14467837
000060 13 d9 c9 be 26 02 8a bd d0 eb a9 3d d9 30 90 bc
       -0.39423427 -0.06738691 0.08296931 -0.017601417
000070 3a db 0e 3e c9 f8 6b 3d 0e 88 83 bd 4a 36 29 be
       0.13950816 0.057610307 -0.06422435 -0.16524616
000080 41 85 9a be a7 06 a9 bd 3a de 32 3e e5 df bb bb
       -0.3017979 -0.08253222 0.17467585 -0.0057334774
000090 f6 11 b7 3d 76 76 b6 bd 51 00 ae bd 65 42 c3 bc
       0.08938973 -0.089093134 -0.08496154 -0.02383537
0000a0 9b da f1 bc 00 de e6 bd 59 94 95 be 5a 62 28 3e
       -0.029523185 -0.11272812 -0.29214743 0.16443768
0000b0 68 be f9 3d 63 15 7a 3e 00 f2 7b 3e d1 f6 d3 bd
       0.1219452 0.24422221 0.24604034 -0.10349811
0000c0 4d 9c 60 be c3 a1 69 bd b1 97 57 be ab 82 2c 3e
       -0.21934624 -0.057039034 -0.2105396 0.16846721
0000d0 d7 39 9d 3e ea ed 8b 3d 1b a1 f4 bb ca af f4 3d
       0.3070819 0.06832488 -0.0074654943 0.119475916
0000e0 e1 f8 09 be 0d a5 a4 bd 16 6a c2 bd 96 bd 77 bd
       -0.13473846 -0.080392934 -0.094928905 -0.060483538
0000f0 62 1a 55 be 7b 8a 27 be 38 4e e8 be 4e 58 bd 3c
       -0.20810845 -0.1636142 -0.45372176 0.023113396
000100 b0 39 6a 3e ea 91 74 3d 42 ac ba be ee 97 56 be
       0.22873569 0.059709467 -0.36459547 -0.20956394
000110 d5 d2 91 bc fe 47 29 3e 4c aa b6 3d 5d 33 79 be
       -0.017800728 0.16531369 0.089192 -0.24336
000120 78 0a e3 3d 12 2b d9 3d f9 a7 81 bd 25 1e 60 3c
       0.11085981 0.10603918 -0.06330866 0.013679062
000130 75 e7 05 be 98 98 2a be 20 ec 98 3e 8e 55 52 be
       -0.13076575 -0.16659772 0.2986765 -0.20540449
000140 85 03 82 3d 32 6f 30 bd ba be 5f 3b ee 99 20 be
       0.063483275 -0.043074794 0.0034140781 -0.1568372
000150 e3 5d 26 3e ed 1f 49 3c 29 1e cd bd e8 bc 01 bd
       0.16246752 0.012275678 -0.10015518 -0.031674296
000160 2b 4a 51 bd 99 82 30 3e 9c 4e ff 3d ec 2d 51 be
       -0.051096123 0.17237319 0.124661654 -0.20427674
000170 13 4f 40 bd e4 13 7f bb cd fa b7 bd 77 0a 21 be
       -0.04695041 -0.0038921768 -0.08983383 -0.15726648
000180 aa 83 99 3e b7 31 ae bd 51 55 1d be 4f da 16 3e
       0.29983264 -0.08505576 -0.15364577 0.14731716
000190 ba 79 d7 bc c0 3c 6f 3d 2b c0 d3 bd 35 dc a8 be
       -0.026303161 0.058407545 -0.103393875 -0.32980505
0001a0 5b da b0 bd 87 30 e6 be b5 e8 14 bd 85 b9 ca 3e
       -0.08635398 -0.44958898 -0.03635474 0.39594665
0001b0 e0 33 b9 bd 62 34 c9 bd ca ed a6 3e bc 74 d6 3d
       -0.090430975 -0.09824444 0.32603294 0.10471484
0001c0 7b 58 16 3e da 7e fb 3d 28 ad 78 3b 5d 23 91 bd
       0.1468219 0.122800544 0.0037945006 -0.07086823
0001d0 36 4b ee bc b3 f5 6e 3d 91 14 7e be a0 70 86 3d
       -0.029088598 0.058339786 -0.24812533 0.0656445
0001e0 ed 6b 86 3e 0e 38 50 3e 92 e7 ac be e4 03 b6 3e
       0.26254216 0.20333883 -0.33770424 0.35549843
0001f0 4e 40 d8 bd 11 d7 a7 3e 46 b0 1c 3d bf 3d dd 3c
       -0.1055914 0.3278127 0.038254045 0.027006982
000200 40 db 77 bd c3 70 5b 3e 0c 5f 61 bd af 92 8d 3e
       -0.060511827 0.21429734 -0.055022284 0.27650973
000210 4d c4 80 3e bd 79 05 3e c6 09 c0 3d 94 49 1f be
       0.25149766 0.1303472 0.09376864 -0.15555412
000220 32 2b 4f bc 3f e8 87 3e 07 4c 05 3e 7c 71 16 be
       -0.012644576 0.26544377 0.13017283 -0.14691728
000230 9f 1e e8 3e 51 16 0f 3e 03 94 93 3d fa 49 f1 3b
       0.45335862 0.13973357 0.07205965 0.007363555
000240 8b f5 18 3c d7 f9 b9 bd 2d 26 8c 3e 44 4a 38 be
       0.009335886 -0.09080856 0.27372876 -0.1799708
000250 e3 9d 27 3e a0 ea ec 3d 34 92 ab be 02 3b 25 3d
       0.16368823 0.11568189 -0.33509982 0.040339477
000260 da 4b da bd e0 e6 2f 3e cb 1c 3c 3d f7 a7 b8 3d
       -0.10658999 0.17177916 0.045925897 0.09016412
000270 39 27 b4 3e 82 c9 6d 3d 50 e2 81 be b8 05 14 bc
       0.35186175 0.0580535 -0.25367975 -0.009034567
000280 86 fc a8 bc 54 84 67 3e 95 43 39 be b1 f7 48 be
       -0.020628225 0.22609073 -0.18092187 -0.19625737
000290 d9 2c 8b 3d ff 28 78 3b 13 7d 28 3d dc f7 f3 be
       0.067956634 0.0037866232 0.041134905 -0.4765004
0002a0 cb 63 3d be 27 b8 c6 bd 1e 07 0e 3e f2 12 31 3d
       -0.18495099 -0.09703093 0.13869902 0.04323096
0002b0 0b 90 5d 3d 67 03 63 3e 10 38 63 bd b8 71 23 be
       0.05409245 0.22169267 -0.055473387 -0.15961349
0002c0 85 92 fb bd 9a 1b 33 3e 47 5d 2e 3c ef 62 47 3e
       -0.12283806 0.17490998 0.010642356 0.19471334
0002d0 7b 2a 26 3e 31 08 f8 3c 33 12 82 be 78 91 03 3e
       0.16227143 0.030277343 -0.2540451 0.1284846
0002e0 5c 8b 5e bd d3 22 9a 3d 3e 3f 25 3e dc 12 c5 3d
       -0.054332122 0.075261734 0.16137406 0.09622738
0002f0 91 b7 a4 3e bc be 00 3d 15 b0 13 3d ce 61 2c be
       0.321713 0.0314319 0.036056597 -0.16834185
000300 1c f1 69 3e fc 98 9e bd b5 78 61 be fe 14 8b be
       0.22845882 -0.07744023 -0.22018702 -0.27164453
000310 a0 f1 b4 3c fb 07 d1 bd 60 e8 14 bd 0b 63 61 3d
       0.022087872 -0.102066 -0.036354423 0.055026095
000320 f3 1f 10 3e 8c 65 18 be da 33 26 3e c8 7d 1f 3d
       0.14074688 -0.14882487 0.16230717 0.038938314
000330 4d 06 eb 3d 83 37 16 bd 91 4a 13 bb 71 3e a1 be
       0.11475811 -0.036674034 -0.0022474865 -0.31492952
000340 54 1b 9c bc 26 67 c8 3d 97 6e 1f be ed d1 bc 3e
       -0.019056 0.09785299 -0.1556953 0.3687891
000350 ed a8 11 3e 55 79 1f 3e 8a 43 93 3e 36 b3 1a 3e
       0.14224596 0.15573628 0.28762466 0.15107426
000360 ff a0 b6 bd 4f a4 2e be c5 4c 42 be c7 96 38 3e
       -0.08917426 -0.17054866 -0.18974598 0.18026267
000370 06 2d 9d 3c da 1c 2a be fb 11 05 be 88 2a 66 3e
       0.019186508 -0.16612568 -0.1299514 0.22477162
000380 87 59 10 3e 3a af 96 be c7 a6 9c 3d db 24 93 bd
       0.14096652 -0.29430562 0.07648998 -0.07184764
000390 a9 b1 87 be 05 57 4b 3c 6b 81 44 be 2c 0f b2 3c
       -0.2650273 0.012410884 -0.19189994 0.02173575
0003a0 d8 47 d2 be c1 32 e1 bd 1f ac 97 bc e5 43 3c 3e
       -0.41070437 -0.10996009 -0.01851469 0.18385275
0003b0 4c 95 49 3d e1 24 6c be 93 1d 35 3d c2 0e 34 3e
       0.049214646 -0.23060943 0.044217657 0.17583755
0003c0 ef 33 71 be 45 5c 44 be ed c6 20 3e 27 01 85 bd
       -0.23554967 -0.19175823 0.15700884 -0.064943604
0003d0 c3 2e fe bc df 67 a9 3d ac 17 ad 3d 49 26 41 3e
       -0.031028157 0.08271765 0.08451781 0.18862261
0003e0 c0 53 4a bd 26 1b 90 bd 6d 90 33 bc ad 48 92 bc
       -0.049396276 -0.07036428 -0.010959727 -0.01785692
0003f0 8c af 1c bd 3e 2f e2 3c 70 fd 95 3d 15 44 ea 3c
       -0.038253352 0.027610417 0.0732373 0.028596917

base.5linear.bias f4 [50]
000000 80 99 15 3e 2a e6 49 bd 07 de 84 3d 15 38 9d bd
       0.14609337 -0.049291767 0.06487661 -0.076767124
000010 1c 66 f2 3d 7a 04 04 3c 8d 6c 5c 3b 70 28 51 3d
       0.11835882 0.008057708 0.0033634037 0.051063955
000020 38 33 dd bc c4 80 9c 3c 04 e0 1a bd 34 73 98 bc
       -0.027001962 0.019104369 -0.037811294 -0.01860962
000030 db b6 9b be 19 f1 06 bd 12 75 bf 3d 9a ae 11 3e
       -0.30412945 -0.032944772 0.09348501 0.14226761
000040 9d 62 cf bd da 3c 8b bb 09 51 d8 3c 9c 22 12 be
       -0.10126231 -0.0042491974 0.026405828 -0.14271015
000050 19 7f a3 bd 66 bb b6 3c 51 0d 2f bd c7 cc 9c 3d
       -0.07983226 0.022306155 -0.04273731 0.07656246
000060 1a 27 ca 3d 9b b1 1b bd 7c c9 3a 3d 58 c9 34 bd
       0.09870739 -0.038011175 0.045602307 -0.04413733
000070 15 1e 67 be 08 2f 66 bd e5 da af 3c c7 ef 0f 3e
       -0.22570069 -0.056197196 0.021466682 0.14056312
000080 58 8d 04 3c e2 69 bf 3d 09 02 3d 3d fe 54 7f 3d
       0.00809034 0.093463674 0.04614452 0.062336914
000090 63 55 8a 3a fd 1f 84 bd fb a4 f3 3d 98 1b 7a 3d
       0.0010554012 -0.06451414 0.11896702 0.06106147
0000a0 c9 ee b4 bd 1a e3 82 be bb a3 51 bd 81 08 61 bb
       -0.08834607 -0.2556389 -0.051181536 -0.0034337344
0000b0 0b 25 da bc 9b ec 1f 3e 0c fb 0a bd ab 8a 12 3e
       -0.026628992 0.15617602 -0.033930823 0.1431071
0000c0 70 90 f5 3c 84 4b 77 bb
       0.0299761 -0.003773422
