STPINN-NS/sub_data/sub_write/23NS_model_train.pt (torch, 100091 bytes, 22 tensors)

base.0linear.weight f4 [50, 3]
00000000: 8e29 2339 c191 813b 0a27 25ba 6cce 633e
00000010: dd29 f03d 6882 6abe a6d9 a3bd f48f 7b3e
00000020: 2985 6fbe 97f3 6a3d 5fa5 543e 626e bcbb
00000030: caaf 8fbd 0443 b93d 1f13 e23e 565f e83d
00000040: da41 7b3e 3a29 a2be bbc5 a2be 8e5b 3a3e
00000050: e205 b63e 6c57 383c 5853 6dba 62ae cd3b
00000060: 2e16 703b 913b aabc 9c83 1c3e 9d1c bbbd
00000070: 57d0 963b 60c7 48be b39c 193e d971 cd3a
00000080: 845e 88be 07b0 19be d20e 5e3e 2e60 d2bd
00000090: 467f 67be 262b 773e 3579 913d 3b8b 09be
000000a0: 4b14 18be 4a1b a13c 5c5e 28be b537 883e
000000b0: f35b 6d3e bf6e e33b cd8f ae3d f8b4 e6be
000000c0: 9d4d 5e3d 3784 c7bc 3678 1cbe 3c95 c83e
000000d0: 5358 2abe c9c0 90be 896a bf3d 9950 24be
000000e0: 6c5a 1dbe efd6 3b3e 6a7d 67be 3c56 163e
000000f0: 9fb1 bdbd bc6b 6abe bc8e 7f3e 35ea 9a3d
00000100: 3d3a 033e b471 5a3d cc33 1dbf c212 03bf
00000110: 6e10 4bbe 9441 00be cf76 5fbd 81ab 493e
00000120: 2ed7 22bc 8dac d93d 56f8 3abe 83b0 1c3e
00000130: 222a fe3d 0c61 693d a5a4 5038 b70e 8e3e
00000140: f4a8 373e 7c1d b43d b361 0fbe f110 bbbd
00000150: 755d 15be 25a9 9d3d c96b 303e 2fce 463d
00000160: 8826 173e 0781 33be 0610 acbe 557c ea3d
00000170: 2d7b 843e 8556 2bbe fd2c df3e 2e33 cfbd
00000180: c1d1 34be 9140 533e e655 ebbd 3a27 423c
00000190: f4a3 b0bd 1933 253e 5c93 d53e 5d4c 403e
000001a0: c350 88be 291c 21be dee0 d1be d051 cdbb
000001b0: 7553 5fbe 0c50 8d3c 1917 153f c2b7 ab3c
000001c0: db2d dfbe 6aaa 3bbd b760 93bd 84d5 bbbd
000001d0: 000f 953e 83ce 01be a089 d6be 2ca3 c63e
000001e0: a25b a23e 1b6b 313e 8d67 c8be 11ae 03bd
000001f0: d8eb c53e ff45 7e3c 929c 54bb c18f cabc
00000200: 1885 42be 2806 41bd 2d16 3e3d 8be7 88be
00000210: fdbf 45be ce5d 573e 5127 043e bc27 a23c
00000220: f884 833d e7da 7fbe 7445 523e 673e c9bd
00000230: aebc 94be acb7 2ebe 65a5 90be ac0c 583d
00000240: 2272 6dbd 0aed 92bc dd82 89bd 8cb9 c83d
00000250: 80cb bdbd 3c83 ee3d
0.00015560372 0.003954143 -0.0006300068 0.22246712 0.11726735 -0.22901309 -0.080004975 0.24566633
-0.2339064 0.05736121 0.20766209 -0.0057504633 -0.07015951 0.09045985 0.44155213 0.11346309
0.24536839 -0.31672078 -0.3179148 0.18198988 0.35551363 0.011251312 -0.00090532517 0.0062768916
0.0036634314 -0.020780357 0.1528458 -0.09136317 0.0046024728 -0.19607306 0.15001182 0.0015674188
-0.2663461 -0.15008555 0.21685341 -0.10272251 -0.22607145 0.24137554 0.071031965 -0.13432018
-0.14851491 0.019666333 -0.16442245 0.26605 0.23179607 0.006940692 0.085235216 -0.45059943
0.054273237 -0.024355037 -0.15280232 0.39176357 -0.16635256 -0.28272083 0.09346492 -0.1604637
-0.15366524 0.1834371 -0.22606435 0.14681333 -0.09262394 -0.2289266 0.24956793 0.07564203
0.12815185 0.053331092 -0.6140716 -0.512005 -0.19830486 -0.12525016 -0.054556664 0.1969433
-0.009938998 0.106286146 -0.18258795 0.15301709 0.1241038 0.056977317 4.97444e-05 0.27745602
0.17935544 0.08794686 -0.14002113 -0.09134091 -0.14586432 0.076982774 0.17228617 0.048536476
0.14760792 -0.17529689 -0.33605975 0.11449496 0.25875226 -0.16732223 0.4358901 -0.101171836
-0.1765814 0.20630099 -0.11490993 0.011850173 -0.086250216 0.16132773 0.4171399 0.1877913
-0.26624116 -0.15733398 -0.40991873 -0.0062658563 -0.2180918 0.017250083 0.5823837 0.020961646
-0.43589672 -0.045816816 -0.07196181 -0.09171584 0.29113007 -0.12676434 -0.41901875 0.38796365
0.31710535 0.17326014 -0.39141503 -0.032148425 0.38656497 0.015519618 -0.0032441956 -0.02472675
-0.18996084 -0.04712501 0.046407867 -0.26739153 -0.19311519 0.21031877 0.12905623 0.019794337
0.06421846 -0.24985848 0.20534307 -0.098263554 -0.290502 -0.17062253 -0.28251186 0.05274646
-0.057970174 -0.017935295 -0.06714413 0.09801015 -0.0926733 0.11646125

base.0linear.bias f4 [50]
00000000: a78a a939 2467 493c a65e 083e 0903 853d
00000010: 7c00 afbd 1c3c 5f3d 4ee7 26be 5122 f7bb
00000020: 80cd f4bd a8f7 203e 35b6 8dbb 919f cd3d
00000030: 7354 e0bc 3e3b 573d a228 6ebd 8d28 94bd
00000040: c3a5 b63d b5d3 de3b f2b7 a33d bc4f 2cbe
00000050: 88c3 4b3d 9b6a a2bd db4c 15be ef3a 57bd
00000060: 96d6 213e 2f80 febd 7f47 b9bd bce3 543d
00000070: 2438 91bd 0406 bdbc 3c9c adbd fc1f 273d
00000080: 97fe 043e 8ee6 bcbd caa2 ea3d bd4d 113e
00000090: 89dc 403d 875d 24bc d0b3 d2bd d24f cc3c
000000a0: 4afb d7bd 112a 60bd 8a57 aa3d 1fad 383e
000000b0: fe61 1abd 835e de3d ee00 f83d 1727 313d
000000c0: b861 883d e935 0cbe
0.00032337496 0.012292657 0.13317356 0.064947195 -0.08545014 0.054500684 -0.16299173 -0.0075419326
-0.119532585 0.15719473 -0.0043246993 0.100402005 -0.027384019 0.052546732 -0.05814422 -0.07234297
0.08918335 0.00680014 0.07994069 -0.16827291 0.04974702 -0.0793049 -0.145801 -0.052546438
0.15804514 -0.12426793 -0.0904684 0.051974997 -0.07090786 -0.023074158 -0.08477065 0.040801987
0.12987743 -0.09223662 0.11456831 0.14189811 0.04708532 -0.010032064 -0.10288203 0.024940405
-0.105459765 -0.054727618 0.08317478 0.1803479 -0.03769111 0.108578704 0.12109552 0.04325017
0.06659263 -0.1369244

base.1linear.weight f4 [50, 50]
00000000: 500d 933c 2925 c53d e8c5 f13c f317 d13d
00000010: ce59 0c3e 0d80 4fbd 28f4 383f 4980 44be
00000020: 3120 1c3e b789 a9bb 7328 95bd b00a 773e
00000030: 843c d73e aa21 dbbc 3450 3c3e bd96 463e
00000040: 2019 01bb 56ce fdbd fb81 71be a529 cc3d
00000050: 4081 f0bd 3b7c 2fbe bfd6 99bd 6dfe 82be
00000060: 8e3e a0be 0141 203e d15f 68bc a6bd 1ebf
00000070: 2a6f b53d 7623 7f3e e103 c83e d5af 893e
00000080: c10c b63c fab5 b53c 4896 00bf aa64 84be
00000090: b209 81ba 407e 91be a7d2 113e d6ab edbd
000000a0: 5ac5 fabc fd74 333e be54 3f3c 5c6c 5abc
000000b0: ef14 3d3e e73c 36bc 951b d1be 1e59 0e3e
000000c0: db26 2cbd 9ea5 893d 5e8b 31be 47fd 1a3e
000000d0: 6fa0 1fbe 6117 b83e b5cb 06be 7699 38bc
000000e0: e183 f3bd c79d e43c 5685 843e 4aa6 02be
000000f0: 21c9 83be 2d02 8c3d 9869 8a3d 9d0e a13d
00000100: f099 903e 389c 363c 20e2 bbbd edfd 803d
00000110: 9a34 3f3d cc6a 3d3e 7131 00be 45a4 173e
00000120: 77ea 92be aae7 8a3d 97f8 793d ee99 5e3e
00000130: 2d63 fa3d 2663 4d3e 8302 193d 596a 21be
00000140: ee4b 283d cb46 0e3e d91b 343e 5b5e a0bd
00000150: 599f cabc ca7f 39be f501 06bc 67d0 c1bd
00000160: aa93 ebbd fc37 9fbe fb9c 1d3d 0bdb afbc
00000170: 74dc 76be e985 d2bd cef6 3bbe bdc3 9abd
00000180: 47f3 503d 52f0 083e f9ae 7dbe 59c3 193e
00000190: c361 45bd 5729 f53c a680 aebd 152b 9a3d
000001a0: ae4f 87bd 3eac 313e 5e6a adbe e577 0abe
000001b0: ba34 cabd 84c1 743e 04a5 b63d b31d cbbd
000001c0: d5a0 e6be 4af7 853d 9a0d 87be 9017 a6bd
000001d0: 6eef 7e3d adce 3e3e 57dd 933e d277 a9be
000001e0: 1cc8 07be f3c3 ccbb be96 a2be a179 c9bd
000001f0: 3c23 ff3d 96f0 1f3e 5ee0 013d e5d7 b73e
00000200: 1c39 0a3e dc0e 89bd 6c50 cbbe 4504 cfbd
00000210: 8330 7c3d 2f1e b13d 0e30 cc3e 9136 edbd
00000220: 3431 5f3d 2a52 0bbe e878 c0bd 62a8 f7bd
00000230: 16ec 01be c9af 51be cb26 09be 4ecc bc3e
00000240: 9907 2a3c de84 d43e 2f4e 713e a2ce 603d
00000250: 44a4 4cbe 0ce8 293d b47d 72bd e094 583d
00000260: d9f5 033e 360c 53be c9c8 a2bd b045 1a3d
00000270: d796 09bd 624c a03d a280 04bd 9365 eebb
00000280: c09b 05be 31a7 013e f777 d63c c033 f63d
00000290: 46b3 ab3d 9082 4cbe 759f 2abd 9672 bb3d
000002a0: 4400 723c eda2 88bd b5fe f0bd 67a9 ad3e
000002b0: 8c89 7cbd 072b d0bc 19c2 863d 0fbc 943d
000002c0: 3e23 513e 2839 c43d 0b4c 8fbe b495 2f3d
000002d0: d78e 36be f408 5f3d caf9 843c cfca b03e
000002e0: 0794 b4bd 2272 67bd e6a0 033d cb2b 96be
000002f0: 03dc bcbd 6042 273d a3ad dd3e d66f c8bd
00000300: 9ead 4cbe 49fd 2dbe 1e6e f13d febd ff3c
00000310: 2339 7d3b 97e5 843e 92a1 7cbe 7937 013e
00000320: 2433 4bbd 58ca acbd 1dac 2bbe 6087 4cbe
00000330: 0ea1 383e 53e1 183e 429d 56be f763 5fbd
00000340: 18cc c5bd 62d2 e2bd dc16 d0bd 8417 47be
00000350: 6cd5 5e3e ae77 16bd 4a6a c23d 95b4 003e
00000360: 1e47 f93d 132f f33b 189a 66bd 426a 023e
00000370: 7eea ce3e cbed 0cbd 09b7 80bd c8ea 433e
00000380: fc15 093e bcf4 aebe 25e6 2dbe 3064 5ebc
00000390: 9a8a d8bd fd41 3f3e c3da 0a3d c4d6 fabc
000003a0: a4a4 c33d 58d3 1dbd ab89 c13c c790 43be
000003b0: e5aa 4d3d 288f 2d3e 6ae7 59be 31cd 0fbe
000003c0: 2207 053d 2f5d 02bd 49a0 a7bd 3251 d73d
000003d0: 608a 2a3e 1539 773c 9372 f9bd 82af 0bbe
000003e0: abbd b1bc 5df1 513d 8879 8a3d 1184 0bbe
000003f0: 4abd 41bd 95aa 0c3e 8000 a53d 5e52 0d3e
0.017950684 0.09626228 0.029513314 0.10209646 0.13706133 -0.050659228 0.7224755 -0.19189562
0.15246655 -0.0051738876 -0.07283106 0.2412517 0.42038357 -0.02674945 0.1838997 0.1939344
-0.0019698814 -0.12392871 -0.2358474 0.099688806 -0.117434025 -0.17137234 -0.07511663 -0.25584736
-0.31297725 0.15649797 -0.014183001 -0.6200813 0.088590935 0.24915871 0.3906546 0.26891962
0.022222878 0.0221815 -0.5022931 -0.2585805 -0.0009844808 -0.28416634 0.14240514 -0.11605041
-0.030611683 0.17525096 0.011677919 -0.013331499 0.18465017 -0.011122919 -0.40841356 0.13901183
-0.042029243 0.06721042 -0.1733832 0.1513568 -0.15588544 0.35955337 -0.13163646 -0.011267057
-0.11890388 0.027907265 0.25882977 -0.12758747 -0.25739387 0.068363525 0.06758422 0.078641154
0.28242445 0.011145644 -0.09173989 0.062984325 0.046681024 0.18497771 -0.1251886 0.14808758
-0.28694507 0.06782468 0.06102809 0.21738407 0.122259475 0.20057353 0.03735591 -0.15763225
0.041088037 0.13894193 0.17588748 -0.07830497 -0.024734186 -0.18115154 -0.0081791775 -0.09463578
-0.11502774 -0.310974 0.038479786 -0.021466753 -0.24107534 -0.102794476 -0.18355867 -0.07556865
0.051013257 0.13372925 -0.24773778 0.15015925 -0.048188936 0.029926939 -0.085206315 0.075277485
-0.066069946 0.17350861 -0.33870214 -0.13522299 -0.09873338 0.23901945 0.08918193 -0.09917774
-0.4504458 0.06541307 -0.26377565 -0.08109963 0.062240057 0.18633528 0.28879806 -0.33099228
-0.1325993 -0.006248945 -0.31755632 -0.09837652 0.12457892 0.1561912 0.031708114 0.35906902
0.13498348 -0.06692287 -0.39709795 -0.10108236 0.061569702 0.08648335 0.39880413 -0.11582673
0.054490283 -0.13605562 -0.09398061 -0.12092663 -0.12687716 -0.20477213 -0.13393705 0.36874622
0.010377788 0.4150762 0.23564981 0.05488456 -0.19984537 0.041481063 -0.05920191 0.052876353
0.12886752 -0.20610127 -0.07948453 0.037664115 -0.033591118 0.07827069 -0.032349236 -0.007275292
-0.13047695 0.12661435 0.02618025 0.12021589 0.08383803 -0.1997168 -0.041655976 0.09152715
0.014770571 -0.066717006 -0.117673315 0.33918306 -0.061654612 -0.025411142 0.0657999 0.07262432
0.204236 0.09581214 -0.27987704 0.042867377 -0.17827927 0.054451898 0.01623239 0.3452973
-0.088172965 -0.05650533 0.032135867 -0.29330286 -0.092216514 0.040834785 0.43296537 -0.09786956
-0.19988105 -0.16991152 0.11788581 0.031218525 0.0038638792 0.25956413 -0.24671009 0.12618817
-0.04960932 -0.084370315 -0.16764875 -0.19973516 0.18030187 0.14929704 -0.20958427 -0.054538693
-0.096580684 -0.110752836 -0.1016061 -0.19442564 0.21761101 -0.03673523 0.09492929 0.12568887
0.12171768 0.007421383 -0.0562993 0.12735847 0.40413278 -0.034406465 -0.06284911 0.1913253
0.13387293 -0.34171093 -0.16982324 -0.013573691 -0.10573311 0.18677516 0.033900034 -0.030619986
0.09552887 -0.03853163 0.023625216 -0.19098197 0.050211806 0.16949141 -0.21279684 -0.14043118
0.032477506 -0.031827148 -0.08184869 0.10513534 0.16654348 0.015089293 -0.121800564 -0.1364117
-0.021696886 0.051255573 0.067614615 -0.13624598 -0.04729966 0.13736947 0.08056736 0.13800952

base.1linear.bias f4 [50]
00000000: 04d0 25be 5ba6 aebd 2401 e13d 548e 0abd
00000010: 61b7 a0bc 8b28 033c 7e89 9f3d bbe6 b03c
00000020: efdc 7abc a8db 013d 9ae5 373d bba0 f2bc
00000030: ca1c 373c 8a95 c33c 0719 8d3c 7614 2ebd
00000040: 5ffa 71bd 46af 6fbd 7af1 b8ba c831 13bd
00000050: bc2c 90bc fefc 9fbc 4be0 a2bb ab74 03be
00000060: 38f0 3cbd 59a6 a73d 29a7 8c3d 1744 1ebd
00000070: 8728 d93b 50dd 42bc 25f1 e93d d036 30bd
00000080: 0349 23be 5641 16bb c669 d9bc 8856 22be
00000090: c7a6 03be 4098 b7bd 30b3 84bd dda3 9ebd
000000a0: 1776 f8bc f5a5 d53d 8357 243e fd7f 023d
000000b0: 2aa8 6d3d d9b9 56bc cf2d 093d b00e a3bd
000000c0: a65f 94bd 727b 643c
-0.16192633 -0.085278235 0.10986546 -0.03382714 -0.019618692 0.008005272 0.077898964 0.021594396
-0.015311464 0.03170362 0.0448967 -0.029617658 0.011176297 0.023875017 0.017223848 -0.04249998
-0.059076663 -0.058516763 -0.0014110052 -0.035936147 -0.017599456 -0.019529816 -0.0049705855 -0.12837474
-0.046127528 0.08186025 0.06867821 -0.038639154 0.0066271457 -0.011893585 0.11422948 -0.043021023
-0.1594582 -0.0022927127 -0.026539695 -0.15853322 -0.1285659 -0.08964586 -0.0647949 -0.07746098
-0.030329747 0.104320444 0.16049008 0.03186034 0.058021702 -0.013105833 0.033490952 -0.07961786
-0.07244806 0.013945447

base.2linear.weight f4 [50, 50]
00000000: e7fb 8bbe cdbe 6bbe 9ff6 e33d 061d 14be
00000010: 0420 4fbd ede0 fc3c 785a dbbc 5a92 90be
00000020: 8f04 123e 074f 73bd 99b2 b7bd f97c f93c
00000030: 6c98 71bc 57b3 f5bd 6ef6 11be f591 edbc
00000040: 5ce8 283d c81e fbbc 8e8d a23c 6862 063e
00000050: 9b89 bbbd fdeb 18bd 18f4 24bd 9133 bebb
00000060: 203c dcbd 91c9 fa3d b7e2 90bd 5a72 0fbd
00000070: 4bfa 393d e64c 5d3b 974e 393e 1164 27bd
00000080: 5148 1dbe b653 be3c c4c5 863d fdd8 84be
00000090: 9a02 1d3d 55ac 803c 816d 4cbe befd bd3e
000000a0: d3a8 36be c891 96bd bf40 f5bd 18c7 1fbd
000000b0: 695c ba3d 45ee e73d 0109 063b c0f4 b1bd
000000c0: 229f a3be 833e d33d 95c0 47bd c7fa 313d
000000d0: 54d1 cf3e 0518 3abe 4df1 bc3b 2993 7a3e
000000e0: 5df0 adbd 8a77 a1bd 8d9b dabe 7ab0 dc3e
000000f0: 020c 1e3e f529 9e3b f218 d3bb 43fb e93d
00000100: add4 33bd 3ac8 83bc 9930 66ba 8c6f a6bc
00000110: a06a 29be 4106 07be af6c f5bd 37f8 03be
00000120: 824d 243e 35fb bf3e 9515 8e3e 49f2 f6bd
00000130: 7c20 393e f228 89bc 9715 2ebd 7acf 4cba
00000140: 7b42 323e f47e 173d 2d72 2ebd 4b86 0cbb
00000150: c37e 89be b65b 5bbf f271 7abf 76a4 2abc
00000160: 8042 943d 23fb a3bd 2a92 3d3e 7b4a b53e
00000170: 590f 6a3d f2ed 1e3e 5701 d33e ba61 4f3e
00000180: b9d9 c53b a1be 02be fe8c 563e 5786 d23e
00000190: fffe e63d 619c 303e b789 22be 5961 863d
000001a0: c889 ddbd c446 8d3e 0aa1 673d bddd 47be
000001b0: 8e20 95bd 5cb9 a13d ca84 d1bc 9e23 88bb
000001c0: 010c 29bd 5e8e f43d a365 b13c 9bd8 153d
000001d0: e05c b5bb 80ec abbd e470 763e 70f4 c63d
000001e0: 782e 14bc 07d2 f0bd fe44 613d a01d 93bd
000001f0: 8b7e 35bc 56f9 023d 1f99 133c 253b 7d3d
00000200: 8719 363e 1c4b 1dbc 332d 1fbe bc52 53bd
00000210: ec8d 513d 9360 02bd 7e35 08be d8f2 19be
00000220: 20b9 edbd 776b 8b3d c4af 95bd 7be8 a23d
00000230: a1bf 81be b433 71be 9600 8fbe de46 3bbe
00000240: d15a 2f3e 4cdc 87bd 1c48 ae3c dcb5 babc
00000250: 7fe2 0fbb 7fdd 15be 8bec 93bd ecc2 c63d
00000260: 3d02 cbbd c625 093e 7ffb 33bd 075f 8c3d
00000270: 8e6b ce3d ec0a dfbc 2fc1 553e 58d2 103e
00000280: 454c 683c fb97 0fbc 86ff 3f3d e4c9 8e3c
00000290: be1a a3bd 823b 03bd 4d22 0d3e be6c 4cbe
000002a0: 3b7a 85bd 8e96 033e 1770 b93e f841 523d
000002b0: 8db4 0a3e a4ea 7a3e fdc5 cd3a c08f 97bd
000002c0: 8e6f 87bc 1a4d e8bc aeff 393e c822 f5bc
000002d0: fbf2 dd3d 30fc 403d e72d 20be e493 153c
000002e0: d7ab e63d 0d9d 8d3d 1e4c 86be 3dc6 b73d
000002f0: 5d7d cdbd 63eb 23be b41a 803d c1fc dcbd
00000300: 0734 313e b968 02be 8ad6 643e ea0c 04be
00000310: 2607 84bc 9b26 2a3e 2568 1fbe 9288 c3bd
00000320: 7083 28be cb49 f93c fe6d de3d 01db 1a3e
00000330: f316 703d e3b9 b5be 2aaf 413e 8d72 413e
00000340: ad90 87be b5e4 3e3d 7740 57bc d85d d23c
00000350: b214 913b 1724 8dbe 9242 833c abd0 c83d
00000360: f9f2 13bc 5424 b33d d3ff a639 6d90 b6bd
00000370: e31a 8c3c d782 c23d be1d f83d 1ccf 24be
00000380: 891b 3ebe 253e 783e 6b79 34be bcd2 2abe
00000390: 945d a9bd 4386 483b 36dd 673e dce8 4abd
000003a0: 2836 76bd 28b4 e13c 129c 6e3d 6ecd 0bbe
000003b0: c402 18be 1f6f 6fbc 11ec b4bd f11a ab3e
000003c0: 4dae 2c3e 98ca 91bd c249 f2bd cc21 a23e
000003d0: 5768 6cbe 15d6 33be 78ed 4cbc ac91 8d3e
000003e0: 14de 2ebe 087b 57be d9d0 08be 0e8a a2bd
000003f0: 43b6 2dbe 42b7 573c a720 55bb 82e0 2a3d
-0.27340624 -0.23022003 0.111310236 -0.14464197 -0.05056764 0.030868972 -0.026776537 -0.28236657
0.14259551 -0.05940154 -0.08969612 0.0304551 -0.014745813 -0.11997097 -0.14254162 -0.029000262
0.04123722 -0.030654326 0.01984289 0.13123477 -0.091571055 -0.03733443 -0.04027185 -0.005804487
-0.107536554 0.12245477 -0.070744924 -0.035021164 0.045404714 0.003376776 0.18096386 -0.040866915
-0.15359618 0.023233276 0.065806895 -0.259468 0.03833256 0.015707174 -0.19963647 0.37107652
-0.17837839 -0.07352024 -0.1197524 -0.03900823 0.09099657 0.11324743 0.0020452144 -0.086892605
-0.31957346 0.103146575 -0.048767645 0.04345205 0.40589392 -0.18173225 0.00576607 0.244702
-0.08493111 -0.078841284 -0.426968 0.4310339 0.15434268 0.004826779 -0.0064421827 0.114248775
-0.043903995 -0.016086686 -0.00087810453 -0.020316862 -0.1654458 -0.1318598 -0.119836204 -0.12887655
0.16045192 0.37496343 0.2775084 -0.12057931 0.18078798 -0.016743157 -0.04250106 -0.0007812899
0.17408173 0.036986306 -0.042589355 -0.002144235 -0.26854524 -0.85686815 -0.97830117 -0.010415187
0.07239246 -0.08006885 0.18512788 0.35408387 0.057143543 0.15520456 0.4121196 0.20252123
0.0060379175 -0.12768032 0.20952222 0.41118118 0.112791054 0.17247154 -0.15872847 0.06561536
-0.10817295 0.27593052 0.056550063 -0.1951818 -0.072816 0.078966826 -0.025576014 -0.0041546365
-0.041271213 0.11941217 0.02165491 0.036583524 -0.005534753 -0.08394718 0.24066502 0.097145915
-0.009044282 -0.117588095 0.054997437 -0.07183385 -0.0110775335 0.031976067 0.009008675 0.061823983
0.17783175 -0.009600427 -0.15544586 -0.051592574 0.051160738 -0.03183038 -0.13301656 -0.15034044
-0.116075754 0.06807607 -0.07308915 0.079544984 -0.25341514 -0.2355488 -0.27930135 -0.18288752
0.17124487 -0.06633815 0.021274619 -0.022791795 -0.002195507 -0.14635275 -0.07222851 0.09705147
-0.09912536 0.13393316 -0.043941017 0.068540625 0.10079108 -0.027226888 0.20874475 0.1414274
0.01417834 -0.008764262 0.046874546 0.017430253 -0.07964085 -0.032039173 0.13782616 -0.19963357
-0.06517454 0.12850401 0.3621833 0.051332444 0.13545437 0.24503571 0.0015699264 -0.07400465
-0.016532686 -0.028357077 0.1816394 -0.029923812 0.108373605 0.047115505 -0.1564251 0.009129498
0.112632446 0.06914721 -0.26229948 0.08973358 -0.10033677 -0.16007762 0.06255093 -0.107903965
0.17305003 -0.12735261 0.22347465 -0.12895551 -0.01611669 0.1661629 -0.15567072 -0.09547533
-0.1645639 0.030430695 0.10860823 0.15122606 0.058615636 -0.35493383 0.18914476 0.18891354
-0.26477566 0.04660483 -0.013137928 0.025679514 0.004427516 -0.27566597 0.016022954 0.09805425
-0.009030097 0.087471634 0.0003185259 -0.08914266 0.017102664 0.09497612 0.12115048 -0.16094631
-0.18565191 0.24242456 -0.17624442 -0.16681951 -0.08269802 0.0030597604 0.22642979 -0.04953848
-0.06011024 0.027551726 0.05825431 -0.13652584 -0.14844805 -0.014613896 -0.088340886 0.33418992
0.16863365 -0.0711872 -0.118304744 0.3166641 -0.23086677 -0.17562135 -0.012507789 0.276502
-0.17076904 -0.21043026 -0.13360919 -0.07936488 -0.16964059 0.013166251 -0.0032520683 0.041718014

base.2linear.bias f4 [50]
00000000: 1463 e93d ec6a 3b3e 9148 98bb 2199 95bd
00000010: de20 9d3d b294 39bd 0db2 33bd 8226 abbd
00000020: 9c2d 8fbd 6cea 0dbb d490 34bd c0dd e53c
00000030: f034 a3bd 139a 13bd f302 083e 745a ce3d
00000040: af22 63bd 67f6 c7bd 4ef6 e3bd fbb5 9e3d
00000050: 8cca 1abd 60f7 aabb 2fa4 13bd af55 183c
00000060: 293c b93d 2d7a 083b b077 2d3c abd2 31be
00000070: 6c67 1bbd eb1c c0bd d0bd 1dbd 0e86 e1bc
00000080: 4f4a 8ebd b2c1 a2bd 6ec4 093e 9fd4 f13a
00000090: 7b6e d73d 0ebe a2bd 6044 773c 78b2 ca3d
000000a0: 88de 3d3d ff43 6abd fb48 04be 9da9 c0bc
000000b0: 1a9e b0bd 9f49 3c3d d1a6 683b a43e 893c
000000c0: 7b8c d239 6053 5c3d
0.11395851 0.18302506 -0.0046473225 -0.07304598 0.076722845 -0.045307823 -0.043870974 -0.08356954
-0.06991121 -0.002165462 -0.04408343 0.02805984 -0.079690814 -0.03603561 0.13282375 0.10075846
-0.055453 -0.097637944 -0.11130963 0.07749554 -0.03779082 -0.0052174777 -0.03604525 0.009297772
0.09044678 0.0020824776 0.010587618 -0.1736552 -0.037940428 -0.09380516 -0.038511097 -0.027529743
-0.06947767 -0.07947101 0.13453838 0.0018450207 0.10519119 -0.07946406 0.015091985 0.098973215
0.0463548 -0.057193752 -0.12918465 -0.023518378 -0.086239055 0.045968648 0.003549982 0.016753502
0.00040158987 0.05379045

base.3linear.weight f4 [50, 50]
00000000: 3f60 9d3d 30a8 ac3e 79e3 063d 8fa3 81bd
00000010: 2d7f ab3d eb8e 863d 660b 413e 789e 9ebd
00000020: bfb0 b2be d2c3 153e f291 af3e 3e69 73be
00000030: 7d8e 51be c44b f4bd 3a2c b7be 400c f8bd
00000040: 4285 a23e 786c be3e 8efb 96be a8a3 713e
00000050: caa2 0fbc 002f f53d f1d9 b53b e593 85bd
00000060: 2a3a 9f3e d878 233e a5ae 3bbc 5bd9 17be
00000070: 49f1 adbc f451 403e fb8b 3dbe 80fe 78bd
00000080: 3e9c 053e aea9 cc3d 5d29 303e 0062 3a3e
00000090: 8821 973d 6661 6c3e 28ef e63a 00d4 4cbe
000000a0: 7cae 19be 0dad 973d 3559 1fbe 6ba8 d23c
000000b0: 2e63 d3bd b5f1 9dbd c9dc 5abc 78c8 213e
000000c0: 3cac 4abe ee1d 0c3e c0ef fdbd 7731 19bd
000000d0: 5350 3f3c 7ffa 103d 1e39 be3c 8c14 eb3d
000000e0: d875 a03d 3058 773e afa6 18be acce 28be
000000f0: 0e93 853e 39bf 85be 4f4f 8dbe cda1 a93e
00000100: da6b 2ebe aafe 67be 1f52 17be 2570 c1be
00000110: 4ad2 ccbe 004b da3d 9a16 91bd 9946 5bbd
00000120: 7e64 5abc 8c94 82be e3ca bebe 4e8c 59bd
00000130: fdb6 cc3e 20b8 313d 663e 623a 59a1 a3bd
00000140: 558f 463e 9554 6bbe 79b7 66be 5c9f b1bd
00000150: 12c2 033e 4b3a 3cbe d8fb 8bbd 492e 0b3e
00000160: 3487 82bd f75a babd 57fc f23d 705c 62bc
00000170: c9ce 083d e96e 883e d0d3 8cbe e50c 6d3d
00000180: 122e 883e 43db 16bd 3f6a 85be 9337 053e
00000190: 5f2e 06be 194c b53d a831 833d a5b0 86bc
000001a0: 472b 83be 1138 6fbd b80b e53d 9d2c aa3d
000001b0: 33d0 f1bb 5cde 19bd 80c4 4c3e 387d 84bd
000001c0: f9ce 02bc 8957 97bc c0a6 0f3c f8f1 a23d
000001d0: e876 8a3d 8841 173d 02f9 4dbe 75be f43d
000001e0: 771d 283e 8b99 2fbe ebcf d4bd ab34 943e
000001f0: c2a3 3cbb a4a6 10be f984 e0bd a560 2b3e
00000200: 413c 5fbc f4a3 c83d 99a6 913e 9e7f 473e
00000210: e824 333d ce79 bd3d 2d70 a5bd b552 cb3d
00000220: d341 773d 4bfc 963d df62 9e3c e905 a63c
00000230: e6c7 fe3c 0702 03be c821 37be 44ba 4d3e
00000240: e314 7abe a779 3fbb 3ac7 f53c 0631 ea3d
00000250: 0bf1 4f3d 9c1a 913e 9031 6c3c aa5c f53d
00000260: 494b 1f3e f82d cb3c 6435 b83c 7dc9 03bd
00000270: c20f 883d 4250 ebbd 40a5 503d ee41 68bd
00000280: 034f 163e 1431 d5bc 1e51 f7bd d102 a93d
00000290: 5f11 4abe aa68 cebc cfea bcbd cc69 643b
000002a0: e06c 9c3d 1701 a0bd b37a 01be 33d3 86be
000002b0: 1b1d 2fbe b9ef 37be fcbd 233d 28ac 8a3d
000002c0: c5c1 deb9 0b1b 123e 6249 90bc 5142 febc
000002d0: 7917 a73c e18b 853d 523d d33d e9ab 183c
000002e0: ff25 1b3d 94ec 73bc 5bae 3abe ccb1 86bc
000002f0: 574f 89bd dd7a d63d 136e 0cbd 041a 0f3e
00000300: 139a 1dbe b881 97be c86e 413e c27d 803d
00000310: 8fa8 9f3d 10e2 113e 5e55 9fbe 8ba7 28bd
00000320: 6670 4c3e c782 5abe a5e2 32be ce37 0ebb
00000330: 13ba 26be 84c9 39be 92df dc3c 2b8c 7bbc
00000340: 0ee6 8d3e 9116 93bc c397 35be 8926 0ebd
00000350: d3e7 0f3d 41f9 71be 11bc 103e 0a61 ccbc
00000360: 437e 91be 5250 66be 65eb b4bd 9234 5d3e
00000370: 67f2 40be bd2b 643e 523b 16be c7de 313e
00000380: 0f6d 52be 66e8 6dbe c278 883d e9a7 70bd
00000390: edb7 483c e31f a5bd bf7c 95be 835c 4abe
000003a0: ab87 bb3d 96a1 a63e 7530 de3e 1035 a7be
000003b0: 9784 6c3e 07a6 01be d025 833e 3eee 353e
000003c0: 6f62 363e d38d d53e 25e5 30be 0bee 9e3d
000003d0: 9a32 4c3e dfba 113d e946 ccbd 51e6 4fbd
000003e0: 746f 31bc 95ab 893e ada2 38be f361 84be
000003f0: 9aaa 5ebe 373c b33b c804 453d a01e 423d
0.07684373 0.33722067 0.03293178 -0.063300245 0.08373866 0.06570228 0.18852004 -0.07745069
-0.34900472 0.14625481 0.34291035 -0.23770615 -0.20464511 -0.11928514 -0.3577593 -0.121117115
0.31742293 0.3719213 -0.29488796 0.23597586 -0.008766839 0.11971855 0.0055496623 -0.06522349
0.31099063 0.15964067 -0.011455213 -0.14829008 -0.021233218 0.18781263 -0.1851043 -0.060789585
0.13047883 0.09993301 0.17203279 0.18201447 0.073794425 0.2308403 0.0017618882 -0.20002747
-0.15007967 0.07406054 -0.15561374 0.025715074 -0.103216514 -0.077121176 -0.013358303 0.15799129
-0.19792265 0.13683292 -0.12399244 -0.03740069 0.011676866 0.03539514 0.023220595 0.114785284
0.07834977 0.24154735 -0.14907335 -0.16485089 0.26088756 -0.26122454 -0.2759957 0.33131257
-0.1703333 -0.2265574 -0.1477742 -0.37780872 -0.40004188 0.10658836 -0.07084389 -0.053534124
-0.013329623 -0.25503957 -0.37264165 -0.05311232 0.3998336 0.043388486 0.0008630514 -0.07989759
0.19390614 -0.22981484 -0.22530927 -0.086729735 0.12867 -0.18381612 -0.06835145 0.13591875
-0.06373444 -0.090993814 0.11864536 -0.013815984 0.03340033 0.26647118 -0.2750535 0.057873625
0.2659765 -0.036830198 -0.26057622 0.13009481 -0.13103627 0.08852405 0.064059556 -0.016441653
-0.25618955 -0.05840308 0.11183876 0.083092906 -0.0073795556 -0.037565574 0.19996834 -0.06469196
-0.007983916 -0.018474357 0.008767784 0.07956308 0.06760961 0.03692773 -0.2011452 0.11950389
0.1641749 -0.17148416 -0.1039122 0.28946432 -0.002878413 -0.14126068 -0.109628625 0.16736086
-0.0136252055 0.097968966 0.28447416 0.19482276 0.04373637 0.09251748 -0.080780365 0.099278845
0.06036551 0.0737234 0.019334255 0.02026649 0.031101178 -0.12793742 -0.1788398 0.20090586
-0.2442203 -0.0029216798 0.030002225 0.11435132 0.050766986 0.28340614 0.0144161135 0.11980565
0.15556063 0.024802193 0.022486396 -0.032174576 0.066436306 -0.11489917 0.050938845 -0.0567035
0.14678578 -0.026024379 -0.12076019 0.0825249 -0.19733189 -0.025196392 -0.09224474 0.00348531
0.07637954 -0.07812708 -0.12644462 -0.26333007 -0.17100947 -0.1796254 0.039976105 0.067711174
-0.0004248751 0.14268129 -0.017613117 -0.031037482 0.020396935 0.065208204 0.1031443 0.00931833
0.037878033 -0.014887948 -0.18230574 -0.016442202 -0.06704586 0.10472653 -0.034284662 0.13974768
-0.15390806 -0.29591155 0.18889916 0.062739864 0.07795822 0.14246392 -0.31119817 -0.041175406
0.19964752 -0.2133895 -0.1746927 -0.0021700743 -0.16281919 -0.18143278 0.026962075 -0.015353243
0.2771458 -0.017955096 -0.17733674 -0.03470472 0.035133194 -0.23630239 0.14134242 -0.024948616
-0.28416643 -0.22491577 -0.088339604 0.21602085 -0.18842469 0.2228231 -0.14671066 0.17370139
-0.20549415 -0.23233184 0.06663658 -0.05875388 0.012250883 -0.080627225 -0.29196736 -0.19761853
0.09156736 0.32545155 0.43396345 -0.3265767 0.23097454 -0.1266099 0.25614786 0.17766663
0.17810987 0.41709766 -0.17274912 0.07760247 0.19941178 0.035578605 -0.099744625 -0.050756756
-0.010829795 0.2688872 -0.18030806 -0.2585598 -0.21744767 0.0054698247 0.048100263 0.047392488

base.3linear.bias f4 [50]
00000000: 6cb6 e5bd 400c 4bbe 9654 cebc a38f 2dbd
00000010: c98a 693c 1ea3 6dbd af4b 54bd 029e 743d
00000020: 2493 08bd 59e6 c6bc 82f6 e63d ae9d aebd
00000030: db55 aa3c d953 b83d 4551 bfbc 444b be3d
00000040: df23 07bd 53d8 333d 37df 05bd 99ed 21bd
00000050: 34ad 6f3d 19bd f63c bd5f c93c e47a 7b3d
00000060: 0fb4 503d f3fa 87bd c5b5 613c 12d8 8b3c
00000070: fc19 14bd 9caa 14be 6f54 40bb e709 8e3c
00000080: 8ba0 ad3d 31a7 c6bd d71e 9ebd b75d 003e
00000090: 7760 003e 36b6 ad3c 7271 edbc b996 7abc
000000a0: f903 cb3d 46a7 91bd e510 4ebd 84d6 443d
000000b0: b0bb 8cbd ba7f 1c3d dedb be3c 660f ad3c
000000c0: 61c0 c13c 810b 0ebd
-0.11216435 -0.19828892 -0.025186818 -0.04237331 0.01425428 -0.05801689 -0.05182999 0.059721
-0.03334345 -0.02427976 0.112774864 -0.08526169 0.020792892 0.09000368 -0.023354182 0.092916995
-0.032993194 0.043907475 -0.032683577 -0.03953323 0.05851479 0.030119466 0.024581784 0.061396495
0.050952967 -0.06639662 0.013776247 0.017070804 -0.036157593 -0.14518207 -0.0029347201 0.017338706
0.08477887 -0.09699858 -0.07720726 0.1253575 0.12536798 0.021205049 -0.028984759 -0.015294724
0.09912867 -0.07111983 -0.05030908 0.04805614 -0.06871736 0.038207747 0.0232982 0.021125507
0.023651304 -0.03467894

base.4linear.weight f4 [50, 50]
00000000: d5a3 40bd 55cc 163d ca2c 91bd 256f 98bd
00000010: ea26 7a3e 8e9a a03d 6bd0 053e fda9 7a3e
00000020: 8439 efbd 6c02 0b3d af6e 2c3e d69a cf3c
00000030: 5639 e5bd 7984 ba3d 6f04 a6bc c157 353c
00000040: a982 01bd 2bad b4bc 01f9 0c3e c4b2 b73d
00000050: ff10 6cbd dd4c 4bbe 4dca 8f3e 7167 b73e
00000060: ea56 393e dd08 e53e 3c76 b23e 1433 60be
00000070: 6594 6c3e a80d 32be 8883 64bd 5fdb b9be
00000080: 0f30 4cbc 57f1 50bd d774 593e c3b9 db3e
00000090: 47d9 c03e fbce 823d ec54 233e f1a9 13bd
000000a0: 6098 6abc e840 e7ba d196 bf3d 4b5f 553e
000000b0: 2fea 86bd 331f 493d 1381 203e 04d5 66be
000000c0: 8998 3dbe 0029 0bbe fa8c 693d 71ed 74be
000000d0: a5ee 83be ff91 943c e25e f23b 87f9 3cbd
000000e0: 1694 a13e edf1 8b3e 52f0 8f3e 4cf9 efbd
000000f0: 238e c13d d64b 4fbd 752d f83b 9851 1cbd
00000100: a5c7 28bd 09c7 dc3e 3e7c e7bd 6992 553d
00000110: e9f9 9bbe 0a7c 19be f303 963d 9ba4 7fbe
00000120: d149 3d3d d4d7 a53a 5721 9ebe 312a 85bd
00000130: a7d4 cdbd 336e 253e cd0c 8cbe 0479 a4be
00000140: e8b6 463e 994a 9f3e b6fc 13bc 1027 51be
00000150: abe9 8dbe c134 53be bd72 973c 95db 033d
00000160: 7547 d2bd 046f 673e caf9 a23e acb9 673d
00000170: a5bf 153c 33c1 67bd 32d1 adbd 9b46 873e
00000180: a3f5 27be abd1 22be 9bf5 ba3d 5403 a23e
00000190: 39df 0bbe fbe8 94bd 30b7 f5bd 729f 93bd
000001a0: 57b6 28be 1c8b fd3d c68d 893e 3676 56be
000001b0: e6e7 3fbd fe66 f3bb 3b90 153e 97fe 11be
000001c0: 31a7 453c 433d c43e 6656 173e 6cb2 86be
000001d0: 247b 2e3e f01f 24bc 36e1 8f3e f679 bbbd
000001e0: 1b28 39bb 8fa2 73bb e333 873d 33b1 243e
000001f0: 0782 e6bd 57bd 24bb be24 723e 83ee 79bd
00000200: 7555 533e 600a 20be d21f 44bc 6dfe c73c
00000210: 9621 3e3e 9e41 94bd 860f a03e 7177 2cbd
00000220: e6a5 443e 68f7 70be 627b 4e3c 4980 d73d
00000230: f04e e23d 93e5 a83e 410d 2d3d 43a3 703e
00000240: 68ce 2cbd eda0 0f3e 9b73 213e b039 203e
00000250: 88ab 393e 8f72 09bd e0c8 2dbe 2ee5 4abc
00000260: 5592 91be 4f70 9dbb 6b80 3b3e a293 c73e
00000270: 487d ef3c 6648 0e3e cc43 cb3e 93ca c63d
00000280: 8780 5fbe 1f46 1ebd 453c 95bd 6fd6 38be
00000290: 117e 213e bb61 d7be f8b4 bd3d 47ea cdbb
000002a0: fda8 8a3d 6a88 00be 7994 7cbe a436 bdbd
000002b0: 494d 37bd a814 94be b6a6 273d cefb a63e
000002c0: a306 b53d 49ae 1cbe 9195 e53e 9468 6bbd
000002d0: f29e 23bc f073 28be 82fd 5bbe 66da 2d3d
000002e0: 8600 9e3e 53fc 3cbe 96b6 e33c dbce d6bc
000002f0: a29c 68bd 14bc a139 ff60 993c 4e33 edbd
00000300: 71f8 c43d a1e8 45bc 18f2 093d 35f9 2abe
00000310: e89a 78be 2be2 d6bd 2f30 3ebe 0627 21be
00000320: 84ae 10be 0b1f 403e c2eb a7bd 01b5 13be
00000330: 2486 153e 004b 3a3e 12b8 cabd 7d7f ea3d
00000340: 4416 883e 7987 653e 6306 0e3d a351 123e
00000350: 25d1 a23d b7ac 89be d746 ffbe d7b8 a6be
00000360: b629 d4bc 5d4a 09bc e07b 9e3e b738 f93d
00000370: f33c e9be 7a2a 373e 509b b1bd 0766 8abd
00000380: 1431 82bd 709c 833e 883c 33be 8d02 dcbc
00000390: 43a6 033f 47c9 483e f3b5 ea3b 64be 333e
000003a0: d7ae 02be 44cc 93bd 5cf1 3bbd 7d7f a93d
000003b0: 9055 6cbe 8b72 b3be be57 153e 6103 77be
000003c0: 56cb 98bd 4d3f c0bd 993a 253e a3af e6bd
000003d0: 2f41 ce3e c765 93be bc1c fcbd 2613 653d
000003e0: 35c7 34be fb58 04be a336 38bd ee6f a3bc
000003f0: c198 373e 7b75 98be 3cf9 dd3c 3c40 a83c
-0.047031242 0.03681596 -0.07088621 -0.07443074 0.24428907 0.07841979 0.13067786 0.24478908
-0.11680892 0.033937857 0.16839097 0.025342386 -0.111925766 0.091072984 -0.020265786 0.011068285
-0.031618748 -0.02205523 0.13766862 0.08969644 -0.057633396 -0.1985354 0.2808403 0.35821107
0.18099561 0.44733325 0.3485583 -0.21894485 0.23103483 -0.17388022 -0.0557895 -0.3630018
-0.01246263 -0.05101141 0.21235977 0.42915162 0.3766577 0.06387135 0.15950364 -0.03605074
-0.014318556 -0.0017643245 0.09354938 0.20837133 -0.06587636 0.04910202 0.15674238 -0.22542197
-0.18515219 -0.13589859 0.05701921 -0.23918702 -0.2576801 0.018136023 0.007396565 -0.046136405
0.31558293 0.27333012 0.28113037 -0.117174715 0.094509386 -0.050609432 0.0075737783 -0.03816375
-0.04120602 0.43120602 -0.11302994 0.05214158 -0.30464104 -0.14988723 0.07324972 -0.24965136
0.046212975 0.0012652823 -0.3088481 -0.06502188 -0.10050326 0.16155319 -0.27353516 -0.32123578
0.1940571 0.311116 -0.009032419 -0.20425057 -0.27717337 -0.20625593 0.018487329 0.03219183
-0.102675356 0.22600943 0.318312 0.056573555 0.00913993 -0.056580734 -0.084871665 0.26421055
-0.16402297 -0.15900294 0.09128877 0.31643164 -0.13659371 -0.07271 -0.11997831 -0.07208146
-0.16475807 0.12380049 0.26865977 -0.20943531 -0.046852015 -0.007428049 0.14605801 -0.14257275
0.012063787 0.3832799 0.14779052 -0.26308 0.17039162 -0.01001738 0.2810151 -0.091541216
-0.0028252664 -0.003717575 0.066016935 0.16083221 -0.112552695 -0.002513727 0.23646829 -0.061018478
0.20638068 -0.15628958 -0.011970477 0.024413312 0.185675 -0.07239078 0.31261843 -0.042106096
0.1920391 -0.23531878 0.012602659 0.10522515 0.110502124 0.3298765 0.042248968 0.2349978
-0.04218903 0.14026232 0.15766756 0.15647006 0.1813184 -0.033556517 -0.16971159 -0.012383742
-0.28431955 -0.004804648 0.18310706 0.38979822 0.029234543 0.13894805 0.39700162 0.09706607
-0.21826373 -0.03864109 -0.07286886 -0.1805055 0.15770747 -0.4206675 0.09263033 -0.0062840316
0.06770513 -0.12552038 -0.24666013 -0.092389375 -0.04475144 -0.2892201 0.040930472 0.32613987
0.088391565 -0.1530086 0.44840673 -0.05747278 -0.009986626 -0.16450477 -0.21483424 0.04244461
0.30859774 -0.18455629 0.027797025 -0.026221683 -0.05679 0.00030848442 0.01872301 -0.11582051
0.09617699 -0.012079389 0.033678144 -0.16696627 -0.24277842 -0.10492357 -0.18573068 -0.15737543
-0.14129072 0.18761842 -0.08199264 -0.14424516 0.14601952 0.18192673 -0.0989839 0.11450098
0.26579487 0.2241496 0.03467406 0.14288954 0.079500474 -0.26889583 -0.49858734 -0.32562897
-0.025898796 -0.008379546 0.30953884 0.121690206 -0.45554313 0.17887297 -0.08672202 -0.067577414
-0.06357017 0.2570529 -0.1750356 -0.026856685 0.5142557 0.19608031 0.0071628033 0.17553097
-0.12762009 -0.07216695 -0.045884475 0.082762696 -0.23079515 -0.35048327 0.14584252 -0.24122383
-0.07460658 -0.09387074 0.16135634 -0.11263969 0.40284106 -0.28788587 -0.12310168 0.055926464
-0.17654116 -0.12924568 -0.04497398 -0.019950833 0.17929365 -0.2977713 0.027096383 0.020538442

base.4linear.bias f4 [50]
00000000: ef44 543d d47f fd3c e171 32bd 12dc a8bc
00000010: e4f5 93bd 3338 9d3d 128a da3d a4fe c7bd
00000020: 5151 5abd c49b 083d de17 0a3d 4de4 93bd
00000030: 1728 acbd 204b 0a3d b9f2 b83d ed81 0c3e
00000040: 0c0c a5bd e161 6c3c 426e eebc 71fe 9e3d
00000050: 36c0 773d 8510 66be 4a56 45bd 19bb 22b9
00000060: 60d6 833d 95d9 833d 2d89 bf3d a239 ca3d
00000070: 5e9a 773d 2119 f33b 5d80 303d 808b 4cbd
00000080: f7cb 42bd 7fc1 d1bd 4baa 733d 9e24 d43d
00000090: efc7 773d 935d 103d 080c cd3c c44b 943d
000000a0: cee0 29be 8fdd 02bc bfc1 6cbd d5f1 013d
000000b0: c695 3d3c 36d5 bf3c 9190 a6bd 4af8 e33d
000000c0: a982 01be 413f 763c
0.051823553 0.030944742 -0.043565635 -0.02061275 -0.07224634 0.07676735 0.10670866 -0.09765366
-0.053300206 0.033351675 0.033714168 -0.07221279 -0.08406084 0.03376305 0.09030671 0.13721438
-0.080589384 0.014427633 -0.02910531 0.077633746 0.06048604 -0.22467239 -0.048177995 -0.00015519223
0.06437373 0.06437985 0.09352336 0.09874274 0.06044995 0.007418767 0.043091167 -0.049937725
-0.047557797 -0.102419846 0.059488576 0.10358547 0.060493406 0.03524549 0.025030151 0.07241014
-0.16589662 -0.007987394 -0.05780196 0.03172477 0.011571353 0.023417097 -0.081330426 0.11131342
-0.12647499 0.015029729

base.5linear.weight f4 [50, 50]
00000000: 6cb7 973e 8330 1cbe 6bbd 9cbc 5768 1a3e
00000010: 083b 28be 4a47 a83d b390 333d 9b37 8fbe
00000020: 70a4 52be 74f0 1a3e 0f08 313d eab9 f13a
00000030: 3b0a e43d 4d27 543e 0dc6 e6bd a721 1a3e
00000040: 7e0b 5a3d 7158 6b3e 3c46 453e cf23 91be
00000050: f73c d8bd 1f62 abbc 29c2 e73d 15ec d23d
00000060: 8927 90be e576 54bd c570 0fbe 0810 6ebd
00000070: 7785 babc 390b f5bd 1611 8f3a f72b c33d
00000080: 9059 bcbe 1d19 06be 010d 7a3d acdc 6d3d
00000090: 69d4 a63d 2263 2d3c eefb ad3c faeb 993c
000000a0: b42b 28be dd67 b53d c00c d6be 6ebc 3c3e
000000b0: e3e2 043e 206f b03e 1451 753e 9a8e 8cbd
000000c0: f664 a1be bb5c 46be 23e1 bdbd a41a c83d
000000d0: 1aa8 9a3e 9453 403e 5393 ac3d 8cf8 2d3d
000000e0: 3ee4 c6bc 96d2 10be 2394 05bc af9d f8bd
000000f0: 19a9 81be 5836 b0be a826 9dbe 9839 26bc
00000100: 8282 42bc 8f88 3c3e 351e 03be 444e acbe
00000110: 9da7 753b fcb4 873e a4ba b23d 9c00 debd
00000120: b477 853b 17f9 813e 980d 3bbe 1f52 8c3e
00000130: 2ac4 49bd daee 91bd ac1a b23e f6a5 74be
00000140: b794 33bd 234a 0a3d 1851 65bd 183f 91be
00000150: 7329 2f3e 09c7 dc3d 1c7b 8ebc 2538 77bc
00000160: 3727 b73a 9249 343d aaba 1a3d eba3 d8bc
00000170: d500 213c 5f87 2c3d 740b c0bd f4b1 3bbe
00000180: 57c6 523e e054 123c 3b38 24be 1ae8 cfbc
00000190: 955d 633d 045d d8bd 19bd 7fbc 573c 54be
000001a0: 373b c7bc 8653 85be 6254 ccbd a6fb 8f3e
000001b0: d0ca 97bd 4447 8bbe cda9 113e b415 313e
000001c0: a980 463e 6549 ee3d cab9 99bb f8ae 38bd
000001d0: 1cce 8c3d da28 023e 2dc5 02be f080 cbbd
000001e0: 369a 0e3e a198 f43d 5257 20be 0c68 913e
000001f0: 8f3b 15be 5620 123f ec7f e93c 538c a43e
00000200: bcdd a7bd 2e84 8c3e 86d7 a8bb 85bc 843e
00000210: e90f da3d 5d0d f7bb 8ed1 0d3e ae6b b9bc
00000220: 2bac e1bc c923 883e 038b e63d 29ec 823b
00000230: 7150 ee3e ec0a 7b3d d1dc 83be 7cef f93d
00000240: f4ab bbbc 1cf7 073e c4b1 b83e 3967 07be
00000250: c169 883e 1b8c 46bd d8f3 09bf 6c4c 9cba
00000260: 3b7b 51be 5f88 143e 0b69 743c c528 0a3e
00000270: 04fd 9a3e 4157 a03d 49a6 3fbf 01c4 2b3e
00000280: 54a8 ac3c 61f2 443e b4c9 9abe 065c 60be
00000290: 191a 123e 21b0 7fbd 1e29 4abe 562f 09bf
000002a0: 09d6 90bd c082 3a3c 8367 cc3e 4931 8fbd
000002b0: 9dff 873e ef88 613e 415b a3bd 1be5 30be
000002c0: 7c5f 77be 1e12 e73d 1b93 c6bc b1bd 4b3e
000002d0: d5b1 073e e49b 133e 9c19 7cbe 1135 143e
000002e0: edad 28bd 179b 483b 9ea6 b0bd 81b8 fe3d
000002f0: a696 cf3e 99c1 3bbe eda2 9a3d 3d29 22be
00000300: e48b 503e 0d16 61be 2619 afbd 8e74 81be
00000310: 366a 913c df82 3ebe 17b3 25bd 2b06 9b3e
00000320: f9c6 4ebd 2066 2fbe 3c3b c13d 9c40 d0bd
00000330: 331c 4c3e 4b4d 043e f1a8 673e e960 92bd
00000340: c084 20bc 3c61 743e 6ae7 9dbe 603c 7c3e
00000350: 2801 9ebe eac1 e33d ee7e 093e ec0b dc3d
00000360: 1604 83bd 912a 95bd 7194 d3bd bbcc 423e
00000370: bf34 513e 8b34 513d 5dc2 583d 32b6 4d3e
00000380: a51e ac3e d83a 6ebe b55c 87bc 79e6 cebd
00000390: 7444 39be 6654 b3bc 1749 e6bd 5b1c 553e
000003a0: e5fc 86be f8fc 1abe 543b e53d a006 143e
000003b0: 53e9 4cbd 8707 7bbd fcd5 903e a9ff 0cbd
000003c0: ed31 3cbe 775a e7bd a487 3f3e 7625 15bd
000003d0: a17d 883d e2f8 08be c55b 013e 2df4 a93c
000003e0: b0bf feba 36ca 193e 33ad 373d 9446 41bd
000003f0: 4c0d 843c 6000 0f3e 68c4 573e 6cb8 85bd
0.29632127 -0.15252881 -0.01913329 0.15078865 -0.16428769 0.08216722 0.043839168 -0.2797211
-0.2057054 0.15130788 0.043220576 0.0018442248 0.11134764 0.20718117 -0.11268244 0.150519
0.053233616 0.22982956 0.19265074 -0.28347632 -0.10558503 -0.020920811 0.1131633 0.10298935
-0.28155163 -0.0518712 -0.14007862 -0.058120757 -0.02276872 -0.11965031 0.0010915126 0.0952987
-0.3678708 -0.13095517 0.061047558 0.058071777 0.08145983 0.010582717 0.021238293 0.01878928
-0.16422921 0.08857701 -0.41806602 0.18431255 0.12977175 0.34459782 0.2395671 -0.068631366
-0.3152234 -0.19371311 -0.09271457 0.09770706 0.30206376 0.18781883 0.08426537 0.04247336
-0.024278756 -0.14142832 -0.008152994 -0.12139451 -0.25324324 -0.3441646 -0.30693555 -0.010145567
-0.011871936 0.18411468 -0.12804492 -0.33653462 0.0037483939 0.26505268 0.08727005 -0.1083996
0.0040731076 0.25385353 -0.18266904 0.27406403 -0.049259342 -0.071256354 0.34785974 -0.23891434
-0.043842997 0.03376211 -0.05598554 -0.2836845 0.17105655 0.107801504 -0.017392687 -0.0150890695
0.0013973479 0.044015475 0.037775673 -0.02644535 0.0098268585 0.042121287 -0.093771845 -0.18329602
0.20583473 0.008931369 -0.16037075 -0.02537923 0.05550917 -0.10564616 -0.015609049 -0.20726143
-0.024320228 -0.26040286 -0.09977032 0.2812168 -0.0741173 -0.2720281 0.1422493 0.17293435
0.19385017 0.11635093 -0.0046913372 -0.04508874 0.0687525 0.12710896 -0.12770529 -0.09936702
0.13926014 0.11943174 -0.1565831 0.28399694 -0.14573501 0.5708059 0.02850338 0.3213831
-0.08196589 0.27444595 -0.0051526455 0.2592508 0.10647566 -0.007539435 0.1384947 -0.022634353
-0.027547916 0.26589802 0.11256983 0.0039954376 0.46545747 0.061289713 -0.25754407 0.12203881
-0.022909142 0.13277858 0.36073124 -0.1322297 0.26643184 -0.04847346 -0.538877 -0.0011924631
-0.20457165 0.14505146 0.014917622 0.13492115 0.3027116 0.07829142 -0.74863106 0.16773988
0.021076359 0.19233085 -0.30232012 -0.21910104 0.14267768 -0.06242383 -0.19742247 -0.53587854
-0.07072074 0.011383712 0.39922723 -0.06991822 0.26562205 0.22024892 -0.0797639 -0.17274897
-0.24157518 0.112827525 -0.024240067 0.1989658 0.13251431 0.14414936 -0.24619144 0.14473368
-0.041181494 0.003061002 -0.0862553 0.12437535 0.40544623 -0.1833557 0.07550607 -0.15836044
0.20365864 -0.21981068 -0.085497186 -0.25284237 0.01775084 -0.18604611 -0.040453997 0.30278143
-0.050482724 -0.17128801 0.09435126 -0.10168573 0.19932632 0.1292011 0.2262304 -0.071473904
-0.009797275 0.23865217 -0.30840617 0.24632406 -0.30860257 0.111209705 0.13427326 0.107444614
-0.06397264 -0.072835095 -0.10331047 0.19023411 0.20430277 0.0510755 0.052919734 0.20089033
0.3361713 -0.23264635 -0.016523698 -0.10102553 -0.18092519 -0.02189083 -0.112444095 0.20811598
-0.26364818 -0.15135562 0.111929566 0.14455652 -0.050027203 -0.061286476 0.28288257 -0.034423504
-0.1837842 -0.11296552 0.18704087 -0.03641268 0.06664587 -0.13376191 0.12632664 0.020746315
-0.001943579 0.15018544 0.04484291 -0.04718645 0.016119622 0.13964987 0.21071017 -0.06529316

base.5linear.bias f4 [50]
00000000: 2605 a83c 4d1e 0ebc 06ac 67bd ffe4 17bd
00000010: d002 903d 3ca5 d0ba fe9f 0abc 9eb8 393e
00000020: 8976 cf3c ea99 ca3d 490d a8bd cdcc d1bc
00000030: d294 4c3b 42a3 b7ba 8216 4e3d a427 5b3d
00000040: 6c84 08bc 92bd 85bd a3ac 52be e8c0 31bc
00000050: dfcc 943d 0ec6 c43d ac96 b43d 1841 b7bd
00000060: e5fd 813d 8db8 853b 347b 983d 2cde a3bd
00000070: e39b 64bd e732 64bd 5b3a 32bd a588 3ebd
00000080: 2cf8 94bc 8fe8 b4bd fa10 90bd dee2 533d
00000090: e9dd 833c 93a6 b43d 72f3 41bd d344 1cbd
000000a0: b893 203d 6f47 c53c fc4f da3c 582b a93c
000000b0: 0b91 b2bc a05e a0bd 9c8d ddbd fca7 b73d
000000c0: 2b5c d2bd edf1 e93d
0.020510267 -0.008674216 -0.05656054 -0.037083622 0.070317864 -0.0015918384 -0.008460997 0.18136832
0.025325077 0.09892638 -0.08205659 -0.025610352 0.0031216634 -0.0014010447 0.050314434 0.0535046
-0.008332353 -0.06530298 -0.20573668 -0.010849215 0.072656386 0.096080884 0.08817801 -0.089479625
0.06347255 0.004080838 0.07445374 -0.0800136 -0.055812728 -0.055712607 -0.043512683 -0.046517033
-0.018184744 -0.088334195 -0.07034488 0.05173003 0.016097026 0.08820834 -0.04735131 -0.038151573
0.039203376 0.024081914 0.026649468 0.02065055 -0.021797678 -0.07830548 -0.108180255 0.08967587
-0.10271486 0.11423097

base.6linear.weight f4 [50, 50]
00000000: fbb5 973e c38e 53be 78d2 e63c e79b e73c
00000010: 5331 d9bd e653 f0bd c6f3 1dbe e79b fc3d
00000020: 86e5 463e fa63 1ebe adfc 813d b937 b43d
00000030: 476b d1be 47e1 7bbe bb47 263f 42bb ef3c
00000040: aa71 f43d a58a e43c c33c 88bd f930 953e
00000050: e573 91bd d0b0 1a3f 5e5b 9bbd f0b5 853e
00000060: 3662 89bc 8455 a7bd 9490 ce3c dcf2 2d3e
00000070: ee44 b7bd 9339 883d ee88 b2be 013e 643e
00000080: 322a 373d 62ee 153d ac5d 51bd 6abc e6bd
00000090: ac6b 11bd a5f5 17be 24bc 0cbe 4fb4 ef3d
000000a0: a2ee 943d d291 013e 20c9 3abd 8ddf 89bd
000000b0: 4ae2 203d 3f03 babc 71d5 9abd 815f 313d
000000c0: 7beb bbbd 6b81 63bd 4255 d23e d44d 473d
000000d0: 0751 8d3d 1829 ca3e dbb1 af3e 272b 9d3d
000000e0: 547c 743e 05f6 abbc bea6 fdbd 3570 febc
000000f0: 6b35 dbbd ee67 28be ff27 c83d bc7f ba3e
00000100: 6968 bcbe 42e7 f5bd 98a7 93be d044 fcbd
00000110: 0f92 813d 5bc1 ce3d 1ef6 c63d cd29 eebd
00000120: 16c1 153c 26bf b5bd 2ddc 78be ff79 29be
00000130: 2820 d03d 3d79 a53e b3f3 0a3f cc27 1ebe
00000140: 3fde 113e 1d6b a8bd f427 7cbd a82a d33d
00000150: 63e6 213d 9b4f f83c b59f 1dbe 6264 1e3e
00000160: 536f b73d ba71 1c3e 3f1b 8fbe 36c2 843a
00000170: 73a5 f4bd 4b87 d93e 07d9 253d cc57 1fbd
00000180: 4826 733b 4af4 d8bd 3d08 f1bd 743e 63bd
00000190: 16e9 cdbd 72ff 7abd a20b e93c 6f36 893c
000001a0: cf27 fc3d 1f59 123d 2972 593d 96aa dabe
000001b0: 05f2 0b3e fdaa 833e 8870 e6bd ae27 063d
000001c0: f79f 243c 5b5f 7e3e 2b9d 033b 50ea 653d
000001d0: 0611 2abe e1af 843c 36da 993e 5525 2f3e
000001e0: c019 0e3d 1751 7abe f6c3 293e 9a21 943a
000001f0: 513c 9abd 06f6 a3be 6018 923e d7eb ee3c
00000200: d058 2d3d 04a4 333d 3c11 093e d216 37be
00000210: 9dae 113e 84a5 77bd 76fb 1d3e 7ded 36bb
00000220: 962a b73d 9232 bfbd 082c 3fbe 9c65 2d3e
00000230: fb80 a8be 71f9 aebd af0d afbd 7e7a 95be
00000240: 7819 02be 1ea5 b93e 6cba dbbc a5cd 80bd
00000250: 5831 25be fa13 5abd 448b 143d 043a 58be
00000260: 33ac fd3d a6d0 0bbc e20f a73d 4fe6 cdbe
00000270: 55aa 4f3e beef a0bd df2d 62bd 11df 55bc
00000280: d9b7 88be 4dcf c5bd f560 ccbc 364d 4ebe
00000290: dea7 e63d bf78 b13e 46c6 93bd 84bb 02be
000002a0: e587 b0bd f344 5cbe 775a 2c3e 4e3b 623e
000002b0: 0012 69be e6f2 133e ce5f 913c 8c3d 6c3e
000002c0: 3371 793d 4558 70be f0cd 49be c555 8bbe
000002d0: 5d27 80be faf7 513e e4fe 10bd 4c18 8a3d
000002e0: 4bbd a9be 86cf 2dbe b38a 363e 61d6 8bbe
000002f0: 27c3 1abe 5f28 d9bd bc97 253d b95d 2fbd
00000300: 150a 2bbb 469c f03d 634d 8e3e fc55 403e
00000310: 03b2 6a3d f225 ae3d 52c0 a93d b569 12be
00000320: d76b 26bd f2f2 c33d c2fd eebd 0e43 303d
00000330: b4a8 5cbe 1c2a 943d 6901 5b3e 42d5 b43d
00000340: b0b3 673e 4dd5 f2bd d19f babd 3a3b 02be
00000350: 5b29 993d d4f2 dcbd d411 ec3d 9fdc 1c3d
00000360: 49e0 3bbe 9aa8 c9bc 4c80 ddbd b1d5 8c3d
00000370: ee35 823e 0204 893d ddf5 203e 0d8a e7bd
00000380: 57c2 7e3e 3899 023e f131 a5bd a4a8 27be
00000390: e616 27be ff19 6e3b a7a0 26be 4c5e aa3d
000003a0: fef1 0f3e 8ddf 943d 0336 b6bc f5d0 3d3e
000003b0: 3414 4dbe 02f8 703d 3609 c1bd deb8 553e
000003c0: 927c 263e ae15 a5be 9492 2c3e 4d6e 943e
000003d0: d41e 633e e77f 1bbe a560 12be ce42 fdbd
000003e0: cf92 3bbd 4d90 cd3d d4e2 943d 8ff8 90be
000003f0: 7f4e fbbc 2228 31be 88b8 793c e84c 25bf
0.29631028 -0.20659928 0.028176531 0.028272582 -0.10605111 -0.11734752 -0.15425023 0.123344235
0.19423494 -0.15467826 0.06347022 0.08799691 -0.4090216 -0.24597655 0.649532 0.029264096
0.11935742 0.027898142 -0.066522144 0.29138926 -0.07102183 0.60426044 -0.07585786 0.2611537
-0.016770463 -0.08170608 0.025215425 0.16987175 -0.08948694 0.066516064 -0.34870094 0.22289278
0.044717975 0.036604293 -0.051114723 -0.11266406 -0.035503075 -0.148398 -0.13743645 0.11704313
0.07272078 0.12653282 -0.045601964 -0.06732092 0.039278306 -0.022706626 -0.07560242 0.04330397
-0.09175774 -0.055543344 0.41080672 0.048658207 0.0690022 0.39484477 0.3431538 0.07674246
0.23875552 -0.020991335 -0.12385319 -0.031059364 -0.10703548 -0.16445896 0.09773254 0.3642558
-0.3679841 -0.120069996 -0.288388 -0.123178124 0.063266866 0.100954734 0.09714912 -0.116290666
0.009140274 -0.08874349 -0.2430274 -0.16550444 0.10162383 0.3231906 0.54278105 -0.15444869
0.14244936 -0.08223555 -0.06156154 0.103108704 0.039526355 0.030311396 -0.15392955 0.1546798
0.0895678 0.15277758 -0.27950475 0.001012868 -0.119456194 0.42486033 0.040490177 -0.03890209
0.0037101675 -0.105934694 -0.117691495 -0.05547948 -0.10054223 -0.061278768 0.02844793 0.016749589
0.123122804 0.035729524 0.053087387 -0.42708272 0.13666542 0.2571639 -0.112519324 0.032752685
0.010047904 0.24841063 0.0020082693 0.05613166 -0.16608056 0.016197147 0.30049294 0.17104085
0.034692526 -0.24444996 0.1657866 0.0011301518 -0.07531036 -0.32023638 0.28534222 0.029165192
0.042321026 0.04385759 0.1338548 -0.17879799 0.14226766 -0.060460582 0.15427956 -0.002791255
0.089436695 -0.093358174 -0.1866914 0.16933292 -0.32910904 -0.08543671 -0.08547532 -0.29195017
-0.12705028 0.36258787 -0.026822291 -0.062892236 -0.16132104 -0.053241707 0.036265627 -0.21115881
0.1238636 -0.008533632 0.08157326 -0.40214774 0.2027982 -0.07858227 -0.055219527 -0.013053671
-0.26702765 -0.0965868 -0.024948576 -0.20146641 0.11262487 0.34662434 -0.07215552 -0.12766844
-0.0861967 -0.21510677 0.16831385 0.22092935 -0.22760773 0.14448127 0.017745879 0.23070353
0.06089897 -0.23471172 -0.19707465 -0.27213874 -0.25030032 0.20504752 -0.035399333 0.067429155
-0.33152232 -0.16973695 0.17826347 -0.27311996 -0.15113507 -0.10603403 0.04042791 -0.04281399
-0.0026098539 0.11748557 0.27793416 0.187828 0.05729867 0.08503331 0.08288635 -0.14298137
-0.040630188 0.095678225 -0.11669494 0.0430327 -0.2154873 0.07234594 0.21387257 0.08829738
0.22627139 -0.1185709 -0.09112514 -0.12717906 0.07478591 -0.10788503 0.11526838 0.03829634
-0.18347277 -0.024616528 -0.10815486 0.06876696 0.2543177 0.066902176 0.1571879 -0.11305628
0.24878822 0.12753761 -0.08066166 -0.16372925 -0.16317329 0.0036331413 -0.16272222 0.08318767
0.14057156 0.072692014 -0.022242552 0.18536742 -0.20027238 0.05883027 -0.09425585 0.20871302
0.16258457 -0.32243103 0.1685279 0.28990403 0.22179729 -0.1518551 -0.1429468 -0.123662576
-0.045794304 0.10037289 0.072698265 -0.28314635 -0.030677078 -0.17300466 0.01524175 -0.64570475

base.6linear.bias f4 [50]
00000000: d2cc c6bc dee6 bc3c cebd 543c 25a7 503d
00000010: 6b65 863d ac3b 083e 62d0 11ba f3a1 4d3c
00000020: cbcc a1bd 91de b83d ca4f 20be e92b fdbd
00000030: 55c6 273b 9671 843c 9f7d 98bd d8fe 1e3d
00000040: 5a2d bb3d 2f0a 37bc 9bb6 be3c 069d 233d
00000050: 15df aa3b 9ad0 08bd 5031 bd3c d038 18bc
00000060: 6dd8 1f3b 004e 85bd 137e 83bc e5e1 92bc
00000070: 3d08 5bbd 1aa5 84bd e734 2bbe 60d7 e73c
00000080: 1911 50bc d1ac a0bd a785 75bc 298a 63bd
00000090: 0bbd dfbd 1939 09bc 6761 943d b451 b93d
000000a0: 5956 c2ba dc95 94bd 185b e3bd 5f32 033e
000000b0: f341 5e3c 44c1 8b3c 3c35 88bd dab8 d43a
000000c0: 1aa9 38bd 03bf c43d
-0.024267588 0.023059305 0.012984706 0.05094065 0.06562313 0.13304013 -0.00055623625 0.012550819
-0.07900389 0.09026826 -0.15655437 -0.12361891 0.0025600393 0.016167443 -0.07445835 0.038817257
0.091395095 -0.011171862 0.023280432 0.03994467 0.0052145817 -0.033402063 0.023094803 -0.009290889
0.0024390474 -0.06509018 -0.016051328 -0.01792998 -0.053474654 -0.06476803 -0.167194 0.028300941
-0.012699389 -0.07845462 -0.0149854785 -0.05555168 -0.10924729 -0.00837543 0.072451405 0.09048787
-0.0014826759 -0.07255146 -0.11101359 0.12812184 0.013565528 0.01705993 -0.06650779 0.0016229406
-0.045083143 0.09606745
