STPINN-NS/sub_data/sub_write/25NS_model_train.pt (torch, 100091 bytes, 22 tensors)

base.0linear.weight f4 [50, 3]
0	0x3a21d292	0.000617304
1	0xba004ce4	-0.000489427
2	0x3a80bbf6	0.0009821642
3	0xbeb1b80b	-0.34710726
4	0xbca31181	-0.019905807
5	0x3e191a3f	0.14951418
6	0x3d5152ad	0.051104236
7	0x3e4ef803	0.20211796
8	0xbe1e72ea	-0.15473524
9	0x3c24f3bc	0.010067876
10	0xbcf0cdb8	-0.02939497
11	0xbebb3500	-0.36563873
12	0xba25ff59	-0.00063323
13	0x39022db2	0.00012414789
14	0xb8e9a3eb	-0.00011140838
15	0x3d9bbfd6	0.07604949
16	0xbe27aa3d	-0.16373535
17	0xbe6cbaa1	-0.23118068
18	0xbe06f128	-0.13177931
19	0x3eb3f782	0.3514977
20	0xbe76b34b	-0.24091832
21	0x3d06b6b2	0.032889076
22	0x3e7b5b13	0.24546461
23	0xbe871d11	-0.26389363
24	0x3c46e9ed	0.012140733
25	0xbd8b125b	-0.067906104
26	0x3ec4f274	0.38466227
27	0xbf05a568	-0.52205515
28	0x3eb4e66a	0.35332042
29	0x3e7d9fb6	0.24767956
30	0xbe85d3be	-0.2613811
31	0x3c326d45	0.01089031
32	0x3cf45402	0.029825214
33	0xbec534bb	-0.38516793
34	0x3e46c961	0.19412757
35	0xbd980a12	-0.07423796
36	0xbe7f06e4	-0.24904972
37	0x3a716304	0.0009208175
38	0xbe25a547	-0.1617633
39	0x3da1d783	0.07902434
40	0x3e4d5367	0.20051347
41	0xbd8baa6c	-0.06819615
42	0xbd1152f9	-0.03547952
43	0x3e3f1abd	0.18662544
44	0xbece4161	-0.40284255
45	0xbbba3d10	-0.0056835487
46	0x3e1b6a1c	0.15177196
47	0xbd42639f	-0.047458287
48	0xbdde064d	-0.108410455
49	0x3e51101a	0.20416299
50	0x3cbbe767	0.02293749
51	0xbe8a671f	-0.270318
52	0x3d59fad8	0.05321774
53	0x3e5763fd	0.21034236
54	0xbe506064	-0.2034927
55	0x3e28c5f8	0.16481769
56	0x3dee4548	0.11634308
57	0xbce5157b	-0.027964344
58	0xbce4b7a3	-0.027919596
59	0xba6987b4	-0.0008908466
60	0x3c80a418	0.015703246
61	0x3d1719d0	0.03688985
62	0x3c0b33ae	0.008496208
63	0x3d856500	0.06513405
64	0x3da695ea	0.081340626
65	0xbe35f611	-0.17769648
66	0x3e0cd351	0.13752486
67	0xbe38a261	-0.18030693
68	0xbe3c9469	-0.18415989
69	0xbd54fd74	-0.051999524
70	0xbcd9962a	-0.026560862
71	0x3e5b25a9	0.21401085
72	0xbe1da192	-0.15393665
73	0xbe3c4aeb	-0.18387954
74	0x3e73657b	0.2376918
75	0x3d654b98	0.055980295
76	0xbdd38219	-0.103275485
77	0xbe2fa300	-0.17152023
78	0x3e2a974a	0.16659275
79	0x3defc41d	0.117073275
80	0xbee2119a	-0.44154054
81	0x3e2ae709	0.16689695
82	0x3e19a7fd	0.15005489
83	0xbd1e6df1	-0.038679067
84	0xbe7f7e01	-0.2495041
85	0x3dc24da0	0.09487462
86	0x3e2365fe	0.15956876
87	0xb972212a	-0.00023091273
88	0xb94f3234	-0.0001975976
89	0xba7a599b	-0.00095500954
90	0x3d934af9	0.07192034
91	0x3e25059d	0.16115423
92	0x3e7fea31	0.2499168
93	0x3d583701	0.05278683
94	0x3e99f718	0.3007133
95	0xbeb2d6e7	-0.34929582
96	0xbe1d8969	-0.15384449
97	0xbe5335ba	-0.20625964
98	0x3d639948	0.055566102
99	0x3e189953	0.14902239
100	0x3dc09365	0.09403113
101	0xbd5bd05d	-0.053665508
102	0x3eb1ac33	0.3470169
103	0xbe7b6794	-0.2455123
104	0xbe5aa8fa	-0.21353522
105	0xbdbb5f28	-0.09149009
106	0x3e2290c5	0.15875538
107	0xbdca0267	-0.098637395
108	0x3db5b678	0.08872694
109	0xbd4452d4	-0.047930554
110	0xbedb139c	-0.42788398
111	0x398055f4	0.00024478103
112	0x39cc52b3	0.00038971528
113	0x398bcfcf	0.00026666975
114	0xbd5a18da	-0.053246357
115	0xbd19baa6	-0.037531517
116	0xbe0a8c01	-0.1352997
117	0x3df0d00a	0.1175843
118	0x3d3d0b2d	0.046153236
119	0xbe7f9035	-0.24957354
120	0x3e6fb424	0.23408562
121	0xbe83b049	-0.25720432
122	0xbe9af27f	-0.30263135
123	0x3ce2007f	0.027588127
124	0xbd94fb51	-0.07274497
125	0xbe24d39b	-0.16096346
126	0x3cbb63dc	0.022874765
127	0x3cef9fe1	0.02925104
128	0xbe378e5e	-0.17925403
129	0xbe2f47b8	-0.17117202
130	0x3e1066f1	0.14101769
131	0x3d9bbc2e	0.07604252
132	0xbe11bb67	-0.14231645
133	0xbda53d81	-0.080683716
134	0xbe225b51	-0.15855147
135	0x3ea5e36e	0.32400078
136	0xbe6a464b	-0.22878377
137	0x3d85cd9b	0.06533357
138	0x3b90f8c1	0.004424185
139	0x3e8632a1	0.26210502
140	0x3dbb765d	0.091534354
141	0x39a987b4	0.000323353
142	0x396a40cc	0.00022340118
143	0x3a0c7f1f	0.00053595187
144	0x3d2fffc7	0.042968538
145	0xbeb18f6e	-0.3467974
146	0x3e49c6e7	0.19704781
147	0xbdcdbafb	-0.10045429
148	0xbe8d7e1e	-0.27635282
149	0x3e3c5d4b	0.18394963

base.0linear.bias f4 [50]
0	0xb976ddc2	-0.00023543
1	0xbc5845b5	-0.013200213
2	0xbd85db77	-0.06536
3	0x3dc24a89	0.09486873
4	0xb815a054	-3.5673685e-05
5	0x3da274f9	0.07932467
6	0xbb20e2ad	-0.0024549172
7	0xbd2dff9c	-0.042480096
8	0xbe52ca26	-0.20584926
9	0x3c0b4764	0.008500908
10	0x3da7ecbf	0.081994526
11	0xbe28d91d	-0.16489072
12	0x3c646917	0.013941071
13	0xbe1c1b32	-0.15244749
14	0xbd5c2b6d	-0.05375235
15	0xbdc23d68	-0.094843686
16	0xbe0919ec	-0.13388795
17	0xbde37c57	-0.111077
18	0xbdac51a3	-0.084140085
19	0x3cdb75d1	0.026789578
20	0xbd34fa68	-0.04418412
21	0x3be3b476	0.006949003
22	0x3e349b60	0.17637396
23	0xbd89f56b	-0.06736263
24	0x3b443b6b	0.0029942642
25	0x3e047e8d	0.129389
26	0x3d8deaa1	0.069295175
27	0xbe2da769	-0.16958393
28	0xbd989677	-0.07450574
29	0x3a8e219d	0.0010843758
30	0xbe67f004	-0.22650152
31	0x3d6c94f5	0.057759244
32	0x3e3ff05a	0.1874403
33	0xbde69138	-0.11258167
34	0x3db1b7c4	0.08677629
35	0xbd7d393f	-0.061822172
36	0xbbef9c2c	-0.0073123183
37	0xb9bd6a46	-0.0003612807
38	0x3e04383c	0.12912077
39	0x3d7f59bb	0.062341433
40	0xbc714ce9	-0.0147278095
41	0x3e219e1d	0.15782972
42	0x3da35fda	0.079772666
43	0xbd8f7889	-0.07005412
44	0x3e37de22	0.1795583
45	0x3d8fa5c0	0.07014036
46	0xbe829336	-0.25502938
47	0xb9d0dbd7	-0.00039836645
48	0x3e0c8939	0.13724221
49	0x3e072b02	0.132

base.1linear.weight f4 [50, 50]
0	0xbdb0a8a7	-0.08625918
1	0x3d5e2c68	0.054241568
2	0xbd875866	-0.066086575
3	0xbd9d4d0d	-0.07680712
4	0xbab9d780	-0.0014178604
5	0x3d6c8dd9	0.057752464
6	0xbc00e0a9	-0.007866063
7	0xbdf6dace	-0.120534524
8	0xbd1f3028	-0.038864285
9	0x3c8f5ad6	0.017499369
10	0x3c9c258f	0.019060878
11	0x3d9d4a3b	0.07680174
12	0xbdcfb74c	-0.10142383
13	0xbe324d62	-0.17412332
14	0xbd92451f	-0.0714209
15	0xbe84afdf	-0.2591543
16	0x3d60690b	0.054787677
17	0x3e705edc	0.23473686
18	0xbdb18632	-0.08668174
19	0x3e06507d	0.13116641
20	0x3bf1d0b0	0.007379614
21	0xbe47c67f	-0.19509314
22	0xbdc17f65	-0.09448127
23	0xbdbfa461	-0.09357525
24	0x3e59ee77	0.21282373
25	0xbcb3e98f	-0.021961955
26	0xbeb2114e	-0.34778827
27	0xbe0c4454	-0.1369794
28	0xbe15af76	-0.14617714
29	0xbdc81638	-0.09769863
30	0xbd6a4809	-0.057197604
31	0xbea078b9	-0.31342104
32	0x3ebfdbc4	0.37472355
33	0xbd033119	-0.032029245
34	0x3cf23af9	0.029569136
35	0x3d0ca4d6	0.034336887
36	0x3e2507a6	0.16116199
37	0xbaa4e433	-0.0012580216
38	0xbdf241a8	-0.11828929
39	0xbe0e7060	-0.13910055
40	0x3e218c69	0.15776218
41	0xbdbca719	-0.09211559
42	0x3e3627bb	0.17788593
43	0xbdfa773f	-0.12229776
44	0xbc644a17	-0.01393368
45	0xbe1ca289	-0.15296377
46	0xbd9554d4	-0.0729157
47	0xbba3f2b4	-0.0050032977
48	0x3e8ca30f	0.27468154
49	0x3e819565	0.2530929
50	0x3badc0c8	0.0053025223
51	0xbde05d14	-0.10955253
52	0xbd349a96	-0.044092737
53	0x3e00f15a	0.12592068
54	0x3c640112	0.013916271
55	0x3e5cda5c	0.21567672
56	0xbcd2181e	-0.025646266
57	0x3ca112bb	0.019662252
58	0x3ececc6e	0.40390342
59	0x3d4fb7e6	0.05071249
60	0x3c348543	0.0110181
61	0x3d31d5fb	0.04341696
62	0xbe0006af	-0.1250255
63	0xbeb2e19f	-0.3493776
64	0xbe35e8bd	-0.17764564
65	0xbdf40817	-0.119156055
66	0xbd9b7d1a	-0.075922206
67	0x3db9884f	0.09059202
68	0x3da2dc6a	0.07952197
69	0xbe2874b0	-0.16450763
70	0x3e64c055	0.22338994
71	0xbd723886	-0.059135936
72	0x3da14978	0.07875341
73	0xbdb685d3	-0.08912244
74	0x3d252a20	0.040323377
75	0x393f8321	0.00018264029
76	0xbe3bf5c0	-0.18355465
77	0xbe96232e	-0.29323715
78	0x3e86e68b	0.26347765
79	0x3c1284cc	0.008942794
80	0xbe2d5d41	-0.16930105
81	0xbe67d2d8	-0.22639024
82	0xbdb3eb72	-0.08785142
83	0x3ded6526	0.11591558
84	0xbe737495	-0.23774941
85	0xbe8c28cb	-0.27374873
86	0xbd3192e5	-0.04335298
87	0x3d496324	0.049166813
88	0xbe78f946	-0.2431384
89	0xbf02a3b7	-0.5103106
90	0x3dbd3062	0.09237744
91	0x3e2befab	0.16790645
92	0xbdac312c	-0.08407816
93	0xbe26a92c	-0.16275471
94	0x3e65fa59	0.22458781
95	0x3d04e97e	0.032449238
96	0xbf14ef80	-0.5817795
97	0x3dc65c9b	0.09685632
98	0x3d8dde8a	0.069272116
99	0x3e7269f3	0.23673229
100	0xbdb5f510	-0.088846326
101	0xbd36720c	-0.044542357
102	0x3eafc566	0.3433029
103	0xbeaf5ae4	-0.34249032
104	0xbcd01637	-0.025401218
105	0xbe0979fd	-0.13425441
106	0x3e94de86	0.29076022
107	0x3da525b0	0.08063829
108	0x3db61a1a	0.08891697
109	0xbe3beaf0	-0.1835134
110	0xbd8967ed	-0.067092754
111	0xbd83e220	-0.06439614
112	0xbd1e5f83	-0.038665306
113	0xbd928b4d	-0.07155476
114	0xbbadfb34	-0.0053094868
115	0xbe5ef4b8	-0.2177304
116	0xbdd48202	-0.103763595
117	0x3da2294f	0.07918035
118	0xbd3c7b9f	-0.04601633
119	0x3ea22c9e	0.31674665
120	0xbddb4b24	-0.10707691
121	0xbe2ecf3e	-0.17071244
122	0x3dd4772c	0.10374293
123	0xbe4424dc	-0.19154686
124	0xbe03b903	-0.12863545
125	0xbd334d20	-0.043774724
126	0xbe189f60	-0.14904547
127	0x3e031836	0.12802204
128	0x3e620152	0.22070816
129	0x3d27cc3c	0.040966257
130	0xbc551e48	-0.013007708
131	0x3e23195a	0.1592764
132	0x3dcd1f95	0.100157894
133	0xbe816b71	-0.25277284
134	0x3d5dd2c5	0.054156084
135	0x3cb9f8bf	0.02270162
136	0xbd838c30	-0.06423223
137	0xbdb417b3	-0.08793583
138	0x3e6ba34d	0.23011513
139	0xbe666d4c	-0.22502631
140	0x3e6bc90c	0.23025912
141	0x3e09e291	0.13465334
142	0x3da1faaa	0.079091385
143	0x3e14ddc7	0.14537726
144	0xbe569243	-0.20954232
145	0xbde9761d	-0.113994814
146	0x3e05849e	0.1303887
147	0xbcaf6933	-0.021412468
148	0xbe883305	-0.26601425
149	0x3d8a8361	0.0676334
150	0x3c15e468	0.009148695
151	0xbdf6fa9c	-0.12059519
152	0x3e75fe8e	0.24022886
153	0x3e295139	0.1653489
154	0x3c400603	0.011720183
155	0x3d36f89f	0.044670697
156	0xbdfa3886	-0.12217812
157	0x3e5665e9	0.20937313
158	0x3e18e884	0.14932448
159	0x3d704284	0.058657184
160	0xbe8ebf1d	-0.27880183
161	0x3e5cbfff	0.21557616
162	0x3c3c7b6b	0.0115040345
163	0x3a85939a	0.0010191083
164	0x3e05f838	0.13082969
165	0x3d67b649	0.056570325
166	0x3cfb1bfd	0.030652994
167	0x3dcc7d88	0.09984881
168	0x3e3c06c4	0.18361956
169	0xbdaaec08	-0.08345801
170	0xbe06311c	-0.13104671
171	0xbe08d6eb	-0.13363235
172	0x3d002cde	0.03129279
173	0xbce3be0b	-0.02780058
174	0xbdee4f28	-0.116361916
175	0xbdee2cd2	-0.116296425
176	0xbd11c92e	-0.03559225
177	0xbd565625	-0.052328248
178	0x3b9652e9	0.0045875204
179	0xbe36ca64	-0.17850643
180	0x3e157663	0.14595942
181	0x3d5edf7d	0.054412354
182	0xbec0f1a3	-0.37684354
183	0xbd96491e	-0.07338165
184	0xbca89f2d	-0.020583713
185	0xbe06fb68	-0.13181841
186	0xbe9205a5	-0.2851993
187	0xbe2571b1	-0.16156651
188	0x3cb5f05a	0.022209335
189	0xbda09e9b	-0.078427516
190	0xbdc1c300	-0.094610214
191	0xbdfe2a1a	-0.12410374
192	0xbbda8491	-0.006668635
193	0xbdb4ebb0	-0.08834016
194	0xbe51cf9e	-0.20489356
195	0x3e169fe0	0.14709425
196	0x3e54c666	0.20778808
197	0xbda2b3da	-0.0794446
198	0x3e1c3e18	0.15258062
199	0xbe4b1a67	-0.1983429
200	0xbc495000	-0.01228714
201	0x3e9a2e1c	0.30113304
202	0xbeabd3c4	-0.33560002
203	0x3d5c2499	0.05374584
204	0x3c27a35e	0.010231821
205	0x3e1afc8c	0.15135401
206	0xbec32b27	-0.3811886
207	0xbdd10b56	-0.1020724
208	0x3dddc013	0.10827651
209	0xbe666bff	-0.22502135
210	0xbd4fe111	-0.05075175
211	0x3d646226	0.055757664
212	0x3e6838b5	0.22677882
213	0xbe640294	-0.22266608
214	0xbd75a780	-0.059974194
215	0x3d95dcfc	0.0731754
216	0xbe428ba7	-0.18998586
217	0xbe28b56a	-0.16475454
218	0xbe3b883f	-0.18313693
219	0x3dc2abdb	0.09505435
220	0xbe178aa5	-0.14798982
221	0xbeeca9dc	-0.46223342
222	0x3e399771	0.18124177
223	0x3dac8756	0.08424251
224	0x3e9f99ad	0.31171933
225	0xbd495a78	-0.049158543
226	0x3ce05f10	0.02738908
227	0xbe4a669b	-0.19765703
228	0x3b56c4da	0.0032771141
229	0xbdb9bcf9	-0.09069247
230	0xbea9edf0	-0.33189344
231	0xbe4cbc46	-0.19993696
232	0x3e6ecebe	0.23321053
233	0xbd587daa	-0.052854218
234	0xbdd3c21f	-0.1033976
235	0xbe30b02e	-0.17254707
236	0x3dcfe54e	0.10151158
237	0xbc79b7ef	-0.015241607
238	0x3da3745c	0.07981178
239	0xbbddb9b1	-0.006766521
240	0x3e646c91	0.2230704
241	0xbb8950c6	-0.004190537
242	0xbe34a0db	-0.17639486
243	0xbd67366d	-0.05644839
244	0x3da52e4f	0.08065473
245	0xbc6171d3	-0.013760048
246	0xbe9fa4b2	-0.3118034
247	0xbcd323ec	-0.025773965
248	0x3e196b9f	0.1498246
249	0x3e776029	0.24157776
250	0xbd4cc58c	-0.049993083
251	0x3ed5767f	0.41691968
252	0x3e69d9ed	0.22837038
253	0xbd42b274	-0.047533467
254	0x3b0d1739	0.0021528734
255	0x3f2037f9	0.6258541

base.1linear.bias f4 [50]
0	0xbc4a687f	-0.012354015
1	0x3d1e2271	0.038607065
2	0xbdb78657	-0.0896117
3	0xbdc74e1b	-0.09731694
4	0x3d0bb601	0.03410912
5	0xbdf89aaf	-0.121388786
6	0x3c138a9d	0.009005216
7	0xbd0f1dab	-0.034940403
8	0x3da43661	0.080181845
9	0x3cc1c91c	0.023655467
10	0xbd99c2f1	-0.07507885
11	0xbdb58f77	-0.08865254
12	0x3dabc8de	0.08387922
13	0x3d7a6012	0.061126776
14	0x3d0f3878	0.034965962
15	0xbd886f97	-0.06661909
16	0xbdef86f2	-0.11695661
17	0xbc9879c6	-0.018612754
18	0xbd9259f9	-0.07146067
19	0xbc3e8602	-0.01162863
20	0x3dbddfbd	0.0927119
21	0x3cdc261d	0.026873643
22	0x3b8a25bf	0.0042159255
23	0xbc672c1a	-0.014109636
24	0xbdf0cc23	-0.11757686
25	0x3c8ff248	0.017571583
26	0x3ded71dd	0.11593983
27	0x3ddad269	0.10684664
28	0x3e064dfc	0.13115686
29	0x3dfcd50a	0.123453215
30	0xbd935aa6	-0.07195024
31	0x3c1cd945	0.0095732855
32	0x3d6faae9	0.058512602
33	0xbb31fabc	-0.0027157506
34	0x3ce2a499	0.027666377
35	0xbd22fa43	-0.03978945
36	0xbd3c507e	-0.0459752
37	0xbb98f833	-0.0046682595
38	0xbdf7356b	-0.120707355
39	0xbe277af8	-0.16355503
40	0xbdcb5cb8	-0.09929794
41	0x3bf4778e	0.007460541
42	0xbc3fae4e	-0.011699272
43	0x3d1a4101	0.03765965
44	0xbd8d8da6	-0.06911783
45	0xbe12ddd1	-0.14342429
46	0xbc2af7a3	-0.010435018
47	0x3ddeb708	0.10874754
48	0xbb377511	-0.002799336
49	0xbdd2371d	-0.10264418

base.2linear.weight f4 [50, 50]
0	0x3cd4ff95	0.026000777
1	0x3db10458	0.08643407
2	0xbdc54239	-0.096317716
3	0xbd97618c	-0.073916525
4	0x3d354488	0.04425481
5	0xbd644da3	-0.055738103
6	0x3c964f11	0.018348249
7	0x3dd18303	0.102300666
8	0x3e8a8883	0.27057275
9	0x3d416d6e	0.0472235
10	0xbd17d2d4	-0.037066296
11	0x3cb37063	0.021904176
12	0xbe281d2a	-0.16417375
13	0x3ea2e285	0.31813446
14	0x3e48ba80	0.19602394
15	0xbe2a65f0	-0.16640449
16	0xbdd924bb	-0.10602709
17	0xbdfb4ef6	-0.1227092
18	0xbed995b6	-0.42497033
19	0x3ba04bc9	0.004891847
20	0x3e3983ec	0.1811673
21	0xbbd52a19	-0.0065052626
22	0x3ea0c820	0.31402683
23	0x3cc2969d	0.023753459
24	0xbe5428fa	-0.20718756
25	0x3e60e7a7	0.21963368
26	0x3d836023	0.06414821
27	0x3e1f52ad	0.15558882
28	0x3bad3878	0.0052862726
29	0x3b1a3281	0.0023528638
30	0xbe08bdff	-0.13353728
31	0xbe147ef3	-0.14501552
32	0xbdf1d55a	-0.11808272
33	0x3c501223	0.012699637
34	0x3e851a7d	0.2599677
35	0x3dce4824	0.100723535
36	0xbda378fc	-0.0798206
37	0xbdc2f4df	-0.09519362
38	0x3d7edbd0	0.06222135
39	0xbed027ce	-0.4065537
40	0xbeae787d	-0.340763
41	0x3e07a8de	0.13248011
42	0xbe1b1426	-0.15144405
43	0xbd07db56	-0.03316816
44	0x3e1ab8f5	0.15109618
45	0xbdf4cf7e	-0.119536385
46	0x3ebf4ffb	0.37365708
47	0xbd5fa54b	-0.054600995
48	0x3d2f8436	0.042850696
49	0xbd0e2a4a	-0.0347083
50	0x3dbb4315	0.09143654
51	0xbe14bd4d	-0.14525338
52	0xbda9207d	-0.0825815
53	0xbd96b3bc	-0.073585
54	0xbbbf60c1	-0.0058403914
55	0xbd8832f4	-0.066503435
56	0xbcb2dd8c	-0.021834157
57	0xbdc39d59	-0.09551496
58	0x3dcb2b0d	0.09920321
59	0xbd85f988	-0.06541735
60	0xbd38eea7	-0.04514947
61	0xbe46b57a	-0.19405165
62	0x3d25aac4	0.040446058
63	0xbc09066d	-0.008363348
64	0xbcaa13e2	-0.020761434
65	0x3d752a42	0.059854753
66	0xbec73c34	-0.3891312
67	0x3de96f1d	0.11398146
68	0xbd75e103	-0.06002904
69	0x3e2ca20f	0.16858695
70	0x3e6b04e4	0.22951084
71	0xbc891df7	-0.016737921
72	0xbde7782a	-0.11302216
73	0xbcc79867	-0.024364663
74	0x3bdc88aa	0.006730159
75	0x3d6cccf9	0.057812665
76	0xbe2ea294	-0.17054206
77	0x3c178343	0.009247604
78	0xbe1b075a	-0.15139523
79	0x3d732543	0.059361707
80	0x3e618ac1	0.22025587
81	0x3d92073a	0.071302846
82	0x3da664db	0.081247054
83	0xbc01781e	-0.007902173
84	0xbc930858	-0.017948315
85	0xbdedf1c0	-0.11618376
86	0x3d9f0b35	0.077658094
87	0x3e0734de	0.13203761
88	0xbe7edd98	-0.24889219
89	0xbe495425	-0.19661005
90	0xbc04a22f	-0.008095308
91	0xbdb4d4e5	-0.08829669
92	0x3e45f9ef	0.19333623
93	0xbc55377e	-0.013013719
94	0xbdbf04de	-0.093271
95	0xbed2d7ce	-0.4118027
96	0xbd8e8df9	-0.06960673
97	0xbcbfbcda	-0.023405481
98	0xbc86f8db	-0.016476085
99	0x3dba6bd2	0.09102596
100	0xbc8ba6ab	-0.017047247
101	0xbe72a8bf	-0.23697184
102	0x3dbd3843	0.09239247
103	0x3cd40f57	0.02588622
104	0xbcdfc329	-0.02731474
105	0xbba8cff5	-0.0051517435
106	0xbad1ac63	-0.001599681
107	0x3d704703	0.058661472
108	0x3ddf70cb	0.109101854
109	0x3d189a3c	0.037256464
110	0x3c825c23	0.015913075
111	0x3ea2b71a	0.3178032
112	0xbd892a5d	-0.06697533
113	0xbddafdf9	-0.10692973
114	0xbe6ebc2d	-0.23313971
115	0xbe29a9ca	-0.16568676
116	0x3d768b53	0.060191464
117	0x3d4e7deb	0.050413053
118	0xbe64bfdd	-0.22338815
119	0x3eaffc86	0.34372348
120	0xbead5497	-0.338536
121	0x3c249266	0.01004467
122	0x3e99cb64	0.30037987
123	0x3c1daca3	0.009623679
124	0xbe60da23	-0.21958213
125	0xbe96f72d	-0.29485455
126	0xbea1fc01	-0.31637576
127	0xbe28c628	-0.1648184
128	0xbe84196d	-0.25800648
129	0xbd8fec61	-0.070275076
130	0x3dee9140	0.11648798
131	0xbe58c8fb	-0.21170418
132	0xbd41ea84	-0.047342792
133	0x387e3b47	6.0613525e-05
134	0x3ded94d8	0.11600655
135	0x3e749bad	0.2388751
136	0xbcb0882c	-0.021549307
137	0xbbeda735	-0.0072525986
138	0x3e38f96e	0.180639
139	0xbc1cd919	-0.0095732445
140	0x3e06af8d	0.13152905
141	0x3c054268	0.008133508
142	0xbe829ade	-0.2550878
143	0x3cd115b2	0.02552304
144	0x3dfb1e60	0.12261653
145	0x3e0353ad	0.12824889
146	0xbdb71e78	-0.08941358
147	0xbdd81e11	-0.1055261
148	0x3ccd9279	0.025094258
149	0x3dc77175	0.09738437
150	0xbdf51059	-0.11966009
151	0xbd69bac5	-0.057062883
152	0x3ddfcc07	0.10927587
153	0xbd655517	-0.05598935
154	0x3c4bc80b	0.012437831
155	0xbddd2e3d	-0.10799835
156	0xbd2c35c5	-0.042043466
157	0x3d9419b8	0.07231468
158	0x3da8ba50	0.08238661
159	0xbcb50a44	-0.022099622
160	0x3e10bb49	0.14133944
161	0x3df0fdbf	0.11767148
162	0xbdc66593	-0.096873425
163	0xbcad3239	-0.021142112
164	0xbd1af50f	-0.037831362
165	0x3bf2c9d1	0.0074093123
166	0xbeb4b02b	-0.35290655
167	0x3c9b645b	0.018968752
168	0x3d4aedb0	0.049543083
169	0xbd32d109	-0.043656383
170	0x3db32a31	0.08748282
171	0x3c5c5d47	0.013449973
172	0xbc885930	-0.01664409
173	0xbcfd8ec7	-0.03095187
174	0xbcf99ed7	-0.030471249
175	0x3df0709c	0.117402285
176	0x3dbac4ef	0.09119593
177	0x3e7b8d4f	0.24565624
178	0xbd921816	-0.071335
179	0x3e33bcf0	0.17552543
180	0x3e27c1a6	0.16382465
181	0x3dd228b0	0.10261667
182	0xbc07a3f6	-0.008278837
183	0x3d0d0ce5	0.034436125
184	0x3e326777	0.17422281
185	0xbe29c663	-0.16579585
186	0xbdae3d75	-0.08507816
187	0xbcef5ab0	-0.029218048
188	0xbe26cb37	-0.16288458
189	0xbeae9b28	-0.3410275
190	0xbe5bda92	-0.21470097
191	0xbd1f371e	-0.038870923
192	0xbde8611f	-0.113466494
193	0xbc889572	-0.016672824
194	0x3d73d2b1	0.059527103
195	0xbdc4a7e4	-0.09602335
196	0x3d635896	0.055504404
197	0x3e07dfb7	0.13268934
198	0x3cf28046	0.029602181
199	0xbeae2727	-0.34014246
200	0x3e021ba4	0.12705857
201	0xbc180e4a	-0.0092807505
202	0x3dbff9a2	0.093737856
203	0x3d91c0bc	0.07116839
204	0xbe94ccb1	-0.29062417
205	0x3d281c82	0.041042812
206	0x3cac5539	0.021036731
207	0xbdcca71e	-0.099928126
208	0xbdcafed6	-0.09911887
209	0x3d1daa93	0.03849275
210	0xbe9cccb3	-0.30624923
211	0xbd3a94f6	-0.045552216
212	0xbe049c1f	-0.1295018
213	0x3b2ed410	0.0026676692
214	0x3e4931a1	0.19647838
215	0xbe218470	-0.15773177
216	0x3d74239e	0.05960428
217	0x3e0431ba	0.12909594
218	0x3de874d2	0.11350407
219	0xbda3d45e	-0.0799949
220	0xbe551aaf	-0.2081096
221	0xbb841315	-0.004030595
222	0xbe42b35c	-0.19013733
223	0xbd54ac47	-0.05192211
224	0xbcbc1958	-0.022961304
225	0xbda375e7	-0.079814725
226	0xbe0ab830	-0.13546824
227	0xbe1ceea7	-0.15325414
228	0x3d0b14ea	0.033955492
229	0xbe5abc18	-0.21360815
230	0x3d5f1441	0.054462675
231	0x3df27b41	0.11839915
232	0xbd96c6b3	-0.073621176
233	0x3d15a616	0.036535345
234	0xbe7ebcf3	-0.24876766
235	0xbe0f4d0a	-0.13994232
236	0xbd892867	-0.06697159
237	0x3e3e5bbc	0.18589681
238	0xbd5b1dac	-0.053495094
239	0xbc9c26a3	-0.019061392
240	0xbd31f29d	-0.043444265
241	0xbc375186	-0.01118887
242	0x3bb7ceaa	0.005609353
243	0x3c47d751	0.0121973315
244	0x3dccb195	0.099948086
245	0x3e57159f	0.21004342
246	0x3de1c26a	0.1102341
247	0xbd06c047	-0.032898214
248	0x3db5aeec	0.08871254
249	0x3e34ab9f	0.17643593
250	0xbd1342d3	-0.0359524
251	0xbe62cff4	-0.2214964
252	0xbdbf7273	-0.09348001
253	0x3e199b05	0.15000542
254	0xbd0df1ee	-0.03465455
255	0x3cb1ffa8	0.021728352

base.2linear.bias f4 [50]
0	0x3de1cbd8	0.11025208
1	0x3d64f17d	0.055894364
2	0xbd74c859	-0.05976138
3	0x3dcd279f	0.10017323
4	0xbcf0499e	-0.029331978
5	0xbca9da10	-0.020733863
6	0xbdb681d6	-0.08911483
7	0xbde7be47	-0.113155894
8	0x3de91417	0.11380785
9	0x3cf281c8	0.0296029
10	0x3ca9d321	0.020730557
11	0xbc502e53	-0.012706357
12	0xbe0e2c0e	-0.13883993
13	0x3c0f8bad	0.008761329
14	0xbb1980f8	-0.0023422819
15	0x3d7d6657	0.061865177
16	0xbc131f5d	-0.008979646
17	0x3dd143f3	0.102180384
18	0x3d6776b3	0.056509685
19	0x3c3ec438	0.011643462
20	0xbd879ba9	-0.06621487
21	0x3d6d9239	0.058000777
22	0x3db91230	0.09036672
23	0x3dedd75b	0.116133414
24	0x3d8afbf2	0.06786336
25	0xbd97477a	-0.0738668
26	0x3d0291fb	0.0318775
27	0xbdcf9460	-0.10135722
28	0x3d81b922	0.063341394
29	0xbdb7675a	-0.089552596
30	0xbcf5493a	-0.029942144
31	0xbd0b0885	-0.03394367
32	0x3d76b127	0.06022754
33	0x3d647cbc	0.05578302
34	0x3db1f410	0.08689129
35	0xbdb26594	-0.08710781
36	0xbd95aedf	-0.07308745
37	0x3d844df2	0.064601794
38	0x3dbab576	0.09116642
39	0xbd370615	-0.044683535
40	0xbddfbefc	-0.10925099
41	0x3c0df0c1	0.008663357
42	0x3d0ec406	0.03485491
43	0xbd8a054d	-0.06739292
44	0x3d5a6687	0.053320434
45	0xbe06c518	-0.13161123
46	0xbe248ad6	-0.16068587
47	0x3e0c55bc	0.1370458
48	0xbe506fe7	-0.20355187
49	0xbdba3c47	-0.09093528

base.3linear.weight f4 [50, 50]
0	0x3e2cc170	0.16870666
1	0x3d59a6eb	0.0531377
2	0x3e14d485	0.14534195
3	0xbd989306	-0.074499175
4	0xbe4d5ef7	-0.20055757
5	0xbdc96dfd	-0.09835432
6	0xbf016977	-0.5055155
7	0x3dfdd6c5	0.1239448
8	0x3d5f8849	0.05457333
9	0x3daeb54a	0.08530672
10	0x3d39c54c	0.045354173
11	0xbe40ea2b	-0.18839328
12	0x3dd3372f	0.1031326
13	0x3dacecdd	0.084436156
14	0xbd090fd6	-0.033462368
15	0x3e971f0e	0.2951588
16	0xbb12479d	-0.0022320517
17	0xbe106bfe	-0.14103696
18	0xbd16a2b2	-0.036776252
19	0xbdf97da5	-0.12182168
20	0x3d6fcb88	0.058543712
21	0xbe2318ac	-0.1592738
22	0x3d8f0265	0.069828786
23	0x3ded60d4	0.11590734
24	0x3e46d58f	0.19417404
25	0xbe3ce718	-0.1844753
26	0x3e96852d	0.2939848
27	0x3d40a642	0.047033556
28	0xbcc9f3dd	-0.024652416
29	0xbdc3608e	-0.09539901
30	0xbec5f990	-0.38666964
31	0xbd50c9b9	-0.050973628
32	0xbd5bb075	-0.05363508
33	0xbe8fa07d	-0.2805213
34	0x3b88e7e4	0.004178034
35	0xbdaf9c8c	-0.08574781
36	0xbee96279	-0.4558294
37	0x3e4aaa4a	0.19791523
38	0xbdbbcdf8	-0.09170145
39	0xbe0590fa	-0.13043585
40	0x3d096f57	0.033553448
41	0xbdd2ab63	-0.10286596
42	0x3cbda24e	0.023148682
43	0x3bed87fc	0.0072488766
44	0xbe23145c	-0.15925735
45	0xbe395327	-0.18098126
46	0xbd4654d8	-0.048420757
47	0x3dbb143e	0.0913472
48	0x3d098081	0.033569816
49	0x3dae5b61	0.08513523
50	0xbda149ee	-0.07875429
51	0x3dbbd7c8	0.091720164
52	0xbe6a2403	-0.228653
53	0x3e2cac13	0.16862516
54	0xbd220d7b	-0.039563637
55	0x3d84a2ec	0.064763874
56	0xbd9d66db	-0.07685634
57	0xbe0278ed	-0.12741442
58	0xbe492ca2	-0.19645932
59	0x3d9d0cf2	0.07668485
60	0x3d09212b	0.033478897
61	0xbd632a53	-0.055460285
62	0xbce107b3	-0.027469492
63	0x3b6ca5ed	0.0036109642
64	0x3dc7d662	0.09757687
65	0xbe873bcd	-0.26412812
66	0x3cffef69	0.03124209
67	0x3d5e72b8	0.054308623
68	0x3dbbbeb4	0.09167233
69	0xbe07a634	-0.13246995
70	0xbe27e129	-0.16394486
71	0x3e42e522	0.1903272
72	0x3dee5f82	0.116393104
73	0xbddb0403	-0.106941245
74	0x3e382b77	0.1798533
75	0x3dd09f08	0.10186583
76	0xbdbc1ea3	-0.09185531
77	0xbd6703b3	-0.056400012
78	0xbd5621fb	-0.0522785
79	0x3d3f2083	0.046661865
80	0x3de47ec2	0.1115699
81	0xbd8f18d2	-0.06987156
82	0x3e354e41	0.17705633
83	0xbd6b3a71	-0.05742878
84	0xbdacd615	-0.084392704
85	0x3c742b08	0.014902838
86	0xbe386cfa	-0.18010321
87	0x3e630817	0.22171055
88	0x3e420c17	0.18949924
89	0xbe10ca3a	-0.14139643
90	0x3e20848e	0.15675566
91	0xbcf4c393	-0.029878413
92	0xbcf626c3	-0.03004778
93	0xbdb1949e	-0.086709246
94	0xbe38c970	-0.18045592
95	0xbe308bae	-0.17240784
96	0xbe690715	-0.22756608
97	0xbe4f57ef	-0.20248388
98	0x3e9923ef	0.29910228
99	0x3e3438a1	0.17599727
100	0x3e028967	0.12747727
101	0x3d88c50b	0.06678208
102	0xbde2c541	-0.110727794
103	0xbd2fcf29	-0.042922173
104	0xbca4d9bf	-0.02012336
105	0x3a3b5fa0	0.0007147733
106	0xbebccf4d	-0.36876908
107	0x3c3e6ae6	0.011622166
108	0x3ea47bc6	0.32125682
109	0xbe09d2e8	-0.1345936
110	0x3d57be27	0.052671578
111	0x3e05a3f9	0.13050832
112	0x3ecd0dc3	0.40049562
113	0x3e16bc5b	0.1472029
114	0xbe0e9759	-0.13924922
115	0x3d2296fd	0.039694775
116	0xbdbb48c9	-0.09144742
117	0xbe90fd9c	-0.2831849
118	0xbe14a8cc	-0.14517516
119	0x3da58058	0.0808112
120	0xbd641277	-0.055681672
121	0xbe5eb838	-0.21749961
122	0x3b1e3d12	0.0024145287
123	0xbca6c120	-0.020355761
124	0xbbe5641a	-0.0070004584
125	0xbe0ef496	-0.1396049
126	0x3c04f321	0.008114607
127	0xbb54a936	-0.003244949
128	0x3e2b0dc7	0.16704474
129	0x3d4ace49	0.049513135
130	0xbd1dc4c0	-0.038517714
131	0x3bff90f7	0.0077992636
132	0xbe15635e	-0.14588687
133	0x3e3116fa	0.17293921
134	0xbce0ed50	-0.02745691
135	0xbdf33d8e	-0.11876975
136	0xbb16a6c7	-0.002298759
137	0x3de2a76d	0.1106709
138	0x3d28b858	0.04119143
139	0x3d823acd	0.063588716
140	0xbe74669f	-0.23867272
141	0x3e0e8738	0.1391877
142	0x3d33bfc5	0.043884058
143	0x3e161364	0.14655834
144	0x3e27d5a1	0.16390087
145	0x3e26aea0	0.16277552
146	0xbd857f15	-0.065183796
147	0xbe444e53	-0.19170503
148	0x3ed210dc	0.41028488
149	0xbe1b4086	-0.15161332
150	0x3e8ae814	0.27130187
151	0x3c698d99	0.014254951
152	0x3d9882c9	0.0744682
153	0x3e0243a8	0.12721121
154	0xbe8a7ab5	-0.27046743
155	0xbe6a14ed	-0.22859545
156	0x3e8287b1	0.2549415
157	0x3d13caef	0.036082204
158	0x3de4cb6f	0.111716144
159	0x3d92e4d4	0.07172552
160	0xbe8b2b4b	-0.27181467
161	0x3e16dce5	0.14732702
162	0x3e858cf9	0.26084116
163	0x3e10bee2	0.14135316
164	0x3e85de91	0.26146367
165	0xbe48a039	-0.1959237
166	0x3b9ce1ae	0.0047876453
167	0x3c8a8c34	0.016912557
168	0x3e48fc06	0.1962739
169	0x3d3e5de7	0.04647627
170	0x3e1e23d1	0.1544335
171	0x3e29b587	0.16573153
172	0x3cbc5edc	0.022994451
173	0x3d6825d6	0.05667671
174	0x3e4b89b6	0.19876751
175	0x3d52946c	0.051411077
176	0xbba8cffc	-0.005151747
177	0x3e07dbb4	0.13267404
178	0x3c9fb46a	0.019495208
179	0xbe80290d	-0.2503132
180	0xbdef6354	-0.11688867
181	0x3d02dfed	0.031951834
182	0xbc22f764	-0.009946678
183	0xbe833385	-0.25625244
184	0xbe43d7b7	-0.19125257
185	0xbe198af6	-0.14994416
186	0x3cc2c90c	0.023777507
187	0x3da7e906	0.081987426
188	0x3d9c1dd2	0.07622875
189	0xbcec666f	-0.028857438
190	0x3dd228db	0.10261699
191	0x3c0d927f	0.008640884
192	0xbd678c74	-0.05653043
193	0xbd172b46	-0.036906503
194	0x3e4ee3ae	0.2020404
195	0x3cd1021b	0.0255137
196	0x3e3d6b57	0.18497978
197	0x3d4e74c4	0.050404325
198	0xbe2141f8	-0.15747821
199	0x3dc7f7d7	0.097640686
200	0xbd0017a0	-0.03127253
201	0x3eb13655	0.34611765
202	0x3dff5b0b	0.12468537
203	0xbd61ed7a	-0.055158116
204	0xbea721b9	-0.32642916
205	0x3d3e3ecf	0.046446618
206	0xbeeb3c55	-0.45944467
207	0xbe50daab	-0.20395915
208	0x3eb8e70a	0.3611377
209	0x3e2a8e6b	0.1665589
210	0x3df5fca6	0.120110795
211	0xbe2897f7	-0.1646422
212	0xbd7ba096	-0.061432444
213	0xbe95b6e8	-0.2924111
214	0xbe036c58	-0.12834299
215	0xbd134314	-0.035952643
216	0x3c56346a	0.01307402
217	0xbe03ea6f	-0.12882398
218	0xbe087b8d	-0.13328381
219	0x3dc01064	0.09378126
220	0x3d037cb2	0.03210134
221	0x3e87463c	0.26420772
222	0xbdb49f4b	-0.08819445
223	0x3df8a357	0.121405296
224	0x3e0f4c35	0.13993914
225	0x3ab1b8cd	0.0013559103
226	0xbd43417b	-0.04766987
227	0xbf0325b6	-0.5122942
228	0x3e930ae6	0.28719252
229	0x3df50c82	0.11965276
230	0xbd86467e	-0.06556414
231	0x3d54da2a	0.05196587
232	0xbd97f0fe	-0.074190125
233	0xbda21fee	-0.07916246
234	0x3e4f1731	0.2022369
235	0xbef596d9	-0.4796665
236	0xbd94dfff	-0.07269286
237	0x3cd282dc	0.025697164
238	0xbdff5331	-0.124670394
239	0x3d10019e	0.035157792
240	0xbe5d3645	-0.21602733
241	0x3d84b56f	0.06479918
242	0xbd731afd	-0.05935191
243	0xbcc40c2d	-0.023931587
244	0xbd6d131c	-0.057879552
245	0x3e1d9273	0.15387897
246	0xbec02a37	-0.37532207
247	0x3e3d7d89	0.18504919
248	0xbac4fa2a	-0.0015028168
249	0xbcb24ba8	-0.021764591
250	0xbe038ff9	-0.1284789
251	0x3e3bd685	0.18343551
252	0x3c75af57	0.014995418
253	0xbcc6badf	-0.024259029
254	0xbe2ba603	-0.16762547
255	0xbda6b466	-0.08139877

base.3linear.bias f4 [50]
0	0x3d6be3a7	0.057590153
1	0x3d1da5a1	0.038488034
2	0xbd82c8e5	-0.06385974
3	0xbc972de6	-0.018454503
4	0x3c162f2a	0.009166518
5	0xbd9758aa	-0.07389958
6	0xbaea0b89	-0.0017856221
7	0x3e051c7b	0.12999146
8	0xbb0a4a93	-0.0021101579
9	0x3d697b5c	0.05700241
10	0xbd1394d5	-0.03603061
11	0x3d5e4138	0.054261416
12	0xbe007bb5	-0.1254719
13	0xbd77d1e8	-0.060502917
14	0x3d82b619	0.063823886
15	0xbc055089	-0.008136877
16	0xbc922e8f	-0.017844466
17	0xbd0c8da2	-0.03431476
18	0xbe15d949	-0.14633669
19	0x3dcba392	0.09943308
20	0xbd88546c	-0.06656727
21	0x3c8fd0db	0.017555645
22	0xbdb51928	-0.08842689
23	0xbd178b30	-0.036997974
24	0xbdafe0d5	-0.08587805
25	0xbe043d8f	-0.12914108
26	0xbe2629c0	-0.16226864
27	0xbd473423	-0.048633706
28	0xbc8192d8	-0.01581709
29	0xbc8bde2e	-0.017073717
30	0xbd8a47c6	-0.06751971
31	0x3e0d3387	0.13789187
32	0x3d99837a	0.0749578
33	0x3ca67671	0.02032015
34	0xbd916abd	-0.07100437
35	0xbcc7d56e	-0.024393763
36	0xbbaf5eb3	-0.005351865
37	0xbbeb06b8	-0.007172432
38	0x3d8ba90c	0.068193525
39	0xbdc4aae7	-0.096029095
40	0xbdd51e96	-0.104062244
41	0xbdd24df8	-0.102687776
42	0x3d151b68	0.03640309
43	0xbd5232e4	-0.051318064
44	0xbd798952	-0.060921974
45	0xbd21531d	-0.039385904
46	0xbc4d1361	-0.012516827
47	0x3dccaff0	0.09994495
48	0xbe09ec7e	-0.13469121
49	0xbdbd9547	-0.09256988

base.4linear.weight f4 [50, 50]
0	0x3e256c1e	0.16154525
1	0x3dd91c28	0.106010735
2	0xbd6d8b47	-0.057994153
3	0xbc3dce16	-0.011584779
4	0xbc9ee6ed	-0.019397223
5	0x3d08c685	0.033392448
6	0x3dc06e09	0.093959875
7	0x3e25969e	0.16170737
8	0x3db53444	0.088478595
9	0x3e296944	0.16544062
10	0xbe6ee52b	-0.23329608
11	0xbd95c1b1	-0.07312334
12	0x3ca329fc	0.01991748
13	0x3e92fda4	0.28709137
14	0x3c028371	0.007965908
15	0x3e63008f	0.22168182
16	0xbd6e7b53	-0.05822308
17	0xbe175c05	-0.14781196
18	0xbd8b95d5	-0.068156876
19	0x3d87729d	0.066136576
20	0xbe50b1ec	-0.20380372
21	0x3d791501	0.060811047
22	0xbe7b4cd5	-0.24541028
23	0xbe4d2532	-0.2003372
24	0x3cd17ba3	0.02557165
25	0xbd763907	-0.06011298
26	0x3e5fa2d0	0.21839452
27	0xbe3672c5	-0.17817219
28	0xbdaadb21	-0.08342577
29	0xbe08529b	-0.13312761
30	0xbe392c18	-0.18083227
31	0xbe3fd2fa	-0.18732825
32	0x3d29830c	0.04138474
33	0x3c72e83b	0.014825876
34	0xbee94eed	-0.45568028
35	0x3b90b68e	0.0044162935
36	0x3d634ac2	0.055491216
37	0x3e31d7df	0.17367505
38	0xbc88abbc	-0.016683452
39	0xbde64b47	-0.11244827
40	0xbe70d428	-0.23518431
41	0x3d2cf3fa	0.04222486
42	0x3e769754	0.24081165
43	0x3d46b93c	0.048516497
44	0xbc771ad8	-0.015082084
45	0x3e04b0ae	0.12958023
46	0x3e706f39	0.23479928
47	0x3e210cea	0.15727583
48	0xbde42194	-0.11139217
49	0x3d80ffbb	0.06298777
50	0x3e1b7b4d	0.15183754
51	0xbdc9b509	-0.09848983
52	0xbd973825	-0.073837556
53	0xbe1e2910	-0.15445352
54	0x3e522d11	0.20525004
55	0xbe751785	-0.23934753
56	0x3e258f90	0.16168046
57	0xbe3ff298	-0.18744886
58	0x3e431a2f	0.19052957
59	0x3d9ecce7	0.07753926
60	0x3e80ca57	0.25154373
61	0x3daa684c	0.08320674
62	0xbd13bb0d	-0.036067057
63	0x3dfcfdf2	0.12353124
64	0x3c18d102	0.009327175
65	0xbe9fded5	-0.31224695
66	0xbe146ecf	-0.14495395
67	0xbe89f6d0	-0.26946115
68	0xbd0dc3db	-0.03461061
69	0xbebcfd2f	-0.36911914
70	0x3e5e269b	0.21694414
71	0x3eaefb77	0.34176227
72	0xbec5717a	-0.38563138
73	0xbe62ce1e	-0.2214894
74	0x3e1bf356	0.15229544
75	0xbd9321cf	-0.07184183
76	0x3d05b3f0	0.032642305
77	0xbe797f3b	-0.24364941
78	0x3d67fc0c	0.056636855
79	0xbe3ca060	-0.18420553
80	0x3dcccbb1	0.099997886
81	0xbda1b348	-0.07895523
82	0x3deb4dd3	0.11489453
83	0x3d23b59d	0.03996812
84	0x3e178002	0.14794925
85	0xbd07b2e2	-0.03312958
86	0xbdce8ef9	-0.100858636
87	0xbb9dc034	-0.004814172
88	0xbe31bffb	-0.17358391
89	0xbdf114f3	-0.11771574
90	0xbe0073e5	-0.1254421
91	0x3e6c67e0	0.230865
92	0x3e96855f	0.2939863
93	0x3e9794fa	0.29605848
94	0x3d906594	0.070506245
95	0xbbbe1ee1	-0.005802021
96	0xbd869662	-0.06571652
97	0xbd9bb8d2	-0.07603611
98	0xbe3e5f22	-0.18590978
99	0xbe23dd80	-0.16002464
100	0xbd57e317	-0.052706804
101	0x3daa0335	0.08301393
102	0x3db67a86	0.08910088
103	0x3de46891	0.11152757
104	0xbe9376ec	-0.28801668
105	0x3d2ddc56	0.042446457
106	0xbe83f7df	-0.25775048
107	0xbda9f430	-0.08298528
108	0xbea09e37	-0.31370708
109	0xbc777a29	-0.015104809
110	0x3df223b8	0.11823219
111	0xbdc4bb7d	-0.09606073
112	0xbd4f81e8	-0.050660998
113	0x3c80a76d	0.015704835
114	0xbd259943	-0.040429365
115	0x3ecb0efa	0.39659864
116	0x3e5f3a10	0.21799493
117	0x3ebc9f1a	0.36840135
118	0xbdd693ce	-0.1047741
119	0x3e60eb8b	0.21964853
120	0xbd08eac4	-0.033427015
121	0xbc23cd42	-0.009997668
122	0x3e4fb438	0.20283592
123	0xbd33a60a	-0.04385952
124	0xbd801fbd	-0.062560536
125	0x3df51e24	0.119686395
126	0x3e34e5ee	0.17665836
127	0x3e7ff8d7	0.24997269
128	0xbe465ea2	-0.19372037
129	0xbd1a0ab6	-0.03760787
130	0x3dc9de68	0.09856874
131	0xbd8c5f9f	-0.06854176
132	0x3cf79664	0.030223079
133	0xbd52e90f	-0.051491793
134	0xbca4d6af	-0.0201219
135	0x3c8c8217	0.017151875
136	0x3d0cbdac	0.034360573
137	0xbc75c40f	-0.015000357
138	0xbdabe74e	-0.08393727
139	0x3c238633	0.009980726
140	0x3dff7d4d	0.12475071
141	0xbda7904e	-0.08181821
142	0x3dead8d1	0.11467136
143	0xbdf90567	-0.121592335
144	0x3d73455f	0.05939233
145	0xbd4c8383	-0.049930107
146	0xba804578	-0.0009786328
147	0xbe986541	-0.2976475
148	0x3ec07975	0.37592664
149	0xbe658d11	-0.22417094
150	0xbe252ed0	-0.16131139
151	0xbe565ea3	-0.20934539
152	0x3d4f7bd8	0.050655216
153	0xbe3c6b99	-0.1840042
154	0x3a40a720	0.00073491223
155	0x3baadc74	0.0052142683
156	0xbdcb0a30	-0.099140525
157	0x3ceb6b90	0.028737813
158	0x3d28c9ff	0.041208263
159	0x3d4b2f33	0.04960556
160	0x3e0c1d2a	0.13683
161	0xbe5347e8	-0.20632899
162	0x3e4be57b	0.19911759
163	0x3eb25050	0.348269
164	0xbea3fbf1	-0.32028154
165	0xbe9dc1e1	-0.3081198
166	0x3dcd2183	0.100161575
167	0x3e4c79b7	0.19968306
168	0xbcef446a	-0.029207427
169	0xbe86da42	-0.26338392
170	0x3e005727	0.12533246
171	0x3e87a8f3	0.26496086
172	0x3e08dfc9	0.13366617
173	0x3de9dc3c	0.114189595
174	0xbd430b70	-0.04761833
175	0x3ee291c3	0.44251832
176	0x3f54801a	0.8300797
177	0x3dc05104	0.093904525
178	0xbdac0ad0	-0.084005
179	0xbe6a6913	-0.22891645
180	0x3e7a6c4f	0.24455379
181	0xbe66b8f3	-0.2253149
182	0xbe1185af	-0.14211152
183	0x3b6dc25f	0.0036279184
184	0x3d87f7fb	0.066390954
185	0x3d45d3a8	0.048297554
186	0xbe55e706	-0.2088891
187	0xbe064120	-0.1311078
188	0xbe8a81a4	-0.27052033
189	0x3dbd5dc7	0.09246402
190	0x3e52f0ec	0.20599717
191	0x3daa47b3	0.08314457
192	0x3dca695d	0.09883378
193	0x3e9f4932	0.3111053
194	0x3cd625af	0.026141016
195	0x3e675258	0.22590005
196	0x3c5db7a9	0.0135325575
197	0xbe2630ad	-0.16229506
198	0x3e93292d	0.28742352
199	0x3ebdc893	0.37067088
200	0xbe3957a3	-0.18099837
201	0xbc637160	-0.013882011
202	0xbde9929d	-0.114049174
203	0xbe4c4e26	-0.19951686
204	0xbdf64154	-0.12024179
205	0xbe503528	-0.20332778
206	0x3e747cf5	0.23875792
207	0xbe30fe1d	-0.17284437
208	0x3e2e918c	0.17047709
209	0x3dde3847	0.10850578
210	0xbe42b56a	-0.19014516
211	0xbe80e1d8	-0.25172305
212	0x3e4e7b86	0.20164308
213	0xbe74b3aa	-0.23896661
214	0xbe6d7b3a	-0.23191538
215	0xbecd2366	-0.4006607
216	0xbe868b66	-0.26278228
217	0xbe072dfa	-0.13201132
218	0x3e347d5e	0.17625949
219	0xbe1b5e93	-0.15172796
220	0x3b486f67	0.003058398
221	0xbcd0a132	-0.025467489
222	0xbd712dba	-0.0588815
223	0xbe482a10	-0.19547296
224	0x3e82f728	0.2557919
225	0xbb26c7d0	-0.0025448687
226	0xbd29e090	-0.041473925
227	0x3dc0a570	0.09406555
228	0xbc305c0d	-0.010764134
229	0x3e664cb9	0.22490205
230	0x3e97088a	0.29498702
231	0x3cbcddcb	0.023054978
232	0x3e69795a	0.22800198
233	0x3d24e0d9	0.040253494
234	0xbe14728d	-0.14496823
235	0xbde6ff22	-0.112791315
236	0xbe82db6a	-0.25558025
237	0x3db84bde	0.089988455
238	0x3e0159ea	0.12631956
239	0xbe56e2d5	-0.20984967
240	0x3e3f944f	0.18708919
241	0x3d0ac8d2	0.033882923
242	0xbd134890	-0.035957873
243	0xbc457b29	-0.012053289
244	0x3cff1e9a	0.031142522
245	0x3e11fefe	0.14257428
246	0xbe163ba1	-0.14671184
247	0x3e2ba28b	0.16761224
248	0xbeb03be8	-0.34420705
249	0x3df89857	0.121384315
250	0x3e8f5530	0.2799468
251	0xbdc281a7	-0.094973855
252	0x3dfc0293	0.123051785
253	0x3dec38b4	0.11534253
254	0x3a3be742	0.0007167944
255	0x3c4b61fe	0.0124135

base.4linear.bias f4 [50]
0	0xbd2f1a54	-0.042749718
1	0x3b653847	0.003497617
2	0xbd0a46fe	-0.03375911
3	0xbd9578ba	-0.072984174
4	0x3e2f07a9	0.17092766
5	0xbe3ff73c	-0.18746656
6	0x3d447f3f	0.047972914
7	0x3d8e3bbf	0.069449894
8	0xbdfbb00e	-0.12289439
9	0xbd9fa253	-0.07794633
10	0xbe1132c4	-0.14179522
11	0x3d906a98	0.07051581
12	0x3cf8c855	0.030368963
13	0x3d93d997	0.07219236
14	0x3e14f52e	0.14546654
15	0xbac73e40	-0.0015201047
16	0x3ce67912	0.028133903
17	0x3e047f52	0.12939194
18	0xbd13a26c	-0.03604357
19	0x3d0e7bcf	0.03478604
20	0x3d76db3d	0.060267676
21	0xbc9337e0	-0.01797098
22	0xbe10b79f	-0.14132546
23	0x3dc39a55	0.09550921
24	0xbd5c15c5	-0.0537317
25	0xbd701ff4	-0.058624223
26	0xbdb02205	-0.08600239
27	0xbc7dc5bc	-0.015489038
28	0xbd478a85	-0.048716087
29	0xbd6e5786	-0.058188938
30	0x3d8755b1	0.06608141
31	0xbd843656	-0.06455676
32	0xbdc69647	-0.09696632
33	0x3e8914e9	0.26773766
34	0x3c8876fd	0.0166583
35	0xbdbc2245	-0.09186224
36	0xbd6bdd2d	-0.057583977
37	0x3ce68a22	0.028142039
38	0xbd0ac1e3	-0.03387631
39	0xbbad8a5a	-0.005296034
40	0x3c3379f8	0.010954373
41	0xbd9c574e	-0.076338395
42	0x3d3386cd	0.043829728
43	0xbd223952	-0.039605446
44	0x3cd3d1b9	0.02585684
45	0xb8d21201	-0.00010016934
46	0xbd72d0a5	-0.05928101
47	0xbd2f5800	-0.042808533
48	0xbcb74ba6	-0.02237494
49	0xbc490b72	-0.012270795

base.5linear.weight f4 [50, 50]
0	0xbcf37c6a	-0.029722411
1	0x3d01c75b	0.03168426
2	0x3bb04524	0.005379336
3	0x3e104a92	0.14090946
4	0xbb2d7934	-0.0026469948
5	0xbe8f928a	-0.28041488
6	0x3d399b85	0.04531433
7	0xbd893563	-0.06699636
8	0xbe04b489	-0.12959494
9	0x3e834508	0.25638604
10	0x3db9fdd7	0.09081619
11	0x3dc5e81e	0.096634135
12	0x3e49c266	0.19703063
13	0xbe8070c2	-0.25086027
14	0x3d9c95d1	0.07645763
15	0xbe836372	-0.25661808
16	0xbe224714	-0.15847427
17	0x3d9ee8d3	0.077592514
18	0xbe373c4e	-0.17894098
19	0xbd659d7f	-0.056058403
20	0x3d9995a5	0.074992456
21	0x3e17f394	0.14839011
22	0x3dd88b17	0.10573404
23	0xbec46014	-0.38354552
24	0x3ed10dd1	0.40830854
25	0xbeaa94a4	-0.3331653
26	0x3d12eb02	0.035868652
27	0xbe4696c3	-0.19393449
28	0xbe07c001	-0.13256837
29	0xbf070577	-0.52742714
30	0x3dbb5fdd	0.09149144
31	0x3d09bfe2	0.03363026
32	0xbda18a57	-0.07887714
33	0xbe87ca0c	-0.26521337
34	0xbcfe8c2a	-0.031072695
35	0x3e571598	0.21004331
36	0xbd0fcb75	-0.03510614
37	0xbc3e70fc	-0.011623617
38	0x3e601598	0.21883237
39	0xbea757a7	-0.3268406
40	0xbd2696c0	-0.04067111
41	0xbb772d73	-0.0037716299
42	0x3dae4660	0.08509517
43	0x3c49ef53	0.012325126
44	0xbe352d7d	-0.17693134
45	0x3d47ec7b	0.04880951
46	0x3e806aae	0.2508139
47	0x3c74997c	0.014929172
48	0xbe00c55e	-0.1257529
49	0x3decf1a8	0.1156953
50	0xbd3f6a4a	-0.046732225
51	0x3c28343e	0.010266362
52	0xbe620b1a	-0.22074547
53	0xbe8ccc3c	-0.27499568
54	0x3e68b6e2	0.22726014
55	0xbdd03fad	-0.10168395
56	0xbddfc411	-0.109260686
57	0x3d283d37	0.041074004
58	0xbef3fffb	-0.47656235
59	0x3eb206d1	0.34770826
60	0x3d93666f	0.07197272
61	0xbe308bfc	-0.172409
62	0x3db202b5	0.086919226
63	0xbdfb933b	-0.12283941
64	0x3d494790	0.049140513
65	0xbe60e9d1	-0.21964194
66	0xbe0767d4	-0.13223201
67	0x3e3bb617	0.1833118
68	0x3db94400	0.09046173
69	0x3d111635	0.03542157
70	0xbe784e38	-0.24248588
71	0xbd90b8e6	-0.070665166
72	0x3d2cba9c	0.042170152
73	0x3e261ccd	0.16221924
74	0xbe43c3ab	-0.1911761
75	0x3d411a23	0.047144067
76	0x3e7e71d1	0.24848105
77	0xbe0dc87a	-0.13846007
78	0xbe087fdf	-0.13330029
79	0xbe2ac3ae	-0.16676208
80	0xbe4d16e9	-0.20028271
81	0xbc62e204	-0.013847832
82	0xbe3788b9	-0.1792325
83	0x3dd9924b	0.10623606
84	0xbeb84add	-0.35994616
85	0xbc8ece42	-0.017432336
86	0x3d088620	0.033331037
87	0x3e296cd5	0.16545422
88	0x3e9c6a16	0.30549687
89	0x3e082f3d	0.1329927
90	0x3b711aa8	0.003678957
91	0xbd376c66	-0.04478111
92	0x3ecb6602	0.39726263
93	0xbe856377	-0.26052448
94	0xbd8d23fb	-0.06891628
95	0x3c8252e0	0.015908659
96	0x3ea6c539	0.32572344
97	0xbdb61f3c	-0.08892676
98	0xbb1eec16	-0.0024249605
99	0xbe0dac19	-0.13835181
100	0x3e53aa90	0.20670533
101	0x3d3a4c17	0.04548272
102	0xbdc89b24	-0.09795216
103	0x3ec235d8	0.37931705
104	0x3e064c26	0.13114986
105	0xbe95763a	-0.29191762
106	0xbcfce6de	-0.030871805
107	0x3e896033	0.26831207
108	0xbe3ddd29	-0.18541397
109	0xbea7b58e	-0.32755703
110	0xbf0b2920	-0.54359627
111	0xbe280d32	-0.16411284
112	0x3d324781	0.043525223
113	0xbcf47b9b	-0.029844096
114	0x3e2e2504	0.17006308
115	0x3ec14702	0.37749487
116	0x3dd41d52	0.10357155
117	0x3b346001	0.0027523043
118	0x3de531df	0.11191153
119	0xbc5e59bf	-0.013571202
120	0xbdde586c	-0.10856709
121	0x3e46e99c	0.19425052
122	0xbdc6f86b	-0.09715351
123	0x3d23ce92	0.039991923
124	0xbe454160	-0.1926322
125	0x3e7cfb1c	0.24705166
126	0x3cb5bc9f	0.022184668
127	0x3d55d6b6	0.052206717
128	0xbd1f67cc	-0.038917348
129	0x3e2ddbd3	0.16978388
130	0xbda30d60	-0.079615355
131	0xbb994284	-0.0046771187
132	0xbd52c722	-0.05145944
133	0x3ebfc50c	0.37455022
134	0xbe617f21	-0.22021152
135	0x3d888ab1	0.06667078
136	0x3dc4dd0c	0.09612474
137	0xbc318af5	-0.010836353
138	0x399b7437	0.0002965049
139	0xbd75460a	-0.059881248
140	0x3ca4482d	0.020053947
141	0xbc46b35c	-0.012127724
142	0xbdbe1da0	-0.09282994
143	0xbe243a58	-0.16037881
144	0xbbee4170	-0.0072709844
145	0xbe1ff5b0	-0.15621066
146	0xbe63578b	-0.22201364
147	0xbd39f602	-0.045400627
148	0x3cf34ef8	0.029700741
149	0x3d152136	0.036408626
150	0x3dc32fe8	0.09530622
151	0xbe0f8f25	-0.14019449
152	0xbdbb2188	-0.09137255
153	0x3ce1bb3f	0.027555106
154	0xbd3bfd91	-0.045896117
155	0xbd0a9450	-0.033832848
156	0xbd3a54bd	-0.04549097
157	0x3e0fe5de	0.14052531
158	0xbde04d98	-0.109523
159	0xbe3233f8	-0.17402637
160	0xbe2b4bf6	-0.16728196
161	0xbcea5e57	-0.028609438
162	0xbd61acb3	-0.05509634
163	0x3d9b2184	0.07574752
164	0x3e054eba	0.13018313
165	0x3dbe95fb	0.0930595
166	0x3c43700c	0.0119285695
167	0xbda9d86c	-0.08293232
168	0x3dfc5efd	0.12322805
169	0x3ebc1c55	0.36740366
170	0xbe297f62	-0.16552499
171	0xbd708024	-0.058715954
172	0x3e36618a	0.17810646
173	0xbec9e6e5	-0.3943397
174	0x3e909017	0.28234932
175	0x3d743e99	0.05963001
176	0xbe9b081b	-0.3027962
177	0xbd0192a6	-0.031633995
178	0x3d018e63	0.03162993
179	0x3d91c4f4	0.07117644
180	0xbde284b6	-0.11060469
181	0x3e8a759b	0.2704285
182	0x3dc2b95d	0.095080115
183	0x3e092737	0.13393866
184	0x3ec775ad	0.38956967
185	0xbe96eddd	-0.2947835
186	0x3c2faa7a	0.010721797
187	0x3e2654ca	0.16243282
188	0x3ec8dd01	0.39231113
189	0x3dca74da	0.09885569
190	0x3e6c9495	0.23103555
191	0x3de2ec91	0.11080278
192	0xbe0dffce	-0.13867113
193	0xbc13ca11	-0.009020344
194	0x3d086ee6	0.033308886
195	0x3db7e204	0.08978656
196	0xbeacf3d3	-0.33779773
197	0xbde7114a	-0.112825945
198	0xbe6ad8b1	-0.22934224
199	0x3c72c584	0.014817599
200	0x3c612b9e	0.013743309
201	0xbe577e58	-0.2104429
202	0xbe1f5f41	-0.1556368
203	0x3e181ffa	0.14855948
204	0xbe0c33ea	-0.13691679
205	0xbda2c696	-0.079480335
206	0xbf01f2d4	-0.5076115
207	0x3ce10e62	0.027472679
208	0xbe28abd7	-0.16471802
209	0x3d9d34f8	0.076761186
210	0xbdad9fe1	-0.0847776
211	0xbd59302b	-0.053024452
212	0xbe1c9b1a	-0.15293542
213	0xbe136568	-0.14394152
214	0xbd532698	-0.051550478
215	0x3edc7eb2	0.4306541
216	0xbef29830	-0.47381735
217	0x3d8d03e8	0.06885511
218	0x3d86e925	0.065874375
219	0xbd9104d9	-0.07081003
220	0x3e243c8f	0.16038726
221	0xbe2afe7e	-0.16698644
222	0x3e174221	0.1477132
223	0xbe909604	-0.28239453
224	0x3e1f7f17	0.15575825
225	0x3e5e3f87	0.21703921
226	0x3eccb808	0.39984155
227	0x3df8a1f7	0.12140267
228	0x3da541d8	0.08069199
229	0x3dad078b	0.08448704
230	0x3db66a0c	0.089069456
231	0xbe45e34a	-0.19324985
232	0x3e5ab236	0.21357045
233	0xbe5aeeee	-0.21380207
234	0xbc905a3c	-0.017621152
235	0x3dea6446	0.11444907
236	0x3ecc553d	0.39908782
237	0x3e2ef590	0.17085862
238	0x3d8da8b0	0.0691694
239	0xbd483c16	-0.048885427
240	0xbe95adc3	-0.29234132
241	0x3dbffd4d	0.09374485
242	0xbdae3845	-0.08506826
243	0x3e08c5cb	0.13356702
244	0xbd6ccbb9	-0.057811473
245	0x3dd08518	0.101816356
246	0x3d9f15f3	0.07767858
247	0x3e9b764d	0.30363694
248	0x3e6d3ce9	0.23167767
249	0xbaec7d3f	-0.0018042697
250	0xbc409bdd	-0.011755911
251	0xbe0f22cd	-0.13978119
252	0xbdd3406f	-0.10315024
253	0xbdea1c7a	-0.11431213
254	0x3da83260	0.08212733
255	0x3e161d5f	0.14659642

base.5linear.bias f4 [50]
0	0x39578ff4	0.00020557625
1	0x3d5cc2b5	0.053896625
2	0x3e1c0bfe	0.1523895
3	0x3be3365d	0.006933971
4	0xbd977ae2	-0.07396485
5	0xbd9ed02a	-0.07754548
6	0x3d21b74f	0.039481457
7	0x3d960fc1	0.073272236
8	0xbde247e9	-0.11048872
9	0xbdaa0470	-0.08301628
10	0x3d949738	0.07255405
11	0x3dfbe9cf	0.12300455
12	0x3d6f0809	0.058357272
13	0xbc0137b4	-0.007886816
14	0x3d8ac61e	0.06776069
15	0x3d0f4d9e	0.03498613
16	0x3ce7b85c	0.028286152
17	0x3c5e77c6	0.013578361
18	0xbda220b7	-0.07916396
19	0x3d0d9df4	0.034574464
20	0x3d11b44f	0.035572346
21	0x3c826512	0.015917335
22	0xbc9d1d29	-0.019178944
23	0x3c004aff	0.00783038
24	0x3c28c8f5	0.010301818
25	0x3d4ada59	0.04952464
26	0xbd83cbb2	-0.06435336
27	0x3b1c7cca	0.002387809
28	0xbc7066f7	-0.014672986
29	0xbdd10a89	-0.102070875
30	0xbb5ec152	-0.003398974
31	0x3c1b5a0c	0.009481918
32	0xbe3a7589	-0.18208899
33	0xbdc66561	-0.09687305
34	0xbd1a7bd1	-0.037715737
35	0x39a8799c	0.00032134063
36	0xbd0dfef2	-0.034666963
37	0xbe26196f	-0.1622064
38	0x3e1c36e4	0.15255314
39	0xbc008b42	-0.007845702
40	0x3b024f40	0.0019883662
41	0xbd69d33f	-0.057086226
42	0x3cb0b665	0.021571347
43	0xbe088958	-0.13333642
44	0xbd9fc378	-0.078009546
45	0xbe3365a9	-0.17519249
46	0xbdb87bf6	-0.09008019
47	0xbd756933	-0.05991478
48	0xbd808e8e	-0.0627719
49	0xbdb78c69	-0.08962328
