STPINN-NS/sub_data/sub_write/26NS_model_train.pt (torch, 100091 bytes, 22 tensors)

base.0linear.weight f4 [50, 3]
0	0xba7e1c03	-0.0009693505
1	0x385e57fb	5.3010863e-05
2	0x39ec8ac6	0.00045116822
3	0xbea6aed8	-0.3255527
4	0xbd3c7bfb	-0.046016674
5	0x3dd9d40c	0.10636148
6	0xba156623	-0.00056991185
7	0x3e5f90de	0.21832606
8	0xbdf21f79	-0.11822409
9	0xbd534290	-0.05157715
10	0xbe0a55db	-0.13509314
11	0xbeaf5879	-0.34247187
12	0xba977c5e	-0.001155745
13	0x3aa353ca	0.0012460884
14	0x3b0338cc	0.0020022867
15	0x3dcad21a	0.09903355
16	0xbe87a13c	-0.264902
17	0xbe9c3f3d	-0.30516997
18	0xbe475449	-0.19465746
19	0x3eedbd66	0.46433562
20	0xbe409066	-0.18805084
21	0x3d9db115	0.07699791
22	0x3ed7f2b1	0.42177346
23	0xbe8105e5	-0.2519981
24	0xbd862d05	-0.065515555
25	0xbe2011ee	-0.1563184
26	0x3eaf61c5	0.3425428
27	0xbf03b1dc	-0.51443267
28	0x3edfb30f	0.43691298
29	0x3e3bf4a5	0.18355043
30	0xbf05a25c	-0.52200866
31	0xbe28ef01	-0.16497423
32	0x3d1cad7e	0.038251393
33	0xbee24a39	-0.44197252
34	0x3e621393	0.2207778
35	0xbd19eb34	-0.037577823
36	0xbd5eda48	-0.054407388
37	0xbe301d52	-0.17198685
38	0xbe0e284f	-0.13882564
39	0x3cd8eb15	0.026479283
40	0x3e47677d	0.19473071
41	0x3d1d56dd	0.038412917
42	0xbd8b593c	-0.068041295
43	0x3e44396c	0.1916253
44	0xbee77ee3	-0.45213994
45	0x3bb5c96b	0.0055476925
46	0x3e988e2b	0.29795966
47	0xbddc96fb	-0.10770985
48	0xbdc3f2bd	-0.09567783
49	0x3ec2c293	0.38039073
50	0x3d8c01c4	0.06836274
51	0xbe85c03b	-0.26123223
52	0xbd858f74	-0.06521502
53	0x3e559580	0.20857811
54	0xbe394413	-0.18092375
55	0x3e9ff6ea	0.31243068
56	0x3d8d401a	0.06896992
57	0xbe1d8382	-0.15382197
58	0xbe0721d3	-0.13196497
59	0x3d2b79a1	0.04186404
60	0x3e7a71ba	0.24457446
61	0x3dea397d	0.11436746
62	0xbd2fb6bd	-0.042898882
63	0xbb188700	-0.0023273826
64	0x379deb72	1.8825496e-05
65	0xbb6a7506	-0.0035775318
66	0x3e1868f6	0.1488379
67	0xbe983208	-0.2972567
68	0xbe6a9b4e	-0.22910807
69	0xbb3d7ece	-0.0028914693
70	0x3b98154c	0.0046412107
71	0xba706dc1	-0.0009171628
72	0xbdf4e2d0	-0.119573236
73	0xbeaeaf8b	-0.34118304
74	0x3e0c895e	0.13724276
75	0x3d1acd91	0.0377937
76	0xbdc49231	-0.09598196
77	0xbe37a9ac	-0.17935818
78	0x3e33ed60	0.1757102
79	0x3e1d3443	0.15351968
80	0xbecbef1b	-0.3983086
81	0x3e6cbf60	0.23119879
82	0x3e297ed6	0.1655229
83	0xbd6b3c3b	-0.057430487
84	0xbe6e8e14	-0.23296386
85	0x3d475cb7	0.048672404
86	0x3e068213	0.13135557
87	0xbe56e7d9	-0.2098688
88	0xbe16a9c7	-0.14713202
89	0xbe4bb047	-0.19891463
90	0x37e02434	2.671974e-05
91	0xbb432bc6	-0.002978073
92	0x3a60eae6	0.00085799245
93	0x3cce9252	0.025216255
94	0x3ed2c6d8	0.4116733
95	0xbe63ee2e	-0.22258827
96	0xbed18be3	-0.40927038
97	0xbe6cd729	-0.23128952
98	0x3c63344d	0.01386745
99	0x3e498e1e	0.1968312
100	0x3dc57f3b	0.09643408
101	0x3d85d0b6	0.06533949
102	0x3e970385	0.29494873
103	0xbe8abff4	-0.27099574
104	0xbe81b133	-0.25330505
105	0xbc51a1f5	-0.012794961
106	0xbc82d1ea	-0.015969235
107	0xbd566111	-0.052338663
108	0x3ddb5fe0	0.10711646
109	0xbe702bec	-0.23454255
110	0xbec4ce7b	-0.38438782
111	0xb9580798	-0.00020602194
112	0x3a0fac7e	0.00054807204
113	0xb956fa5c	-0.00020501897
114	0xbcd50372	-0.02600262
115	0x3ca66055	0.020309607
116	0xbd817be6	-0.0632246
117	0x3d686141	0.056733374
118	0x3d289c59	0.04116473
119	0xbe6a0d7a	-0.22856703
120	0x3e3f9412	0.18708828
121	0xbecd4c93	-0.40097484
122	0xbe8cd9fd	-0.27510062
123	0x3ced994e	0.029003765
124	0xbcfc102b	-0.030769428
125	0xbe193c6d	-0.14964457
126	0x3d281cdf	0.04104316
127	0xbc98416c	-0.018585883
128	0xbe53b6f1	-0.20675255
129	0xbd97712a	-0.07394631
130	0x3e280841	0.16409399
131	0x3d9457ac	0.072432846
132	0xbe156624	-0.14589745
133	0xbe10fa88	-0.1415807
134	0xbe5310ce	-0.20611879
135	0x3ef3297d	0.4749259
136	0xbe8286a1	-0.2549334
137	0x3e094468	0.13405001
138	0x3d0b06e5	0.033942122
139	0x3ed11e28	0.4084332
140	0x3e1af7c1	0.15133573
141	0x397456f5	0.00023302047
142	0x39a6253a	0.00031689723
143	0xb9ddb643	-0.000422882
144	0x3d464007	0.048400905
145	0xbf1dfc15	-0.6171277
146	0x3e61006d	0.21972819
147	0xbd8c4aef	-0.0685023
148	0xbeb4477c	-0.35210788
149	0x3dc456b4	0.0958685

base.0linear.bias f4 [50]
0	0x3980e583	0.00024585062
1	0xbb81e8fd	-0.003964542
2	0x3d259dc8	0.040433675
3	0x3e688403	0.22706608
4	0x3ab1bc2a	0.0013560106
5	0x39fbdfc2	0.00048041163
6	0x3cadcf36	0.02121697
7	0x3d3162ca	0.043307103
8	0xbdf283c9	-0.11841542
9	0x3d22e767	0.039771464
10	0x3dc9e8a7	0.09858828
11	0xbc698616	-0.01425316
12	0x3de4288d	0.11140547
13	0xbd58394c	-0.052789018
14	0xbd90f567	-0.07078057
15	0x3cd00802	0.025394443
16	0xbd131a64	-0.03591384
17	0x3a59a607	0.0008302633
18	0x3c4b12f8	0.012394659
19	0x3c8ab8c0	0.016933799
20	0xbd0d1e8e	-0.034452967
21	0x3b1921be	0.002336606
22	0x3dbc5198	0.0919525
23	0x3a47053e	0.00075920287
24	0xbdb58d66	-0.0886486
25	0x3dcabbec	0.098991245
26	0x3db0e2a4	0.08636978
27	0xbdd58ca0	-0.10427213
28	0x3bd3e353	0.006466308
29	0x3e14edd0	0.14543843
30	0xb97389be	-0.00023225599
31	0x3dac9613	0.08427062
32	0x3db3fd26	0.087885186
33	0xbe2b4e6d	-0.16729136
34	0xbb991721	-0.0046719466
35	0x3d08c390	0.033389628
36	0xbc8e50ff	-0.017372606
37	0xb8dcccf3	-0.00010528592
38	0x3d423087	0.04740956
39	0x3dff8e40	0.12478304
40	0xbd09f8d0	-0.03368455
41	0x3d944903	0.072404884
42	0xbcecef1c	-0.02892261
43	0xbc81fb89	-0.015867012
44	0x3e1e18a9	0.15439095
45	0x3c849ec3	0.016188985
46	0xbe2588a3	-0.16165404
47	0x38494dab	4.799447e-05
48	0xbd2559a7	-0.040368702
49	0xbab3e8f2	-0.0013726039

base.1linear.weight f4 [50, 50]
0	0xbe4eba4e	-0.20188257
1	0xbde7cfc0	-0.11318922
2	0x3dfc4c77	0.12319272
3	0xbd08a453	-0.033359837
4	0x3c8732fb	0.016503802
5	0x3b30d85c	0.002698443
6	0x3daf1e19	0.085506625
7	0x3d816370	0.06317794
8	0xbe2861a4	-0.16443497
9	0x3ad28ed2	0.0016064292
10	0xbd660305	-0.056155223
11	0x3a9b91c3	0.0011869002
12	0xbe05c8d7	-0.13064896
13	0x3cf0a476	0.029375296
14	0xbd962a53	-0.073322915
15	0xbe29f1ba	-0.16596118
16	0x3dc666f9	0.09687609
17	0x3dcc3a43	0.0997205
18	0xbd87cca1	-0.06630827
19	0x3dde8e95	0.10867039
20	0x3d17fe8b	0.037107985
21	0xbb1cbd3a	-0.0023916499
22	0xbd9900e8	-0.07470876
23	0xbda4f50e	-0.08054553
24	0xbd86d240	-0.06583071
25	0x3b4af8ad	0.0030970976
26	0xbe6623e7	-0.22474633
27	0x3c905bee	0.01762196
28	0xbe7342d0	-0.23755956
29	0xbe0bc494	-0.13649207
30	0x3d767d22	0.06017793
31	0x392a3f60	0.00016236072
32	0x3e5b646e	0.2142503
33	0xbc06a06e	-0.00821696
34	0x3cb284d4	0.021791853
35	0x3dceadb0	0.10091722
36	0x3e00d127	0.12579785
37	0xbdf9c5a2	-0.121958986
38	0xbd8d2b89	-0.06893069
39	0x3ccbef89	0.024894493
40	0x3da2750c	0.07932481
41	0xbde6cffe	-0.1127014
42	0x3df97722	0.12180926
43	0xbd9a7982	-0.07542707
44	0xbce846fc	-0.02835416
45	0xbe0a7bf0	-0.13523841
46	0x3bd3b4b8	0.0064607523
47	0x3d885cb8	0.0665831
48	0x3d808264	0.0627487
49	0x3b8d13bc	0.004305331
50	0x3e40ec78	0.18840206
51	0xbe5be03c	-0.21472257
52	0x3d39bfdf	0.045349
53	0x3db8fa7d	0.09032152
54	0x3e86d5e7	0.2633507
55	0x3e556a99	0.20841445
56	0x3da7b2c7	0.08188396
57	0x3e20a417	0.15687595
58	0x3e9484bb	0.29007515
59	0xbc521e4a	-0.012824604
60	0xbd1f2fea	-0.038864054
61	0x3d4a9e3d	0.049467314
62	0xbe1577ee	-0.14596531
63	0xbe3e4bbf	-0.18583582
64	0xbd65fafe	-0.056147568
65	0xbccfa8f4	-0.025349118
66	0x3ce8ebaf	0.028432695
67	0xbd7d5cd1	-0.061856095
68	0x3dbdea5c	0.09273216
69	0xbd82a9bc	-0.063800305
70	0x3e6a2113	0.2286418
71	0x3cc512dc	0.024056844
72	0x3caf6949	0.021412509
73	0x3cab46bf	0.020907758
74	0xbd831d7b	-0.06402107
75	0xbdca5ed7	-0.098813705
76	0x3de7455c	0.11292526
77	0xbdc382e0	-0.09546447
78	0x3e25b38f	0.16181777
79	0xbe0276bb	-0.12740605
80	0xbe112daf	-0.14177583
81	0xbd84f604	-0.06492236
82	0xbe438300	-0.19092941
83	0x3e97efe6	0.29675215
84	0xbe6e7b42	-0.23289207
85	0xbe1b5a37	-0.15171133
86	0x3c24f5b0	0.010068342
87	0x3e185784	0.14877135
88	0xbea59ede	-0.3234777
89	0xbea029c2	-0.3128186
90	0x3de372ce	0.11105882
91	0x3dce74aa	0.10080846
92	0xbd896558	-0.06708783
93	0xbd499be6	-0.049220942
94	0x3e2c6b0d	0.16837712
95	0xbd020bbf	-0.031749483
96	0xbeac244f	-0.3362145
97	0x3c483fc8	0.012222238
98	0xbdff8767	-0.12476998
99	0x3d92ae83	0.07162192
100	0xbd712697	-0.058874693
101	0x3e18fa28	0.14939177
102	0x3e9d903a	0.307741
103	0xbec6f7a4	-0.3886081
104	0xbb09028b	-0.0020906057
105	0xbe0da1d9	-0.13831271
106	0x3ea9e705	0.33184066
107	0xbc323d87	-0.010878927
108	0x3dd3896f	0.10328948
109	0x3d2e02d6	0.042483173
110	0x3daeba10	0.08531582
111	0x3d5ff825	0.05468001
112	0xbc3a311f	-0.01136425
113	0xbd2e473c	-0.042548403
114	0x3cb71343	0.022348052
115	0xbe076415	-0.13221772
116	0x3dba41e7	0.09094601
117	0x3e931a33	0.28730926
118	0x3da03842	0.0782323
119	0x3e91fb38	0.28511977
120	0xbde05a30	-0.10954702
121	0xbe4d93be	-0.2007589
122	0xbc47a7c9	-0.012185999
123	0xbe1b63ff	-0.15174864
124	0x3c2142f4	0.009842623
125	0xbdf3049b	-0.11866113
126	0xbeb25f67	-0.3483841
127	0x3d6e546e	0.058185987
128	0x3ecac220	0.3960123
129	0xbe1010db	-0.1406893
130	0xbce8dd18	-0.028425738
131	0x3dad6e7e	0.0846834
132	0x3e35623a	0.17713252
133	0xbe6573b8	-0.22407424
134	0xbdb66be0	-0.08907294
135	0x3dc7328c	0.09726438
136	0xbd7dc90f	-0.061959323
137	0x3d3caeb7	0.04606506
138	0x3e2383e0	0.15968275
139	0xbeeac1ac	-0.45850885
140	0x3e2b392e	0.16721031
141	0x3d78ea60	0.060770392
142	0x3d6173ca	0.055042066
143	0x3e2f1018	0.17095983
144	0xbe870fec	-0.26379335
145	0xbe8251fd	-0.25453177
146	0x3e629f4f	0.22131084
147	0x3de94b68	0.11391336
148	0xbe85f045	-0.26159874
149	0x3e0beac1	0.1366377
150	0xbd7a5b70	-0.061122358
151	0xbb3110dd	-0.0027018108
152	0x3e5166e6	0.20449409
153	0x3e281e07	0.16417705
154	0xbcb94d8b	-0.022619983
155	0x3da56e1b	0.080776416
156	0xbdf72762	-0.120680586
157	0x3ddaa37a	0.10675712
158	0x3da3f9eb	0.080066524
159	0x3e2d837c	0.16944689
160	0xbe5931d9	-0.21210422
161	0x3e77f306	0.242138
162	0x3dd7c10f	0.1053487
163	0xbd818ba0	-0.063254595
164	0x3e0bc295	0.13648446
165	0x3d9b4763	0.07581975
166	0x3db89b5a	0.09014006
167	0x3e77cc88	0.24199116
168	0x3e7d392d	0.24728842
169	0xbdedf824	-0.11619595
170	0xbdd19453	-0.10233369
171	0xbe256ac1	-0.16154005
172	0x3d8163c3	0.06317856
173	0xbd558319	-0.052126978
174	0x3c298004	0.010345463
175	0xbd45d9a3	-0.048303258
176	0xbe4f2f85	-0.20232971
177	0xbe25e590	-0.16200852
178	0x3dca3a56	0.09874408
179	0xbe0bcb2d	-0.13651724
180	0x3c18980e	0.009313596
181	0xbc08776c	-0.008329254
182	0xbe918ccc	-0.28427732
183	0xbe178290	-0.147959
184	0xbda0a352	-0.07843651
185	0xb932debc	-0.00017058378
186	0xbe91b491	-0.28458074
187	0xbdd51f92	-0.10406412
188	0x3d1d9d84	0.038480297
189	0xbe609b3e	-0.2193422
190	0xbe04e228	-0.12976897
191	0xbd81ab39	-0.06331486
192	0xbcac95cd	-0.021067524
193	0xbe0d5347	-0.13801299
194	0xbe2808ef	-0.16409658
195	0x3d441b94	0.047877863
196	0x3ddc4f5e	0.107573256
197	0xbe349f85	-0.17638977
198	0x3e481079	0.19537534
199	0xbdc42f0b	-0.09579285
200	0x3d5c7722	0.05382455
201	0x3e816c72	0.2527805
202	0xbe2c5abe	-0.1683149
203	0x3cf7e979	0.030262696
204	0xbd4d1bea	-0.05007545
205	0x3e0145cf	0.12624286
206	0xbe835012	-0.25647026
207	0xbc5b79c4	-0.01339573
208	0x3e195717	0.14974628
209	0xbe5137bb	-0.20431416
210	0xbdb23541	-0.087015636
211	0x3c040f99	0.008060359
212	0x3e3a1b82	0.18174556
213	0xbdcdd6dc	-0.10050747
214	0xbd639d56	-0.05556997
215	0x3dc7ba4a	0.09752329
216	0xbe2bdc99	-0.1678337
217	0xbe20d7de	-0.15707347
218	0xbe0c40d4	-0.13696605
219	0x3db8d9d6	0.09025924
220	0xbe106a97	-0.14103161
221	0xbe8f5ae5	-0.27999035
222	0x3e05010a	0.12988678
223	0xbd4055e3	-0.046956908
224	0x3e6d537d	0.2317638
225	0xbdb1e9cf	-0.086871736
226	0x3c9d0ca4	0.019171067
227	0xbdb09e68	-0.086239636
228	0xbb933915	-0.0044928887
229	0xbe7d62d0	-0.24744725
230	0xbe0bd3e7	-0.13655053
231	0xbd82d228	-0.063877404
232	0x3e1c2fcb	0.15252607
233	0xbccaccf7	-0.024755938
234	0xbdffa959	-0.124834724
235	0xbe5b98e3	-0.2144504
236	0x3d88dcd9	0.06682748
237	0xbc711281	-0.014713884
238	0x3db8fbb4	0.090323836
239	0x3d08fe0b	0.0334454
240	0x3e372f15	0.17889054
241	0xbc032628	-0.008004703
242	0xbe3647ff	-0.17800902
243	0x3b6a63df	0.0035765094
244	0x3d3b0b87	0.04566529
245	0x37f7d741	2.954493e-05
246	0xbe254fa7	-0.16143666
247	0xbc1e8901	-0.009676219
248	0x3d549421	0.05189908
249	0x3de05510	0.109537244
250	0xbc3ee85e	-0.01165208
251	0x3ea65167	0.3248398
252	0x3e87ecc6	0.2654783
253	0x3e78d4ae	0.24299881
254	0x3bebcf20	0.007196322
255	0x3f83d209	1.0298473

base.1linear.bias f4 [50]
0	0x3d6ae8bb	0.057350855
1	0xbd1a8459	-0.037723873
2	0xbde8ab11	-0.11360753
3	0xbcb1aeb0	-0.021689743
4	0xbb8d9c86	-0.0043216376
5	0xbe697f70	-0.2280252
6	0x3cfbad54	0.030722298
7	0x3c0fbf08	0.008773573
8	0xbc9209a7	-0.017826868
9	0x3c441c89	0.011969694
10	0xbcafeff9	-0.021476733
11	0x3c15d3e3	0.009144756
12	0x3caf5396	0.021402162
13	0xbc6c2362	-0.014412733
14	0xbce913c9	-0.028451817
15	0xbd48ae59	-0.048994396
16	0x3cf474d8	0.029840872
17	0xbd6606fb	-0.056159
18	0xbb8dfaff	-0.0043328996
19	0x3d2330b9	0.039841387
20	0x3e12c51a	0.14333001
21	0xbd82c7bc	-0.063857526
22	0x3d8f7253	0.070042275
23	0xbd988f4c	-0.07449207
24	0x3cda8c72	0.026678298
25	0xbcd01fad	-0.02540573
26	0x3d9683c6	0.073493525
27	0x3c5abb93	0.013350385
28	0xbcd6c77b	-0.026218167
29	0x3d1b8729	0.037970696
30	0x3d31c33a	0.043399073
31	0x3d072557	0.032994594
32	0x3d2833cd	0.041065026
33	0xbcf0f426	-0.029413294
34	0xbd3af514	-0.04564388
35	0x3c815893	0.015789306
36	0x3d626b84	0.055278316
37	0x3bd60860	0.00653176
38	0xbd5e1be6	-0.054225825
39	0xbe4bc280	-0.19898415
40	0xbdf509ff	-0.11964797
41	0xbca614bc	-0.020273559
42	0x3b37b2cd	0.0028030158
43	0x3d704e39	0.05866835
44	0xbd8e6c7c	-0.069542855
45	0xbe580eb2	-0.21099356
46	0x3e0c9ab1	0.13730885
47	0x3d4b31f8	0.0496082
48	0xbbd60305	-0.0065311217
49	0x3bc793c6	0.006090614

base.2linear.weight f4 [50, 50]
0	0x3d8d094f	0.06886541
1	0xbc438d7a	-0.011935586
2	0xbde283a8	-0.11060268
3	0xbde5869c	-0.11207315
4	0x3dfeb91a	0.12437649
5	0xbd87bcf1	-0.066278346
6	0x3d49fe94	0.04931505
7	0x3b8bd0b0	0.004266821
8	0x3e9fc172	0.31202275
9	0x3e13cd95	0.14433892
10	0xbd292a67	-0.041300204
11	0x3d0e2813	0.034706187
12	0xbdb74b95	-0.08949963
13	0x3dde0d13	0.108423375
14	0x3e3417ec	0.1758725
15	0xbdb593c3	-0.08866074
16	0x3daf441d	0.085579135
17	0xbd85ab0f	-0.065267675
18	0xbeaef4fa	-0.34171277
19	0xba50faf8	-0.00079719676
20	0x3e9c556b	0.3053392
21	0x3e0c91d5	0.13727506
22	0x3ea2302a	0.3167737
23	0x3c7c6697	0.015405319
24	0x3d666312	0.056246825
25	0x3e170393	0.14747457
26	0x3dda97f6	0.106735155
27	0xbd320e4c	-0.043470666
28	0xbd8c9764	-0.06864813
29	0xbd06334a	-0.032763757
30	0xbd450dc6	-0.04810884
31	0xbe3dac67	-0.18522798
32	0xbe32889b	-0.17434923
33	0xbd38285e	-0.044960372
34	0x3e983f05	0.2973558
35	0x3d95a9f2	0.07307805
36	0xbe44b97e	-0.19211385
37	0xbe464e24	-0.19365746
38	0x3db26e53	0.08712449
39	0xbe7ceeec	-0.24700516
40	0xbe9d21b1	-0.30689767
41	0x3e7ea3cd	0.24867173
42	0xbdc115ea	-0.09428008
43	0xb99d52a9	-0.0003000696
44	0x3e524ce0	0.20537138
45	0x3c6a404b	0.014297555
46	0x3ebd4482	0.3696633
47	0xbd85a6fe	-0.06525992
48	0x3e723ee9	0.23656811
49	0xbd76d8d9	-0.060265396
50	0xbd7f0e6d	-0.062269617
51	0xbe2cbcd6	-0.1686891
52	0xbd5e6a21	-0.05430043
53	0xbd5689d2	-0.05237753
54	0xbce0e7ca	-0.027454276
55	0xbe24a1f8	-0.16077411
56	0xbdec368f	-0.11533844
57	0xbe506092	-0.20349339
58	0x3de613e5	0.11234263
59	0xbe4d05fe	-0.20021817
60	0x3a6d501b	0.0009052769
61	0x3bc5ed56	0.0060402555
62	0xbc9ad6ff	-0.018901346
63	0x3d249cfb	0.04018877
64	0xbd69b1b5	-0.05705424
65	0x3d2ee261	0.04269636
66	0x3d0af415	0.03392418
67	0x3e4da08c	0.20080775
68	0x3c16ea2d	0.009211105
69	0x3e009636	0.12557301
70	0x3e47b6bd	0.19503303
71	0x3d9c5118	0.07632655
72	0xbdac341f	-0.08408379
73	0xbe00032e	-0.12501213
74	0xbdbb5a8c	-0.0914813
75	0xbd3862cb	-0.04501609
76	0xbe37733f	-0.17915057
77	0x3d59e98f	0.053201254
78	0xbe5df9ea	-0.21677366
79	0x3c52087e	0.0128194075
80	0x3da3b787	0.079939894
81	0x3cfd6aa3	0.030934637
82	0x3e139c6f	0.14415143
83	0x3d83a6e5	0.06428317
84	0xbd803b35	-0.06261293
85	0xbde338a3	-0.11094787
86	0x3dab8654	0.083752304
87	0x3e52fb4c	0.20603675
88	0xbe618946	-0.22025022
89	0xbd94baee	-0.072622165
90	0x3cdb1876	0.026745062
91	0x3de64b8b	0.112448774
92	0x3e0b90b5	0.1362942
93	0xbd127eb3	-0.03576536
94	0xbdb1d017	-0.08682268
95	0xbe8ab0ec	-0.27088106
96	0xbbd9376d	-0.0066289217
97	0xbcb86fb6	-0.022514205
98	0x3e6ca458	0.23109567
99	0x3dd07011	0.10177625
100	0xbb35c352	-0.0027734828
101	0xbc93c6d9	-0.018039154
102	0x3d9d9ce1	0.07695938
103	0xbd053d35	-0.032529075
104	0x3d70a302	0.058749206
105	0x3e3f3964	0.18674237
106	0x3e87bcfb	0.26511368
107	0x3e991ece	0.29906315
108	0x3d7fca90	0.062449038
109	0xbdcd3e9a	-0.10021706
110	0x3d24f58b	0.04027323
111	0xbd2140af	-0.039368328
112	0xbd64123d	-0.055681456
113	0x3cdcc760	0.026950538
114	0xbe7b0b39	-0.24516
115	0xbe32e85e	-0.17471454
116	0xbb106cc0	-0.0022037476
117	0x3e7fe0c1	0.2498808
118	0xbe6fd50c	-0.23421115
119	0x3e733b84	0.23753172
120	0xbec0b41b	-0.3763741
121	0xbe26cf95	-0.16290124
122	0x3e821549	0.25406864
123	0x3e0ed039	0.13946618
124	0xbb4956e4	-0.0030721957
125	0xbe29ffaf	-0.16601442
126	0xbe3dcce9	-0.18535198
127	0xbce33c49	-0.027738707
128	0xbdbe7941	-0.09300471
129	0xbd4c397b	-0.049859505
130	0x3e3bd069	0.18341221
131	0xbe47b8df	-0.19504116
132	0xbdb5ddba	-0.088801816
133	0xbead116a	-0.33802348
134	0x3d70ede8	0.058820635
135	0x3e95f7b4	0.29290545
136	0xbc789848	-0.015173025
137	0x3d211c46	0.039333604
138	0x3ded5bae	0.11589752
139	0x3dcfbe20	0.10143685
140	0x3dc547ce	0.09632836
141	0x3dc6f921	0.09715486
142	0xbe76eef3	-0.2411459
143	0xbcaf1449	-0.021371977
144	0x3e43ec9d	0.1913323
145	0x3ec7c40e	0.39016765
146	0xbdb47013	-0.08810439
147	0xbca42f18	-0.020041987
148	0x3d9ac6aa	0.075574234
149	0x3db42ce8	0.08797628
150	0xbe0817c2	-0.13290313
151	0xbcdd4384	-0.027009733
152	0x3d52c30f	0.051455554
153	0xbd6a52b6	-0.057207786
154	0x3cc77005	0.024345407
155	0xbe4ebf5d	-0.20190187
156	0xbdc07033	-0.093964
157	0x3d1e453f	0.038640257
158	0x3e22e6b0	0.15908313
159	0xbdfe9567	-0.1243084
160	0x3cfe3e3a	0.031035531
161	0xbc0a02b2	-0.008423494
162	0xbd9e6b00	-0.077352524
163	0x3c87f4f0	0.016596287
164	0xbc93e2b8	-0.018052444
165	0x3bd5735b	0.0065139956
166	0xbd03a0c1	-0.03213573
167	0xbb93d5c1	-0.0045115654
168	0x3df6f14f	0.12057745
169	0xbd7f3b4f	-0.06231242
170	0x3e842d12	0.25815636
171	0xbc1418f1	-0.00903915
172	0x3d5cf14c	0.053941056
173	0xbd13823d	-0.036012877
174	0xbcbfef79	-0.02342962
175	0x3d645927	0.055749085
176	0x3e456526	0.19276866
177	0x3dc8d916	0.09807031
178	0xbd568846	-0.052376054
179	0x3e54a395	0.20765527
180	0x3d75f237	0.060045447
181	0x3e0b8696	0.13625559
182	0xbd3b8197	-0.045777883
183	0x3e1eeb7f	0.15519522
184	0x3e5a95de	0.21346232
185	0xbe1d5f54	-0.15368396
186	0xbe560d2a	-0.20903459
187	0xbe626c54	-0.22111636
188	0xbe1d3eeb	-0.15356033
189	0xbe99494d	-0.29938737
190	0xbe74d0d5	-0.23907788
191	0xbd765503	-0.060139667
192	0xbd21f0c2	-0.039536245
193	0x39450c81	0.00018792042
194	0x3d354723	0.044257294
195	0xbd03e529	-0.032200966
196	0x3dcc2cee	0.09969507
197	0x3e06506b	0.13116615
198	0x39cda740	0.00039225258
199	0xbeb54ada	-0.3540867
200	0xbc95f1e2	-0.018303815
201	0xbdb7cab1	-0.08974207
202	0x3cfccb27	0.03085859
203	0xbaeb8339	-0.0017968185
204	0xbe969ff7	-0.29418918
205	0x3d332a43	0.043741476
206	0x3dca848e	0.09888564
207	0xbe300789	-0.17190374
208	0xbd1e7d93	-0.038693976
209	0xbcaeed24	-0.021353312
210	0xbe0e77ef	-0.13912939
211	0xbdaaab9f	-0.083335154
212	0x3cd1a764	0.025592513
213	0xbc0cc169	-0.008591034
214	0x3dedc15c	0.11609146
215	0xbdfe15b9	-0.12406487
216	0xbdc4407b	-0.09582611
217	0x3d4e22af	0.050326046
218	0xb96ed35a	-0.00022776183
219	0x3d407eda	0.046995975
220	0xbda957b5	-0.08268682
221	0xbdcd139b	-0.10013505
222	0xbe368531	-0.17824246
223	0xbce139d6	-0.027493399
224	0xbdb60392	-0.088874
225	0x3b1fa20b	0.002435806
226	0xbe43a34f	-0.19105266
227	0xbdb06aa2	-0.086140886
228	0xbbf401f3	-0.0074465214
229	0xbe6257ba	-0.22103778
230	0x3c9d01a2	0.019165818
231	0x3e23de8a	0.1600286
232	0xbc83e864	-0.016102023
233	0x3dcc6f11	0.09982122
234	0xbe0cef8d	-0.13763256
235	0xbe4d26be	-0.2003431
236	0xbe0ae87d	-0.1356525
237	0x3e8858b4	0.26630175
238	0xbcffce9d	-0.03122645
239	0xbd431051	-0.047622982
240	0xbd6b5323	-0.057452332
241	0x3d14862b	0.036260765
242	0xbdaaa446	-0.08332114
243	0xbd59c7f4	-0.053169206
244	0x3e217682	0.15767863
245	0x3d53c31a	0.051699735
246	0xbc8f6dd9	-0.017508434
247	0xbce4c3b1	-0.027925344
248	0x3e3b2733	0.18276672
249	0x3df850b8	0.12124771
250	0x3c8cea20	0.017201483
251	0xbd9b04bd	-0.07569263
252	0x3dc6415e	0.096804366
253	0x3e90d876	0.28290147
254	0x3d1ec195	0.038758833
255	0x3e5fcc41	0.2185526

base.2linear.bias f4 [50]
0	0x3d0903af	0.03345078
1	0x3cb40c78	0.021978602
2	0xbdee407b	-0.116333924
3	0x3ddc06c2	0.107434765
4	0x3c1b8e63	0.009494397
5	0xbe2af1c7	-0.16693793
6	0xbd9f7a63	-0.07787015
7	0x3ce4d159	0.027931856
8	0xbe672437	-0.22572409
9	0xbe1b7534	-0.15181428
10	0x3c4163d6	0.011803588
11	0x3d96b50e	0.07358752
12	0xbe34b378	-0.17646587
13	0x3de6e45e	0.11274026
14	0x3e2f34d1	0.17109992
15	0xbd7aaf12	-0.061202116
16	0x3d51ca05	0.05121805
17	0xbd98fd57	-0.07470196
18	0x3df83c83	0.12120917
19	0xbe3392a7	-0.17536412
20	0xbd209c58	-0.0392116
21	0x3d7035b6	0.058644973
22	0x3e318942	0.17337516
23	0x3ddfe442	0.109322086
24	0xbc4b2766	-0.01239953
25	0xbdecaca2	-0.115563646
26	0xbd1ce445	-0.038303632
27	0x3b05ec2c	0.002043496
28	0x3d032332	0.032015987
29	0xbda63265	-0.08115081
30	0x36cd801c	6.12439e-06
31	0x3d37e357	0.044894543
32	0x3d87ff91	0.06640542
33	0xbcfc4b92	-0.030797753
34	0x3c7b6da8	0.015345968
35	0x3e11f80a	0.14254776
36	0xbd8a2e87	-0.06747156
37	0x3dfb2c14	0.122642666
38	0xbd1590fb	-0.036515217
39	0x3cd5d9f6	0.026104908
40	0x3e06dce0	0.13170195
41	0xbbb6348a	-0.0055604624
42	0x3c10e30a	0.008843193
43	0xbcf91dd9	-0.03040974
44	0xbccbdc00	-0.024885178
45	0xbe02fdbe	-0.12792107
46	0xbd55c3ff	-0.05218887
47	0x3da05a0a	0.078296736
48	0x3cacabf9	0.021078097
49	0x3d96bc6d	0.07360158

base.3linear.weight f4 [50, 50]
0	0xbb9e7f68	-0.0048369654
1	0x3d59632a	0.053073086
2	0x3d80e8cb	0.06294402
3	0xbe7944d1	-0.24342658
4	0xbe3d3ff6	-0.1848143
5	0xbe775b3a	-0.24155894
6	0xbe82180b	-0.25408968
7	0x3e84f1e6	0.25965804
8	0xbd9ec68c	-0.077527136
9	0xbb35435d	-0.002765856
10	0x3e30cd5e	0.17265841
11	0x3c36d3cb	0.011158894
12	0x3d9d12fb	0.07669636
13	0x3e0280e4	0.1274448
14	0x3d214c0f	0.039379176
15	0x3e6d7f81	0.2319317
16	0xbdac23aa	-0.0840524
17	0xbddbaca0	-0.10726285
18	0xbd0f6394	-0.035007074
19	0xbd93839d	-0.072028376
20	0x3c0abeb1	0.008468316
21	0xbe89e26b	-0.26930556
22	0x3d91fb02	0.07127954
23	0x3d1e430c	0.03863816
24	0x3d5572fd	0.052111614
25	0xbdeaa94a	-0.114580706
26	0x3ed82fdc	0.42224014
27	0x3e763ab5	0.24045832
28	0x3dbe6884	0.092972785
29	0x3d21e54c	0.039525315
30	0xbdf54c68	-0.11977464
31	0xbd09107e	-0.033462994
32	0xbcd98d29	-0.026556568
33	0xbe02a9af	-0.12760042
34	0xbdcdb185	-0.10043625
35	0x3caca869	0.021076398
36	0xbef09752	-0.46990448
37	0x3e32d649	0.17464556
38	0x3ba45c84	0.0050159115
39	0xbe209902	-0.15683368
40	0x3cfaee27	0.030631138
41	0xbd3513bd	-0.044208277
42	0xba0e7c85	-0.0005435425
43	0xbe6e3f03	-0.23266225
44	0xbea63062	-0.32458788
45	0xbe4d3a38	-0.2004174
46	0xbde6bf27	-0.11266928
47	0x3ddf7573	0.109110735
48	0x3d9c5b6d	0.076346256
49	0x3e7b1cdd	0.24522729
50	0x3ce70975	0.028202752
51	0x3e2a7da7	0.16649495
52	0xbef64d76	-0.48105973
53	0x3ec744a1	0.38919547
54	0x3c2809b7	0.010256222
55	0xbeca46ce	-0.39507145
56	0xbe9ace3d	-0.30235472
57	0xbe30166b	-0.17196052
58	0xbe903f5a	-0.28173333
59	0xbdbe1e57	-0.092831306
60	0x3d4fcf03	0.05073453
61	0x3ca34062	0.019928161
62	0xbdb6306e	-0.08895956
63	0x3dc1547d	0.09439943
64	0x3de41360	0.11136508
65	0xbe8a6388	-0.2702906
66	0xbdb21611	-0.08695615
67	0x3d6bed1a	0.057599165
68	0x3e44f4a4	0.19233948
69	0xbe16cf02	-0.14727405
70	0x3bdb890d	0.0066996873
71	0x3edc5fe3	0.43041906
72	0x3ea0e1f4	0.3142239
73	0x3e25031f	0.16114472
74	0xbc8e4921	-0.017368855
75	0x3d7d8416	0.061893545
76	0xbc87ddc6	-0.016585242
77	0xbdc5e7c4	-0.096633464
78	0x3df54179	0.119753785
79	0xbd93fec5	-0.07226328
80	0x3e44af0b	0.19207399
81	0xbc8ef9e6	-0.017453145
82	0x3e3dcf42	0.18536094
83	0x3d5cba0c	0.053888366
84	0xbe033994	-0.12814933
85	0x3caba759	0.020953821
86	0xbf0a9bde	-0.54144084
87	0x3eee01b4	0.46485674
88	0x3c3aead3	0.0114085255
89	0xbccf2f53	-0.02529112
90	0x3e34ccfd	0.17656322
91	0x3e35e19d	0.17761846
92	0x3b4a1e5e	0.0030840854
93	0xbe5542c6	-0.20826253
94	0xbe4e4b7c	-0.20145983
95	0xbeee7e08	-0.4658053
96	0xbebfc01c	-0.37451255
97	0x3d2661d1	0.04062063
98	0x3e125493	0.14290075
99	0x3b180cca	0.0023200982
100	0xbccf0242	-0.025269631
101	0xbb5b03cb	-0.0033419009
102	0xbe2d824f	-0.1694424
103	0xbe5047b7	-0.20339857
104	0x3d75d5b5	0.06001826
105	0x3e2a6d4c	0.16643256
106	0xbeb389ac	-0.35065973
107	0x3e1d1a49	0.15342058
108	0x3e9eb58d	0.30997887
109	0xbdbc9c8a	-0.09209545
110	0x3ddd0e56	0.1079375
111	0x3ca7d90b	0.020489236
112	0x3eaea5aa	0.34110767
113	0x3de9785f	0.11399912
114	0xbd8903dc	-0.06690189
115	0x3d5f53a7	0.054523136
116	0xbe6222f7	-0.2208365
117	0xbe43e3d9	-0.19129886
118	0xbe29db47	-0.16587554
119	0x3e14a7ca	0.14517131
120	0x3bef9daf	0.0073124985
121	0xbee461b8	-0.44605803
122	0xbd7fc05a	-0.0624393
123	0xbd0b9c04	-0.034084335
124	0xbcd98d94	-0.026556768
125	0x3c02f4df	0.007992952
126	0x3e0922f2	0.13392237
127	0x3c1ecc0b	0.009692202
128	0x3e529ec3	0.20568375
129	0x3dd0bbe7	0.101920895
130	0x3c0e34ac	0.00867955
131	0x3ddbd59f	0.10734104
132	0xbe271a0b	-0.16318528
133	0x3e127ba2	0.14304975
134	0xbe060264	-0.1308685
135	0xbdf954e1	-0.121743925
136	0x3c544a25	0.012957131
137	0x3c097c39	0.008391433
138	0xb905e630	-0.0001276962
139	0x3e182a48	0.14859879
140	0xbebe6c43	-0.37191972
141	0x3e1973a2	0.14985517
142	0x3ca9f018	0.020744368
143	0x3e859799	0.26092222
144	0x3dd24bb3	0.10268345
145	0x3e30c0cb	0.17261045
146	0x3dd0ef32	0.10201873
147	0xbd4fc924	-0.050728932
148	0x3ea3cca4	0.31992066
149	0x3d3e8e4f	0.046522435
150	0x3e7970e6	0.24359474
151	0x3c02289f	0.007944255
152	0xbc6512a9	-0.0139815
153	0x3dbd096a	0.09230311
154	0xbe57e244	-0.21082407
155	0xbd45089e	-0.04810392
156	0x3e65b14a	0.22430912
157	0x3e1dc0f1	0.15405633
158	0x3e0c669c	0.13711017
159	0x3dab8f25	0.08376912
160	0xbdfea1ae	-0.12433182
161	0x3c560524	0.013062749
162	0x3e4a34b2	0.19746664
163	0x3dd510a5	0.10403565
164	0x3e811940	0.25214577
165	0xbde7e2d5	-0.11322562
166	0xbd5cb13b	-0.053879958
167	0xbdb914d1	-0.090371735
168	0x3da5b7f4	0.08091727
169	0x3e4e888c	0.20169276
170	0x3d5729f3	0.05253024
171	0x3e3c975f	0.18417118
172	0x3e12944f	0.14314388
173	0x3da851c6	0.08218722
174	0xbcbdd605	-0.023173342
175	0x3d71845b	0.058964115
176	0xbe0dce04	-0.1384812
177	0x3e4bebed	0.19914217
178	0x3de01d37	0.10943072
179	0xbe1f32d9	-0.1554674
180	0xbdfc0591	-0.12305749
181	0x3e2701f7	0.16309343
182	0x3e043796	0.1291183
183	0xbe8231d8	-0.25428653
184	0xbe924324	-0.2856685
185	0xbe6bed9c	-0.2303986
186	0x3e2a3710	0.16622567
187	0xbd8de227	-0.06927901
188	0xbb67d806	-0.0035376563
189	0xbdf84d9e	-0.12124179
190	0xbd1850ae	-0.037186317
191	0x3e2c0b6a	0.16801229
192	0x3a20f3e4	0.0006139858
193	0xbe865a50	-0.26240778
194	0xbd3702b1	-0.0446803
195	0x3cc5f4e4	0.024164625
196	0x3e277579	0.16353406
197	0x3c2daed5	0.010600765
198	0xbdcdc717	-0.10047739
199	0xbd47cd69	-0.04877988
200	0xbdd9ea0e	-0.106403455
201	0x3df2d649	0.11857278
202	0x3daa0ed8	0.083036125
203	0xbe308fbd	-0.17242332
204	0xbe6859dd	-0.2269053
205	0x3de4db68	0.11174661
206	0xbe60ef2c	-0.21966237
207	0xbea90104	-0.33008587
208	0x3ebb0e8c	0.36534536
209	0x3e457c6b	0.19285743
210	0x3d94b78d	0.07261572
211	0xba4657f7	-0.00075662084
212	0xbd76760a	-0.060171165
213	0xbeb4076d	-0.35161915
214	0xbe6007b5	-0.2187794
215	0xbdfce147	-0.12347656
216	0xbd33cef1	-0.043898527
217	0xbd169224	-0.036760464
218	0xbdb0f34b	-0.086401545
219	0x3e27360f	0.16329215
220	0xbd87e630	-0.06635702
221	0x3e362ccc	0.17790526
222	0xbe1ee525	-0.15517099
223	0x3dbd8796	0.092543766
224	0x3db34501	0.08753396
225	0x3cee9e23	0.02912814
226	0xbe00efdd	-0.125915
227	0xbeb12b62	-0.3460341
228	0x3dd2cded	0.102931835
229	0x3e01c867	0.12674104
230	0xbc98ddbc	-0.018660419
231	0x3ddb7687	0.10715967
232	0x3ba696c8	0.0050838925
233	0xbddfb569	-0.10923273
234	0x3e953c83	0.2914773
235	0xbeccae08	-0.39976525
236	0xbe172e0c	-0.14763659
237	0x3e15a484	0.14613539
238	0x3c7d5c74	0.015463937
239	0xbca5c77a	-0.02023672
240	0xbd0a69dc	-0.03379236
241	0x3e4e90e3	0.20172457
242	0xbda474ee	-0.08030115
243	0xbe919302	-0.2843247
244	0xbe0fe043	-0.14050393
245	0x3d6ffc04	0.05858995
246	0xbeeb6add	-0.45979968
247	0x3e80fe98	0.2519424
248	0xbca3b9b4	-0.019986011
249	0x3e2c40e8	0.16821635
250	0xbe81e778	-0.2537191
251	0x3dc392b4	0.09549466
252	0x3dae27ae	0.08503662
253	0xbe449bb9	-0.19200028
254	0xbe3ad56d	-0.18245478
255	0x3d50297d	0.050820816

base.3linear.bias f4 [50]
0	0x3d223e05	0.039609928
1	0x3e1b955d	0.15193696
2	0xbdc3cf73	-0.09561052
3	0x3e02c8a9	0.12771858
4	0xbce80ce0	-0.028326452
5	0x3c6d4d94	0.014483828
6	0x3d991288	0.07474238
7	0xbc418641	-0.011811794
8	0x3ca4ba95	0.0201085
9	0xbde73abc	-0.112904996
10	0x3c2eeb51	0.010676221
11	0x3c9f435f	0.019441305
12	0xbd5bfa2a	-0.053705372
13	0x3d2b55aa	0.041829742
14	0x3cede255	0.029038588
15	0x3c0e7ef0	0.008697256
16	0x3e474b76	0.1946238
17	0xbb81dd7c	-0.0039631706
18	0xbd76776d	-0.060172487
19	0x3d9ccf39	0.07656712
20	0xbd81418e	-0.06311332
21	0x3bc781a7	0.006088454
22	0xbbe4b3e9	-0.006979455
23	0xbde2d6f3	-0.110761546
24	0xbd5cc5d0	-0.053899586
25	0xbc852bb0	-0.016256183
26	0xbda58472	-0.080819026
27	0xbc1dcdde	-0.009631602
28	0x3bc1952a	0.0059076743
29	0xbd3c0485	-0.045902748
30	0xbd6b9a63	-0.05752028
31	0x3d9e23af	0.0772165
32	0x3da98fa8	0.082793534
33	0x3dcf89eb	0.10133728
34	0x3db1e4df	0.08686232
35	0x3d1adcb4	0.037808135
36	0xbc449238	-0.011997752
37	0x3c1b1b25	0.009466921
38	0xbe41c585	-0.18923004
39	0xbdccdee3	-0.1000345
40	0xbdc6cde2	-0.09707238
41	0xbd8a5530	-0.067545295
42	0xbe081724	-0.13290077
43	0xbdda4463	-0.10657575
44	0xbda1586e	-0.07878195
45	0xbc4a298e	-0.012339009
46	0x3dfd4b16	0.12367837
47	0xbe1963eb	-0.14979522
48	0x3a67d301	0.0008843393
49	0xbe5c62a8	-0.2152201

base.4linear.weight f4 [50, 50]
0	0x3e4f9fd5	0.20275815
1	0x3bd6c201	0.006553889
2	0xbdaf2f66	-0.085539624
3	0x3d765500	0.060139656
4	0xbd7e5642	-0.06209398
5	0x3e0634ae	0.13106033
6	0xbc2f7f05	-0.010711436
7	0x3e031118	0.1279949
8	0xbe6d62b1	-0.23182179
9	0x3c0f6f54	0.00875457
10	0xbdfcb84c	-0.12339839
11	0xbc0afea8	-0.008483566
12	0xbdefabda	-0.117027
13	0x3e8c5e53	0.27415714
14	0x3e18ff6c	0.14941186
15	0x3e305c68	0.1722275
16	0xbec52afb	-0.38509354
17	0xbcfaa797	-0.030597491
18	0xbd8efce3	-0.06981828
19	0x3e2f8f00	0.17144394
20	0xbe80cf6e	-0.25158256
21	0xbd437802	-0.04772187
22	0xbe5b46c7	-0.21413718
23	0x3dea9b2e	0.114553794
24	0xbe038388	-0.12843144
25	0x3dbd7ecb	0.092526995
26	0x3e2d9464	0.16951138
27	0xbe9c37b6	-0.30511254
28	0xbd501a5c	-0.05080639
29	0xbd0c91a8	-0.034318596
30	0xbe48f917	-0.1962627
31	0xbe311ae0	-0.17295408
32	0xbd3dedab	-0.046369236
33	0xbd8b1ef0	-0.0679301
34	0xbf1b2fcf	-0.60619825
35	0xbdbf26f7	-0.09333604
36	0xbc5ab328	-0.013348378
37	0xbd96aa00	-0.07356644
38	0x3e243e9b	0.16039507
39	0x3d405cfc	0.046963677
40	0xbe2f1075	-0.17096122
41	0x3cdc75cf	0.026911644
42	0x3bb45a79	0.0055039492
43	0x3d2a2b9c	0.041545495
44	0xbdd1300a	-0.10214241
45	0x3de292db	0.11063167
46	0x3e70cf9b	0.23516695
47	0x3ddc77b0	0.10765016
48	0xbde207cc	-0.110366434
49	0x3e1a7e11	0.15087153
50	0x3e658e55	0.22417577
51	0x3e0fae5f	0.14031361
52	0xbe37bc4b	-0.17942922
53	0x3cd8954e	0.026438382
54	0x3e807337	0.25087902
55	0xbea2ea52	-0.31819397
56	0x3da53309	0.08066375
57	0xbd5ee535	-0.054417808
58	0x3d5cbf96	0.053893648
59	0xbe175f89	-0.14782538
60	0x3e7778f0	0.24167228
61	0x3e9d7d2e	0.30759567
62	0xbe579c40	-0.21055698
63	0xbdbbc396	-0.091681644
64	0xbd86aa1b	-0.06575414
65	0xbe58cabb	-0.21171086
66	0xbec59276	-0.38588303
67	0xbde6ad9e	-0.112635836
68	0xbd203a45	-0.03911807
69	0xbe504166	-0.20337448
70	0x3de4b83b	0.11167952
71	0x3e0aab4a	0.13541904
72	0xbeaf70ac	-0.3426565
73	0xbd8d3cae	-0.06896339
74	0x3e0cce08	0.1375047
75	0xbeada370	-0.33913755
76	0xbd31e56a	-0.043431677
77	0xbe401ea9	-0.18761696
78	0xbdb222dc	-0.08698055
79	0xbc521d72	-0.012824403
80	0xbcc0dfbc	-0.023544185
81	0xbcccc411	-0.024995835
82	0x3e4104f4	0.18849546
83	0x3e2805e0	0.16408491
84	0x3d6dc62a	0.058050312
85	0xbdbb9ab0	-0.09160364
86	0x3bd58771	0.00651639
87	0xbc603be9	-0.013686159
88	0xbdd34697	-0.10316198
89	0x3df70898	0.12062186
90	0xbe8ea4ad	-0.27860013
91	0x3e8c8535	0.2744538
92	0x3dfe76fe	0.1242504
93	0x3ea3a0cf	0.31958625
94	0xbce3927f	-0.027779816
95	0xbe4e0d5a	-0.2012228
96	0xbdb85ac6	-0.09001689
97	0xbdc317bf	-0.095260136
98	0xbe4fb957	-0.20285545
99	0xbe761a82	-0.2403355
100	0x3dd3a000	0.10333252
101	0x3e5b9d33	0.21446685
102	0x3e644f5a	0.22295895
103	0x3d858008	0.06518561
104	0xbde3dacf	-0.11125719
105	0xbd723a04	-0.05913736
106	0xbe4dea21	-0.20108844
107	0xbd8cbfac	-0.06872496
108	0xbdc3b77e	-0.09556483
109	0xbb7aa96c	-0.0038247956
110	0xbc665857	-0.014059148
111	0x3a210138	0.0006141844
112	0xbd988a25	-0.07448224
113	0x3b4068ef	0.002935942
114	0x3ddf18c9	0.10893399
115	0x3eb84b5e	0.35995
116	0x3e1f1df7	0.15538774
117	0x3c865d84	0.016402014
118	0x3d835a02	0.06413652
119	0x3e56e7c6	0.20986852
120	0xbd3c369a	-0.04595051
121	0xbd98cd6d	-0.07461057
122	0xbd3fc3fa	-0.046817757
123	0xbbecc96a	-0.007226159
124	0xbe9639fa	-0.29341108
125	0xbd3b4097	-0.045715895
126	0x3d3291f1	0.04359621
127	0x3df2d520	0.118570566
128	0xbc8fdfe3	-0.017562812
129	0x3da73d34	0.081659704
130	0x3e38923b	0.18024532
131	0xbe1b8a80	-0.15189552
132	0xbc29b809	-0.010358819
133	0x3db2c008	0.08728033
134	0xbe020433	-0.12696914
135	0xbc5bc7b9	-0.013414317
136	0x3b59c478	0.0033228677
137	0xbd9c3830	-0.076279044
138	0x3c571865	0.013128375
139	0x3ce25bd9	0.027631687
140	0x3c2e4cac	0.010638397
141	0xbc96fe18	-0.018431708
142	0x3df8f6af	0.12156426
143	0xbee8b7dc	-0.45452774
144	0xbabe29d8	-0.001450832
145	0x3e21d5b0	0.15804172
146	0x3cd650c5	0.02616156
147	0xbedf4ed5	-0.43614832
148	0x3e2b1a38	0.1670922
149	0xbd86672d	-0.06562648
150	0xbd955705	-0.07291988
151	0xbf1ab47e	-0.6043166
152	0x3e7af8ac	0.24508923
153	0x3d5a8609	0.053350482
154	0x3db719de	0.08940481
155	0x3d27e995	0.040994246
156	0xbe655d30	-0.2239883
157	0x3dd5de58	0.10442799
158	0x3aa865f1	0.0012847764
159	0x3e561157	0.20905052
160	0x3e4a8eb3	0.19780998
161	0xbe3bcf01	-0.18340684
162	0x3e46e4c0	0.19423199
163	0x3e05eddb	0.13079016
164	0xbe29036b	-0.1650521
165	0xbe769a56	-0.24082312
166	0xbde1cc02	-0.110252395
167	0x3e8fac84	0.28061306
168	0xbe370eb1	-0.17876698
169	0xbe71384d	-0.23556633
170	0x3de92991	0.11384881
171	0x3e6176d3	0.22017984
172	0x3e6b57d0	0.22982717
173	0x3f01a8d2	0.50648224
174	0x3cc2cf03	0.023780352
175	0x3e584925	0.21121652
176	0x3e55cff5	0.2088011
177	0xbd8def4c	-0.06930408
178	0xbd25ac6f	-0.04044765
179	0xbe4d86f3	-0.2007101
180	0x3ea3f9e7	0.32026598
181	0xbebb8f5f	-0.3663282
182	0xbdfd98ed	-0.12382684
183	0xbe3efe51	-0.18651702
184	0x3cc09866	0.02351017
185	0xbbb9fe45	-0.0056760632
186	0xbb586720	-0.0033020452
187	0xbe233865	-0.15939482
188	0x3dc87426	0.097877786
189	0x3ebd325f	0.36952493
190	0x3ed10a39	0.40828112
191	0xbd9d4392	-0.07678904
192	0x3e3bf329	0.18354477
193	0x3eb34a92	0.3501783
194	0xbe1eeb28	-0.15519392
195	0xbdc5383e	-0.09629868
196	0x3dd9da0b	0.106372915
197	0x3d01da38	0.03170225
198	0x3e25a9c0	0.16178036
199	0x3ecb175a	0.39666253
200	0xbdc7465b	-0.09730216
201	0xbe2e196a	-0.17001882
202	0xbc1cbcc7	-0.009566492
203	0xbe02808f	-0.12744354
204	0xbda3aef5	-0.07992355
205	0xbeaf3db9	-0.34226778
206	0x3e8b47b0	0.2720313
207	0xbe12bec9	-0.14330591
208	0x3e96c517	0.29447243
209	0x3dcf3c80	0.10118961
210	0xbe631239	-0.2217492
211	0xbe2b88b5	-0.16751368
212	0x3de3e8f1	0.111284144
213	0xbe509678	-0.203699
214	0xbeaeeebf	-0.34166524
215	0xbe702179	-0.23450269
216	0xbe26a1a2	-0.16272596
217	0xbe46f438	-0.194291
218	0x3d5d7167	0.054063227
219	0xbe17c5f5	-0.14821608
220	0xbd837f5e	-0.06420778
221	0x3d1a268f	0.03763443
222	0x3cdecc45	0.027197013
223	0xbe442053	-0.19152956
224	0x3e89548e	0.26822323
225	0xbde7d398	-0.11319655
226	0x3d1414b4	0.036152557
227	0x3eba642a	0.36404544
228	0x3d8430af	0.06454598
229	0x3e8e94c4	0.27847874
230	0x3eb7ca5c	0.35896575
231	0xbd46467d	-0.048407067
232	0x3e29ec09	0.16593947
233	0x3da47aa0	0.08031201
234	0x3c85db00	0.016339779
235	0xbdd35de2	-0.10320641
236	0xba0e4687	-0.00054273795
237	0x3dadce43	0.08486607
238	0x3e4d8d1c	0.2007336
239	0xbe8f335e	-0.27968878
240	0x3d528f7e	0.051406376
241	0x3e478878	0.19485652
242	0x3d04f7bf	0.03246283
243	0xbc4dbd19	-0.012557291
244	0xbbb7122f	-0.0055868845
245	0x3e2919da	0.16513768
246	0xbdba601f	-0.09100365
247	0xbd2b7f41	-0.041869406
248	0xbce600f6	-0.02807663
249	0x3dc69a6f	0.096974246
250	0x3e38bc33	0.18040542
251	0xbb720662	-0.0036930074
252	0x3e11a13e	0.14221665
253	0xbd505e1e	-0.050871007
254	0xbd9c5913	-0.07634177
255	0xbcf47f2a	-0.029845793

base.4linear.bias f4 [50]
0	0xbd639dfe	-0.055570595
1	0x3d2c4c2d	0.042064834
2	0xbc8cfd46	-0.017210614
3	0xbd9ab5fc	-0.07554242
4	0xbd5b1e7c	-0.05349587
5	0x3da8bd90	0.08239281
6	0x3c471420	0.012150794
7	0xbda06159	-0.078310676
8	0x3d970708	0.07374388
9	0xbd25233b	-0.0403168
10	0xbe8e4035	-0.2778336
11	0x3cf69b81	0.030103447
12	0x3ddd685a	0.10810919
13	0x3c3c7262	0.01150188
14	0xbba4fc8d	-0.005034989
15	0xbd91cc6f	-0.07119071
16	0xbd92e574	-0.07172671
17	0xbd8aefb1	-0.06783999
18	0xbb03c5d9	-0.002010694
19	0x3c75898b	0.014986406
20	0xbca38a82	-0.019963507
21	0xbd49e801	-0.04929352
22	0xbdce176e	-0.100630626
23	0x3e4b50ad	0.19854994
24	0xbc109930	-0.008825585
25	0x3db82ffe	0.08993529
26	0xbda1c5ec	-0.07899079
27	0xbc67d891	-0.014150755
28	0xbbb572e4	-0.0055373777
29	0xbcfbb22d	-0.03072461
30	0x3d4c80cf	0.04992753
31	0x3ddd2435	0.107979216
32	0x3cd07308	0.025445476
33	0x3dad5702	0.08463861
34	0xbd3ba986	-0.045815967
35	0xbce5a204	-0.028031357
36	0xbc40ad65	-0.0117600905
37	0xbd84c2fc	-0.06482503
38	0xbd4006cc	-0.046881482
39	0xbd8b6d70	-0.06807983
40	0x3e0a84cf	0.13527225
41	0xbd72e64e	-0.059301667
42	0xbd204135	-0.039124686
43	0x3d20c113	0.03924663
44	0x3d5be179	0.053681824
45	0x3bb681b1	0.0055696596
46	0xbce0e9cf	-0.027455239
47	0xbcb8c33b	-0.02255403
48	0xbd68584c	-0.05672483
49	0xbc9bbc2e	-0.01901063

base.5linear.weight f4 [50, 50]
0	0xbc8d37c6	-0.017238509
1	0x3d56b784	0.052421108
2	0xbb2ec4fe	-0.002666771
3	0x3e507486	0.2035695
4	0xbe14e73b	-0.14541332
5	0xbe71406d	-0.23559733
6	0x3e1d2130	0.15344691
7	0xbdb4e653	-0.08832993
8	0xbe8457c5	-0.25848213
9	0x3e9736ed	0.29534093
10	0xbdeb6bb7	-0.11495154
11	0x3ebe9832	0.3722549
12	0x3d833129	0.06405861
13	0xbde8170a	-0.11332519
14	0x3e7a660a	0.24452987
15	0xbe88f6d6	-0.2675082
16	0xbd1f2e86	-0.038862728
17	0x3dc253c8	0.09488636
18	0xbda14d8b	-0.07876118
19	0x3dc1d46f	0.094643466
20	0x3dd3563e	0.10319184
21	0xbdcdb2c3	-0.10043862
22	0x3e13e640	0.14443302
23	0xbe3c56f8	-0.18392551
24	0x3ed8c2bb	0.42336068
25	0xbead15b2	-0.33805615
26	0xbc856897	-0.016285224
27	0xbdda0d40	-0.106470585
28	0xbde6dd75	-0.11272708
29	0xbebd7f40	-0.37011147
30	0x3e12b273	0.14325885
31	0xbd705a26	-0.058679722
32	0xbe36dc4c	-0.17857474
33	0xbe6f4aa1	-0.23368312
34	0x3e03c8f6	0.1286963
35	0x3d875cbc	0.066094846
36	0x3c22ca40	0.0099359155
37	0xbe0dff76	-0.13866982
38	0x3bdbeaf9	0.0067113605
39	0xbe5f96ea	-0.21834913
40	0xbcef1d99	-0.029188918
41	0x3cbe6dbc	0.023245685
42	0xbcf8d2e4	-0.030373998
43	0x3d048d52	0.032361336
44	0xbda6e255	-0.08148638
45	0x3dd583ad	0.10425506
46	0x3e235c11	0.1595309
47	0xbdd7b8dd	-0.10533307
48	0xbe50b406	-0.20381173
49	0x3db93ea6	0.09045152
50	0x3d961300	0.07327843
51	0x3d9dfae8	0.07713872
52	0xbe4270e5	-0.18988378
53	0xbe69a355	-0.22816212
54	0x3c0afa1c	0.008482482
55	0xbdb6a550	-0.089182496
56	0xbe8d6142	-0.27613264
57	0xbdaba8b5	-0.08381788
58	0xbf148542	-0.58015835
59	0x3e5b26ac	0.21401471
60	0x3e102e9e	0.14080283
61	0xbe1fce1e	-0.15605971
62	0xbe1dc312	-0.15406445
63	0xbddea7f3	-0.108718775
64	0x3dffbb15	0.12486855
65	0x3e4ce912	0.20010784
66	0xbdd6043c	-0.104500264
67	0xbc924460	-0.01785487
68	0xbcbf972b	-0.023387512
69	0x3c474c60	0.012164205
70	0xbd9312c3	-0.07181313
71	0xbe239b5a	-0.1597723
72	0x3dc4d8c4	0.09611657
73	0x3d0ccfce	0.034377865
74	0xbe486982	-0.19571498
75	0x3e71872c	0.2358672
76	0x3ed68aa5	0.41902652
77	0xbbc77b77	-0.006087716
78	0xbdc25913	-0.09489646
79	0xbcd6e237	-0.026230915
80	0xbd77a934	-0.0604641
81	0xbdc4cd0c	-0.09609422
82	0x3d8889aa	0.06666882
83	0xbce1c39e	-0.027559098
84	0xbe4ee9f2	-0.2020643
85	0xbd2c2da5	-0.042035718
86	0x3dd42f52	0.10360588
87	0x3f018be2	0.5060407
88	0x3e9d6abf	0.30745503
89	0x3e2c7ec9	0.1684524
90	0xbe4d51b4	-0.20050699
91	0x3c155a49	0.009115764
92	0x3ea8c0c6	0.32959574
93	0xbe5922b2	-0.21204641
94	0xbe152aaf	-0.14567064
95	0x3bbce6af	0.0057648043
96	0x3e93ceef	0.28868815
97	0x3d23cdc6	0.039991163
98	0xbd381659	-0.044943187
99	0xbe8222ec	-0.25417268
100	0x3eb76004	0.35815442
101	0xbc823151	-0.015892657
102	0xbdf7fc41	-0.121086605
103	0x3e91a5a8	0.28446698
104	0xbd57b098	-0.052658647
105	0xbe3a6345	-0.18201931
106	0xbb9d14d6	-0.0047937436
107	0xbe6b27dd	-0.22964425
108	0xbe48f44f	-0.19624446
109	0xbe52409e	-0.20532462
110	0xbe03902d	-0.12847967
111	0x3e609e2c	0.21935338
112	0x3d046c3a	0.032329775
113	0xbd279c30	-0.040920436
114	0x3e05f7fa	0.13082877
115	0x3eccde1e	0.40013212
116	0x3e0563a8	0.13026297
117	0xbd38ae34	-0.045088008
118	0x3e802d9c	0.25034797
119	0xbd0a89ce	-0.033822827
120	0xbbc7c88e	-0.006096906
121	0x3e04ea67	0.12980042
122	0x3c8d8e38	0.01727973
123	0xbd56c5f1	-0.052434865
124	0xbc21f53c	-0.009885129
125	0x3e91ee98	0.28502345
126	0x3d9b09bc	0.07570216
127	0x3d530483	0.051517975
128	0xbe1db075	-0.15399344
129	0xbd3cfa5f	-0.04613721
130	0xbd470624	-0.04858984
131	0x3e02818b	0.12744729
132	0xbdd9a214	-0.10626617
133	0x3ecfd6ba	0.4059351
134	0xbd95d749	-0.07316453
135	0xbd82250e	-0.06354724
136	0xbc7c9761	-0.015416951
137	0x3d0c6bc1	0.03428245
138	0x3ddab974	0.106799036
139	0xbca524e2	-0.020159189
140	0x3e126b71	0.14298798
141	0xbcf92e12	-0.030417476
142	0xbc4a160f	-0.012334361
143	0xbe38e57d	-0.18056293
144	0xbc825649	-0.015910285
145	0x3ccdf12e	0.025139417
146	0x3be7dea3	0.007076101
147	0xbe02bc78	-0.12767208
148	0xbe2528bd	-0.16128822
149	0x3d4e1af6	0.05031868
150	0x3d26cee1	0.04072464
151	0x3d2d83f2	0.04236216
152	0xbe046d9f	-0.12932442
153	0xbd9e1c6a	-0.07720263
154	0x3dbb536c	0.09146771
155	0xbe3d1d45	-0.18468197
156	0xbdc9e9d7	-0.098590545
157	0x3e827fb5	0.25488058
158	0xbdbc6846	-0.09199576
159	0x3d5fbba6	0.054622315
160	0xbe7bac4f	-0.2457745
161	0x3de45a11	0.11149991
162	0xbd68da44	-0.05684878
163	0x3df84f5b	0.12124511
164	0x3e6a6619	0.2289051
165	0xbde655e3	-0.1124685
166	0x3d36c3cc	0.04462032
167	0xbc3012bd	-0.010746655
168	0x3daf12d6	0.085485145
169	0x3da09c74	0.07842341
170	0xbdda4614	-0.106578976
171	0xbda0b4a0	-0.078469515
172	0xbd5b9109	-0.053605113
173	0xbe3c7e99	-0.18407668
174	0x3ea15775	0.31512037
175	0xbccc81af	-0.024964182
176	0xbef52d6c	-0.47886217
177	0xbe1f280d	-0.15542622
178	0xbaf4abf6	-0.0018666971
179	0x3e26f08c	0.16302699
180	0xbd3e7aeb	-0.046503942
181	0x3da72ac9	0.081624575
182	0x3db0c89e	0.08632015
183	0x3c4375ed	0.011929971
184	0x3e4413cf	0.19148181
185	0xbe822acb	-0.25423273
186	0x3d96765c	0.07346794
187	0xbd19e504	-0.037571922
188	0x3e817cac	0.2529043
189	0x3d0b66ba	0.034033515
190	0x3e780e20	0.24224138
191	0x3dad637e	0.08466242
192	0xbe22e000	-0.15905762
193	0x3e33239e	0.17494056
194	0x3d76987b	0.06020401
195	0x3e6840f2	0.22681025
196	0xbe0fda56	-0.14048132
197	0x3cc21314	0.023690738
198	0xbe815580	-0.25260544
199	0x3a85e390	0.0010214914
200	0x3d0093e1	0.03139103
201	0xbe55e58d	-0.20888348
202	0xbe62f469	-0.22163548
203	0x3ddfc694	0.10926548
204	0xbd95cffb	-0.0731506
205	0xbe64015b	-0.22266142
206	0xbe4e1f61	-0.20129158
207	0xbd73361c	-0.059377775
208	0xbe7df2a6	-0.24799594
209	0x3ce9a869	0.028522687
210	0x3dd86275	0.10565654
211	0x3e80c5fd	0.25151053
212	0x3d844528	0.06458503
213	0xbe91d94f	-0.28486106
214	0x3d98b151	0.074556954
215	0x3e8b6025	0.2722179
216	0xbf01371d	-0.5047472
217	0x3d5bea7c	0.05369042
218	0x3ddf4cb2	0.109033
219	0xbc82dd10	-0.015974551
220	0xbe76a974	-0.24088079
221	0xbed1a9a6	-0.40949744
222	0x3d00ae67	0.031416323
223	0xbe6d0a83	-0.23148541
224	0x3d56f78b	0.05248217
225	0xbce76e5a	-0.028250862
226	0x3e4e9ae0	0.20176268
227	0x3ea9ca7c	0.33162296
228	0x3e20482f	0.15652536
229	0x3e56ab87	0.2096387
230	0xbd016ae1	-0.03159607
231	0xbd5801a8	-0.052735955
232	0x3d9bf7ae	0.076156005
233	0xbe8fec7f	-0.2811012
234	0x3de6b6bd	0.11265323
235	0x3ea6ee23	0.3260356
236	0x3e756fd7	0.23968445
237	0x3e496bd1	0.19670035
238	0x3e358438	0.17726219
239	0x3bb49c80	0.0055118203
240	0xbe5a6232	-0.21326521
241	0x3de34f97	0.11099165
242	0xbdc04e0b	-0.093898855
243	0x3e13ede2	0.14446214
244	0x3bad27c9	0.005284284
245	0x3e6199e6	0.22031364
246	0x3bba704b	0.005689656
247	0x3e91413c	0.28370082
248	0xbbc461e1	-0.0059931134
249	0xbe69a854	-0.22818118
250	0xbdb355b9	-0.08756585
251	0xbdc385b7	-0.095469885
252	0xbe06fbc7	-0.13181983
253	0x3d61567f	0.05501413
254	0x3cbff608	0.023432747
255	0x3e743289	0.23847403

base.5linear.bias f4 [50]
0	0x3c8ec4f5	0.0174279
1	0xbd347157	-0.0440534
2	0x3e1b47aa	0.15164056
3	0xbbffaebc	-0.0078028124
4	0xbc877fae	-0.016540375
5	0xbdd4bb64	-0.103873044
6	0xbda1bd42	-0.07897426
7	0xbe127a8b	-0.14304559
8	0xbdb4002c	-0.08789095
9	0xbabf99c4	-0.0014617969
10	0xbd23b948	-0.03997162
11	0x3d36f97c	0.04467152
12	0x3d97f900	0.0742054
13	0x3e085057	0.13311897
14	0x3d8212e1	0.06351257
15	0x3d9523b8	0.072822034
16	0xbd9a243a	-0.07526441
17	0xbd91386f	-0.07090842
18	0xbe022cf7	-0.12712465
19	0x3da4f2fb	0.08054157
20	0x3dbf2798	0.09333724
21	0x3e17d87c	0.14828676
22	0xbcc95e31	-0.024581047
23	0x3dc9c7df	0.098525755
24	0x3d341cb4	0.043972686
25	0xbd019471	-0.031635705
26	0xbd106e71	-0.035261575
27	0xbbfe80f4	-0.0077668373
28	0xbd40d898	-0.04708156
29	0x3dc1cd67	0.094630055
30	0x3d867332	0.065649405
31	0xbaabd634	-0.0013110102
32	0xbc074916	-0.008257171
33	0x3d98f498	0.074685276
34	0xbcfb0a28	-0.030644491
35	0xbc982c19	-0.018575715
36	0x3cb29090	0.021797448
37	0x3e27e917	0.1639751
38	0x3cd20f08	0.025641933
39	0x3caa01f8	0.020752892
40	0xbc83f984	-0.01611019
41	0xbdfb9f8f	-0.12286293
42	0x3d96bf57	0.07360714
43	0x3d62b57b	0.055348855
44	0x3d491ca1	0.04909957
45	0x3da2b4cf	0.07944643
46	0xbdacce0f	-0.0843774
47	0x3b8eaf6a	0.004354407
48	0xbd00ebb8	-0.0314748
49	0xbe31f081	-0.17376901
