STPINN-NS/sub_data/sub_write/27NS_model_train.pt (torch, 100091 bytes, 22 tensors)

base.0linear.weight f4 [50, 3]
00000000: 3514 af39 a5d8 0739 2052 6239 ae53 97be
00000010: 795a d0bc af18 053e 99b1 333d a40e 523e
00000020: 8020 2ebe 1e38 c03c 183d bfbd c899 8cbe
00000030: d4ca 13be 150b 0d3e 1b5a 84bd a400 cb3d
00000040: 1b35 47be aa6c 91be 8329 bebd a75c eb3e
00000050: b1cc 5bbe c027 ae3d fc84 b93e af19 78be
00000060: fd21 fe3b 3d44 7fbd 48eb b83e ff8d 00bf
00000070: 9540 b73e 2915 793e c97b f0be 0ffd 01be
00000080: 66bf 4f3d d3cc ffbe c482 593e b10c d1bd
00000090: fe60 0abe 5d39 bfbd 75e6 dabd 95c7 c73d
000000a0: 5fd4 823e 9450 9bbc a52f 94bc f568 403e
000000b0: 50bb 14bf 1f96 e93c 9424 723e 351f 9fbd
000000c0: 7986 dcbd c34a 873e 47d4 ad3d 31a8 6cbe
000000d0: bcf6 07bd 3257 393e bd84 3abd 8cda 503e
000000e0: 2bf8 473d 6e6d 0cbe 187a e5bd b0d2 843d
000000f0: 6557 2f3e ea80 5f3d 9009 cbbb 3e79 a13d
00000100: 827f 9a3d 0fe2 26be 8147 f93d 766b 8bbe
00000110: def3 4bbe af80 07bd 424e 183d 0a50 583e
00000120: 8be0 39be c3ef 97be a7b9 413e b259 c93c
00000130: ed69 f1bd 0923 2abe 26b1 2b3e b76b 113e
00000140: e2a6 d4be a423 503e fcf6 1e3e f13a 99bd
00000150: 65d3 54be b668 f63c 60fd 223e 2fb5 a1bd
00000160: ee46 40bc 04ac 14be fbf7 01bc 0829 2f3e
00000170: 7a7e 0d3e 18da 803d 4658 b03e 30d9 91be
00000180: f29b debd 71bc 8bbe a4d9 553d f6c9 4b3e
00000190: f0ee bd3d 74d9 3fbd 581b a13e c808 7fbe
000001a0: 4bb6 6dbe bdd6 f6b9 d0c5 33b9 c951 8cb9
000001b0: 7ea4 093e aeb9 98bd 2823 eebe b8ad 0eb9
000001c0: a37b 8b39 612e aa39 dc2e a0bd 97c3 f7bd
000001d0: ed8c ccbd 5ba5 f43d 3a00 9b3d eaf9 57be
000001e0: 0e51 663e a8c9 90be b427 b5be 5bca c33b
000001f0: ab46 5cbd 227b 3ebe 3c1d 123d 5c12 693d
00000200: 0b9e 36be 42a4 46ba baf4 61b6 907a 3c39
00000210: fee5 26be e9e3 04be c522 09be e69e 223e
00000220: aa38 72be 0ba1 cb3c 1abc bc3c 928b b23e
00000230: 3800 f53d 0d47 29ba 99e6 94b9 bbb8 8eb9
00000240: 780a 6a3c c7d3 d4be c70b 233e a9b0 f7bd
00000250: 01e1 c3be b66b 2d3e
0.00033393656 0.0001295531 0.00021583633 -0.2955603 -0.025433766 0.12997697 0.043870542 0.20513397
-0.17004585 0.023464259 -0.093378246 -0.27461076 -0.14432842 0.13773759 -0.06462499 0.099122316
-0.19453852 -0.28403217 -0.092852615 0.45969126 -0.21464802 0.085036755 0.36234272 -0.24228548
0.0077555166 -0.062320936 0.36117005 -0.5021667 0.3579146 0.24324478 -0.4696944 -0.1269419
0.05071964 -0.49960956 0.2124129 -0.10207499 -0.13513562 -0.09337113 -0.106884874 0.09754864
0.2555265 -0.018959321 -0.018089125 0.18790038 -0.58098316 0.028513966 0.23646766 -0.07769624
-0.10767836 0.26424226 0.08487754 -0.23111035 -0.03319429 0.18099669 -0.045536745 0.20395869
0.048820656 -0.13713619 -0.11204928 0.06485498 0.17123182 0.0545663 -0.0061962083 0.07884453
0.075438514 -0.16297172 0.121718414 -0.27230424 -0.19917247 -0.033081707 0.037184007 0.21124282
-0.18152063 -0.2967511 0.18918477 0.024578903 -0.11787782 -0.16614927 0.16766796 0.14201246
-0.4153357 0.20326096 0.15523905 -0.07481945 -0.20783766 0.030079227 0.15916967 -0.07895886
-0.011735661 -0.14518744 -0.007932658 0.17105496 0.13817778 0.06291598 0.34442347 -0.28486013
-0.10869588 -0.27292207 0.05220951 0.1990126 0.09274089 -0.04683824 0.31466174 -0.24905694
-0.2321407 -0.0004708077 -0.00017144461 -0.00026763816 0.13441655 -0.074572906 -0.46511197 -0.0001360689
0.00026604263 0.00032459482 -0.07821438 -0.12097853 -0.09987817 0.119456016 0.075684026 -0.21091428
0.22491857 -0.28278852 -0.35381854 0.0059750504 -0.05377833 -0.18601659 0.03567241 0.056902274
-0.17833726 -0.0007577577 -3.3670062e-06 0.00017974735 -0.16298673 -0.12977566 -0.1339217 0.15880927
-0.23654428 0.024857065 0.023038913 0.3487211 0.11962932 -0.0006457426 -0.00028400568 -0.00027221986
0.0142847225 -0.41567823 0.15922461 -0.12094242 -0.38257602 0.1693562

base.0linear.bias f4 [50]
00000000: 3d0c 77b9 7f16 11bd 4d00 943d f21d d43d
00000010: 5346 a73d 7ffc 473d 5834 b73d 6d92 053d
00000020: 0fb5 5fbe 979e 0a3d d0c8 4cbd 4d5e 50be
00000030: 780e d63d e248 6fbd 3570 d3bd 557f 0c3d
00000040: 0cc4 d1bc 0116 c7bd 79cd 3fbd 3823 bcbb
00000050: 3850 40bd 8565 bd3c 27cb 103e 30b6 b0bd
00000060: b1cb 91bd 82f7 db3d c510 af3d 9fbe dabd
00000070: 4b70 6ebd 462d eb3d e7e6 c3bd 9d32 e23d
00000080: 81a3 34bc b9c8 e1bd dbfe 343d 6ea4 1139
00000090: 9a27 a23b 3e2d 9538 eec2 dd3d 6195 903d
000000a0: a6ac 04bd 9460 053e 6b7c af3d 0929 b438
000000b0: b87c 1d3e ab4b b33b 7f63 25be 5287 0539
000000c0: db62 c3bd 4c85 f2bc
-0.00023560315 -0.035421845 0.0722662 0.10357274 0.0816771 0.048824783 0.08945531 0.032610346
-0.21846412 0.03384265 -0.049996197 -0.20348473 0.104519784 -0.058419116 -0.10324136 0.03430112
-0.025606178 -0.09720994 -0.046826813 -0.005741503 -0.046951503 0.023119697 0.14139996 -0.086284995
-0.07118929 0.10740568 0.085481204 -0.10680889 -0.05821256 0.114832446 -0.095655255 0.1104481
-0.0110253105 -0.11024613 0.04418836 0.00013889532 0.0049485685 7.113301e-05 0.108281955 0.07059742
-0.032391213 0.13025123 0.08568653 8.590712e-05 0.15379608 0.005471667 -0.16151236 0.00012734279
-0.095403396 -0.029604577

base.1linear.weight f4 [50, 50]
00000000: 17cf 093d 97ba 8ebd 49e1 a63d 89e5 98bd
00000010: 8b5c 653e 1aa1 423d 890c e13d a56c 5b3d
00000020: c45d 12be ec2b 0a3d f173 4abd f851 35bb
00000030: 341f 35be 9232 9f3c 84ba 83bd 95d5 4cbe
00000040: e1f8 b73d 51a5 0b3e f318 66bc 9217 a53d
00000050: f951 313d cd3e 34bd a447 b2bd 98ac 0dbe
00000060: 1219 a0bb 7437 4f3a 8dbf 88be 10fa 913b
00000070: 3335 5dbe 6871 efbd a2a0 76bc b93f 28bd
00000080: 05f6 4f3e 24f5 403c 7afd e43c 68f7 fd3e
00000090: f7b2 163e 6e83 7fbe d383 2dbe 6245 e0bc
000000a0: d269 d93d 12df 9bbd 16bd 6d3e 59e9 533d
000000b0: 9b37 a9bd c7f8 2ebe 4ac3 103b 33a4 66bc
000000c0: 0a4c a63d 3b92 aa3c 4f05 993d 2e27 15be
000000d0: c850 6cbc 3e1f 103e fa18 733c 3b4f 5a3e
000000e0: 46fa ee3b 604c 083d b001 b93e 85e3 973d
000000f0: 875c ae3c 16a6 133d 550b debd 28fd 9ebe
00000100: 93c1 20be fec4 f9bd 9233 8ebd 9a9b 6f3d
00000110: 3358 a73d 6d6a d5bd 9716 543e 7c42 93bb
00000120: 1499 7f3d 272d fcbd 10df 813c 0004 e63b
00000130: 1af7 0dbe 7e27 83be 12b7 6d3e c58f 87bd
00000140: 0ee1 4bbe 42f1 40be 5946 00be 4351 e93d
00000150: 5625 89be 524d 41be 2fb9 8fbd 60c2 953d
00000160: b051 89be ea43 edbe 711c 4b3d df27 203e
00000170: bfbe afbd 0eac e2bc 889c 533e 9b4a 9ebc
00000180: 0daa 01bf 3fca 9b3d 5924 c0ba 4aab 383e
00000190: a6fc 6abe b536 22bd 3bd8 953e eef5 a5be
000001a0: a9d4 76bc dd41 0dbe 39ff 493e fb06 fe3c
000001b0: e7f9 e93c 0451 1cbe ebc6 41bd 9234 a7bc
000001c0: 248b 05bd 3ede b5bd bb2e 403d 012b eebd
000001d0: 103a 28bd 2f51 643d 0530 d1bd 4a1a 863e
000001e0: 8306 6e3b c6fa 5cbe 5a4f 2c3e 98af 52be
000001f0: 0b30 b6bd 8158 20bc 96db 06be b320 c83d
00000200: eda4 4c3e fdb5 28be ee05 5abd 69ae e73d
00000210: 4abb cb3d 31a1 80be 80cf 623d 0362 0c3e
00000220: 2e00 98bd 91b6 80be 3354 743e 42ed 6ebe
00000230: 6725 393e fc4a 103e ea5d 993d 5331 863e
00000240: 5dd2 83be ee6a d8bd e34f ba3c b793 18be
00000250: 83e9 4ebe d6ac 0b3e 5b54 91bd 989e cdbd
00000260: f801 6e3e 5e66 123e 06c7 36bc 47dc 59bb
00000270: b8c7 ebbd cb97 4f3e 7f3d d93d 46ab f83d
00000280: c3aa 8dbe 5557 733e 5e37 a63c 21c0 003c
00000290: 21f3 223e ab79 0f3e c030 c93d 2281 d23d
000002a0: cba1 443e 2690 0bbe 90bd 6fbd 3078 3cbe
000002b0: 8759 bd3b 4bbf 1a3d 1096 ccbd 6cdd 34be
000002c0: 95ad 493b ab61 28bd 9cb9 883d f8ed 2bbe
000002d0: 3f8d 073e 1824 8d3d c39c c0be e628 a4bd
000002e0: 0a9a 98bd bebf 8ebc ef90 96be bdcc 9fbd
000002f0: 4635 97bb 0c7c acbd 9b40 03be 9284 5fbe
00000300: 3541 b9bd 5653 a2bd 0666 6cbe 8609 0a3e
00000310: e171 453e c1f1 8c3c 8f31 0c3e 2d32 36be
00000320: b0ea fc3c efb7 853e dbb6 63be 1e5f 1a3d
00000330: 5270 b93d f4b3 0c3e 32cb 96be 0a78 9fbc
00000340: 85b4 0c3e 2936 36be 5fae a9bd d9e2 043d
00000350: 20ab 2d3e 2e8d 0bbe b011 3dbd 762f 053e
00000360: 7976 22be 18a4 2bbe 54cf eabd e10a 9d3d
00000370: 8c97 16be 1f1c b1be 6c93 2b3e b8a9 6b3d
00000380: 3a56 783e 7ea2 28bd 919d 193d fd77 e7bd
00000390: 9d6a a6bc 5c05 6bbe f112 88be 4f9e bfbd
000003a0: a856 f13d e490 56bd b710 02be 2485 54be
000003b0: 1757 a73d cd90 9dbd e8bb f93d 1cc1 bb3c
000003c0: 951c 353e 8a26 be3b 10a2 0fbe 4562 053d
000003d0: 2d2b e03d bad5 e73b 703e 8cbe 90a8 43bd
000003e0: a082 e63c b677 153e 6ab1 a0bd 0668 a13e
000003f0: 9a2e 3e3e 1f15 bf3c edef 393e 0676 383f
0.033644762 -0.06969183 0.081484385 -0.07465655 0.22398584 0.04751692 0.10988719 0.05357041
-0.14293581 0.033733293 -0.049426977 -0.0027667265 -0.17687684 0.019433293 -0.064320594 -0.2000335
0.08983017 0.13637282 -0.014044034 0.08061136 0.043291066 -0.044005204 -0.087050706 -0.1383537
-0.004885801 0.00079046865 -0.26708642 0.0044548586 -0.21602325 -0.116915524 -0.015052946 -0.041076396
0.20308693 0.011777196 0.027952898 0.49602818 0.14716707 -0.2495248 -0.16944818 -0.027376834
0.10615887 -0.07610907 0.23216662 0.05173621 -0.08262559 -0.17087089 0.0022089058 -0.014077234
0.08119972 0.020821681 0.07471716 -0.14565727 -0.014423557 0.14074418 0.014837498 0.21319287
0.0072930185 0.033275962 0.361341 0.07416443 0.021284355 0.036047064 -0.10842005 -0.31052518
-0.15698843 -0.121957764 -0.0694343 0.058498003 0.081711195 -0.1042069 0.20711742 -0.0044940095
0.062401846 -0.123132996 0.015853435 0.00701952 -0.13863793 -0.25616068 0.23214367 -0.06619219
-0.1991007 -0.18842033 -0.12526836 0.113924526 -0.26786298 -0.18877152 -0.07017743 0.07312465
-0.26820135 -0.46340877 0.04958767 0.1564021 -0.08581304 -0.027669933 0.2066518 -0.019322684
-0.506501 0.07606935 -0.001465927 0.18034092 -0.2294794 -0.039602954 0.29266533 -0.32414192
-0.015065351 -0.13794656 0.19726266 0.031009188 0.028561546 -0.1526528 -0.047308844 -0.02041081
-0.032603398 -0.0888028 0.046919566 -0.11629296 -0.041070998 0.055741485 -0.10214237 0.26191932
0.00363198 -0.21580037 0.16827145 -0.20574796 -0.08895882 -0.009786726 -0.13169703 0.09771862
0.19984789 -0.16475673 -0.05322831 0.11312563 0.09947832 -0.2512298 0.05537367 0.13709264
-0.07421909 -0.25139287 0.23860244 -0.23332694 0.18080674 0.14091104 0.07488616 0.26209506
-0.25746432 -0.1056727 0.022743171 -0.14900099 -0.20206265 0.1364015 -0.07096168 -0.10040015
0.23242939 0.14296862 -0.011155849 -0.0033242868 -0.11512703 0.20272748 0.106074326 0.12142043
-0.27669343 0.23763783 0.020290073 0.007858307 0.15913059 0.14011256 0.098237514 0.102785364
0.19202344 -0.13629207 -0.05853039 -0.18405223 0.0057784948 0.037780087 -0.0998956 -0.1766259
0.003077363 -0.04110877 0.06676027 -0.16789997 0.13237475 0.0689165 -0.376196 -0.08015613
-0.074512556 -0.017425414 -0.2940745 -0.078027226 -0.004614505 -0.084220976 -0.12817614 -0.21827915
-0.090456404 -0.07926051 -0.23085794 0.13480195 0.19281723 0.017205121 0.1369078 -0.17792578
0.030873626 0.26116893 -0.22237723 0.037688367 0.090546265 0.13740522 -0.294519 -0.019466419
0.13740738 -0.17794098 -0.08285212 0.0324429 0.1695981 -0.13628075 -0.046159446 0.13006386
-0.15865506 -0.16761816 -0.11465326 0.076680906 -0.14706248 -0.34591767 0.16755456 0.057534903
0.24251643 -0.04117059 0.037503783 -0.11302183 -0.020314509 -0.22951263 -0.2657695 -0.09356367
0.117841065 -0.052384272 -0.12701689 -0.20753914 0.08170908 -0.07693634 0.121940434 0.02291923
0.17686684 0.005802934 -0.14026666 0.03256442 0.10945735 0.0070750387 -0.27391386 -0.047768176
0.028138459 0.14596447 -0.07846339 0.31524676 0.18572465 0.023325501 0.1815793 0.7205509

base.1linear.bias f4 [50]
00000000: 401f 0f3d 4da2 033d a912 a7bc e017 92bd
00000010: 6655 21bd f483 11be 9513 6cbd 4b8d 44bd
00000020: db34 e83d 5559 c5bc 599a c7bd 01e6 dfbc
00000030: c60c 5b3c 215f 883a 836c f7bc 4daf 88bc
00000040: 318d 19be b5cf 2fbd 9e2d 8abd 815b 14bd
00000050: 2726 f03d 4ed1 273d c911 453d 44c5 ddbc
00000060: ca3c 9cbd db57 9d3c 5b01 983d f72a 9e3d
00000070: befc fb3d f0f8 e33d 720d 0cbe e5fd c33d
00000080: 4961 a4bb be97 8d3b 8a50 343d 5877 68bd
00000090: 7bd4 2abd ae09 c4bb d7ac ae3c 9d88 06be
000000a0: aecb 73bd 37ba 00bb ae7c 1f3a 6a37 ca3c
000000b0: d630 183d dc1d ddbd 7d8e 903c 2587 6c3d
000000c0: 3646 5fbd b6f2 3cbe
0.03494191 0.032137204 -0.02039464 -0.0713346 -0.039388083 -0.14210492 -0.057635862 -0.04798631
0.113382064 -0.024090448 -0.09746236 -0.027331354 0.013369745 0.0010404327 -0.03020311 -0.016685152
-0.14995266 -0.042922694 -0.06746982 -0.036220077 0.11726027 0.040971093 0.048112664 -0.027071603
-0.07628782 0.019206932 0.074221335 0.07723039 0.12304066 0.111314654 -0.13677004 0.09569911
-0.00501648 0.0043210676 0.04402212 -0.05675444 -0.041706543 -0.005982599 0.02132265 -0.13138051
-0.059520416 -0.0019642243 0.00060839474 0.024684627 0.03715595 -0.10796711 0.017646069 0.05774607
-0.054510318 -0.18451962

base.2linear.weight f4 [50, 50]
00000000: b4cf b53d 8aab ae3d 2f82 9ebd 9592 38be
00000010: c6a8 303e 7056 e239 91e8 283d 0205 5f3c
00000020: 9253 653e 736a 4c3d 7c9d ca3b 8245 3d3d
00000030: 0c0c 8ebc 6e7d 4f3e ebe1 5f3e 9454 03be
00000040: ffd5 acbd 94d4 22be 2bf5 dabe 8712 633c
00000050: d7ec a43e 69fd e4bc 6364 8f3e cc0f f3bb
00000060: 3941 e3bd 8622 75bc 4d4b 0e3e 8861 183e
00000070: f501 2a3d e000 57bc a43a cabd 1b95 2cbe
00000080: c3f8 15be e179 803d 6493 7c3e 359c 8b3c
00000090: 2004 88bd 1bae 90bd b20b f53c 48ca 90be
000000a0: 7b58 94be 7ccf cb3c 73f5 b5bd 3abc 4f3c
000000b0: a1fb 293e bce4 01be f0b7 9d3e e7b0 4cbd
000000c0: 6a35 973e 0076 54bd c6f5 8c3c ab64 efbd
000000d0: c138 b8bc 937d d5bd fcd8 373d 36d7 ddbd
000000e0: 883d 37be cb8a 9ebc 0ee4 2c3e 63ea 883c
000000f0: 85a5 48bd 9fd8 2dbe a911 20bb 4cc0 d6bd
00000100: 8963 06bd b22d 823d acaf bebe 2afb 073e
00000110: 70a2 28be 6316 293e 5b97 8e3e e721 05bd
00000120: 4a57 aebd 5e23 67bd 1556 b5bd a64c 65bc
00000130: 4f41 54be 5154 cc3d c8da 0abe 9833 11bd
00000140: aaa4 2e3e 8796 9a3d 9fb3 7b3e 1862 183d
00000150: 9faf 083c eac6 19be e58f 863d 06e5 a13d
00000160: 2311 26bc c7c8 d0bd 7ece 40bd c5aa 14bc
00000170: f783 a93d 0a99 9c3c 8e6a 25bc 8687 bbbe
00000180: c2b7 03be 1009 abbd 5f6b 833e 07ec 9b3d
00000190: fe2d c6bc 74f9 6fbe 4a57 c7bb cb96 abbd
000001a0: e6e8 583d c00a 093e c69b 693e c606 d23c
000001b0: 2b33 063e 1fc7 a2bc a66d 663e 4ab1 383d
000001c0: fb4b 16bc fa08 6abd 4b63 96be 317b a73d
000001d0: 1a3d 733d 56f2 4f3e 746b 92be 9a71 2a3f
000001e0: 70f9 46be f8e2 3bbc 03c7 913e 5392 52b9
000001f0: 6fa9 2abe af2b 81bc bc3f 52be 7522 80bd
00000200: cc8e 22bf fd9c f9bd c260 253e 87ae e9be
00000210: 650a abbd ecd3 1ebd 4b12 433e f3e5 be3d
00000220: 5f39 133d 4734 0e3d e9d1 0f3c 975f d1bd
00000230: d22b 913e a9cd 82bb da94 4dbe e51c 043c
00000240: 3f25 3e3e b28d de3c ddd7 17be b010 b3bb
00000250: 0b61 403e f7c1 9a3d d789 0bbd ec06 b5bd
00000260: ea7f 183c 79cf 39be e3f0 73bc 6b47 32bd
00000270: 36c0 f0bd 04e5 1f3d 0a0e a33d 4b25 df3c
00000280: d943 283e 65b3 26bc 4fe0 d7bc 5a4a f23d
00000290: a432 1a3d 0a48 493b 80a7 0fbf c62a 13be
000002a0: 9385 f93d 420d cebc 762d 5a3e 4fc2 983c
000002b0: ecef 89bc c444 1bbc 2531 893c d107 c83b
000002c0: de6b bc3e 89f3 3a3e 83dc acbc 508c eb3e
000002d0: 7c73 463e 6285 133e 0925 e8bd bd44 073d
000002e0: 7b05 263e 4a64 4dbe dcc2 62bc be61 67bd
000002f0: f395 f1bc 5245 8fbe a54c 2cbe 5fb7 ab3c
00000300: 3102 1b3d 3639 4bbc f742 c5bd c37c e9bc
00000310: c38b e83d b083 ce3e 3625 3c3d 397b 1bbf
00000320: decc 0c3e bb56 38bd 3918 7abc 654c b73d
00000330: 10fa a3be ed27 363d e0d2 2e3e 1569 a9bb
00000340: 5862 9ebd 7306 b2bc 0b54 afbe e18c 42bd
00000350: 32f7 5bbc e57b 2cbd d63c 3c3e cf82 3dbe
00000360: f318 87bd ba70 023e 5e03 f33d 6091 89bd
00000370: e8ef 30be d734 f1bc 9007 4ebe 67f0 a2bc
00000380: 8a3e 943c f55b 39bc 047f 03be f374 30be
00000390: 0795 4c3d 4960 2bbe bd63 af3d 4bf6 413e
000003a0: 32db f0bd fb5c 413d eccc 5ebe d6e7 f1bd
000003b0: 4be2 0cbe a1ec 003d 228c 0abd 4d35 05be
000003c0: e5d4 5dbd ac98 b03c 47cf 4e3c 374b 96bc
000003d0: 0ce2 873d 1a64 de3d 898b fa3d 22e3 bf3a
000003e0: c316 0d3e 1a92 133e e1c7 443d e16d 5ebe
000003f0: 259f febc 919d 8b3e c579 81bd dfc6 ee3c
0.08877507 0.08528812 -0.07739674 -0.18024667 0.17251882 0.0004317048 0.041237418 0.013612034
0.22395161 0.049906205 0.0061833244 0.046208866 -0.017339729 0.20262691 0.21863525 -0.12825233
-0.08439254 -0.15901405 -0.42765173 0.013859398 0.32211944 -0.027952867 0.28006276 -0.0074176546
-0.110964246 -0.014961844 0.13895912 0.14880955 0.041505773 -0.013122767 -0.09874466 -0.16853754
-0.14645676 0.062732466 0.246656 0.017042259 -0.06641412 -0.07064458 0.029912803 -0.28279328
-0.28973755 0.02487921 -0.08884706 0.012679154 0.16599895 -0.12684911 0.30804396 -0.049973395
0.2953294 -0.051870346 0.017207038 -0.11689123 -0.022488 -0.10424342 0.044884667 -0.10832064
-0.17894566 -0.019353291 0.16883871 0.016713327 -0.048985977 -0.16977166 -0.0024424589 -0.104858965
-0.032809768 0.06356372 -0.37243402 0.13279405 -0.16468215 0.16512446 0.2784985 -0.032503035
-0.08512743 -0.056430213 -0.088543095 -0.013995325 -0.20728038 0.099770196 -0.13560021 -0.035449594
0.17055002 0.07548242 0.24580239 0.037202924 0.008342653 -0.15017286 0.065704145 0.07905011
-0.010135922 -0.10194545 -0.047071926 -0.009073918 0.082771234 0.019115943 -0.010096205 -0.36626834
-0.12863067 -0.08351338 0.25667855 0.07613378 -0.024191853 -0.23435003 -0.0060834037 -0.08378371
0.052956484 0.13383007 0.22813329 0.025637995 0.13105457 -0.019870339 0.22502765 0.04509095
-0.009173389 -0.057137467 -0.2937263 0.08177794 0.059384443 0.20307288 -0.28597605 0.6657959
-0.1943109 -0.011467688 0.28472146 -0.0002008167 -0.16666196 -0.0157679 -0.20532125 -0.06256572
-0.6349914 -0.12188146 0.16150191 -0.45640966 -0.08351592 -0.038776323 0.19049947 0.09321203
0.035943385 0.034717824 0.008778074 -0.102233104 0.28353745 -0.0039918018 -0.20076314 0.00806353
0.18568896 0.027167175 -0.14828439 -0.005464636 0.18787019 0.07556527 -0.034067 -0.08839211
0.009307841 -0.18145551 -0.014888975 -0.04352514 -0.11755411 0.039036766 0.07961662 0.027239462
0.16432132 -0.010174607 -0.026352076 0.11830588 0.03764595 0.0030713105 -0.5611496 -0.14371786
0.121836804 -0.025152806 0.21306404 0.018647341 -0.016838036 -0.009476844 0.016747067 0.0061044474
0.36801046 0.18256964 -0.021101242 0.46005487 0.19379991 0.1440635 -0.11335189 0.03302454
0.16213028 -0.20057788 -0.013840403 -0.0564897 -0.029490447 -0.27982575 -0.16826113 0.020961462
0.037843887 -0.012403777 -0.09631913 -0.028501874 0.113547824 0.40334845 0.045933925 -0.607349
0.13750026 -0.045004588 -0.015264564 0.08950118 -0.3202672 0.04447167 0.1707263 -0.0051699975
-0.07733601 -0.02173159 -0.34243807 -0.047497634 -0.013425635 -0.042110343 0.18382582 -0.18506931
-0.065965556 0.12738314 0.118658766 -0.06717181 -0.17279017 -0.029444141 -0.20120072 -0.019890023
0.018096227 -0.011313428 -0.12841421 -0.17232113 0.04994681 -0.16735949 0.085639454 0.1894161
-0.11760558 0.047207814 -0.21757859 -0.11811797 -0.13758199 0.031475667 -0.033825047 -0.13008614
-0.05415811 0.021557175 0.012622661 -0.018346412 0.06634912 0.108589366 0.122336455 0.0014639834
0.13778214 0.14411202 0.048042182 -0.21721603 -0.031081745 0.2726865 -0.06322054 0.029147564

base.2linear.bias f4 [50]
00000000: 1c98 b23d e8f5 ae3d d1c0 c7bd c8c4 fd3d
00000010: 98ed 423c c689 bdbc 4ab5 b8bd 86d6 02be
00000020: 1cc2 003e c7aa 0abe 913b d4bc 5e69 813d
00000030: 3a16 16be 50b6 b3ba d1f6 5abc 9be9 64bd
00000040: 36c5 853d 9f03 b33d 8e24 323c 4b8b 943b
00000050: b827 24bd 1dd8 923d 7714 693d 9439 073e
00000060: 7647 903d fc9a f0bd 782c e4bd 9e48 0ebe
00000070: b7b2 e33c 6d15 bcbd 935c 22bb 8ffc 0f3c
00000080: 3aaf 813c fecb 0ebd 6f0a 883d 9b7d bebd
00000090: 02b4 ddbd 97fd 5e3d d58e 093d 9c34 0d3d
000000a0: c0e7 3c3c 4871 b8bc 6329 713b d387 dabd
000000b0: 30ed 703c 6c41 7abc 41c7 ddbd faa3 15bb
000000c0: 2826 fcbd 310a 303d
0.08720419 0.08542997 -0.09753574 0.12391049 0.011897467 -0.023136985 -0.09018953 -0.12777147
0.12574047 -0.13541709 -0.02590731 0.06318925 -0.14656916 -0.001371095 -0.01336451 -0.055886846
0.065317556 0.08740925 0.010872973 0.0045332066 -0.04007694 0.071701266 0.056904282 0.13205558
0.0704488 -0.11748311 -0.11141294 -0.13894889 0.027795179 -0.09183774 -0.0024774417 0.008788242
0.015830625 -0.03486251 0.06642615 -0.09301301 -0.108253494 0.05444106 0.03358348 0.034474
0.011529863 -0.022514954 0.003679835 -0.10670438 0.014704987 -0.015274387 -0.1082902 -0.0022833333
-0.12311965 0.04297847

base.3linear.weight f4 [50, 50]
00000000: 5855 323e 2255 d43d 8829 213e 2ac5 debd
00000010: 32d5 66be 6004 b5be bfba b1be af84 403e
00000020: 4742 e83c 9397 1b3e 09c9 fa3d 23d3 79be
00000030: 87c2 153e d25a 983d 5d17 72bd 6d97 573e
00000040: 0c36 5fbe edac 22be e8cd 63bd f782 bcbd
00000050: a7c4 1bbd 52f6 7ebe 2fee 533c 4d0a 1e3e
00000060: fffa 153e 7e57 dabd 71a2 c93e 94f1 eb3d
00000070: b855 e73d bb5b 41bc 7b8f 54be f795 3ebe
00000080: 194b 22be 0191 66be 52c3 773b a39b 27be
00000090: d99a bcbe 6e10 ac3d 4219 5bbb 89d5 20be
000000a0: 79fc 2e3d 34c4 6c3c 9443 8e3c 1a35 56bd
000000b0: a0fa 46be a2b0 64be 72e7 a7be 1527 05bd
000000c0: a15b b53d 52a0 903d 1082 6a3d 0898 133e
000000d0: 75e5 89be 3b60 0c3f d06f edbd 26e2 8bbd
000000e0: 4cea 84be 0570 88be 00bb 343d 22c1 adbd
000000f0: 8c5a e93d 8369 3d3c 733a f1bd 3ece 91bd
00000100: 22a6 64bd 97d5 1fbe 9228 93bd a139 363e
00000110: 7284 ca3d 12e5 11bc 4ab2 b5bd 2707 b03e
00000120: ddda 59bd e7cc 833e cf63 253e 259a 9e3d
00000130: 5e07 80be a8e3 84be a333 e33c 43c5 8abe
00000140: f708 383e d586 f8bd 3d75 4f3e 92e4 463e
00000150: d59d 91bd d202 14be 8b51 c5be dd1e 47bd
00000160: 9f56 053e 542a 6ebe 2cc1 c83d d6e9 e1bb
00000170: 1211 513c 0bd8 83be d833 78be 6d31 61be
00000180: 08a1 47be 57bd 7bbd 4541 c53d c3fb 043e
00000190: 41e3 a53d d959 5cbd f6a7 6abe e9b7 c4bd
000001a0: 440f 1a3d 03c7 063e fc75 c8be 33f2 2d3e
000001b0: c41e 783e e0e6 d8bd 8250 333d 17af 833e
000001c0: ef0b 3e3e 0c33 5e3d 1b51 81bd b300 4a3d
000001d0: 983e 29be 33d6 bbbd 209b 25bd 551c 0f3e
000001e0: c9a4 503b 24e5 77be fefa f3bd 602f 3d3c
000001f0: cc8e 4fbd b14f 30be 0187 393d bb87 683d
00000200: 2936 313e 1dfb b73c a014 923d 9cd7 333d
00000210: b1b8 e1bd 9c3b 523e 7884 89bc b3d6 90bd
00000220: 3fda 543b ac94 c6bd e36d 4bbc 1e92 823d
00000230: 844c a1be c3ed 913c 2e69 eb3d 09e0 8a3e
00000240: 40c6 033e 4854 263d 2b92 26bd bfef bb3d
00000250: 6f35 553e 1bd5 68bc d6a7 7d3e d996 c0bc
00000260: 0376 003e 3df5 fb3d 67c7 6dbe 9bd3 8cbd
00000270: f577 ae3e ebc6 e43d efc1 d73d 2f12 913d
00000280: fcb6 73be 6712 583e 6296 983e c584 773d
00000290: ccd7 933e 0765 50be b6d7 34bd d500 8dbd
000002a0: ce5e 453e 0b50 973d b0a9 1c3d 5493 203e
000002b0: 3385 783d 4987 103d 6d89 293d 203c d53d
000002c0: 81d1 0fbe 5cde 143e c174 adbc 9c48 7bbe
000002d0: 7812 d6bd f740 1a3a 5139 473d b036 43be
000002e0: 459a 42be 044c efbd e254 143d 0954 963c
000002f0: 2104 25bc 1c01 bebd d582 39bd b08d 6a3b
00000300: b322 a73d 14ae 54be 207b 243e c847 46bc
00000310: 361e d63d c573 d43d 54e0 f7bd f0af 1d3e
00000320: 1746 96bd 66fe b53e bec1 713e 6301 36be
00000330: b949 01bf 74e7 c03d 8877 9abe 07cb 83be
00000340: 00d2 593e d5c3 a33e 8eb6 533e 85e2 90be
00000350: 1d0e 933c 9a20 2abe 3342 0ebc e225 13bc
00000360: 886a 9bbe 6331 a4bd 6eaf ffbd 7374 b03d
00000370: 837e 313e 4532 293e 1c8e e6bc ef8e 293e
00000380: f07f 4a3e 3ad2 f83d 6f57 dbbc a63b d5be
00000390: 3d1d a93e 8020 203e 41ff 9fbd 331e cf3d
000003a0: 4219 25bd b24c 58be aac5 3d3e 1890 f3be
000003b0: 4435 babd 5e8e 153d cb85 a63b 8229 c63d
000003c0: 3bda 373d 71e4 e838 a20b 2fbd 973d 333c
000003d0: 3e81 ffbd 2037 2c3e d43b d0be 7950 d5bc
000003e0: 636f e43d 367f 28bd 7c3a 3bbe 0e99 5f3e
000003f0: 451b 04be 93f8 723c e33d 31be 7721 a9bd
0.17415369 0.103678 0.15738499 -0.1087745 -0.22542265 -0.353549 -0.34712788 0.18800615
0.028351916 0.1519454 0.12245376 -0.24396949 0.14624988 0.074391976 -0.059104312 0.21053858
-0.21797961 -0.15886278 -0.05561629 -0.09204667 -0.03802934 -0.24898651 0.012935205 0.15433617
0.14646529 -0.10661219 0.39381745 0.11520687 0.112956464 -0.011801655 -0.20757858 -0.18611895
-0.1584896 -0.22516252 0.003780563 -0.16367964 -0.3683689 0.08401571 -0.0033431803 -0.15706457
0.042721245 0.014451075 0.017366208 -0.052296735 -0.19431543 -0.22333005 -0.32793766 -0.032507975
0.088553675 0.07061829 0.057252944 0.14413464 -0.26932874 0.54834336 -0.11593592 -0.06830244
-0.25960004 -0.26647964 0.04412365 -0.08484103 0.113942236 0.0115608005 -0.117787264 -0.07119416
-0.0558225 -0.15608822 -0.071854725 0.17795421 0.09888543 -0.008904712 -0.088718966 0.34380457
-0.05318724 0.25742266 0.16151355 0.077442445 -0.2500562 -0.25954938 0.027734583 -0.27103624
0.1797217 -0.12135092 0.20259567 0.1942313 -0.07110182 -0.14454201 -0.38538775 -0.048613418
0.13021325 -0.23258334 0.098024696 -0.0068943305 0.012760418 -0.25750765 -0.24238527 -0.2199151
-0.19495022 -0.061459865 0.0963159 0.12986664 0.08099986 -0.053796623 -0.22915635 -0.096053906
0.037612215 0.13161854 -0.39152515 0.16986923 0.24230486 -0.10590911 0.04377795 0.2571952
0.1855924 0.0542479 -0.06314298 0.049317073 -0.16527784 -0.09171715 -0.04043114 0.13975652
0.00318365 -0.24208504 -0.11913107 0.01154694 -0.05067329 -0.172179 0.045294765 0.056770068
0.17305817 0.022458607 0.0713284 0.043906793 -0.11021555 0.20530552 -0.016786799 -0.070722006
0.0032478718 -0.09696326 -0.012416336 0.06375526 -0.3150369 0.017813569 0.11494671 0.2712405
0.12868595 0.04060772 -0.04066674 0.09176587 0.20821165 -0.014210965 0.24771056 -0.02350943
0.12545018 0.12302635 -0.23220597 -0.06876298 0.34075895 0.11170753 0.10535037 0.07083546
-0.23800272 0.2110077 0.29802233 0.060429353 0.28875577 -0.20351039 -0.04415103 -0.06884924
0.19274446 0.07388314 0.038247764 0.15681201 0.060673904 0.035285268 0.041390825 0.104118586
-0.14044763 0.14537948 -0.021173837 -0.24539417 -0.104527414 0.00058843143 0.048638646 -0.1906383
-0.19004162 -0.11684421 0.036213763 0.018350618 -0.010071785 -0.09277555 -0.045290787 0.0035790019
0.08160915 -0.2076953 0.16062593 -0.012102075 0.10454981 0.10373644 -0.12103334 0.15399146
-0.07337587 0.35545653 0.23609063 -0.17773966 -0.50503117 0.09419146 -0.3016932 -0.25740835
0.21271515 0.31985345 0.20675108 -0.2829782 0.017951066 -0.16613999 -0.008682775 -0.0089812
-0.30354714 -0.08017232 -0.124846324 0.08615961 0.17333417 0.16523083 -0.028143935 0.16558431
0.19775367 0.121494725 -0.02677509 -0.4164707 0.3303012 0.15637398 -0.07812358 0.10113182
-0.04030729 -0.21123007 0.18532434 -0.47570872 -0.09092191 0.036512725 0.0050818673 0.09675886
0.044885855 0.000111051726 -0.042735703 0.010939977 -0.12475823 0.16817904 -0.40670645 -0.026039349
0.11154058 -0.041136943 -0.18284029 0.2183573 -0.12901028 0.0148297725 -0.17308764 -0.08258336

base.3linear.bias f4 [50]
00000000: d403 393b 94cb 0d3e 891d acbc c097 6c3c
00000010: b4ff 8dbd c883 573c 8dba 94bd e9d6 073c
00000020: 2be0 733d 2a46 703d 7ead c6ba 0e4a ed3d
00000030: f9f0 6cbd 0bad 143c f111 82bd 1ba6 c33d
00000040: 2418 83bd 33b6 893d c79c 7ebd 05d4 a83d
00000050: f97e 87bd 2e01 14bd 5695 003c aa60 6ebc
00000060: edb7 52bd 11ed 3bbe 3238 c0bd 933d 30bd
00000070: 43e4 f9bb 73bb 303b 9393 07bd 94f0 0a3d
00000080: 1b6f a33d 8a8b 50bc c9cd 833c 4043 cb3c
00000090: 834c 5c3d 2cf4 fdbc 8c84 d53d 03ee 113d
000000a0: d1f6 c5bd 4234 debd 55a5 b93d 080c a4bd
000000b0: 65d1 85bd 034c 0b3c b29e debb 496b 7c3b
000000c0: 3c0e 2dbe 4ab3 01be
0.0028231042 0.1384719 -0.021010177 0.014440477 -0.06933537 0.013153978 -0.07262144 0.008290985
0.059539955 0.058660664 -0.0015157906 0.115863904 -0.057846997 0.00907446 -0.06351078 0.095531665
-0.06401089 0.06724205 -0.062161233 0.082435645 -0.06616015 -0.036133938 0.007848104 -0.014549414
-0.051444937 -0.18352152 -0.093857184 -0.04302747 -0.007626088 0.0026967197 -0.033099722 0.03392084
0.07980176 -0.012728581 0.016089337 0.02481234 0.053783905 -0.03100022 0.10425672 0.035627376
-0.09666217 -0.10849811 0.09064738 -0.08010107 -0.065340795 0.008502009 -0.0067938203 0.0038516095
-0.16899961 -0.1266605

base.4linear.weight f4 [50, 50]
00000000: bdaa 663e d10a 1c3e 0665 b83d 1bf9 57bd
00000010: 3c92 a2bb 7eab 283e e4ab ba3c ad30 b43d
00000020: 3dd7 633d 0c07 2dbd a636 05be 31f8 2dbd
00000030: b772 b7bc 1185 203e fcff 253d 5ed5 0b3e
00000040: 5d0d 8fbd 27d5 7abe 0e3e 0bbe 59bb 823d
00000050: 7a12 82be 450a 24bc 22f6 a3be d30b cbbc
00000060: 65ea 263d b59c 0bbe 212c a83d a092 83be
00000070: f9c1 85bd a661 c93c b4e4 17be 5fed 35be
00000080: 9eed 7c3e 5b1a 813d fbab f6be a13b 83bd
00000090: 7565 013d cd2f 0c3e a1df 8c3d 2ab6 b9bd
000000a0: 088c 2abe 6c2c 8b3c 6351 5ebd 99fb ebbc
000000b0: f1a1 bc3d 62ce d33c dff1 203e 0aa5 6c3e
000000c0: 3a4c 74be 1868 933d 8014 a53e c033 b8bd
000000d0: 16a6 dfba 532e 93bb 844c d93e d9e0 aabd
000000e0: 2ea4 153e 2ee0 cfbc b06b 993c 28f6 1ebe
000000f0: b1cb 8e3e 2916 4e3e 2e50 46bd f80d e6bd
00000100: 6e98 793e 4332 80be f257 acbe 7a99 8bbe
00000110: 03b7 c6bd 6bb9 85be fcff 9b3e 8aad 293e
00000120: 819c 92be f4df 66bc 1a6c 833e 0c22 52bd
00000130: 419f 65bb f640 41be b3f0 2a3e fd98 c13d
00000140: 3152 70bd 31f4 56bd f039 703d f599 8b3d
00000150: afd8 813e 0fa6 81be d770 3ebd 0236 03bd
00000160: 99f4 4a3e fa77 67bc ae08 efbd 0eac bd3e
00000170: ff38 c23d 6688 c73e ff55 be3d 4eac ebbd
00000180: f499 e4bd 39a3 3dbe d3e7 e0bd 5a7d 24be
00000190: 86c8 003c 1e64 2e3e e311 fa3d 66c3 573e
000001a0: a3f5 d3bd 7aa2 9cbd 413d 97be e358 24bd
000001b0: f908 81bd 97bf 28bc 0ce1 2e3e 2dc7 f03c
000001c0: faf7 1fbc e4a2 fcbc 0562 c33d 03e9 a43e
000001d0: 5b84 b63d 4f2a a63d a715 163c 772c 673e
000001e0: e3b8 bbbc d65d 503d 7af1 613e ca92 673c
000001f0: 0b78 35bd 69d9 24be 509e 553e 31b8 dd3d
00000200: b9a9 ecbd 2084 d13c cd3b 003d 63e4 4fbc
00000210: 85ba dc3d 2da6 b6bd 2c96 6c3b 7f20 86bd
00000220: cf06 533e 3f03 52be d21e 61bd 2655 363d
00000230: a836 42bc 502c 1cbd 537c 343e b722 36be
00000240: a794 ecbd 43b6 bfbd ba89 a5bd 533d b9be
00000250: 7998 c33d 9619 9cbe 527d 85bd b098 53be
00000260: bc7d a0bd 433e 1e3e aca4 f53d d4e4 39bd
00000270: 0e27 04be 6eb5 9ebd 02d7 ac3d 09ad 1c3d
00000280: 552b 3e3e 035c 15be 1de2 df3d 1095 7c3e
00000290: 8787 1fbe 4c95 76bd c265 7a3d e014 bd3e
000002a0: c3af 77bd 9196 3dbe 0783 0f3e 32d6 813d
000002b0: c0d1 ab3e 8adb 81bc a362 e7bd c023 f63e
000002c0: b13e 8a3e 6bd3 953e e670 20bd 5a8b 51be
000002d0: b1e0 453e 1ed0 083d 7e89 09be 2778 a03d
000002e0: a21e 423e a2a3 bebc a86a abbd 511f 87be
000002f0: 17ea 9bbd 9764 7d3e 10eb 4f3e 1781 43bd
00000300: 0868 f53d 5bda ac3e 7f8a 79be fe17 993d
00000310: 8ceb 5d3c e883 28be 72d9 233e bb0c 8d3e
00000320: 6b6e e3bd 3770 14be f91f 71bd 7797 91bd
00000330: 7c6d fbbd 7952 9cbd d361 0f3e e1f7 3fbe
00000340: 95ce a33d 779a 5c3d d8fd 42bc 8dfe 5ebe
00000350: bc8f 3fbb b260 36be d1e3 5fbe 76d2 7ebe
00000360: a23e acbe 5d27 4a3d 8e81 84bd 39c4 853d
00000370: 1760 4ebe 7462 dbbd c8db d33c 4b23 8c3c
00000380: c253 3b3e 4d87 d33c 4373 1abe dfee 2c3e
00000390: 588d 8e3d d11e 123e f84d 433e 11d0 2fbd
000003a0: 2f2a b63e b9be f63d 5770 d8bc 257b e5bd
000003b0: dcbf 4dbe 309a abbc f21d 5a3e ef57 29be
000003c0: 90c4 e63d 7aee 99ba 3ec1 b4bc 8c32 41bd
000003d0: 7479 00be 1ad5 943b 4f00 52bc f1c8 22bd
000003e0: 2898 92be aa9d 423d 75ca 863e 254a 65be
000003f0: bb58 103e 607e 9c3d 0d62 4ebd 2d87 54bd
0.22526069 0.15238501 0.09003644 -0.0527278 -0.00496128 0.16471669 0.022787042 0.08798347
0.05562519 -0.04224305 -0.13009128 -0.042473022 -0.022393567 0.15675761 0.04052733 0.13655612
-0.06984971 -0.24495374 -0.1359789 0.0638339 -0.25404721 -0.010012214 -0.32023722 -0.024785912
0.04075088 -0.13633998 0.08211542 -0.25697803 -0.06531138 0.024582695 -0.14833337 -0.17766331
0.24700019 0.06303855 -0.48178086 -0.06407858 0.031590898 0.1369011 0.06878591 -0.09067948
-0.1665498 0.016988955 -0.054276835 -0.028806495 0.09210575 0.025855247 0.15717266 0.23109832
-0.23857203 0.07197589 0.32242203 -0.089942455 -0.0017063047 -0.0044916063 0.4244119 -0.083436675
0.14613411 -0.025375452 0.018728107 -0.15523589 0.2788978 0.20125641 -0.04841631 -0.11233133
0.24374554 -0.25038347 -0.33660847 -0.2726553 -0.097028755 -0.26118025 0.30468738 0.16570106
-0.28635028 -0.0140914805 0.25668412 -0.051302 -0.003503755 -0.18872437 0.16693382 0.09453008
-0.058672134 -0.052478973 0.058649004 0.06816474 0.2536063 -0.25322005 -0.04649433 -0.032033928
0.19819869 -0.014127726 -0.116715774 0.3704533 0.094835274 0.3897125 0.09293746 -0.11507474
-0.11162177 -0.18519296 -0.10981717 -0.16063443 0.0078603085 0.17030379 0.12210443 0.21070632
-0.10349586 -0.076481774 -0.2953892 -0.04012383 -0.063005395 -0.010299585 0.17078036 0.02939185
-0.009763712 -0.030839391 0.0954018 0.32209024 0.089119636 0.081135385 0.009160436 0.22575556
-0.02291531 0.05087074 0.22064772 0.014134118 -0.044303935 -0.1609856 0.20861173 0.10826147
-0.115558095 0.025575697 0.03130703 -0.012688729 0.10777763 -0.08918414 0.0036100252 -0.06549167
0.20608066 -0.20509051 -0.054961033 0.044514798 -0.011853851 -0.038128197 0.17625551 -0.1778668
-0.11551791 -0.093609355 -0.0808291 -0.361796 0.09550566 -0.3048827 -0.065180436 -0.20663714
-0.07836482 0.15453438 0.11994299 -0.045384243 -0.12905523 -0.07749449 0.08439447 0.038250957
0.18571217 -0.14585881 0.109317996 0.24666238 -0.15579043 -0.060200974 0.0611322 0.3692999
-0.060470354 -0.18514468 0.14014827 0.06339683 0.33558464 -0.015851755 -0.1129811 0.4807415
0.27000955 0.29262862 -0.03917017 -0.20463315 0.19323994 0.0334016 -0.13431355 0.07835417
0.18956998 -0.023271386 -0.083699524 -0.2639108 -0.076130085 0.24745403 0.20304513 -0.04773053
0.11982733 0.33760342 -0.24369238 0.07475279 0.013544928 -0.16456568 0.16000918 0.27548775
-0.11105045 -0.14495932 -0.058868382 -0.07108968 -0.12276742 -0.07632918 0.1400216 -0.18746902
0.07998387 0.053858247 -0.011901341 -0.21776791 -0.002922996 -0.17810324 -0.21864249 -0.24884972
-0.33641535 0.049353946 -0.06470023 0.06531567 -0.20153843 -0.10712138 0.025861636 0.017106673
0.1829367 0.025821352 -0.15083031 0.16887997 0.06960553 0.14269568 0.19072711 -0.042923037
0.3557906 0.12048096 -0.026420755 -0.112051286 -0.2009272 -0.020947546 0.21300486 -0.1653745
0.1126796 -0.0011744045 -0.022064801 -0.047167346 -0.1254633 0.0045420052 -0.012817456 -0.039742414
-0.2863171 0.04751364 0.26326337 -0.22391565 0.14096348 0.076412916 -0.050386477 -0.051886726

base.4linear.bias f4 [50]
00000000: a4df 53bd bba8 50bd 83cc 5a3d 6c24 bf3c
00000010: dd42 1bbd e61a 16be 82ae 61bd 9161 ebbc
00000020: 0eee efb9 6af0 45bd ec1d 6dbd a736 023e
00000030: c928 b2bb 26bb 213d 21ff d23d 074f d4bd
00000040: 8a7f 053e 82e9 873d 9168 043c 3e83 95bc
00000050: 433a 8b3d 2abf 6a3d 7396 243d 696e 4d3d
00000060: ba7c 3a3d fb07 183d 5f00 19bd 4990 0cbd
00000070: d35d 3ebd ccf0 2c3d 5c10 91bd 6608 8d3d
00000080: 7dac a038 bae5 a33d d045 893d 8743 73bd
00000090: a1d6 15bd 17d6 9d3c e70f a73c 4584 b13c
000000a0: 0f08 5e3d 7c0c 04bc 3b8a fdbc 33a3 7cbc
000000b0: 4a57 693d bd09 393e 4992 95bd 9b42 b2bd
000000c0: 82ea 18bd 2a7e 62bd
-0.051726952 -0.050942164 0.053417694 0.023332797 -0.037905563 -0.14658698 -0.055098064 -0.028733047
-0.00045762997 -0.04832498 -0.057889864 0.1271616 -0.005436991 0.03948512 0.10302568 -0.10366636
0.13036934 0.06636335 0.008081571 -0.018251058 0.06798222 0.057311215 0.040182542 0.050154123
0.045529105 0.037116986 -0.03735387 -0.03431729 -0.046476196 0.04222183 -0.070831984 0.068863675
7.661523e-05 0.08002801 0.06702769 -0.05939057 -0.03658164 0.019267125 0.020393325 0.021669516
0.054206904 -0.008059617 -0.030949702 -0.015419769 0.05696801 0.18070121 -0.07303292 -0.0870411
-0.03733302 -0.0552961

base.5linear.weight f4 [50, 50]
00000000: 6b49 d7bc 7e64 bb3c 0899 2a3d bee0 063e
00000010: 1d5c 6bbd fa14 9fbe 652f 013e 866f 3ebd
00000020: 614b 00be b31a 193d 16e6 f5b9 4830 123e
00000030: bdd4 283d 633a fbbd 4058 3b3e 7f82 8dbe
00000040: 40df a43c e5da 2a3d a319 7dbe a18f 333a
00000050: 4db0 5d3e 2583 913e 7bca ac3d 822b babe
00000060: 6ff4 e73e 1864 16be 816c e53d 4200 7dbe
00000070: d4c7 15be ae06 cabe d235 243e c2a4 62be
00000080: f4fb 96bd cfc5 7abe e955 a73d 82de af3d
00000090: 60e9 7abd 9adf 34bd 27d8 803d 3a3e 73be
000000a0: c030 13bd 4f7a 8f3c a087 0abe 5485 42bd
000000b0: 4060 0dbe 4617 eb3c c8fb c33e 8db7 86bb
000000c0: 3ca5 02be da06 693e 38e7 13bd 607b d2bb
000000d0: ca3e 25be ade3 99be 5b48 12be 86b5 973c
000000e0: 4af6 d9bd ce85 4bbd 353c fcbe 6cea 9f3d
000000f0: 4714 c1bd 21d9 d1bd 5494 ffbc ccc4 133d
00000100: e510 d43d a4c4 00bd b2b3 45be 8478 5c3e
00000110: 6cd7 b63c 5b46 013e 59f1 53be 3c7e e9bd
00000120: a7a4 853b c54a f23d 795b c9bd 7b1a 883c
00000130: 130d a83e e688 1abd 7e08 7cbe 4871 d3bc
00000140: 65b1 88bd d491 e9bd fee4 00bd e849 773d
00000150: 288a 0dbe 8f0c ebbd c2dd 373e d477 e23e
00000160: 54fc d03d 0b89 953e 40f8 69be 9ea7 68bb
00000170: c538 8f3e 1bbb a1be abd4 10be a81f 863d
00000180: 2d4d 983e c7f5 763c 6d5a 7f3e 4254 aebe
00000190: 09ee a13d c028 bcbc b08e 3e3e 73c6 9c3e
000001a0: a8d7 8f3d 9782 adbe c79b cfbd 3413 46be
000001b0: fd88 93be 60e7 20bd 6227 2fbe 8f39 d13d
000001c0: ca9d ce3c 46c8 283e b41b 833e 1629 d63d
000001d0: a06e a73c 985f d8bd 3d2c 1abe d69c 153e
000001e0: 477b 4dbd c136 8d3e 2198 04be c71a c8bc
000001f0: 5b67 3c3e a163 613e 73b2 f33d da4c 313d
00000200: a742 24be 112e 163e c529 8dbd 96cc a83d
00000210: 234b 2f3b d6dc ca3e 3ae8 543e e44d 98be
00000220: a2ae e73c 52fb 2fbd e433 003e f953 50bd
00000230: f95f 883d 7078 a73d 77b2 5cbe 80d7 2bbe
00000240: 5aa5 a5bb 28da 28bd e30c 9a3d def2 16be
00000250: cb07 85bc 1e2a 1bbe 6f79 403e fe8c 0bbe
00000260: b054 bfbd eb48 00be d567 753d 9ccc 53bd
00000270: 2505 bbbd b435 e63d 7d44 6e3d 5328 8b3d
00000280: 8c3f ddbe 7328 153e bfcb f4bc a3d8 863d
00000290: a777 083e 3305 0ebe dc39 043e e2e1 8b3d
000002a0: 205f da3d 5b40 ce3d f568 5cbe e32e 11be
000002b0: 57d2 02bd 275d d93b b3ab 7f3e 8bb8 de3c
000002c0: 3bfb 06bf d228 513d d69c 123d 8a81 32bd
000002d0: 7527 c3bd 0756 303f 791b 7bbc cd6c 933c
000002e0: 5358 433e 415d b9be 4a0b e1bd 9cb1 873d
000002f0: 0662 813e 6078 45bd 58fe 9b3e a795 a33d
00000300: 4835 693c e819 333d f401 ad3e 4c1d 4bbd
00000310: a6b5 acbd 1017 04bd 524f 94be 4abc 063d
00000320: 7aae 9c3d 0a49 2cbe 4a01 0cbe 789c 9bbb
00000330: bbb1 47be 0ed4 7ebd 513f 2dbf 5e22 953c
00000340: e93c 5cbe ced8 5d3d b367 233e 40b5 94be
00000350: d15a e4bc c1d2 96be c835 f0bd 056f 9b3e
00000360: a2ea 4ebf 3d4b ba3e 4736 0e3a 2b56 fabb
00000370: cea3 dc3c d099 98be 3e7b 753d bba3 95be
00000380: 71f4 45be 4216 16be e0d4 053e 62c7 183e
00000390: c908 533d 52f0 9b3e 88e5 8dbe d16a 3ebe
000003a0: 37f7 813e d023 53be be90 163e ef8e c63d
000003b0: c0c8 4c3e 1e5f 533e 8abf d3b7 bed4 8abb
000003c0: 22f2 89be 0e69 acbd 124c 863e 9ac0 923d
000003d0: de11 66be 94ea 2abd 5e1f 5fbe d74b 8d3e
000003e0: 1c10 7b3d 15f0 e3bd c7eb c7bd c2fc bbbd
000003f0: ce79 2cbe ccb7 883e 060b 683d 6180 c73e
-0.026280126 0.022875067 0.04164985 0.1317167 -0.057460893 -0.3107069 0.12615736 -0.046493076
-0.12528755 0.037378978 -0.0004690147 0.1427623 0.041218508 -0.12266996 0.18295383 -0.27638623
0.020125985 0.04171266 -0.24716811 0.00068497105 0.21649285 0.28420368 0.084370576 -0.3636132
0.45303676 -0.1468662 0.11202336 -0.2470713 -0.1462701 -0.3945822 0.16036156 -0.22133163
-0.07372275 -0.2448952 0.08170683 0.08587362 -0.06125772 -0.044158556 0.06291228 -0.23754206
-0.035935163 0.017514376 -0.135283 -0.047490433 -0.13806248 0.028697621 0.3827803 -0.0041112364
-0.12758344 0.2275652 -0.03610918 -0.006423399 -0.16137233 -0.30056515 -0.14285414 0.018519174
-0.10642679 -0.049688153 -0.49264684 0.07808384 -0.09427696 -0.10246492 -0.031198658 0.036076352
0.10354785 -0.03143753 -0.1930683 0.21530348 0.022319518 0.12624495 -0.20697536 -0.114010304
0.004078466 0.118306674 -0.098319 0.01661419 0.32822475 -0.037728213 -0.24612615 -0.025810853
-0.0667446 -0.11404768 -0.031468384 0.060373217 -0.13822234 -0.11477005 0.17955688 0.44232047
0.10204378 0.29206118 -0.22848606 -0.0035500298 0.27973 -0.31588063 -0.14143626 0.06549007
0.2974638 0.015073246 0.24936838 -0.3404866 0.0790673 -0.02296865 0.18609118 0.30620155
0.07023555 -0.33888695 -0.10137134 -0.19343263 -0.2881545 -0.039283156 -0.17104867 0.102160566
0.025221724 0.16482648 0.25607073 0.10457055 0.020438492 -0.10565108 -0.15055938 0.1461061
-0.050166395 0.27580836 -0.12948658 -0.024426831 0.18398802 0.22010662 0.11899271 0.043286182
-0.16041051 0.1466601 -0.068927325 0.08242147 0.0026747666 0.3962161 0.20791712 -0.29746926
0.028281514 -0.042964287 0.12519795 -0.050861333 0.0665893 0.081772685 -0.21552454 -0.16781425
-0.005055112 -0.041223675 0.07521989 -0.14741084 -0.016239068 -0.15152785 0.18796323 -0.13628003
-0.09342325 -0.12527816 0.059913475 -0.051708803 -0.091318406 0.11240712 0.058170784 0.067948006
-0.43212545 0.14566211 -0.02988231 0.06584289 0.13326894 -0.13869171 0.12912697 0.06830193
0.10662675 0.100708686 -0.21524413 -0.14178042 -0.031938877 0.006633419 0.24967842 0.027187606
-0.527271 0.05106432 0.0357941 -0.04358057 -0.0952901 0.6888127 -0.015326374 0.017996216
0.19076662 -0.3620396 -0.10988481 0.06625673 0.25270098 -0.0482105 0.30467486 0.07987528
0.014233895 0.043725878 0.33790553 -0.049588487 -0.08433084 -0.032248557 -0.28966767 0.03289441
0.07650466 -0.16824737 -0.13672367 -0.004748877 -0.19501393 -0.06221395 -0.6767474 0.018204864
-0.2150761 0.05416184 0.15957527 -0.29044533 -0.027875336 -0.29457667 -0.11729008 0.3035814
-0.8082677 0.36385527 0.0005424958 -0.0076396666 0.026933577 -0.2980485 0.059931986 -0.2922648
-0.19331528 -0.14656928 0.13069487 0.14919809 0.05152205 0.30456787 -0.2771418 -0.18595435
0.25383922 -0.2061913 0.14703652 0.09695231 0.19998455 0.20641753 -2.5242352e-05 -0.0042367866
-0.26942545 -0.08418475 0.26229912 0.07165642 -0.22467753 -0.041727617 -0.2178931 0.27596924
0.06129466 -0.111297764 -0.09761768 -0.09179069 -0.1684334 0.26702726 0.056651138 0.38965133

base.5linear.bias f4 [50]
00000000: 6b9b 4b3d f32a 58bb 7853 06bd f701 c13c
00000010: 8118 e0bd c038 3b3d 1b0d bdbd 8ed5 93bd
00000020: ea55 65bd 85aa 3a3d 9a8d e5ba 2869 d33d
00000030: 9934 57bb 1ff6 713c b287 1d3d f4c3 a1bb
00000040: d47a 2b3b ba50 06bd 91ca cebd beb2 b73c
00000050: 4f51 babd c025 0cbe 0429 82b9 0ab4 c23c
00000060: 6031 313d fe92 5a3d adad 2d3d bc11 bc3d
00000070: c028 b2bd 5767 033e 15a7 973d 2e8a 273d
00000080: 4a67 8d3d 9592 acbd fe4e 9bbc 138f dd3d
00000090: ea04 26bd 4b4f 30bb 4131 a73d c6e7 b6bc
000000a0: 5ae8 1f3d 81ad ab3d 8838 43bd 52ad 7cbd
000000b0: b88b 873c 7f11 dbbc 00cc 4abc 9183 82bd
000000c0: 5955 383d 9466 5bbd
0.049708765 -0.0032984584 -0.032794446 0.023560507 -0.10942174 0.045708418 -0.09231015 -0.07218467
-0.055990137 0.045572776 -0.0017513514 0.10322791 -0.0032837747 0.0147681525 0.038459487 -0.0049366895
0.002616574 -0.03279183 -0.1009723 0.022424098 -0.0909754 -0.13686275 -0.0002482609 0.02376749
0.04325998 0.05336284 0.04240196 0.0918307 -0.08699179 0.1283239 0.07404915 0.040903263
0.069044665 -0.08426396 -0.018958565 0.10818305 -0.04053203 -0.002690273 0.08163691 -0.022327315
0.039039947 0.083827026 -0.047661334 -0.06168873 0.016546115 -0.026741741 -0.012377739 -0.063727506
0.04500327 -0.053564623

base.6linear.weight f4 [50, 50]
00000000: e5c1 04be 4d0c b33d 4c7e 633a 8556 a8be
00000010: 3abe a13e f764 233e 3ebe 92bd c05f 853d
00000020: 5d31 a7bd 2722 8b3e e579 02be 4f22 2e3c
00000030: cea1 31bc 9067 c3bd 794e 863b c8d0 a0bd
00000040: 894c 0abe 0238 b9bc c937 3f3e 0990 033d
00000050: 552c 1cbe f77e 85be 4960 623d 0b9c 5a3d
00000060: dc6e 873e db99 653e 1630 8e3c 5cc4 673e
00000070: 7a46 c9be 76ff 49bc ebeb f53d 1171 823c
00000080: 990c 65bd 1dc0 fcbd bceb 2bbe 7162 443e
00000090: f59b 8dbe 008b eb3c 0ed0 a33e 1640 023c
000000a0: 37f0 c23d af60 893d 3d81 a93d 6579 823d
000000b0: 5ee3 08be cbe2 8dbe 36fc ba3d ca48 c03d
000000c0: 3f9f 3abe 1e68 923e 1690 2abe f4d7 35bd
000000d0: 4582 5d3e 516c 45be ecac 473e f26c 2cbd
000000e0: 96cf 3e3d 7e11 2e3e 66ae 343c ed1c b83e
000000f0: f347 933c eb2d 7a3e 90ea 533c 2599 513d
00000100: 0976 3abe 6634 6ebe fd29 a9bb 05c3 86bd
00000110: 2515 f5bd fb5c 803d 79c0 f83d 6cd5 33bc
00000120: c860 09be 88df 96be d762 903c 79e4 cd3d
00000130: 5618 80bc b099 983d f9dd 433e 34f4 f7bd
00000140: d054 89be 4462 0d3d 65e3 59be 65e3 643b
00000150: a424 64be 507f 683d ef27 dc3e ef4a 5ebd
00000160: 08d5 6abd b691 6dbc af4c 9f3e 699e 5abe
00000170: 32c4 07bd 7d43 033e bc63 923d 9650 893d
00000180: 4d37 92be bf98 063e 0017 3cbe 675c 3d3e
00000190: 0161 443e e4e4 f23d 4d05 afbc f9f9 e7bd
000001a0: aa03 85be f8e3 553e 5fa8 6c3e 36aa 153c
000001b0: 1361 353a eea8 3dbe 463b a53d aa18 43bc
000001c0: 3e65 9b3e 3fdd b73c c0b1 8a3e 4d08 65be
000001d0: 853e 91bd 027d 203e 99a6 5e3d b0d6 14bd
000001e0: f816 5a3e 2ed2 803d 0c96 393e aa8f c1be
000001f0: c69f 43be 7c48 8b3c 60b7 be3d 6eb1 c7bd
00000200: 8cc6 a5bd 0fcf 833d 7da1 21be ec8b 23be
00000210: 0b28 b13e 7613 993e c26c 67be 4e9b 45bd
00000220: 821a 90bd a0dd b43e 5c40 2c3e ee34 b2bc
00000230: 2efb b33d be78 353d c34c 94be a5ad 5d3e
00000240: de12 d4bc 98ca a5bd 3c7a 8ebd 4e87 8cbd
00000250: 7f4e f2bc e039 babd d124 76be 049b 47be
00000260: ce9f bebd f142 4bbe a9cc 953e 687c c9bd
00000270: 4cc9 313b 1329 eebd 3ccf 673e a16a 2a3b
00000280: 4c04 9abd e21a 21bd 3061 5b3d adf4 72be
00000290: e81f d63d 864b 1fbe 6a10 96bd 827d 243d
000002a0: 2d9a 88bd 6dcd 5bbd e120 0bbb 0d0a 163e
000002b0: 696a 96be 3c16 b03e e4d9 6e3c bde3 7ebe
000002c0: 70d2 d3be 9c0d eebd 6d6e 963e 0902 0cbe
000002d0: 1cd0 8bbe 3240 7b3e 1b57 053e 3458 d23c
000002e0: 35b7 893d f70b f53d 6150 473e b5fa 56bd
000002f0: a133 f0be 6275 82be 0842 2abd c523 323d
00000300: 0765 173d c075 da3e 54a6 313e b77d 763d
00000310: c507 813d 7398 ecba 35c6 a73e 9fc2 7d3e
00000320: 1ed5 a73d 4f5e 8d3e f6bf 9abe b7fa acbe
00000330: a53a 813d 3873 a4bc cccf b2ba 1d0c dbbd
00000340: c438 b6bd 9c81 cfbc a29f a83d ca3e b8bd
00000350: 5ab0 2f3e f6a2 30bd ef8b 7dbe f216 9c3c
00000360: 3219 243e b570 a43e 520e f63e 1b20 fd3c
00000370: b817 923e 61b0 e83d 8638 433e 51ce 91bd
00000380: 4418 29be 18a9 4ebe de7c 1e3e 4272 7fbe
00000390: 3505 1539 8c27 3abe 5a8b e7bd 90bf b33c
000003a0: dab5 cb3c 93cb fb3d 2275 3dbe 9ec8 713e
000003b0: 89bb 253d 9155 c53d 6e63 ae3c d1cb abbd
000003c0: 4a56 28bd 244c 413e 052c 80be b319 163e
000003d0: 352d 98be 2b58 64be 1207 173c 2e37 55be
000003e0: a670 94be 9fae 80bd 9a95 a83c bb74 9cbe
000003f0: 0400 273d ca22 1cbc 2072 60be 79ea f53d
-0.1296459 0.087425806 0.00086781825 -0.3287851 0.31590444 0.15956484 -0.07165192 0.065124035
-0.08163712 0.27174494 -0.12741812 0.010628297 -0.0108418 -0.09541237 0.00409871 -0.07852322
-0.13505758 -0.022609714 0.18673624 0.032119785 -0.15251286 -0.2607343 0.055267606 0.05337147
0.26451766 0.22421972 0.017356914 0.22633499 -0.39311582 -0.012328973 0.120078884 0.015923055
-0.055920217 -0.1234133 -0.16789144 0.19178177 -0.27658048 0.028752804 0.3199467 0.00794985
0.095184736 0.06707894 0.08276603 0.063708104 -0.13367984 -0.27712092 0.09130137 0.093888834
-0.1822481 0.2859506 -0.16656527 -0.044395402 0.21631725 -0.192796 0.19499558 -0.042096086
0.046584688 0.1699886 0.011027908 0.3595957 0.017978644 0.24431579 0.012934342 0.05117144
-0.1820909 -0.23262176 -0.005162476 -0.06580166 -0.119669236 0.062677346 0.12146086 -0.010976177
-0.13415825 -0.29467416 0.017625256 0.10053343 -0.015636604 0.074511886 0.19127645 -0.12107125
-0.2682252 0.03451754 -0.2127815 0.0034925577 -0.22279602 0.05676204 0.42999217 -0.05427068
-0.05733207 -0.014500072 0.31113192 -0.21349491 -0.03314609 0.12818713 0.07147929 0.06704824
-0.28557816 0.13144206 -0.18368149 0.1849228 0.19177629 0.11860064 -0.021364832 -0.113269754
-0.25979358 0.20887744 0.23111103 0.00913482 0.0006919067 -0.18521473 0.08067946 -0.011907736
0.3035068 0.022444366 0.27088737 -0.22366448 -0.07092003 0.15672687 0.0543581 -0.036337554
0.21297824 0.062900886 0.18123645 -0.3780492 -0.19103917 0.017002337 0.0931232 -0.09750639
-0.080945104 0.06435978 -0.15784259 -0.15971345 0.34600863 0.2989766 -0.22600082 -0.048243813
-0.07036306 0.35325336 0.16821426 -0.021753754 0.08788143 0.0443046 -0.28964815 0.21648271
-0.025887903 -0.08095282 -0.06956908 -0.06861745 -0.029578445 -0.0909307 -0.24037482 -0.19492728
-0.09307824 -0.19849755 0.29257706 -0.09838182 0.002712804 -0.11628928 0.22637647 0.0026003497
-0.07520351 -0.039332278 0.053559482 -0.23726149 0.104553044 -0.15556154 -0.073273495 0.040158756
-0.06670032 -0.053662706 -0.0021229314 0.14652272 -0.2937806 0.34391963 0.014578316 -0.24891563
-0.4137149 -0.116236895 0.29381123 -0.13672651 -0.27307212 0.24536207 0.1302151 0.025676824
0.06724397 0.11965173 0.19464256 -0.052485187 -0.4691439 -0.2548018 -0.04156688 0.043491144
0.03696158 0.4266796 0.17348605 0.060178485 0.0630031 -0.0018050805 0.32768407 0.24781273
0.08194946 0.27611014 -0.3022458 -0.3378503 0.06310014 -0.020074472 -0.001364225 -0.1069567
-0.08897546 -0.025330357 0.082335725 -0.08996351 0.17157117 -0.04312416 -0.24760412 0.01905391
0.16025236 0.3211724 0.480578 0.030899098 0.2853372 0.113617666 0.1906453 -0.0711943
-0.16513163 -0.20181692 0.1547732 -0.2494593 0.00014211687 -0.18179148 -0.11305876 0.02194193
0.024866987 0.12294688 -0.18501714 0.23611686 0.04046205 0.09635461 0.021287646 -0.08388484
-0.041097917 0.18876702 -0.25033584 0.14658241 -0.2972199 -0.22299258 0.009217994 -0.2082183
-0.28992194 -0.06283306 0.020579148 -0.30557808 0.0407715 -0.009529779 -0.21918535 0.12007613

base.6linear.bias f4 [50]
00000000: 7486 723d 915a c5bd 546f fabc c78a 8c3c
00000010: 36fa 9d3c ab41 223d 3eb1 db3b b42c 033e
00000020: d2b8 5c3c 9f25 60bd 08bf 46bd 006a dcbc
00000030: 0f2b 82bd 91bb 4dbd 3e4d 1bbd b573 9a3d
00000040: dd5f a8bc 1314 cdbc 9347 023d 7d9f 9b3d
00000050: 2df8 d53d 16cb 65bc 2e31 69bd 4d01 1c3c
00000060: ccc6 313d 1bef 0c3d 5215 aa3d b74f 313d
00000070: 53e0 01bd a319 193d 5110 19bd bcf8 44bc
00000080: ae24 1b3d 2164 d83d deab 3dbd ffcb 8ebd
00000090: 4056 31bd a4ab cabd fd46 e6bd eb1a 253d
000000a0: c5d8 88bd 34ed 633c 5023 273d c8a5 493d
000000b0: 8575 0b3e 5e3f 053d eb80 ce3c d45f 393c
000000c0: 0455 b43d 3851 723d
0.059210256 -0.09636415 -0.030570664 0.017156018 0.019284349 0.039613407 0.0067044785 0.12810022
0.013471799 -0.05472338 -0.048522025 -0.026906013 -0.06355869 -0.050227705 -0.03791546 0.075416006
-0.020553524 -0.025033986 0.03180654 0.07598779 0.104477264 -0.01402547 -0.056931667 0.0095217945
0.043402478 0.034407716 0.08304848 0.043288913 -0.031708073 0.037377965 -0.037369076 -0.0120221935
0.037876777 0.10565973 -0.046306483 -0.06972503 -0.043295145 -0.09896019 -0.11244009 0.040308874
-0.066819705 0.013911534 0.04080516 0.049230367 0.13619049 0.032531135 0.025207957 0.011314351
0.08805278 0.059159487
