STPINN-NS/sub_data/sub_write/31NS_model_train.pt (torch, 100091 bytes, 22 tensors)

base.0linear.weight f4 [50, 3]
000000 fa 1e 18 b9 1c 06 b2 b7 99 a2 14 b8 17 20 96 be
       -0.0001450739 -2.1222098e-05 -3.543738e-05 -0.29321358
000010 41 05 d1 bc 6b a7 1d 3e d8 fd 2d 3d 6e d9 55 3e
       -0.0255152 0.15395896 0.042478412 0.20883724
000020 1c a8 28 be 1e 11 88 3d 0c 68 dd bd 61 16 a9 be
       -0.16470379 0.0664389 -0.10810861 -0.33024886
000030 7e 48 4c bd 27 b6 83 3d 04 2f cd bc 37 5c ae 3d
       -0.04987382 0.06431227 -0.025046833 0.08513682
000040 c7 9c 5d be 81 c1 97 be 30 b6 c1 bd 84 82 de 3e
       -0.21641837 -0.2963982 -0.09458578 0.4345895
000050 a5 4a 5f be 46 c3 d7 3d 5b 22 b2 3e 54 60 81 be
       -0.21805818 0.10535292 0.34791836 -0.25268805
000060 f2 2e 8f 3c c9 18 74 bd 14 4e bb 3e 74 9e ef be
       0.01747844 -0.05959395 0.36583006 -0.46800578
000070 11 62 ba 3e 6b 42 8b 3e 55 1a 95 be 0c a2 d7 bd
       0.36402944 0.2719911 -0.29121652 -0.10528955
000080 44 95 be 3d d7 44 c0 be 06 b7 69 3e 7f 22 ba bd
       0.09305814 -0.3755252 0.22823724 -0.09088611
000090 c8 a4 98 bd 62 a0 f4 bd b1 97 f0 bd f2 df be 3d
       -0.074533045 -0.11944653 -0.11747683 0.09320058
0000a0 76 54 7c 3e 9a 6c f3 bc 95 41 0c bc 76 85 4f 3e
       0.24641594 -0.029714871 -0.008560558 0.20265755
0000b0 78 90 14 bf 22 24 73 3c 1f 1c f1 3d d0 c4 61 bd
       -0.5803294 0.014840158 0.11772942 -0.055119336
0000c0 cf 0a d6 bd 2f 26 89 3e 03 46 db 3d e4 a3 68 be
       -0.1045128 0.26786944 0.10706713 -0.2271877
0000d0 4b cb 22 bd 6d 01 51 3e a2 31 dd bd 2c c4 4d 3e
       -0.039744657 0.204107 -0.10800482 0.20094365
0000e0 66 48 d9 3d d0 02 e9 bd 20 58 c9 bd 4b f5 7d 3d
       0.10609512 -0.113774896 -0.09831262 0.062001508
0000f0 ec 4b 45 3e 41 de 83 3d 87 23 54 bd 21 37 b8 3d
       0.19267243 0.06438876 -0.051791694 0.0899489
000100 cd 3b b1 3d 4e 75 23 be 00 5d f6 3d b9 fe 88 be
       0.08653984 -0.15962717 0.12029457 -0.26756838
000110 99 03 59 be 67 c6 5c bd 72 3e fe 3a 98 62 35 3e
       -0.21192779 -0.05390015 0.0019397272 0.17713392
000120 94 fe 4e be 35 85 8c be a0 6b 44 3e ff ad 21 3d
       -0.20214301 -0.2744538 0.1918168 0.039472576
000130 c0 59 c6 bd 84 9e 24 be b9 59 30 3e f3 54 07 3e
       -0.09685087 -0.16076094 0.17221726 0.13216
000140 81 74 db be 69 66 40 3e cf 37 18 3e d0 51 ec bd
       -0.42862323 0.18789066 0.1486504 -0.11539042
000150 52 20 61 be 29 92 ee 3c 92 80 33 3e 74 2a 12 bd
       -0.21984985 0.029122429 0.17529514 -0.035685018
000160 3a 0a fa bc fe 61 d0 bd 3c f6 24 bc 20 71 d9 3d
       -0.030522455 -0.101749405 -0.0100684725 0.1061728
000170 e0 c0 fa 3d 71 ab a4 3d 7b 7e b0 3e 37 46 94 be
       0.12243819 0.08040512 0.34471497 -0.2895982
000180 0c 9b 8d bd 83 e6 39 be d2 e7 06 3d a0 5a 2b 3e
       -0.069143385 -0.1815434 0.032935925 0.1673379
000190 4e 65 fe 3d 90 0b 1e bc 16 cf a3 3e 65 35 74 be
       0.12421666 -0.009646311 0.31993932 -0.23848493
0001a0 7e 0e 80 be 10 6a 92 bd 5e 6a a4 3d cd 10 eb bd
       -0.25011057 -0.07149136 0.080281004 -0.11477814
0001b0 6f 99 da 3d a6 79 c4 bd 7b 23 ed be b7 4d 0f ba
       0.106737964 -0.09593515 -0.46316132 -0.00054665975
0001c0 9d 41 cc 39 88 aa 4c b9 df fb 7a bd 25 41 ca bd
       0.00038958798 -0.00019518484 -0.06127536 -0.098757066
0001d0 fd bd a6 bd 40 fe 10 3e 1e 47 88 3d d3 15 63 be
       -0.08141706 0.14159489 0.066541895 -0.22176294
0001e0 ec 81 64 3e e6 9f 8f be 1c a1 b6 be bb 28 ad 3a
       0.22315186 -0.2805168 -0.35669792 0.0013210991
0001f0 ad 47 80 bd ab 4e 26 be 24 f9 12 3d 51 82 41 3d
       -0.06263671 -0.16240947 0.03588213 0.04724342
000200 2f 5f 40 be c1 db bf 39 69 6c f9 39 88 91 65 39
       -0.1878631 0.00036594088 0.00047573753 0.00021893356
000210 75 4a 17 be 3d 00 08 be d0 7b 12 be 0c 1d 58 3e
       -0.14774497 -0.13281341 -0.14305043 0.2110483
000220 50 b0 82 be 45 97 70 3d c2 f4 f8 3b 97 80 b8 3e
       -0.2552514 0.058738012 0.007597537 0.36035606
000230 ad 87 f1 3d 1b cc 26 ba 66 fa 1a ba ca 56 9b 39
       0.11793456 -0.00063628115 -0.0005911946 0.00029628567
000240 30 3e e8 3c da 02 ce be 1f 08 3a 3e 57 58 01 be
       0.028349966 -0.4023655 0.1816716 -0.12631355
000250 c0 21 ba be 88 9e 1e 3e
       -0.36353874 0.15490162

base.0linear.bias f4 [50]
000000 4b f3 29 38 f1 63 07 3c 98 b8 26 3d 98 c7 be 3d
       4.0519324e-05 0.008263574 0.040703386 0.09315413
000010 43 17 00 3d 01 b0 05 3d 6a cb 86 3d 1b 12 03 3d
       0.031272184 0.032638554 0.06581767 0.03199969
000020 ff 0b 2c be 9a 9a 6a 3d aa ae 30 bb 90 95 2c be
       -0.16801451 0.057276346 -0.0026959577 -0.16853929
000030 da d1 a8 3d 88 2d 86 bd f5 88 c9 bd 42 28 8a 3b
       0.08243151 -0.06551653 -0.098405756 0.004216225
000040 bd c1 7c ba d3 49 4a bd ad 82 ca bc 98 ec b1 3c
       -0.00096419064 -0.04938681 -0.024720514 0.021719262
000050 d0 a6 65 bd bd 73 86 3b 6a e7 03 3e c6 d1 24 bd
       -0.056067288 0.0041031525 0.12881246 -0.040239118
000060 0a ae 03 bd 5f 44 9b 3d 34 de 69 3d bc 66 d9 bd
       -0.0321484 0.075814 0.057096675 -0.10615298
000070 a2 d4 53 bc 04 0b 71 3d a6 08 6e bd e2 8d 97 3d
       -0.012929114 0.058848396 -0.058113717 0.07400109
000080 64 ec a8 3c 62 0b 06 be 42 89 97 3c 3e fc 01 3c
       0.020620532 -0.1309028 0.018498067 0.007933674
000090 55 52 39 3c 33 3b 3b b5 f7 5b a2 3d fd 36 5b 3d
       0.011311133 -6.9749075e-07 0.07927697 0.053519238
0000a0 4f 95 35 bd fe a9 ba 3d a9 ee 60 3d 5a 4a f8 b7
       -0.044331845 0.09114455 0.054915104 -2.9598526e-05
0000b0 82 dd 14 3e 6d cb a5 b9 39 80 22 be 54 4f 4d 39
       0.14537624 -0.00031622816 -0.15869226 0.00019579876
0000c0 4a 9b a6 bd 69 bc 7c 3c
       -0.08135088 0.01542578

base.1linear.weight f4 [50, 50]
000000 19 e6 02 3e 84 b8 98 bd 14 e1 80 3d 04 34 90 bd
       0.12783088 -0.074570686 0.0629293 -0.07041171
000010 06 06 45 3e 95 4a 56 3d 7b 0b b9 3d d1 90 de 3c
       0.19240579 0.05231722 0.09035393 0.027168663
000020 3f 36 27 be d8 88 ef 3c 04 3b 1a bd 6e a3 21 3c
       -0.16329287 0.029240057 -0.037653938 0.009865625
000030 67 45 2c be a3 8a 22 3c f7 f7 40 bd 4e e9 45 be
       -0.1682335 0.009920749 -0.047111478 -0.1932728
000040 60 88 a7 3d 0d 39 f8 3d d9 6d 84 bd 6c 7b b6 3d
       0.08180308 0.121202566 -0.06466264 0.089102596
000050 16 6f 12 3d 90 7d 80 bd 8c fe 87 bd 80 05 00 be
       0.03575047 -0.06273949 -0.06640348 -0.12502098
000060 6a ec 54 3c 53 fd 0f 3b 12 2d 88 be b1 20 d1 ba
       0.012995819 0.0021971061 -0.26596886 -0.0015955177
000070 c6 be 64 be 3c 9c 43 be a7 0e 55 bc 33 5a 7a bd
       -0.223384 -0.19102567 -0.013003982 -0.061121177
000080 ff 2f 47 3e f6 0d 18 3c cd 96 2c 3d 8e 0b c0 3d
       0.19451903 0.009280672 0.042136002 0.09377204
000090 0b 3f 20 3e db 6b 19 be b8 65 4a be ba 5d 0b bd
       0.15649049 -0.1498255 -0.19765365 -0.03402493
0000a0 ce 07 ea 3d 7d be c7 bd e3 a8 50 3e 3b 65 3d be
       0.1142727 -0.0975313 0.20376925 -0.18495648
0000b0 48 e5 a3 bd fa b0 2a be ec d6 0c 3c df e4 56 be
       -0.08002716 -0.16669074 0.008596163 -0.20985745
0000c0 46 46 c4 3d 40 78 37 3d 72 c1 c6 3d 16 a1 00 be
       0.09583716 0.044792414 0.097048655 -0.1256145
0000d0 22 58 91 3a 28 59 13 3e 0d fa 2f 3c 1e 26 73 3e
       0.0011088888 0.14389479 0.010740769 0.2374501
0000e0 69 d7 bb 3c 88 0e 58 3c 53 f7 a7 3e 1d ac a3 3d
       0.022929864 0.013187058 0.3280588 0.079918124
0000f0 20 42 29 3d eb 68 3c 3d 65 51 c6 bd b0 ea a5 be
       0.041322827 0.045998495 -0.096834935 -0.32405615
000100 c3 8c 0f be 1f fc c5 bd b5 37 5a bd 73 2f 91 3d
       -0.1401854 -0.09667229 -0.053275783 0.07089128
000110 5c 6a c7 3d 5e f9 c2 bd 73 3b 3a 3e e2 27 f6 3b
       0.09737083 -0.09520219 0.1818674 0.0075120786
000120 94 13 99 3d 50 ef 24 be 0c 9f 42 3d 51 49 c7 3c
       0.07474437 -0.16106915 0.04751496 0.024326952
000130 6f 6e 10 be 82 46 86 be 70 77 7b 3e 15 11 99 bd
       -0.14104627 -0.26225668 0.2455728 -0.07473961
000140 4f 51 53 be e7 ab 52 be 4b c3 eb bd 55 b0 d3 3d
       -0.20636486 -0.20573388 -0.115118586 0.10336367
000150 ed a7 8b be ce 7f 36 be c8 52 15 bd 29 97 ef 3b
       -0.27276555 -0.17822191 -0.0364559 0.007311721
000160 01 6e 83 be 39 d8 f4 be d7 f5 75 3d c5 60 49 3e
       -0.25669864 -0.47821215 0.060048904 0.19665821
000170 99 3a 17 bd 54 33 02 bd c8 20 70 3e 97 4a fa bc
       -0.036921117 -0.03178723 0.23450005 -0.030553145
000180 8d 8b 03 bf 42 f5 cd 3d 54 75 34 bb 5c 29 4e 3e
       -0.5138481 0.10056545 -0.0027535753 0.20132965
000190 18 b3 1b bd 46 4d f9 bc aa 5f a0 3e 87 b7 a6 be
       -0.038012594 -0.030432355 0.31322986 -0.32561895
0001a0 7d 15 91 bb d6 8a 1b be 1e 5b 89 3e f9 3f 7e 3d
       -0.0044276104 -0.1518968 0.2682733 0.062072728
0001b0 21 ee fe 3c 0d bb 22 be c4 64 99 bd ba a9 9c bd
       0.031119408 -0.15891667 -0.07489923 -0.0764956
0001c0 d9 4d 68 3c c8 e8 ad bd 50 f2 fe 3b 41 a2 11 be
       0.014178717 -0.08491665 0.0077803507 -0.14222051
0001d0 fe fe 06 bb 2d 5f a2 3d 35 a5 71 bd c5 98 93 3e
       -0.0020598765 0.079283096 -0.058995444 0.2882749
0001e0 75 56 bc bc 5e bb 6d be 24 1a 02 3e 47 7e 2d be
       -0.022990445 -0.23216006 0.12705284 -0.16942702
0001f0 a9 d0 ed bd 7c e9 f4 bc 94 15 24 be 7b 34 b1 3d
       -0.116120644 -0.02989649 -0.16023856 0.08652588
000200 f0 3e 71 3e 1a 1f 05 be ae fd 7a bd 4a 46 18 3e
       0.23559165 -0.13000146 -0.061277084 0.14870563
000210 37 9c ca 3d 45 26 90 be 9a 20 05 3d db f7 75 3d
       0.09893077 -0.28154197 0.032501794 0.060050827
000220 08 2b 8f bd d8 84 25 bd 76 cb 88 3e b9 6a 7e be
       -0.069906294 -0.040409893 0.26717728 -0.24845399
000230 dc 91 53 3e 0b ea ed 3d 64 de 0e 3d f4 bc 82 3d
       0.2066111 0.11616906 0.034880057 0.06383696
000240 7f 3f 58 be 18 0e dc bd 66 47 71 3d a0 82 18 3d
       -0.21117972 -0.10744876 0.05890598 0.03723395
000250 9c a5 89 be 31 f8 da 3d e1 4f fb 3c 41 23 19 be
       -0.26884162 0.1069187 0.030677738 -0.14954855
000260 76 f2 3a 3e dd 05 19 3e 43 8b 5f bd 64 6e 7f 3c
       0.18256554 0.14943643 -0.05457617 0.015590284
000270 00 91 41 be 5d d8 39 3e 6f 3a de 3d 35 10 15 3d
       -0.1890297 0.18148942 0.10850989 0.03639241
000280 30 86 ac be 05 bf 3a 3e c6 54 52 3c f9 da e8 bc
       -0.33696127 0.1823693 0.012837594 -0.028424727
000290 c2 ad 08 3e 33 0c 73 3d b9 1e 38 3d 5e 79 44 3d
       0.13347533 0.059337806 0.044951174 0.047967307
0002a0 57 76 1a 3e 80 2f 1e be e7 61 9b bc 53 52 52 be
       0.15084206 -0.15447807 -0.018967582 -0.20539217
0002b0 7a 9d 69 3d 60 80 b5 3c ea ab db bd 1b 84 0c be
       0.057034947 0.02215594 -0.107261494 -0.13722269
0002c0 c7 34 6c ba 80 4b 8f bd bc 4b 4a bc c6 9c 0b be
       -0.000901055 -0.06996822 -0.012347158 -0.13634023
0002d0 fc ef bb 3d 54 e8 2e 3d 97 62 b9 be 34 5d 86 bd
       0.09176633 0.042702034 -0.3620803 -0.06560746
0002e0 5a 3e e9 bb b1 72 25 be 68 9a 97 be 92 aa 0e bd
       -0.0071180286 -0.16157033 -0.2960999 -0.034830637
0002f0 98 b9 33 3c 99 a0 8c bd 4d 8c c3 bd ff f0 31 be
       0.010969542 -0.06866569 -0.095482446 -0.17377089
000300 db 0c b9 bd 2c 21 25 3d c0 51 79 be be 83 4c 3e
       -0.09035655 0.04031484 -0.24347591 0.1997213
000310 5d 47 00 3e bb fa a8 3d 84 a2 44 3e 46 cb 18 be
       0.12527223 0.08250948 0.1920262 -0.14921293
000320 ee 91 8a 3d 9c 85 8a 3e 4d b6 59 be 0f e8 6c 3d
       0.06766115 0.2705506 -0.21260948 0.057838496
000330 27 40 c4 3d a8 43 29 3e 20 53 8d be 56 b0 79 bc
       0.095825486 0.16529715 -0.27602482 -0.015239796
000340 27 f7 e7 3d 48 38 36 be df ca 80 bd 98 e3 3e 3d
       0.113264374 -0.17794907 -0.062886946 0.04660377
000350 3d 0f 34 3e 26 ef f7 bd 6f c5 28 bd 66 95 3d 3e
       0.17583938 -0.12106161 -0.041203912 0.18514022
000360 46 e6 30 be 8c 08 25 be 63 48 1d be d8 00 b8 3d
       -0.17275342 -0.16116542 -0.15359645 0.08984536
000370 1d 61 18 be 79 3f af be 43 49 37 3e e0 3b 5b 3d
       -0.14880796 -0.34228113 0.17899041 0.053523898
000380 dc 15 7c 3e 94 59 19 bd 84 b1 36 3d eb 58 98 bd
       0.24617714 -0.037438944 0.044602886 -0.07438835
000390 7a 52 8a bc 34 b7 7b be a5 11 7f be 80 b8 ad bd
       -0.016885031 -0.24581605 -0.24909075 -0.08482456
0003a0 f7 7c e0 3d b4 3f 05 bd af c0 ef bd 6e c2 15 be
       0.10961335 -0.032531455 -0.11706673 -0.1462495
0003b0 5c 04 c9 3d 70 a9 59 3c 75 f3 9c 3d 86 b1 03 3d
       0.098152846 0.013285026 0.07663623 0.03215172
0003c0 70 c1 50 3e c3 29 84 3c e4 45 02 be 7c 2c 79 bc
       0.2038629 0.016133195 -0.12721974 -0.01520836
0003d0 e7 ca b0 3d 76 ff b5 bc f0 e9 56 be 02 87 8b bd
       0.086324506 -0.02221654 -0.20987678 -0.0681286
0003e0 ed 19 8f 3c f3 de 07 3e 34 f0 71 bb 2a 90 c5 3e
       0.017468417 0.13268642 -0.0036916854 0.3858655
0003f0 8b 39 9f 3e f0 3e cc 3d 7b ce 4a 3e 69 6d 40 3f
       0.3109859 0.09972942 0.19805329 0.75166947

base.1linear.bias f4 [50]
000000 3c 01 33 3d 16 be 16 3d 6e 06 1c bd d8 53 5f bd
       0.04370235 0.036802374 -0.03809207 -0.05452332
000010 70 82 e9 bc cb 9b 53 be 23 2e 29 bd ba 3c fb bc
       -0.02850458 -0.20664899 -0.041303765 -0.030668605
000020 02 23 a8 3d 1d 1a b1 bb 2b d0 cb bd 39 19 0e bd
       0.08209802 -0.0054047243 -0.09951814 -0.034692023
000030 54 cb 29 3c 16 13 a9 3c 1c f0 6f bc ba 05 e9 bc
       0.010363419 0.020638984 -0.014644649 -0.028445113
000040 69 78 05 be ac 4a f1 bc 7c dc af bc 0a 64 98 bc
       -0.13034214 -0.029454552 -0.02146744 -0.01860239
000050 8f dd f2 3d c7 fd bc 3c 7d b1 00 3d 26 08 f2 bc
       0.11858665 0.02307023 0.031419266 -0.029544901
000060 ca 5c 50 bd ca a3 4c 3c 29 d4 94 3d 30 87 81 3c
       -0.05086974 0.012490222 0.07267029 0.015811533
000070 76 32 06 3e 6c 9d af 3d b4 84 c0 bd 6f 3d ef 3d
       0.13105187 0.08574948 -0.09400311 0.116816394
000080 b2 87 94 3b 2d af 68 bb 33 d0 c9 3c 89 c6 59 bd
       0.0045327777 -0.0035504804 0.02463541 -0.053167854
000090 7d ae 21 bd 43 74 6c bb 2a 02 b1 3c eb d5 f6 bd
       -0.039473046 -0.003608004 0.021607477 -0.1205252
0000a0 53 e1 2b bd de 04 13 bd 99 af b2 3c ed dd 3d 3d
       -0.041962933 -0.035893314 0.021812247 0.046354223
0000b0 88 83 0f 3d 80 ef fe bd 84 24 8a 3d e1 bc 59 bc
       0.035037547 -0.12448025 0.06745246 -0.013289661
0000c0 83 11 91 bd 1c 00 21 be
       -0.07083418 -0.15722698

base.2linear.weight f4 [50, 50]
000000 e7 a1 07 3e 4d f9 9d 3d 25 bb 20 bd d7 7c 66 be
       0.13245355 0.07713566 -0.039240975 -0.2250856
000010 1e 5b eb 3d 8f b3 e2 bc 1b 12 81 3d d2 ff d0 bc
       0.114919886 -0.02767351 0.063022815 -0.02551261
000020 f8 84 64 3e 21 9d 01 3d 1b 78 6b 3c e1 f7 8e bd
       0.22316349 0.03164399 0.014371897 -0.06980873
000030 a0 81 c2 bc 6e d3 08 3f a7 84 a9 3e 54 03 0c be
       -0.02374345 0.53447616 0.33109018 -0.13673145
000040 a1 97 26 bc 8e fa 04 be 42 19 a2 be 2a d0 4a 3b
       -0.010167987 -0.12986204 -0.31659895 0.003094683
000050 b3 7d a9 3e bd d6 08 bc 83 80 83 3e d5 84 47 bc
       0.33103713 -0.008351979 0.25683984 -0.012177666
000060 1f 36 98 bd 3b e6 78 3d 41 dd 67 3e bb e2 ad 3c
       -0.07432198 0.06076644 0.22642995 0.021226278
000070 a5 56 4d 3d fe e7 83 3d 85 83 67 bd 3c 58 2d be
       0.05013146 0.064407334 -0.05652191 -0.1692819
000080 d8 c3 7b be d8 1a 29 3d 72 dd 75 3e 95 5e 3c 3d
       -0.24586427 0.041285366 0.24010256 0.045988638
000090 94 81 52 3d b8 e9 9e bd 15 aa 8f 3c 84 32 9c be
       0.051393107 -0.07759422 0.017537156 -0.3050729
0000a0 dd 2a 8d be 69 40 62 3d 2e 63 94 3b f7 80 0f 3d
       -0.27571765 0.055237208 0.0045284247 0.0350351
0000b0 5a 7f b4 3d 67 3b 8d bd b7 4f d0 3e 4e 50 24 bd
       0.08813353 -0.06896096 0.40685818 -0.040115647
0000c0 c8 6f 8c 3e a2 65 8b bd fd 3d f5 bb 05 ba 0c be
       0.27429032 -0.06806494 -0.007484196 -0.13742836
0000d0 9d 47 a5 bd 46 21 a5 bd c7 b2 90 3c 7f 74 04 be
       -0.080703 -0.08062987 0.017663373 -0.12935065
0000e0 90 b0 30 be 99 24 14 bc d5 c8 26 3e 6c 92 26 bd
       -0.17254853 -0.009041929 0.16287549 -0.040666983
0000f0 d0 82 07 bd ba c3 fb bd 15 93 cf bc 4c 37 b8 bd
       -0.033083737 -0.12293191 -0.025338689 -0.08994922
000100 93 f9 4d bd f5 21 b8 3d 19 33 af be c6 21 f3 3d
       -0.05028684 0.08990852 -0.34218672 0.11871676
000110 11 d3 cb bd 81 bb 3d 3e e8 43 a8 3e 92 02 fa bb
       -0.09952367 0.18528558 0.32864308 -0.007629701
000120 f4 0e b4 bd 97 13 09 3b ef 36 33 bd 08 89 3c 3b
       -0.087919146 0.0020916217 -0.04375356 0.00287682
000130 d6 a9 33 be 32 cb 44 3b b2 01 28 be c6 e6 38 bc
       -0.17545256 0.003002834 -0.16406897 -0.011285489
000140 9f 40 53 3e be cc 3c 3d d8 9a 3a 3e 0e 56 d3 3c
       0.2063012 0.046093695 0.1822313 0.02579787
000150 0b bf 59 3b 6e 0c 5a be 1d 6a 95 3d b1 55 f8 3c
       0.0033225443 -0.21293804 0.0729563 0.030314298
000160 6c 55 4e 3b ef d3 1b be c0 5a 55 bc 44 60 0b 3d
       0.003148402 -0.15217565 -0.013022125 0.034027353
000170 ce 59 e6 3d 22 f6 26 bd a5 3f 0e bd 36 fd ca be
       0.11247598 -0.040762074 -0.034728665 -0.3964631
000180 cd 77 c0 bd 6f 5e ef 3c d5 be 86 3e c5 6d 02 3e
       -0.0939785 0.029219834 0.26317468 0.12737186
000190 ee bb a0 bc 86 ab 8c be b3 a3 a1 3d 51 d1 1d bd
       -0.019620862 -0.27474612 0.07892551 -0.038529698
0001a0 a7 0b a1 3c df 33 23 3e 6a e0 a1 3e 67 b2 c6 3b
       0.019658877 0.15937756 0.31616527 0.0060637477
0001b0 11 a4 e8 3d 97 96 ba bc be 74 30 3e 0e f8 28 3e
       0.11359418 -0.022776885 0.17232034 0.16500875
0001c0 4d 09 2d bc 7f 94 92 bd 2d 67 97 be c7 7f dd 3b
       -0.0105612995 -0.0715723 -0.29570904 0.006759617
0001d0 01 92 8d 3d b0 97 6d 3e f6 9a 74 be 12 88 11 3f
       0.06912614 0.23202395 -0.23887238 0.5684825
0001e0 bc 24 90 be 77 3f f6 ba 46 cc 94 3e b4 0c 1d 3b
       -0.28153026 -0.0018787225 0.29062098 0.002396387
0001f0 ad cf 35 be e4 7b 82 bc cd 61 79 be d4 4e ce ba
       -0.17755003 -0.015928216 -0.24353714 -0.0015740045
000200 e3 0d 0d bf ad e5 c6 bd df bf 22 3e 12 84 e0 be
       -0.55099314 -0.09711776 0.15893506 -0.43850762
000210 59 a9 fa bd 18 06 ad bc 21 5a 0d 3e b7 3a 37 3e
       -0.12239332 -0.02112107 0.13803913 0.17893492
000220 11 e7 e1 bc e9 5a 8e 3c ba c4 ea 3a 4b 5f bb bd
       -0.027576001 0.017377334 0.0017911412 -0.09149035
000230 ce 88 98 3e b7 0b 61 3c 3f bc 74 be e5 65 cb 39
       0.29791874 0.013735703 -0.23899935 0.00038795095
000240 2f da b3 3c 8f 60 1e 3e 8a c8 cc bd 9a 29 c5 ba
       0.021954624 0.15466522 -0.09999187 -0.0015042305
000250 9d df 55 3e 01 69 c0 3d 46 c4 0b 3d 9a dd b9 bd
       0.20886083 0.09395028 0.034122728 -0.0907547
000260 32 bc 3b 3e b1 1b 74 be a0 fb 9b 3c 03 51 70 bd
       0.1833351 -0.23838688 0.019040883 -0.05867101
000270 68 33 c1 bd d5 3d bd 3b 5d 9d b3 3a 64 41 79 3a
       -0.09433633 0.005775193 0.0013703514 0.000950834
000280 cc 53 34 3e 92 0f ec 3c 53 da 2e bc bb 42 80 3e
       0.17610091 0.028816018 -0.01067217 0.2505091
000290 bc d1 2a 3e 87 ef 15 3a 39 a5 4e be 6c b1 35 bd
       0.1668157 0.0005719591 -0.20180215 -0.044358656
0002a0 46 58 40 3e e9 40 19 bd 4f 30 fd 3d 57 35 4b 3c
       0.18783674 -0.03741542 0.1236273 0.012402854
0002b0 b4 15 a4 bd a1 45 0e bc e0 bf 47 3d 41 98 d9 bc
       -0.08011952 -0.008683593 0.04876697 -0.026561858
0002c0 4b 01 73 3e 76 f8 6e 3d a8 58 3f bd b3 f7 a6 3e
       0.23730962 0.05834242 -0.04671541 0.32610855
0002d0 8e 05 80 3e fb 02 08 3e 38 b6 42 be 4b 06 e8 bb
       0.25004238 0.13282387 -0.19014823 -0.0070808283
0002e0 eb 2f 03 3e ec 81 08 be 03 9e 89 3c 5d 3b a3 bc
       0.12811248 -0.13330811 0.016798979 -0.019925768
0002f0 0b 62 ef bb 72 9a 4e be e3 3a 26 be 62 85 9a 3c
       -0.007305389 -0.20176104 -0.16233401 0.01886243
000300 f2 59 26 3d 4d ea da bc d2 67 df 3c 39 03 e9 3d
       0.040613122 -0.026723051 0.027271185 0.11377568
000310 33 96 0c 3e 80 fd 5d 3d c7 86 11 3d 27 23 ca be
       0.13729171 0.054196835 0.035528924 -0.39479944
000320 c4 91 0e 3d c7 c4 54 bd 81 a6 50 3d 25 2a 26 3b
       0.03480698 -0.051945474 0.05094004 0.002535471
000330 88 1a 9d be 40 10 4e 3c 39 73 87 3d 9e 43 fe 3c
       -0.30684304 0.0125771165 0.06613774 0.031038102
000340 91 7d dc bc 4c 58 06 be 2d cf 67 be 49 19 c8 bd
       -0.026915343 -0.1311962 -0.22637625 -0.09770448
000350 83 76 f7 3d 1f ea b0 3d e1 34 45 3e 07 54 72 bd
       0.12083151 0.08638405 0.19258453 -0.059162166
000360 b6 68 53 bd 26 46 91 3d b3 4d 55 bb 9e 47 d1 3c
       -0.051613532 0.07093458 -0.0032547533 0.025546845
000370 ef 9b cb bd 43 9f 4b 3d 88 88 20 be 3c 42 37 bd
       -0.09941851 0.04971243 -0.15677083 -0.0447409
000380 71 99 9b bd 33 3d 09 3e dd a5 a0 bd 0e 6e 5a be
       -0.07597626 0.13402252 -0.07844136 -0.21331045
000390 1c 37 76 bd 95 95 2c be c1 35 23 3d c2 95 5c 3d
       -0.06011115 -0.16853936 0.039846186 0.053853758
0003a0 12 fb ce bc 4e fe 76 3e 93 d6 d0 bd 52 a7 5b be
       -0.025266204 0.24120447 -0.10197177 -0.21450546
0003b0 02 3c 5a be 3f 2c 97 be 10 dd af 3d 6f 63 e6 bd
       -0.21311954 -0.29525945 0.08587086 -0.11249434
0003c0 19 04 16 bd 1e 62 72 3e c4 40 7a bc f6 22 db bd
       -0.036625 0.23670241 -0.01527423 -0.10700028
0003d0 f2 44 c6 be 3e 68 6d 3d 27 33 09 3e 81 72 ec bc
       -0.38724476 0.05796074 0.1339842 -0.028863193
0003e0 81 4f 80 3e 79 8e 95 3d 95 9b fa 3c 88 af 5f be
       0.25060657 0.07302565 0.030591765 -0.21844304
0003f0 44 a9 e3 bd 91 a8 80 3e 1a 7d a1 bc ed e4 eb 3d
       -0.11116269 0.25128606 -0.019712973 0.115182735

base.2linear.bias f4 [50]
000000 39 14 9c 3d 65 a1 68 3d 07 86 1e be ee 36 7b 3d
       0.07621045 0.056794543 -0.15480815 0.061331682
000010 0a de 20 3d 13 3c 8b bd 8e 3d c8 bd d2 4d 0b be
       0.039274253 -0.067985676 -0.097773656 -0.13603905
000020 93 9f 1f 3e 58 b4 17 be f8 e8 92 3a 9d c4 6e 3d
       0.15588216 -0.1481489 0.0011208346 0.058292974
000030 9f b5 27 be 50 f8 ff ba c2 a8 46 bc a5 8e 50 bd
       -0.16377877 -0.0019528959 -0.012125196 -0.050917286
000040 5d 78 50 3d 33 dc b7 3c 95 d3 51 bc b2 8a 4e bd
       0.050896037 0.022443866 -0.012806793 -0.05042524
000050 03 79 bc bc 29 31 fa 3d 7f 9e 82 3d a1 4b d8 3d
       -0.023006922 0.12216408 0.06377887 0.105613
000060 e1 5c 9a 3d 8c 33 c0 bd b7 3e c6 bd f9 05 12 be
       0.075372465 -0.09384832 -0.09679931 -0.14260091
000070 8a 50 08 3d 42 af 9f bd eb 17 f4 bc e6 bd b5 3c
       0.033279933 -0.077971 -0.029796561 0.022185277
000080 85 c1 8d 3a a7 f9 e3 b8 99 2d 1b 3d 7e ea 88 bd
       0.001081512 -0.00010870705 0.037885282 -0.06685351
000090 4a 09 44 be a6 e7 87 3d 2b da 79 3d 5f 83 16 3c
       -0.19144168 0.0663598 0.060999077 0.009186595
0000a0 0f a6 a8 bc 10 1b e8 bc c5 7a 18 bc 8b 53 bc bd
       -0.020586995 -0.028333217 -0.009306614 -0.09195622
0000b0 64 a9 15 3d 6a 37 eb bd 2e e1 9f bd b5 b4 9f 3d
       0.036538497 -0.11485179 -0.078066215 0.07798139
0000c0 77 1e f4 bd fc 23 c8 ba
       -0.11919873 -0.0015269513

base.3linear.weight f4 [50, 50]
000000 bc ee dd 3d 0e 98 e8 3d 1d b1 87 3d 07 c4 6d be
       0.108365506 0.11357127 0.066255786 -0.2321931
000010 42 d6 33 3c 97 5e c8 be 24 8d 0a bf 3b 30 f8 3d
       0.010976376 -0.39134666 -0.54121614 0.12118574
000020 35 8c bc bd 6f 80 ad bb 3a 80 0d 3e 73 68 07 be
       -0.0920643 -0.0052948515 0.13818446 -0.13223438
000030 07 d1 f6 3c 17 57 83 3d 29 49 91 3c 5c a3 9b 3e
       0.030128969 0.064130954 0.01773508 0.3039807
000040 1c 0f ea bd b8 99 c4 be 76 cc 00 3e 9d d7 13 bf
       -0.11428663 -0.38398528 0.12577996 -0.57750875
000050 f8 2d 92 3e f2 21 07 3e c0 23 a4 3e 04 3b 94 3e
       0.28550696 0.13196543 0.32058525 0.28951275
000060 bc ff a1 3e c8 0c 5a be a6 20 d0 3e d9 75 46 bc
       0.31640422 -0.21293938 0.4064991 -0.012113058
000070 64 15 9a bd 98 98 e4 be eb d4 8c be aa 74 60 3d
       -0.07523611 -0.4464767 -0.27506194 0.05479876
000080 bd b1 ee bc 4e 2c 0c bf e1 3f 13 3c cc b2 4b bd
       -0.029137487 -0.54755104 0.008987398 -0.04973106
000090 73 40 8b bf fa 0b e0 3e bd 7f 3e ba 5e fa bc 3e
       -1.0879043 0.43759137 -0.00072669593 0.36909765
0000a0 f1 ef ad 3d 30 aa 9e bc 5d 68 76 be 9f 59 29 be
       0.08493031 -0.019368261 -0.24063249 -0.16538094
0000b0 6f fa 48 be 16 86 8d be 48 71 0e be 97 61 6a 3d
       -0.19626783 -0.27641362 -0.13910401 0.057221975
0000c0 43 69 2d 3c 6a 2c 60 3e b3 50 fe bc 60 95 64 3e
       0.010584178 0.21891943 -0.03104434 0.22322607
0000d0 42 ca 3e be d8 aa 08 3e 86 5e 58 3b ba 1b 28 be
       -0.18631843 0.13346422 0.0033015325 -0.16416827
0000e0 e7 d2 84 be a3 16 4b be 49 5e 87 be 29 80 9d 3c
       -0.25942156 -0.19832854 -0.2643912 0.01922615
0000f0 e9 bb bd 3d c8 d7 be bd fe bb 79 bd e7 fb 2b 3d
       0.09264357 -0.09318501 -0.0609703 0.04198828
000100 ee 4a a4 3d 9f 82 09 be 3f bf 4b be 15 28 af bd
       0.08022104 -0.13428734 -0.19897173 -0.08552567
000110 a7 c8 02 3e 53 41 3e be a2 d4 bb 3d 30 ba cd 3e
       0.12771855 -0.18579607 0.09171416 0.40181112
000120 2e 8a 7f 3e 74 dd 07 3e 37 83 51 3e d6 a2 ad 3d
       0.24955055 0.13268071 0.2046021 0.08478324
000130 87 91 8a bb 09 73 65 be 1c ce 27 bb f3 79 29 be
       -0.004228774 -0.22407164 -0.0025605028 -0.16550426
000140 58 57 9d ba 33 1f 90 bd c9 21 22 3e 86 86 83 be
       -0.001200418 -0.07037201 0.158332 -0.2568857
000150 ea c5 a4 bd 5e 46 ae bd cd 92 e1 be 16 60 b4 3e
       -0.080455616 -0.08509515 -0.44057313 0.35229558
000160 cb 7d 56 3c ed a8 22 3e 3e e5 48 3e 69 ed 6a 3c
       0.013091515 0.15884753 0.19618699 0.01433883
000170 2d 9d 02 be 3a a7 e1 bd 55 06 5d be e2 23 1f be
       -0.1275527 -0.11018224 -0.21584447 -0.15541032
000180 69 3f 4c be 93 06 53 be 63 d4 45 3e 14 30 e8 3d
       -0.19946064 -0.20607977 0.193193 0.11337295
000190 d6 0b d2 3d 63 03 0f 3b 55 c6 37 be 85 6f b3 bd
       0.10256164 0.0021822087 -0.17946751 -0.08761505
0001a0 51 bb 46 bd eb f8 78 3d d5 ca e2 be a7 d2 1a 3e
       -0.048518483 0.06078426 -0.44295374 0.1511942
0001b0 ee a3 81 3e d9 6d 71 bd d2 a7 d0 3c 06 dd 58 3e
       0.2532038 -0.05894265 0.025470648 0.21178064
0001c0 6d 73 69 3e a1 54 37 3e e3 c6 1a bc 40 4e 62 3d
       0.22797938 0.17903377 -0.009446832 0.055250406
0001d0 83 58 67 be c5 8a c0 bd 5f bd ae bc d7 e6 a2 3d
       -0.22592358 -0.09401468 -0.021330534 0.079541855
0001e0 4e 92 3d 3b 02 ed 51 be 00 e4 3f 3c 94 cf 17 3d
       0.0028926316 -0.20500568 0.011712074 0.037063196
0001f0 aa bf 58 bc 8f e4 fc bd 65 de ef 3a cd d4 42 3d
       -0.01322929 -0.123482816 0.0018300532 0.047566224
000200 b5 a0 21 3e 98 4b 92 3c ca df 65 bd eb 77 d4 bd
       0.15783961 0.017858312 -0.056121625 -0.10374435
000210 8b 67 ad bd 25 80 8d 3d 56 2d 84 bd 1d ee a2 bd
       -0.08467015 0.06909207 -0.0645396 -0.07955573
000220 b7 52 0b bc bc ac d5 bc 6e 0d de 3c b9 34 fe 3d
       -0.0085036075 -0.026083343 0.027106013 0.124124
000230 34 01 96 be 86 2c 09 bb 23 c8 19 3e 1b 88 ac 3e
       -0.29297793 -0.002093108 0.15017752 0.3369759
000240 51 65 d9 3d 83 af 03 3e 48 c0 82 bc ac 47 1a bd
       0.10615028 0.12859921 -0.015960827 -0.037666008
000250 74 7c 86 3e f8 95 91 3b 33 bf 97 3e a5 bd 2b b9
       0.26266825 0.0044429265 0.2963806 -0.00016378479
000260 8c 59 f0 3d 13 fd 4d 3e 9a 34 b6 bd 38 d7 16 bd
       0.1173583 0.20116071 -0.08896752 -0.036826342
000270 52 23 d4 3e 8e eb c6 3d 22 67 2c 3e 55 72 08 3e
       0.41433197 0.09712897 0.16836217 0.13324864
000280 c8 70 34 be 3d df 48 3e de 5c c3 3e d7 08 af 3d
       -0.17621148 0.19616409 0.3815679 0.08546608
000290 02 c5 6f 3e b6 d2 41 be d1 d9 68 bd 02 29 d2 3c
       0.23414996 -0.18928036 -0.05684835 0.02565432
0002a0 db c9 1b 3e 31 4e 43 3d 74 55 00 3d 2d 7a 1f 3e
       0.1521372 0.04768199 0.031331494 0.1557395
0002b0 fb 3a 9e bb 40 0a 40 3d 6f a7 46 bc c4 bf 69 3e
       -0.0048288084 0.046884775 -0.01212488 0.22827059
0002c0 63 04 05 be 62 77 01 3e 3f 21 3c 3d ac 11 68 be
       -0.12989955 0.12643197 0.045930143 -0.22662991
0002d0 d9 7a 81 3c db 47 f8 bd b5 f4 b3 3d 5c 94 bd bd
       0.015805649 -0.1212308 0.087869085 -0.09256813
0002e0 9e 78 6e be 06 5a 4a be 1c 6a 21 3d 05 9c cd bb
       -0.232882 -0.19760904 0.039407834 -0.0062747025
0002f0 fe 92 9e bd 37 a4 03 be e5 34 2d 3c b1 4c 96 3b
       -0.0774288 -0.12855612 0.010571693 0.004586779
000300 f8 50 4c 3e 26 c7 2a be 08 df f8 3d 53 d8 49 3c
       0.19952762 -0.16677532 0.12151915 0.012319642
000310 ad bd 81 3d 34 c4 aa 3d ae 09 b1 bd ee 80 c4 3d
       0.06335006 0.08338204 -0.086444244 0.09594904
000320 80 9c 9d bd e6 2c f5 3e 3f 29 1d 3e 86 38 5b be
       -0.07695866 0.47885817 0.15347765 -0.2140828
000330 c4 47 f7 bc 3f eb 7e 3d 41 a2 bb be 17 d0 c7 be
       -0.030185588 0.062236067 -0.36647227 -0.39025947
000340 3e d8 2a 3e 81 50 6b 3e 80 00 e7 3d 9f 9d 5c be
       0.16684052 0.22979929 0.11279392 -0.21544503
000350 c6 9e aa bd 5a 24 83 be 9b bc 67 bd 4a 78 36 bd
       -0.08331065 -0.25613672 -0.056576353 -0.04454831
000360 23 ca 44 be 4f 3e fa bd 2d bf c5 bd a1 80 a6 3d
       -0.19217734 -0.12218916 -0.096556045 0.08130003
000370 55 cb 5c 3e a8 a1 5c 3e f1 49 e4 bd 1d e1 50 3e
       0.2156194 0.21546042 -0.11146916 0.20398374
000380 04 15 34 3e 3c 1c 07 3d 07 44 31 3a a8 27 d5 be
       0.17586142 0.03298591 0.0006762151 -0.41631818
000390 71 ae 6c 3e 24 49 fe 3d 37 3e c0 bc 5e 1d 19 3d
       0.23113419 0.12416294 -0.023467166 0.037381522
0003a0 86 f4 0d bd 1b 82 5d be 26 f0 36 3e f6 ac b6 be
       -0.034657024 -0.21631663 0.17865047 -0.35678834
0003b0 2a ff ed bd 8f 8f d4 3c 0d 20 9a bd 9c d2 d3 3d
       -0.11620934 0.02594736 -0.075256445 0.10342905
0003c0 ef aa a1 3c c8 8c ac bb 2d b8 57 be 9b 14 a6 bd
       0.019734828 -0.005265806 -0.21066351 -0.08109399
0003d0 4d 5f f4 bd 0b 91 6a 3d 80 03 c2 be 18 5e c7 3d
       -0.1193224 0.05726723 -0.37893295 0.09734744
0003e0 bf c8 5e 3d 9f 86 f3 3b bc 7c f7 bd b8 27 51 3e
       0.054390665 0.0074318196 -0.12084338 0.20425308
0003f0 74 54 f1 bd aa 46 22 bd cc f6 09 bd 03 ac 68 bc
       -0.11783686 -0.03961817 -0.03368263 -0.014201167

base.3linear.bias f4 [50]
000000 25 d8 48 3e 1f 46 6b 3d 17 cb 45 bc d9 44 60 3c
       0.19613703 0.05743992 -0.012072346 0.01368829
000010 e6 65 69 3b 89 60 43 bd 8b 81 e9 bd 76 f3 d0 bd
       0.0035613715 -0.047699485 -0.114016615 -0.102026865
000020 d0 4a a6 bc 88 04 47 3d 35 a8 10 3c 18 fe d1 3d
       -0.020299345 0.048588306 0.008829166 0.10253543
000030 58 45 f9 bc e4 92 01 bd a2 ff 93 bd ba fa fa 3d
       -0.030428573 -0.031634226 -0.072264925 0.122548535
000040 1f ba c8 bd fc 65 0f bb 5a 24 da bd 81 23 50 3d
       -0.09801125 -0.0021880856 -0.10651465 0.05081511
000050 2a 51 3d bd 1d 1c cc bc 8f 2d 76 bd 29 c6 fa 3a
       -0.046219982 -0.02491575 -0.06010204 0.0019132543
000060 14 13 a2 bd 4f 2e 6f be 43 53 1b be 61 98 b8 bb
       -0.07913795 -0.23357509 -0.1516848 -0.0056333994
000070 31 09 0e 3d b0 d8 48 bc 89 de b6 3c 10 b6 35 3e
       0.034676734 -0.012258694 0.02232291 0.17745233
000080 0f ef 8f 3d d0 e3 ee 3c ac 9d ae 3c 3f 07 0a 3d
       0.07028019 0.029161364 0.021315418 0.033698317
000090 a8 87 2d 3d 9a 58 f4 3c 6a 0d 02 3e 7e 74 60 bd
       0.0423657 0.029827405 0.1270043 -0.054798596
0000a0 83 42 34 be 6b 9e 8e bd 1b 3e 7c 3c f8 f9 61 bd
       -0.17603497 -0.069638096 0.0153956665 -0.05517003
0000b0 4f 9c 63 bc c0 69 03 bc ef 6c 71 3c 40 58 93 bb
       -0.013892247 -0.008020818 0.014735444 -0.004496604
0000c0 0b 05 28 be 2c a4 0e be
       -0.16408174 -0.13929814

base.4linear.weight f4 [50, 50]
000000 b8 b2 a3 3e 7e 9d 82 3e 16 57 06 3d bd 7b 2b be
       0.3197229 0.25510782 0.032797895 -0.16746421
000010 63 a9 b0 bc 1e 43 39 3e fa e5 0a 3e f4 05 83 3d
       -0.021565145 0.1809201 0.13564292 0.0639762
000020 a6 c5 c6 bd 2d 39 81 3c 7c 72 53 be 13 15 b3 bd
       -0.09705667 0.015774334 -0.20649141 -0.08744254
000030 2b 85 1d 3e dd 32 91 3e 65 a7 13 bd 49 39 60 3e
       0.15382831 0.28359118 -0.03604831 0.21896853
000040 0d 46 58 3d c7 6b 16 be 9c 0a ac 3c 71 8b 92 bd
       0.05280118 -0.14689551 0.021001153 -0.071555026
000050 4d d9 55 be cc af 6e 3d fc 5c 9e be 7c 41 2c bd
       -0.20883675 0.05827312 -0.30930316 -0.04205464
000060 49 73 e7 bd e2 32 0c be e9 db 78 3e c7 46 96 3c
       -0.11301286 -0.13691285 0.24302639 0.018344296
000070 79 19 0d be 2e e6 03 be 2c 08 74 bd 01 f4 33 be
       -0.13779248 -0.12880775 -0.059578106 -0.17573549
000080 19 a8 e5 3d 65 e6 f8 bb 93 13 e9 be 84 af 24 bd
       0.11213703 -0.0075958245 -0.45522746 -0.040206447
000090 7c e9 a3 bc ea 60 00 3e d2 2b 58 bc d0 15 e1 bd
       -0.020008795 0.1253697 -0.013194041 -0.109904885
0000a0 fa 33 62 be 33 46 08 bd de 26 91 3d 4c 41 73 be
       -0.2209014 -0.033270072 0.070874915 -0.23755378
0000b0 8f da 01 3e 67 1a c7 3d ad e9 3a 3e eb 9a 3e 3e
       0.1268103 0.09721833 0.18253203 0.18613784
0000c0 12 4f 69 bd ce 97 28 3e da 54 e7 3c 52 bb a3 bd
       -0.056960173 0.16464159 0.028238703 -0.07994713
0000d0 d1 f6 4d 3d 17 36 18 bd ce 26 c5 3e 7d 79 07 be
       0.05028421 -0.03716096 0.38506168 -0.13229938
0000e0 84 2d 21 3e 38 ff b0 bd 1f 14 8b 3e 31 cc 19 be
       0.15740019 -0.08642429 0.2716379 -0.15019299
0000f0 04 f8 4e 3e 5a d2 51 3e e4 58 03 bd 87 ca 80 bd
       0.20211798 0.20490399 -0.032067195 -0.06288629
000100 cd c0 08 3e 7d c5 9e be 16 d6 5f be f9 4a f3 be
       0.13354798 -0.31010047 -0.21859011 -0.47518137
000110 0b ab d5 bd e1 a6 72 be 50 66 5c 3e 9f bc 3f 3e
       -0.104330145 -0.23696472 0.21523404 0.18724297
000120 16 9f bf be b6 4e 52 be 87 97 90 3e 9c f1 ac bd
       -0.3742606 -0.20537838 0.28240606 -0.08444521
000130 8d e6 2a bd af cd d4 be 65 3a e9 3c 71 d3 4f 3e
       -0.041723777 -0.41563174 0.028470227 0.20295502
000140 c5 d1 5f bd 28 7f 60 bd f3 21 b8 3d 15 79 98 3d
       -0.05464341 -0.054808766 0.0899085 0.074449696
000150 4c 4d b8 3d ba 54 19 be 0b 7e 10 be 72 6c f0 3d
       0.08999118 -0.14973727 -0.14110582 0.11739434
000160 a9 c7 3c 3e 60 2c a7 3d a2 38 71 be dc 18 dd 3e
       0.1843554 0.08162761 -0.2355676 0.4318303
000170 f5 85 3a bd d8 db cc 3e af 5f 09 3e 4e d6 9e bd
       -0.045537908 0.40011477 0.13415407 -0.07755719
000180 f4 11 cb bd c5 b6 fe bd e2 5f 97 be d7 40 21 be
       -0.09915534 -0.12437204 -0.2956534 -0.1574739
000190 8a 6c 3b 3e a0 12 4c 3e 04 be 19 3e 03 56 b2 3d
       0.18303123 0.1992898 0.15013891 0.08707812
0001a0 7b b9 08 be aa 27 97 bd 6c aa df be 5a d8 e0 bd
       -0.13352005 -0.07380612 -0.4368471 -0.10978766
0001b0 c4 c4 54 be b7 f4 34 3d 42 78 e8 3d 2c 0e 62 bc
       -0.20778185 0.04417869 0.11351062 -0.013797324
0001c0 3f fc 1a bc c3 81 89 3d b0 2e e4 3d 4d 56 1a 3f
       -0.009459554 0.06714203 0.111417174 0.60287935
0001d0 13 7e 8c 3d a4 5b d5 3d bf a5 aa bd 27 6a 76 3e
       0.06859984 0.1041787 -0.08332395 0.24063931
0001e0 0b c2 33 bd f8 67 a7 3d ed 41 55 3e 34 fa 5e 3d
       -0.043886226 0.08174127 0.2082593 0.05443783
0001f0 73 f6 ac bd 43 da f3 bd 41 c1 59 3e cb e1 00 3e
       -0.08445444 -0.119068645 0.21265127 0.12586133
000200 37 da c4 bd 55 49 e3 bd 05 77 ed 3d 9a 3f 18 bc
       -0.09611934 -0.11097971 0.11594967 -0.009292508
000210 c8 2a 82 3d 38 d3 17 3d ee e1 56 bd 17 87 32 bd
       0.06355816 0.03706667 -0.052461557 -0.043585863
000220 34 c6 00 3e e8 1a 52 be 5a da 32 be 55 dc 7b bb
       0.12575608 -0.20518076 -0.17466107 -0.0038430889
000230 0b fe d7 3d fd 73 c3 bd 12 be 61 3e 3d b1 19 be
       0.10546502 -0.095436074 0.22045162 -0.15009017
000240 0f 78 87 bc d4 fe 3c 3c e5 1a 98 bd 97 d3 a7 be
       -0.01653674 0.011535365 -0.07427005 -0.32778618
000250 74 7d 04 3e 03 ef 31 be ab 23 cb bc e8 84 64 be
       0.12938482 -0.17376332 -0.024797281 -0.22316325
000260 2c 0f 8c bd 1f df 03 bc 75 c4 c0 3c b6 56 b4 bc
       -0.06838831 -0.008048802 0.023531178 -0.022014003
000270 2d c4 93 bd 7e 81 f4 3d b3 c0 9b bc 0a d5 6f 3c
       -0.07215152 0.11938761 -0.019012785 0.014638195
000280 da 11 3a 3e ec ae 7f be cb 56 38 3e 1a 13 34 3e
       0.18170872 -0.24969071 0.18001859 0.17585412
000290 1c 73 7b be cc bf 16 be 27 5e c9 3d 73 76 b1 3e
       -0.2455563 -0.14721602 0.09832411 0.34660682
0002a0 b7 28 1b 3e b4 0d 3a be 94 f9 49 3d 7b c8 85 3d
       0.1515225 -0.1816929 0.049310282 0.06532379
0002b0 8a 27 78 3e 43 98 67 3e a6 6e 0b be 3b a9 c7 3e
       0.24233833 0.22616677 -0.13616428 0.389963
0002c0 b4 9e 3d 3e 9a 2b 30 3d bb ad ab bd b1 2a 6a be
       0.18517572 0.04301033 -0.08382746 -0.22867848
0002d0 25 44 0a 3e 8c af f9 bd 32 3d 18 be 22 ab 10 bd
       0.13502558 -0.12191686 -0.14867094 -0.035319455
0002e0 19 46 98 3d 4f e9 59 3d 9d cd 5a be e6 23 13 be
       0.07435245 0.053201016 -0.21367498 -0.14369163
0002f0 39 3c 0a be de 3f 5e 3e 5d d3 9b 3e 38 a1 dd bd
       -0.13499536 0.21704051 0.30434695 -0.10821766
000300 02 69 b6 3d 67 40 9f 3e 31 c1 4b be 27 50 6a 3d
       0.089067474 0.31103823 -0.19897915 0.057205345
000310 91 58 8e 3d e8 c7 01 bd 85 4c 40 bb 1d 3b 7c 3e
       0.069504865 -0.031684786 -0.0029342484 0.24631925
000320 57 ee 2c be 4a 8b 8b be 68 26 42 bd c9 33 80 bc
       -0.16887794 -0.27254707 -0.04739991 -0.015649693
000330 ce 90 76 be 49 5a 4d be f3 92 1d 3e 88 e5 a2 be
       -0.24078676 -0.20053972 0.15388088 -0.31815743
000340 01 63 3a 3e 9f c0 0d b9 fb 3a 49 bd 5e 88 7d be
       0.1820183 -0.00013518565 -0.049128514 -0.24759051
000350 ad 78 30 bc c1 b1 09 be a2 54 a1 be 15 25 84 be
       -0.010770959 -0.13446714 -0.31509882 -0.2580954
000360 0e da 98 be c0 b9 a1 3d 54 5b 5a be c6 c7 8d bb
       -0.29853863 0.07896757 -0.21323901 -0.0043267934
000370 9d ff c4 bd e0 97 be 3a 7c 01 15 bd c5 7b b0 bc
       -0.09619067 0.0014541112 -0.03637837 -0.021543393
000380 14 f3 6c 3e 77 01 ea 3d a2 07 81 bd a9 49 c4 3d
       0.23139602 0.11426061 -0.06300284 0.09584362
000390 c3 e2 61 3d bd 3c 1f 3e fc 01 1a 3e ad be a3 bc
       0.055147897 0.15550514 0.1503982 -0.019988382
0003a0 cf d7 80 3e 79 bc 4e 3e a7 84 d1 bd ad 89 b3 bd
       0.2516465 0.20189084 -0.102303796 -0.08766494
0003b0 10 7c 57 be b2 3f fd 3c 9a 99 25 3e 6e e6 03 be
       -0.2104342 0.030914161 0.16171876 -0.1288087
0003c0 cd b6 34 3e d8 a2 1c 3e de 11 21 be e5 2a ff bc
       0.17647858 0.15296495 -0.15729472 -0.031148383
0003d0 f9 7e 2c be 81 d6 8c 3d 48 97 5c 3b 2a 88 0f 3b
       -0.16845311 0.06876851 0.0033659507 0.0021901228
0003e0 9e 3a 75 be 12 39 b9 3d e8 a2 6c 3e bf 64 47 be
       -0.23948142 0.090440884 0.23109019 -0.19472025
0003f0 d5 b6 eb 3d 03 2c f3 3d 7c 09 05 be a2 29 89 3d
       0.11509482 0.11873629 -0.12991899 0.06697394

base.4linear.bias f4 [50]
000000 d4 15 05 be 51 6b 62 bc 7b 2f 3f 3d 5f 9b 01 bc
       -0.12996608 -0.013819532 0.04667614 -0.0079105785
000010 aa 63 cf bc 0c c8 1a be af e6 8a bd 8d 57 36 3d
       -0.025316078 -0.15115374 -0.06782281 0.04451709
000020 af b7 56 be ee 62 a8 bc ff 37 f8 bc ce 8a 4f 3d
       -0.20968507 -0.020554986 -0.030300139 0.050669484
000030 b0 dc 62 bd 27 01 e3 3d 8d c4 76 3d 0b 13 2f bd
       -0.055386245 0.11084204 0.06024604 -0.04274277
000040 33 95 32 3c 87 b1 be ba c5 bb fd bc 7c ee ea 3c
       0.01089983 -0.0014548757 -0.030973325 0.028678171
000050 b6 2f b9 3d 87 bc 66 3d bb cc a8 3c 6e 3b 47 3e
       0.09042303 0.056332137 0.020605436 0.19456264
000060 fd a7 96 3d 57 f3 b0 3d fe 6c 85 bb ea 9f 9b 3c
       0.0735626 0.086401634 -0.004071831 0.018997151
000070 59 e8 0c bd d7 ac 71 bb b3 b2 85 bd d8 c2 fb bb
       -0.03440127 -0.0036876702 -0.06528225 -0.0076831393
000080 8f 72 df bc fa b4 10 3d 13 91 02 3d 9f f8 c0 bd
       -0.027276305 0.035328843 0.031876635 -0.09422421
000090 79 60 a7 bc 7b 67 3e 3d 28 4b b3 bd 27 27 84 bd
       -0.020431744 0.046485405 -0.08754569 -0.0645278
0000a0 6c bd 88 3d 66 90 67 3c 44 1b 4a 3c 2a 2b 86 3d
       0.06676754 0.014133548 0.012335602 0.06551202
0000b0 60 1e 0d 3d 50 13 76 3c 4a 5d 19 bd 24 6b b8 bd
       0.034452796 0.015019253 -0.037442483 -0.090048105
0000c0 e7 ab 12 bc e2 6c 18 bd
       -0.0089521175 -0.037213214

base.5linear.weight f4 [50, 50]
000000 f5 a1 33 be da 2a 2b bd ad a2 2e 3d 6c 40 35 3e
       -0.1754225 -0.041788913 0.04263561 0.17700356
000010 74 dc 91 bd 85 11 7f be a7 ee 2d 3d 2b 03 89 bd
       -0.07122126 -0.24909027 0.042463925 -0.06690057
000020 09 d5 6b 3d be 71 1e 3e e3 48 f3 bc c0 1b 41 3d
       0.057576213 0.15473077 -0.029697841 0.047145605
000030 79 c2 08 3e 16 69 18 bd c8 1a a7 3e 39 e7 94 be
       0.13355435 -0.037209593 0.3263762 -0.2908266
000040 c2 0f 88 bc 02 ad de 3d 0a 91 04 be 7a da 77 3c
       -0.016609076 0.10872842 -0.12945953 0.015127772
000050 ff d3 68 3e ec 34 45 3d 4c c2 75 3d ef 9c 04 bf
       0.2273712 0.048146173 0.05999975 -0.5180196
000060 ee bd ec 3e 43 8d 77 be ff de 99 3e 57 46 97 be
       0.46238655 -0.24174981 0.30052945 -0.29545853
000070 69 3a 14 be bf 5d ce be 62 fc ed bc 4d 2d 93 be
       -0.14475407 -0.40305898 -0.02905101 -0.287455
000080 44 be bc bd 97 5b 75 be 08 57 24 bd c0 f8 89 3d
       -0.09215978 -0.2396072 -0.040122062 0.067368984
000090 87 21 ec bd 89 27 0a 3d 37 9e e4 bd 1f 56 84 be
       -0.11529832 0.03372911 -0.111629896 -0.25846955
0000a0 45 4b 7d 3d 1f b1 ea bd f7 e3 c2 3d 6a 0d 0e bd
       0.06183936 -0.114595644 0.09516137 -0.03468076
0000b0 c0 ff f7 bd 87 b2 c3 3b af 95 33 3e a7 32 11 3c
       -0.12109327 0.00597221 0.17537569 0.008862174
0000c0 d6 ae ea bd 73 06 45 3e 98 f3 65 3d cb ea bc 3d
       -0.114591286 0.19240741 0.056140512 0.09224471
0000d0 e2 ca 9c be 29 96 9c be 1b c6 8f bc 40 bc 85 3c
       -0.30623537 -0.30583313 -0.017550519 0.016325116
0000e0 b2 b1 9d be 4f cb e6 3b 51 7f 84 be 8d bd 93 3e
       -0.30799633 0.0070432792 -0.25878385 0.28855553
0000f0 b3 f8 27 3c 68 a2 0c be 46 2c 58 3d 6f 68 82 3d
       0.010252166 -0.13733828 0.052776597 0.063675754
000100 19 31 bc 3c 39 0e 53 3e e1 d5 5a be c1 7e 07 3e
       0.02297263 0.20610894 -0.21370651 0.13231947
000110 af ff 4f bc b5 85 a4 bd d1 9b 98 be ee 92 0b be
       -0.012695237 -0.08033315 -0.29806378 -0.13630268
000120 9b c5 9e 3d 9e ba 1f 3e 3b 78 8d be 83 7b 1f 3e
       0.07752534 0.15598533 -0.2763079 0.1557446
000130 3c 8f 4b 3e 76 59 38 3d 51 e7 e2 bd b6 d5 c2 bc
       0.19878858 0.04500719 -0.11079276 -0.023783546
000140 30 89 b1 3d 93 52 ee 3c 51 37 bb 3c 69 f7 2f bd
       0.086687446 0.029092109 0.022853525 -0.042960558
000150 f8 07 11 be 03 e5 b0 bd 1e 35 67 3e 0e 07 77 3e
       -0.14163196 -0.086374305 0.22578856 0.24123785
000160 07 ff 1c 3e e0 41 2f 3e 40 7c 86 be 6e 59 a3 3d
       0.1533166 0.17114973 -0.2626667 0.07976042
000170 6c 49 b5 3e 34 1b d1 be 5c c8 2c be 86 6d 17 be
       0.3540758 -0.40841067 -0.16873306 -0.14787874
000180 b9 72 45 3e f9 1e 90 3d 64 98 37 3e ad 71 8a be
       0.19282044 0.070371576 0.17929226 -0.27039853
000190 9f 75 1d 3e cc d4 8b bc e3 91 5f 3c 0e 2a 0d 3e
       0.153769 -0.017069243 0.013645622 0.13785574
0001a0 44 39 4f 3d bc 3d 55 be 6d ab aa 3d c8 c7 e3 bd
       0.050591722 -0.20824331 0.08333478 -0.111220896
0001b0 c3 b7 69 bc 5e 79 53 be 2e 09 d3 bd ed 49 28 3e
       -0.014265004 -0.20651767 -0.10304485 0.1643445
0001c0 c0 70 f7 bc e9 17 0d 3e 72 62 c2 3d 58 28 be 3e
       -0.03020513 0.13778652 0.09491433 0.37140155
0001d0 f3 36 2d 3e 01 e9 94 bd 10 09 42 bc 8e 15 14 3e
       0.16915493 -0.072710045 -0.011842981 0.14461347
0001e0 a0 37 b7 bd d1 9d ef 3d d2 12 4a 3d d7 e6 ad 3d
       -0.089461565 0.11700023 0.049334355 0.08491295
0001f0 ed 1d 49 3c 0d 1b 2f 3e c7 13 9b 3c 38 fb f1 3d
       0.012275201 0.17100163 0.018930329 0.11815494
000200 2d 07 3f be ee c3 36 3d da 06 bb bd a1 4e 66 3d
       -0.18655081 0.044620447 -0.09132166 0.05622733
000210 5a 9f 82 bd e9 65 a8 3e 39 9b 80 3d 94 3e 0c be
       -0.0637805 0.3289025 0.06279606 -0.13695747
000220 fc 08 f5 3d 62 4b f5 3c b8 41 94 bc 45 fc 52 3d
       0.11964604 0.029943172 -0.018097743 0.051510114
000230 a1 59 c3 3d e3 34 51 3d 45 79 8b bd 9f e6 d4 3d
       0.0953858 0.051075827 -0.0681024 0.1039555
000240 ed 03 80 3b d9 9f 55 be b0 30 0f be ce 34 51 bc
       0.003906718 -0.20861758 -0.13983417 -0.012768937
000250 3e 7c e6 3d f2 c5 68 be a4 a7 3d 3e c4 93 a8 bd
       0.11254166 -0.2273176 0.18520981 -0.08231309
000260 bd 0f ce bd 7d 0f ef bd 2e 1c 03 3e 65 08 cb bd
       -0.100615956 -0.11672876 0.12803718 -0.099137105
000270 c9 6f 36 3d c9 6c d9 3d 3e 9e aa 3c 51 a0 3a be
       0.0445402 0.10616452 0.020827409 -0.18225218
000280 6b 01 83 be 50 ed 5a 3e 29 52 05 be ed 52 21 3d
       -0.2558702 0.2137959 -0.13019623 0.039385725
000290 d4 85 00 3b 7f 43 2b be 0f 27 2d 3e d2 96 b6 3d
       0.0019611018 -0.16724966 0.16909431 0.089154854
0002a0 d2 08 be 3d c7 6e 0a 3d 22 e3 0b be a2 35 e1 bd
       0.09279026 0.03379705 -0.13660863 -0.10996558
0002b0 75 2a d9 bd 72 31 21 bd 9d ec 07 3e b4 bd 8f bc
       -0.10603801 -0.039353795 0.13273855 -0.017546512
0002c0 32 c0 11 bf 85 de 3f 3d 65 ef 6a 3d 82 12 2e 3d
       -0.5693389 0.04684307 0.05735721 0.04249812
0002d0 47 54 2b 3d 6d 67 e1 3e 85 12 8e bd 07 89 f3 3c
       0.04182842 0.4402422 -0.06937126 0.029728426
0002e0 53 ae 37 3e 18 9b ba be 41 5b 12 be 51 c3 d8 3d
       0.17937593 -0.36446452 -0.14292623 0.10584129
0002f0 45 95 15 3c cf 34 ce bc 66 41 ac 3e d4 da 8f 3c
       0.009129827 -0.025171665 0.33643645 0.0175604
000300 87 1e 0a 3e 55 2d c4 bd e4 f1 a8 3e 08 fb d0 3c
       0.13488208 -0.09578959 0.32997048 0.025510326
000310 60 db eb bd 1e d6 1d be 06 ed bc be d2 99 0c 3d
       -0.11516452 -0.1541371 -0.36899585 0.034326382
000320 e4 da dd 3d 68 16 65 be dc d7 8e be 90 24 30 3e
       0.10832766 -0.22371829 -0.27899063 0.17201447
000330 7d 6f b5 bc 70 9e 69 3c 62 4f b6 be 12 d7 13 be
       -0.022147888 0.014258966 -0.3560744 -0.14437512
000340 aa f5 7b be d5 6c c0 3d f4 ed 10 3e c1 ad 0a bf
       -0.24605432 0.09395758 0.14153272 -0.5417138
000350 56 41 00 be 08 3e fe bd 3f 01 89 bb 55 fd 85 3e
       -0.12524924 -0.12414175 -0.0041810567 0.2616984
000360 16 55 64 bf fb ea 62 3e ab af 2d 3e 72 ef 0c be
       -0.8919233 0.2215995 0.16961543 -0.13763216
000370 0f f0 06 3e b2 1c a3 be fa 17 a9 3e a8 09 c2 bf
       0.13177513 -0.3185783 0.33026105 -1.5159197
000380 aa c0 ab 3d c8 5a fa bd 42 16 aa 3e a6 bf 42 3d
       0.08386357 -0.122243464 0.33220106 0.04754605
000390 48 a1 f0 3d e7 2a e7 3e 87 eb 36 bd a3 21 24 be
       0.11749512 0.4514992 -0.04465821 -0.16028456
0003a0 c5 ce 12 3e 63 cb aa be 8d 7c 07 be c6 31 54 3e
       0.14336689 -0.33358297 -0.13231106 0.20722112
0003b0 7e 88 38 3f 17 48 30 3d 26 39 4b 3c aa ab 0d be
       0.7208327 0.0430375 0.012403762 -0.13835016
0003c0 0d 52 7d be 0b 8d 11 39 77 5f 08 3d 35 0f ea bd
       -0.24738331 0.0001388082 0.033294167 -0.11428682
0003d0 50 e9 08 be 2d 51 03 3e cf 6e 35 bd 82 0a 49 3e
       -0.13370252 0.12823935 -0.04429513 0.19632915
0003e0 16 3d 67 bc f8 c7 9c 3d a7 5a e8 bd 93 e8 55 be
       -0.014113685 0.076553285 -0.113454156 -0.20889501
0003f0 09 52 f9 bd 83 7d 04 3e 30 cc 9e ba c9 c6 56 3e
       -0.1217385 0.12938504 -0.0012115296 0.20974268

base.5linear.bias f4 [50]
000000 fb 37 78 3c fe c8 e9 bc 03 54 12 3d af 2d 48 3d
       0.0151500655 -0.028538223 0.03572465 0.048871692
000010 a6 d8 d4 bc 3b c3 66 3d ee 81 20 be b1 a9 2c bd
       -0.025982212 0.05633853 -0.15674564 -0.042154018
000020 73 7d ae bd e4 40 df 3d 4b 44 74 3d 41 d4 0b 3d
       -0.08520021 0.10901049 0.05963544 0.034137968
000030 53 76 0d be 66 67 6d bc e0 a1 85 3c 35 37 c0 bd
       -0.13814668 -0.014489984 0.01631254 -0.0938553
000040 28 2c 61 bd 68 e7 b9 bc 9c 65 f8 bc cd 04 9f bc
       -0.05497375 -0.02269335 -0.030321889 -0.019411469
000050 17 05 1c bd 3d c6 2a 3d 8d 20 96 3c 62 c1 b8 3d
       -0.03809079 0.04169296 0.018326068 0.0902126
000060 46 07 e5 3d d8 2f 0a 3d a6 4a 11 bd b7 07 4a 3c
       0.11183028 0.033737034 -0.03547158 0.012330941
000070 e8 af d9 bd 59 67 74 bd ee b7 5c 3d ed f4 b9 3d
       -0.106292546 -0.059668873 0.053886347 0.09079919
000080 36 a9 8e bd b1 7b de bc cb 49 26 3b 68 a3 90 3d
       -0.06965868 -0.02715859 0.0025373574 0.07062417
000090 eb c6 8d bd 5d 91 90 bd 0c 8d 4a bc 2a 7a 48 3d
       -0.06922706 -0.07058976 -0.01236273 0.04894463
0000a0 a8 b1 af 3b 27 32 be 3b 52 0d 1e bd c2 d2 a8 bd
       0.0053617544 0.0058043185 -0.038586922 -0.08243324
0000b0 b6 25 16 3d b5 7d e4 bc 3f 1d 20 3c 21 ac 76 bd
       0.036657058 -0.027891973 0.009772598 -0.06022275
0000c0 84 da e8 3d 3a 6a bd bd
       0.113698035 -0.09248777
