STPINN-NS/sub_data/sub_write/36NS_model_train.pt (torch, 100091 bytes, 22 tensors)

base.0linear.weight f4 [50, 3]
0	0x3949faa7	0.00019262229
1	0x39ef4a6f	0.0004564109
2	0xb997dcef	-0.00028965573
3	0x3e83c087	0.25732824
4	0x3e096636	0.13417897
5	0xbe570caa	-0.21000925
6	0xbdbcf0cf	-0.09225618
7	0x3e678749	0.22610201
8	0xbe2aa01a	-0.16662636
9	0x3d536ca8	0.051617295
10	0x3e045c9a	0.1292595
11	0x3d720e6b	0.05909578
12	0xbd1ab03c	-0.037765726
13	0x3df19177	0.11795323
14	0x3ed35f08	0.4128344
15	0x3c803779	0.015651451
16	0x3e30482d	0.17215033
17	0xbe962b4a	-0.29329902
18	0xbea568c1	-0.32306483
19	0x3e032eae	0.12810776
20	0x3ead7c0f	0.33883712
21	0xb911e06c	-0.00013911881
22	0xb899cea7	-7.3341005e-05
23	0x389d1819	7.490832e-05
24	0xb8dbd85b	-0.00010483033
25	0x3862c22a	5.406343e-05
26	0x396b878e	0.00022461844
27	0xb9483035	-0.00019091445
28	0x39c94b87	0.0003839398
29	0xb8cfc1e0	-9.906641e-05
30	0x3dedc056	0.11608951
31	0xbd6d6853	-0.05796082
32	0xbe84e45e	-0.2595548
33	0xbe80c8ce	-0.25153202
34	0x3e081a17	0.13291202
35	0xbd8af9ac	-0.067859024
36	0xbe9c8473	-0.305698
37	0x3e667c02	0.22508243
38	0x3e289088	0.16461384
39	0xbdca26e9	-0.09870703
40	0xbddf5b9f	-0.10906147
41	0xbc419ce1	-0.011817188
42	0xbe2f12da	-0.17097035
43	0x3e3bf799	0.1835617
44	0x3e464636	0.19362721
45	0x3c0b82e2	0.008515092
46	0x3e01a99c	0.12662357
47	0xbe930683	-0.28715906
48	0xb7999467	-1.8308127e-05
49	0x3a9b055c	0.0011827159
50	0xba0dfbe9	-0.00054162607
51	0x3ec911ee	0.39271492
52	0xbe22c250	-0.15894437
53	0xbe890c77	-0.26767322
54	0x3dce8d69	0.100855656
55	0xbe47fbc7	-0.19529639
56	0xbdb79d45	-0.08965544
57	0x3e72b7e8	0.23702967
58	0xbdc6c0ab	-0.09704717
59	0x3e07059e	0.13185737
60	0xbdd7eda3	-0.105433725
61	0xbe62882e	-0.22122261
62	0x3e6cecd4	0.23137218
63	0x3d512974	0.051064923
64	0x3e1eb6b0	0.15499377
65	0x3d1c58ef	0.03817075
66	0xbed77397	-0.42080376
67	0xbe89cab2	-0.26912457
68	0xbe0d03d0	-0.13770986
69	0x3a9f0ea0	0.0012135096
70	0xbaeae0a7	-0.0017919735
71	0x3b583914	0.0032993006
72	0x3c6b26c2	0.014352502
73	0x3e68637e	0.22694203
74	0xbdc648b2	-0.09681834
75	0x3e1b238c	0.15150279
76	0x3e1708b5	0.14749415
77	0x3d147e21	0.0362531
78	0xbc39f6db	-0.011350359
79	0x3e1e1f0b	0.1544153
80	0x3e5efb77	0.21775614
81	0x3e8f5003	0.27990732
82	0x3cae39c1	0.021267774
83	0xbdc6849d	-0.09693263
84	0xbd909f95	-0.07061688
85	0x3d9cd5d3	0.07657971
86	0x3e446ae7	0.19181405
87	0x3c4240ca	0.011856267
88	0x3df05078	0.11734098
89	0xbe49173b	-0.19637768
90	0xbea5782a	-0.3231824
91	0x3e014079	0.1262225
92	0x3e497ac5	0.19675739
93	0xbe8f2ca3	-0.27963743
94	0x3ea4c963	0.32184896
95	0xbe23bab2	-0.15989187
96	0xbe2db25c	-0.1696257
97	0x3e4564be	0.19276711
98	0xbd959faf	-0.07305848
99	0x3a1e77d2	0.00060450763
100	0xb9973372	-0.00028839294
101	0x3a0957b4	0.0005239204
102	0x3ec5b0d9	0.38611487
103	0x3e0360a7	0.12829839
104	0xbea2a324	-0.3176509
105	0xbe2ac4ac	-0.16676587
106	0xbeb6ff8b	-0.3574184
107	0x3da0db57	0.07854336
108	0xbe419e0f	-0.18907951
109	0x3d3f421b	0.046693902
110	0x3f171641	0.5901833
111	0x3dcd6a1d	0.10030005
112	0xbe298ef2	-0.16558436
113	0x3c4a4266	0.012344932
114	0xbd40c606	-0.04706385
115	0xbe260d2d	-0.16215964
116	0x3ea115f9	0.31462076
117	0xbd9451c2	-0.072421566
118	0xbec71f7e	-0.38891214
119	0x3eac4dfb	0.33653244
120	0x3e79a638	0.24379814
121	0x3e5897b0	0.21151614
122	0xbec7418d	-0.389172
123	0xbdb3d7d9	-0.08781404
124	0x3e8c4d97	0.27402946
125	0xbc39664e	-0.011315895
126	0xbc51e09b	-0.012809898
127	0x3da9186b	0.082566105
128	0xbe3c20cf	-0.1837189
129	0xbd02ea8e	-0.03196197
130	0x3e4db0bd	0.20086952
131	0xbe8d259d	-0.2756776
132	0xbe3213c0	-0.17390347
133	0x3e5ff5bd	0.21871085
134	0x3dc89026	0.09793119
135	0xb9f582de	-0.00046827545
136	0xba1ce917	-0.0005985661
137	0xb9c97f6a	-0.00038432638
138	0x3e463c24	0.1935888
139	0xbddacf7f	-0.10684108
140	0xbe807843	-0.25091752
141	0xbd8f0161	-0.06982685
142	0xbe3b0595	-0.18263848
143	0x3d8c883f	0.068619244
144	0xb9c6c35b	-0.00037911054
145	0x3a6b79ae	0.000898267
146	0xb9b4c9a9	-0.00034482524
147	0xb982f895	-0.0002498074
148	0xb9a17aa0	-0.00030799676
149	0x3995e7f4	0.00028592313

base.0linear.bias f4 [50]
0	0xb9064115	-0.00012803481
1	0xbe1c2582	-0.15248683
2	0xbdbfe338	-0.093695104
3	0xbe27f11a	-0.16400567
4	0xbdf12a00	-0.11775589
5	0xbce393a8	-0.027780369
6	0xbda7dafa	-0.08196063
7	0x3823cd57	3.9053466e-05
8	0xb7b908ad	-2.2057759e-05
9	0xb9404245	-0.00018335234
10	0x3dd926f8	0.10603136
11	0x3db1def8	0.08685106
12	0xbe1cf018	-0.15325963
13	0x3e21e6f1	0.15810753
14	0xbe1154c9	-0.14192499
15	0xbda87a36	-0.08226435
16	0xba0d93f2	-0.0005400769
17	0x3cad8178	0.0211799
18	0x3e3f0648	0.1865474
19	0xbe2a785b	-0.16647474
20	0x3e27e55f	0.16396092
21	0xbe3ca2ec	-0.18421525
22	0x3e39db8e	0.1815016
23	0xb9b9d1e9	-0.00035442345
24	0xbe2d7d02	-0.16942218
25	0xbe69728f	-0.22797607
26	0xbe34d6b6	-0.1766003
27	0xbe05899e	-0.13040778
28	0xbe1d0f70	-0.1533792
29	0xbd260b27	-0.04053798
30	0xbd92b6f0	-0.07163799
31	0xbdbf011e	-0.09326385
32	0xbd0d0d1d	-0.034436334
33	0xba06306c	-0.000511891
34	0x3d584350	0.05279857
35	0x3e8b31aa	0.27186328
36	0x3d09cd6d	0.033643175
37	0x3d7fa15a	0.062409736
38	0x3d2763bd	0.040866602
39	0x3e5c7734	0.21529847
40	0xbe0e39ac	-0.13889188
41	0xbe3f4e42	-0.18682197
42	0x3c95f87a	0.01830696
43	0xbd4a976c	-0.049460813
44	0xbe14e758	-0.14541376
45	0x3a0882b1	0.0005207463
46	0x3decf95f	0.11571001
47	0x3e2a3780	0.16622734
48	0xb9d49d72	-0.00040553097
49	0x39573b21	0.00020526025

base.1linear.weight f4 [50, 50]
0	0x3c00740e	0.00784017
1	0x3df6f452	0.12058319
2	0x3b92f0c0	0.004484266
3	0x3e252291	0.16126467
4	0x3e0ae415	0.13563569
5	0xbd86d26b	-0.06583103
6	0x3f1d7b99	0.6151672
7	0x3b6c66b9	0.003607197
8	0x3cbde27b	0.023179283
9	0xbc889fa5	-0.016677687
10	0xbe193fbd	-0.1496572
11	0x3deb5848	0.11491448
12	0x3ee8ccae	0.45468658
13	0xbd658c6a	-0.056042112
14	0x3e20ec87	0.15715228
15	0x3e4019fe	0.18759915
16	0x3c33e3c6	0.010979598
17	0xbde21416	-0.11038987
18	0xbe4fc4cd	-0.20289917
19	0x3e1d0bc8	0.15336525
20	0xbdc413ed	-0.09574113
21	0xbdeec361	-0.11658359
22	0xbe2d5199	-0.16925658
23	0xbe5a9690	-0.21346498
24	0xbe2cdae1	-0.1688037
25	0x3e8bf711	0.27336934
26	0xbd3062be	-0.043062918
27	0xbf06784c	-0.5252731
28	0x3d87ebc9	0.06636769
29	0x3e7cc721	0.24685337
30	0x3eabd835	0.3356339
31	0x3e433f1a	0.1906704
32	0xbceb9cf3	-0.028761363
33	0xbc9f4224	-0.019440718
34	0xbece8550	-0.40336084
35	0xbe6fd368	-0.23420489
36	0x3cf1352f	0.029444305
37	0xbe546e3f	-0.2074518
38	0x3de25cb6	0.110528395
39	0xbdba7a27	-0.0910533
40	0xbd9e962b	-0.07743486
41	0x3dc95475	0.09830562
42	0x3d73c345	0.059512395
43	0x3dd09084	0.10183814
44	0x3e47f6e7	0.1952778
45	0xbc935fc5	-0.017990002
46	0xbea2fcfd	-0.3183364
47	0x3deb0294	0.11475101
48	0xbbe41812	-0.006960877
49	0xbb701ff9	-0.003664015
50	0xbd774efb	-0.060378056
51	0x3ddc08b2	0.10743846
52	0xbe320d34	-0.17387849
53	0x3eb1319b	0.34608158
54	0xbe07b9b3	-0.13254432
55	0xbdd1a73c	-0.102369756
56	0xbde42887	-0.111405425
57	0x3d05b34b	0.03264169
58	0x3d124ef2	0.03571982
59	0xbd225031	-0.039627258
60	0xbeb7c6dc	-0.35893905
61	0x3db38f31	0.08767546
62	0x3e2c5ca6	0.16832218
63	0x3e18899d	0.14896245
64	0x3e978e35	0.29600683
65	0xbd240374	-0.040042356
66	0xbcd8e1ca	-0.026474852
67	0x3cd18e4e	0.025580551
68	0x3d6082bd	0.05481218
69	0x3e1acb82	0.15116695
70	0xbd3c4359	-0.045962665
71	0x3dbd978b	0.0925742
72	0xbead20bb	-0.33814034
73	0x3db5e69c	0.08881876
74	0x3e05029a	0.12989274
75	0x3e53f05f	0.20697163
76	0x3ddecfb0	0.10879457
77	0x3e8bd1c9	0.2730849
78	0x3db8fdad	0.0903276
79	0xbe378ac9	-0.17924036
80	0x3d9bf88e	0.076157674
81	0x3e06ff1d	0.13183255
82	0x3e3e6363	0.185926
83	0xbc7c3ec5	-0.015395825
84	0xbd7c61b0	-0.0616166
85	0xbda6141f	-0.081093065
86	0x3d61076c	0.05493872
87	0xbd7b52a7	-0.06135812
88	0xbdbc59f8	-0.09196848
89	0xbe3b5ce8	-0.1829716
90	0xbd5b0788	-0.05347398
91	0xbd833937	-0.06407397
92	0xbe0cea57	-0.13761269
93	0xbd591332	-0.05299682
94	0xbe24ddff	-0.1610031
95	0x3d3dbe6e	0.046324186
96	0x3c86ea74	0.016469218
97	0x3e51d22d	0.20490332
98	0xbd4018af	-0.04689854
99	0x3d0d2af6	0.0344648
100	0xbd2cae7c	-0.04215859
101	0xbdbcfbe2	-0.0922773
102	0xbeafcba4	-0.34335053
103	0x3bbd95c5	0.005785676
104	0xbcd727ef	-0.026264159
105	0xbe07df27	-0.1326872
106	0xbe545db8	-0.20738876
107	0xbbceb8e3	-0.0063086613
108	0x3af7f778	0.0018918356
109	0x3da59d19	0.080866046
110	0xbca2a99d	-0.019856269
111	0xbe35546d	-0.17707987
112	0xbefe31e7	-0.49647447
113	0x3dce74a1	0.10080839
114	0xbe9d7ccc	-0.30759275
115	0xbe4812f1	-0.19538476
116	0xbc1a3aa8	-0.009413399
117	0x3e2fe17d	0.1717586
118	0x3ebe7fcc	0.37206876
119	0xbe256d72	-0.16155031
120	0x3ddf7d4b	0.109125696
121	0xbda5a045	-0.080872096
122	0xbe97cb2b	-0.29647192
123	0x3d42e367	0.04758015
124	0xbe7b1f38	-0.24523628
125	0x3dfb3b58	0.12267178
126	0x3d61384d	0.054985333
127	0x3ea5cb93	0.32381877
128	0x3e5eb16a	0.21747366
129	0xbe49ae98	-0.19695508
130	0xbea25838	-0.3170793
131	0xbea355c0	-0.3190136
132	0xbcc7368e	-0.024318006
133	0x3d446e74	0.0479569
134	0x3e213d2a	0.15745988
135	0x3d34c2fa	0.044131257
136	0x3df1fe37	0.11816066
137	0xbde00284	-0.1093798
138	0x3e331209	0.17487349
139	0x3e815aa7	0.25264475
140	0xbe7d6c0e	-0.24748251
141	0xbed8f0ec	-0.4237131
142	0xbead0f12	-0.3380056
143	0x3d00fff4	0.031494096
144	0xbd65d0d6	-0.056107365
145	0x3da0fbba	0.07860513
146	0x3e214206	0.15747842
147	0x3e55a480	0.20863533
148	0xbce10212	-0.027466808
149	0x3cad4f10	0.021155864
150	0xbdf41032	-0.119171515
151	0x3b5f92b5	0.0034114544
152	0x3daf65ee	0.085643634
153	0xbe7cd4df	-0.24690579
154	0xbe16604b	-0.1468517
155	0x3bf14c5c	0.007363839
156	0x3cf8e6e8	0.030383542
157	0x3d79fb73	0.061030816
158	0xbd8ce410	-0.06879437
159	0xbdb88f5a	-0.09011717
160	0xbe2b3073	-0.167177
161	0x3dd434f1	0.1036166
162	0x3d8db321	0.06918932
163	0x3e15821f	0.14600419
164	0x3d2c3484	0.04204227
165	0xbe373721	-0.17892124
166	0xbd0769ea	-0.033059992
167	0x3c9b0583	0.018923527
168	0x3de8b6b3	0.11362972
169	0xbc87edce	-0.016592886
170	0xbdac4aaa	-0.084126785
171	0x3e8fa867	0.28058168
172	0xbcff3bdb	-0.031156471
173	0x3e2a7beb	0.16648833
174	0x3d2a4839	0.041572783
175	0x3d650710	0.05591494
176	0x3dd286cf	0.10279619
177	0x3d9b9566	0.07596855
178	0xbe8dee4f	-0.27720878
179	0x3d333c17	0.043758478
180	0xbe029edc	-0.12755913
181	0x3cab8b28	0.020940378
182	0x3d449c53	0.048000645
183	0x3e35b522	0.17744878
184	0xbdabcffa	-0.08389278
185	0x3cb8f49d	0.022577578
186	0x3da653d4	0.08121458
187	0xbe681cfd	-0.22667308
188	0xbd3b4206	-0.04571726
189	0x3d7a0b18	0.061045736
190	0x3eb291dc	0.34876907
191	0xbe20d942	-0.15707877
192	0xbe597ef2	-0.21239832
193	0xbe50f766	-0.20406875
194	0x3df0d3a9	0.11759121
195	0xbea8f5ff	-0.3300018
196	0xbcc65b81	-0.024213554
197	0x3ea08aa9	0.3135579
198	0x3cfa355a	0.030543018
199	0xbe0c1f16	-0.13683733
200	0xbdde45e9	-0.10853178
201	0xbd987a06	-0.07445149
202	0xbe1b54aa	-0.15169016
203	0xbe4e6084	-0.20154005
204	0x3e634ff6	0.22198471
205	0x3e3d95c1	0.18514158
206	0xbe055333	-0.13020019
207	0x3d6364a0	0.055515885
208	0xbce50f11	-0.027961286
209	0x3db4c75a	0.08827086
210	0xbd4d814f	-0.050172146
211	0xbe07de59	-0.13268413
212	0x3ebb269b	0.3655289
213	0x3d3915bb	0.04518674
214	0x3e1cf9a4	0.15329605
215	0x3e59c523	0.21266608
216	0x3d847161	0.06466938
217	0xbdc84918	-0.097795665
218	0xbde6f13d	-0.11276481
219	0x3dc5047a	0.096199945
220	0x3e95e689	0.29277447
221	0xbd27f1a8	-0.041001946
222	0xbdc82025	-0.09771756
223	0x3e4161e8	0.18885005
224	0x3e2f8fcd	0.171447
225	0xbe7cf88c	-0.24704188
226	0xbe3b2bbe	-0.18278405
227	0xbcf5c489	-0.030000942
228	0xbdb1516c	-0.08658108
229	0x3e6e6b74	0.23283178
230	0x3ddc5ba5	0.10759667
231	0x3daaa3de	0.083320364
232	0x3df0ad0c	0.11751756
233	0xbdfb9d93	-0.12285914
234	0x3c0cb696	0.008588454
235	0xbe88172a	-0.26580173
236	0x3d11b122	0.035569318
237	0x3e37fd7e	0.17967793
238	0xbe8db1c9	-0.27674702
239	0xbe91ca62	-0.28474718
240	0x3d6e6732	0.058203883
241	0x3d83545a	0.06412573
242	0xbd134891	-0.035957877
243	0x3e53ff4b	0.20702855
244	0x3e962f01	0.29332736
245	0x3e1689ac	0.14700955
246	0xbe3f71d8	-0.18695772
247	0xbe16eea7	-0.14739476
248	0xbe3023cb	-0.17201154
249	0x3da5ec75	0.08101741
250	0x3de5e943	0.11226132
251	0xbe39a15d	-0.18127961
252	0xbdf07059	-0.117401786
253	0x3dd4840b	0.10376748
254	0x3df3e42a	0.11908753
255	0x3d1bb7ce	0.038017087

base.1linear.bias f4 [50]
0	0xbddae229	-0.10687668
1	0xbdd5f549	-0.10447175
2	0x3de2b180	0.11069012
3	0xbcf63a33	-0.030057048
4	0xbddf3979	-0.10899634
5	0xbc5c4397	-0.013443849
6	0x3dc53e4b	0.09631022
7	0x3ce5a547	0.028032912
8	0x3b9c6c7b	0.004773674
9	0xbda7cf80	-0.08193874
10	0xbdbda849	-0.092606135
11	0x3e0d4e61	0.1379943
12	0xbd5d1919	-0.053979013
13	0xbded543b	-0.11588331
14	0xbca34c93	-0.019933974
15	0x3d47824e	0.048708253
16	0x3dafc2f0	0.08582103
17	0xbbef2e37	-0.0072992104
18	0xbdc2ac23	-0.09505489
19	0xbd01b00e	-0.03166204
20	0xbe469230	-0.19391704
21	0xbb67ad38	-0.003535105
22	0xbd5215df	-0.05129039
23	0x3df5c9c6	0.12001376
24	0xbdd4fd64	-0.10399893
25	0x3dd20479	0.10254759
26	0x3dcf73c3	0.10129502
27	0x3d05f36a	0.03270284
28	0xbdcb5608	-0.099285185
29	0x3ccc6f0c	0.024955295
30	0x3d875ad8	0.06609124
31	0x3e0115e0	0.12606001
32	0xbd918b99	-0.07106704
33	0x3d2372fe	0.039904587
34	0x3d9c2c57	0.07625645
35	0xbe10096d	-0.14066096
36	0xbe01f406	-0.12690744
37	0x3c942249	0.018082755
38	0xbd91c4f4	-0.07117644
39	0xbddcb8a9	-0.10777409
40	0xbc80b517	-0.01571135
41	0x3e5485e5	0.20754202
42	0x3b431f48	0.0029773284
43	0x3dc9d514	0.098550946
44	0xbc2a6fbf	-0.010402619
45	0xbba9a2a0	-0.005176857
46	0x3d82bf44	0.06384137
47	0x3cad35be	0.02114379
48	0x3dcfe0c9	0.10150296
49	0x3cac0187	0.020996822

base.2linear.weight f4 [50, 50]
0	0xbe56df38	-0.20983589
1	0xbe3b67d5	-0.18301328
2	0xbd38769a	-0.045034982
3	0xbb1c034d	-0.0023805678
4	0xbde8893a	-0.11354299
5	0x3ccc95c9	0.024973767
6	0x3cb7a276	0.022416335
7	0xbc90fca7	-0.017698599
8	0x3e1e3b6c	0.15452355
9	0xbd439fbd	-0.04775976
10	0xbde0e4f2	-0.10981168
11	0xbc8b750b	-0.017023584
12	0x3d9904ce	0.074716195
13	0xbc85fb58	-0.016355202
14	0xbcd5aa17	-0.026082082
15	0xbc7c3721	-0.015394003
16	0xbd059981	-0.032617096
17	0x3d91d567	0.071207814
18	0x3cf6949e	0.030100163
19	0x3c094ac7	0.008379645
20	0xbdbb4289	-0.0914355
21	0xbc11e2c7	-0.008904166
22	0xbc538bda	-0.012911761
23	0x3da810f7	0.08206361
24	0xbe015e19	-0.12633552
25	0x3e0aab5d	0.13541932
26	0xbdae348b	-0.085061155
27	0x3c13f670	0.009030923
28	0x3e1941b6	0.14966473
29	0x3d1bcc93	0.038036894
30	0x3d8ae744	0.06782392
31	0xbe1da21a	-0.15393868
32	0xbd1e432d	-0.038638283
33	0x3d6cefe5	0.05784597
34	0x3db5d884	0.08879188
35	0xbe403238	-0.18769157
36	0x3e233f65	0.15942152
37	0xb8ddfecc	-0.00010585561
38	0xbe34790a	-0.17624298
39	0x3ea858b1	0.32880166
40	0xbe5b027c	-0.21387666
41	0xbe4e77ed	-0.20162936
42	0xbbbca67b	-0.0057571507
43	0xbe2f7081	-0.1713276
44	0x3e3ad4f2	0.18245295
45	0xba511c18	-0.00079769036
46	0xbe617d62	-0.22020486
47	0xbce97c00	-0.02850151
48	0xbe85f222	-0.26161295
49	0x3dc6c2db	0.097051345
50	0x3b466c34	0.0030276896
51	0xbdd0ff58	-0.10204953
52	0x3eb55864	0.35419
53	0xbab867d0	-0.0014069024
54	0xbe107cf1	-0.14110161
55	0x3e61ab81	0.2203808
56	0xbdc78c33	-0.09743538
57	0x3bd19b96	0.006396721
58	0xbe42812a	-0.18994585
59	0x3d32cda4	0.043653145
60	0xbce2a910	-0.027668506
61	0x3dabe72a	0.083937004
62	0xbcecee21	-0.028922142
63	0x3c885767	0.01664324
64	0xbd94cd70	-0.072657466
65	0x3db8294f	0.08992254
66	0x3ce089a3	0.02740938
67	0x3d5809ef	0.05274385
68	0xbe2e4109	-0.17016996
69	0xbcf0945e	-0.029367622
70	0xbe36d76a	-0.17855611
71	0xbd5bd09f	-0.053665753
72	0xbd84388d	-0.06456099
73	0x3ec29062	0.3800078
74	0x3e773258	0.24140298
75	0xbda9b6e9	-0.082868405
76	0x3e3b1b4d	0.18272133
77	0xbd26040b	-0.0405312
78	0xbca29ee4	-0.019851156
79	0xbc380fb9	-0.011234217
80	0x3e83d412	0.25747734
81	0x3db91fe2	0.09039284
82	0x3b8529b5	0.0040638098
83	0xbd0f4c1e	-0.0349847
84	0xbd34f4da	-0.04417882
85	0xbf13a680	-0.57675934
86	0xbf298552	-0.66219056
87	0x3daf1f2d	0.08550868
88	0x3e1eee01	0.15520479
89	0xbe3ca02c	-0.18420476
90	0x3e67119f	0.22565316
91	0x3f35dbf8	0.7103877
92	0xbbac2de4	-0.005254494
93	0x3e282449	0.16420092
94	0x3eb85ea5	0.36009708
95	0x3d87ae09	0.066249914
96	0x3e722c77	0.23649774
97	0xbd634b02	-0.055491455
98	0x3e51f0c6	0.20502004
99	0x3f02a82a	0.5103785
100	0x3df5b805	0.119979896
101	0x3dd84e7a	0.10561843
102	0xbe406b2e	-0.18790886
103	0xbade02ff	-0.0016938149
104	0xbe3a041b	-0.18165629
105	0x3e9a61de	0.30152792
106	0x3dfdf8e0	0.12400985
107	0xbca10db4	-0.019659854
108	0xbdc71ff3	-0.09722891
109	0x3c4d2be9	0.012522676
110	0x3cc12b87	0.023580326
111	0x3e7c84a5	0.24659975
112	0xb7c0a50e	-2.2965043e-05
113	0x3e6469c9	0.22305979
114	0xbce3d4ce	-0.027811434
115	0x3d8ecd2f	0.069727294
116	0xbd2aade2	-0.041669734
117	0x3cee7698	0.029109284
118	0x3da09f00	0.07842827
119	0x3ce0c8ab	0.027439436
120	0x3dc56724	0.09638813
121	0xbdd24ce7	-0.10268574
122	0x3df299cc	0.11845741
123	0xbd2a3585	-0.041554946
124	0x3bcc2897	0.0062304246
125	0x3d306d47	0.043072965
126	0x3d4e3fdf	0.05035388
127	0x3d12aefe	0.035811417
128	0x3eb91fe7	0.36157152
129	0xbd3c1020	-0.045913815
130	0xbe157a1d	-0.14597364
131	0xbe8fbd90	-0.28074312
132	0x3da9614d	0.08270512
133	0xbdad5b02	-0.08464624
134	0xbe387580	-0.18013573
135	0xbe485641	-0.19564153
136	0xbbcb6fa6	-0.006208378
137	0x3d4f6bd6	0.05063995
138	0xbd065973	-0.03280015
139	0x3d827a31	0.063709624
140	0xbe74d0d6	-0.2390779
141	0xbe8be9ce	-0.27326816
142	0xbc348078	-0.011016957
143	0xbe68daca	-0.22739711
144	0x3e8522ea	0.260032
145	0xbd978179	-0.07397742
146	0xbde5f48e	-0.11228286
147	0x3b10f564	0.002211892
148	0xbd92cd52	-0.07168068
149	0xbca12848	-0.019672528
150	0xbe33126f	-0.174875
151	0xbd27876c	-0.040900633
152	0xbceb2458	-0.028703853
153	0xbbaa44c1	-0.0051961844
154	0x3d8f3138	0.069918096
155	0xbe36e0ea	-0.17859235
156	0x3ea30ff5	0.31848112
157	0x3a0da2a9	0.00054029614
158	0x3e931f8e	0.28735012
159	0xbcb1e2c0	-0.021714568
160	0xbe40cb27	-0.18827496
161	0x3d987938	0.07444996
162	0xbd072bb5	-0.033000667
163	0xbd1c1989	-0.03811029
164	0x3e84af34	0.2591492
165	0x3e87767e	0.2645759
166	0xbcb32665	-0.021868894
167	0xbe225cb9	-0.15855683
168	0xbe1b8776	-0.15188393
169	0x3c617a0e	0.01376201
170	0x3e90ecfd	0.28305808
171	0x3de1f779	0.1103353
172	0x3dd0e6e1	0.10200287
173	0x3e2c846f	0.16847394
174	0xbda6794a	-0.08128603
175	0x3d498236	0.049196444
176	0xbc308688	-0.010774262
177	0xbddb22eb	-0.107000194
178	0xbd014322	-0.031558163
179	0xbba26e75	-0.004957015
180	0xbe27ac58	-0.16374338
181	0xbdd27870	-0.10276878
182	0xbeda5ae5	-0.42647472
183	0x3c79cf0c	0.015247118
184	0x3e715699	0.2356819
185	0x3eca9e41	0.39573863
186	0xbe4ffe41	-0.20311834
187	0xbdf16914	-0.1178762
188	0xbea500e4	-0.32227242
189	0xbe59f393	-0.21284322
190	0x3d9404be	0.07227467
191	0xbf031aaf	-0.5121259
192	0x3c05bd60	0.008162826
193	0xbdcf5346	-0.10123305
194	0x3e901c98	0.28146815
195	0xbdb467f5	-0.08808891
196	0xbe47ac31	-0.1949928
197	0x3ddd4c91	0.108056195
198	0xbe78fede	-0.24315974
199	0xbe8ccd41	-0.27500346
200	0xbcaad3d8	-0.020852968
201	0x3d884d97	0.06655424
202	0x3d1023fb	0.035190564
203	0x3dc558f8	0.0963611
204	0x3e83b7b6	0.25726098
205	0xbe6643f9	-0.22486867
206	0x3dcc046f	0.09961783
207	0x3bfb0f50	0.0076617375
208	0xbeabd77b	-0.33562836
209	0xbc8c6b48	-0.017141
210	0x3c934a51	0.017979773
211	0x3d0db3a3	0.034595143
212	0xbde3b390	-0.11118233
213	0xbdfba066	-0.12286453
214	0xbd0c31e6	-0.034227274
215	0x3cdbf7e5	0.026851604
216	0xbe4a5033	-0.19757156
217	0x3e503af9	0.20334996
218	0x3db05512	0.08609976
219	0x3e848de3	0.258895
220	0x3d96a8a4	0.073563844
221	0x3f124e57	0.5715079
222	0xbb10742d	-0.0022041902
223	0xbd7a9635	-0.061178405
224	0xbc7f2f3c	-0.015575226
225	0x3e1c7649	0.15279497
226	0xbd3cff14	-0.0461417
227	0xbdb7ab7e	-0.089682564
228	0xbc8d667e	-0.017260786
229	0xbd390e83	-0.045179855
230	0x3e82822d	0.2548994
231	0xbd8c70ea	-0.06857474
232	0x3bfae241	0.007656366
233	0xbdb5e7e8	-0.08882123
234	0xbcbbc31f	-0.02292019
235	0x3cef1dfd	0.029189104
236	0xbde4c27c	-0.111699075
237	0x3d5a1999	0.053247068
238	0x3d1a77a1	0.037711743
239	0x3e6078f0	0.21921134
240	0xbbd7be23	-0.0065839454
241	0xbdc72080	-0.09722996
242	0x3ecacff8	0.39611793
243	0x3decc49d	0.115609385
244	0xbdbac491	-0.09119523
245	0xbe2ad6fd	-0.16683574
246	0x3cdb7fc2	0.026794318
247	0x3e69d13c	0.22833723
248	0xbe3fdc22	-0.18736318
249	0xbe0f79b5	-0.14011271
250	0xbd26c1aa	-0.040712036
251	0x3e1131f4	0.14179212
252	0xbdab65ee	-0.08369051
253	0x3b7c824f	0.0038529818
254	0xbe13f1c7	-0.144477
255	0x3e262683	0.16225629

base.2linear.bias f4 [50]
0	0xbbce9436	-0.006304289
1	0x3e41ef6b	0.18938987
2	0xbd5666c4	-0.0523441
3	0xbe2584f5	-0.16164
4	0x3c6f782d	0.0146160545
5	0xbd2e6fd2	-0.04258711
6	0xbd224a9a	-0.039621927
7	0xbd346b79	-0.044047806
8	0xbd890359	-0.06690092
9	0x3ccda6b3	0.025103902
10	0xbb4d5ebf	-0.003133699
11	0xbcadd251	-0.02121845
12	0xbd642df8	-0.0557079
13	0xbc0013ed	-0.007817251
14	0x3c1d4caf	0.009600802
15	0x3b025aa5	0.0019890454
16	0xbdd24777	-0.10267537
17	0xbd1de538	-0.03854868
18	0xbd886658	-0.066601455
19	0x3d4f5da5	0.050626416
20	0xbd3cd08c	-0.046097323
21	0xbc872a15	-0.016499558
22	0x3d4417d1	0.047874276
23	0xbbe43b05	-0.0069650435
24	0x3d38a568	0.04507962
25	0x3cb35ecb	0.021895787
26	0x3e1ed7e0	0.15512037
27	0xbe742eef	-0.23846029
28	0x3e0d7e19	0.13817634
29	0xbd357cf9	-0.044308636
30	0xbcccc43c	-0.024995916
31	0x3d4c5164	0.049882308
32	0x3c2d8b86	0.010592347
33	0x3c6809e9	0.014162519
34	0x3cc6f763	0.024287885
35	0xbddeb315	-0.10874001
36	0x3d3ba41f	0.045810815
37	0xbde68c3d	-0.11257217
38	0x3d2c30f4	0.042038873
39	0x3d9da2fe	0.07697104
40	0x3d964449	0.07337243
41	0xbd89c97a	-0.06727882
42	0xbc4ff449	-0.012692519
43	0x3e5722e7	0.21009408
44	0xbe789e78	-0.24279201
45	0xbd38e98a	-0.045144595
46	0x3d6682f9	0.05627725
47	0x3c30cb0e	0.0107905995
48	0xbe0b33f5	-0.13594039
49	0xbda30ff0	-0.07962024

base.3linear.weight f4 [50, 50]
0	0xbde239f9	-0.11046214
1	0x3ef4fda1	0.47849753
2	0x3d0cb2bd	0.034350146
3	0xbed2d8fc	-0.4118117
4	0x3a301798	0.0006717383
5	0x3b31157d	0.0027020865
6	0x3ee9c4fa	0.45658094
7	0xbd327d97	-0.043576803
8	0xbef1e98a	-0.4724849
9	0x3e7867e0	0.24258375
10	0x3e1e7617	0.15474735
11	0x3c7e20ca	0.015510747
12	0xbe73cf09	-0.23809446
13	0xbc8f4380	-0.017488241
14	0xbe80acfd	-0.2513198
15	0xbe01ae8b	-0.12664239
16	0x3e8391ad	0.2569708
17	0x3ed5f0f6	0.417854
18	0xbe2394cb	-0.15974729
19	0x3cbdd1d0	0.023171335
20	0x3db7aaba	0.089681104
21	0xbac7b19c	-0.0015235427
22	0x3d9b208e	0.07574569
23	0xbd233c2e	-0.039852314
24	0x3c98ed9a	0.018667985
25	0x3d20db1c	0.03927146
26	0xbde1cac4	-0.110250026
27	0x3dc0a2e0	0.09406066
28	0xbe9ee476	-0.31033677
29	0x3d18569e	0.03719198
30	0xbd189678	-0.037252873
31	0xbe6b7e41	-0.22997381
32	0x3aaa8791	0.0013010373
33	0xbe56a586	-0.2096158
34	0x3d9ca183	0.076479934
35	0x3dc25bc2	0.09490158
36	0x3e651b75	0.22373755
37	0x3f3fcdb3	0.7492325
38	0xbbf1649a	-0.007366729
39	0xbea7521f	-0.3267984
40	0x3ae672cd	0.0017581821
41	0x3cda0487	0.026613487
42	0xbbe151b0	-0.006876193
43	0x3eb70ace	0.3575043
44	0xbc054501	-0.008134128
45	0xbd595622	-0.05306066
46	0xbe339473	-0.17537098
47	0x3e6ba36c	0.23011559
48	0x3d5d958a	0.05409769
49	0xbcbf827b	-0.023377648
50	0xbe032969	-0.12808765
51	0xbd90d4b7	-0.07071822
52	0xbd9cbe25	-0.07653455
53	0xbd2d60f8	-0.042328805
54	0x3b9f4e6f	0.004861645
55	0x3e0d60b4	0.1380642
56	0x3d97284c	0.07380733
57	0x3e3e19b2	0.1856449
58	0xbe338c7c	-0.1753406
59	0xbc9d654f	-0.019213347
60	0x3e0e5de3	0.13903002
61	0xbc367927	-0.011137283
62	0xbe9f3727	-0.31096765
63	0x3d16dc39	0.036831114
64	0xbdf65dc6	-0.120296046
65	0xbe93706e	-0.28796715
66	0xbde9efeb	-0.11422714
67	0xbe6d91f4	-0.23200208
68	0xbe85baa5	-0.2611896
69	0x3b5ee838	0.0034012925
70	0xbe8b94a5	-0.27261844
71	0x3af930a1	0.0019011685
72	0x3d9ca78c	0.076491445
73	0xbe62538e	-0.22102186
74	0xbdbe364d	-0.09287701
75	0xba2c923b	-0.00065830693
76	0x3eef025e	0.46681494
77	0x3dca9439	0.098915525
78	0x3cf230b4	0.02956424
79	0x3dac36bb	0.084088765
80	0x3e0a847f	0.13527106
81	0xbcfe3206	-0.031029712
82	0x3b100f8d	0.0021981925
83	0x3c6fdfbf	0.014640748
84	0x3e308ea8	0.17241919
85	0xbe334e79	-0.17510404
86	0xbd8f1561	-0.069864996
87	0x3ce1f6ee	0.027583566
88	0x3e8a8ff1	0.27062944
89	0x3b92357d	0.0044619427
90	0x3d62ac86	0.055340312
91	0xbd070172	-0.032960363
92	0xbc5c8289	-0.013458856
93	0x3ec6623b	0.3874682
94	0xbe1b30a5	-0.15155275
95	0xbdb37114	-0.08761802
96	0x3ef3830d	0.4756092
97	0xbb27520b	-0.002553108
98	0xbecc639b	-0.39919743
99	0xbe169a83	-0.14707379
100	0xbd89bb11	-0.06725133
101	0x3ec5a83d	0.38604918
102	0x3e29dbfc	0.16587824
103	0xbe927b1a	-0.28609544
104	0x3c39e6ba	0.011346513
105	0xbc081607	-0.008306033
106	0x3e0ef324	0.13959938
107	0xbdd108ff	-0.10206794
108	0xbdb18886	-0.08668618
109	0x3e0110b4	0.12604028
110	0x3e80af44	0.25133717
111	0xbd0f875f	-0.03504121
112	0xbdf1002d	-0.11767612
113	0xbaaf49d5	-0.0013373444
114	0x3cff1eda	0.03114264
115	0x3e3d5f7c	0.18493456
116	0x3c3e1bf2	0.011603342
117	0x3c680ca5	0.014163171
118	0xbea5efce	-0.3240952
119	0x3b03031a	0.0019990862
120	0x3e8c3b76	0.27389115
121	0x38f5296a	0.00011690224
122	0xbe411802	-0.18856815
123	0x3e883e05	0.26609817
124	0xbd40350b	-0.046925586
125	0x3cf57381	0.029962303
126	0xbd5d3d3c	-0.054013476
127	0x3d1f6931	0.038918678
128	0x3e3f464e	0.18679163
129	0x3cef717f	0.029228924
130	0x3eabeb7e	0.33578104
131	0x3e25cc7e	0.16191289
132	0x3b71eb0e	0.0036913785
133	0xbcf8cfb5	-0.03037248
134	0xbe1e4774	-0.15456945
135	0x3ce001a3	0.02734453
136	0xbc0ab26d	-0.008465392
137	0xbca21f62	-0.019790355
138	0x3d7f6ba3	0.06235851
139	0xbd9b7f71	-0.07592667
140	0xbdbd044d	-0.09229336
141	0xbd1fd642	-0.03902269
142	0xbca9c10b	-0.020721933
143	0x3f10cc1e	0.5656146
144	0xbe833f0d	-0.2563404
145	0x3d3ea500	0.046544075
146	0xbd5ad753	-0.053428005
147	0x3d043ec2	0.032286413
148	0x3d1130ac	0.035446808
149	0x3eb7e33b	0.3591555
150	0x3db0f621	0.08640695
151	0xbe1f274b	-0.15542333
152	0x3e9c290e	0.30500072
153	0x3f1a8795	0.6036313
154	0x3b8d0a85	0.0043042325
155	0xbd7d117e	-0.06178426
156	0x3d0ae849	0.03391293
157	0xbd83169c	-0.06400797
158	0x3e4ba3a7	0.19886647
159	0xbe0510d6	-0.12994704
160	0x3dc844fc	0.09778783
161	0x3d0a21ea	0.03372375
162	0x3e02b9b2	0.1276615
163	0x3c98d5a3	0.018656557
164	0xbe464374	-0.19361669
165	0xbb47e41c	-0.0030500954
166	0xbda88bb3	-0.082297705
167	0xbc0bd515	-0.008534689
168	0x3d7f1b28	0.062281758
169	0xbb261409	-0.0025341532
170	0x3d35c7f4	0.044380143
171	0xbbf5c3c4	-0.0075001437
172	0xbe7fba72	-0.24973467
173	0xbd71dc15	-0.059047777
174	0xbd846b58	-0.06465787
175	0xbc59fb90	-0.013304606
176	0xbd3f22ff	-0.046664234
177	0x3e0708ec	0.13186997
178	0xbb2578ee	-0.0025249082
179	0x3d6c2121	0.05764878
180	0x3d1c2e31	0.03812999
181	0x3db453d8	0.088050544
182	0xbc284361	-0.010269971
183	0x3d942772	0.07234086
184	0xbc22ac9c	-0.009928849
185	0xbde3a675	-0.111157335
186	0xbe3036f7	-0.17208467
187	0x3ceaa901	0.02864504
188	0xbe54535f	-0.20734929
189	0x3d5b4230	0.05352992
190	0xbbc920d2	-0.0061379457
191	0x3c820854	0.015873112
192	0xbd1e66c3	-0.03867222
193	0xbf11e4ed	-0.5698994
194	0x3e2ccf76	0.16876015
195	0xbd5690d1	-0.0523842
196	0x3d4d549e	0.050129525
197	0xbbd222ec	-0.0064128544
198	0xbe491ec3	-0.19640641
199	0x3debfb55	0.11522547
200	0x3cdb8167	0.026795102
201	0xbda4119b	-0.080111705
202	0xbe8ce257	-0.27516434
203	0xbdb9bdb8	-0.09069389
204	0xbba4c9ca	-0.005028938
205	0xbe26bfe4	-0.16284138
206	0x3dc61f78	0.09673971
207	0xbbbc3e90	-0.0057447627
208	0x3d2930e9	0.04130641
209	0xbe02315d	-0.12714143
210	0xbdc16426	-0.0944293
211	0x3d9b2a17	0.075763874
212	0xbe8b6390	-0.27224398
213	0x3bd3eaee	0.006467215
214	0x3e0a7236	0.1352013
215	0xbe57743c	-0.21040434
216	0xbe5907eb	-0.21194427
217	0xbe8fcac4	-0.28084385
218	0xbd25d276	-0.040483914
219	0x3c0f2069	0.0087357545
220	0xbea5c7fe	-0.32379144
221	0x3aabd473	0.001310958
222	0xbc7a24c2	-0.015267553
223	0x3db4f860	0.08836436
224	0xbbecf8c5	-0.007231804
225	0xbe1624f7	-0.14662538
226	0x3e3a3277	0.18183313
227	0xbca4d1da	-0.020119596
228	0x3e1796d2	0.14803627
229	0xbe2ad958	-0.16684473
230	0xbe9cf120	-0.30652714
231	0xbe80e4c0	-0.25174522
232	0xbbc4e628	-0.006008882
233	0x3e3c0c7f	0.18364142
234	0x3ef3bdec	0.47605836
235	0xbe3fe6a8	-0.18740332
236	0x3dcc6381	0.09979916
237	0xbe14e789	-0.14541449
238	0x3dd207c3	0.10255387
239	0x3c679c53	0.014136392
240	0x3dd138b9	0.10215897
241	0x3dad09c5	0.08449129
242	0xbc84a46b	-0.016191682
243	0x3dd00ff1	0.101592906
244	0x3d0f3abe	0.03496813
245	0xbd4cdb86	-0.05001404
246	0xbd15b8e8	-0.036553293
247	0x3e753045	0.23944195
248	0xbe041571	-0.12898804
249	0x3e28286f	0.16421674
250	0xbe3a9fac	-0.18224972
251	0xbdca994a	-0.09892519
252	0xbdfffbb6	-0.12499182
253	0x3e924581	0.28568652
254	0xbacc4867	-0.0015585542
255	0xbbaaa05f	-0.005207106

base.3linear.bias f4 [50]
0	0x3d01b618	0.0316678
1	0x3d6d0c57	0.057873096
2	0x3e12afa8	0.1432482
3	0xbdb0e5d2	-0.08637585
4	0x3db10aeb	0.086446606
5	0xbac050ba	-0.0014672496
6	0x3cbb5618	0.022868201
7	0x3d0c99ab	0.034326237
8	0xbd03e3cf	-0.032199677
9	0x3c7d6b8e	0.015467538
10	0x3df06bce	0.11739312
11	0x3da6bd8d	0.08141623
12	0xbc9a195b	-0.018810919
13	0x3d69874f	0.057013806
14	0x3d9c5e89	0.07635219
15	0x3da9f142	0.082979694
16	0xbcc702c7	-0.024293317
17	0x3d246538	0.040135592
18	0xbcbfa3c4	-0.02339352
19	0xba3a1707	-0.0007098768
20	0xbd1d676d	-0.038428713
21	0xbd9ee352	-0.07758202
22	0x3e3696bc	0.17830938
23	0x3db60979	0.088885255
24	0x3d9cbdab	0.07653364
25	0x3c939e1f	0.018019734
26	0xbb8d0592	-0.0043036425
27	0xbd388d9e	-0.04505693
28	0x3d1122fe	0.03543376
29	0x3aff6173	0.0019483998
30	0x3d58c9ff	0.052927013
31	0x3db507ea	0.088394
32	0x3c4203a9	0.011841693
33	0xbdb9a167	-0.09063988
34	0xbd89b44b	-0.06723841
35	0x3cbd6ae8	0.023122266
36	0x3ba11c0d	0.004916674
37	0xbda3b70a	-0.07993896
38	0xbd226219	-0.039644334
39	0x3ca88d48	0.02057518
40	0xbe01a780	-0.12661552
41	0x3d50288e	0.050819926
42	0x3a735aed	0.00092832634
43	0x3e16dd80	0.14732933
44	0x3da88457	0.08228367
45	0x3dcd4c2b	0.100242935
46	0xbccaf530	-0.024775118
47	0xbd8ec5d7	-0.06971329
48	0xbd7f3426	-0.062305592
49	0x3cff3e25	0.031157563

base.4linear.weight f4 [50, 50]
0	0xbdcdbc0a	-0.10045631
1	0x3d92d91f	0.07170319
2	0x3e4f5fd6	0.20251402
3	0xbe528635	-0.20559008
4	0x3d6f3fe2	0.058410533
5	0x3c586987	0.013208753
6	0xbdeebc5b	-0.1165702
7	0x3de368a1	0.11103941
8	0xbe8f05da	-0.27934152
9	0xbe61e3da	-0.22059575
10	0x3dd6dce2	0.10491349
11	0x3dac7b76	0.08421986
12	0x3d2c53c5	0.042072076
13	0x3dc69aad	0.09697471
14	0xbea692f6	-0.32533997
15	0x3e54e983	0.20792203
16	0x3e102c8a	0.1407949
17	0x3dc9d78d	0.09855566
18	0x3e06c7f0	0.13162208
19	0x3da56388	0.08075625
20	0x3c224149	0.0099032605
21	0xbce9ee1e	-0.028555926
22	0x3e0a1485	0.1348439
23	0x3e033cf6	0.12816224
24	0x3dc8d2c6	0.09805827
25	0x3e73066d	0.2373292
26	0x3ee116c8	0.43962693
27	0xbe869e16	-0.26292485
28	0x3da437e1	0.080184706
29	0xbe088089	-0.13330282
30	0xbc26b1d7	-0.010174236
31	0xbeb8831e	-0.36037534
32	0xbd8d860f	-0.06910335
33	0xbde057b8	-0.10954231
34	0x3e836c37	0.256685
35	0x3e2909be	0.16507623
36	0x3e9d7451	0.30752805
37	0x3e29e774	0.16592199
38	0x3dd3503b	0.10318037
39	0x3d4fc69a	0.05072651
40	0xbe851f69	-0.26000527
41	0xbb437ee0	-0.0029830262
42	0x3e0a29e7	0.13492547
43	0xbd09305d	-0.03349339
44	0x3e0394ac	0.12849683
45	0x3d5443a5	0.051822323
46	0x3e6c5deb	0.23082702
47	0xbd83f6c0	-0.06443548
48	0xbd20e521	-0.039281014
49	0xbcb0e795	-0.021594802
50	0xbd85a939	-0.06526417
51	0xbe24b1a8	-0.16083395
52	0xbe8d00f2	-0.27539784
53	0xbd3f23b9	-0.046664927
54	0x3cb3f4ec	0.021967374
55	0x3db4116e	0.08792387
56	0x3da19fe1	0.078918226
57	0x3da13101	0.07870675
58	0x3ce2589a	0.02763014
59	0xbd23525a	-0.03987346
60	0x3ca7f4bd	0.020502442
61	0xbd502e8f	-0.05082565
62	0xbc123b82	-0.008925321
63	0xbca6390c	-0.020290874
64	0xbedce2fb	-0.43141922
65	0x3e1358eb	0.14389388
66	0xbdce2f40	-0.10067606
67	0x3bce0026	0.006286639
68	0xbdeb3377	-0.114844255
69	0x3c43d571	0.011952744
70	0x3e56a097	0.20959698
71	0xbe7edd42	-0.2488909
72	0xbc951522	-0.018198553
73	0xbdf15231	-0.11783255
74	0xbeb5925a	-0.3546322
75	0xbd113e92	-0.035460062
76	0xbbb52fa6	-0.005529362
77	0x3eb2a461	0.34891036
78	0xbd1952ad	-0.03743236
79	0xbec04cfd	-0.37558737
80	0x3d98fdba	0.074702695
81	0x3ebf6d06	0.37387866
82	0x3eaf3e2c	0.3422712
83	0xbe6339ec	-0.22190064
84	0xbe6894fc	-0.22713083
85	0xbdfefa71	-0.12450112
86	0x3df95348	0.12174088
87	0xbe9b415e	-0.3032331
88	0xbe01865a	-0.12648907
89	0xbb0ee3fb	-0.0021803367
90	0x3e0d89ec	0.13822144
91	0xbdca3c80	-0.09874821
92	0xbd154a14	-0.0364476
93	0xbe59ea7d	-0.21280856
94	0xbe76a3f3	-0.24085979
95	0x3f11ed5b	0.570028
96	0xbd4cead3	-0.050028633
97	0xbdda6d8a	-0.10665424
98	0x3d4a8066	0.049438857
99	0x3e78f576	0.24312386
100	0x3e478120	0.19482851
101	0xbd99addb	-0.075038634
102	0xbddb7d62	-0.10717274
103	0xbd3f0551	-0.04663593
104	0xbd11a1e5	-0.035554785
105	0x3e9d2867	0.30694887
106	0x3d88fcaa	0.06688817
107	0xbd14bbb9	-0.03631184
108	0xbe1a96c2	-0.15096572
109	0xbc817d40	-0.015806794
110	0x3e2391d9	0.15973605
111	0xbedb820b	-0.42872652
112	0x3cf5ef13	0.030021226
113	0x3e825d2e	0.25461715
114	0xbd8af88f	-0.0678569
115	0xbe857cba	-0.2607172
116	0x3e666dbc	0.22502798
117	0xbe6f81d7	-0.23389374
118	0x3ed713e0	0.4200735
119	0x3c0047aa	0.007829586
120	0x3b41f130	0.0029593222
121	0xbe084803	-0.1330872
122	0x3e02d38c	0.12776011
123	0x3da3e1f9	0.08002085
124	0xbec62bac	-0.38705194
125	0x3dc203fe	0.09473418
126	0x3e6298e2	0.22128633
127	0x3d7b914e	0.06141787
128	0xbcb4dc6d	-0.022077763
129	0xbeacbcf8	-0.33737922
130	0xbd6fa282	-0.05850459
131	0xbc0e0bf3	-0.008669841
132	0x3ea2e952	0.31818634
133	0xbe25ca8a	-0.16190544
134	0x3e9e21e1	0.30885223
135	0x3c63a2f1	0.013893829
136	0x3ddb9871	0.10722435
137	0xbe9280c0	-0.28613853
138	0x3e5409f1	0.20706917
139	0x3cb05e7e	0.021529432
140	0x3ed04d9e	0.40684217
141	0x3e99c130	0.30030203
142	0x3d220010	0.03955084
143	0xbbaae472	-0.005215221
144	0xbe4a3363	-0.19746165
145	0x3ea8cd6a	0.32969218
146	0x3e26f893	0.16305761
147	0x3e3062bf	0.17225169
148	0x3e94eec0	0.29088402
149	0xbca0f36a	-0.019647319
150	0xbd842739	-0.06452794
151	0x3e902617	0.2815406
152	0xbe75f240	-0.24018192
153	0x3df53fa4	0.11975029
154	0x3e218cfe	0.1577644
155	0x3d797687	0.060904052
156	0xbe14638e	-0.14491102
157	0x3da97858	0.08274907
158	0x3ea5d7a8	0.32391095
159	0x3e3f0485	0.18654068
160	0xbe91c171	-0.28467897
161	0x3d816748	0.063185275
162	0x3dc1da36	0.094654486
163	0xbe5ad724	-0.21371132
164	0x3e85077e	0.2598228
165	0xbe539f9e	-0.20666358
166	0x3d8df33a	0.069311574
167	0xbd85e509	-0.065378256
168	0xbda47af5	-0.08031265
169	0xbd8dfebe	-0.06933354
170	0xbd5fe553	-0.05466206
171	0x3db7ca7b	0.08974167
172	0xbe8e3098	-0.2777145
173	0xbec9e5a0	-0.39433002
174	0x3e4f0fa9	0.20220818
175	0x3e329023	0.17437796
176	0x3e4cd77e	0.20004079
177	0xbec6fd56	-0.38865155
178	0x3c83d205	0.016091356
179	0xbbf1e470	-0.007381968
180	0x3d93c00f	0.07214367
181	0xbe12537e	-0.14289662
182	0xbe72a9c2	-0.2369757
183	0xbe205399	-0.1565689
184	0x3e904b6e	0.28182548
185	0xbe2129fd	-0.15738674
186	0xbcac7bad	-0.021055067
187	0xbb84905a	-0.0040455284
188	0xbdcf4f5c	-0.101225585
189	0xbd9f2c5b	-0.07772132
190	0xbdd36a31	-0.10322989
191	0xbe6fb9db	-0.23410742
192	0xbc2a0f13	-0.010379571
193	0x3d87dd20	0.06633973
194	0x3eaddba6	0.3395664
195	0xbe9efc03	-0.31051645
196	0xbe109932	-0.1412094
197	0xbe46736f	-0.19379972
198	0xbdaf4b97	-0.085593395
199	0xbe333a87	-0.17502795
200	0xbe38c936	-0.18045506
201	0x3e069975	0.13144477
202	0x3dd4841d	0.10376761
203	0xbe6317d2	-0.22177055
204	0x3e3e9a19	0.18613471
205	0x3ddc61da	0.10760851
206	0xbdc3c3a9	-0.095588036
207	0x3dd234f0	0.10264003
208	0x3e566454	0.2093671
209	0x3e4b3fe9	0.19848599
210	0xbd9c6c6b	-0.076378666
211	0x3eca1e0e	0.39476055
212	0xbce0508a	-0.027382154
213	0xbe20cdc2	-0.1570349
214	0xbd1b5c62	-0.0379299
215	0x3dea03f2	0.11426534
216	0xbd73c821	-0.05951703
217	0xbddb2480	-0.10700321
218	0x3e9beb43	0.30452928
219	0x3e1cb9d7	0.15305267
220	0xbd9b7c6f	-0.07592093
221	0x3d8d7a7a	0.06908126
222	0xbe51dd84	-0.20494658
223	0xbe1260e7	-0.14294778
224	0xbe81a70c	-0.2532276
225	0x3e412eb4	0.18865472
226	0x3cde126d	0.027108395
227	0x3e5691ad	0.20954008
228	0xbcee201d	-0.029068047
229	0x3d37e12a	0.044892468
230	0xbdffcbc2	-0.124900356
231	0x3df1edbf	0.118129246
232	0xbd31408c	-0.043274447
233	0xbe14c45b	-0.14528029
234	0xbcab2b77	-0.02089475
235	0x3db5afd9	0.08871431
236	0xbe1bf547	-0.15230285
237	0xbe976ebd	-0.29576674
238	0x3e403486	0.18770036
239	0xbe6c89f2	-0.23099497
240	0xbda0ff2e	-0.07861172
241	0xbda14b71	-0.078757174
242	0x3e1a3684	0.15059859
243	0xbc6bbb61	-0.014387936
244	0x3e4cb3dc	0.19990486
245	0xbd970e09	-0.07375724
246	0x3cb41bac	0.021985851
247	0x3dad734b	0.08469256
248	0xbe6782c8	-0.22608483
249	0xbbeebffc	-0.00728607
250	0x3eb9e248	0.3630545
251	0xbe316119	-0.17322196
252	0x3dfb98b5	0.12284986
253	0xbe71afe3	-0.23602252
254	0xbca56369	-0.020189004
255	0xbafb570f	-0.0019175726

base.4linear.bias f4 [50]
0	0x3c374663	0.011186215
1	0x3d59690a	0.05307869
2	0xbe09faee	-0.13474628
3	0x3ba6a40b	0.0050854734
4	0x3d942afd	0.07234762
5	0xbd1ad96c	-0.037805006
6	0x3ddd0523	0.107919954
7	0xbd66c140	-0.05633664
8	0x3d026368	0.031833082
9	0xbc420169	-0.0118411565
10	0x3dad550f	0.08463489
11	0x3d0fb4fd	0.035084713
12	0x3da1e2b1	0.07904566
13	0x3dfa3d22	0.122186914
14	0x3b6f4bf5	0.003651378
15	0xbd646c01	-0.055767063
16	0xbcd712e9	-0.026254134
17	0x3da34ccb	0.079736315
18	0xbd2d0000	-0.042236328
19	0xbd8f1072	-0.069855586
20	0xbd88863b	-0.066662274
21	0xbdc0922e	-0.094028816
22	0xbcd05e86	-0.025435697
23	0x3d547894	0.051872805
24	0x3d1751fa	0.036943413
25	0x3df62e10	0.120205045
26	0xbd2dc492	-0.042423792
27	0xbd96af2c	-0.0735763
28	0xbb7648bb	-0.0037579972
29	0x3aed1809	0.0018088828
30	0x3da05fc2	0.07830764
31	0x3cf5b724	0.029994555
32	0xbbd14635	-0.006386543
33	0x3cd89802	0.02643967
34	0x3c244c2c	0.010027926
35	0x3c9c95df	0.019114433
36	0x3d4194d5	0.047261078
37	0xbd60c565	-0.05487575
38	0x3cb6c2a9	0.022309618
39	0xbc8d11b4	-0.017220356
40	0xbbd9cb2c	-0.0066465344
41	0xbc19e4b8	-0.00939291
42	0xbd6f6c9c	-0.058453187
43	0x3cba6c56	0.022756737
44	0x3d009e39	0.031400893
45	0xbdf1e0f7	-0.11810487
46	0xbcab4a03	-0.020909315
47	0x3d0e2265	0.03470077
48	0x3d48ca47	0.04902103
49	0xbdc01790	-0.09379494

base.5linear.weight f4 [50, 50]
0	0x3ec27695	0.37981096
1	0xbc769e7a	-0.015052432
2	0xbd15c315	-0.036562998
3	0x3c4327d4	0.011911351
4	0xbe13395b	-0.14377348
5	0x3e02eb26	0.12785015
6	0x3dbd37ac	0.09239134
7	0x3d9d877d	0.07691858
8	0xbd55036c	-0.052005216
9	0xbe24451e	-0.16041991
10	0x3ddb8e09	0.107204504
11	0xbd4aa845	-0.04947688
12	0xbc764fa6	-0.015033638
13	0x3e7f7ce3	0.24949984
14	0xbe1156ea	-0.14193311
15	0xbbb08fd2	-0.0053882385
16	0xbd86283b	-0.06550642
17	0x3e82c909	0.25544003
18	0x3d94b88f	0.07261764
19	0xbea7ef0e	-0.32799572
20	0x3ead53c2	0.33852965
21	0xbe09b396	-0.13447413
22	0x3e6f7de8	0.23387873
23	0xbe0e5390	-0.13899064
24	0xbe19a9e9	-0.15006222
25	0x3e1c1c30	0.15245128
26	0xbde7045d	-0.11280129
27	0xbe934401	-0.2876282
28	0x3dae20cb	0.085023485
29	0x3e727cb3	0.23680381
30	0x3ccde3bb	0.025133004
31	0x3e34868f	0.17629455
32	0xbe90f111	-0.2830892
33	0x3c38dd6c	0.01128326
34	0x3e16816a	0.14697805
35	0x3a20f91b	0.0006140635
36	0x3bf7aa1a	0.0075581195
37	0xbd87923c	-0.06619689
38	0x3d21451a	0.03937254
39	0x3e208982	0.15677455
40	0x3dae4b07	0.08510404
41	0xbd36f527	-0.04466739
42	0xbf014329	-0.50493103
43	0x3e2ec4a9	0.17067207
44	0x3e3ebec9	0.18627466
45	0x3e96fa82	0.29487997
46	0x3eb7ae1c	0.35875022
47	0xbd9d769e	-0.0768864
48	0xbe937fbd	-0.28808394
49	0xbde13c04	-0.10997775
50	0xbdef9c0e	-0.11699687
51	0x3bbda7fa	0.0057878466
52	0x3de9f0cf	0.11422884
53	0x3d18a771	0.03726906
54	0x3db20034	0.08691445
55	0x3e49d105	0.19708641
56	0x3c59b943	0.013288799
57	0x3d44914c	0.04799013
58	0xbd1658e9	-0.036705885
59	0xbc4090c8	-0.011753269
60	0xbe2baf0b	-0.16765992
61	0xbeb76656	-0.35820264
62	0xbef52267	-0.4787781
63	0xbbd4fa4b	-0.006499564
64	0xbd0e67db	-0.034767013
65	0xbdc9209b	-0.09820672
66	0xbebd3206	-0.36952227
67	0xbe38b2cf	-0.1803696
68	0x3e393a04	0.18088537
69	0xbda77460	-0.08176494
70	0x3e2d337f	0.16914175
71	0x3bb6af76	0.005575116
72	0xbd2bd795	-0.041953642
73	0x3da5f373	0.08103075
74	0xbd682fb4	-0.05668612
75	0x3e1fc693	0.15603094
76	0xbe075f31	-0.13219906
77	0xbdd2b761	-0.10288883
78	0x3e728804	0.23684698
79	0xbd49b320	-0.049243093
80	0x3e397df8	0.1811446
81	0xbe28c42d	-0.16481085
82	0x3c7281ed	0.0148014845
83	0xbe238441	-0.1596842
84	0x3de8c6a1	0.113660105
85	0x3e144d59	0.14482631
86	0xbd1392c3	-0.036028635
87	0xbaa4a3a4	-0.0012560976
88	0x3de28597	0.110606365
89	0xbd9ea712	-0.0774671
90	0x3e0cbc9b	0.13743822
91	0xbe87dd6e	-0.26536125
92	0xbcbc6ae7	-0.023000194
93	0xbda7a9c9	-0.08186681
94	0xbd340743	-0.043952238
95	0xbe5bb640	-0.21456242
96	0x3eca4765	0.39507595
97	0xbe05c589	-0.13063635
98	0xbe3d2234	-0.18470079
99	0x3dc947e7	0.098281674
100	0xbd510228	-0.051027447
101	0xbead05bd	-0.3379344
102	0xbe96f9a4	-0.29487336
103	0x3d1d1880	0.038353443
104	0x3dbaf7a1	0.09129263
105	0xbe8e4074	-0.2778355
106	0xbd4c745e	-0.049915664
107	0x3e84caa7	0.2593586
108	0x3e4d7b31	0.20066525
109	0xbe29ed51	-0.16594435
110	0x3e2e58ca	0.17026058
111	0x3e2def31	0.16985776
112	0x3ea3a900	0.31964874
113	0x3efa2232	0.48854214
114	0xbe170327	-0.14747296
115	0xbdb0c502	-0.08631326
116	0xbe330588	-0.17482579
117	0x3eb54d24	0.35410416
118	0xbe507203	-0.20355992
119	0x3d534597	0.051580038
120	0x3e1c44ea	0.15260664
121	0x3debe1b7	0.11517661
122	0xbf008bc3	-0.5021326
123	0x3ecc2218	0.3986976
124	0xbe8bde42	-0.27318007
125	0x3ef0ae45	0.47007957
126	0xbe8fc5d5	-0.2808062
127	0x3de98504	0.11402324
128	0x3c8b8c31	0.017034622
129	0x3e6291b7	0.22125898
130	0x3df037a1	0.1172936
131	0x3ec07bf6	0.37594575
132	0x3db9e5f3	0.090770625
133	0xbdeda001	-0.11602784
134	0x3e0fdee3	0.14049868
135	0x3cf788f4	0.030216672
136	0x3d4e07af	0.050300296
137	0x3daba315	0.08380715
138	0x3dc03f0d	0.09387026
139	0x3dfd7823	0.1237643
140	0x3f1131c7	0.5671658
141	0x3e8c7489	0.2743266
142	0xbb95129e	-0.0045493385
143	0x3d294cd8	0.04133305
144	0xbdfb521f	-0.12271523
145	0x3ddd23a4	0.107978135
146	0x3ec05849	0.37567356
147	0xbed238ca	-0.41058952
148	0x3e303cbb	0.17210667
149	0xbdfe42c7	-0.124150805
150	0xbed1fbb6	-0.41012353
151	0xbd73ceb6	-0.059523307
152	0xbeb054ca	-0.3443969
153	0x3f13811c	0.5761888
154	0x3e18e822	0.14932302
155	0x3c191f67	0.009345866
156	0x3ec1215a	0.37720758
157	0xbc9cea44	-0.019154675
158	0xbf0490e3	-0.5178358
159	0x3ee3972b	0.4445127
160	0xbd453cd2	-0.048153706
161	0x3e74588c	0.23861903
162	0xbe20b512	-0.15694073
163	0xbef74692	-0.48296028
164	0x3d9cfc25	0.0766528
165	0xbdd00ff1	-0.101592906
166	0xbe454337	-0.19263922
167	0xbf1ae237	-0.60501426
168	0x3d8614ba	0.06546922
169	0xbe96ca72	-0.2945133
170	0xbda28fc1	-0.07937575
171	0x3d9f0f1c	0.07766554
172	0x3e328b31	0.1743591
173	0x3e865f98	0.26244807
174	0xbdcf861e	-0.10133003
175	0xbe86ca01	-0.26325992
176	0xbe8fabd7	-0.2806079
177	0x3eacaa4a	0.3372367
178	0x3ddd5129	0.10806496
179	0x3ddb4688	0.10706812
180	0x3ce8e255	0.028428236
181	0xbf17888d	-0.59192735
182	0xbe721a08	-0.23642743
183	0x3de77d9b	0.11303254
184	0xbbced996	-0.0063125594
185	0x3e2a40e6	0.1662632
186	0xbd13be5d	-0.036070216
187	0x3e4717fe	0.19442746
188	0x3ea37b31	0.31929925
189	0x3e563df8	0.20922077
190	0xbd9624b4	-0.07331219
191	0x3d278b81	0.040904526
192	0x3d1464bf	0.03622889
193	0xbde4ac97	-0.111657314
194	0xbe06cd0a	-0.13164154
195	0xbf2517b8	-0.64489317
196	0xbe0464f0	-0.1292913
197	0xbf1dc544	-0.6162913
198	0x3c10b6e3	0.008832666
199	0x3e0343c2	0.12818816
200	0x3d71bfe8	0.059020907
201	0xbc030eab	-0.007999103
202	0x3eb98522	0.36234385
203	0xbda9952d	-0.08280406
204	0xbdbff04f	-0.09372007
205	0x3d183b13	0.037165713
206	0xbe64d8da	-0.22348347
207	0x3c3e34d7	0.011609278
208	0x3dc7f37a	0.09763236
209	0x3d91675b	0.070997916
210	0xbe305987	-0.17221652
211	0x3e8ba453	0.27273807
212	0x3ce1450a	0.02749874
213	0x3e12f991	0.14353015
214	0x3db70400	0.0893631
215	0x3e2696f6	0.16268525
216	0x3e383fa1	0.17993023
217	0x3d2a818b	0.041627448
218	0xbe25228b	-0.16126458
219	0x3ea29434	0.31753695
220	0x3da046b7	0.07825988
221	0x3db63f6a	0.08898814
222	0xbd065b06	-0.03280165
223	0x3e20a842	0.15689185
224	0x3e9f67ec	0.31133974
225	0xbe8ab63c	-0.2709216
226	0x3c68b8d3	0.014204222
227	0xbd9b8336	-0.07593386
228	0xbeaa7004	-0.33288586
229	0xbb97a8d8	-0.004628282
230	0xbe97249f	-0.29520127
231	0x3d614cfb	0.055005055
232	0xbe55207b	-0.20813172
233	0xbde47b6d	-0.11156354
234	0x3d052bf4	0.03251262
235	0x3c230432	0.009949731
236	0x3cd74f06	0.026282798
237	0xbd5a8941	-0.05335355
238	0x3d31aa75	0.04337545
239	0x3d8a188f	0.067429654
240	0xbe1b717a	-0.15180007
241	0xbe1562e6	-0.14588508
242	0x3e85eadf	0.26155755
243	0x3db168c7	0.08662563
244	0xbc931bc8	-0.017957583
245	0x3c3a203b	0.011360223
246	0xbcaf0aed	-0.021367515
247	0x3e91a9e9	0.28449944
248	0xbe239285	-0.15973862
249	0xbdb55a4c	-0.088551134
250	0x3d915673	0.07096567
251	0xbc91c8e0	-0.01779598
252	0x3c82af18	0.015952632
253	0x3b4a2ad8	0.003084829
254	0xbd139969	-0.036034975
255	0x3dda46de	0.10658048

base.5linear.bias f4 [50]
0	0x3b2da511	0.0026496092
1	0xbd68e18c	-0.056855723
2	0x3e12d027	0.14337216
3	0xbe3cb84d	-0.1842968
4	0xbd54237d	-0.051791657
5	0xbc01350d	-0.007886183
6	0x3d8e9cf2	0.06963529
7	0x3c32ef59	0.010921323
8	0x3d22d367	0.03975239
9	0xbd96acf9	-0.07357211
10	0xbd438bfb	-0.047740918
11	0xbd1b168f	-0.03786331
12	0x3d4a442f	0.04938143
13	0xbde2792a	-0.110582665
14	0x3ac92eae	0.0015348995
15	0x3d464f01	0.048415188
16	0x3d5663a3	0.052341115
17	0xbe007261	-0.12543632
18	0x3cb02959	0.021504091
19	0xbcbf0537	-0.023317916
20	0x3c1538eb	0.009107809
21	0xbd27949d	-0.040913213
22	0xbc19d19b	-0.009388353
23	0xbc921ac3	-0.017835027
24	0x3d4750f8	0.048661202
25	0x3d638215	0.055543978
26	0xbdc23486	-0.09482674
27	0xbd90cb87	-0.0707007
28	0xbc14652b	-0.009057323
29	0x3c0b0bf1	0.008486734
30	0xbd59971a	-0.053122617
31	0xbdb79067	-0.089630894
32	0x3b949fad	0.0045356364
33	0xbb666ddb	-0.0035160694
34	0xbd1ce3ca	-0.038303174
35	0xbdc01efb	-0.09380909
36	0xbd87f8ff	-0.06639289
37	0xbd2394cc	-0.039936826
38	0x3d64fa2d	0.05590265
39	0xbcba82c7	-0.022767438
40	0xbd0e97a4	-0.034812585
41	0xbbe34dc7	-0.006936762
42	0xbd859584	-0.065226585
43	0x3d0e3d7b	0.0347266
44	0x3c656e85	0.014003401
45	0x3d2a0340	0.041507006
46	0x3d234107	0.039856937
47	0x3e1c596d	0.15268488
48	0xbe314bf1	-0.17314126
49	0x3d612032	0.054962344
